data/PrioritizedDDPG/Hopper-v2/prioritized_ddpg_s21624/pyt_save/model.pt (torch_old, 562755 bytes, 11 tensors)

weight f4 [256, 11]
00000000: 3927 bcbf ab5d f1bf 0c4d 3f3f b18e b13f
00000010: 2881 0b40 acdb 8abe 86b4 6e3f 3223 843f
00000020: 18ed 4ebe c083 c6be 296d c73e 4632 7dbf
00000030: 2f6b cb3f a6ec a240 dc9b d1bf 3567 f83e
00000040: afdd 23bf ab85 9f3f ffd9 afbf 4155 5b3f
00000050: 7be0 073f 3d78 883e 52ee d9bf 7078 f3bf
00000060: fc3c 053f 95a1 1740 4d15 53c0 e3c4 8f3e
00000070: 9d66 81bf e52a b83e 7054 44bf 7af5 053d
00000080: a723 2ebe 81f2 93be 164e 30c0 9262 9d40
00000090: 1676 5a40 de19 3b3e c218 1ebd ebcd 223f
000000a0: 57dc ecbf d4ee 0240 7e0b 523f bb67 9f3e
000000b0: 3a5c 13bf e7ed d4be 3300 f440 49d5 3740
000000c0: 6f38 36c0 bdae 20bf c2df bebf fb9f 27bf
000000d0: 37f3 c53d d15f 7d3e aafa ab3c 98c5 a7bf
000000e0: 9821 c7bf dd03 72bf 1c55 ed3e 54dd f13e
000000f0: ff51 933e b6fc c0bf 8792 4c3f cec0 34bf
00000100: dd7d d4be 1a6a f1be d719 4fbf 19d7 83c0
00000110: c950 45c0 89cb f7be 111b 723d 1c45 4c3f
00000120: d899 5fbe e19e bd3e 3d49 65bd d9f2 623e
00000130: 201a e9bb d3ff 01c0 c5a0 54c0 f8cd 17c0
00000140: baa9 a440 7802 d83f 0f4e 6bbf bd53 81be
00000150: 6323 1d3d 3e21 323e a259 783e 5b03 ea3e
00000160: f1f7 253f 72c0 7dc0 5bfe 9141 f03e 2f41
00000170: b833 0c3f 820c f6be 8130 413e 931b d9bf
00000180: eb46 0540 d973 ac3f 51e5 a0bd 3369 aabf
00000190: 0f65 9040 8e28 993f 7d00 e33f 7f6f e83f
000001a0: 137e 7abe 07bb c23f c016 893e ea69 13bf
000001b0: 7438 d7bd ab58 12bf c50c 85be 5469 dd3f
000001c0: 12ff af40 dfe8 ec3f 7d0d a3be cba8 a43f
000001d0: 0aa6 e53e ecc4 73bf fb18 1e3f 62f5 233f
000001e0: 24b6 6dbe ae90 93be f159 74c0 5236 b5bf
000001f0: 8dd5 8b3f 961a 2ebe 69a8 43bf eae5 923f
00000200: 1439 783f 0d05 58bf c5ef a53c 701e 343e
00000210: 1ee4 85bf e3f4 e9be d112 9dbf a260 98c0
00000220: adf6 c7bf 3f78 1c3f e059 8fbf 1c08 62bc
00000230: 1101 963e 2b0b b9bd 478a 0e3e fd3b 5abf
00000240: 8a9a 9ac0 fdb0 50bf 8b30 2abe c8dd 1ec0
00000250: 65e2 3ebf fec1 0bbf d680 3cbf d6cd 923e
00000260: b147 8a3f a24a 433e bdb2 4abf ce4f 9140
00000270: cfa7 21c0 71cd b5bf db70 933f 6230 9b3f
00000280: 7dd5 01c0 c2b6 813e 0b5a 29be 276f fe3d
00000290: f63f 0fbe ed45 00c0 e40f a440 5029 7ebf
000002a0: 4760 4abf 9daf 043f b146 9b3e a198 613f
000002b0: 8b3a 543f 7e0d b03e 9a47 483f 0333 e83d
000002c0: 714b 98bf 5844 2540 c014 113e 3f30 d33e
000002d0: 56da 2bc0 36bb ce3f e122 af3f df23 89bf
000002e0: dc18 463f 9436 5a3f 3a00 cbbb 8734 963e
000002f0: 2517 20c0 838d 5141 188e 1e41 0c18 bfbf
00000300: 3254 06c0 6cab d73d 6442 7bbf 72d8 823e
00000310: 97bc ac3e b861 5a3e 91d2 0ebe 232e f53f
00000320: 1af9 a23f 62ca f8bf 43ed e53d 55fe 27bf
00000330: 22fb cf3f 36be 86be f7b1 e9be 38d5 0bbe
00000340: 9a43 82bd f973 10c0 5dda ad3f 9659 eb3e
00000350: 4e9b 7a3d ef76 823e f3cb 7fbf 2c1a cebf
00000360: 8f24 dcbe 3f4f 1ebf 8556 a53e d8e5 42be
00000370: 9acb 51be 521e 9540 24c1 9140 f6d9 e73f
00000380: 691b 40c0 0a2f 893e cb3d 17be f0a1 24bf
00000390: dff3 783f 2546 b73e 6bad 3e3e eb66 93bf
000003a0: 28f1 80c0 a244 bfbe ac08 7040 ea45 e2be
000003b0: f356 f0be 3c09 0540 a542 043f b8b3 06bf
000003c0: d0c2 803e 1106 87bd 54b7 c4bf 5b98 813e
000003d0: 7deb 433e 086a 45c0 d646 343e 345d 9b3e
000003e0: 18d8 42be 2a55 633e eed3 67be 7214 46bf
000003f0: 9290 353e d465 3ebe c849 253f 3ff5 3c40
-1.469947 -1.885671 0.7472694 1.3871671 2.179758 -0.2712072 0.93244207 1.0323241
-0.20207632 -0.38772392 0.3895047 -0.98904836 1.5892085 5.0913877 -1.637569 0.4851624
-0.6401014 1.2462667 -1.3738402 0.8567696 0.53076905 0.26654235 -1.7025855 -1.902113
0.5204618 2.3692372 -3.298175 0.280799 -1.010944 0.35970226 -0.7669134 0.032704808
-0.17005788 -0.28895953 -2.754766 4.9182825 3.4134574 0.18271586 -0.03859783 0.63595456
-1.8504742 2.045827 0.82048786 0.31133828 -0.575626 -0.41587755 7.6250243 2.872393
-2.8471944 -0.6276663 -1.4912035 -0.65478486 0.0966553 0.24743582 0.02099355 -1.3107176
-1.5557127 -0.94537145 0.46353996 0.47239172 0.28773496 -1.5077121 0.79911083 -0.70606697
-0.41502276 -0.47151262 -0.80898803 -4.120007 -3.0830557 -0.48397473 0.059107844 0.7979295
-0.2183603 0.37035277 -0.05597805 0.22162952 -0.00711371 -2.0312393 -3.3223126 -2.3719463
5.1457186 1.6875753 -0.9191598 -0.252592 0.038363826 0.17395493 0.24252942 0.45705685
0.64831454 -3.964871 18.249197 10.952866 0.54766417 -0.48056418 0.18866159 -1.696154
2.0824535 1.3472854 -0.07856239 -1.3313354 4.5123363 1.1965501 1.7734524 1.8159026
-0.24462156 1.5213326 0.2677517 -0.5758349 -0.105088145 -0.57166547 -0.25986305 1.7297769
5.4998865 1.8508567 -0.31846228 1.2864012 0.4485324 -0.95222354 0.6175687 0.640463
-0.23214012 -0.2882132 -3.8179896 -1.4157202 1.0924546 -0.17002329 -0.7642885 1.1476414
0.96962094 -0.84382707 0.020255933 0.17589736 -1.0460241 -0.45694646 -1.2271367 -4.761796
-1.5622154 0.6112098 -1.1199303 -0.013795879 0.2929769 -0.09035333 0.13919936 -0.85247785
-4.8313646 -0.8152006 -0.1662008 -2.4822865 -0.745642 -0.54592884 -0.7363409 0.28672665
1.0803128 0.19071439 -0.7917898 4.540992 -2.5258672 -1.4203321 1.1518816 1.212414
-2.0286553 0.25334746 -0.16538255 0.124235444 -0.13989243 -2.004268 5.12694 -0.9928179
-0.7905316 0.51830465 0.3032737 0.8812352 0.8290183 0.34385294 0.78234255 0.11337855
-1.1898023 2.5822964 0.14168072 0.41247746 -2.6852012 1.6150882 1.3682519 -1.0714072
0.7738168 0.8523953 -0.0061950954 0.2933695 -2.5014126 13.097049 9.909691 -1.4929214
-2.0988889 0.10530743 -0.9814818 0.2555576 0.33737633 0.21326339 -0.13947512 1.9154705
1.273227 -1.9436762 0.11226895 -0.65622455 1.6248515 -0.26316994 -0.4564359 -0.13655555
-0.0636055 -2.2570784 1.3582264 0.45966786 0.061183266 0.25481364 -0.99920577 -1.6101737
-0.42996642 -0.6183967 0.32292572 -0.19032991 -0.20487824 4.659951 4.5548267 1.8113391
-3.001673 0.267937 -0.14769666 -0.64309597 0.9724712 0.35795704 0.18620841 -1.1515783
-4.029438 -0.3735705 3.7505293 -0.44193965 -0.46941337 2.0786886 0.5166419 -0.5261798
0.2514863 -0.06592954 -1.5368447 0.2531155 0.191328 -3.0845966 0.17605147 0.30344546
-0.19027746 0.22200456 -0.22639439 -0.7737495 0.1773093 -0.18593532 0.64565706 2.9524686

bias f4 [256]
00000000: 6d27 c3bf 5dab cabf 58d1 12c0 49d0 81bf
00000010: 65ed 48bf 7d49 34bf 462e 23bd 0fe9 f9bf
00000020: f306 d33e c657 ccbe c048 8dbf 5a19 c5bd
00000030: 00fb e6bf 41d7 a1bf 88df f2bf d912 efbf
00000040: 8226 abbf 0920 f23e 8373 773e 7afd eebf
00000050: a520 5dbf f5e1 47bf 6403 0dc0 91a9 64bf
00000060: 0128 023f 95a2 03bf 5460 bfbe ff8c adbf
00000070: 7c85 e9bf 6935 15bf 9138 1ebe 3c80 553f
00000080: 8a36 9cbe 513b db3d 2448 c9bf bc74 0dbf
00000090: 0eeb 8dbf 0593 53bf a8cb 52bd 7921 b3bf
000000a0: 7b71 d1bf 6e8c 79bf 7b14 46bd 5d76 93bf
000000b0: 2010 18bf c889 26bf 46b2 81bf 08ed 18c0
000000c0: 42c7 a2bf ea3f b0bf 782b 92bf 362d 81bf
000000d0: 6aaf 16bf 8bbe a3be e662 d3bf 4bc1 7d3f
000000e0: 3352 abbf df04 46bf ba84 06bf b9cb 09bf
000000f0: 8d86 3b3f 502d c1be 3354 05bf 586a 1dbf
00000100: 43f4 a1be 6489 f6be fb3c ecbe 608c c3bf
00000110: 2a0b b8bf e182 03c0 60c5 37bf 1b2a c5bf
00000120: 6093 bbbf 46f7 f03f 6668 05bf fc91 0cbf
00000130: d76d 02c0 b15e 89bf cb8d 1fc0 74c4 a3bf
00000140: ac7c 8d3e e20e 6dbf b059 87bf 67d0 0ebf
00000150: a831 a0bf e9e4 e1bf 9012 9e3a 7674 c03d
00000160: e197 c9bf a71e 71bf 3e6f edbf 8210 babf
00000170: e384 a93f de2f 45bf 7174 cebf ff47 55bf
00000180: a904 f0bf b8f6 31be 33c7 23c0 615e 33bf
00000190: c0bd 10c0 1d8a 96bf 7b1a 32bf 633e a2bf
000001a0: 6ae9 a6bf b93f 083e 31f2 aebf 6e80 aabf
000001b0: 30b5 48bf 8257 0cc0 f32b 7f3d c17a 4fbf
000001c0: 08d3 53bf 2733 87bf a0f9 203e 431a 2ebf
000001d0: d096 b0bf fc82 603e e6fa 4dbf a3c6 05c0
000001e0: d944 bdbf f639 08bf 5281 afbd c5d4 b5bf
000001f0: 58d4 48bf 9f66 9bbf d13f 37c0 9cb9 353f
00000200: f76b cbbf 54e5 90bf ac69 d23f 834b bfbf
00000210: c427 0ac0 ecbd 90bf 9602 36bf 3e27 f2bf
00000220: ca4a a83e f140 17bf c4f9 ecbf f385 313e
00000230: 63fe 1cbf 503f 7fbf c799 9bbf 6cf2 fdbf
00000240: 5512 8abf 00a1 91bf 8207 9dbf e42c 0abe
00000250: 1e42 91bf 0718 0ac0 4efd 07c0 a99d 9ebf
00000260: 64fb 0abf 3838 d2bf 15f2 f7bf 19f1 00c0
00000270: 90c1 17be b0b9 1dbf 274f 82bf db39 84bf
00000280: 6620 d6bf 7855 92bf ac84 d6bf 79ee ffbf
00000290: 0081 13c0 645e 3dbf 07cc abbf 26d9 aebf
000002a0: 9522 d2bf db1c a7bf 4ffd b9bf bbad 81bf
000002b0: 97b6 81bf 00ba 32c0 49b7 933f 1a50 bfbf
000002c0: 8793 9cbf 93ad b7bf 1e1a aabf 1a1a 44c0
000002d0: ee70 abbf b78d 08c0 245e ccbf a26c 83bf
000002e0: bc02 debf 5699 d2bd 68ce ecbf 7252 21c0
000002f0: ccd3 ddbf 3d23 b9bf feed 25be c1f4 88be
00000300: 5a70 a13e 9033 a6bd 3ea3 81bf 3cbe 41bf
00000310: 558b a03c eead a1bf ac63 8b3f 706f f8bf
00000320: 8a4b 64bf 9348 05c0 a772 06c0 45fb fbbe
00000330: 1d60 5abe 4bc6 04c0 aa99 1cbf 4507 e9bf
00000340: 0b38 dbbf c653 07c0 e2d0 babf d9c4 ba3f
00000350: 13aa 09c0 b459 06c0 7afb bebf 3e75 2b3e
00000360: d99d 2bbe 9797 1e3f f8ed 39bf 17dd 18bf
00000370: d87b 173f acb3 2b3f 8575 a2bf 61b8 e5bf
00000380: 439f c6bd 79c0 23c0 966d adbf c0ba c2bf
00000390: f917 c9bf c121 e6be 6d5f b2be 7822 e1bf
000003a0: 4774 c7be d107 eabf 33c9 bdbe 4ee5 99be
000003b0: 310c 51be 4f93 84be 3714 9abf 39a2 aa3e
000003c0: cacb 89bf 52a1 80be 8b06 ffbd 1561 20bf
000003d0: 214f 963e b60d 22bf 0f3c c73e 1f2f f3bf
000003e0: 26b4 b2bf bee3 87bf 48e9 92bf 9bef 82bf
000003f0: 205c 42bf bc36 acbf 9f2c f6bf f9db bebf
-1.5246407 -1.5833546 -2.2940273 -1.0141689 -0.78487235 -0.70424634 -0.03983905 -1.9524249
0.4121624 -0.39910716 -1.1037827 -0.09623976 -1.8045349 -1.2643815 -1.8974466 -1.8677627
-1.3371127 0.47290066 0.24165158 -1.8671105 -0.86377937 -0.7807916 -2.203332 -0.8932124
0.5084229 -0.51419955 -0.3737818 -1.3558654 -1.8243861 -0.5828462 -0.15451266 0.83398795
-0.3051036 0.10704673 -1.572514 -0.5525625 -1.1087358 -0.8264621 -0.051463753 -1.399459
-1.6362756 -0.97479904 -0.048359375 -1.1520497 -0.59399605 -0.6505399 -1.013253 -2.3894672
-1.2717059 -1.3769505 -1.1419516 -1.0091922 -0.5886141 -0.3198131 -1.6514556 0.99123067
-1.338446 -0.7735118 -0.52546275 -0.5382648 0.73252183 -0.37729883 -0.520816 -0.6149039
-0.3163167 -0.48151696 -0.46140274 -1.5277214 -1.4378407 -2.0548632 -0.71785545 -1.5403475
-1.465435 1.8825462 -0.52112424 -0.54910254 -2.037954 -1.0732023 -2.4930294 -1.2794328
0.2763418 -0.92600834 -1.0574245 -0.55786747 -1.2515154 -1.7647983 0.0012059975 0.09397213
-1.5749475 -0.94187397 -1.8549573 -1.4536288 1.3243679 -0.77026165 -1.6129285 -0.8331298
-1.8751422 -0.17379272 -2.5590332 -0.70065886 -2.2615814 -1.1760899 -0.69571656 -1.2675289
-1.3039982 0.13305558 -1.3667661 -1.3320444 -0.7840147 -2.192841 0.062297773 -0.8104668
-0.82743883 -1.0562485 0.15720224 -0.6800882 -1.3796024 0.21924967 -0.80460966 -2.0902488
-1.4786636 -0.5321344 -0.08569588 -1.4205557 -0.7844901 -1.2140692 -2.86327 0.7098634
-1.5892323 -1.1319985 1.6438498 -1.4944919 -2.158677 -1.130796 -0.71097696 -1.8918226
0.3286956 -0.5908347 -1.8513722 0.17336254 -0.61325663 -0.9970598 -1.2156304 -1.9839606
-1.0786844 -1.1377258 -1.2267916 -0.13493687 -1.1348302 -2.1577165 -2.1248355 -1.2391864
-0.5428984 -1.6423407 -1.9370753 -2.0147154 -0.14819932 -0.6161146 -1.0180405 -1.0330156
-1.6728637 -1.1432333 -1.6759238 -1.9994651 -2.3047485 -0.73972154 -1.3421639 -1.3660018
-1.6416804 -1.3055681 -1.4530429 -1.0131143 -1.0133847 -2.7926025 1.1540309 -1.494632
-1.2232522 -1.4349846 -1.328922 -3.064093 -1.3393838 -2.1336496 -1.596623 -1.0267527
-1.7344584 -0.10283153 -1.850049 -2.520657 -1.733026 -1.4463879 -0.16204068 -0.26749232
0.3153103 -0.081153035 -1.0127943 -0.756809 0.019597689 -1.2631204 1.0889792 -1.9409008
-0.89177763 -2.0825546 -2.1007478 -0.4921514 -0.21325727 -2.0746028 -0.6117197 -1.8205343
-1.7126478 -2.1144881 -1.4594996 1.4591323 -2.1510055 -2.099225 -1.4920495 0.16743943
-0.16759433 0.6195006 -0.72628736 -0.59712356 0.59173346 0.6707103 -1.2692114 -1.7946893
-0.096983455 -2.5586226 -1.3549068 -1.5213242 -1.5710441 -0.44947627 -0.3483843 -1.7588644
-0.389559 -1.8283635 -0.37067565 -0.30057758 -0.20414807 -0.25893638 -1.2037419 0.3332689
-1.0765316 -0.25123078 -0.1245242 -0.62648135 0.29357246 -0.6330217 0.3891301 -1.8998755
-1.3961227 -1.0616376 -1.1477442 -1.0229372 -0.7592182 -1.3454204 -1.9232367 -1.491088

weight f4 [256, 256]
00000000: db10 493c ce24 a3bd 6b32 ac3c 2ed5 0cbd
00000010: 9426 0a3d 30da e93b ed3f 973b aab9 783c
00000020: 9d5f 1d3c 4fd7 39bd fef6 0bbd de20 51bd
00000030: 847d 26bd 8bcb dfbd cb15 253d 56c8 82bd
00000040: 164f ab39 625e cb3c 8191 7dbb c17c cdbb
00000050: 6f4e 5cbd 7770 ddbc 51df 23bc a42c 0abd
00000060: 6715 9a3a 7bd6 87bd 8f81 c3bc 4427 85bc
00000070: ec3e 22bd 71df b33c 4631 80bb cbeb 44bd
00000080: 09b0 23bd 0b77 1a3d 7126 f13c 015c bd3c
00000090: d5e0 a6bd 03dd 5a3d c8a3 86bd 953f 17bc
000000a0: 9b9f 03bd 874b 063c c56a 44bd ebad 6dbd
000000b0: 7972 ee3b 2e1e c2bd 4f60 7f3b 39d4 fd3b
000000c0: 3553 3ebd 2371 0ebd 061c 693d 9b1e 8c3b
000000d0: b986 e0bc caa3 023d b820 9f3c 9f07 b5bc
000000e0: 778d 90bc a2ed 66bd aa09 d33b 34c4 83bd
000000f0: 2ad0 86bc 95a9 8ebd dfb3 50bb 4eff b2bc
00000100: 0bb3 e0bd df86 abbc 7af0 3ebc 49e9 913c
00000110: bf6f b5bb ebdd 22bd cf0c 9fbb e540 32bd
00000120: afb6 3ebd bb88 70bd 456c 6fbd c6f7 29bd
00000130: 848d 7ebd 8acf 4dbc dfac 8cbd 058d 68bb
00000140: 41fa aebb 2130 8fbd 2c14 64bd b64d f33c
00000150: 2c6e 2cbc 7012 a2bd 8c95 013d 1247 0f3d
00000160: f157 d2bc 3ed0 143d 1146 fdbc 85ef 4ebd
00000170: 17b1 09bd b231 d63c 6566 1f3c 5422 95bd
00000180: 1a11 52bd 3865 82bd 567b 11bc 9bad 1bbd
00000190: 0fca debc 6cbc e3bc 6429 683c 72a7 e13c
000001a0: f2de 84bd 6bed 92bc a951 84bd f995 b8bd
000001b0: 8e85 253c 4fad 9cbd 7917 313d 7e45 083d
000001c0: b2c0 073c 7cc7 ca3c e733 8fbd 5e75 2bbd
000001d0: 9e82 7f3b 3edc a3bd 49ef d63c 13c4 383d
000001e0: 8f29 8bbc 00d6 31bd 7ee8 b9bd 1a80 c33c
000001f0: f145 113c dcd2 15bc 6e5d 96bd 74ab 3cbd
00000200: ea12 e2bc 62ec 7b3c c309 a1bd edbc c0bb
00000210: 4b10 4ebc ecde adbc f94b d9bc 2859 d73b
00000220: 0b85 72bd fa59 a5bc d06b 573c 5dee 84bd
00000230: 22fd 86bc 7a68 453c a087 11bd cf6b fe3c
00000240: c822 86bd c0ee 36bd 2d38 35bd d372 b0bd
00000250: 4dee 77bd cc03 943b 1ea6 6b3d 92fc c5bc
00000260: da83 6fbd 4838 59bd f6e2 9dbd 32c8 2abd
00000270: a2c4 8e3b 44d3 0cbd f637 883c beeb 36bd
00000280: ed01 283c 2292 69bd 4126 2ebd 2ee7 0fbc
00000290: d362 bebc 1e4a 6e3c f6e5 bcbd 69b4 c73c
000002a0: 5518 3cbd 3e64 d83c 0c52 e93b 34b4 263c
000002b0: 4cd0 48bd ebf0 0e3c 5c3a 75bd 3972 a0bc
000002c0: 86b9 55bd 1966 a6bd 396a 92bd 1486 22bd
000002d0: 98c9 a4bd bbea 11bd 171c e6bb 529e 23bd
000002e0: 607b f0bc 0077 02bd 6c2e e93c d382 ec3c
000002f0: 6521 073d dd45 64bc 36d5 db3c 8e17 f3bc
00000300: 4499 223c 627c 933b 1449 613c 9e1a 293d
00000310: 4495 3fbd 2b9c 993b bc25 a3bc 29b3 45bd
00000320: 6293 b5bd a304 b3bc 5a2a b8bc f6cd e03b
00000330: fbfc 013d 682f e93b ace3 afbd 964f da3a
00000340: a5b0 73bd 7935 033d dc6f 8dbd c4aa 10ba
00000350: 353e 353c 4c2d 98bd b632 b9bc 2109 1e3d
00000360: 28ee a2bc 50e8 d33c 87c1 47bd 2001 103d
00000370: 8e55 0abc 4716 7abd fd65 96bd 890a a1bd
00000380: 3ebc 88bd 14df 45bd 05b8 33bd aee9 c63c
00000390: 24a5 063d efe4 74bd 7cc7 833c 9bd8 77bc
000003a0: adaf 243d cd72 3e3d 89ba bbbc 9fd5 6dbd
000003b0: 3758 82bd 6f66 ebbc ef7d 59bd 33a0 c1bd
000003c0: f3c7 2dbd 7c45 51bd 55ee 8bbc c027 66bd
000003d0: 2de2 e6bc 031d ffbb c563 d7bd 4c00 09bc
000003e0: d5bb c03c 043e aabc 732d 23bd 4343 333c
000003f0: a67b 6f3d 93bf d5bc de4a 9aba aee6 b4bd
0.012272085 -0.07966004 0.021020135 -0.03438299 0.033728197 0.0071366057 0.004615775 0.0151809845
0.0096053155 -0.04537135 -0.034171097 -0.051056735 -0.040647045 -0.109274946 0.040303987 -0.06385867
0.00032674585 0.024825279 -0.0038691463 -0.0062709753 -0.053785738 -0.027031166 -0.010001973 -0.03373398
0.0011755646 -0.06632706 -0.02386549 -0.016254075 -0.03961079 0.021957131 -0.003912124 -0.048076432
-0.039962802 0.037711184 0.029437276 0.02311516 -0.08148352 0.05343343 -0.065742075 -0.009231468
-0.032134634 0.008196718 -0.047953386 -0.05802719 0.00727683 -0.094784126 0.0038967317 0.007746246
-0.04646607 -0.034775864 0.05691149 0.0042761094 -0.02740799 0.031894483 0.019424781 -0.02209836
-0.01764558 -0.056378968 0.006440361 -0.06433907 -0.016456682 -0.06965939 -0.0031845493 -0.021850254
-0.1097165 -0.020938335 -0.011654014 0.017811434 -0.005537003 -0.03976242 -0.004853822 -0.04351892
-0.04656094 -0.058724146 -0.058452863 -0.04149606 -0.06214668 -0.012561688 -0.0686891 -0.0035484445
-0.005339891 -0.06991602 -0.0556833 0.029700141 -0.010524314 -0.07913673 0.03163676 0.034979887
-0.0256767 0.036331408 -0.0309172 -0.050521392 -0.03361615 0.026146743 0.009729003 -0.07281938
-0.05128584 -0.06366962 -0.008879503 -0.03800736 -0.027195958 -0.027799807 0.014170025 0.027545664
-0.06487836 -0.017935475 -0.06460888 -0.0901298 0.010102643 -0.076502435 0.043235276 0.033269398
0.008285688 0.024753325 -0.069923215 -0.041859977 0.0038987766 -0.08000992 0.026237147 0.045108866
-0.01698759 -0.043416977 -0.090775475 0.023864795 0.008866773 -0.009144511 -0.07342039 -0.046061948
-0.02759691 0.015376182 -0.0786319 -0.0058818967 -0.012577127 -0.021224461 -0.026525484 0.0065719076
-0.05920891 -0.020184506 0.013148263 -0.06490777 -0.016478125 0.012048835 -0.035529733 0.031057267
-0.06549603 -0.044661283 -0.044243027 -0.08615651 -0.060529996 0.004517054 0.05753147 -0.024168286
-0.058475353 -0.05303219 -0.07709305 -0.041694827 0.0043569366 -0.034381166 0.016628247 -0.044658415
0.010254365 -0.05702413 -0.04251695 -0.008783145 -0.023240482 0.014544038 -0.09223549 0.024378018
-0.045921642 0.026414987 0.0071203765 0.0101748 -0.049026772 0.0087244315 -0.05987011 -0.019585716
-0.052178882 -0.08124942 -0.071491666 -0.039678648 -0.080462635 -0.035624247 -0.0070223915 -0.039945908
-0.029355705 -0.03185177 0.028464518 0.028870976 0.032990832 -0.013932672 0.026835065 -0.029674318
0.009924237 0.0045009116 0.013750333 0.04128515 -0.04677321 0.004687806 -0.019915454 -0.048266564
-0.08866002 -0.021852797 -0.022481132 0.00686049 0.0317354 0.007116247 -0.08588347 0.0016655799
-0.059494633 0.032033417 -0.06906101 -0.000551861 0.011062195 -0.07430515 -0.022607189 0.038582925
-0.019888952 0.025867611 -0.048768546 0.035157323 -0.008443249 -0.0610564 -0.073436715 -0.078633375
-0.06676529 -0.048308447 -0.043876667 0.024281349 0.032872334 -0.05978864 0.016086332 -0.015127326
0.0402066 0.0464962 -0.022916095 -0.058065053 -0.06364482 -0.028735368 -0.053098615 -0.09454384
-0.042427015 -0.051091656 -0.017081419 -0.056190252 -0.02818402 -0.007785441 -0.105170764 -0.008361887
0.023527065 -0.020781524 -0.039838266 0.010941329 0.05846753 -0.026092326 -0.001177158 -0.08833061

bias f4 [256]
00000000: 81de 91bc 8a11 b53e fd27 65bd 7a88 cfbd
00000010: 62fd cbbf 3cbe 7bbd ffaf c7bc eede 96bd
00000020: f536 3fbf cfcb fc3b 8120 c8bf 7105 d8bc
00000030: f38b 41bf d93d 1cbd 709e 9cbd be97 8d3f
00000040: 953c ddbd 3e6e c73e 4c18 debe d26e 833c
00000050: fa09 d6bd 84f8 34bd 53be 01be edb1 e3bc
00000060: b60e c8bc d750 0fc0 0c67 8dbd 1b07 153f
00000070: d8cc 0fbb 8ae3 08bf 3a45 febc 8601 0bbf
00000080: 6092 b83f 7d07 34be 5328 8ebd 707b 01bd
00000090: 1bcf 39bd 4a7e e5bc 8872 55bd 6528 1fc0
000000a0: bef6 a5bc 24ac d6bd 15ae a0bd 9e83 983f
000000b0: 227f 863f 86f6 43bf fd67 783c aff3 4bbd
000000c0: 8c68 00bd 6dfa 5cbd 38f0 efbd 281f 523e
000000d0: 0c84 56be 9655 e7bf b26f e7be 1534 a1bd
000000e0: 9589 a6bd 4fc9 bfbd 2fff e5bf 3228 c9bd
000000f0: 8eec c2bd 7c36 cbbd 12d5 913e 4daf cdbf
00000100: 39a9 7d3c 3671 c33b 193d 71bc fad7 bbbd
00000110: 2619 acbc 0a94 febd 62fb aabd bf51 8cbb
00000120: 90a4 babd 4533 6abf 4183 04bc cddd 87bc
00000130: f202 93bd 34b5 c6bd fc28 6bbd 87c3 59c0
00000140: 2afc 14bd 7fe5 fabd 1880 82be da62 85bd
00000150: e75b 97bd b925 0abd 4185 5abd 6295 64bd
00000160: fc2a 44bf 8da9 7fbd 937e b0bd 87ef 15bd
00000170: 5fdd 443f 0afb a9bd 047b ddbd 6124 b7be
00000180: b03d 6bbd 2522 c4bd 8273 f3bd ae8f 8fbd
00000190: 0858 c43d a38d b9bf 310a cfbd 341c 62bf
000001a0: b3ba d2bd f7be 8ebd 1933 37bd ab8d a9bd
000001b0: 2f8a 08be 7629 e9bd b225 3d3e ae6f 86bd
000001c0: 3927 46bc f99d c43f a20a cbbd 8f90 63bd
000001d0: ae2c 8abd 2751 ed3e 2183 69be 7619 a2bd
000001e0: 2b2e 1cbf fc3c d3bd aa76 e8be 02e9 a4bd
000001f0: e7ce 1c3f a038 cebd d569 80bd 9d43 0cbe
00000200: 2c5c 85bd 0c23 7cbc 4f23 e4bd 511d a4bd
00000210: 5b1e 24be 6f54 2f3f 6311 d6bc 86b2 92bd
00000220: 0db2 f3bd 5626 efbd fbaa a1bf 9c1c 05bd
00000230: fa90 02be b901 6bbd dde0 40bd 2397 04bd
00000240: 1abf ebbd a42f 45bd 4c81 d23e b612 7cbd
00000250: abc2 45bf 1680 29be 75dd 69bc 0a85 4e3e
00000260: 4213 d6ba 2703 a7be a8cb 4ebf 0f25 85bd
00000270: 0fe7 6cbc 9d98 173f c0b9 08c0 6294 15be
00000280: 25e8 693c fde4 adbe 89ab 27be 8b21 19bd
00000290: 3d69 44be 73b7 5dbc e421 c4bd 6064 dbbc
000002a0: 876a 7abd bdce 383f e064 b7bb ef40 c5bf
000002b0: 30ea 93bd 5a4f 49bf 1732 ea3d 5b39 15bd
000002c0: 4393 f9bd efd0 eabc 0dfc a2ba f140 af3f
000002d0: 468d 7c3c 7d80 80bd 2eb7 6fbd 68f8 e2bc
000002e0: 2997 dabd f95d 35bf 9046 2dbf 11e3 a0bd
000002f0: a47d 8d3c 0ced 0dbd 5fc5 acbc 4f12 5cbd
00000300: 8340 acbe 01ea 8cbb 4382 883f a4e5 a2bf
00000310: 8e47 dc3a afe9 cdbd b541 abbc 8400 a3bd
00000320: 2e49 2d40 3011 cfbd 13f4 28bd 748e dbbd
00000330: a983 cfbd 61ca 30c0 9243 62bf a4ba 3dbc
00000340: cc0b aebd b9b9 c6bd 1fac 57bd ec53 26bc
00000350: f7a5 ddbd 3a84 5cbd e1fd 803f 185e a8be
00000360: 5bee 6bbf ebfc 203a 92af 61be d63f 9dba
00000370: 3d51 7cbd bb18 043b 5253 0cbd 1ec9 e1bd
00000380: dd95 14bd 034b b4bd f3bf b2bc 2553 b2bd
00000390: b438 04be 9966 c6bf 3e13 85bd 9a20 63bd
000003a0: a9e1 a8bd bb88 9cbd f0b2 c1bd e29f 67bd
000003b0: 7914 78bc db24 e0bd 7018 b5be 0007 82bf
000003c0: 058f e2bd 2d24 00be 48c3 e0bf 6311 dabd
000003d0: de0b f4bd 43f3 eebd 948d 0c3f d0c2 44be
000003e0: 2e6b 56be 7457 9bbc 7315 62bd 40ac 99bd
000003f0: 5d8f c4bd 7e1e adbc e2bd b93f c24d 5bbf
-0.017806293 0.35364944 -0.05594634 -0.10133453 -1.5936701 -0.06146072 -0.024375914 -0.07366739
-0.7469323 0.0077147256 -1.563492 -0.026369782 -0.7560417 -0.03814492 -0.07647407 1.1061933
-0.10802571 0.38951296 -0.43377912 0.016044054 -0.10451122 -0.044182315 -0.12670259 -0.027794803
-0.024421077 -2.239309 -0.0690442 0.5821397 -0.0021942165 -0.534722 -0.03103887 -0.542992
1.441967 -0.17580982 -0.06941285 -0.03161186 -0.045363527 -0.02801432 -0.05211118 -2.4868405
-0.020259257 -0.10482052 -0.078457035 1.1915166 1.0507548 -0.7654804 0.0151615115 -0.04979294
-0.031349704 -0.053949762 -0.1171574 0.20519698 -0.2094881 -1.8072994 -0.45202404 -0.07871262
-0.081317104 -0.093645684 -1.7968501 -0.0982212 -0.095177755 -0.099225014 0.28482872 -1.6069123
0.01548224 0.0059644235 -0.0147240395 -0.09172054 -0.021008085 -0.1243058 -0.08348729 -0.004282206
-0.09113419 -0.9148448 -0.008087934 -0.016585255 -0.07178296 -0.097025305 -0.057412133 -3.402559
-0.036373295 -0.12250804 -0.25488353 -0.06512995 -0.07390576 -0.03372738 -0.053349737 -0.055806525
-0.7662809 -0.062417556 -0.08617892 -0.036605384 0.76900285 -0.08299835 -0.10814479 -0.35769942
-0.057431877 -0.09576825 -0.11887266 -0.070098266 0.09587103 -1.4496349 -0.10109366 -0.88324285
-0.10289516 -0.069700174 -0.044726465 -0.08278974 -0.13333963 -0.11384861 0.18471411 -0.0656427
-0.012094312 1.536071 -0.099141374 -0.055557784 -0.06746803 0.46350977 -0.22803928 -0.079150125
-0.61007947 -0.10314366 -0.45403033 -0.08052255 0.6125321 -0.10069394 -0.06270186 -0.13697667
-0.06511721 -0.015389215 -0.11139547 -0.08013404 -0.16027205 0.6848821 -0.026131338 -0.07162957
-0.11899195 -0.11677234 -1.2630304 -0.032497987 -0.12750617 -0.05737469 -0.047089446 -0.032370698
-0.11511059 -0.048141137 0.4111427 -0.06154128 -0.77250165 -0.16552767 -0.014273991 0.20167938
-0.0016332644 -0.32619593 -0.80779505 -0.06501209 -0.014459386 0.59217244 -2.1363373 -0.14607385
0.014276539 -0.33963767 -0.16374029 -0.037385505 -0.1918077 -0.013532507 -0.095767766 -0.026781261
-0.06113675 0.7219046 -0.005596742 -1.5410441 -0.07222402 -0.78636706 0.11435335 -0.03643165
-0.12186291 -0.02866408 -0.0012434736 1.3691694 0.015414542 -0.06274507 -0.058524303 -0.02770634
-0.10673363 -0.70846516 -0.67685795 -0.078558095 0.017271824 -0.034649894 -0.021090208 -0.053728398
-0.3364297 -0.0043003564 1.0664753 -1.2726331 0.0016805993 -0.10054337 -0.020905355 -0.07959083
2.7075915 -0.101107 -0.041248392 -0.1072053 -0.10132534 -2.7623522 -0.88384354 -0.011580143
-0.08498344 -0.097033925 -0.05265438 -0.0101518445 -0.10822671 -0.05383704 1.0077478 -0.32884288
-0.92160577 0.00061412033 -0.22039631 -0.0011997174 -0.061600912 0.0020156342 -0.034259148 -0.11024688
-0.036275733 -0.0880337 -0.021820044 -0.08707265 -0.12912256 -1.550006 -0.06497811 -0.055451013
-0.08246166 -0.07643267 -0.09457958 -0.05654896 -0.0151416 -0.109445296 -0.35370207 -1.0158386
-0.11062435 -0.125138 -1.7559595 -0.106478475 -0.11916326 -0.11667492 0.5490353 -0.1921494
-0.20939323 -0.0189626 -0.055196237 -0.07503557 -0.09597657 -0.021132704 1.4511073 -0.85665524

weight f4 [3, 256]
00000000: a1c6 493d c9a4 f13d eac7 17bd dc55 923c
00000010: a3ee dabc 4b31 59bd e0f5 30bc 37e9 a53d
00000020: d613 22be 36e9 04bc 871b 95bd d2a7 6dbd
00000030: a273 4b3f ae56 f3bc a01a cc3a 2b51 f9be
00000040: 8208 e33c 8ecc d9bd 6fb7 a1be 20ab 763d
00000050: 1c05 4dbc e7ca ac3d 067f cdb9 b0f1 2a3d
00000060: 76a3 a33d 7e31 383c fac8 0e3d e952 a83e
00000070: 9ece ac3c 083e 86bd 2e3f 443d 4e6c 6c3e
00000080: 67fb 0dbe d74c debc 1225 133d 4c5f 503d
00000090: d218 863d ef2e ba3d 86a7 04bd f30d 71be
000000a0: cb36 db3c 7329 e83c 99dd 5f3d 681a 293d
000000b0: a6f0 79be c6a0 b53e 0be7 2dbc 6001 91bc
000000c0: af42 d23c 8349 dc3c dabf e7bc 91bf 423e
000000d0: ad41 0d3f 350e 6bbf 380d 463f 5671 8d3d
000000e0: 8aa0 a03c b927 5b3d 5a30 7cbd f8d2 af3c
000000f0: 784f 13bd e829 a53d 52d0 41bd ea1d 14bf
00000100: 9344 813d f9a3 2a3d 3478 c53c cb20 a73c
00000110: ef32 713d 830f 8d3d d62d 633d 9bb4 b5bc
00000120: b2db 9e3c dffc c4bc 6a0f bb3c fe77 d83c
00000130: 01dd 8d3d d41a b33c d794 c5bc 8c74 913c
00000140: 6809 203d a0b4 6ebc 4d1b e63d 692b d03c
00000150: 0fbc 903c d9cc 7a3c 3a5f 5b3d c57f 733e
00000160: 5092 60bf 8be4 f6bb cff1 0940 6a69 943d
00000170: e6da 0b3e 5133 3c3d 2c08 01bd fdf0 9cbe
00000180: 968a 9c3b 614c 6dbb 7491 c83c 1a99 1a3d
00000190: 3e20 363d c45f ce3d f538 393c 90b0 6a3b
000001a0: a159 f53c 114a 5cbd afcd f73c 9bf1 9f3d
000001b0: bf74 2a3c df24 a8ba eb6d 273e 1ddc 673d
000001c0: 2b38 433d e301 a53e ee36 7ebc 0119 a6bc
000001d0: 1fbf e1bc b399 bb3e 7153 673d f8e7 a739
000001e0: 66b3 52be ac83 90bd 8349 413c 35a4 9e3c
000001f0: d82b 73bd dbff ca3c a225 d13c 1ad3 4bbd
00000200: 9172 f0bc 35be 6a3d eaa9 72bd 1b3c d43b
00000210: b40b 2ebc e4ac 14be 9ca8 213d e0f3 c13c
00000220: 4a8e 383d 551c d0bc f3c7 3fbd 60c2 5cbd
00000230: ceab efbc 5ca9 2e3d f712 a23d 3ac2 233d
00000240: 648b cd3a 2513 04bc 917e 673e 37cb d33c
00000250: 5fa4 093f 7aab 8f3b a9a9 033d b4c0 72be
00000260: c18d 673d 5c92 2f3d 8345 d23f ce4c 93bb
00000270: 20b4 3839 2203 42bd 0d5d e93c 9dcc 433c
00000280: b0c3 a73d 7831 3f40 84b2 993d 1ff1 99bc
00000290: 19d6 e23d d005 de3c 9267 a83c 0683 cdbc
000002a0: 0767 583c ee91 8d3e f69d 11bd 35e2 6a3c
000002b0: 4170 533d 36e7 103d 203c 463a c083 22bb
000002c0: e333 58bd c95c 623c 3bea 523c ace4 a9bd
000002d0: a737 4d3d 6222 4f3d 3b99 d13a 071c 913d
000002e0: 44ab 353d c8d5 cd3e 0760 3b3d e90d bbbb
000002f0: 438b 873d 33df 723d f8c8 4e3d 6e83 2fbb
00000300: c520 4d3d fd27 8b3d a269 e4bd e2c9 553e
00000310: 0f6d 1abd 9e70 823d 7d0f 2f3c 8f23 c43c
00000320: 1771 64bd 2d6d e13c 13e9 7dbc 21b6 0c40
00000330: 1de7 39bd 4777 cf3c bb0d 1fbe 8a05 c0bb
00000340: 9108 1e3d 22e5 e93c 95f8 993c faf7 7a3b
00000350: 4472 a5bc a74b 4b3d b988 3abe 5c84 8dbd
00000360: d5d7 eebd b768 27bb d08c ac3d 8aed 913d
00000370: d6f3 583d 562d 743d 1900 dcba fd53 fc3c
00000380: 6119 7c3d c2ef 043d 7fb4 a8bc 0004 2d3d
00000390: ccd6 86bd fb2a a4bc dc85 563d c4f8 143c
000003a0: c524 753b 9323 883d c475 94bd 34cc 30bc
000003b0: 22b4 ad3d a38c 5dbd 41e0 f73e 26ac 923d
000003c0: 9578 5f3d 4e9c 463d 1585 4cbd deb8 393c
000003d0: 8e14 e43c 2192 2b3c 5446 8a3c 0f48 f73e
000003e0: eb00 6d40 0d00 503c f8b1 023d abdd 243b
000003f0: b484 a63d 832c b2bc 165f d73e ff53 d4bd
0.049261693 0.117990084 -0.037055887 0.017863207 -0.026725119 -0.053025525 -0.010800809 0.08101123
-0.1582788 -0.008112242 -0.07280641 -0.058021374 0.79473317 -0.029704418 0.00155719 -0.4869474
0.027714018 -0.10634719 -0.3158526 0.06022179 -0.012513425 0.08437138 -0.00039195287 0.041734397
0.07990162 0.011242269 0.034859635 0.32875755 0.021094617 -0.065548 0.047911815 0.2308819
-0.13865434 -0.02713625 0.035924025 0.050872132 0.06547703 0.09090983 -0.032386325 -0.23540477
0.026759526 0.028340077 0.05465469 0.04128495 -0.24408206 0.35474223 -0.010614167 -0.017700851
0.025666563 0.026890522 -0.028289724 0.1901839 0.5517834 -0.91818553 0.7736392 0.06906383
0.019607801 0.05350468 -0.06156955 0.021462902 -0.03596446 0.080646336 -0.04731781 -0.57858145
0.063119076 0.041660283 0.024105169 0.02040138 0.058886465 0.06887724 0.055463634 -0.022180846
0.019391868 -0.02404636 0.022834498 0.026424404 0.06926919 0.021863379 -0.024118824 0.01775577
0.03907147 -0.014569432 0.11235676 0.025411325 0.017667798 0.015307629 0.053557612 0.23779209
-0.87723255 -0.0075345687 2.1553838 0.07246669 0.13657722 0.045947377 -0.031501934 -0.3065261
0.004777263 -0.0036208855 0.02448342 0.037743665 0.044464342 0.100768596 0.0113050835 0.0035810806
0.029949965 -0.053781573 0.030249445 0.078097545 0.010403811 -0.0012828371 0.16350524 0.0566064
0.047660988 0.32228002 -0.015516026 -0.020275595 -0.027556954 0.366407 0.05647606 0.00032025552
-0.20576248 -0.070563644 0.011797312 0.01936541 -0.059367985 0.024780205 0.02553064 -0.04976187
-0.029351505 0.0573103 -0.059244074 0.0064768917 -0.010622907 -0.14519078 0.03946744 0.023675859
0.045057572 -0.025404135 -0.046821546 -0.053896308 -0.029256728 0.042641982 0.079137735 0.03998015
0.00156818 -0.008061205 0.22606875 0.025853736 0.53766435 0.0043844553 0.032144222 -0.23706323
0.05653167 0.04286419 1.6427463 -0.00449524 0.00017614709 -0.04736627 0.028486753 0.011950639
0.08191621 2.9873943 0.07504752 -0.018791733 0.11075992 0.027102381 0.020557199 -0.02508689
0.013208157 0.27650398 -0.035551034 0.0143361585 0.051620726 0.03537675 0.000756206 -0.0024797767
-0.052783858 0.013816067 0.012873228 -0.08295569 0.050101902 0.0505699 0.0015991101 0.07085424
0.044352785 0.40202165 0.045745876 -0.0057084453 0.06618359 0.05929489 0.050484627 -0.002678122
0.05008008 0.067947365 -0.1115296 0.20877793 -0.037701663 0.06369136 0.010684845 0.023942737
-0.055771913 0.02751788 -0.015497464 2.1986163 -0.045386422 0.02532543 -0.15532582 -0.0058600353
0.03858239 0.028551642 0.018795291 0.0038294778 -0.020196088 0.049632695 -0.18216218 -0.06910011
-0.116622604 -0.0025544593 0.08425295 0.07125385 0.052966915 0.05961355 -0.0016784697 0.030801767
0.06154764 0.032455213 -0.02059388 0.042240143 -0.06583938 -0.020040026 0.052373752 0.0090925135
0.003740595 0.0664741 -0.072490245 -0.010790873 0.08481623 -0.0540892 0.4841328 0.07161741
0.054558355 0.048488908 -0.049931604 0.01133558 0.027841832 0.010471852 0.016879238 0.48297164
3.703181 0.012695325 0.031908005 0.0025156538 0.0813078 -0.02174974 0.42064732 -0.103675835

bias f4 [3]
00000000: ffd3 113c ba2c af3e 4aec f13e
0.008900641 0.3421381 0.47250587

weight f4 [256, 14]
00000000: 23f9 b4be 1bbd 6c40 6d5e 143e 4449 bcbf
00000010: 7d8c fd3f 2bb5 bf3e 68c5 d83f d2fe c33d
00000020: 434f f53b 729e ba3d 4393 153e e866 10be
00000030: 17f6 f3bd 1b5f 233e 4c47 443e 04b4 b1bf
00000040: 39b9 9c3d e130 b441 da8d 56be 3978 01be
00000050: a9a4 91be 3479 493f 5512 86be 5b49 683f
00000060: 402b 603d 76bd 623f 5dd2 653f e527 6d3d
00000070: 117a cdbe 2bb1 e8be cbf1 9a41 0cf8 4a40
00000080: d200 9bbf 8a92 303e f01b 4a3f d3d3 6d3f
00000090: 5f0f 123d 03dc 44bf 6402 30be d1c2 313e
000000a0: 55f8 563f fc0f cebf c270 6bbf cec5 b93f
000000b0: 63a2 fd3f 39b8 e7bf 0978 67c0 5f08 27bf
000000c0: 64c6 3a3e 25e6 50bf 698d 423f 6d7e 1a3e
000000d0: f3a4 61be f417 22bf 5c46 d23f 0b6f c43f
000000e0: bc59 79bf 03ea 85c0 8dd5 e83e ec37 0d3f
000000f0: f3e9 633f d813 28bd cdfd 283f 53e9 ad3e
00000100: 5b9a 0bbf fae1 78be d672 e33e b1ca f53e
00000110: 96b0 0c3f 8108 383f f739 3c3f aac4 db40
00000120: 6da0 3a3f 0a80 7bbf 6937 cabf 23e2 1c3f
00000130: c43b 163f 3251 513f 1b35 10bf 24c0 69be
00000140: db96 e8bc 2364 9d3e 441f d83d 8f79 b7bd
00000150: 44c2 03be 22ee a2c0 c3c4 b1be 974f 64be
00000160: eef4 723f dac3 c63d 60c4 383f 8150 473f
00000170: 6bd3 d4be 419d 483e 02f3 f73d 4e67 a73f
00000180: 9427 543f d2ff 743e 25de 993d 7ca9 2f40
00000190: 976a 4b3d 4711 57c0 b25e 3cbf 0bac 843f
000001a0: 543b 383e 771d d4be 7055 e63e a0fe d43c
000001b0: b90c 023e 78b9 c7be 34ed 1fbf ca18 c33e
000001c0: a43c e8be 8346 95c0 b973 db3f 6587 f53f
000001d0: 2dd0 0ebf 0269 b13f f46e 0d40 68eb 92be
000001e0: 2f78 a0be 23a3 9c3d 07ec 22be 10a9 e7be
000001f0: fccc 87bf 91f1 8c3f 5847 9e3e 884f d8c0
00000200: b4ed bfbf 177b ebbe 30b2 fb3f 2232 b8be
00000210: 0b4c c33e 0c0f de3d e0f9 9a3d bd77 803e
00000220: 29fd 0bbe dfa0 cfbe 1deb b0be 0f43 a8bf
00000230: 3eda f43f cd60 ac3f 8087 1dc0 7801 35bf
00000240: 6acf 643e c72b ab3f 62e7 72bd 6c5d 173c
00000250: aa47 cdbd 95f8 f1bd 237f 043d 7b57 72bc
00000260: f0ae 713d 749b 0b3e 7007 4e3f aacf d4c0
00000270: 5dfa d3bf c54f 103e e2fe 12bf 5383 503c
00000280: 26d6 b23e 87b9 24bf 71d8 293e 6429 353e
00000290: 8699 903c 09e9 63bd 42be db3c cc0b 13be
000002a0: f11b 59bf 7420 1040 f173 253e a669 0e40
000002b0: af05 eabf 3b17 253f c2a7 4f40 0ab4 47bf
000002c0: 02d8 5f3f a6be 303f 7cac 783e 5f48 98be
000002d0: 5383 8d3f 81c2 d73e 91c5 74bf 4099 acc0
000002e0: b329 16c0 e5e3 ddbd 74b4 b0bf 2408 9c3f
000002f0: db56 a13d a807 8e3f 92e1 35be 3181 c83e
00000300: 2104 b23e afb3 82be cfbb 853f c556 babd
00000310: dda6 763f 1602 be3e d82a 6740 f305 8640
00000320: 0262 53be ff54 8f3f 041d b53f f5ad 4fbf
00000330: 5a5d 833f 5990 823f 1d75 803d 5992 453f
00000340: 42cb 213e 0a54 b73d ede0 33bf 5ca1 81c0
00000350: a568 0d3f e41b 113e a788 2040 e6a5 8cbf
00000360: 1d1b ab3f 954a c5be f910 bfbe a5a6 433f
00000370: dbce 5e3e c835 9dbf fedc 2ebe 66dc b63f
00000380: 18a1 9fbf 1650 e7bf 8c87 a940 6259 3040
00000390: 1234 af3e 661b 25c0 a407 1c3e c420 133f
000003a0: 6db6 8ebe bfef 493e 1a13 833e 100f 163d
000003b0: bbf8 2d3d 01c7 b43c e9ef 0240 b659 9140
000003c0: e0ac 52c0 d10e e4bf 40bf 463e 1f19 633f
000003d0: e97d d33e 2d3b 483f 6b8f 3abf c228 e3be
000003e0: 6822 dabb 8e32 5e3d ac68 193d f2ef cd3c
000003f0: 9ad7 7d3f 19b2 75c0 af3d 8dc0 a324 6c3f
-0.35346326 3.699042 0.14489146 -1.4709859 1.9808499 0.37442908 1.6935244 0.095700875
0.0074862554 0.09112252 0.14606957 -0.14101756 -0.11912172 0.15954249 0.19167823 -1.3883061
0.07652516 22.523867 -0.2095255 -0.12643518 -0.28445938 0.78700566 -0.2618586 0.9073693
0.054728746 0.88570344 0.89774114 0.057899375 -0.40132192 -0.45447668 19.368063 3.1713896
-1.2109625 0.172434 0.7894888 0.92901343 0.03565919 -0.7689821 -0.17188412 0.17359473
0.83972675 -1.6098628 -0.9196893 1.451349 1.9815181 -1.8103095 -3.6167014 -0.6524715
0.18239743 -0.8160117 0.75997025 0.1508729 -0.2203558 -0.633178 1.6427722 1.5346388
-0.9740255 -4.184816 0.45475426 0.55163455 0.89028853 -0.04103455 0.6601227 0.33967075
-0.545324 -0.24304953 0.4442355 0.48006204 0.5495695 0.71887976 0.7352595 6.867757
0.7290104 -0.9824225 -1.579816 0.6128256 0.58684945 0.8176452 -0.5633103 -0.22827202
-0.028392246 0.3074046 0.105528384 -0.08958732 -0.12867075 -5.091569 -0.3472043 -0.22295986
0.94904983 0.097053245 0.72174644 0.77857214 -0.4156755 0.19591238 0.12106897 1.3078401
0.8287289 0.23925713 0.07513074 2.7447195 0.0496622 -3.3604295 -0.73581994 1.0365003
0.17991382 -0.4142873 0.4498706 0.02600032 0.12700166 -0.3900869 -0.6247132 0.3810485
-0.45358765 -4.6648574 1.7144691 1.9181944 -0.557864 1.3860171 2.209897 -0.28695226
-0.31341693 0.07648303 -0.1591035 -0.45246172 -1.0609431 1.101122 0.30913806 -6.7597084
-1.4994416 -0.45992348 1.9663754 -0.35975748 0.38143954 0.10842714 0.07567191 0.25091353
-0.13670792 -0.40552422 -0.34554377 -1.3145465 1.9129102 1.3467041 -2.4613953 -0.70705366
0.22344747 1.3372735 -0.059302695 0.009238582 -0.100234345 -0.118149914 0.03234781 -0.014791365
0.059004724 0.1363352 0.804801 -6.6503496 -1.656078 0.1409293 -0.5742017 0.012726623
0.34929007 -0.6434559 0.16586472 0.1769157 0.01765133 -0.05564216 0.02682412 -0.14359969
-0.8480826 2.2519808 0.1615751 2.2251983 -1.8282984 0.6448857 3.2446141 -0.7800909
0.87438977 0.69040906 0.24284548 -0.29742715 1.1055702 0.42140582 -0.9561396 -5.3937073
-2.346295 -0.10834483 -1.380507 1.2189984 0.078778945 1.1096087 -0.1776183 0.39161065
0.34768775 -0.25527713 1.044794 -0.09098581 0.96348363 0.37110966 3.61199 4.188226
-0.20642856 1.1197814 1.414948 -0.8112481 1.0262864 1.0200301 0.062723376 0.77176434
0.15800193 0.08951576 -0.70265085 -4.050947 0.552378 0.14170796 2.5083406 -1.0988128
1.3367649 -0.38533464 -0.37317637 0.76426154 0.21758597 -1.2282038 -0.1707649 1.428601
-1.2471037 -1.8071315 5.2977962 2.7554555 0.34219414 -2.5797973 0.1523729 0.5747187
-0.27873555 0.19720362 0.2560051 0.03663546 0.042473536 0.022067549 2.045893 4.542201
-3.2918015 -1.7817022 0.19408894 0.88710207 0.41307 0.78215295 -0.7287509 -0.44367033
-0.0066569336 0.05424743 0.03745334 0.025138829 0.99157107 -3.8389952 -4.4137797 0.92243403

bias f4 [256]
00000000: 4e30 ad3f ceb4 5abf 401c 68be 2eee 69bf
00000010: 4ec3 85bf f52b f03f 576f 8bbf 9342 c43f
00000020: 8f80 48bf 1485 6dbf e14e 66c0 2cfc 3940
00000030: 5157 41bf d734 64bf 38a6 44bf ac48 afbf
00000040: 70a6 9e3f 1e8a 8bc0 0a25 fcbf d536 1d40
00000050: 8452 62bf 4e6a 83bf 1893 953f dd2d 03bf
00000060: a7f1 803f 2879 a63c 498e 58be 5bb4 15c0
00000070: a6ae b3bf 7677 b7be c2d7 c33f 6048 a53f
00000080: d4d9 cdbe 49d1 25be 125e 9c3f 0386 5e3f
00000090: fcf6 3abf 5394 a83f dc23 a2bf 2f92 0dbe
000000a0: c72d d13e f4ba 63be 8c2f 4e3f 0f2c 6cbf
000000b0: 7a4e a13f 10e6 32be d249 afbf 037d 02c0
000000c0: 3057 e8bf 3a63 90bf c065 9a3f 94af 383f
000000d0: 23c3 fe3f d79b 8abf fab8 c8bf b3c3 833f
000000e0: 656e bbbe cae0 433d 0254 30bf 7456 d13e
000000f0: 44de 0740 e7b5 863f f67b 76bf 0541 a7bf
00000100: 3998 4ebf 49e5 52c0 382c 0040 8142 d53f
00000110: 3c2b 04bf 4f66 4ac0 a3ba c9bf 1715 423f
00000120: fd0e f33e f221 5abf 8cac 98bf 4e99 4fbf
00000130: 3a5a 3d3f 399b c2be 9e12 2a3f 5a22 76bd
00000140: 6dcf 7f3f 4c07 f63f cab8 3640 f65c 32c0
00000150: 1ded 8f3f 020c 87be 999d 153f 6d13 4f40
00000160: d1a1 d13c 0fe7 c73e 30e4 38bf 99c6 e83d
00000170: e04a 84bf e37a e5be 958e 87bf 097c 313e
00000180: cf53 4dbf c229 5f40 5347 c33f d6b8 20c0
00000190: 5559 5040 c3fb 953e 094c 52bc 93bf 29c0
000001a0: 72f6 c03c 5d3e f1bf df53 1a40 e22c 1f3f
000001b0: 83c3 a43e 51f9 91be 9829 4bbf 9491 c53f
000001c0: aff2 02bf 5a61 1f3f 8971 443d 6d0d 713f
000001d0: a850 b63e 09a4 9cc0 df6e b8bf 4992 51bf
000001e0: f0bd 4e40 71c6 fabe 140e c53f cb5e 46bf
000001f0: 7c1c 4d3f 630c bebe aa11 6b3f cb2f 75c0
00000200: f8ba 53bf 00dc f3be 005c 543e d809 3f3e
00000210: 866a 443f 1f5b 35bf 3f3c 9dbf 9e81 9e3f
00000220: 6957 00bf 44ba 28bf f774 45bf d859 13bf
00000230: 787b 33bf ac29 c0bf 58c8 903f c0f4 5dc0
00000240: f836 993f b86d edbf 75e1 ea3e 0cd5 873f
00000250: 5e19 afbf db03 babf a2be 16bf 9da6 463f
00000260: 1b82 9b3f a196 343f 9f90 60bf f47d 9dbe
00000270: e16e 20bf 01d0 743f 2509 b5bd b2f4 8240
00000280: 7803 2b3f d1a2 353f 29a0 62bd 1014 ddbf
00000290: 1f0c 023f 638e dbbf 1b7f debf 3703 813f
000002a0: 8397 fc3c 9b41 7cbe ed32 89be 9891 073f
000002b0: c7b9 eb3f 7043 0f3c 01a0 cc3e 9496 46bf
000002c0: db92 8d3f da1f a93f b097 c13f f73c a93f
000002d0: 80d1 053f 505e a33f 3a87 7a40 18b7 093e
000002e0: 56cd 91bf c338 883f 20f0 cbbe a7be 8dbf
000002f0: 5e5d bc3f 3986 a9be 628e 973e c113 ef3e
00000300: 266d 7cbf 8088 31bf ee75 843f ba6f fbbe
00000310: 05ed 63bf d180 803f ae00 4f3d 91d2 3bbf
00000320: 18d0 5e3e 7b0b 09c0 996b e63f 3aaf 41bf
00000330: 041d 8f3f 1c33 82be b988 443f 9f10 393e
00000340: 0fd0 69bf c33e b3bf 3f52 2dbf e1e3 3fbf
00000350: 0707 d7be a581 22bf aa99 42bf 923f 3740
00000360: 7b83 bb3f 8dd7 623e 2559 24bf 7032 7f3f
00000370: e1b7 8640 a7cd 2a3f 8743 49bf ef8c 30bf
00000380: 375b 23c0 c40f 7ebf 0c86 6c3f 90f0 18bd
00000390: c03f c6bf 8350 02be f737 12bf c053 7c3f
000003a0: 48a5 4640 1fae 173f 9c22 2a3f 2471 c33d
000003b0: 9f15 84bf 58c7 9fbe 308f d0bf 209b 4cbf
000003c0: d5cd 813f b225 bdbf 6a3d a83f 7bcc eb3d
000003d0: 787e bc3e 6e4a 55bf 3771 323f db0e 183f
000003e0: 3780 dc3e 7cbd ae3f 12e7 8ebe 3a88 87bf
000003f0: 6a5d a13c ddfc 6cc0 b2af 37bf 1d60 c53f
1.3530366 -0.85432136 -0.22667027 -0.9137906 -1.0450227 1.8763415 -1.0893353 1.5332817
-0.78321165 -0.92781186 -3.5985644 2.9060163 -0.7552386 -0.8914313 -0.7681613 -1.3694053
1.2394543 -4.36061 -1.9698803 2.4564717 -0.8840716 -1.0266817 1.1685514 -0.51241857
1.0073746 0.020321444 -0.21148027 -2.339133 -1.4037673 -0.3583333 1.5300219 1.2912712
-0.40205252 -0.16193117 1.2216208 0.86923236 -0.7303312 1.3170265 -1.2667193 -0.13825296
0.40855238 -0.22239286 0.805413 -0.9225473 1.2602074 -0.17470574 -1.3694403 -2.03888
-1.8151608 -1.1280282 1.2062302 0.7214291 1.9903301 -1.0828809 -1.568145 1.0294098
-0.36607662 0.047821797 -0.68878186 0.4088627 2.122941 1.0524262 -0.962829 -1.3066717
-0.80701023 -3.2952445 2.002699 1.666092 -0.5162847 -3.1624944 -1.5760082 0.7581343
0.47472373 -0.85208046 -1.1927657 -0.810933 0.739658 -0.3800905 0.6643466 -0.060091354
0.9992588 1.9220977 2.8550286 -2.786924 1.1244236 -0.2637635 0.584436 3.2355607
0.025589855 0.3904347 -0.72223186 0.113660045 -1.033535 -0.44820318 -1.0590388 0.17332472
-0.80206007 3.4869237 1.5256141 -2.5112815 3.2554524 0.2929364 -0.012835511 -2.6523178
0.023555014 -1.8847157 2.411369 0.6217786 0.32180414 -0.28510526 -0.7936034 1.5435052
-0.51151556 0.6225792 0.047959838 0.9416111 0.3560841 -4.895024 -1.4408835 -0.8186384
3.2303429 -0.48979524 1.5394921 -0.7748839 0.8012159 -0.37118825 0.9182383 -3.831042
-0.82707167 -0.47628784 0.2073822 0.18656099 0.7672504 -0.70842165 -1.2284011 1.2383306
-0.5013338 -0.6590922 -0.771316 -0.57558966 -0.70110273 -1.5012717 1.131114 -3.4680634
1.19699 -1.8549109 0.45875135 1.0611892 -1.3679616 -1.4532427 -0.5888463 0.7759798
1.214908 0.7054234 -0.87720674 -0.30760157 -0.6266919 0.9562989 -0.08839635 4.09237
0.6680217 0.70951563 -0.055328522 -1.7271748 0.50799745 -1.7152828 -1.738254 1.0079106
0.030833965 -0.24634402 -0.26796666 0.52956533 1.841607 0.008744106 0.39965823 -0.77573514
1.1060442 1.3212845 1.5124416 1.322173 0.52272797 1.2763157 3.9145036 0.13448751
-1.1390789 1.0642322 -0.39831638 -1.1073807 1.4715993 -0.33110216 0.29600817 0.4669476
-0.9860405 -0.6934891 1.0348489 -0.49108678 -0.8903354 1.0039312 0.050537758 -0.73368174
0.21759069 -2.1413257 1.8001586 -0.75658 1.118073 -0.25429618 0.7677112 0.18072747
-0.913331 -1.4003528 -0.6770362 -0.7495709 -0.4199755 -0.6347907 -0.7601572 2.863255
1.46495 0.22152539 -0.64198524 0.99686337 4.209946 0.6672005 -0.78618664 -0.6896505
-2.5524423 -0.99242806 0.9239204 -0.037338793 -1.5488205 -0.12726025 -0.57116646 0.9856529
3.103838 0.5925006 0.6645906 0.09543064 -1.0319098 -0.31206775 -1.6293697 -0.799242
1.014094 -1.4777129 1.3143742 0.11513611 0.36815238 -0.83316696 0.69704 0.5939767
0.4306657 1.3651576 -0.27910668 -1.0588448 0.019697864 -3.7029335 -0.71752465 1.5419956

weight f4 [256, 256]
00000000: e19a 233f 4192 953e e4e3 39bb 55fb e2be
00000010: 779c 843f 064e 4dbe 2201 ebbe 8cf9 1bbe
00000020: f061 46bf 7ba0 b2bf fa4d eebf 54be e13e
00000030: 122f 60bd 5bf8 1c3f 1ff8 8ebf 2e42 edbe
00000040: ebfe a53f b07a ffc0 daac efbf cda5 a83f
00000050: 81ea b5be fa12 e8bd 42d7 bb3e 3f96 1cbe
00000060: b4cd 3e3e 65f1 573d 6763 203f d866 afbf
00000070: 2484 4dbe ee7f a8be 9154 52bd e241 c43e
00000080: a1db 38bf 5941 c63d 755a c13e 2daf 833f
00000090: 2fd0 603e 2fe8 44be 21ed 00bf 02aa 593e
000000a0: 4c6c 303e d7c9 a33e 3dfb 893f de0a 31be
000000b0: 94bb 6ebe 4052 403f 6356 35bf ec07 63c0
000000c0: 3ddb 6bc0 8dc3 503d 0c27 373f 7ed4 0cbf
000000d0: 0c9d 073f 62e6 07be ed76 553f f1e3 17be
000000e0: 1b24 c63d fdfb 7a3e a5fb 6bbd 5874 793f
000000f0: 1b19 493f eacc 253f c51b 533e 0469 7cbf
00000100: b591 cd3e 802c 18c1 8509 893f 0d0a a43e
00000110: 9be7 11bf 56e7 cbbf aa1b 10c0 c9ce bd3d
00000120: 923c acbe dc19 803d 6a64 83bd ede8 e3bf
00000130: ee2a 783f 8b61 f2bd 42df 1abf 157e 173f
00000140: 12be 133f f2fb a4be 3c7f 7d3f 27e4 e9c1
00000150: f58f 963f f159 0640 8d45 893f 2e7c 5b3f
00000160: eae5 77bd d30d 713f 7c5c 033f 5d2b aebe
00000170: 57eb 5abe ebbc f83e 636d 86bf 9714 e33e
00000180: c8f9 ff3d fbe1 8a3f 34d9 553e d4be fbbf
00000190: b986 023f c83e fc3e 10f3 55be e85c a7bf
000001a0: d882 c1bc 8e1f b13e 50ea 7abe 832f 8d3e
000001b0: c8cb 9b3e f3b4 a23d 6e73 1bbf 9ba7 2cbe
000001c0: c386 b9bf 60d0 b2be f0b3 a6be 75d1 c13f
000001d0: 3d9c 203c 978a 4dc1 0698 90be 0151 0c3e
000001e0: dead a73f 4d07 38be c268 043e d994 b3be
000001f0: 6794 9cbf c25a 20be ff00 f03d 1fc2 2cc0
00000200: 4ace 45bf ee99 56bf d2e0 1c3f 0c7c a3bf
00000210: bf7c 7fbb 0f8e 7bbe 1663 5bbf 9747 e53e
00000220: 0ad4 da3d dbbe 7a3e 5091 363e fd54 41bd
00000230: 066c b33e 59e9 82bf 8797 163c 83c4 6dc0
00000240: 4d7d ed3e 872e 443d 52aa 2f3e 98b7 ea3e
00000250: 0201 f23d 8e60 3d3f dc8b 9a3d b8e8 4abd
00000260: e158 57bd 04a6 273c 8cbf fd3f a011 4cbf
00000270: 2e72 86bf 30bc 3d3e c868 b9be c65f 0340
00000280: b3c4 97be fb31 b2be f056 9fbe eed2 6e3f
00000290: 9746 da3e 41ee 2fc0 8f32 e4bf 0863 f0bd
000002a0: 0bb9 b03f dbcb a73d 0858 b2ba 41ea 743e
000002b0: f881 873f 6cc5 113e 259a 843f 58cf e93e
000002c0: cdef a6be b7b2 9e3e f275 723f c4f3 163e
000002d0: a9aa 0f3f e965 3a3e 361b ef3f 83b3 26bf
000002e0: b36b e0bf 349f ab3d 9600 bfbd 6d7c e5bc
000002f0: 42d7 bc3d 484c f5bd 3b13 063e f4fb 57bf
00000300: 1de4 7dbf 76b6 89be 848a 1f3e d6f3 6cbe
00000310: d0c7 8e3c f31d ac3e 42cc 2cbf 4b19 8bbf
00000320: b5db 683e 37cc a3c1 7549 003f bad6 9bbf
00000330: 6d02 b7be 4bf1 8f3e 7fd9 a1be 57c6 093f
00000340: b0ab b3bf e3de 87bf 7613 283d 5763 bfbf
00000350: 72d8 8a3f 1962 053f a148 5abf 64d1 593f
00000360: 191e 3d3f 2312 9b3c 7e01 5abf 886d 4e3d
00000370: 3270 2440 6c1f e23e e213 e33e a8d9 9fbf
00000380: ee58 e3bf 9f3e cbbe 1aac c4be 17dd f1be
00000390: 7a79 0ebe 7022 393e 2bb1 493b 8577 013f
000003a0: 471a 373d 2b13 06be 6f14 9b3e 719e a63f
000003b0: c96c 42be 7002 a13d fbf7 9dbf 2292 c33e
000003c0: 16e4 8c3f 4312 b6bf 86c0 6b3f e590 b13e
000003d0: 9631 d5be 634d 8c3d 9f57 ce3d d87d b0be
000003e0: 0e97 373f 15df ef3f 163e a8bf 7235 ddbf
000003f0: f5f7 47be 442a 81c0 8f20 763e fb78 4ebe
0.639082 0.29213145 -0.0028364593 -0.44332376 1.0360249 -0.20049295 -0.45899302 -0.15231913
-0.7749319 -1.3955225 -1.8617547 0.4409052 -0.05473239 0.6131646 -1.116947 -0.46339554
1.296842 -7.9837265 -1.8724625 1.3175598 -0.35530475 -0.113317445 0.36687666 -0.1529169
0.18633157 0.052720446 0.62651676 -1.370326 -0.20069939 -0.32910103 -0.05135018 0.38331515
-0.7221013 0.09680433 0.37764326 1.0287834 0.21954416 -0.19229196 -0.5036183 0.21256259
0.17228812 0.3198993 1.0779797 -0.17289302 -0.23313743 0.75125504 -0.7083494 -3.5473585
-3.6852562 0.05096774 0.71543956 -0.5501174 0.5297401 -0.13271478 0.8338459 -0.14833046
0.09674855 0.24510188 -0.057613034 0.9744315 0.7855393 0.647658 0.20616062 -0.9859774
0.40150228 -9.510864 1.070603 0.32038918 -0.56994027 -1.5929973 -2.2516885 0.09267957
-0.3363996 0.06254932 -0.06415637 -1.7805458 0.96940506 -0.11835011 -0.60496914 0.5917676
0.577119 -0.3222347 0.9902227 -29.236403 1.1762682 2.0992396 1.072435 0.8573636
-0.060521998 0.9416172 0.51312995 -0.3401746 -0.21378838 0.48581633 -1.0502132 0.44351646
0.12498814 1.0850214 0.20883638 -1.9667611 0.5098682 0.49266648 -0.20893502 -1.3075228
-0.023621961 0.34594387 -0.24503446 0.2757531 0.3042891 0.079446696 -0.60723007 -0.16860811
-1.4494251 -0.34924603 -0.32559156 1.5142046 0.009802875 -12.846335 -0.28240985 0.13702776
1.3099935 -0.17971535 0.12930587 -0.350745 -1.2232789 -0.15659621 0.1171894 -2.6993482
-0.772679 -0.8382863 0.6128055 -1.2772231 -0.0038984267 -0.2456591 -0.8569807 0.4478118
0.106849745 0.24486868 0.1782887 -0.04720019 0.35043353 -1.0227462 0.0091914 -3.7151191
0.4638466 0.047895934 0.17154816 0.45843196 0.118165985 0.73975456 0.07546207 -0.049538344
-0.052574996 0.010232452 1.982408 -0.79714394 -1.0503595 0.18528819 -0.36212754 2.0527205
-0.29642257 -0.34803757 -0.31121016 0.93290603 0.4263198 -2.7489169 -1.7827929 -0.11737639
1.3806471 0.08193179 -0.0013606558 0.23917486 1.0586538 0.14235467 1.0359541 0.45666003
-0.32604828 0.30995724 0.9471122 0.14741427 0.5611978 0.18202938 1.8680179 -0.65117663
-1.7532867 0.08379975 -0.09326284 -0.028013432 0.09220745 -0.1197744 0.13093273 -0.84368825
-0.991762 -0.2689702 0.15580183 -0.23139891 0.017429262 0.336166 -0.6749917 -1.0867094
0.22740062 -20.474714 0.50112087 -1.2174904 -0.35744038 0.2811378 -0.3161125 0.5381827
-1.403677 -1.0614895 0.041034184 -1.4952191 1.0847304 0.5210281 -0.8526707 0.8508513
0.7387405 0.018929547 -0.85158527 0.050397426 2.5693479 0.44164598 0.44351107 -1.2488298
-1.7761514 -0.39696214 -0.38412553 -0.4723899 -0.13913527 0.18079543 0.0030775766 0.50573
0.044702794 -0.1309325 0.30289027 1.3017102 -0.1898681 0.07861793 -1.2341303 0.38197428
1.1007106 -1.4224323 0.9209064 0.34680858 -0.41639394 0.06850698 0.10075306 -0.3447101
0.71714866 1.8739954 -1.3143947 -1.7281935 -0.19528182 -4.0364094 0.24035858 -0.20163338
