data/PPO/Hopper-v2/ppo_s11096/pyt_save/model.pt (torch_old, 559508 bytes, 12 tensors)

log_std f4 [3]
-1.9105972 -1.9388889 -2.0690966
00000000: 738e f4bf 832d f8bf 146c 04c0

weight f4 [256, 11]
-0.09079536 0.116957925 -0.1672548 -0.3467598 -0.35362753 -0.0948126 0.036460508 0.33816704
-0.01083615 0.063093424 -0.19044895 -0.123553194 -0.39930162 -0.071220964 -0.16221647 -0.35186923
-0.1054956 -0.063983135 -0.2938967 0.11607259 0.058964018 -0.22143237 -0.034274574 -0.5608817
0.37434357 0.24862364 0.12740818 0.09796597 -0.15145597 0.19316055 -0.045204766 -0.03401601
-0.0005862769 -0.25562134 0.13577838 -0.09198018 0.08216469 -0.22741751 0.10463097 -0.07390699
-0.24859032 0.036999304 0.2443521 -0.27205724 0.21435481 -0.2711339 -0.33134642 0.27861428
0.21445632 0.24651495 0.06162782 -0.13575763 0.0052243154 0.029080655 0.15313436 0.28102097
-0.47392532 0.08038292 0.42589113 -0.27532116 0.15994234 -0.17083637 -0.15888664 0.15587132
-0.2357291 0.33329138 0.19031163 0.18712452 -0.21709663 -0.21224397 0.09433082 0.27019933
0.27276745 0.07546108 1.6653765e-05 -0.08886744 0.3112541 -0.30245626 -0.55207354 0.18464462
-0.007873863 0.078421526 0.05724881 0.084421806 -0.29808533 -0.0953514 -0.27079928 -0.10919035
0.15424755 0.19261764 -0.3488532 0.17874512 -0.15457731 -0.024759922 -0.41968158 -0.05185605
-0.21293853 0.23391066 0.035079435 0.15384123 -0.40020972 0.02366793 0.29280806 0.19898477
-0.18156356 0.25136137 0.12082038 0.27507344 0.22317983 0.18736035 -0.018161368 -0.5769509
-0.1552586 0.28204557 -0.27329186 -0.18337019 -0.31973505 0.23488368 0.20944321 0.28185868
-0.17246789 0.14006741 0.017458938 0.088845335 -0.26456162 -0.031331882 -0.03820766 0.17416182
0.08162401 -0.21179767 -0.1354431 -0.010653955 0.11548695 -0.37548214 0.38938203 0.17607675
0.058973163 0.1534099 0.26999527 0.11402063 0.27505633 0.124183014 -0.10810637 -0.2709085
-0.30401626 -0.062474854 -0.08387864 -0.29499805 0.04616558 -0.39914572 0.10098301 0.2310979
-0.18499844 -0.024369225 0.029067205 -0.51814646 0.048606895 -0.29566535 0.18972291 0.15351234
-0.14031962 0.025370942 0.17934084 0.25540125 -0.18042685 -0.16446815 0.19781734 -0.37079614
-0.07750734 -0.04892306 -0.31170484 -0.2901497 0.37474516 0.2815807 0.12467728 0.14389017
0.22464792 -0.4556097 -0.2942956 -0.02089367 0.08888834 -0.22812043 0.27583742 0.19592397
-0.032706864 -0.0010046401 -0.21205999 -0.30459797 -0.025106823 0.14333072 -0.13681081 -0.050924774
0.1516696 -0.15030229 -0.062483616 0.26962927 0.1536619 -0.11030695 0.31099293 0.13521227
0.13599259 -0.200946 -0.1673513 0.04197457 0.20016792 -0.12584427 -0.13082637 0.17410593
0.059791923 0.0040301573 0.19065182 0.2990126 -0.24266028 -0.19381364 0.19593489 0.15163794
-0.2749564 -0.009645013 0.007157509 -0.35032466 -0.06303897 0.28329265 0.16622475 0.17822917
0.050925642 0.0111739235 -0.14594063 -0.27600682 -0.12341835 0.16653624 0.14219822 0.20101537
0.20705307 0.16106068 0.095337175 0.048148822 -0.18521538 -0.18607837 -0.05415735 0.23448057
0.24852192 -0.17327374 -0.026523609 -0.0075840885 -0.12394389 0.19872476 -0.10926125 0.1694584
-0.15114993 -0.37934947 0.037803233 0.29706115 -0.3728848 0.005912734 0.26124412 0.30348903
00000000: ebf2 b9bd a387 ef3d d844 2bbe 808a b1be
00000010: ab0e b5be 1c2d c2bd 9d57 153d 3b24 ad3e
00000020: 1b8a 31bc 2037 813d 0d05 43be 7509 fdbd
00000030: 4371 ccbe 4cdc 91bd 131c 26be 3428 b4be
00000040: 140e d8bd 9709 83bd a179 96be 77b7 ed3d
00000050: 4184 713d 2bbf 62be 7f63 0cbd f195 0fbf
00000060: f6a9 bf3e 3297 7e3e 4a77 023e 62a2 c83d
00000070: 4617 1bbe e1cb 453e a228 39bd 5f54 0bbd
00000080: 60b0 19ba cde0 82be 7d09 0b3e 1b60 bcbd
00000090: f645 a83d 23e0 68be c348 d63d 8c5c 97bd
000000a0: 768e 7ebe 958c 173d 7037 7a3e 164b 8bbe
000000b0: d47f 5b3e 10d2 8abe 3da6 a9be 88a6 8e3e
000000c0: 709a 5b3e 6a6e 7c3e 746d 7c3d 0c04 0bbe
000000d0: bc30 ab3b 8e3a ee3c 41cf 1c3e fbe1 8f3e
000000e0: 57a6 f2be cd9f a43d 670e da3e e5f6 8cbe
000000f0: edc7 233e bbef 2ebe 2eb3 22be bb9c 1f3e
00000100: f862 71be 2ba5 aa3e 0de1 423e 929d 3f3e
00000110: 944e 5ebe 7c56 59be 8430 c13d 9157 8a3e
00000120: 2da8 8b3e 578b 9a3d b0b3 8b37 2200 b6bd
00000130: b35c 9f3e 8cdb 9abe b154 0dbf 7b13 3d3e
00000140: 6001 01bc 779b a03d ba7d 6a3d 57e5 ac3d
00000150: a49e 98be 9847 c3bd 34a6 8abe 319f dfbd
00000160: 12f3 1d3e 8f3d 453e e39c b2be f608 373e
00000170: 8449 1ebe 52d5 cabc 81e0 d6be 0267 54bd
00000180: 8f0c 5abe 4786 6f3e 74af 0f3d 8e88 1d3e
00000190: 4ae8 ccbe 3fe3 c13c f0ea 953e aac2 4b3e
000001a0: cceb 39be 70b2 803e ad70 f73d 6dd6 8c3e
000001b0: 4189 643e 64db 3f3e 26c7 94bc 0eb3 13bf
000001c0: 1cfc 1ebe 4768 903e e9ec 8bbe 65c5 3bbe
000001d0: 50b4 a3be 5985 703e 4878 563e c84f 903e
000001e0: 6c9b 30be d56d 0f3e 0c06 8f3c 8bf4 b53d
000001f0: 9f74 87be dc55 00bd a37f 1cbd 7a57 323e
00000200: 7d2a a73d 7de1 58be 99b1 0abe ed8d 2ebc
00000210: 6c84 ec3d 323f c0be 155d c73e 774d 343e
00000220: d88d 713d 7c17 1d3e d23c 8a3e a683 e93d
00000230: 2fd4 8c3e aa53 fe3d df66 ddbd 85b4 8abe
00000240: 05a8 9bbe a2e5 7fbd 90c8 abbd fc09 97be
00000250: 1f18 3d3d d45c ccbe 2ed0 ce3d eea4 6c3e
00000260: 3b70 3dbe f8a1 c7bc 591e ee3c 3fa5 04bf
00000270: 0618 473d 7361 97be b946 423e 5732 1d3e
00000280: f2af 0fbe b9d6 cf3c 20a5 373e f4c3 823e
00000290: d1c1 38be 576a 28be a190 4a3e fed8 bdbe
000002a0: 2bbc 9ebd 8c63 48bd c797 9fbe 808e 94be
000002b0: 99de bf3e 582b 903e cd56 ff3d f257 133e
000002c0: 1b0a 663e ad45 e9be eaad 96be 3429 abbc
000002d0: 170b b63d 6798 69be 903a 8d3e 4ba0 483e
000002e0: a2f7 05bd 21ae 83ba 4126 59be 44f4 9bbe
000002f0: d3ac cdbc 4ac5 123e 2218 0cbe 7f96 50bd
00000300: 474f 1b3e d8e8 19be d2ee 7fbd d90c 8a3e
00000310: 8c59 1d3e 9ce8 e1bd 773a 9f3e 1675 0a3e
00000320: a441 0b3e cac4 4dbe 245e 2bbe 87ed 2b3d
00000330: d2f8 4c3e 52dd 00be 59f7 05be d348 323e
00000340: 60e8 743d 690f 843b 3b3a 433e 2e18 993e
00000350: f07b 78be 1577 46be 28a3 483e fa46 1b3e
00000360: 16c7 8cbe 1e06 1ebc 8a89 ea3b c15d b3be
00000370: 931a 81bd bc0b 913e d236 2a3e b581 363e
00000380: 6897 503d d512 373c 7671 15be c450 8dbe
00000390: c3c2 fcbd 7a88 2a3e 699c 113e f9d6 4d3e
000003a0: b805 543e 17ed 243e 2340 c33d b337 453d
000003b0: 1aa9 3dbe 548b 3ebe 19d4 5dbd ad1b 703e
000003c0: 887c 7e3e ac6e 31be 0a48 d9bc f283 f8bb
000003d0: 4bd6 fdbd 817e 4b3e 5dc4 dfbd 8186 2d3e
000003e0: 0cc7 1abe 183a c2be 90d7 1a3d 6618 983e
000003f0: c2ea bebe 9cbf c13b cac1 853e ea62 9b3e

bias f4 [256]
-0.123694755 0.32103774 -0.014990597 -0.14883149 0.2507772 0.13364495 -0.1095914 0.23900898
-0.10223828 0.05628851 0.08220574 0.06874414 0.2524982 0.034532484 0.23103778 0.15795308
0.09570726 -0.3016949 0.2669951 0.2354196 -0.14064743 0.18307838 -0.26912928 0.23204057
0.21683346 0.08089108 -0.057414025 -0.111166686 0.14850006 -0.18528168 -0.24866937 0.013514325
-0.3002922 0.20078287 -0.081897415 -0.070691206 -0.3697495 -0.12335289 -0.084806204 -0.0667505
-0.07519883 0.028307991 0.045367856 -0.22858131 -0.18527584 -0.21035615 0.06494414 0.30016756
0.09979251 -0.009490698 0.06585461 -0.2728387 0.050945546 -0.24276467 0.021058355 0.107658856
0.24100499 -0.23185068 0.0043437136 0.062293172 -0.021777775 0.07789847 0.20869231 -0.13972503
0.21805577 -0.01880382 0.20297536 -0.19671701 -0.08965625 0.25152656 0.25816798 -0.1599227
0.27891564 -0.0779334 0.10805194 0.24012905 0.017612306 -0.082973614 0.28965956 -0.033435006
0.111742646 -0.06364824 0.14960422 0.043929078 -0.1394924 0.18492004 -0.022726713 -0.23772474
-0.09453585 -0.07273967 -0.14646281 -0.04529464 -0.000739942 0.027977701 0.04594541 -0.24000442
0.12231308 -0.16683276 0.17819647 -0.165113 0.22644934 -0.1266557 -0.21755467 -0.044217136
-0.062042326 0.28676817 -0.25952744 0.070489 0.006395876 0.18781127 0.20413283 0.2793091
-0.1842084 -0.021556113 -0.06402372 -0.20224352 -0.05445736 0.08596239 -0.23745471 0.18789811
0.059844352 -0.16620748 -0.31249657 -0.00037299725 -0.20344229 -0.16165155 0.22648294 -0.18137
0.14335522 -0.04724809 -0.28549057 -0.26821 -0.0868942 -0.2575377 0.032156624 0.12863216
0.21853498 -0.0013571084 0.119726606 0.094963156 0.107596174 0.0904345 -0.12784114 0.23064777
0.2266812 0.24703656 -0.12330909 -0.16791047 0.2401594 0.018033624 0.10883066 0.09639798
-0.09427674 0.23523562 0.07434541 -0.2525405 -0.052733116 0.29332837 0.078618385 -0.27321285
-0.10087207 -0.23426922 -0.18027513 -0.1567314 -0.09950194 -0.30690116 -0.20477782 -0.05558847
0.30941162 -0.11473566 0.07149047 -0.26941502 -0.26162764 0.013984344 -0.17750406 -0.096794434
-0.20614631 0.26041722 -0.29351893 -0.09782555 -0.02510087 -0.28855205 -0.052556287 0.22969764
0.28220573 -0.13947982 -0.28111765 0.32590508 -0.18779865 0.19329515 -0.1410993 0.079584286
0.22201025 0.12053111 0.039178323 0.16949828 -0.2160557 0.29579827 -0.23614904 -0.3055982
-0.29317653 -0.2217417 0.120045155 0.14511827 -0.1533117 -0.1879918 -0.22439258 -0.18461247
-0.121565826 -0.20527665 -0.02049214 0.06254184 -0.02838563 -0.022873422 0.15471499 -0.21885791
-0.21659897 -0.20096129 -0.14785413 -0.11315751 -0.029966526 0.09180929 -0.10058429 -0.22416484
-0.30008712 -0.028349252 -0.0037484632 0.24359126 0.28719252 0.20138833 0.019104077 0.2384916
0.28676727 -0.28382868 0.25501287 0.2828114 -0.18321154 -0.20581989 -0.19220577 0.00026669045
0.2602403 -0.011896121 -0.14082383 0.11584388 0.117180586 0.2776456 0.07028303 -0.3513389
-0.1844526 -0.18952271 -0.01095515 -0.114477575 0.19874376 0.17093806 0.24981506 -0.01642599
00000000: ad53 fdbd 0f5f a43e 1f9b 75bc 4867 18be
00000010: df65 803e 39da 083e 7571 e0bd c5be 743e
00000020: 4e62 d1bd c88e 663d 7c5b a83d bac9 8c3d
00000030: 7247 813e ef71 0d3d 2b95 6c3e 74be 213e
00000040: 2b02 c43d c177 9abe 95b3 883e d611 713e
00000050: e105 10be e678 3b3e 50cb 89be 0b9c 6d3e
00000060: 9709 5e3e 39aa a53d f82a 6bbd 5cab e3bd
00000070: 6610 183e 7bba 3dbe 2fa3 7ebe 306b 5d3c
00000080: e6bf 99be 069a 4d3e d5b9 a7bd 8dc6 90bd
00000090: ce4f bdbe 71a0 fcbd e0ae adbd 7cb4 88bd
000000a0: d801 9abd 29e6 e73c a5d3 393d 3811 6abe
000000b0: f3b8 3dbe 9a67 57be 6f01 853d 90af 993e
000000c0: 0460 cc3d df7e 1bbc c8de 863d 84b1 8bbe
000000d0: 47ac 503d 4d97 78be 9282 ac3c 3f7c dc3d
000000e0: 03ca 763e 446a 6dbe b655 8e3b 2027 7f3d
000000f0: 4e67 b2bc 3c89 9f3d 70b3 553e 1414 0fbe
00000100: 034a 5f3e 780a 9abc c6d8 4f3e 2f70 49be
00000110: b29d b7bd 17c8 803e 982e 843e c7c2 23be
00000120: 08ce 8e3e 8c9b 9fbd 564a dd3d 64e4 753e
00000130: af47 903c 12ee a9bd 424e 943e 25f3 08bd
00000140: 54d9 e43d 025a 82bd d931 193e faee 333d
00000150: 19d7 0ebe ae5b 3d3e 5f2d babc 1d6e 73be
00000160: 039c c1bd 89f8 94bd 59fa 15be df86 39bd
00000170: abf8 41ba 7e31 e53c 4131 3c3d b8c3 75be
00000180: 487f fa3d 35d6 2abe 2379 363e 6213 29be
00000190: 56e2 673e 08b2 01be a7c6 5ebe 071d 35bd
000001a0: 1820 7ebd 47d3 923e c8e0 84be 895c 903d
000001b0: 7f94 d13b 9951 403e 3208 513e 9a01 8f3e
000001c0: 20a1 3cbe 7296 b0bc de1e 83bd ed18 4fbe
000001d0: ae0e 5fbd 0d0d b03d 5427 73be 5d68 403e
000001e0: 5a1f 753d 4b32 2abe 8dff 9fbe d88e c3b9
000001f0: 2d53 50be fc87 25be 25eb 673e 0fb9 39be
00000200: b6cb 123e 3787 41bd d22b 92be d252 89be
00000210: 96f5 b1bd fbdb 83be aab6 033d 26b8 033e
00000220: a2c7 5f3e 00e1 b1ba 3933 f53d 0b7c c23d
00000230: 625b dc3d b935 b93d cae8 02be ee2e 6c3e
00000240: 1e1f 683e 27f7 7c3e 7a89 fcbd b9f0 2bbe
00000250: 59ec 753e 40bb 933c 9ce2 de3d 4e6c c53d
00000260: 2a14 c1bd 9be1 703e 6842 983d fd4c 81be
00000270: aefe 57bd 232f 963e ad02 a13d 8ee2 8bbe
00000280: 0496 cebd 45e4 6fbe 0b9a 38be 327e 20be
00000290: acc7 cbbd 2622 9dbe 47b1 51be bcb0 63bd
000002a0: 336b 9e3e 88fa eabd 9869 923d c4f0 89be
000002b0: 0ff4 85be 971e 653c a0c3 35be 293c c6bd
000002c0: 0518 53be 6855 853e 1d48 96be c358 c8bd
000002d0: 57a0 cdbc 18bd 93be 4345 57bd dc35 6b3e
000002e0: 457d 903e ccd3 0ebe a7ee 8fbe 08dd a63e
000002f0: 4a4e 40be 2aef 453e 567c 10be 16fd a23d
00000300: a856 633e 04d9 f63d 7379 203d f590 2d3e
00000310: b53d 5dbe df72 973e 0ed1 71be 5e77 9cbe
00000320: 3c1b 96be 4210 63be 3cda f53d e299 143e
00000330: befd 1cbe ec80 40be 2bc7 65be 0d0b 3dbe
00000340: 81f7 f8bd 0b34 52be 22df a7bc f015 803d
00000350: fb88 e8bc 0b61 bbbc 9b6d 1e3e 4a1c 60be
00000360: 1fcc 5dbe ccc8 4dbe 1367 17be 20bf e7bd
00000370: 5c7c f5bc 8206 bc3d 23ff cdbd 788b 65be
00000380: 05a5 99be b13c e8bc c7a8 75bb fd6f 793e
00000390: e60a 933e be38 4e3e 2780 9c3c 2437 743e
000003a0: 29d3 923e fe51 91be 0c91 823e a8cc 903e
000003b0: ce9b 3bbe 73c2 52be 97d1 44be 96d2 8b39
000003c0: 373e 853e f3e7 42bc 1f34 10be 8e3f ed3d
000003d0: 60fc ef3d 9027 8e3e 8df0 8f3d b1e2 b3be
000003e0: 24e1 3cbe 3e12 42be 3b7d 33bc 3873 eabd
000003f0: 7c83 4b3e 630a 2f3e 85cf 7f3e cc8f 86bc

weight f4 [256, 256]
0.011219984 -0.048075438 -0.03572754 -0.038424157 0.006710393 0.021095129 -0.055441853 -0.03950016
0.032334905 -0.033914607 0.03998763 0.021954596 -0.052946664 0.016207403 -0.0070630866 0.016157703
0.03138414 -0.07681013 0.04332143 -0.09146445 -0.02551303 0.05554314 0.07055357 -0.057487022
-0.033790182 0.041547764 0.010930014 -0.02962583 0.07553618 0.05751833 0.015974976 0.040894058
0.031593 0.031237643 0.041977763 -0.07882444 0.0055358033 0.025400333 0.019629449 -0.093427636
0.0086196335 -0.035530336 0.015949123 -0.029886603 -0.005125706 -0.039190527 0.03894473 0.02303618
-0.019403007 -0.009416276 0.0017428614 -0.07179539 -0.0438058 0.084132224 0.06906563 -0.0032821656
0.04785089 -0.02851815 -0.074501954 0.054074224 -0.013558371 -0.0335913 -0.049114842 -0.05719474
-0.0134898685 -0.06780464 0.043406893 0.059715796 -0.04153903 -0.033054262 0.03091438 0.009243978
0.04474761 -0.02883969 0.00819795 0.032304075 -0.006873704 -0.042638056 0.011082274 0.04824803
-0.014558461 0.011071957 0.039786056 0.030801492 -0.023953931 0.024142567 -0.073971815 0.0013950679
-0.031667307 0.014413887 0.0021017601 0.024869177 -0.017510727 -0.006982236 0.02851261 -0.016547062
-0.05188105 0.013016009 0.01700916 -0.018847797 -0.060720596 0.028796144 -0.011167244 0.029520605
-0.031987026 -0.031438895 0.06794527 -0.013798883 -0.029052451 0.07639743 -0.026115593 -0.023642028
-0.030001974 -0.023878928 0.081124336 0.054975286 0.022972438 0.06297288 -0.06301437 0.020354783
0.042722814 -0.057289626 0.0058232816 -0.016942313 0.056401845 -0.014783814 -0.05661539 -0.022159176
-0.0073785055 0.06998714 -0.0028882094 0.07530645 0.05687793 0.041692823 0.04139215 -0.07440625
0.04563869 0.008958328 0.04041959 0.04744659 -0.034576323 0.006981527 -0.112206884 0.031444553
0.018066159 -0.007871336 -0.024920542 -0.0066084038 -0.027938534 0.013986764 0.016087336 0.019902676
-0.02512728 0.03790337 0.0016239865 -0.049239933 -0.016238594 0.0051095095 0.0097425915 -0.03691103
-0.029118769 0.026422473 0.043072917 -0.021250525 0.017312944 -0.028561689 -0.086180374 0.009444492
0.007653741 0.0201137 -0.0010783091 0.045049302 0.013109088 -0.016181506 0.06919457 -0.06371645
-0.050731022 -0.10081735 0.014763798 -0.055951722 -0.0020676984 0.0018774323 0.05227086 0.06686286
-0.02185449 -0.02473358 -0.050072514 0.05074419 -0.0075018834 0.06382702 -0.01610289 -0.039379597
0.025535485 -0.009926766 0.023341749 -0.053190093 0.07224327 0.03887286 -0.06328013 0.038592964
-0.047111735 0.029271401 0.0071726623 -0.034207862 -0.06711726 -0.018619731 0.042191777 -0.014920369
0.048780236 0.03155218 -0.0041279593 -0.020047005 0.049684793 -0.037827615 0.040519208 0.051840324
0.014189937 0.05369453 0.011986242 -0.03298868 0.058449525 0.03848646 0.008801807 0.014574293
0.04316067 -0.052505847 0.011096546 -0.054250397 -0.029280866 0.05826067 -0.00044428222 -0.020278173
-0.07038702 -0.036521528 0.0037504376 0.034161583 -0.024506409 -0.02621652 -0.054650243 0.021246314
-0.061416786 -0.020416074 -0.048887894 0.053412776 0.042076968 0.050093092 0.006144998 0.07661396
0.021747641 0.001467525 -0.029199546 -0.0065552657 0.06633061 -0.053256292 0.02544608 0.021979814
00000000: 06d4 373c c0ea 44bd 0a57 12bd a662 1dbd
00000010: dbe2 db3b b1cf ac3c ff16 63bd ebca 21bd
00000020: 9b71 043d 0bea 0abd 12ca 233d 20da b33c
00000030: 9ade 58bd 63c5 843c 7771 e7bb 295d 843c
00000040: a88c 003d a14e 9dbd d071 313d b751 bbbd
00000050: b400 d1bc 3481 633d 647e 903d 8377 6bbd
00000060: 9367 0abd fd2d 2a3d cd13 333c deb1 f2bc
00000070: b6b2 9a3d 5798 6b3d f4dd 823c 8780 273d
00000080: a967 013d 16e6 ff3c e0f0 2b3d b56e a1bd
00000090: af65 b53b 5c14 d03c f0cd a03c fd56 bfbd
000000a0: 5d39 0d3c 4288 11bd bca7 823c c0d4 f4bc
000000b0: 8af5 a7bb 3f86 20bd 8284 1f3d 5fb6 bc3c
000000c0: 0ef3 9ebc b946 1abc b970 e43a 7609 93bd
000000d0: b66d 33bd 844d ac3d 4872 8d3d 9a19 57bb
000000e0: 4bff 433d e59e e9bc 7b94 98bd ef7c 5d3d
000000f0: ee23 5ebc 0897 09bd a52c 49bd 0845 6abd
00000100: 9c04 5dbc 29dd 8abd 6dcb 313d 8d98 743d
00000110: d424 2abd e863 07bd 2740 fd3c 0e74 173c
00000120: 4549 373d 3741 ecbc b250 063c 4751 043d
00000130: cf3c e1bb 3ea5 2ebd 6d92 353c ba9f 453d
00000140: 9c86 6ebc 2767 353c b4f6 223d 6953 fc3c
00000150: 093b c4bc a2c6 c53c 897e 97bd b6da b63a
00000160: 94b5 01bd 3928 6c3c afbd 093b 72ba cb3c
00000170: a872 8fbc 3ecb e4bb 4793 e93c b48d 87bc
00000180: 3981 54bd 1941 553c cb56 8b3c b266 9abc
00000190: 29b6 78bd e4e5 eb3c d1f6 36bc 32d5 f13c
000001a0: d404 03bd 12c6 00bd e426 8b3d b614 62bc
000001b0: 68ff edbc 4176 9c3d 5ef0 d5bc edac c1bc
000001c0: b3c6 f5bc be9d c3bc 8424 a63d c42d 613d
000001d0: b230 bc3c edf7 803d ae0d 81bd 13bf a63c
000001e0: 1efe 2e3d 87a8 6abd 3ad1 be3b 9bca 8abc
000001f0: 9f05 673d cf37 72bc 8ae5 67bd 2987 b5bc
00000200: 64c7 f1bb 6b55 8f3d 1d48 3dbb 453a 9a3d
00000210: d5f8 683d 18c6 2a3d d18a 293d 4e62 98bd
00000220: a3ef 3a3d f3c5 123c 038f 253d 5b57 423d
00000230: e79f 0dbd 4bc5 e43b b9cc e5bd 01cc 003d
00000240: 7bff 933c c7f6 00bc 2a26 ccbc 4f8b d8bb
00000250: 5adf e4bc bd28 653c 97c9 833c f00a a33c
00000260: bad7 cdbc 9040 1b3d f2db d43a d0af 49bd
00000270: cd06 85bc ac6d a73b 649f 1f3c 0530 17bd
00000280: 7c8a eebc f173 d83c 3a6d 303d 9515 aebc
00000290: e0d3 8d3c 34fa e9bc 567f b0bd 12bd 1a3c
000002a0: 3ccc fa3b 7cc5 a43c 0d56 8dba 9e85 383d
000002b0: 80c7 563c 148f 84bc e2b5 8d3d c57d 82bd
000002c0: 55cb 4fbd 5479 cebd dbe3 713c a22d 65bd
000002d0: 3982 07bb 2d14 f63a f819 563d 65ef 883d
000002e0: 3008 b3bc 149e cabc d618 4dbd 24d9 4f3d
000002f0: 5cd2 f5bb beb7 823d 35ea 83bc 804c 21bd
00000300: cb2f d13c e0a3 22bc 3237 bf3c dbdd 59bd
00000310: 48f4 933d 2639 1f3d 0399 81bd a813 1e3d
00000320: 3cf8 40bd 94ca ef3c a708 eb3b 8b1d 0cbd
00000330: c674 89bd 6888 98bc 49d1 2c3d 9074 74bc
00000340: c9cd 473d dc3c 013d d543 87bb 9e39 a4bc
00000350: 4882 4b3d 21f1 1abd 78f7 253d 8556 543d
00000360: e97c 683c ccee 5b3d f161 443c 231f 07bd
00000370: c568 6f3d faa3 1d3d 7435 103c 04c9 6e3c
00000380: 3ec9 303d 5f10 57bd 4ace 353c aa35 5ebd
00000390: 6dde efbc bea2 6e3d 8dee e8b9 691e a6bc
000003a0: 1227 90bd 9997 15bd e7c9 753b 04ed 0b3d
000003b0: aac1 c8bc 07c4 d6bc efd8 5fbd c00c ae3c
000003c0: 2b90 7bbd 9c3f a7bc ac3e 48bd 5bc7 5a3d
000003d0: e658 2c3d 6a2e 4d3d fb5b c93b c8e7 9c3d
000003e0: 1c28 b23c f859 c03a e333 efbc 8ecd d6bb
000003f0: 58d8 873d 4523 5abd 4c74 d03c 030f b43c

bias f4 [256]
-0.039874844 0.059856806 -0.0025074224 -0.0028800638 -0.04720517 0.055313885 0.043782573 -0.051029216
0.005446184 -0.07819589 -0.037202876 -0.023167571 0.022024594 -0.0053409743 0.05320274 -0.051578175
-0.0056991694 -0.060985558 0.011986346 0.0069290586 -0.08697558 -0.086237654 0.041206412 0.033256885
0.0165198 0.03874742 -0.06416179 0.01549217 -0.045456104 -0.02324135 -0.07686075 0.05805582
0.033978976 0.003456421 -0.053864263 0.03984638 0.028552493 -0.03333642 -0.039927553 0.046121996
0.0036684163 0.012903286 -0.0067851725 -0.032478224 -0.08458394 -0.009722203 0.032571603 -0.027750641
0.055002812 -0.022639135 0.05123233 0.00787149 -0.051906142 -0.015516201 0.051394977 -0.042893942
0.046312217 0.050965108 -0.026330536 -0.0040124394 0.04104845 -0.05047215 0.060492177 -0.07141232
-0.05039619 0.06553117 -0.06860415 0.029567162 0.047929242 -0.03140646 0.031858787 -0.024942007
-0.01722492 -0.045320563 0.032780167 0.051932566 -0.04313366 0.0022568696 -0.017345529 -0.011795693
0.030565701 -0.012489749 0.03679715 -0.010419455 0.015301589 -0.07521158 0.04269426 -0.011731296
0.042520147 -0.042154066 -0.057215035 0.013911309 0.040408384 0.01598643 -0.0069313734 -0.02498497
0.044360496 0.058196224 0.023452831 -0.010611866 0.04637262 0.050349716 -0.04717479 -0.028193867
-0.012364984 0.010214548 0.060079418 0.024872644 -0.014018163 0.001979862 0.06587978 -0.006802619
-0.037277777 0.005172516 -0.042010155 -0.040962346 -0.046230108 -0.048403036 -0.02081669 -0.06823024
-0.0029435195 -0.030545706 -0.014494695 -0.07513488 -0.0031529744 0.04519062 0.04754172 0.047898304
-0.0040896814 -0.0038474596 -0.018909428 0.018884424 0.062188104 0.049491417 -0.007545454 0.02836278
0.07017642 -0.047602933 -0.050623372 -0.02818362 -0.028454153 -0.041567538 -0.021739665 -0.09242837
0.01383867 0.01064307 0.013796131 -0.03172577 0.044160858 0.0042744465 0.045571033 0.040039077
0.06793245 0.027840484 0.051526517 -0.010013414 0.06692977 0.02887007 -0.06958344 0.018130098
0.026794586 0.063889444 0.032479905 0.011559536 -0.04140887 0.0063284994 -0.061465297 0.002602473
-0.052113324 -0.025236057 0.0055940785 -0.037216824 0.024240633 -0.0025426552 -0.0287136 0.017848585
-0.027098816 0.01992453 0.021545887 0.04542744 0.005933669 0.04221587 -0.01957768 0.02810695
0.02057211 -0.02927638 0.02458713 -0.055776656 -0.05903068 -0.04282652 0.0070195585 -0.024102224
-0.038134858 0.02788354 0.007850042 0.08971004 0.06501718 -0.034807656 0.00043997017 -0.033912886
0.031785697 -0.0036336724 -0.02812439 -0.025382005 -0.010989417 -0.03688922 0.06671042 0.009313399
-0.05111911 0.012551516 0.063248724 -0.00797182 0.021840386 0.054739486 -0.019428287 0.035550006
0.0006520723 -0.028489783 -0.030473443 0.06123724 -0.03964322 -0.051411994 0.062628165 -0.011269828
0.0037786847 -0.03222474 0.014615373 -0.013381141 0.05609232 0.041864153 0.022972 -0.013484929
-0.011331521 0.03261548 -0.024852073 -0.039793145 0.00091122644 0.016803604 -0.026903927 0.011220914
-0.065005556 -0.03326464 0.021371862 0.05323538 0.032204304 0.01504081 -0.06387386 -0.036836497
-0.061237715 0.057092857 -0.014514843 -0.045329366 -0.036402233 0.05543655 0.042320464 -0.007757167
00000000: ce53 23bd 692c 753d 9153 24bb 74bf 3cbb
00000010: 355a 41bd d090 623d 5b55 333d 0304 51bd
00000020: e775 b23b 2b25 a0bd 0b62 18bd ebc9 bdbc
00000030: ec6c b43c 5703 afbb 1eeb 593d a343 53bd
00000040: 19c0 babb fecb 79bd 6162 443c 280d e33b
00000050: 4120 b2bd 5e9d b0bd 0ec8 283d 5f38 083d
00000060: 8854 873c 9db5 1e3d 4267 83bd dfd2 7d3c
00000070: 2e30 3abd a564 bebc 2b69 9dbd f1cb 6d3d
00000080: 8a2d 0b3d 1f85 623b c6a0 5cbd f535 233d
00000090: ebe6 e93c c58b 08bd 138b 23bd 6bea 3c3d
000000a0: d069 703b 4e68 533c 2756 debb e307 05bd
000000b0: 583a adbd e049 1fbc cd69 053d 5055 e3bc
000000c0: a14a 613d b575 b9bc fed8 513d 6cf7 003c
000000d0: 899b 54bd aa37 7ebc 8a83 523d 8fb1 2fbd
000000e0: e1b1 3d3d cac0 503d 23b3 d7bc c87a 83bb
000000f0: 6b22 283d e3bb 4ebd a5c6 773d 9f40 92bd
00000100: 3c6c 4ebd 3535 863d 5580 8cbd d536 f23c
00000110: 7451 443d 0fa4 00bd 5c7e 023d 2e53 ccbc
00000120: 471b 8dbc 0ea2 39bd 7f44 063d 3eb7 543d
00000130: ecac 30bd fde7 133b 3618 8ebc b942 41bc
00000140: ec64 fa3c cea1 4cbc 9cb8 163d 5db6 2abc
00000150: 84b3 7a3c 8708 9abd 2de0 2e3d 9f34 40bc
00000160: 9b29 2e3d bea9 2cbd 505a 6abd 42ec 633c
00000170: 4383 253d f9f5 823c 9320 e3bb 48ad ccbc
00000180: 5ab3 353d 2a5f 6e3d 2720 c03c 64dd 2dbc
00000190: 37f1 3d3d 813b 4e3d 5a3a 41bd d3f6 e6bc
000001a0: 8096 4abc eb5a 273c d615 763d b7c1 cb3c
000001b0: 70ac 65bc 93c0 013b faeb 863d 81e8 debb
000001c0: 95b0 18bd 367e a93b d712 2cbd 22c8 27bd
000001d0: c85b 3dbd 4342 46bd c387 aabc 4cbc 8bbd
000001e0: 10e8 40bb fd3a fabc 287b 6dbc 51e0 99bd
000001f0: 22a2 4ebb cd19 393d 1bbb 423d 0331 443d
00000200: bc02 86bb a925 7cbb f2e7 9abc 82b3 9a3c
00000210: f4b8 7e3d 83b7 4a3d db3f f7bb 1059 e83c
00000220: a8b8 8f3d 4bfb 42bd 745a 4fbd 56e1 e6bc
00000230: af18 e9bc b942 2abd 6217 b2bc 164b bdbd
00000240: 97bb 623c 4560 2e3c 2b09 623c e2f2 01bd
00000250: 04e2 343d a810 8c3b b1a8 3a3d 0400 243d
00000260: 2b20 8b3d ba11 e43c 780d 533d 4d0f 24bc
00000270: 7a12 893d ed80 ec3c c381 8ebd 9285 943c
00000280: 5280 db3c 78d8 823d a609 053d 3564 3d3c
00000290: 599c 29bd 4d5f cf3b 09c3 7bbd 408e 2a3b
000002a0: c874 55bd d9bb cebc 884e b73b ab70 18bd
000002b0: 4b94 c63c ada2 26bb c938 ebbc 3237 923c
000002c0: 56fe ddbc c538 a33c 0081 b03c 2012 3a3d
000002d0: 396f c23b 8cea 2c3d 5f61 a0bc 8c40 e63c
000002e0: d786 a83c 05d5 efbc f36a c93c 1076 64bd
000002f0: 28ca 71bd dc6a 2fbd 5304 e63b 0772 c5bc
00000300: 4c33 1cbd 066c e43c 769d 003c e6b9 b73d
00000310: ba27 853d 7992 0ebd ccab e639 3de8 0abd
00000320: b831 023d e822 6ebb 1f65 e6bc eced cfbc
00000330: f50c 34bc 2719 17bd 799f 883d 3a97 183c
00000340: 4662 51bd e0a4 4d3c 8c88 813d 3d9c 02bc
00000350: 9cea b23c 8336 603d 1228 9fbc e29c 113d
00000360: d5ef 2a3a 6863 e9bc 71a3 f9bc e6d3 7a3d
00000370: ee60 22bd 6295 52bd 3243 803d 16a5 38bc
00000380: cfa3 773b 17fe 03bd 5175 6f3c 933c 5bbc
00000390: 0fc1 653d bf79 2b3d c72f bc3c e4ef 5cbc
000003a0: d8a7 39bc cf97 053d 9396 cbbc 23fe 22bd
000003b0: 5fdf 6e3a b6a7 893c a065 dcbc edd7 373c
000003c0: a221 85bd 8140 08bd 0b14 af3c 580d 5a3d
000003d0: a9e8 033d bb6d 763c 4cd0 82bd dee1 16bd
000003e0: 66d4 7abd 33da 693d aacf 6dbc 49ab 39bd
000003f0: 821a 15bd 7011 633d 3958 2d3d d52f febb

weight f4 [3, 256]
-0.023298195 -0.05441416 -0.11184212 -0.07451355 -0.10881622 -0.021001592 0.086143516 0.032169722
0.07541206 -0.06166261 0.0039230674 0.11664442 0.094393134 0.05978197 0.0335241 -0.07824759
0.02267033 -0.13573478 -0.0864628 -0.019155337 -0.05868957 0.07840113 0.06847041 -0.035765737
-0.040962078 0.009330248 -0.014430866 0.05001935 -0.13559674 -0.108413614 0.12357326 0.09019538
0.113484144 -0.040508304 0.0013233884 0.013372403 -0.18753521 -0.009071679 0.0063375477 -0.024382807
-0.0575402 0.08185822 0.014215566 -0.043743253 0.07303535 0.15828139 0.14697173 0.086441346
-0.019908395 0.03322911 -0.0341286 0.04416743 -0.047582407 -0.08293324 -0.022819089 -0.09781336
0.033656236 -0.12064939 -0.051790327 0.11178763 -0.087620586 0.024238186 -0.050121114 -0.10663055
-0.04650079 0.008411319 -0.047308587 0.045507126 0.08185077 0.090035334 0.0019371648 -0.035502393
0.023636043 -0.070087366 -0.09976038 0.11023168 -0.010234108 -0.009572234 0.022356816 0.0062999665
0.037204374 -0.10268036 -0.017901007 0.043512728 0.092100486 -0.0541418 -0.0955002 -0.017729534
0.007922971 -0.063012265 0.029252058 0.055195674 -0.0012819448 0.07740044 -0.019230573 -0.11721228
-0.04774417 -0.027448654 -0.08611613 0.043114997 -0.009767904 0.12962571 -0.003278868 -0.080596745
0.0005881521 0.017087275 0.19034682 -0.033626948 0.10010678 0.06894832 0.05264792 -0.08431411
-0.08506658 -0.14624499 -0.08654438 -0.09222558 -0.025441166 -0.030082256 0.015378165 0.075578995
0.09421321 -0.0037385689 0.0737909 0.122829355 -0.009824892 0.104493104 -0.10603099 -0.061872315
0.019099837 -0.044239983 0.067841746 -0.07889183 0.038566075 -0.0662503 0.051270876 -0.0073479456
0.015298161 0.07543152 -0.019784968 0.07677616 -0.027614389 -0.05160285 -0.05592135 -0.07627904
0.05109406 0.109051965 -0.050158996 0.032281473 0.07476421 -0.039967366 -0.031013174 0.025623105
0.13548751 0.0955258 0.04311942 0.058712676 -0.059862517 0.086889215 -0.017482365 0.016134486
0.0043927715 0.033956364 -0.064012095 0.03293314 -0.036385424 0.050253924 0.07400241 -0.041845653
0.017724635 0.0332715 0.092567906 -0.02277337 0.032130007 -0.09094266 0.039323833 0.03289212
-0.0058305752 0.052076865 -0.0018767341 0.034919545 0.055202838 0.07040366 -0.0028174669 0.067793675
-0.033640943 -0.0661966 0.038497817 0.068088904 0.07038686 -0.038213473 0.011531232 -0.06644403
0.037315857 0.011474139 0.045842342 0.076915994 0.09889085 0.124790445 0.01761758 -0.0947872
-0.025494138 -0.06327653 0.056163907 0.029663747 -0.1007305 -0.16889758 -0.018421004 0.006805462
0.06114795 -0.07733246 -0.018205913 -0.045000434 -0.0658717 -0.017479578 -0.09662218 0.123719774
0.031996988 -0.181093 0.09056827 0.018011713 0.028166823 -0.087462604 0.08934962 -0.013802613
0.105058685 -0.008039693 -0.004393852 0.036283072 -0.03509202 -0.0678828 0.06718937 0.01149276
0.0033098802 0.07174335 0.05796577 -0.034322724 0.045363113 -0.056938026 -0.0107537415 -0.05081016
-0.024039727 -0.048175253 0.030517159 0.099899955 0.03506391 0.070336245 -0.03575519 -0.02597697
0.087372266 -0.071288906 0.03691943 0.07808432 -0.117581725 0.04357586 0.054397658 0.021951687
00000000: dbdb bebc 62e1 5ebd 7b0d e5bd 8f9a 98bd
00000010: 0adb debd 880b acbc 036c b03d 66c4 033d
00000020: a371 9a3d ef91 7cbd 138d 803b 45e3 ee3d
00000030: 3051 c13d f0dd 743d 9150 093d 4640 a0bd
00000040: 21b7 b93c 0ffe 0abe 6913 b1bd a7eb 9cbc
00000050: 7964 70bd c690 a03d 373a 8c3d 187f 12bd
00000060: dac7 27bd e6dd 183c 706f 6cbc 17e1 4c3d
00000070: dfd9 0abe f507 debd fa13 fd3d 5bb8 b83d
00000080: 606a e83d 09ec 25bd 8c75 ad3a ec17 5b3c
00000090: 3b09 40be 61a1 14bc 34ab cf3b 74be c7bc
000000a0: 46af 6bbd 48a5 a73d 68e8 683c 202c 33bd
000000b0: 8f93 953d 8414 223e c27f 163e 2908 b13d
000000c0: ee16 a3bc 3f1b 083d 6eca 0bbd e8e8 343d
000000d0: c5e5 42bd e7d8 a9bd 19ef babc 5f52 c8bd
000000e0: 1fdb 093d 0717 f7bd 1822 54bd eaf0 e43d
000000f0: 6c72 b3bd 298f c63c cc4b 4dbd 1e61 dabd
00000100: 9d77 3ebd a1cf 093c a6c6 41bd ae65 3a3d
00000110: 60a1 a73d 7264 b83d 77e8 fd3a f56a 11bd
00000120: 60a0 c13c f789 8fbd 2c4f ccbd 26c1 e13d
00000130: f6ac 27bc dcd4 1cbc a425 b73c f36f ce3b
00000140: 9d63 183d 154a d2bd 22a5 92bc 673a 323d
00000150: 2e9f bc3d cbc3 5dbd 9c95 c3bd 873d 91bc
00000160: 59cf 013c 930c 81bd 03a2 ef3c dc14 623d
00000170: ee06 a8ba 1f84 9e3d 6f89 9dbc fe0c f0bd
00000180: 648f 43bd 00dc e0bc a75d b0bd 5a99 303d
00000190: 8f09 20bc 9abc 043e 47e2 56bb e80f a5bd
000001a0: 382e 1a3a 9dfa 8b3c 47ea 423e 69bc 09bd
000001b0: c904 cd3d c734 8d3d 58a5 573d e0ac acbd
000001c0: 6337 aebd 3fc1 15be 2e3e b1bd c4e0 bcbd
000001d0: fe69 d0bc 106f f6bc b3f4 7b3c 29c9 9a3d
000001e0: dbf2 c03d c702 75bb af1f 973d f58d fb3d
000001f0: 95f8 20bc 7b00 d63d c726 d9bd d36d 7dbd
00000200: 4377 9c3c fc34 35bd 9df0 8a3d 0a92 a1bd
00000210: 76f7 1d3d 3dae 87bd 6901 523d 09c7 f0bb
00000220: 23a5 7a3c d77b 9a3d 1614 a2bc d23c 9d3d
00000230: 9237 e2bc 835d 53bd c90d 65bd 2f38 9cbd
00000240: 0148 513d a356 df3d 8573 4dbd 9439 043d
00000250: fa1d 993d d2b4 23bd 570f febc 8ce7 d13c
00000260: 3dbd 0a3e 08a3 c33d fd9d 303d b47c 703d
00000270: 6632 75bd f9f2 b13d 2d37 8fbc 782c 843c
00000280: 3df1 8f3b d415 0b3d c618 83bd e6e4 063d
00000290: e208 15bd 0fd7 4d3d 938e 973d 5966 2bbd
000002a0: 4133 913c b247 083d 3e94 bd3d 388f babc
000002b0: c19a 033d 2540 babd 0712 213d e3b9 063d
000002c0: 690e bfbb 8d4e 553d bffc f5ba cc07 0f3d
000002d0: 5f1c 623d cb2f 903d 40a5 38bb 69d7 8a3d
000002e0: 16cb 09bd 1592 87bd e3af 1d3d 3272 8b3d
000002f0: fc26 903d bb85 1cbd 7eed 3c3c cf13 88bd
00000300: 83d8 183d 07fe 3b3c 2ec5 3b3d 2286 9d3d
00000310: 4987 ca3d 2292 ff3d be52 903c cb1f c2bd
00000320: 15d9 d0bc 2097 81bd 200c 663d 6301 f33c
00000330: cb4b cebd 7df3 2cbe a5e7 96bc 5a00 df3b
00000340: 4676 7a3d 7b60 9ebd 9124 95bc 6052 38bd
00000350: bee7 86bd 5531 8fbc d9e1 c5bd cb60 fd3d
00000360: 460f 033d 7270 39be db7b b93d 4d8d 933c
00000370: 1cbe e63c 981f b3bd effc b63d 5b24 62bc
00000380: 0229 d73d ebb8 03bc 4dfa 8fbb 8f9d 143d
00000390: a6bc 0fbd 2306 8bbd 959a 893d 214c 3c3c
000003a0: 93ea 583b 2dee 923d 846d 6d3d fc95 0cbd
000003b0: acce 393d d937 69bd 7630 30bc 501e 50bd
000003c0: f6ee c4bc 6a53 45bd 1fff f93c 5998 cc3d
000003d0: 2d9f 0f3d 730c 903d 0974 12bd a8cd d4bc
000003e0: 3bf0 b23d ebff 91bd d438 173d acea 9f3d
000003f0: b0ce f0bd 9a7c 323d 14d0 5e3d 06d4 b33c

bias f4 [3]
0.061349846 -0.022787146 -0.0037992036
00000000: fa49 7b3d 1cac babc 0ffc 78bb

weight f4 [256, 11]
-0.47570613 1.0273762 -0.8961899 -0.61456484 -0.10576911 -0.31201044 -0.1682179 0.3192778
-0.24718334 0.00026094745 0.09832913 -0.040280696 -0.1044496 0.46771055 -0.9996358 0.36143646
-0.022753494 0.79900104 0.54902023 -0.26941943 -0.2429271 -0.15439062 0.27670106 -1.3540674
0.9218168 -1.183637 -0.060863648 0.095770724 -0.4459926 -0.003938835 0.10233533 0.13540673
-0.104838856 0.081932336 0.11261676 -0.2863159 -0.14954118 -0.50018805 -0.6672287 0.07365785
-0.9096125 0.64466524 0.3855199 0.12915091 0.16806793 0.99348664 0.20743763 -0.56402695
1.3080502 0.5681686 -0.13736828 1.5527579 -1.3433998 -0.8126089 -0.27290475 0.020894768
-1.7118071 0.27879208 -0.49713618 0.7524238 -0.3651963 0.7335594 -0.535386 0.32451445
0.33490774 0.20244983 0.008051566 -0.23875935 -0.5632543 0.40291962 -0.8747145 -0.5837488
0.69536096 -1.0119206 0.81789696 0.79713553 0.14715834 -0.5596078 1.7730709 -1.4028826
-0.07568213 0.61560696 0.25281563 0.24970795 -0.21508333 0.048695616 -0.05293462 0.0599274
0.31798944 -1.5057919 0.8092441 -0.06292879 0.184215 -0.12162843 0.02999326 -0.36649963
0.47977546 0.016654061 -0.15921783 -0.36411065 0.61097753 0.115129046 -0.4655335 0.62277114
0.19020802 -0.7448964 0.6573817 -0.34442002 -0.80249786 -0.068829626 0.6466133 -0.695185
1.5539325 0.29850975 1.0989213 -0.005922218 -0.387234 -0.6460131 0.70461076 0.28450358
-0.086841516 0.53192264 -0.87682694 0.7341126 0.7707474 -0.2476152 0.09552977 0.49305403
0.26355162 -0.21043287 -0.061311305 0.06784368 -0.48129502 0.61151016 -0.6104943 -0.05728904
-0.17776527 0.7369076 0.29824048 -0.38323992 0.39245382 -0.005809329 0.05692082 -0.31498796
1.6006495 -0.08782949 -0.41040432 0.03548081 0.5565718 -0.6103262 0.62814057 -0.6840861
-0.88176423 -0.277705 -0.25819612 1.030891 -0.8237349 -0.29221588 0.11805394 0.017732713
-0.73554766 0.977939 0.0574135 -0.2108592 -0.034940377 -0.3368905 2.420577 -0.74690074
0.6599654 -0.32521355 -0.010413656 -0.42404324 -0.25907695 0.32759428 0.013612213 -0.07299092
0.16198628 0.6233844 -0.037853118 -1.0670127 -0.3934591 0.10921135 0.7871515 0.28710878
-0.22590037 0.015650928 -0.49567184 0.05382226 -1.1025208 0.5874765 -0.051461626 1.0597125
-0.6906675 1.1516924 -0.09375205 0.09534143 0.06294158 0.08917946 -0.37178063 0.84251046
-1.8709066 -0.58265555 -0.12333751 0.32701358 0.08241028 -0.042487904 0.007143915 0.03937819
-0.0012452353 -0.032214135 -1.4185128 0.9879658 0.14956619 0.52099 -0.49675673 -0.098626465
0.38063043 -0.30175367 -0.007304967 -0.06325652 -0.36273316 1.7862298 -0.9426567 -0.5553474
-0.018393436 -0.057058353 -0.2801748 0.10273391 0.08994327 0.04421966 0.055441607 0.5104797
-1.2542392 1.6443344 0.13218929 -0.4351324 -0.38824296 -0.35376805 0.049372565 -0.12972459
-0.06505584 -0.006404481 0.5360455 1.388866 -0.95232606 0.21795557 -0.30435857 -0.42465028
0.25284564 0.5997252 -1.1148913 -0.07907953 -0.2768819 0.5441977 -1.9051225 1.4297144
00000000: c18f f3be 1081 833f b46c 65bf 1f54 1dbf
00000010: 7a9d d8bd d5bf 9fbe 5041 2cbe 6178 a33e
00000020: a11d 7dbe c6cf 8839 c860 c93d 5ffd 24bd
00000030: ace9 d5bd c277 ef3e 22e8 7fbf 330e b93e
00000040: 8965 babc 558b 4c3f 978c 0c3f 58f1 89be
00000050: e2c1 78be 9318 1ebe c3ab 8d3e 1552 adbf
00000060: 30fc 6b3f 6b81 97bf 294c 79bd 7123 c43d
00000070: 2459 e4be 5811 81bb 2f95 d13d 10a8 0a3e
00000080: c1b5 d6bd 24cc a73d 9ea3 e63d ff97 92be
00000090: 5321 19be 530c 00bf 80cf 2abf edd9 963d
000000a0: 5ddc 68bf c808 253f dd62 c53e 2340 043e
000000b0: 001a 2c3e 2455 7e3f 886a 543e 1264 10bf
000000c0: 306e a73f 7f73 113f 45aa 0cbe c5c0 c63f
000000d0: 86f4 abbf 2307 50bf 2cba 8bbe 812b ab3c
000000e0: 7f1c dbbf d6bd 8e3e a288 febe d99e 403f
000000f0: 02fb babe 8dca 3b3f 0f0f 09bf c226 a63e
00000100: 0779 ab3e 024f 4f3e b7ea 033c 557d 74be
00000110: 6f31 10bf 7b4b ce3e 4aed 5fbf 9070 15bf
00000120: 2d03 323f 9d86 81bf b261 513f 1311 4c3f
00000130: adb0 163e 7542 0fbf fdf3 e23f a891 b3bf
00000140: 3cff 9abd 6b98 1d3f 0d71 813e 71b3 7f3e
00000150: ce3e 5cbe 0e75 473d f9d1 58bd 6f76 753d
00000160: 83cf a23e cabd c0bf 9f2a 4f3f cfe0 80bd
00000170: dba2 3c3e 5418 f9bd 6db4 f53c d7a5 bbbe
00000180: 21a5 f53e 196e 883c 000a 23be b66c babe
00000190: 0669 1c3f c7c8 eb3d 685a eebe ee6d 1f3f
000001a0: e4c5 423e 88b1 3ebf 2b4a 283f d257 b0be
000001b0: 8070 4dbf 8cf6 8cbd 7388 253f a5f7 31bf
000001c0: 43e7 c63f 45d6 983e 74a9 8c3f 2a0f c2bb
000001d0: 8943 c6be 1d61 25bf 5f61 343f 74aa 913e
000001e0: f7d9 b1bd 152c 083f bb77 60bf ceee 3b3f
000001f0: b44f 453f d78e 7dbe 1da5 c33d 9471 fc3e
00000200: 3df0 863e b77b 57be 9021 7bbd a1f1 8a3d
00000210: 4d6c f6be ee8b 1c3f 5b49 1cbf eaa7 6abd
00000220: 1908 36be faa5 3c3f fab2 983e 0638 c4be
00000230: b5ef c83e 2f5c bebb ce25 693d 1a46 a1be
00000240: 15e2 cc3f f3df b3bd 8420 d2be 5354 113d
00000250: 7d7b 0e3f 563e 1cbf d2cd 203f 4420 2fbf
00000260: 4dbb 61bf 5a2f 8ebe 4832 84be 3cf4 833f
00000270: 4ae0 52bf 529d 95be 44c6 f13d 3244 913c
00000280: da4c 3cbf 365a 7a3f 6b2a 6b3d 79eb 57be
00000290: a41d 0fbd e97c acbe bcea 1a40 e334 3fbf
000002a0: 7ef3 283f 6482 a6be 0a9e 2abc 321c d9be
000002b0: bca5 84be 70ba a73e c205 5f3c 437c 95bd
000002c0: bbdf 253e 1f96 1f3f df0b 1bbd df93 88bf
000002d0: 7973 c9be 33aa df3d c382 493f ecff 923e
000002e0: 6d52 67be 6036 803c b3c8 fdbe bb74 5c3d
000002f0: 671f 8dbf dc64 163f 6dc9 52bd a9a4 873f
00000300: 96cf 30bf a86a 933f 1301 c0bd 5e42 c33d
00000310: 84e7 803d b9a3 b63d 085a bebe c4ae 573f
00000320: de79 efbf ea28 15bf 6098 fcbd 536e a73e
00000330: b9c6 a83d cc07 2ebd 8117 ea3b 064b 213d
00000340: 2a37 a3ba f8f2 03bd d491 b5bf 54eb 7c3f
00000350: e127 193e 9a5f 053f e656 febe acfc c9bd
00000360: fee1 c23e 757f 9abe 815e efbb a28c 81bd
00000370: 29b8 b9be 2ea3 e43f f351 71bf 3f2b 0ebf
00000380: d5ad 96bc 05b6 69bd 1273 8fbe 2866 d23d
00000390: 2d34 b83d ad1f 353d bd16 633d ccae 023f
000003a0: e98a a0bf 8d79 d23f a15c 073e adc9 debe
000003b0: c8c7 c6be 1621 b5be e33a 4a3d 86d6 04be
000003c0: ff3b 85bd aedc d1bb 473a 093f 5cc6 b13f
000003d0: a4cb 73bf bf2f 5f3e e3d4 9bbe c36b d9be
000003e0: fc74 813e 9787 193f c2b4 8ebf 73f4 a1bd
000003f0: 77c3 8dbe 8a50 0b3f 0edb f3bf e200 b73f

bias f4 [256]
-0.45939946 -0.00035671372 0.029696256 0.13840565 0.034831576 0.19005494 0.2183166 -0.33445668
0.35026821 0.0116561465 0.46324563 0.351912 -0.7701855 -0.06541236 0.13805054 0.00970638
0.39463806 0.5181188 -0.5339661 0.6156978 -0.32588327 0.16190295 0.2747956 0.49006903
0.04040291 0.24439299 -0.10732084 -0.22905543 -0.21892509 0.45657408 0.35884443 0.07269665
0.42507237 0.43973348 -0.5608376 -0.6289228 0.82988316 0.13505852 0.17004992 -0.52864414
-0.26878613 0.007856273 0.1950422 -0.49998665 0.40205705 -0.7288122 -0.64639175 0.6403806
0.75473875 0.34163696 -0.76752764 -0.33255056 -0.32604113 0.045393847 -0.5492028 -0.12025546
0.13621974 0.62158483 0.4826001 -0.2761037 -0.15447494 -0.307304 0.17047021 0.12978545
0.5181183 0.5781236 0.24907139 0.33664253 -0.39447483 -0.35668567 0.16507056 -0.3904141
-0.61392695 0.6764473 -0.25411475 -0.38216338 0.5911089 -0.66477877 0.07567196 -0.2625712
-0.055937182 -0.072110236 -0.3451292 0.7672822 -0.5488207 0.45979443 -0.528723 -0.5256092
-0.46338338 -0.29542243 -0.36800334 -0.664919 0.1247562 0.52876973 0.38761717 0.43357414
-0.14782247 0.48695886 -0.5044543 -0.14369585 -0.0043547265 -0.26764888 -0.2712399 -0.40398827
0.13971277 -0.17685254 0.16289194 0.40776128 -0.39652756 0.62679344 0.43760896 0.3090106
0.19411051 -0.1878209 -0.33177325 0.34087023 -0.05737517 0.045920607 -0.30280215 -0.3831003
-0.5497671 0.038924802 0.28508234 0.18083964 0.11678388 0.40316978 -0.52174073 -0.54911023
-0.5147499 -0.11734493 0.2854273 -0.62435484 0.07083141 0.18555424 0.32529008 -0.13366568
-0.397182 0.3997444 0.6159422 -0.17638262 0.55527574 -0.0007657483 -0.12804148 0.16936128
0.18842459 0.34495026 0.3717638 -0.17538573 0.16721602 0.36812854 0.024528557 0.0769825
-0.40242818 -0.09208366 -0.4604293 0.09608303 0.59233 -0.40514934 -0.4466451 -0.621734
-0.30803877 0.10027735 -0.6477029 -0.62271607 -0.5036027 0.53334063 -0.30863994 0.057594057
0.60751516 -0.2043584 -0.39588118 -0.143636 0.17711018 -0.20376746 0.5012976 0.014997659
-0.28175113 0.24882506 -0.40266111 0.37797877 0.13378553 -0.18613361 0.34106502 -0.3527258
0.34162873 0.26517656 -0.37796688 -0.2319595 -0.0037408902 0.4400189 -0.14828274 -0.59451133
-0.33933976 0.3183567 0.6633868 -0.5048796 0.27419454 0.7465355 0.15187874 0.09860275
0.031735484 0.29097578 0.06296526 -0.31031683 0.31367734 0.40858385 -0.23041682 0.32187393
-0.6455252 -0.16654326 0.10963747 0.4043077 0.045650676 0.077784784 0.7091679 -0.41172847
0.16736375 -0.38617727 -0.5124465 -0.13230331 0.007137338 -0.03073862 0.21728794 0.46886024
0.052429523 -0.52988005 0.68764687 0.15297103 -0.37662166 -0.4499933 0.18818778 0.17012335
-0.6130034 -0.43416414 -0.21075876 -0.2567605 0.45922065 0.58684057 0.29395562 -0.10332441
-0.0009789716 0.07398643 -0.16398983 -0.12703839 0.075359575 -0.5504793 0.60440344 0.21136047
0.12220499 0.3963949 -0.24273524 -0.08000262 0.5281718 -0.1824872 -0.5006129 -0.24047033
00000000: 6836 ebbe 4e05 bbb9 9045 f33c 36ba 0d3e
00000010: 8eab 0e3d c39d 423e 638e 5f3e e83d abbe
00000020: 5b56 b33e 6cf9 3e3c 882e ed3e cf2d b43e
00000030: e02a 45bf eaf6 85bd 1f5d 0d3e 8207 1f3c
00000040: 000e ca3e 6fa3 043f 01b2 08bf 5f9e 1d3f
00000050: 2cda a6be e3c9 253e 02b2 8c3e 54ea fa3e
00000060: 867d 253d 2842 7a3e 07cb dbbd 828d 6abe
00000070: e62d 60be 14c4 e93e 75ba b73e fbe1 943d
00000080: 16a3 d93e bf24 e13e 0e93 0fbf 1601 21bf
00000090: 3973 543f c84c 0a3e 9121 2e3e 3955 07bf
000000a0: 569e 89be 99b7 003c 24b9 473e 40fe ffbe
000000b0: 6cda cd3e 7093 3abf ee79 25bf fcef 233f
000000c0: 8f36 413f 0aeb ae3e b17c 44bf 1144 aabe
000000d0: ddee a6be e6ee 393d 8e98 0cbf 7f48 f6bd
000000e0: 307d 0b3e 2f20 1f3f 5c17 f73e 775d 8dbe
000000f0: ae2e 1ebe f356 9dbe be8f 2e3e 7ae6 043e
00000100: 67a3 043f e9ff 133f 920c 7f3e 695c ac3e
00000110: 9bf8 c9be 819f b6be 4208 293e 5be4 c7be
00000120: 512a 1dbf a62b 2d3f 541b 82be ebaa c3be
00000130: ea52 173f f12e 2abf e7f9 9a3d bb6f 86be
00000140: 631e 65bd 88ae 93bd c6b4 b0be 9b6c 443f
00000150: 837f 0cbf 2d6a eb3e 645a 07bf 538e 06bf
00000160: 9640 edbe 9c41 97be ef6a bcbe 2238 2abf
00000170: 2e80 ff3d 745d 073f c275 c63e 6efd dd3e
00000180: c65e 17be ac52 f93e eb23 01bf 0125 13be
00000190: 18b2 8ebb 4609 89be f5df 8abe 8dd7 cebe
000001a0: dd10 0f3e d518 35be 25cd 263e 16c6 d03e
000001b0: a905 cbbe 8975 203f 480e e03e a336 9e3e
000001c0: e8c4 463e 1f54 40be 2fde a9be 8b86 ae3e
000001d0: 3a02 6bbd 3f17 3c3d e208 9bbe b925 c4be
000001e0: 89bd 0cbf 9d6f 1f3d 50f6 913e 072e 393e
000001f0: 632c ef3d 456c ce3e cd90 05bf 7d92 0cbf
00000200: a6c6 03bf 8a52 f0bd 8723 923e b8d5 1fbf
00000210: 0f10 913d ee01 3e3e 6c8c a63e a8df 08be
00000220: 705b cbbe 4cab cc3e 63ae 1d3f a59d 34be
00000230: 8d26 0e3f 80bc 48ba 4e1d 03be 0b6d 2d3e
00000240: 60f2 403e 529d b03e d357 be3e 5198 33be
00000250: ad3a 2b3e 587b bc3e 1df0 c83c 00a9 9d3d
00000260: 110b cebe 5c96 bcbd 64bd ebbe 2ec7 c43d
00000270: f0a2 173f bc6f cfbe abae e4be f629 1fbf
00000280: 42b7 9dbe 365e cd3d dbcf 25bf 526a 1fbf
00000290: 1bec 00bf 0389 083f 0e06 9ebe bfe7 6b3d
000002a0: 1d86 1b3f 5443 51be f0b0 cabe 5115 13be
000002b0: 5f5c 353e 6ba8 50be 0a55 003f beb8 753c
000002c0: af41 90be ffcb 7e3e 9929 cebe 6f86 c13e
000002d0: 13ff 083e cf99 3ebe 13a0 ae3e 7a98 b4be
000002e0: f6e9 ae3e 39c5 873e e084 c1be cb86 6dbe
000002f0: b929 75bb 284a e13e 6ed7 17be e531 18bf
00000300: f1bd adbe a6ff a23e b8d3 293f ca3f 01bf
00000310: 3a63 8c3e f31c 3f3f 1a86 1b3e 3df0 c93d
00000320: 11fd 013d c7fa 943e eef3 803d d9e1 9ebe
00000330: 519a a03e e731 d13e 63f2 6bbe a9cc a43e
00000340: 2441 25bf 518a 2abe 9c89 e03d 6b01 cf3e
00000350: 34fc 3a3d a14d 9f3d 078c 353f 13ce d2be
00000360: 6761 2b3e 07b9 c5be b22f 03bf 857a 07be
00000370: 55e0 e93b 8fcf fbbc bb80 5e3e 730e f03e
00000380: 57c0 563d 38a6 07bf a009 303f 70a4 1c3e
00000390: 8ed4 c0be 8665 e6be 4cb4 403e d134 2e3e
000003a0: caed 1cbf c34a debe 25d1 57be 1d76 83be
000003b0: f81e eb3e 2f3b 163f 5a81 963e c09b d3bd
000003c0: d650 80ba 3386 973d f3ec 27be 5a16 02be
000003d0: 1f56 9a3d 36ec 0cbf 2fba 1a3f e16e 583e
000003e0: 9c46 fa3d 46f4 ca3e 968f 78be 6ad8 a3bd
000003f0: 4436 073f eddd 3abe 2b28 00bf db3d 76be

weight f4 [256, 256]
-0.08379402 -0.42770332 -0.4449345 -0.24267364 -0.2930712 -0.24183673 0.094689935 0.48467135
-0.15745439 0.16513254 -0.15417542 -0.114431836 0.38306272 -0.07386378 0.43837833 0.054094348
-0.29537097 -0.17798327 0.26142627 -0.22207384 -0.18173645 -0.4794457 -0.43160212 -0.25187156
0.10222934 -0.502208 0.50850666 0.010795573 -0.06766973 -0.27503988 -0.13923608 -0.17433684
0.0050274776 -0.35332474 0.19367367 0.04541574 -0.85249054 -0.3616268 -0.35902065 -0.54124266
0.70811474 0.60576737 -0.1613762 -0.049817268 0.12928972 0.7627355 0.4143779 -0.93322027
-0.9127655 -0.11098575 0.3735756 0.42285156 -0.29886124 -0.041806277 0.29635933 0.101497345
-0.15739234 -0.29189828 -0.16159166 -0.060151447 -0.40733358 -0.010874421 -0.3752118 -0.063859336
0.14637388 -0.825563 -0.12532721 -0.24301878 0.07035739 0.43060824 0.01745749 -0.041448377
0.43249884 -0.57297516 0.05911264 0.4331581 -0.30779 0.18620971 0.1879676 0.10245984
0.41631615 -0.00068784814 0.6002801 0.034268085 0.62655556 -0.06839906 0.32335106 0.22372329
0.16672216 -0.30550516 0.038944464 0.9000763 -0.22796911 -0.921031 0.3459207 -0.18470576
-0.2966559 -0.85219425 -0.1575198 -0.00071302155 0.63913876 0.11375119 -0.049575668 -0.4457266
-0.3704747 0.2854602 0.2514303 0.19874206 0.052799743 -0.028443042 0.11709937 -0.08697395
-0.12207585 -0.012019166 -0.06400085 0.5658669 0.36185366 0.041598085 -0.28261772 -0.25577343
0.12687722 -0.105276406 -0.77498996 -0.17605408 -0.005940746 -0.19512434 0.19245966 0.19029894
-0.27350873 0.4774605 -0.16376692 0.20325793 0.10374657 -0.3870384 0.018694496 -0.044912066
-0.09439773 -0.09535106 -0.29376775 -0.25816378 0.67049146 0.2896141 0.49701935 -0.053547047
-0.017435992 -0.4361948 0.1538801 0.64079046 0.22058287 0.03416206 0.13445275 -0.060126666
-0.26931056 0.26549432 0.39289588 0.08959083 0.10679516 0.48677626 -0.12627475 0.106520385
-0.064938374 0.07436525 -0.22250217 0.19005905 0.16801345 0.33331048 -0.056319874 -0.17853145
-0.36895728 0.3007639 0.102631845 0.1270669 -0.29294208 0.42417842 0.14264257 0.13656509
0.6238911 -0.0011183686 0.32445472 -0.1879421 -0.42869884 -0.9107076 -0.7876673 0.78499657
0.09838107 -0.104921676 0.16000551 -0.05050429 -0.058714274 -0.40282178 -0.023529219 0.18479064
0.42406896 -0.19075896 -0.020658772 0.11393091 0.6712703 -0.041665986 0.01275344 0.1995708
0.3814311 -0.13109636 -0.0894152 -0.002894533 -0.06789561 -0.03837169 -0.13280596 0.04380517
0.0797421 -0.022565698 -0.024280986 -0.06413256 -0.37525287 -0.1870123 -0.1791008 0.050294396
-0.21850339 0.23347203 0.6430723 -0.31079647 0.10806718 0.016061604 -0.8418809 0.5704682
-0.46568483 0.8571305 -0.22072344 -0.32483655 0.062037725 0.3866206 0.15434568 0.15105401
0.056909315 0.00052751927 0.1596523 0.422137 -0.6888348 0.27753982 -0.019674174 -0.6881722
0.19745515 -0.38897505 0.50628525 0.285584 -0.0915875 0.55738944 -0.6171801 0.42134312
-0.02092653 0.27433044 -0.18069413 -0.13716885 0.4012331 -0.04293682 0.47715035 0.011227726
00000000: 339c abbd eefb dabe 74ce e3be 707f 78be
00000010: 6e0d 96be 0ca4 77be ccec c13d d826 f83e
00000020: b93b 21be 8118 293e 29e0 1dbe 3d5b eabd
00000030: cc20 c43e e545 97bd 2073 e03e 0992 5d3d
00000040: dd3a 97be 3f41 36be aad9 853e 5367 63be
00000050: 1f19 3abe e879 f5be f4fa dcbe 4ff5 80be
00000060: 9e5d d13d b490 00bf 7e2d 023f eadf 303c
00000070: 6d96 8abd 07d2 8cbe e793 0ebe 5b85 32be
00000080: 8abd a43b fbe6 b4be 6452 463e db05 3a3d
00000090: d23c 5abf 2627 b9be 8ed1 b7be e18e 0abf
000000a0: 0247 353f 9213 1b3f cd3f 25be 310d 4cbd
000000b0: 8664 043e a242 433f 5729 d43e 86e7 6ebf
000000c0: 00ab 69bf 7f4c e3bd 4d45 bf3e 0080 d83e
000000d0: 5704 99be 0f3d 2bbd 69bc 973e d7dd cf3d
000000e0: 752b 21be b173 95be 4978 25be 5d61 76bd
000000f0: 078e d0be a12a 32bc c31b c0be afc8 82bd
00000100: 09e3 153e 1958 53bf c755 00be ead9 78be
00000110: 8917 903d af78 dc3e 0303 8f3c c6c5 29bd
00000120: 7d70 dd3e 80ae 12bf 1820 723d e6c6 dd3e
00000130: a796 9dbe c2ad 3e3e 947a 403e 77d6 d13d
00000140: 6427 d53e b550 34ba f5ab 193f b15c 0c3d
00000150: f265 203f ce14 8cbd 458e a53e b817 653e
00000160: 37b9 2a3e 2c6b 9cbe 3b84 1f3d 676b 663f
00000170: bc70 69be b0c8 6bbf 851c b13e 8223 3dbe
00000180: 48e3 97be 6729 5abf df4c 21be 11ea 3aba
00000190: 999e 233f 62f6 e83d db0f 4bbd 4736 e4be
000001a0: dcae bdbe d727 923e 79bb 803e 0a83 4b3e
000001b0: 8b44 583d 6201 e9bc cbd1 ef3d 661f b2bd
000001c0: e702 fabd 09ec 44bc e112 83bd a7dc 103f
000001d0: e244 b93e c162 2a3d 45b3 90be bcf4 82be
000001e0: 1aec 013e 289b d7bd be65 46bf 8547 34be
000001f0: 97aa c2bb adce 47be 2514 453e badd 423e
00000200: 5609 8cbe b475 f43e 84b2 27be d922 503e
00000210: 1579 d43d e629 c6be 3325 993c b7f5 37bd
00000220: 9953 c1bd 6b47 c3bd ba68 96be 0b2e 84be
00000230: 54a5 2b3f 4d48 943e 5279 fe3e 2654 5bbd
00000240: edd5 8ebc ed54 dfbe bf92 1d3e d80a 243f
00000250: 7ae0 613e 84ed 0b3d fbad 093e 6147 76bd
00000260: 13e3 89be dfee 873e a629 c93e 667b b73d
00000270: 6cb7 da3d bd3a f93e 2b4e 01be 5c27 da3d
00000280: 69fe 84bd cf4c 983d 9cd7 63be d79e 423e
00000290: b80b 2c3e aca7 aa3e abaf 66bd f3d0 36be
000002a0: f8e7 bcbe bafd 993e a530 d23d d31d 023e
000002b0: 81fc 95be ea2d d93e e510 123e b8d7 0b3e
000002c0: 54b7 1f3f 3996 92ba ee1e a63e e573 40be
000002d0: 6a7e dbbe 2224 69bf 90a4 49bf 89f5 483f
000002e0: 047c c93d 2de1 d6bd 7cd8 233e 96dd 4ebd
000002f0: 617e 70bd a83e cebe 59c0 c0bc c239 3d3e
00000300: 911f d93e 5156 43be 963c a9bc 9c54 e93d
00000310: 5fd8 2b3f f4a9 2abd cef3 503c 4a5c 4c3e
00000320: f04a c33e 203e 06be 511f b7bd 35b2 3dbb
00000330: db0c 8bbd a22b 1dbd 49fe 07be 0d6d 333d
00000340: d34f a33d b3db b8bc ebe8 c6bc ee57 83bd
00000350: 2521 c0be 2780 3fbe 3366 37be 7f01 4e3d
00000360: 5abf 5fbe 4b13 6f3e 63a0 243f b720 9fbe
00000370: 5352 dd3d a093 833c 8285 57bf 340a 123f
00000380: 3e6e eebe e86c 5b3f 5305 62be fa50 a6be
00000390: 451b 7e3d 23f3 c53e cb0c 1e3e e7ad 1a3e
000003a0: be19 693d 3849 0a3a e47b 233e 5722 d83e
000003b0: 7a57 30bf b319 8e3e bc2b a1bc 0e2c 30bf
000003c0: af31 4a3e bd27 c7be e99b 013f 1138 923e
000003d0: 3a92 bbbd 13b1 0e3f 84ff 1dbf 49ba d73e
000003e0: 1d6e abbc 0a75 8c3e e207 39be fe75 0cbe
000003f0: 6d6e cd3e 85de 2fbd 0d4d f43e 7ff4 373c
