data/PPO/Ant-v2/ppo_s25059/pyt_save/model.pt (torch_old, 769468 bytes, 12 tensors)

log_std f4 [8]
0	0xc024b8d5	-2.5737813
1	0xc01f8f8e	-2.493137
2	0xc02775eb	-2.6165721
3	0xc01b93cd	-2.430896
4	0xc01cf9f3	-2.4527557
5	0xc02d0a32	-2.7037473
6	0xc01d8e7c	-2.4618216
7	0xc026f1a0	-2.6084976

weight f4 [256, 111]
0	0xbde2e7ac	-0.11079344
1	0xbe1a76d7	-0.15084396
2	0x3c7ca6ce	0.015420629
3	0xbd441403	-0.047870647
4	0xbbce1c04	-0.006289961
5	0xbe47b1e0	-0.19501448
6	0x3d93577d	0.071944214
7	0x3dd57b0d	0.10423861
8	0xbc845461	-0.016153516
9	0x3cfd950f	0.030954866
10	0x3cc189e9	0.023625331
11	0xbd507930	-0.050896823
12	0x3c9b4a04	0.018956192
13	0x3e5c7220	0.2152791
14	0x3dc79a29	0.097462006
15	0x3d8cb528	0.0687049
16	0xbe1387ac	-0.14407223
17	0x3dc63253	0.09677567
18	0xbd634c89	-0.05549291
19	0x3cc5f16c	0.02416297
20	0xbdcc675c	-0.09980652
21	0xbe27b1ed	-0.16376467
22	0xbcee56a1	-0.029094042
23	0xbce3460d	-0.027743364
24	0x3d5c179a	0.053733446
25	0xbcbec855	-0.023288885
26	0xbc261b3a	-0.010138327
27	0x3c745c00	0.014914513
28	0x3d482a0e	0.04886823
29	0x3d8d66a1	0.069043405
30	0x3d825e21	0.0636561
31	0x3c89ed20	0.016836703
32	0x3d3d87ae	0.046271972
33	0x3db12b37	0.08650821
34	0x3b42fba0	0.002975203
35	0xbd97b148	-0.074068606
36	0xbc064c28	-0.008196868
37	0xbd7436a1	-0.05962241
38	0x3d36095a	0.044442512
39	0x3d6514ee	0.055928163
40	0x3d873541	0.06601954
41	0x3d76a02e	0.060211353
42	0x3dbf3f53	0.0933825
43	0x3c0ab3a8	0.008465685
44	0x3c95d4d4	0.01828996
45	0xbb685c80	-0.0035455525
46	0xbd46b1a6	-0.048509263
47	0xbdba1a8a	-0.09087093
48	0x3c20df58	0.009818874
49	0xbd41b2f2	-0.047289796
50	0x3d6a11a6	0.057145737
51	0xbd831d99	-0.0640213
52	0xbc80b0fc	-0.015709393
53	0x3d06455a	0.032780983
54	0xbdaf5277	-0.08560651
55	0xbc3342e0	-0.010941237
56	0xbda3c8ff	-0.07997321
57	0xbd0e1312	-0.034686156
58	0x3d846aed	0.06465707
59	0x3c5fdf28	0.013664044
60	0x3d4044f6	0.046940766
61	0xbd5a3245	-0.053270597
62	0xbd16b8d1	-0.03679735
63	0xbd3986e8	-0.045294672
64	0x3c5080a8	0.012725987
65	0x3d029ea6	0.03188958
66	0x3da63d8b	0.08117207
67	0x3d796ce2	0.060894854
68	0xbd477390	-0.048694193
69	0x3d4f4de6	0.0506114
70	0x3d178b52	0.0369981
71	0x3d882f33	0.066496275
72	0x3dc13dc9	0.09435613
73	0x3d3f3886	0.046684764
74	0xbd0220b8	-0.031769484
75	0x3d3c6f96	0.046004854
76	0x3cac27a4	0.021014996
77	0xbcd46d70	-0.02593109
78	0xbdbcc9b4	-0.09218159
79	0x3c1a4040	0.009414732
80	0x3d99a889	0.07502849
81	0xbd12df36	-0.0358574
82	0xbd90020a	-0.07031639
83	0xbca575d8	-0.020197794
84	0xbd84fa40	-0.06493044
85	0x3d38a5de	0.04508006
86	0x3d83ee3b	0.06441923
87	0x3d384732	0.044989772
88	0xbd166df0	-0.03672594
89	0xbd98cfa4	-0.07461479
90	0xbd76719e	-0.060166948
91	0x3d8816bd	0.06644962
92	0x3d6d9a0a	0.05800823
93	0xbc7cd5c8	-0.015431829
94	0x3c419dc8	0.011817403
95	0x3d75f7e6	0.060050867
96	0xbd8ec484	-0.06971076
97	0x3c130a68	0.008974649
98	0xbda1bbf4	-0.07897177
99	0xbd68823e	-0.056764834
100	0xbc578c00	-0.013155937
101	0x3d7955e2	0.06087292
102	0xbc8daf38	-0.017295465
103	0x3d7f5256	0.06233438
104	0x3d3201be	0.043458693
105	0xbcc867cc	-0.024463557
106	0x3ba120e0	0.004917249
107	0xbd8d6346	-0.069037005
108	0xbd7b1d15	-0.06130703
109	0x3c5c2050	0.013435438
110	0xbd0a034b	-0.033694547
111	0xbe0b0af1	-0.13578393
112	0xbd821fc1	-0.06353713
113	0x3e6c79c3	0.23093323
114	0xbde8f674	-0.11375132
115	0xbe9a1b06	-0.30098742
116	0x3d54fdee	0.05199998
117	0xbdeca270	-0.1155442
118	0x3defcbd0	0.11708796
119	0xbc7bfba4	-0.01537982
120	0x3d0a0ebb	0.033705454
121	0xbd8d7692	-0.06907381
122	0x3e8603e7	0.26174852
123	0xbe14590a	-0.1448709
124	0xbe0136b9	-0.12618531
125	0x3e4b036b	0.19825523
126	0xbd8116cc	-0.06303176
127	0xbd3cd782	-0.04610396
128	0x3d04aaf9	0.032389615
129	0x3c116bf5	0.008875837
130	0x3e292693	0.16518621
131	0x3e39a3ac	0.18128842
132	0xbd98df94	-0.07464519
133	0x3dbbd7ad	0.09171996
134	0xbd830ab3	-0.06398525
135	0x3de060aa	0.10955937
136	0xbdf2a2d4	-0.11847463
137	0xbd13e2e8	-0.036105067
138	0x3c91f81c	0.017818503
139	0x3d0de3a2	0.034640916
140	0x3d8521e1	0.065006025
141	0xbc972e9c	-0.018454842
142	0x3d3c805e	0.046020858
143	0xbca3e7ec	-0.02000805
144	0xbd9af274	-0.075657755
145	0x3d8b62af	0.06805932
146	0x3d1ee3c2	0.038791426
147	0x3d774162	0.06036509
148	0xbc3fc110	-0.0117037445
149	0xbd7943e4	-0.06085576
150	0xbbdc4220	-0.00672175
151	0xbd48f907	-0.049065616
152	0x3db399c3	0.08769562
153	0x3d01f832	0.031730838
154	0xbd18f405	-0.03734209
155	0x3ce51264	0.02796287
156	0x3db4147b	0.08792969
157	0x3d07a75a	0.033118583
158	0xbd156857	-0.03647646
159	0x3d0ab3ca	0.033862866
160	0x3c90eab0	0.017690033
161	0x3db3a9f1	0.08772648
162	0xbce70a30	-0.0282031
163	0xbd98ea93	-0.074666165
164	0x3d9e237d	0.077216126
165	0x3d0b0fd6	0.03395065
166	0xbc82e388	-0.015977636
167	0xbd63b3e3	-0.055591475
168	0x3c80964c	0.015696667
169	0xbc2ffdf8	-0.010741703
170	0x3d7b9cae	0.06142872
171	0xbcb52bc0	-0.022115588
172	0x3d758886	0.059944652
173	0x3d1944e6	0.037419222
174	0x3d34e2c6	0.04416158
175	0x3b6c9e80	0.0036105216
176	0xbd5e18b0	-0.054222763
177	0x3c857ee8	0.016295865
178	0x3d4aebda	0.04954133
179	0xbba76100	-0.005107999
180	0xbbb62ab0	-0.005559288
181	0x3cfa2b3c	0.030538194
182	0x3ca50a88	0.020146623
183	0x3d795efa	0.060881592
184	0x3dad213b	0.08453604
185	0xbd680571	-0.056645814
186	0xbd1ac582	-0.037786014
187	0x3d224596	0.039617144
188	0x3d6a3c92	0.05718667
189	0x3ce87b4c	0.028379105
190	0xbcb92b84	-0.022603758
191	0x3b4ef720	0.0031580403
192	0x3d14e306	0.03634932
193	0xbd6aa99f	-0.05729067
194	0xbc0d1208	-0.008610256
195	0xbd25b79a	-0.0404583
196	0x3d5c4292	0.053774424
197	0xbd2ee1df	-0.042695876
198	0xbd9d5e4e	-0.07684003
199	0x3da31a9f	0.07964062
200	0xbc768af8	-0.015047781
201	0xbdb42644	-0.08796361
202	0xbd13cde9	-0.036085043
203	0xbd9db608	-0.07700735
204	0x3da60ffb	0.08108517
205	0xbdacc102	-0.08435251
206	0xbcedbcd8	-0.029020712
207	0x3d7c7f66	0.061644934
208	0xbd8c4c2c	-0.06850466
209	0xbdb267fa	-0.08711238
210	0x3cc2a004	0.023757942
211	0xbdbea638	-0.093090475
212	0xbdbc1e15	-0.09185425
213	0xbda3c228	-0.07996017
214	0xbcac27d8	-0.021015093
215	0x3d526846	0.051368974
216	0x3c1081d0	0.008820012
217	0xbc376778	-0.0111941025
218	0x3d347656	0.044058166
219	0xbda32d78	-0.07967657
220	0x3d2f4ef6	0.042799912
221	0xbd2bb7be	-0.041923277
222	0x3da662b9	0.081242986
223	0x3e037286	0.12836656
224	0x3e8cf86e	0.27533287
225	0x3c9871b8	0.018608913
226	0xbd295d09	-0.04134849
227	0x3e2ffaf7	0.17185579
228	0x3d5d2e2a	0.053999104
229	0x3bd53ca4	0.006507473
230	0xbdb8406d	-0.08996663
231	0x3df1570d	0.11784182
232	0xbd73212b	-0.059357803
233	0x3d9eaf27	0.077482514
234	0x3ddc2466	0.1074913
235	0xbd5e0e22	-0.054212697
236	0xbda3ae01	-0.07992173
237	0xbd66d5bc	-0.056356177
238	0xbe212706	-0.15737543
239	0x3d4d7699	0.05016193
240	0xbd272f40	-0.040816545
241	0x3c65c8d8	0.014024936
242	0x3e2ccab6	0.16874203
243	0xbc7661ba	-0.015037948
244	0x3dc5b903	0.09654429
245	0x3d9dd12c	0.07705912
246	0x3cda257d	0.026629204
247	0x3b91ecd3	0.0044532805
248	0xbc8bc9a9	-0.017063932
249	0x3db1a0e7	0.08673268
250	0x3daf48d1	0.085588105
251	0xbdab085b	-0.08351203
252	0xbd0a1e03	-0.033720028
253	0x3c500448	0.012696333
254	0xbc0c4620	-0.008561641
255	0x3d90d009	0.070709296

bias f4 [256]
0	0xbd93bb78	-0.07213491
1	0xbb3a6c4b	-0.0028445895
2	0x3bd1cd98	0.0064026825
3	0xbbd6b41b	-0.006552232
4	0xbdde9508	-0.10868269
5	0x3d868531	0.06568373
6	0xbe1fe79d	-0.15615697
7	0xbc387e3e	-0.011260567
8	0xbcd1bd51	-0.025602968
9	0xbdc8a417	-0.09796923
10	0xbd54f43e	-0.05199074
11	0x3dc747b6	0.09730475
12	0x3d05ab36	0.032633983
13	0x3dbf87ec	0.09352097
14	0xbc8fe522	-0.017565314
15	0xbd7ac847	-0.061226156
16	0xbdc573fc	-0.09641263
17	0xbb517f5f	-0.0031966788
18	0x3bffd328	0.007807154
19	0xbdb4fbc6	-0.088370845
20	0xbde92a1f	-0.11384987
21	0xbd407a54	-0.04699166
22	0x3d629942	0.05532194
23	0x3e067801	0.13131715
24	0x3d194539	0.03741953
25	0x3d1f4ac8	0.038889676
26	0x3d842de7	0.06454068
27	0xbda70248	-0.08154732
28	0xbd7edd36	-0.062222682
29	0xbe132e85	-0.14373215
30	0xbd4ef219	-0.05052385
31	0x3d294b4a	0.041331567
32	0x3dc2d5e6	0.09513454
33	0xbd905a7f	-0.07048511
34	0xbdafb61e	-0.08579658
35	0x3dba1e79	0.090878434
36	0x3d8dd3d9	0.06925172
37	0x3d49b058	0.04924044
38	0x3db75209	0.08951194
39	0xbc3dcec7	-0.011584944
40	0x3d35162e	0.044210605
41	0xbcf1d35b	-0.029519727
42	0xbd1698ee	-0.03676694
43	0xbd81568d	-0.063153364
44	0xbcbf66bb	-0.023364415
45	0x3d6696ba	0.056296088
46	0xbcc4e890	-0.024036676
47	0xbd4c8e28	-0.04994026
48	0x3c91cdaa	0.017798264
49	0x3da377a0	0.07981801
50	0xbcf75611	-0.030192407
51	0xbd05a27d	-0.032625664
52	0x3d1a4295	0.037661154
53	0x3daeacf3	0.08529081
54	0xbdf50bf7	-0.11965173
55	0x3d9d8d89	0.07693011
56	0xbdae5a96	-0.08513372
57	0x3d815abb	0.063161336
58	0xbc532fda	-0.012889827
59	0xbc275255	-0.010212501
60	0xbbe72fc1	-0.0070552533
61	0xbdb652af	-0.089024894
62	0x3d6ab6ac	0.057303116
63	0xbd1ac222	-0.037782796
64	0xbd396345	-0.045260686
65	0x3e146f9b	0.14495699
66	0xbdb150c6	-0.086579844
67	0x3d2c9e0f	0.042142924
68	0xbcbcd685	-0.02305151
69	0x3de7ea9c	0.11324045
70	0x3ceabd09	0.028654592
71	0xbcef2319	-0.02919154
72	0x3d8e1706	0.06937985
73	0xbd34155f	-0.043965694
74	0x3da8128b	0.08206662
75	0xbd32731b	-0.043566804
76	0xbd557acc	-0.05211906
77	0x3d232a53	0.039835285
78	0xba974e8e	-0.0011543797
79	0x3d968782	0.07350065
80	0x3dca6005	0.098815955
81	0xbdb38d8d	-0.08767233
82	0x3dadb017	0.08480852
83	0xbc6b3bc1	-0.014357508
84	0xbc81ff08	-0.015868679
85	0x3db629c9	0.08894689
86	0x3c4091f7	0.011753551
87	0x3c2a6db8	0.010402136
88	0xbc0ca1f1	-0.008583532
89	0x3decc9bd	0.11561916
90	0xbd290005	-0.041259784
91	0x3d60d9d2	0.05489523
92	0xbd495fd1	-0.049163643
93	0x3d3fbeba	0.04681275
94	0x3d98e103	0.074647926
95	0xbd999ec0	-0.07500982
96	0x3d9017c7	0.07035785
97	0xbd815af1	-0.06316174
98	0x3dc77a47	0.097401194
99	0x3e0edea9	0.13952126
100	0x3d5d10bc	0.053971037
101	0xbdbf4a8a	-0.09340389
102	0x3d316826	0.043312214
103	0x3d19a234	0.037508205
104	0x3dee245d	0.116280295
105	0xbd0044dd	-0.031315673
106	0xbd8f656f	-0.07001769
107	0x3954727d	0.00020260546
108	0xbe2c3de9	-0.16820492
109	0xbddada09	-0.10686118
110	0xbb63158d	-0.0034650296
111	0x3c1e9f9f	0.009681611
112	0xbd457a67	-0.048212435
113	0x3d6c23d1	0.057651345
114	0xbdf3d9cb	-0.11906775
115	0x3d465bcc	0.048427388
116	0x3d5c22c3	0.05374409
117	0xbceb7ed3	-0.028746998
118	0x3dc5fb95	0.09667126
119	0xbca36168	-0.019943908
120	0xbd1f24db	-0.038853507
121	0x3d31bd3a	0.04339335
122	0xbd79b140	-0.060960054
123	0xbaaffde6	-0.0013427108
124	0x3d951292	0.07278933
125	0xbc2ca469	-0.010537245
126	0xbdff6691	-0.12470735
127	0xbbb3030c	-0.0054630097
128	0xbde21ec4	-0.11041024
129	0xbd827103	-0.063692115
130	0x3a418ac7	0.0007383045
131	0xbd0714ad	-0.032978702
132	0x3df73fc8	0.12072712
133	0x3d90c08f	0.07067978
134	0xbda47922	-0.08030917
135	0xbc14d060	-0.009082884
136	0x3c538d9a	0.012912178
137	0x3dfe34ad	0.12412391
138	0xbc730432	-0.014832543
139	0xbc6e7b1d	-0.01455572
140	0x3d0f14d0	0.034931958
141	0xbd3a27b5	-0.045448024
142	0x3c1aea92	0.00945534
143	0xbdb7ae13	-0.08968749
144	0xbd12c65e	-0.03583371
145	0xbd1e4a7e	-0.03864526
146	0x3d6870bd	0.05674814
147	0x3e0926f3	0.13393764
148	0xbc1a2fc1	-0.0094107995
149	0xbd08ac7e	-0.033367626
150	0xbde241e8	-0.11047727
151	0x3e06d8e6	0.13168678
152	0x3d7a0c87	0.061047103
153	0x3c0478dc	0.008085456
154	0x3da6a545	0.081369914
155	0xbd9d4b3c	-0.076803654
156	0xbdde28bf	-0.108476155
157	0xbc09d4d2	-0.008412557
158	0xbd547de7	-0.051877882
159	0x3c6981a5	0.014252101
160	0x3be29f2e	0.0069159484
161	0xbd3c35f6	-0.0459499
162	0x3d75e68f	0.06003433
163	0x3cda60f3	0.026657557
164	0x3d7de122	0.06198228
165	0xbdb14ed0	-0.086576104
166	0xbd4cf711	-0.05004031
167	0xbd92c20f	-0.0716592
168	0xbcf9c056	-0.03048722
169	0x3c9c0930	0.01904735
170	0xbde9f4dd	-0.11423657
171	0x3da2b129	0.07943947
172	0x3d0ef207	0.034898784
173	0xbd6a8b43	-0.057261717
174	0x3d82dbfe	0.063896164
175	0xbd4a90ff	-0.049454685
176	0xbb0525a9	-0.0020316637
177	0xbe3690b0	-0.17828631
178	0xbd441397	-0.047870245
179	0xbd83fed6	-0.064450905
180	0x3defe2d1	0.11713184
181	0x3d801847	0.062546305
182	0xbd7244ca	-0.059147634
183	0x3de26e45	0.110561885
184	0xbd84d06b	-0.06485065
185	0xbe0b3f1a	-0.1359829
186	0xbd1e8cc5	-0.038708467
187	0x3d80ed8e	0.0629531
188	0xbd6e1be5	-0.05813207
189	0x3ccd2703	0.025043016
190	0x3d747349	0.059680257
191	0xbd151f89	-0.036407027
192	0x3dccb3ce	0.099952325
193	0xbe2e310c	-0.17010897
194	0x3dda7e47	0.10668617
195	0xbd4f3dcd	-0.050596047
196	0x3d8a93b5	0.06766454
197	0x3dc27896	0.09495656
198	0x3c971eb6	0.018447261
199	0x3bdb0202	0.006683589
200	0x3d8fa257	0.07013386
201	0x3d46eb33	0.048564147
202	0x3da590f6	0.0808429
203	0xbd96bb6f	-0.07359969
204	0x3da8faf4	0.082509905
205	0x3d308b1b	0.04310141
206	0xbd97798d	-0.07396231
207	0xbd44ff25	-0.048094887
208	0xbd907681	-0.07053853
209	0x3af9db55	0.0019062558
210	0xbde8773d	-0.11350868
211	0x3be02d46	0.0068413345
212	0x3ddb7f5b	0.107176505
213	0x3c21e915	0.009882231
214	0xbd277a6f	-0.040888246
215	0xbb0a8f69	-0.0021142608
216	0xbdc672ec	-0.09689888
217	0x3d42271e	0.047400586
218	0xbd027a12	-0.031854697
219	0xbd50890e	-0.050911956
220	0x3d31c686	0.043402217
221	0x3d3871ed	0.045030523
222	0xbdc19a1d	-0.09453223
223	0x3dbe1fdf	0.09283423
224	0x3dca8e3b	0.098904096
225	0x3dace986	0.084429786
226	0x3d63a070	0.055572927
227	0x3ad36ddf	0.0016130767
228	0xbd3a776b	-0.045524042
229	0x3d79f7ec	0.061027452
230	0xbba291aa	-0.004961212
231	0x3d64485f	0.05573308
232	0x3dbf61d6	0.093448326
233	0xbd1933b9	-0.037402842
234	0x3bcb453b	0.0062033213
235	0xbc950555	-0.01819102
236	0x3caec66a	0.021334846
237	0xbd4842e9	-0.048891935
238	0x3d9e4e17	0.07729738
239	0xbc7753d6	-0.015095672
240	0x3dc7b6a0	0.0975163
241	0x3de6c456	0.11267917
242	0x3d6fbbb2	0.05852861
243	0xbd8b8327	-0.06812125
244	0xbd5aad13	-0.053387713
245	0xbd604706	-0.054755233
246	0x3d570501	0.052495006
247	0x3e073c00	0.13206482
248	0xbde3c2ae	-0.111211166
249	0x3d7bcfd8	0.061477512
250	0xbb886d4d	-0.0041634203
251	0xbd01684f	-0.031593617
252	0x3b7638fb	0.0037570584
253	0x3d5d3a4a	0.054010667
254	0x3ce969bc	0.0284928
255	0x3d6bbaac	0.05755107

weight f4 [256, 256]
0	0xbe4d0551	-0.2002156
1	0xbe0d36ca	-0.13790432
2	0x3ddd5200	0.10806656
3	0xbc2f9a6f	-0.010717972
4	0x3aeb8825	0.0017969651
5	0x3dc1d638	0.09464687
6	0xbde9e757	-0.11421078
7	0xbb75f316	-0.0037528924
8	0xbd1af5a1	-0.037831906
9	0x3da96efd	0.082731225
10	0x3d101fa2	0.035186417
11	0x3d577595	0.05260237
12	0xbe037809	-0.12838759
13	0xbc28167b	-0.010259266
14	0x3d7c0ff4	0.06153865
15	0x3d7d35a6	0.06181874
16	0xbdcaf6d7	-0.09910362
17	0xbc9c7b77	-0.019101841
18	0xbd202a4e	-0.039102845
19	0x3d67a8e4	0.05655755
20	0xbdf37c5f	-0.11888956
21	0xbc42b284	-0.011883382
22	0x3e0631ac	0.13104886
23	0x3cf06fdf	0.02935022
24	0x3bfcf7af	0.007719956
25	0x3dc08e07	0.094020896
26	0x3b0a6f11	0.002112333
27	0x3d6fb7de	0.05852496
28	0xbd891da3	-0.06695106
29	0xbdf501e7	-0.119632535
30	0x3d8fb5de	0.0701711
31	0x3d46741a	0.048450567
32	0x3d0ebc44	0.034847513
33	0xbe04b92f	-0.12961267
34	0xbdc1c5dc	-0.09461567
35	0x3d0f2247	0.0349448
36	0x3e60cee4	0.21953923
37	0x3e599f57	0.2125219
38	0x3d1145b5	0.03546687
39	0x3d9d7026	0.07687406
40	0xbd32958a	-0.043599643
41	0x3d1f3091	0.038864676
42	0x3da70934	0.08156052
43	0xbd8addcc	-0.06780586
44	0xbde11592	-0.10990442
45	0x3d540208	0.05175975
46	0x3d223fed	0.039611746
47	0xbbc7ad30	-0.0060936436
48	0xbe26342b	-0.16230838
49	0x3db13e95	0.08654515
50	0xbc4fc25f	-0.012680619
51	0x3e636e89	0.22210135
52	0xbcc2f45e	-0.023798164
53	0xbe3020db	-0.17200033
54	0x3dbb0e32	0.09133567
55	0x3d2e2c24	0.042522565
56	0xbceaeed6	-0.028678339
57	0xbd9aa220	-0.07550454
58	0x3d3fc969	0.04682294
59	0x3dac155b	0.08402511
60	0xbc76c302	-0.015061142
61	0xbd90074c	-0.07032642
62	0xbd668be2	-0.056285746
63	0xbc7fbf07	-0.015609509
64	0x3cb3cc2f	0.021947948
65	0xbcf99781	-0.03046775
66	0xbdd425ea	-0.10358794
67	0xbceb2467	-0.028703881
68	0x3df44d32	0.11928786
69	0x3d9d94b7	0.07694381
70	0x3d2bccea	0.04194347
71	0xbe48750c	-0.195759
72	0xbd9a4d58	-0.075342834
73	0x3dd130a1	0.10214353
74	0x397ab418	0.00023908948
75	0xbdfa6ac7	-0.122273974
76	0xbcc2eb98	-0.02379398
77	0xbe3a725c	-0.18207687
78	0xbd99bacd	-0.075063325
79	0x3cd43ce2	0.025907937
80	0xbde49414	-0.11161056
81	0xbde5c4b4	-0.11219159
82	0xbd17ed1e	-0.037091367
83	0xbd2aef99	-0.041732404
84	0x3e4bda2a	0.19907442
85	0x3dd49fd0	0.10382044
86	0x3bab2078	0.0052223764
87	0xbe2b3744	-0.16720301
88	0xbca812e7	-0.020516826
89	0x3d9d071e	0.07667373
90	0x3d23b6fb	0.039969426
91	0x3de702ce	0.11279832
92	0x3ccb8907	0.024845613
93	0x3c706170	0.014671668
94	0x3dbb01d6	0.091312096
95	0x3d8af48c	0.06784925
96	0x3e44cec6	0.19219503
97	0xbd59bbb0	-0.05315751
98	0xbda6a873	-0.08137598
99	0x3b9b9c07	0.0047488245
100	0x3d810a79	0.063008256
101	0xbc88e062	-0.016708557
102	0x3db0986f	0.086228244
103	0x3dac79db	0.084216796
104	0x3c49b0da	0.012310231
105	0x3dc69a61	0.09697414
106	0x3e3345e3	0.17507128
107	0xbcebfe01	-0.028807642
108	0xbd150ac1	-0.03638721
109	0xbe2f2715	-0.17104752
110	0x3e728c35	0.23686297
111	0xbc53c2b3	-0.012924838
112	0x3d33c7d4	0.043891743
113	0xbd20194c	-0.039086625
114	0x3e21dc74	0.15806752
115	0xbda484a6	-0.08033113
116	0x3c3e58f0	0.011617884
117	0xbe14501c	-0.14483684
118	0xbd14cbad	-0.036327053
119	0x3d8cce11	0.068752415
120	0xbd81d259	-0.06338949
121	0xbd6d827b	-0.057985764
122	0xbab661ea	-0.0013914679
123	0x3b44cd32	0.0030029532
124	0x3cc1d01c	0.023658805
125	0x3dbcc2c5	0.09216837
126	0xbc9062b3	-0.017625188
127	0x3e018c87	0.12651263
128	0xbd503b97	-0.05083808
129	0x3bda10fd	0.006654857
130	0xbc802900	-0.01564455
131	0x3d2b3520	0.04179871
132	0x3dbda230	0.092594504
133	0xbd345605	-0.044027347
134	0x3c2f546c	0.01070128
135	0xbd1cc535	-0.03827401
136	0xbcc36e69	-0.023856359
137	0xbd90bf07	-0.070676856
138	0xbc3ce792	-0.01152982
139	0x3d8a555b	0.067545615
140	0xbd6a261d	-0.057165254
141	0x3ba4ead4	0.0050328765
142	0xbc2aa1cb	-0.010414551
143	0x3dbf2e57	0.093350105
144	0xbdf68edb	-0.12038966
145	0x3e02dc21	0.12779285
146	0xbc9e95de	-0.019358572
147	0xbe04edb5	-0.12981303
148	0xbdae632f	-0.085150115
149	0x3cccda79	0.02500652
150	0xbcec1fb8	-0.028823718
151	0x3cb96a66	0.022633743
152	0xbae6e35b	-0.0017615365
153	0x3cf8cefb	0.030372133
154	0xbda76fb4	-0.081756026
155	0xbd86b68b	-0.06577786
156	0xbd0cf7aa	-0.03441588
157	0x3d81fe2b	0.06347307
158	0xbe1bb3c9	-0.15205301
159	0x3d4cc8e4	0.04999627
160	0x3dbbaa9b	0.091634
161	0x3dba30fe	0.09091376
162	0x3c6212b1	0.013798402
163	0xbcb39118	-0.021919772
164	0xbd9943e8	-0.07483655
165	0xbd285fc5	-0.041106958
166	0x3d78d413	0.060749125
167	0x3d0e7097	0.034775343
168	0xbd598c75	-0.053112466
169	0xbdb3c516	-0.087778255
170	0xbddf8de0	-0.109157324
171	0xbbbda28f	-0.0057872008
172	0x3dbc7b04	0.09203151
173	0xbd8a43ca	-0.06751211
174	0x3db0ab90	0.08626473
175	0x3d7c6f70	0.061629713
176	0xbe82fe06	-0.2558443
177	0xbc890b55	-0.016729036
178	0xbdb5fc5a	-0.08886023
179	0x3ce2aefe	0.027671333
180	0xbd02da7e	-0.03194665
181	0xbd811ba9	-0.06304104
182	0x3c00d1ab	0.007862489
183	0xbbe17cd7	-0.006881337
184	0xbc6e5043	-0.014545503
185	0xbd24e3a0	-0.040256143
186	0xbdb7e9a3	-0.089801095
187	0xbd00dea4	-0.031462327
188	0xbdaf6520	-0.0856421
189	0x3bfde7dc	0.007748587
190	0xbc9f1fa8	-0.019424275
191	0xbca4132b	-0.020028671
192	0xbe01a7ff	-0.12661742
193	0x3cc47a17	0.023983998
194	0xbcfc7de1	-0.030821742
195	0xbb2b3f39	-0.0026130213
196	0xbc93ed01	-0.018057348
197	0x3da933c9	0.0826183
198	0xbca596eb	-0.020213565
199	0x3d28f200	0.041246414
200	0xbd496b34	-0.049174502
201	0x3dae3605	0.08506397
202	0x3dfbc22c	0.12292895
203	0x3d2e19b1	0.04250497
204	0x3e33c4ea	0.17555586
205	0xbdcb7e1f	-0.09936165
206	0xbcf2f37a	-0.029657114
207	0x3dcbf243	0.09958317
208	0xbe18d0e5	-0.14923437
209	0xbd08f530	-0.033436954
210	0x3cc44bc9	0.023961918
211	0x3e34cbbc	0.17655843
212	0xbd7e0c1a	-0.06202326
213	0x3d430188	0.047608882
214	0xbc174fd7	-0.009235344
215	0x3e012145	0.12610348
216	0xbd833d99	-0.06408233
217	0xbdc8ba20	-0.098011255
218	0xbcdf379f	-0.027248202
219	0x3d9f2c42	0.077721134
220	0xbd3db0bf	-0.046311136
221	0xbdf988ae	-0.12184273
222	0xbd837ca4	-0.06420258
223	0x3ddf97a1	0.10917593
224	0xbe01cd06	-0.12675866
225	0xbce9e4a8	-0.028551415
226	0x3e1ec83d	0.15506072
227	0x3d850db4	0.06496754
228	0xbdb0c7de	-0.08631872
229	0xbd3e1b1d	-0.046412576
230	0xbd5359ac	-0.05159919
231	0x3d853987	0.06505113
232	0x3d378466	0.044804
233	0xbd197d0d	-0.037472773
234	0xbdb7b83f	-0.08970689
235	0x3d065bfc	0.032802567
236	0xbc146ee4	-0.0090596415
237	0xbd533fea	-0.051574625
238	0x3ca09704	0.01960326
239	0xbe0403b3	-0.12892036
240	0x3c3c20ec	0.011482459
241	0x3d900bc4	0.07033494
242	0xbd8c997a	-0.06865211
243	0x3d6a9650	0.057272255
244	0x3df6da50	0.120533586
245	0xbe048cdb	-0.12944357
246	0x3e75b9d8	0.23996675
247	0xbd407385	-0.046985168
248	0x3da7455e	0.081675276
249	0xbe199dc5	-0.1500159
250	0x3dc726fb	0.09724232
251	0xbcfb351d	-0.030664975
252	0x3cbd0a4d	0.0230762
253	0xbc8b6cf0	-0.017019719
254	0x3d8814ab	0.06644567
255	0xbe05871b	-0.1303982

bias f4 [256]
0	0x3dee4052	0.11633362
1	0xbc1694c4	-0.009190742
2	0x3c29d198	0.010364912
3	0x3c8377bc	0.016048305
4	0xbcf93547	-0.030420912
5	0xbd6a2b40	-0.057170153
6	0x3ae271d9	0.0017276361
7	0x3d706aea	0.05869571
8	0xbced8c7c	-0.028997652
9	0xbd19e480	-0.03757143
10	0x3d3a9799	0.04555473
11	0xbcc6e9cd	-0.024281407
12	0x3d8b57c7	0.068038516
13	0xbc359e85	-0.011085157
14	0x3ce54770	0.027988166
15	0xbcfcf9fd	-0.030880922
16	0x3d94f11f	0.07272553
17	0x3d775410	0.060382903
18	0x3d3b8e71	0.04579014
19	0xbd678c7e	-0.05653047
20	0x3da4d96f	0.08049285
21	0xbcbb456e	-0.022860255
22	0xbdba3158	-0.09091443
23	0x3d7dc080	0.06195116
24	0xbb8d112f	-0.004305027
25	0x3dc7ba7a	0.097523645
26	0x3cf5eba7	0.030019594
27	0x3d0c843c	0.034305796
28	0x3e0134fb	0.12617867
29	0xbd266346	-0.04062202
30	0x3d3b12bd	0.045672167
31	0x3baf7957	0.005355041
32	0x3e021783	0.12704282
33	0x3bb73f4e	0.0055922633
34	0x3b640c28	0.0034797285
35	0x3d874d59	0.0660655
36	0xbdbd21a4	-0.09234932
37	0xbd59749d	-0.053089727
38	0x3c755586	0.014974004
39	0xbca1b62e	-0.01974019
40	0xbd5f3add	-0.054499496
41	0xbd945133	-0.0724205
42	0x3cb1a350	0.021684319
43	0xbd4b2d2e	-0.049603634
44	0xbcfa17d5	-0.030528942
45	0x3c8fc03f	0.017547725
46	0xbd5e9686	-0.05434277
47	0xbd972532	-0.07380141
48	0xbd350739	-0.04419634
49	0x3db3af31	0.087736495
50	0x3cc91bd4	0.024549402
51	0xbbc52da2	-0.0060174027
52	0xbb2a833c	-0.0026018163
53	0x3d45991a	0.048241712
54	0x3c4bac72	0.012431251
55	0xbd54c1d2	-0.051942654
56	0x3d1ca642	0.038244493
57	0xbd4073bd	-0.046985377
58	0x3a520b6e	0.00080125674
59	0xbd3dfece	-0.04638558
60	0x3d2be0fa	0.0419626
61	0x3d51fe1d	0.051267732
62	0xbd4be7b6	-0.049781524
63	0x3d8a2cbe	0.06746815
64	0xbc411550	-0.011784866
65	0xbd97cb39	-0.074118085
66	0xbd5a8ed0	-0.053358853
67	0xbd8c797a	-0.06859107
68	0xbcedf17b	-0.02904581
69	0xbd7a2d0c	-0.061078116
70	0xbd7bc610	-0.061468184
71	0x3ddacf7b	0.10684105
72	0xbc8ac98b	-0.016941806
73	0x3d883d32	0.06652297
74	0xbbdf963b	-0.006823329
75	0xbd34cc0e	-0.044139914
76	0xbb7bffff	-0.0038452146
77	0xbb1ff781	-0.0024408998
78	0xbb3252a9	-0.0027209914
79	0xbd9566af	-0.07294976
80	0xbd047e9f	-0.032347318
81	0x3db432e1	0.08798767
82	0x3d29453a	0.041325785
83	0xbcda0023	-0.026611393
84	0xbdbf3592	-0.093363896
85	0x3d345ed4	0.044035748
86	0x3d06cf34	0.032912448
87	0xbccff71a	-0.025386382
88	0xbd1f075c	-0.038825378
89	0xbd5a188c	-0.053246066
90	0xbd255c96	-0.0403715
91	0xbd2ae6cc	-0.04172401
92	0xbcfbe51c	-0.030748896
93	0xbd2f06d0	-0.042731106
94	0x3d8483fb	0.06470486
95	0xbd676ff6	-0.05650326
96	0x3d17777a	0.036979176
97	0x3d694446	0.056949876
98	0x3cee18df	0.029064594
99	0x3d6c3747	0.057669904
100	0xbbd46320	-0.006481543
101	0x3d781de0	0.060575366
102	0xbcf41791	-0.029796394
103	0xbc5e334a	-0.013562033
104	0xbd250712	-0.040289946
105	0x3d8b4277	0.067997865
106	0x3ccf5214	0.025307693
107	0x3b06dfe4	0.0020580227
108	0xbd9c8653	-0.07642808
109	0xbdc9ae5d	-0.0984771
110	0x3dbdac7c	0.092614144
111	0x3cc491fb	0.02399539
112	0x3abc7b39	0.0014379985
113	0x3ce1ab7f	0.027547596
114	0x3d17043c	0.036869273
115	0x3ca06c0b	0.019582769
116	0x3d1b227c	0.037874684
117	0xbc5a09b3	-0.013307977
118	0x3ccf3027	0.025291516
119	0xbcfd8aba	-0.030949939
120	0xbc07fb3a	-0.008299643
121	0xbd05a2d7	-0.032626
122	0xbcc6f29b	-0.024285605
123	0xbb94ebba	-0.0045447024
124	0xbd900a44	-0.07033208
125	0xbd220f6d	-0.039565492
126	0x3b058042	0.0020370637
127	0xbcae4c9e	-0.021276768
128	0x3d0c0859	0.03418765
129	0xbce4ef12	-0.027946029
130	0xbc3d4bd2	-0.0115537215
131	0x3c9b2322	0.018937651
132	0x3bd87385	0.006605568
133	0x3cacd04d	0.02109542
134	0xbdc8dcc0	-0.0980773
135	0x3d2c35be	0.04204344
136	0x3b6a2f08	0.00357336
137	0x3dc67cf6	0.09691803
138	0x3bcf3d4c	0.006324446
139	0xbd028b7c	-0.031871304
140	0x3d980c01	0.074241646
141	0xbd037715	-0.032095987
142	0xbb2349e5	-0.002491587
143	0x3d968191	0.073489316
144	0x3d032296	0.032015406
145	0xbd36fec0	-0.044676542
146	0xbcf26f48	-0.029594079
147	0xbcc6e87b	-0.024280777
148	0x3d140897	0.036141004
149	0xbbe4cee2	-0.00698267
150	0x3d0bc118	0.034119695
151	0x3ccd8189	0.025086181
152	0xbcedc873	-0.029026246
153	0xbcb03883	-0.021511322
154	0x3cf9e75e	0.030505832
155	0xbd9565b3	-0.07294788
156	0xbca5256f	-0.020159451
157	0x3b07da2a	0.00207294
158	0x3d7d4f5d	0.061843265
159	0xbc9d3c8a	-0.019193906
160	0x3ceb8fbc	0.028755061
161	0x3bdf7ed3	0.0068205385
162	0xbcfad881	-0.030620815
163	0x3d9b14d8	0.07572335
164	0x3cbc452e	0.022982206
165	0xbcf925a7	-0.030413462
166	0x3cd6fcf2	0.02624366
167	0xbce309c5	-0.02771462
168	0x3d384b15	0.04499348
169	0xbca2dad2	-0.019879732
170	0x3b1439d4	0.0022617476
171	0x3cb7b688	0.022425905
172	0xbcdc94e7	-0.02692647
173	0xbd04a240	-0.032381296
174	0xbc671bf0	-0.014105782
175	0x3d99d7eb	0.07511886
176	0x3d94d9a0	0.07268071
177	0xbd37bbf0	-0.044856966
178	0x3cbe71c0	0.0232476
179	0xbcedcf4d	-0.029029513
180	0xbbf13ac1	-0.0073617403
181	0x3d1aea9a	0.03782139
182	0x3cdf98be	0.027294513
183	0xbcf721b6	-0.030167442
184	0x3ceae18b	0.028672
185	0xba25f345	-0.00063305005
186	0x3d39857f	0.045293327
187	0xbd094d79	-0.03352115
188	0x3c9e3fb0	0.019317478
189	0x3bd0be4a	0.0063703405
190	0x3b942ae2	0.0045217136
191	0xbc2b0c5d	-0.010439959
192	0xbd140b47	-0.036143567
193	0xbd9d9a03	-0.07695391
194	0x3c6641d9	0.014053785
195	0xbd8c6bbe	-0.06856488
196	0xbd7cfbcb	-0.061763566
197	0x3c3fbadc	0.011702266
198	0x3d662900	0.056191444
199	0x3c89e255	0.016831556
200	0xbd0d381a	-0.03447733
201	0xbd972eca	-0.07381971
202	0xbd59e6aa	-0.053198494
203	0x3d3aebf4	0.04563518
204	0xbaf2925f	-0.0018506757
205	0xbd911477	-0.070839815
206	0xbd678a15	-0.05652817
207	0x3bb62ff0	0.005559914
208	0x3d1e179c	0.038596734
209	0x3d0021d7	0.031282272
210	0xbd2ec5c8	-0.042669088
211	0x3d5c39c0	0.053766012
212	0x3d03f1f8	0.03221318
213	0x3d4f469b	0.050604444
214	0x3c65a2e8	0.014015891
215	0x3c649049	0.013950416
216	0x3cc74f73	0.024329877
217	0x3d1da2bf	0.038485285
218	0xbb5eaa26	-0.0033975928
219	0x3d10848d	0.03528266
220	0x3c2c734b	0.010525535
221	0x3d8667b1	0.06562746
222	0xbcccd1c0	-0.02500236
223	0x3c8efc2b	0.017454227
224	0xbd123dac	-0.035703346
225	0xbd43bb9e	-0.047786348
226	0xbc8bcac3	-0.017064458
227	0xbb7a9dd5	-0.0038241048
228	0xbd2599d1	-0.040429894
229	0x3d60876d	0.054816652
230	0x3d777b46	0.060420297
231	0xbd32bff6	-0.0436401
232	0xbe02e8dd	-0.12784143
233	0x3c8194d6	0.01581804
234	0xb996f67b	-0.00028793872
235	0x3cf6c865	0.030124852
236	0xbd8e172f	-0.06938016
237	0x3b52d611	0.003217105
238	0x3da6351d	0.08115599
239	0x3d5b31e2	0.05351437
240	0xbd14fc81	-0.03637362
241	0xbbbcb30d	-0.005758649
242	0x3cd3eaae	0.02586874
243	0xbd0d2b71	-0.034465257
244	0xbd2c43fd	-0.042057026
245	0x3d6a303e	0.057174914
246	0x3d536cee	0.051617555
247	0x3d898d4f	0.067164056
248	0xbda7f7b4	-0.082015425
249	0xbd6f9281	-0.058489326
250	0x3c8a0c71	0.016851636
251	0xbd848bf8	-0.064720094
252	0xbc9c7bd6	-0.019102018
253	0x3ca45cc5	0.020063767
254	0xbb6d9219	-0.003625041
255	0x3c6fd471	0.014638052

weight f4 [8, 256]
0	0x3daa6ad5	0.08321158
1	0x3d668a9a	0.056284525
2	0x3db843e6	0.089973256
3	0x3d0e9a3b	0.034815054
4	0x3da6c856	0.0814368
5	0xbdc41ddc	-0.09576008
6	0x3dd593a7	0.10428553
7	0xbdc88635	-0.09791223
8	0xbd16cfff	-0.036819454
9	0x3c919824	0.017772742
10	0x3d8eb9fa	0.06969066
11	0x3d089b7d	0.03335141
12	0xbd60c190	-0.054872096
13	0x3d70c9d3	0.058786225
14	0xbd92c221	-0.071659334
15	0x3cfbd6e7	0.030742122
16	0x3da3878a	0.079848364
17	0xbc0fe4a2	-0.008782538
18	0x3d0363c5	0.03207757
19	0xbd824f9e	-0.06362842
20	0x3deff607	0.11716848
21	0x3d395060	0.045242667
22	0xbd48feb3	-0.049071025
23	0xbd7770e5	-0.0604104
24	0x3d6f3457	0.058399525
25	0xbd323f89	-0.043517623
26	0xbda909d5	-0.082538284
27	0xbd6a0912	-0.057137556
28	0x3dbde070	0.09271324
29	0xbd58dc8c	-0.052944705
30	0x3d6e73e3	0.058215987
31	0xbd52bde4	-0.051450625
32	0x3d867432	0.06565131
33	0x3bc30556	0.005951564
34	0x3e076370	0.13221526
35	0x3dcc3e9a	0.09972878
36	0x3c9b5c68	0.018964961
37	0x3d5c8eaa	0.053846993
38	0x3a58ac5d	0.000826543
39	0xbb8bfe9f	-0.0042722966
40	0x3d9b1a53	0.0757338
41	0xbd8bd96f	-0.068285815
42	0x3d8684bc	0.06568286
43	0xbd068a3d	-0.032846678
44	0x3d7ba6e1	0.061438445
45	0xbd08ff1f	-0.033446427
46	0x3d4d58eb	0.050133627
47	0xbdf999e4	-0.121875554
48	0xbc98a556	-0.018633526
49	0xbce2b19a	-0.027672578
50	0xbd9b91c3	-0.07596161
51	0xbc483789	-0.012220272
52	0xbe010d5d	-0.12602754
53	0xba89726c	-0.0010486371
54	0x3d326e15	0.043562014
55	0xbca71cba	-0.02039944
56	0x3cd26eed	0.02568766
57	0x3b7d6af3	0.0038668483
58	0x3c8604a4	0.016359635
59	0xbdd878d3	-0.105699204
60	0xbd806ce2	-0.06270768
61	0xbd1d74d7	-0.038441505
62	0xbdc17fc8	-0.094482005
63	0xbd4f78b7	-0.050652232
64	0xbccf18ff	-0.025280474
65	0x3aaa38a6	0.0012986853
66	0x3da0f929	0.078600235
67	0xbd8d7709	-0.0690747
68	0x3d1209a0	0.03565371
69	0xbd394af8	-0.04523751
70	0x3d6fe9d6	0.058572613
71	0x3d497ea7	0.04919305
72	0x3db12473	0.0864953
73	0x3d6a2161	0.05716074
74	0xbd783211	-0.060594622
75	0xbc6c12e4	-0.014408801
76	0x3d1aa0b3	0.03775091
77	0xbd584759	-0.052802417
78	0x3c9a6e7d	0.018851513
79	0xbd88eec4	-0.06686166
80	0xbd8b98e2	-0.068162695
81	0xbd57d599	-0.052693937
82	0x3d8a42d6	0.06751029
83	0x3d2c33c1	0.042041544
84	0x3d03302e	0.03202837
85	0x3d808acf	0.06276476
86	0xbd115600	-0.035482407
87	0x3db23f0e	0.08703433
88	0x3cbf3966	0.0233428
89	0x3c833f3e	0.016021367
90	0x3d70ec1b	0.058818918
91	0x3cc5340a	0.024072666
92	0xbd4400f2	-0.047852464
93	0xbc37aa2d	-0.011210007
94	0x3d91c2bb	0.0711722
95	0xbd76e0dc	-0.060273036
96	0x3d169df0	0.036771715
97	0x3b84e92f	0.004056118
98	0x3c771db3	0.015082764
99	0x3d2ab3b1	0.041675273
100	0x3c35c177	0.011093489
101	0xbb9e0649	-0.0048225266
102	0xbc09194b	-0.008367847
103	0x3d32b1f9	0.04362676
104	0x3d391755	0.045188267
105	0x3dc5f9f2	0.09666814
106	0xbc7e091b	-0.015505101
107	0x3d8fa54f	0.07013952
108	0xbd039e04	-0.032133117
109	0xbd5a0bcf	-0.053233918
110	0xbcaee672	-0.02135012
111	0xbd007a62	-0.031366713
112	0x3da15978	0.07878393
113	0xbd951764	-0.07279852
114	0x3ca18913	0.019718682
115	0xbd0dab64	-0.03458728
116	0xbd817b0d	-0.06322298
117	0x3dac21fb	0.08404919
118	0x3d65c6e7	0.05609789
119	0xbd0f15e9	-0.034933005
120	0x3d9de8e8	0.07710439
121	0x3cc064c0	0.023485541
122	0x3d916b0a	0.07100494
123	0x3c1656f1	0.009176002
124	0xbd25e115	-0.040497858
125	0x3c587d8a	0.013213525
126	0x3d7d5195	0.06184538
127	0xbd8c5414	-0.06851974
128	0xbd4bed8b	-0.049787086
129	0xbc8edc13	-0.017438924
130	0x3dd1eb8f	0.10250007
131	0xbddd365d	-0.108013846
132	0xbd4fe978	-0.050759763
133	0xbc3e0172	-0.011597024
134	0xbdd19026	-0.10232572
135	0x3cdec83c	0.027195089
136	0xbd680abb	-0.05665086
137	0x3d0c6de0	0.034284472
138	0xbd9372be	-0.0719962
139	0x3d91be45	0.07116369
140	0x3d84665d	0.06464837
141	0xbd6fc3aa	-0.05853621
142	0x3dcda7c5	0.10041765
143	0x3bb17ff1	0.005416863
144	0xbd0f42a6	-0.03497567
145	0x3d2ebfb4	0.04266329
146	0xbce35719	-0.027751492
147	0x3cd14759	0.025546717
148	0xbdb0ab07	-0.08626371
149	0xbd5ad032	-0.053421207
150	0x3c3034cf	0.010754778
151	0x3ca568da	0.020191599
152	0x3d8fe965	0.07026938
153	0x3d3068f5	0.043068845
154	0x3d11f490	0.035633624
155	0x3d04ed65	0.03245296
156	0x3d89d8b0	0.06730783
157	0xbd5dd6bb	-0.05415986
158	0xbc9b2d6a	-0.018942554
159	0x3c27af6e	0.010234697
160	0xbda93eb8	-0.08263916
161	0x3d397495	0.045277197
162	0x3c15194e	0.009100271
163	0xbdbd72c5	-0.09250406
164	0xbd8b0fd5	-0.06790129
165	0x3d90c65e	0.070690855
166	0xbd1cd9ed	-0.038293768
167	0xbdd24409	-0.10266883
168	0xbb3d2abb	-0.002886458
169	0xbccc8d70	-0.024969786
170	0x3d7a1130	0.061051548
171	0x3d859cb8	0.06524032
172	0xbd0c2a66	-0.03422012
173	0xbd9227e8	-0.07136518
174	0xbca2d9a8	-0.019879177
175	0xba80d681	-0.0009829552
176	0x3d13fd2c	0.036130115
177	0xbcaf19ab	-0.021374544
178	0xbc6fed02	-0.014643909
179	0x3d4acb26	0.049510144
180	0xbcd686e0	-0.02618736
181	0x3dbff8db	0.09373637
182	0x3c6c3796	0.01441755
183	0x3d341ab9	0.043970797
184	0xbcef2f9b	-0.029197505
185	0xbcfb2905	-0.030659208
186	0xbe0687f0	-0.13137794
187	0x3dcdd5cc	0.10050544
188	0x3d32db82	0.04366637
189	0x3d45c615	0.04828461
190	0x3d791a34	0.060816005
191	0x3d8a74a5	0.067605294
192	0x3da8959c	0.08231661
193	0x3d8760d7	0.066102676
194	0xbd5e8e6b	-0.05433504
195	0xbcbd659f	-0.023119746
196	0x3ce9a534	0.028521158
197	0x3d9df8fe	0.07713507
198	0x3d5e934c	0.054339692
199	0x3d392432	0.045200534
200	0xbd7c2d55	-0.06156667
201	0xbd35b18a	-0.044358768
202	0x3c3635ae	0.011121197
203	0x3d4c460d	0.049871493
204	0x3c6ae6eb	0.014337282
205	0x3d914241	0.07092715
206	0x3d2ad120	0.041703343
207	0xbd2e0545	-0.042485494
208	0x3d94cff1	0.07266224
209	0xbd4b95ca	-0.049703397
210	0xbdcb4ff3	-0.099273585
211	0xbd4bd535	-0.049763877
212	0x3c03766c	0.008023839
213	0xbd11cd87	-0.035596397
214	0xbcde0a89	-0.027104633
215	0x3d955159	0.072909065
216	0xbdb7f306	-0.089819
217	0x3ba1cea1	0.004937962
218	0x3cac109f	0.02100402
219	0xbbefd52a	-0.0073191123
220	0x3c0870e6	0.008327698
221	0xbd333466	-0.043751143
222	0xbd89d027	-0.06729155
223	0xbd2f5e04	-0.04281427
224	0x3d394870	0.045235097
225	0x3d8565c5	0.065135516
226	0x3bdc92c8	0.006731365
227	0x3d0fcf75	0.035109956
228	0xbda87d99	-0.08227081
229	0xbd3b96d7	-0.04579815
230	0x3da0909c	0.07840082
231	0xbd5a696e	-0.0533232
232	0x3d231d62	0.039822944
233	0x3d642f89	0.055709396
234	0x3a99f4fa	0.0011745982
235	0xbc7efac4	-0.015562717
236	0x3d460867	0.048347857
237	0x3ca131ae	0.01967701
238	0x3dec20e8	0.11529714
239	0x3dc4d92a	0.09611733
240	0xbcc11ab3	-0.023572301
241	0xbd0e39fe	-0.034723274
242	0x3cb97654	0.022639431
243	0xbd953030	-0.07284582
244	0xbc8cc9cc	-0.017186068
245	0x3cede564	0.029040046
246	0xbd634eb9	-0.055494998
247	0x3c08628b	0.008324276
248	0xbd777157	-0.060410824
249	0xbd880a19	-0.06642551
250	0xbdcac676	-0.09901135
251	0x3c8cb2c9	0.017175095
252	0x3d20bbc7	0.03924158
253	0x3e0770de	0.13226649
254	0xbd5db2e9	-0.0541257
255	0xbda9298c	-0.082598776

bias f4 [8]
0	0xbca41369	-0.020028787
1	0xbcd2f6e4	-0.025752492
2	0x3d2b7cef	0.041867193
3	0xbd0e5f7f	-0.03475904
4	0x3cafb8b7	0.021450384
5	0xbcda484e	-0.026645806
6	0x3d20185a	0.039085723
7	0xbb843d57	-0.0040356326

weight f4 [256, 111]
0	0xbe706d3c	-0.2347917
1	0xbee41de0	-0.44554043
2	0x3f18c19d	0.5967043
3	0xbde35973	-0.111010455
4	0xbee330bb	-0.44373116
5	0x3dce73e3	0.100806974
6	0x3f1be07a	0.608894
7	0xbd73ebe8	-0.05955115
8	0xbf20d08e	-0.6281823
9	0xbe0eede7	-0.1395794
10	0xbf1b1d73	-0.6059181
11	0x3ec61c86	0.38693637
12	0x3ebb40be	0.36572832
13	0xbed35d98	-0.41282344
14	0x3e3a5d82	0.18199733
15	0x3eabeda0	0.3357973
16	0x3f8375b2	1.0270293
17	0x3ef01bb6	0.46896142
18	0x3e9909b1	0.29890206
19	0xbf44a0be	-0.76807773
20	0xbd79339f	-0.060840245
21	0x3e969654	0.29411566
22	0xbe4d4d25	-0.2004896
23	0x3e52740f	0.20552085
24	0x3d39e608	0.04538539
25	0x3e8ce409	0.27517727
26	0xbf3c4d74	-0.73555684
27	0xbd899446	-0.06717734
28	0x3b5a3e20	0.003330119
29	0x3c7ac740	0.015306294
30	0x3d99fb2f	0.075186126
31	0xbd5fd391	-0.054645125
32	0xbc313c60	-0.010817617
33	0x3d0835ee	0.033254556
34	0x3c8f1e54	0.017470516
35	0x3dbc35a9	0.09189922
36	0x3d94bce3	0.0726259
37	0xbc3baf78	-0.011455409
38	0x3cc14398	0.023591802
39	0x3d85139d	0.064978816
40	0x3db3d0c9	0.08780057
41	0xbd19360b	-0.037405055
42	0x3c4d68f8	0.0125372335
43	0x3dad152f	0.08451306
44	0xbdb0ba71	-0.08629311
45	0x3d741242	0.059587725
46	0x3c03cd18	0.008044504
47	0x3cfbc2fc	0.030732624
48	0x3a657480	0.00087530166
49	0x3b3b52c0	0.0028583258
50	0x3cb08404	0.021547325
51	0x3d601272	0.05470509
52	0x3d786d0a	0.060650863
53	0xbc8859f4	-0.016644455
54	0x3db639b5	0.088977255
55	0xbd1e3cb6	-0.038632117
56	0xbd96269c	-0.07331583
57	0xbd80e50a	-0.06293686
58	0x3d99da47	0.07512336
59	0xbd9d50b1	-0.07681406
60	0x3c905f50	0.017623574
61	0xbd43e273	-0.04782338
62	0x3db63e21	0.08898569
63	0xbd206487	-0.03915837
64	0x3d5d7ad6	0.054072224
65	0x3d4841ca	0.048890866
66	0x3d433a02	0.047662742
67	0xbd029b40	-0.03188634
68	0x3b997160	0.004682705
69	0x3cdf0adc	0.027226858
70	0xbdb13697	-0.0865299
71	0xbd9354d2	-0.071939126
72	0xbb8f3d30	-0.004371308
73	0x3cf837a4	0.030299969
74	0xbcb815f0	-0.022471398
75	0x3d5da5fa	0.054113366
76	0xbc87cf3c	-0.01657831
77	0x3dafb463	0.08579328
78	0x3ce36e54	0.02776257
79	0x3c813cd4	0.015776075
80	0x3d7ae91e	0.061257474
81	0xbd90ad9b	-0.070643626
82	0xbdaaa3b9	-0.08332009
83	0xbdc17017	-0.094452076
84	0x3bc57e10	0.0060269907
85	0xbd173e4d	-0.03692465
86	0xbd08278d	-0.033240844
87	0xbd2af0ba	-0.04173348
88	0xbc904fcc	-0.017616175
89	0x3c808460	0.015688121
90	0x3d0d991a	0.034569837
91	0x3d774746	0.060370706
92	0x3cc19b90	0.023633748
93	0xbd7dd6cc	-0.061972424
94	0xbcbc05cc	-0.022951983
95	0x3db0a69f	0.086255305
96	0x3d8b83e3	0.06812265
97	0xbd3f7685	-0.04674389
98	0xbd2adb7e	-0.04171323
99	0x3d9e7969	0.07738001
100	0x3d2debf2	0.042461343
101	0xbcc3a9e4	-0.023884721
102	0xbd967cfc	-0.07348058
103	0xbd989011	-0.074493535
104	0xbd0c37a9	-0.03423277
105	0x3d41a7a2	0.047279008
106	0xbc016358	-0.007897221
107	0x3d3ce286	0.046114467
108	0x3ce61540	0.028086305
109	0x3d0549de	0.03254115
110	0x3d8a8363	0.06763341
111	0x3f177339	0.5916019
112	0xbf8c2069	-1.0947391
113	0x3f28b47e	0.6590041
114	0xc010aa79	-2.2604048
115	0x3f7705ce	0.9649323
116	0x3ed688dc	0.4190129
117	0xbdce50d7	-0.10074013
118	0x3f39fbce	0.7264985
119	0x3e98df49	0.29857853
120	0x3da6254a	0.08112581
121	0x3dc14143	0.09436276
122	0x3f4cd919	0.80018765
123	0xbeb1c4e5	-0.3472053
124	0xbde78422	-0.11304499
125	0x3e117090	0.14203095
126	0xbe489399	-0.19587554
127	0xbd7a4c57	-0.06110796
128	0xbe086580	-0.13319969
129	0x3e109613	0.14119749
130	0xbd278c61	-0.04090536
131	0xbd5f228e	-0.054476313
132	0xbd93fcfa	-0.07225986
133	0xbc0cac15	-0.008585949
134	0xbd9972fb	-0.07492634
135	0x3d1f186a	0.038841642
136	0x3dae762f	0.085186355
137	0xbd14661b	-0.036230188
138	0x3d875381	0.06607724
139	0xbd9651dc	-0.07339832
140	0x3d9cedaf	0.07662522
141	0xbda8ef3c	-0.08248755
142	0x3d827489	0.063698836
143	0x3b35d860	0.0027747378
144	0x3d921cad	0.07134376
145	0xb8923000	-6.970763e-05
146	0xbcdb3420	-0.026758254
147	0x3c1667b0	0.009179994
148	0xbcf1bb54	-0.02950827
149	0xbd67bb1c	-0.056574926
150	0x3c282838	0.010263495
151	0x3d25a0a6	0.04043641
152	0x3d5fed4a	0.054669656
153	0x3d8e8e83	0.06960776
154	0xbcd1d7c0	-0.025615573
155	0x3b3fd200	0.0029269457
156	0xbd73d296	-0.059527002
157	0xbc20afd8	-0.009807549
158	0xbc9ada28	-0.018902853
159	0x3d23dfaa	0.040008225
160	0xbdbe37ce	-0.09287988
161	0x3d53eab6	0.05173751
162	0xbda9690a	-0.08271988
163	0x3bda6f30	0.0066660866
164	0x3ba130f0	0.004919164
165	0x3c4c8850	0.012483671
166	0x3d71c0e2	0.059021838
167	0xbdc0c601	-0.09412766
168	0x3d85d429	0.06534607
169	0x3cde062c	0.027102552
170	0x3dade56f	0.084910266
171	0x3be25310	0.0069068745
172	0x3bdb2260	0.0066874474
173	0xbd91ebd7	-0.07125061
174	0x3db06017	0.08612078
175	0x3db25c8f	0.087090604
176	0x3d9df4e3	0.07712724
177	0xbd3353fc	-0.043781266
178	0x3d92e37d	0.07172296
179	0xbd8b4f22	-0.06802203
180	0xbdaf5b31	-0.08562315
181	0x3d20ae6a	0.039228834
182	0xbd6ddf79	-0.05807445
183	0x3d8df733	0.06931915
184	0xbd421e70	-0.04739231
185	0x3d315ef6	0.043303452
186	0x3bc8a8a0	0.0061236173
187	0x3d86a84d	0.065750696
188	0xbc9d6ed8	-0.019217893
189	0xbd36ba66	-0.044611357
190	0x3d44ecbe	0.048077337
191	0x3d2ecd1a	0.04267607
192	0xbdbd63e7	-0.092475705
193	0xbc3648d8	-0.011125766
194	0x3cadd2e0	0.021218717
195	0x3bdc0900	0.00671494
196	0xbda72fc1	-0.08163405
197	0xbc14b0b0	-0.009075329
198	0xbce01d40	-0.027357697
199	0xbbd2f0d0	-0.0064373985
200	0xbd42f791	-0.04759938
201	0xbb4d2940	-0.0031305104
202	0x3d45ce5e	0.04829251
203	0xbd584aaa	-0.05280558
204	0x3d9836d5	0.074323334
205	0x3c95b100	0.018272877
206	0xbdad63af	-0.08466279
207	0xbd4632cf	-0.0483883
208	0xbd4c5725	-0.049887795
209	0xbd80f5cf	-0.06296884
210	0xbd4ae89b	-0.049538236
211	0xbd82ef52	-0.06393303
212	0x3c1c87c0	0.00955385
213	0x3d1503c6	0.03638055
214	0x3c8b3f08	0.01699783
215	0x3dc15421	0.094398744
216	0xbc99fe28	-0.018797949
217	0xbd6ce816	-0.057838522
218	0x3d7702b2	0.060305305
219	0xbdc25edf	-0.094907515
220	0xbccebc58	-0.025236294
221	0x3bdd7930	0.0067588314
222	0x3e0a77c3	0.13522248
223	0x3f224251	0.6338244
224	0xbd85184e	-0.064987764
225	0x3ed5a672	0.4172855
226	0x3f81a92a	1.012975
227	0x3e89b738	0.26897597
228	0x3f296331	0.6616698
229	0xbdb3d5c3	-0.08781006
230	0xbf1738df	-0.59071153
231	0x3d2af7e5	0.041740317
232	0xbf48125f	-0.7815303
233	0xbec387a1	-0.38189414
234	0x3f5cf925	0.86317664
235	0x3e2b9e96	0.16759714
236	0x3d0a51fc	0.033769593
237	0x3f192846	0.5982708
238	0xbe9ec99a	-0.31013185
239	0x3e669610	0.22518182
240	0xbb14c770	-0.0022701882
241	0x3d1cb67d	0.038259972
242	0x3d64ad80	0.055829525
243	0x3c4f7392	0.012661831
244	0x3c3dbf2f	0.011581226
245	0xbe402fcf	-0.18768238
246	0xbd77ecc9	-0.06052855
247	0xbdae9e79	-0.0852632
248	0x3d89e472	0.067330256
249	0x3d9e2c2d	0.077232696
250	0xbdb2f22c	-0.08737597
251	0xbd26f9b3	-0.040765475
252	0x3d157a76	0.03649374
253	0x3c8c1b5c	0.01710289
254	0x3db784e1	0.089608915
255	0xbdabec0f	-0.08394634

bias f4 [256]
0	0x3f952203	1.1651005
1	0xbee270a4	-0.44226563
2	0x3f9c6024	1.221684
3	0xbf72db49	-0.9486585
4	0x3e4c0fb2	0.19927862
5	0x3e54e5df	0.20790814
6	0x3f176e10	0.5915232
7	0xbeffdade	-0.4997167
8	0xbe0f6700	-0.14004135
9	0xbe3b20db	-0.18274252
10	0x3ef2b813	0.47406062
11	0x3dfe7368	0.12424356
12	0x3d3379c9	0.043817315
13	0x3ec87177	0.39149067
14	0x3f7958b6	0.9740099
15	0xbf10d610	-0.56576633
16	0x3e535c16	0.20640597
17	0xbdaeb87e	-0.08531283
18	0xbe677f6c	-0.22607201
19	0xbf8cd74a	-1.1003201
20	0x3f561eb2	0.8364059
21	0x3ed02163	0.40650472
22	0xbe7640d1	-0.24048163
23	0x3d552da2	0.052045472
24	0x3f3e265e	0.74277294
25	0x3db01af8	0.08598894
26	0xbf07982d	-0.52966577
27	0xbf008ec8	-0.50217867
28	0xbf49c494	-0.7881558
29	0xbf098670	-0.5372076
30	0xbd768a97	-0.060190763
31	0x3f8b9418	1.090457
32	0x3e5ac6cf	0.21364902
33	0xbd5c2957	-0.053750362
34	0x3f233f4b	0.6376845
35	0xbd90cdd5	-0.07070509
36	0x3eaf9aa9	0.34297684
37	0x3f562df5	0.83663875
38	0x3f85161d	1.0397373
39	0xbf1afd87	-0.605431
40	0xbf2fc657	-0.6866202
41	0x3f4f0776	0.8087076
42	0xbec32c13	-0.38119563
43	0xbeb5b88f	-0.3549237
44	0x3e87831c	0.26467216
45	0x3f8bb9b4	1.0916047
46	0xbec8c96c	-0.39216173
47	0xbd091b4d	-0.0334733
48	0xbf74a990	-0.9557123
49	0x3fe78376	1.8086994
50	0xbe455055	-0.19268925
51	0x3f708f60	0.9396877
52	0x3f23d2fe	0.63993824
53	0x3e8f0935	0.27936712
54	0x3e4b1dc3	0.19835572
55	0x3f88844d	1.0665375
56	0xbef85fbc	-0.4851054
57	0x3f5dd7ce	0.86657417
58	0x3e96b6e6	0.29436415
59	0xbf3802f3	-0.718795
60	0xbf10008f	-0.5625085
61	0x3e32c844	0.17459208
62	0x3f8f1b59	1.1180221
63	0xbe4c542c	-0.19953984
64	0x3d60bb71	0.054866258
65	0x3eee1a7b	0.46504578
66	0x3de76697	0.11298864
67	0x3f6e5d81	0.93111426
68	0x3ec15170	0.37757444
69	0x3f5cb8e9	0.8621965
70	0xbf0e05a5	-0.5547736
71	0x3e6391dd	0.22223611
72	0x3f4afc71	0.79291445
73	0x3f51c491	0.8194056
74	0x3f1dafd4	0.6159642
75	0xbedef469	-0.43545845
76	0xbf4b3a48	-0.79385805
77	0xbf8d2023	-1.1025432
78	0xbe2d53ec	-0.16926545
79	0x3f97a670	1.1847668
80	0xbf09d852	-0.53845704
81	0x3f1cf4f6	0.6131128
82	0xbe6cb62f	-0.23116373
83	0x3f1c22d0	0.6099062
84	0xbcfa0263	-0.030518716
85	0x3e8adf32	0.2712341
86	0x3f7b2d48	0.9811597
87	0xbe6db17f	-0.2321224
88	0xbf1d95fb	-0.6155698
89	0xbd5243b9	-0.051334117
90	0xbc26adde	-0.010173289
91	0x3f33320f	0.6999826
92	0xbf643f10	-0.89158726
93	0x3f0d6836	0.5523714
94	0x3e9ad361	0.30239394
95	0xbcff5e5a	-0.03117292
96	0x3f3a5a5c	0.7279413
97	0xbe82bef2	-0.25536305
98	0xbe3f01ba	-0.18653002
99	0x3d270357	0.04077467
100	0xbeaf4418	-0.3423164
101	0xbe67e518	-0.22645986
102	0xbe90021b	-0.28126606
103	0xbf2d4b32	-0.67692864
104	0xbdb84ad7	-0.089986496
105	0xbf0544cb	-0.52058095
106	0x3f325461	0.6966
107	0x3e73e423	0.23817496
108	0x3f80d9b8	1.0066442
109	0x3e3a7bee	0.18211338
110	0xbead3aa9	-0.33833817
111	0xbe8496cc	-0.258963
112	0xbe38fe06	-0.18065652
113	0xbf0c1708	-0.5472264
114	0x3fbfa34a	1.4971707
115	0xbf015fb4	-0.50536656
116	0xbfac99c6	-1.3484428
117	0xbf9f41f1	-1.2441999
118	0xbe9bf9df	-0.30464074
119	0xbe474cef	-0.19462942
120	0xbf16dd1d	-0.5893114
121	0xbed8c5a8	-0.423383
122	0x3f655cda	0.89594805
123	0x3d9ecebf	0.077542774
124	0xbeb42c86	-0.3519022
125	0xbec3709c	-0.38171852
126	0xbdffcaa7	-0.12489825
127	0xbf57a038	-0.8422885
128	0x3f48486f	0.78235525
129	0x3c10a0c5	0.008827393
130	0xbf3ca29b	-0.73685616
131	0x3e9423ee	0.28933662
132	0xbf98ed85	-1.1947485
133	0x3ef14bed	0.4712824
134	0xbf863da2	-1.0487559
135	0xbe950003	-0.2910157
136	0x3f5796e8	0.8421464
137	0xbd19aa81	-0.03751612
138	0x3f960bfa	1.1722405
139	0x3cd3f1cc	0.025872134
140	0x3c866c34	0.016409017
141	0x3f8747ad	1.0568749
142	0xbeec58fb	-0.46161637
143	0xbf1cf758	-0.61314917
144	0x3eccf204	0.40028393
145	0x3f5422e5	0.82865745
146	0x3c0e8f36	0.008701136
147	0x3ef23d7b	0.4731253
148	0xbddbb45e	-0.10727762
149	0x3e6fbd39	0.23412026
150	0xbefe91f4	-0.49720728
151	0x3f48d8ed	0.78456
152	0x3e331efe	0.17492291
153	0xbedf714b	-0.43641123
154	0xbe42061e	-0.18947646
155	0xbf4b6309	-0.7944799
156	0xbdb138e2	-0.08653428
157	0xbd4f5c3a	-0.050625063
158	0x3f275b44	0.65373635
159	0x3e00f630	0.12593913
160	0x3f65968d	0.8968285
161	0x3eb9f448	0.36319184
162	0xbe269db9	-0.16271104
163	0x3ca9e63a	0.020739663
164	0x3de492fd	0.11160848
165	0x3f74d1a4	0.95632386
166	0xbe48ea1b	-0.19620554
167	0xbf23de41	-0.6401101
168	0x3daa50fe	0.08316229
169	0xbeabd43b	-0.33560356
170	0x3ee43802	0.4457398
171	0xbf1b63ca	-0.6069914
172	0x3e918889	0.2842448
173	0x3e5d5909	0.21615995
174	0x3e0faa6b	0.14029853
175	0xbe6ddf70	-0.23229766
176	0x3e38d78d	0.18050976
177	0xbe3a08a1	-0.18167354
178	0xbf2bdf90	-0.67138004
179	0x3f1f3a63	0.62198466
180	0x3ef0a16d	0.46998158
181	0xbdad79d4	-0.084705025
182	0xbd2f6d3e	-0.04282879
183	0xbdc999d9	-0.09843797
184	0xbefd98bd	-0.49530593
185	0x3d8ecfc4	0.06973222
186	0x3f1bceff	0.60862726
187	0x3f106a42	0.56412137
188	0xbed9efed	-0.4256586
189	0x3f983b11	1.1893026
190	0x3edfc609	0.43705776
191	0x3ed4e230	0.41578817
192	0xbdcbdaa5	-0.099538125
193	0x3dc472a2	0.09592177
194	0xbea15c5c	-0.31515777
195	0x3e0cd52d	0.13753195
196	0xbf570f97	-0.84008163
197	0x3f200776	0.62511384
198	0xbf7f1f68	-0.996573
199	0xbede08fd	-0.43366233
200	0xbf80c161	-1.0059015
201	0xbf669d38	-0.90083647
202	0x3f133780	0.5750656
203	0xbe3f5b0e	-0.18687078
204	0x3f037a9a	0.5135895
205	0xbf8a1404	-1.0787358
206	0x3f13fb7b	0.57805604
207	0x3f4ee8a5	0.8082374
208	0xbf1fc99d	-0.6241701
209	0x3f066683	0.5250017
210	0xbe0e3219	-0.13886298
211	0xbeea65a7	-0.4578068
212	0xbf0a141e	-0.53936946
213	0x3e970620	0.2949686
214	0xbe9a9512	-0.30191857
215	0xbf277411	-0.6541148
216	0xbf0574a0	-0.5213108
217	0x3f8ad2ce	1.0845582
218	0xbf02d1f2	-0.511016
219	0xbe28f3d3	-0.16499262
220	0xbe8343bb	-0.25637612
221	0x3e6efc18	0.23338354
222	0x3ebf5059	0.37365988
223	0xbeb9ed85	-0.36314026
224	0x3cfcf277	0.030877335
225	0x3ecbca06	0.3980257
226	0xbebd2aa2	-0.3694659
227	0xbeae76d7	-0.34075043
228	0x3eb6a284	0.35670865
229	0xbbd7133b	-0.0065635717
230	0x3ed017cb	0.40643153
231	0x3e9354e0	0.28775692
232	0xbd993988	-0.07481676
233	0xbe8d0cdb	-0.2754887
234	0x3f13be0c	0.57711864
235	0xbeab9151	-0.33509305
236	0x3f7a7b84	0.9784472
237	0x3f1956dc	0.5989816
238	0x3f147204	0.57986474
239	0xbf33c865	-0.7022765
240	0xbf142ee1	-0.5788403
241	0x3e86daef	0.26338908
242	0x3edbcdb1	0.42930368
243	0xbec1ffcc	-0.3789047
244	0x3ed2e23b	0.41188225
245	0x3f730af3	0.9493858
246	0xbe85d633	-0.26139984
247	0x3ebfdb20	0.37471867
248	0xbe92f642	-0.28703505
249	0x3ec0acbb	0.37631783
250	0xbef2006c	-0.47265947
251	0x3e816c29	0.25277832
252	0x3e3c7d52	0.18407181
253	0x3eeb9fd0	0.46020365
254	0x3e88fe51	0.26756528
255	0xbf3543ca	-0.7080656
