data/TD3_D2RL/Reacher-v2/TD3_D2RL_s4586/pyt_save/model.pt (torch_old, 877474 bytes, 16 tensors)

weight f4 [256, 11]
00000000: c098 7d3d 908e a9be 5451 87bd 592d 093f
00000010: 6b66 d1c0 c3b7 08c0 2145 9b3e 26dc f53d
00000020: c71f f33f 5a27 953f 62bb 2d3e 0a45 173f
00000030: a345 f53e f0ce 3b3f c674 a4bf 7acc d63f
00000040: fbd1 0040 9df9 bf3c 6d71 df3d 9128 bdbf
00000050: af7b c4bf 887d 80bd a73b 30bf b52d 043f
00000060: 0bdd 473f 1a93 06bf f8c4 41c0 69c9 ad40
00000070: 65b5 323e 043c 063d 7abd ce3f a4a5 d9bf
00000080: 75bf 86be e6e9 1dbf 6373 cdbd 5cc7 cabe
00000090: 7250 bbbf c41f 973f 0073 cc3f 370d 80bd
000000a0: a85e 06ba 54c9 5ec0 33ad e93c 904b a1bd
000000b0: 3254 d23e 81e9 023d 4022 d6bc 6e2f dcbf
000000c0: dcd5 ec3e 8cfb 18c0 f55e 17be 21c7 9b3d
000000d0: 24f1 2dbf a4d4 aa3f 74a4 85bd 4a43 3bbf
000000e0: 3981 d3be 7ae1 753f 641d 0240 b4fd 83bf
000000f0: 2f05 693e 9853 8e3d 676d 21be 3428 0e3f
00000100: 5697 9bbe e471 b3bd 85e9 cbbf 67e5 94be
00000110: 7fb7 44bf 4446 70bf d876 15c0 4ef9 fd3f
00000120: 8799 9cbe 95f7 1b3d 4caf 87bf a681 debe
00000130: 8879 603e 6f19 b23e ae74 46bb f76a 65bf
00000140: 3f42 d4bf 9cde a6bf ab1e 70c0 59d0 23be
00000150: 11ab 10be 8beb ba3f e27c 2f40 8cc3 6dbe
00000160: 7736 8f3f 4ba1 9abf 0441 20bf ea36 243f
00000170: d23f 8ac0 4cad bc3f 3811 9bbb 682a 713d
00000180: 8670 1140 5727 05c0 a631 96bd ef37 22bf
00000190: 6516 0cbe 0871 cf3d 6120 a0bf 0275 003f
000001a0: ebee 8ac0 5bc8 37bd 5523 7fbc d59e 79be
000001b0: d70b 6b40 5081 d23d 45cb 4cbf 3777 4a3f
000001c0: 58d8 98be f649 7d3f 2f2f b53f 0891 71c0
000001d0: e5a8 583d b797 583e b72c 60bf 0566 2840
000001e0: 34d4 eabd b4d7 00bf 4c19 77be 4735 dbbd
000001f0: 1b83 02c0 5600 323f 48ee d53f 0eb0 11bd
00000200: b51b cc3d 00bb b8bf 54d6 a4bf 82a5 04be
00000210: 29bb ddbf 3bc9 fa3d 23bf d83d 2cb1 9b3f
00000220: ccfd 603f ef19 23c0 0d28 13be 2782 f93d
00000230: 6e3d a1bf c4b0 df3f 0cac c5bd 4c0b 22bf
00000240: 97a2 03bf 42a8 823f 0d4c e63e cccd 97bf
00000250: 1c9c 63c0 34b4 13be 2c33 03be 0d12 13bf
00000260: 344a 1040 8c85 ba3d d4a9 0fbd a9db 8e3c
00000270: 7502 bd3f b926 883f 918b 0640 5001 1c3f
00000280: aea0 5b3d 1d34 96bd 8199 0cc0 3c8e 7b3e
00000290: c8ac 51be 13d0 f5be 7912 a03e be58 5fbd
000002a0: 4b36 8f3f 8478 b8bf a397 8340 9a59 06be
000002b0: b28f 02be 102a dbbd 1512 02c0 5a4f 1a3e
000002c0: 98a8 bdbe 4dd8 8b3d 403e c03e 6bfd c9bf
000002d0: 86ea 0cbf e046 e740 7d52 fa3d d821 1dbe
000002e0: e65f d63e b406 58c0 7223 e5bd e736 303e
000002f0: b2e8 adbf 3429 24be 6846 303f 933b 14c0
00000300: 2c48 7540 9cfa aabd a81b 70bc 8170 d63f
00000310: 14e0 42c0 9c3b 74bd 6f72 bd3e 7f2d e9be
00000320: 7bb1 923f 6c1f 41bf 05b9 1bc0 501c 6dbf
00000330: ee91 003e b6b7 123d 9dba 3440 7d7b e13f
00000340: cde9 94be d6a5 76be 6cfa bcbe 758b 9dbf
00000350: 1ed8 33bf 8666 1b40 29d7 4c3f a2a8 ca3d
00000360: 37b4 893e e8e2 35c0 8ecf 573d a8bf 8fbe
00000370: 8b43 0b3e aedf bb3d 2cb1 693f b79a 00bf
00000380: 4a73 da3f 058e 66c0 252b 0ebe 4518 d5bd
00000390: bf92 683d f8d0 8640 9340 83be 0b8d 02be
000003a0: 04f9 893e 5464 cabe 607e 50be 8354 fcbf
000003b0: ee9b 0d40 3567 963e 740d 24bc d65c ac3e
000003c0: 9516 fabf 1ed1 87bd b77a e1bf 9184 1dbe
000003d0: c9dd db3d ad37 b63f 6343 20c0 25f2 02c0
000003e0: 50f0 9e3c 6aa8 01bd 9a58 c13f cd7d 863f
000003f0: d45d 92be fb60 f5be 4dc0 273f 6521 803f
0.061913252 -0.3311658 -0.06607309 0.5358482 -6.543752 -2.136216 0.3032618 0.120048806
1.8994073 1.1652634 0.16966012 0.5908972 0.4790469 0.73362637 -1.2848136 1.6781151
2.0128162 0.023434455 0.10910306 -1.4778005 -1.5350245 -0.06273943 -0.6884102 0.51632243
0.7807166 -0.5256821 -3.027647 5.430836 0.17452009 0.03277208 1.6151574 -1.7003675
-0.26317945 -0.61685026 -0.10031774 -0.39605224 -1.4633925 1.1806569 1.5972595 -0.062525205
-0.0005125799 -3.481038 0.02852497 -0.078757405 0.4107986 0.031960968 -0.026139379 -1.7201974
0.46256912 -2.3903532 -0.14782317 0.0760634 -0.67946076 1.3346143 -0.065255076 -0.7314955
-0.41309527 0.96047175 2.0330439 -1.0311799 0.22755884 0.06949538 -0.1576439 0.55530095
-0.30388898 -0.08761957 -1.593064 -0.2908127 -0.7684249 -0.93857217 -2.3353786 1.9841707
-0.30585882 0.03807791 -1.0600371 -0.4345829 0.2192136 0.3478503 -0.003028195 -0.8961634
-1.6582717 -1.3036685 -3.7518718 -0.15997447 -0.14127757 1.4603132 2.7419972 -0.23219126
1.1188496 -1.2080473 -0.62599206 0.6414629 -4.3202906 1.4740386 -0.0047322772 0.058878332
2.272493 -2.080526 -0.073336884 -0.633666 -0.13680418 0.10128981 -1.2509881 0.5017854
-4.341665 -0.04486881 -0.015572389 -0.24376996 3.6725976 0.10278571 -0.79997665 0.7908816
-0.29852557 0.9894098 1.4155024 -3.774477 0.052895445 0.21151625 -0.8756823 2.6312268
-0.11466256 -0.50329137 -0.24130744 -0.10703521 -2.039252 0.6953176 1.6713343 -0.03556829
0.09966222 -1.4432068 -1.2877908 -0.12953761 -1.7322742 0.12245413 0.105833314 1.2163444
0.87887263 -2.5484579 -0.14370747 0.12183028 -1.2596872 1.747582 -0.09651956 -0.6329849
-0.5141997 1.0207598 0.44979897 -1.1859679 -3.5564032 -0.14424211 -0.1281249 -0.5744942
2.254529 0.09107503 -0.03507407 0.017438726 1.4766375 1.0636817 2.1022685 0.609395
0.053620033 -0.073341586 -2.1968691 0.24565977 -0.20476067 -0.4801031 0.31264094 -0.05452799
1.1188444 -1.4411778 4.1122603 -0.13120118 -0.12750128 -0.10701382 -2.0323536 0.15069333
-0.3704269 0.068283655 0.37547493 -1.5780462 -0.55045354 7.2274017 0.12222765 -0.15344942
0.4187004 -3.3754091 -0.11188401 0.17208444 -1.3586638 -0.16031343 0.6885743 -2.3161361
3.83253 -0.08348581 -0.014655031 1.6753083 -3.0449266 -0.05962716 0.37001368 -0.45542523
1.1460413 -0.7543857 -2.4331677 -0.92621326 0.12555668 0.03581973 2.82389 1.7615811
-0.29084626 -0.24086699 -0.36909807 -1.2308184 -0.70251644 2.4281325 0.8001581 0.098954454
0.26895306 -2.8419743 0.052688174 -0.2807591 0.13599984 0.09173523 0.9128597 -0.50236076
1.7066433 -3.6024182 -0.13883646 -0.1040502 0.056780573 4.213009 -0.25635204 -0.12749116
0.26947796 -0.3952967 -0.20360708 -1.9713291 2.2126422 0.29375616 -0.010012973 0.33664578
-1.9538141 -0.06631683 -1.7615575 -0.15382601 0.107356615 1.4235741 -2.504113 -2.0460293
0.0194017 -0.031654753 1.5105164 1.0507141 -0.2858721 -0.47925553 0.655278 1.0010191

bias f4 [256]
00000000: 599c ccbf 55b2 0bbf eea4 8dbf 456a e9bf
00000010: 7d7a d1bf 4cfd c1bf 23d5 9cbf de70 60bf
00000020: 02b0 90bf 892c 33bf 9db7 9dbf 73ff 13bf
00000030: d383 93bf 4207 98bf 29a0 28bf 093e 5bbf
00000040: 1235 3cbf ef0b a2bf 8bea 61bf 70c1 a7bd
00000050: 24bf 89be a009 55bf e655 9cbf f774 aabf
00000060: 1349 2bbf 475c debf 8e38 59bf 984c a6bf
00000070: d231 15c0 a8ba 0bc0 23d4 debf e16d 92bf
00000080: c6f4 ccbf 1e75 3abf 360a 11bf 4816 ecbf
00000090: 4474 93bf 5b14 93bf 72bf b8be 6fdb a4bf
000000a0: 829f a6bf c03c b1bf 1a80 0abf f37a 9bbf
000000b0: ca73 5bbe bb19 59bf 794d 3cbf 71e2 00be
000000c0: d79e b3bf 1ef7 a3bf cdc7 f6bf 923a 83bf
000000d0: 7d17 7cbf 435c c1be c686 1fbf 2e93 aabf
000000e0: 3dfd 6bbf 4c34 6dbf 33b4 8cbf 9502 8abf
000000f0: af2a 4abf 230d c3be 23ae 18bf 60eb a9bf
00000100: 175d b7bf b0c5 08c0 5521 29bf 37a8 86bf
00000110: b43a 4dbf 9667 d4bf 6989 ddbf 43fb f3be
00000120: c686 4ebf af4d 35bf 2be4 05bf 2dcd bcbf
00000130: 1a38 8cbf c931 c6bf 4022 d4bf dd8d 8abf
00000140: 2ad3 09bf 147f e4be 28fc c1bf 6d84 1ebf
00000150: 4ded 40bf 6072 c3be 9a03 b0bf d772 b9bf
00000160: 7071 babe c198 cbbf 0003 a2bf 109a 21bf
00000170: c94c afbf 9185 7dbf 0df3 5dbf 4a9e 8fbe
00000180: 0159 91bf 30b6 23bf b38d dfbe eb1b 37bf
00000190: 71fc 5dbf 0941 bbbf 3714 68bf 1cd4 09bf
000001a0: 84f1 e7bf d806 a1bf eb72 89bf 6a69 96bf
000001b0: e8fb 7fbb dafa 95bf 0aa0 50bf 3c2c 7cbf
000001c0: aea8 79bf c3a7 92bf a1a7 21c0 ac85 a5bf
000001d0: a05e 93bf bdd5 08bf 5cf3 33bf b675 85bf
000001e0: 4eef 07bf 31d3 84bf 55d4 c9bf d51c bfbf
000001f0: bb06 afbf 6d98 89bf 2727 acbf 9b8a 87bf
00000200: 0ef0 afbe 6dca 20bf 164d 72bf 7539 a5bf
00000210: ee55 ecbe c7a1 70bf d911 8dbf 17e9 36bf
00000220: c32a 95bf e243 52bf 7443 e7be 02c0 49be
00000230: 851c a0bf 39ab 76bf 00c4 52bf 6db4 0cc0
00000240: 6da5 85bf f145 cebe 42a4 e8bf 5876 7fbf
00000250: 9192 1bbf 5c77 8abf b391 e7bf 29c3 0bc0
00000260: 9849 81bd 6f0b 8cbf 25ca 02bf a420 04bf
00000270: ab19 6cbf c554 19bf 009b 27bf 2d7c 5dbf
00000280: 7476 69bf f000 a1bf 9de6 dbbe c1f5 0ebf
00000290: 702d d1bf 498b a1bf fa3e 73bf 8182 29bf
000002a0: b91b 53bf fdc3 12bf 5385 e0bf 9f1b e9bf
000002b0: 02b7 61bf 1db9 80be 0d3d bcbf 2570 04bf
000002c0: 6d5b 38bf 05a4 5ebf 7b4e 94bf baad 65bf
000002d0: 4d44 31bf ff0b 8fbf da16 4dbf f508 a9bf
000002e0: bc44 ccbf a248 c7be 0507 a0bf 876f 8dbf
000002f0: c5d2 32bf 6908 a2be 99ce 86be 37ce debe
00000300: 08aa 85bf 9847 81bf 1178 97bf c9df cbbf
00000310: 7dfc 9d3d 0edc 5ebf 8776 14c0 0330 9bbf
00000320: b59e e6be 2453 82bf 9ba9 4ebf 1203 52bf
00000330: 59d6 69bf 692b 6abf 385e eebf b781 7cbf
00000340: f6d2 a6bf b517 3e3e cb77 f4bf 3698 f8be
00000350: 3433 57bf 078b 89bf 1de4 05c0 5538 debf
00000360: 19f4 e2bf 5bfe 9abf 05c0 e3bf 6c29 7dbf
00000370: 67bf 68bf 0290 f5be 7600 80bf fdbb 37bf
00000380: a776 31bf ad5d 98bf a2f8 87bf 829e a0bf
00000390: ab3f 3fbf 09c9 93bf 915f 8cbf 862d 6ebf
000003a0: f7d8 a0bf f991 01bf bf82 0fbf 9e30 98bf
000003b0: 0510 98bf 1088 2abf 24e0 babe 0d04 03bf
000003c0: 55bc 06c0 1a62 dbbe ba06 f4be d75e 96bf
000003d0: 833c 2abf 69b8 9fbf c395 4cbf 19a6 abbf
000003e0: 39cc 9bbf a10f a9bf bb84 7fbf bef5 7fbf
000003f0: 002b 41bf 7f63 c6be d030 81bf bc2f 97bd
-1.5985214 -0.5456899 -1.1065958 -1.8235556 -1.6365505 -1.5155425 -1.2252544 -0.8767222
-1.1303713 -0.6998983 -1.2321659 -0.5781166 -1.1524605 -1.1877215 -0.65869385 -0.85641533
-0.7351848 -1.2659892 -0.8824851 -0.08191192 -0.2690364 -0.8321781 -1.2213714 -1.3316945
-0.6690838 -1.7371911 -0.8485192 -1.2992125 -2.3311658 -2.1832676 -1.7408489 -1.1439782
-1.6012199 -0.72834957 -0.56656206 -1.84443 -1.1519856 -1.1490587 -0.3608356 -1.2879466
-1.3017428 -1.3846664 -0.5410172 -1.2146896 -0.21430889 -0.84804887 -0.73555714 -0.1258638
-1.4032849 -1.2809789 -1.9279724 -1.0252249 -0.9847334 -0.37765703 -0.6231502 -1.3326166
-0.92183286 -0.92657924 -1.0992492 -1.0782038 -0.7897138 -0.3809596 -0.5964071 -1.3274956
-1.4325284 -2.137066 -0.66066486 -1.0520085 -0.801677 -1.6594112 -1.7307559 -0.47652635
-0.806744 -0.7082166 -0.5230128 -1.4750115 -1.0954621 -1.5483943 -1.6572952 -1.0824543
-0.53837836 -0.44628203 -1.5155077 -0.61920816 -0.7536209 -0.381732 -1.3751099 -1.4488171
-0.3641467 -1.5905992 -1.2657166 -0.63125706 -1.3695308 -0.9903193 -0.8669899 -0.28050452
-1.1355287 -0.6394987 -0.43662795 -0.71526974 -0.8671332 -1.4629222 -0.90655845 -0.5383928
-1.812058 -1.2580214 -1.0738195 -1.175092 -0.003906006 -1.1717179 -0.814942 -0.98504996
-0.9752301 -1.1457447 -2.5258563 -1.2931418 -1.1513252 -0.5345114 -0.7029321 -1.0426548
-0.53099525 -1.037695 -1.5767924 -1.4930674 -1.3673929 -1.0749642 -1.3449448 -1.0589174
-0.34362835 -0.6280888 -0.94648874 -1.290816 -0.4615931 -0.9399685 -1.1021072 -0.71449417
-1.1653675 -0.8213483 -0.4516865 -0.19702151 -1.2508703 -0.96355015 -0.8233032 -2.1985123
-1.0441109 -0.40287736 -1.8175128 -0.99789953 -0.6077052 -1.0817676 -1.8091339 -2.1837866
-0.06312865 -1.0940989 -0.510897 -0.51612306 -0.92226666 -0.59894973 -0.65470886 -0.865176
-0.9119637 -1.2578411 -0.4294938 -0.5584374 -1.6341991 -1.2620631 -0.9501797 -0.6621476
-0.82464176 -0.57330304 -1.7540687 -1.8211554 -0.8816987 -0.2514123 -1.4706131 -0.5173362
-0.72014505 -0.86969024 -1.158645 -0.8971821 -0.69244844 -1.1175536 -0.80112994 -1.3205858
-1.5958476 -0.38922602 -1.2502142 -1.104966 -0.6985286 -0.3164704 -0.26329497 -0.43516704
-1.0442514 -1.0099974 -1.1833516 -1.5927669 0.07714174 -0.87054527 -2.3197343 -1.2124027
-0.4504296 -1.0181623 -0.8072755 -0.82035935 -0.91342694 -0.9147249 -1.8622503 -0.9863543
-1.303313 0.18563731 -1.9099058 -0.48553628 -0.84062505 -1.0745553 -2.092048 -1.7360941
-1.7730743 -1.2108873 -1.7792975 -0.9889133 -0.90917057 -0.47961432 -1.0000141 -0.7177122
-0.69321674 -1.1903588 -1.0622752 -1.2548373 -0.74706525 -1.1545726 -1.0966665 -0.93038213
-1.2566212 -0.5061336 -0.5605888 -1.1889837 -1.1879889 -0.66613865 -0.3649913 -0.51178056
-2.1052449 -0.42848283 -0.47661382 -1.1747693 -0.66498584 -1.2478153 -0.7991602 -1.3410064
-1.2171699 -1.3207895 -0.99811906 -0.9998435 -0.7545624 -0.38747784 -1.0093021 -0.073821515

weight f4 [256, 267]
00000000: 83bd 00bd 0c28 2bbd 588f 24bd 25e2 5ebd
00000010: e891 21bd 4a8a dbbc 6fc2 44bd 01fb 45bc
00000020: 8362 40bd 22ce 17bd f8ec 2bbd 66ab fabc
00000030: d030 4bbd 4aa9 5ebd 5a97 ad3b 8a0a 473a
00000040: 6463 a1bc 0d38 d6bd 3a4c 93ba 562e 21bd
00000050: 9bc1 fcbc 5d1c 3abd 13c3 4cbc 7e0d d6bb
00000060: 301c 08bb f774 4e3c 3f8a 11bd 2105 cbbc
00000070: f2c9 9dbb 0aac 1c3c cd9d 443d 1956 ce3c
00000080: 9ad6 32bd faf8 eabc 61ba 3c3d 54a8 f3bc
00000090: 01e9 a4bd 0d49 2bbb c86c 24bd 6673 85bd
000000a0: 7504 8fbd 5844 333c cd39 29bd 1930 d0bd
000000b0: 6d3e a1bd 257e 9cbc 6cbf e8bc 4314 26bd
000000c0: affb d9bc 20a4 c13c 47e7 6bbd 76e3 92bd
000000d0: bdbd a6bc 3a18 c3bd 729e 0fbd 7ef5 e53c
000000e0: b575 a23c a7b3 82bd 07ff 0dbd a688 44bc
000000f0: 527b 3ebc e549 91bd b8bb 19bd 3956 e4bc
00000100: ec89 f43b 7cc6 5e3c 586e c0bd df03 17bd
00000110: a137 1cbc 264c 38bc 3544 183d 3b46 e03c
00000120: 454c 043d 04ad 67bc 80fe 3abd 51bc 8dbc
00000130: a5dd 83bd 5321 383c 7ea8 803c 5aa7 15bd
00000140: b0c0 19bd 0b3a 01bd 2e4d 353c 52e6 87bc
00000150: ee7a 973c 30a3 a9bc 21d4 66bb 2ac6 d4bc
00000160: ad5e a5bd 72ae 3e3d dca8 20bd f82b 19bd
00000170: e371 68bd d1ea e4bc 9d76 9cbd 4873 513a
00000180: 4ff8 e2bc 57ee acbc 3163 7ebd f86b 503c
00000190: 068a 23bd 5aff 36bd 2895 04bd 9a24 2a3d
000001a0: d543 1fbc 0b19 1bbd f141 a8bd 15ce 61bd
000001b0: 0719 24bc 86b7 21bd 2146 01bd 73b0 0abd
000001c0: 6e55 b0bb d17d 80bd 4eee 52bb ac53 5fbd
000001d0: d8e1 4ebc ba84 49bc 446d 1e3d faba e5bc
000001e0: ad15 e0bc 22d3 58bd a4a6 893c ca30 83bb
000001f0: 50a9 9e3c d453 79bd b2bc 7fbd 212a e2bc
00000200: 2839 4ebd c59b 72bd 43e1 63bd 2040 02bd
00000210: 3e04 55bd ea18 95bd 982b 90bd 5930 e7bb
00000220: 4e06 acbd aeb4 77bd 6562 6d3b be01 88bd
00000230: b9c6 14bd ca3a 22bc 64f1 433d 69a2 20ba
00000240: 3328 df3b 269c 90bc 1044 66bd 6b69 66bd
00000250: 2120 b3bc 3422 7dbd cf95 b23c 96f3 49bd
00000260: 8a04 1a39 16aa 99bd cc97 8c3c cc34 433d
00000270: ee05 223c 8437 f5bb 05e1 0abd b2a4 b5bc
00000280: 252d 2cbd af3a 6fbd aaf9 f43c cad4 71bd
00000290: 6958 22bd c19a 97bd 331a 6ebd 9c44 87bd
000002a0: d4a7 fa3c 3686 57bd 23c4 183c 6726 2bbc
000002b0: ab61 323c 51f0 933c 06e3 56ba ed15 6cbd
000002c0: 9d5c 87bc badb 17bd 97e8 79bd 2c78 383d
000002d0: 9b66 a7bb 7a6a c9bd 7bb6 61bc 40dd 103c
000002e0: 8d1d 9c3c 12f7 0abd 0847 aebc 611e 7e3c
000002f0: 011e f0bc 915c 4dbc 7c3e 79bd 0a38 2b3d
00000300: e31e 383d 2a6c 17bc 4a27 25bc f89f 1fbc
00000310: 347d 18bd 2ae1 ad3c dfbe 243d dcd1 c93c
00000320: 9a0a 70bd c61e 273d 6d2c 87bd 7fe9 4abd
00000330: a13b 13bd 3dba a13c 73a0 c83b 7c45 a83c
00000340: 6c71 2a3d 607d adbd 6201 533c 8fce 81bd
00000350: 07b1 30bc 081d aebc 338a 18bc 1d47 8cbd
00000360: 2de8 583b bfa3 90bd 0d2f 0a3d b086 373d
00000370: a50d 28bc d357 63bb 3de2 13bd a205 053c
00000380: f7db 9739 68c8 1abd c9bc 45bd 87ab 3bbd
00000390: fb42 0ebb b7c1 71bc 7380 08bd f609 4fbd
000003a0: 9b7b cabb ccc4 72bd a2df 75bd 46ad 89bd
000003b0: 4069 4dbc 5f0f 433d b0a7 75bd db7e 9cbc
000003c0: 64e9 d33b f6b3 c23c 79b4 0bbd b03f 9c3c
000003d0: e936 0a3d 2b4b 01bd f24d 8abd 8075 93bc
000003e0: 4818 d33c ec0b 16bd 1666 853c 231c 53bd
000003f0: 8c94 53bd 4207 c1bd bdcc bbb8 5eba afbd
-0.031430732 -0.04178624 -0.040175766 -0.054414887 -0.039445788 -0.02679934 -0.04803699 -0.01208377
-0.046968948 -0.037061818 -0.041974038 -0.030599307 -0.049607098 -0.054360665 0.0052975835 0.0007592818
-0.019700713 -0.104599096 -0.0011237927 -0.03935083 -0.030854037 -0.045437206 -0.012497681 -0.00653237
-0.0020768754 0.012601129 -0.035532232 -0.02478272 -0.0048153335 0.009562502 0.048002053 0.025187539
-0.04366169 -0.028683174 0.046076182 -0.029743351 -0.080522545 -0.002613607 -0.040142804 -0.06516151
-0.06983272 0.010941587 -0.04131489 -0.10165424 -0.07873235 -0.01910312 -0.02841159 -0.040546667
-0.02660927 0.023637831 -0.05759361 -0.07172291 -0.020354146 -0.09526105 -0.035063215 0.028071161
0.019831518 -0.06381922 -0.03466704 -0.01199547 -0.011626082 -0.070941724 -0.03753254 -0.027873145
0.0074627306 0.013597127 -0.093960464 -0.036868926 -0.009534747 -0.011248624 0.037174422 0.027377238
0.0322993 -0.014140371 -0.045652866 -0.01730171 -0.0643876 0.011238414 0.015705343 -0.036536552
-0.037537277 -0.031549495 0.011065764 -0.016589317 0.018491235 -0.020707697 -0.0035221654 -0.025973398
-0.080746986 0.046553083 -0.039223537 -0.037395447 -0.056749236 -0.027944 -0.07639811 0.00079898955
-0.027706293 -0.021109743 -0.062106315 0.012721054 -0.03992655 -0.044677116 -0.03236881 0.041538812
-0.009720762 -0.03786568 -0.08215702 -0.055128176 -0.010015733 -0.039481662 -0.03156102 -0.03385968
-0.0053812778 -0.062739976 -0.0032185498 -0.054523155 -0.0126270875 -0.012299711 0.038678423 -0.028043259
-0.027354086 -0.052935727 0.016803093 -0.004003619 0.019367844 -0.06087096 -0.062435813 -0.02760798
-0.050347477 -0.059230585 -0.05563475 -0.031799436 -0.052006 -0.072801426 -0.07039565 -0.007055324
-0.0839964 -0.060475044 0.0036221978 -0.06640957 -0.03632233 -0.009901712 0.04783763 -0.00061277166
0.006810212 -0.017652582 -0.056217253 -0.05625288 -0.021865906 -0.061800197 0.02179995 -0.049304567
0.00014688275 -0.075031444 0.017162226 0.047657773 0.009889109 -0.0074834246 -0.033906 -0.02217326
-0.04203524 -0.058405574 0.029904205 -0.059040822 -0.039635096 -0.07402564 -0.058130454 -0.06604883
0.030597605 -0.052618228 0.009324106 -0.010446168 0.010887544 0.018058928 -0.0008197281 -0.057638098
-0.016523654 -0.037074782 -0.06101283 0.04503648 -0.005108667 -0.09834762 -0.013776417 0.008841813
0.01905706 -0.03392703 -0.021274105 0.015510173 -0.029311182 -0.012534277 -0.060850605 0.04180149
0.04495133 -0.009242097 -0.010080168 -0.009742729 -0.037228778 0.02122553 0.04022109 0.024636202
-0.05860386 0.040800832 -0.066002704 -0.049539085 -0.03594554 0.019742126 0.0061226427 0.020540945
0.041612074 -0.08471179 0.012878748 -0.06338226 -0.010784394 -0.021254078 -0.009310293 -0.06849501
0.0033097372 -0.07062482 0.033736277 0.044806182 -0.010257159 -0.0034689798 -0.03610443 0.008119019
0.0002896485 -0.03778878 -0.048275743 -0.045817878 -0.0021707404 -0.014755658 -0.033325624 -0.05054661
-0.0061792857 -0.05926971 -0.060027726 -0.067225024 -0.012537301 0.04762208 -0.059974372 -0.019103458
0.0064670313 0.023767453 -0.03410766 0.019073337 0.033743773 -0.031565826 -0.06753148 -0.018000364
0.025768414 -0.036632463 0.01628403 -0.051540505 -0.051655337 -0.094252124 -8.95499e-05 -0.085804686

bias f4 [256]
00000000: bb54 41bd 8069 ecbd 53bd a4bc 62f0 34bd
00000010: 221f c8bc dc42 fdbd e15d 33bf 199f 80bf
00000020: 565e dbbd 3b98 9fbd b5dc 9ebc 8bb4 36bd
00000030: 2de8 94be 27f0 66be 30bc 2bbf 1a7a 563c
00000040: 3ca9 35bf dd7d 75bf a7c7 ba3c 86af ea3b
00000050: 3845 14be 8b57 8bbd 8682 1cbe 0603 06be
00000060: 8f48 e3be 4262 0ebf d7b4 0fbf 9e90 49bf
00000070: a483 58bd ad80 31bf 5dff 87bd 6800 95be
00000080: 647a e0bd bd2b cabe 6296 82bf 31b1 b2bb
00000090: ce91 ff3b 34e6 a3be 9376 62bf 9a1a fbbd
000000a0: 0900 37bd b688 8fbe 4589 1fbf 5ffc c9be
000000b0: eaf2 64bf 9d34 bdbe 4e57 49bd c963 b3be
000000c0: b8d1 7dbc 3fe2 bebd aced e2bd 7375 7dbd
000000d0: 988e 77bf 7d59 a4be 2817 97bf 0561 2bbf
000000e0: f080 c9bd fad2 ebbd c79f a4bc dc0d 94bf
000000f0: 4098 66bf c5e2 e0bd 0f99 d4be 189f 1cbf
00000100: db9f bebe de49 8fbf d8ba 973b da98 9abd
00000110: f041 a7bd 60dd a7bd 8116 9cbf 8412 53bf
00000120: ee15 bdbe 5d93 36bf d756 0dbb 5909 a7bd
00000130: 3570 37bf 471d c5bd 7517 87be 2275 69bf
00000140: 5491 ccbc c937 96bd 62f5 62bd eb13 8ebf
00000150: 4d9b 07bf a8e7 15bd ed32 6fbe a3f8 c1bd
00000160: d893 f0be abfe 88bd 430f 82bf 1cc5 59bf
00000170: 1cf1 7dbd e898 1cbd 3de4 cdbe b590 90bd
00000180: 19de 49bf c3bb 9ebe d177 1bbf 837b b1bd
00000190: c770 a6bd f42a 5ebf 4324 91bd 4c76 8dbf
000001a0: a91e 69bd ffdb 9fbd 49e8 cfbe 8b9f c3be
000001b0: fde3 4abf 436e 56be 0f55 e3bd 01a0 aebd
000001c0: 693b 72bd e58c 41bf 286f aebc 80c1 c4bc
000001d0: 827a 81bd 2f41 ae3b 30e0 27bf f517 85bd
000001e0: f6df b2bd 15a6 0abf 5f4b 9cbe 03a4 5fbc
000001f0: 9d33 37be 0d76 9abe 6f14 34bf caee 40bd
00000200: 8898 97bf d493 4dbf 2543 e5bd d895 10bd
00000210: 88b5 f2be 6db4 cbbd 2f14 f1bf 5d55 d9bd
00000220: 479a 38bd 61f4 7bbf b760 16be 0294 02bf
00000230: e9d5 22bf 7a90 99be 1ddc 32bf 6c76 01be
00000240: 96fa 9fbd df3e 07bd 4100 81bf 85aa e2bd
00000250: 7ef1 d2be 5d47 a6bd aa87 ecbb 07dd 5abf
00000260: 1a31 873b 65ae c2be 5400 68bf a5d0 7cbf
00000270: 9096 3bbc 8809 2cbe 9627 9abd af57 3ebf
00000280: 2f2c 7abf 066e 73bd 1ce1 6cbd b80e b0be
00000290: 7463 06bf 9f6b 48bf 4bbb 2fbf 4333 80bd
000002a0: a1b0 e7be d9ab 14bf e9d5 5dbd 7c08 1cbf
000002b0: 58b0 d8bd 6b93 12bf 47d9 f4bd 6aa9 6ebf
000002c0: efc2 b4bd 49cd 2ebf 8335 dfbd 2b09 75bd
000002d0: 1d65 e6bd 641b 84be 845b b0bc 5861 3abf
000002e0: 631a 4abb 533b 1abd 59d7 24bf 9018 92bc
000002f0: b907 acbd 36c4 e0be f1f9 adbe c951 02be
00000300: bbc8 98be 78eb 1fbf a524 9fbd 12ef eebe
00000310: 0ede 65bd 2c74 a5be 3884 b7be 85ef 75be
00000320: 726e 80bd 497a dabe 278c 41bc 6a31 cbbe
00000330: 5cd7 533e afa6 44bf 6d52 ddbc 3b31 8dbf
00000340: 4684 03be 997d b4bd 2b79 95bc 301c cabd
00000350: 1db1 ddbe eb1c 6fbf 5b96 3abd c09d ee3a
00000360: 91a8 87bd 70f5 00be 3cf7 75bd 9f47 853b
00000370: 6627 73be fa5b 1cbd 3c0a 78bd d832 aebd
00000380: 6dea 30bf 7c47 3abd 35b4 85bf 4ec4 d6bd
00000390: 8c3e f3be 5d79 e2be 1eb1 83bf d39a 7ebe
000003a0: 839b 0bbd 740c e7bd cd59 05c0 f50b 3cbe
000003b0: 9b0b 7dbf 6a91 dfbd e949 9fbd b96d f1bb
000003c0: ee96 87be ad11 04bf b77a aebe cf9b eebd
000003d0: 1361 c4bd d2b6 2abf 6e94 ddbd c6df a2bd
000003e0: b04a d4be 2c31 e2bd a375 2abf 0122 ecbd
000003f0: 285e bebe c553 dfbe 0e9a 20bf 4d7a bebd
-0.047199946 -0.1154356 -0.020109808 -0.04417456 -0.024428908 -0.12366268 -0.7006512 -1.0048553
-0.107113525 -0.077927075 -0.01939235 -0.044605773 -0.29083386 -0.22552548 -0.67084026 0.013090635
-0.70961356 -0.9589518 0.02280028 0.0071620373 -0.1447953 -0.06803807 -0.15284166 -0.13087091
-0.44391295 -0.5561868 -0.56135315 -0.78736293 -0.052859917 -0.6933697 -0.066405036 -0.29101872
-0.10960844 -0.39486495 -1.0202143 -0.005453252 0.0077993637 -0.3201157 -0.8846218 -0.12260933
-0.044677768 -0.2803399 -0.6231883 -0.39450356 -0.8943316 -0.36954203 -0.049155526 -0.35037068
-0.015491895 -0.09320497 -0.110804886 -0.061879586 -0.96701956 -0.32099524 -1.1803942 -0.66944915
-0.09839046 -0.1151485 -0.020095719 -1.156673 -0.90076065 -0.10980753 -0.41523024 -0.6118026
-0.37231335 -1.1194417 0.004630428 -0.07548685 -0.081668735 -0.08196521 -1.2194368 -0.8245013
-0.36930794 -0.7131861 -0.0021566653 -0.0815608 -0.7165559 -0.09624725 -0.26385084 -0.91194355
-0.024971642 -0.07334859 -0.055409797 -1.1099828 -0.52971345 -0.036597878 -0.2335927 -0.09471252
-0.46987796 -0.06689199 -1.0160908 -0.8506639 -0.061997518 -0.03823176 -0.40213194 -0.07058851
-0.7885452 -0.31002626 -0.607297 -0.08666136 -0.08126979 -0.8678429 -0.070869945 -1.1051726
-0.056914005 -0.07805633 -0.40606907 -0.3820766 -0.7925413 -0.20940499 -0.11100208 -0.08526612
-0.05913869 -0.75605613 -0.021293238 -0.02401805 -0.06322195 0.005317829 -0.6557646 -0.0649871
-0.087341234 -0.5415967 -0.30526254 -0.013649943 -0.17890783 -0.3016819 -0.7034368 -0.047102727
-1.1843424 -0.8030369 -0.111944474 -0.035299152 -0.47404122 -0.09946523 -1.8834285 -0.10611985
-0.045069005 -0.9841977 -0.14685331 -0.5100709 -0.6360765 -0.2999304 -0.69867116 -0.1264283
-0.07811467 -0.033018943 -1.0078202 -0.1106768 -0.4119987 -0.0811908 -0.007218321 -0.8549351
0.0041257264 -0.38023677 -0.906255 -0.98755866 -0.011449471 -0.16800511 -0.07527082 -0.74352545
-0.9772367 -0.0594311 -0.05783187 -0.3438623 -0.52495503 -0.78289217 -0.6864516 -0.062597774
-0.45251945 -0.5807472 -0.05415908 -0.60950446 -0.1058051 -0.5725619 -0.11955505 -0.93227255
-0.08826243 -0.6828199 -0.108988784 -0.059823196 -0.112497546 -0.25802147 -0.021528013 -0.72804785
-0.0030838482 -0.037654232 -0.64391094 -0.017833978 -0.083999105 -0.43899697 -0.33979753 -0.12726511
-0.29840645 -0.6246867 -0.07770661 -0.4666677 -0.05611997 -0.32315195 -0.35843062 -0.2401715
-0.06271066 -0.4267142 -0.0118132 -0.39686137 0.20687622 -0.7681684 -0.027016843 -1.1030649
-0.12843427 -0.08813018 -0.018246254 -0.098686576 -0.4329919 -0.934035 -0.045553546 0.0018204972
-0.06623948 -0.12593627 -0.060050234 0.004067376 -0.23745498 -0.038173653 -0.060556635 -0.085057914
-0.69107705 -0.04547833 -1.044562 -0.10486661 -0.47508657 -0.44233218 -1.0288427 -0.24863748
-0.034083854 -0.11281672 -2.083606 -0.18363936 -0.98845834 -0.109164074 -0.07777769 -0.0073678163
-0.26482338 -0.5158947 -0.34078 -0.11650812 -0.09588828 -0.6668521 -0.10819326 -0.07952838
-0.41463232 -0.11044535 -0.6658575 -0.11529923 -0.3718121 -0.436186 -0.6273507 -0.09300671

weight f4 [2, 267]
00000000: 81e9 3d3c 92ef 3f3c aaed 9d3c fb42 c83c
00000010: 6925 343b e377 08bd 53db 4bbd 11ff ff3a
00000020: 34a8 393c bb18 ccbc a4b8 173c 3a38 16bc
00000030: 9821 20be d619 e4bc e8da b9bd 14ae 02bd
00000040: c5bd dbbb 2632 12bd a6cd 873d f136 9dba
00000050: 26c6 413c 7ea8 1f3e 6ac1 8eba 21a5 963d
00000060: dce9 00bd 66c7 b53c f51f 943c cada 8bbd
00000070: 94d0 f8bc 9bfe 013c fd6d 2bbd 59bb e1bd
00000080: d710 d2bb 111a 78bd d8d6 3fbd 4ccb 87bc
00000090: 380a 1dbb 6c21 3cbf 4074 9f3d e287 823b
000000a0: eadb 643d 53b1 53be 971a 183d 6ab0 e93b
000000b0: d020 86be 7043 14bc b129 33bc a50f 1141
000000c0: d055 a3bc 3eef ef3c 18da 0e3d cf46 dc3a
000000d0: c8df 3438 711d 103d 5e69 203d 967c 563c
000000e0: 1d04 09bd 4c35 20bd 1e99 c5ba 4e2a 0cbe
000000f0: 94e3 a1be b03d 0cbd 3bbc 2c3d 7f86 553d
00000100: 7983 88bd 2039 40bd aba7 233c d8ce 3a3d
00000110: 6af5 2fbc 36d0 103d ea72 70be 36d2 8cbe
00000120: d415 9abd 19d7 05bd 220c ce3e 89ec bf3c
00000130: 362d a03f bc01 4e3d e6b6 dd3d d2b0 8abd
00000140: d4b0 46ba 8f9a 833c b4e5 0bbc b1c4 abbc
00000150: 1b84 033e 32d4 1a3c eb63 27bd 3397 ca3c
00000160: a287 513d 2a8e bdbc 50ae 803d b4b5 e83c
00000170: fcf8 0c3d 5b59 9abc b659 2fbd 1185 16bd
00000180: 7c9b 0b3d 98b6 bdbd 70e3 2e3f 700d 11bd
00000190: 3655 643c 17b8 e5bd b458 32bc ae5d b73b
000001a0: 69be 2b3d e090 b73a 03ed b83e 036f c03c
000001b0: f5b0 873d c86f f4bc b8d2 703d 7b90 f13b
000001c0: 560c 9ebc 5415 9e3c c589 003d e2b0 51bc
000001d0: ce27 243d a153 1b3b d1af 48bd e628 00bd
000001e0: 910d 77bc ccd5 353e 3b6d 97bf 65ee 8c3c
000001f0: 7b51 bfbd c56a 073e 7e0b 8e3e 8fc3 b53c
00000200: dd7b e23d c327 29bd 99fc 4b3c 422e 2ebc
00000210: 4d8c 48be d4a5 13bc 6753 2b3d 45d7 0a3d
00000220: 5099 3c3c e77d 883d c29f 9fbf fe2c 3d3d
00000230: ccf1 e7bd eaf0 a940 474b c73c 4559 25bc
00000240: 3f4f 323b 553a 6dbc 965a cb3b ede9 013d
00000250: 04a8 e43d 9328 d33b 8999 413d 385d e53c
00000260: b3a8 cf3c 93b8 443e 7001 663d 5be9 833b
00000270: e394 6dbc 36e5 83bd e4a9 333d 6ecc 9f40
00000280: ff16 a33d ead8 2d3d fbfb d03d 22f3 a43c
00000290: 94dc 49bd ae8a ddbd aa15 6b3d 0657 853c
000002a0: e5ac 833b be02 113d 5c4a 96ba 02e5 c4bd
000002b0: 607d 91bb 15ae c6bc 6214 b2bb 9706 043d
000002c0: 14c0 db3b c83b 2b3f bbf2 6d3c c6e0 69bc
000002d0: a56a aa3c b7c2 db3e 9047 123d 3bdd 65bb
000002e0: a6c6 5a3b edca cdbc ec27 2bbc 0085 a3bb
000002f0: d913 bfbc 340c cdbc 39e9 633e f42f a23c
00000300: 225d 91bd 4898 0a3e c9eb 42bd 2ea3 53bd
00000310: 03e1 f53c d7ef b4bc a41a f43d 3563 fbbe
00000320: 8c05 973c 27f8 93bc 9a6e 973d b9c8 03be
00000330: 71a6 a43c fa1a f3bd 8b40 543c 2cc8 80bd
00000340: dc20 283c 0c7c e23c 804f 05bc 200f 8c3b
00000350: 1c8f 32bd 39a2 95be eff8 08bb e366 6dbc
00000360: 5969 243d 83d5 0b3d 5e87 fcbc ee41 95bc
00000370: 766a 6d3b 3c59 38bd f2d4 63bb e4f9 6aba
00000380: 8c60 bf3c 4ca2 97bd 1a17 6f3e 37c6 e03b
00000390: 3e8b aa3d 8259 483d 4025 1b3d 15ef 6c3d
000003a0: a5cc 2b3d 340c 49ba 35bb b23c 7248 04bd
000003b0: 08fb 02bd 45de efbc 8675 173b 54e4 3c3d
000003c0: d1dd 903d bbd2 4e3c f656 6fbc c67b f43c
000003d0: a48c 353f f072 afbd e821 47bd 1c1f 52bd
000003e0: 58ef 743e 8885 933c 1a9c dd40 b8ed cd3c
000003f0: 49b6 bd3b 46af 2cbd 24de 5fbf 8649 87bc
0.011591316 0.011714833 0.019278366 0.024446001 0.0027488119 -0.033317458 -0.04976971 0.0019530972
0.011331607 -0.024914136 0.00926033 -0.009168679 -0.15637815 -0.02784435 -0.09074956 -0.031904295
-0.006705972 -0.035692357 0.06631021 -0.0011994523 0.011827027 0.15591618 -0.0010891382 0.073557146
-0.031473026 0.022189807 0.018081645 -0.0682884 -0.030372895 0.007934238 -0.04185294 -0.11022062
-0.006410699 -0.060571734 -0.04683575 -0.016576432 -0.002396239 -0.734885 0.07785845 0.0039834836
0.05587379 -0.20673113 0.037134733 0.007131626 -0.2619691 -0.0090492815 -0.010935233 9.066319
-0.01993838 0.029288884 0.03487596 0.001680577 4.3123757e-05 0.035184328 0.039162986 0.013091227
-0.03345119 -0.039113328 -0.001507554 -0.13688013 -0.3161894 -0.034238517 0.042171698 0.05213022
-0.066657014 -0.04692948 0.009988706 0.045607418 -0.010739664 0.035354815 -0.23481336 -0.27504128
-0.07523695 -0.032675836 0.40243632 0.023428218 1.2513797 0.050294623 0.10825901 -0.06772007
-0.000757945 0.01606491 -0.008538652 -0.020967813 0.12843363 0.009450005 -0.040866774 0.0247303
0.05115474 -0.023139078 0.062832475 0.028406955 0.034417138 -0.018841436 -0.042810164 -0.036747996
0.03408383 -0.092633426 0.6831579 -0.035413206 0.0139363315 -0.11216753 -0.010885406 0.0055958843
0.041929636 0.0014004968 0.36118326 0.023490435 0.06625549 -0.029838458 0.058794707 0.0073719597
-0.019292992 0.01929728 0.031381387 -0.01279852 0.040077023 0.002370097 -0.048995797 -0.031289004
-0.015078918 0.17757338 -1.183021 0.01720352 -0.09341713 0.13224323 0.27743143 0.022187976
0.11058781 -0.041297685 0.012450361 -0.010631146 -0.1958477 -0.0090117045 0.041827586 0.033896703
0.011511162 0.06664639 -1.2470629 0.046185486 -0.11325416 5.3106585 0.024327887 -0.010092084
0.002720788 -0.0144792395 0.006205867 0.03171723 0.11164859 0.006444046 0.047265563 0.027998552
0.025348997 0.19211034 0.056153715 0.004025621 -0.014500829 -0.06440203 0.043863192 4.993705
0.079633705 0.042443193 0.102043115 0.020135466 -0.049282625 -0.10817467 0.057393707 0.016276848
0.0040184134 0.035403006 -0.0011466253 -0.09613992 -0.0044399947 -0.02425293 -0.0054345587 0.032232847
0.006706247 0.66888094 0.0145232035 -0.014274782 0.020802805 0.42921993 0.03571278 -0.003507449
0.0033382564 -0.025121177 -0.01044653 -0.00499022 -0.023324894 -0.025030233 0.22256936 0.019798256
-0.07097842 0.13534653 -0.047588143 -0.051669292 0.03001452 -0.02208702 0.11919144 -0.49099126
0.018435262 -0.018062664 0.073941424 -0.12869538 0.020098897 -0.1187038 0.012954841 -0.0628818
0.010261741 0.02764704 -0.00813663 0.004274264 -0.04359351 -0.2922533 -0.002090033 -0.014489862
0.04013953 0.034139168 -0.030826267 -0.018219914 0.0036226786 -0.045006976 -0.0034764376 -0.0008963628
0.023361467 -0.074040025 0.23348656 0.0068595666 0.083273396 0.048913486 0.03787732 0.057845194
0.04194321 -0.000766936 0.021817783 -0.03229565 -0.031977683 -0.029280791 0.002311082 0.04611619
0.07073558 0.012623484 -0.014608135 0.029844176 0.70917726 -0.085668445 -0.04861632 -0.0512992
0.23919427 0.018008009 6.9253054 0.025137767 0.0057895523 -0.04215934 -0.87448335 -0.01651455

bias f4 [2]
00000000: 59e6 443d 5373 a9bc
0.04807124 -0.020684874

weight f4 [256, 13]
00000000: 4176 073f 5965 93bf 70b6 d43e df2a 333e
00000010: 4f0e bd3f 8c96 b3bf 432a dc3d bd98 943e
00000020: 45c2 f93f deb2 b63e 5d29 883e 1308 d03e
00000030: a279 05c0 0ba1 dfba 4e64 0bbf db02 87bd
00000040: 1f83 b2bf a6f0 a63f 7426 d539 7c5d 5cbd
00000050: 7f5b 39be e383 87c0 69fb e73d 8869 02bd
00000060: 0187 c4bf bc80 2140 7514 c2bf 9f9f 9ebf
00000070: 4d21 fe3d 32c7 8a3f 354e 0bc0 0ed3 87c0
00000080: 2ed0 763d a88b 3fbe b959 6a3f 5d84 6440
00000090: 96f0 59be 526e 42bf 8588 843e 24d1 b3be
000000a0: c879 703f fff6 d53e fb38 f23f 0e70 9fbd
000000b0: f3c9 12bf 6cd7 86bc 2968 74be 62b6 0b3f
000000c0: 637c 5d3f d6c3 0c3e a853 a5be a02a 50bf
000000d0: 9d11 2a3e 4da1 2f3f 5aae e3bf 3ba3 923e
000000e0: afbf a43e bd4c b5bf 4a3e fa3d 36f1 74be
000000f0: 4a82 a4bf b0a0 bc3f fa0f 563e 97b8 8bbf
00000100: 5c0b ce3f b643 a9bf a44a 0e3e dc7f 5cbf
00000110: e2ed 7e3e 9949 a6c0 9008 1bc0 3cc2 1bbe
00000120: 818c 6b3e 5edd cc3f feb1 1140 be3c aebd
00000130: 54b2 37bf 60ab 553f da18 e2bc ece8 143f
00000140: cb71 b4be 0bd0 8fbe c644 a73f 61c1 88c0
00000150: adfd ed3b e917 06bd 391c b0bf 4dc0 0a3f
00000160: ee46 57be 93ad e0be e7cc b9be 3474 fc3e
00000170: 0590 1ebf 93e5 7b3f 0235 dbbe 198e 3040
00000180: f118 9740 f100 97bd a9a7 dabc ef03 d7bf
00000190: bf43 29c0 7486 a43d a0bc 27be d93c 40bd
000001a0: 0658 373e 6838 0e3f 6be7 2bbf 230a 77bf
000001b0: 9647 24c0 d7f7 2e40 f84d 09bd 2149 903d
000001c0: e76f 7b3f 8c1d 2ec0 1c8d 49be b35e 5f3e
000001d0: 4f45 c9bf 7ac4 9ebe 67df edbf 2919 7c3f
000001e0: 2e14 04c0 a6ce 0040 175c aebf 01e5 9cbe
000001f0: 9ea8 ab3e 5138 f0be 6389 0240 535a 4dbe
00000200: 5832 79bf bad4 5e3f 3b16 343f 5b08 243f
00000210: 4e2b 843f bf0e df3e 871b aa3f 3221 ae3e
00000220: c515 09bd 4032 b13d 6bd7 bb3d b6b3 44bf
00000230: ac68 863d b4a7 d9bf b3ed babf 5290 ce3d
00000240: 9a61 7d3f 65df d7be 3187 ccbe ad5f 2040
00000250: fee9 cec0 befa 1d3a f5fa f4bd 12cc 84bf
00000260: d488 6f40 4c62 12be 3802 b9be 6cf9 37bf
00000270: 08f2 81be a8e7 173e c407 49bf 7ba1 4fbf
00000280: 8e9c 7d40 30cf 6440 354e 8bbb cb66 793e
00000290: 944d 41c0 3027 89c0 2bef 03be 7e64 1e3e
000002a0: c776 703f 589c a1bf 6fd1 c13f d7a1 26be
000002b0: 60d7 a33f e264 9dc0 0284 02c0 09d2 fcbd
000002c0: a33f 70bd b3ff bb3f 56ca b43f 5b0d 883e
000002d0: 2b17 a8bd fa7a 86be 3ff6 01bf 3ec5 cb3e
000002e0: 98fc a63f 07cb 4ebf 784e f2bf 8c08 5140
000002f0: 29da 3dbd 8edc 0cbc 76c6 113f afdf 69c0
00000300: f0fd a9bc 5878 35be 6d4c 773e 4caa 9cbf
00000310: cbd4 54bf d10c e63c a6a3 21bf 4de7 31c0
00000320: 93ad eabf b672 2c3a 34b9 6abd 4c49 e83f
00000330: 3984 9140 d843 6dbd 924f 0cbe 96b9 bfbe
00000340: 4aa7 bdbc dac8 683f da31 383f 6e57 1ebf
00000350: 207e bf40 bf0b 6740 f1b1 0dbe cb3f 8ebd
00000360: 1825 3bc0 7d12 7bc0 dd46 6bbe e925 a3be
00000370: 4e0d e3bd 8971 01bf 6a2b 38bf 932b b73f
00000380: 9fca 90be 0ecc ca3f c8c0 d040 531c 333e
00000390: b295 32be 19c0 f53e ba18 b5c0 9062 f03d
000003a0: 17d7 623f 09bd 43bf 6c1e a3be d2a0 963f
000003b0: c9d1 f73d b67e 253f 9a08 1cbf 116c 2cc0
000003c0: f632 023e 9ca4 c4bd 287f b13e 7c6b a33f
000003d0: 00b2 9bbc 94a5 bf3f e4d5 42bf fd02 c53e
000003e0: 62c3 b63f f197 d13f d593 d6be 251e dc3f
000003f0: 6428 e640 34ab be3e 1b4b 8c3e 020a e6be
0.52914816 -1.1515304 0.4154544 0.17496823 1.4769992 -1.4030318 0.10750248 0.2902278
1.9512411 0.3568334 0.26594058 0.4063116 -2.0855489 -0.0017061544 -0.5444993 -0.065923415
-1.3946265 1.304219 0.00040655176 -0.05380009 -0.18101309 -4.2348495 0.113272496 -0.031838924
-1.53537 2.5234823 -1.5162493 -1.2392462 0.12408695 1.084204 -2.1766484 -4.2445135
0.06025713 -0.18705618 0.91543156 3.5705788 -0.21283183 -0.75949585 0.25885406 -0.351205
0.93935823 0.41790006 1.8923639 -0.077850446 -0.573394 -0.016460143 -0.23867859 0.5457517
0.86517924 0.1374658 -0.32290387 -0.8131504 0.16608281 0.686055 -1.7787583 0.2864016
0.32177493 -1.4164044 0.12218912 -0.2392014 -1.2852261 1.4736538 0.20904532 -1.0915707
1.6097217 -1.3223789 0.1389566 -0.861326 0.24895433 -5.196484 -2.4223976 -0.15210813
0.23002817 1.6005056 2.2764888 -0.085076794 -0.7175648 0.8346462 -0.02759974 0.5816791
-0.35243067 -0.28088412 1.3067863 -4.273606 0.0072629065 -0.032737646 -1.3758613 0.5419968
-0.21023151 -0.43882427 -0.3628914 0.49307406 -0.61938506 0.9839718 -0.4281388 2.758673
4.7217946 -0.073732264 -0.026691275 -1.6798075 -2.64476 0.080334574 -0.16380548 -0.04693303
0.17904672 0.5555482 -0.6714999 -0.9649984 -2.5668693 2.733877 -0.033521622 0.07045198
0.98217624 -2.7205534 -0.19682735 0.21813469 -1.5724276 -0.31009275 -1.8583802 0.9847589
-2.0637317 2.0126128 -1.3621854 -0.30643466 0.33527082 -0.46917966 2.0396354 -0.20053987
-0.97342443 0.87043345 0.7034642 0.6407525 1.0325716 0.43565938 1.3289651 0.340097
-0.033468027 0.086521626 0.09171947 -0.7683672 0.06562933 -1.7004304 -1.460379 0.10086121
0.98977053 -0.42162624 -0.39946893 2.5058396 -6.4660635 0.0006026438 -0.11961929 -1.0374777
3.7427263 -0.1429531 -0.36134505 -0.7186496 -0.25379968 0.14834464 -0.78527474 -0.81105775
3.9626803 3.5751457 -0.0042512664 0.24355619 -3.02036 -4.2860336 -0.12884204 0.15468022
0.9393124 -1.2625837 1.5142039 -0.16272675 1.2800102 -4.918565 -2.039307 -0.123447485
-0.05865444 1.4687408 1.4124248 0.2657269 -0.08207544 -0.262657 -0.50766367 0.3979892
1.3045835 -0.80778545 -1.8930197 3.2661467 -0.046350632 -0.008597506 0.5694345 -3.6542776
-0.02075097 -0.17721689 0.24150248 -1.223947 -0.83137196 0.028082283 -0.6314033 -2.7797425
-1.8334221 0.00065783726 -0.05730553 1.8147368 4.5473905 -0.05792603 -0.13702229 -0.37446278
-0.023151059 0.90931475 0.7195107 -0.6185216 5.984146 3.610092 -0.1383741 -0.06945761
-2.924139 -3.9230034 -0.22976251 -0.3186486 -0.11086522 -0.50563866 -0.71941245 1.4310173
-0.28279588 1.5843523 6.523533 0.17491274 -0.17439917 0.4799812 -5.6592684 0.11737549
0.8860945 -0.7646032 -0.31859148 1.1767828 0.1210056 0.6464647 -0.60950625 -2.6940958
0.12714753 -0.09601709 0.34667325 1.2767177 -0.019005775 1.4972405 -0.7610762 0.38478842
1.4278376 1.6374494 -0.41909662 1.7196699 7.1924305 0.37239993 0.2740105 -0.4492951

bias f4 [256]
00000000: 413b e7bf 640a 96bf 19d1 aebf 2b7f 08c0
00000010: bff1 dcbf e024 d3bf 97fc f7be 58e3 dabf
00000020: d460 5dbf 07e6 0dc0 7398 c2bf 025d 64bf
00000030: c2a0 89bf cb60 e0bf 6698 8cbf f00d 1ac0
00000040: d0e0 dfbf b576 0abf 050a 85bf 637d 8abf
00000050: abed a3bf 59e1 ccbf 779b 3fbf b144 1a3f
00000060: 751a c7bf 6dbc 9ebf 0028 05c0 44a5 fcbf
00000070: cb82 ebbf 77d5 a8bf a27d 93bf f395 4abf
00000080: 78d5 94bf ee56 aabf dc15 ce3e ad70 f2bf
00000090: b812 97bf 6135 9cbf 0f04 85bf 1b6d 7ebf
000000a0: cd8f ebbf 27ae 99bf 90d2 08bf 91a5 e9bf
000000b0: c0d2 a3be c347 30bf 6f09 c0bf 78d2 ce3e
000000c0: 091b 0bc0 986c b5bf f57a 78bd 87a8 debf
000000d0: 6ae4 ebbf 136e 13c0 b3e5 f0bf 5043 aebf
000000e0: 23fe 9fbf f8cd 97bf 9fc9 e2bf 9f85 d5bf
000000f0: be2a f0bf 0722 93bf a86f b8bf 3de5 99bf
00000100: 6a8f abbf bac8 6dbf 9245 85bf af92 b7bf
00000110: 8e20 2dbf 0f58 54bf 79e6 a8bf 2698 e4bf
00000120: cd27 87bf 477c 15c0 91e3 b0bf 47d6 a3bf
00000130: 29af 24c0 d721 14c0 9b14 90bf 8eab 0ac0
00000140: 7d5c b9bf 8656 5dbf 79d7 2abf 0f7c aabf
00000150: 3fea f4bf 6ae3 86bf 4982 5cbf f77a 72bf
00000160: ee21 0bbf 1bf3 16c0 d06c 67bf ba15 a9bf
00000170: 78f7 18c0 ca60 8fbf 4d7b 8fbf ae22 95bf
00000180: 3fdb bcbf eb41 2ebf cfa9 65bf bfdf e8bf
00000190: e8e5 38bf ec29 d6bf 2ca4 89bf 1bbb 90bf
000001a0: 9321 f9bf 54d1 acbf a383 89bf 62b6 b6bf
000001b0: 7f1e efbf db62 bbbf ec97 e8bf c391 b2bf
000001c0: cb43 50be aca3 abbf a715 ccbf 5b18 98bf
000001d0: aced 0fc0 ffe6 b9bf 7edd ecbf 67b5 99bf
000001e0: 44f8 92bf 2974 803e c9dc 75bf adef 96bf
000001f0: eb28 91bf 0686 cebf 7d5e f4bf 96f7 84bf
00000200: 5ac2 d7bf 6f52 a5bf bbef b4bf b222 c2bf
00000210: d481 e6bf 2cfc 78bf 43dc 54bf 10a1 19bf
00000220: 5425 36bf 72b4 f63d 2173 ddbf d782 f2bf
00000230: cda5 83bf 84f5 91bf 5cd5 06c0 100d 08c0
00000240: 37e4 13c0 29ff eebf 81f9 7dbf 4f8d 42bf
00000250: dc6e 98bf f2bf 6cbf f2ab 6dbf ee01 b0bf
00000260: 54d3 9ebf cf11 2fbf 7374 a4bf a798 af3e
00000270: 379b 19bf 7cf7 07c0 5aa8 e4bf 70ff 78bf
00000280: ea12 0ebf 0e41 67bf 3484 6dbf 47e1 c9bf
00000290: 8675 a1bf ac6f 87bf 7c67 43bf 7fe8 cebf
000002a0: dc7b e3bd a326 9abf 33e0 97bf 648d 75bf
000002b0: ab01 c9bf 5a33 cebf 1269 edbe b106 d3bf
000002c0: 2bbc 3dbf 39da c2bf edca d0bf d67b 99bf
000002d0: 14f9 aebf 9bc9 c3bf 4cfa 8abf 0a9d bcbe
000002e0: 41e6 f1bf 06f7 a3bf 2d08 9bbf 994e 8ebf
000002f0: bfd8 9dbf 48b4 e5bf 8ea0 c0bf 56b9 48bf
00000300: 14fb 0dc0 9168 bd3f 7f46 96bf 4cb5 c4bf
00000310: e217 f8be 8968 debf 7ca9 bebf dced a9bf
00000320: 469e b2bf 7992 2dc0 925e b8bf 2cb9 14c0
00000330: da3e 41bf 884b 88be 0c91 03c0 9044 b8bf
00000340: 9e32 f9bf 11ee 93bf ed4e a4bf 6d39 00c0
00000350: 6306 debf 4d7c 97bf bf7d 81bf 6e44 25bf
00000360: 1744 9bbf 52cc b0be e6ae 04c0 2d72 ddbf
00000370: 7e68 b1bf 1c11 d6bf a4ed 48bf 7a12 aebf
00000380: 7ead a0bf fc38 edbe ad0a eabf 229c 0abf
00000390: d741 a7bf 1c12 5abf 7593 dabf 5a65 c2bf
000003a0: 3381 13c0 ccde f6be 2675 bcbf 7dad f0bf
000003b0: 3a09 3fbf 8227 6abf 207e 8dbf ed29 03c0
000003c0: 421d bebf 7b01 84bf 96a8 99bf 4f48 ebbf
000003d0: 909e 58bf 661b 99bf 2735 e4bf 33ba 86bf
000003e0: b48e 93bf 6dd4 c7bf ca11 4ebf 34a3 4cbf
000003f0: 905c 4dbf bb60 b2bf 352a 803d 1d57 c3bf
-1.8064958 -1.1721921 -1.3657562 -2.1327617 -1.7261275 -1.6495628 -0.48434898 -1.710063
-0.86475873 -2.2171648 -1.5202774 -0.8920442 -1.0752184 -1.7529539 -1.0984008 -2.4071007
-1.7490482 -0.5408738 -1.0393683 -1.0819515 -1.2806906 -1.6006271 -0.74846596 0.60261065
-1.5554949 -1.2401253 -2.0805664 -1.9737935 -1.839929 -1.3190144 -1.1522715 -0.79135054
-1.1627645 -1.3307779 0.40251052 -1.8940636 -1.1802588 -1.220379 -1.0391864 -0.9938523
-1.840326 -1.2006272 -0.5344629 -1.8253652 -0.31996727 -0.688595 -1.5002879 0.4039495
-2.173525 -1.4173765 -0.060664136 -1.739518 -1.8429081 -2.3035934 -1.8820099 -1.3614292
-1.2499431 -1.1859732 -1.771778 -1.6681403 -1.8763044 -1.1494759 -1.4409075 -1.2023083
-1.3403141 -0.9288441 -1.0411856 -1.4341639 -0.676278 -0.82946867 -1.3195335 -1.7858932
-1.0559021 -2.3357103 -1.3819448 -1.2799767 -2.573191 -2.3145654 -1.1256288 -2.1667209
-1.448135 -0.8646015 -0.66735035 -1.331911 -1.9133986 -1.0538151 -0.861363 -0.9471888
-0.5434865 -2.358588 -0.9040041 -1.3209755 -2.3901043 -1.1201413 -1.1209503 -1.1651208
-1.4754409 -0.6806933 -0.8971223 -1.8193282 -0.7222581 -1.6731544 -1.0753226 -1.13071
-1.9463371 -1.3501382 -1.0743297 -1.4274409 -1.8681182 -1.4639543 -1.8171363 -1.3950733
-0.20338361 -1.3409324 -1.5944108 -1.1882433 -2.2488813 -1.452362 -1.8505094 -1.2008485
-1.1482015 0.25088623 -0.96040016 -1.1791893 -1.1340612 -1.6134651 -1.9091336 -1.0388057
-1.6856186 -1.2915782 -1.413566 -1.5166838 -1.800837 -0.97259784 -0.8314859 -0.60011387
-0.7115071 0.12046136 -1.730076 -1.8946179 -1.0284973 -1.140305 -2.1067724 -2.1257973
-2.3108041 -1.8671619 -0.9920884 -0.7599687 -1.1908832 -0.92480385 -0.9284049 -1.3750589
-1.2408242 -0.6838655 -1.2848037 0.34296152 -0.60002464 -2.1244802 -1.7863877 -0.97264767
-0.5549761 -0.9033364 -0.9277985 -1.5771874 -1.261399 -1.0580955 -0.7632978 -1.6164702
-0.11107609 -1.2043041 -1.1865295 -0.9591887 -1.5703634 -1.6109421 -0.46369225 -1.6486417
-0.74115247 -1.5222846 -1.6311928 -1.1990917 -1.3669763 -1.52959 -1.0857635 -0.3683856
-1.8898393 -1.280976 -1.211187 -1.1117736 -1.2331771 -1.7945642 -1.5048997 -0.784078
-2.2184496 1.4797536 -1.1740264 -1.5367827 -0.4845572 -1.7375652 -1.4895473 -1.3275714
-1.3954551 -2.712065 -1.440386 -2.323802 -0.7548653 -0.26620126 -2.055728 -1.4395924
-1.9468572 -1.1557027 -1.2836586 -2.003505 -1.7345699 -1.1834809 -1.01165 -0.6455754
-1.2130154 -0.34530884 -2.073175 -1.7300469 -1.3860013 -1.6723971 -0.7848761 -1.3599389
-1.2552946 -0.46332538 -1.8284508 -0.5414449 -1.3066968 -0.8518388 -1.707625 -1.518718
-2.3047607 -0.48216856 -1.4723251 -1.8802944 -0.74623454 -0.91466534 -1.1054115 -2.049434
-1.4852679 -1.0312952 -1.2004573 -1.8381442 -0.8461695 -1.1961486 -1.7828721 -1.0525573
-1.1527925 -1.5611702 -0.80495894 -0.7993653 -0.80219364 -1.393577 0.0625805 -1.526096

weight f4 [256, 269]
00000000: 7d5b c23e 5fae f5be afb5 a73e ab1b 6f40
00000010: 99e7 a33f 0b56 1ebe b28b 673e 6f9f ba3f
00000020: ba3d 02c0 936c 1d3e ea16 88bf 1060 e03e
00000030: eae7 f3be c10b 7ebd 6c60 47c0 e58f 813f
00000040: 2666 b0bf 5e06 ddbe 47cd 453f e0e2 58be
00000050: 4c52 b03e e0d4 863e 3d96 c2be ae90 32bf
00000060: 4dd0 3f3f 319e 37bf 8485 843f 3b5d b23f
00000070: 93f4 e63c bac3 303e 7f48 753e aa22 a53b
00000080: 9607 2bbe 31ef 3fbf 9877 28bf a843 1d40
00000090: 0120 6bbe dd53 c4bd 4286 093f 8a59 4ebe
000000a0: 5bda 573e 5f66 853f bc33 acbe 4383 18c0
000000b0: f200 d43d 6c0a b63e 488b a0bd 54cb 06bf
000000c0: 8c49 b43f 082d b03f babe bd3d a098 c43f
000000d0: 4ab5 883f 86cd 9f40 404c 56be 8d33 abbe
000000e0: 403b a4bf 783a 863e 6efd 4a3e f281 013f
000000f0: 3bd3 913f ed6a e9bd 2956 053f 27d0 94be
00000100: 5ed1 a73f 87d9 8c3f 70bb c73f c852 f23e
00000110: 0c2f b7be 004b 15c0 cbc4 d4be 5235 4abf
00000120: 1a35 4abf 8d0a 0cbf 4597 273e 38d9 ee3c
00000130: e02c f73f a2ef a2be 17c0 583f 075a e6bf
00000140: 6bad 1040 bc1c 303e 9729 2f3f 36bd 3fbf
00000150: d508 41bf 1d45 08bf ef0a b53c 76c1 493f
00000160: 44be 01bf 3508 473f f88a fabe fbcf 823e
00000170: d801 f53f 72a5 a73e 3e6f a3be 605c 26bf
00000180: cdcf 0ebf d83c a03e f859 883f 17c2 88bf
00000190: ba96 853b 3aa6 2abf ff71 773c e9e1 e73d
000001a0: 956a 2d3e 7b59 01bf ef43 e13f 9502 833f
000001b0: e549 163f 6d0d 9b3d dccb 0e3f 0df5 9bbf
000001c0: a2a3 b9be 4e7c 883f f19c 9ebe caa6 79bf
000001d0: d9f9 993f 989b 20bf 6d3d 0b40 64a0 aabe
000001e0: 68c5 b0be 3506 cbbf ffa7 ad3d 3542 923e
000001f0: 98d5 403f 6a58 013f ddcb 32bf cc3b b53d
00000200: 5d98 2abf e0aa cf3f 8989 b53f a36d 923f
00000210: 319f 623e 348f 193e 3980 c7be 6d5d 9bbe
00000220: afb9 10be 9616 b9be 06be c7bd 52b9 043f
00000230: 6a8f 273e 71ee 4c3f 9cbc 8fbe ec49 ebbe
00000240: 0af3 a4bf 8649 d83c 8693 5fbd 9f0c e33e
00000250: 4b8a eabf e115 aa3e 2049 b7bf c92a 41bf
00000260: a41b 5abd 7796 4abf 230f d1be bb8f f0bf
00000270: 3e59 993d 7abf 1d3f d25c 31be 778c 22bf
00000280: 559a f43e 37aa d13f 4ebd 603d f74f 433e
00000290: 5ed7 0abe 4e98 f7bd bb8b aa3e a19a 3c3f
000002a0: c376 71be dde4 cbbd a22f a33f 7cbb 26bd
000002b0: 25b2 b63b 32ab e83f 60ee 8b3e 4f99 1d3f
000002c0: 8949 013f add4 1e3f ac8b 833d 7181 9c3e
000002d0: 0e49 7d3f 0553 5dbb d686 363f ed61 ca3e
000002e0: 2a08 cabe 42e0 a7bf 6562 82be 668b 34bf
000002f0: ec61 81bf dc45 0bc0 e593 0b3e 9452 573c
00000300: 1068 173f 4b7a 98bf 1f1d 923f b79d cc3f
00000310: cc1c f2bf e89f e43f 8dd3 30bf 94e4 b53f
00000320: cf73 e0bd bb62 123f 5379 63bf 6d36 9d3f
00000330: 3070 9c3f 981d c6bf 4f11 44bf d39c 5dbf
00000340: b6ee 35bf 33e1 303f ad59 723f 6d8f 6dbe
00000350: a6c7 d7bf cad5 04c0 2d31 98bf 2380 1d3f
00000360: b481 17bf 8707 553f cd78 df3e 558d a0be
00000370: b943 3b3e 6e25 93bc 14ea 1abf e5d4 6cbf
00000380: 9ca1 233f 1d0b 24bf 3262 b7be 9a27 92bf
00000390: 51bc 243f 9a47 c9be 1857 42bf f0f4 b63e
000003a0: 0715 ce3f 2e67 20be 820d b13c 613e ec3f
000003b0: a81e a93e 41ce 43bf e3fb 46be 30e0 f93e
000003c0: ffb0 d93f 3545 d2be 24c3 a0be 454b af3d
000003d0: 1ca1 b2be c960 cc3e a84d 3f3f 3700 21bf
000003e0: 1e7c 1840 d84f 0440 1232 173f 2e53 403e
000003f0: a6b7 b3bf 145a ff3e b694 c83e 5526 57bf
0.37960425 -0.47984597 0.327558 3.7360637 1.2805053 -0.1546251 0.22611883 1.4579905
-2.0350175 0.15373449 -1.0631993 0.4382329 -0.47637874 -0.06202293 -3.1152601 1.0122038
-1.3781173 -0.4316892 0.77266353 -0.21180296 0.34437788 0.26334286 -0.38005248 -0.69752014
0.74927217 -0.71725756 1.0353246 1.3934702 0.028192794 0.17262164 0.23953436 0.0050395327
-0.16702113 -0.7497435 -0.65807486 2.4572544 -0.22961427 -0.09586308 0.53720486 -0.20151344
0.2107939 1.0421866 -0.3363322 -2.3830116 0.10351743 0.35554826 -0.07839066 -0.52654004
1.4084945 1.3763742 0.09264894 1.5359077 1.0680325 4.9938383 -0.20927525 -0.33437768
-1.2830582 0.26216483 0.19823238 0.50588906 1.1392587 -0.113973476 0.52084595 -0.29065058
1.3110769 1.1003884 1.5604076 0.47328782 -0.3577808 -2.3327026 -0.4155639 -0.7898761
-0.78987277 -0.547036 0.16366298 0.029156312 1.931057 -0.3182345 0.84668106 -1.7996224
2.2605846 0.17198461 0.68422836 -0.7489809 -0.754041 -0.5323046 0.02209994 0.7881082
-0.5068095 0.777469 -0.4893415 0.25549302 1.9141188 0.32743412 -0.3192081 -0.64984703
-0.5578583 0.3129642 1.0652456 -1.0684232 0.004076806 -0.6665989 0.015102862 0.11322386
0.16935189 -0.5052716 1.7598857 1.0235163 0.58706504 0.0757092 0.55779815 -1.2184159
-0.36257654 1.0662935 -0.30979112 -0.97520125 1.2029372 -0.6273742 2.1756241 -0.33325493
-0.3452561 -1.5861269 0.08479308 0.28566137 0.7532592 0.50525534 -0.6984232 0.08849296
-0.6663874 1.6224022 1.4182597 1.1439708 0.22131039 0.14996034 -0.38965014 -0.30344716
-0.14133333 -0.36150044 -0.09753041 0.51845276 0.16363302 0.8005133 -0.28073585 -0.45954835
-1.288667 0.026402246 -0.05458405 0.44345567 -1.8323454 0.33219817 -1.4319191 -0.7545591
-0.053249016 -0.7913584 -0.4083186 -1.8793863 0.07487725 0.61620295 -0.17320564 -0.6349558
0.47773996 1.638007 0.054868035 0.19073473 -0.13558719 -0.12089597 0.3330973 0.73673445
-0.2358046 -0.099557616 1.2748911 -0.040706143 0.0055754357 1.8177245 0.27330303 0.61562055
0.5050283 0.6204327 0.06423125 0.30567506 0.989396 -0.0033771407 0.71299493 0.39527836
-0.39459354 -1.3115313 -0.25465694 -0.70525205 -1.0108008 -2.1761389 0.13630636 0.013142247
0.5914316 -1.1912321 1.1415137 1.5985631 -1.8915038 1.78613 -0.690728 1.4210382
-0.10959589 0.571819 -0.88857 1.2282234 1.2221737 -1.5477781 -0.7658891 -0.8656742
-0.7106737 0.69093627 0.94668084 -0.23199244 -1.6857803 -2.0755486 -1.1890007 0.61523646
-0.59182286 0.8321461 0.4364685 -0.31357828 0.18287553 -0.017962184 -0.60513425 -0.9251235
0.6391847 -0.6407946 -0.35817105 -1.1418335 0.6434985 -0.3931244 -0.75914145 0.35733747
1.6100167 -0.1566436 0.021612886 1.8456537 0.330312 -0.76486593 -0.19432025 0.48803854
1.700714 -0.41068426 -0.3139888 0.085592784 -0.34888542 0.3991759 0.7472787 -0.6289095
2.3825755 2.0673733 0.59060776 0.1878173 -1.404042 0.49873412 0.39175957 -0.84042865
