data/misc/Walker2d-v2/p_ddpg_test_s23123/pyt_save/model.pt (torch_old, 581199 bytes, 11 tensors)

weight f4 [256, 17]
3.952068 4.8906374 4.1591673 1.6414224 0.20272231 -0.31144065 0.68210673 0.16048647
1.9578112 -0.3066418 -0.5678334 -0.09679695 -0.22267064 -0.0860449 0.2652499 0.14354922
0.119335905 -0.8040199 0.8216554 4.801188 0.014440224 2.7319329 1.0855007 0.23761985
1.3886509 -0.03962058 2.7081034 0.18640503 -0.7409077 -0.5505696 -0.1126246 -0.10419039
0.25524333 0.49279737 -2.498681 -3.5351963 -2.0623262 -1.065925 0.5671801 0.34185374
-0.16218969 0.69779426 1.9888241 2.050181 -0.63123673 0.17394248 -0.37611386 0.18634358
0.08871564 -0.33900756 -0.1888688 -2.7486017 -0.9766104 -0.03888364 2.7806551 1.4952067
1.7295895 0.77462775 -0.046736814 -2.5996718 0.55772 -0.3659454 -0.42118835 0.387711
-0.002966083 -0.16393398 -0.4404227 0.11548968 -2.2139568 1.3307784 -2.1149395 2.417974
1.6048702 -1.7951592 -1.3932823 0.27596945 0.7211183 1.7806569 -0.9469465 0.858052
-0.16589867 0.41689926 -0.17860115 0.31889117 -0.21187797 -2.5649512 -0.5808585 -1.7705466
-0.78742653 1.0462811 1.1269242 0.97115797 -0.035452317 -0.97584414 -0.24707796 -0.623724
0.77898407 0.5712405 -0.1486161 0.16180138 0.48974535 -0.5432219 -1.939716 1.5393714
-2.696786 1.0082088 1.4763623 3.515519 0.3864715 -0.133527 -1.5822115 -0.62051237
0.668846 -0.27953726 -0.08133363 0.19801565 -0.25010186 0.33560938 -0.30411732 1.0744905
-0.54307276 3.917436 -1.2979671 0.6074486 -0.35296714 0.35867363 1.9278755 0.52521574
0.47698295 0.1274651 0.016437741 0.5865944 -0.5881322 -0.20079914 -0.27498615 0.14848034
-1.292334 -0.8853257 -0.8497692 3.9079323 0.64707536 0.5202096 2.5870726 0.44161105
1.0511415 0.20683126 -0.44747773 -0.47339678 0.28659242 -0.36584884 0.40586573 0.054647382
0.119744815 -1.9476258 -1.0911554 -0.61906636 4.50996 1.5317627 0.7475085 -1.1072304
0.2106949 0.18974774 0.4885252 0.87126744 -0.38183552 0.17705014 0.012107338 0.10750521
0.15705523 -0.06091916 -2.0611122 -2.3831089 -0.6411337 4.255543 -0.4688524 0.105110236
-1.8991909 -1.6811887 1.2311522 -0.036414053 -0.2044549 -0.21352123 0.42830026 0.22448082
0.7529276 -0.1375465 -0.11422154 -2.2635853 1.3194224 0.21802695 3.0839772 -0.38103884
-0.70082444 0.94948804 1.1219628 0.66383123 -1.4046007 -0.71955675 0.3981331 -0.086520046
-0.32243404 -0.34527603 -0.13415398 0.42515045 -1.0879261 2.5464988 -1.2346549 1.8912789
2.0993474 1.7588769 -1.2318546 -1.0678222 0.30606845 1.3380694 -0.016564557 0.4175044
-0.18939635 0.37063935 0.0053736675 -0.025495442 0.2726759 -2.382851 -0.36557597 2.6266708
-1.3715124 0.3123804 1.7652167 -0.00571267 1.4631724 -1.0185729 -0.6997041 0.9123577
-0.83684605 0.23484203 0.1123769 -0.18689768 0.0583534 0.14470865 -3.835596 3.2971647
0.21160802 0.749724 1.4636263 -0.6923949 0.713268 -1.7872428 0.6291842 -0.43864015
-0.6848733 0.46971503 0.6101631 0.091924675 0.40532953 -0.40921023 -0.081648245 -4.3214965
00000000: afee 7c40 1a80 9c40 e617 8540 211a d23f
00000010: 7096 4f3e 2675 9fbe 8c9e 2e3f 9156 243e
00000020: 8f99 fa3f 2700 9dbe 885d 11bf 7b3d c6bd
00000030: c603 64be 4f38 b0bd d6ce 873e 91fe 123e
00000040: 6266 f43d 40d4 4dbf 0258 523f 55a3 9940
00000050: b096 6c3c fdd7 2e40 b0f1 8a3f 9e52 733e
00000060: 50bf b13f 3049 22bd 9151 2d40 f6e0 3e3e
00000070: 21ac 3dbf 21f2 0cbf baa7 e6bd c561 d5bd
00000080: 41af 823e f04f fc3e 64ea 1fc0 a840 62c0
00000090: 27fd 03c0 3b70 88bf b732 113f 7407 af3e
000000a0: 0e15 26be a5a2 323f ca91 fe3f 2a36 0340
000000b0: bb98 21bf fa1d 323e ff91 c0be dad0 3e3e
000000c0: 8cb0 b53d 6692 adbe d366 41be 17e9 2fc0
000000d0: 2403 7abf 7444 1fbd 41f6 3140 ef62 bf3f
000000e0: 3063 dd3f 014e 463f 1a6f 3fbd 0661 26c0
000000f0: bdc6 0e3f 325d bbbe 00a6 d7be 0e82 c63e
00000100: 9d62 42bb 4fde 27be 167f e1be da85 ec3d
00000110: 78b1 0dc0 f256 aa3f 2b5b 07c0 16c0 1a40
00000120: 636c cd3f c7c7 e5bf 1357 b2bf de4b 8d3e
00000130: 359b 383f 91ec e33f 166b 72bf 4ca9 5b3f
00000140: 57e1 29be d273 d53e 38e3 36be b445 a33e
00000150: 8af6 58be 2928 24c0 25b3 14bf 45a1 e2bf
00000160: c994 49bf 8aec 853f 0d3f 903f cf9d 783f
00000170: 7336 11bd ecd0 79bf 0102 7dbe 60ac 1fbf
00000180: 806b 473f d13c 123f d22e 18be 43af 253e
00000190: e7bf fa3e 9710 0bbf 9d48 f8bf 1f0a c53f
000001a0: 2498 2cc0 fc0c 813f 71f9 bc3f 43fe 6040
000001b0: 98df c53e 4dbb 08be e885 cabf e6d9 1ebf
000001c0: 7e39 2b3f 821f 8fbe 3f92 a6bd 9dc4 4a3e
000001d0: 5a0d 80be fed4 ab3e 44b5 9bbe e888 893f
000001e0: d106 0bbf 45b7 7a40 c923 a6bf c081 1b3f
000001f0: 1cb8 b4be 12a4 b73e a0c4 f63f 8a74 063f
00000200: 1c37 f43e 3686 023e 71a8 863c 0d2b 163f
00000210: d58f 16bf 4a9e 4dbe fcca 8cbe 3b0b 183e
00000220: 336b a5bf b4a4 62bf 798a 59bf 901b 7a40
00000230: bba6 253f 752c 053f 9992 2540 d81a e23e
00000240: ce8b 863f 93cb 533e cd1b e5be 1061 f2be
00000250: 3ebc 923e 8a50 bbbe a2cd cf3e efd5 5f3d
00000260: c53c f53d cd4b f9bf fbaa 8bbf 227b 1ebf
00000270: 9851 9040 cd10 c43f b85c 3f3f bab9 8dbf
00000280: 67c0 573e 3b4d 423e fa1f fa3e 620b 5f3f
00000290: f27f c3be a24c 353e db5d 463c b12b dc3d
000002a0: 16d3 203e 5e86 79bd 43e9 03c0 db84 18c0
000002b0: 5721 24bf 692d 8840 6c0d f0be 0944 d73d
000002c0: b018 f3bf 3131 d7bf 6596 9d3f e726 15bd
000002d0: a05c 51be 4fa5 5abe 2c4a db3e 4dde 653e
000002e0: ddbf 403f fdd8 0cbe fcec e9bd 95de 10c0
000002f0: d5e2 a83f 7542 5f3e e25f 4540 8617 c3be
00000300: 3b69 33bf a611 733f 7a9c 8f3f d8f0 293f
00000310: f5c9 b3bf df34 38bf 1ad8 cb3e 6c31 b1bd
00000320: 1316 a5be 05c8 b0be a95f 09be 52ad d93e
00000330: 2a41 8bbf d6f9 2240 2c09 9ebf 6d15 f23f
00000340: b55b 0640 e122 e13f 69ad 9dbf 66ae 88bf
00000350: 01b5 9c3e dc45 ab3f 65b2 87bc 23c3 d53e
00000360: 1ef1 41be 71c4 bd3e 9715 b03b d1db d0bc
00000370: 2d9c 8b3e a180 18c0 c62c bbbe 601b 2840
00000380: b88d afbf 53f0 9f3e 9ff2 e13f 5931 bbbb
00000390: 3c49 bb3f 9960 82bf cf1f 33bf 4690 693f
000003a0: 8b3b 56bf 6e7a 703e dc25 e63d 1b62 3fbe
000003b0: fa03 6f3d 812e 143e 687a 75c0 bf04 5340
000003c0: c6af 583e e9ed 3f3f 1b58 bb3f cb40 31bf
000003d0: bb98 363f 5fc4 e4bf 3712 213f 7195 e0be
000003e0: db53 2fbf 7d7e f03e a633 1c3f 0143 bc3d
000003f0: 5a87 cf3e 0184 d1be 3237 a7bd b349 8ac0

bias f4 [256]
2.5628648 -1.6975396 -2.8747084 -2.0142162 -2.6179726 -2.9993002 -1.4318461 2.4657087
-2.2275128 -2.208383 -1.2301704 -2.2333674 -1.6011199 -1.0919303 -2.2143428 -3.277665
-0.4680794 0.39455113 -1.9275166 0.6206587 -0.5999568 -3.2776256 0.19718722 -0.22239697
-2.787513 -1.9998198 -1.84006 -2.8609471 -1.1726135 -1.9572351 -3.2290595 -3.341213
-1.69201 -0.98157424 -1.9062158 -0.99795175 -1.6581501 -1.2386309 -0.15248042 -0.6434225
-1.089609 0.20916222 -2.3267152 -0.9638164 -1.1045972 -1.486885 -2.5751717 -2.1069012
-1.007996 -2.4740283 -1.6187243 -1.9467609 -0.8186644 0.24128605 -2.2900033 -1.1765277
2.3626435 -2.7450888 -0.7971329 -3.0235198 -1.6358635 -0.82161164 -2.2311082 1.5286076
-1.325374 -2.219867 0.048539396 2.9061582 -0.23849012 0.14153457 -2.5658977 2.91088
-1.9339932 2.8731298 -2.0326262 0.51900697 0.34200594 0.10666217 -2.3278356 -0.73076165
-2.9200413 -0.3079704 -0.54148513 -2.2627275 2.2168987 -1.3860885 -0.7529111 -0.2021788
-1.7403961 -1.1213245 0.724996 -1.4959706 -0.7428587 -0.95661795 -0.41584778 1.6241249
-1.7888906 -1.6200758 -0.47504142 -1.3132302 -1.6855152 -1.951892 -2.0168378 -0.49750978
-1.94306 -1.7817574 1.5203167 -1.6334479 -1.0632693 -0.9518741 -1.8836325 -2.227991
-1.6819311 -1.0172436 -1.2989358 -2.2821004 -0.3109156 -1.5740248 -3.0643685 -0.67173547
-0.913657 -2.0509984 -1.2061914 -1.2997322 -2.47405 -0.7407473 -1.2132254 -2.2960289
-2.3777776 -1.4720992 -0.22648658 -3.5816839 -2.7451022 -2.0680985 -1.2974883 -0.391409
-2.167318 -1.5755627 -1.8555884 1.6417611 -0.7049505 -0.40108186 -1.2938453 -0.13814712
-1.794141 -0.91647315 0.0012839946 -0.6070862 -2.5783563 -1.7670832 -2.3405206 -2.4216774
0.18216549 -1.7378128 -0.024181817 -0.9101243 0.033247136 -1.3597031 -0.6110922 2.2808032
-0.63710475 -1.2811464 -1.3512588 -2.649423 -2.011329 -1.6059376 -1.8240429 1.9357116
-0.47926682 -1.6706519 -0.44605738 -2.1178305 3.9131725 -2.323773 -1.8817662 -0.8491387
-2.2431016 -2.1965685 -0.98435915 4.3684096 -0.28737184 -0.19869275 -2.3665633 -2.1856275
-1.2495146 -3.7125266 0.6772162 0.40456617 -2.0346367 -2.1947174 -1.5487566 0.50258845
1.0461018 -2.6046872 -2.0747883 -0.67004037 -1.7413286 -2.757956 -1.0492514 -2.048833
-1.5229678 0.37738472 -2.4887471 3.7669916 -0.21588036 -0.6646288 -2.2495081 -2.487441
-1.0418768 1.658116 1.111111 -3.2177303 -0.8751625 -0.40747273 1.5419242 -0.9152102
-1.4629409 -1.2942739 0.14458513 3.1692197 -2.5682156 -2.2817752 -1.2523645 0.9905994
-2.472083 -0.26872206 -1.9624506 1.0907992 -1.223388 -1.2761104 -0.21221109 -0.3009703
-1.1389449 -3.2703125 -0.1828588 0.24362789 -2.4346805 -1.507299 3.5569394 -1.1062891
-2.0247757 -0.09911436 -1.9596723 -1.6387087 -1.3439386 -1.6184324 -1.7322536 -1.3153954
-1.8776768 -2.3386116 -2.4378345 -1.1822163 -2.4776204 -1.1339504 -1.3480142 -2.1971884
00000000: fa05 2440 fa48 d9bf 39fb 37c0 ebe8 00c0
00000010: dd8c 27c0 89f4 3fc0 bc46 b7bf 2cce 1d40
00000020: 928f 0ec0 2656 0dc0 3976 9dbf 7eef 0ec0
00000030: 7ff1 ccbf 5fc4 8bbf cbb7 0dc0 43c5 51c0
00000040: 1aa8 efbe 9b02 ca3e ddb8 f6bf 7de3 1e3f
00000050: c596 19bf 9ec4 51c0 72eb 493e 08bc 63be
00000060: 9d66 32c0 18fa ffbf 1687 ebbf c219 37c0
00000070: 3318 96bf ae86 fabf e9a8 4ec0 6fd6 55c0
00000080: c993 d8bf 7348 7bbf e1fe f3bf c479 7fbf
00000090: 433e d4bf 758b 9ebf d423 1cbe 56b7 24bf
000000a0: 4f78 8bbf 9f2e 563e e7e8 14c0 acbc 76bf
000000b0: 7163 8dbf 3f52 bebf 9dcf 24c0 78d7 06c0
000000c0: 0306 81bf 7b56 1ec0 5c32 cfbf 762f f9bf
000000d0: fd93 51bf b113 773e 6a8f 12c0 7698 96bf
000000e0: 8d35 1740 89af 2fc0 e710 4cbf 5981 41c0
000000f0: fa63 d1bf 2455 52bf 7aca 0ec0 6aa9 c33f
00000100: dba5 a9bf 4d12 0ec0 3fd1 463d 7ffe 3940
00000110: c136 74be 70ee 103e ab37 24c0 dc4b 3a40
00000120: 178d f7bf 5ce1 3740 8c16 02c0 a4dd 043f
00000130: 671b af3e b271 da3d 42fb 14c0 3213 3bbf
00000140: f5e1 3ac0 4cae 9dbe c59e 0abf 87d0 10c0
00000150: abe1 0d40 596b b1bf c8be 40bf f607 4fbe
00000160: 4dc5 debf 9087 8fbf 5699 393f f77b bfbf
00000170: fd2b 3ebf eae4 74bf 00ea d4be 53e3 cf3f
00000180: 5efa e4bf a55e cfbf a138 f3be ed17 a8bf
00000190: f6be d7bf 99d7 f9bf df13 01c0 9ab9 febe
000001a0: 31b6 f8bf a010 e4bf bd99 c23f d214 d1bf
000001b0: 3519 88bf 05ae 73bf df1a f1bf 6897 0ec0
000001c0: 8549 d7bf 0a35 82bf 8743 a6bf ef0d 12c0
000001d0: 5430 9fbe a579 c9bf 9d1e 44c0 dbf6 2bbf
000001e0: 6de5 69bf 8f43 03c0 7b64 9abf a05d a6bf
000001f0: d656 1ec0 9da1 3dbf f84a 9bbf 23f2 12c0
00000200: 822d 18c0 bf6d bcbf 19ec 67be 4f3a 65c0
00000210: c1af 2fc0 ba5b 04c0 1914 a6bf c366 c8be
00000220: 57b5 0ac0 0aac c9bf ec83 edbf 3a25 d23f
00000230: a377 34bf 9a5a cdbe b99c a5bf 7076 0dbe
00000240: 6aa6 e5bf fc9d 6abf b64b a83a 006a 1bbf
00000250: ca03 25c0 c82f e2bf 17cb 15c0 c3fc 1ac0
00000260: 9789 3a3e a670 debf f218 c6bc e8fd 68bf
00000270: 262e 083d c00a aebf 8a70 1cbf aef8 1140
00000280: 4c19 23bf 9bfc a3bf 0cf6 acbf 2590 29c0
00000290: 9db9 00c0 5d8f cdbf 3d7a e9bf 66c5 f73f
000002a0: 7662 f5be ecd7 d5bf a261 e4be 898a 07c0
000002b0: 6b71 7a40 b2b8 14c0 b7dd f0bf 2761 59bf
000002c0: fa8e 0fc0 9494 0cc0 f6fe 7bbf 03ca 8b40
000002d0: 6722 93be 1d76 4bbe c675 17c0 52e1 0bc0
000002e0: 18f0 9fbf 099a 6dc0 0a5e 2d3f 4c23 cf3e
000002f0: 7d37 02c0 4076 0cc0 a83d c6bf a3a9 003f
00000300: aae6 853f 32b3 26c0 55c9 04c0 c487 2bbf
00000310: dbe3 debf 5a82 30c0 df4d 86bf 1420 03c0
00000320: 9cf0 c2bf 9238 c13e a247 1fc0 6416 7140
00000330: be0f 5dbe 1d25 2abf f1f7 0fc0 3c32 1fc0
00000340: 385c 85bf 253d d43f e338 8e3f 4bef 4dc0
00000350: a60a 60bf 44a0 d0be c65d c53f 374b 6abf
00000360: a641 bbbf c4aa a5bf 200e 143e 7fd4 4a40
00000370: a55d 24c0 9b08 12c0 7b4d a0bf ec97 7d3f
00000380: 9c36 1ec0 f095 89be 9531 fbbf 4f9f 8b3f
00000390: fa97 9cbf 9657 a3bf dd4d 59be c718 9abe
000003a0: f2c8 91bf cd4c 51c0 563f 3bbe 9779 793e
000003b0: ced1 1bc0 2cef c0bf e5a4 6340 e29a 8dbf
000003c0: ed95 01c0 78fc cabd 8bd6 fabf 35c1 d1bf
000003d0: 2e06 acbf cb28 cfbf 7cba ddbf e05e a8bf
000003e0: b757 f0bf d0ab 15c0 7b05 1cc0 dd52 97bf
000003f0: 5591 1ec0 4925 91bf bb8b acbf bc9e 0cc0

weight f4 [256, 256]
0.73428977 1.8902729 0.6439489 -0.5242452 1.5277528 -0.4684947 1.6265671 0.280018
0.04186409 0.18396883 -0.67132396 -1.1543406 0.8765266 0.68884623 -0.3303103 1.3140621
-0.63186663 -0.5276939 1.2031481 -0.15438037 2.5369024 0.8174803 0.46095252 0.44273832
-0.8759895 -0.43481535 0.8656596 -1.0893595 -0.054148696 -1.1552937 -0.16101481 -0.22807609
-0.049662106 0.9824482 0.7532917 0.11600529 -0.73551744 -0.33207992 -1.688975 -0.46228334
0.6115332 0.008305391 0.11458141 0.4046014 2.0906987 -0.07401292 0.46615922 0.57787454
0.8414227 -0.7530884 -0.023092907 0.68332106 -0.8211184 -0.49740508 0.68779 -0.48974705
-0.31138846 -0.86708546 1.459266 -0.6613919 1.5244739 -0.7731033 0.6018851 -0.46632457
-0.4972136 1.7349705 -0.2507955 -0.31051236 -0.01185243 1.1699812 0.414303 -0.6295454
-0.32513198 -1.8609225 0.9661776 1.5615106 -0.10671652 0.009711204 0.23068851 -0.69473916
0.35043716 2.053117 -0.28975025 0.4902352 -0.89434606 0.039448828 0.67147917 0.39980865
-0.54550767 -0.5524065 1.1036632 0.24909134 0.1968982 -0.23786698 0.40558037 -1.1696507
0.9281252 0.86743486 -1.3678797 -0.14552122 0.7953132 -0.77891177 -0.4348663 -0.88890606
0.29703575 -0.98842406 -0.4611342 1.6195431 0.09375795 1.7124314 -1.6035403 0.9845972
1.5192378 0.14339893 -0.9327361 -1.0919156 0.8922673 0.09796378 0.74655706 2.0946884
-1.3184774 0.94516 -1.1428622 -0.93061775 0.88792014 1.4334484 0.7533898 -0.23541555
-0.49436897 1.009362 0.4417259 -1.6043612 0.60187215 -1.3742887 0.78093743 0.3069756
-0.51120013 1.8489721 1.3805343 -0.60472685 1.066784 0.6444787 0.5822222 0.053464208
-1.1081338 0.5605269 -1.6632828 0.7839224 1.0925552 1.1604668 0.5008251 -0.2771562
-0.66000354 0.91056 0.97973543 -1.1560575 -0.6561468 -1.1781327 -0.022769956 -1.1943388
-0.18260896 0.76063126 0.9962782 -1.5210185 0.20402433 0.94475174 -0.30286732 -0.6738881
0.08349679 0.4163795 -1.8643972 -0.25570947 -0.9740191 -1.4008732 0.67223364 1.6030889
0.3397487 0.74722373 0.17942768 -0.12626298 0.30379403 0.020904059 0.21227168 0.8852646
0.066833414 -0.54461145 -0.19839594 1.5075399 -1.2739272 -0.86445314 -1.5910767 1.5323684
-1.4275438 1.3142873 0.73185563 -0.64334166 0.13931726 0.9246743 -1.36402 -0.09115648
-1.1415277 -0.11800883 -0.9806787 -0.23623347 0.41519067 0.15351307 -0.553816 0.7882574
0.205671 -1.1585679 0.30368036 0.7974828 0.16183595 -0.12767605 -0.34578934 -0.4270621
0.17171791 -0.14348264 1.7460662 0.579433 0.007872619 0.7580157 -0.8959623 0.49063674
0.9720266 -0.31915626 -0.5599389 -0.15984309 -0.515952 1.0297879 -0.543959 1.306715
0.41919157 -0.018552614 -0.9798867 -0.35223863 0.351663 -1.4768097 -0.7203211 -0.31702828
-0.33975697 0.52228767 -0.5977577 0.40951127 -1.2149098 -0.099925734 0.13967854 0.68134683
-0.8670509 1.8800247 -1.3645506 -0.2637077 0.44633037 1.2284234 0.4028523 -1.4381087
00000000: 6afa 3b3f 76f4 f13f d6d9 243f ef34 06bf
00000010: 678d c33f 8ade efbe 5a33 d03f 855e 8f3e
00000020: ae79 2b3d 5362 3c3e e3db 2bbf 6fc1 93bf
00000030: 0c64 603f 3a58 303f 6f1e a9be 3033 a83f
00000040: 03c2 21bf f316 07bf c200 9a3f e315 1ebe
00000050: 9c5c 2240 6446 513f f801 ec3e 99ae e23e
00000060: d940 60bf 1ea0 debe de9b 5d3f 2270 8bbf
00000070: 06cb 5dbd aae0 93bf 11e1 24be c78c 69be
00000080: 7e6a 4bbd ba81 7b3f bad7 403f 2e94 ed3d
00000090: df4a 3cbf 6106 aabe 5530 d8bf 67b0 ecbe
000000a0: 718d 1c3f 5613 083c a9a9 ea3d ea27 cf3e
000000b0: 02ce 0540 1694 97bd 6cac ee3e 96ef 133f
000000c0: 7a67 573f 67ca 40bf 562d bdbc 21ee 2e3f
000000d0: d134 52bf e1ab febe 0113 303f 20c0 fabe
000000e0: 4f6e 9fbe 50f9 5dbf 3ac9 ba3f fb50 29bf
000000f0: f621 c33f 19ea 45bf 2415 1a3f 18c2 eebe
00000100: c892 febe 8313 de3f 4568 80be 7afb 9ebe
00000110: b230 42bc f2c1 953f 861f d43e e329 21bf
00000120: b377 a6be b532 eebf 6a57 773f 94df c73f
00000130: 318e dabd be1b 1f3c 9c39 6c3e 6dda 31bf
00000140: 806c b33e 4566 0340 255a 94be 1c00 fb3e
00000150: ddf3 64bf 1895 213d 0fe6 2b3f b8b3 cc3e
00000160: 64a6 0bbf 836a 0dbf d644 8d3f cd11 7f3e
00000170: af9f 493e 6793 73be 3ba8 cf3e 1db7 95bf
00000180: 9d99 6d3f 3610 5e3f af16 afbf 8403 15be
00000190: a599 4b3f c366 47bf cca6 debe 598f 63bf
000001a0: 1215 983e 5c09 7dbf c819 ecbe 304d cf3f
000001b0: 2b04 c03d f430 db3f cf40 cdbf 900e 7c3f
000001c0: 6276 c23f 2bd7 123e cbc7 6ebf e4c3 8bbf
000001d0: a16b 643f 3ca1 c83d 5d1e 3f3f 600f 0640
000001e0: dec3 a8bf 01f6 713f 4f49 92bf f73c 6ebf
000001f0: bc4e 633f 3d7b b73f 27de 403f c610 71be
00000200: ee1d fdbe c632 813f e629 e23e b55b cdbf
00000210: 4b14 1a3f b1e8 afbf 84eb 473f e82b 9d3e
00000220: 03de 02bf 1eab ec3f 59b5 b03f 61cf 1abf
00000230: 618c 883f 8efc 243f 840c 153f 49fd 5a3d
00000240: 54d7 8dbf b17e 0f3f 73e6 d4bf 23af 483f
00000250: d9d8 8b3f 2d8a 943f 1336 003f 6be7 8dbe
00000260: fef5 28bf 761a 693f f1cf 7a3f b1f9 93bf
00000270: 3df9 27bf 0dcd 96bf 0f88 babc 18e0 98bf
00000280: d8fd 3abe bbb8 423f 170c 7f3f bcb0 c2bf
00000290: c1eb 503e 40db 713f 6d11 9bbe ee83 2cbf
000002a0: 5d00 ab3d b22f d53e 91a4 eebf 5aec 82be
000002b0: 5159 79bf d04f b3bf 8117 2c3f 0432 cd3f
000002c0: 8bf3 ad3e 0e4a 3f3f e4bb 373e 154b 01be
000002d0: e48a 9b3e fd3e ab3c bf5d 593e b3a0 623f
000002e0: f5df 883d a86b 0bbf 4e28 4bbe 11f7 c03f
000002f0: 0c10 a3bf cd4c 5dbf 67a8 cbbf a624 c43f
00000300: c1b9 b6bf 913a a83f e45a 3b3f 0ab2 24bf
00000310: 2fa9 0e3e 74b7 6c3f 3598 aebf 40b0 babd
00000320: 941d 92bf 9dae f1bd c20d 7bbf 30e7 71be
00000330: df93 d43e 8832 1d3e e3c6 0dbf 3dcb 493f
00000340: 6b9b 523e f44b 94bf fe7b 9b3e d527 4c3f
00000350: 53b8 253e 83bd 02be 4d0b b1be e2a7 dabe
00000360: d2d6 2f3e 1ded 12be 197f df3f b955 143f
00000370: 28fc 003c 510d 423f c95d 65bf bd34 fb3e
00000380: bcd6 783f 7368 a3be 2858 0fbf e8ad 23be
00000390: 6e15 04bf 17d0 833f e640 0bbf 7042 a73f
000003a0: 47a0 d63e a7fb 97bc dbd9 7abf 9f58 b4be
000003b0: 2c0d b43e 1a08 bdbf f766 38bf 8851 a2be
000003c0: a0f4 adbe a5b4 053f a606 19bf 76ab d13e
000003d0: 2a82 9bbf dda5 ccbd e407 0f3e bf6c 2e3f
000003e0: 0cf7 5dbf a6a4 f03f 98a9 aebf b204 87be
000003f0: 6a85 e43e fa3c 9d3f a842 ce3e f213 b8bf

bias f4 [256]
-0.9895578 -1.7108481 -1.0532789 -0.16150479 -0.67850375 -0.49666908 -1.134264 -0.55137193
0.53438866 -0.6783151 0.3680836 -0.51063526 -0.48603445 -0.047899745 -0.1554522 0.09995429
0.35531878 -0.117094174 -0.36833912 -0.041739367 -0.07683618 -0.04702979 -0.93392885 -0.10748567
-0.17221859 -0.30264255 -0.71624756 -0.22055054 -0.0999417 -0.66500294 -0.29611284 0.19745104
-0.149104 -0.8225206 -1.4314811 -0.12188024 0.9273998 -0.8615909 -0.09009461 -0.045022406
-0.15839955 -0.052770954 -0.15519674 -1.6059046 -2.3489935 -1.6893226 -0.70977795 -0.35902005
-0.66055334 -1.8637135 -1.0431441 -0.031411797 -1.5911131 -1.0726923 -0.11345311 -0.4663605
-0.8590016 1.1610696 -0.43218237 -1.0477774 -0.6091002 -0.09517436 0.2802005 0.35084653
-0.23046048 -0.16572177 -0.10622688 -0.1717276 -0.1300937 -1.2903996 -0.22657321 -0.18195632
-0.16610768 1.0909758 0.14386812 -0.16702597 -0.29391038 -0.9364172 -0.9618325 -0.14313012
-0.0031090549 -0.38781255 -0.14991058 -0.060563438 -0.02471252 -1.5362427 -0.12849312 -0.25776905
-2.4357893 1.0273974 0.39238903 -0.30469245 0.8538907 -0.13903174 -1.1039797 -0.9803463
-0.62976336 -0.13398534 -0.071664214 -0.21704522 -0.043283075 0.8269712 -0.35596153 -2.0992982
1.2130711 0.47812805 -1.6242355 -0.12820756 -2.1282213 -2.6683629 0.95906454 -0.8212608
-0.13680547 -0.64382523 -1.8071226 -0.48636234 -0.30434564 1.6096961 -0.54180914 -0.2629002
-0.1169736 1.208238 0.5215874 0.829914 0.22833799 0.32896304 -0.29166773 -0.099658385
0.11829786 -0.6069716 -0.7519733 -0.5961398 -0.03865357 -0.009870754 -0.3336583 -0.94034255
-0.2893793 0.61844236 -0.7296901 -0.097087145 -0.39977863 0.35927245 -1.1031288 -0.71481663
0.53635764 -0.17405765 0.6786293 -0.44199857 0.329267 0.22092226 -1.4359261 -0.15433969
-1.1248399 -0.10652717 -1.3601009 -0.06295541 -0.12712042 -0.10314508 -0.11008929 -1.7240239
-0.17841387 -0.64330506 0.7821495 0.22721775 0.069994435 2.2547853 -0.06855019 1.0750713
-2.4772687 -0.061360087 2.248057 -0.34376326 -0.12601082 -0.072935514 -0.09018831 -0.064455576
-0.3688683 -0.11549722 -0.89200455 -0.79689795 0.064791374 -0.04427377 -0.995937 -0.040531855
0.2660513 -0.68433243 -0.22659625 -0.03115916 -0.1785862 -0.1430364 -0.96296436 -1.3138895
-0.08816669 1.2118357 -0.16407144 1.4848851 -0.48724893 -0.114881486 -0.66619 -0.049146708
-0.117819354 -1.5810093 -0.7096849 1.0518515 -1.1219879 -0.24013346 -0.0905246 -0.36205623
-0.040636547 -1.1189479 0.52634394 0.26364717 -0.0018407986 0.069978654 -0.34837198 -0.3371677
-1.0839933 1.9839398 -0.083891004 1.9730377 -0.9390977 -0.5504001 1.0153266 0.3459383
-0.11245136 -1.1516559 -0.1305304 -0.11216709 -0.8000484 -1.9023702 -0.84250164 -0.15391706
-0.7059941 -0.7437323 -0.022940487 -0.14418013 0.6149715 1.0843391 -0.5966908 -0.16582535
0.5935817 -1.7834376 -0.053957857 -0.7271339 0.45560688 -1.9561731 -0.86345685 -0.23297103
-0.1685704 -0.111524075 -0.010189806 -1.3727419 -0.3790346 -0.119876325 -0.566255 -0.13151899
00000000: a953 7dbf 12fd dabf d8d1 86bf 8361 25be
00000010: 6cb2 2dbf 694b febe 902f 91bf b626 0dbf
00000020: b2cd 083f 0fa6 2dbf 7475 bc3e feb8 02bf
00000030: 82d9 f8be 8632 44bd dd2e 1fbe d6b4 cc3d
00000040: 58ec b53e 12cf efbd f296 bcbe e6f6 2abd
00000050: 4a5c 9dbd 4fa2 40bd f615 6fbf 7221 dcbd
00000060: 125a 30be f7f3 9abe 005c 37bf 00d8 61be
00000070: 3cae ccbd a23d 2abf 1a9c 97be 9b30 4a3e
00000080: b8ae 18be b690 52bf c63a b7bf 599c f9bd
00000090: 136a 6d3f 3991 5cbf 8683 b8bd 6a69 38bd
000000a0: 7e33 22be 5b26 58bd e5eb 1ebe 488e cdbf
000000b0: e955 16c0 b93b d8bf 02b4 35bf 7ad1 b7be
000000c0: 061a 29bf 2a8e eebf bf85 85bf a8a9 00bd
000000d0: 98a9 cbbf fb4d 89bf 1b5a e8bd cec6 eebe
000000e0: 87e7 5bbf ee9d 943f 0247 ddbe 921d 86bf
000000f0: feed 1bbf c6ea c2bd 7176 8f3e 28a2 b33e
00000100: d5fd 6bbe f8b2 29be 7a8d d9bd 5cd9 2fbe
00000110: 4837 05be d02b a5bf cf02 68be c252 3abe
00000120: 2218 2abe 18a5 8b3f 2a52 133e db08 2bbe
00000130: 6c7b 96be 0ab9 6fbf a83a 76bf b490 12be
00000140: 49c1 4bbb 5e8f c6be 2982 19be 5e11 78bd
00000150: e971 cabc 9aa3 c4bf b393 03be 4efa 83be
00000160: f9e3 1bc0 c281 833f 37e7 c83e a600 9cbe
00000170: 9598 5a3f 565e 0ebe 354f 8dbf faf7 7abf
00000180: 2c38 21bf 7433 09be b0c4 92bd 1a41 5ebe
00000190: 9849 31bd 62b4 533f 9740 b6be e75a 06c0
000001a0: ea45 9b3f 33cd f43e f3e6 cfbf d848 03be
000001b0: c734 08c0 75c6 2ac0 4185 753f 263e 52bf
000001c0: bc16 0cbe bbd1 24bf cb4f e7bf 7c04 f9be
000001d0: 31d3 9bbe 860a ce3f 01b4 0abf db9a 86be
000001e0: db8f efbd 8ba7 9a3f c086 053f 3e75 543f
000001f0: 6fd1 693e d86d a83e 7955 95be b219 ccbd
00000200: 2646 f23d 7e62 1bbf 5281 40bf 9e9c 18bf
00000210: 3553 1ebd f1b8 21bc 43d5 aabe 4aba 70bf
00000220: 8629 94be 3d52 1e3f f8cc 3abf a0d5 c6bd
00000230: c9af ccbe 8ff2 b73e 5333 8dbf 39fe 36bf
00000240: bc4e 093f 2b3c 32be a6ba 2d3f a34d e2be
00000250: af95 a83e 7239 623e 6dcc b7bf 390b 1ebe
00000260: c1fa 8fbf eb2a dabd c917 aebf c4ee 80bd
00000270: db2b 02be ba3d d3bd 7e76 e1bd d1ac dcbf
00000280: 20b2 36be a4af 24bf f33a 483f c5ab 683e
00000290: 3e59 8f3d 674e 1040 0b64 8cbd f09b 893f
000002a0: 928b 1ec0 b754 7bbd 2ae0 0f40 bd01 b0be
000002b0: fb08 01be 375f 95bd a6b4 b8bd 4901 84bd
000002c0: 4edc bcbe ce89 ecbd 695a 64bf 8101 4cbf
000002d0: 57b1 843d 6a58 35bd baf5 7ebf bb04 26bd
000002e0: e037 883e 6930 2fbf d908 68be 7f41 ffbc
000002f0: 4ddf 36be 2278 12be d584 76bf 882d a8bf
00000300: bd90 b4bd 6f1d 9b3f 5802 28be b710 be3f
00000310: b178 f9be fc46 ebbd 6e8b 2abf 0f4e 49bd
00000320: 464b f1bd 835e cabf e9ad 35bf 12a3 863f
00000330: 4d9d 8fbf 8ce5 75be f664 b9bd 6f5f b9be
00000340: 8272 26bd af39 8fbf 7abe 063f c3fc 863e
00000350: f446 f1ba f850 8f3d d05d b2be 3fa1 acbe
00000360: 4bc0 8abf bdf1 fd3f 0ccf abbd 808c fc3f
00000370: b568 70bf 05e7 0cbf 39f6 813f d31e b13e
00000380: e64c e6bd 7669 93bf c3a9 05be dcb7 e5bd
00000390: f9cf 4cbf de80 f3bf 30ae 57bf 6f9c 1dbe
000003a0: 08bc 34bf 3d65 3ebf b0ed bbbc f5a3 13be
000003b0: c66e 1d3f a0cb 8a3f bac0 18bf 1fce 29be
000003c0: f8f4 173f af47 e4bf ea02 5dbd 7325 3abf
000003d0: 4e45 e93e e163 fabf 820b 5dbf f58f 6ebe
000003e0: b89d 2cbe bc66 e4bd 25f3 26bc 02b6 afbf
000003f0: d310 c2be b881 f5bd 16f6 10bf eaac 06be

weight f4 [6, 256]
-0.1232878 0.45627865 -0.44963425 -0.013440521 -0.34754866 -0.36052933 -0.79037607 0.14299741
0.05386303 -0.048622776 -1.3433188 -0.12616771 1.2003683 -0.0043905615 0.026210248 0.5581243
0.12997472 -0.05968268 -1.4655793 0.030782139 0.03188086 0.033687547 0.8298064 0.09723772
0.06577664 0.6210363 0.29993877 -0.04308566 0.26788837 0.7407427 -0.8979258 -0.0026022412
-0.031105693 0.83774936 1.1250665 0.025843533 -0.0739313 0.3665823 0.009936374 0.45036322
-0.03921441 0.04253891 0.042107724 -0.9858131 -0.38630036 -1.1597666 2.5461195 -1.8082134
0.11225133 0.13913782 -0.8689266 0.12032262 1.0751915 -0.13381857 -0.04130688 0.69044214
-1.0397011 -0.15742972 1.2174397 0.51451194 0.21828479 0.43587795 0.5492927 0.4610244
0.08722681 0.08546104 0.08526616 -0.03222764 0.06913531 1.2340039 0.026553782 0.12939854
-0.05297161 1.1555268 -0.22001866 0.09853085 1.761303 1.207682 -0.91264707 -0.022953095
0.019537268 -1.2576659 -0.018287636 0.026103634 0.36194545 1.0998827 0.04328021 -0.6096422
1.554813 0.6799653 -0.007964616 0.15808243 -0.1370906 0.641594 -0.360547 -0.013596849
-0.75798035 0.081610486 0.0066625364 -0.004951646 0.08840558 0.2998268 0.20110935 -0.07347905
0.2591447 -0.8470599 0.59909457 0.011235952 -0.21456671 0.7044349 0.028041013 0.13456115
-0.044498503 -0.09123085 -1.1854126 0.4201859 -0.1962669 -0.45501217 -0.75500095 0.057408955
-0.018621214 0.4092378 0.52825195 -0.3216359 0.92858094 -0.5205476 0.43259412 0.019645875
0.161624 -0.036821686 0.33697835 1.1486658 -0.04302923 0.4885464 -0.49809882 -0.76316243
-0.0027677924 0.56351423 -0.25449917 0.025422467 0.31445155 0.13874725 -0.6535318 0.3280932
0.52576387 0.28455526 1.2793995 -0.860491 -0.75526416 0.16633402 -0.42986476 2.2624018
-1.1967202 0.086403646 0.1420194 0.013778089 0.024475297 0.28724048 0.018575301 0.41947263
-0.009960655 -0.97821724 -2.3935578 0.23627827 -0.32202995 -1.0358526 0.035138946 0.6240145
0.6461023 -0.0029914847 -0.7883746 0.061525542 -0.02141258 0.10534116 0.050515655 -0.013091211
-0.08739416 0.050210945 0.2849203 1.2556247 -0.81398845 0.124822415 -0.7413995 -0.009512653
0.02192864 1.646462 0.011064589 0.0340937 0.5299429 -0.03194541 -0.5238636 -0.40478462
-0.05053335 0.8818924 0.06563921 0.06654729 0.5923111 0.009364354 1.1612123 -0.0027793823
-0.03374935 -1.674865 1.0697144 -0.40990466 -0.23957123 0.015965365 0.052433264 0.6161273
-0.03841735 -0.40049085 0.632358 0.62941 -0.009261663 1.1500218 -0.51731026 -0.5851426
0.53518444 -0.18395741 0.6185696 0.20090255 -0.54042417 0.57080287 -0.017599212 0.078329474
-0.01670697 0.50839585 -0.026489157 -0.0048873215 -0.13936111 -0.45809492 0.17014527 0.009992674
0.8342788 0.15286925 -0.029852001 0.01804986 0.989241 -0.29572082 0.055744827 0.015261078
-0.71441084 0.7410455 0.34393796 0.037636638 0.3262839 -1.657195 -0.076291434 0.609184
-0.01592008 -0.08568233 -7.873842e-05 0.077285096 1.2462493 -0.033598248 -0.43482634 0.010270732
00000000: 507e fcbd 5b9d e93e 7636 e6be a235 5cbc
00000010: e6f1 b1be 4d97 b8be 1656 4abf ea6d 123e
00000020: 7b9f 5c3d ad28 47bd dff1 abbf 1c32 01be
00000030: aba5 993f b3de 8fbb e0b6 d63c 3ce1 0e3f
00000040: 1818 053e d375 74bd 1a98 bbbf d32a fc3c
00000050: 8195 023d f4fb 093d 316e 543f 9224 c73d
00000060: e7b5 863d 3cfc 1e3f 9391 993e 977a 30bd
00000070: aa28 893e 50a1 3d3f 77de 65bf 5d8a 2abb
00000080: 5ed1 febc be76 563f 2e02 903f d1b5 d33c
00000090: 4b69 97bd adb0 bb3e 2ccc 223c 0296 e63e
000000a0: 4a9f 20bd 483d 2e3d 2679 2c3d 3f5e 7cbf
000000b0: 29c9 c5be 3b73 94bf 9ff3 2240 8973 e7bf
000000c0: 06e4 e53d 257a 0e3e f971 5ebf b56b f63d
000000d0: e09f 893f bc07 09be 6731 29bd d1c0 303f
000000e0: ed14 85bf 4235 21be 10d5 9b3f 0eb7 033f
000000f0: 0c86 5f3e 652b df3e 729e 0c3f 640b ec3e
00000100: f8a3 b23d 3306 af3d 06a0 ae3d 2101 04bd
00000110: d096 8d3d d7f3 9d3f 5187 d93c 0d81 043e
00000120: c2f8 58bd 4de8 933f 924c 61be 8bca c93d
00000130: 6072 e13f 5395 9a3f 3da3 69bf 2108 bcbc
00000140: 9f0c a03c 32fb a0bf f4cf 95bc 4ad7 d53c
00000150: ea50 b93e f5c8 8c3f 9746 313d 8311 1cbf
00000160: 1d04 c73f 3512 2e3f 057e 02bc 5ce0 213e
00000170: 7a61 0cbe 813f 243f 9e99 b8be 51c5 5ebc
00000180: 000b 42bf 6623 a73d 6851 da3b 6b41 a2bb
00000190: fc0d b53d e682 993e 9cef 4d3e 2f7c 96bd
000001a0: 9dae 843e ebd8 58bf 435e 193f 0017 383c
000001b0: 60b7 5bbe d855 343f 44b6 e53c 66ca 093e
000001c0: 1044 36bd 3dd7 babd 9abb 97bf 9b22 d73e
000001d0: 31fa 48be 5bf7 e8be be47 41bf a725 6b3d
000001e0: 848b 98bc 9e87 d13e 853b 073f 76ad a4be
000001f0: 7bb7 6d3f 9c42 05bf fa7c dd3e 63f0 a03c
00000200: c380 253e 56d2 16bd 6d88 ac3e 7b07 933f
00000210: 6b3f 30bd c122 fa3e cf06 ffbe 9d5e 43bf
00000220: da63 35bb 7842 103f b74d 82be c742 d03c
00000230: cbff a03e c213 0e3e dc4d 27bf d5fb a73e
00000240: 7698 063f 3ab1 913e 5dc3 a33f 2349 5cbf
00000250: fe58 41bf 7753 2a3e 3c17 dcbe 31cb 1040
00000260: 212e 99bf 65f4 b03d 896d 113e 7ebd 613c
00000270: 6b80 c83c 2f11 933e 3b2b 983c 1ec5 d63e
00000280: 0432 23bc 726c 7abf 0d30 19c0 eef2 713e
00000290: 1ce1 a4be d196 84bf dbed 0f3d 6abf 1f3f
000002a0: f666 253f c90c 44bb ebd2 49bf 3502 7c3d
000002b0: 6f69 afbc 1bbd d73d 81e9 4e3d 857c 56bc
000002c0: b6fb b2bd fea9 4d3d 13e1 913e 4fb8 a03f
000002d0: 8c61 50bf e5a2 ff3d 5ccc 3dbf f5da 1bbc
000002e0: b1a3 b33c 44bf d23f 4048 353c d6a5 0b3d
000002f0: 57aa 073f 31d9 02bd ed1b 06bf ee3f cfbe
00000300: 0ffc 4ebd b3c3 613f da6d 863d f249 883d
00000310: b3a1 173f f36c 193c 9ba2 943f 4c26 36bb
00000320: c23c 0abd fa61 d6bf 67ec 883f 06df d1be
00000330: 2952 75be ccc9 823c 43c4 563d 85ba 1d3f
00000340: 835b 1dbd 230d cdbe 37e2 213f 0421 213f
00000350: 3bbe 17bc ea33 933f 726e 04bf e8cb 15bf
00000360: d901 093f 555f 3cbe 945a 1e3f 66b9 4d3e
00000370: 3d59 0abf 2320 123f 392c 90bc 346b a03d
00000380: 0edd 88bc 3b26 023f caff d8bc d325 a0bb
00000390: aeb4 0ebe 6b8b eabe 903a 2e3e 50b8 233c
000003a0: 4c93 553f c289 1c3e 2f8c f4bc 4ddd 933c
000003b0: e63e 7d3f b868 97be b054 643d 9a09 7a3c
000003c0: a1e3 36bf 28b5 3d3f a318 b03e e028 1a3d
000003d0: af0e a73e f71e d4bf af3e 9cbd 7cf3 1b3f
000003e0: d46a 82bc 387a afbd 5e20 a5b8 a647 9e3d
000003f0: 1985 9f3f 519e 09bd 8fa1 debe 9346 283c

bias f4 [6]
2.620557 3.026911 2.5087535 0.06593881 0.5680279 -1.4980831
00000000: 35b7 2740 e9b8 4140 6b8f 2040 ed0a 873d
00000010: 476a 113f 30c1 bfbf

weight f4 [256, 23]
-0.99961 3.3579543 0.25106972 -0.68648285 0.17400295 0.24384314 0.50131 -0.101278596
-0.1663496 -0.07903172 0.3202955 -0.13411172 -0.1721515 -0.46925756 -0.0050677056 0.73603886
0.05134949 0.16345464 -2.1654093 1.8880193 1.9615418 0.69361526 -0.80835897 0.22402333
2.5195425 -0.99518824 1.3084294 3.9121988 -0.7682348 -0.45384008 0.4598866 0.2640786
0.39676356 -0.030804524 0.5597663 0.32812852 -0.34082553 0.011313746 0.7682717 0.06491192
1.400731 0.7575976 -1.19944 0.66087896 0.41062918 0.00878064 -1.6440216 2.530675
1.2756699 0.5242908 -2.215463 -0.18633725 1.1829733 -0.63482887 0.017643334 1.253623
-0.9528171 1.2337574 -0.5254096 -0.23679192 -0.11266615 0.09317759 0.31478584 1.1119109
0.028600767 -1.1769481 1.1623714 -1.4414124 1.4059211 -0.2964323 -2.8147912 1.2082812
-1.436174 -1.2070838 1.2507329 1.224092 -0.9329871 -0.5678287 -0.5325674 -0.2999672
-0.009058652 0.10416388 -0.1265364 0.034991506 0.26833636 0.32760575 -0.1495145 -1.2563537
-0.3420271 0.21158838 0.110254854 2.1070547 0.36472774 2.1595123 2.5715482 1.1444678
0.52789104 1.0941079 0.30311322 -0.6076187 -0.13040535 -0.03193606 0.007052741 0.2652096
-0.72411746 0.21625952 -0.09048638 0.08221911 -0.16289853 0.66857326 0.020915627 1.3764557
-0.5949445 -1.3909526 0.080772325 -2.5370152 -1.335386 -1.1959785 2.8312905 -0.19810571
1.0756358 -1.5536335 1.6711868 -1.2182198 -0.8727452 0.15724672 -0.26857817 0.17254944
0.087335244 0.09596191 0.29114476 0.10401439 -0.20013486 0.32836506 -0.47689715 -0.45488054
-0.06593186 0.2780491 4.1606545 1.4428022 -0.8068982 -1.1917017 0.21071737 0.90115255
-1.2420717 -0.27866122 1.8426342 1.9600396 -0.47314736 -0.30170903 -0.026548062 0.04657276
0.38508338 -0.12838002 0.21130775 -0.37157682 -0.820369 0.422346 -0.2557133 0.26419613
0.31582335 -2.3964686 -1.7091752 0.97928053 1.014597 1.3458803 -1.4184632 1.0634007
0.9404654 1.2200278 0.3648245 0.027034098 -0.05039528 -0.18808508 0.098733924 -0.11921893
-0.14032015 0.26261574 1.106385 0.086492404 -0.17779945 1.4019777 -0.5382349 1.9122062
1.1479436 1.5414238 1.5212607 0.86220247 1.1545435 1.2267992 -0.4510174 0.9611453
-0.7707966 2.6478198 0.44976807 -0.36012167 -0.17536575 0.15700714 -0.4196498 0.10568952
0.042393107 1.2268099 -0.28051144 -2.4745088 -1.9258424 1.0371051 1.6934958 1.3473971
1.1789094 -3.011451 0.28213942 0.3524046 -1.9634477 1.2530729 1.3514918 -1.1070505
0.6051449 0.71033543 0.39128914 0.28883746 0.2913787 0.5098055 -0.0059391973 -0.50121397
-1.0693092 -1.4731437 0.5946641 -2.575596 -0.731221 -1.515951 2.4228818 2.8050885
-0.6669401 -0.6548023 0.61913323 1.7597945 1.4312757 1.9935994 -0.040969346 0.10699877
-0.68666697 0.9175573 0.9807527 -0.10958647 -0.44742557 -0.5188123 0.051269732 -1.2196661
1.2425052 -1.5353085 -0.23594002 -1.3987106 1.474046 -5.682489 2.0655506 -2.5343308
00000000: 71e6 7fbf b9e8 5640 368c 803e 57bd 2fbf
00000010: d42d 323e 04b2 793e da55 003f 276b cfbd
00000020: 8d57 2abe 62db a1bd c6fd a33e 9554 09be
00000030: 7c48 30be 8742 f0be ff0e a6bb 0b6d 3c3f
00000040: d853 523d a760 273e 1196 0ac0 9eaa f13f
00000050: cd13 fb3f c590 313f 9df0 4ebf 5f66 653e
00000060: 2f40 2140 a8c4 7ebf 9d7a a73f 7761 7a40
00000070: 09ab 44bf ba5d e8be 4276 eb3e 4f35 873e
00000080: 9824 cb3e c559 fcbc d84c 0f3f 7600 a83e
00000090: af80 aebe 4a5d 393c 74ad 443f 8af0 843d
000000a0: 274b b33f ebf1 413f 4087 99bf 5d2f 293f
000000b0: fd3d d23e acdc 0f3c 4d6f d2bf 94f6 2140
000000c0: 2749 a33f ec37 063f 25ca 0dc0 31cf 3ebe
000000d0: ab6b 973f 2584 22bf c188 903c b876 a03f
000000e0: d2eb 73bf c3eb 9d3f 3e81 06bf 9579 72be
000000f0: 83bd e6bd e4d3 be3d 9c2b a13e 1953 8e3f
00000100: 284c ea3c 3ca6 96bf 96c8 943f 3480 b8bf
00000110: 39f5 b33f f9c5 97be 8a25 34c0 f5a8 9a3f
00000120: 8dd4 b7bf b981 9abf 0418 a03f 0caf 9c3f
00000130: 3ed8 6ebf 395d 11bf 5656 08bf 4d95 99be
00000140: be6a 14bc df53 d53d c292 01be 4153 0f3d
00000150: 6263 893e f1bb a73e 541a 19be 33d0 a0bf
00000160: 2d1e afbe a0aa 583e 4ccd e13d fcd9 0640
00000170: 98bd ba3e 7335 0a40 3f94 2440 ec7d 923f
00000180: de23 073f ba0b 8c3f a831 9b3e e68c 1bbf
00000190: fb88 05be 63cf 02bd ae1a e73b 8dc9 873e
000001a0: c35f 39bf 2373 5d3e ec50 b9bd 7e62 a83d
000001b0: dfce 26be 9e27 2b3f 4057 ab3c b32f b03f
000001c0: 484e 18bf bc0a b2bf f66b a53d 755e 22c0
000001d0: eeed aabf d315 99bf dd33 3540 39dc 4abe
000001e0: 6fae 893f 76dd c6bf 73e9 d53f a0ee 9bbf
000001f0: 3b6c 5fbf 4905 213e 1483 89be cdb0 303e
00000200: d2dc b23d ae87 c43d ed10 953e 7f05 d53d
00000210: 27f0 4cbe 771f a83e dd2b f4be 1ae6 e8be
00000220: 4807 87bd 745c 8e3e 1524 8540 bead b83f
00000230: e190 4ebf ae89 98bf 4bc6 573e efb1 663f
00000240: 35fc 9ebf afac 8ebe 70db eb3f 94e2 fa3f
00000250: 5f40 f2be 9b79 9abe 527b d9bc 14c3 3e3d
00000260: a629 c53e 0d76 03be 0f61 583e 513f bebe
00000270: b403 52bf bc3d d83e dbec 82be b744 873e
00000280: 99b3 a13e be5f 19c0 41c6 dabf 21b2 7a3f
00000290: 51de 813f ce45 ac3f 3490 b5bf 841d 883f
000002a0: 57c2 703f df29 9c3f 47ca ba3e 9d76 dd3c
000002b0: 486b 4ebd 6099 40be 0335 ca3d 0e29 f4bd
000002c0: 16b0 0fbe 9275 863e 069e 8d3f ee22 b13d
000002d0: 0f11 36be 0174 b33f c3c9 09bf 2cc3 f43f
000002e0: d1ef 923f 604d c53f acb8 c23f 4db9 5c3f
000002f0: 15c8 933f c207 9d3f c1eb e6be 9e0d 763f
00000300: ed52 45bf e175 2940 0048 e63e de61 b8be
00000310: 1493 33be 7bc6 203e 57dc d6be bf73 d83d
00000320: 65a4 2d3d 1b08 9d3f 329f 8fbe 5a5e 1ec0
00000330: 0182 f6bf dcbf 843f 78c4 d83f 8277 ac3f
00000340: 81e6 963f 9dbb 40c0 9474 903e 606e b43e
00000350: 4152 fbbf b164 a03f affd ac3f d5b3 8dbf
00000360: c7ea 1a3f 8bd8 353f 0d57 c83e 81e2 933e
00000370: 972f 953e 9d82 023f 999d c2bb 8f4f 00bf
00000380: 20df 88bf f98f bcbf e83b 183f 91d6 24c0
00000390: 4d31 3bbf af0a c2bf 7f10 1b40 9286 3340
000003a0: 96bc 2abf 20a1 27bf 847f 1e3f f240 e13f
000003b0: 0b34 b73f 442e ff3f 79cf 27bd 2c22 db3d
000003c0: 68c9 2fbf 09e5 6a3f 9c12 7b3f df6e e0bd
000003d0: f714 e5be e2d0 04bf 3600 523d 051e 9cbf
000003e0: 690a 9f3f fd84 c4bf 439a 71be f308 b3bf
000003f0: 8aad bc3f f3d6 b5c0 fb31 0440 7a32 22c0

bias f4 [256]
1.2251855 0.41072062 -0.25563106 -2.1162486 1.3554326 -1.4934165 4.649307 -1.143009
0.6687023 1.2745615 1.6357127 2.393247 1.8576531 -2.2472827 1.0889081 -2.6040323
0.7706243 6.751987 -5.82384 1.5056779 -2.1333666 -0.08944756 -0.9264991 0.9646278
-1.5130345 0.78964704 -0.050427333 0.55757785 2.0867097 -3.3207266 -1.2302163 -5.143374
1.8305979 -1.8379352 3.4876995 -4.1800766 -1.0110645 1.332451 -1.6880196 -1.3992244
0.7515946 -1.949963 1.0431123 0.3906778 -1.659667 -1.7740644 -3.7038336 0.6674112
5.373559 4.076325 1.9691546 -3.935745 -0.06337089 -1.59393 3.8119032 0.888472
-2.2528677 -1.4287186 1.9028192 0.19652535 0.898142 -2.5701997 4.5602636 6.38034
-0.85349184 3.0306756 -3.3904512 -0.891665 -3.1745248 -4.3098345 -3.4773698 3.9347205
2.7473118 -1.3447504 0.7503444 -1.4292113 0.010721261 -4.5762763 -1.5112654 -3.3806813
0.4625781 -2.3469572 -2.1158714 1.9434959 -3.013071 0.223655 -2.0332532 -0.10837255
1.2925348 -1.2208009 1.1123211 2.6073103 1.9214011 2.2582746 -1.8434322 -2.1751559
5.817734 0.5573119 6.9603868 2.2011626 1.8959404 -0.5062679 -2.1246393 4.2480035
1.2202318 -2.0315244 -3.152392 1.3206143 0.26109865 1.0178872 -2.2099783 -3.5077293
-1.7792252 0.17002392 6.622789 -0.44977278 2.389344 1.9512908 -2.625339 -4.4226155
-3.6099744 1.4156305 -3.6717486 -3.4182632 -4.4138374 1.66438 0.6861526 -3.9255388
1.7745618 0.87454563 -3.3160613 1.977207 -3.6587813 -0.47858068 -1.6619287 2.0044003
-2.0642269 -0.7333038 -3.169752 3.2994633 1.5127572 -1.2403452 1.7343308 1.4142402
-0.8099427 1.3251733 -1.4377561 -0.61657816 -0.046029355 -0.9033995 -1.1417434 2.566109
1.7128918 0.2078253 3.7861485 -2.211574 4.5359755 2.5237672 3.8347676 0.14016445
-1.6151263 -2.9094384 -0.58658165 1.5823562 -2.6769793 -4.328683 -1.706944 -0.33239478
-1.358599 5.4809456 1.896882 -2.402379 0.26376724 -2.4344265 -1.5985603 2.2394233
-4.534349 1.0334064 4.2197647 2.5512004 -3.0246487 -2.4700258 -0.51094043 -1.7932673
1.322528 0.52433723 -1.4768766 -2.0971513 -0.12978694 -1.9662396 1.4551473 -2.8579142
-0.74426013 -4.243666 2.57444 0.006632812 2.9309297 7.069679 -4.0328875 0.3145195
2.9031765 3.4479074 -1.9237959 6.740495 2.434589 -4.366682 1.0369972 0.78441787
-0.43921205 2.4277155 -1.9439658 1.0334296 6.4910965 5.7731395 -1.1245112 -1.8342043
2.292145 1.0165247 -2.7891345 -2.195113 1.5903189 -3.036558 -5.138105 -0.29617405
1.194703 3.3677807 -2.4530244 -5.3486485 2.8664782 0.24125622 0.30298918 -1.345689
0.10712037 -1.3486738 -2.6842241 -4.9693866 2.7782302 -3.6315434 -2.6756005 3.9284
-1.6132145 1.1401143 -1.4003615 -4.0045104 4.965836 0.88438535 4.0423064 -0.3249851
1.2666603 3.9984307 0.095500626 3.3433626 3.9034584 2.2347775 -2.4303794 0.68810254
00000000: e1d2 9c3f f949 d23e 13e2 82be 9e70 07c0
00000010: d17e ad3f 4628 bfbf 1fc7 9440 1e4e 92bf
00000020: 1330 2b3f d524 a33f 095f d13f f52a 1940
00000030: 94c7 ed3f 7bd3 0fc0 5761 8b3f 77a8 26c0
00000040: a247 453f 4710 d840 e65c bac0 0eba c03f
00000050: 1489 08c0 4830 b7bd 0c2f 6dbf d9f1 763f
00000060: 1dab c1bf 4f26 4a3f e48c 4ebd 6cbd 0e3f
00000070: a78c 0540 c986 54c0 ba77 9dbf 8596 a4c0
00000080: 0851 ea3f 7641 ebbf 7836 5f40 30c3 85c0
00000090: 906a 81bf c18d aa3f 0711 d8bf c919 b3bf
000000a0: 8168 403f 6398 f9bf b484 853f ec06 c83e
000000b0: f86f d4bf 8b14 e3bf 9c0b 6dc0 76db 2a3f
000000c0: 32f4 ab40 4171 8240 420d fc3f 3fe3 7bc0
000000d0: 99c8 81bd e605 ccbf 39f6 7340 e772 633f
000000e0: fc2e 10c0 40e0 b6bf 948f f33f f13d 493e
000000f0: a2ec 653f 277e 24c0 aeed 9140 bf2b cc40
00000100: 717e 5abf 97f6 4140 27fd 58c0 2844 64bf
00000110: 6a2b 4bc0 2aea 89c0 3a8d 5ec0 76d2 7b40
00000120: f5d3 2f40 c820 acbf 9216 403f 65f0 b6bf
00000130: 3aa8 2f3c db70 92c0 2571 c1bf 155d 58c0
00000140: 09d7 ec3e 8c34 16c0 706a 07c0 79c4 f83f
00000150: 28d6 40c0 d105 653e d220 02c0 6df2 ddbd
00000160: c871 a53f 3443 9cbf 8a60 8e3f 2cde 2640
00000170: 79f0 f53f 9287 1040 96f5 ebbf c135 0bc0
00000180: e02a ba40 feab 0e3f 7dbb de40 d9df 0c40
00000190: 2dae f23f c69a 01bf 17fa 07c0 a5ef 8740
000001a0: 8e30 9c3f 7f04 02c0 cac0 49c0 e409 a93f
000001b0: b9ae 853e 214a 823f 4970 0dc0 a37e 60c0
000001c0: a7bd e3bf c01a 2e3e e3ed d340 9e48 e6be
000001d0: 03eb 1840 e6c3 f93f 8e05 28c0 1186 8dc0
000001e0: d209 67c0 6133 b53f eefd 6ac0 d3c4 5ac0
000001f0: 283e 8dc0 670a d53f b2a7 2f3f 073c 7bc0
00000200: d724 e33f 39e2 5f3f 593a 54c0 1e15 fd3f
00000210: 7929 6ac0 8708 f5be 14ba d4bf 1848 0040
00000220: 4b1c 04c0 ccb9 3bbf 37dd 4ac0 682a 5340
00000230: 07a2 c13f a2c3 9ebf 8dfe dd3f d305 b53f
00000240: 6858 4fbf 479f a93f 6408 b8bf 11d8 1dbf
00000250: 4789 3cbd 3145 67bf a624 92bf 213b 2440
00000260: 0a40 db3f 28d0 543e 4250 7240 6e8a 0dc0
00000270: b626 9140 6785 2140 d56c 7540 4587 0f3e
00000280: 75bc cebf 3d34 3ac0 372a 16bf a68a ca3f
00000290: a153 2bc0 9284 8ac0 247d dabf a62f aabe
000002a0: 92e6 adbf e863 af40 08cd f23f 94c0 19c0
000002b0: 800c 873e a5cd 1bc0 a09d ccbf b652 0f40
000002c0: 6319 91c0 a946 843f 5008 8740 de46 2340
000002d0: d893 41c0 e714 1ec0 fecc 02bf c889 e5bf
000002e0: 9948 a93f f73a 063f 4b0a bdbf ba37 06c0
000002f0: dee6 04be bdad fbbf 4442 ba3f 11e8 36c0
00000300: d587 3ebf 1dcc 87c0 a0c3 2440 0f58 d93b
00000310: 5a94 3b40 cf3a e240 6a0d 81c0 b308 a13e
00000320: a5cd 3940 84aa 5c40 f23e f6bf 23b2 d740
00000330: 4ed0 1b40 dcbb 8bc0 53bc 843f 9ccf 483f
00000340: 67e0 e0be b15f 1b40 dfd3 f8bf 6c47 843f
00000350: 10b7 cf40 8fbd b840 fcef 8fbf 35c7 eabf
00000360: 81b2 1240 7b1d 823f 2e81 32c0 bb7c 0cc0
00000370: 928f cb3f f756 42c0 5b6b a4c0 20a4 97be
00000380: 07ec 983f b889 5740 5afe 1cc0 2128 abc0
00000390: 6174 3740 df0b 773e 6621 9b3e 8a3f acbf
000003a0: ed61 db3d 58a1 acbf 54ca 2bc0 3705 9fc0
000003b0: 86ce 3140 356b 68c0 0a3d 2bc0 e86a 7b40
000003c0: d07d cebf 44ef 913f 0c3f b3bf f324 80c0
000003d0: 21e8 9e40 1467 623f 935a 8140 7264 a6be
000003e0: ed21 a23f 4ae6 7f40 d595 c33d a7f9 5540
000003f0: 43d2 7940 9806 0f40 568b 1bc0 7d27 303f

weight f4 [256, 256]
-0.4885958 0.274434 -0.47675288 0.5610898 0.505875 -1.294279 -0.67383146 0.6772341
0.6671413 -0.37037003 -0.71659726 -0.025587779 0.06524185 -1.2294823 0.2283184 -0.25630695
-0.36732015 -0.70382994 1.0120902 -1.2023484 1.1040363 -1.4742719 1.1256025 -0.22726746
-0.41897085 -1.485447 0.058388762 0.26196727 0.9340049 2.6037846 -0.5020654 1.3508673
-2.0591395 0.53478116 0.2126242 1.3037931 -0.5247985 0.34676847 1.327737 -0.7491925
-2.0107875 -0.39770785 0.64328337 -1.6634148 0.16127017 0.28851286 -0.93199956 0.30235058
-0.6800916 -1.4745525 -0.8754315 1.1584636 -0.5713377 -2.0593414 -0.24432883 -0.33492464
-0.30881894 -0.99904484 0.011914759 -2.0498238 0.9055172 1.9649867 -0.35621664 -0.46567872
0.30887073 0.15081 1.4546133 0.41100565 0.80075645 1.510435 2.0271857 -0.2711935
0.9322685 1.4374747 -0.065809496 1.4696683 -2.131047 1.063774 1.6090472 0.43076983
-2.8162487 -0.35724476 0.6713309 -1.7684313 0.73625386 -0.81873107 -0.107487574 0.062016316
-0.7865392 2.313631 -0.25143042 0.7361969 -0.9080787 -1.1289266 -0.55325454 -0.67216134
-0.4777759 0.31512272 -0.8161643 0.52303225 0.933041 -3.8071067 1.7023935 -0.45801568
-1.4229509 0.8006282 0.7738898 0.010574788 -0.8550146 -0.06250098 -0.25112408 1.1381339
-1.3376864 -1.7018605 -1.2916527 -0.40322223 0.42647433 0.33378598 0.6941498 1.7408702
-1.3820698 0.21384646 0.26050618 1.8561231 0.9058174 -0.7750324 0.40167198 1.418355
-1.0787368 -0.42015976 3.8297753 0.7231391 0.19889413 0.14972396 0.26201117 -0.47730297
-0.10735395 0.19440156 -0.9005357 -0.855165 1.4674951 -1.5628698 -1.2882038 -0.3048551
0.39050892 -0.5863596 -0.5602966 0.46810326 0.19373095 0.76952934 -1.6535995 -0.31321114
0.26769695 -0.17115101 -2.6843183 1.332586 -0.33268848 -0.9283569 -2.3074987 -2.2854373
1.2045763 -0.45157093 -0.89297426 0.006070679 3.9984124 5.0181413 0.5710405 -0.6340174
1.1910775 0.7533295 -0.39053643 2.6571894 0.058873266 -0.5266645 1.2859563 0.14658965
0.9659165 0.023520598 -0.0052019767 -0.49704134 0.39529926 0.4053155 0.0028142647 0.3701864
-0.24391922 0.44865036 -0.6679383 -0.29019246 -0.6940684 -0.055125866 -0.7451561 2.6541283
1.3096325 0.6420607 -2.7494214 -0.047889344 0.64589655 -1.055313 0.26729548 -0.9063047
-0.159 -0.7451678 1.4095219 -0.63431007 -0.123277456 0.55760485 0.16721967 -0.29592973
-0.15386479 -0.03040544 -0.88644594 -1.2048146 -0.52506024 0.2647528 0.2466684 -0.3389869
-0.8271126 -0.9531778 -2.2875066 1.2068219 -0.46189418 0.22276364 1.045475 -0.07204458
-0.35648865 -0.399039 -0.576188 2.1756508 -0.52486277 -0.6943352 -0.34113407 -0.38081032
-0.33219412 -0.934871 0.4746949 1.7364705 0.6292167 1.9181737 0.60633427 -0.29496878
2.0533707 0.74530226 -0.31620678 1.2256509 -1.0464808 -0.33642253 0.3167429 -1.390181
-2.2823396 -1.2012885 -0.2354384 -0.7735395 -0.9637624 -0.5382047 -0.5414039 -0.74941593
00000000: 3b29 fabe 9d82 8c3e f418 f4be 95a3 0f3f
00000010: 0681 013f efaa a5bf 3880 2cbf 375f 2d3f
00000020: c6c9 2a3f 24a1 bdbe eb72 37bf 769d d1bc
00000030: 859d 853d ad5f 9dbf 4ccc 693e aa3a 83be
00000040: 6311 bcbe 332e 34bf 2c8c 813f 8de6 99bf
00000050: 1051 8d3f f1b4 bcbf be13 903f cdb8 68be
00000060: 5983 d6be 2123 bebf 0e29 6f3d 9320 863e
00000070: f21a 6f3f 68a4 2640 5c87 00bf 38e9 ac3f
00000080: f1c8 03c0 6be7 083f 29ba 593e b1e2 a63f
00000090: 3259 06bf a38b b13e 49f3 a93f 14cb 3fbf
000000a0: beb0 00c0 5da0 cbbe 38ae 243f c7ea d4bf
000000b0: 0224 253e f5b7 933e 8697 6ebf b2cd 9a3e
000000c0: 7c1a 2ebf 23be bcbf 471c 60bf 8948 943f
000000d0: 3043 12bf 40cc 03c0 5631 7abe 3e7b abbe
000000e0: 841d 9ebe 67c1 7fbf 1f36 433c 5030 03c0
000000f0: facf 673f af84 fb3f 0762 b6be 716d eebe
00000100: 4e24 9e3e f06d 1a3e c530 ba3f 556f d23e
00000110: 60fe 4c3f ef55 c13f 69bd 0140 e0d9 8abe
00000120: 26a9 6e3f 2cff b73f 21c7 86bd 171e bc3f
00000130: 1363 08c0 bf29 883f 42f5 cd3f dd8d dc3e
00000140: 6b3d 34c0 c9e8 b6be 58dc 2b3f f55b e2bf
00000150: 227b 3c3f 5c98 51bf 7222 dcbd d204 7e3d
00000160: a25a 49bf 8812 1440 7dbb 80be 6677 3c3f
00000170: d877 68bf ab80 90bf 17a2 0dbf c412 2cbf
00000180: 0b9f f4be c457 a13e 25f0 50bf 71e5 053f
00000190: c6db 6e3f a3a7 73c0 08e8 d93f 0881 eabe
000001a0: 4123 b6bf f8f5 4c3f a41d 463f e041 2d3c
000001b0: 3de2 5abf 8400 80bd 5693 80be 5fae 913f
000001c0: 4f39 abbf 91d6 d9bf e054 a5bf 2573 cebe
000001d0: d85a da3e ffe5 aa3e cdb3 313f d6d4 de3f
000001e0: aae7 b0bf 91fa 5a3e 1161 853e 7195 ed3f
000001f0: a6e3 673f 8668 46bf f3a7 cd3e a88c b53f
00000200: 0c14 8abf 2e1f d7be 0a1b 7540 a51f 393f
00000210: e7aa 4b3e 3d51 193e 5426 863e 0e61 f4be
00000220: 63dc dbbd 3411 473e 8289 66bf 18ec 5abf
00000230: e1d6 bb3f 1e0c c8bf dde3 a4bf f815 9cbe
00000240: c9f0 c73e aa1b 16bf 996f 0fbf 3bab ef3e
00000250: 6861 463e e0ff 443f 26a9 d3bf 365d a0be
00000260: 930f 893e 3642 2fbe dfcb 2bc0 2e92 aa3f
00000270: 2556 aabe cca8 6dbf 0fae 13c0 9b44 12c0
00000280: 8e2f 9a3f 4e34 e7be f699 64bf 8cec c63b
00000290: fde5 7f40 9d94 a040 b62f 123f f74e 22bf
000002a0: 3a75 983f 34da 403f 64f4 c7be 640f 2a40
000002b0: 1825 713d 7cd3 06bf 379a a43f 991b 163e
000002c0: 4e46 773f 45ae c03c 5875 aabb 347c febe
000002d0: aa64 ca3e 8385 cf3e 876f 383b 1289 bd3e
000002e0: f6c5 79be 80b5 e53e 01fe 2abf 1b94 94be
000002f0: 77ae 31bf a9cb 61bd 8dc2 3ebf 3ddd 2940
00000300: 0aa2 a73f 175e 243f 85f6 2fc0 9e27 44bd
00000310: 7a59 253f 7f14 87bf f4da 883e 9603 68bf
00000320: e5d0 22be 51c3 3ebf 376b b43f 2562 22bf
00000330: e478 fcbd 31bf 0e3f a23b 2b3e 1a84 97be
00000340: bb8e 1dbe d414 f9bc 1fee 62bf 5d37 9abf
00000350: 596a 06bf ae8d 873e a496 7c3e b18f adbe
00000360: a7bd 53bf 7603 74bf 8266 12c0 2479 9a3f
00000370: 657d ecbe 271c 643e 20d2 853f 1c8c 93bd
00000380: ae85 b6be d74e ccbe 0f81 13bf dd3d 0b40
00000390: 685d 06bf f4bf 31bf 20a9 aebe 92f9 c2be
000003a0: 5915 aabe b553 6fbf 360b f33e aa44 de3f
000003b0: 5814 213f b786 f53f b938 1b3f 2606 97be
000003c0: 6d6a 0340 21cc 3e3f dbe5 a1be 21e2 9c3f
000003d0: 15f3 85bf 933f acbe 202c a23e 73f1 b1bf
000003e0: da11 12c0 d2c3 99bf c416 71be af06 46bf
000003f0: 22b9 76bf c9c7 09bf 7299 0abf b9d9 3fbf
