data/TD3_D2RL/Hopper-v2/TD3_D2RL_s15006/pyt_save/model.pt (torch_old, 882650 bytes, 16 tensors)

weight f4 [256, 11]
-1.3344412 2.8112004 -0.26061863 0.36001986 -1.2047123 -0.55483466 -0.9567811 0.58552825
-0.5492726 -0.26391023 0.39895788 -0.8571316 -1.153407 2.5021555 -0.06795358 0.7647457
-2.1338835 0.18355173 0.11179446 0.037103444 0.90567034 -0.20100419 -0.2741159 -7.8244257
2.4432445 0.96777016 -0.8076258 -0.2266087 -0.1827589 0.015909836 -0.12536095 -0.17618887
-0.24831045 -2.0486293 -1.5144994 2.0839412 -0.8876259 1.723585 0.05157301 0.03260827
-0.61259377 0.48415762 -0.0011005802 -0.2683886 -0.048100956 -2.9080102 -1.44902 1.9640349
1.3873979 -1.7961327 2.5041673 0.3193165 -0.30485168 0.08467959 0.029563595 -1.2278292
-0.16046895 -0.5521279 -2.1720476 1.464169 0.79342216 0.03067301 -0.5788946 0.4606219
-0.12425308 0.07014408 -1.2962209 1.5707947 -0.5223676 1.1937317 -0.2394825 -0.4676672
-1.6271269 -0.3670409 0.21519364 0.10683113 0.14134936 -0.08315782 3.974445 1.7270151
-1.686233 -2.367842 -1.060647 -0.9450395 0.031320944 -0.46404988 -0.004755684 0.12592094
0.036353298 2.442945 2.3571897 0.2806842 -1.0875276 -0.32091495 1.2310055 0.8235953
-0.52387273 -0.061276324 -0.17792805 0.9936694 -2.2015653 0.79333854 0.9901194 0.9325901
-1.3861822 0.8442263 0.38589075 -0.3156037 -0.033250935 0.21381614 0.39623109 0.42096445
1.4267392 0.6127709 -2.3676496 -0.84338164 -1.2758207 0.0967962 0.47679946 0.2089538
-0.24055201 0.29270965 -0.5087648 -1.1421902 -1.4963313 0.66053987 -1.6182044 -0.13410954
0.6444199 -0.65260357 -0.10340551 -0.210396 1.1129358 -1.4516221 3.330829 1.6676203
1.9340367 -1.0613757 -0.9417512 0.22406064 0.051810507 0.04209211 -0.107707776 -2.4225721
-3.156909 -0.016154196 -0.3132836 0.5283642 0.01763263 -1.0031368 -0.40456694 0.2581127
0.26336998 -0.2380611 0.1387711 0.4438603 5.149716 -0.1978574 1.8979691 -0.88105655
-0.62568384 0.529734 -0.26672804 -0.48572472 -0.37494025 0.17674065 2.2296405 1.3794097
1.8441154 2.8000965 -0.0898623 0.56772965 0.8682021 -0.64244956 -0.30353728 -0.034047246
-1.4683137 2.8212101 -0.9909471 0.4808989 1.6521016 0.57541823 0.20055248 0.32216007
-0.26841295 -0.12127166 0.44071305 -0.63851523 1.5358931 -2.6404572 -0.30272955 0.054654468
-0.5820155 2.001008 -0.4558517 -0.20637675 0.052116375 0.25615692 -1.4878178 1.9026233
1.2310656 -0.8702525 0.96658915 0.023749722 1.7204008 0.039226443 0.14599158 -0.12399101
0.3843895 -0.7138353 -4.6344547 0.16527794 -1.9629871 -0.05675687 -1.9900758 -0.12737365
-0.34248772 0.3302682 -0.5307697 0.12938912 0.21852823 -7.16955 -1.8683994 1.8934199
0.57976824 -0.462063 -0.03298277 -0.83620346 0.19657078 0.09736164 0.31020367 -0.444806
0.7748205 0.40979105 0.97404367 -0.25247347 -1.4512607 0.54332054 0.83375376 0.38543662
0.43309027 0.031225994 -0.7386138 -1.2310381 -0.48471874 -0.1977411 0.48538828 -0.30563694
0.26763356 0.07978315 -0.07935625 0.09946717 -0.044988506 -0.06941465 7.628178 0.69510233
00000000: f8ce aabf b5ea 3340 ce6f 85be 8654 b83e
00000010: 0334 9abf a509 0ebf 9bef 74bf 2ee5 153f
00000020: 219d 0cbf 3e1f 87be 3544 cc3e fa6c 5bbf
00000030: d7a2 93bf 5123 2040 3f2b 8bbd 60c6 433f
00000040: 8c91 08c0 fcf4 3b3e 7ef4 e43d c8f9 173d
00000050: 03da 673f 0bd4 4dbe eb58 8cbe b261 fac0
00000060: 1e5e 1c40 c9bf 773f 90c0 4ebf 1c0c 68be
00000070: 2625 3bbe 5855 823c 9f5e 00be db6a 34be
00000080: 1845 7ebe be1c 03c0 1edb c1bf 4b5f 0540
00000090: 733b 63bf 6f9e dc3f 383e 533d 4090 053d
000000a0: f2d2 1cbf 82e3 f73e 5841 90ba 3b6a 89be
000000b0: 8205 45bd d71c 3ac0 7d79 b9bf 7f65 fb3f
000000c0: 4196 b13f ade7 e5bf 4744 2040 747d a33e
000000d0: 8515 9cbe 7e6c ad3d 5a2f f23c 8229 9dbf
000000e0: f951 24be 4158 0dbf d402 0bc0 e469 bb3f
000000f0: b71d 4b3f f745 fb3c 7032 14bf a2d6 eb3e
00000100: 6678 febd b3a7 8f3d 91ea a5bf cd0f c93f
00000110: e2b9 05bf 33cc 983f e73a 75be 1372 efbe
00000120: b245 d0bf c9ec bbbe b95b 5c3e 48ca da3d
00000130: e3bd 103e a64e aabd 4f5d 7e40 d50e dd3f
00000140: 7cd6 d7bf b98a 17c0 48c3 87bf 1cee 71bf
00000150: 644a 003d f297 edbe 92d5 9bbb 6bf1 003e
00000160: 32e7 143d 3659 1c40 32dc 1640 d7b5 8f3e
00000170: 1b34 8bbf f74e a4be 9791 9d3f 24d7 523f
00000180: 861c 06bf e2fc 7abd c532 36be 1e61 7e3f
00000190: 72e6 0cc0 3c18 4b3f 7778 7d3f 3abe 6e3f
000001a0: 6b6e b1bf 371f 583f 7993 c53e cf96 a1be
000001b0: 2232 08bd 9ef2 5a3e cdde ca3e a788 d73e
000001c0: 649f b63f 8ede 1c3f 9287 17c0 dce7 57bf
000001d0: 184e a3bf 163d c63d 0f1f f43e fcf7 553e
000001e0: 4453 76be 0ade 953e 693e 02bf 4a33 92bf
000001f0: c987 bfbf 2419 293f 5221 cfbf 0354 09be
00000200: b4f8 243f 0711 27bf 45c6 d3bd 0d72 57be
00000210: ae74 8e3f c1ce b9bf 4d2c 5540 9574 d53f
00000220: 848e f73f 29db 87bf 9b16 71bf 2770 653e
00000230: 4137 543d c768 2c3d e595 dcbd 6c0b 1bc0
00000240: cc0a 4ac0 ce55 84bc b566 a0be e042 073f
00000250: 4e72 903c c966 80bf 6623 cfbe 5927 843e
00000260: 6ed8 863e 4ac6 73be 031a 0e3e a841 e33e
00000270: 79ca a440 219b 4abe a7f0 f23f ec8c 61bf
00000280: d12c 20bf a69c 073f 9490 88be e9b0 f8be
00000290: 2bf8 bfbe 80fb 343e 6eb2 0e40 7f90 b03f
000002a0: f90b ec3f c834 3340 ba09 b8bd bb56 113f
000002b0: 7e42 5e3f 9377 24bf 3d69 9bbe 2075 0bbd
000002c0: b4f1 bbbf b58e 3440 b6ae 7dbf 6138 f63e
000002d0: 1178 d33f 9c4e 133f a15d 4d3e 2af2 a43e
000002e0: 6c6d 89be 475d f8bd 24a5 e13e bc75 23bf
000002f0: 2598 c43f 40fd 28c0 5eff 9abe 5ddd 5f3d
00000300: f8fe 14bf 8410 0040 6565 e9be 6d54 53be
00000310: fb77 553d 0027 833e d070 bebf 2989 f33f
00000320: 8f93 9d3f dec8 5ebf 6372 773f c78e c23c
00000330: 1836 dc3f e8ab 203d d17e 153e 00ef fdbd
00000340: b3ce c43e e9bd 36bf 744d 94c0 9f3e 293e
00000350: 2943 fbbf e479 68bd ceba febf 3d6e 02be
00000360: 8d5a afbe ea18 a93e 86e0 07bf 957e 043e
00000370: ddc5 5f3e f46c e5c0 b627 efbf 955b f23f
00000380: b16b 143f 8693 ecbe f118 07bd 6e11 56bf
00000390: da49 493e 8a65 c73d 04d3 9e3e 9dbd e3be
000003a0: a35a 463f 22d0 d13e ed5a 793f 3444 81be
000003b0: e9c2 b9bf 0e17 0b3f e370 553f f357 c53e
000003c0: 02be dd3e a8cd ff3c cb15 3dbf a892 9dbf
000003d0: 0e2d f8be a57c 4abe d084 f83e 727c 9cbe
000003e0: 4407 893e 5965 a33d 8885 a2bd 72b5 cb3d
000003f0: de45 38bd 4529 8ebd 091a f440 3af2 313f

bias f4 [256]
-0.921156 -0.5885099 -0.42003375 0.6121436 -0.03179154 -1.314474 -0.56179583 0.23397195
-0.4345176 0.8569648 0.25638875 -0.8608019 0.0067989384 -0.10676162 -0.4420733 -0.66626865
-1.7245961 -0.42492783 -0.86423755 -0.45395386 -1.0366299 -0.07702322 -0.81075025 -0.43512166
-0.08210292 0.4577837 -0.37468967 0.1518686 -0.08164046 0.25156584 -0.8523173 -1.2322874
-1.4979695 1.440804 -0.16657503 -0.00042634594 -1.4960878 0.2597543 0.39239272 -0.9814197
-0.50894296 -1.3645679 -0.4535079 0.49314994 0.27472132 -0.51322573 0.15316139 0.515901
0.31588033 -0.7981474 0.23270124 -0.2107414 -0.8845098 -1.6760117 -0.4045786 -0.5348362
-0.29426017 -1.7310307 -0.30630612 -0.27799925 0.44351298 0.3490785 -0.70904124 0.04064698
-0.681531 0.7895899 -0.64305544 0.15392493 -0.49318644 -0.6869272 -0.9339366 -0.49681354
1.1432103 0.16982326 -0.9610048 -0.22862828 -0.97810817 -0.37818444 -0.78206277 -0.68949026
-0.2679084 -1.2112218 -0.79574543 -0.9500211 -0.43587652 -1.424336 -0.61467046 -0.83356017
-0.105016515 -0.6435164 -0.13346659 -0.69108045 -0.87112194 -0.5914033 -0.9148584 0.1505704
-0.015755886 -1.9780405 -0.70228475 -1.1694145 -0.6364247 -0.8223413 -0.5736895 -1.094056
0.44550598 0.039408367 -0.8797348 -0.44703412 -0.5549781 -0.14857945 -0.007823276 0.007490258
0.8004657 -1.4135278 -0.7418362 -0.3981664 -0.18591738 0.050912492 -0.7214413 0.92991096
0.35849512 -1.7372221 0.4108117 -0.5040768 -0.9516806 0.3948645 0.4839349 -2.3601637
-0.21067435 -1.0396322 -0.7696255 -0.77720815 -0.017480085 -0.91852945 -0.55788517 -0.49389493
-1.2894957 0.2640711 -1.5016222 0.6145937 -0.96732116 -0.099393144 -1.5596838 0.109182626
-0.6521802 -0.54839873 -1.1141748 1.0251284 -0.9500734 -1.3303359 0.8044304 -0.42455512
0.52918464 -0.44327503 -0.030606909 -0.87228036 0.37397105 -1.057806 -0.8894961 -0.27778876
-0.755713 -1.064371 -0.6084394 -0.6895959 -0.2530173 -0.7125772 -0.6914717 -1.0958935
-1.6330141 -1.0833391 -1.1483476 -0.20524685 -0.2667596 -1.4227436 0.14237818 0.40271762
-0.59513855 -0.4232296 -0.3563749 -0.622778 -0.5693166 -0.18914908 0.5764863 0.2511183
-1.4043711 0.8289159 -0.9914014 -1.3657732 -0.047724206 -2.1986973 -1.3603084 -0.72292453
0.099553525 -0.7149819 -0.34159765 -1.0348785 -0.058030345 -1.4225473 -1.2967124 1.1867192
0.5348328 -2.7016158 -0.7773792 -0.4227668 -0.4905937 -0.8241196 -0.62110394 -0.5025956
-0.1691019 1.429836 -0.6442983 -0.08879635 -0.17405339 0.3441471 1.3181913 -0.6401501
0.6141509 0.41904822 -1.562201 -0.1412388 -0.26866886 -1.0568423 -0.5793033 -0.41280264
-0.9195527 0.49601236 -0.94392717 -0.9596652 -2.3322031 -0.030477367 0.24749263 -1.4495388
-0.4825824 -1.2666292 0.6758168 -0.8769195 -0.5450806 0.25806832 -0.59792584 -0.13710895
0.111295775 -1.4403809 0.354235 -0.54844683 -1.1159108 0.8282756 -0.9463574 0.2006503
-1.1271447 -0.54978603 -0.8292675 -0.29797432 -0.8461294 -0.30185664 -0.8612402 -1.6601235
00000000: e1d0 6bbf 96a8 16bf aa0e d7be 71b5 1c3f
00000010: d937 02bd af40 a8bf dad1 0fbf 5896 6f3e
00000020: 1779 debe 0c62 5b3f 6345 833e 835d 5cbf
00000030: a1c9 de3b d6a5 dabd 6e57 e2be 9590 2abf
00000040: 91bf dcbf 2490 d9be ac3e 5dbf a46c e8be
00000050: 4ab0 84bf 5abe 9dbd 548d 4fbf 44c8 debe
00000060: 9325 a8bd a062 ea3e 53d7 bfbe 7183 1b3e
00000070: 1d33 a7bd 3dcd 803e 7731 5abf 98bb 9dbf
00000080: 77bd bfbf 446c b83f a592 2abe 2f87 dfb9
00000090: ce7f bfbf 84fe 843e b3e7 c83e 523e 7bbf
000000a0: 164a 02bf 29aa aebf 3032 e8be 267e fc3e
000000b0: 46a8 8c3e c362 03bf 57d6 1c3e 1712 043f
000000c0: 11bb a13e 6353 4cbf 3c49 6e3e 98cc 57be
000000d0: 3c6f 62bf 8d87 d6bf ed24 cfbe 06eb 08bf
000000e0: 45a9 96be 6a92 ddbf 28d4 9cbe eb55 8ebe
000000f0: 2214 e33e 6bba b23e ba83 35bf 737d 263d
00000100: d178 2ebf 9022 4a3f 489f 24bf 7f9e 1d3e
00000110: ef82 fcbe 76da 2fbf 7816 6fbf 585e febe
00000120: b754 923f 26e6 2d3e 6904 76bf 881d 6abe
00000130: 4c65 7abf 64a1 c1be 4435 48bf 6f82 30bf
00000140: 4a2b 89be 5109 9bbf f9b5 4bbf 9534 73bf
00000150: 352b dfbe a450 b6bf 0b5b 1dbf 3364 55bf
00000160: e612 d7bd 7ebd 24bf 77ab 08be a6ea 30bf
00000170: d901 5fbf 3566 17bf 2934 6abf 202f 1a3e
00000180: 7d12 81bc 6e30 fdbf efc8 33bf 60af 95bf
00000190: bbec 22bf f684 52bf 51dd 12bf 070a 8cbf
000001a0: 5c19 e43e ab6a 213d 4d36 61bf a8e1 e4be
000001b0: 0b13 0ebf 3625 18be 332d 00bc d770 f53b
000001c0: 52eb 4c3f 7bee b4bf fae8 3dbf 77dc cbbe
000001d0: 2061 3ebe 9e89 503d 61b0 38bf a50e 6e3f
000001e0: ac8c b73e 4b5d debf e955 d23e 2d0b 01bf
000001f0: 57a1 73bf ae2b ca3e 51c6 f73e ec0c 17c0
00000200: 04bb 57be ab12 85bf 2d06 45bf 1df7 46bf
00000210: 6532 8fbc bf24 6bbf 90d1 0ebf ccdf fcbe
00000220: 320e a5bf 5434 873e 2835 c0bf 0356 1d3f
00000230: 5ca2 77bf a28e cbbd b8a3 c7bf 249b df3d
00000240: 48f5 26bf dc63 0cbf 489d 8ebf 6837 833f
00000250: 0338 73bf 7248 aabf 27ef 4d3f 4a5f d9be
00000260: a578 073f f2f4 e2be 57bb fabc c44d 5fbf
00000270: 2279 bf3e 3066 87bf 04b6 63bf 543a 8ebe
00000280: 6876 41bf 4f3d 88bf afc2 1bbf 5b89 30bf
00000290: 7c8b 81be 766b 36bf 4a04 31bf 3d46 8cbf
000002a0: 9b06 d1bf dbaa 8abf 0efd 92bf 3b2c 52be
000002b0: b794 88be 761c b6bf 96cb 113e 0131 ce3e
000002c0: 005b 18bf 8db1 d8be c576 b6be 616e 1fbf
000002d0: bcbe 11bf 4cb0 41be 9b94 133f 9492 803e
000002e0: 6fc2 b3bf d533 543f 7bcc 7dbf a8d1 aebf
000002f0: 757a 43bd 75b7 0cc0 961e aebf 9511 39bf
00000300: b8e2 cb3d 0e09 37bf e3e5 aebe e676 84bf
00000310: 3ab1 6dbd 0816 b6bf acfa a5bf 6ae6 973f
00000320: cdea 083f 46e7 2cc0 5302 47bf e474 d8be
00000330: 192f fbbe 81f9 52bf ab00 1fbf 1baa 00bf
00000340: 0c29 2dbe de04 b73f bcf0 24bf dcda b5bd
00000350: 0d3b 32be 0c34 b03e 7eba a83f e1e0 23bf
00000360: fe38 1d3f 7d8d d63e 34f6 c7bf e7a0 10be
00000370: f78e 89be 9c46 87bf 394d 14bf de5a d3be
00000380: ce67 6bbf 55f5 fd3e 36a5 71bf 9eac 75bf
00000390: d142 15c0 acab f9bc b56e 7d3e 7d8a b9bf
000003a0: 0a15 f7be e820 a2bf 5402 2d3f cc7d 60bf
000003b0: 678a 0bbf 8821 843e ab11 19bf 4a66 0cbe
000003c0: 0aef e33d 675e b8bf 4a5e b53e 0367 0cbf
000003d0: 2ad6 8ebf df09 543f 7b44 72bf 4677 4d3e
000003e0: 4746 90bf c7be 0cbf e04a 54bf 1790 98be
000003f0: f09b 58bf f48c 9abe 3d7a 5cbf ed7e d4bf

weight f4 [256, 267]
-0.013025742 0.0007635585 -0.03505278 -0.057363637 -0.047520626 -0.035141703 -0.06764729 -0.05629653
-0.057581592 -0.059541013 0.013319691 0.03091736 -0.0022014715 0.023976985 -0.05552438 -0.020071479
-0.0113698095 -0.051758476 -0.09221907 0.11195466 -0.034386247 -0.05271214 -0.018004678 -0.06041499
0.02715852 0.011292226 -0.075587176 -0.03392886 -0.12882054 -0.029565178 0.037855323 0.045246754
-0.05431634 -0.042810645 -0.009001777 -0.067781374 -0.0601262 -0.07138765 -0.06618801 0.0019689447
0.02453329 -0.06561544 -0.024384623 -0.027639236 -0.024200138 -0.07390073 0.036945 -0.041958645
-0.06685674 0.009902717 -0.14232235 -0.18283032 0.02334404 0.011926779 -0.05912967 -0.054812536
0.0014689334 -0.0041247066 -0.115451336 -0.008111031 -0.05763204 -0.050668437 0.0056901663 -0.1156312
0.007533293 -0.011461215 -0.09378224 -0.032101955 -0.04954447 -0.07080778 -0.03578388 0.042606704
0.04302205 -0.06642076 0.018498743 -0.06734074 -0.04476371 0.042348184 -0.08512825 0.004336617
-0.030040914 0.016711095 -0.08038795 0.014496644 -0.07716248 -0.06717332 0.017269202 -0.09028396
-0.15357988 0.008941023 -0.051699925 -0.026061581 -0.02989901 -0.014499391 -0.07219136 0.037398204
0.033337057 0.016072443 0.006811901 -0.08961351 -0.04877605 0.03632249 -0.044802148 -0.11243163
-0.087870285 -0.046974532 -0.021375025 -0.03845244 -0.054332346 -0.0267062 -0.06825705 -0.06634372
0.004988267 0.040024668 -0.19760437 -0.068102 -0.027245525 0.018507194 -0.016882595 -0.02840728
-0.029496416 -0.03531371 -0.061557326 0.0018757393 -0.16310889 0.043403357 -0.05597505 -0.06991919
-0.06529791 -0.052244015 -0.09803419 -0.052537724 0.005977719 -0.065505736 -0.13031174 -7.837804e-05
-0.105107896 -0.119951494 -0.101464234 0.009594041 -0.1271902 -0.07148616 -0.00020263178 -0.025829038
-0.04369795 -0.0015162552 -0.11553554 -0.017019993 -0.07063599 0.042376038 -0.038323548 0.034003504
-0.11231694 0.011040233 0.016533507 -0.088337384 -0.04934291 -0.013979167 -0.09022774 -0.03914335
0.03895894 -0.025029538 -0.03629857 0.0155408755 -0.11339211 -0.014017793 -0.022863021 -0.01290024
-0.047602627 0.0062079797 -0.002733189 -0.0536054 0.0070048016 -0.047979623 -0.013740288 -0.1352532
-0.06457284 0.025982026 -0.020287065 -0.089272164 -0.07063349 0.05553179 -0.026569182 0.030068109
-0.043301202 -0.016466396 -0.07471491 -0.0009374963 -0.045706175 -0.058720283 0.04538107 0.026214153
-0.02927134 0.012849171 -0.058783248 -0.087614104 -0.07314629 -0.032087073 -0.06327771 -0.009519936
-0.054000176 -0.017046083 -0.11206338 0.03484087 0.04818099 0.033033986 -0.07504367 -0.0916084
-0.05596194 -0.05385485 0.019715514 -0.03561984 -0.06319342 0.022488933 -0.05175307 -0.041129827
-0.055201583 -0.10404492 -0.023951376 0.04681425 0.00659462 -0.020701861 -0.029910585 -0.054003023
0.0058331327 -0.054253895 -0.07072835 0.0036757607 0.01676329 0.013921061 -0.07165627 0.00831495
-0.034740992 0.046700783 -0.035451718 -0.019776804 -0.17646265 -0.09639765 0.05104508 -0.015417926
-0.0005807793 -0.076958835 -0.14753324 0.0330458 -0.048107896 -0.049946483 -0.1298999 -0.11382272
-0.038616322 -0.09849002 -0.030999469 -0.07262338 -0.049375806 0.019133784 0.005584102 -0.02284861
00000000: ec69 55bc 8b29 483a 8193 0fbd 22f6 6abd
00000010: fda4 42bd bff0 0fbd aa8a 8abd 3197 66bd
00000020: adda 6bbd 47e1 73bd d53a 5a3c 6746 fd3c
00000030: 9046 10bb 626b c43c 886d 63bd f16c a4bc
00000040: 7048 3abc b200 54bd 5add bcbd 7c48 e53d
00000050: 98d8 0cbd afe8 57bd 8c7e 93bc b575 77bd
00000060: 8b7b de3c 0703 393c 73cd 9abd fdf8 0abd
00000070: 88e9 03be ac32 f2bc 2f0e 1b3d a954 393d
00000080: cf7a 5ebd 375a 2fbd 307c 13bc f6d0 8abd
00000090: e446 76bd b033 92bd 948d 87bd 6909 013b
000000a0: 0afa c83c 6361 86bd 43c2 c7bc ae6b e2bc
000000b0: 5e3f c6bc 4459 97bd a453 173d d4dc 2bbd
000000c0: 30ec 88bd 013f 223c f3bc 11be df37 3bbe
000000d0: 003c bf3c 8968 433c f431 72bd 1c83 60bd
000000e0: 3a89 c03a 8c28 87bb c071 ecbd 21e4 04bc
000000f0: 930f 6cbd b589 4fbd 9374 ba3b 0dd0 ecbd
00000100: d8d9 f63b d2c7 3bbc e710 c0bd 577d 03bd
00000110: 24ef 4abd ab03 91bd 1e92 12bd 5e84 2e3d
00000120: e437 303d 9b07 88bd ad8a 973c f1e9 89bd
00000130: 275a 37bd 4a75 2d3d b857 aebd 2e1a 8e3b
00000140: 5d18 f6bc b5e5 883c 70a2 a4bd 5583 6d3c
00000150: 5d07 9ebd 2a92 89bd 2478 8d3c cce6 b8bd
00000160: 0b44 1dbe 5e7d 123c 4dc3 53bd 197f d5bc
00000170: c5ee f4bc db8e 6dbc 10d9 93bd dc2e 193d
00000180: 708c 083d 5baa 833c 5e36 df3b 4a87 b7bd
00000190: 65c9 47bd e4c6 143d 7582 37bd 8e42 e6bd
000001a0: 56f5 b3bd 5e68 40bd ad1a afbc 4e80 1dbd
000001b0: 988b 5ebd f6c6 dabc 5aca 8bbd 37df 87bd
000001c0: 9e74 a33b e8f0 233d cd58 4abe 1079 8bbd
000001d0: 0232 dfbc 669c 973c 5e4d 8abc 62b6 e8bc
000001e0: 78a2 f1bc 1ca5 10bd 8923 7cbd 5edb f53a
000001f0: 0406 27be b8c7 313d 1846 65bd cb31 8fbd
00000200: e9ba 85bd d2fd 55bd 26c6 c8bd cc31 57bd
00000210: bee0 c33b df27 86bd 7170 05be e45e a4b8
00000220: cf42 d7bd 21a9 f5bd 7bcc cfbd 5330 1d3c
00000230: 263e 02be 5667 92bd 8e79 54b9 6b97 d3bc
00000240: 9ffc 32bd 15bd c6ba e69d ecbd 836d 8bbc
00000250: 9aa9 90bd 7f92 2d3d 27f9 1cbd 4247 0b3d
00000260: 6d06 e6bd 18e2 343c 4771 873c 3bea b4bd
00000270: cb1b 4abd e008 65bc 52c9 b8bd c754 20bd
00000280: 6993 1f3d bf0a cdbc cfad 14bd 289f 7e3c
00000290: 1f3a e8bd e3aa 65bc 3b4b bbbc 875b 53bc
000002a0: f9fa 42bd 4f6c cb3b 4d1f 33bb 5691 5bbd
000002b0: 8988 e53b 4886 44bd f21e 61bc d17f 0abe
000002c0: c43e 84bd 42d8 d43c 0f31 a6bc 53d4 b6bd
000002d0: 4ba8 90bd 4d75 633d 9da7 d9bc 6551 f63c
000002e0: 9a5c 31bd 89e4 86bc 2104 99bd 50c2 75ba
000002f0: 6636 3bbd ae84 70bd 80e1 393d 10bf d63c
00000300: 73ca efbc 5485 523c b4c6 70bd 066f b3bd
00000310: b9cd 95bd bc6d 03bd be97 81bd 81f9 1bbc
00000320: 4a2f 5dbd 3aa4 8bbc 7c81 e5bd 4db5 0e3d
00000330: 6e59 453d a54e 073d 7fb0 99bd 2f9d bbbd
00000340: 5938 65bd e796 5cbd 6e82 a13c 1ce6 11bd
00000350: 8d6b 81bd b63a b83c 07fb 53bd c077 28bd
00000360: 0e1b 62bd 8115 d5bd ad35 c4bc 4dc0 3f3d
00000370: af17 d83b f396 a9bc 0b07 f5bc 4632 5dbd
00000380: dd23 bf3b 5539 5ebd 06da 90bd 08e5 703b
00000390: 2b53 893c 2915 643c 86c0 92bd 6e3b 083c
000003a0: 924c 0ebd 5249 3f3d d235 11bd f702 a2bc
000003b0: a0b2 34be 226c c5bd a514 513d 789b 7cbc
000003c0: 703f 18ba 989c 9dbd f412 17be 085b 073d
000003d0: c90c 45bd af94 4cbd 7b04 05be e31b e9bd
000003e0: 262c 1ebd 23b5 c9bd 99f2 fdbc 91bb 94bd
000003f0: 493e 4abd 74be 9c3c d8fa b63b 022d bbbc

bias f4 [256]
-0.060555436 -0.012055716 -0.039867617 0.7771755 -0.04701887 -0.062119022 -0.54101545 0.67435175
-0.550201 -0.4364469 -0.123550124 0.35310316 0.36995754 -1.2860965 0.37930626 -1.292435
-0.36876684 0.079268835 -0.016366318 -0.12271721 0.00033414966 0.5451464 -0.090840794 -0.32658988
-0.9448971 -1.4733202 -0.07599257 -0.09092404 -0.10513295 -0.06555327 -0.13433118 -0.08564913
-0.081096515 -0.01443663 -1.0648675 0.7678666 -0.1495171 -1.0373768 -0.40569684 -1.2816997
-0.124602124 -0.14687473 -0.1432415 -0.74501276 -0.13149434 -0.34583068 0.009741966 -0.36975762
-0.64800775 -0.036068507 -0.076330185 -0.34278986 -0.2736822 -0.5255528 -0.12992561 0.0034595004
-0.093871206 -0.038314946 -0.19119945 -0.38288692 -0.043719675 -0.0024257943 -0.52037024 -0.8005081
0.040569298 -0.46030185 -0.08839434 -0.034651663 0.9907947 -0.35077965 -1.7850448 -0.05611754
-0.37505808 -0.048755176 -0.5274567 -0.16043144 -0.09646213 -0.004688137 -0.20978087 -0.82635194
-0.42342788 -0.012842636 -2.1244147 -0.07710979 -1.8608963 -0.04042443 -0.07568608 -0.057328485
-0.09221258 -0.008143388 -0.15429273 -1.7036486 -0.33285615 -0.93002766 -0.10802942 -1.2421299
-1.1312083 -0.68093824 -0.008617834 -0.10895367 -0.6019442 -0.072592065 -0.8536411 0.10078121
-0.1005588 -1.665689 -0.06792839 -1.5342822 -1.0660616 -1.2339566 -0.25686678 -1.1992465
-0.04340516 -0.063481085 -1.183702 -0.014072069 -0.07913127 -0.17926268 -0.1312371 -0.17299317
-0.23554377 -0.13235155 -0.15143768 -0.23554753 -0.67678297 -0.0716103 -0.12518607 0.3832314
0.0123572005 0.68569285 -0.3644182 -0.10387158 -0.81691766 -0.05538311 -0.6595044 -0.75922465
-0.028434379 -0.23628059 -0.3623672 0.003356989 -0.07322155 -0.1147279 -0.7912081 -1.7902547
-0.13736625 0.7495459 -0.4825798 -0.052276414 -0.048909348 -0.3514728 -0.06543608 0.5407635
-0.43218285 -0.16053246 -0.13000491 -0.86294764 -0.10305277 -0.63722426 -0.10570965 -0.25787407
1.1852977 0.16340595 -0.11554011 -0.055191014 -0.01728995 -0.08955067 -0.64614445 -0.19818391
-0.88498175 -1.4416366 -0.5592857 -0.121471904 -0.10072461 -0.3184144 -0.29482695 -1.8384628
-0.67725027 -0.24065632 -0.10479051 -0.09507906 -0.12449412 -0.46169513 -0.060183503 -0.085770704
-0.12214416 0.739347 -0.8870167 -0.024009842 -0.13385582 -0.09846181 -0.2892389 -0.07620612
-0.08526742 -1.5444522 -0.44721976 -0.97772366 -0.09952879 -0.016137557 -0.030595312 0.00935865
0.28526184 -2.0805979 -0.6429866 -0.039589863 -0.029127585 -0.026619382 -0.7245144 -0.07529086
-0.65563804 -0.059427857 -0.913355 -0.08996619 -0.0855949 0.25284284 -0.08067815 -0.096568696
0.019113228 -0.74376523 -0.034886587 -1.0660762 -0.031869084 -0.115787566 -0.44652748 -0.059464373
-0.058852125 -0.0128238825 -0.1392769 -0.5311132 -0.35201985 -0.37730744 -0.0805814 -0.21183854
-0.14158416 -0.8688605 -0.14507736 -0.38871232 -0.022270432 -0.038848545 -0.24180134 -0.17034063
-0.018650103 -0.107294865 -0.048058007 0.25622672 -0.61538005 -0.07619816 -0.7223192 -0.18776776
-1.211756 -1.0034558 -0.0031970618 -0.025998218 -0.10138586 -0.10927371 -1.0380328 -0.6688192
00000000: fa08 78bd 5685 45bc 3a4c 23bd f9f4 463f
00000010: dc96 40bd 8470 7ebd fd7f 0abf 51a2 2c3f
00000020: f9d9 0cbf f875 dfbe d907 fdbd f0c9 b43e
00000030: 136b bd3e cf9e a4bf 6e34 c23e 836e a5bf
00000040: 02cf bcbe b357 a23d a812 86bc 2953 fbbd
00000050: cf30 af39 b78e 0b3f bd0a babd ca36 a7be
00000060: c7e4 71bf c295 bcbf fea1 9bbd 6236 babd
00000070: f24f d7bd cb40 86bd 1d8e 09be d068 afbd
00000080: ee15 a6bd 9d87 6cbc 944d 88bf e892 443f
00000090: 031b 19be c3c8 84bf 7fb7 cfbe bc0e a4bf
000000a0: 662f ffbd 5466 16be e6ad 12be 28b9 3ebf
000000b0: 74a6 06be b810 b1be c49c 1f3c df50 bdbe
000000c0: d6e3 25bf 92bc 13bd 0053 9cbd 2782 afbe
000000d0: 1320 8cbe a18a 06bf 380b 05be c9b8 623b
000000e0: 8c3f c0bd 22f0 1cbd cac9 43be c109 c4be
000000f0: 6713 33bd 13fa 1ebb fc36 05bf 19ee 4cbf
00000100: fe2b 263d afac ebbe 1708 b5bd e7ee 0dbd
00000110: b9a4 7d3f 6499 b3be 597c e4bf 81db 65bd
00000120: 9d07 c0be 82b3 47bd 6707 07bf 2448 24be
00000130: f08d c5bd f29e 99bb ccd0 56be cd8b 53bf
00000140: 8acb d8be eb69 52bc 69f6 07c0 bdeb 9dbd
00000150: da31 eebf 1694 25bd 4e01 9bbd 46d1 6abd
00000160: f3d9 bcbd d86b 05bc eafe 1dbe 2811 dabf
00000170: 1f6c aabe 4b16 6ebf 873e ddbd 1dfe 9ebf
00000180: 6fcb 90bf f851 2ebf d131 0dbc 1a23 dfbd
00000190: 0419 1abf 26ab 94bd 3988 5abf 6166 ce3d
000001a0: c6f1 cdbd 4c35 d5bf 0a1e 8bbd 5c63 c4bf
000001b0: b574 88bf 4af2 9dbf 0b84 83be e980 99bf
000001c0: 9cc9 31bd 5f02 82bd 8c83 97bf 898e 66bc
000001d0: 930f a2bd a390 37be 0563 06be 1f25 31be
000001e0: 6332 71be 2a87 07be 7b12 1bbe 5f33 71be
000001f0: a641 2dbf 6ca8 92bd c730 00be e836 c43e
00000200: db75 4a3c 9189 2f3f 0695 babe 9fba d4bd
00000210: 8421 51bf 66d9 62bd 48d5 28bf 8c5c 42bf
00000220: 37ef e8bc 8af3 71be 3288 b9be ee00 5c3b
00000230: 2ef5 95bd 76f6 eabd 9d8c 4abf 1127 e5bf
00000240: bda9 0cbe 3de2 3f3f b314 f7be cb1f 56bd
00000250: 2b55 48bd 3ef4 b3be 5a03 86bd 7a6f 0a3f
00000260: 1247 ddbe 9f62 24be 0220 05be 23ea 5cbf
00000270: 550d d3bd 2121 23bf 4d7e d8bd 1208 84be
00000280: d6b7 973f e453 273e 4ba0 ecbd f90f 62bd
00000290: a7a3 8dbc 5766 b7bd b969 25bf b9f0 4abe
000002a0: 2a8e 62bf 8c87 b8bf 592d 0fbf 43c6 f8bd
000002b0: b448 cebd 3607 a3be 8ff3 96be c052 ebbf
000002c0: 4660 2dbf 9c6e 76be 689c d6bd cfb8 c2bd
000002d0: c6f6 febd 4e63 ecbe fa82 76bd 8da8 afbd
000002e0: b826 fabd d845 3d3f 8713 63bf 4ab0 c4bc
000002f0: 8011 09be 58a6 c9bd 1f17 94be f411 9cbd
00000300: afa0 aebd 9cb0 c5bf fdf9 e4be 194c 7abf
00000310: c0d5 cbbd e932 84bc 05a3 fabc 0655 193c
00000320: d70d 923e 8428 05c0 c59a 24bf fb28 22bd
00000330: f99c eebc e410 dabc c779 39bf 1832 9abd
00000340: e5d7 27bf a06a 73bd a2d1 69bf 3240 b8bd
00000350: 614c afbd 9e74 813e 963a a5bd cfc5 c5bd
00000360: 5893 9c3c 6667 3ebf 3de5 0ebd 2f75 88bf
00000370: 2889 02bd 0822 edbd 409f e4be ea90 73bd
00000380: ed0e 71bd 431b 52bc 9b9e 0ebe 09f7 07bf
00000390: f23b b4be 712e c1be dc07 a5bd 34ec 58be
000003a0: 70fb 10be a46d 5ebf 298f 14be 4d05 c7be
000003b0: 7b70 b6bc a71f 1fbd c59a 77be c66d 2ebe
000003c0: 1ac8 98bc 69bd dbbd 79d8 44bd 2630 833e
000003d0: 8c89 1dbf c80d 9cbd e9e9 38bf 3146 40be
000003e0: d21a 9bbf 3d71 80bf cc85 51bb 37fa d4bc
000003f0: 64a3 cfbd e5ca dfbd 42de 84bf bc37 2bbf

weight f4 [3, 267]
0.0167219 0.035579234 0.002138278 -0.099171706 0.041753795 -0.03681594 1.8344713 -0.1569481
-0.05022675 0.11674452 -0.11652232 0.13148299 0.29285708 -0.16613254 0.23701943 0.027454471
-0.5933829 -0.18222794 -0.08467209 0.65075123 1.2548146 0.019416194 -0.036516022 -0.014995167
0.038161606 -0.28514305 -0.011361009 0.027256327 -0.021403305 -0.025875317 1.7961682 0.030762311
0.013678262 0.108777836 0.06732517 0.07108673 0.0060780677 0.24455924 0.06292365 0.40939572
-0.0007306751 0.021320198 -0.005936229 -0.22828202 0.02365439 -0.15620066 0.0065471157 0.023943305
0.008641571 0.005308329 -0.011753218 -0.25214818 -0.073113084 0.15658894 0.018696202 -0.099562876
-0.028203718 0.03290329 0.013105341 -1.2209492 -0.0054426217 -0.07593796 -0.20158279 0.3304499
-0.029579971 0.32927823 0.8172893 -0.00073608296 0.2567234 0.15133394 1.1159581 0.0032269652
0.2679086 0.008458856 0.56650305 0.0046108295 0.0032775518 -0.003981465 -0.04760485 -0.037794832
0.06546035 0.03380582 0.03990596 0.017476814 1.6276598 0.016054396 -0.47182 0.024917316
0.009573315 0.037943732 0.04764082 0.034069937 -0.15610231 0.041923758 -0.01092421 -1.1577488
-0.24882668 0.67615116 -0.04332485 -0.060453597 -0.006081683 0.035980836 0.42420918 -0.33802977
-0.033153314 0.6440359 0.027687132 0.20143011 0.09760963 0.12115909 0.27448744 -0.10869658
0.024277814 0.010676507 -0.26416337 0.007398596 -0.008887858 0.011472382 -0.012672456 0.08402983
-0.043965153 -0.057353053 -0.15369959 -0.40190524 1.1362512 -0.012419232 -0.018868256 -0.04356759
-0.08548037 -0.09851755 1.8163109 0.057365034 0.1768818 0.068762146 0.40668833 -0.15920663
-0.016160522 -0.24512506 -1.0466704 -0.011022336 0.0040966375 -0.012073795 -0.24644545 -0.3102135
0.05544311 0.084536135 0.5166036 -0.008150124 -0.009515453 -0.26458222 0.011623076 0.5590138
0.3558374 -0.6879855 0.044259842 -0.42693037 0.032720875 -0.48244175 0.03305912 0.10307322
-0.14668207 2.5269349 -0.054247625 0.04516915 -0.0017741789 -0.044022467 0.41418147 -0.03953082
-0.027388385 0.0559128 -0.03170171 -0.009366687 0.0042076493 0.22737151 0.4010376 -0.28267288
0.18406408 -0.10338663 -0.033650633 0.017740991 -0.123392425 0.88732463 -0.052440546 -0.0032278355
0.03158264 -0.099660166 -0.1333648 0.02164743 0.04414101 0.7625733 0.18794572 -0.0061615775
-0.020185553 0.0029959937 -0.20037764 0.12471994 -0.0820525 0.023136495 0.009137196 -0.006291069
-1.1344954 -0.04834983 2.1287282 0.0044054305 -0.0028082754 0.021997312 -0.15686962 -0.054636374
0.4905577 -0.018736225 0.7518931 -0.0076279845 0.01274039 0.1813653 0.009479868 0.023554001
0.007320618 0.14270611 -0.014216604 0.03384285 -0.018650007 -0.01327794 -0.24186671 -0.027245581
0.015988622 0.48030558 0.07623081 -0.26008558 -0.20473918 0.07841013 0.24396227 -0.22282341
-0.046151068 -0.2118832 0.020199062 0.27060404 0.0046358234 0.01909748 0.07603589 0.02708895
0.7936624 -0.120893344 -0.015743982 -0.16218387 0.18547946 0.017778147 0.5638716 0.49837136
0.09401192 0.063575976 -0.039851397 -0.009379736 0.053854886 -0.03121516 0.12026696 0.0013319096
00000000: 5efc 883c 88bb 113d 5a22 0c3b 891a cbbd
00000010: 0706 2b3d 50cc 16bd f5cf ea3f 01b7 20be
00000020: 91ba 4dbd c017 ef3d 41a3 eebd 7aa3 063e
00000030: 5df1 953e a61e 2abe 39b5 723e 33e8 e03c
00000040: f1e7 17bf f699 3abe 9068 adbd a297 263f
00000050: c49d a03f b60e 9f3c d391 15bd 4aae 75bc
00000060: 584f 1c3d 45fe 91be 8723 3abc a948 df3c
00000070: fc55 afbc 79f8 d3bc d7e8 e53f 3e01 fc3c
00000080: ca1a 603c eac6 de3d c7e1 893d eb95 913d
00000090: 872a c73b bd6d 7a3e 1dde 803d 519c d13e
000000a0: c78a 3fba b2a7 ae3c b384 c2bb c3c2 69be
000000b0: dac6 c13c 11f3 1fbe 3089 d63b c024 c43c
000000c0: 6095 0d3c 7ef1 ad3b 9290 40bc 9119 81be
000000d0: 50bc 95bd da58 203e c728 993c 9fe7 cbbd
000000e0: 7c0b e7bc 9ac5 063d c9b7 563c 1048 9cbf
000000f0: 0558 b2bb 5c85 9bbd b86b 4ebe bb30 a93e
00000100: b251 f2bc 2897 a83e df39 513f b1f5 40ba
00000110: 4071 833e 49f7 1a3e b7d7 8e3f 7e7b 533b
00000120: 512b 893e 0397 0a3c 5806 113f 7116 973b
00000130: 32cc 563b f376 82bb 4efd 42bd c1ce 1abd
00000140: 1310 863d f977 0a3d 6f74 233d 892b 8f3c
00000150: 2857 d03f 8284 833c 6492 f1be 661f cc3c
00000160: 65d9 1c3c e36a 1b3d 0523 433d eb8c 0b3d
00000170: 49d9 1fbe 3fb8 2b3d 75fb 32bc 1d31 94bf
00000180: 6ccc 7ebe 3e18 2d3f 6675 31bd 319e 77bd
00000190: db48 c7bb a460 133d f231 d93e 3d12 adbe
000001a0: c5cb 07bd 89df 243f 20d0 e23c b243 4e3e
000001b0: 8fe7 c73d 4222 f83d 9e89 8c3e 509c debd
000001c0: 44e2 c63c 84ec 2e3c 6c40 87be ec6f f23b
000001d0: 619e 11bc a8f6 3b3c 22a0 4fbc d517 ac3d
000001e0: ce14 34bd 09eb 6abd 6d63 1dbe 86c6 cdbe
000001f0: ae70 913f 097a 4bbc 9a91 9abc ee73 32bd
00000200: 5510 afbd 92c3 c9bd e07c e83f 99f7 6a3d
00000210: 8120 353e 2bd3 8c3d 7439 d03e 1007 23be
00000220: 1263 84bc 1002 7bbe 4cf9 85bf 0797 34bc
00000230: 163d 863b 2bd1 45bc 325c 7cbe 4ed4 9ebe
00000240: 5118 633d 4821 ad3d 2240 043f 1988 05bc
00000250: b4e6 1bbc 5277 87be b76e 3e3c 871b 0f3f
00000260: 5230 b63e d11f 30bf cf49 353d 9e96 dabe
00000270: 5306 063d 9b02 f7be 0069 073d 0d18 d33d
00000280: d333 16be 4db9 2140 c232 5ebd 4903 393d
00000290: 918b e8ba e750 34bd 980f d43e 12eb 21bd
000002a0: 9b5d e0bc d204 653d a7d9 01bd bc76 19bc
000002b0: 52e0 893b 14d4 683e cd54 cd3e 80ba 90be
000002c0: 4b7b 3c3e 5fbc d3bd 3fd5 09bd 8e55 913c
000002d0: 2bb5 fcbd b527 633f e6cb 56bd 188a 53bb
000002e0: cc5c 013d a11a ccbd c890 08be f355 b13c
000002f0: 34cd 343d 0138 433f d874 403e 0fe7 c9bb
00000300: 2c5c a5bc 6f58 443b cc2f 4dbe 2b6d ff3d
00000310: 240b a8bd bf88 bd3c 2db4 153c 5025 cebb
00000320: 2537 91bf 790a 46bd 153d 0840 6e5b 903b
00000330: 0b0b 38bb b533 b43c 6ea2 20be 64ca 5fbd
00000340: 612a fb3e b67c 99bc 117c 403f 2cf4 f9bb
00000350: 12bd 503c d3b7 393e 7351 1b3c 52f4 c03c
00000360: cbe1 ef3b 8d21 123e c2ec 68bc cd9e 0a3d
00000370: e6c7 98bc b88b 59bc e8ab 77be 2032 dfbc
00000380: 92fa 823c 9dea f53e e61e 9c3d f029 85be
00000390: 26a7 51be 7e95 a03d 3fd1 793e d22b 64be
000003a0: e708 3dbd e9f7 58be 8178 a53c 9d8c 8a3e
000003b0: 1be8 973b 5272 9c3c b4b8 9b3d a5e9 dd3c
000003c0: 762d 4b3f ee96 f7bd 86f9 80bc 8713 26be
000003d0: 54ee 3d3e 7aa3 913c e459 103f 882a ff3e
000003e0: 5289 c03d 1f34 823d 383b 23bd 77ad 19bc
000003f0: f196 5c3d efb6 ffbc 864e f63d 7893 ae3a

bias f4 [3]
-0.7255031 -0.48151895 0.13648975
00000000: 92ba 39bf a789 f6be f8c3 0b3e

weight f4 [256, 14]
-0.59625906 2.5701628 -3.5275285 1.1379489 0.953391 -1.1107488 1.8959057 1.0431184
-0.5651912 -0.27338776 -0.088112526 -0.005240253 -0.07640961 -0.08553293 -1.01442 2.5036643
-0.58732235 -0.7246565 0.18552867 -1.0977585 0.4969384 0.02909744 -0.82993376 0.115701
0.4632792 -0.3265715 -0.1326545 -0.8570764 0.98426473 4.4484644 1.4858987 2.6709101
-1.1604666 -0.2884345 0.43122715 0.4180249 -0.2327613 -0.20789252 -0.04991655 0.64565927
0.21992338 0.05748123 0.83573353 1.9145737 -1.2615873 -1.9061714 -3.74202 0.15325867
-0.0801835 -0.7624226 0.6774614 0.40440616 -0.024907194 -0.058108762 0.01705671 -0.08901419
-0.16757755 1.9740988 1.222984 5.9696364 1.3925692 -0.37373087 0.72346306 0.878863
-0.67944986 -0.1681658 -0.30450532 0.22791179 0.14485578 -0.31988552 -0.006005309 1.933057
-0.5300038 -0.7357359 -0.295413 -0.41828385 0.85553414 1.356077 -0.6301016 0.45413378
0.2890836 -0.5170106 -1.4527478 0.8562638 -1.2793462 3.160247 2.8344464 -1.3026676
-2.5967722 -0.13576135 -1.2747289 0.682413 -0.38579926 0.24481297 0.048653014 0.12172883
0.22230314 0.08829768 -0.93454975 -1.7398769 1.5245334 0.24162741 1.0757316 -0.051931143
2.8599904 0.015951088 -0.2615404 0.2915883 0.44272956 -0.469829 0.446495 0.66838926
-0.6724501 -6.912921 -0.6755472 1.9377532 -0.6433458 0.47565275 0.7386352 0.12436789
-0.4813226 -0.013122511 -0.011166236 0.4178078 -0.36695057 0.5950124 0.26115173 3.7660716
1.1943666 0.31090805 0.51104295 -0.7694049 0.30865186 -0.6180528 0.061197296 0.3305331
0.2616921 -1.1804653 -0.05126573 0.08091115 -1.5197201 -2.206314 -1.1307583 -0.18062161
2.98528 -2.1202278 -0.5316862 -0.6249524 1.0425324 -0.14540422 -0.103369094 0.67996585
-0.39908567 -0.04128009 -1.0381202 4.839625 -1.4696937 -0.032423418 0.5003942 0.0903738
-0.49143407 1.0492015 -0.68443483 -0.07723236 0.39549726 0.03115102 0.48207998 0.24985656
-2.8115978 2.68649 0.3783222 2.4761088 -0.8198954 0.9442216 -0.7740969 -1.568999
1.2370523 0.27367693 0.062406186 -0.02669425 -0.2424244 -0.04551919 -0.55771834 5.786244
1.0381281 -2.4780905 -0.24887407 -0.17774555 -1.5831399 0.45533603 -0.5298643 -0.07660465
0.09989238 0.53506225 -0.064293616 0.042232107 0.24531494 4.169352 -1.835353 4.0506682
-1.2203544 -0.40498936 0.9135504 0.562938 -0.45608494 -0.13818003 0.43031007 0.7436136
-0.40196282 -0.3769848 0.52585846 -7.214154 2.980934 0.10983873 1.436619 -1.1984044
-0.4930757 0.39320043 -0.20280987 -0.17815056 -0.36576253 -0.06475838 -0.15576665 -0.16318876
0.20816831 -8.480029 1.4301993 2.7211115 -0.32523295 -0.036718987 -0.09052066 0.056833968
0.03135242 -0.030352194 -0.14177424 0.047669593 0.019892903 -0.24618423 1.497657 6.219897
-2.307571 -2.0880518 -0.23354416 -0.37186953 -0.3280111 0.6813929 -0.48944485 -0.26568043
-0.027461957 0.010068408 -0.0739643 -0.019328538 -0.14896463 -2.3291965 6.237162 5.3741436
00000000: 6fa4 18bf 8c7d 2440 07c3 61c0 4fa8 913f
00000010: 6f11 743f 042d 8ebf 0aad f23f e784 853f
00000020: 5fb0 10bf 7bf9 8bbe 5774 b4bd 6eb6 abbb
00000030: a47c 9cbd e42b afbd 84d8 81bf 093c 2040
00000040: c25a 16bf 1783 39bf 3afb 3d3e 5a83 8cbf
00000050: b66e fe3e c15d ee3c 8a76 54bf a5f4 ec3d
00000060: ee32 ed3e 6134 a7be 95d6 07be 5c69 5bbf
00000070: c6f8 7b3f d259 8e40 ee31 be3f 31f0 2a40
00000080: 2b8a 94bf b0ad 93be cec9 dc3e 5c07 d63e
00000090: fa58 6ebe c7e1 54be 4c75 4cbd ed49 253f
000000a0: 9833 613e 7071 6b3d a2f2 553f c010 f53f
000000b0: b17b a1bf 6dfd f3bf 417d 6fc0 d7ef 1c3e
000000c0: 3f37 a4bd 212e 43bf 1c6e 2d3f 530e cf3e
000000d0: 2c0a ccbc 7403 6ebd 83ba 8b3c 124d b6bd
000000e0: 7399 2bbe 45af fc3f bd8a 9c3f 4307 bf40
000000f0: b53f b23f a759 bfbe e034 393f 2afd 603f
00000100: 6df0 2dbf a833 2cbe 1fe8 9bbe b561 693e
00000110: 1355 143e 09c8 a3be 2fc8 c4bb 696e f73f
00000120: 54ae 07bf 3059 3cbf 5f40 97be 4d29 d6be
00000130: 4904 5b3f ee93 ad3f 574e 21bf 3984 e83e
00000140: c402 943e cf5a 04bf a4f3 b9bf 1b34 5b3f
00000150: 9ec1 a3bf 7d41 4a40 9267 3540 d0bd a6bf
00000160: 8431 26c0 0605 0bbe 512a a3bf 9eb2 2e3f
00000170: 7b87 c5be 40b0 7a3e 6248 473d f74c f93d
00000180: 6fa3 633e 6ad5 b43d a73e 6fbf 49b4 debf
00000190: e923 c33f 2d6d 773e 93b1 893f c0b5 54bd
000001a0: 150a 3740 dbab 823c a0e8 85be 104b 953e
000001b0: 73ad e23e 6d8d f0be fe9a e43e 8f1b 2b3f
000001c0: b125 2cbf a636 ddc0 a9f0 2cbf 4c08 f83f
000001d0: 4fb2 24bf c288 f33e 3217 3d3f 98b4 fe3d
000001e0: ea6f f6be cdff 56bc 97f2 36bc e7ea d53e
000001f0: f2e0 bbbe bc52 183f aeb5 853e 5107 7140
00000200: 01e1 983f 572f 9f3e b6d3 023f b8f7 44bf
00000210: 9e07 9e3e b538 1ebf 04aa 7a3d a23b a93e
00000220: 82fc 853e 7d19 97bf 04fc 51bd bfb4 a53d
00000230: 3086 c2bf 4034 0dc0 b0bc 90bf dff4 38be
00000240: d40e 3f40 d0b1 07c0 961c 08bf e1fc 1fbf
00000250: b471 853f d8e4 14be 2db3 d3bd 3e12 2e3f
00000260: f554 ccbe 5015 29bd 1fe1 84bf 35de 9a40
00000270: ec1e bcbf 6bce 04bd d619 003f e615 b93d
00000280: 3f9d fbbe 3c4c 863f 1f37 2fbf 002c 9ebd
00000290: 9e7e ca3e 6d30 ff3c 30d3 f63e 66da 7f3e
000002a0: 38f1 33c0 74ef 2b40 73b3 c13e 9178 1e40
000002b0: aae4 51bf 82b8 713f 372b 46bf f6d4 c8bf
000002c0: bb57 9e3f 621f 8c3e a19d 7f3d e6ad dabc
000002d0: 1a3e 78be 5572 3abd a1c6 0ebf e928 b940
000002e0: 62e1 843f 0999 1ec0 d8d8 7ebe ee02 36be
000002f0: 54a4 cabf ce21 e93e 30a5 07bf e6e2 9cbd
00000300: 6094 cc3d d7f9 083f 5fac 83bd 93fb 2c3d
00000310: d733 7b3e 556b 8540 d9ec eabf 139f 8140
00000320: 9334 9cbf c45a cfbe 70de 693f b41c 103f
00000330: f783 e9be 117f 0dbe 9a51 dc3e 765d 3e3f
00000340: 12ce cdbe 2704 c1be a99e 063f 59da e6c0
00000350: 9fc7 3e40 21f3 e03d 22e3 b73f 5165 99bf
00000360: 6b74 fcbe 9151 c93e 64ad 4fbe 1a6d 36be
00000370: 3a45 bbbe 0ba0 84bd 4b81 1fbe f41a 27be
00000380: 132a 553e 33ae 07c1 c510 b73f b126 2e40
00000390: ef84 a6be a666 16bd e562 b9bd bcca 683d
000003a0: 656b 003d 2aa5 f8bc 442d 11be 3141 433d
000003b0: 71f6 a23c b817 7cbe 39b3 bf3f 6509 c740
000003c0: 3eaf 13c0 a4a2 05c0 3326 6fbe af65 bebe
000003d0: 12f1 a7be c46f 2e3f 8498 fabe 4407 88be
000003e0: e6f7 e0bc f7f5 243c 987a 97bd e256 9ebc
000003f0: 2f8a 18be 8e11 15c0 d596 c740 fcf8 ab40

bias f4 [256]
0.3913165 -0.72861326 0.93988854 -2.510541 -0.8783288 0.120363414 -0.930677 -0.91003114
-0.5245076 0.079712376 -1.5056813 -0.6077076 -0.25736716 1.1410712 -0.091618046 -1.487549
0.13093202 -2.0646293 -0.38184503 2.3363483 -0.1865316 0.76155245 -0.02680384 2.071189
1.2530628 -0.70773375 0.6851326 2.3410318 0.9538209 0.6549087 -0.69310474 1.631538
1.9538697 0.89107287 -1.6059521 -0.24287663 -2.003875 -0.72585726 -0.41483256 -0.6295418
-0.12544426 0.07251982 0.36094373 -1.7978121 -2.132361 -0.6708313 0.6569356 -0.45430228
-1.0838128 -1.009017 0.20029552 -1.8427919 -0.39087954 -0.6304699 -1.8848792 -0.40874958
-0.5191191 -0.56764275 1.3110969 -0.71321106 -1.3995639 1.1582055 -0.8559777 -1.3986105
-1.3229206 -0.31114718 -0.31787387 -0.14625663 0.14889082 -1.3456131 -0.67145973 -1.1204015
-1.5407171 -1.411905 -1.6304576 0.1660975 2.0786836 0.4019492 -0.6817863 1.0072116
-2.1774058 -0.39676616 -0.45959616 -2.6714976 0.98673284 1.3548326 -2.8321104 -0.4685342
0.41036233 -0.17523728 -0.09077525 -0.05182549 -0.9395815 -0.105245695 2.0388577 0.25546086
1.0880344 1.8373306 -0.26566932 -0.78342766 1.4570682 -0.3528348 0.36100036 -1.203276
0.30536252 -0.40132353 2.5946248 -1.4133403 0.3838397 -1.2693659 -3.49871 -1.0364028
-0.5363254 -0.093387276 -0.7484351 -0.9690298 0.24186313 -1.3099797 -2.2676413 -0.71473676
-0.02683224 -0.72284395 -0.96418816 -1.7504814 -0.17856587 -2.8779528 0.7798692 0.3104864
0.61972225 -1.1395806 2.4459786 -0.94468147 -1.4375356 -2.4655356 0.7698819 -0.18335547
0.07301317 -1.325838 1.2836521 -2.2005486 -0.9795591 -0.9213136 -0.37191913 -0.09744711
1.6270033 -0.9726248 -0.7485185 -2.3165505 1.5491977 0.31127214 -2.2134323 -1.4545035
-0.68108207 0.084390454 1.7202367 -0.18266578 0.8297797 -0.9481987 -0.2875494 -0.7642984
-2.9371963 -3.2708006 -0.61328703 0.21658309 -0.87557065 -0.5400228 -1.2653775 -2.1896632
-0.75777745 -0.2968917 -1.0129347 1.3330162 1.2826754 -0.58236545 0.7922784 2.4411345
0.9108277 -1.6956403 -1.8382059 -0.2077718 -0.862505 0.51780564 -1.2949482 -0.2964088
-0.24583457 -0.637384 -0.52614033 -0.9777199 -1.3149862 -1.5604864 -3.0201542 -2.1504104
0.96867186 0.55146956 -0.49376208 0.13861692 -1.0899798 2.0665376 0.33496603 -1.2877365
-1.0856274 1.417088 -2.8541539 -0.06570883 -1.3992876 -0.109292574 -1.1504412 -1.6868877
-0.41901693 -0.8067707 2.0765622 -3.9750314 0.016775507 0.7404833 -1.6033386 0.8633182
0.42607716 2.5828023 1.7290264 -1.9549578 0.08890413 2.3093157 -0.9177915 -0.9777559
-1.312008 -0.5270867 2.279859 0.6541557 1.4547493 -0.97722924 -0.55758613 -1.1529796
0.16207309 0.1426893 -3.5815284 -0.5902491 -0.6847965 -0.8255248 0.31145322 2.93695
-0.4804266 -0.49484256 2.2847326 -0.27801505 -1.3820952 -1.1915951 1.4865097 0.84388715
-1.5214417 -0.7777971 -1.4200121 -0.43980554 -1.28821 0.9437423 -0.49472296 0.67592674
00000000: a35a c83e 6686 3abf 899c 703f b4ac 20c0
00000010: 28da 60bf 1881 f63d d940 6ebf cdf7 68bf
00000020: 2146 06bf 3e40 a33d 2aba c0bf ba92 1bbf
00000030: a1c5 83be 9f0e 923f 3ea2 bbbd 0168 bebf
00000040: 0b13 063e e322 04c0 3181 c3be bb86 1540
00000050: 2402 3fbe 1af5 423f ba93 dbbc 5c8e 0440
00000060: 5d64 a03f 0a2e 35bf da64 2f3f 77d3 1540
00000070: 9b2d 743f 19a8 273f 506f 31bf 3dd6 d03f
00000080: 6718 fa3f 5a1d 643f d78f cdbf a7b4 78be
00000090: 7d3f 00c0 c8d1 39bf ef64 d4be a729 21bf
000000a0: 7674 00be 4585 943d 9ecd b83e b51e e6bf
000000b0: 9a78 08c0 9abb 2bbf ee2c 283f 4f9a e8be
000000c0: 61ba 8abf 7827 81bf 451a 4d3e 9be0 ebbf
000000d0: 5d21 c8be 7a66 21bf b943 f1bf a047 d1be
000000e0: fde4 04bf 0951 11bf 06d2 a73f 0095 36bf
000000f0: e924 b3bf 1440 943f 5b21 5bbf ab05 b3bf
00000100: 7655 a9bf af4e 9fbe 5dc0 a2be 4cc4 15be
00000110: d676 183e 0d3d acbf c9e4 2bbf 5169 8fbf
00000120: 3836 c5bf 4eb9 b4bf d6b2 d0bf 7715 2a3e
00000130: 2709 0540 49cc cd3e 8c89 2ebf 4fec 803f
00000140: 9e5a 0bc0 ef24 cbbe 3050 ebbe d1f9 2ac0
00000150: 869a 7c3f 286b ad3f 4c41 35c0 b7e3 efbe
00000160: 031b d23e 6771 33be 60e8 b9bd f746 54bd
00000170: 6a88 70bf 0e8b d7bd a57c 0240 c4cb 823e
00000180: b644 8b3f a62d eb3f cf05 88be b78e 48bf
00000190: 3681 ba3f c3a6 b4be 0ad5 b83e f304 9abf
000001a0: 7a58 9c3e 477a cdbe 550e 2640 56e8 b4bf
000001b0: a386 c43e 957a a2bf ddea 5fc0 d9a8 84bf
000001c0: 9f4c 09bf d441 bfbd 7199 3fbf 5612 78bf
000001d0: f8aa 773e 6aad a7bf 0921 11c0 fdf8 36bf
000001e0: 49cf dbbc 4d0c 39bf 09d5 76bf c60f e0bf
000001f0: f9d9 36be 6130 38c0 82a5 473f 13f8 9e3e
00000200: 1ea6 1e3f c7dd 91bf ea8a 1c40 a5d6 71bf
00000210: 2b01 b8bf 56cb 1dc0 fb16 453f 89c1 3bbe
00000220: ee87 953d 0fb5 a9bf b64e a43f cad5 0cc0
00000230: 63c4 7abf 35db 6bbf 2f6c bebe 5a92 c7bd
00000240: a541 d03f f0fd 78bf e99e 3fbf 5d42 14c0
00000250: 1c4c c63f 105f 9f3e e0a8 0dc0 2c2d babf
00000260: 655b 2ebf e7d4 ac3d b730 dc3f bd0c 3bbe
00000270: 716c 543f 26bd 72bf ad39 93be 0fa9 43bf
00000280: 06fb 3bc0 cc54 51c0 6100 1dbf f5c7 5d3e
00000290: 6625 60bf ef3e 0abf e4f7 a1bf 7123 0cc0
000002a0: b4fd 41bf 3002 98be d8a7 81bf 46a0 aa3f
000002b0: b52e a43f e715 15bf c2d2 4a3f 8c3b 1c40
000002c0: 012c 693f be0a d9bf 554a ebbf 21c2 54be
000002d0: 21cd 5cbf e98e 043f ddc0 a5bf e5c2 97be
000002e0: 0fbc 7bbe 992b 23bf 22b1 06bf da4b 7abf
000002f0: 7851 a8bf 05be c7bf 354a 41c0 53a0 09c0
00000300: e1fa 773f 1c2d 0d3f 62ce fcbe 98f1 0d3e
00000310: 7584 8bbf 2742 0440 ab80 ab3e 8dd4 a4bf
00000320: d7f5 8abf 2463 b53f 75aa 36c0 5a92 86bd
00000330: db1b b3bf c9d4 dfbd a841 93bf f0eb d7bf
00000340: 6389 d6be 8688 4ebf 65e6 0440 ea66 7ec0
00000350: ca6c 893c 5090 3d3f 333a cdbf 6c02 5d3f
00000360: c926 da3e a24c 2540 bd50 dd3f 0f3c fabf
00000370: 5e13 b63d d4cb 1340 62f4 6abf 364e 7abf
00000380: e1ef a7bf 27ef 06bf 36e9 1140 bf76 273f
00000390: 3a35 ba3f b22b 7abf f7bd 0ebf d694 93bf
000003a0: 7df6 253e 251d 123e c337 65c0 911a 17bf
000003b0: d34e 2fbf 9855 53bf cc76 9f3e fdf6 3b40
000003c0: 7afa f5be 015c fdbe 0f39 1240 fd57 8ebe
000003d0: 7fe8 b0bf 3086 98bf f345 be3f fd08 583f
000003e0: 9abe c2bf b61d 47bf f5c2 b5bf 312e e1be
000003f0: 11e4 a4bf 1899 713f 544c fdbe 8909 2d3f

weight f4 [256, 270]
0.0709935 0.57571083 0.16039559 -0.9535861 0.4237977 0.014250614 1.1434333 0.0040431847
0.18713413 0.25758645 -0.17619991 -0.5793856 -0.7698737 0.4633552 0.24077684 -0.17542754
0.48936018 -1.6078007 0.22596334 0.41558248 0.5368084 0.28060097 0.39819878 0.32432353
0.001008057 -1.3035734 -1.3736194 0.4161601 0.6266258 0.28329104 -0.5944724 0.026288796
0.32681394 0.26347414 -8.610127 0.049770497 -1.8052983 0.120812155 -0.21309066 -0.12045407
0.27072394 0.27326047 -1.885726 -0.028736696 -0.6921709 0.88309383 1.1306946 0.26062083
1.8870621 -0.9612383 0.042904124 -1.3831738 -0.092332445 -0.006146784 -0.9824536 -0.30069974
0.09838547 -0.27372676 -0.03562805 -0.55502635 0.17964488 0.5387112 0.49151027 0.25945348
-0.60490793 -0.21953197 0.45515603 0.11578191 0.27864644 -0.11043574 -0.51153994 0.21371306
-1.4424672 -0.75653774 0.029169332 0.86551607 0.39729443 -0.25122237 0.48454583 -0.8185114
-0.6200851 0.59063095 0.9465578 -0.1241227 0.41161245 0.017317837 -0.33086884 -0.2529173
0.5227969 0.0346719 0.48305812 0.18345676 0.37784785 -0.16272625 0.281799 -1.6808156
0.36123782 0.28037727 0.78387696 -0.16619474 0.36799228 0.8558448 1.1374264 -3.064314
0.12856862 1.4688131 0.625855 0.5146994 -1.7962849 -0.32555512 -3.9133456 -0.51734513
0.2215223 0.28947362 -2.0832887 -1.0029873 1.0893689 0.101484 -0.44268408 -0.14877544
0.5642351 -1.3008993 0.4729016 -0.18379869 -0.35905024 -0.84303147 0.089394264 -1.0145626
0.4480716 0.26398653 0.7243164 0.3352711 -0.26053026 -0.1262881 -0.8773932 -0.035339486
0.15307651 -0.5743312 0.20610133 -1.605232 -0.9115447 -0.11207587 0.07379031 0.024649514
-0.2529933 -0.006731909 1.102474 -5.1794896 1.3204823 0.4360602 -1.6256204 -2.478834
-0.19395076 0.41379997 0.7812628 0.8096568 -0.02930093 0.5133345 0.36132655 0.20300457
-2.6258006 -0.48914298 1.0588225 0.048117377 -0.56612045 0.3956224 -0.17697378 1.3848263
-0.29457855 -0.32345542 -0.19633184 -0.045937184 -0.17663449 0.5361178 -0.13713829 0.45622945
-0.44293648 -0.21154599 0.19616282 0.08116023 -0.4962288 0.050659083 0.2985193 -0.013511257
0.03866862 0.24895182 0.28309962 0.04211914 0.41804886 0.2531206 -1.0085715 -0.74379736
-0.048639495 -0.8592752 0.29298547 0.24062362 0.5737798 0.647576 0.56574976 0.47625422
-0.34501797 0.3197619 -0.8782535 -0.26187155 0.29895714 0.040579043 -1.0982103 -0.8554923
0.1128715 -2.6108525 0.061555326 -1.6626585 -0.67271566 0.09339751 -0.10781143 -1.2265861
-0.12508018 0.4584564 0.095560454 0.106108904 0.13473049 0.06832944 -7.7477875 -0.15488522
-0.35960656 0.7645324 -0.07144303 1.3311616 0.047195777 -0.029147154 0.47826132 -0.390037
-0.876594 -1.5781372 -0.38060597 -0.34289494 -0.5557066 -0.01795663 0.09341537 0.15000223
0.018449526 0.022838723 0.3529195 1.0675296 0.17241769 -0.47821328 0.3193071 0.16927354
-0.30951145 -0.0076178736 -0.32382587 0.17701009 0.18794693 0.25295866 -0.40994343 -0.03990441
00000000: 0a65 913d c961 133f be3e 243e 381e 74bf
00000010: 03fc d83e 687b 693c 065c 923f b17c 843b
00000020: 17a0 3f3e 5fe2 833e c06d 34be 9d52 14bf
00000030: 7116 45bf e53c ed3e 348e 763e 47a3 33be
00000040: 6b8d fa3e 6acc cdbf ef62 673e 3ac7 d43e
00000050: 466c 093f eeaa 8f3e b6e0 cb3e bc0d a63e
00000060: c820 843a 7edb a6bf c3d2 afbf f012 d53e
00000070: 8c6a 203f 860b 913e 582f 18bf 9a5b d73c
00000080: 2854 a73e 15e6 863e 15c3 09c1 26dc 4b3d
00000090: 0414 e7bf 5d6c f73d 7034 5abe a0b0 f6bd
000000a0: 549c 8a3e cce8 8b3e 785f f1bf 3869 ebbc
000000b0: 1d32 31bf 7012 623f 9aba 903f 1870 853e
000000c0: 408b f13f b713 76bf 3cbc 2f3d d70b b1bf
000000d0: cb18 bdbd f66a c9bb 1482 7bbf 51f5 99be
000000e0: 527e c93d ea25 8cbe b8ee 11bd 3516 0ebf
000000f0: d4f4 373e fae8 093f 3ca7 fb3e 16d7 843e
00000100: 3fdb 1abf fdcc 60be 360a e93e 111f ed3d
00000110: bfaa 8e3e 222c e2bd 48f4 02bf 99d7 5a3e
00000120: c4a2 b8bf 75ac 41bf 86f4 ee3c 7692 5d3f
00000130: 2d6a cb3e 38a0 80be 6416 f83e f789 51bf
00000140: e6bd 1ebf 9733 173f 9d51 723f 0b34 febd
00000150: debe d23e 23de 8d3c a467 a9be 607e 81be
00000160: 05d6 053f 1f04 0e3d 6553 f73e 17dc 3b3e
00000170: 4675 c13e b6a1 26be f547 903e f724 d7bf
00000180: 2af4 b83e 9c8d 8f3e 29ac 483f f42e 2abe
00000190: 7c69 bc3e a518 5b3f 3097 913f b81d 44c0
000001a0: 7ea7 033e 1102 bc3f 0938 203f 57c3 033f
000001b0: aaec e5bf 29af a6be 4174 7ac0 bb70 04bf
000001c0: bed6 623e e335 943e 9a54 05c0 e361 80bf
000001d0: 7170 8b3f d8d6 cf3d 7da7 e2be 9758 18be
000001e0: b671 103f de83 a6bf 2920 f23e b935 3cbe
000001f0: 6fd5 b7be e9d0 57bf 5714 b73d 30dd 81bf
00000200: a469 e53e 3e29 873e cd6c 393f a7a8 ab3e
00000210: 3964 85be ab51 01be d79c 60bf 23c0 10bd
00000220: 17c0 1c3e 5f07 13bf 3a0c 533e 3e78 cdbf
00000230: fe5a 69bf 0988 e5bd 601f 973d c7ed c93c
00000240: 5688 81be 5897 dcbb de1d 8d3f 61be a5c0
00000250: 9005 a93f 4843 df3e 5414 d0bf 37a5 1ec0
00000260: 079b 46be 97dd d33e d700 483f ab45 4f3f
00000270: 8108 f0bc e469 033f cbff b83e 6ee0 4f3e
00000280: 1e0d 28c0 f370 fabe 7f87 873f ba16 453d
00000290: 45ed 10bf 058f ca3e 9d38 35be fd41 b13f
000002a0: 00d3 96be f39b a5be 370b 49be a128 3cbd
000002b0: acdf 34be 043f 093f fb6d 0cbe e896 e93e
000002c0: 92c8 e2be 839f 58be e8de 483e 5637 a63d
000002d0: b411 febe e67f 4f3d 86d7 983e 525e 5dbc
000002e0: fd62 1e3d 3aed 7e3e 6ff2 903e 1f85 2c3d
000002f0: 800a d63e 0699 813e df18 81bf 8169 3ebf
00000300: 353a 47bd 76f9 5bbf 3102 963e 0a66 763e
00000310: 3ce3 123f 8ac7 253f fad4 103f 98d7 f33e
00000320: 32a6 b0be d5b7 a33e 39d5 60bf 0714 86be
00000330: e910 993e 3636 263d 2892 8cbf 8b01 5bbf
00000340: 2c29 e73d 3518 27c0 7021 7c3d fed1 d4bf
00000350: 1837 2cbf 3247 bf3d 3dcc dcbd c600 9dbf
00000360: 0515 00be ccba ea3e 33b5 c33d a04f d93d
00000370: caf6 093e 4ef0 8b3d e0ed f7c0 3b9a 1ebe
00000380: 5a1e b8be 65b8 433f b950 92bd 8163 aa3f
00000390: 5c50 413d 03c6 eebc abde f43e eeb2 c7be
000003a0: 7768 60bf 6600 cabf c9de c2be ed8f afbe
000003b0: ca42 0ebf c819 93bc 8f50 bf3d 2f9a 193e
000003c0: 7623 973c 4618 bb3c ddb1 b43e cfa4 883f
000003d0: 438e 303e 5fd8 f4be 387c a33e 0b56 2d3e
000003e0: 4978 9ebe 5b9f f9bb 81cc a5be 2242 353e
000003f0: 2975 403e cc83 813e 1be4 d1be ce72 23bd
