data/SAC/Hopper-v2/sac_s676/pyt_save/model.pt (torch_old, 847008 bytes, 18 tensors)

weight f4 [256, 11]
00000000: 44df 12bf 4231 cf3f cd8c abbf 225e 9f3d
00000010: 5a96 193f 7b3b 8d3d e5fc debe a96f 3e3f
00000020: d033 1fbf 62e1 b9be f91e 8e3e efd7 b8bf
00000030: 02f1 aac0 af46 d8bf 7710 10c0 39df c6bf
00000040: c745 fa3e d881 a8bf fbe3 02bf 1d80 be3e
00000050: c464 383d 9e88 b03d 7111 cdbf e2a5 8f3f
00000060: 9e12 c63f 1d97 b4be 9556 e13f de8d 93bf
00000070: 87d1 c63f 7a62 b53e 46b4 df3d c7a4 103f
00000080: 59ef b0be ac71 eebf 04ec aebf 958a 65c0
00000090: 9794 16be 864c a33f ee3c 363f ffd8 ffbe
000000a0: a9ac 45be 482a a7bd d650 5b3d 3492 e73d
000000b0: 4e7a c2be 5a27 fe3e d79f 2a3f 6187 3c3e
000000c0: 2987 2cc0 a332 cdbf 6686 e9bf deed b53d
000000d0: 36cc 033e 6619 c13d bb36 75be 41fb 6abf
000000e0: c6f0 8cbf 9bdd c040 3145 fa3f 5e2d 75bf
000000f0: b0d0 2fc0 e740 01c0 e1e3 413d 7218 d93d
00000100: 0fab 4f3f ffe8 81be e1b5 9dbf b25a cf3f
00000110: 6dc5 aa3f a3a9 d63e ecd8 6a3f 9668 edbf
00000120: 2701 433f 7c5a de3d 6313 803d 4a39 ce3d
00000130: 12c5 ffbc 107b 5bbf 4b7f 3f41 e7aa 3740
00000140: 012d ec3f e294 6f3f 7417 80be 7930 32bf
00000150: eddb 8e3f 38a9 babe 1748 bcbe a3a2 9a3c
00000160: 0db3 b9be b22c b1bf b94c 78bf 8061 2c40
00000170: 56fa cb3e 1cf4 393e e6a8 5b3f d178 31bf
00000180: 2705 cb3e 972e 5b3f eca5 e33e 71ba c7bf
00000190: 5045 6cc0 3228 5940 3da0 2fbf 1335 293f
000001a0: 6937 db3e 3d96 afbe 5141 333f 8cde 2abf
000001b0: e779 13bf 3635 22bd 5d11 a5bf a92a 033f
000001c0: 2a1f b3bd 823e e33f ea96 3cc0 13eb 50bf
000001d0: eaa9 6cbf c17c 15bf 0ca2 683f 9795 603f
000001e0: e3ff 06be 4244 04bf 10e7 4440 80f2 0d40
000001f0: 2082 d3bf 0948 373f 5449 69bf 8dfb 8cbf
00000200: 202e 1ebf d8b7 e13e a83b fe3e 7e20 433e
00000210: 6158 3fbf 9c71 1f3f 0ead a0bf cb65 a2bf
00000220: 1ad2 cc3f a34c c0be 69e7 4f3f 7aa0 d3be
00000230: d212 103e b9c1 8d3e 5d5c 18be 3742 babf
00000240: a0b9 fb3e 5cde 423f 32a5 4840 b3b8 e2bf
00000250: 1a74 8c3f 53cc 8d3f 073c f73e fc55 cfbe
00000260: a7a2 00be c819 8f3d b552 3dbf 915c e8c0
00000270: 6a74 4f40 448b b93e aa33 94bf e701 723e
00000280: 6172 0b3f 0a86 40bf 0b3c 963e d974 8a3e
00000290: be47 17be 6c37 ffbd 6b29 f03f b0c6 b03f
000002a0: e728 78bf 42b4 2040 971d b8bf 0725 c93e
000002b0: 6bfb 243f c0ff 15be e63d 533d 5246 f7be
000002c0: a6fb fcbe 26a4 36bf 8bae 8e3f 3c6a 81bf
000002d0: 4d02 28bf 103e 9bbf 04a9 cd3f 62a3 7dbf
000002e0: ea91 8f3f 1894 dc3e 29a4 933e 1243 b5bf
000002f0: 120f c63f 00d0 843f 1f3b 89bf 05a9 653f
00000300: 987e 4bbf 00c9 74bd 47b4 12bf ce03 04bf
00000310: c01b b23c 2a25 54bb 38f3 8fbf 001f 17c0
00000320: d5c9 a73e e48e cd3f fea3 e3be 5cee 03c0
00000330: 8caf dd3f bea1 44be 87b3 c2be 1cca 2f3d
00000340: 18d3 9f3e 8cef 93bf 90d8 6d40 ea4f 2ac0
00000350: 0268 7640 c492 19c0 5d4d ecbe af3b 89bf
00000360: 89d8 2d3e f275 233e 6ee3 01bd 0362 23bd
00000370: 8920 d93e 781d 0bc0 7416 153f 3169 4740
00000380: 9b70 8d3f 3f9e 38bf f58c ed3e 21b6 85be
00000390: a176 7c3f db96 ad3e 5665 fb3d ff0f a2bf
000003a0: 0800 db40 22ef d43e f0a3 173f cb95 653d
000003b0: ae5f 933f 3062 f1be 8ac0 23bf fa15 903f
000003c0: 6814 da3e 42f9 da3c ae94 3fbf d37c 21c1
000003d0: 8618 4c3f 80b5 fb3e d3c3 233f c7de d0bb
000003e0: c464 1d3e 3b9c 06bf d608 7d3e cdf6 473e
000003f0: c4ae ddbc e830 073f 1639 0040 dc20 5140
-0.57371926 1.6186907 -1.3402344 0.07781626 0.59995043 0.068961106 -0.43552318 0.7438913
-0.62188435 -0.36304766 0.27758005 -1.4440898 -5.34192 -1.6896571 -2.251005 -1.5536872
0.4888136 -1.3164625 -0.5112912 0.37207118 0.045017973 0.08619808 -1.6020948 1.1222498
1.5474432 -0.3527154 1.7604548 -1.152767 1.5532693 0.35426694 0.10923056 0.5650143
-0.34557608 -1.862844 -1.3665776 -3.5865834 -0.1470512 1.2757728 0.7118672 -0.49970242
-0.19304146 -0.081623614 0.053543888 0.11307183 -0.37983936 0.49639398 0.66650146 0.18411018
-2.6957495 -1.6031078 -1.824414 0.0888326 0.12870869 0.094286725 -0.2394666 -0.91789633
-1.1010978 6.0270514 1.9552366 -0.9577235 -2.7471123 -2.0195863 0.047336463 0.10600366
0.8112039 -0.25373074 -1.232113 1.6199553 1.33415 0.41926298 0.91737247 -1.8547542
0.76173633 0.10857102 0.06253698 0.10069521 -0.0312219 -0.85734653 11.968577 2.869806
1.8451234 0.9358655 -0.25017893 -0.69605213 1.1160866 -0.3645723 -0.3677375 0.01887638
-0.36269417 -1.3841765 -0.9699207 2.693451 0.3983943 0.18159527 0.85804594 -0.69324976
0.39652368 0.85617965 0.44462526 -1.5603772 -3.6917305 3.3930783 -0.6860388 0.6609661
0.42815712 -0.3429431 0.7002154 -0.6674583 -0.57607883 -0.039601527 -1.2895924 0.5123697
-0.087461784 1.7753451 -2.946711 -0.81608695 -0.9244677 -0.58393484 0.90872264 0.87728256
-0.1318355 -0.51666653 3.076603 2.217926 -1.6524086 0.7159429 -0.91127515 -1.1014267
-0.6178913 0.44085574 0.4965489 0.19055364 -0.7474423 0.6228273 -1.2552812 -1.2687315
1.6001618 -0.3755847 0.8121248 -0.4133337 0.1406968 0.2768686 -0.14878984 -1.4551457
0.49165058 0.76120543 3.1350827 -1.7712616 1.0972931 1.107798 0.48287985 -0.40495288
-0.12562047 0.06987339 -0.73954326 -7.2612996 3.2414804 0.36239064 -1.1578267 0.23633538
0.54471403 -0.7520453 0.29342684 0.27042273 -0.14773461 -0.12461743 1.876264 1.3810635
-0.9693741 2.511002 -1.438403 0.39286062 0.64446133 -0.14648342 0.051572703 -0.48295838
-0.49410743 -0.7134422 1.1147016 -1.0110545 -0.6562851 -1.2128315 1.6067204 -0.9907743
1.1216404 0.43081737 0.28836182 -1.4161093 1.5473349 1.0375977 -1.0721167 0.8971103
-0.7949004 -0.059762 -0.5730633 -0.51568305 0.021741748 -0.0032370784 -1.12461 -2.361267
0.32771173 1.6059232 -0.44461054 -2.0614233 1.7319198 -0.19202325 -0.38027593 0.042917356
0.3121574 -1.1557479 3.716343 -2.6611276 3.8500981 -2.3995829 -0.46152773 -1.0721339
0.16977133 0.15962961 -0.031711034 -0.039888393 0.42407635 -2.1736736 0.58237386 3.1157954
1.104999 -0.72116464 0.46396604 -0.26115516 0.98618513 0.33904156 0.12275188 -1.2661132
6.843754 0.41588694 0.59234524 0.056051057 1.1513574 -0.47145224 -0.63965666 1.1256707
0.42593694 0.026730184 -0.7483624 -10.092975 0.7972492 0.4916191 0.6397068 -0.0063742134
0.1537047 -0.5258214 0.24710402 0.19527741 -0.027060874 0.52809 2.0034842 3.2676306

bias f4 [256]
00000000: 4ad4 bebe 9d1e 0ac0 895f c6bf 7e95 2bc0
00000010: 18ea 01bf eed0 acbf b1d2 95bf 0159 15bf
00000020: f2eb afbf b2c6 bcbf 4a3a d5bf 4c49 3dbf
00000030: ed2d 24bf 1d3b b4bf 3e03 99bf 7d59 e03e
00000040: 24d5 80bf 97f8 aabf 10b1 b7bf 7427 18bf
00000050: 31aa 3dbf 4bd4 77be 8964 33bf c508 04bf
00000060: aea8 fcbd 1f88 8dbf 5180 30bf d81a 83bf
00000070: 2cf3 3cbf e95e 5e3f 318b a33f d057 afbf
00000080: 07b5 b5bc e6c9 64bf 8ce1 9bbf ba12 29bf
00000090: 02af 85bf 1d62 02bf f568 89be 1b9a d8bf
000000a0: 34f5 c9bf 9d4b 4cbf d667 103f a4b9 d6bf
000000b0: 9bbf 51bf db90 46bf eb2c dcbf 12a8 bd3e
000000c0: a777 71be 858b 57bf 4817 83bf 145e e0bf
000000d0: 534c 983e 6b78 e7bf 2c65 e7bf ae01 9abf
000000e0: 65f0 c9bf 3274 073f 28f2 67bf d460 8fbf
000000f0: c874 acbf 24ed d6be e39c 87bf 3516 0cbf
00000100: 228c 14c0 aed9 363f db31 cfbe a638 bdbf
00000110: ddb5 3fbe f87e 29bf 1ab2 42bf bcc5 96be
00000120: 0581 bebf 140f b4bd 659b 3bbf 9957 bebf
00000130: 20af 06bf e501 64bf b8bb 473f d957 7dbf
00000140: 610e ebbf 3213 29bf 8e12 363f 0bf2 72bf
00000150: 4282 79bf 5fd8 18bf 6947 10c0 fc44 a8be
00000160: 2ae4 67bf ba97 22bf a674 46bf a7cb e1be
00000170: 8b1b edbf 3668 d4bf 1052 04bf 27d8 c0bf
00000180: 58c7 25bf 280a 0d3d da6f 04bf 21c1 683e
00000190: cf7f 35bf 2389 2dbe bfc7 1ebf b837 8f3e
000001a0: d576 33be fc9e d1be a6ec e0bf 23d6 41bf
000001b0: 737d 64bf c714 32bf 8ea3 6abf 5b0f e6bf
000001c0: 9386 de3e c2af a2be 3098 a7bf fe77 af3e
000001d0: 1caf 03bf bddf a1bf dde7 e4be 7edc 213f
000001e0: ad8f f1be 7ddb 723e a1b8 86c0 cf66 b2be
000001f0: 0112 03bf 7ac2 403e 6a59 5fc0 61b6 a5be
00000200: dd4e 44be 4856 6a3e e02d 253f 5d03 f6bd
00000210: 277e 93be 56aa 37bf 3f85 f4be d955 fb3e
00000220: 90d1 44be 523b 463f 49fd 85be c190 ffbd
00000230: 8b8d bebf 5e6d 81bf 3d17 89bf bed8 3abf
00000240: dbcb 81bf 4649 fdbf a6dc 09c0 8043 ffbf
00000250: fca0 afbf 337f 2e3e ccc1 35bf d5b5 b0bf
00000260: 3fe4 72bf aad3 c5bf 5e94 843f 729d 30c0
00000270: c7c2 b7bf f38e b1bf e0c2 24c0 bd92 bfbf
00000280: a5c2 c2bf 55c8 c3be 504b 49bf 32d0 a7be
00000290: 93d0 0fbf 6368 78bf ee1b 4cbf a966 7ebf
000002a0: 806f 4cbf 2b2c 4a3f 15fc 43bf 1bde 9dbf
000002b0: 07f3 32bf bd17 8d3f 0a97 39bf ceb0 96bf
000002c0: 6ce7 ccbf b1a0 9dbf 018b 54bf aa2b 56c0
000002d0: 007b a2be a35c b0bf 9439 2fbf e80b c8bf
000002e0: 6957 b73c ab42 74bf 4bd2 e0be 1459 77bf
000002f0: e267 2abf e5ff 8bbf 2be0 5b3f f8c4 59bf
00000300: e93a 0fbf a77d b4be ac8d 1f3f 2bf7 6fbf
00000310: 2bb3 01c0 dedf 4f3e c1c7 1ebf f885 dfbe
00000320: c40c 46bd 78c9 5cbf 98d8 23c0 d3bc 05c0
00000330: ae91 603d f127 07c0 2b19 b53e 9801 f2bd
00000340: 4d69 5dbf 164e 0cc0 482d e6bf bfba febf
00000350: 2bd2 90bf 5e71 8fbd 0ab4 94bf e130 13bf
00000360: 67e3 eabe 2af3 9dbe 7675 a8bf c1e0 82bf
00000370: fb2f 99bf 4b9c 92bf 7449 a6bf 484e 553f
00000380: 6627 c9bf e783 86bf 00f2 e9bf b357 d63e
00000390: dbd9 27bf 7537 54bf 0851 d4be e68c e43e
000003a0: c892 69bf 30b1 34bf 2019 12bf c52c 83bf
000003b0: 932e 32c0 a27d 6fc0 b0df 86bf 1d81 6cbf
000003c0: 6121 a0be 083e a23f b5cf a9bf ba8a 17bf
000003d0: af46 7ebf 9de1 85bf 602d be3f 526a 1dc0
000003e0: 687b 90bf ee22 3b3e 99c0 b5bf a3a8 80bf
000003f0: c1ba b7bf 0e9d 3cbf cfc5 b2bf 267f 92bf
-0.3727134 -2.1581185 -1.5497905 -2.6809993 -0.50747824 -1.350126 -1.1704923 -0.58338934
-1.374388 -1.4748137 -1.6658413 -0.7393997 -0.6413258 -1.408054 -1.1954114 0.43818274
-1.0065045 -1.3357114 -1.435091 -0.594352 -0.74087816 -0.24202077 -0.7007528 -0.5157588
-0.123368606 -1.1057166 -0.68945795 -1.0242567 -0.7380855 0.8686357 1.2776853 -1.3698673
-0.022181047 -0.8937057 -1.2178206 -0.660442 -1.0444033 -0.5093096 -0.26837888 -1.6922029
-1.5777955 -0.79802877 0.5640844 -1.6775403 -0.8193299 -0.7756478 -1.7201208 0.3704229
-0.235808 -0.84197265 -1.024148 -1.752871 0.2974573 -1.8083624 -1.807775 -1.2031763
-1.5776488 0.52911675 -0.90603876 -1.1201425 -1.3473139 -0.419778 -1.0594753 -0.54721385
-2.321053 0.714259 -0.40467724 -1.4782913 -0.18721719 -0.66209364 -0.7605301 -0.29447734
-1.4883124 -0.087919384 -0.7328399 -1.4870483 -0.5261097 -0.8906539 0.7802081 -0.9896217
-1.8363763 -0.66044915 0.7112206 -0.9490058 -0.9746438 -0.59705156 -2.2543585 -0.3286513
-0.90582526 -0.63512766 -0.7752174 -0.44100687 -1.852403 -1.6594303 -0.5168772 -1.5065964
-0.647573 0.034433514 -0.5173317 0.22729923 -0.70898145 -0.16946845 -0.6202354 0.27972198
-0.175258 -0.40941608 -1.7572219 -0.7571737 -0.8925392 -0.69562954 -0.91655815 -1.7973436
0.43462047 -0.31774718 -1.3093319 0.34271234 -0.5143907 -1.2646405 -0.44708148 0.6322707
-0.47179928 0.2371654 -4.2100377 -0.34844062 -0.51199347 0.18824187 -3.4898324 -0.32365707
-0.19170709 0.22884476 0.64523125 -0.1201236 -0.28807184 -0.71744287 -0.4775791 0.49088934
-0.19220567 0.77434266 -0.26169804 -0.124787815 -1.4886945 -1.0111501 -1.0710217 -0.7298697
-1.0140337 -1.9787986 -2.1540923 -1.9942474 -1.3721004 0.1704071 -0.70998836 -1.3805491
-0.94879526 -1.545522 1.0357778 -2.7596097 -1.4356316 -1.387175 -2.5743942 -1.4966656
-1.5215651 -0.3823878 -0.7863054 -0.32776028 -0.56177634 -0.9703428 -0.7973012 -0.99375397
-0.79857635 0.78973645 -0.7655652 -1.2333406 -0.6990208 1.1022869 -0.7249609 -1.1772707
-1.6008124 -1.2314664 -0.83024603 -3.346415 -0.31734467 -1.377827 -0.6844723 -1.5628633
0.022380548 -0.9541423 -0.4391044 -0.966203 -0.6656476 -1.0937468 0.8588893 -0.85066175
-0.55949265 -0.35252115 0.6232555 -0.93736523 -2.0265605 0.20300242 -0.6202355 -0.43656898
-0.048352018 -0.86244917 -2.5600948 -2.08965 0.05482643 -2.1118128 0.35370764 -0.1181671
-0.864888 -2.192266 -1.7982569 -1.990074 -1.1314138 -0.07004045 -1.1617444 -0.5749646
-0.4587662 -0.30849582 -1.3160846 -1.022484 -1.1967767 -1.1453947 -1.2991166 0.8332257
-1.5715148 -1.0509003 -1.8276978 0.41863784 -0.65566796 -0.8289712 -0.41468072 0.44638747
-0.91239595 -0.70582867 -0.5706959 -1.0248038 -2.7840927 -3.742043 -1.0537014 -0.9238451
-0.31275466 1.267518 -1.3266512 -0.59196055 -0.99326605 -1.0459477 1.4857597 -2.4596143
-1.1287661 0.18275043 -1.4199401 -1.0051464 -1.4353868 -0.73677146 -1.3966616 -1.1445053

weight f4 [256, 256]
00000000: 40ae dabd 14ed f4bc e2f8 3dbc 409f ad3b
00000010: 7a7e 81bc f661 0abd ead3 00bc 83fd 99bc
00000020: 478f 013c f8db 7ebb bbab a33c 125a 3c3d
00000030: 8c8c c53b c60a 1cbc 1c15 f8bc eea1 6cbd
00000040: 55e8 52bd 59c0 29bc 250c 6bbd a77e 193c
00000050: c3a4 c23c 7702 64bd 1759 d8bc 2549 80bd
00000060: 2563 38bd 454b 9cbb 1aa9 00bd f6b2 0ebd
00000070: ba4c d0bc 6002 1bbd 2b9a 64bd 47ff a83b
00000080: b6db 153d f785 1abc 9be4 14bd eb16 b5bd
00000090: d780 42bc 13a5 78ba e5db 683a 8d90 613c
000000a0: 0bec 543d 5df3 7ebd 64f9 33bd cbe7 4abd
000000b0: fc94 4d3d 1c4f a2bb fc92 37bd a57d 85bd
000000c0: 024e 84bc 1c42 0abd 6863 95bd 5b4e 453c
000000d0: 8c7f 6bbc 1b1a fbbd a8c5 2b3c 62b8 023d
000000e0: 2163 a6bc 2218 9dbd 4a21 87bd 8603 87bd
000000f0: f6ac 5f3c 15d4 d5bc 4166 3b3d d11b a3bc
00000100: 1274 72bd d97f bfbd 92f7 8ebd bfa5 46bc
00000110: 5f1d edbb ff62 9cbb 767c c7bc 1b53 70bc
00000120: dac5 adbc 67f7 00bd 872b aebc db6c e2bb
00000130: 3f45 12bd 58d3 13bd d4df 8e3c 73ac 98bd
00000140: fb50 7ebd c78a a9bc bfee 3abd 5e0f 8dbc
00000150: 577d 9a3a c7db 3f3c ba51 e13c ba5e 0bbd
00000160: daba 523c bcc0 c2bd 0e8e 96bd 47ac 86ba
00000170: 31e4 74bd 421b debc 9050 32bd 8689 923c
00000180: 82f7 cabc c39e f93c 1c4d fe3c 4466 493d
00000190: a43c e839 ea51 9abd 4a21 58bd 672d 92bb
000001a0: 3f4b 9f3c 3071 a0bc cf79 c1bc 07e1 4e3a
000001b0: 6f9c 7dbc b7ad 8bbd d2e8 65bc 5cd7 fb3b
000001c0: e6a9 cabd 5785 ab3c 9997 edbc dc2b a9bd
000001d0: 3734 433c c53e 423d fcdf f2bc 1e02 98bd
000001e0: 47b1 28bb 0e60 33bc 2079 dd3b 780c 5fbc
000001f0: 2e6a bb3c c4f4 9d3c b909 99bd 8f08 d3bd
00000200: 4750 c1bc ce08 9cbc bbca 003d cf1d 2ebd
00000210: db8f 233d 8a47 84bd f774 c4bc d311 f13a
00000220: 588c 9bbd c549 bbbd 8dc7 c43c be39 94bd
00000230: c266 473c 3361 09bd 4202 58bd 51e2 46bd
00000240: f252 92bd 1c0c 853c ddae 043d 9d30 b3ba
00000250: 3139 e93a d623 19bd 9ad0 66bd 1571 55bd
00000260: 11d9 0dbd a8ca abba 2e8c e43c cc47 3fbd
00000270: f358 283d 7dcc 2a3d c1ef 3cbd 0b70 c7bb
00000280: fc34 4fbd e699 88bc 6a86 a7bc f6ca 653c
00000290: c90b 083b f7b5 2cbd 64ef 9dbb b7bf e0bd
000002a0: 4b66 70bc 5cae 8abd 1d96 bc3a 8741 acbd
000002b0: 8525 f63b 1202 f9bd d514 4abd 2d9e 5e3d
000002c0: 72f1 80bd dea3 71bc 51f4 1c3d 31e6 9abc
000002d0: b4f9 5dbd 6160 6b3d edf1 72bd e837 023d
000002e0: d89a 42bd ba04 6dbd be39 b7bc 6c4e 08bd
000002f0: 286d 30bd 9843 70bd 1007 e2bd d2ca 39bd
00000300: 7662 103c d100 cabd bebb f3bb 7685 27bd
00000310: f52f 6c3c 95fd cbbd 014a dabd db6c 3bbd
00000320: f965 b0bc db93 61bb 49d5 49bd 3770 3abd
00000330: a60f 79bd 8bec 2dbd 5f9f 273c 49e5 afbc
00000340: 8e8d f9ba 03b0 01bc 6c74 0d3c 3714 b9bd
00000350: 9b1e 79bd b4e7 8fbd c7cf d23c 0c57 603c
00000360: d998 a238 9cc2 34bd b7ed 22bd 9913 90bd
00000370: 27d7 93bd 6348 7a3c 11a8 913c 1673 9abd
00000380: 8f78 913b f4e5 84bd 80bd 9f3c 8328 3fbc
00000390: 925d 0bbd 04d8 2dbd fe8d ef3b 73a0 91bd
000003a0: bcb1 64bd e508 48bd c990 09bc 1df2 593d
000003b0: 422c 003d d562 7cbd be02 35bd 8d4d 36bd
000003c0: 34f0 e53c c5a9 79bd d093 0b3d 9c62 5abd
000003d0: 9fc1 1a3d 976f b6bd a5e7 28bd 961d 33bd
000003e0: 3bce 13bc e582 55bc cd8c 20bd e330 babd
000003f0: c17d 2c3d 96aa 94bd 49f3 d2bc 3046 c7bc
-0.10677767 -0.029898204 -0.011594983 0.005298525 -0.015807379 -0.03378483 -0.007863024 -0.018797642
0.007907695 -0.0038888436 0.019979348 0.045984335 0.0060287174 -0.009524053 -0.030283503 -0.057771616
-0.0514911 -0.010360801 -0.05738463 0.009368575 0.023760205 -0.055666413 -0.026409669 -0.06263951
-0.045016427 -0.004769715 -0.031411268 -0.03483864 -0.025427211 -0.03784406 -0.05581109 0.0051573846
0.036586486 -0.009431354 -0.036350828 -0.08842262 -0.011871538 -0.0009485047 0.00088828645 0.013767374
0.05198292 -0.062243808 -0.04393901 -0.04953746 0.05019091 -0.004953278 -0.04481791 -0.065181054
-0.016150478 -0.033754453 -0.07294351 0.012042607 -0.014373671 -0.122608386 0.010484137 0.031914122
-0.02031094 -0.076706186 -0.06598146 -0.06592469 0.013652077 -0.026102105 0.045751814 -0.019910725
-0.059192725 -0.09350557 -0.06980814 -0.012124478 -0.0072361673 -0.0047725434 -0.02435134 -0.014668251
-0.021212507 -0.03148594 -0.02126099 -0.0069099492 -0.03571057 -0.036090225 0.017440714 -0.07454767
-0.062088948 -0.020696057 -0.045637842 -0.017219242 0.0011786622 0.011710114 0.02750479 -0.034025885
0.012861932 -0.095094174 -0.073513135 -0.0010274731 -0.059787933 -0.027112607 -0.04353386 0.017887842
-0.024776224 0.030471211 0.031042628 0.049169794 0.0004429567 -0.07535155 -0.052766122 -0.004460979
0.01944506 -0.019585222 -0.023617653 0.0007891808 -0.015479191 -0.06820243 -0.0140325595 0.007685585
-0.09895687 0.020937605 -0.029002951 -0.08260319 0.011914304 0.047423143 -0.02964782 -0.07422279
-0.002574043 -0.010948194 0.006758824 -0.013613813 0.022877779 0.019281752 -0.074725576 -0.10304367
-0.02359785 -0.019047167 0.03144334 -0.042508896 0.039932113 -0.064589575 -0.023981554 0.0018392153
-0.07595128 -0.0914493 0.024020934 -0.07237576 0.012170495 -0.033539962 -0.05273653 -0.048555676
-0.07144727 0.016241126 0.032393325 -0.0013671104 0.0017793534 -0.03738769 -0.05635128 -0.052109797
-0.03463084 -0.0013106661 0.027898874 -0.04669933 0.041100454 0.04169892 -0.046127085 -0.0060863546
-0.05058764 -0.016674947 -0.020449836 0.01402544 0.0020758978 -0.042165723 -0.0048197974 -0.10974067
-0.014672826 -0.06771538 0.0014387999 -0.08410936 0.007511797 -0.12158598 -0.049336273 0.054350067
-0.06296052 -0.014748542 0.038318936 -0.018908592 -0.054193214 0.05746496 -0.05931275 0.031791598
-0.04751095 -0.057865836 -0.0223664 -0.033277914 -0.04307285 -0.058658212 -0.11036503 -0.04535944
0.008812537 -0.09863437 -0.007438152 -0.040898763 0.014415731 -0.09960476 -0.106586464 -0.04575811
-0.021533 -0.0034420404 -0.04927567 -0.045517173 -0.06080594 -0.042461913 0.010230868 -0.021471636
-0.0019039379 -0.0079155 0.008633714 -0.09037059 -0.060820203 -0.07026616 0.025733842 0.013692629
7.753232e-05 -0.044130906 -0.039777484 -0.07034988 -0.072187714 0.015276047 0.017780336 -0.07541482
0.0044394205 -0.064891726 0.01949954 -0.011667374 -0.034024782 -0.042442337 0.007310628 -0.071106814
-0.055833563 -0.048836607 -0.008396336 0.053209413 0.031292208 -0.06161769 -0.04419207 -0.044507552
0.02806864 -0.06095292 0.03407651 -0.053316697 0.037782308 -0.08908003 -0.04123654 -0.043729387
-0.009021337 -0.013031696 -0.039196778 -0.09091356 0.042112116 -0.07259099 -0.025750773 -0.02432546

bias f4 [256]
00000000: edf8 cfbd 6857 8abf 4eaf 50bf 863b 17bd
00000010: 89cd 29bd 1437 a1bd 082b 3d3f 5c79 b6bf
00000020: b5e6 78be d682 96bd aa2e f7bd fedb dabd
00000030: f2a6 16be 25b6 cdbf 9292 b5bd 4f05 07c0
00000040: 6bb3 fabd 69ce 02be 78c5 e43e ba48 debd
00000050: e9fd e5bd 1c84 80bd 48fb 0cbe 0356 cdbd
00000060: 5fc6 0dbe 73ae 36be 3d79 a5bf 0b80 acbd
00000070: 5b3b 13bf 3858 a5bd ada2 f7be 7087 9abf
00000080: f1c3 40bd 335a 02be 15ba aebd afc0 87bf
00000090: c6f4 83bd 06da efbc 5dc5 a1bd 238a a2be
000000a0: c6d0 91bd a234 69bd 78aa 8abf 9c28 72bd
000000b0: f699 1fbd 857a d8bd 6b34 04be 8bbe 23be
000000c0: 9f09 df3d f8e9 ff3f 75dc 7bbf 44ec 0abe
000000d0: 99cf adbd 8246 f3bd db6a 2d3e 6760 98bd
000000e0: 11a7 48be 8f9a 0fbd d2fd 2ebe 113b 10be
000000f0: 2b35 1b40 5b9c 7abe 4aea e6bd 63cd 21be
00000100: 04ec bbbd a708 02be d105 15bf 740f 34bd
00000110: 10c7 d8bd 001f e3bd da9d 41bf e265 22bd
00000120: 5934 27be 3f5a 4e3f 3d03 1ebd d21d 4fbd
00000130: 6c08 e4bd b983 b3bd c46b 0dbe 5144 d3bd
00000140: 2926 0bbe 0705 8fbe 1d39 a4bf 384e 36bd
00000150: 2514 883d fba4 4abe 1b02 babe fb22 a2be
00000160: 9417 adbd e502 98bc a050 253e 03eb 1abe
00000170: 3f64 debd 7a91 a1bf 7622 803e fe85 4cbf
00000180: e68c af3f 9e9c 28be 2f10 cebe fcb8 0fbf
00000190: a2d8 49bc 6c4f 3ebf 0e95 85bf ef1a 24bf
000001a0: 77b7 183f a25a 743e 532d 80bd 3ac0 5bbe
000001b0: 4c5a 0f3e acb2 c2bd 3823 06be 62a5 13bd
000001c0: 75ee e3bd 0eac cebe f285 bdbe becf 8dbd
000001d0: ada6 36be ed56 61bf 29ea e8bd 3076 d0bd
000001e0: 1e0c 82bf db18 b1be 0140 1dbd d52c f9bc
000001f0: e299 c7bd 10ed f1bc b6ae 93bd 020d 83bf
00000200: ec45 8ebc 2a5b 0cbe ab78 0fbe 8351 9bbe
00000210: dd50 69bd 25d1 69bf 6e18 b4be e2bf a6bd
00000220: 084b 4ebd b657 76bf 166b d33e 1110 453e
00000230: c1e0 5c3f 6370 0cbe 02b3 2bbe 4082 93bd
00000240: e29f 06be 3e86 9abd b72a f1be b096 84bd
00000250: 57c2 dbbc b7b0 bbbd 99b4 ebbd e268 42bd
00000260: 502e 8fbd 413b 60bf 468a 8abd d208 0140
00000270: 329f 78bd cb16 88bf df71 c83e 0220 283f
00000280: d8ae 6abf b970 4cbe e53a 0f3f eaf2 a3be
00000290: 557d bcbd 9b89 aebd 7adc 95be accb e3bd
000002a0: f446 cbbe d943 d0bd 382e 9c3e 92e5 a43e
000002b0: 2acd 56bf 6892 c23e a2a0 20be 1843 87be
000002c0: 4fde 893f 77d4 5dbd adeb 60bd 3bec 1f3f
000002d0: 020d 1f3f 3c84 b6bd 665b 7ebd 174d 86bf
000002e0: 5fcd 43be 47b4 febd 17d6 22bf 26d0 c0be
000002f0: e339 efbf c187 62bd 6a38 42be c6a9 edbe
00000300: 5e11 d1be 4e5a 90bd 1f24 adbd d32c d1be
00000310: 4438 d1be c0e8 04be 159c f6bd 03f7 463f
00000320: e0a6 b8bd 04ce dfbd c53d ae3c 9a5b 5dbe
00000330: a41a f1bd 1dd6 35bf eeef 8cbf 56a1 ecbd
00000340: 03c0 a2bc a9e6 c7be b8a3 b3bd b335 57c0
00000350: 490d 9c3e 14ce 9dbd 73ce 8bbf 6c6c 4dbf
00000360: 4485 06be 7c4a d0be 1687 bbbf 91f5 afbd
00000370: 5c16 04be 9d5b 52bd e1f6 1e3f 6879 c1bd
00000380: 0a4c 61bd 6b82 fbbd 1957 f4bd dd5a 04be
00000390: 1017 33bd 2c1b 10be 2525 9fbf 5bb1 23bc
000003a0: f5ab f03d afe2 01be b3e7 16be 0717 babd
000003b0: 525f 06be 38bc 0bbf 3ad1 3abf b33b c1bd
000003c0: 9840 b9bd 6bac 413f cdce 0ebe fb72 a2bd
000003d0: 6ccd ea3e 6bd1 83bd da50 5cbd 7ad6 febd
000003e0: e251 0abe a383 a5bd c9b9 913f 1021 a4bd
000003f0: 71ef cb3e 1999 84bd fc91 a8be 46d6 9fbe
-0.10154901 -1.0807924 -0.81517494 -0.036922 -0.04145578 -0.078718334 0.73893785 -1.4255786
-0.24306758 -0.07349174 -0.12069447 -0.106864914 -0.14712122 -1.6071211 -0.08865847 -2.109699
-0.122412525 -0.12774052 0.44681907 -0.10853715 -0.1123007 -0.06275198 -0.13767731 -0.10026171
-0.13845204 -0.17839985 -1.2927624 -0.0842286 -0.57512444 -0.08073467 -0.483663 -1.2072582
-0.047061864 -0.12729721 -0.08531586 -1.0605677 -0.06443171 -0.029278766 -0.07898972 -0.31746015
-0.071198985 -0.05693496 -1.0833273 -0.05912076 -0.038965188 -0.10570244 -0.12910621 -0.15990655
0.10890507 1.9993277 -0.98383266 -0.1356669 -0.08486862 -0.11878683 0.16935293 -0.07440262
-0.19594981 -0.035059508 -0.17089012 -0.14085032 2.42512 -0.24473707 -0.11275156 -0.15801005
-0.09175876 -0.12698613 -0.58212 -0.04396005 -0.10584843 -0.11089897 -0.7563149 -0.039647944
-0.16328563 0.80606455 -0.038577307 -0.05056555 -0.11134419 -0.087653585 -0.1381064 -0.10315765
-0.13588776 -0.27933523 -1.282993 -0.04450819 0.06644467 -0.19789498 -0.3632973 -0.31667313
-0.08451763 -0.018556068 0.16144037 -0.15128712 -0.10858964 -1.2622521 0.25026292 -0.79891956
1.3714874 -0.16465995 -0.40246722 -0.5614164 -0.012319716 -0.7433994 -1.0436113 -0.641036
0.59654945 0.23862699 -0.06258645 -0.21460047 0.1399929 -0.09506735 -0.13099372 -0.036046393
-0.111294664 -0.40365642 -0.37016255 -0.06924389 -0.1783702 -0.88023263 -0.113727875 -0.101787925
-1.0159948 -0.34589276 -0.038391117 -0.030416885 -0.09746148 -0.029531986 -0.07211058 -1.0238345
-0.017367326 -0.13706651 -0.14010875 -0.30335626 -0.056961883 -0.91334754 -0.35174888 -0.081420675
-0.050364524 -0.96227586 0.41292638 0.1924441 0.8628045 -0.13714747 -0.16767505 -0.072025776
-0.13146928 -0.07545136 -0.471029 -0.06474054 -0.026826067 -0.09164565 -0.11509056 -0.047463305
-0.06991255 -0.87590414 -0.06764655 2.0161633 -0.060698695 -1.0631956 0.39149377 0.6567384
-0.9167304 -0.19964875 0.5594924 -0.32021266 -0.09203593 -0.0852234 -0.29269773 -0.11122832
-0.3970257 -0.10169191 0.30504012 0.32206398 -0.83906806 0.38002324 -0.15686277 -0.26418376
1.0770968 -0.0541577 -0.054912258 0.62469834 0.62129223 -0.089119405 -0.062098883 -1.0492276
-0.19121312 -0.12436729 -0.63607925 -0.37658805 -1.8689541 -0.055305246 -0.18966833 -0.4641859
-0.40833563 -0.07048474 -0.08454155 -0.4085451 -0.4086324 -0.12979412 -0.12041489 0.7772066
-0.09016204 -0.10927966 0.021269688 -0.21616974 -0.117726594 -0.71029836 -1.1010721 -0.1155421
-0.019866949 -0.39043167 -0.08771461 -3.3626525 0.30478886 -0.07705322 -1.0922378 -0.80243564
-0.13136774 -0.40681827 -1.46506 -0.0859176 -0.12899154 -0.0513569 0.6209546 -0.094469845
-0.055004157 -0.12280735 -0.11930675 -0.12925287 -0.043723166 -0.14072865 -1.2433211 -0.009991015
0.11751548 -0.12684129 -0.14736824 -0.09086423 -0.131223 -0.54584074 -0.72975504 -0.09435215
-0.090455234 0.75653714 -0.13946076 -0.07932087 0.4585985 -0.06436428 -0.053788044 -0.12443252
-0.13507798 -0.08081748 1.1384822 -0.08014119 0.39831117 -0.064745136 -0.32923877 -0.31218165

weight f4 [3, 256]
00000000: 1167 273d c486 4abd 327b 683d 7986 1fbd
00000010: 4c40 113c 016c 3a3c 7072 34bd 8248 f53d
00000020: 9e5f 073e 708b 1cbc 3033 e53c 9281 d1bc
00000030: 864b 1a3d d39b 06be 1502 e9bc 7873 2abd
00000040: f5b7 f43b a860 08bd 30f9 a9bd a5a9 ee3c
00000050: 0cc3 edbc dc5a 4bbd 4abe 233c fb0a b13c
00000060: a8d3 783d 761d 6bbc 155f 053e 472e dcbc
00000070: 1c61 58ba b3d6 4e3c a1c7 183e 1056 023c
00000080: f90d 52bd dcea c8bb 64fb d8bd 2048 72bd
00000090: 677c e23a e617 253d 51f5 513d 5d06 aa3c
000000a0: 122a 2f3c 7420 0bbd 11eb 82be c61a 2fbd
000000b0: 2bb8 36ba bab9 503b 6592 acba 4fc9 26bc
000000c0: 472e 85bd fdb0 3a3d c0f4 88bd 190a 073e
000000d0: 4a4b f43c e84c 873d 3bdd 1bbe cbf1 413d
000000e0: 0ca6 eabd e0e0 4cbd b6bc 16bd 1440 9bbd
000000f0: 130f 733e 03ea cdbc 5288 023c 491e e73b
00000100: 5333 503c abcc 86bd c634 7dbe e14f 5ebd
00000110: 211f 79bc 935f 083d 3067 6e3c f1ab 94bd
00000120: fc1e d13c 8990 003e 1343 c93d 84db e9bc
00000130: 6be6 e7bb 20a3 1a3b 7bdc c43c 80de 86bc
00000140: 517d 51bc 53f6 0ebd f533 1f3b 8f5e 60bc
00000150: 19a2 553e 2db4 87be c3e3 cabb 3aed 0dbe
00000160: b385 30bc af4d e43d c8c4 c43b c318 423d
00000170: 2c5f bbbc 170c 843e 4013 293d 6d45 383e
00000180: e119 cd3d e22c 5f3d bd61 e63d 14df d9be
00000190: d656 98bb ac79 acbd 0f94 9fbf e599 a3bd
000001a0: c923 b4bc b87b 253e 3986 843d 3480 80bd
000001b0: b313 2d3e 6aa9 933c e843 5e3d 449f 8dbd
000001c0: ba85 02bd f49b 2a3e a58e 3dbd a33e 8c3d
000001d0: 825f 153d dc2c 37bd b7fb ac3c be02 123c
000001e0: 161d 94bb b768 94bd 94e4 8cbc c748 bcbb
000001f0: 6c31 c4bc 0eaa c7ba 2510 90bd bd1b e23e
00000200: 26c2 673d ca76 b4bc 51a2 9c3c a00b a83c
00000210: c18e cc3c f3fe 87be fccb 4a3e d99e c0bc
00000220: 7674 493c e8bc c7bc d65e 35bd c2af 3dbd
00000230: a688 ff3d aab4 9a3d 551c 6ebd cf3e bd3d
00000240: 1685 933d 6e58 84bd c07d bebd 7bd7 83bd
00000250: e776 02be 362f 4f3d f119 2d3d 2b17 b8bd
00000260: b198 9d3c 55c9 c4be 18ce 8b3d c7ec 32bd
00000270: 599b 34bc 5e55 423e 0fbd dc3d 6c19 ce3d
00000280: 22b3 93be 009e 673e 118f 0d3e 63f1 da3d
00000290: 2383 94bd 702c 143c ce23 efbb c069 a3bd
000002a0: cd16 d3bd 5131 5bbd c243 01be 2c04 e1bd
000002b0: 11a2 953d 8411 103e de5a 943d 6d58 ad3c
000002c0: 24ad a73d b7ff 57bb a71c 26bc 513d 28bd
000002d0: 1bb7 95bd 4792 e43c 5475 b03c 5b28 afbd
000002e0: 84da 5fbd eb74 873d 1843 b1bd 8c68 02be
000002f0: fb72 443e 51b5 93bb 01b1 b8bd 1a34 b2bd
00000300: f370 033e b0d7 b03b 6422 42bd 05e0 cc3e
00000310: 333b 373f 546c 63be d014 5abe 2d75 efbc
00000320: 0c4f 123d eaa3 cb3c 01b7 cfbd f815 54be
00000330: 550c 83bc 9ab4 aa3e a114 bdbe 3641 33bc
00000340: bf1e a3bd bce8 3a3e 6918 9bbc dfd3 2bbf
00000350: ee35 bb3d 0712 3f3c 1b51 4bbe efa3 47be
00000360: 5fd7 0a3c b9f0 2bbe c57b 04be e24e 84bc
00000370: 3a7c ea3c c907 033d f3fd 4fbe ccc0 61bd
00000380: 5ef1 aabb 9713 8cbc a7a7 cd3c e018 10bd
00000390: 4d13 dcbc fbe2 8db9 9260 91bd dab4 71bd
000003a0: db6f c4bc 575a 0dbb c82b d6bc 376d ad3d
000003b0: 4e0f 4c3c c164 933d eb4a eabe ca92 833c
000003c0: d71a 763d 9cba 373e de64 37bc 7468 893c
000003d0: c5dd a8bd 688b 09bd ee65 96bd f825 a7bb
000003e0: baef 033c 3f61 b53d 188f b13d 7d1e f03b
000003f0: 9e86 85be ce9f 8b3b 18b3 8cbc b5cb a33c
0.040869776 -0.04944493 0.056758113 -0.038946602 0.008865427 0.011378289 -0.04405445 0.119767204
0.13220069 -0.009554729 0.02797851 -0.02557448 0.03766968 -0.1314538 -0.028443376 -0.041614026
0.0074682184 -0.033295304 -0.08299482 0.029133627 -0.02902367 -0.049647197 0.009994099 0.021611681
0.060748726 -0.014350286 0.13024552 -0.026877536 -0.00082542165 0.0126244305 0.14919902 0.007955089
-0.051282857 -0.006131513 -0.10594824 -0.059150815 0.0017279506 0.040305994 0.051259343 0.020754987
0.010691183 -0.033966497 -0.25569966 -0.042750143 -0.0006970192 0.0031848983 -0.0013166188 -0.010179832
-0.06502967 0.045578945 -0.06687307 0.13187446 0.029821057 0.066064656 -0.15221111 0.047349732
-0.11457452 -0.050019145 -0.036801063 -0.07580581 0.23736219 -0.025136 0.007967072 0.007053171
0.012707549 -0.06582006 -0.24727163 -0.054275397 -0.015205176 0.03329427 0.014550969 -0.07259358
0.02552747 0.12555136 0.098272465 -0.028547056 -0.0070770285 0.0023595765 0.024030915 -0.016463518
-0.012786225 -0.03490288 0.0024292443 -0.0136944195 0.20862617 -0.2650465 -0.006191702 -0.13860026
-0.010774064 0.111476295 0.0060049035 0.047386896 -0.02287253 0.25790474 0.041278124 0.17995234
0.10014702 0.054486163 0.11249111 -0.42553008 -0.0046490235 -0.084216446 -1.2467059 -0.079883374
-0.02198972 0.16160476 0.064709134 -0.06274453 0.16902046 0.018025119 0.05426398 -0.06915143
-0.031865813 0.16661054 -0.046278615 0.068478845 0.036468036 -0.044720516 0.02111612 0.008911787
-0.004520069 -0.07246535 -0.017198838 -0.0057459804 -0.023949347 -0.0015233175 -0.07034329 0.44161788
0.05658164 -0.0220293 0.019120367 0.020513356 0.024970414 -0.26561698 0.19804376 -0.023513244
0.012295833 -0.02438207 -0.044279896 -0.046310194 0.124772355 0.0755399 -0.05813249 0.092404954
0.072031185 -0.06462179 -0.09301329 -0.06437584 -0.1274067 0.050582133 0.042261068 -0.08988794
0.019237848 -0.38434854 0.06826419 -0.04368284 -0.011023366 0.18977877 0.107782476 0.100634426
-0.28847605 0.22618866 0.13824107 0.10690572 -0.07251575 0.009043798 -0.0072979694 -0.079791546
-0.10307083 -0.05351383 -0.12623504 -0.10987124 0.07306302 0.14069182 0.07243894 0.021160329
0.08187321 -0.0032958814 -0.010138667 -0.0410741 -0.07310315 0.027901782 0.021540321 -0.08552619
-0.054651752 0.06614097 -0.08655375 -0.12735194 0.19184487 -0.0045076986 -0.09018136 -0.08701344
0.12836055 0.0053968057 -0.04739608 0.40014663 0.71574706 -0.22209293 -0.21297002 -0.029230678
0.035719916 0.024858434 -0.10142327 -0.20711505 -0.015997091 0.33340913 -0.369298 -0.0109408405
-0.07964849 0.18252844 -0.018932538 -0.67120165 0.09141146 0.011662013 -0.19855158 -0.1949613
0.0084742 -0.16791047 -0.1293784 -0.016150896 0.028623689 0.031989846 -0.20311718 -0.055115506
-0.0052167615 -0.017099185 0.025104357 -0.035179973 -0.026864672 -0.0002706273 -0.070984975 -0.059010364
-0.023979118 -0.002156874 -0.026143923 0.08468097 0.012454821 0.07196952 -0.45760283 0.016061205
0.06008419 0.1794228 -0.011193482 0.01677344 -0.08245424 -0.033580214 -0.0734366 -0.005100962
0.008052761 0.08856439 0.08669871 0.0073278532 -0.26079267 0.0042609936 -0.017175242 0.019994596

bias f4 [3]
00000000: d5d1 3dbe 0dda 8b3e 56db 2ebe
-0.18537076 0.27314797 -0.17075858

weight f4 [3, 256]
00000000: 921a cd3d 8cb5 efbd d776 30bc 2d7e 373d
00000010: f9fe d13c 8437 bdbd 7edd 1bbd bcde d53c
00000020: f6fc 3e3d 906b b73d 473f 0e3d e344 463e
00000030: 71d5 a0bd 28d6 303d c213 a2bd 1247 aabc
00000040: fcfa ee3d 65fe 9abc 9efb 39bd 707f 8a3d
00000050: b525 8bbb ed57 91bb f23d 53bd 2d2f 46bc
00000060: 328d 213d 9fa2 33bd cb04 2b3d 2f3e a7bc
00000070: ae36 b1bb a2cb bbbd 9dc7 4a3d ed92 fb3b
00000080: 1f06 013b 7d18 673d 8ce7 bb3c 12d3 3ebc
00000090: 7687 b03d c7ae d43b df91 a93c 2134 a5bb
000000a0: bc27 ce3d 59d4 a93d 9c39 6abc 72db 3c3e
000000b0: 2fe6 d73d dd62 40bb d3d7 793d d32b 57bc
000000c0: 2961 803b 464c 2fbc 3120 a03c 22a4 893d
000000d0: 965a 98bc b476 b93c 95a3 483c dd87 43bd
000000e0: f8ce 2f3d 77c3 3bbd 0501 573d 2be4 173d
000000f0: de4c 843c 8277 0d3d 4ce9 8b3d 6700 bfbd
00000100: 0498 5ebc 5ad9 3e3d 8f06 8f3e 2e6e b73d
00000110: d75a 903d b00d f13c c7e9 3ebd e15a 02bd
00000120: e462 1cbc bf37 843d f2dd 463d 24b8 583d
00000130: 97bb 91bc 41c8 8e3d 4996 d43b 0212 863d
00000140: 1cd7 81bb efe5 1b3d ee70 89bb 554c fdbb
00000150: a7c9 103c 4be2 ad3d 2008 cebc 0b93 4bbb
00000160: aa42 7bbc 3076 7b3d 7f87 043a 0eaa e7bc
00000170: 35b8 53bc 54f3 9e3d 1496 2bbd cd9f 5b3d
00000180: 45bd a5bc 0504 523d 4adf 94bd 736f 2b3e
00000190: 39fe b23d 4968 d43d b128 6d3f 8168 cdbc
000001a0: 733e cd3d dc97 be3d 149d 47bd ef6b 553c
000001b0: 0a69 853d aa45 733d 8606 f63d 910c 083d
000001c0: 8d4b 863d 7b84 523a b4e7 dc3c 4789 a53d
000001d0: e4ac a73d 2e2f a4bc 410e 753d 3298 d43c
000001e0: 9172 b43c 973b 7f3c eb2d 033d ac26 48bd
000001f0: 3827 813d bd96 3cbc 4db8 c93c 7a03 213c
00000200: a79c 2bbd ab91 973d 5614 a53c 4a98 a6bb
00000210: fbf3 003d cf56 f73e c9bc 2d3e 5cb5 cc3c
00000220: 4cb7 803d 1450 14bd d06c bd3b 5fa0 a0bb
00000230: 2e06 273a 5517 cc3d 8473 433d ac75 44bc
00000240: 689d a2bc 45e1 593d 0318 bd3e 8a12 bc3d
00000250: f990 23bd c9f5 39bd ab8d 283b cf9b f1bc
00000260: e64b 8c3c 4010 c93e cf7b 0cbd ec6d 08bd
00000270: 4b4b e53c 6cc1 30ba 029f 3d3a c8d8 a53d
00000280: d903 173e 839a 193d 7ca9 d63c 078b ccbc
00000290: ea28 1a3d 60b6 adbd a329 ab3d 26ab 923c
000002a0: a705 143d 8af7 d93c e496 4c3e cd15 623c
000002b0: 39eb 55bd 0347 933d 9882 eabc 4f6e e13d
000002c0: 5123 ee3b 0aef 99bd 8d7f eb3c 5e01 07bc
000002d0: 7db3 47bd 8c7f 0d3c 8a27 673d e681 c43b
000002e0: 4be1 21bd 4691 f23d 3312 9cbd 1f76 903d
000002f0: 3ce2 023d d429 d4bc 91bf ef3d 0bc7 f3bd
00000300: 0431 e73b d26f 26bd 3ae8 57bb aa5c 0b3f
00000310: 8d0b 193f 35fc 113f b422 8a3d dc70 343d
00000320: 55e3 863c 57ef c13b 70e4 1c3c 4c24 813d
00000330: 5f81 7a3d df87 a43d 24bb 203d 82cc c1bc
00000340: c828 203d 89f7 193d 70fc 8c3c 1d34 0f3e
00000350: 2084 fb3d 6c5d 9f3d a5a1 df3c e4fc 923d
00000360: 0ea0 be3d 8479 bc3c eba7 de3c 5898 0abd
00000370: 8b50 e03d 1328 8fbb 9ad2 d4bb 648b 37bd
00000380: 2140 6d3c 44ee c2bc 531c 48bc 7c04 c2bd
00000390: f3ad 143d 57f2 5d3b 1160 1dbd eaa1 76bb
000003a0: d1bc ca3c 1e35 493c f8cb 423d b78c ddbc
000003b0: 5a2f 91bb 4159 8d3d 006b 093e 47aa 1dbc
000003c0: d5d2 ff3c c3bc 1a3d 127b 963a 919f e33c
000003d0: bdc4 5e3d f734 cd3b 8db3 453d f9a6 b03c
000003e0: 24c5 7fbd 4d91 9ebc 803e 1ebb 5ea4 78bd
000003f0: 79cd 703c fa66 8a3d a8f7 993d 8255 d0bd
0.100148335 -0.11704549 -0.010770521 0.044798065 0.025634276 -0.092391044 -0.03805303 0.026107185
0.04662796 0.08956063 0.034728315 0.19362216 -0.07853211 0.043172985 -0.07913925 -0.020785842
0.11668965 -0.018920133 -0.045405976 0.06762588 -0.0042464384 -0.0044355304 -0.051572748 -0.0120962085
0.039441295 -0.04385626 0.041752618 -0.020415394 -0.0054081297 -0.09169699 0.049506772 0.007677427
0.0019687486 0.05641984 0.022937559 -0.011647003 0.08619587 0.0064905616 0.02069944 -0.0050416146
0.100661725 0.08292455 -0.014295962 0.18443087 0.10541951 -0.0029355802 0.06099684 -0.013133007
0.0039178324 -0.010699337 0.0195466 0.06720759 -0.018597882 0.02263961 0.012246032 -0.04773699
0.04292199 -0.045840707 0.052491207 0.037082832 0.016149934 0.0345378 0.06831607 -0.093262486
-0.013586048 0.046594 0.2793469 0.08956562 0.07048576 0.029425472 -0.046609666 -0.03182495
-0.009545062 0.06455945 0.048551507 0.052909985 -0.017789645 0.06971789 0.006487642 0.065464035
-0.0039624106 0.03806108 -0.0041943705 -0.0077300468 0.00883714 0.084904276 -0.025150359 -0.0031062986
-0.015335718 0.06139201 0.0005055591 -0.02827933 -0.012922336 0.07761255 -0.041891173 0.053619195
-0.020231852 0.051273365 -0.072691515 0.16741733 0.087398954 0.10371453 0.92640215 -0.025074245
0.10021677 0.093063086 -0.048733786 0.013026222 0.06514175 0.05939261 0.12012963 0.03321511
0.06557379 0.00080306054 0.026965953 0.08082824 0.08187273 -0.020042028 0.059828047 0.025951479
0.022027286 0.015578172 0.032026213 -0.048865005 0.063063085 -0.011510548 0.024624014 0.009827489
-0.041897442 0.07400831 0.020151298 -0.0050840722 0.031482678 0.48308417 0.16966547 0.024988823
0.06284961 -0.03620918 0.0057807937 -0.00490193 0.0006371465 0.09965388 0.047717586 -0.011990946
-0.019850448 0.05319335 0.36932382 0.091832235 -0.03993318 -0.045400415 0.0025719206 -0.02949324
0.017126035 0.3927021 -0.03429776 -0.033307955 0.027990004 -0.00067426893 0.0007233472 0.08097988
0.14747562 0.03750087 0.026203863 -0.024968637 0.037636675 -0.08482051 0.08357551 0.017903876
0.036138203 0.026607294 0.19979435 0.013799143 -0.05222628 0.07191279 -0.028626725 0.11007368
0.0072673936 -0.07516296 0.028747344 -0.008240072 -0.048755158 0.008636367 0.05643419 0.0059969304
-0.039521497 0.11844115 -0.07620659 0.0705378 0.031954035 -0.025898851 0.1170646 -0.11903199
0.0070554037 -0.040633984 -0.0032944814 0.5443827 0.5978325 0.5702546 0.067449 0.044052944
0.016465822 0.005918424 0.009575948 0.06305751 0.061158534 0.08033728 0.03924097 -0.023657087
0.039101392 0.037589584 0.017210215 0.13984723 0.1228106 0.07781491 0.027298758 0.07177141
0.09307872 0.023007162 0.027179679 -0.033836693 0.10952862 -0.004368791 -0.006494832 -0.044810668
0.014480622 -0.023795255 -0.012213784 -0.094735116 0.036298703 0.003386637 -0.038421694 -0.003763313
0.024748238 0.0122807305 0.0475578 -0.027044637 -0.0044306936 0.069017895 0.13419724 -0.009623117
0.031228462 0.037777673 0.001148077 0.027786048 0.054386843 0.0062624174 0.048266936 0.021563994
-0.062443867 -0.019356394 -0.002414614 -0.060703628 0.014697426 0.067579225 0.0751794 -0.10172559

bias f4 [3]
00000000: a34c 37bf b9df 18bf 445b 33bf
-0.71601313 -0.59716374 -0.70061135

weight f4 [256, 14]
00000000: 9d6a 92be 55ed 31c0 a15e 1340 4165 35be
00000010: 69e3 d4bf 822a 9cbf 8e86 45bf cf00 3f3e
00000020: 217d 0a3f e40c 253e a0bd a4bd ade0 463f
00000030: 0c76 d5bf b049 0cc0 c9b4 1fc0 e2ff 23c0
00000040: ac92 34bf dcc9 77bf aaba 923f 347b 003f
00000050: 4f62 12bf 98f5 50bf 62a5 323f f71e 883d
00000060: e791 f13a 6971 073d 14e2 38be 043a 5a3d
00000070: 9e74 f0be 2b98 8840 bf74 7dc0 2cf8 82bd
00000080: 1f1e 4b3f 31c4 293f 7433 9bbd a8f7 e83e
00000090: 2142 85be 82e5 c4bd c33d f03d 1a9f f53e
000000a0: eb62 3f3f ad14 b23e bddf 11bd c756 823f
000000b0: c126 a03f f903 30c0 10f6 d03f 3989 b5bf
000000c0: 72c5 ef3f 8522 c93f a416 1dbe cb2b 2f3f
000000d0: 82de 6fbe 67be 02bf 91ba ad3f f814 a1be
000000e0: 388a 37bf 4d87 1740 afe3 dd3e 3976 ea3f
000000f0: 1fd9 3dc0 9da3 10bf f635 ea3d 832f 9dbe
00000100: 8fc3 1cbe f46e 0cbf 5668 0f3e 3cd5 8f3e
00000110: d83d 86be 6f26 85bf 4fe7 b4be 53b1 3cc0
00000120: 6e6d 86bd d93b a640 f274 c03f 875f 403f
00000130: ac98 9e3f 3e4a 6abd 7884 88be f238 8b3f
00000140: ff8a 993d dbd5 10bf d792 593f ebbe fdbc
00000150: d11b 03c0 a6d9 2ac0 706d 02c0 9f93 68bf
00000160: a88d cabf 7afd 5fbf 7542 62bf fac7 f03e
00000170: bc2e 013e 1958 e4be dccb 17be c1cd cb3e
00000180: 543f f53c e0aa 8fbd 4ff2 debe b803 c440
00000190: 06b1 24c0 b701 febf 74d5 593f 8cbd 273f
000001a0: b6d9 83bf 01c1 c93e b9be a7be 301b 24be
000001b0: fe7f cc3d c42d 36bc 25a8 b13c cbff 233e
000001c0: 7b4c e6be 6ce6 abc0 de37 ac3f 7d0e 6b3d
000001d0: 0ba8 4840 f7d0 34bf c972 8c3f 3eef a13e
000001e0: 1f6e 9abe cbea 83bc f67f 3bbe aca5 863d
000001f0: 2559 aa3d e549 89be abd4 d9be e0a7 86c0
00000200: da69 ca40 bf1b e9be 1224 2fbe ed2a 8c3e
00000210: 20be 553e e057 76be 34c5 c43e 4f7a 5d3d
00000220: d7f4 813e d58f c63f 6a67 82bf 844e b23e
00000230: dc36 78bf ebc0 3d40 64de 903f 2b2e 3f3f
00000240: e4d0 0440 0b13 8a3f ce4b 363e 2fb2 36bf
00000250: 41f4 0c3f 0649 8c3e cc73 b7be 928c 873d
00000260: 0c12 db3d 6526 cdbe b077 47be d581 67c0
00000270: 81f8 1140 e5eb 3e40 5ebf 833b 8e9a dabf
00000280: 1211 9cbf f1d5 c7be b8de 503f eb38 3e3e
00000290: 4466 05be b153 553f 087d 54bf 7e74 a73f
000002a0: 80ce acbf ed29 2d40 a700 3740 c67e 4ebf
000002b0: 5f6f 063e 73a1 39bf 59fc bd3f 6c34 0a3e
000002c0: 5e19 18bf 7125 d2be c0e8 3ebe 6ca4 7e3f
000002d0: 10e9 b23f 5b75 343f 5e12 87be 2a31 4f40
000002e0: 7b06 963f 7420 acbf b79a 0fbf 354c eebe
000002f0: dd53 2dbf 2b17 323f d16e 17bf 9c30 e73d
00000300: 531a 003e 6bba 7c3f 1691 f0bd a8b1 333d
00000310: 12e2 30bb d342 abc0 f69a 7840 46cc 8e3f
00000320: b3fa 5cbf 79b1 183f db20 993d eb6f 04bd
00000330: 87bc ca3d 8557 cdbd 798a cfbd ba75 a83c
00000340: 7a90 2bbd 2141 a8bb d457 773e 8dea 3ac0
00000350: 1d4a a13f 9e2b bc3f 6075 88bc c137 f4be
00000360: c186 153f 2130 003f 2987 6e3e e324 ee3e
00000370: a9fc 4f3e 52be fd3e cc3f eb3d acfa 49bf
00000380: 13c7 9c3e f1bd 5d3f 2f8e 5d3c 53fe da3e
00000390: 1b61 9a3e b8b6 a03e 4c66 a0be d265 36bd
000003a0: ade3 96be d8a5 6fbe 11eb f1bb 5e31 1dbe
000003b0: 64d9 64be abf0 83be 2763 f6bd 375f 093f
000003c0: cb49 4440 703c 66bf cae6 2f3f f376 5fbf
000003d0: b3f2 00be fe00 673e 14b4 2f3e 5480 4f3f
000003e0: 2612 a7be 99ad 433f 12ca 513f 9f2f 0dbf
000003f0: 87ad bf3e e872 9f40 f12a 2dc0 e115 22c0
-0.28596964 -2.7801106 2.3026507 -0.17714407 -1.66319 -1.2200472 -0.7715844 0.18652652
0.5409718 0.16118199 -0.080439806 0.7768658 -1.667665 -2.1919975 -2.4954093 -2.5624928
-0.70536304 -0.9679239 1.1463215 0.50187993 -0.57181257 -0.81624746 0.69783604 0.06646531
0.0018430323 0.03306714 -0.18054992 0.053277984 -0.46963972 4.268575 -3.9602506 -0.06394991
0.79342836 0.6631499 -0.07578173 0.45501447 -0.26027015 -0.09614088 0.1173053 0.47972947
0.7476031 0.347814 -0.035613764 1.0182732 1.2511827 -2.7502425 1.6325092 -1.4182502
1.873213 1.571366 -0.15340668 0.684262 -0.23424724 -0.5107178 1.357256 -0.3146131
-0.7169528 2.367633 0.4333777 1.8317329 -2.966377 -0.56499654 0.114360735 -0.3070031
-0.15308975 -0.548568 0.14004645 0.28092372 -0.26219058 -1.0402354 -0.35332724 -2.948323
-0.06563841 5.1948056 1.5035689 0.75145763 1.2390342 -0.05719971 -0.26663566 1.0876753
0.074972145 -0.5657632 0.84989685 -0.030974826 -2.0485728 -2.6695342 -2.0379295 -0.9085025
-1.582448 -0.8749615 -0.88382655 0.4702757 0.12615484 -0.44598463 -0.1482386 0.39805415
0.029937424 -0.07015014 -0.43544242 6.125454 -2.5733047 -1.9844273 0.8509133 0.655236
-1.0300815 0.39405063 -0.32762697 -0.16025996 0.0998535 -0.01111931 0.021686623 0.16015546
-0.44980225 -5.3718777 1.3454549 0.057386864 3.1352565 -0.70631355 1.097253 0.3162784
-0.3016214 -0.016103169 -0.18310532 0.06574568 0.08317784 -0.2681419 -0.42545065 -4.2079926
6.3254213 -0.4552898 -0.17103603 0.273765 0.20873308 -0.24056959 0.38431704 0.05407172
0.2538211 1.5512644 -1.018781 0.34825528 -0.9695871 2.9648998 1.1317868 0.7467982
2.0752497 1.0787061 0.17802355 -0.71365637 0.550602 0.27399462 -0.35830534 0.066186085
0.106968015 -0.40068355 -0.19479251 -3.6172993 2.2807925 2.9831479 0.0040206155 -1.7078416
-1.219271 -0.39030412 0.8158984 0.185764 -0.13027292 0.8333083 -0.8300328 1.3082426
-1.3500519 2.705684 2.8594148 -0.8066219 0.13128422 -0.72511977 1.4842635 0.1349656
-0.5941371 -0.4104419 -0.18643475 0.9946964 1.3977375 0.7049157 -0.263812 3.2373757
1.1720728 -1.3447404 -0.5609545 -0.46542516 -0.6770609 0.695666 -0.5915347 0.112885684
0.12510042 0.9872195 -0.11746423 0.043870598 -0.0026990217 -5.3519073 3.884458 1.1156089
-0.86320037 0.596458 0.0747697 -0.032333296 0.0989924 -0.10026459 -0.101338334 0.020563949
-0.04188583 -0.005134717 0.24154598 -2.9205658 1.2600743 1.4700811 -0.016657531 -0.47698787
0.58408743 0.5007344 0.23293747 0.46512517 0.20311226 0.49559265 0.11486778 -0.7889812
0.30620632 0.8661795 0.013522669 0.4277216 0.3015221 0.31389403 -0.31328046 -0.044530697
-0.29470578 -0.23403108 -0.0073827584 -0.15350863 -0.22348553 -0.25769553 -0.120306306 0.5366091
3.067004 -0.8993597 0.6871153 -0.8729088 -0.12592582 0.22558972 0.17158538 0.8105519
-0.32631034 0.76436764 0.8194896 -0.5515079 0.37437078 4.9827766 -2.705746 -2.5325854

bias f4 [256]
00000000: 53ea 43be d40d 84bb 864b 7bbe 8efc d33d
00000010: 647e 12bf 7df6 c6be 1506 afbe 1232 34bf
00000020: bfcf 1bbe 2a6e 51bf 24a4 35c0 bdb9 3ebf
00000030: cbb3 1fbe d5e4 023e 8407 acbe 53d7 c4be
00000040: bede 0540 a8aa 33bd b985 8bbf 54a5 65be
00000050: 8fe4 30c0 eaa5 d4be e778 c23f bd3d 053f
00000060: 4551 b8be 1d28 c73e c893 47bf eeac 133f
00000070: d9d6 9f3f 6244 1abf c268 b6bf 4039 0740
00000080: 26ac bb3e e6a9 143d b431 e13e 14ab ea3e
00000090: d404 59be e979 73bf ad1b 903f 608f 083e
000000a0: eefe 96bf 133f e73d da9c 0f3e e3b4 ab3e
000000b0: c965 08c0 0286 babe 2489 ec3f 8e33 f53e
000000c0: 5000 22be d62b c6bf d518 9ebe 124c d0bf
000000d0: 032c 8abf f654 d6bd c6f2 9fbe b481 cc3e
000000e0: 4e43 503c efa0 a7bf 3400 0740 54e7 9d3e
000000f0: 28ea 48bf ed73 a33e 5122 aebf 906e e43f
00000100: 1581 55bf 346f 3640 cc13 e43f d75b b3bf
00000110: 46ce 04bf 7c73 8dbe d116 6e3f 198b 4d3f
00000120: 072d a3bd 361d 6c3f f75b d6bf 9983 32bf
00000130: 6eda 29bf fee0 9ebf b185 abbd 9914 05bf
00000140: 0391 3f3d d14d b5be 788f 0d40 d3c7 9ebf
00000150: 7ebb f8bd db6c 22bf 6f1c 92bf af33 4dbf
00000160: 95d5 f6bf be4e 8fbd 3ea1 6abf 2ce5 f6bf
00000170: a9c9 bdbf 6dc5 a8bf 1eb3 d73f 38ce cabe
00000180: a883 43bc f8ed a63f 63eb 1ebf a7c0 5abf
00000190: aee5 313f 2f94 773f 18ca fd3f f86c e8be
000001a0: 4193 0040 9886 8bbf 8e34 3dbf 7020 d83f
000001b0: fb1e d3bf 2102 6cbf 92b6 6dbe 8bae 22bf
000001c0: f055 e03f 35b2 3ac0 200d f0bd 74bc 96bd
000001d0: 6056 9f3f ba62 e23d 067b 17bf a248 393f
000001e0: f292 43c0 d034 c3bf d72b 92bd 3463 c4bf
000001f0: 1908 95be 07bb b5be f3aa 1f3d 2cfb 43c0
00000200: 9ec1 d5be 20c7 a7bd 184e a63e c8c0 f13f
00000210: 493c c3bf 4108 2f3e 73f6 44bb 1277 b5bf
00000220: 547a 82be d1c0 e73f aa2b b2bf 6039 55c0
00000230: dbd1 0cc0 005f 6abe 38ea 3340 7c79 60bf
00000240: ed0b 9fbe 8270 4ebf d144 f4be 9b63 a7bf
00000250: 53f8 f5be db32 42bf 8bf7 50bf 34ba ecbf
00000260: b872 95bf 3d75 57bf 9ca7 323f 76eb 8e3f
00000270: 28b5 38bf cea2 d1be b4d7 553f 7b7e a2be
00000280: c142 a8bf 4ef3 58bf 68fa e6bf b8e2 7fbf
00000290: e4ca 07c0 5d2a 40bf 2cae 68c0 cc77 e2bf
000002a0: e957 0c3f 2a91 01bf e8db 75bf aee8 8cbf
000002b0: d231 81be a92e a6bf f439 263e e5cd 643e
000002c0: 6f61 f2bf c4d3 cbbe 2d48 e93f bb99 b53f
000002d0: 3284 e5bf a1c3 2e3e 42c3 923e 1cc5 09bf
000002e0: cc30 7abf 5e62 8a3f c5eb 67bf 2aad 52be
000002f0: 9dee b43f f708 5bbf ac4f 23bf 11fe 88be
00000300: 81fa 68bf 4f52 8ebe f09b 0e40 0abd 173e
00000310: 6468 66bf 0c6a 47bf dc7f 6ebf 5d8c 8f3f
00000320: e31c 89bf 6e10 d93f e958 b83f 1881 b3be
00000330: 5774 19c0 b275 4ebf 4168 c7bf 8303 f43e
00000340: e6f6 13c0 a9ff 99bf 7d5d 353e 0431 c9bf
00000350: 55ea 35bf 5ab1 ebbf a09c 4abf 4bfe 1abf
00000360: 89d3 12bf 4269 d93f 687b 85bf 0aa4 e6bf
00000370: 5893 bb3f de11 7e3e 4296 9cbf 64ec 923b
00000380: 4bb6 6c3f f288 4dbf 5ec5 e2be 9507 d6be
00000390: 40d3 92bf 883f 04bb 984b 153e 0668 9abe
000003a0: 7419 67bf 9dc7 4dbf 9b82 96bf dbd6 2dbf
000003b0: ade1 243f 5fc1 3bbc af5c a5be 8562 0640
000003c0: a85e e5bf 2299 d2bf eb41 80bf 040b 953f
000003d0: 6e2b 0c3f 51c7 b7bf e609 52bf ba4a 393f
000003e0: 448a 83bf fff1 7bbf ecf3 38bf c749 47c0
000003f0: f204 713e c00d dbbe 9f8c 373f 6b39 003c
-0.19132356 -0.0040299688 -0.24540529 0.10350905 -0.57224107 -0.3885993 -0.34184328 -0.703889
-0.15215968 -0.8180872 -2.8381433 -0.74502164 -0.1559593 0.12782605 -0.33599484 -0.3844553
2.09172 -0.043863922 -1.0900184 -0.22426349 -2.76395 -0.41532832 1.5193146 0.5204733
-0.35999504 0.38897792 -0.7795987 0.57685745 1.2487441 -0.60260594 -1.425072 2.1128693
0.36654776 0.03629484 0.43983233 0.45833647 -0.21193248 -0.95107895 1.1258446 0.13335943
-1.1796548 0.11291327 0.14024678 0.33536443 -2.1312125 -0.36430365 1.8479352 0.47890896
-0.15820432 -1.5482128 -0.3087832 -1.6273215 -1.0794681 -0.10465424 -0.3123991 0.39942706
0.012711359 -1.3095988 2.1093874 0.30840552 -0.78482294 0.31924382 -1.3604223 1.7846241
-0.8340009 2.8505373 1.7818542 -1.4012402 -0.5187725 -0.2762717 0.93003565 0.8029037
-0.07967573 0.9223207 -1.6746815 -0.6973205 -0.6634892 -1.2412412 -0.08375109 -0.51984555
0.046769153 -0.35410932 2.2118816 -1.2404732 -0.12145136 -0.6344735 -1.1414927 -0.8015699
-1.928393 -0.06997441 -0.91652286 -1.9288688 -1.4827167 -1.318525 1.6851537 -0.39610457
-0.011933245 1.3041372 -0.6207792 -0.85450214 0.6949109 0.96710485 1.9827299 -0.45395637
2.0089877 -1.090045 -0.7390832 1.6884899 -1.649383 -0.9219075 -0.23214176 -0.6354758
1.7526226 -2.917127 -0.117212534 -0.07360163 1.2448235 0.11053987 -0.59172094 0.72376454
-3.0558438 -1.5250492 -0.07137268 -1.5342774 -0.2910774 -0.35494253 0.03898139 -3.0622053
-0.4174928 -0.08192277 0.32481456 1.8886957 -1.5252773 0.17092992 -0.0030054122 -1.4176962
-0.25483954 1.8105718 -1.3919575 -3.331627 -2.2003086 -0.22887802 2.8111706 -0.8768537
-0.31063786 -0.80640423 -0.47708753 -1.3077272 -0.4804102 -0.7585885 -0.8162772 -1.8494325
-1.1675634 -0.84163266 0.69787 1.1165607 -0.7215142 -0.40944523 0.8353226 -0.31737122
-1.3145372 -0.84746253 -1.8045168 -0.9995532 -2.1217585 -0.7506464 -3.6356306 -1.7692809
0.5482164 -0.5061213 -0.96038675 -1.1008508 -0.25233322 -1.298299 0.16233045 0.22344168
-1.8935984 -0.39810002 1.8225151 1.418754 -1.7930968 0.17066814 0.28664595 -0.5381639
-0.9773071 1.0811269 -0.9059413 -0.2057387 1.4135319 -0.85560554 -0.63793445 -0.26756337
-0.9100724 -0.2779717 2.2282677 0.14818206 -0.9000304 -0.7789619 -0.9316385 1.121471
-1.071194 1.6958139 1.4402133 -0.35059428 -2.3977258 -0.8064834 -1.5578691 0.4765893
-2.3119445 -1.2031146 0.17711444 -1.5718083 -0.7106069 -1.8413498 -0.7914524 -0.6054427
-0.5735403 1.6985247 -1.0428286 -1.8018811 1.4654341 0.24811503 -1.2233355 0.0044837464
0.92465657 -0.80287087 -0.44291204 -0.4180266 -1.1470718 -0.002017947 0.14579618 -0.3015749
-0.90273213 -0.8038271 -1.1758608 -0.6790597 0.64406854 -0.0114596775 -0.32297274 2.0997632
-1.7919512 -1.6452982 -1.0020117 1.1643987 0.5475377 -1.4357702 -0.82046354 0.7237965
-1.027657 -0.9841613 -0.72247195 -3.113878 0.23537043 -0.42783928 0.71698946 0.0078261895
