data/PPO/Ant-v2/ppo_s19772/pyt_save/model.pt (torch_old, 769468 bytes, 12 tensors)

log_std f4 [8]
0	0xc01db156	-2.4639487
1	0xc02025af	-2.5023
2	0xc021da0f	-2.5289342
3	0xc024ab9e	-2.5729747
4	0xc025348c	-2.5813322
5	0xc01a82f2	-2.4142423
6	0xc017b7bc	-2.3705893
7	0xc02b1c68	-2.6736088

weight f4 [256, 111]
0	0x3cb9f963	0.022701925
1	0x3d7680bf	0.060181376
2	0xbd2ab376	-0.041675054
3	0x3db214d6	0.086953804
4	0x3c6f4f14	0.014606256
5	0xbe1c858b	-0.15285318
6	0x3d3a4949	0.045480046
7	0x3e0996eb	0.13436477
8	0x3cf8defd	0.030379767
9	0x3e22134d	0.15827675
10	0xbd3e8135	-0.04650994
11	0xbbc22b97	-0.0059256065
12	0x3d223280	0.03959894
13	0x3e02ce0d	0.12773915
14	0x3cc02f3f	0.023460029
15	0x3e8ed848	0.27899384
16	0xbdf78120	-0.120851755
17	0x3dd6d1d5	0.10489241
18	0xbcd4cb84	-0.02597595
19	0xbdca69fb	-0.098834954
20	0x3da4bcf1	0.0804385
21	0xbd6520df	-0.05593955
22	0xbd43ef70	-0.047835767
23	0xbe2e4744	-0.17019373
24	0x3e0fb3f1	0.14033486
25	0x3cd622db	0.026139667
26	0x3d8937d0	0.067000985
27	0x3da03065	0.078217305
28	0x3d9a461d	0.07532904
29	0x3d54eb7e	0.051982395
30	0xbda7f8ea	-0.082017735
31	0x3dafb00d	0.08578501
32	0x3db72213	0.08942046
33	0xbd02ef54	-0.031966522
34	0xbd33adf1	-0.043867055
35	0xbda43466	-0.08017807
36	0xbd80cdac	-0.06289229
37	0x3d8c1041	0.06839038
38	0x3d8cbf5d	0.06872437
39	0xbb5ba5e0	-0.0033515617
40	0x3daa68eb	0.08320793
41	0xbd6a9e8d	-0.057280112
42	0x3d6f315e	0.05839669
43	0x3d729e42	0.059232958
44	0xb8c2d000	-9.289384e-05
45	0x3d8ba839	0.06819195
46	0x3d1bf626	0.038076542
47	0x3a4ee080	0.00078917295
48	0xbda0002e	-0.07812534
49	0x3d227232	0.039659686
50	0xbd2618f3	-0.040551137
51	0x3c87d270	0.016579837
52	0xbd8b06e3	-0.06788423
53	0xbc548858	-0.01297196
54	0xbd8de5c8	-0.06928593
55	0x3d972b4d	0.07381306
56	0xbd2d0268	-0.042238623
57	0xbdaeccf9	-0.08535189
58	0xbd916ea7	-0.071011834
59	0xbb96d280	-0.0046027303
60	0x3d05757e	0.032582752
61	0x3c60d1b8	0.013721876
62	0x3d8f70d5	0.07003943
63	0xbc5eac60	-0.013590902
64	0x3d81d4fb	0.06339451
65	0x3d7ab01e	0.061203115
66	0x3c534778	0.012895457
67	0x3c975b68	0.018476203
68	0x3bbcd360	0.0057625026
69	0x3d53922e	0.05165308
70	0x3d0399a6	0.032128952
71	0x3d609252	0.054827042
72	0x3d30be76	0.043150388
73	0x3d921b4d	0.071341135
74	0x3cd51878	0.026012644
75	0xbce26cd8	-0.027639791
76	0x3d6240d2	0.0552376
77	0xbd4b03c9	-0.049564157
78	0x3db32261	0.08746792
79	0xbcfb75c0	-0.030695796
80	0xbd06e168	-0.032929808
81	0xbd51d17e	-0.051225178
82	0xbda5bdbe	-0.08092831
83	0x3d93e2ff	0.072210304
84	0xbc665ad0	-0.014059737
85	0x3d9ed3d5	0.077552475
86	0x3c731828	0.014837302
87	0x3cdbea8c	0.02684524
88	0xbd4a4d4d	-0.049390126
89	0xbd4808de	-0.04883658
90	0x3d7b83fa	0.06140516
91	0x3c3fa070	0.011695966
92	0x3c399dc0	0.011329114
93	0xbc636cb0	-0.013880894
94	0xbcb1c8a4	-0.021702118
95	0x3a9a4000	0.0011768341
96	0x3cf63488	0.030054346
97	0x3d365a56	0.044519745
98	0x3db3c87f	0.08778476
99	0x3d706162	0.05868662
100	0x3cdfd3b4	0.027322628
101	0x3d5e61be	0.054292433
102	0x3d92271d	0.071363665
103	0x3dbe3933	0.09288254
104	0xbd74b161	-0.059739474
105	0xbd11e800	-0.035621643
106	0x3c85679c	0.016284756
107	0xbd855446	-0.065102145
108	0x3d3c975e	0.046042792
109	0xbdb4c485	-0.088265456
110	0xbd19c2fe	-0.037539475
111	0xbda8eb0d	-0.082479574
112	0x3c4a3daf	0.012343808
113	0xbd319506	-0.04335501
114	0xbeb21fb2	-0.34789807
115	0x3d0c7b1d	0.034297097
116	0xbdca12c4	-0.098668605
117	0x3d7131e2	0.058885463
118	0xbd46aa18	-0.048502058
119	0xbd54a5b3	-0.051915836
120	0x3e6f833f	0.2338991
121	0x3df0d11c	0.117586344
122	0xbd585ad7	-0.052821007
123	0x3dea6fda	0.11447115
124	0xbc8b519b	-0.017006686
125	0x3c3e8d3e	0.011630354
126	0x3d45718b	0.048203986
127	0xbd34fdf5	-0.044187505
128	0xbe1cfabb	-0.15330021
129	0xbc70f0d1	-0.014705853
130	0x3d2520de	0.040314548
131	0x3df4060c	0.11915216
132	0xbdcbf2ca	-0.09958418
133	0x3d103b77	0.03521296
134	0xbd958133	-0.073000334
135	0xbb86722b	-0.0041029654
136	0x3e3e0c9e	0.185595
137	0x3d88fc99	0.06688804
138	0xbc893d44	-0.016752847
139	0xbc7e0240	-0.015503466
140	0xbcd37388	-0.025811926
141	0x3db24185	0.08703903
142	0xbd6d918c	-0.058000132
143	0x3d5b194a	0.053490914
144	0xbda10ce4	-0.07863787
145	0xbc3089c8	-0.010775037
146	0xbc80cac4	-0.015721686
147	0xbd8a953c	-0.067667454
148	0x3b39aec0	0.002833292
149	0x3dafb1b9	0.0857882
150	0x3d9ba2d1	0.07599414
151	0x3d4028d6	0.046913944
152	0x3d21d6a2	0.03951133
153	0x3c3f3688	0.011670716
154	0xbd911cf7	-0.07085603
155	0xbd641f18	-0.055693716
156	0xbd04c8f7	-0.032418218
157	0x3d7f57e6	0.062339686
158	0x3c7ccc28	0.015429534
159	0x3c14d068	0.009082891
160	0x3c64d348	0.013966389
161	0xbce42324	-0.027848788
162	0x3dbf93a3	0.09354331
163	0x3d4e16ee	0.050314836
164	0x3d8178d5	0.06321875
165	0x3ca0d16c	0.01963111
166	0x3d192782	0.037391193
167	0x3c9238c0	0.017849326
168	0xbd810e88	-0.063016
169	0x3c6de288	0.014519341
170	0xbd745f16	-0.059660994
171	0x3d455f4e	0.048186593
172	0xbd37b001	-0.044845585
173	0xbd9786b9	-0.07398743
174	0xbcdcfcbc	-0.026975982
175	0x3cdb0298	0.026734635
176	0x3d37565a	0.044760086
177	0x3d96b629	0.07358963
178	0x3cf3ee08	0.029776588
179	0x3c4c4180	0.012466788
180	0xbd512485	-0.05106022
181	0x3d78115e	0.060563438
182	0x3d84c947	0.06483703
183	0xbbd80e30	-0.006593488
184	0x3b99b0d0	0.004690267
185	0xbd95d87b	-0.07316681
186	0xbd3b686d	-0.045753885
187	0xbd9f9548	-0.07792145
188	0x3d6330ca	0.05546645
189	0x3d122b26	0.03568568
190	0xbd4e45eb	-0.050359648
191	0xbd2fdcad	-0.042935062
192	0x3d742a22	0.059610493
193	0x3b847000	0.0040416718
194	0xba971500	-0.0011526644
195	0x3db411ff	0.08792495
196	0xbd35bec1	-0.04437137
197	0xbd4f5317	-0.05061635
198	0xbc5ccf70	-0.013477191
199	0x3c89c824	0.016819067
200	0xbd32e4cd	-0.043675233
201	0x3dbedb31	0.09319151
202	0xbd96f130	-0.073702216
203	0xbdb1cfe6	-0.086822316
204	0x3c8e3a70	0.01736185
205	0xbdc147a3	-0.09437492
206	0xbd89005e	-0.06689523
207	0x3b79d4c0	0.0038121194
208	0xbd273136	-0.040818416
209	0x3cc88a9c	0.024480157
210	0xbc07a738	-0.008279614
211	0x3cc424f8	0.02394341
212	0x3d256c56	0.04038652
213	0xbd3e3a42	-0.046442278
214	0xbd3b9dd7	-0.045804825
215	0xbd24a3d9	-0.04019532
216	0x3cf7508c	0.030189775
217	0x3d7a37c6	0.061088346
218	0x3db9c8c9	0.090715
219	0xbd97d3ea	-0.07413466
220	0xbda0b472	-0.07846917
221	0xbd88c115	-0.066774525
222	0x3d184d39	0.03718302
223	0xbd4014d4	-0.046894863
224	0xbcc2d46f	-0.023782937
225	0xbd6a22eb	-0.057162207
226	0x3dec01ca	0.11523779
227	0xbe785c57	-0.24253975
228	0xbd5b5b96	-0.05355414
229	0xbd063b29	-0.032771263
230	0x3df30bec	0.11867508
231	0xbdf06b07	-0.11739164
232	0x3d2d8a4d	0.042368222
233	0xbe6efd57	-0.23338829
234	0xbd831034	-0.06399575
235	0xbe0fce0e	-0.14043447
236	0xbd4529f5	-0.048135716
237	0x3e245a7c	0.16050142
238	0xbd93d17f	-0.072176926
239	0x3e25c704	0.161892
240	0xbe0089a7	-0.1255251
241	0x3d3bc360	0.04584062
242	0xbd58c7a5	-0.05292477
243	0xbca05e68	-0.019576266
244	0x3c3ec7a7	0.0116442805
245	0x3df8516c	0.12124905
246	0xb9da633d	-0.00041654138
247	0xbdea1375	-0.114294924
248	0xbd8dd59b	-0.06925508
249	0xbd1a0136	-0.03759881
250	0xbc9d1958	-0.019177124
251	0xbd91ce96	-0.07119481
252	0xbb5d9660	-0.0033811554
253	0x3dac582f	0.08415257
254	0xbd232027	-0.039825585
255	0x3c05ea88	0.008173592

bias f4 [256]
0	0x3da9aaca	0.082845286
1	0x3d7568bd	0.05991434
2	0xbd6b13cc	-0.057391927
3	0x3d866aaa	0.06563313
4	0x3c95faa3	0.01830799
5	0xbceeb6ac	-0.02913984
6	0xbda96f80	-0.0827322
7	0xbe056933	-0.13028412
8	0x3d24aec6	0.04020574
9	0xbdd1a893	-0.10237231
10	0x3d905348	0.07047135
11	0x3df49d6a	0.11944087
12	0xbdb42b52	-0.08797325
13	0xbbb5dba6	-0.005549866
14	0x3d1feed3	0.03904612
15	0x3caf0905	0.021366606
16	0x3de1f221	0.110325105
17	0xbda5c567	-0.08094292
18	0xbceff252	-0.029290352
19	0xbd1e8161	-0.038697604
20	0x3c2c8471	0.010529623
21	0x3d8a033d	0.06738899
22	0x3d358708	0.04431823
23	0xbc3152db	-0.010822977
24	0xbd11a66b	-0.0355591
25	0xbd729ecd	-0.059233475
26	0xbdb4bf34	-0.088255316
27	0xbc55d9cb	-0.013052414
28	0xbdcacd67	-0.09902459
29	0xbd13f007	-0.03611758
30	0xbdaeb96e	-0.08531462
31	0xbd3e3443	-0.04643656
32	0x3de4c0a1	0.111695535
33	0xbdbe3c4d	-0.09288845
34	0xbc8a66af	-0.016894666
35	0xbdc08e04	-0.09402087
36	0xbd853efd	-0.06506155
37	0x3e19ba35	0.15012439
38	0x3d54b416	0.051929556
39	0x3baa7941	0.005202443
40	0x3d16b473	0.036793184
41	0xbd93f180	-0.07223797
42	0xbe01be6d	-0.12670298
43	0x3d69fd9b	0.057126623
44	0xbbf4684c	-0.007458722
45	0x3c28f249	0.0103116715
46	0x3c4daa2d	0.01255278
47	0x3d30734a	0.0430787
48	0xbdb09dfe	-0.086238846
49	0x3de748e0	0.11293197
50	0xbd369a47	-0.044580724
51	0x3c297777	0.010343424
52	0x3d3789c1	0.044809107
53	0xbc42e019	-0.011894249
54	0xbd97f1b2	-0.074191466
55	0x3c1e14ea	0.009648541
56	0x3d7af35b	0.061267238
57	0x3d5e875c	0.054328308
58	0xbdbf6317	-0.09345072
59	0x3d8b43a5	0.068000115
60	0xbc2dd65c	-0.010610189
61	0x3dcf0830	0.101089835
62	0xbde7f72a	-0.1132644
63	0xbb03a580	-0.002008766
64	0xbd96795c	-0.07347366
65	0x3d06adb1	0.03288049
66	0x3c5695b4	0.013097215
67	0x3ddd96c2	0.108197704
68	0xbd427f7b	-0.047484856
69	0xbcff3951	-0.03115526
70	0x3d603b6d	0.054744173
71	0x3dc07dc5	0.09398989
72	0x3d0eea47	0.034891393
73	0x3c3c9468	0.011509992
74	0xbcb42afd	-0.021993155
75	0x3d6daeb7	0.05802795
76	0x3dc4076a	0.095717266
77	0xbdb3c8c7	-0.087785296
78	0xbdccb31e	-0.099951014
79	0x3cce0d45	0.025152812
80	0x3dc15e5d	0.094418265
81	0x3dbbb3d2	0.091651574
82	0xbca742f5	-0.02041767
83	0x3d6c2cdc	0.05765997
84	0x3ccbe912	0.02489141
85	0x3db01cbe	0.08599232
86	0x3d471380	0.04860258
87	0x3ccfd8bc	0.025371902
88	0xbc826603	-0.015917784
89	0x3da863f1	0.08222187
90	0xbdc50252	-0.09619583
91	0xbdc39e30	-0.09551656
92	0x3da6de49	0.08147866
93	0x3d7e0ac9	0.062022004
94	0x3cc55913	0.024090325
95	0x3d2ab188	0.041673213
96	0x3d764167	0.060120966
97	0xbd0d395d	-0.034478534
98	0xbd9e3c2f	-0.07726323
99	0xbda953cb	-0.08267935
100	0x3c0b010f	0.008484139
101	0xbdaeb98b	-0.08531483
102	0x3cc6925c	0.024239711
103	0x3c11fc50	0.008910254
104	0x3d5033d8	0.050830692
105	0xbcfc3a67	-0.030789567
106	0xbbfabf62	-0.007652209
107	0x3d70f500	0.0588274
108	0xbdf5336e	-0.119727
109	0xbca2317d	-0.019798988
110	0x3d8e2baa	0.06941922
111	0x3d1e866c	0.038702413
112	0x3da2b980	0.079455376
113	0x3e087f49	0.13329805
114	0xbd886a75	-0.0666093
115	0xbe1404f1	-0.1445501
116	0x3bb41b08	0.0054963864
117	0x3d00f0f7	0.031479802
118	0xbca05c92	-0.019575391
119	0xbc0531ee	-0.00812958
120	0x3bfbe2a9	0.007686932
121	0xbd906efb	-0.07052418
122	0x3b240957	0.002502998
123	0xbdab5502	-0.08365823
124	0x3dad502d	0.08462558
125	0x3e003a01	0.12522127
126	0xbca2e045	-0.01988233
127	0x3d0e7f1c	0.03478919
128	0x3db72703	0.08942988
129	0xbd2237f0	-0.039604127
130	0xbd1f7792	-0.03893239
131	0xbe0a1cc0	-0.1348753
132	0x3e0d48db	0.13797323
133	0xbd89ee69	-0.06734926
134	0x3daf8896	0.085709736
135	0xbe149ccd	-0.1451294
136	0x3df6ad39	0.12044758
137	0x3d4f0179	0.050538514
138	0x3d86aa6a	0.06575473
139	0xbdbc94a1	-0.09208036
140	0x3d5bac9a	0.053631403
141	0x3c99f63e	0.018794175
142	0xbd67d383	-0.056598198
143	0x3ded8b0c	0.11598787
144	0xbda2cffe	-0.079498276
145	0xbde7b8b3	-0.113145255
146	0x3d622905	0.0552149
147	0x3d593c98	0.053036302
148	0x3b232265	0.0024892327
149	0x3dfc7a2e	0.123279914
150	0x3d48c8af	0.04901951
151	0xbd86771f	-0.06565689
152	0x3c790217	0.015198252
153	0xbca8ff37	-0.020629508
154	0x3d89c10a	0.067262724
155	0xbd7adabf	-0.06124377
156	0xbb9a6386	-0.004711571
157	0x3d24db36	0.04024812
158	0x3dced222	0.100986734
159	0x3d873b69	0.066031285
160	0xbca07761	-0.019588174
161	0x3d44f269	0.048082743
162	0x3dabad60	0.08382678
163	0x3d0cac91	0.03434426
164	0xbd5332a9	-0.051561985
165	0x3d9559db	0.07292529
166	0xbbe9be5e	-0.0071332892
167	0x3dd346f4	0.103162676
168	0xbdcafdec	-0.09911713
169	0xbe0f7368	-0.14008868
170	0xbcb2e4f0	-0.021837682
171	0x3c9fbb1d	0.019498402
172	0xbdd648d5	-0.1046311
173	0xbdee93d7	-0.11649292
174	0x3d3b03db	0.045657974
175	0x3dca02f3	0.09863844
176	0x3d79a0e7	0.060944464
177	0xbd2a83d9	-0.041629646
178	0x3c92cefc	0.017920963
179	0xbd69413d	-0.05694698
180	0x3d2ec9ce	0.042672925
181	0x3d64963e	0.055807345
182	0x3c84b8c8	0.016201392
183	0x3d793a18	0.06084642
184	0x3d3dda43	0.04635073
185	0x3dfa9f5c	0.12237427
186	0xbd2d5d46	-0.04232528
187	0xbd63e639	-0.05563948
188	0xbe1b96cd	-0.15194245
189	0x3dba7d7a	0.09105964
190	0xbd591fbd	-0.053008784
191	0xbdd8a269	-0.10577852
192	0xbc2ea9ca	-0.010660598
193	0x3c1af67f	0.009458183
194	0xbd6e0659	-0.058111522
195	0xbb1a9efc	-0.0023593297
196	0xbc88decf	-0.016707806
197	0xbdd579c3	-0.10423615
198	0xbcd4698d	-0.025929237
199	0xbd4fea61	-0.05076063
200	0xbcd95613	-0.026530301
201	0x3d5f3714	0.054495886
202	0x3dc36cec	0.095422596
203	0xbc8b3e85	-0.016997585
204	0xbcfd91ab	-0.030953249
205	0x3d99ea74	0.075154215
206	0xbd5c5f27	-0.05380168
207	0xbc095c5d	-0.0083838375
208	0x3d0ddbc4	0.034633413
209	0xbb789f40	-0.0037936717
210	0xbd2c80be	-0.042114966
211	0xbb610dbb	-0.003434046
212	0x3bfb74da	0.007673842
213	0xbd013040	-0.031540155
214	0xbded4e54	-0.115872055
215	0x3cc7f720	0.02440983
216	0xbba7e837	-0.0051241177
217	0xbdd20133	-0.10254135
218	0x3db2add8	0.08724564
219	0x3d4118a3	0.047142636
220	0xbdd2b4e4	-0.102884084
221	0x3dd03b74	0.1016759
222	0xbd6ca501	-0.057774547
223	0x3d4d2133	0.05008049
224	0x3d37a427	0.044834282
225	0xbd8c408e	-0.0684825
226	0x3d3635ee	0.044485025
227	0xbdae26e6	-0.08503513
228	0xbd51258a	-0.05106119
229	0xbd8c0b84	-0.06838134
230	0xbe0d93ba	-0.13825884
231	0xbac7188f	-0.0015189814
232	0xbbbd2cac	-0.0057731476
233	0x3d065e15	0.032804567
234	0xbda601ae	-0.08105789
235	0xbc8c0be0	-0.017095506
236	0x3d259dea	0.0404338
237	0xbda62ee6	-0.08114414
238	0xbdab0d04	-0.08352092
239	0x3db98c62	0.09059979
240	0x3dfca8f8	0.12336916
241	0x3dc13ca5	0.09435395
242	0xbd845479	-0.064614244
243	0x3cf0b59b	0.029383471
244	0x3d1f33e2	0.03886784
245	0xbc60c18e	-0.013718022
246	0xbc7737af	-0.01508896
247	0xbd91fe60	-0.07128596
248	0xbc34c639	-0.011033588
249	0x3a68f7f3	0.0008887045
250	0xbd30849c	-0.043095216
251	0x3dfa0a67	0.12209015
252	0x3cca948b	0.024729034
253	0x3d8cfff6	0.06884758
254	0xbd9a1459	-0.07523412
255	0xbd954622	-0.072887674

weight f4 [256, 256]
0	0xbd8054bd	-0.062661625
1	0xbd8e634f	-0.06952535
2	0x3cd4a429	0.025957184
3	0xbc92995c	-0.017895393
4	0x3cb48172	0.02203438
5	0xbd9765bf	-0.073924534
6	0xbbd37a7c	-0.0064538103
7	0xbd7ccaf7	-0.061717
8	0x3d6bb55c	0.057546005
9	0x3b842b8d	0.004033512
10	0x3c2e6a12	0.010645406
11	0x3bda448d	0.006661004
12	0x3cc297b7	0.023753984
13	0x3d75f17b	0.060044747
14	0x3d9d3832	0.07676734
15	0x3d906d2c	0.07052073
16	0xbd0ba8c5	-0.034096498
17	0x3c4cd87f	0.012502789
18	0x3c737c8e	0.014861239
19	0x3c0d1f52	0.008613424
20	0xbd244120	-0.04010117
21	0x3ccb8e62	0.024848167
22	0x3ca38c5a	0.019964386
23	0x3daaea9c	0.083455294
24	0x3d09edad	0.03367393
25	0x3d5b9dca	0.053617276
26	0x3cea9245	0.0286342
27	0xbd600846	-0.05469539
28	0xbd1796b4	-0.037008956
29	0x3abac782	0.0014250132
30	0xbd5ac740	-0.053412676
31	0xbc4a5d2f	-0.012351318
32	0x3cf378ca	0.029720683
33	0xbd58a984	-0.052896038
34	0x3cae6a8b	0.021291038
35	0x3d87688d	0.06611738
36	0xbd072e1f	-0.03300297
37	0x3d0f4269	0.034975443
38	0x3c034853	0.008012849
39	0x3d54e806	0.051979087
40	0x3cf25b5d	0.029584581
41	0x3ceddd12	0.029036079
42	0xbd1e1edb	-0.038603645
43	0xbd46832c	-0.04846494
44	0xbd2d9f47	-0.042388227
45	0xbd643d58	-0.055722564
46	0xbc922789	-0.017841117
47	0xbcf4c8c7	-0.029880894
48	0x3dab5022	0.083648935
49	0x3d39f7dc	0.045402393
50	0x3cfc6c6a	0.030813415
51	0x3d70c45c	0.058781013
52	0xbc42c0ce	-0.0118867885
53	0x3bca5600	0.006174803
54	0x3d2b4ebb	0.04182313
55	0xbd2c4531	-0.042058174
56	0x3b8f7da9	0.0043789935
57	0xbd42c489	-0.04755071
58	0xbd32ceef	-0.04365438
59	0xbd0b0ff7	-0.033950772
60	0x3c4e4390	0.01258935
61	0xbd42b4a9	-0.047535572
62	0xbc93868d	-0.018008495
63	0x3cc2925a	0.023751426
64	0x3d7437ae	0.059623413
65	0xbcd37a82	-0.025815252
66	0xbda69862	-0.081345335
67	0x3ce68866	0.028141212
68	0xbc1390f3	-0.009006727
69	0x3ce897bd	0.028392667
70	0xbd936b9b	-0.071982585
71	0x3d5776ed	0.05260365
72	0xbccd5254	-0.025063671
73	0xbd2c45f5	-0.042058904
74	0x3c83ca46	0.016087662
75	0xbd8720a6	-0.06598024
76	0x3be1e72c	0.006894013
77	0xbd6467db	-0.055763107
78	0x3d6d40ce	0.05792313
79	0xbc83d458	-0.016092464
80	0x3d16d1a4	0.036821023
81	0xbd31bbaf	-0.04339188
82	0xbb7ac5cb	-0.0038264866
83	0x3d468d3a	0.048474528
84	0x3d1413f0	0.036151826
85	0x3d8c27a2	0.06843497
86	0x3d6e22f3	0.0581388
87	0x3d6a1acd	0.057154465
88	0xbd2148ea	-0.039376177
89	0x3d6871a8	0.056749016
90	0x3cb78622	0.022402827
91	0x3d939146	0.07205443
92	0xbd4e9b39	-0.050441
93	0x3d52b633	0.05144329
94	0x3d0fce93	0.035109114
95	0xbc9a2b4a	-0.01881947
96	0xbd54431e	-0.05182182
97	0x3d74f183	0.059800636
98	0xbc315f7b	-0.010825987
99	0x3abe9489	0.0014540117
100	0xbc1959e7	-0.009359813
101	0xbc803521	-0.015650334
102	0x3c33e74e	0.01098044
103	0x3d7a9d52	0.06118519
104	0x3cb0cc0b	0.02158167
105	0xbbbb7bd2	-0.0057215476
106	0xbd2628bc	-0.04056619
107	0xbda11b5b	-0.07866546
108	0x3caadec1	0.02085817
109	0x3d1ec8b7	0.038765635
110	0x3d252dd8	0.040326923
111	0x3c3fe031	0.011711166
112	0x3c976358	0.018479988
113	0x3ce3ad18	0.027792498
114	0x3ca6535c	0.02030342
115	0x3d52b905	0.05144598
116	0x3d200908	0.039071113
117	0xbc88ebe2	-0.01671404
118	0xbd030864	-0.031990424
119	0x3d1a7a24	0.03771414
120	0xbbead0a5	-0.0071659856
121	0x3d18878f	0.037238654
122	0x3d133564	0.03593959
123	0x3d46114b	0.048356336
124	0x3c48c1f7	0.012253276
125	0x3cc9dc26	0.024641108
126	0xbdc6703b	-0.09689375
127	0xbd4cc651	-0.049993817
128	0xbbb5d999	-0.0055496213
129	0x3cece5d4	0.028918184
130	0x3d11e342	0.03561712
131	0xbc201ab2	-0.00977199
132	0xbce31990	-0.02772215
133	0x3cbd15e0	0.02308172
134	0xbb26c6ec	-0.0025448157
135	0x3ca034e2	0.019556466
136	0xbd26e705	-0.04074766
137	0x3d6da991	0.05802304
138	0x3d95cb1d	0.073141314
139	0x3c830c91	0.015997203
140	0x3ca9ff94	0.020751752
141	0x3d6387ab	0.055549305
142	0x3ca1689a	0.019703198
143	0xbd88099d	-0.066424586
144	0x3b7912b0	0.0038005523
145	0x3d69620a	0.056978263
146	0xbc570426	-0.013123548
147	0x3d90ddee	0.0707358
148	0xbd18847d	-0.037235726
149	0xbc426268	-0.011864282
150	0x3cb7372d	0.022365177
151	0x3d4f2dfb	0.05058096
152	0x3c3a4449	0.0113688195
153	0xbcb74c3b	-0.022375217
154	0x3cd879ae	0.026425209
155	0xbb4d5c24	-0.0031335438
156	0xbd546440	-0.05185342
157	0x3c577ef1	0.013152824
158	0x3c279442	0.0102282185
159	0xbdc31502	-0.09525491
160	0x3d72d79a	0.059287645
161	0xbc2c40c6	-0.01051349
162	0xbda197c6	-0.078902766
163	0x3d7a372b	0.06108777
164	0x3d041c84	0.032253757
165	0xba64130f	-0.000870035
166	0x3d0fc6e1	0.035101775
167	0x3cb156d7	0.021647854
168	0xbcae0fb0	-0.021247715
169	0x3d402c8b	0.04691748
170	0xba8359ff	-0.0010021328
171	0xbd3c1b62	-0.04592455
172	0xbd8edbb8	-0.06975502
173	0xbbe1b139	-0.0068875817
174	0xbca851c1	-0.020546796
175	0xbc01cb0d	-0.007921946
176	0xbbf50de1	-0.007478461
177	0xbcae82b3	-0.021302557
178	0xbca74b35	-0.020421604
179	0xba84be54	-0.0010127523
180	0x3d3077b6	0.043082915
181	0x3d831d14	0.064020306
182	0x3c10ea66	0.008844947
183	0x3d2ad6b7	0.041708674
184	0x3d035bcc	0.032069966
185	0xbd858c57	-0.06520908
186	0x39e0179f	0.00042742208
187	0xbc69eb64	-0.014277313
188	0x3ce550d0	0.027992636
189	0xbd1d225f	-0.038362857
190	0xbd5362e6	-0.05160799
191	0xbd3a4b2d	-0.04548185
192	0x3d8495b2	0.064738646
193	0x3ced7ce3	0.028990215
194	0x3b04ac98	0.0020244475
195	0x3d3e7f2d	0.046508003
196	0x3d20e02e	0.039276294
197	0xbd652af2	-0.05594916
198	0x3963667d	0.00021686587
199	0x3c3ef2dc	0.011654582
200	0x3c82c089	0.015960949
201	0x3c1cae21	0.009563
202	0x3db3a5c6	0.08771853
203	0x3d3568b6	0.044289313
204	0x3d96ddea	0.073665455
205	0x3d5c46da	0.053778507
206	0xbd94b24b	-0.07260569
207	0x3c6ff670	0.014646158
208	0xbd987439	-0.07444043
209	0xbd00dee0	-0.03146255
210	0x3ca47934	0.020077325
211	0x3d322db0	0.043500602
212	0xbcc45b38	-0.023969278
213	0x3db3207b	0.087464295
214	0xbd467e94	-0.048460558
215	0x3d54c908	0.05194953
216	0x3c98ef38	0.018668756
217	0xbca1623d	-0.019700164
218	0x3d7c3a32	0.061578937
219	0xbcc0cde5	-0.023535678
220	0xbc90988a	-0.017650861
221	0xbc7d8c59	-0.015475356
222	0x3d908dc5	0.070582904
223	0xbd477c9f	-0.048702832
224	0xbcaee79e	-0.021350678
225	0x3d6c8340	0.057742357
226	0xbcaf4052	-0.021392975
227	0x3cf44d48	0.029822007
228	0xbd9e3933	-0.07725754
229	0x3c61b106	0.013775116
230	0x3d00ed61	0.031476382
231	0xbd1b52eb	-0.037920874
232	0xbc7b7dc5	-0.01534981
233	0x3da177ee	0.07884203
234	0xbca9cf66	-0.020728778
235	0x3d8a0838	0.06739849
236	0xbc8f4e2d	-0.017493332
237	0xbc369340	-0.011143506
238	0xbddae516	-0.10688226
239	0xbac152e9	-0.0014749441
240	0x3c6b0509	0.014344462
241	0xbcbe215d	-0.023209268
242	0xbb8a0842	-0.00421241
243	0x3c3f6b83	0.011683348
244	0x3d288e8f	0.04115158
245	0x3d03dbc1	0.032191996
246	0xbb795f04	-0.0038051018
247	0xbae9bb29	-0.0017832267
248	0xbc73a032	-0.0148697365
249	0x3c8d6e05	0.017264375
250	0x3c832976	0.016010981
251	0xbd3978f0	-0.04528135
252	0xbda33acb	-0.07970198
253	0x3b4a28dc	0.0030847108
254	0x3d0ff553	0.03514607
255	0xbd04346c	-0.032276556

bias f4 [256]
0	0x3cb6b871	0.022304745
1	0xbd254076	-0.040344678
2	0x3da77bec	0.08177933
3	0xbb8a1a6a	-0.0042145746
4	0xbd3fd5a7	-0.046834614
5	0x3d53e950	0.051736176
6	0x3b947640	0.004530698
7	0xbd988206	-0.07446675
8	0x3ceacd01	0.028662207
9	0x3d78c23d	0.060732115
10	0x3d2f779a	0.04283867
11	0xbcf37605	-0.029719362
12	0xbb9448e3	-0.0045252903
13	0x3c826740	0.015918374
14	0xbca30f25	-0.019904682
15	0xbd965328	-0.073400795
16	0x3d1dee25	0.03855719
17	0xbd5da2c3	-0.0541103
18	0x3d27d79c	0.040977105
19	0xbd24982a	-0.040184177
20	0xbd2582f3	-0.040408086
21	0xbb2b0e80	-0.0026101172
22	0x3d9a4aa3	0.07533767
23	0x3d67bbfb	0.056575757
24	0x3d788e72	0.06068272
25	0x3c3ca890	0.011514798
26	0xbd1c2569	-0.038121615
27	0xbce14c92	-0.027502332
28	0xbd0369d2	-0.03208334
29	0x3d816a1b	0.06319066
30	0x3c6df084	0.014522675
31	0xbce6c790	-0.02817133
32	0x3d891bb1	0.06694735
33	0x3c0376be	0.008023916
34	0x3beebc51	0.0072856327
35	0x3c2f9934	0.010717679
36	0xbdbd790f	-0.09251606
37	0xbb665817	-0.003514772
38	0x3d39bd72	0.045346685
39	0xbc8aee27	-0.016959263
40	0xbc0d5438	-0.008626036
41	0xbdae24ce	-0.08503114
42	0xbd250528	-0.04028812
43	0x3d669cfd	0.05630206
44	0x3da1873d	0.07887123
45	0xbb63cad6	-0.003475835
46	0x3cc30dc7	0.02381028
47	0xbd4cbf5c	-0.049987182
48	0xbcb81a8f	-0.022473602
49	0xbd43a227	-0.047762062
50	0xbd1b6f40	-0.037947893
51	0x3cea6403	0.028612142
52	0xbbefe7b1	-0.007321321
53	0xbd884c5b	-0.06655189
54	0xbc193f52	-0.009353476
55	0xbc87b027	-0.016563488
56	0x3daae6d8	0.08344811
57	0x3d88e10d	0.0668355
58	0xbd5c0b44	-0.05372168
59	0x3dbb0b53	0.09133019
60	0xbcda8fc2	-0.026679877
61	0xbd2ab951	-0.041680638
62	0x3c31661e	0.010827569
63	0x3d0c23ba	0.03421376
64	0x3d21cc87	0.039501693
65	0xbc5764b2	-0.013146566
66	0x3c8105f5	0.01574991
67	0x3b2ac4ed	0.0026057318
68	0x3cb77252	0.02239338
69	0xbd52c3ef	-0.051456388
70	0xbd58ac5f	-0.05289876
71	0x3cb7f513	0.022455728
72	0xbe0fc23f	-0.14038943
73	0x3dc0beda	0.09411402
74	0xbd7f603a	-0.06234763
75	0xbd32132e	-0.043475322
76	0x3b0a82ed	0.0021135167
77	0x3c915077	0.017738564
78	0xbb2c1ab0	-0.0026261024
79	0xbd8e9f93	-0.0696403
80	0xbcee3c9c	-0.029081635
81	0xbd042189	-0.032258544
82	0x3d2eb546	0.042653345
83	0xbd0f5975	-0.034997422
84	0x3dba2d23	0.090906404
85	0xbc00f06b	-0.00786982
86	0xbc48d1fb	-0.0122570945
87	0x3d9cbf2d	0.076536514
88	0xbdada369	-0.08478434
89	0x3c446145	0.0119860815
90	0xbd3a0b2f	-0.04542082
91	0x3d5b3afc	0.05352305
92	0xbc113e8d	-0.008865011
93	0x3c1d7a15	0.009611626
94	0xbd49e916	-0.049294554
95	0xbd60d0a5	-0.05488648
96	0xbd072669	-0.032995615
97	0xbd02036c	-0.031741545
98	0xbbab5167	-0.00522821
99	0x3d591858	0.05300173
100	0x3d0e5aee	0.034754686
101	0xbcf08712	-0.029361282
102	0x3ca53d7f	0.020170925
103	0x3d3a098b	0.045419257
104	0xbccfad15	-0.025351087
105	0x3cc6fb0d	0.024289632
106	0x3ca91c31	0.020643326
107	0xbc2444e6	-0.010026192
108	0x3cdcf501	0.026972296
109	0x3d48cc9d	0.04902326
110	0xbd346b52	-0.04404766
111	0x3cd91ff9	0.026504504
112	0x3ceaedb6	0.028677803
113	0x3caad324	0.020852633
114	0xbbb39822	-0.005480782
115	0x3b633dff	0.0034674404
116	0xbd074d07	-0.033032443
117	0x3d91d10c	0.07119951
118	0xbd1e6bd8	-0.038677067
119	0xbb1887ff	-0.002327442
120	0x3cdb97f1	0.02680585
121	0xbd599e34	-0.05312939
122	0xbd8c2498	-0.06842917
123	0x3d71db28	0.059046894
124	0x3c07d9b3	0.00829165
125	0x3bb7cda2	0.00560923
126	0x3d44e43b	0.04806922
127	0xbd38f11e	-0.045151822
128	0xbd08f138	-0.03343317
129	0xbd0ac032	-0.033874698
130	0x3d1f3b78	0.038875073
131	0xbc2e6832	-0.010644959
132	0xbd89ec73	-0.06734552
133	0xbcbf1d7c	-0.023329489
134	0x3c74489a	0.014909888
135	0xbcd0ce1e	-0.02548891
136	0x3d408170	0.04699844
137	0xbcbbb50e	-0.022913482
138	0x3c797e66	0.01522789
139	0x3d0ffad5	0.03515132
140	0xbbd63cd4	-0.006538013
141	0x3d896760	0.0670917
142	0xbbe1d3ae	-0.0068916893
143	0xbc45918e	-0.012058629
144	0xbb5b0e3c	-0.0033425232
145	0xbda29739	-0.07939
146	0x3c5bd5bc	0.013417657
147	0x3cf678fc	0.030086987
148	0x3c950c85	0.018194446
149	0x3d09b62b	0.033620995
150	0x3d389b5e	0.045070045
151	0x3d88ae7d	0.06673906
152	0xbd32cae2	-0.043650515
153	0xbc6732f7	-0.014111272
154	0x3d691439	0.05690405
155	0xbdb6ff46	-0.08935408
156	0xba27e4ce	-0.0006404639
157	0x3c4a82d8	0.012360297
158	0x3cc8128e	0.02442291
159	0x3d3c27be	0.04593634
160	0x3d449a65	0.047998805
161	0x3d51200e	0.05105596
162	0xbc935b01	-0.01798773
163	0x3c861e7d	0.01637196
164	0x3c8b9a43	0.017041331
165	0xbc1f13f0	-0.009709343
166	0xbbca9146	-0.0061818687
167	0x3d706b42	0.05869604
168	0xbd39c056	-0.04534944
169	0xba4451fb	-0.00074890227
170	0x3e0de4ad	0.13856764
171	0x3d224294	0.039614275
172	0x3d6b622b	0.057466667
173	0x3cc1193e	0.023571607
174	0xbb4ddedd	-0.0031413354
175	0xbd2d4eb7	-0.042311396
176	0x3d625e6d	0.055265833
177	0xbd55bd77	-0.05218264
178	0x3d8b22a9	0.0679372
179	0x3c687440	0.014187872
180	0x3d0593fb	0.03261183
181	0xbd66a11d	-0.056305993
182	0x3b5abb70	0.0033375882
183	0x3cbf7287	0.02337004
184	0x3d11d1de	0.035600536
185	0xbd520869	-0.05127755
186	0xbd0de92a	-0.03464619
187	0xbd4e7502	-0.050404556
188	0xbd6b285f	-0.057411548
189	0x3d0a75ae	0.033803634
190	0x3d5c032c	0.053713962
191	0x3d09e24b	0.033663075
192	0xbd9d1191	-0.07669366
193	0xbcf772a0	-0.030206025
194	0x3d4d1a82	0.050074108
195	0x3c1416dd	0.009038654
196	0x3cc7bf85	0.024383316
197	0x3b9f70d0	0.004865743
198	0xbd260100	-0.040528297
199	0xbc5962cd	-0.013268185
200	0x3d340699	0.043951605
201	0x3c3da8d1	0.0115758935
202	0xbd544843	-0.051826727
203	0x3d01ace1	0.03165901
204	0x3b06abba	0.0020549134
205	0x3d34f62f	0.04418009
206	0x3d4eeaf5	0.05051704
207	0xbca4e282	-0.020127539
208	0xbc2699ae	-0.010168476
209	0x3c608d06	0.013705498
210	0x3d80e2ae	0.06293236
211	0x3c35a13f	0.011085807
212	0x3ba51dc4	0.0050389487
213	0x3c80a562	0.01570386
214	0xbc412ca2	-0.011790426
215	0xbd721fb9	-0.059112284
216	0x3d386bef	0.04502481
217	0x3c70e26e	0.014702423
218	0xbdb25288	-0.08707148
219	0xbdb61812	-0.0889131
220	0x3d35dab2	0.044398017
221	0xbbcea994	-0.0063068364
222	0x3d87679e	0.0661156
223	0xbd8e7b86	-0.06957154
224	0xbd193267	-0.037401583
225	0xbd2e9ade	-0.04262816
226	0x3c404058	0.011734091
227	0x3cba3d01	0.022734167
228	0x3c991da8	0.018690899
229	0xbd0e8c89	-0.034801994
230	0x3d64efdd	0.055892814
231	0xbd08c013	-0.0333863
232	0xbd849dc4	-0.06475404
233	0x3cb4984a	0.022045273
234	0xbdf555be	-0.11979245
235	0xbc39248a	-0.0113002155
236	0xbc892d9f	-0.016745387
237	0x3c0260d8	0.00795766
238	0xbc12280a	-0.008920679
239	0xbd140da4	-0.03614582
240	0x3ca8d282	0.02060819
241	0xbdd0b0e9	-0.10189993
242	0x3d5dde00	0.054166794
243	0x3cf9f577	0.030512555
244	0xbd866eed	-0.06564126
245	0x3d35a08b	0.04434256
246	0xbd9fff5d	-0.078123786
247	0x3d54d082	0.05195666
248	0xbcc8907d	-0.02448296
249	0xbcb49091	-0.02204159
250	0xbd2f2ce4	-0.04276742
251	0xbc15ddee	-0.00914715
252	0xbe08769e	-0.13326499
253	0x3bdb4b3a	0.0066923173
254	0x3c4409c9	0.011965224
255	0x3ddc1e31	0.10747946

weight f4 [8, 256]
0	0x3d9ced52	0.07662453
1	0x3c9e2282	0.019303564
2	0xbd5b76b4	-0.05358
3	0x3d55747a	0.052113034
4	0xbccc8e78	-0.024970278
5	0xbd1aa605	-0.037755985
6	0x3dd3e66b	0.10346683
7	0xbd86f20f	-0.06589138
8	0xbcf57f80	-0.029968023
9	0xbcb88673	-0.022525048
10	0x3cb837f1	0.022487612
11	0xbcb71c9e	-0.022352513
12	0xbd38024c	-0.044924065
13	0xbcb3f106	-0.021965515
14	0x3c7528e4	0.014963362
15	0x3e062363	0.13099436
16	0xbd96526d	-0.0733994
17	0xbb410eb2	-0.0029458222
18	0x3cc9777e	0.024593111
19	0xbd36c661	-0.044622783
20	0xbcff08e0	-0.031132162
21	0x3cab7f66	0.020934772
22	0xbd51b02a	-0.051193394
23	0xbd80db97	-0.062918834
24	0xbd28a959	-0.041177128
25	0x3d94384c	0.072373
26	0x3d398619	0.0452939
27	0x3caf1a79	0.021374928
28	0xbdb8905c	-0.09011909
29	0x3c31ee76	0.010860076
30	0xbdad721b	-0.084690295
31	0xbdcad978	-0.0990476
32	0x3d512d51	0.051068608
33	0x3d7d9d73	0.061917733
34	0xbcb7289c	-0.022358231
35	0x3ca43bb4	0.020048
36	0xbd884e29	-0.06655533
37	0x3d071cb6	0.032986365
38	0xbd87b12b	-0.06625589
39	0xbd05ae13	-0.032636713
40	0x3d3a5d3c	0.04549907
41	0x3e031bd2	0.12803581
42	0x3c131685	0.008977537
43	0x3d9b2610	0.07575619
44	0xbd187b9d	-0.03722726
45	0xbd5db150	-0.054124177
46	0xbd884fd0	-0.06655848
47	0x3d3493a6	0.04408612
48	0xbcf6e4e0	-0.030138433
49	0xbba7c349	-0.0051197154
50	0xbcf7c0a2	-0.030243222
51	0xbd4ca14e	-0.04995852
52	0xbd7e819e	-0.06213533
53	0xbbf2d57a	-0.0074107023
54	0xbd729616	-0.059225164
55	0x3c327031	0.010891006
56	0xbcc9620e	-0.024582889
57	0x3cae76e2	0.021296922
58	0xbd5a4b78	-0.05329463
59	0xbc580a7c	-0.013186093
60	0x3dd0f1b7	0.102023534
61	0x3da8fc9b	0.08251306
62	0x3ca0c781	0.01962638
63	0xbd94047f	-0.0722742
64	0x3d9baf95	0.07601849
65	0x3d8d2fe8	0.06893903
66	0xbb6159e9	-0.0034385866
67	0x3d82f1dc	0.06393787
68	0x3cf49f20	0.029861033
69	0x3d264362	0.040591605
70	0x3dad9b3f	0.084768765
71	0xbda669b3	-0.08125629
72	0x3d9282e2	0.0715387
73	0x3cf7a4c6	0.030229937
74	0xbca8072c	-0.020511232
75	0x3d89d9eb	0.06731018
76	0xbe077582	-0.1322842
77	0x3db67be9	0.08910353
78	0x3d74ccd4	0.05976565
79	0xbd999dc9	-0.07500798
80	0x3c419473	0.011815178
81	0x3d80a9f8	0.06282419
82	0xbb94c1b9	-0.004539695
83	0x3caba292	0.020951543
84	0x3dec9e08	0.115535796
85	0xbd801a85	-0.06255058
86	0x3d1e2027	0.03860488
87	0xbda413bb	-0.08011576
88	0xbd80f097	-0.06295889
89	0xbcb30213	-0.021851575
90	0xbc779d81	-0.015113235
91	0x3de05227	0.10953169
92	0xbd5a6dc0	-0.053327322
93	0x3d3bc069	0.045837793
94	0x3cf83048	0.03029646
95	0x3d67caa3	0.056589734
96	0xbd88294f	-0.06648504
97	0x3d5bedd6	0.053693615
98	0xbd2bbc42	-0.041927584
99	0xbceacb92	-0.028661523
100	0x3c59e481	0.0132991085
101	0xbd88485c	-0.066544265
102	0xbcdaa28b	-0.026688835
103	0xbd94daef	-0.07268321
104	0x3ccb37db	0.024806907
105	0x3d372b04	0.044718757
106	0x3ba35795	0.004984806
107	0x3c35aae0	0.011088103
108	0xbd902e45	-0.07040075
109	0x3db93180	0.090426445
110	0x3dcaa946	0.098955676
111	0xbc6496a0	-0.013951927
112	0xbd8543ab	-0.06507047
113	0xbda2bec8	-0.07946545
114	0xbc4f0938	-0.012636475
115	0xbd6d055e	-0.057866447
116	0xbd3c9525	-0.046040673
117	0xbb82d67c	-0.0039928537
118	0xbd233fff	-0.039855953
119	0xbd4d8175	-0.050172288
120	0xbd17fec5	-0.0371082
121	0x3d22405f	0.03961217
122	0x3d3c8c9c	0.046032533
123	0xbda2149d	-0.07914088
124	0xbbd9dd49	-0.0066486937
125	0x3e109ed2	0.14123085
126	0x3c95cd2a	0.018286306
127	0xbdc45b9c	-0.095877856
128	0x3d507a21	0.05089772
129	0x3d295027	0.041336205
130	0x3ceb1c52	0.028700028
131	0x3d54145d	0.051777232
132	0x3cc788c5	0.024357209
133	0xbd006f40	-0.031356096
134	0x3dec3d04	0.11535075
135	0x3c4a2536	0.012337973
136	0xba94a867	-0.0011341692
137	0x3d254bae	0.040355377
138	0xbc29078b	-0.01031674
139	0xbd8dfcd7	-0.06932991
140	0xbd4b4bbd	-0.049632777
141	0xbc372fe6	-0.0111808535
142	0xbdb0a00a	-0.08624275
143	0xbdc11a10	-0.09428799
144	0xbcdc5c0c	-0.02689936
145	0xbd82e78d	-0.06391821
146	0xbd9c2240	-0.0762372
147	0x3dbc130d	0.09183321
148	0xbda9582b	-0.0826877
149	0x3d8ed245	0.069736995
150	0xbcd2e71f	-0.025744973
151	0x3d883c6e	0.06652151
152	0x3d5c33a1	0.053760175
153	0x3d806c23	0.062706254
154	0x3d534f5d	0.05158936
155	0x3da29680	0.07938862
156	0xbd59c31f	-0.053164598
157	0xbd01ca69	-0.031687174
158	0xbd4aa686	-0.049475215
159	0x3dcd500c	0.10025033
160	0x3d93849f	0.0720303
161	0xbd3d46ad	-0.04620998
162	0xbca0431d	-0.019563252
163	0xbd319f9b	-0.043365102
164	0x3dd37425	0.10324887
165	0x3da7c825	0.081924714
166	0xbd3a7287	-0.045519378
167	0xbcb86768	-0.022510245
168	0x3d7b3728	0.061331898
169	0x3ccfc200	0.025361061
170	0xbd25d39e	-0.040485017
171	0xbd9ec42e	-0.07752262
172	0xbd887c05	-0.0666428
173	0x3d31d8df	0.043419715
174	0xbd163ebb	-0.03668092
175	0xbd3f339d	-0.04668008
176	0xbd597763	-0.05309237
177	0x3cbc1907	0.022961153
178	0x3b7894d1	0.0037930498
179	0x3d4e1ab6	0.050318442
180	0xbdc8ddf5	-0.0980796
181	0x3d85aaa1	0.065266855
182	0x3df3c6ad	0.11903129
183	0x3c9b3fc3	0.018951302
184	0x3d8b7475	0.06809322
185	0x3b7f647e	0.003896981
186	0x3d99b45b	0.07505103
187	0xbd709679	-0.058737252
188	0xbd015125	-0.031571526
189	0x3daafeff	0.08349418
190	0x3cfc4c44	0.030798085
191	0xbb5d08e9	-0.0033727235
192	0x3dcebe37	0.10094874
193	0xbdae70c8	-0.08517605
194	0xbd994872	-0.07484521
195	0xbd71eb74	-0.059062436
196	0xbd20ab28	-0.039225727
197	0xbdb4fe61	-0.088375814
198	0xbd1fa034	-0.03897114
199	0x3caee95e	0.021351513
200	0xbade9cd4	-0.0016983994
201	0x3db7005e	0.08935617
202	0x3cb03c50	0.021513134
203	0xbcbbbbce	-0.0229167
204	0x3db89b60	0.090140104
205	0xbda74383	-0.08167174
206	0x3cd9700a	0.026542682
207	0x3d3ba888	0.04581502
208	0x3d4e2d1b	0.050335985
209	0x3d53e79b	0.051734548
210	0x3dc5fb84	0.096671134
211	0xbddbea1d	-0.10738013
212	0xbdc7e226	-0.09759931
213	0x3c9e04b9	0.019289361
214	0xbd6c4be0	-0.057689548
215	0x3c5e3d4b	0.013564418
216	0xbd837319	-0.064184375
217	0xbd95b99d	-0.073107935
218	0x3d17c1f8	0.037050217
219	0x3c992bb8	0.018697605
220	0xbdcf2e9a	-0.101163104
221	0xbda7b5f9	-0.081890054
222	0x3b78c6cb	0.0037960287
223	0x3bd6ede9	0.006559123
224	0xbcb4f19e	-0.022087868
225	0xbdf83256	-0.12118976
226	0xbc2dcefb	-0.01060843
227	0x3c2c17b3	0.010503697
228	0xbd5d9661	-0.05409849
229	0x3c50f392	0.012753384
230	0xbd38c12f	-0.04510611
231	0xbcfaf1e2	-0.030632917
232	0xbd9ee559	-0.07758588
233	0x3df84a70	0.12123573
234	0x3d3db15a	0.046311714
235	0x3dc61aea	0.09673102
236	0xbdbdd016	-0.09268205
237	0xbcc292fb	-0.023751726
238	0x3d3eaed0	0.046553433
239	0x3dbef408	0.09323889
240	0x3ca58a82	0.020207647
241	0x3d901c4e	0.07036649
242	0x3d76559f	0.06014025
243	0xbd8069e9	-0.06270201
244	0xbbf0817f	-0.007339656
245	0x3d8307bc	0.063979596
246	0xb9dd11d2	-0.00042165682
247	0xbd8919bd	-0.06694362
248	0x3bc295bd	0.0059382604
249	0x3d5e433a	0.05426333
250	0xbb89a0c1	-0.0042000716
251	0x3d540579	0.05176303
252	0x3d26594e	0.04061251
253	0xbc98260a	-0.018572826
254	0x3d2876aa	0.041128792
255	0xbd806461	-0.06269146

bias f4 [8]
0	0x3bc4e7ab	0.0060090623
1	0x3cbac974	0.022801138
2	0x3c5338ef	0.012891992
3	0x3d957213	0.072971486
4	0x3aa7fb29	0.001281594
5	0xbd11e048	-0.035614282
6	0x3d1d0e3b	0.03834365
7	0xbd0fbf56	-0.03509458

weight f4 [256, 111]
0	0xbf6612e6	-0.89872587
1	0xbe224a0f	-0.15848564
2	0x3e515d0c	0.20445651
3	0x3eaf1c2d	0.34201184
4	0x3e46c0d8	0.19409502
5	0x3f76adf4	0.9635918
6	0x3def80dc	0.116945
7	0x3fa5ac70	1.2943249
8	0xbe600dff	-0.21880339
9	0xbf45323a	-0.77029765
10	0x3de88880	0.1135416
11	0x3eee58b9	0.46552065
12	0x3f1251d6	0.5715612
13	0x3d448198	0.047975153
14	0x3f6ed140	0.9328804
15	0xbef45fb9	-0.4772928
16	0xbf2f8eb4	-0.6857712
17	0x3f7999a3	0.97500056
18	0x3f077d66	0.5292572
19	0x3d9118c7	0.07084804
20	0x3f987cf0	1.1913128
21	0x3ea35f6c	0.3190874
22	0xbf478471	-0.77936465
23	0xbef02b85	-0.46908203
24	0xbe24046e	-0.16017315
25	0xbefe5033	-0.49670562
26	0x3f318665	0.69345695
27	0x3d400dee	0.046888284
28	0xbd492275	-0.049105126
29	0xbdb970c4	-0.090547115
30	0x3c790b50	0.015200451
31	0x3c7a2fa8	0.015270151
32	0x3ba6b710	0.0050877407
33	0x3c529490	0.012852803
34	0xbd99c2d1	-0.075078614
35	0x3d14c17a	0.036317326
36	0xbd1855dd	-0.03719126
37	0xbc5c2468	-0.013436414
38	0x3d5ad606	0.053426765
39	0xbd82595a	-0.06364699
40	0x3cf1e410	0.029527694
41	0xbd4b204c	-0.049591348
42	0xbb015cc0	-0.0019739121
43	0x3daff7bb	0.08592173
44	0x3cbd3a34	0.023099042
45	0xbd9e6b1b	-0.077352725
46	0xbd8e2eb4	-0.06942502
47	0x3d719d52	0.058987923
48	0xbc770030	-0.015075728
49	0x3d5d040e	0.053958945
50	0x3dc0d7fb	0.09416195
51	0xbd8ab656	-0.06773059
52	0xbd796a43	-0.060892355
53	0x3d835a03	0.06413653
54	0x3cb2c1e0	0.021820962
55	0xbd9100d7	-0.07080238
56	0xbd0dcd1e	-0.034619443
57	0x3d367b8a	0.04455141
58	0x3d97c9e7	0.07411557
59	0x3da6eee9	0.08151037
60	0x3db4e58f	0.08832847
61	0xbcbb7a74	-0.022885539
62	0x3d04a8c2	0.032387502
63	0x3dab4af9	0.08363909
64	0xbd3291f4	-0.043596223
65	0xbd81518e	-0.063143834
66	0x3db0b9d5	0.08629195
67	0x3d93053f	0.07178735
68	0x3c379060	0.011203855
69	0xbd4a69c6	-0.04941728
70	0xbdac282d	-0.084061004
71	0x3d9c9a01	0.076465614
72	0xbdb828d4	-0.08992162
73	0xbc22cc88	-0.009936459
74	0xbd779aab	-0.060450237
75	0x3db7b31f	0.089697115
76	0xbd039a02	-0.032129295
77	0x3c665948	0.014059372
78	0xbd02a54e	-0.031895928
79	0x3bdd4130	0.0067521557
80	0xbb000120	-0.001953192
81	0xbd8c7cb3	-0.06859722
82	0xbc144970	-0.009050712
83	0xbdb092c1	-0.08621741
84	0xbd96f50a	-0.07370956
85	0xbc8b5294	-0.01700715
86	0xbbcf0d90	-0.0063187554
87	0x3cdb9df8	0.026808724
88	0x3db25e2b	0.08709367
89	0x3da50df9	0.08059306
90	0xbd3c635c	-0.045993194
91	0xbcd2d1f4	-0.02573488
92	0xbcfc322c	-0.030785643
93	0xbd9a5a2a	-0.07536729
94	0x3d641f02	0.055693634
95	0xbb1be320	-0.00237865
96	0x3c310b10	0.01080586
97	0xbbd05cb0	-0.0063587055
98	0x3db26da7	0.08712321
99	0x3c371e80	0.011176705
100	0x3da8010f	0.08203327
101	0xbcf13b78	-0.029447302
102	0x3d9e1161	0.077181585
103	0x3d1b034a	0.037844934
104	0xbcabd008	-0.02097322
105	0x3cbc4d58	0.0229861
106	0x3d9e4d91	0.07729638
107	0x3d1a26de	0.037634723
108	0x3c8d1d18	0.017225787
109	0xbd9a34f8	-0.07529634
110	0xbc7b6618	-0.015344165
111	0xbef1aa1d	-0.472001
112	0x3ddd012d	0.1079124
113	0x3ee051cb	0.43812403
114	0xbf8320fe	-1.0244443
115	0xbea34f94	-0.3189665
116	0x3ebabdd6	0.36472958
117	0x3e5b5401	0.21418764
118	0x3ed2ffc8	0.4121077
119	0xbec26c2c	-0.37973154
120	0x3f0f8fad	0.56078607
121	0xbed23c79	-0.41061762
122	0x3df78567	0.12085991
123	0x3e701923	0.23447089
124	0xbf8a20a7	-1.0791215
125	0x4003cbd5	2.059316
126	0x3fad4b7f	1.3538665
127	0x3f0e8060	0.55664635
128	0xbf3cb8fd	-0.7371977
129	0x3f85b19d	1.0444828
130	0x3d47268b	0.04862074
131	0xbebf4351	-0.37356046
132	0x3dca224f	0.09869825
133	0x3dfd7e94	0.123776585
134	0xbd245c10	-0.04012686
135	0xbf1de851	-0.6168261
136	0x3edc125f	0.42982766
137	0x3d8d16fc	0.068891495
138	0x3dac31a3	0.08407905
139	0x3d93d519	0.072183795
140	0xbb9df070	-0.004819922
141	0xb9a8b200	-0.00032176077
142	0x3d6a24b6	0.057163917
143	0x3d6acaaa	0.05732218
144	0xbd32a545	-0.043614645
145	0x3cb0c6a0	0.021579087
146	0xbd4e263e	-0.05032944
147	0xbd0059aa	-0.03133551
148	0x3d1a0476	0.03760191
149	0xbd8c0dfb	-0.06838604
150	0x3d98478b	0.07435521
151	0x3d9a8deb	0.075466
152	0xbd4c3317	-0.04985341
153	0x3d07ec2e	0.033184223
154	0xbcb07c58	-0.021543667
155	0xbcce85e8	-0.025210336
156	0xbda1ef3f	-0.07906961
157	0xbd781cc0	-0.060574293
158	0xbcdbf910	-0.02685216
159	0xbd8c74cb	-0.06858214
160	0x3d504b46	0.050853036
161	0x3db2eff1	0.087371714
162	0x3d2e8ca2	0.042614587
163	0x3ce3bd40	0.027800202
164	0x3d0698de	0.03286063
165	0xbd43b5bb	-0.047780734
166	0xbd24f8d2	-0.040276356
167	0x3ce11c94	0.027479447
168	0xbd57fdf2	-0.052732415
169	0xbd9f51ae	-0.07779251
170	0x3c9c3ff0	0.019073457
171	0xbdb13220	-0.08652139
172	0xbd775943	-0.06038786
173	0x3bf0c570	0.007347755
174	0xbd3094eb	-0.04311077
175	0x3d96b03d	0.073578335
176	0xbd505001	-0.050857548
177	0xbd6a5850	-0.057213128
178	0x3d871693	0.065961026
179	0x3be4d560	0.006983444
180	0xbda2bd4a	-0.0794626
181	0x3c35b1d0	0.011089757
182	0x3c98bfc4	0.018646128
183	0xbd0af4d1	-0.03392488
184	0x3d1ba2f6	0.03799721
185	0xbd76454b	-0.060124677
186	0x3dbcec2d	0.092247345
187	0xbce12cac	-0.027487122
188	0xbd1e1b9c	-0.03860055
189	0x3d0f5b6a	0.03499929
190	0x3cd684e8	0.026186422
191	0x3d045b1a	0.032313444
192	0xbd901bba	-0.070365384
193	0xbdb96b5d	-0.09053681
194	0x3dc0e14f	0.09417974
195	0x3c0ec8b0	0.00871484
196	0xbb910620	-0.004425779
197	0xbd42cdd1	-0.047559563
198	0x3b605ba0	0.00342343
199	0xbc06e5f8	-0.00823354
200	0x3a56ac00	0.0008189082
201	0xbd147985	-0.036248703
202	0xbd1acc95	-0.03779276
203	0xbd4b061d	-0.049566377
204	0x3d927a7b	0.071522675
205	0x3d5783be	0.052615874
206	0x3d6303ca	0.055423535
207	0xbd1cea77	-0.03830954
208	0xbd83e918	-0.064409435
209	0xbc7fdba0	-0.0156163275
210	0xbd608bb7	-0.054820742
211	0xbd868d3f	-0.06569909
212	0xbd885cbe	-0.06658314
213	0xbc8665cc	-0.016405962
214	0x3dbdd9d3	0.09270062
215	0x3d37487a	0.044746853
216	0xbc9f27dc	-0.019428186
217	0x3db02035	0.08599893
218	0xbd27f7f1	-0.04100794
219	0x3b3688c0	0.0027852505
220	0x3daaaccd	0.083337404
221	0xbcc8dd84	-0.02451969
222	0x3f82ad4f	1.020914
223	0x3da72cc1	0.08162833
224	0xbda51132	-0.0805992
225	0x3f910637	1.1330022
226	0x3ebca269	0.3684266
227	0xbe78cb54	-0.24296314
228	0xbe977341	-0.2958012
229	0xbf82ca29	-1.0217944
230	0x3ed05a0b	0.40693697
231	0x3ee8a0ff	0.4543533
232	0x3f139eb9	0.57664067
233	0x3f0b1038	0.5432162
234	0xbe833f25	-0.25634113
235	0x3f83a5e0	1.0284996
236	0x3ce526c1	0.02797258
237	0x3d673e7e	0.05645608
238	0xbf4d108b	-0.8010337
239	0x3d3f72dc	0.046740398
240	0xbe83722e	-0.2567305
241	0xbe399fec	-0.18127412
242	0x3e45fa72	0.19333819
243	0x3f14cf43	0.58128756
244	0x3f850020	1.0390663
245	0x3c90abe3	0.017660087
246	0x3d81b020	0.06332421
247	0xbe959ae0	-0.29219723
248	0xbef3eb85	-0.47640625
249	0xbd46b4a4	-0.048512116
250	0xbd14ba46	-0.036310457
251	0xbc9592b8	-0.018258438
252	0xbd07a56f	-0.033116754
253	0xbd677890	-0.05651146
254	0x3d7f5126	0.06233325
255	0x3d976f31	0.07394255

bias f4 [256]
0	0x3ed79d8f	0.42112395
1	0x3e92feb4	0.28709948
2	0xbf5d5c41	-0.86468893
3	0x3e2f06a9	0.17092384
4	0xbfbdba05	-1.4822394
5	0x3f318255	0.69339496
6	0xbed84527	-0.4224026
7	0xbf5c6190	-0.8608637
8	0x3f64f9d5	0.89443713
9	0xbe18b7c6	-0.14913854
10	0xbf0de147	-0.5542187
11	0xbf05cd73	-0.52266616
12	0x3f024f57	0.50902313
13	0x3f8475f0	1.0348492
14	0x3efc16ae	0.49236053
15	0xbf2b3128	-0.6687188
16	0x3eca2ef7	0.39488956
17	0xbf23f8ac	-0.6405132
18	0xbf96a993	-1.17705
19	0xbe625c35	-0.22105487
20	0x3f8eb4ec	1.1148963
21	0x3f611364	0.8792021
22	0x3eedb8c2	0.46430022
23	0xbdec6bc1	-0.1154399
24	0x3d7a26bd	0.0610721
25	0x3e1a798f	0.15085433
26	0xbe97fe45	-0.2968618
27	0x3f26ed31	0.65205675
28	0xbe956299	-0.29176787
29	0xbe92385e	-0.2855863
30	0xbe7fef6b	-0.24993674
31	0x3fa730d1	1.3061773
32	0xbdc1cba5	-0.0946267
33	0x3d983be6	0.074333
34	0xbf18c298	-0.59671926
35	0x3eeafc08	0.4589541
36	0xbead13ed	-0.33804265
37	0xbd73830b	-0.059451144
38	0x3ed5baef	0.41744182
39	0xbdc8e9f7	-0.0981025
40	0xbf5e7f59	-0.8691307
41	0x3d028e93	0.03187425
42	0x3f5008f0	0.8126364
43	0x3eee4096	0.4653365
44	0x3f5a5e0f	0.8529977
45	0xbd2200f2	-0.039551683
46	0x3eee8007	0.46582052
47	0xbe7bf38a	-0.24604622
48	0xbf2f34aa	-0.68439734
49	0x3f28d665	0.6595214
50	0x3f1bbc88	0.6083455
51	0x3f019d99	0.506311
52	0x3e370194	0.17871696
53	0x3e3dbdad	0.18529387
54	0xbdf0667a	-0.11738296
55	0xbf166cc9	-0.5875974
56	0xbf72d171	-0.9485083
57	0x3e1c7f85	0.1528302
58	0x3f05f7f3	0.52331465
59	0x3f7a132b	0.976855
60	0x3e17cbe7	0.14823876
61	0xbe8f32c7	-0.27968428
62	0x3b292073	0.0025806695
63	0x3f233cd8	0.63764715
64	0xbf1783af	-0.5918531
65	0x3e985d86	0.29758853
66	0x3e1a75ee	0.15084049
67	0x3f27f143	0.6560251
68	0xbe9cb962	-0.30610186
69	0xbed566b9	-0.41679934
70	0x3f03ca01	0.5148011
71	0x3ec2bde7	0.3803551
72	0x3eedded7	0.46459076
73	0x3f0d8b8a	0.55291045
74	0x3dc567bf	0.096389286
75	0xbf1e54b1	-0.6184798
76	0x3f8d5e91	1.1044484
77	0x3e84b6a1	0.25920585
78	0xbf5c35e6	-0.8601974
79	0x3f2c47ce	0.67297065
80	0xbe05aaa7	-0.1305338
81	0x3ecd96ef	0.40154216
82	0xbeb9d6df	-0.36296746
83	0x3e78011f	0.24219178
84	0x3f9e4cd6	1.2367198
85	0xbef562b3	-0.47926864
86	0x3f690c4e	0.910344
87	0x3ebefe72	0.373035
88	0x3ebcfcf3	0.36911735
89	0xbeafce66	-0.34337157
90	0x3f65dae6	0.8978714
91	0x3f89e805	1.0773932
92	0xbd759f1d	-0.059966195
93	0x3d94a6bd	0.07258365
94	0x3f408093	0.7519619
95	0x3f9112dc	1.133388
96	0x3c2ec48d	0.010666979
97	0xbdeb57ed	-0.1149138
98	0x3e62610d	0.22107334
99	0xbe40a0a9	-0.18811287
100	0xbe39177d	-0.18075366
101	0xbf844b14	-1.0335412
102	0x3f53115e	0.82448375
103	0x3f02fc1d	0.51165944
104	0xbe6e9758	-0.2329992
105	0xbe31ea60	-0.17374563
106	0xbe4c5ad1	-0.19956519
107	0x3e90cfa6	0.28283423
108	0xbec951af	-0.39320132
109	0x3eab5c77	0.33468983
110	0xbe7f2380	-0.24915886
111	0xbcb98547	-0.02264656
112	0x3f02fc8f	0.51166624
113	0xbfba9912	-1.4577963
114	0x3f51ccc2	0.8195306
115	0x3dd16509	0.10224349
116	0xbf948190	-1.1602039
117	0x3e8ced04	0.2752458
118	0xbe3366c2	-0.17519668
119	0x3f621bbe	0.8832358
120	0x3f2e5d64	0.6811125
121	0xbebf0277	-0.37306568
122	0x3f841ec7	1.0321892
123	0x3d64da74	0.055872396
124	0xbf918760	-1.1369438
125	0xbfa44545	-1.2833639
126	0xbf254c21	-0.6456929
127	0xbec44fff	-0.38342282
128	0xbecf926e	-0.40541404
129	0x3e9e72fe	0.30947107
130	0xbe87c2f9	-0.2651594
131	0x3e90828c	0.282246
132	0x3f420bf0	0.75799465
133	0xbda92143	-0.08258297
134	0x3ec20a6d	0.3789858
135	0xbf2c711f	-0.6736011
136	0x3f2ed571	0.68294436
137	0xbf5545f0	-0.8330984
138	0xbd9e1435	-0.07718698
139	0xbd8e03d5	-0.06934325
140	0x3f48b466	0.78400266
141	0x3efc9847	0.49334928
142	0xbf2657a7	-0.64977497
143	0x3d8d2c43	0.06893208
144	0xbe6b846d	-0.22999735
145	0x3d8a1200	0.067417145
146	0xbe13832e	-0.1440551
147	0x3f42fa2d	0.7616299
148	0xbee72f6f	-0.45153376
149	0x3ef49235	0.47767797
150	0xbe38b1dd	-0.180366
151	0x3d560a13	0.0522557
152	0x3f28091a	0.6563889
153	0x3f8108e3	1.0080837
154	0x3f3abc8f	0.7294397
155	0xbf4b9228	-0.7951989
156	0x3f0501fe	0.51956165
157	0x3f2b55cc	0.6692779
158	0x3f877c5e	1.0584829
159	0xbf19161d	-0.5979937
160	0x3c449875	0.011999239
161	0xbed112fc	-0.40834796
162	0x3ebfb2a6	0.37440985
163	0xbf497a0d	-0.7870186
164	0x3ee38519	0.44437483
165	0x3f50921c	0.81472945
166	0xbf59c37e	-0.8506392
167	0xbf147a02	-0.5799867
168	0x3f04c144	0.518574
169	0xbf5bf0d8	-0.85914373
170	0xbfb502d7	-1.4141492
171	0xbeb397c6	-0.3507673
172	0xbf2c1ddf	-0.6723308
173	0x3efb6897	0.49103233
174	0xbd9709d8	-0.073749244
175	0xbf7d41ea	-0.989287
176	0xbea631c5	-0.32459846
177	0xbe24a678	-0.16079128
178	0xbf4c5c96	-0.79828775
179	0x3e31113a	0.17291728
180	0xbecbefe4	-0.3983146
181	0x3ec3d14b	0.38245615
182	0xbe850565	-0.25980678
183	0x3f468cce	0.775586
184	0x3e04d447	0.12971602
185	0xbe1d6f52	-0.15374497
186	0x3e442848	0.19155991
187	0xbd675dab	-0.056485813
188	0xbe84e036	-0.2595231
189	0xbf97ef41	-1.186989
190	0x3f00df07	0.5034031
191	0xbeef18b9	-0.4669855
192	0x3f7c4353	0.9854023
193	0x3cacad91	0.021078857
194	0x3fb22399	1.3917114
195	0x3f864773	1.0490555
196	0x3d381c5a	0.044948913
197	0xbef15087	-0.4713175
198	0xbdfe23cd	-0.12409172
199	0xbee80b17	-0.4532096
200	0x3e9ad27e	0.30238718
201	0x3f759e4a	0.95944655
202	0xbf1c83de	-0.61138713
203	0xbea09375	-0.313625
204	0x3dc106b5	0.094251074
205	0xbf21789b	-0.63074654
206	0x3fbef75d	1.4919239
207	0x3f005080	0.50122833
208	0x3e964d94	0.29356062
209	0xbec9e5bd	-0.3943309
210	0xbdebc42b	-0.115120254
211	0x3dea79a7	0.114489846
212	0xbd0ace8d	-0.03388839
213	0xbf8b4680	-1.088089
214	0x3f44c907	0.76869243
215	0x3f1a998e	0.60390556
216	0x3efed983	0.49775323
217	0x3eac34e4	0.33634102
218	0xbe63edc2	-0.22258666
219	0x3e8f1489	0.27945355
220	0xbf2d51f4	-0.67703176
221	0x3f124839	0.57141453
222	0x3f9680d5	1.1758066
223	0x3d03f512	0.03221614
224	0x3f070dde	0.52755535
225	0x3c9bbdb0	0.019011348
226	0x3f4fe015	0.812013
227	0xbf209532	-0.62727654
228	0x3e0a6a8f	0.13517211
229	0xbf983764	-1.1891904
230	0x3e8e3a8d	0.27779046
231	0x3f49a23f	0.7876319
232	0x3e75c2e0	0.2400012
233	0x3f0633d0	0.5242281
234	0x3e34e2f4	0.17664701
235	0xbe85e82b	-0.26153693
236	0x3f042e78	0.51633406
237	0x3e8823bb	0.2658976
238	0x3e6b2429	0.22963013
239	0xbf7eafab	-0.994868
240	0xbf60b1ff	-0.877716
241	0x3efb87c5	0.4912702
242	0xbf5f6e23	-0.8727743
243	0x3e90a87a	0.28253537
244	0x3f16b7c3	0.5887415
245	0xbe08306b	-0.1329972
246	0xbf1852f3	-0.5950157
247	0x3ec30c66	0.38095397
248	0x3ecfb962	0.40571123
249	0x3f471f87	0.7778248
250	0xbf206dba	-0.6266743
251	0xbf47bfd0	-0.7802706
252	0x3edd0ed1	0.43175367
253	0xbe0db3ca	-0.13838115
254	0x3f0a56ed	0.5403889
255	0x3e1946a9	0.14968361
