data/DDPG/Ant-v2/ddpg_s27672/pyt_save/model.pt (torch_old, 777815 bytes, 11 tensors)

weight f4 [256, 111]
00000000: d54d 4bc0 56d9 bc3c 076f b9bf 4bce 5b40
00000010: 128f b3bd a7d4 33c0 364e 76bd 5259 3140
00000020: bec7 d1be bd2c 8a3f 94e5 5dbe 5271 0440
00000030: 8094 d2be 3831 f1be 626c 983e 6cf4 8ebc
00000040: 9b93 a73e 742e e5bb 6827 f83c d959 8a3d
00000050: 4abe 46bd 5126 edbc 74d6 b23c f828 21bd
00000060: 629f c2bd fad0 5e3c 7340 733d 7cfb d6bc
00000070: 30c3 673c 6b6c b4bd 6a70 86bd f3d0 813d
00000080: bbb0 2fbd 2091 56bd cdfb bdbd 259e 8ebd
00000090: 2a7f 2a3d 442c eebc 095a b63d 8978 94bd
000000a0: 6e6e 3abd 52c7 463d 22de 02bd e0d7 61bb
000000b0: 3eb9 793d 09d7 893d 502e 68bc 4ce3 a73c
000000c0: 4133 913d 16a7 793d ed81 a9bd 8f6d 15bd
000000d0: a4f2 a2bd 006f f6bc 8e7e 0e3d dccb a5bc
000000e0: 9632 87bd 20bc 103c 9fa1 b1bd acc0 e2bc
000000f0: 80a2 b93a ea13 433d 124b 14bd c6a7 7e3d
00000100: ec09 b1bd 38d2 41bd b8b9 d83c 4957 803d
00000110: e887 b4bc bb74 af3d e5f8 a33d e196 20bd
00000120: b0d1 9c3c 0bc9 4fbd 2b18 1cbd 5864 13bc
00000130: 9ca2 e2bc 58b0 8dbd 00d2 b6bd 3be2 8e3d
00000140: 72ff 7d3d 324f 5c3d 8bad adbd a0f3 08bc
00000150: 90db 69bc 4265 2c3d 6054 36bb 00bd 743b
00000160: 97f0 a63d da87 033d 2fa5 30bd 5e77 5c3d
00000170: d443 ec3c 454e a83d b6b6 373d 6213 8fbd
00000180: e3d8 adbd 2997 be3d 5884 703c 7fcc a13d
00000190: 9aa3 13bd 54ab b5bd e889 8dbd f45f 9fbc
000001a0: c72d 9b3d 100c 9ebd 9e1c bfbd 2a0a 3a3d
000001b0: f8aa 10bd 9ee7 563d 37ea 27bd 3b75 adc0
000001c0: 193a 7b3f 4b16 07bf 3d9c 01bf f13a be3d
000001d0: b0b4 0ebe 5ccb 393f bfae abbf 79b9 2dbf
000001e0: 377a 9a3f eec3 3abf 02d5 0b3e 9c66 773e
000001f0: 7ea3 b0be 94fa 8abd eaad 3a3e 6d8e f23d
00000200: 4a2a f03d 6348 a83d 2b67 c6bd e1ce c6bd
00000210: 73a1 8ebd 30ae 493b 4035 b53d 60c5 9e3b
00000220: 8eb4 6c3c 6398 283d d158 bdbd 9a2d 503d
00000230: c613 1e3d b30d 6ebd 1177 9cbd b4ef d2bc
00000240: 24a4 b83c 915d 7ebd b448 22bd 30a0 fc3b
00000250: dfe7 b93d 48ef 49bc aac1 7c3d 8169 933d
00000260: c190 9fbd 6894 143c 429b 20bd 0411 e3bc
00000270: 6f66 6dbd 7f81 c03d 88e9 253c 84f3 903c
00000280: ecdc debc ea78 4e3d 3091 42bc d3bd 78bd
00000290: 1c3f 88bc cb04 ae3d a884 43bc 0903 57bd
000002a0: 90e4 6bbc 20f9 4bbb 06a9 0fbd f22c 7dbd
000002b0: 72d4 9dbd 1e20 7c3d ceda 093d 2d8f b8bd
000002c0: 7226 8bbd cd29 a43d 200f d1bb e607 083d
000002d0: dc73 8fbd 4606 403d e4a7 8b3c 18df 0bbd
000002e0: 4970 c1bd 90b5 bc3c 818f 813d 9f6a ba3d
000002f0: 4258 233d 6b87 ae3d c20b 733d 8cb1 e53c
00000300: 7e10 4cbd c540 ae3d 8098 03bd a6b4 86bd
00000310: 8ee8 27bd 05b3 ac3d 44e3 84bc ff82 a53d
00000320: 331c 9d3d b865 13bd de68 753d 9670 77bd
00000330: 4905 ad3d 42a6 383d 238f 91bd e8f1 28bc
00000340: 6303 843d 00ce 17bb 996b 9b3d d5ca b53d
00000350: ee87 753d 6f78 973d 883e 33bc c57c 78bd
00000360: 3b74 bb3d 0d17 c2bd dd4e c1bd a4d3 f13c
00000370: bf9e 5abd 44f8 d7bc 0120 a33e f2a5 353f
00000380: ed12 983e e8ff 4f3f d18c 45bf 34c3 c1bf
00000390: 8f3f d3bf c9c0 6f3f 5606 1d40 00de 29bf
000003a0: 1756 dc3f 70c9 8fbe 7922 eebf 8188 5abf
000003b0: 5901 94bc c0fd b2bf d5d9 b63d fba4 d0bd
000003c0: d26c 4f3e 72b3 d5bc d171 933d b021 1d3c
000003d0: 95b0 17bf 2a68 c83c b4da ddbe 8b6b 29be
000003e0: 1353 843e 700c 07bd d0b1 c3bc 2c8b e63c
000003f0: 39a0 973d 006c b1b9 432f b33d f0e1 7f3c
-3.1766255 0.023052853 -1.4487008 3.4344661 -0.08767523 -2.8098543 -0.06013318 2.7710767
-0.40972704 1.0794903 -0.21669608 2.0694165 -0.41128922 -0.47107863 0.2977019 -0.017450534
0.32729802 -0.006994063 0.030292228 0.06755418 -0.048521318 -0.028948935 0.021830775 -0.03934571
-0.09503056 0.013599629 0.059387635 -0.026242964 0.014145657 -0.088097416 -0.0656441 0.06338682
-0.042893153 -0.052384496 -0.09276543 -0.069637574 0.04162518 -0.029073842 0.089038916 -0.07249553
-0.04551547 0.04852993 -0.031950124 -0.0034460947 0.060967676 0.06730468 -0.014171198 0.020494126
0.07089854 0.06095036 -0.082767345 -0.036481436 -0.07956436 -0.030082226 0.03478866 -0.02023881
-0.066014454 0.008833915 -0.08673405 -0.027679764 0.0014162809 0.047626413 -0.036204405 0.06217172
-0.086444706 -0.04731962 0.026455745 0.06266648 -0.022037461 0.085671864 0.08006457 -0.03920639
0.019142956 -0.05072884 -0.038108986 -0.008996092 -0.027665429 -0.069184005 -0.08926773 0.06976744
0.06201119 0.053786464 -0.08480366 -0.008358866 -0.014273539 0.042088754 -0.0027821288 0.0037344098
0.081513576 0.03211198 -0.04312628 0.053824775 0.028840937 0.08218054 0.04485198 -0.06986119
-0.084886335 0.09306175 0.014679991 0.07900333 -0.036044694 -0.08870569 -0.06911069 -0.019454934
0.07577091 -0.077171445 -0.0933163 0.04541985 -0.0353193 0.05246698 -0.04099485 -5.4205604
0.98135525 -0.5276839 -0.50629026 0.09288586 -0.13936114 0.72575927 -1.3412703 -0.67861134
1.2068547 -0.72955215 0.13655475 0.24160236 -0.34499735 -0.06786075 0.18230405 0.11843572
0.11726816 0.08216932 -0.096876465 -0.09707428 -0.06964388 0.003077399 0.08848047 0.0048453063
0.0144473445 0.041160952 -0.09245456 0.05082474 0.038593076 -0.058118533 -0.076398976 -0.025749065
0.022539206 -0.06210095 -0.039620116 0.0077095255 0.09077429 -0.0123251155 0.06170813 0.07197858
-0.077912815 0.009068586 -0.039210565 -0.027718075 -0.057959016 0.093996994 0.010126479 0.017694242
-0.027204953 0.05040828 -0.011875436 -0.060727905 -0.016631655 0.08497008 -0.011933483 -0.05249313
-0.014397755 -0.0031123832 -0.035073303 -0.06181044 -0.07706536 0.061554067 0.033655934 -0.090116836
-0.06794442 0.08015785 -0.006379977 0.033210658 -0.0700452 0.046880983 0.01704783 -0.034148306
-0.09445245 0.023035794 0.06326199 0.091023676 0.03987909 0.08521923 0.059337385 0.028038763
-0.049820416 0.085084476 -0.032127857 -0.06577425 -0.040993266 0.08432583 -0.01622165 0.08081626
0.07671394 -0.03598568 0.059914462 -0.060410105 0.08448274 0.04508043 -0.07107379 -0.010311581
0.064459585 -0.0023163557 0.07588882 0.08876578 0.059944086 0.07396018 -0.010940202 -0.060665864
0.091530286 -0.09477053 -0.0943887 0.029519863 -0.05337405 -0.0263635 0.31860355 0.7095634
0.2970194 0.81249857 -0.77167994 -1.5137696 -1.6503772 0.9365354 2.4535117 -0.6635437
1.7213773 -0.28083372 -1.860427 -0.8536454 -0.018067049 -1.3983688 0.08928267 -0.101877175
0.20256355 -0.026086543 0.07199443 0.009590551 -0.5925382 0.024463732 -0.4333092 -0.1654493
0.2584463 -0.032970846 -0.023888499 0.028142534 0.07403607 -0.00033840537 0.08749249 0.015617833

bias f4 [256]
00000000: cd44 d0bf 7757 ca3f 3285 2fc0 158c 073f
00000010: 38b5 d83e f63b 1b40 accd ecbf c65f 9e3f
00000020: e06c 38be ad29 243f f9de 23bf 9054 17bf
00000030: 3193 1fc0 f329 5abe d338 00bf dfc9 0dc0
00000040: ef1a 48c0 6603 11c0 1a0f 6dc0 702b 29c0
00000050: 02fd cbbf 4e2c 7fbf 7d00 ddbf 838d 2fc0
00000060: 2ce8 873f c431 2fc0 50b1 55c0 da0e bf3e
00000070: 801f 93bf 4f29 24c0 f9b1 65c0 6a0e 4fc0
00000080: d2b5 503f b9e1 b73e 4747 c6bf aa65 03c0
00000090: 9b1d 07c0 3111 26c0 5d53 04c0 5d79 46bf
000000a0: 1298 25c0 ce81 dbbf 54ea 56be 8dc2 20c0
000000b0: d2da 853e 0265 4bc0 62be 1bc0 753b 9cbf
000000c0: 53db 28c0 5220 20c0 4095 62c0 a33c 80be
000000d0: 2896 4cc0 313b 43bf e958 0bc0 da63 58c0
000000e0: 885e e0bf c4a6 2bc0 209c 2bbf 50b5 48c0
000000f0: 59a9 efbf 4f58 4cc0 3814 24c0 5dd6 06bf
00000100: 32fc 7cc0 2f23 e5bf 1a01 52c0 c02b 07c0
00000110: c467 21c0 8bb3 48bf 9ff6 8f3e 0af3 09c0
00000120: d48f b1bf 0444 f2bf 6e68 3bbf 6e7a 0cbf
00000130: d39a 90bf 8dc2 9ebf ed9c 58bc 5205 54c0
00000140: 6f5a 32c0 b7fd a1bf 7009 0dc0 df7a 44c0
00000150: a355 a7bf ed59 56c0 ed50 24c0 13eb 23c0
00000160: d83c e33d 6962 46c0 29fa 26c0 f9ce 37bf
00000170: a43f 66c0 c691 46bf 8ea8 9cc0 cacb 5340
00000180: b867 1dc0 8a76 40c0 7c03 e8bf 886c 87bf
00000190: b593 7a3f ec28 92bf b15a aabf d04d 34c0
000001a0: 9cd9 02c0 9082 30c0 9cae cbbf a7ac d5bf
000001b0: 9102 a0bf 3481 863f 0a30 8abf 30f2 64bf
000001c0: 5cef 4abe 613e 9fbf efc2 a4bf 8db0 12c0
000001d0: 3251 c6bf a5ac 7b3f 04b2 ebbe bc44 28c0
000001e0: 8a1b c2bf d786 c8bf 70ff 51c0 7072 a1bf
000001f0: 6a56 e6bf 39db 05c0 310b 56bd f1d5 72c0
00000200: 7dd8 253f 2dac 40c0 c60a e3bf 3976 6fbf
00000210: 0a79 bfbf e3a0 2cc0 a9f4 2cc0 45f7 f8bd
00000220: 0b6c 9cbf 0862 68c0 c2a8 56bf 96e3 cebf
00000230: 4bf2 cbbf f632 9abf 6c61 5ac0 3e8f 31c0
00000240: 2272 a4bf bcd3 dcbe 3023 43be e856 f2bf
00000250: ddc1 27c0 e54d 3cc0 d2bf 6cbf 3fc0 d1bf
00000260: 0ded 1cbe f6da 08c0 5d01 a4bf 1e05 2ec0
00000270: 1170 c0bf 8bdb cc3f cadf 6cc0 9c50 4f3e
00000280: b69e 87bf 114f 76bf f369 93be 7bb9 3bc0
00000290: 5c3c 4a3f d138 56bf cb4b 04c0 f704 dabf
000002a0: 264f 88bf 0bed 2ac0 5e78 c0be 818b 4ec0
000002b0: 8eef 5ac0 e2b1 0abf 5de6 52c0 cca2 96bf
000002c0: aed0 c93e 2a34 943f 2623 92bf ec01 75c0
000002d0: 7295 74bf 8ee4 3dc0 37e7 51c0 2670 463f
000002e0: da62 bcbf 9925 b13f 8fcc 2bbf 074a 2ac0
000002f0: 8307 04c0 865f b5bf 96e9 2bc0 ff67 52c0
00000300: c671 633f 6208 f0bf 9463 82c0 c72e 26c0
00000310: 4530 4bc0 6ee9 56c0 e702 a4bf 0052 d0bf
00000320: dfaa 1bc0 7714 31c0 fbd5 1b3f 6853 1bc0
00000330: 4143 38c0 905d 07bf 2801 9cbf 2a83 f2bf
00000340: 83d5 e7bf 8153 76bf 7641 a33f 20f8 2ac0
00000350: 4347 1cbe d9d8 b1bf dfe4 96bf 90c2 45c0
00000360: 4a73 21c0 97c7 1bc0 5b19 acbf ab2c 07c0
00000370: 44d9 b5bf 6e7a 0dc0 e409 edbe 22eb f9bf
00000380: 77db b7bf bd99 8fbf 89d1 babf 9487 10c0
00000390: 6a7b 63c0 1594 dabf 4283 63c0 475b ad3f
000003a0: 966f 2ac0 adf6 3bbf 897b 61c0 e655 dcbf
000003b0: bbf6 d6bf cf95 34c0 d85b 27c0 3f2b 68bf
000003c0: 0276 7dc0 7cb7 03c0 3101 12c0 df4f 19c0
000003d0: e340 07c0 dd47 93be 426b b0bf c3f4 a7bf
000003e0: 979b 63c0 efca 2cbf 55e9 26bf 23ae ddbe
000003f0: 516e cdbf 5162 72c0 3662 36c0 cbdb 0e3f
-1.6270996 1.5807942 -2.7425046 0.52948123 0.4232576 2.4255347 -1.8500266 1.2372978
-0.18010283 0.6412609 -0.64012104 -0.5911341 -2.4933589 -0.21305065 -0.50086707 -2.2154462
-3.126644 -2.2658324 -3.7040467 -2.6432762 -1.5936587 -0.9967698 -1.7265774 -2.7430122
1.0617728 -2.7374125 -3.3389473 0.37316018 -1.1493988 -2.5650213 -3.5889876 -3.2352548
0.81527436 0.359144 -1.5490502 -2.05308 -2.111182 -2.5947993 -2.067588 -0.77528936
-2.5874066 -1.7148988 -0.20987827 -2.5118744 0.2614351 -3.17804 -2.433495 -1.2205645
-2.6383865 -2.5019727 -3.5403595 -0.25046262 -3.1966648 -0.76262194 -2.1773016 -3.3810945
-1.7528849 -2.6820536 -0.670351 -3.1360664 -1.8723556 -3.19289 -2.563734 -0.5267084
-3.9528928 -1.7901362 -3.2813172 -2.1120453 -2.5219584 -0.7839896 0.28117844 -2.155459
-1.3872018 -1.8927007 -0.7320622 -0.5487431 -1.1297249 -1.2403122 -0.013221008 -3.3128247
-2.7867696 -1.2655553 -2.203701 -3.0699995 -1.3073009 -3.3492386 -2.5674393 -2.5612228
0.110955894 -3.0997565 -2.6090186 -0.7180019 -3.5976343 -0.7756618 -4.8955755 3.3093133
-2.4594555 -3.007235 -1.8126063 -1.0579996 0.97881633 -1.1418738 -1.3308927 -2.8172493
-2.0445318 -2.757969 -1.5912662 -1.6693314 -1.2500783 1.050818 -1.079591 -0.8943205
-0.19817871 -1.2440912 -1.2871989 -2.2920258 -1.5493529 0.9831031 -0.46034253 -2.6291952
-1.5164654 -1.566615 -3.2812157 -1.2613049 -1.7995121 -2.0915053 -0.052256767 -3.794308
0.6478346 -3.0105088 -1.7737663 -0.9353977 -1.4958813 -2.6973197 -2.7024329 -0.12156538
-1.2220472 -3.6309834 -0.83851254 -1.6163204 -1.5933317 -1.2046802 -3.4121962 -2.7743678
-1.284733 -0.4313029 -0.19056392 -1.8932772 -2.6212075 -2.9422543 -0.92480195 -1.6386794
-0.15324803 -2.1383643 -1.2812916 -2.7190623 -1.50342 1.6004499 -3.701159 0.20245594
-1.059531 -0.96214396 -0.2879177 -2.9331958 0.7899835 -0.83680445 -2.067126 -1.7032765
-1.0649154 -2.670718 -0.37591833 -3.2272646 -3.4208713 -0.5417768 -3.2953103 -1.1768432
0.39417022 1.1578419 -1.1416976 -3.8282423 -0.95540535 -2.9670749 -3.2797372 0.77514875
-1.4717667 1.3839599 -0.67109007 -2.6607683 -2.0629585 -1.4169776 -2.686132 -3.2875974
0.8884548 -1.8752558 -4.0746555 -2.596605 -3.1748211 -3.3579974 -1.2813386 -1.6275024
-2.4323041 -2.766874 0.60873383 -2.4269657 -2.8791049 -0.5287714 -1.2187853 -1.8946278
-1.8112034 -0.96221167 1.2754352 -2.6713943 -0.15261559 -1.3894302 -1.1788596 -3.0900002
-2.5226617 -2.434057 -1.3445238 -2.1121013 -1.4206929 -2.2105975 -0.46296608 -1.9524882
-1.436385 -1.1218792 -1.4595195 -2.258275 -3.5544076 -1.7076441 -3.5548863 1.3543481
-2.6630607 -0.7342327 -3.523165 -1.7213714 -1.6794046 -2.8216436 -2.6149807 -0.9069099
-3.9603276 -2.058074 -2.2813227 -2.3955 -2.1133354 -0.28765765 -1.3782732 -1.312157
-3.5563715 -0.6749715 -0.65199786 -0.43296918 -1.6049291 -3.7872508 -2.8497443 0.5580413

weight f4 [256, 256]
00000000: d0e2 91be bcf4 0cc0 e68d 98bf d2ac 453e
00000010: 7849 a6bf 1c03 1abf e223 19bf 6083 81be
00000020: 4211 9fbf 8616 f73d 9b89 3bbf e47f 83bf
00000030: 05aa 16bf 52e9 10c0 9f79 bebf 0a6b 36be
00000040: 4e9b 65bf 6572 b7be 27d1 383e a4f8 97bf
00000050: 642f 91bf f680 8ebf 1c2c a9bf e56f bfbe
00000060: 552b 0bbf 589b 60bf 9538 0d3f 48aa 6bbe
00000070: 1229 7fbf d2df 863e f192 d53d f433 40bf
00000080: 9b6d 9ebf cfbe 03c0 71b2 0e3e 8f9e 11bf
00000090: c7d8 62bf 3d38 6fbd 6c50 e6bf 19fa 923f
000000a0: 34eb 9abe fe1a 9abd c10c 15bf 58b9 d83f
000000b0: 62ed 223f 2b2c d93d 0aea 99be 0518 b0bf
000000c0: b2d3 8fbf cf33 923f ca1f 83bf 43ab 42bf
000000d0: cd64 06c0 ee8b 86bf c6d5 aabf 4521 40bf
000000e0: 217e 5d3e bace b33d 76da 16be d979 cf3e
000000f0: 23ee 9bbf f835 82bf c784 4abf 7954 3dbf
00000100: e719 ebbf f5b7 073d 8ccd 23bf b786 a1bf
00000110: 3b9a c7be 5384 b4bf d2a3 5fbf 494d bbbe
00000120: 8cb0 84bf eae9 0cbf b31e 95be 7fde febd
00000130: 857c f0bf eabb d4bf bb70 e2be 359d 9dbf
00000140: ef56 1fbe 6ea2 02c0 091d 8ebf c332 36bf
00000150: 1ea0 fabf 91e0 b93e b43e 01bf 56fc e3be
00000160: cd78 fbbf bf5e d7be 047f 593f 7ddc 5abf
00000170: 3090 10bf 69ad bcbe 3203 03bf 30ce 82bf
00000180: 4107 90bf 95d1 8ebf 388c 6ebf 0b94 87bf
00000190: 73e7 74bf 28bd d0bf 468f 53bf 05e3 b23f
000001a0: cdab 80bf 1d33 663f 40ec 9ebf 64e1 c8be
000001b0: 1907 fb3e 9a7b 11c0 8751 87bf 69f5 9b3e
000001c0: 4d88 6cbf e948 91bf 4b63 37be 57cf ac3d
000001d0: a223 9cbf 2d88 27be 0c4e 27bf 6e45 11bf
000001e0: 03c8 093f 2f4e 823e c75f 4abf ac69 91bf
000001f0: 399b 19c0 cc08 b93e 8627 0ec0 ddd6 c9be
00000200: 950c fabe acfd 103e 2a15 db3f acdb f6be
00000210: 9d92 8abf 9233 86bf 8d4d b5bf 0529 d0bf
00000220: dc07 63bf 06d8 53bf d2fc 98be 3db7 db3e
00000230: d9f7 123d 2b18 513d 4dd3 56be 2da7 1ebf
00000240: e7a2 bcbf ce7c abbe 9410 9dbf 0604 96bf
00000250: 6d41 93be fc05 44bd 8f12 9fbf 27d4 0ebf
00000260: 5203 c6be 56b9 2a3f 5d42 45bf c919 883f
00000270: 158f 493f bc7e 7cbf fba9 b6be f830 e5bf
00000280: baf2 98bf 16c3 87bf 99c3 04bf 15f3 0e3f
00000290: e328 82bf b104 28be f455 ec3e ff34 37bf
000002a0: d4a3 b6bf 2d68 1dbf c37d d8be 0655 9cbe
000002b0: 7482 203f e0da 1dc0 abb6 a7be 99ea 17c0
000002c0: b4dc a7bd 815f 4bbf ada9 a9bf d76a 7e3f
000002d0: 8487 3cbf 8d6c b7bf e96c 24bf a698 ebbf
000002e0: 28e3 38bf 8c3b edbf b2c2 85be 6099 e73f
000002f0: 2590 6cbf eaca 33bf 1209 95bf 3f4a fd3f
00000300: b040 95be 3178 94bf 6067 d3bb a689 403e
00000310: 4a44 17bf 0996 a9bf 79cf 4dbd b183 4ebf
00000320: bf4c b2bd 0643 87be 1315 3fbf b177 1dbf
00000330: edcc cfbe 1258 833e 6ba1 87bf 97f7 62bf
00000340: 1c6a 16bf 6d1c c7bf 5608 fdbf 5ef0 ae3e
00000350: 28d6 dfbf 4f1b a2bf a8d4 0fc0 f39e 723e
00000360: c064 01bf 88ba b93f a16d 15bf 7753 d3bf
00000370: 041b fa3e 3f16 92be 2c40 d2be eaa8 1dbf
00000380: c3d6 febf eeb2 95bf 1109 8ebf 34a9 a33e
00000390: a3a8 33bf 746a f8bf addd a33f 02b1 08c0
000003a0: 9bc7 aabf 6a9e fbbf 5458 6fbf ff2c b33e
000003b0: a1d7 a8bf 121f 7abf 6729 603e f034 8e3e
000003c0: bcc4 0abf 1a30 efbe ff82 c13f 9e47 a2bf
000003d0: 0072 573e 7a31 7abf 785b 0bc0 724e aebf
000003e0: 2548 65bf 91aa 0cc0 f19b a4be bf7d 39bf
000003f0: bf5d a8bf f13a acbe 3637 56bf 3f31 c8bf
-0.28493357 -2.2024374 -1.1918304 0.19304207 -1.2991171 -0.60160995 -0.5982038 -0.25295544
-1.2427142 0.12064843 -0.73256844 -1.0273404 -0.5885318 -2.2642407 -1.4880866 -0.1781427
-0.896901 -0.35829464 0.18048535 -1.1872754 -1.1342587 -1.1133106 -1.3216586 -0.37390056
-0.54362994 -0.87737036 0.5516446 -0.23014176 -0.99672043 0.26342636 0.104284175 -0.75079274
-1.2377199 -2.058521 0.13935257 -0.56882566 -0.88612026 -0.058403242 -1.7993293 1.1482574
-0.3025757 -0.075246796 -0.58222586 1.6931562 0.6364347 0.106041275 -0.3006137 -1.375733
-1.1236479 1.1422061 -1.0244076 -0.76042575 -2.0999024 -1.0511453 -1.3346488 -0.75050765
0.21630146 0.08779664 -0.14731774 0.4052265 -1.2182049 -1.017272 -0.7910885 -0.7395702
-1.836728 0.03313442 -0.63985515 -1.2619237 -0.38984856 -1.4102882 -0.87359345 -0.365824
-1.0366378 -0.55044425 -0.29124984 -0.124447815 -1.8788 -1.6619847 -0.44226632 -1.2313601
-0.15560506 -2.041164 -1.1102611 -0.71171206 -1.9580114 0.36304143 -0.504863 -0.44528455
-1.964624 -0.42064473 0.84959435 -0.8549269 -0.5647001 -0.3685105 -0.5117675 -1.0219173
-1.1252214 -1.1157709 -0.93182707 -1.0592054 -0.95665663 -1.6307726 -0.8264049 1.3975531
-1.005243 0.8992174 -1.2415848 -0.3923446 0.49028853 -2.273169 -1.0571755 0.3046067
-0.9239548 -1.1350375 -0.17908971 0.084379844 -1.2198374 -0.1636054 -0.65353465 -0.56746566
0.5382082 0.25450274 -0.79052395 -1.1360373 -2.400099 0.36139524 -2.2211623 -0.3942174
-0.48837724 0.14159268 1.7115834 -0.4821447 -1.0825993 -1.0484488 -1.4164292 -1.6262518
-0.8868387 -0.827515 -0.29880387 0.42913237 0.035880897 0.05104844 -0.20979042 -0.6197384
-1.4737214 -0.33493656 -1.2270684 -1.1719978 -0.28760853 -0.04785727 -1.2427539 -0.5579247
-0.38674408 0.6668905 -0.7705439 1.0632869 0.7873395 -0.9863088 -0.3567656 -1.7905569
-1.1949074 -1.060641 -0.5186096 0.55839664 -1.0168728 -0.1640804 0.46159327 -0.7156524
-1.4268746 -0.61487085 -0.4228345 -0.30533618 0.62699056 -2.466484 -0.32756552 -2.3736937
-0.08196393 -0.794426 -1.3254906 0.99381775 -0.7364428 -1.4330002 -0.64228684 -1.840596
-0.7222161 -1.8533797 -0.26125103 1.8093681 -0.9240745 -0.702315 -1.1643393 1.9788283
-0.29150915 -1.159918 -0.0064515322 0.18802509 -0.59088576 -1.3248912 -0.05024669 -0.80669695
-0.087060444 -0.26418322 -0.7464153 -0.6151076 -0.40586033 0.2565313 -1.0596136 -0.8865904
-0.5875566 -1.555555 -1.9768169 0.3416776 -1.748723 -1.2664584 -2.2473545 0.23693447
-0.5054436 1.451005 -0.58370405 -1.6509846 0.48848736 -0.28532597 -0.41064584 -0.6158587
-1.990929 -1.169523 -1.1096517 0.3196503 -0.70179194 -1.9407487 1.2802025 -2.1358037
-1.3342165 -1.9657719 -0.93494153 0.34995267 -1.3190805 -0.9770366 0.21890794 0.27774763
-0.5420644 -0.46716386 1.5118102 -1.2678106 0.21039581 -0.97731745 -2.1774578 -1.361769
-0.8956321 -2.1979105 -0.32150224 -0.724575 -1.3153609 -0.3363872 -0.83677995 -1.5640029

bias f4 [256]
00000000: a789 063f 1341 a8bf c3a9 babd e207 d9bc
00000010: 9338 a1be cb90 71bc d792 dcbd 2745 e3be
00000020: 5464 42bf be45 b5bf 560d 75be 8f98 34bf
00000030: 8a29 01bf 7acf 89bf a2a4 573c c354 babd
00000040: 3a3e 01be d375 46bf 2ac0 88be 2eb9 41c0
00000050: feab 80bf 0832 f3bf d8c7 9ebe 95b0 9ebf
00000060: 3a1a a1be 1704 2bbf fa26 3c3e 9539 b23e
00000070: 7f05 80bf 6b97 b5bf 6576 38bf aaf5 1ebf
00000080: 2adb 26bf c1af d3be d4ae b4be 224e 3bbf
00000090: 96cd d4bf 4f9c 91bf ce61 f0bf 9669 243f
000000a0: b52a 8c3e 5d0c 8fbf 4352 61bf 0f4c cabe
000000b0: 86e7 0bbe a33b 86bf 6b5e 89bf c6aa a2bf
000000c0: ca6b 8cbe e304 b0be 4d01 83bf ef93 63c0
000000d0: 40f1 57bf 8925 79be d759 9abf 925f 91bf
000000e0: a02e 79bf 85c5 c6bd c999 59bf baa8 ba3f
000000f0: cb45 02c0 cf24 07c0 5b4a 763f c893 1ebf
00000100: 820c 11bf f036 8cbf 1a3f 99bf 97e5 6ebf
00000110: 623e adbf e943 01bf 10a2 bbbe f42a b5bf
00000120: ad25 4cbf 7070 eebf 7353 c0bd cab2 ccbd
00000130: 54a3 fa3b 53bb 5dbd 996e acbe 4236 55be
00000140: afd7 3cbf 5a7a 08bf b286 31be 66f3 76bf
00000150: 1558 acbf dae8 24be 5de6 823f 94cc 83bf
00000160: 97cf 83bf fcd6 dabf 1373 343d bd39 a43e
00000170: 6220 84bf d705 eebe 9dc7 d13e 365d 77bf
00000180: bd52 35bf c69f b6bf 71f2 f1be 61da 26bf
00000190: 4e54 19bf 2806 25bf d031 95bf 61fc b33e
000001a0: 9b7e bdbf bd65 c9bd 9cb9 a7be e6c2 c6bd
000001b0: ca4f f93d f504 cdbb 6397 30bf f0cc ca3e
000001c0: 9d81 4bbf 61df 9dbf 084b 41bf 00ac 01bf
000001d0: 6619 1abe a3d4 12bf 1f48 953f dc0a 6bbf
000001e0: d9b1 51bf 7e51 aebe 57cf d1bd 8add a4bf
000001f0: 02c9 85bf d46b 3dbf 677f 81bf 086b 1ebd
00000200: 4552 99be 131b ce3e c9ae 13c0 f3b6 c8bb
00000210: cbf0 903c d413 98bc 28f0 96be dc1a 00bf
00000220: ec9f d0bf 3e8b f8be 223c 46bf 64b4 f0be
00000230: 15f8 8bbd 8ca8 a1bf a294 e7bd 1190 08bf
00000240: 8c7b 0abe 05b6 48bd 74e4 953f ab63 82bf
00000250: a609 a03e c5be 08be cb27 babf 862e c23e
00000260: 280b b4be d87b 41bf 0320 a7bf 0cd0 63be
00000270: a4c6 b0be 51b9 08bf de43 013f 808a 65bd
00000280: 537e 36bf b93b 12c0 c359 eabd 5e1c 26bf
00000290: f910 dabd a191 41bf 7bca 85be 0711 d0bd
000002a0: 10a7 d9bd 3f5e af3e 0675 8ebf 3e56 9dbf
000002b0: ad42 aabf f308 44bf f58d 87bf a3aa 7abe
000002c0: c882 513f 9c5a 9a3f 165c 1bbf c073 b938
000002d0: ce45 983f 5834 fdbf 929a adbf a855 55bf
000002e0: 27a3 97bf 0bd1 51bf defa 993f 5f15 9fbe
000002f0: 4aaa bdbf 3732 85bd 2a7e a9bf ea46 bbbe
00000300: 78b5 2dbf b9fb a2bf 81ea 7abf c0bd e33e
00000310: 9e54 adbf 3205 eebd 8698 54bf 04aa 00be
00000320: 88a0 2ebf 9a1f b8bd e3f0 0cbf 5122 46bd
00000330: 28ba eabd 7f70 83bf 041b 4bbe 9cb8 0cbf
00000340: 0462 99be 8c54 57bd 590b b6bf d7d4 b8bf
00000350: b259 75bf 28ad f1be dc07 3cbf 6fc4 cdbf
00000360: ae00 18bf 00d2 02be 406f 043f e435 7cbf
00000370: 05ee bcbd d73b f8bf f0aa 71bf fd46 473f
00000380: 05f9 cabd b678 1fbe 41ff 8dbf 19a3 723e
00000390: 6586 ebbf 50c2 8cbd c3cf 8ebf 0ceb c1bf
000003a0: 98ec a6be e87c 46bf 2888 6fbf e3ab 84bf
000003b0: c82a ccbf 7ef6 e23b 98c4 a1bf 7406 1d3f
000003c0: 90dc f1be 7cbc c5bf 642d b83d 5daa ecbe
000003d0: 375a 6ebf 6f99 16bd 4903 cbbd 8576 8fbf
000003e0: a649 afbd 040c d7bd 0420 18bf 4430 0bbf
000003f0: a856 d9bf 3b19 0fbf e1d4 03bf 422f b23f
0.5255379 -1.3144859 -0.09114411 -0.026493017 -0.31488475 -0.014743994 -0.10770195 -0.44388697
-0.7593434 -1.4161909 -0.23930869 -0.70545286 -0.5045401 -1.0766442 0.01316181 -0.09098198
-0.12621394 -0.77523535 -0.2670911 -3.0269275 -1.0052488 -1.8999643 -0.31011844 -1.2397639
-0.31465322 -0.66803116 0.18374243 0.34809557 -1.0001677 -1.4186834 -0.72055656 -0.62093604
-0.6517817 -0.41345027 -0.35289633 -0.73166096 -1.662524 -1.1375827 -1.8779848 0.6422361
0.27376333 -1.1175648 -0.88016146 -0.39511153 -0.13662538 -1.048695 -1.0731939 -1.2708366
-0.27425987 -0.34378728 -1.0234772 -3.5559042 -0.84352493 -0.24330725 -1.2058667 -1.1357291
-0.9733677 -0.097056426 -0.8500028 1.4582741 -2.0355098 -2.1116216 0.9620721 -0.61944246
-0.5665971 -1.0954266 -1.1972382 -0.93319076 -1.3534663 -0.5049425 -0.3664708 -1.4153733
-0.7974499 -1.8628063 -0.09390917 -0.09995039 0.0076488648 -0.054133724 -0.3367813 -0.20821479
-0.7376661 -0.53311694 -0.17336538 -0.96465147 -1.346438 -0.16104451 1.0226551 -1.0296807
-1.0297726 -1.7096858 0.044055056 0.320753 -1.0322382 -0.4648883 0.40972605 -0.96626604
-0.70829374 -1.4267509 -0.4725528 -0.6517697 -0.59894264 -0.6446252 -1.1655827 0.35153487
-1.4804262 -0.09833858 -0.32758796 -0.09705143 0.12173422 -0.0062566944 -0.68981 0.3960948
-0.7949465 -1.2333795 -0.75505114 -0.50653076 -0.15048751 -0.5735571 1.1662635 -0.91813445
-0.81912 -0.3404655 -0.10244625 -1.2880108 -1.0451968 -0.7399266 -1.0117005 -0.03867629
-0.2994558 0.4025503 -2.307543 -0.006125325 0.017692944 -0.018564142 -0.294801 -0.50040984
-1.6298804 -0.48543733 -0.77435505 -0.47012627 -0.06834427 -1.2629561 -0.11307646 -0.5334483
-0.13523692 -0.049001712 1.1710343 -1.0186666 0.3125736 -0.13354023 -1.4543394 0.3792612
-0.35164762 -0.75579596 -1.3056644 -0.22247332 -0.3452655 -0.5340777 0.5049418 -0.056040287
-0.71286505 -2.2848952 -0.11442902 -0.64887035 -0.106477685 -0.7561284 -0.26131043 -0.10159498
-0.10627568 0.34251592 -1.1129463 -1.2291944 -1.3301598 -0.76576155 -1.0590197 -0.24479155
0.8184018 1.2058902 -0.60687387 8.8430475e-05 1.1896303 -1.9781599 -1.3562796 -0.83333826
-1.1846665 -0.819596 1.2029684 -0.31070992 -1.4817593 -0.06503718 -1.3241627 -0.3657754
-0.67855024 -1.273307 -0.98014075 0.44480705 -1.3541448 -0.11622085 -0.8304523 -0.12564856
-0.682137 -0.089904025 -0.55055064 -0.04837257 -0.11461288 -1.0268706 -0.19834524 -0.5496919
-0.29957592 -0.052570865 -1.4222213 -1.4439954 -0.9583999 -0.4720242 -0.7344949 -1.6075572
-0.5937604 -0.12775421 0.51732254 -0.9851973 -0.09225086 -1.9393262 -0.94401455 0.77842695
-0.09910778 -0.15573391 -1.1093522 0.2369503 -1.8400389 -0.06873 -1.1157154 -1.5149856
-0.32602382 -0.7753434 -0.9356713 -1.0364956 -1.5950556 0.006926357 -1.2638121 0.6133797
-0.47238588 -1.5448146 0.089930326 -0.46223727 -0.93106407 -0.03676742 -0.09912736 -1.1208044
-0.08558969 -0.10500339 -0.5942385 -0.5437052 -1.697957 -0.55897874 -0.514967 1.3920672

weight f4 [8, 256]
00000000: 2809 8fbe c854 f73d aeb0 163d 3dd7 4bbd
00000010: c0e9 9e3e e7a3 aa3e 854b 6e3d b51d de3e
00000020: 03fa 003d f8e2 0bbf 976b 163f bb79 30bf
00000030: 11eb dcbe 08ee 773d 71ee 0c3e 536f f83c
00000040: b2d5 92bc 4d59 8b3c 70d7 89bc adc0 d93c
00000050: 97e3 133e 2c9a 7abf adc6 0c40 b64c a93e
00000060: c101 7cbe c17d 92be 112b 07bd 4d70 c63b
00000070: a6b7 393e 921a d13d 1cf2 133e 6bd2 283d
00000080: 7490 d3be e13f cdbd 60d2 41bd 4106 a4be
00000090: b639 f8be dd9d 25bf a43c 8ebd 4f89 2d3f
000000a0: af3a 23be 287d 57bf 3af8 bebe 7ddd 27bf
000000b0: eab2 50bd 37a2 a03e 2d0d 12bd bb24 e4bd
000000c0: ddf2 cabf 8b07 63bf 4e5e 29be a1ad 9bbe
000000d0: 9ac4 0ebe a22d 193d 9351 09be c732 87be
000000e0: 3620 08be 1614 e2bb 9746 90be 0d36 a53d
000000f0: 686a 803e 063c 183e 0a19 7c3e 09e2 c9bd
00000100: 5913 12bd 6d42 433e 2e56 4f3e 79f2 81be
00000110: 4d0a a5be 3ad1 a7bd f5bd 803e 3596 733d
00000120: 8667 05c0 ee8c d3bd 5176 aabc 17f1 81bd
00000130: d88e 9ebd feb0 403c d507 283d 50ed 47be
00000140: d1e3 043d 9deb 013e c050 30be 157b ac3d
00000150: 31b2 d5be f9f9 b5bc 3de6 05bc 5613 cf3e
00000160: 3aff efbe 7fd5 ec3e 1b3a 7abd c3eb 2b3d
00000170: a468 1dbd 2cd1 fbbd c716 56bd 39c1 7dbd
00000180: 1901 6abd 6b06 66bd 6af1 d6be f9e2 d53e
00000190: ae4b febd 1ecc b9bc 62e2 98be cb29 b23e
000001a0: ffc3 6ebc 34d6 8c3c ef0f ad3e c33f b83c
000001b0: e3c0 05be 71a6 41bd 1968 2f3c 15fe 22bf
000001c0: 55c3 b93e 017a 81be e0b0 013a 401d d23d
000001d0: 5367 27bd 9ff8 cdbe 72b5 e7bd 4ccf 5fbe
000001e0: 0635 e43d 452c 1e3f 35ce 1a3c db8d d6be
000001f0: 2fd6 c23e f725 f1be bed7 3bbb 8c95 e03c
00000200: 79a7 643f 440b 893d 080b 1bbe 1021 8a3d
00000210: f62b a6bd aa9d 663d 4fa6 56bd a9ca 343d
00000220: 644d 68be 9191 85bc c7b8 f0be 16ee b43e
00000230: 0279 933c 7f5f 07be 55ce fbba 4d0e 11bf
00000240: 11ec 1c3d c657 74bd 9542 a53c 907d f7ba
00000250: c6b2 d7be e0ab 22bf 5909 213d d654 663d
00000260: a4a6 fa3e 8621 0f3f ba76 993e 455a 6bbd
00000270: 702e 933e 57d3 3c3e 9e52 393f 47dc 67bb
00000280: 2d45 d43e b3ed c5bd 2e29 e0bc c98b 9e3e
00000290: 2590 61bd 10c6 583e 8f8b d03d 7148 8dbb
000002a0: d94e 503c a3d0 47be c67c 79be 7561 01bf
000002b0: 7eb5 9fbc 6277 af3f 2508 383e 331e 2f3d
000002c0: cc26 8b3e 326f 933e d530 8dbd e7f8 25bd
000002d0: 9cdd 94bd 2a81 c03c 73b0 093e e631 cebe
000002e0: 35c9 bfbe 2cdf 983e ceb5 6f3c 1ad6 693e
000002f0: 59b9 f63e b002 43bd 7231 5d3c ddfc 0540
00000300: b13d 2f3e 7d68 ea3e 4b1a 2a3e 3162 8a3d
00000310: f4f2 46bf 870f 72bd 41d9 d4bd 9302 d4bd
00000320: 018c e6bc 6d58 4bbc 9783 433e 3fe4 973c
00000330: 63c8 0b3c c015 183d 4c83 1f3e 705a 633e
00000340: fa6f 7f3e 3ce4 6ebd bc07 693e 92a7 debd
00000350: 4e0c 883e b16b 18be 9af8 593e 6c70 2cbe
00000360: af40 63bf 870d 32bd 232d 8cbc b339 093f
00000370: c327 a3bb 475e 673d e4c3 363e a9d2 fd3c
00000380: c87c 6f3d cbdd 0cbf b3c5 29be 5361 6d3e
00000390: 457d 92bd 61fe cc3e d78c e93d fe11 9dbd
000003a0: bf37 383e 72ba 923f d160 e03e 6937 4e3e
000003b0: 4815 00bd ccbc e0bd fc85 6ebe 1222 87bc
000003c0: f0aa c9be 2614 b7be 4249 51bc a4f3 dcbd
000003d0: 3f93 b4bd e634 e2bc b8c4 16bd 757c 95be
000003e0: 878b 7bbc b6f4 113d 7a02 873e b148 083e
000003f0: ddef 053e dd6f 92be f6ac fcbe 33b8 4c3d
-0.27936673 0.120767176 0.03678959 -0.049765814 0.31037712 0.33328173 0.05817749 0.4338204
0.03148843 -0.546432 0.5875792 -0.68935746 -0.4314809 0.06052974 0.13762833 0.030326521
-0.017924163 0.017010355 -0.016826361 0.026581133 0.14442287 -0.978915 2.1996262 0.33066338
-0.24610044 -0.28611568 -0.033000056 0.0060558678 0.18136463 0.10210146 0.14447826 0.041216295
-0.41321146 -0.100219496 -0.04731977 -0.3203602 -0.4848153 -0.64694005 -0.0694516 0.6778764
-0.15940355 -0.8417535 -0.37298757 -0.6557234 -0.050951876 0.3137376 -0.035657097 -0.11139818
-1.5855366 -0.88683385 -0.1653988 -0.30405906 -0.13942185 0.037397034 -0.13410024 -0.26405928
-0.13293537 -0.006899367 -0.28178856 0.0806695 0.25081182 0.14866647 0.24618927 -0.09857566
-0.035662983 0.19068308 0.20247719 -0.25380304 -0.3223442 -0.08194204 0.25144926 0.05946942
-2.0844436 -0.103296146 -0.02080837 -0.06344812 -0.07742089 0.011760948 0.041023094 -0.19524121
0.032443825 0.12687536 -0.17218304 0.084219135 -0.41737512 -0.022213923 -0.008172569 0.4044444
-0.4687441 0.46256635 -0.06109057 0.041972887 -0.03842987 -0.12295756 -0.052267816 -0.06195185
-0.057129953 -0.056158464 -0.4198106 0.4177473 -0.124167785 -0.022680338 -0.29860216 0.3479751
-0.014573096 0.017191984 0.3380122 0.022491341 -0.13061862 -0.04727787 0.010705971 -0.6366895
0.3628184 -0.25288394 0.0004947316 0.10259485 -0.040870022 -0.40228745 -0.11313905 -0.21856421
0.11142926 0.617863 0.009448578 -0.41905102 0.38054034 -0.47099277 -0.0028662528 0.02741506
0.89318043 0.06691602 -0.15140927 0.067445874 -0.08113854 0.056302704 -0.052404698 0.044138584
-0.22685772 -0.016304763 -0.47015974 0.35337895 0.018002037 -0.13220023 -0.0019211272 -0.56662446
0.038311068 -0.05965402 0.02017335 -0.0018882025 -0.4212858 -0.6354351 0.039315555 0.05623325
0.48955262 0.5591053 0.29973394 -0.057459135 0.28746367 0.18439995 0.7239169 -0.0035379098
0.41459027 -0.09664478 -0.027363386 0.30966023 -0.055069108 0.21169305 0.10182869 -0.004311614
0.012714111 -0.19513182 -0.24364004 -0.5053933 -0.019495722 1.3708308 0.17971857 0.04275341
0.27178037 0.28795773 -0.068940796 -0.040520575 -0.07268831 0.02349909 0.13446216 -0.40272444
-0.37458196 0.29857767 0.014630748 0.2283558 0.48188284 -0.047609985 0.013500558 2.0935585
0.17113377 0.45782843 0.16611592 0.0675701 -0.7771447 -0.05909684 -0.103930004 -0.103520535
-0.028142931 -0.012411219 0.19093166 0.018541453 0.008531663 0.037130117 0.1557743 0.22202468
0.2494506 -0.05832313 0.22756857 -0.10871805 0.26571888 -0.14884831 0.2128624 -0.1683976
-0.88770574 -0.043469932 -0.017111367 0.5360367 -0.004979105 0.056486394 0.17848164 0.03098424
0.05846861 -0.5502593 -0.16579323 0.23181657 -0.071527995 0.40037826 0.11403816 -0.07669447
0.17990015 1.1463149 0.43823865 0.20138325 -0.031270295 -0.1097351 -0.23293298 -0.016495738
-0.39388227 -0.3575756 -0.012773814 -0.10788658 -0.088171475 -0.027613115 -0.0368087 -0.29196516
-0.01535309 0.035633765 0.26369077 0.1330898 0.13079782 -0.2860097 -0.4935071 0.049980354

bias f4 [8]
00000000: 4df0 cb3d 4433 d33e 735d 183e 2cb5 25bf
00000010: 0850 0d3e 5689 4fbd 1cf9 7fbf 8dbd dcbe
0.09957943 0.4125005 0.14879398 -0.6472957 0.13800061 -0.050668083 -0.99989486 -0.43113366

weight f4 [256, 119]
00000000: 6a34 a440 5230 02bf 8686 7940 ba55 4340
00000010: 8db8 cf3f 707e 2bbf 5e73 623e 014b 17bd
00000020: 6a78 aabd d03d a8bd b0ff 913f 15cc 3dbf
00000030: a34e 03c0 5c18 8d3e f325 49bf 2c6d 55bf
00000040: c78a 00be 09ce e43e d18a 0f3f 66f0 db3e
00000050: e1ed 783c 0e4d d1bd 5361 053e 7a93 a1bc
00000060: 61af 0ebe 529a 09bd f8e4 533e 704e 4abc
00000070: 8d2d 843d 1fdb 933d 0ed7 4d3d dd86 1ebd
00000080: 1033 81bb 77f9 843d 3ba6 27bd 9fe5 ac3d
00000090: 1311 80bd 3be7 ad3d 10cb ffbb d350 b53d
000000a0: a753 903d 0088 9f3c 186a 043c 36f0 6c3d
000000b0: 70e4 7abd fc77 adbd b2f4 4b3d b090 e0bc
000000c0: 700c 943c a3aa a13d 362e 2f3d cb9b 0bbd
000000d0: 245a 82bd d540 aabd f288 8dbd 18d9 e5bc
000000e0: 30cd 00bc e836 123c db66 b43d a45d 073d
000000f0: 8039 3fbc 80eb 7c3c 4b0c 5abd 649a bbbc
00000100: ab95 17bd 56bd 88bd b169 ad3d 880c 75bc
00000110: 887b eb3c 50cc d7bb e0de d33c 78a8 6dbc
00000120: f876 67bd 901d b5bd e850 89bd e3c5 933d
00000130: bfc3 14bd ca54 2fbd c486 c53c 009f 323b
00000140: 884c 323c 864e 94bd b877 52bc e6d7 2b3d
00000150: e04d 8fbd c8d1 49bd 5efb 2bbd c24a b3bd
00000160: 7219 073d b8d3 8e3c 0d71 913d daa1 80bd
00000170: 14e3 843c 2fbf b23d 263d 6c3d d0db 28bd
00000180: 40b4 afba c40c 21bd a645 b7bd 1ea6 b1bd
00000190: e635 98bd e1a1 3cbd 7fc5 803d 6890 9dbc
000001a0: 1ecc acbd d094 a7bd 3436 a8bc 3cc4 82bd
000001b0: 9f2a 74bd 3826 f6bc f498 b6bd 7d70 df3f
000001c0: c187 c73b e81c 0ebf 43aa b6be 57b8 55bf
000001d0: daff aabf 7b38 043f e295 c4be c743 9fc0
000001e0: 75e3 4b3f 6f83 c73e 7490 353e fc21 92bf
000001f0: f9a7 f2be 5641 dc3f 6e0a 4abf add3 b6bc
00000200: a72f dcbf 97c7 873c 3e05 99bf 6809 d13e
00000210: 0681 b43b 96ce 91be cc88 29bf 127b f4be
00000220: 4b7e d4be 9efe 6f3d 3e77 34bd 5fa7 71be
00000230: 959c eabd 2d78 0d3d 3b52 6cbd 9368 eb3c
00000240: 5bd3 5e3d d195 693d 4094 953a 7527 9cbd
00000250: e018 dc3b 04fe e53c 28c0 273c 3e99 193d
00000260: 3670 483d 8008 f73a 042a a1bc dead 793d
00000270: 7981 3abd f451 91bd ac08 95bd 6aaa 633d
00000280: 940d 70bd 1066 1b3c f660 673d 2809 57bd
00000290: 70e2 9abb 43f8 72bd 4ffe aa3d 94e3 43bd
000002a0: 2a32 6c3d f7a1 2fbd de3e 3f3d 14e7 f63c
000002b0: 47a8 853d 62b6 34bd 4064 35bb 812c a33d
000002c0: 9005 76bd e65d 353d 34a9 8cbc 7997 a13d
000002d0: 2ba8 a03d d8d4 43bd 4a8a abbd a577 7bbd
000002e0: e7c5 40bd 207f ee3b 703a 56bc 0982 ad3d
000002f0: 5a08 88bd 76bd 6b3d 6da1 75bd 06a6 4a3d
00000300: 506a e13c 90c1 c9bc 1fab aabd 9203 74bd
00000310: 3286 433d d84c afbc 60a2 77bd dd5a 80bd
00000320: 00ad 08bc 7c00 9f3c 05bc b3bd 6a10 04bd
00000330: 786b 853c ade8 873d 780b e33c be7d 7dbd
00000340: d4dc cc3c 65f6 b03d d86d 7f3c 04ea b4bc
00000350: e0f1 8cbc 6c4e 85bc aeb3 8dbd b01c 8f3b
00000360: d83c 023d f978 7dbd 20de 14bc 6c95 70bd
00000370: 519e 823d e080 35bb fd5b 973d 9663 783d
00000380: d95d b73d 40ee f83a 48af c9bc d1c6 a1bd
00000390: 945a 9cbd 7f8e 933d 3fad 6e3d 4d80 b6be
000003a0: 4241 11bf 5cfa 82be 2a22 953d af13 163f
000003b0: fef9 5b3e b74d 803e 3dba c73f 933e 213f
000003c0: 8262 a140 5d76 25c0 8a67 ef3f 2c08 8dbe
000003d0: 94f8 393f 5aff 1fc0 ec3d 173f 9b4f b23e
000003e0: 1793 ce3f 0618 31bf 2ed0 c23e 8c3a 5bbf
000003f0: a5ee fb3f a64d f8be 7dfe 88bf a265 173e
5.131398 -0.5085498 3.8988357 3.0521073 1.6228195 -0.66989803 0.22114322 -0.036936764
-0.083237484 -0.08214915 1.1406155 -0.7413953 -2.0516746 0.27557647 -0.7857353 -0.8336971
-0.1255294 0.44688442 0.5607119 0.42956847 0.0151934335 -0.10219775 0.13025407 -0.019723643
-0.13934089 -0.033594437 0.20692813 -0.0123478025 0.064540006 0.072195284 0.05025392 -0.038702834
-0.0039428547 0.06492894 -0.040930014 0.08442234 -0.06253257 0.08491369 -0.0078061894 0.088533066
0.070472054 0.01947403 0.008081935 0.05784627 -0.06125301 -0.08470151 0.049793907 -0.027412742
0.018072337 0.078938745 0.04276868 -0.034084123 -0.06364849 -0.08313147 -0.06910886 -0.02805762
-0.0078614205 0.0089242235 0.088086806 0.033048287 -0.011671424 0.015437007 -0.05323438 -0.022900768
-0.03700797 -0.06676738 0.08467425 -0.014956601 0.028745428 -0.0065856352 0.025863111 -0.014505498
-0.05650994 -0.08843529 -0.06704885 0.07215478 -0.03631949 -0.04280547 0.024112113 0.0027255416
0.010882504 -0.0724154 -0.012845926 0.041953944 -0.06997275 -0.04927233 -0.04198777 -0.08754493
0.03298325 0.01743494 0.07101641 -0.06280871 0.01622156 0.087278716 0.057675503 -0.041225255
-0.0013405159 -0.039318815 -0.08948831 -0.086742625 -0.07432155 -0.046052817 0.062876694 -0.019233897
-0.0843737 -0.081826806 -0.020533659 -0.06385085 -0.05961096 -0.030047521 -0.08915892 1.7456204
0.006089181 -0.5551286 -0.35676774 -0.83484405 -1.335933 0.5164868 -0.38395602 -4.9770236
0.79643947 0.38967463 0.17730886 -1.1416621 -0.47393778 1.7207439 -0.78922164 -0.022317732
-1.7202042 0.016574664 -1.1954725 0.4082749 0.005508545 -0.28477925 -0.6622436 -0.47750145
-0.41502604 0.05859243 -0.04405903 -0.23599003 -0.11455647 0.034538437 -0.05769561 0.028736388
0.054400783 0.05702764 0.001141198 -0.07624713 0.0067168325 0.028075226 0.010238685 0.03749966
0.048935138 0.0018847138 -0.019673355 0.06095683 -0.04553363 -0.070957094 -0.07277045 0.05558244
-0.0586067 0.009484783 0.056488954 -0.052498966 -0.0047267005 -0.059318792 0.08349287 -0.047824457
0.057665028 -0.04287907 0.046690814 0.030139484 0.06526237 -0.044119246 -0.0027678162 0.07967473
-0.0600639 0.044279 -0.017170526 0.07890219 0.078445755 -0.047810405 -0.08375986 -0.0613934
-0.047063734 0.007278338 -0.013075456 0.08472068 -0.06642218 0.05755373 -0.0599684 0.04947474
0.027516514 -0.02462843 -0.0833342 -0.059573717 0.0477354 -0.021398947 -0.060457587 -0.06267331
-0.008342028 0.01940941 -0.08776096 -0.032242216 0.016286597 0.06636176 0.02771543 -0.061887495
0.025007643 0.08640746 0.015590154 -0.022084244 -0.017205179 -0.016272746 -0.06919037 0.0043674335
0.031796306 -0.061882947 -0.009086162 -0.05873625 0.06377853 -0.0027695224 0.07390592 0.060641848
0.08953447 0.0018991902 -0.024619713 -0.07899249 -0.07634464 0.07204913 0.05827069 -0.3564476
-0.567402 -0.25581634 0.07281907 0.58623785 0.21482083 0.25059292 1.560371 0.62986106
5.043275 -2.5853493 1.8703473 -0.27545297 0.72644925 -2.4999604 0.5907886 0.3482636
1.6138638 -0.6917728 0.38049453 -0.8563621 1.9682204 -0.4849674 -1.0702664 0.14784864

bias f4 [256]
00000000: a6f7 f7bf c788 7340 a925 cebf 3b2f 2cc0
00000010: d05a 8f40 936c 1dc0 4276 05c0 32d3 2abf
00000020: 3716 26c0 e704 54c0 a983 8040 5cbd 633f
00000030: 583e 063f 523e 12c0 168e 9740 e8ec 043f
00000040: a9aa 4fc0 27ce f2bf b958 05c0 1bfd ab3f
00000050: 65cb 29c0 6ef5 84c0 841e 50c0 79c0 6e3f
00000060: 5c73 873f 1aa8 04c0 50ca 55c0 7216 27c0
00000070: d936 26c0 0341 4fbf 7003 0a40 4ef5 13c0
00000080: 2ea1 6b40 b655 2fc0 87ea 47c0 71fc 44c0
00000090: 5c54 8740 dda1 31c0 6ba6 ae3f f3de 03c0
000000a0: 3950 24c0 1756 c7be 872a 5bc0 fdd3 6840
000000b0: e686 0d3e 5835 bf3f 7749 1fc0 ec5c 29c0
000000c0: cae3 993f fdca 38c0 4386 893d 109b 07c0
000000d0: 1a25 c7bf cfc9 2dc0 6ef7 43c0 c3f6 c53e
000000e0: 7dae 45c0 de8f 573f 5803 16c0 9abc 7f40
000000f0: 10fb 67c0 35ab 6840 31a7 2bc0 c418 5d40
00000100: 3447 093e eb08 4dc0 e775 7f40 6398 e0bf
00000110: 3e91 a73f 99dd f8bf 95f4 2a40 8940 a2bd
00000120: efee 7dc0 75c8 3e3e e1ef aebf dfa2 34c0
00000130: 6004 cf3f 012d 693f 786d 3fc0 10bc 5140
00000140: 80da 0ac0 e717 c23f 02e7 a53f 8868 a13e
00000150: 7105 4340 8fc5 48c0 25a8 9040 963f 1a40
00000160: fbfd cf3e 1cdf 0fc0 408a 203f 98a6 1bc0
00000170: 41b8 fbbf c5a1 8d3f c5f8 27c0 e460 7940
00000180: 6748 30c0 caab 0dc0 f574 05c0 ece7 17c0
00000190: 37d0 0e40 8149 86bf ac10 a4bf 60f0 3ec0
000001a0: d759 1540 4636 70c0 fbb3 6e3f 372f 3e40
000001b0: 1663 7dc0 c62f 32c0 e8dc 0fc0 31a0 4cc0
000001c0: 90d1 6b40 1e89 d13f 6518 873e ccbc 2bc0
000001d0: 818e 6440 edd7 5fc0 a6d7 a8bf ae52 0340
000001e0: e4d3 c83f 7c76 31c0 186d 4640 7cc9 02c0
000001f0: 4825 b53f 1e2c 8340 0125 963e aef0 3840
00000200: 495b 623f e2b4 fd3d 12cd 8740 2e04 3840
00000210: 7b00 3540 ba74 0dc0 9d1c 3740 490e 2fc0
00000220: b6f6 5740 9655 5d40 cbd5 3ec0 f3f0 37c0
00000230: 0458 f43e c9dc 623f aea9 1fc0 bf9c 8bc0
00000240: 0abd 80c0 94c3 06c0 8d6f 6bbf 0164 8cc0
00000250: 2204 36be 1a4c e6bf 9e77 23c0 6530 dfbe
00000260: 1526 333f 15bc f53e 2f83 2340 5a4f f33e
00000270: e097 57c0 1f9a 5f3f 06be e4bf f6a6 abc0
00000280: a552 2ac0 f0ab eebf 96c2 13c0 a3d5 1cc0
00000290: f804 7740 d3f1 13c0 1660 1fc0 0425 4040
000002a0: 0037 0c3f eb5e f1bf 9d03 45c0 62af 13c0
000002b0: 45f4 083f 5667 993e 1bb1 15c0 0268 5240
000002c0: d918 8540 75e3 8d3e d13e ac3f 38ef 2cc0
000002d0: 5367 31c0 883f 8ebf a070 8f3f f5d8 0bc0
000002e0: f522 a13f b8f2 963f ffd6 21be 1993 14c0
000002f0: eef5 06c0 8ddf 653f eb0a b83f a38f 3540
00000300: a545 e0bf 8b7e 93bf afbb 7a40 2acf 5440
00000310: 6bd3 8b3f c722 db3d 43f5 6abe 3ff7 8fbf
00000320: f6d6 1140 4993 4ac0 e6e6 2ec0 c6b3 e9bc
00000330: ae60 8740 916c 39bf f421 1d3c 0ddd 05bf
00000340: b3e2 22c0 fe7b 2dc0 f84c 8c3f 41a9 29c0
00000350: e13d 0640 5415 1240 8ebd 093f 2ade 08c0
00000360: 5a61 1ac0 c5e3 8c3f 3bd1 36c0 ef69 203f
00000370: f43d 06c0 6af2 4b40 9785 0ebf ca65 33c0
00000380: 7a66 493f 9911 75bf 1802 713f 9870 04bf
00000390: b3e3 0fc0 119a 7240 bb44 10bf 7a13 a0c0
000003a0: ed66 b6bf 8ee0 653f e8cb 2b40 55a6 4ac0
000003b0: fce9 4a40 9b56 0ac0 12cb 28c0 2b36 09bf
000003c0: 9f71 e0be 9893 9e40 2181 19c0 9a62 1140
000003d0: 0ae1 24c0 cf60 36c0 327b 9640 0358 a03f
000003e0: 4a6e 2ec0 983e 123f f533 e53f dfb0 52c0
000003f0: 6921 31bf 53c4 86bf 87e9 5ec0 5ce8 ad3f
-1.9372451 3.8052232 -1.6105243 -2.6903827 4.4798355 -2.4597518 -2.085343 -0.6672851
-2.595106 -3.3127992 4.016072 0.88960814 0.5243888 -2.2850537 4.7360945 0.5192399
-3.2447913 -1.8969163 -2.0835402 1.3436617 -2.6530392 -4.1549597 -3.2518625 0.9326244
1.058208 -2.07276 -3.3404732 -2.610745 -2.5970976 -0.80958575 2.1564598 -2.3118472
3.6817126 -2.7396064 -3.1236894 -3.0779078 4.229048 -2.7755044 1.3644537 -2.0604827
-2.5673964 -0.3893287 -3.4244707 3.6379387 0.13820991 1.4938154 -2.488859 -2.6462965
1.2022641 -2.8873894 0.067150615 -2.1188393 -1.5558197 -2.7154424 -3.061977 0.38664827
-3.088775 0.842039 -2.343954 3.9958863 -3.6246986 3.6354496 -2.6820796 3.4546366
0.13406068 -3.2036693 3.9915712 -1.7546505 1.3091199 -1.9442626 2.671178 -0.07922465
-3.9677083 0.18631156 -1.3666955 -2.8224409 1.617321 0.91084296 -2.9910564 3.2771034
-2.1695862 1.5163544 1.2961123 0.31525064 3.047207 -3.137058 4.5205255 2.410131
0.4062346 -2.2479925 0.6271095 -2.432043 -1.9665605 1.1064993 -2.6245587 3.8965387
-2.754419 -2.2136102 -2.0852635 -2.3735304 2.2314584 -1.0491182 -1.2817588 -2.9834213
2.3336084 -3.7533126 0.9324338 2.9716318 -3.9591727 -2.7841659 -2.247858 -3.1972773
3.6846657 1.636997 0.263858 -2.6833982 3.5711977 -3.497554 -1.3190811 2.0519214
1.5689664 -2.7728567 3.1004086 -2.0435476 1.4152002 4.0991354 0.29325107 2.88969
0.8842054 0.12388016 4.243783 2.875255 2.8281543 -2.2102494 2.8611214 -2.735247
3.374433 3.4583488 -2.981799 -2.8740814 0.477234 0.8861814 -2.4947314 -4.362884
-4.023076 -2.1056871 -0.9196709 -4.3872075 -0.17775014 -1.7991974 -2.5541759 -0.4359161
0.69979984 0.47995058 2.5548818 0.47521478 -3.3686447 0.87344545 -1.787049 -5.364131
-2.6612942 -1.8646221 -2.3087516 -2.4505394 3.8596783 -2.3116348 -2.4902396 3.0022593
0.54771423 -1.8857092 -3.0783455 -2.3075795 0.53497726 0.29961652 -2.3389347 3.2875981
4.159283 0.27712598 1.345667 -2.7021008 -2.7719314 -1.1113138 1.1206245 -2.185117
1.2588793 1.1792822 -0.15804671 -2.3214781 -2.1087604 0.89794236 1.4378332 2.836892
-1.7521254 -1.1522993 3.9177053 3.3251443 1.0923895 0.106999926 -0.22945122 -1.1247329
2.2787452 -3.1652396 -2.732843 -0.028528105 4.2305517 -0.72431284 0.009590615 -0.5229042
-2.5450866 -2.710693 1.0960989 -2.6509554 2.0975268 2.2825518 0.5380486 -2.1385598
-2.4121919 1.100701 -2.8565204 0.6266164 -2.0975313 3.1866708 -0.5567259 -2.8030877
0.7867199 -0.95729977 0.9414382 -0.51734304 -2.2482727 3.7906535 -0.56354874 -5.0023775
-1.425016 0.8979577 2.6843204 -3.166402 3.1705313 -2.161536 -2.6373944 -0.5359828
-0.43836686 4.955517 -2.3985064 2.2716432 -2.5762353 -2.8496587 4.7025385 1.2526859
-2.7254815 0.5712676 1.7906481 -3.2920454 -0.69191605 -1.0528663 -3.4830034 1.3586535

weight f4 [256, 256]
00000000: 8495 f93d 5e0a 96be 5db7 a4be bcb4 26bf
00000010: 1457 c0be 478b 763e 7acc 9abd e274 e73d
00000020: 311d b3bd eca6 41be 591c 68be 7c75 063d
00000030: 90ec 44bd 1712 823e a168 08bf 2dfb 6c3e
00000040: 1756 f9be bee7 80be 745d 0a3e f3c1 10bf
00000050: b936 b53e d371 953e 70e4 203e 46da 013f
00000060: 8527 a4be 98d2 52bf 7a4e 483f 4d97 eb3c
00000070: ce61 b7be 282d acbe 57fe 25be 809a e3bd
00000080: 3934 e3be 99f6 48be e75b 623d 62a9 63be
00000090: d432 24bf 403d c9be 1db5 aabe 1b60 8e3e
000000a0: 54fa 823e 999a f9be ffc1 57be 1cf8 92be
000000b0: fd6c 8bbe aeae fcbe a4a8 4dbe eaf8 0abe
000000c0: 426d b63e 2cf1 2ebe ee8e fbbd b494 d73e
000000d0: f4bd 223d 88d3 30be 9ab4 373e 5204 3cbe
000000e0: b47f 6dbe 1146 aebe 73eb 34bd 8f7a 38be
000000f0: 3358 5bbc e2e7 a7be a2f2 0dbf 09bc 6d3d
00000100: 7c69 f4ba 507c 11be 5320 fc3e 5fff e8be
00000110: f4e6 87be 3929 8b3e 596b eabe 7b58 49bf
00000120: 4d7f a1be 8123 483e 5a1e 113f 93ea 07bc
00000130: d872 62bf f9d9 6bbf cdfa c63e 887c f8be
00000140: 2d3b a83d af54 e8be f5dd efbc 8ac9 e5be
00000150: 027f 483e 2034 d03d 2d0c 4a3e 7e90 82bf
00000160: 4980 5bbe 2566 983d b686 d3be dfe6 ffbe
00000170: cff6 8bbe fa1a 913d 17b0 c6be fc51 babe
00000180: 8075 b93d 072d e1be e04b 30be 6031 a8bd
00000190: 81da b6be 5f61 68be 5911 42be 1211 18bf
000001a0: ef6f e1bd 1072 fdbc 115b 7fbe 8645 43bf
000001b0: 283d 61bd b064 3ebe f0ab 9abb 6f90 743e
000001c0: a3e4 603e 169f f1be 116a 86be da7d 91bc
000001d0: 7283 4ebe 61d9 a5be bbfd b6bd bdae 2f3e
000001e0: 05f0 a7be af45 1e3e 305b 0ebf 6538 873e
000001f0: 963b 22bf 22b4 07bf 59f0 83bf 858c 563e
00000200: 3fbe ecbe e4a0 d2be 70b6 2cbe a784 c4be
00000210: 4e84 2fbe cbaf 1cbe 0449 d4be 5b69 7ebe
00000220: 133a 44bc 2cf0 8f3e 3824 ae3e 83b1 2dbe
00000230: 987a a1bc 0938 2dbd 7804 9abe 40ea 2fbe
00000240: 3c68 56bd 112d 81be 4df5 d2bd d3aa 123e
00000250: 3d9f e8be eaab cabd 51eb e23e 9bec edbe
00000260: 8c8f 463d 59a6 aabe 8127 14be 767e 7fbb
00000270: 334e c43d fbde dfbd f123 e13e 5e70 b4bc
00000280: be1e 3c3e a965 17be ea94 aabe 4c8b 5abf
00000290: 83fd a5be 243c abbe 8338 a9be f1f4 74bd
000002a0: 513b a73e 67e5 febe b827 363d 3672 2abe
000002b0: 19ab 1abf 771c 13be bdb7 c2be 8f7f 0cbf
000002c0: 2ae1 06bf 938e 01bf ccc6 39be e319 793e
000002d0: b483 d13d 284c 46bf 6ce9 1b3d ebda 37bf
000002e0: 7400 20bf 21b4 163e 3694 2bbf 6229 b5be
000002f0: af27 923e aa22 713e 0497 17bd e60f dcbe
00000300: c06a f3be b3b1 0fbd 9c74 c5be dd84 06bf
00000310: c58a 903d 21c2 4cbe e127 a1be b3f6 a2be
00000320: 6225 66be 5395 c3bd 56de ecbe f30e 7f3d
00000330: e11a 66bf a6b2 b03e f0a7 5fbf eaec 85be
00000340: b425 4e3e 75ac 2bbd 79a5 6fbe 40db b43e
00000350: f839 0bbe f39b 11be 362e e6bc 9617 203e
00000360: aff0 843e 5091 25be 9836 e73e 9996 74be
00000370: afd4 80bc 724d bebe 2d2b 87be ab69 8e3d
00000380: 64ca 05be 7c73 51bd bf54 5a3c b400 97be
00000390: 6685 193f 70c4 b43e 1698 193e 1715 93be
000003a0: 8955 99bd 3e71 293e 32a3 67bf 6b01 e0bd
000003b0: b334 3bbf 55c9 053e b715 2dbe c27e cb3d
000003c0: a3e3 27be ab21 babe 3c2c 663e 3797 1bbf
000003d0: d076 e5be bb6c 5f3d d9dc c7bd 803e ca3e
000003e0: 19e1 c6bd 4305 22bf 9339 7cbf 2036 e0be
000003f0: 94b1 abbd 49e8 8abe 0569 d53e f8fb a3be
0.12186721 -0.29304785 -0.32171145 -0.6511953 -0.37566435 0.24076568 -0.07558532 0.113015905
-0.08745802 -0.18911332 -0.22667064 0.032826886 -0.048077166 0.25404426 -0.5328465 0.23142691
-0.48698494 -0.25176805 0.13512212 -0.56545943 0.35393313 0.29188403 0.15712142 0.50723684
-0.320614 -0.8235259 0.78244746 0.02875867 -0.35816807 -0.336282 -0.16210304 -0.11113453
-0.4437578 -0.1962532 0.055263426 -0.22232583 -0.6414006 -0.39304543 -0.33341303 0.27807698
0.2558161 -0.4875076 -0.21070097 -0.28704917 -0.2723159 -0.4935202 -0.20083863 -0.13571516
0.35630232 -0.17084187 -0.12283121 0.4210564 0.039731935 -0.17268193 0.17939988 -0.18361023
-0.23193246 -0.3403783 -0.044169854 -0.18015502 -0.013387728 -0.327941 -0.55448353 0.058040652
-0.001864716 -0.14207578 0.4924341 -0.45507333 -0.2654339 0.27179888 -0.45785025 -0.78650635
-0.31542435 0.19544794 0.5668694 -0.008295673 -0.8845649 -0.92129475 0.3886322 -0.4853251
0.08214412 -0.45377108 -0.029280642 -0.44880325 0.195797 0.10166192 0.19731207 -1.0200346
-0.21435656 0.074413575 -0.41313714 -0.49980828 -0.27336738 0.070852235 -0.3880622 -0.36390674
0.090556145 -0.43979666 -0.17216444 -0.082125425 -0.3571358 -0.22693394 -0.1895193 -0.5940105
-0.11007678 -0.030938178 -0.24937083 -0.7627796 -0.054989964 -0.18593097 -0.0047202036 0.23883222
0.21962218 -0.47191685 -0.26252797 -0.017760206 -0.2016733 -0.3239241 -0.08935114 0.17156501
-0.32800308 0.1545627 -0.5560789 0.26410213 -0.6337217 -0.53009236 -1.0307723 0.20952041
-0.46238896 -0.41138375 -0.1686647 -0.38382456 -0.17140314 -0.15301435 -0.41461957 -0.24844877
-0.011976737 0.28112924 0.34012008 -0.16962247 -0.019711778 -0.042289767 -0.30081534 -0.17179203
-0.0523455 -0.25229695 -0.10300694 0.14322977 -0.4543399 -0.09896071 0.44320157 -0.46469578
0.04847674 -0.33330038 -0.14468195 -0.0038985289 0.09585228 -0.10931202 0.43972734 -0.022026237
0.18371102 -0.14784874 -0.33316737 -0.853688 -0.32419977 -0.3344432 -0.33050928 -0.059803907
0.32662442 -0.49784395 0.044471473 -0.1664513 -0.60417324 -0.14366327 -0.38030806 -0.5488214
-0.52687323 -0.50608176 -0.18142241 0.24326281 0.102301985 -0.77459955 0.038064405 -0.7181842
-0.6250069 0.14717151 -0.67023027 -0.35383135 0.285459 0.2354838 -0.037009254 -0.4298088
-0.4754238 -0.035081577 -0.38565528 -0.52546483 0.07057718 -0.1999593 -0.31475738 -0.31828842
-0.22475198 -0.09549966 -0.4626338 0.062270116 -0.89884764 0.34511298 -0.8736563 -0.26157314
0.2013157 -0.041912515 -0.23402967 0.35323524 -0.13596332 -0.14219646 -0.028098207 0.15633997
0.25964877 -0.16168714 0.4515884 -0.23885573 -0.015726415 -0.3716846 -0.26400128 0.06953748
-0.13065487 -0.051135525 0.013325869 -0.29492724 0.59969175 0.3530612 0.14999422 -0.28727028
-0.07487018 0.16547105 -0.9048339 -0.109377705 -0.7312729 0.13065083 -0.16902815 0.099362865
-0.1639543 -0.36353812 0.22477812 -0.6077761 -0.4481721 0.054547053 -0.0975892 0.3950081
-0.09710903 -0.6328928 -0.9852535 -0.43791294 -0.0838348 -0.27130345 0.41681686 -0.32028174
