data/PrioritizedDDPG/Reacher-v2/prioritized_ddpg_s16107/pyt_save/model.pt (torch_old, 560703 bytes, 11 tensors)

weight f4 [256, 11]
00000000: bbf0 d2bf 872e 95bf c8f9 e53e f491 473f
00000010: 8795 5b3f a316 e6bf 131c d5be 7f82 a73e
00000020: 343e f2bd c580 953e 34ff ab3d daee 6c3f
00000030: f29e debd c1b4 d4be 7f57 3640 564f 003f
00000040: 72e4 d13f 46a9 ab3d 491d 0e3e be80 f2bf
00000050: 5eb0 2cbf a8a7 683d a7aa c83f 86cf cfbf
00000060: 5c66 63c0 0014 d63d d1e3 d73e d249 09bf
00000070: 42c9 8fbe 706f b0be dbf7 2f3f 49de 103f
00000080: 4205 ddbd 9ff1 3e3f 5cbb 733f a310 62c0
00000090: 9df7 9c3f c89f 6740 3ffc e4bf 1c15 423e
000000a0: 15d3 eabe 45df 4ebf 9cae e6be 800e eabd
000000b0: d31d 1c3f 83f3 7d3f 359a afbd 6a92 0abf
000000c0: e69b 023f 2887 0a40 6dbc 043f b648 b13e
000000d0: d644 1b3f 570c afbf 46cb 253e 4d68 183f
000000e0: 4fd9 003f 4818 72bf 8766 0340 b22e 433e
000000f0: 12e6 81c0 425e a53d 6654 0c3f 66c5 0ebf
00000100: f56b c340 8259 6cbe 6930 9d3f b710 a03f
00000110: 40be fbbf 010d d33e 3c27 d940 95ad bbc0
00000120: 14d6 253e dbd4 033b fed2 44c0 6e32 6240
00000130: cab2 a7bd de9d 8d3e 1d0e cebf b8b7 0ac0
00000140: d460 87bf e5ae d240 06c7 9bc0 3d1f 2f3e
00000150: 6f03 e33e d5aa a7c0 4768 3940 2466 f8bd
00000160: 20d7 36c0 2cf9 ddbe 0094 50bf 6ba0 8dbe
00000170: 0d30 b3bf 961e 09bf 007a 83be 2330 20be
00000180: 1f9f c8bf 281e 533d 107f b1bd 51bd 4fbf
00000190: 8cd6 e03e 260e 9a3f b6de 8c3e dfce 91c0
000001a0: 8010 e33f 4d4d 3abf a546 35bf 9d33 1540
000001b0: 72b2 5dbf 4477 883e d751 473f 81fe 58bf
000001c0: 2362 85bf 4255 0f3f ad95 c3be 4620 40c0
000001d0: 5fce 88be 3726 06bf df53 bfbe 56c6 983f
000001e0: 2333 98be c4de 79bf 3503 ca3f 3710 1abf
000001f0: 0aae a5be dfec 7e40 30f3 fac0 5589 203f
00000200: 07fc 18be adaf ebbf 4734 6440 8f80 32be
00000210: af7b 4cbe fb71 083f 3edf 9d3e 5a58 30c0
00000220: 13c7 a93e 5022 4c3e db2f 813e 297d 35be
00000230: bece 423f 93b7 8ebf 101a 3fbd f3c4 7fbe
00000240: 1b1c 8b3f a1d5 bc3f d258 cb3f 0e86 483d
00000250: 26fd bebe 79d5 21be 8a4f bc3c eef0 01c0
00000260: d907 4440 4038 2cbe b34b 9abf 7272 51bf
00000270: ebe1 963f 0910 a9bd edee 9bbf 1e69 83bf
00000280: f569 3ebe 7bf6 eb3e fcef 293e 6487 6140
00000290: d603 98be d100 38bf e5a4 02c0 1a45 70bf
000002a0: 6dfb fabf ca7f ecbf d36b 5c40 c5c7 e6be
000002b0: 4957 16bf 79cc 833d e02f 9bc0 1eb1 4dbe
000002c0: 8d5b cd39 38e3 8a3f 95ad 483f 426d 31c0
000002d0: a0af 073e b06d 94bf bbb9 ed3d 9212 f6be
000002e0: 8c09 763e b6ff 1240 b88f 673d d5b1 733f
000002f0: aeab 3e3f 4c91 e03e 9291 6fc0 e87a 54bf
00000300: a128 79c0 c0d9 c53e 4217 e23d 3307 683f
00000310: c271 fe3f a465 943d 197c 9f3e bdca dcbf
00000320: 269e b1bf 0659 c63d 4213 9f40 a0be 6f3f
00000330: 22a4 933e b3db babe 765a 9fc0 cf15 84bf
00000340: 5a33 1e3e 2496 ca3e 2e64 99be 8cc9 44bf
00000350: 006f 493f fb05 1e3f f18f 40c0 3437 44be
00000360: b298 31be 049f 15bf 08cd 0740 1081 32bd
00000370: 7419 1fc0 3e98 20c0 3a5c e2bf 2c2b 6abf
00000380: 889a 8ac0 fc0b 8f40 c5ba 09bf 0a0b 153f
00000390: 75bc 8e3f 11a0 81c0 dca4 fdbd f02f 0bc0
000003a0: b0c4 183f 7e81 063f 12b2 e8bf 57b7 dabf
000003b0: 9d8f 0740 82df 233e 9d35 e8be 945e bebf
000003c0: d30c e0bf 522f e5bd b19f c1be 120b ec3f
000003d0: a313 d03f a637 933e 6978 9b40 537b 9ac0
000003e0: 0a95 0d3d d953 b93d f795 b1c0 56d4 9140
000003f0: 7077 923e 3e29 eabf 57d2 03c0 6356 913f
-1.6479715 -1.1654824 0.4491713 0.7795708 0.85775036 -1.7975658 -0.4162298 0.32716748
-0.118282706 0.29199806 0.083982855 0.9255196 -0.1087016 -0.41544154 2.8490903 0.5012106
1.6397841 0.08381896 0.13878359 -1.8945539 -0.67456615 0.056800514 1.5677079 -1.6235206
-3.5531225 0.104530334 0.42165998 -0.53628266 -0.28083235 -0.3446002 0.6873757 0.5658918
-0.107920185 0.74587435 0.9520776 -3.5322654 1.2263066 3.6191273 -1.7889479 0.18953365
-0.45864168 -0.8080943 -0.4505509 -0.11428547 0.6098301 0.99199694 -0.085743345 -0.5412966
0.5101913 2.1644993 0.51850015 0.34625787 0.6065191 -1.3675641 0.16190824 0.5953415
0.50331587 -0.945683 2.0531328 0.19060782 -4.0593348 0.08074619 0.5481628 -0.55769956
6.1069283 -0.2308102 1.2280399 1.2505101 -1.9667435 0.4122086 6.7860394 -5.864939
0.16194946 0.0020115885 -3.075378 3.534328 -0.08188398 0.27659506 -1.6098057 -2.1674633
-1.0576425 6.5838494 -4.868045 0.1710176 0.44338557 -5.2396035 2.8969896 -0.12128857
-2.8568802 -0.43354166 -0.8147583 -0.27661452 -1.3999039 -0.53562295 -0.25679016 -0.15643363
-1.567356 0.05154243 -0.086668134 -0.8114825 0.43913686 1.2035568 0.27513665 -4.556503
1.773941 -0.727742 -0.7081092 2.3312752 -0.8660041 0.26653492 0.7785925 -0.8476334
-1.0420574 0.5598947 -0.3820013 -3.0019698 -0.2671995 -0.5240206 -0.37368676 1.1935527
-0.29726514 -0.9760554 1.5782229 -0.6018099 -0.32359344 3.9832075 -7.842186 0.6270955
-0.14939891 -1.8412987 3.5656908 -0.17431854 -0.19969057 0.5329892 0.30834383 -2.7553926
0.33159694 0.19934964 0.25231823 -0.17723526 0.76096714 -1.1149772 -0.046655715 -0.24977474
1.0867952 1.4752694 1.5886481 0.04895597 -0.37302512 -0.1580409 0.022987146 -2.0303302
3.062979 -0.16818333 -1.2054352 -0.81815255 1.1787695 -0.082550116 -1.2182289 -1.0266454
-0.18595107 0.46086487 0.16595453 3.5238886 -0.29690427 -0.71876246 -2.0413144 -0.9385544
-1.9607979 -1.8476498 3.444081 -0.45074287 -0.58726937 0.064354844 -4.849594 -0.20087096
0.00039168858 1.0850592 0.78389865 -2.7722936 0.1325059 -1.1595974 0.11607691 -0.48061043
0.2402708 2.2968574 0.056533545 0.95193225 0.7448071 0.43860853 -3.74326 -0.8300004
-3.8931048 0.38642693 0.11039592 0.90635985 1.9878466 0.07245949 0.31149366 -1.7249371
-1.3876388 0.096849486 4.971101 0.93650246 0.2883616 -0.36495742 -4.9797926 -1.0319155
0.15449277 0.39567673 -0.29959244 -0.76870036 0.78685 0.61727875 -3.0087855 -0.19161683
-0.17343405 -0.58445764 2.121889 -0.043580115 -2.4859285 -2.5092921 -1.7684395 -0.91472125
-4.3313637 4.470213 -0.5380061 0.5821997 1.1151263 -4.0507894 -0.1238496 -2.1748009
0.5967512 0.5254134 -1.8179343 -1.7087201 2.1181405 0.1600323 -0.45353404 -1.4872613
-1.7503914 -0.11190666 -0.37817147 1.8440878 1.6255993 0.28753394 4.8584485 -4.827554
0.034565963 0.09049196 -5.5495563 4.55717 0.2860675 -1.8293836 -2.0597131 1.1354488

bias f4 [256]
00000000: b8ee aabf 037e bdbf 9497 8cbf 56f1 243f
00000010: 1159 01bf 94b8 ddbd e6db d93f 952c 0cc0
00000020: 1416 9ebf 6182 36be e0de a1be 4516 09bf
00000030: 41d9 9abf 3dd2 d6bf 13aa cfbc a58e d2be
00000040: da7d 7cbf 4106 9fbf 0c5f 94bf 627a 0fc0
00000050: 77c1 26bf 4292 d83e 3703 263e a0fd bd3e
00000060: 47b0 1ec0 ca2f c4bf 9ea2 77be e0ac c3bf
00000070: 5da4 b0bf 41bb 2fc0 ea94 553c 2504 89bf
00000080: 4342 86be e3a6 c73f ee0a 9f3f 1eaa e3bf
00000090: 9610 fdbf 7e3c 96bf 80aa 94bf 0cd2 07c0
000000a0: e5f5 0ac0 71a0 68bf 064d 1cbf c398 8bbf
000000b0: def4 1bbf 6eeb c13e 9649 c6bf 1f22 86bd
000000c0: d8eb 44bf 7356 4ebe 06a5 56bf eae5 a0bf
000000d0: a4c5 b5bf fd19 5840 bcbe dbbf 5c12 623f
000000e0: e07c d7be 589c 51bf fc9f ff3e d2d6 91bf
000000f0: 54cf fcbf 9125 a9bf 960d 5bbf ac9a 55bf
00000100: baf8 45bf 8e1d 5bc0 de98 d6bf eae3 af3e
00000110: 41e6 03c0 86d9 2abf 99d7 16c0 5ef3 6a3f
00000120: ff3c 8bbf c687 32c0 94f4 633b 1141 bbbf
00000130: e452 d6bf dff5 cfbf 41b8 e9bf b719 9abf
00000140: f7f8 dbbf 5492 2fc0 6a43 8cbe 886b 66bf
00000150: 8c07 9cbe 0aa7 a3bf 3a6a 8bbf 75ba 64bf
00000160: 42a4 2abf d275 2cc0 fe25 ba3f 4800 88bf
00000170: 8fb7 e7be 11ed e4be a7bc dcbf f955 a7bf
00000180: 9a79 dbbe 1ecc f3be 9d03 dabf e96e 413f
00000190: c8de d2bf e756 5fbf 01f3 033f fbd5 e5bf
000001a0: 8198 eabf 11e6 e0be 7469 a4bf ad49 09c0
000001b0: 65be 063f 693f f2be 2954 0dbf a6c3 9a3f
000001c0: 75ed e7bf 23a7 80bf 9d57 b6bf 674b 803f
000001d0: 645d 17bf 27a6 2fc0 0892 a5bf 1cc0 9bbf
000001e0: 6827 d83e 67fd 9a3f dc8a 80bf 3159 1dc0
000001f0: 471c 023f 8b18 68c0 b5e9 a7be 613a d2bf
00000200: d48b 73bf b499 01c0 a4cb 7f3f bdc4 a6bf
00000210: 0661 e6bf 8f9d 37bf 2e0f 88bf 504b 09c0
00000220: fb6f 96bf a87a d9bf b61c febe e944 fe3d
00000230: 3df2 ebbf c577 69be b434 e1be 4dc7 1140
00000240: 41a6 e3bf 39b4 16c0 3f48 aebf 2359 99bf
00000250: cbe4 b33e 4cc7 443f 3310 50be 00c6 043e
00000260: 5176 3abf a575 a1bf b422 b33d eecf f6bf
00000270: ad3f 99bf 4053 26bd 4e3f e2bf 450d e43f
00000280: 68bf 5ebf 386b 26be 9d01 8c3f 1864 cdbf
00000290: 4467 57c0 09ed 8abf e9c3 4bc0 eaaa b3bf
000002a0: 51b0 003f 27da ddbf 3601 7dbe fcfb 2d3f
000002b0: f90a 0dc0 90e8 acbf fd2b 31bf cd4e 97bf
000002c0: fb6c 3ebf fb69 3cbf 6bdb 32bf 1905 d0bf
000002d0: 0f64 d6bd a565 f8bf 8204 67bf 1bd7 18c0
000002e0: bec9 10c0 96f0 babf 902c 19c0 f02c 043f
000002f0: 9a04 0040 0af7 45c0 cbff bfbf bdc8 80bf
00000300: 08a0 8ebf 27f1 6e3e bf16 6bc0 7070 ecbf
00000310: 8597 e5bf 320b 0cbf 76eb 4abf 04c0 88bf
00000320: 9fe7 3ebc e1f7 86bf 2416 7f3f 6269 20c0
00000330: 08c4 be3e dbe2 b63f 1bad 8fbf 424f 19be
00000340: ed4b 5ebe e041 d1bf 0608 b4bf 1db3 00c0
00000350: 0087 44c0 c9e0 91bf b2df 10c0 bf41 39be
00000360: 8f2c 82bf 6da9 27bf 148e 0abf 0d1c 40be
00000370: c23e cb3e edb3 5dbe f167 39c0 e285 85bf
00000380: bb74 00c0 0094 c3bf 47ca 2dbf 8829 883f
00000390: 24ed 603e 13ce 093e 075b a03c c095 d1bf
000003a0: 77d4 f0bf 1761 5dc0 254e babf f13d 1fbf
000003b0: f01f d0bf 43b4 02c0 8891 60bf c9b6 cfbd
000003c0: d226 bdbe 360c b8bf 2bd1 e13d 9642 f6bf
000003d0: 548a 5ebf 4afe 84bf cd35 b3bf b136 30bf
000003e0: c5ac 0dbf e439 90bf 5aad 32c0 670c 96bf
000003f0: fa1b 0040 28b6 bcbf 9fa4 11c0 1202 65bf
-1.3354101 -1.4804081 -1.0983758 0.6443075 -0.5052653 -0.10826221 1.7020233 -2.190221
-1.2350488 -0.17823173 -0.31615353 -0.53549606 -1.2097551 -1.678291 -0.025349652 -0.41124454
-0.98629534 -1.2423784 -1.1591506 -2.2418447 -0.65138954 0.42299086 0.16212164 0.37107563
-2.479509 -1.5327084 -0.24183127 -1.5287132 -1.380016 -2.745804 0.013035992 -1.070439
-0.2622243 1.5597805 1.242521 -1.7786291 -1.9770687 -1.1737211 -1.1614532 -2.1221952
-2.1712582 -0.90869814 -0.6105503 -1.0905994 -0.6092051 0.3787493 -1.5491207 -0.06549477
-0.7692237 -0.20150165 -0.83845556 -1.2570164 -1.420094 3.3765862 -1.7167583 0.88309264
-0.4208746 -0.81879187 0.49926746 -1.1393683 -1.9750772 -1.3214589 -0.85567605 -0.83439136
-0.7733265 -3.4236789 -1.6765401 0.34353572 -2.0609286 -0.66738164 -2.356909 0.917776
-1.087799 -2.789537 0.003478323 -1.4629232 -1.6744046 -1.6246909 -1.8259355 -1.2039098
-1.7185353 -2.7433062 -0.27395183 -0.9000783 -0.30474508 -1.2785351 -1.0891793 -0.8934701
-0.6665689 -2.6946912 1.4542844 -1.0625086 -0.45257232 -0.44712117 -1.7245072 -1.3073112
-0.42866212 -0.47616667 -1.7032353 0.7555986 -1.6474237 -0.8724198 0.5154267 -1.7955927
-1.832779 -0.43925527 -1.2844682 -2.1451218 0.5263427 -0.47314003 -0.55206543 1.2090957
-1.8119341 -1.0051006 -1.4245487 1.0023011 -0.5912688 -2.7445161 -1.293519 -1.2168002
0.42217565 1.2108582 -1.0042377 -2.4585688 0.508244 -3.626498 -0.32795492 -1.6424066
-0.95135236 -2.0250063 0.99920106 -1.302879 -1.7998359 -0.7172479 -1.0629632 -2.1452217
-1.1752924 -1.6990557 -0.4963128 0.12415487 -1.84333 -0.22799595 -0.43985522 2.2777894
-1.7785112 -2.35475 -1.3615798 -1.1980327 0.35135493 0.768666 -0.2031868 0.12966156
-0.72836787 -1.2614027 0.087468535 -1.9282205 -1.1972557 -0.040606737 -1.7675569 1.781655
-0.8701081 -0.16251838 1.0937992 -1.6046171 -3.3656778 -1.0853587 -3.1838324 -1.4036534
0.5026904 -1.73322 -0.24707493 0.6796262 -2.2037947 -1.3508472 -0.69207746 -1.1820923
-0.7438504 -0.73599213 -0.69866055 -1.6251556 -0.104683034 -1.940602 -0.90241253 -2.388129
-2.2623134 -1.4604671 -2.3933449 0.5163107 2.0002809 -3.093203 -1.4999937 -1.006126
-1.1142588 0.2333418 -3.6732633 -1.8471813 -1.7936865 -0.5470458 -0.79265535 -1.0683599
-0.011651902 -1.0544397 0.9964316 -2.506432 0.37258935 1.4287981 -1.1224703 -0.1497164
-0.21708651 -1.6348228 -1.4064949 -2.0109322 -3.0707397 -1.1396724 -2.2636533 -0.18091486
-1.0169848 -0.654929 -0.54123044 -0.187607 0.39696318 -0.21650667 -2.896969 -1.0431483
-2.0071247 -1.5279541 -0.67886776 1.0637674 0.21965462 0.13457517 0.019574655 -1.6373825
-1.8814839 -3.459051 -1.4555098 -0.6220389 -1.6259747 -2.0422523 -0.87722063 -0.101422854
-0.3694368 -1.4378726 0.11026224 -1.923907 -0.8692982 -1.0390103 -1.4000794 -0.6883345
-0.5534175 -1.1267667 -2.7918305 -1.1722535 2.0017076 -1.474309 -2.2756727 -0.89456284

weight f4 [256, 256]
00000000: bede 383c e248 17bd 4018 053d f231 273b
00000010: 5189 93bc 49ed 173d d1c1 ca3b d4ef 193c
00000020: e97f c2bc 99f7 0ebd 1053 733c e309 90bd
00000030: 814d 5abd 7493 2dbc 051b 27bd 4e86 ebbc
00000040: 8bee 323d f64e 913b 355d 60bd d15b debb
00000050: 4d3d a2bd b881 853b a6ca 96bc 8c20 32bd
00000060: 62c0 7abc 5f60 083d ed21 7ebd 4719 213d
00000070: d97c 813c 888f a93c 265a 97bc a4bf 633a
00000080: 916c c23c f76b 8c3b 0d5e b8bd d118 1c3c
00000090: 2afb 43bd 015d a0bd 8abf 2abd 003c 36bd
000000a0: f4b4 77bd 80d6 26bd 285f 51bd 2294 b6bd
000000b0: b489 5dbd 8d60 8fbd 92ed 80bd 3ec5 9cbc
000000c0: 2a7a c7bc 292e 60bd 7256 81bd 3d65 3ebd
000000d0: 8bf0 97bd cb7f ecba d101 afbd b80a a1bd
000000e0: a52f 6bbd d83f bdbc cbf4 bbbd 55f9 9cbc
000000f0: 0270 96bd f80c ebbc 724c 87bd ffb6 ae3c
00000100: a936 92bb 9e89 7bbd 5275 83bd 2255 a7bc
00000110: a455 86bc f8de 0cbc 7ee2 37bc 1c0b 06bd
00000120: 45e3 ecba ed35 efbc 4383 63bd 7f8b 6d3c
00000130: be29 44bc 7c41 b7bd 0b9d dc3c ea86 1d3d
00000140: 75ee 86bc bcd1 853c 732b 3bbd 4739 c3bd
00000150: bded 32bd e139 33bd e477 acbc 76f1 a9bd
00000160: 09b2 80bd e7cf 18b6 668b 253c 4e32 3dbd
00000170: 5779 88bd e134 7cbc caf1 b23c 1d66 60bd
00000180: 63fb 37bd 93c2 a5bd 596e 88bd 878d fd3c
00000190: 2abb 56bc a848 b03c b97f 8ebc e33e 4ebd
000001a0: 255f cbbc 8a4a 973c 90c3 a2bd ec03 d9bb
000001b0: 9665 79bd 0e9b ee3b 9e5d b1bd 21d5 43bd
000001c0: 452e 27b9 bf3c 81b5 37ec f2bc 60d5 b43c
000001d0: a750 5bbd 4e06 53bd c1a7 a6bd fc64 b3bc
000001e0: c4d2 31bd 8b4f 7cbc 69ae 62bd 3211 61bd
000001f0: c2b5 253c 00fe 163d eb5c 2abd ac09 5abd
00000200: e64f 6b3c f403 9a3d ecaa 77bd b6a8 96bc
00000210: a986 1ebd 5008 67bd da1c f3bc 4c68 2cbc
00000220: faf0 83bd ddfe 08bc e506 833c ac93 193b
00000230: 5a7c a6bd 9b2a e4bc e087 11bc 60f5 2f3d
00000240: dc7b 763c 73bd 4bbd cbef 383d 82e4 423b
00000250: df13 61bc cc24 0c3d b879 c53c 58a6 41bc
00000260: 4336 ed3b fcef 26bd 741f 96bb b249 57bd
00000270: 0c17 553c c104 05bd 979b da3c 71c9 82bb
00000280: 0378 603c 18fd 0fbd 3371 93bd ab29 953c
00000290: 6d6d 21bd 5d0f 043d d5c9 ecbc 265b f6bd
000002a0: fad6 7fbd 2b9d cc3c 473e 663b 9d3e 87bb
000002b0: b85e 95bc 456e 51bd 10d9 d2bb 4756 63bd
000002c0: 0a18 4fbd 790b 37bc b008 9ebc 741b 89bd
000002d0: 7fd8 11bd a5f3 7ebd b599 c8bc b128 d63c
000002e0: c2ad bdba 94e6 e63b 7147 febc 3dd8 503d
000002f0: f52e a9bd 7502 a6bc e497 1c3d 4179 fd3c
00000300: f25b 253c ed81 1f3c 7cbc 85bb bd1f bcbc
00000310: e950 e3bd 6be7 92bd 6f72 8fbd 692e 033c
00000320: 1746 ec3b bb37 6bbc 636a c1bc b078 823c
00000330: 5b89 7dbd a6eb 39bc a05e 8bbd e76d edbc
00000340: 05c6 d63a 5686 89bd 0c75 3fb9 f8ee 8abb
00000350: e537 1b3d 9774 94bc 0c10 1b3d a4b1 81bd
00000360: 6fad c7bd c38a 34bd 0973 763a 9f02 6cbd
00000370: 8629 233d 2950 1cbd 84bf 41bd c0f3 aabc
00000380: 7557 2bbc b1e6 87bd a7ab 0ebc 7ce3 61bd
00000390: d20a 49bd 6f6c b1bd 4f9c 70bd 2b4f 0dbd
000003a0: e45b 7abd c438 85bd 2d22 8dbc 34b2 7abd
000003b0: d8d2 9b3c b8e0 3abd 630f 6f3c 1165 11bd
000003c0: 19b1 53bd 6d5d a23c d287 eb3b ad21 9cbd
000003d0: e664 08bc 60cc 2e3c bd15 6bbc 055e 833c
000003e0: b42a adbc 3d46 aebc cf70 9b3a 7254 033c
000003f0: 75aa d7bc 40ef 3c3b bae3 bbbc 2b1b f2bc
0.011283575 -0.03693474 0.03249383 0.0025511947 -0.018009814 0.037091527 0.0061876555 0.009395558
-0.023742633 -0.034904096 0.014851347 -0.07033136 -0.05329657 -0.010594238 -0.040797252 -0.028750565
0.043684524 0.0044344617 -0.05477639 -0.0067858477 -0.079218484 0.0040743016 -0.018407177 -0.04348807
-0.015304657 0.03329503 -0.062044073 0.039330747 0.015806602 0.020698324 -0.018475603 0.00086879195
0.02373341 0.0042853313 -0.09002314 0.009527401 -0.04784695 -0.07830239 -0.041686572 -0.044490814
-0.060475305 -0.040731907 -0.05111614 -0.08914973 -0.054086402 -0.070008375 -0.06295313 -0.019137021
-0.024350245 -0.05473152 -0.06315316 -0.046483267 -0.07418927 -0.0018043456 -0.08545268 -0.078633726
-0.057418484 -0.023101732 -0.0917755 -0.01916186 -0.073455825 -0.028692707 -0.06606378 0.021327494
-0.0044620824 -0.06141054 -0.064188614 -0.020426337 -0.016398259 -0.008598082 -0.011223434 -0.03272544
-0.0018073103 -0.029200519 -0.055545103 0.0144985905 -0.011972843 -0.08948037 0.026930353 0.038458742
-0.016471127 0.01633536 -0.045695733 -0.09532409 -0.043683756 -0.04375637 -0.021053262 -0.08298008
-0.062839575 -2.277078e-06 0.010104036 -0.046190552 -0.06663769 -0.015393467 0.02184381 -0.054784883
-0.044917475 -0.08093753 -0.06661672 0.030951275 -0.013106147 0.02151902 -0.017394887 -0.050352942
-0.024825642 0.01846816 -0.07947457 -0.006622782 -0.060887896 0.0072816676 -0.08660434 -0.047810677
-0.00015943598 -9.628928e-07 -0.029653652 0.022074401 -0.053543713 -0.051519684 -0.08137465 -0.021898739
-0.043413892 -0.015399824 -0.05534211 -0.05494804 0.010114135 0.036863327 -0.04159252 -0.05323188
0.014362311 0.07520285 -0.06046574 -0.018390995 -0.03870264 -0.05640441 -0.029676843 -0.010522913
-0.06442447 -0.008361545 0.015994499 0.0023433967 -0.08129187 -0.027852347 -0.008882493 0.042958617
0.015044179 -0.04974122 0.04515056 0.0029738252 -0.013737648 0.03421478 0.024105892 -0.011819445
0.0072391345 -0.04075621 -0.004581386 -0.052560516 0.013005983 -0.032475237 0.02668552 -0.003991299
0.013700488 -0.03515348 -0.071993254 0.018208345 -0.039410997 0.032241214 -0.028904835 -0.12029104
-0.062460877 0.024977287 0.0035132335 -0.004127337 -0.018233642 -0.05113055 -0.0064345673 -0.055502202
-0.050560035 -0.011172169 -0.019291252 -0.066946894 -0.035606857 -0.062244076 -0.024487356 0.02614245
-0.001447134 0.00704653 -0.031039925 0.05098747 -0.082609095 -0.020264843 0.03823079 0.030941607
0.010092722 0.009735567 -0.004081307 -0.022964353 -0.11099417 -0.07173046 -0.07004248 0.0080066705
0.007210504 -0.014356549 -0.0236103 0.015926689 -0.06189857 -0.011347687 -0.06805158 -0.02898307
0.0016385919 -0.06715076 -0.00018258783 -0.004239913 0.037895102 -0.018122 0.0378571 -0.063327104
-0.09749877 -0.044077646 0.0009401297 -0.057619687 0.03983452 -0.038162384 -0.047301784 -0.020868182
-0.010457863 -0.06635798 -0.008707917 -0.055148587 -0.049082585 -0.0866326 -0.058742817 -0.03449933
-0.06112279 -0.06504968 -0.01722821 -0.061205104 0.019021437 -0.045624465 0.014591071 -0.035496775
-0.051682565 0.01981994 0.007187822 -0.07623611 -0.008324837 0.010668844 -0.0143484445 0.016036043
-0.021138526 -0.021273727 0.0011859181 0.008015739 -0.026326397 0.0028829128 -0.022935737 -0.02955397

bias f4 [256]
00000000: 7397 133c b693 2ebe d0a4 f7bd b169 b6bd
00000010: 7473 1d3c 4265 8dbe 7923 03be 16a2 f7bd
00000020: 3f78 01bf 8848 3ebd 3941 e3bc 4dde 2abd
00000030: 375a 58bd b4bf 01bf 92cc 65bd 16a1 88bd
00000040: 0966 babd e0af 2bbe 7b23 94bf 8a3b 79bd
00000050: 1057 81bd 810a 56bc 9f61 23b9 56a9 c3bc
00000060: 38e1 f5bc 0bd5 c2bd dd47 213f 4837 afbc
00000070: 0ff6 81bd 02c2 e3bc c46c ecbd ee5c 09be
00000080: 7fad 6e3d 7a85 1abd b840 9ebd 3887 d5bf
00000090: ec40 fbbd 1eb4 dabe 40a9 28bd 72f6 d8be
000000a0: 5238 cbbd f228 c2bc 007d 0fbd 3312 0dbe
000000b0: 7f58 bbbd b0c2 83bd d231 0fbe 7d87 76bd
000000c0: debd aebe a1a2 38bb 92d7 adbd e0f0 d5bc
000000d0: ae4c eabd 59d8 03be cb2e 8dbe 94b9 53bd
000000e0: ab21 c7bb 27a4 a4bc 5b2d e5bc f10c c9be
000000f0: 4d4e 393c feae f7bf 5772 75bd f59c b5be
00000100: 156c e6bd 6213 d6bc 8393 19bf dd95 2b3f
00000110: fccb 1bbf 3f13 9abd 9058 e93d 7028 8cbe
00000120: 5160 34bd 5c5b 41bd 2a1c 14bd cc71 2f3e
00000130: 44ad bcbc 80ae 0cbe ed06 0c3b 48e4 5cbc
00000140: 6215 a1bd eff2 c9bf 5fde b5bd 1dc0 4dbf
00000150: d597 9dbd ff1b 1fbe 0dd0 b9bd eb08 eabd
00000160: 87f3 89bc 599f 8abd 1bdb 85be 301c f2bc
00000170: 3811 e2be 129b ffbd 11d5 c6bd 0a9e ac3e
00000180: 05ce 9abd 3001 edbd f94d 2fbd 5c22 fa3c
00000190: dba9 15bd 5290 4b3d 9f87 f2bd b48a d7bd
000001a0: 4dbf 29bd 9931 6ebd e2f8 98bd 37ab bfbe
000001b0: 38f8 93bd 0b07 90bd e318 72bd 9d65 c3bd
000001c0: f930 08bd aaa5 8cbc 0ae5 45bc c031 abbd
000001d0: 5b6e 90bd 1c93 0bbe 1756 18be 9ede a1bf
000001e0: eee3 75bd 3a5c 03c0 453e 21bd 08ff d5bd
000001f0: c971 e0be f2b3 47bd 6f4a 9bbd 6d71 a2bd
00000200: 194e 32bf 5741 c5bd 3e54 88bf f044 53bd
00000210: 1fb8 b5be c540 06be 59c4 88ba 50df 4ebd
00000220: 013e f4bd 7b6c 44bd c666 0ebd e4e6 a3bd
00000230: db19 05be bf86 b5bd aeeb babd 07b3 babd
00000240: 3fdb 7dbe 391e bcbd 612e 29be 9cfe 03c0
00000250: 30b6 f1bd 1ba6 c13b bbcc 66bd cc38 39bc
00000260: 53ae 87bd 5e75 e0bc 5d51 c9bd 4465 c0bd
00000270: 2ddc 13bc a02d e6bd 3636 b9bd 7561 e3be
00000280: 895e 73bd c2f1 79be c022 b0be 0f15 b8bd
00000290: eafa 35bd 9215 f8bd 4e44 bdbe 7f2b 92bd
000002a0: 8a39 74be 270c d7bd cdbc ff3e 9d4d efbe
000002b0: 5cee ddbd d421 09be 76b8 cdbd 76fa 27bf
000002c0: efc4 17be 79fa e3bb de27 b2bd 3ac5 40bd
000002d0: 1288 60bf 2915 2abd d56b 793e 094d b7bf
000002e0: cc55 04be 4c52 5dbe 7d34 c9bd 853a 033e
000002f0: fd1c 8abf b15a 8fbc c7de 51be 00c9 ccbd
00000300: 92c7 0b3f cd50 44bd a54c 02bf 2c0f bf3d
00000310: 8ff1 0dbf 81bb a7be 60d2 87bd f3a7 93be
00000320: 33eb d0bc d601 5fbc 14c6 babd ca59 df3d
00000330: 3c29 c0bd 8c47 40be 21c8 ebbc d3bc d1bd
00000340: 47f1 40bd bae9 84bf dcde 9bbd 3a3c 3cbd
00000350: d32e 37be ac78 cdbe 04f7 ebbd 7907 71bc
00000360: 0b0e 07be 4e18 4fbf 8437 96bd fda8 06be
00000370: 45fa b1bd eb23 d4bd c319 6cbd f16e a3bf
00000380: c5b8 a4bd 1521 93bd 9c0e 5abe 225f cebd
00000390: ce04 91bf 6658 04bd ff5b 35bc 8e33 66bd
000003a0: 6c39 79bf 3eb5 c0bd 023c 15bd 594e 8dbe
000003b0: 698f f5bd 75dd a9be 8ea4 3dbd 18b1 793f
000003c0: 2871 65bd dac1 28bd 20ce b8bf 5468 abbd
000003d0: 3abb 59bf 8f56 afbd 7f56 f2bd b869 86bf
000003e0: 4175 6cbd 4fa5 a9bd d8a9 8bbe 02a3 86bf
000003f0: 62f1 d4bc 5cb0 21bd 6dc5 8ebf 9f15 abbc
0.009008276 -0.17048535 -0.12091982 -0.08906878 0.009610046 -0.27616316 -0.128065 -0.12091462
-0.50574106 -0.04645589 -0.027741062 -0.04171591 -0.05282041 -0.5068314 -0.056103297 -0.0667135
-0.09101493 -0.1676631 -1.1573328 -0.060847796 -0.06315434 -0.013064028 -0.00015581258 -0.023884457
-0.03001462 -0.09513291 0.6300028 -0.021388665 -0.0634576 -0.027802471 -0.11544183 -0.13414356
0.058270928 -0.03772495 -0.07727188 -1.668189 -0.12268242 -0.42715544 -0.041177034 -0.42375523
-0.099228516 -0.023701165 -0.03503132 -0.13776474 -0.09147739 -0.06433618 -0.13983849 -0.060187805
-0.34129232 -0.0028173106 -0.084883824 -0.026115835 -0.11440407 -0.12875499 -0.27574763 -0.051690653
-0.0060770116 -0.020097805 -0.027975729 -0.39267686 0.011310172 -1.9350278 -0.059923496 -0.3547131
-0.11251084 -0.02613229 -0.5999071 0.6702555 -0.6085813 -0.07523202 0.11393845 -0.273746
-0.044037167 -0.047206268 -0.03615967 0.17133254 -0.023031838 -0.13738441 0.0021366433 -0.013482161
-0.078654066 -1.5777262 -0.088803045 -0.80371267 -0.07694975 -0.15538023 -0.09072886 -0.11427482
-0.016839756 -0.067686744 -0.26143727 -0.029554456 -0.44153762 -0.12480749 -0.09708608 0.33714324
-0.07558826 -0.11572492 -0.04279897 0.030533962 -0.03653894 0.04969818 -0.11842274 -0.105245024
-0.041442204 -0.05815277 -0.07469346 -0.37435314 -0.07225078 -0.07032593 -0.059105765 -0.095408656
-0.03324983 -0.017168839 -0.012078533 -0.083590984 -0.07052299 -0.13630337 -0.1487659 -1.2646062
-0.060031824 -2.052504 -0.039366025 -0.10449034 -0.4383681 -0.048755594 -0.075825565 -0.079317905
-0.6965042 -0.09631603 -1.0650709 -0.051579416 -0.35492036 -0.13110645 -0.0010434493 -0.050505936
-0.11925889 -0.047955018 -0.03476598 -0.08003023 -0.12998144 -0.088635914 -0.091269836 -0.09116178
-0.24790667 -0.09185452 -0.16521598 -2.0624151 -0.11802328 0.005909694 -0.05634759 -0.011305045
-0.066250466 -0.027399715 -0.09829972 -0.09394315 -0.009024662 -0.11239171 -0.09043543 -0.4441029
-0.059416328 -0.2440863 -0.34401512 -0.089883916 -0.044428743 -0.12113489 -0.36966175 -0.071372025
-0.23850074 -0.10500365 0.4994873 -0.46738902 -0.10836479 -0.1339181 -0.10044949 -0.6561655
-0.14821218 -0.006957349 -0.0869901 -0.04706309 -0.87707627 -0.041524086 0.24357541 -1.4320384
-0.12923354 -0.21613425 -0.098244645 0.12815292 -1.0790097 -0.0174993 -0.20495139 -0.09999275
0.54601395 -0.04792862 -0.508982 0.09329066 -0.55446714 -0.32760242 -0.06631923 -0.28839073
-0.025502777 -0.013611278 -0.09119812 0.10905798 -0.09382865 -0.18777293 -0.028781952 -0.102410935
-0.0471051 -1.0383828 -0.076108664 -0.045955874 -0.17888956 -0.40131128 -0.11521724 -0.014711254
-0.1318895 -0.8089646 -0.073348075 -0.13150401 -0.08690313 -0.10358413 -0.057641756 -1.2768232
-0.080430545 -0.07184044 -0.21294636 -0.10076739 -1.1329591 -0.032310866 -0.011069297 -0.05620151
-0.97353244 -0.09409569 -0.03643418 -0.27598837 -0.11990244 -0.3317677 -0.04629951 0.9753585
-0.056016117 -0.041200496 -1.4437904 -0.083695084 -0.8505131 -0.085614316 -0.11832904 -1.0501013
-0.05772901 -0.08283483 -0.27278018 -1.0518496 -0.025994007 -0.03947483 -1.1154 -0.020884333

weight f4 [2, 256]
00000000: 8eb1 4abc 5bd6 a73c daec 4c3d 1841 0bbd
00000010: 6bd9 943f bf0d b83e 8cb2 85ba 71f6 c23c
00000020: 3a99 b03f 6f63 49bc 5ba8 f23c e005 e83c
00000030: 821f f2bc e114 4a40 228f b3bf 8f75 a83b
00000040: 514b 59bc 3c91 9540 f8e5 1d3e 9297 1abd
00000050: 7da2 423c 6431 84bb 939c 4040 fcf8 e33c
00000060: fb8b 2a3c 8b05 bdbb 4595 f4be 4812 25bd
00000070: cd13 28bc 5056 a8bc f9b7 7d3d 868a d6bc
00000080: 19dc 33bf 42aa f33e 5890 39bc 5f9d 0cc0
00000090: dce5 63bc 3d5c c240 c2ec 5c3d 5cb0 883f
000000a0: 1080 933d 2b59 32bc 918d f33c 9c86 673b
000000b0: 71e6 9ebc 9a7f 853f 6b1d 9d3e e599 863d
000000c0: b780 c3bf 082c 8a3c 2302 91bc 6b41 9a3c
000000d0: 0c6b 4c3c 5bc1 b03c 4dac 233f 0fab 1a3c
000000e0: 94ed b3bc 3802 7fbc 6c50 85bb 8b74 65bf
000000f0: 0556 813b b657 98bf 6bf0 5f3c e65e 6a3c
00000100: 0730 bfbc 1380 8fbc 4484 09c0 894d 7c3d
00000110: 2fa7 f53f b1bd 08bd 751a 3140 ebd9 833f
00000120: 711c 34bb 96de 803c bcca 213c 15d5 a3be
00000130: 0ece 67bc 3932 163d 58f4 7e3b 1fcc 58bb
00000140: 1017 253d fa34 263d f29e c5bc 235b a53f
00000150: f6c1 2bbd 90d3 833d 13e5 2b3b 60b0 4ebc
00000160: 3161 9c3c 73bd 09bb 5cd6 1ec0 4b48 983c
00000170: 0112 c1bf 7f7b aa3c 147f d63c 2d83 cdbd
00000180: 788d a23b 1a2a 81bc dc43 b9bc 71aa d73e
00000190: 314f 35bd 1b95 da40 8f13 02bc d054 a83c
000001a0: fe71 073d 142c 1a3c 7735 9ebc ad07 a640
000001b0: 5fe3 c4bc e034 44bc 9c3c 83bb de5b a1bc
000001c0: becc af3c 83f6 9dbb 6b52 f4bc 765b 583b
000001d0: b727 213d e0f2 03bd f4ef 533c 0173 d73e
000001e0: 11a5 57bd 7419 cdbf 59e9 083c fade a3bf
000001f0: ca48 28c0 91e9 ec3a 9d32 bb3c cc2a 50bd
00000200: 8ead 2fc0 0b71 9a3d f4f5 69c0 d826 933c
00000210: b04c c93e a633 f73c 609a 32c0 fec0 66bc
00000220: 6766 84bb b920 99bd f254 ccbc 1beb 8d3c
00000230: f319 b13c 9efc f53c 2e8e fdbc 2914 a6bc
00000240: e9c9 5cbf 4218 0d3d e791 f2bc b063 06c0
00000250: 2657 3b3f e7c6 8b3d 0e6a 8e3b f094 653c
00000260: 5da9 a33c 09a9 b03b cf12 ca3b 5072 ec3c
00000270: 3ad0 79bb de76 8dbc 8caa e7bc 6ad3 913e
00000280: 2354 47bb 3088 3f40 8576 bcb8 7fa3 383d
00000290: 4819 e2ba 341c 80bb 6038 973f c848 b8bc
000002a0: 7a96 a540 afdd 0ebd 81e0 43bd fbfb a1bf
000002b0: bbc8 423d a8d1 3abd 20d5 93bc 6775 d43d
000002c0: 45e6 81bb 677a 183d 16c6 8f3b 8663 adbf
000002d0: 87ce 34bf c1fa 06bc 1570 03bf 43e2 1bbf
000002e0: 69ac 6ebe adb7 5840 f472 353d 6cef 85bf
000002f0: 347d 5ebf 6d03 b43c ff31 e0bd adfc 1a3d
00000300: 4364 8e3f 269a 33bc 009e abbf 52a4 3b3f
00000310: c4f6 9740 291b 4e40 0912 b53c 7e87 41c0
00000320: 4e4b f33c 4f2e 413d 0bcd 2d38 d0fe 5c40
00000330: 84c1 7038 d9de 3040 f880 94bc 7c3d e3bf
00000340: b2ea 28bc 8747 293f b856 243b 9b9b 90bc
00000350: 568c 81bf f9e0 1e40 1a64 6fbd 07db 893c
00000360: 861f 29bc f65d f93f 6e0e 853d ec84 dcbc
00000370: 57be c4bc a088 0f3b 0e97 17bc 7405 e3bd
00000380: 7f79 af3c 1ce4 f13c c955 d0bb 1669 5a3c
00000390: 2658 acbf adcf f9ba 4321 143d 9e0f e1bc
000003a0: 9b63 91bd 491a 693c fc5b 803c 40d2 fd40
000003b0: 2062 1e3d 13e5 e13b 347c 0440 b3c6 4fc0
000003c0: f983 a83c 3ba1 993c 895e 0a3f f4ba c7bb
000003d0: bbe0 3dbc bdd9 febc 3371 41bc 2ca7 27c0
000003e0: 2acd 503c 336b 01bc b5e1 1ac0 f1b4 c340
000003f0: be68 2a3d f721 63bd 6ffe c040 c46e d7bd
-0.012371434 0.020487955 0.050030567 -0.033997625 1.1628851 0.35947987 -0.0010200306 0.023799153
1.3796761 -0.012291773 0.029621294 0.028323114 -0.02955604 3.1575243 -1.4028056 0.005140967
-0.013262586 4.673979 0.15419757 -0.037742205 0.011879561 -0.004034208 3.0095565 0.027828686
0.0104093505 -0.005768483 -0.47770134 -0.040300637 -0.010258627 -0.02054897 0.061943028 -0.0261891
-0.7025772 0.47590834 -0.011325918 -2.1971052 -0.013909783 6.0737596 0.053936727 1.0678821
0.0720216 -0.010885517 0.02973059 0.0035328036 -0.019396992 1.0429566 0.30686507 0.06572322
-1.5273656 0.016866699 -0.017701214 0.018830022 0.012476694 0.021576574 0.63934785 0.009440198
-0.021963872 -0.015564494 -0.004068425 -0.89630955 0.003947022 -1.1901767 0.01366816 0.014304852
-0.02333833 -0.017517125 -2.1486979 0.06159738 1.9191645 -0.03338403 2.7672398 1.0300878
-0.0027482773 0.015731137 0.009874996 -0.31998506 -0.014148248 0.03666899 0.0038902964 -0.003308065
0.040305197 0.040577866 -0.024123643 1.2918438 -0.041933022 0.06436837 0.0026229068 -0.012615293
0.019089313 -0.0021017462 -2.4818335 0.01858916 -1.5083619 0.02081084 0.026183642 -0.100347854
0.004960712 -0.015767146 -0.022615366 0.42122224 -0.044264976 6.8307014 -0.007939233 0.020548254
0.033067696 0.009409923 -0.019312603 5.188437 -0.0240342 -0.011975497 -0.004005028 -0.019697126
0.021459933 -0.0048206463 -0.029824456 0.00330135 0.039344516 -0.032214046 0.012935627 0.4207993
-0.052647654 -1.6023393 0.008356416 -1.2802422 -2.6294427 0.0018074979 0.022851283 -0.050822064
-2.744968 0.075410925 -3.6556368 0.017962858 0.3931632 0.030175995 -2.7906723 -0.014084099
-0.0040405276 -0.074769445 -0.024942849 0.017324021 0.021618819 0.030027684 -0.030951586 -0.020273285
-0.8624559 0.034446962 -0.029610587 -2.0998344 0.7317985 0.06825047 0.004346139 0.01401256
0.01997822 0.0053912443 0.006166793 0.028863102 -0.0038118497 -0.017268594 -0.028279565 0.2848161
-0.003041514 2.9926872 -8.9866146e-05 0.045077797 -0.0017249966 -0.003909612 1.1814079 -0.022495642
5.1746187 -0.034879383 -0.047821525 -1.2655023 0.047554713 -0.0456101 -0.018045962 0.10373955
-0.003964218 0.037226107 0.0043876274 -1.3545997 -0.70627636 -0.008238495 -0.513429 -0.60892123
-0.23307957 3.3862107 0.04429908 -1.0463691 -0.86909795 0.02197429 -0.10947036 0.037838627
1.1124347 -0.010962045 -1.3407593 0.7329761 4.7488728 3.2204077 0.022103326 -3.0238948
0.029698994 0.047163304 4.1437375e-05 3.4530525 5.7400684e-05 2.7636015 -0.018127903 -1.7753139
-0.010309862 0.6612477 0.0025076102 -0.017652323 -1.0120952 2.4824812 -0.058445074 0.016828073
-0.010322457 1.94818 0.06496893 -0.02691885 -0.024016542 0.0021901503 -0.009252323 -0.110850245
0.021420239 0.029527716 -0.0063578826 0.0133307185 -1.3464401 -0.0019059085 0.036164533 -0.027473267
-0.07099076 0.014227458 0.015668862 7.9319153 0.038667798 0.006893763 2.0700808 -3.2465026
0.020570742 0.018753638 0.540505 -0.0060952846 -0.011589224 -0.031109685 -0.011806774 -2.6195784
0.012744227 -0.007899093 -2.420026 6.1158376 0.041603796 -0.055452313 6.031059 -0.10519174

bias f4 [2]
00000000: 56d7 d13e ddae d43e
0.409846 0.4153966

weight f4 [256, 13]
00000000: 5954 1b40 1e1d 55c0 59a9 133f dd3d 1640
00000010: 5f80 a740 7d59 21c1 8aa5 303e 1f1c 193f
00000020: 3fea 5bc0 6527 1441 f25c 773e 0d2c a8be
00000030: ff53 a83f 8ec5 883e 1419 a03e 4626 8cbf
00000040: 2bed 2fbf 02c0 1341 f104 18c1 65cd ea3a
00000050: dc50 9c3c f17d b4c0 4e09 1b41 306b 09bd
00000060: e9d3 d93b 7543 363d 2985 4e40 8544 a1bf
00000070: 274a 30c0 5c13 b03f c2ba 2940 d0ab 4d40
00000080: dbc8 a93e 40d2 a1bc 08c2 92be 3d54 27c0
00000090: 00da 533d ad01 3340 1099 13c0 e43b 13be
000000a0: 4f5c 0740 7363 6bc0 be3c 1c3f a77b 00c0
000000b0: ca01 4140 d430 12bf cbd1 adbe 9c8c 213f
000000c0: 279a 2ac0 8c55 64bd 3432 9dc0 6438 1141
000000d0: 26c4 ab3f 7d20 f9be 770b bf3e 3a60 5d40
000000e0: 3184 92c0 38fb 7c41 c61c 6b3e 6332 dbbc
000000f0: 3309 3940 a052 4bc1 7626 7d3e fe40 e4bd
00000100: 3b5e cb3f 720f b7bf e245 8340 b04b 79c0
00000110: db8e 1940 30be 2d40 600a 1fc1 405c 1e3e
00000120: f950 d8be 2fed a8bf 57e7 c040 0838 1fbd
00000130: ec6f 933e bb35 aebf 5b8c e3bf 0c95 a2bf
00000140: e9f1 dbbe 82d2 683d 75ff 8540 ea94 96c0
00000150: c13c 72bf 1ea2 89bf 43dd 00c1 90fe 32bf
00000160: 2da8 76be fc8e 96c0 a1b4 cd40 6a3a 9bbf
00000170: 588b 95bf 5da5 7440 d25c f0bf fb76 cdbf
00000180: 6258 7640 3b2e 7a3e 0d66 4a3f f16b eebf
00000190: b283 88c0 608a 8cbd afc0 b9be a91b a040
000001a0: e5f3 633e 310c b8bf 47b0 0f3f bed5 80bf
000001b0: 3bc5 e0c0 0c48 c1c0 d77c 2c3c bb03 da3d
000001c0: 5be0 0041 29b1 8940 c254 3f3e fbcf 343f
000001d0: a857 4e3f 37ea e5bf 7290 01bf 8c11 c0bf
000001e0: da88 1140 a034 5740 de79 a2c1 076a 813e
000001f0: 0e98 c5bd 0482 083f 96aa 1a41 2840 5f3e
00000200: 5fb9 b43f c36c 3240 619b 0fc0 c48d 743f
00000210: ec96 1d40 e0e2 aec0 514e 93c0 cabd 88c0
00000220: 2acb 0ebf 6f2c 9ebf c4ef 0e40 52f1 6840
00000230: 702a 7c3d 5a57 9abf c654 983f 58fc 343f
00000240: 181f ec3f 188b 37bf abf1 0040 2d90 bfc0
00000250: e07b d73f c9bb 79bb 8260 2c3d 0d00 8540
00000260: 3ec8 813f f774 0ebe 3dd5 b9bf c89a 0a40
00000270: 033f 2d3f cf25 76c0 c34a a63e 31b8 22c0
00000280: 4e5d 6740 77d1 dc3f 0c66 9dbe b147 a9bf
00000290: 600e 5dc0 6bf4 86c0 d0ea f13c df74 3ebf
000002a0: 9f10 0dc0 ca31 1ec0 9667 85bf 8aaf 8ec0
000002b0: fd6e 4c3f b212 1c41 34ac 2640 09ce 0abd
000002c0: 7c4b 0f3f e025 2ac0 2935 dbc0 fa4e 243e
000002d0: b8c4 63bf 6f02 ae3f 0850 b2c0 7897 4c40
000002e0: fca6 9cc0 e035 bc3f d1df fe40 f839 e6c0
000002f0: 0b83 ac3e b923 83be 0499 03c1 f339 4640
00000300: 3e53 673e e39c fdbf e441 e7c0 676d 7ebe
00000310: 6bff df3e afac 5f40 9c1b e83e 6832 01bd
00000320: a01a f740 03d0 d43e eb77 62be c78e babf
00000330: f0ce 8bc0 9d26 5cbe 3983 983f a7b2 b7bd
00000340: b00b a53f d23e 0ec0 9e89 32c0 d2b9 ab3f
00000350: acab 61be 47cc 1b3e 8966 15be d8af c23e
00000360: bd1e 1a40 d42d 67c0 c477 e6bd ec32 86c0
00000370: a061 4640 5203 c53f 611d 2bbf 4ac6 b8bf
00000380: 0931 6b3f ea6f 9d3c f9a7 0740 109d babe
00000390: bb25 48be abd7 083f fcad 8fbf 1421 8b3d
000003a0: 37bc 493f 80ad c240 70e2 d7be 8994 c73f
000003b0: c04a 7ec0 d437 1d40 7d63 9440 8256 4d40
000003c0: b3ba 153d 2c18 563e c0d0 f83f fcc8 00c1
000003d0: 3dae 86be f85d 8840 aa9e 23be 2796 9d3e
000003e0: 00ab 38be 6f83 b4c0 2efd 4640 1933 1640
000003f0: 7ed7 7bc0 d77b 60be 3088 91be 78e1 38c0
2.4270232 -3.3299022 0.5768028 2.3475258 5.2344203 -10.084348 0.17250648 0.59808534
-3.4361722 9.259618 0.2415655 -0.32846108 1.3150634 0.26713222 0.31269133 -1.094918
-0.68721265 9.234377 -9.501206 0.0017913996 0.019081526 -5.6403737 9.689772 -0.033549488
0.006647576 0.044497926 3.2268775 -1.2599036 -2.754526 1.3755908 2.6520238 3.2136116
0.33161053 -0.019753575 -0.2866366 -2.6145165 0.051721573 2.7969773 -2.3062172 -0.14378315
2.115009 -3.677945 0.61030185 -2.0075471 3.0157342 -0.57105756 -0.33949122 0.6310518
-2.6656587 -0.055745646 -4.9123783 9.076267 1.3419235 -0.486576 0.37313434 3.4589982
-4.5786366 15.811333 0.22960195 -0.026757425 2.8911865 -12.707672 0.24721703 -0.11145209
1.5888132 -1.4301589 4.1022806 -3.8952446 2.3993442 2.7147331 -9.940033 0.15464878
-0.42249277 -1.3197383 6.0282397 -0.038871795 0.28796327 -1.3610147 -1.7777208 -1.2701735
-0.42958 0.05684138 4.1874337 -4.705678 -0.94623953 -1.0752599 -8.054019 -0.6991968
-0.24087591 -4.704954 6.4282994 -1.2127202 -1.1683149 3.822593 -1.8778327 -1.6051935
3.8491445 0.24431698 0.7906197 -1.8626691 -4.266076 -0.068623304 -0.36279818 5.0033765
0.22261007 -1.437872 0.5612835 -1.0065229 -7.024076 -6.040045 0.010527811 0.10645243
8.054774 4.302876 0.18684676 0.70629853 0.806025 -1.7962102 -0.5061103 -1.5005355
2.2739778 3.362587 -20.309505 0.25276205 -0.09648143 0.5332339 9.666647 0.21801817
1.4119071 2.7878883 -2.2438586 0.9552882 2.4623365 -5.4651947 -4.60331 -4.2731676
-0.55778754 -1.235731 2.2333841 3.639729 0.06156391 -1.2057908 1.1900871 0.70697546
1.8446989 -0.71696615 2.0147502 -5.9863496 1.6834679 -0.0038106313 0.042084225 4.156256
1.0139234 -0.13911806 -1.45182 2.165697 0.67674273 -3.8460577 0.32478914 -2.5424922
3.6150699 1.7251424 -0.30741918 -1.3225003 -3.4540024 -4.217336 0.029530913 -0.7439708
-2.2041395 -2.471789 -1.0422237 -4.458928 0.79856855 9.754564 2.6042604 -0.033887897
0.55974555 -2.6585617 -6.8502393 0.16045752 -0.88972044 1.3594493 -5.5722694 3.196745
-4.895384 1.4703941 7.9648213 -7.1945763 0.33693728 -0.25613192 -8.224857 3.097287
0.22590348 -1.9813503 -7.2267933 -0.24846421 0.43749556 3.4949148 0.45333564 -0.03154221
7.722 0.4156495 -0.22116058 -1.4574822 -4.369011 -0.21499105 1.1915046 -0.08969622
1.2894192 -2.2225842 -2.7896495 1.3416083 -0.22038144 0.15214644 -0.14589895 0.38024783
2.408126 -3.6121721 -0.11253312 -4.193716 3.0997086 1.5391638 -0.66841704 -1.4435513
0.91871697 0.019218404 2.1196272 -0.36447954 -0.19545643 0.53454083 -1.1224971 0.067934185
0.7880282 6.083679 -0.42164946 1.5592204 -3.9733124 2.4565325 4.6371446 3.208405
0.036555003 0.20907658 1.9438705 -8.049068 -0.26304808 4.261471 -0.15978494 0.3077862
-0.18033981 -5.641044 3.1092029 2.3468688 -3.9350276 -0.21922241 -0.28424215 -2.8887615

bias f4 [256]
00000000: d760 0e40 27b6 aa40 34b8 06c0 c0ad 05c0
00000010: 99e8 69c0 e7b1 0d40 85b5 783f 88e3 13bf
00000020: f649 2f3f 0794 9f40 bb31 fdbf 6043 9fbf
00000030: b930 5f3f d78c 113f 3e9e d23e d875 1fbf
00000040: a1fd 903c f404 bbbf 1756 02c0 0b96 e13f
00000050: 06d3 df3f 3a8e 3fc0 7743 8fbf e6aa d4bf
00000060: b029 b63e eda4 09bf 81af 7bbf 02e3 c0bf
00000070: 001a 1b40 f9ac c03e e83c 41c0 2c23 37c0
00000080: 8da7 b33e 4a72 a6bf 8a8c e8bf 1d68 ce3f
00000090: 314c 04c0 20f8 1ac0 bd3f 633f e496 353f
000000a0: 3d7d 05c0 f16d c6be f4d2 1abe 6073 efbf
000000b0: bc12 283f 0774 02c0 9a75 3dc0 60b6 3ac0
000000c0: 6369 aabf 57f1 a4bf 684d 44bf 84fc 6fbf
000000d0: 0879 2cbf 30ae 35bf 0d3e 57bf 2ac4 703f
000000e0: 7a17 2ac0 9c55 06c0 fa09 d8bf 48bf 9fbf
000000f0: a4d4 5bbe 6f83 0cbf a449 01bf b49b 5fbf
00000100: d032 89bf e9f9 b83f e9ec f540 755f fcbd
00000110: 109e 8cbf 7384 5940 1896 b1bf 723e dabf
00000120: b458 b7bf d9fd 993f 1b78 96bf cbbc 1dc0
00000130: 459f 5a40 ed7b 6dbe 6961 0b3f c2c6 4d40
00000140: 4440 d4be c054 2cc0 eb7b 4c3e e1e0 8e40
00000150: 7061 00bf 57c8 1e40 de9a 3bc0 e6cd 3c3f
00000160: 9884 2fc0 97a6 923f e9c9 47bf 8712 c23f
00000170: 7720 47bf 093e 90bf 0b9c d1bf a60e 4b3d
00000180: 9f8c 143f a337 133f 8983 1e40 cf74 8140
00000190: 30bd 6bbe 1fce 42c0 5666 88c0 b4f8 813d
000001a0: 2ed8 15bf 1032 e7bf fe49 0f40 d826 00be
000001b0: 75cc 1dc0 ee9b 9cbf 0264 cf3f 5070 1fbf
000001c0: 5b0f 1ac0 00e0 4abf 5bd5 48bf 913b 8e3f
000001d0: 481e bcbd 9c60 c4bf 2ba3 e640 cccf e03e
000001e0: c35f 2cbf 4689 6dbf ab61 36c0 22ec ebbf
000001f0: b615 25c0 cb6c fdbe 6ccf 03c0 3361 07c0
00000200: ac0b 26c0 cc3c 25bf 582a ea3f 0dea eabf
00000210: 687b d7be 3789 3840 11a2 96bf 3cfc 94c0
00000220: 54f8 71bf 5210 c23e 98a6 82bd 8275 22c0
00000230: 028c eebf 4437 4f40 4094 15c0 2136 42bf
00000240: 5e0d f0bf 2cf3 80bf 4489 aebf 0009 563f
00000250: 6a45 dfbf 0a86 5f3d bf1d e23f 7066 8f3e
00000260: 2b3f 08bf 3b4f 0cc0 498a 98bf 2112 a13f
00000270: f396 a53f 0733 2e3f 34b4 79bf 98b6 a0bf
00000280: 6e7b a0bf ac50 8cbf eb0b 0240 3847 803f
00000290: 7a82 873f eaae 8f3f 42ec 2ec0 18ec 6abf
000002a0: ccd3 c4be 73a1 b6bf 77e1 1cc0 b440 dbbf
000002b0: 4924 973e 54e8 353f 9e44 833f b26b 1cbf
000002c0: 47d7 cc3f 155f ccbf bde4 cdbf e608 5d40
000002d0: 0212 ec3f c6ed aabf ccd9 d9bf 0979 1fc0
000002e0: 5118 4ebf 39eb 74bf 56ec a8bf 1f96 87be
000002f0: dd63 fabf e089 083e 64fb 3fc0 06a2 9f3d
00000300: dd83 9a3d 2059 823f 1879 9fbe 82ac 34c0
00000310: 72cf a63e 1744 bbbf 3406 b6bf 67cc bcbf
00000320: a74d b4bf b181 75bf 63ef ff3f 3ce6 ecbf
00000330: 4e30 aa40 5abb 6bc0 a66c f23e 331b 16c0
00000340: 8a33 b2bf 9b16 6ac0 620c 4340 0832 6140
00000350: 2b11 65c0 57b7 5140 20d1 c3bf 26ae 653e
00000360: 3859 1ec0 548c 1abf 4147 cabf 9bcb 593d
00000370: 1b9a b33d 6daa 8c3f 1a17 c8bf 91f3 a9bf
00000380: 5382 c5bf dd14 d6be b4fa 7cbf c7f4 65bd
00000390: 2781 113e e254 523f 5ec8 c33f 6139 91c0
000003a0: 6d85 43bf fd2d 19bf 45d1 3cc0 9dbb 993f
000003b0: 0866 49bf cb72 16c0 e566 12bf 1161 0cc0
000003c0: c444 dcbf e15b e1be 3080 0cbf cb3d 133f
000003d0: ae89 2ac0 0f29 15c0 d909 d9bf eddf b7be
000003e0: eb6b 26c0 2640 8940 fd4b 793f c4c8 bebf
000003f0: cc6a 00c0 76a0 8e3e 9270 3fbf 8e6c a8be
2.2246606 5.3347354 -2.1049929 -2.0887299 -3.6548216 2.2139833 0.97151977 -0.5776906
0.6847223 4.9868197 -1.9780802 -1.2442436 0.8718372 0.5685553 0.41136354 -0.6228919
0.017699065 -1.4610887 -2.0365045 1.7623914 1.7486274 -2.9930558 -1.1192464 -1.6614654
0.3557868 -0.5376728 -0.9831467 -1.5069277 2.423462 0.37631968 -3.0193424 -2.8615217
0.3508877 -1.3003628 -1.8167889 1.6125523 -2.0671504 -2.4213943 0.8876913 0.70933366
-2.085769 -0.38755754 -0.15119535 -1.8707085 0.65653586 -2.0383317 -2.9603028 -2.9173813
-1.3313411 -1.2886151 -0.7668061 -0.93744683 -0.6737218 -0.70968914 -0.84079057 0.9404932
-2.657683 -2.0989752 -1.6878045 -1.248025 -0.21467835 -0.5488805 -0.5050299 -0.8734696
-1.0718632 1.4451267 7.6851697 -0.123228945 -1.0985737 3.398709 -1.387393 -1.7050307
-1.4323945 1.2030593 -1.1755403 -2.464648 3.415971 -0.23191805 0.5444551 3.2152562
-0.4145528 -2.6926727 0.19969146 4.464951 -0.5014868 2.4809778 -2.9313273 0.73751676
-2.7424679 1.1457089 -0.78042465 1.5161904 -0.7778391 -1.1268932 -1.6375746 0.049574517
0.5802707 0.5750677 2.4767783 4.045509 -0.23021388 -3.0438306 -4.262492 0.063462645
-0.5853299 -1.8062153 2.2388911 -0.12514818 -2.465604 -1.2235086 1.6202395 -0.6228075
-2.4071872 -0.79248047 -0.78450555 1.1111928 -0.09185463 -1.5341983 7.207418 0.43908536
-0.6733362 -0.9278759 -2.8497112 -1.8431437 -2.5794501 -0.49497065 -2.059535 -2.1153076
-2.5944624 -0.64545894 1.8294172 -1.8352677 -0.4208634 2.883375 -1.1768209 -4.6557903
-0.94519544 0.37903076 -0.063794315 -2.538422 -1.8636477 3.2377481 -2.3371735 -0.75863844
-1.8754079 -1.007421 -1.363564 0.8360748 -1.7443058 0.05457119 1.7665328 0.2800784
-0.53221387 -2.1923358 -1.1917201 1.2583658 1.2936691 0.6804661 -0.97540593 -1.2555723
-1.2537668 -1.0962119 2.0319774 1.0021734 1.0586693 1.1225255 -2.73317 -0.917665
-0.38442838 -1.426802 -2.4512613 -1.7129121 0.2951987 0.7105763 1.0255315 -0.6110183
1.6003197 -1.5966517 -1.608543 3.453668 1.8442996 -1.3353813 -1.7019591 -2.4917624
-0.80505854 -0.9567142 -1.3197124 -0.2648172 -1.9561726 0.13333845 -2.9997187 0.077945754
0.07544682 1.0183449 -0.31147075 -2.823029 0.32580143 -1.4630154 -1.4220643 -1.4749879
-1.4086198 -0.9590102 1.999493 -1.8507762 5.3183966 -3.68331 0.47348517 -2.34541
-1.3921978 -3.6576297 3.0476308 3.5186787 -3.5791728 3.2768152 -1.5298195 0.22429714
-2.4741955 -0.60370374 -1.5802995 0.05317269 0.08769628 1.098951 -1.563205 -1.3277456
-1.5430397 -0.41812792 -0.9882004 -0.05614164 0.14209424 0.8216077 1.5295522 -4.5382543
-0.76375467 -0.598358 -2.9502728 1.201038 -0.7867131 -2.3507564 -0.57188255 -2.1934245
-1.7208486 -0.4401541 -0.548831 0.57516164 -2.6646533 -2.330631 -1.695613 -0.3591303
-2.6003368 4.2890806 0.97381574 -1.4905019 -2.0065184 0.27856797 -0.74781144 -0.3289532

weight f4 [256, 256]
00000000: e70c b4bf 998a 6fc0 5c0a dc3f 7389 f0bf
00000010: d25e ad3f e2fd 0fc0 f17e b23f da4d 3b40
00000020: 976d e33b f2e4 92bf b31e 6640 af1c 41c0
00000030: fdcd 83c0 f486 f73e 6b43 96c0 3134 e93e
00000040: 6888 aebf 743a 17c1 6898 0dc1 42a6 eb3f
00000050: 6a44 e6bf 44c6 8dc0 a1bb 723f e160 19c0
00000060: b327 1ac0 ae9b d13f ba60 1bc0 42a2 87be
00000070: 21e8 f2c0 9e84 a9bf f9eb 55c1 3452 d140
00000080: b441 0f41 491b bebe 5e3c 533f 599b 4c3f
00000090: 8640 cdbe 96a5 c13f 31e6 f3bf ce14 a6bf
000000a0: dfbf 8b3f c13a e33f 2fe6 053e 75a8 b33f
000000b0: 2c1f 843f 22c1 02be 72b4 ac3f 83f7 983d
000000c0: 45aa a03f 121b cf3f c504 d840 fb8a d9bf
000000d0: c46e 39c0 2a15 8e3f 6354 10bf 8c90 2cc0
000000e0: 4f49 283e 23ee bb3f f1f4 0940 79ec ed3f
000000f0: 72dd 233f 752d 42c0 e117 a93e 97e6 a7bf
00000100: 3604 01c1 d563 2740 c21b 3fc0 ed51 4540
00000110: b0b5 023c dff3 943f b239 edbf e589 25be
00000120: e900 873f 92e2 22c0 9b31 8340 a498 70bf
00000130: 1fb3 3fc1 758d 71bf f52b 493f 15f3 9cbf
00000140: c2a0 9cc1 52f0 fd3f 9444 18c1 78cb 10c0
00000150: 4a71 2740 d6bb 1cc1 fc0b a93f 7466 5140
00000160: c470 74c1 2404 883f b681 303e 87c7 f5bf
00000170: f4b0 683f 264d d7bf fa6d b83d 62f8 17c1
00000180: 154f 0140 4747 3a3e faaa 27c1 e191 64c0
00000190: 695a 4abf 28eb fb3d e4ad e7be 0055 cf40
000001a0: ad5e 7d3e 8331 dabd 1585 72c0 140f 6cbe
000001b0: c482 16c0 17e8 3f40 3b56 943f 6435 b7bf
000001c0: b3f2 283f 5d95 093e ad55 5bbf b24a 2fc1
000001d0: 5896 5cbf 68ab 2ec0 654a 25c0 435b 853f
000001e0: 0eea de3c 99c0 be3f a5e1 953d 8e22 f6bf
000001f0: 46b9 833f b14d f2c0 f7be b5bd f74c 1240
00000200: c927 3740 b096 7340 e01c 7dc0 d6e1 2f3f
00000210: 7253 453e eb02 e2bf 37b0 31c0 aab3 893f
00000220: 3a4e babf d61e a6c0 c3ff 4a3f 6f61 b3bf
00000230: 9a73 7cbe b164 1dc0 5b88 90ba 6c08 343e
00000240: 2e46 43be f34c 4fc0 3d78 10be c3c5 17c0
00000250: 70e2 c83e ece0 913f 84c7 f6bf 1d02 67c0
00000260: 22c0 3f40 af56 2340 ae06 413f e018 8140
00000270: 2e8c 28bf 484b 61c0 87b4 0ac0 d2fd 1240
00000280: 58c4 a53e 59bb bdc0 347e b63d 0ef3 43bf
00000290: c5c3 97be d72b 27be c06d 22bf 1047 3740
000002a0: 0969 ee3f ff3f 55be d352 a33f 7d2d 9b40
000002b0: 2adf a83f f324 0f3f 5154 f2c1 e08d 0d40
000002c0: da68 8140 e99e 3a40 ac18 493f 413e babf
000002d0: 0d4e 1ac0 b1d3 413f 4986 f340 ed8d 6f3f
000002e0: c8d6 643e e00c af3e 2d3c 143f 942c 303f
000002f0: e1c1 9bbe dfc4 54c0 a1c5 9ac0 91a5 433f
00000300: edac 713e 690d d2bf 6e19 2ac0 1e61 4a3f
00000310: 7d35 8a40 e710 06bf 439f 62c0 cfd0 a4bf
00000320: b960 8b3e 9432 00c1 95dc 95c1 b352 3dbf
00000330: 858f 27c1 67ac d3bf fe8b ef3f 8b78 6f40
00000340: a5cc 0f40 7909 213f 7eef 4ac0 0f5f d33f
00000350: 3e6d 76c0 2f71 2cc1 d170 0740 516c 8d3f
00000360: 74b0 603f 5f9e af3d 5c78 2f3e e6ac 0c3f
00000370: 9532 013f 9e86 bcc0 04bb d93f d269 b8bf
00000380: 9c9f 513f 5d30 6840 71b6 033f 02fe 083f
00000390: f04a 67c0 5fe9 84c0 dd83 90c0 0eab 5a3f
000003a0: 1ebd 6e40 a4a2 9c40 7bdd 0fc0 6340 c3c0
000003b0: 5a6f 30c0 13f3 4fbf aa65 e43f 525c 3dc0
000003c0: 58bb 9e3f a456 0f40 5e6c debf 95bb 1440
000003d0: b33d 923f 6ceb e53f 12ef 80bf f45b 7540
000003e0: 6d67 873f c81f 5cbf fb00 dabf 1106 aa40
000003f0: dab0 5f3f 83ff 473f f668 8c40 9299 753e
-1.4066437 -3.7428343 1.7190661 -1.8791946 1.3544562 -2.2498708 1.394499 2.9266267
0.0069405544 -1.1476119 3.5956237 -3.0173757 -4.118895 0.4834515 -4.6957297 0.4554763
-1.3635378 -9.451771 -8.849709 1.8410113 -1.7989628 -4.4304523 0.9481755 -2.396538
-2.408673 1.6375635 -2.4277787 -0.2649098 -7.590836 -1.3243597 -13.3701105 6.5412846
8.953541 -0.37130192 0.8251399 0.7992454 -0.4008829 1.5128658 -1.9054624 -1.2975099
1.091793 1.7752305 0.1307609 1.4035784 1.0322013 -0.12768987 1.3492568 0.07469084
1.2551962 1.6180136 6.750582 -1.6995538 -2.8973856 1.1100209 -0.56378764 -2.6963224
0.16434215 1.4682049 2.155575 1.8587791 0.64009774 -3.0340245 0.3302603 -1.3117245
-8.063528 2.6154683 -2.9860692 3.0831254 0.007977888 1.1636924 -1.8533232 -0.16165884
1.0547153 -2.5450788 4.0998054 -0.9398291 -11.981231 -0.9435647 0.785827 -1.2261683
-19.578495 1.9838965 -9.516743 -2.2624187 2.6162896 -9.795858 1.3206782 3.2718782
-15.277531 1.0626264 0.17236981 -1.9201516 0.9089501 -1.6820419 0.09005351 -9.49814
2.0204518 0.18191253 -10.479242 -3.5714037 -0.79044205 0.12300712 -0.45249856 6.479126
0.24743147 -0.10653975 -3.7893727 -0.23052627 -2.3517313 2.9985406 1.1588815 -1.4313169
0.6599533 0.13435884 -0.85677606 -10.955736 -0.86166906 -2.7292118 -2.5826657 1.0418476
0.027211215 1.4902526 0.07318429 -1.9229295 1.0290916 -7.571984 -0.08874314 2.2859476
2.8618033 3.8060722 -3.9548874 0.68703973 0.19270113 -1.765714 -2.7763803 1.0757954
-1.4555123 -5.191264 0.7929651 -1.4014109 -0.24653473 -2.4592707 -0.0011026965 0.17581338
-0.1906974 -3.2390716 -0.14108367 -2.3714454 0.39235258 1.1396766 -1.9279637 -3.609504
2.9961019 2.5521657 0.7540082 4.0342865 -0.658389 -3.5202198 -2.1672685 2.296742
0.3237636 -5.9291196 0.0891079 -0.7654275 -0.29641548 -0.16325317 -0.63448715 2.8637123
1.8625804 -0.20825194 1.2759651 4.849303 1.3193104 0.55915755 -30.29117 2.2117844
4.0440493 2.915949 0.7855327 -1.4550248 -2.4110138 0.7571364 7.610142 0.93575937
0.22347558 0.3418951 0.5790432 0.6881802 -0.30421355 -3.324516 -4.8366246 0.7642451
0.23601122 -1.6410342 -2.657802 0.7905444 4.3190293 -0.5236954 -3.5409706 -1.2876223
0.2722223 -8.012348 -18.732706 -0.73954314 -10.472539 -1.6536988 1.8714597 3.7417324
2.2468655 0.6290508 -3.1708674 1.6513385 -3.8504176 -10.777633 2.1162608 1.104868
0.87769246 0.08575129 0.17135757 0.5495132 0.5046781 -5.891433 1.7010198 -1.4407294
0.8188417 3.6279519 0.5145026 0.53512585 -3.6139488 -4.1534877 -4.5160966 0.8541726
3.7302928 4.8948536 -2.247893 -6.1016097 -2.7567964 -0.81230277 1.7843525 -2.9587598
1.2400923 2.2396631 -1.7376821 2.323949 1.1425079 1.796247 -1.0072958 3.8337374
1.0578438 -0.85985994 -1.7031549 5.3132405 0.8737923 0.78124255 4.3878126 0.23984364
