data/SAC/Walker2d-v2/sac_s18727/pyt_save/model.pt (torch_old, 877752 bytes, 18 tensors)

weight f4 [256, 17]
0.86990726 2.9381177 0.90091175 2.895273 0.76600903 2.1178312 3.1361158 -1.0129845
-0.8295798 0.39418823 -0.5719879 0.37838292 0.36163512 0.07826153 0.14925842 0.06797937
0.05154892 0.51891446 1.3675823 1.995724 0.7018449 0.4800143 -0.9275734 -1.2558018
0.3284279 -1.585165 0.60967803 1.2229316 -0.4466956 -0.13840508 0.030718623 -0.4745685
-0.17302787 0.028314628 -2.893818 0.36697456 -0.6859091 0.46007538 -0.30202022 -1.2733786
-0.6061344 0.060245115 1.0368118 -1.3724092 -0.6875319 0.025879193 -0.014012302 -0.018785678
0.5833588 0.31138197 0.024462976 -2.6542003 -0.81811976 -1.3079425 1.6915 -2.528296
2.5945034 -0.3131224 -1.8043712 -0.613601 0.8131148 -0.6308921 0.6078897 0.40089482
-0.31633717 0.09876299 0.15524101 0.12582372 -3.3847728 -3.2962365 -0.9970982 -0.890186
0.32967323 -1.8152018 0.66238934 1.047076 -0.5441015 0.2621714 -0.83745337 0.6193233
0.23105259 -0.07044734 0.3216728 0.3521434 -0.066663265 -1.3072176 0.7159651 -3.83499
0.85137373 -0.61796606 0.6049916 0.91020066 -1.3903055 -0.45355758 -0.9196775 0.0021720633
0.3745031 0.21794724 -0.29226634 -0.32918712 0.0031416721 -0.011160043 -1.9073343 -0.9541858
-0.086276494 -0.5261384 -1.6525118 0.9548248 -0.5402915 -0.6731142 -0.6825509 0.5795455
-0.3480148 0.5645166 -0.21152033 0.1665435 -0.053483024 0.0042386847 -0.09070421 -3.1946669
-1.6633731 -2.5125287 -1.5621024 0.48680067 1.8025596 2.2028701 1.3457903 1.2355369
-0.5137509 -0.29109952 -0.21758193 -0.14808792 -0.026713643 0.41276014 0.1515294 0.057813812
-3.531744 1.1488171 1.6516505 1.1978692 -0.44669425 3.7202165 1.3038077 -0.60222286
0.22631823 -1.2825924 0.67995924 -0.12965018 -0.20049363 -0.048299585 -0.53441405 -0.592218
0.03223171 -0.61091715 5.458756 -3.799129 -2.1398408 -0.33166346 -1.2965299 -0.7965224
-0.022344787 0.6731493 -0.21214171 0.105987884 -0.022115301 -0.07064604 -0.005041729 -0.100502536
-0.088508084 0.0067958958 -1.4468462 2.7901433 1.2321358 0.19549435 -1.2506968 -2.8290653
-1.7034943 1.4586942 0.36422455 -0.5535149 0.1425918 0.075710274 -0.009663824 -0.03143445
-0.21012917 -0.087366 0.019954514 -1.9481157 -1.7321765 2.856503 0.2388009 1.5403751
4.604931 3.377322 -0.13360812 0.1934822 -1.2093052 0.73576784 -0.5307869 0.17718878
0.2541773 0.2483299 -0.1439599 0.044621125 -3.3762782 3.4099805 -1.9555695 0.54912925
-0.7162127 -1.0976063 -0.82065105 -1.9885753 0.5507726 -0.8551415 0.19338593 -0.29781494
-0.16937073 0.014999857 0.10925605 -0.034857772 0.015064376 -4.132367 1.7958709 -2.9127522
-1.0654473 0.40732035 0.15037176 -0.3731476 0.37304282 0.36715695 0.15410773 0.5844774
-0.55622745 -0.29827288 -0.052258056 0.031626057 -0.028543368 0.01432453 -3.2291055 -1.9418596
-1.8143529 -0.93172467 -0.21549882 0.71270496 2.8376155 0.46788022 0.7702119 -0.0027727273
0.10410813 -0.2567321 0.31941393 0.05205394 -0.24462585 -0.29080898 0.095387146 1.3936542
00000000: 3eb2 5e3f 1f0a 3c40 27a2 663f 274c 3940
00000010: 2b19 443f 8c8a 0740 1fb6 4840 7aa9 81bf
00000020: 575f 54bf 0ad3 c93e cd6d 12bf 68bb c13e
00000030: 3d28 b93e 9547 a03d 33d7 183e c538 8b3d
00000040: f624 533d 94d7 043f f00c af3f e273 ff3f
00000050: 1bac 333f 6fc4 f53e 7375 6dbf 1dbe a0bf
00000060: b427 a83e b0e6 cabf dc13 1c3f 0689 9c3f
00000070: 49b5 e4be 10ba 0dbe 9fa5 fb3c a4fa f2be
00000080: 382e 31be 14f4 e73c 5034 39c0 17e4 bb3e
00000090: bd97 2fbf 008f eb3e 65a2 9abe 12fe a2bf
000000a0: a02b 1bbf 95c3 763d 40b6 843f 1bab afbf
000000b0: 1702 30bf 9a00 d43c db93 65bc 6ce4 99bc
000000c0: 0157 153f 756d 9f3e 9466 c83c 6bde 29c0
000000d0: 4c70 51bf a96a a7bf 1283 d83f 9acf 21c0
000000e0: 580c 2640 9451 a0be a3f5 e6bf f514 1dbf
000000f0: 4b28 503f 2582 21bf a99e 1b3f 1642 cd3e
00000100: f2f6 a1be 4044 ca3d 80f7 1e3e efd7 003e
00000110: 1ea0 58c0 8af5 52c0 d441 7fbf 3be3 63bf
00000120: eeca a83e 8858 e8bf 5992 293f 9606 863f
00000130: 3c4a 0bbf 543b 863e 5863 56bf f98b 1e3f
00000140: 0d99 6c3e b246 90bd 4cb2 a43e 244c b43e
00000150: c086 88bd e852 a7bf 7d49 373f 7a70 75c0
00000160: a1f3 593f 0633 1ebf bbe0 1a3f e902 693f
00000170: 88f5 b1bf b338 e8be fc6f 6bbf 2d59 0e3b
00000180: dfbe bf3e 902d 5f3e efa3 95be 378b a8be
00000190: 83e4 4d3b 9dd8 36bc 8823 f4bf 8545 74bf
000001a0: bbb1 b0bd 02b1 06bf 8285 d3bf 666f 743f
000001b0: 8b50 0abf 3651 2cbf a8bb 2ebf 185d 143f
000001c0: ff2e b2be 2984 103f c998 58be 618a 2a3e
000001d0: 0411 5bbd aae4 8a3b 21c3 b9bd 6c75 4cc0
000001e0: 69e9 d4bf 45cd 20c0 f9f2 c7bf f03d f93e
000001f0: 46ba e63f d3fb 0c40 db42 ac3f 1326 9e3f
00000200: 2e85 03bf ff0a 95be cccd 5ebe 5ca4 17be
00000210: 92d6 dabc 4c55 d33e 862a 1b3e 2dce 6c3d
00000220: 1808 62c0 700c 933f 4969 d33f c753 993f
00000230: 1cb5 e4be 0718 6e40 2ce3 a63f 472b 1abf
00000240: f7bf 673e fd2b a4bf cf11 2e3f 04c3 04be
00000250: 344e 4dbe c9d5 45bd 5ccf 08bf 999b 17bf
00000260: 6605 043d 1165 1cbf 21ae ae40 ee24 73c0
00000270: 27f3 08c0 cbcf a9be b1f4 a5bf e4e8 4bbf
00000280: 6a0c b7bc 8353 2c3f ad3b 59be 2d10 d93d
00000290: 262b b5bc dfae 90bd 1735 a5bb 46d4 cdbd
000002a0: ba43 b5bd 1bb0 de3b 4232 b9bf b591 3240
000002b0: a0b6 9d3f ac2f 483e d516 a0bf 680f 35c0
000002c0: 1a0c dabf 7eb6 ba3f a47b ba3e 27b3 0dbf
000002d0: 9603 123e fd0d 9b3d 0455 1ebc 69c1 00bd
000002e0: 1a2c 57be f2ec b2bd a677 a33c db5b f9bf
000002f0: f6b7 ddbf f2d0 3640 3988 743e 032b c53f
00000300: 985b 9340 0b26 5840 91d0 08be 3320 463e
00000310: 83ca 9abf 485b 3c3f a6e1 07bf fa70 353e
00000320: 8723 823e 314a 7e3e 396a 13be a4c4 363d
00000330: f114 58c0 1f3d 5a40 1a50 fabf bc93 0c3f
00000340: b759 37bf 5d7e 8cbf 3016 52bf a389 febf
00000350: 6fff 0c3f 8eea 5abf f606 463e 337b 98be
00000360: 856f 2dbe f6c1 753c a3c1 df3d 06c7 0ebd
00000370: 93d0 763c 5a3c 84c0 19df e53f 886a 3ac0
00000380: 9460 88bf 4b8c d03e 0efb 193e 340d bfbe
00000390: 78ff be3e fffb bb3e 6bce 1d3e 50a0 153f
000003a0: ec64 0ebf 39b7 98be 8b0c 56bd 538a 013d
000003b0: c8d3 e9bc 6fb1 6a3c aaa9 4ec0 db8e f8bf
000003c0: b73c e8bf 8285 6ebf b9ab 5cbe d573 363f
000003d0: 7e9b 3540 ff8d ef3e 9b2c 453f a5b6 35bb
000003e0: a536 d53d 6472 83be 398a a33e 8336 553d
000003f0: 337f 7abe eae4 94be 565a c33d 4363 b23f

bias f4 [256]
0.0726324 0.5303091 -1.5483778 -2.38293 -2.9415941 -1.7120697 -2.5469706 -1.162396
-0.9675485 -3.721096 -3.5540469 -2.9271765 -2.1659665 1.9706578 -2.8425183 -1.0115069
-3.153251 -4.028881 -1.5734044 -1.582789 0.0569518 -0.8369975 -2.428861 -2.4257798
-0.4855423 -1.6192834 -0.012509027 -2.281319 -1.6700929 -2.950251 -2.489995 -2.1391687
0.27988106 -1.6423168 -0.57728875 -2.6559596 -2.360882 -0.68334377 -3.2008061 1.3424677
-0.3645687 1.3480778 -0.4169903 -2.1839473 -0.6419451 -0.09494874 -0.15594287 -1.3043828
-1.3816283 -0.14173304 -3.2723246 -2.6887157 -1.5477386 -4.003254 -2.3490608 0.26567647
-1.5568782 -3.6108565 -3.4998424 -1.8602432 -2.6993482 -0.96280205 -2.4270363 -1.9564976
-0.19117719 -0.20943184 -1.1515913 -1.9799403 -1.2783719 -0.8641872 0.11490966 -1.9828146
-1.2067763 -0.86452603 -0.6262964 -3.2820895 -2.6488025 -2.8589818 -2.3564732 -0.73384553
-2.3458729 -0.62079346 -1.4559435 -3.078222 -0.7624317 -1.072357 -0.66760796 -1.4797213
-1.6664711 -2.6386037 -1.9961592 -1.9579219 -2.6148589 -0.8233353 0.02777651 -2.660228
-0.9206542 -0.9777685 -0.7682425 -2.5804179 -1.5095779 -2.469488 -1.7026689 -2.8036652
1.8798883 1.0838974 -0.46571735 -1.7710218 -2.5871015 -1.3308582 -2.235764 0.53392935
-2.0151792 -0.77592087 -3.3080978 -2.3807514 -1.1094719 -1.6157585 -0.2227698 0.36002874
0.20022006 -2.5799947 -2.9478405 -1.4142629 -1.5179828 0.18975282 -2.4567294 -2.080394
-0.23945124 -1.5131235 -2.0179007 -3.9771247 -2.772727 -1.469618 -1.5355896 -2.6438656
-0.57427424 -1.3155683 -2.9273617 -2.7911441 -2.869901 -0.27636772 -0.5786687 -0.90621513
-1.1504511 -2.5767794 -2.72354 -1.8238744 -1.818221 -1.043735 -2.1446042 -1.5618974
-2.2559988 -2.8974657 -1.2095983 -1.7280735 0.06523431 -2.1019058 -2.7252426 -2.5182219
-0.93864864 -1.3650433 -1.0061603 -2.3584359 0.12679714 -2.0664232 -1.0852761 -1.4622422
-0.37473178 -2.2673204 -2.0931835 0.36474225 -0.7394979 -1.9946969 1.5522256 -1.8998232
-2.4134645 -0.1528328 -2.404565 -2.4370327 -0.39711604 -0.68552047 -1.3234743 -0.839991
-0.66776687 -0.9180202 0.7608113 -3.2851892 0.647308 -2.2335954 -1.2105169 -1.032024
-0.40075657 -1.2748727 -3.003393 -2.7764597 -1.9135706 -0.7041077 -2.9958892 -2.5218356
-0.58955926 -2.3678088 -2.4632635 -3.0462167 -1.8569945 -1.7520026 -0.76452684 0.5108655
-2.0353878 -2.1053965 -0.9296915 -2.7100422 -2.4920435 -3.5401783 -2.730853 -0.88714147
-0.13997602 -1.6162494 -1.6257219 -2.108874 -3.1336355 -1.8819641 -0.063810065 -1.7165374
1.0013764 0.16096538 -3.000987 -2.3890371 -2.4651077 -0.9082048 -1.798769 -0.065158695
-1.6745347 -2.250193 -0.5718918 -1.7127482 -3.2276795 -1.1477871 -2.8789847 -2.4600012
-2.581975 -1.1971371 0.38267705 -1.8479867 2.090827 -2.5650043 -0.6259837 -1.5056531
-1.4140967 -0.7657317 -2.8021083 -1.983545 -0.9814052 -2.1662548 -2.1195638 -2.3771145
00000000: 4cc0 943d 56c2 073f 3e31 c6bf ed81 18c0
00000010: 1443 3cc0 1a25 dbbf 9101 23c0 64c9 94bf
00000020: 42b1 77bf 7026 6ec0 8175 63c0 dc56 3bc0
00000030: 329f 0ac0 843e fc3f d2eb 35c0 0f79 81bf
00000040: ddce 49c0 98ec 80c0 5165 c9bf d498 cabf
00000050: 4a46 693d 7845 56bf 7572 1bc0 fa3f 1bc0
00000060: 0099 f8be ae44 cfbf a9f2 4cbc 2101 12c0
00000070: 9bc5 d5bf ead0 3cc0 145c 1fc0 24e8 08c0
00000080: 924c 8f3e 7037 d2bf 32c9 13bf 3efb 29c0
00000090: b118 17c0 9eef 2ebf 02da 4cc0 fbd5 ab3f
000000a0: c0a8 babe d08d ac3f c17f d5be cbc5 0bc0
000000b0: 8456 24bf 7c74 c2bd 7daf 1fbe 04f6 a6bf
000000c0: 32d9 b0bf 7722 11be c46d 51c0 eb13 2cc0
000000d0: 4c1c c6bf a81a 80c0 0357 16c0 bf06 883e
000000e0: c947 c7bf 4618 67c0 6bfd 5fc0 731c eebf
000000f0: 1fc2 2cc0 327a 76bf 9054 1bc0 836e fabf
00000100: f4c3 43be 4d75 56be 5867 93bf af6e fdbf
00000110: b1a1 a3bf 5f3b 5dbf c155 eb3d decc fdbf
00000120: a577 9abf 9451 5dbf f654 20bf c10d 52c0
00000130: fb85 29c0 8ff9 36c0 75d0 16c0 4ddd 3bbf
00000140: c822 16c0 52ec 1ebf 5b5c babf 9701 45c0
00000150: b92e 43bf ff42 89bf 5be8 2abf 8267 bdbf
00000160: ed4e d5bf e2de 28c0 2582 ffbf 2f9d fabf
00000170: d959 27c0 1ac6 52bf 908b e33c 2d41 2ac0
00000180: feaf 6bbf 094f 7abf 8aab 44bf 9125 25c0
00000190: d939 c1bf 170c 1ec0 0ef1 d9bf 406f 33c0
000001a0: 2ea0 f03f 26bd 8a3f 8172 eebe d8b0 e2bf
000001b0: 1293 25c0 9059 aabf c216 0fc0 98af 083f
000001c0: b2f8 00c0 c0a2 46bf e0b7 53c0 3b5e 18c0
000001d0: 2d03 8ebf 2dd1 cebf c41d 64be b055 b83e
000001e0: 7d06 4d3e a21e 25c0 6ba9 3cc0 9106 b5bf
000001f0: 434d c2bf 904e 423e 0e3b 1dc0 2d25 05c0
00000200: b532 75be 08ae c1bf 4925 01c0 3689 7ec0
00000210: 5c74 31c0 711c bcbf 338e c4bf 1835 29c0
00000220: a303 13bf 8b64 a8bf e559 3bc0 1ba2 32c0
00000230: 75ac 37c0 1280 8dbe a223 14bf b7fd 67bf
00000240: fb41 93bf f4e9 24c0 7b4e 2ec0 b774 e9bf
00000250: 77bb e8bf 1c99 85bf 3241 09c0 41ec c7bf
00000260: 4962 10c0 1470 39c0 1ed4 9abf 8331 ddbf
00000270: 9199 853d a085 06c0 606a 2ec0 8c2a 21c0
00000280: 474b 70bf bdb9 aebf dcc9 80bf 9df0 16c0
00000290: 1cd7 013e 4740 04c0 54ea 8abf c12a bbbf
000002a0: d8dc bfbe c71b 11c0 b8f6 05c0 7fbf ba3e
000002b0: bc4f 3dbf 3a52 ffbf 54af c63f 682d f3bf
000002c0: 3476 1ac0 3480 1cbe 65e4 19c0 58f8 1bc0
000002d0: cb52 cbbe 457e 2fbf 9b67 a9bf a609 57bf
000002e0: c5f2 2abf 5f03 6bbf 88c4 423f 8a40 52c0
000002f0: fab5 253f 3af3 0ec0 38f2 9abf 5d19 84bf
00000300: f72f cdbe 072f a3bf 9737 40c0 84b1 31c0
00000310: e2ef f4bf 6740 34bf a6bc 3fc0 c165 21c0
00000320: 5bed 16bf 2e8a 17c0 1ca6 1dc0 37f5 42c0
00000330: ffb1 edbf 9f41 e0bf 08b8 43bf 15c8 023f
00000340: cb43 02c0 d1be 06c0 4300 6ebf 5571 2dc0
00000350: a47d 1fc0 4892 62c0 4cc6 2ec0 b41b 63bf
00000360: e055 0fbe 43e1 cebf a817 d0bf cbf7 06c0
00000370: 7c8d 48c0 33e4 f0bf daae 82bd 7fb7 dbbf
00000380: 1a2d 803f 1cd4 243e 2c10 40c0 fce5 18c0
00000390: 53c4 1dc0 1c80 68bf 103e e6bf ec71 85bd
000003a0: 2757 d6bf 2a03 10c0 8067 12bf 553b dbbf
000003b0: 4d92 4ec0 b0ea 92bf 4941 38c0 a970 1dc0
000003c0: 143f 25c0 ca3b 99bf 3fee c33e d48a ecbf
000003d0: 1cd0 0540 0829 24c0 7840 20bf 3eb9 c0bf
000003e0: 1f01 b5bf fe06 44bf be55 33c0 cde4 fdbf
000003f0: 5f3d 7bbf eba3 0ac0 efa6 07c0 a522 18c0

weight f4 [256, 256]
0.042308662 0.03905092 0.010071232 -0.038742963 -0.09354921 0.012018718 -0.04100667 -0.084483355
-0.056166314 -0.14109561 -0.061583463 -0.1167984 -0.11328965 -0.016083483 -0.033011205 -0.044094376
-0.0023563674 0.0510484 0.011020276 -0.032126024 -0.07027876 -0.017904088 0.013935102 0.044529974
0.0002520145 -0.07725112 -0.019608703 0.035621926 -0.052329846 -0.071613036 -0.0092157805 -0.11221062
-0.022707222 0.004834118 -0.08668663 0.005307154 -0.03550249 -0.055675544 0.027674265 0.036693078
-0.0035582965 -0.108256005 0.0035302627 -0.08711372 -0.083301574 -0.030398404 -0.029805316 0.04458281
-0.012662577 -0.0658116 -0.04123505 -0.11652161 -0.0759032 -0.10275846 -0.041840922 -0.070490986
-0.08520126 0.013296198 -0.07054926 -0.091818206 -0.028289124 -0.04350439 -0.06759813 -0.013615797
0.0603705 0.017567636 -0.0023937754 0.023806218 0.0073571675 0.015438539 -0.00044233885 0.0060538547
-0.06584949 -0.006876869 -0.04665044 -0.026181549 -0.025428442 -0.03693089 0.038323462 -0.04113148
0.034425493 -0.090930544 -0.0053138 0.041289344 -0.028039578 -0.056361336 0.008772758 -0.012883293
-0.11439246 -0.083825625 -0.06437659 -0.0748559 -0.04380811 -0.08393176 0.030957041 -0.043929342
-0.0058323457 -0.02351401 -0.028465966 -0.040767223 0.028175415 -0.1578258 -0.033680044 -0.06254289
0.019830193 -0.02659474 -0.10207401 -0.018234307 -0.036072735 0.020622823 -0.068112135 -0.09701961
-0.07852278 -0.066914394 -0.04585557 -0.10598157 -0.08781736 -0.017355494 -0.07653908 -0.043258972
0.05379996 -0.021867573 -0.01848032 -0.08817333 -0.06872262 0.050580055 -0.010070594 -0.07862137
-0.023642514 -0.037371684 -0.013578587 -0.030135527 -0.08511327 -0.0043156133 -0.088715225 -0.09809953
0.015008001 -0.008825991 -0.09208763 -0.058507755 -0.02605743 -0.032601234 -0.029782962 -0.056556314
-0.086169764 -0.0723163 -0.021377524 0.004340272 -0.015371405 -0.022682806 -0.12596606 -0.063795745
-0.14987588 -0.017826695 -0.04090447 -0.017259272 0.012718176 -0.043425255 0.019918574 -0.00023894086
-0.012937646 -0.06515274 -0.0026318803 0.023886712 0.0031545123 -0.07186723 -0.04643429 -0.042320397
0.014683744 0.023587022 -0.09126713 -0.06385213 -0.028342813 0.011990803 -0.0026865574 0.028379139
-0.09323981 0.022282526 -0.03215258 -0.04709628 -0.019109387 -0.034636896 -0.020934034 0.067694396
-0.059967987 -0.0981419 -0.07116495 -0.011895454 -0.019676521 -0.08482131 -0.04813856 -0.027824132
-0.04544431 -0.059822112 -0.027139874 -0.059629872 -0.04602763 -0.019810207 -0.030451043 -0.05145813
-0.075806536 -0.029285986 -0.10892223 -0.025728764 -0.011904623 -0.110921055 -0.081024714 -0.031530906
-0.07330514 -0.10610291 -0.09446634 -0.04027348 -0.058302216 0.017276483 -0.10975957 -0.07252759
-0.022823388 -0.06752742 -0.0577433 -0.059078306 -0.053061422 0.03771303 -0.075201206 -0.019391276
-0.075563304 -0.08633083 -0.10916585 -0.08898398 0.05838199 -0.07243739 -0.036182348 -0.0113841845
-0.02862418 0.04888735 0.0105270455 -0.10404873 -0.01853616 -0.024580225 -0.086773604 -0.049595598
-0.0042234384 -0.10715774 0.011758656 -0.09176857 -0.11415644 -0.021612471 0.006817999 -0.05472383
-0.034703363 -0.09380229 0.03403438 -0.096417725 -0.029487811 -0.04945574 -0.053258397 -0.07005898
00000000: d94b 2d3d dcf3 1f3d cf01 253c f1b0 1ebd
00000010: ba96 bfbd 28ea 443c 9cf6 27bd 9c05 adbd
00000020: a60e 66bd 5e7b 10be f13e 7cbd 0034 efbd
00000030: 6704 e8bd 82c1 83bc c236 07bd 4e9c 34bd
00000040: 496d 1abb 2118 513d 638e 343c 9496 03bd
00000050: 4fee 8fbd 98ab 92bc 0e50 643c 1065 363d
00000060: d020 8439 d635 9ebd 6ea2 a0bc 4ce8 113d
00000070: d257 56bd dba9 92bd c9fd 16bc aece e5bd
00000080: 7f04 babc 8567 9e3b c388 b1bd a2e7 ad3b
00000090: 0f6b 11bd 0a0c 64bd 24b5 e23c 7b4b 163d
000000a0: 4f32 69bb 53b5 ddbd fb5b 673b ae68 b2bd
000000b0: 049a aabd 1306 f9bc 472a f4bc 779c 363d
000000c0: b376 4fbc 3bc8 86bd 15e6 28bd e2a2 eebd
000000d0: 2373 9bbd 0773 d2bd 6361 2bbd 945d 90bd
000000e0: 007e aebd 4cd8 593c 217c 90bd 2f0b bcbd
000000f0: 98be e7bc a931 32bd e370 8abd cb14 5fbc
00000100: 0f47 773d 01ea 8f3c e3e0 1cbb 4205 c33c
00000110: 6514 f13b edf1 7c3c b7e9 e7b9 6a5f c63b
00000120: 19dc 86bd 5c57 e1bb 8814 3fbd b07a d6bc
00000130: 4f4f d0bc d844 17bd 10f9 1c3d 7c79 28bd
00000140: bf01 0d3d cb39 babd 631f aebb 041f 293d
00000150: 42b3 e5bc 25db 66bd 9dbb 0f3c 7314 53bc
00000160: 9846 eabd c5ac abbd e0d7 83bd 0d4e 99bd
00000170: 2270 33bd 6ae4 abbd 9f99 fd3c 41ef 33bd
00000180: 431d bfbb 74a0 c0bc 7531 e9bc 88fb 26bd
00000190: 21d0 e63c 169d 21be 16f4 09bd 7d16 80bd
000001a0: ee72 a23c 36dd d9bc 2e0c d1bd 1d60 95bc
000001b0: 01c1 13bd 32f1 a83c 607e 8bbd 38b2 c6bd
000001c0: 8dd0 a0bd 6a0a 89bd 0dd3 3bbd de0c d9bd
000001d0: 97d9 b3bd 1c2d 8ebc 85c0 9cbd 5230 31bd
000001e0: 595d 5c3d a023 b3bc 0a64 97bc 3894 b4bd
000001f0: 72be 8cbd 082d 4f3d 22ff 24bc 3e04 a1bd
00000200: f2ad c1bc 0d13 19bd b978 5ebc c8de f6bc
00000210: de4f aebd fd69 8dbb 54b0 b5bd 68e8 c8bd
00000220: 1ee4 753c e49a 10bc 7098 bcbd d4a5 6fbd
00000230: 6476 d5bc df88 05bd 66fb f3bc 98a7 67bd
00000240: c679 b0bd 911a 94bd eb1f afbc d738 8e3b
00000250: 58d8 7bbc 4bd1 b9bc 3ffd 00be 58a7 82bd
00000260: 1079 19be 4a09 92bc 728b 27bd 5163 8dbc
00000270: e55f 503c aede 31bd 472c a33c 338c 7ab9
00000280: 6cf8 53bc cd6e 85bd a07b 2cbb 11ae c33c
00000290: efbb 4e3b 202f 93bd e231 3ebd 2758 2dbd
000002a0: 1694 703c 9239 c13c 43ea babd e8c4 82bd
000002b0: 302f e8bc 1375 443c f410 30bb 5e7b e83c
000002c0: 83f4 bebd d889 b63c 6cb2 03bd 07e8 40bd
000002d0: 4a8b 9cbc 6bdf 0dbd da7d abbc 5ca3 8a3d
000002e0: fea0 75bd 9ffe c8bd eebe 91bd 26e5 42bc
000002f0: a830 a1bc ccb6 adbd f02c 45bd 6fef e3bc
00000300: d023 3abd 0808 75bd 7154 debc 743e 74bd
00000310: 7887 3cbd 0449 a2bc 7774 f9bc c3c5 52bd
00000320: 7540 9bbd 2ae9 efbc 9e12 dfbd 21c5 d2bc
00000330: 9c0b 43bc 942a e3bd 49f0 a5bd 8d26 01bd
00000340: 0121 96bd 7c4c d9bd 9277 c1bd cef5 24bd
00000350: 4ece 6ebd 6987 8d3c a0c9 e0bd 5889 94bd
00000360: 1df8 babc d14b 8abd 3d84 6cbd 18fc 71bd
00000370: ef56 59bd fa78 1a3d 1703 9abd 74da 9ebc
00000380: efc0 9abd 38ce b0bd 5892 dfbd 3c3d b6bd
00000390: f421 6f3d 0e5a 94bd f133 14bd bb84 3abc
000003a0: 427d eabc 1a3e 483d a179 2c3c 8017 d5bd
000003b0: 25d9 97bc 785c c9bc 5cb6 b1bd c124 4bbd
000003c0: c564 8abb 8475 dbbd 61a7 403c 29f1 bbbd
000003d0: daca e9bd a30c b1bc 8569 df3b 1826 60bd
000003e0: 1d25 0ebd 6a1b c0bd a267 0b3d a876 c5bd
000003f0: 6c90 f1bc 1a92 4abd 7a25 5abd 157b 8fbd

bias f4 [256]
-0.05035302 -0.13925953 -1.4657154 -1.8336838 -0.9794472 -1.2643348 -0.18670069 -0.9499175
0.0135927275 -0.026893638 -0.062745504 0.40956774 0.96574426 -0.070563525 0.32695585 -0.14259341
-0.064430855 -0.083990954 -0.1696102 -0.1519155 -0.1350956 -0.059815187 -0.08049818 -0.13974153
-0.096002586 -0.08066753 -0.45187077 -0.059324063 0.8150107 -2.596683 -0.08201917 -0.13979091
-0.2458743 -0.44119173 -1.6062666 -0.35937783 -0.2608249 -0.10094893 -0.71230847 0.56461185
-0.086659536 -0.06871909 -0.1176541 -0.08517965 -0.09727764 -0.14680888 -1.4025475 -0.08473802
-0.19219822 0.7005882 -0.9791441 -2.2847617 -0.11616032 -0.76476645 -0.123018675 -0.10077532
-1.4005357 -1.2076113 -0.11415395 -2.2845135 -0.13879117 0.674602 -0.08439784 -0.027732214
-0.055744752 0.22858101 -0.08250329 -0.053753532 -0.15856253 -0.09796836 -2.7755024 -0.10202722
1.2479998 -0.11102797 -0.09862817 -1.5291951 1.5932413 -0.058528196 -0.26613662 -0.07391235
0.9644238 -0.4873182 -0.8186075 -0.07501664 -0.15898636 -0.9410279 -0.08134869 -0.048120033
-0.24670981 1.1972479 -0.04017217 -0.15390538 -0.12824667 1.5361216 -0.14083692 -0.23088904
-0.09947084 -0.13023403 -0.098831415 -0.5297828 -0.12692615 0.09709923 -0.09702494 0.54947746
-0.3351204 1.9851096 0.8868566 -0.4121329 -0.093686074 -0.3468494 -0.07723403 -0.29393917
-0.08716822 -0.109600164 -0.07782893 1.384301 -0.13729742 -1.4936155 -0.08938943 -0.020330487
-0.4615804 -0.39365488 -0.6579497 -0.12947635 -0.8876883 -0.17448214 -0.15591171 -0.07390236
-0.5668496 1.233992 -0.15251814 -2.3241615 -0.08489133 -0.8266914 -2.1558595 -0.09862478
-0.10755731 -0.8219083 -0.11243292 -0.118236154 -0.11787872 -0.004382102 -0.7160117 -0.10285761
-0.0187649 -2.069925 -0.08305476 -1.9391896 -0.10239501 0.100184806 0.6475265 -3.242832
-0.12001132 0.16032027 -0.09450523 -0.018526135 -1.0493672 2.184674 -0.088726476 -0.11232004
-1.548952 -0.021966444 -0.18521668 -0.090536214 -0.09595699 -0.6347696 -0.1388423 0.29117408
0.684773 0.752054 -0.06301497 -0.09553664 -0.17914549 -2.884049 -0.09630286 -0.066664614
1.512986 -0.046871237 -0.13889568 0.13418223 -0.05615672 -0.2694656 1.3871349 -0.1494164
-0.034111474 -0.039693683 0.080559105 -0.49394485 -0.042433202 0.5849165 -0.54432464 -0.08412239
-0.12049563 -0.14827572 -0.07227174 -0.047692616 -0.095172234 -0.111449175 -0.075900115 -0.12526262
-0.17647006 1.6469175 -0.6384044 0.11547499 0.63077533 -0.2546203 1.1767547 -0.14363095
-0.388431 -0.13700059 -2.5237157 -0.16361648 -2.53026 -0.0701947 -0.08865066 -0.023881566
-0.086373836 -0.03164428 -0.004781637 -0.7132531 -0.06945097 -0.023942579 -0.16891833 -0.07163826
-0.17523283 -0.17384219 -0.10709235 -0.20680699 -2.0254302 -0.14819127 -0.091109656 0.5157283
-1.5016029 -0.09581758 -0.1344548 -0.07702348 -1.7210277 1.3308672 -1.9583691 -0.9141757
-0.93968797 -0.31592196 -1.1977655 -1.2250559 -0.7039404 -2.1376734 -0.13634498 0.06453956
-0.89978945 -0.16687474 0.7692484 -0.7304895 -0.8397317 0.0772162 -0.15139332 -0.8811584
00000000: f83e 4ebd 0d9a 0ebe 909c bbbf 27b6 eabf
00000010: 0dbd 7abf b9d5 a1bf 772e 3fbe cb2d 73bf
00000020: 08b4 5e3c 0c50 dcbc b780 80bd ddb2 d13e
00000030: 043b 773f 9c83 90bd c266 a73e 0204 12be
00000040: 53f4 83bd 7303 acbd 4cae 2dbe bd8f 1bbe
00000050: 8056 0abe c500 75bd 3bdc a4bd 6718 0fbe
00000060: 019d c4bd 0535 a5bd 9b5b e7be cafd 72bd
00000070: 8ba4 503f 0e30 26c0 abf9 a7bd 5925 0fbe
00000080: 79c6 7bbe e2e3 e1be 259a cdbf 5f00 b8be
00000090: d78a 85be 50be cebd d959 36bf 678a 103f
000000a0: 8e7a b1bd 98bc 8cbd a2f4 f0bd ab72 aebd
000000b0: 8039 c7bd 1155 16be ad86 b3bf 218b adbd
000000c0: 9ccf 44be c059 333f 30a9 7abf 8939 12c0
000000d0: 76e5 edbd bcc7 43bf 37f1 fbbd 4a63 cebd
000000e0: c144 b3bf 0293 9abf 8cc9 e9bd 7835 12c0
000000f0: 461f 0ebe b7b2 2c3f c6d8 acbd ab2e e3bc
00000100: 9c54 64bd 2411 6a3e 7cf7 a8bd aa2c 5cbd
00000110: 375e 22be a3a3 c8bd d5a1 31c0 a6f3 d0bd
00000120: 75be 9f3f a262 e3bd 91fd c9bd aabc c3bf
00000130: 55ef cb3f 43bb 6fbd 0f43 88be 5c5f 97bd
00000140: 7ae4 763f c581 f9be 4390 51bf 53a2 99bd
00000150: 52cd 22be 34e7 70bf 249a a6bd 8319 45bd
00000160: 7fa1 7cbe 6b3f 993f 938b 24bd 5f99 1dbe
00000170: 1853 03be a29f c43f 8e37 10be 2d6e 6cbe
00000180: 5eb7 cbbd 125c 05be 2068 cabd d89f 07bf
00000190: eef8 01be f6db c63d 03b5 c6bd 8eaa 0c3f
000001a0: e794 abbe 1218 fe3f 0909 633f 1503 d3be
000001b0: 7cde bfbd 3f96 b1be e02c 9ebd 327f 96be
000001c0: 4085 b2bd 0d76 e0bd c664 9fbd c630 b13f
000001d0: b297 0cbe cb2e bfbf ce11 b7bd 1f8c a6bc
000001e0: 4454 ecbe 228d c9be 646f 28bf 7395 04be
000001f0: 8a3f 63bf 72ab 32be 52a7 1fbe 1f5a 97bd
00000200: 0e1d 11bf 73f3 9d3f b72d 1cbe 10bf 14c0
00000210: 81db adbd 0ca2 53bf 9af9 09c0 cafb c9bd
00000220: 0247 dcbd 9568 52bf 3b43 e6bd cc25 f2bd
00000230: 666a f1bd bc97 8fbb 8b4c 37bf 03a7 d2bd
00000240: d9b8 99bc a779 04c0 9d18 aabd 5d37 f8bf
00000250: 7ab4 d1bd b12d cd3d 4cc4 253f 8f8a 4fc0
00000260: 7fc8 f5bd ff2a 243e f58b c1bd 1fc4 97bc
00000270: aa51 86bf b3d1 0b40 3ab6 b5bd 0d08 e6bd
00000280: 0f44 c6bf f9f2 b3bc 71a9 3dbe 0d6b b9bd
00000290: 1985 c4bd 4380 22bf ad2c 0ebe c514 953e
000002a0: 494d 2f3f 9c86 403f fe0d 81bd b7a8 c3bd
000002b0: ea71 37be 4294 38c0 6f3a c5bd 7587 88bd
000002c0: 86a9 c13f 0efc 3fbd ab3a 0ebe 1167 093e
000002d0: 9704 66bd 65f7 89be a38d b13f 9d00 19be
000002e0: 79b8 0bbd d895 22bd 2cfc a43d 57e6 fcbe
000002f0: 70ce 2dbd 16bd 153f dc58 0bbf 5c48 acbd
00000300: 6ac6 f6bd 97d5 17be 3503 94bd 5559 43bd
00000310: a9e9 c2bd 773f e4bd 8571 9bbd d844 00be
00000320: 91b4 34be 31ce d23f 796e 23bf 277e ec3d
00000330: 7e7a 213f 985d 82be e69f 963f fe13 13be
00000340: 6ee0 c6be e249 0cbe 8f84 21c0 148b 27be
00000350: c8ef 21c0 3dc2 8fbd 7a8e b5bd 46a3 c3bc
00000360: c4e4 b0bd 6f9d 01bd 47af 9cbb c197 36bf
00000370: 4f3c 8ebd 3a23 c4bc edf8 2cbe 14b7 92bd
00000380: 3c70 33be b003 32be 3c53 dbbd 36c5 53be
00000390: a6a0 01c0 74bf 17be b397 babd c506 043f
000003a0: 8634 c0bf 023c c4bd 85ae 09be 7cbe 9dbd
000003b0: a34a dcbf db59 aa3f d7ab fabf 6b07 6abf
000003c0: 648f 70bf 86c0 a1be 6150 99bf a2ce 9cbf
000003d0: 7035 34bf a4cf 08c0 059e 0bbe 512d 843d
000003e0: 9a58 66bf 36e1 2abe 77ed 443f 5c01 3bbf
000003f0: a8f8 56bf 8723 9e3d da06 1bbe 9993 61bf

weight f4 [6, 256]
0.04786489 0.014438401 -0.10403082 -0.025972748 -0.20305479 -0.2260418 -0.07928238 -0.34061086
-0.16653262 -0.023889417 0.018116087 -0.11401809 0.023778269 0.032409687 -0.117010705 0.011051835
-0.0432736 0.027762232 -0.02365293 0.08898498 -0.025742544 -0.030909415 -0.015194496 0.050305605
-0.020110687 -0.013013475 0.13046312 -0.059606828 0.07396869 -0.065848336 0.016661106 0.023426076
0.07634911 0.075769685 -0.114541955 0.044374034 -0.04593956 0.07951451 -0.057812814 -0.24698114
-0.023398837 0.035909157 0.012928846 0.015385839 0.0029455638 -0.026000835 0.06312397 0.02378077
-0.058429144 -0.045462623 0.07583084 -0.13523608 0.03113893 -0.095613845 0.028687013 -0.012447921
0.12286016 -0.2550914 0.026925998 0.040614933 -0.036562726 0.013876303 0.10580029 0.05950188
0.03464734 0.1711087 0.10900064 -0.0034395177 0.122009315 -0.03476275 -0.054461125 -0.07621141
0.04455734 0.054458052 -0.0019581192 0.11180566 -0.15787931 0.017871447 0.014634715 0.027060332
0.054032084 0.019206312 -0.23329203 -0.004206928 -0.025804183 0.07348597 -0.017665628 -0.036793154
-0.077387944 -0.02925697 0.06302804 0.024516143 -0.08462999 -0.21124643 0.023023985 0.124508075
0.03311505 -0.14631362 -0.3516912 0.085567124 -0.037867572 -0.31436718 0.082083665 0.11590592
0.0065222383 -0.17349532 -0.26201454 0.13463582 0.02740347 0.008042776 -0.044850267 0.020674055
0.031734314 0.077764496 0.021466034 0.021105519 0.024750559 -0.080705255 0.04667563 0.0031391778
-0.041142493 0.19045387 0.10275774 0.0011067513 -0.05878485 0.030846708 0.05631139 -0.006824551
0.058036894 -0.025739139 -0.046973962 -0.1426858 0.06720297 -0.2578827 0.058010142 0.042194482
0.041973863 0.007070616 0.009376716 0.012344757 0.06098559 -0.052337065 -0.103431165 -0.05286418
0.0508677 0.1344899 0.045380384 -0.25872546 -0.050198343 -0.21148123 -0.18245508 -0.3244248
-0.058303118 -0.02577697 0.043491375 0.034436997 0.003267209 -0.06627811 0.040181894 -0.053465772
0.04231145 -0.06989886 -0.056392796 -0.055163004 0.014004153 0.11491401 -0.03748447 0.028924404
0.049082026 0.16529377 -0.0020369662 -0.026215391 -0.096570425 -0.113791324 0.034377415 0.062668666
-0.06667918 0.0030886238 0.056012552 0.031688273 0.026619283 -0.68008506 0.0930018 0.074688844
-0.03451356 0.0036906453 0.031011743 -0.21482648 -0.011725325 0.016045967 -0.117845856 -0.050917782
0.04047821 0.026413798 -0.052589834 -0.03171391 0.0011617268 -0.110701606 -0.04937614 0.10737442
-0.05683483 -0.005264092 -0.07142335 0.08835344 0.067263305 0.048133746 0.043153986 -0.027357325
0.05241853 -0.035034347 -0.051948044 -0.021163274 -0.20178755 0.00053805 -0.073786266 -0.05073823
0.013471934 -0.009568334 -0.014109389 0.5783315 0.011839521 0.13817027 -0.107412845 -0.077470005
0.02849189 -0.020394586 0.005291836 0.013214815 -0.02188415 0.06035258 0.012362217 0.08247241
-0.23174049 0.027579915 -0.06548598 0.05201657 0.10880408 -0.004343334 -0.031360276 -0.61159146
-0.284809 0.077791885 -0.4563233 -0.24960746 0.0632411 -0.13397111 0.034264266 0.15148833
-0.0029897823 0.024073984 0.032793958 -0.48117623 -0.10604816 -0.018169895 0.0881535 0.10723659
00000000: fa0d 443d 0b8f 6c3c 1c0e d5bd cdc4 d4bc
00000010: 98ed 4fbe 8077 67be cd5e a2bd 8c64 aebe
00000020: 8787 2abe bdb3 c3bc 3068 943c 5182 e9bd
00000030: a5ca c23c 05c0 043d 4fa3 efbd c112 353c
00000040: a93f 31bd 9f6d e33c cac3 c1bc c23d b63d
00000050: 07e2 d2bc be35 fdbc 56f2 78bc 400d 4e3d
00000060: 2bbf a4bc 7836 55bc 2098 053e 4a26 74bd
00000070: e67c 973d 7edb 86bd df7c 883c 0be8 bf3c
00000080: ec5c 9c3d 232d 9b3d f994 eabd 8cc1 353d
00000090: 1f2b 3cbd 81d8 a23d 21cd 6cbd a0e8 7cbe
000000a0: ebae bfbc 7b15 133d 83d3 533c e314 7c3c
000000b0: 5c0a 413b b4ff d4bc 2447 813d e4cf c23c
000000c0: 6653 6fbd 0437 3abd 334d 9b3d 547b 0abe
000000d0: 1217 ff3c 31d1 c3bd 0701 eb3c 5df2 4bbc
000000e0: 1c9e fb3d 579b 82be e993 dc3c d85b 263d
000000f0: ccc2 15bd 6f59 633c d3ad d83d 3eb8 733d
00000100: 5fea 0d3d 1e37 2f3e ba3b df3d 8869 61bb
00000110: 05e0 f93d 6363 0ebd a112 5fbd ba14 9cbd
00000120: c281 363d 680f 5f3d ca53 00bb 5efa e43d
00000130: 1dab 21be 2467 923c 72c6 6f3c a1ad dd3c
00000140: bf50 5d3d 8e56 9d3c 1be4 6ebe 45da 89bb
00000150: 4b63 d3bc d07f 963d 82b7 90bc 6bb4 16bd
00000160: 927d 9ebd 50ac efbc d814 813d 14d6 c83c
00000170: 7d52 adbd fc50 58be cc9c bc3c 17fe fe3d
00000180: a6a3 073d 3dd3 15be de10 b4be d13d af3d
00000190: 071b 1bbd bcf4 a0be 7b1b a83d 1560 ed3d
000001a0: 80b8 d53b c2a8 31be c526 86be f9dd 093e
000001b0: 3e7d e03c d9c5 033c eab4 37bd a35c a93c
000001c0: d7fb 013d fe42 9f3d 89d9 af3c 7be5 ac3c
000001d0: afc1 ca3c cc48 a5bd f22e 3f3d aaba 4d3b
000001e0: 0885 28bd 5706 433e a672 d23d 6910 913a
000001f0: 62c8 70bd 3cb2 fc3c c6a6 663d 7ca0 dfbb
00000200: 18b8 6d3d e3da d2bc c567 40bd 3a1c 12be
00000210: b6a1 893d 3409 84be 0b9c 6d3d 1fd4 2c3d
00000220: c9ec 2b3d a0b0 e73b cca0 193c aa41 4a3c
00000230: 07cc 793d 645f 56bd b8d3 d3bd 1c88 58bd
00000240: a65a 503d b8b7 093e c8e0 393d aa77 84be
00000250: c79c 4dbd 898e 58be 81d5 3abe 021b a6be
00000260: 40cf 6ebd 392a d3bc 0324 323d cf0d 0d3d
00000270: ac1e 563b d1bc 87bd c595 243d edfe 5abd
00000280: c54e 2d3d 2227 8fbd 22fc 66bd 9af2 61bd
00000290: ad71 653c 0958 eb3d 5189 19bd dff2 ec3c
000002a0: 3c0a 493d c542 293e 9f7e 05bb a9c1 d6bc
000002b0: b7c6 c5bd 6d0b e9bd 55cf 0c3d 6e58 803d
000002c0: 188f 88bd 826a 4a3b 6b6d 653d 90cb 013d
000002d0: af10 da3c 0e1a 2ebf ba77 be3d 77f6 983d
000002e0: 175e 0dbd c1de 713b 570c fe3c 79fb 5bbe
000002f0: 941b 40bc d572 833c 2b59 f1bd 2a8f 50bd
00000300: 7bcc 253d c061 d83c 7068 57bd 72e6 01bd
00000310: 1545 983a 86b7 e2bd a33e 4abd 1fe7 db3d
00000320: a4cb 68bd 677e acbb 6846 92bd a6f2 b43d
00000330: 58c1 893d e427 453d 3cc2 303d 781c e0bc
00000340: d0b4 563d 2d80 0fbd 79c7 54bd 9a5e adbc
00000350: 65a1 4ebe ed0b 0d3a 411d 97bd e4d2 4fbd
00000360: 63b9 5c3c 80c4 1cbc 112b 67bc 880d 143f
00000370: 8dfa 413c 827c 0d3e 44fb dbbd 98a8 9ebd
00000380: d367 e93c 8c12 a7bc 2367 ad3b f482 583c
00000390: 6446 b3bc 4434 773d e58a 4a3c 4be7 a83d
000003a0: 614d 6dbe 46ef e13c 831d 86bd 540f 553d
000003b0: acd4 de3d 8752 8ebb a273 00bd 4291 1cbf
000003c0: 7cd2 91be 5a51 9f3d 35a3 e9be 1999 7fbe
000003d0: 8d84 813d b92f 09be b058 0c3d c21f 1b3e
000003e0: 39f0 43bb ce36 c53c f552 063d bb5c f6be
000003f0: c72f d9bd 08d9 94bc d289 b43d db9e db3d

bias f4 [6]
0.43709585 0.8384716 0.01278745 0.7769331 0.03598543 0.50705963
00000000: 07cb df3e 13a6 563f 7482 513c 16e5 463f
00000010: 7565 133d a9ce 013f

weight f4 [6, 256]
0.011418073 -0.026407477 -0.08519455 0.014292171 -0.025033947 0.31561306 0.003563118 0.13026182
-0.014463973 -0.075768925 0.12309857 0.0052623083 0.010713443 0.17534839 0.013639861 -0.0032692235
-0.053535096 0.10347338 0.04424782 -0.014348987 0.038429372 0.031581 -0.004887689 0.08487925
0.023999436 -0.027698904 0.029302958 0.052530985 -0.018393226 0.021931171 0.1189956 0.015327195
-0.016584696 0.012840574 0.037203178 0.13535897 0.07896431 -0.010989311 -0.021853883 0.014080347
0.062027145 0.034093365 0.027637452 -0.005435535 -0.08011442 0.009651428 -0.07777296 -0.03467134
-0.027948545 0.046920005 0.06043333 0.0032997055 -0.049348816 -0.014976001 0.04165781 0.00040909238
0.008997125 0.18735705 0.07767435 -0.048346747 0.0030363332 -0.0077043697 -0.005881505 0.07940862
0.019755378 0.044372853 0.16008537 0.006702999 0.098254524 0.028997738 0.028202847 0.079755254
0.027114453 -0.00055054575 0.0018668561 0.0332542 -0.008730081 0.028285976 0.06604844 0.02173414
0.036688637 0.010609624 -0.1659071 -0.014990533 0.15068957 -0.027000109 0.087637916 -0.013610333
0.13047744 -0.00019096091 0.014927249 0.14272471 -0.048119478 0.012067781 -0.044398133 0.23963158
-0.041302588 -0.11263873 -0.2234785 0.024368927 0.10792739 0.35084453 0.05558939 0.020892747
-0.00014406184 -0.0054913242 0.0039031843 -0.013886191 -0.019080484 -0.012485876 -0.069929086 0.0018323745
-0.009211106 -0.08068369 0.031643815 0.005461463 -0.028692951 0.04339736 0.005117825 0.077817366
-0.010787601 0.07016373 0.0018631855 0.058048423 -0.0064761946 0.034040138 -0.0068424293 0.04869533
-0.014561251 0.03173181 -0.0060796114 0.005003682 0.072143205 -0.00085692416 -0.02349536 -0.0067233397
0.06736834 -0.0049575786 0.12962355 -0.04440971 -0.039754275 0.005298464 0.21052215 0.0027977296
0.019651478 0.05038351 0.053584076 0.00058649696 0.069927424 0.0028877892 -0.014860553 0.035513196
0.06591942 0.027989944 0.00019521115 0.0027645517 0.030883804 0.031535577 0.01684129 -0.064460024
-0.027699338 0.09599715 0.04534764 0.122917846 -0.0050312653 0.02941206 0.04346991 0.008022814
-0.0180145 0.06577356 0.014553984 0.006019488 -0.0022416678 0.05851285 0.19524239 -0.043482125
-0.023783715 -0.051938742 0.048869193 0.024218125 -0.024687726 0.37833905 -0.008237675 0.009757651
0.025592925 0.10326683 -0.008778933 0.33393642 0.00844787 -0.019488217 0.0178496 0.013838414
0.099888936 0.06638396 0.027534604 -0.058087725 -0.0726161 0.108541824 0.010995631 0.02925613
0.019774746 0.012724398 0.011319045 0.008176494 0.014862555 0.12504028 -0.005714169 0.008045289
-0.03174076 0.064478174 0.0039985566 -0.028664118 0.022616787 -0.01951191 0.09088619 -0.035145134
0.0041785403 -0.0114716375 0.0588236 0.11595967 0.055819836 0.0069292197 0.025264734 0.015501383
0.14568505 -0.06593462 0.017260928 -0.0027340092 -0.018276876 0.06228209 -0.018935949 0.011287249
-0.018435314 -0.023953477 -0.012469985 -0.07124454 0.00920728 0.011641019 -0.018566638 0.46415332
0.19658713 0.06563556 0.12463278 0.12682062 0.012625721 -0.0025436005 0.05390764 0.011278939
-0.0047994484 0.00054213934 0.007356445 0.33015063 0.32311505 0.002911588 0.11822228 -0.012006744
00000000: df12 3b3c 7e54 d8bc 7b7a aebd b629 6a3c
00000010: fe13 cdbc 0998 a13e 3383 693b 5b63 053e
00000020: 4dfa 6cbc bd2c 9bbd 1a1b fc3d 716f ac3b
00000030: 7087 2f3c 878e 333e b979 5f3c 7840 56bb
00000040: 9e47 5bbd dae9 d33d 343d 353d 0318 6bbc
00000050: 1e68 1d3d 145b 013d e828 a0bb 2cd5 ad3d
00000060: 779a c43c d0e8 e2bc c20c f03c bb2a 573d
00000070: 64ad 96bc 00a9 b33c f7b3 f33d ea1e 7b3c
00000080: a1dc 87bc 4561 523c 5c62 183d 8b9b 0a3e
00000090: 0ab8 a13d 830c 34bc ea06 b3bc 41b1 663c
000000a0: 2d10 7e3d 7ca5 0b3d f067 e23c 931c b2bb
000000b0: 0713 a4bd 0621 1e3c 6e47 9fbd 8903 0ebd
000000c0: 59f4 e4bc 312f 403d f088 773d df3f 583b
000000d0: fc21 4abd e75d 75bc 61a1 2a3d 737b d639
000000e0: ad68 133c 87da 3f3e bb13 9f3d 3d07 46bd
000000f0: 38fd 463b f074 fcbb a4b9 c0bb fda0 a23d
00000100: 08d6 a13c 4fc0 353d 6bed 233e d5a4 db3b
00000110: ab39 c93d aa8c ed3c a809 e73c b956 a33d
00000120: 211f de3c 8052 10ba 4cb1 f43a 8e35 083d
00000130: 9d08 0fbc feb7 e73c 6844 873d cc0b b23c
00000140: d346 163d fdd3 2d3c 8de3 29be da9a 75bc
00000150: 5e4e 1a3e 552f ddbc 827b b33d e0fd 5ebc
00000160: e19b 053e ae3c 48b9 6c91 743c 6d26 123e
00000170: ee18 45bd f1b7 453c d1da 35bd fb61 753e
00000180: e72c 29bd 22af e6bd 8cd7 64be 58a1 c73c
00000190: 0909 dd3d e5a1 b33e b3b1 633d 4427 ab3c
000001a0: 4e0f 17b9 91f0 b3bb 91cc 7f3b e882 63bc
000001b0: ad4e 9cbc 8f91 4cbc fb36 8fbd 492c f03a
000001c0: 2eea 16bc 7e3d a5bd f29c 013d 12f6 b23b
000001d0: 7b0d ebbc 6ec1 313d 6eb3 a73b b65e 9f3d
000001e0: 7abe 30bc 00b2 8f3d 2236 f43a 2fc4 6d3d
000001f0: 4236 d4bb ac6d 0b3d 7536 e0bb c174 473d
00000200: 5092 6ebc 37f9 013d 7a37 c7bb edf5 a33b
00000210: d1bf 933d 35a3 60ba 5779 c0bc 764f dcbb
00000220: 6af8 893d 2f73 a2bb 09bc 043e f5e6 35bd
00000230: 61d5 22bd bd9e ad3b 1e93 573e 1d5a 373b
00000240: 23fc a03c f05e 4e3d fa7a 5b3d 25bf 193a
00000250: 1c36 8f3d 1041 3d3b ad79 73bc 4976 113d
00000260: c300 873d 2b4b e53c 98b1 4c39 7b2d 353b
00000270: 0800 fd3c 732b 013d bff6 893c 9e03 84bd
00000280: b9e9 e2bc 279a c43d 72be 393d 5abc fb3d
00000290: 50dd a4bb 8ff1 f03c 810d 323d 1f72 033c
000002a0: 2593 93bc 4ab4 863d d573 6e3c 203f c53b
000002b0: f2e8 12bb 2cab 6f3d 9fed 473e 501a 32bd
000002c0: 11d6 c2bc b8bd 54bd 102b 483d 1765 c63c
000002d0: ea3d cabc a8b5 c13e 50f7 06bc 8ede 1f3c
000002e0: 41a8 d13c 8f7d d33d 84d5 0fbc b7f9 aa3e
000002f0: ef68 0a3c c1a5 9fbc 5339 923c 84ba 623c
00000300: 9292 cc3d 50f4 873d 4090 e13c 65ed 6dbd
00000310: c0b7 94bd 2d4b de3d 0527 343c 8daa ef3c
00000320: a6fe a13c fe79 503c 8473 393c b4f6 053c
00000330: 1382 733c 8f0a 003e ec3d bbbb 63d0 033c
00000340: 9902 02bd 220d 843d 5306 833b 03d1 eabc
00000350: d746 b93c 71d7 9fbc 8a22 ba3d 58f4 0fbd
00000360: 23ec 883b 89f3 3bbc 04f1 703d 437c ed3d
00000370: 57a3 643d 820e e33b fdf7 ce3c 83f9 7d3c
00000380: 762e 153e bb08 87bd ca66 8d3c 102d 33bb
00000390: 63b9 95bc 811b 7f3d 901f 9bbc 27ee 383c
000003a0: a805 97bc 153a c4bc e84e 4cbc a8e8 91bd
000003b0: 22da 163c f9b9 3e3c 1019 98bc 81a5 ed3e
000003c0: 234e 493e f06b 863d 793f ff3d 44dd 013e
000003d0: 1ddc 4e3c 89b2 26bb 42ce 5c3d 4dcb 383c
000003e0: b144 9dbb 5b1e 0e3a 550e f13b 8109 a93e
000003f0: 566f a53e 57d0 3e3b 861e f23d efb7 44bc

bias f4 [6]
-0.7624884 -0.5787579 -1.0436367 -0.6538097 -0.70618737 -1.0975327
00000000: 7132 43bf 7a29 14bf e395 85bf 1360 27bf
00000010: b2c8 34bf f47b 8cbf

weight f4 [256, 23]
-4.030589 -1.595487 0.9574531 -0.4715147 -0.9798895 -1.369599 -0.21130887 -0.7369066
-0.36070806 0.7517993 -1.1387157 0.9595123 -0.3226532 0.21607785 0.100202866 0.22392696
-0.015909761 -0.1311169 0.22012 -0.45969614 -0.15518196 -0.1788173 -0.221818 -1.4218999
-7.3951125 3.1728542 2.671502 0.29144445 0.7667369 -1.196495 -0.08387894 -1.6169366
0.72769266 0.12564953 -0.062803246 0.03186968 0.006038251 -0.000436632 0.010910691 0.013233005
-0.08227588 -0.021353383 -0.032256734 -0.011175945 -0.020415027 -0.010588583 0.94145465 3.0646102
2.1475792 3.32472 -0.83027166 0.58929515 1.2957495 0.26751843 -1.8857858 -0.8494941
-0.5947706 0.15360743 -0.066776685 -0.08259196 0.2552737 0.27314156 0.019764384 -0.4764886
-1.136485 0.110806204 -0.1623235 0.4604449 1.3879163 -2.6977687 -1.4774065 1.9396825
0.027797211 -0.08520572 0.8476672 0.27186206 -0.32661638 -0.19979794 -0.20280978 0.37215066
-0.35038367 -0.16820095 1.054337 -0.030466544 -0.024521248 -0.032592826 0.09722304 0.11964682
-0.7791533 0.081478074 -0.08196619 -0.007766503 -2.1473851 0.515793 0.7742335 -0.5835954
-0.89494395 1.0375117 -1.7359319 0.18841758 0.8177991 0.24038261 -1.5434352 0.6042251
0.3464463 -0.22608271 0.65376335 0.30847102 -0.28980866 0.08208268 -0.06364611 -0.1287945
0.024641596 0.12435229 0.009878141 -2.763601 -0.85452056 -3.899833 -1.0780874 -0.9070017
-3.2304003 0.28501493 0.33231652 1.2174345 -0.3165495 0.26231387 0.40451887 0.0967664
-0.049806055 -0.5454984 -0.39633727 0.013544589 0.15672883 0.15480849 -0.39030787 0.21915056
-0.63408136 0.2627561 -4.871728 1.4927062 2.0566242 2.5093267 0.8240465 -1.8412908
-1.0050062 -0.32335737 0.2278958 -0.008875971 0.42331293 -0.4393057 -0.27565676 -0.067043915
0.020948393 0.053187784 -0.0128065245 0.11119154 -0.039476592 -0.68770826 -0.036346767 0.15064032
0.056800343 -0.99496406 -0.42362145 -1.9634451 0.019793432 -0.3743309 -2.9443793 -1.8718488
1.8722799 0.41534027 2.9733136 -0.14573902 0.069400385 0.018371057 0.016621126 -0.10119776
-0.15222205 0.07277539 0.18668976 -0.3258265 -0.04971943 0.02580045 0.33369955 0.33915907
0.23107544 2.6147547 0.6041042 2.6586945 -2.28496 0.61728513 1.2139281 -1.037226
-0.29186726 0.48079753 -0.55163777 0.44577077 0.32279775 0.36144537 -0.31203967 -0.30898365
0.07450016 -0.38112122 0.0012770686 2.4535735 -0.41473213 -0.87318134 0.7775612 -0.80950296
2.226083 0.5169478 -0.29251373 0.04422076 -1.9312145 -1.9206218 -0.75306773 -2.07316
1.2738527 1.6183953 -0.5643673 -0.23304154 -0.021218061 -0.68930334 -0.24258296 0.012831472
0.10035217 0.051534913 0.0032343809 -0.04697272 -0.0003102053 0.14000766 -3.160861 0.66185075
0.36015412 0.5555399 0.113641255 -2.0670626 -1.4048439 0.70851016 -0.9319735 1.0601668
0.3315253 -0.11494276 0.026946593 0.009894606 -0.06617713 -0.0042718966 0.018533902 -0.10096402
0.0994628 -0.09010743 0.10529882 0.0017961375 -0.12994905 -2.4261153 -1.7104343 -0.5056904
00000000: 96fa 80c0 eb38 ccbf a51b 753f 606a f1be
00000010: 0ada 7abf 054f afbf 5a61 58be e9a5 3cbf
00000020: baae b8be eb75 403f 70c1 91bf 99a2 753f
00000030: cd32 a5be 8343 5d3e 2937 cd3d 1c4d 653e
00000040: 3055 82bc 8243 06be 2367 613e 4b5d ebbe
00000050: 05e8 1ebe e21b 37be 4224 63be d100 b6bf
00000060: c3a4 ecc0 0b10 4b40 e4f9 2a40 3538 953e
00000070: df48 443f c026 99bf b9c8 abbd c7f7 cebf
00000080: 114a 3a3f 45aa 003e fd9e 80bd c889 023d
00000090: 85dc c53b c1eb e4b9 c1c2 323c 3fcf 583c
000000a0: 4280 a8bd 4aed aebc a31f 04bd 501b 37bc
000000b0: 6a3d a7bc bc7b 2dbc 2c03 713f 9322 4440
000000c0: f071 0940 36c8 5440 af8c 54bf 0cdc 163f
000000d0: 1fdb a53f 2df8 883e 6e61 f1bf 7278 59bf
000000e0: e342 18bf 444b 1d3e 37c2 88bd f925 a9bd
000000f0: 3cb3 823e 36d9 8b3e ebe8 a13c 50f6 f3be
00000100: 5778 91bf 5dee e23d 2238 26be 6fbf eb3e
00000110: 3ea7 b13f 3ea8 2cc0 a81b bdbf 8447 f83f
00000120: fab6 e33c 5680 aebd b800 593f 8131 8b3e
00000130: 433a a7be d597 4cbe 5ead 4fbe 888a be3e
00000140: 7d65 b3be df3c 2cbe 84f4 863f f994 f9bc
00000150: c9e0 c8bc 0e80 05bd e01c c73d 6409 f53d
00000160: 9776 47bf fadd a63d e4dd a7bd 267e febb
00000170: c26e 09c0 030b 043f 2b34 463f 8266 15bf
00000180: 0c1b 65bf 2fcd 843f 0433 debf 8af0 403e
00000190: 485b 513f dc26 763e 498f c5bf 7fae 1a3f
000001a0: 6961 b13e 3a82 67be 095d 273f eaef 9d3e
000001b0: cd61 94be f71a a83d e458 82bd b5e2 03be
000001c0: 2cdd c93c 6aac fe3d edd7 213c d7de 30c0
000001d0: dcc1 5abf dd96 79c0 c5fe 89bf 4331 68bf
000001e0: e1be 4ec0 7aed 913e 6425 aa3e e5d4 9b3f
000001f0: c712 a2be 014e 863e 191d cf3e 762d c63d
00000200: 6f01 4cbd c8a5 0bbf b8ec cabe 20ea 5d3c
00000210: 867d 203e 1e86 1e3e 6fd6 c7be 0169 603e
00000220: 2853 22bf f887 863e 32e5 9bc0 ff10 bf3f
00000230: bb9f 0340 cf98 2040 b6f4 523f 6baf ebbf
00000240: 0ba4 80bf 198f a5be 845d 693e 856c 11bc
00000250: 79bc d83e adec e0be e222 8dbe 524e 89bd
00000260: f79b ab3c 6fdb 593d 75d2 51bc 64b8 e33d
00000270: 35b2 21bd a60d 30bf 59e0 14bd 7541 1a3e
00000280: 7aa7 683d f7b5 7ebf e9e4 d8be 2b52 fbbf
00000290: d625 a23c 4da8 bfbe b670 3cc0 be98 efbf
000002a0: dea6 ef3f 7ba7 d43e c54a 3e40 9c3c 15be
000002b0: ca21 8e3d e67e 963c 0729 883c c540 cfbd
000002c0: 19e0 1bbe 440b 953d 9a2b 3f3e bbd2 a6be
000002d0: 9aa6 4bbd 775b d33c abda aa3e 42a6 ad3e
000002e0: 0a9f 6c3e 2458 2740 93a6 1a3f 0d28 2a40
000002f0: c93c 12c0 6606 1e3f ff61 9b3f d2c3 84bf
00000300: a06f 95be 182b f63e 2238 0dbf 113c e43e
00000310: bf45 a53e 5e0f b93e aac3 9fbe 1b33 9ebe
00000320: 8a93 983d 5222 c3be 5063 a73a 5907 1d40
00000330: c557 d4be d088 5fbf 400e 473f 963b 4fbf
00000340: 2578 0e40 b156 043f 5cc4 95be d420 353d
00000350: 0932 f7bf efd6 f5bf 0cc9 40bf a7ae 04c0
00000360: 9b0d a33f 9427 cf3f 607a 10bf 71a2 6ebe
00000370: 80d1 adbc 2f76 30bf ab67 78be 183b 523c
00000380: 7085 cd3d 4616 533d e8f7 533b 7866 40bd
00000390: 0da3 a2b9 2b5e 0f3e 8c4b 4ac0 0d6f 293f
000003a0: 1f66 b83e dd37 0e3f bfbc e83d c14a 04c0
000003b0: edd1 b3bf ec60 353f d195 6ebf 8cb3 873f
000003c0: afbd a93e 1c67 ebbd 1abf dc3c fc1c 223c
000003d0: e087 87bd 44fb 8bbb 69d4 973c 39c6 cebd
000003e0: 27b3 cb3d 3f8a b8bd e8a6 d73d 606c eb3a
000003f0: 5d11 05be 7945 1bc0 83ef dabf ed74 01bf

bias f4 [256]
-3.058257 -0.12862515 0.7134023 -4.2213306 -3.2564926 -1.8976812 4.9761605 -0.9515971
-1.442325 3.582416 5.579606 -2.1601336 -2.970514 -4.7406673 -1.2974445 -4.4721355
-0.7565675 -3.6018968 -2.217264 -1.3148456 0.6256297 3.0510867 -0.75849646 4.401819
4.246038 3.0067453 3.8030818 -0.59092337 -2.0008254 -0.59224755 -3.1102536 -1.339404
-1.9060935 3.4213886 -4.881732 -3.4438262 2.816158 -1.3583139 -0.4559301 -3.9642186
4.401189 -3.209035 -4.541667 -1.7986231 -2.8797956 -2.185472 1.1449124 -0.97646147
0.43045437 -0.86317706 2.0807874 -0.10449094 -2.8247807 -1.822906 -1.5784382 -1.7984148
-0.9219852 3.5947857 -1.0713655 -1.1230975 1.8041826 -2.8625882 -1.7023233 4.2847195
-0.9653678 -1.7239923 -1.0580629 -2.1978617 1.9174358 1.945734 -2.3106856 -2.0807304
-2.9564042 1.0604218 -1.186271 -1.2879992 1.622812 1.0235815 -2.6732602 -0.60100126
3.6488683 2.4414296 -5.012442 3.4997244 -1.6984606 0.48424265 -4.6004524 -2.5062656
-0.9900289 -1.6066836 -2.2561615 -0.75856066 -1.350762 -3.282769 -2.4723253 4.8782234
-2.3053303 -3.8171854 2.4334953 -0.10553388 -1.8104694 -1.8415128 -1.933784 -2.4378235
-3.669148 -2.1114883 2.006649 1.6723652 -1.2176813 -2.4296002 -1.2257731 3.501594
0.88937837 -1.6556357 -0.5669571 -3.490931 -3.6629522 -2.8011608 -0.0028499893 2.2127464
-2.8353672 -1.2361567 0.95790285 -1.9277546 4.017227 -2.1385741 -2.537287 -0.7808219
-3.7281222 -5.132876 0.29430342 -2.1949475 2.4290054 -4.2874355 -1.5815184 -0.21988481
-1.775752 -3.893097 -2.5272803 1.4166383 -3.7932754 2.1675262 0.00025008802 -2.7544823
-1.586943 -3.845972 -2.8375173 -2.426615 -2.633437 -1.7602804 -6.2927113 -0.94095063
-0.9136414 -0.6229042 -2.8738554 1.3169688 -1.4041151 -1.4961612 -1.0416296 -1.5506334
-0.5454916 -3.9711673 -1.2004175 -2.9467602 -0.47623873 -0.20337342 -2.477047 -4.1521072
-2.1192155 3.724519 -1.6482335 -0.4112096 0.5861673 -0.21776882 -2.3353274 -0.7206809
-2.6053476 -2.41503 -1.7644752 0.12708788 4.2946877 3.7691193 4.2947297 -2.8844268
-1.3417011 -2.4946926 -3.1048965 -2.5789897 -1.4851575 -0.9664471 -3.7708368 3.107373
0.07959034 3.2018368 0.47647524 1.3714584 -4.1491823 2.1834497 -2.0777402 -3.117493
-1.5935389 -1.196651 -2.8896542 -3.5852911 0.08574935 1.408366 0.09508583 -2.0341225
0.103851184 -3.252742 3.2490077 -0.8505929 1.8210446 -4.5767913 -1.3422276 -3.6635175
-2.6698415 0.7822269 -2.6811674 -0.73696715 -1.7737615 2.7512205 -1.4085143 0.94892764
2.29381 -2.5820663 1.5646212 -1.0186176 -2.3474402 -1.0380352 -2.205826 -1.5103068
-3.787338 -0.12841125 -3.8438454 -3.1621008 -0.9999171 -1.1184367 -1.6568657 -0.19723317
-0.045200787 -1.9029052 2.22149 -1.666015 -1.537909 -2.1357663 -1.8025755 -1.5231068
-2.6622863 -0.47805518 0.4250369 -2.8052394 0.09986682 -2.1207478 -1.55171 0.9295399
00000000: 7cba 43c0 50b6 03be 88a1 363f 2415 87c0
00000010: 606a 50c0 38e7 f2bf b53c 9f40 de9b 73bf
00000020: 1b9e b8bf 4e46 6540 228c b240 a13f 0ac0
00000030: e71c 3ec0 8cb3 97c0 a912 a6bf bc1b 8fc0
00000040: 68ae 41bf 7a85 66c0 a7e7 0dc0 dc4c a8bf
00000050: 4529 203f 0145 4340 d32c 42bf b4db 8c40
00000060: 8bdf 8740 846e 4040 b165 7340 c146 17bf
00000070: 860d 00c0 899d 17bf 650e 47c0 9771 abbf
00000080: dffa f3bf 08f8 5a40 2637 9cc0 a667 5cc0
00000090: ef3b 3440 3bdd adbf ac6f e9be c2b5 7dc0
000000a0: 8ad6 8c40 d460 4dc0 5655 91c0 4839 e6bf
000000b0: 924e 38c0 c6de 0bc0 7d8c 923f 61f9 79bf
000000c0: 8464 dc3e 2cf9 5cbf 9f2b 0540 59ff d5bd
000000d0: 35c9 34c0 fc54 e9bf 430a cabf 7532 e6bf
000000e0: 3907 6cbf f810 6640 8122 89bf a9c1 8fbf
000000f0: 75ef e63f a534 37c0 bbe5 d9bf 6c1c 8940
00000100: 5822 77bf c8ab dcbf 9b6e 87bf c4a9 0cc0
00000110: 896e f53f d00d f93f 46e2 13c0 b02a 05c0
00000120: ba35 3dc0 e7bb 873f bad7 97bf 28dd a4bf
00000130: 4eb8 cf3f b804 833f b216 2bc0 38db 19bf
00000140: 0f87 6940 6240 1c40 ed65 a0c0 7cfb 5f40
00000150: 2867 d9bf a7ee f73e e836 93c0 a866 20c0
00000160: 8972 7dbf cfa7 cdbf f364 10c0 0831 42bf
00000170: c5e5 acbf e318 52c0 943a 1ec0 681a 9c40
00000180: 888a 13c0 c44c 74c0 63be 1b40 2622 d8bd
00000190: 76bd e7bf b1b6 ebbf 3c86 f7bf 4d05 1cc0
000001a0: 52d3 6ac0 a022 07c0 f06c 0040 1010 d63f
000001b0: fbdc 9bbf 927e 1bc0 22e6 9cbf 1e1a 6040
000001c0: 4dae 633f dfeb d3bf 1a24 11bf 6a6b 5fc0
000001d0: cf6d 6ac0 3846 33c0 e3c6 3abb a39d 0d40
000001e0: a876 35c0 623a 9ebf 1f39 753f aac0 f6bf
000001f0: 208d 8040 66de 08c0 e962 22c0 f2e3 47bf
00000200: 8e99 6ec0 8540 a4c0 f0ae 963e 057a 0cc0
00000210: d374 1b40 ac32 89c0 326f cabf 7c29 61be
00000220: d74b e3bf 8028 79c0 f6be 21c0 6754 b53f
00000230: 06c5 72c0 c0b8 0a40 3f1e 8339 7049 30c0
00000240: f320 cbbf 6824 76c0 e299 35c0 a94d 1bc0
00000250: 3b8a 28c0 de50 e1bf e45d c9c0 24e2 70bf
00000260: 67e4 69bf a676 1fbf 3fed 37c0 6f92 a83f
00000270: 0bba b3bf 3682 bfbf 1e54 85bf 287b c6bf
00000280: 56a5 0bbf 9b27 7ec0 48a7 99bf b897 3cc0
00000290: 90d5 f3be 1f41 50be f087 1ec0 10de 84c0
000002a0: 3aa1 07c0 855e 6e40 51f9 d2bf 118a d2be
000002b0: 0f0f 163f cafe 5ebe 0176 15c0 8b7e 38bf
000002c0: 04be 26c0 da8f 1ac0 53da e1bf 5323 023e
000002d0: 156e 8940 4039 7140 6d6e 8940 739a 38c0
000002e0: ddbc abbf 0ba9 1fc0 a0b6 46c0 2b0e 25c0
000002f0: a419 bebf 1469 77bf 6455 71c0 33df 4640
00000300: 4300 a33d e5ea 4c40 90f4 f33e f38b af3f
00000310: 1ac6 84c0 a4bd 0b40 b2f9 04c0 0185 47c0
00000320: 15f9 cbbf dc2b 99bf 18f0 38c0 6975 65c0
00000330: 5b9d af3d 5645 b43f 5cbc c23d 102f 02c0
00000340: eeaf d43d ed2c 50c0 beef 4f40 75c0 59bf
00000350: fd17 e93f 1375 92c0 1dce abbf 1277 6ac0
00000360: afde 2ac0 0640 483f 3f98 2bc0 e1a9 3cbf
00000370: 9e0a e3bf ff13 3040 324a b4bf ecec 723f
00000380: c8cd 1240 9340 25c0 8245 c83f 1062 82bf
00000390: 763c 16c0 56de 84bf 412c 0dc0 bc51 c1bf
000003a0: bf63 72c0 3d7e 03be 9001 76c0 dc5f 4ac0
000003b0: 91fa 7fbf ef28 8fbf 2d14 d4bf 7ef7 49be
000003c0: 7624 39bd 6692 f3bf e42c 0e40 fb3f d5bf
000003d0: 34da c4bf 65b0 08c0 cbba e6bf 2af5 c2bf
000003e0: e662 2ac0 a6c3 f4be 709e d93e 0b89 33c0
000003f0: fa86 cc3d 55ba 07c0 6f9e c6bf 54f6 6d3f
