data/PPO/HalfCheetah-v2/ppo_s2032/pyt_save/model.pt (torch_old, 574892 bytes, 12 tensors)

log_std f4 [6]
0	0xc0248f8f	-2.5712621
1	0xc0239c63	-2.55642
2	0xc024c439	-2.5744765
3	0xc02ea613	-2.7288864
4	0xc029f876	-2.6557899
5	0xc0276a00	-2.6158447

weight f4 [256, 17]
0	0xbdde6015	-0.1085817
1	0x3e84e28d	0.25954095
2	0x3de70992	0.11281122
3	0x3ebe3cf7	0.37155887
4	0xbe2da13e	-0.1695604
5	0x3d08bb1c	0.033381566
6	0x3edb188b	0.42792162
7	0x3d83c74f	0.064344995
8	0x3ddffe88	0.1093722
9	0xbaf800c8	-0.0018921131
10	0x3dff6f80	0.12472439
11	0x3e45b8bc	0.19308752
12	0x3d2afa25	0.041742463
13	0xbe3233b4	-0.17402536
14	0xbe4f9577	-0.2027186
15	0xbe08b7ae	-0.13351318
16	0x3e22037b	0.1582164
17	0xbe6b8cd6	-0.23002943
18	0x3d97a673	0.074047945
19	0x3e3f6b1f	0.18693207
20	0xbe8f9618	-0.280442
21	0x3e08de62	0.13366082
22	0xbdb601c4	-0.088870555
23	0x3df5ebbf	0.120078556
24	0x3ddbb788	0.10728365
25	0x3b1218cc	0.0022292612
26	0xbe86ac5e	-0.2630338
27	0xbe6fff3f	-0.23437212
28	0x3eb44aee	0.35213417
29	0xbd8ff26a	-0.07028659
30	0x3d6e5445	0.058185834
31	0xbb3d3227	-0.0028869004
32	0x3e7380d2	0.2377961
33	0xbd8bce70	-0.06826484
34	0xbe22ec91	-0.15910555
35	0xbd649fc9	-0.055816445
36	0x3b1c365b	0.002383611
37	0x3d3f237b	0.046664696
38	0xbd811e79	-0.0630464
39	0xbec016b9	-0.37517336
40	0xbe2412cf	-0.160228
41	0x3e6a4dda	0.2288126
42	0x3e42e3b4	0.19032174
43	0xbe5c2781	-0.21499445
44	0xbd5c402d	-0.05377214
45	0xbe093914	-0.1340068
46	0xbe2b817c	-0.16748613
47	0xbdefcdea	-0.11709197
48	0xbdbd2333	-0.09235229
49	0x3dd172ba	0.102269605
50	0x3e31f468	0.1737839
51	0x3eb8c984	0.36091244
52	0x3e233ae2	0.15940431
53	0xbee04f8d	-0.43810692
54	0x3d8acee4	0.067777425
55	0xbe85cdd5	-0.261336
56	0xbd50e41f	-0.050998803
57	0xbdc0588a	-0.093918875
58	0x3e78b5e6	0.24288139
59	0x3e1d0da0	0.15337229
60	0x3e22c73a	0.15896311
61	0xbe431043	-0.19049172
62	0xbbc25117	-0.005930077
63	0x3dae8815	0.08522049
64	0xbd84bca3	-0.06481292
65	0x3db92819	0.09040851
66	0x3eabf201	0.33583072
67	0xbe0049bd	-0.12528129
68	0xbc74b680	-0.0149360895
69	0x3b033532	0.002002072
70	0xbd429e37	-0.047514167
71	0x3dcb9941	0.0994134
72	0xbe097249	-0.13422503
73	0xbd1e799b	-0.03869019
74	0x3e7c6dbc	0.24651235
75	0xbd5eda57	-0.054407444
76	0xbe679369	-0.22614826
77	0x3cf49ff2	0.029861424
78	0xbe357fd3	-0.17724542
79	0x3e1f430c	0.1555292
80	0xbea77a63	-0.3271056
81	0x3db04e58	0.08608693
82	0x3e1abcc1	0.15111066
83	0xbbdd9d37	-0.0067631262
84	0x3dd5210c	0.10406694
85	0xbe43455e	-0.1906943
86	0x3ea78dda	0.32725412
87	0x3dd41fff	0.10357665
88	0x3dc62363	0.09674718
89	0x3e69dc19	0.22837867
90	0xbe980828	-0.29693723
91	0x3cab9de3	0.02094931
92	0xbe97062f	-0.29496905
93	0x3ea48230	0.32130575
94	0x3dbb9551	0.09159339
95	0xbdbdfdd2	-0.09276928
96	0x3e5aba35	0.21360095
97	0xbeaa65a5	-0.33280674
98	0xbd980f95	-0.07424847
99	0xbd804e38	-0.06264919
100	0xbe199c9b	-0.15001146
101	0x3c1ce949	0.009577104
102	0x3d5f48dd	0.054512847
103	0x3e4ece90	0.20195985
104	0x3e34bb6d	0.17649622
105	0x3d5a4940	0.053292513
106	0x3deb88a4	0.115006715
107	0xbdf88135	-0.12134019
108	0xbc639334	-0.013890076
109	0xbe58f16e	-0.21185848
110	0xbc0fd799	-0.00877943
111	0x3c32035a	0.010865057
112	0x3e34e309	0.17664732
113	0xbe7736cb	-0.24141996
114	0x3e5b6d39	0.21428384
115	0xbe003ca8	-0.12523139
116	0x3acb0845	0.0015490135
117	0x3e611231	0.21979596
118	0xbe45fa0e	-0.1933367
119	0xbc6f18a1	-0.014593274
120	0xbdcd02e1	-0.10010315
121	0xbe5326d4	-0.2062028
122	0xbe54462c	-0.20729893
123	0xbd8c38d7	-0.06846779
124	0xbe746761	-0.23867561
125	0x3dc640e1	0.096803434
126	0xbea488b2	-0.3213554
127	0x3dfc070b	0.12306031
128	0x3e6997a0	0.22811747
129	0x3de56ac9	0.11202008
130	0x3dd37d2a	0.103266075
131	0xbe04e521	-0.1297803
132	0x3d3af0e2	0.04563988
133	0x3cdc7677	0.026911957
134	0x3e8ffbdf	0.2812185
135	0xbd9b7a90	-0.07591736
136	0x3e7ad602	0.244957
137	0xbea2159c	-0.31657112
138	0x3e94360b	0.28947482
139	0x3e104036	0.14086995
140	0x3d5309a1	0.051522855
141	0x3e4b74fb	0.19868843
142	0xbc125298	-0.008930825
143	0x3e58e81a	0.2118229
144	0xbebd3770	-0.36956358
145	0xbd8611ad	-0.0654634
146	0x3e95becd	0.29247132
147	0xbe215c7a	-0.15757933
148	0xbc933598	-0.017969891
149	0xbd0dc444	-0.034611
150	0xbde06dc4	-0.10958436
151	0x3c54a8f7	0.0129797375
152	0xbe852655	-0.26005808
153	0x3e83cfcf	0.25744483
154	0xbee78f58	-0.4522655
155	0x3eea73ea	0.4579156
156	0x3e3ecae4	0.18632084
157	0xbd0fbae9	-0.03509036
158	0xbcfd0118	-0.03088431
159	0xbe250c16	-0.16117892
160	0xbddea4d4	-0.10871282
161	0xbd8a4859	-0.067520805
162	0xbe77a0ad	-0.24182387
163	0xbe644038	-0.22290123
164	0xbe357541	-0.1772051
165	0xbe5c9b0f	-0.21543525
166	0xbc290d0a	-0.01031805
167	0x3dd27a8f	0.102772824
168	0xbd8e2365	-0.06940345
169	0x3d17954a	0.037007608
170	0xbdbda59f	-0.09260105
171	0x3e3468c3	0.17618088
172	0xbd9a1ad8	-0.07524651
173	0x3e0cec17	0.13761936
174	0xbed341be	-0.41261095
175	0x3ea655c2	0.32487303
176	0xbeef5042	-0.4674092
177	0xbf0a1b74	-0.5394814
178	0x3d0d4fa8	0.034499794
179	0x3de0179e	0.109420046
180	0xbeadeba8	-0.33968854
181	0x3ddebb26	0.108755395
182	0xbdba3a97	-0.090932064
183	0x3de40093	0.11132922
184	0xbdc3f983	-0.09569075
185	0xbe448a75	-0.19193442
186	0xbe367848	-0.17819321
187	0x3e69495e	0.22781894
188	0xbe54f894	-0.2079795
189	0x3dc0cbef	0.09413897
190	0x3e064ad0	0.13114476
191	0xbe75d59e	-0.2400727
192	0xbe15ad09	-0.14616789
193	0x3b1f46ca	0.0024303668
194	0x3cc75bd2	0.024335776
195	0xbe3e404a	-0.18579212
196	0xbe2666b6	-0.16250119
197	0x3d7437e2	0.059623607
198	0x3e8fe73c	0.28106105
199	0xbd585e08	-0.05282405
200	0x3e431490	0.19050813
201	0xbd193ad6	-0.037409626
202	0xbe990a2b	-0.2989057
203	0x3e305e12	0.17223385
204	0xbd0ee6e6	-0.03488817
205	0x3e519d7f	0.20470236
206	0xbb38e082	-0.002820999
207	0xbed8c1db	-0.423354
208	0x3ec36060	0.38159466
209	0xbe06a0df	-0.13147305
210	0x3d95e7d4	0.07319608
211	0x3d5bab00	0.053629875
212	0xbe70d625	-0.2351919
213	0x3e8c849a	0.27444917
214	0x3e517f3a	0.2045869
215	0x3dfb5a3d	0.12273071
216	0xbe42743f	-0.18989657
217	0x3e67a7b2	0.22622564
218	0xbd528963	-0.051400553
219	0xbe0ae521	-0.13563968
220	0xbd04f202	-0.03245736
221	0x3ed57803	0.41693124
222	0x3d5eea57	0.054422703
223	0xbe395dfe	-0.18102261
224	0xbee9e5a1	-0.45683005
225	0x3e7a2707	0.2442895
226	0xbe2f9d55	-0.17149861
227	0x3d8e75b3	0.06956043
228	0x3cfa28ef	0.030537097
229	0xbe65923b	-0.22419064
230	0xbea50f9d	-0.32238474
231	0xbddf132b	-0.10892328
232	0xbcb97867	-0.02264042
233	0x3b0f268d	0.0021843046
234	0x3e0262ad	0.12732954
235	0xbdb5c67d	-0.08875749
236	0xbe3716b8	-0.1787976
237	0x3ca5a569	0.020220475
238	0xbe8efe13	-0.27928218
239	0xbed99d2c	-0.42502725
240	0x3e4ae452	0.1981366
241	0x3dec02b5	0.11523954
242	0xbe3144a4	-0.1731134
243	0x3c889a67	0.016675187
244	0xbe892991	-0.26789525
245	0xbdf3900e	-0.118927106
246	0x3d8c56b8	0.06852478
247	0xbe054c50	-0.13017392
248	0x3d9e8f55	0.07742182
249	0xbd8f69f3	-0.0700263
250	0xbd907108	-0.07052809
251	0xbc3d6bfc	-0.01156139
252	0xbe66c1e4	-0.22534901
253	0xbe376f7a	-0.17913619
254	0x3e4af3f2	0.1981962
255	0x3e4043a8	0.18775809

bias f4 [256]
0	0x3e1e9c03	0.15489201
1	0x3e08caaa	0.1335856
2	0x3e1b49c6	0.15164861
3	0xbef364e7	-0.4753792
4	0x3da4558f	0.080241315
5	0xbdc002cc	-0.093755335
6	0x3cb264d5	0.021776596
7	0x3e3122f2	0.17298487
8	0x3d234042	0.039856203
9	0xbe83d15c	-0.25745666
10	0x3d893056	0.066986725
11	0xbed70626	-0.41996878
12	0x3ea07b5a	0.3134411
13	0xbecafe25	-0.39647022
14	0x3e62b86a	0.22140661
15	0x3dec2258	0.11529988
16	0xbe51e6e0	-0.20498228
17	0xbdfa4166	-0.12219505
18	0x3e1c75c0	0.15279293
19	0xbef25bd7	-0.47335693
20	0xbc70ceeb	-0.014697771
21	0xbe387e6d	-0.18016978
22	0xbe844d0a	-0.25840026
23	0x3d8f2b2b	0.069906555
24	0x3df1a9bd	0.11799953
25	0x3e430334	0.1904419
26	0x3d245387	0.04011872
27	0xbe50c083	-0.20385937
28	0x3ea2f3e9	0.31826714
29	0xbe6c05fb	-0.23049156
30	0xbe3d7927	-0.18503247
31	0xbdc01cd9	-0.09380502
32	0xbe8755c2	-0.26432616
33	0xbe83fb27	-0.25777552
34	0xbe0a3b10	-0.13499093
35	0xbb87b4a2	-0.004141406
36	0xbabd0d3c	-0.00144235
37	0xbd9cd40a	-0.07657631
38	0x3e1500a0	0.1455102
39	0xbe10aa9a	-0.1412758
40	0x3dc2dbdd	0.09514592
41	0x3e358f44	0.17730433
42	0xbd3cbaf8	-0.046076745
43	0x3e96b202	0.29432684
44	0x3e471b4b	0.19444005
45	0x3da4ccd1	0.08046878
46	0xbdb2fee3	-0.08740022
47	0x3db4524d	0.0880476
48	0x3ea65d73	0.3249317
49	0xbe82abe9	-0.25521782
50	0xbd92b5fe	-0.071636185
51	0xbe167bc9	-0.14695658
52	0xbe55a181	-0.2086239
53	0xbefa7627	-0.48918268
54	0x3ebed82b	0.37274298
55	0x3e42a0fb	0.19006722
56	0xbec16387	-0.37771246
57	0xbc8aad8f	-0.016928462
58	0x3ed94a2c	0.424394
59	0x3dba4172	0.09094514
60	0xbea830cc	-0.3284973
61	0xbe01fd85	-0.12694366
62	0xbe32aa02	-0.17447665
63	0xbce8210d	-0.028336072
64	0xbd759ad0	-0.059962094
65	0xbe80b02c	-0.25134408
66	0xbe83698a	-0.25666457
67	0xbbd540a0	-0.006507948
68	0x3de84a5a	0.113423064
69	0xbe8fd572	-0.28092533
70	0x3e58a26d	0.2115571
71	0xbd8111d9	-0.06302232
72	0xbd86ff71	-0.0659169
73	0xbdd6b496	-0.10483663
74	0xbd4b3f74	-0.04962106
75	0xbdf6b976	-0.120470926
76	0xbde850b0	-0.11343515
77	0xbdced3db	-0.10099002
78	0x3d5650e7	0.05232325
79	0xbd833fb6	-0.06408636
80	0xbe02fd60	-0.12791967
81	0x3e760630	0.24025798
82	0x3dcecbdd	0.100974776
83	0x3d28c7f8	0.04120633
84	0xba99025d	-0.0011673678
85	0xbb704a1a	-0.0036665262
86	0x3e915488	0.28384805
87	0xbdceba83	-0.10094168
88	0x3e9ab0e3	0.3021308
89	0x3c868b41	0.016423823
90	0x3e2e5e37	0.17028128
91	0x3d42d1a7	0.04756322
92	0xbe1997af	-0.14999269
93	0x3df85747	0.12126022
94	0x3cac4f14	0.021033801
95	0xbe0d7502	-0.13814166
96	0x3e733c07	0.23753367
97	0xbef434a6	-0.47696418
98	0xbc047e71	-0.008086787
99	0x3eb133d7	0.34609863
100	0x3e28747b	0.16450684
101	0x3ea45d80	0.32102585
102	0xbdea8292	-0.114506856
103	0xbdee07dd	-0.116225936
104	0xbcb1a513	-0.021685159
105	0xbe69a355	-0.22816212
106	0x3e6e3e35	0.23265918
107	0x3dd752fc	0.10513875
108	0xbe2a9aee	-0.16660663
109	0x3d7c9278	0.06166312
110	0xbded8404	-0.115974456
111	0x3edb72d0	0.42861032
112	0xbe8f6111	-0.28003743
113	0x3e54a38f	0.20765518
114	0xbdc67ddd	-0.09691975
115	0xbe65a777	-0.22427164
116	0xbe40d86f	-0.18832563
117	0xbdf4b583	-0.11948683
118	0xbd87daa2	-0.06633498
119	0xbe9958ef	-0.29950663
120	0x3e21108a	0.15728965
121	0x3c9a75a1	0.018854918
122	0x3e805361	0.25063613
123	0x3e5e49ec	0.21707886
124	0xbe1f174a	-0.15536228
125	0x3ea258c3	0.31708345
126	0x3d3e04a6	0.04639115
127	0x3de811f2	0.11331548
128	0xbeeff811	-0.46868947
129	0x3e455dee	0.19274113
130	0x3e4327e4	0.19058186
131	0xbd9c954a	-0.07645662
132	0xbdf43601	-0.11924363
133	0x3cf91348	0.030404702
134	0xbde19444	-0.110146075
135	0xbd90b78e	-0.0706626
136	0x3d5eb059	0.054367397
137	0xbd8d9a7a	-0.0691423
138	0x3e498726	0.19680461
139	0xbe6f873e	-0.23391435
140	0xbda3e5fb	-0.0800285
141	0x3d4990f9	0.049210522
142	0xbdcdaaae	-0.1004232
143	0xbda85be9	-0.082206555
144	0x3db23c4b	0.08702906
145	0x3d6b752f	0.0574848
146	0xbe1195c3	-0.14217286
147	0xbc915dcc	-0.017744921
148	0xbddc229a	-0.10748787
149	0xbde96920	-0.11397004
150	0xbeb2dfc8	-0.34936357
151	0x3dd2177c	0.102583855
152	0xbc3df27f	-0.01159346
153	0xbd0851e1	-0.03328121
154	0xbc32cadf	-0.010912626
155	0xbe3a658a	-0.18202797
156	0x3e61a3cb	0.22035138
157	0x3eaf6136	0.34253854
158	0xbe8a5c4b	-0.2702354
159	0x3cfb658d	0.030688072
160	0x3eb44dd9	0.35215643
161	0x3d78088d	0.06055503
162	0x3e2c6a40	0.16837406
163	0x3e2b16b7	0.16707884
164	0x3e80c8f8	0.25153327
165	0x3b01198b	0.0019699063
166	0x3e054d0d	0.13017674
167	0x3e8d66b4	0.2761742
168	0xbec8042a	-0.39065677
169	0xbe5962ad	-0.21229048
170	0x3ca2ecff	0.0198884
171	0x3d8da8e5	0.0691698
172	0x3e0c45b0	0.13698459
173	0x3e1bce66	0.15215454
174	0xbe9abf4e	-0.3022408
175	0xbe5440f8	-0.20727909
176	0x3e976f64	0.29577172
177	0x3ed377c4	0.4130231
178	0x3e23e62d	0.16005774
179	0xbdb6b6fc	-0.0892162
180	0x3ea3c1d8	0.3198383
181	0xbe90aa33	-0.28254852
182	0xbe064743	-0.13113122
183	0x3ea5c225	0.32374683
184	0xbe5245f5	-0.20534499
185	0x3e621f4c	0.22082251
186	0x3ebe09ed	0.37116948
187	0xbcac9e48	-0.021071568
188	0x3e38f61b	0.18062632
189	0xbedfa8f7	-0.43683597
190	0xbe0bf89d	-0.13669057
191	0x3e8a6d0f	0.2703633
192	0xbc9bcb83	-0.01901794
193	0xbcbd517b	-0.023110142
194	0xbe8cdc42	-0.27511793
195	0x3e9a4fcd	0.30139008
196	0xbc8d0774	-0.017215468
197	0xbe1b7ac8	-0.15183556
198	0x3e8dd17c	0.27698886
199	0x3c2e6a93	0.010645526
200	0x3e377ce1	0.17918731
201	0x3e1689b7	0.14700972
202	0x3e20851b	0.15675776
203	0xbec31c3b	-0.38107476
204	0x3dcac3a5	0.099005975
205	0xbe3e6c45	-0.18595989
206	0x3ea3eded	0.3201746
207	0x3d36d677	0.044638123
208	0x3d38acd0	0.04508668
209	0x3df161d5	0.11786238
210	0xbdbb9d43	-0.09160855
211	0x3ebb6451	0.36599973
212	0xbdf0f311	-0.11765111
213	0xbe9cb753	-0.30608615
214	0xbde5f68e	-0.11228667
215	0x3d0545a7	0.03253713
216	0xbebbb797	-0.36663505
217	0xbdc5634d	-0.09638081
218	0x3e506521	0.20351078
219	0xbe20f87f	-0.15719794
220	0xbdceb9d3	-0.10094037
221	0xbe650348	-0.22364533
222	0x3cf67b06	0.030087959
223	0x3e4454ca	0.1917297
224	0xbe626bc2	-0.22111419
225	0xbdb95cef	-0.09050929
226	0x3dc56858	0.096390426
227	0xbda54d9a	-0.08071442
228	0xbe77f90b	-0.24216096
229	0x3e010495	0.12599404
230	0x3e80450c	0.2505268
231	0x3e8f71ae	0.28016418
232	0xbe8fe780	-0.28106308
233	0xbd184d63	-0.037183177
234	0xbe380040	-0.17968845
235	0xbe3032c2	-0.17206863
236	0xbda60e3d	-0.081081845
237	0x3e7ca7f8	0.2467345
238	0x3e4c9f2e	0.19982597
239	0x3e90fe76	0.28319138
240	0xbd05d70a	-0.03267578
241	0xbeec7c87	-0.46188757
242	0xbe41b553	-0.18916826
243	0x3ec9fca7	0.3945057
244	0x3d27ff0b	0.041014712
245	0xbca498e2	-0.020092431
246	0xbe21fb88	-0.15818608
247	0x3e19b42e	0.1501014
248	0xbe7ca0c1	-0.24670698
249	0xbdcc33b8	-0.09970802
250	0xbeca4d58	-0.39512134
251	0xbcdbcd7f	-0.026831387
252	0xbd12fd2b	-0.03588597
253	0xbdb8a9ee	-0.090167865
254	0xbe3178f9	-0.17331304
255	0xbe96e54f	-0.29471824

weight f4 [256, 256]
0	0x3d2cea0a	0.042215385
1	0x3d9a8701	0.07545281
2	0xbd830beb	-0.063987575
3	0x3c8d34b0	0.017237037
4	0xbd3d1b51	-0.04616863
5	0xbce330ae	-0.027733173
6	0xbd48eef3	-0.049056005
7	0xbd07d11d	-0.03315841
8	0x3dc0e6bb	0.09419008
9	0x3cd31005	0.025764475
10	0xbd6acf31	-0.0573265
11	0x3d822990	0.06355584
12	0x3b084c19	0.002079731
13	0x3cf99211	0.030465158
14	0xbbb0fd11	-0.0054012616
15	0x3dcb3ed5	0.09924094
16	0xbb39f54c	-0.0028374968
17	0x3d577d51	0.052609745
18	0x3be65d3e	0.0070301583
19	0xbd5b80d6	-0.053589664
20	0xbce3452a	-0.027742941
21	0xbcec01c0	-0.028809428
22	0x3d99d6c9	0.0751167
23	0x3d94f0b2	0.072724715
24	0x3ce9c901	0.028538229
25	0x3e076e44	0.13225657
26	0x3b31b369	0.0027114993
27	0x3d86088a	0.065445974
28	0xbc497f49	-0.012298414
29	0xbceec6c0	-0.029147506
30	0x3d08b86c	0.033379003
31	0xbc85167c	-0.016246073
32	0x3ce819cd	0.028332615
33	0x3d88bf47	0.06677108
34	0xbbb67d1c	-0.0055691134
35	0xbda0e019	-0.07855243
36	0x3c4287bc	0.011873182
37	0xbd137c2f	-0.036007103
38	0xbbd0ad1d	-0.006368293
39	0xbd52e57f	-0.051488396
40	0x3dac4114	0.0841085
41	0xbdc6bedf	-0.097043745
42	0xbb414c97	-0.0029495114
43	0xbbedfcb8	-0.0072627924
44	0xbd5bbb11	-0.053645197
45	0xbd40ec6c	-0.04710047
46	0xbdd66fea	-0.10470565
47	0x3d162df5	0.03666492
48	0xbc2ecc99	-0.010668897
49	0xbd499c98	-0.049221605
50	0x3cb692fe	0.022286888
51	0xbd07b1b9	-0.033128474
52	0xbc7553ca	-0.01497359
53	0xbd1f8fe7	-0.038955595
54	0xbcae9d4b	-0.021315238
55	0x3cc3a9bf	0.023884652
56	0x3a838592	0.0010034314
57	0x3cbfd129	0.023415165
58	0x3c14550f	0.009053483
59	0xbc8b5f79	-0.017013298
60	0x3d6ef44e	0.058338456
61	0xbd09d005	-0.03364565
62	0x3d52d861	0.051475886
63	0xbd0ba76f	-0.034095224
64	0x3d24e0d2	0.040253468
65	0x3c149a03	0.009069922
66	0xbd884fa1	-0.06655813
67	0x3da7bf3c	0.08190772
68	0x3dc5fe84	0.09667686
69	0x3b0537be	0.0020327414
70	0x3d2b64b5	0.04184409
71	0x3cd4e442	0.025987748
72	0xbccec272	-0.025239203
73	0xbceccd44	-0.028906472
74	0x3d1e772a	0.038687862
75	0x3bc7d28d	0.0060980977
76	0xbd2c1df1	-0.04202074
77	0xbb9c4f3d	-0.004770188
78	0xbd1f427f	-0.038881775
79	0x3c9d5887	0.019207252
80	0xbd8ad569	-0.06778986
81	0x3d79c8aa	0.060982384
82	0x3dabf96d	0.083971836
83	0x3bbf65c9	0.005840991
84	0x3e18fc7b	0.14940064
85	0xbd260a80	-0.040537357
86	0xbc994e97	-0.018714232
87	0xba6179f6	-0.00086012424
88	0x3baad212	0.0052130306
89	0x3bc746a4	0.006081419
90	0x3d4cafe3	0.049972426
91	0xbcfd139d	-0.030893141
92	0xbb6a6229	-0.0035764074
93	0x3dc979e9	0.09837706
94	0x3d168928	0.036751896
95	0xbd607ae4	-0.054804698
96	0x39b136ff	0.00033801046
97	0xbd471777	-0.048606362
98	0x3c002e47	0.007823533
99	0x3d72bc96	0.05926188
100	0xbd9e6145	-0.077333964
101	0x3d4d6c4d	0.05015211
102	0xbbb030e1	-0.0053769206
103	0xbc657224	-0.014004264
104	0xbd06b915	-0.03289135
105	0xbd856981	-0.06514264
106	0xbd95a77b	-0.07307335
107	0xbc6751c8	-0.014118619
108	0xbc6e71af	-0.0145534715
109	0x3cd5e83e	0.026111718
110	0x3d0f78e5	0.035027403
111	0xbd4905c5	-0.049077768
112	0xbd9cd54b	-0.0765787
113	0xbd7ad8f5	-0.061242063
114	0x3d0a9deb	0.03384201
115	0x3d41cb41	0.04731298
116	0x3c8306b5	0.01599441
117	0x3d0b44ec	0.034001276
118	0x3ccacef8	0.024756894
119	0xbd8e10f6	-0.06936829
120	0x3d15aad3	0.036539864
121	0x3c5115d4	0.012761552
122	0x3e184c83	0.14872937
123	0xbd3d7b91	-0.04626042
124	0xbc1fa687	-0.009744293
125	0x3be620eb	0.007022967
126	0xbce5dc43	-0.02805913
127	0xbd81395c	-0.063097686
128	0xbc7d74a4	-0.015469704
129	0xbd11862c	-0.035528347
130	0xbc0299bb	-0.0079712225
131	0x3c257b02	0.010100128
132	0xbdb623a7	-0.08893519
133	0xbd993827	-0.07481413
134	0x3cd446be	0.025912639
135	0xbdab3ca4	-0.08361176
136	0x3c395bd0	0.011313394
137	0xbcc3723a	-0.023858178
138	0x3c89f39e	0.016839799
139	0xbd640c81	-0.055675987
140	0x3c6ce8b7	0.01445978
141	0x3dc98b4f	0.09841024
142	0x3d25eee7	0.04051104
143	0xbc8efc1d	-0.017454201
144	0xbda413a5	-0.080115594
145	0x3db71679	0.08939833
146	0xbb52b558	-0.0032151546
147	0xbd7e1d12	-0.062039442
148	0x3d200cf7	0.039074864
149	0xbd79eac2	-0.061014898
150	0x3d9c9dfb	0.0764732
151	0xbd826647	-0.06367164
152	0x3cd5118b	0.026009342
153	0x3db3f7e6	0.08787517
154	0x3d5ff6b6	0.05467864
155	0x3e1b605e	0.1517348
156	0xbd24814d	-0.040162373
157	0x3de0eb98	0.10982436
158	0x3d7c264d	0.061559964
159	0xbb8aa68c	-0.0042312797
160	0x3d40bc7a	0.047054745
161	0x3d4c2ec6	0.049849294
162	0x3d89d883	0.067307495
163	0x3da94733	0.08265533
164	0x3d8a3ac9	0.06749494
165	0x3dabc3d2	0.08386959
166	0xbc7554c9	-0.014973828
167	0x3d389eea	0.045073427
168	0x3d094e33	0.033521842
169	0xbd872b25	-0.06600026
170	0x3dd69ce8	0.10479146
171	0x3d596b43	0.05308081
172	0x3d3f7339	0.046740744
173	0x3b60bfd3	0.0034294024
174	0x3dc4219c	0.09576723
175	0x3cdba7e9	0.026813464
176	0xbdc179c0	-0.0944705
177	0x3cb8b812	0.022548709
178	0xbc044836	-0.008073857
179	0x3d31ef7f	0.043441292
180	0x3c6d5bb1	0.014487193
181	0x3d56d4a1	0.052448872
182	0xbd29e0ae	-0.041474037
183	0x3ce35475	0.027750233
184	0xbd86eee1	-0.06588531
185	0xbc665c86	-0.014060145
186	0x3b8e7543	0.004347475
187	0xbd8e0672	-0.06934823
188	0x3d682c95	0.05668314
189	0x3cd70531	0.026247593
190	0xbe7c4259	-0.24634685
191	0x3b8587ce	0.004075027
192	0x3c9ee363	0.019395536
193	0xbd3563dd	-0.04428469
194	0xbdc0cfb2	-0.09414615
195	0xbd97eb98	-0.07417983
196	0x3c0cd89d	0.0085965665
197	0xbd3176f8	-0.043326348
198	0x3d7baa8c	0.061441943
199	0x3c2fe6ae	0.010736151
200	0xbca97543	-0.020685798
201	0x3b60168f	0.0034193133
202	0xbd4ab2bb	-0.049486857
203	0xbe1e88ec	-0.15481919
204	0xbcbca257	-0.023026628
205	0xbc5f2807	-0.013620383
206	0xb9977c23	-0.00028893453
207	0x3db14bd6	0.08657043
208	0x3d54d061	0.051956538
209	0xbda75b9f	-0.08171772
210	0xbccb1a00	-0.024792671
211	0xbc8905b5	-0.016726354
212	0x3d525b1b	0.051356416
213	0xbd19b6fc	-0.037528023
214	0xbc33fb7a	-0.01098525
215	0xbc7370a1	-0.014858396
216	0xbda84450	-0.082161546
217	0xbbe98db6	-0.007127489
218	0xbd7dcc0d	-0.061962176
219	0xbb266cff	-0.0025394557
220	0xbaeec732	-0.0018217324
221	0xbd489c3d	-0.048977125
222	0x3bf4107f	0.0074482556
223	0xbd96de54	-0.073666245
224	0xbd1b0d48	-0.037854463
225	0xbe112e07	-0.14177714
226	0xbceed37c	-0.029153578
227	0xbd97e1e1	-0.0741613
228	0x3dac977c	0.08427331
229	0xbd166d01	-0.036725048
230	0x3d342c47	0.04398754
231	0x3da9bca6	0.08287935
232	0xbc3bcaad	-0.011461896
233	0x3cdbb27b	0.026818505
234	0xbdfbc5e8	-0.12293607
235	0xbd587a83	-0.05285121
236	0xbd014d0e	-0.031567626
237	0x3cddd421	0.02707869
238	0xbd10aac6	-0.035319112
239	0x3d8bafe4	0.06820658
240	0x3dbe31bb	0.09286829
241	0xbcaa97ab	-0.020824274
242	0xbdc053a8	-0.09390956
243	0x3d649d44	0.055814043
244	0xbdaaf0a3	-0.08346679
245	0xbc90619f	-0.017624674
246	0xbdf5b903	-0.11998179
247	0xbc2cbe4a	-0.010543415
248	0xbdc78872	-0.09742822
249	0xbd05c60e	-0.032659583
250	0xbe04c40c	-0.12965411
251	0x3db9b1d2	0.0906712
252	0x3d7871b2	0.060655303
253	0x3ace61b5	0.0015745672
254	0xbda2b894	-0.07945362
255	0x3be766df	0.0070618237

bias f4 [256]
0	0x3d93834e	0.07202779
1	0x3cdc2c42	0.026876573
2	0xbd51cc68	-0.051220328
3	0x3bdfddf6	0.0068318797
4	0x3e34d7f4	0.17660505
5	0xba726eb6	-0.00092480646
6	0x3e11988a	0.14218345
7	0x3c643402	0.013928415
8	0xbe0fc3b2	-0.14039496
9	0xbc0d8956	-0.0086387005
10	0xbcbe6118	-0.023239657
11	0x3e09eab3	0.13468437
12	0x3c90dd8a	0.017683763
13	0xbdc71877	-0.09721463
14	0xbdb4b3bd	-0.08823345
15	0xbd2a1c0c	-0.041530654
16	0xb9d3f9bf	-0.00040431131
17	0xbde1390e	-0.109972104
18	0xbcd39539	-0.02582799
19	0xbe2a0881	-0.16604806
20	0xbddfa308	-0.109197676
21	0x3dad69b4	0.08467427
22	0x3e421a8b	0.18955438
23	0x3ab063ed	0.0013457515
24	0xbcc5f4d6	-0.024164598
25	0xbdf1496b	-0.117815815
26	0xbdcd067c	-0.100110024
27	0xbc9fb753	-0.019496595
28	0xbd6f1e63	-0.05837859
29	0xbe081d64	-0.13292462
30	0x3d2aa3ec	0.041660234
31	0xbce88c6b	-0.028387269
32	0xbd883650	-0.06650984
33	0x3e0d3635	0.1379021
34	0xbd912356	-0.07086818
35	0xbc11ea7f	-0.008906006
36	0xbd29e7f6	-0.04148098
37	0xbbd39ef7	-0.006458159
38	0xbdce84cf	-0.10083925
39	0x3d51d6a1	0.051230077
40	0x3d0d3044	0.034469858
41	0x3b686c21	0.003546484
42	0x3e841ccc	0.2580322
43	0xbd4f1c4b	-0.05056409
44	0xbd01f05e	-0.031723373
45	0x3dfb0060	0.12255931
46	0x3d851af1	0.06499279
47	0x3ccd05c6	0.025027167
48	0x3c9f4cae	0.019445743
49	0xbd98dbdb	-0.07463809
50	0xbd18ebfd	-0.03733443
51	0x3cdd082f	0.026981441
52	0xbdf27484	-0.1183863
53	0xbdc23f08	-0.094846785
54	0x3dc3cc80	0.0956049
55	0x3d2d07fc	0.042243943
56	0x3db85bfa	0.09001918
57	0x3c8a004b	0.016845843
58	0xbd99cd57	-0.075098686
59	0x3d776bf1	0.060405675
60	0x3d255a18	0.040369123
61	0xbe0b2000	-0.13586426
62	0xbd66d0f7	-0.05635163
63	0x3da3d08e	0.07998763
64	0x3d02d4af	0.031941112
65	0xbe5011cd	-0.2031929
66	0xbda11e27	-0.07867079
67	0xbc1883a3	-0.009308728
68	0x3cf9b724	0.030482836
69	0x3c77313d	0.015087423
70	0xbd79600a	-0.060882606
71	0xbc8a59da	-0.016888548
72	0x3df25059	0.11831731
73	0xbc7e646d	-0.015526873
74	0xbd3acdb7	-0.04560634
75	0x3e8fa9cb	0.2805923
76	0xbd0dd44a	-0.034626283
77	0x3db1350e	0.086526975
78	0x3cca6159	0.024704622
79	0xbd83eb62	-0.0644138
80	0x3d42ac79	0.047527764
81	0x3d91d860	0.071213484
82	0xbd587f66	-0.05285587
83	0x3d1f0dc0	0.038831472
84	0xbc66bc1c	-0.014082935
85	0x3c82743e	0.01592457
86	0xbb99dcfa	-0.004695532
87	0xbd6a88a0	-0.057259202
88	0x3ce65396	0.028116029
89	0x3c879427	0.016550137
90	0x3df94677	0.12171643
91	0x3bcabbac	0.006186923
92	0x3d68bbd4	0.05681975
93	0xbd777016	-0.060409628
94	0x3d2acf1d	0.041701425
95	0x3d994b6c	0.07485089
96	0x3d99d6a7	0.07511645
97	0xbc2638db	-0.010145391
98	0x3bd55b15	0.006511102
99	0x3ddaf012	0.10690321
100	0xbcacaa56	-0.021077316
101	0x3d5926ab	0.053015392
102	0xbe0624a3	-0.13099913
103	0x3df19d40	0.11797571
104	0x3cf733c6	0.030176055
105	0xbe022020	-0.12707567
106	0xbd97f337	-0.074194364
107	0x3d9846bb	0.07435366
108	0x3d0b6afa	0.034037568
109	0xbac6fa43	-0.0015180785
110	0xb8d1f82e	-0.00010012124
111	0x3d9672d9	0.07346124
112	0xbde84ea8	-0.113431275
113	0xbda6e005	-0.08148197
114	0xbd9da0e0	-0.076967
115	0x3d54ab5c	0.051921234
116	0x3da3a268	0.07989961
117	0x3d60edec	0.0549144
118	0x3ce9ece5	0.028555343
119	0x3d190b35	0.037364203
120	0xbd4fad4d	-0.050702382
121	0xbe303f0a	-0.17211547
122	0xbdd04d40	-0.10170984
123	0xbd608052	-0.054809876
124	0xbdbffa64	-0.0937393
125	0x3ded9388	0.11600405
126	0x3e017c10	0.12644982
127	0x3d8f5954	0.0699946
128	0xbdbc3dfb	-0.09191509
129	0xbe3698d7	-0.17831741
130	0xbdca4638	-0.098766744
131	0x3d397511	0.04527766
132	0x3c7f236a	0.015572408
133	0x3e1448a7	0.1448084
134	0x3dc5dfdb	0.09661838
135	0xbd224cb4	-0.03962393
136	0x3c15d715	0.009145518
137	0x3d73073b	0.059333067
138	0xbccfd50c	-0.025370143
139	0x3dee91cc	0.11648902
140	0x3d789d9b	0.06069718
141	0x3dcff181	0.10153485
142	0x3cea8bca	0.02863111
143	0x3d16ea58	0.03684458
144	0x3de4bf9a	0.111693576
145	0x3cf37e5f	0.029723344
146	0x3d1d4b2c	0.038401768
147	0x3e0bc7c5	0.13650425
148	0xbcd4fab9	-0.02599846
149	0x3be406ff	0.006958842
150	0xbd938e61	-0.07204891
151	0xbd9cb558	-0.07651776
152	0xbc87a508	-0.016558185
153	0x3cc9559e	0.024576958
154	0xbbf6cbed	-0.007531634
155	0xbd99bb0d	-0.0750638
156	0xbd0f3fa5	-0.034972806
157	0xbc5d5622	-0.013509305
158	0x3c8a50ad	0.016884172
159	0x3c43c01f	0.011947661
160	0xbe239447	-0.15974532
161	0xbe62e48d	-0.22157498
162	0x3d9497aa	0.0725549
163	0xbdb4edd1	-0.088344224
164	0x3e1a2978	0.15054882
165	0x3c48ed51	0.012263612
166	0xbe2bb68c	-0.16768855
167	0xbd81f65f	-0.0634582
168	0x3cdf7aee	0.027280297
169	0x3cdd2295	0.026994029
170	0xbdc264e7	-0.09491902
171	0xbc2ce77c	-0.010553237
172	0xbd841516	-0.06449334
173	0x3daba6a3	0.08381393
174	0xbd5643df	-0.05231082
175	0xbd95c943	-0.07313778
176	0x3de34de7	0.11098843
177	0x3d0abb7a	0.033870198
178	0xbbecc9ed	-0.00722622
179	0x3ae0b582	0.0017143937
180	0x3c7a7d9e	0.0152887385
181	0xbd975b4d	-0.07390461
182	0xbdb7e693	-0.089795254
183	0x3c776b6a	0.015101293
184	0xbe21ca67	-0.15799867
185	0x3c59b1d5	0.013287027
186	0xbd12e9f1	-0.035867635
187	0x3d97a3e3	0.07404306
188	0x3ca097d8	0.019603655
189	0xbd8461e6	-0.06463985
190	0x3d9689af	0.0735048
191	0xbcdfdc1f	-0.027326642
192	0x3daa086b	0.08302387
193	0xbe3f0afe	-0.18656537
194	0xbd6f348c	-0.058399722
195	0xbda02f01	-0.07821465
196	0xbd3e1594	-0.046407297
197	0x3cf59b82	0.029981378
198	0x3db89aac	0.09013876
199	0xbe1b0951	-0.15140273
200	0xbe06e0c5	-0.1317168
201	0xbbff1414	-0.007784376
202	0x3c92fafb	0.017941942
203	0xbe2507c3	-0.16116242
204	0xbe8f6389	-0.28005627
205	0xbe3480d0	-0.17627263
206	0xbd684202	-0.056703575
207	0x3d6eda54	0.058313683
208	0x3c8e8670	0.01739809
209	0x3d20aa92	0.03922517
210	0xbe6cf3fd	-0.23139949
211	0x3bc27ee4	0.0059355367
212	0xbe32997f	-0.17441367
213	0x3d22d5bf	0.039754625
214	0x3e051e95	0.12999947
215	0x3d87ef84	0.06637481
216	0x3de45209	0.111484595
217	0xbc3947fc	-0.011308666
218	0x3dc5b5a4	0.09653786
219	0x3b80cb2c	0.00393047
220	0xbd1565e3	-0.03647412
221	0x3cd002dc	0.025391988
222	0x3bc3cde2	0.005975471
223	0xbc1563e5	-0.009118055
224	0x3d94af50	0.07260001
225	0x3e0590fa	0.13043585
226	0x3d4f54d0	0.050617993
227	0x3cf439a9	0.02981265
228	0x3e00b5c8	0.12569344
229	0x3c84e0d1	0.016220482
230	0xbe6c1ec4	-0.23058611
231	0x3dd5454e	0.104136094
232	0xbbc56450	-0.006023921
233	0x3bd4e7d4	0.0064973626
234	0xbd79f901	-0.061028484
235	0x3d164c0b	0.036693614
236	0x3e3f847c	0.18702883
237	0x3d7e8e53	0.06214745
238	0x3db6f232	0.08932914
239	0xbd4051d8	-0.046953052
240	0x3e1ffabc	0.15622991
241	0xbe1a9452	-0.15095642
242	0x3dc72e0f	0.09725582
243	0xbc1245a8	-0.00892774
244	0x3cd0f0f4	0.02550552
245	0x3c892b4a	0.016744275
246	0x3e0366d3	0.12832193
247	0xbde42977	-0.11140721
248	0xbc03f272	-0.008053409
249	0xbe2db42c	-0.16963261
250	0xbb02d34a	-0.0019962364
251	0xbdb56450	-0.08857024
252	0x3ced6f10	0.028983623
253	0x3e13bbfc	0.14427179
254	0xbe0d95b7	-0.13826643
255	0xbb726e55	-0.0036992033

weight f4 [6, 256]
0	0xbd0d9e8f	-0.03457504
1	0x3da25ea4	0.079282075
2	0xbd1ba202	-0.0379963
3	0x3da52066	0.0806282
4	0xbdbcbec9	-0.09216077
5	0xbd227e1d	-0.039671052
6	0xbcab6e6f	-0.020926682
7	0x3db13254	0.086521775
8	0x3caec196	0.021332543
9	0x3d9dedc6	0.07711367
10	0xbbdb0663	-0.006684111
11	0x3d4347a0	0.04767573
12	0xbd80f1df	-0.06296133
13	0x3d15cc08	0.036571532
14	0x3d4fcba9	0.050731335
15	0x3da38e40	0.079861164
16	0xbd4e9630	-0.0504362
17	0xbd8ebf25	-0.06970052
18	0xbd481c3c	-0.04885505
19	0x3dbf5722	0.09342791
20	0xbc366e2e	-0.011134667
21	0x3dfde97b	0.123980485
22	0x3bb410e3	0.005495177
23	0x3d97cbb6	0.07411902
24	0xbd58e36c	-0.05295126
25	0xbd3ee4e1	-0.046604995
26	0xbc17adb6	-0.0092577245
27	0xbd273095	-0.040817816
28	0x3d799e94	0.060942248
29	0x3ce6d807	0.028179182
30	0x3d4f6af1	0.050639097
31	0xbd893299	-0.06699104
32	0x3ca68982	0.02032924
33	0x3b546236	0.003240717
34	0x3d009d9e	0.031400315
35	0xbd1b9920	-0.03798783
36	0xbd9c02ed	-0.076177455
37	0xbd956a96	-0.0729572
38	0xbd921108	-0.07132155
39	0x3d37ecfd	0.044903744
40	0x3dad1979	0.08452124
41	0xbc7e1c52	-0.015509682
42	0x3d66b2f4	0.056323007
43	0x3d3ca9dc	0.046060428
44	0x3cb9bfc2	0.022674445
45	0x3db95705	0.09049801
46	0xbdb6b3ec	-0.08921036
47	0xbb46dd24	-0.0030344212
48	0x3cbcb1f0	0.023034066
49	0xbdb6fd2b	-0.08935007
50	0xbde2c2da	-0.11072321
51	0x3d69a621	0.0570432
52	0xbd1b74a3	-0.03795303
53	0xbc2ca94e	-0.010538412
54	0x3da29cf0	0.0794009
55	0xbc939d42	-0.018019322
56	0xbd5e4ec6	-0.054274343
57	0xbdb8b042	-0.090179935
58	0x3dde3fe0	0.10852027
59	0xbd7a20ad	-0.06106632
60	0x3c85155c	0.016245537
61	0xbc024edf	-0.007953375
62	0xbd8a39f4	-0.06749335
63	0xbccd2663	-0.025042718
64	0xbda46bff	-0.08028411
65	0x3db20e67	0.08694153
66	0x3c7ccf5a	0.015430296
67	0xbda395fa	-0.0798759
68	0x3d9ad760	0.07560611
69	0x3d53e272	0.051729627
70	0x3d866a22	0.06563212
71	0x3cc46e09	0.02397825
72	0xbce7e96c	-0.028309546
73	0xbdc826d8	-0.09773034
74	0xbd74ff02	-0.059813507
75	0x3ae5d9ae	0.0017536187
76	0x3d52f80b	0.051506083
77	0xbc021463	-0.007939431
78	0xbd9ae0a1	-0.07562376
79	0x3d4a5a31	0.04940242
80	0x3db0bbf8	0.08629602
81	0x3d8a1d3d	0.06743858
82	0xbd414671	-0.04718632
83	0xbd4c5cc4	-0.049893156
84	0x3d28e29e	0.041231744
85	0xbd99049d	-0.07471583
86	0xbd6f466a	-0.05841676
87	0x3d9dacca	0.076989725
88	0x3cf772db	0.030206135
89	0xbc9426d9	-0.01808493
90	0xbd139f15	-0.036040384
91	0xbdb9f34b	-0.090796076
92	0x3b921251	0.00445775
93	0x3dc5bd3e	0.09655236
94	0xbda53509	-0.08066756
95	0x3d968cbe	0.07351063
96	0xbced380e	-0.028957393
97	0xbdd462f6	-0.10370438
98	0xbd6c5d3c	-0.057706103
99	0x3da1be26	0.07897596
100	0x3d7481e3	0.059694182
101	0x3b3589ec	0.0027700616
102	0xbbc52188	-0.00601596
103	0x3bb430e0	0.0054989904
104	0x3d43026b	0.047609728
105	0x3b0154c5	0.0019734364
106	0xbd443e5d	-0.047911037
107	0x3d952ea9	0.0728429
108	0xbd9868a5	-0.07441834
109	0xbd07a9a3	-0.033120763
110	0x3dacfbe7	0.08446484
111	0x3dafdcd6	0.08587043
112	0xbdb19186	-0.086703345
113	0x3c7d17f1	0.015447603
114	0xbd790810	-0.060798705
115	0xbd65b920	-0.056084752
116	0xbcccc033	-0.024993991
117	0x3ca6e4b4	0.020372726
118	0xbd188dcd	-0.037244607
119	0xbd9fa4cd	-0.07795105
120	0xbd896081	-0.0670786
121	0xbd7d3431	-0.06181735
122	0xbd962e5e	-0.073330626
123	0xbd099812	-0.03359229
124	0x3b1b6e27	0.002371678
125	0xbdd977d3	-0.10618558
126	0x3d0b3a17	0.033990946
127	0xbceaad82	-0.028647188
128	0xbdae49ea	-0.08510192
129	0x3d90eb5f	0.070761435
130	0x3d8e6636	0.06953089
131	0x3c9d04e3	0.01916737
132	0xbd603ec2	-0.05474735
133	0x3d993beb	0.074821316
134	0x3c974d88	0.018469587
135	0x3d86bd52	0.06579079
136	0x3cbca269	0.023026662
137	0x3d022432	0.0317728
138	0x3cebd03b	0.028785815
139	0x3c8d421c	0.017243437
140	0xbce1421d	-0.027497346
141	0xbd88b4d9	-0.06675119
142	0x3d346f7f	0.044051643
143	0x3d650ee8	0.05592242
144	0x3d8632db	0.06552669
145	0x3d472789	0.048621688
146	0x3d94f710	0.07273686
147	0x3dbb91af	0.09158646
148	0x3c8ddc18	0.017316863
149	0xbd967e5c	-0.0734832
150	0x3b460ad0	0.0030218847
151	0xbd8ad764	-0.06779364
152	0x3d60684c	0.054786965
153	0x3d89ed51	0.06734718
154	0xbc8edb07	-0.017438425
155	0xbd711c89	-0.058865104
156	0x3dc6ad5a	0.09701033
157	0x3d15438c	0.03644137
158	0xbd31f8c3	-0.04345013
159	0xbc93dfa3	-0.018050974
160	0xbd10b5e2	-0.035329707
161	0x3cdb3336	0.026757818
162	0xbc1dec38	-0.0096388385
163	0x3d3f995f	0.046777125
164	0x3c20397c	0.00977933
165	0x3d0b216e	0.033967428
166	0xbda707c9	-0.08155782
167	0x3dabc84c	0.08387813
168	0x3c231019	0.009952568
169	0x3dc3ec9e	0.095666155
170	0xbd07488b	-0.033028167
171	0x3db43fee	0.08801256
172	0x3d9e50ed	0.07730279
173	0x3d72a8d1	0.059243027
174	0xbd2eb7fc	-0.04265593
175	0x3d65c943	0.05610014
176	0xbd61175f	-0.05495393
177	0xbd2d38af	-0.042290386
178	0xbdcdad29	-0.10042793
179	0x3df84970	0.12123382
180	0x3d972a72	0.07381143
181	0x3d6a28f4	0.057167962
182	0xbd3bcf94	-0.04585226
183	0xbdc79bf5	-0.09746543
184	0x3cc9bb24	0.024625368
185	0xbc8dc21a	-0.017304469
186	0xbd749a4f	-0.059717473
187	0x3dd32ec4	0.10311654
188	0xbccac3a8	-0.0247515
189	0xbd7ae450	-0.061252892
190	0xbb9327e3	-0.004490839
191	0x3c7edac5	0.015555088
192	0x3de849f7	0.11342233
193	0xbda57937	-0.080797605
194	0xbd922b23	-0.07137134
195	0x3dc3ba8c	0.09557065
196	0xbd0d691d	-0.034524072
197	0x3caa2078	0.020767435
198	0x3d96e5c1	0.07368041
199	0x3d87a743	0.066236995
200	0x3dbb2923	0.091387056
201	0x3db0d2d4	0.08633962
202	0x3dc3afcd	0.09555016
203	0xbda052c9	-0.0782829
204	0x3d242b09	0.040080104
205	0xbd187d0f	-0.03722864
206	0x3d2c6378	0.04208705
207	0x3e106f01	0.14104845
208	0xbd478bcc	-0.048717305
209	0xbca38489	-0.019960659
210	0x3c549fbf	0.01297754
211	0xbd9d7272	-0.07687844
212	0xbd73e486	-0.05954411
213	0xbd92b384	-0.07163146
214	0x3cba49b6	0.022740226
215	0xbde9bc04	-0.11412814
216	0xbc26655c	-0.010156002
217	0x3c24a8fd	0.010050056
218	0x3d861254	0.065464646
219	0x3d433088	0.047653705
220	0xbbca9237	-0.006181981
221	0xbdb4acdb	-0.08822032
222	0x3c75d502	0.015004398
223	0x3d580cf9	0.052746747
224	0xbd5274cf	-0.05138093
225	0x3af47022	0.0018649141
226	0x3d7c1c49	0.061550412
227	0xbdb5bb66	-0.08873634
228	0xbd4a7dec	-0.049436495
229	0x3c5e90cd	0.013584328
230	0xbde87145	-0.113497294
231	0x3d875e14	0.06609741
232	0x3d8554b2	0.06510295
233	0xbd0eb1da	-0.03483758
234	0xbc82d3cc	-0.015970133
235	0x3d096ba3	0.033549916
236	0x3c1ebe34	0.009688903
237	0xbd4fc639	-0.05072615
238	0xbd8f4ca8	-0.06997043
239	0xbd6198ba	-0.055077292
240	0xbc22ba06	-0.009932047
241	0x3d5ed600	0.054403305
242	0xbc473a79	-0.012159937
243	0xbe1016e1	-0.14071228
244	0x3db584ea	0.08863242
245	0xbdd44618	-0.10364932
246	0x3d810796	0.06300275
247	0xbdbc0338	-0.091803014
248	0xbcdad846	-0.026714455
249	0xbd437e86	-0.047728084
250	0x3db11189	0.08645923
251	0x3c73b8f1	0.014875636
252	0x3d3e629d	0.046480764
253	0xbca27f74	-0.019836165
254	0xbc2e3a4b	-0.010634015
255	0xbd95e27d	-0.0731859

bias f4 [6]
0	0x3b8e1658	0.0043361597
1	0xbd049972	-0.0323729
2	0xbd87776f	-0.06614577
3	0xbc739910	-0.014868036
4	0x3d6a992e	0.05727499
5	0xbd2c5d82	-0.042081363

weight f4 [256, 17]
0	0xbf20da67	-0.62833256
1	0xbcb30569	-0.021853166
2	0x3f87ed95	1.0619379
3	0x3f493f2d	0.78612024
4	0xbe300428	-0.17189085
5	0xbf41d60a	-0.7571722
6	0xbf85fea3	-1.0468334
7	0xbe218a3a	-0.15775385
8	0xbeaf6f06	-0.34264392
9	0xc00fe1ca	-2.248156
10	0xbf5e2ef3	-0.8679039
11	0xbd86e58e	-0.06586753
12	0xbe17ba09	-0.1481706
13	0x3d7c25bd	0.061559428
14	0xbde60887	-0.11232095
15	0x3d500a30	0.050790966
16	0xbb922e93	-0.0044611185
17	0x3f65892f	0.8966245
18	0xbf33e73a	-0.702747
19	0xbf8532b6	-1.0406101
20	0xbe467641	-0.19381048
21	0xbe059b77	-0.13047586
22	0x3f8a9460	1.082653
23	0x3e9fbfe1	0.3120108
24	0x3f51fd83	0.82027453
25	0xbf0808b3	-0.53138274
26	0x3e239b08	0.15977108
27	0xbf830a73	-1.0237564
28	0x3edd10a2	0.43176752
29	0x3fba010a	1.4531567
30	0xbe7e2ac2	-0.24820998
31	0x3f913887	1.1345376
32	0xbe0fd43e	-0.14045808
33	0xbbb69711	-0.0055722077
34	0xbf37f1be	-0.71853244
35	0x3ebc344f	0.36758658
36	0x3e9f0d95	0.3106505
37	0x3f1df9c5	0.61709243
38	0xbf5d7fb3	-0.8652298
39	0xbf3e8b0c	-0.7443092
40	0xbf37ebb5	-0.71844035
41	0xbf4a4679	-0.7901378
42	0x3f7a1fee	0.9770497
43	0xbf1b1822	-0.605837
44	0x3db5b5e4	0.088725835
45	0x3f3b1023	0.730715
46	0xbda9836b	-0.08277019
47	0xbf023c59	-0.50873333
48	0xbf15b10c	-0.5847328
49	0xbf8e5731	-1.1120359
50	0x3f09d132	0.5383483
51	0xbf2da2e9	-0.67826706
52	0x3e18e84a	0.14932361
53	0xbf51965c	-0.81870055
54	0x3e0edcf5	0.13951476
55	0xbe6e2316	-0.23255572
56	0xbea159c2	-0.31513792
57	0x3e273e24	0.16332299
58	0x3e5b9eb1	0.21447255
59	0x3f1bc3da	0.6084572
60	0xbe7e3c14	-0.24827605
61	0xbf80afad	-1.0053612
62	0xbde579dd	-0.11204884
63	0x3d2787a8	0.040900856
64	0xbfb318e7	-1.3991975
65	0x3f43aef0	0.7643881
66	0x3e2c753a	0.16841593
67	0x3e6fe3ca	0.23426738
68	0xbe685d12	-0.22691754
69	0x3e84ef98	0.25964046
70	0x3f64d553	0.89388007
71	0x3e768fd8	0.2407831
72	0xbef7deed	-0.48412266
73	0xbe4dda7e	-0.2010288
74	0xbf36a5a8	-0.7134652
75	0xbe99ee52	-0.30064636
76	0x3e9dca93	0.30818614
77	0x3ebb1f8b	0.36547503
78	0xbfa8955c	-1.3170581
79	0xbf164585	-0.5869983
80	0x3e8886e9	0.26665428
81	0xbf8552b9	-1.041587
82	0xbe5fff21	-0.21874668
83	0x3f850dc6	1.0394828
84	0x3cd1ecfc	0.025625698
85	0xbd97294c	-0.07380924
86	0xbf342bce	-0.7037934
87	0xbef8033b	-0.48439965
88	0x3f2ab9af	0.6668958
89	0xbc8755ea	-0.01652046
90	0x3ef41bfd	0.47677603
91	0xbf3dc483	-0.7412798
92	0xbf8c4582	-1.0958712
93	0x3e7e1c6f	0.24815534
94	0xbea07d6c	-0.3134569
95	0x3ee9e1a5	0.45679966
96	0xbe957e3c	-0.29197872
97	0x3fb6d1ac	1.4282737
98	0xbc4616d4	-0.012090404
99	0xbf4bbce7	-0.7958512
100	0xbe656e30	-0.22405314
101	0x3f4efdf0	0.8085623
102	0xbdf2477d	-0.118300416
103	0xbda2a81e	-0.07942222
104	0x3fec3291	1.8452932
105	0x3eb7a4ff	0.3586807
106	0x3e15d032	0.14630201
107	0xbce94bc7	-0.028478516
108	0x3eb9aa97	0.36262962
109	0xbf14390c	-0.57899547
110	0x3f32bc63	0.69818705
111	0x3f1727eb	0.59045285
112	0x3faa3ffe	1.3300779
113	0xbf0e4813	-0.55578727
114	0xbe941206	-0.2892
115	0xbe397cc2	-0.18113998
116	0xbf0876d1	-0.533063
117	0xbedefb07	-0.43550894
118	0xbf467e98	-0.77536917
119	0xbec0b436	-0.3763749
120	0x3e7b26db	0.24526541
121	0xbf96901a	-1.1762726
122	0x3f97f3d0	1.1871281
123	0xbf192514	-0.598222
124	0x3f3c40cf	0.7353639
125	0x3f982491	1.1886159
126	0x3d80fc31	0.06298102
127	0xbea5fbef	-0.32418773
128	0xbf8e7e27	-1.1132249
129	0xbfac92c4	-1.3482289
130	0xbea459c7	-0.32099745
131	0x3f30c99b	0.69057626
132	0xbeff5ca7	-0.49875376
133	0x3f21ae5b	0.6315667
134	0x3e8a4aa2	0.27010065
135	0xbf6b020c	-0.918
136	0xbf33d93e	-0.7025336
137	0x3f0801ca	0.5312773
138	0x3f637ba5	0.8886054
139	0xbf37553d	-0.7161444
140	0x3f26339f	0.6492252
141	0x3e7993f2	0.24372843
142	0x3f9a32f1	1.2046796
143	0xbe33df1c	-0.17565578
144	0xbe613515	-0.21992905
145	0x3ec8cd3f	0.3921909
146	0x3e997a8c	0.29976308
147	0xbd507d3b	-0.05090068
148	0xbef3e130	-0.47632742
149	0xbcb491f1	-0.022042247
150	0xbf0ab5bc	-0.54183555
151	0x3f9ddc4a	1.2332852
152	0x3ef01270	0.46889067
153	0x3f094a3e	0.5362891
154	0x3f8a9806	1.0827644
155	0xbbf202c4	-0.0073855836
156	0xbf8776b3	-1.0583099
157	0x3ede1aba	0.43379766
158	0x3fb2348e	1.3922288
159	0x3efd2f8a	0.49450332
160	0x3f3980bb	0.7246205
161	0xbf2fe8fb	-0.68714875
162	0xbe0b4662	-0.13601068
163	0xbe7a1fee	-0.24426243
164	0xbdb75d43	-0.08953335
165	0x3fc3ca23	1.5296062
166	0x3c40acde	0.011759965
167	0x3dbca6db	0.09211513
168	0xbf59d369	-0.8508821
169	0xbf25184b	-0.64490193
170	0x3e2912f5	0.16511138
171	0x3d00ed1c	0.031476125
172	0xbf978510	-1.1837482
173	0xbea540bb	-0.32275948
174	0x3e0339be	0.12814996
175	0x3f6a03b0	0.91411877
176	0xbc290f68	-0.010318615
177	0xbd9e2b9b	-0.07723161
178	0x3dd3e8c1	0.10347129
179	0x3f4d08e6	0.800917
180	0xbf52749a	-0.8220917
181	0x3f2b8ed9	0.67014843
182	0xbf0c6de6	-0.5485519
183	0x3e626d18	0.22111928
184	0x3f815e72	1.0106947
185	0x3ed449b0	0.4146247
186	0xbca97c09	-0.020689027
187	0x3f49e8b0	0.7887068
188	0x3da3e339	0.08002324
189	0xc0030646	-2.047258
190	0x3ef22760	0.47295666
191	0x3e97b736	0.29631966
192	0xbde85b46	-0.11345534
193	0x3e346804	0.17617804
194	0xbf01a642	-0.50644314
195	0x3eab740d	0.33486977
196	0x3e9dcfcf	0.30822608
197	0xbf0084bc	-0.50202537
198	0xbe6a1b38	-0.22861946
199	0x3dd6b0f9	0.104829736
200	0x400554e5	2.0833066
201	0xbe96098f	-0.29304168
202	0xbf15bd49	-0.5849195
203	0x3d627e27	0.05529609
204	0xbd286cd2	-0.041119404
205	0x3e550c16	0.20805392
206	0x3ea081ee	0.31349128
207	0xbffcf522	-1.9762309
208	0x3f810b5c	1.0081592
209	0xbf7e6348	-0.9937024
210	0x3e3f4124	0.18677193
211	0x3f1a3ed1	0.602521
212	0x3ed890b5	0.42297903
213	0xbf5b8b81	-0.8575974
214	0x4003f57a	2.0618577
215	0xbf27b022	-0.6550313
216	0x3e061192	0.1309264
217	0x3d8dd825	0.06925992
218	0x3effd099	0.49963835
219	0xbe92be64	-0.28660882
220	0x3e7dbd6a	0.24779287
221	0x3f2783d5	0.65435535
222	0xbe97d3a1	-0.29653648
223	0xbf96c2de	-1.1778219
224	0x3e5dbc11	0.21653773
225	0x3ee0b5d7	0.43888733
226	0x3e30ef9c	0.17278904
227	0x3ea2a585	0.31766906
228	0x3fe1f9ec	1.7654395
229	0xbe91e8c9	-0.28497913
230	0xbf1e7f9b	-0.6191346
231	0x3f059f2e	0.52196014
232	0xbecab343	-0.3958989
233	0x3f4ed814	0.8079846
234	0xbf5d362a	-0.8641077
235	0x3f807590	1.0035877
236	0xbf1be872	-0.6090156
237	0xbea9dc4c	-0.33175886
238	0x3d7981a9	0.06091467
239	0x3e8ba6b0	0.2727561
240	0xbdf0253e	-0.117258534
241	0x3f498388	0.78716326
242	0xbfc0d269	-1.5064212
243	0x3f12f7ff	0.5740966
244	0x3f8fd516	1.1236904
245	0x3f51e691	0.8199244
246	0xbefb38fd	-0.49066916
247	0xbf241558	-0.6409507
248	0xbf934f05	-1.150849
249	0x3fa7d0d1	1.3110601
250	0x3d0c91bc	0.03431867
251	0x3edd6e3c	0.43248165
252	0x3f11f362	0.57012
253	0xbe0d47f4	-0.13796979
254	0xbf18e684	-0.5972674
255	0xbf36252c	-0.7115047

bias f4 [256]
0	0xbf239375	-0.63896877
1	0xbf62683a	-0.8844029
2	0x3f656df9	0.8962093
3	0x3f841d03	1.0321354
4	0xbeeb2eb2	-0.45934063
5	0xbe8f833e	-0.28029817
6	0x3e96888b	0.2940105
7	0x3e175635	0.14778979
8	0x3fa2b234	1.2710633
9	0x3d97ea47	0.07417732
10	0xbcf84294	-0.030305184
11	0xbe60670d	-0.21914311
12	0x3e78f101	0.24310686
13	0xbf49453f	-0.78621286
14	0x3e934577	0.28763935
15	0x3edf6757	0.4363353
16	0x3f102af1	0.56315523
17	0xbec17996	-0.37788075
18	0xbd05496d	-0.032540727
19	0xbc774817	-0.015092871
20	0x3de603ef	0.11231219
21	0xbf3b81d6	-0.7324499
22	0x3dee1507	0.116251044
23	0x3e2c89f6	0.16849503
24	0x3f09d6b4	0.53843236
25	0xbf4a2cb7	-0.7897448
26	0x3f48c2c7	0.78422207
27	0xbdb917ac	-0.09037718
28	0x3eab62b1	0.33473733
29	0x3e138021	0.14404346
30	0xbdab89b3	-0.083758734
31	0xbe6e7976	-0.23288521
32	0xbe54fe90	-0.20800233
33	0xbf66e7df	-0.9019756
34	0x3f0caa7e	0.5494765
35	0x3f87a6e5	1.0597807
36	0x3d9b0a80	0.07570362
37	0xbf24b796	-0.6434263
38	0xbece51e4	-0.40296853
39	0x3dc44934	0.09584275
40	0x3ef956f3	0.4869915
41	0x3fa2fec2	1.2733996
42	0xbebbc04c	-0.36670148
43	0xbf309a27	-0.6898522
44	0xbc1f3304	-0.009716753
45	0xbeff8461	-0.49905685
46	0x3dbc8f91	0.092070706
47	0x3ea6d0f7	0.32581303
48	0xbda399bb	-0.07988306
49	0x3f325ca0	0.69672585
50	0xbf87163b	-1.0553659
51	0xbca0dc10	-0.019636184
52	0xbebc9a3e	-0.36836427
53	0x3f003e1c	0.5009477
54	0xbe8ec0e9	-0.27881554
55	0x3f0cac8c	0.54950786
56	0xbf69c3bb	-0.91314286
57	0x3f86c1c4	1.0527883
58	0xbef74294	-0.48292983
59	0xbf9a4910	-1.2053547
60	0xbec37b30	-0.38179922
61	0x3e318e08	0.17339337
62	0x3dbc5247	0.09195381
63	0x3dfbe447	0.122994
64	0x3ee401e3	0.4453269
65	0x3f2de0d3	0.6792118
66	0xbe0a3cf3	-0.13499813
67	0x3e7a95ce	0.24471208
68	0xbe85138f	-0.25991485
69	0x3f110ee1	0.5666333
70	0x3f8b5d36	1.0887821
71	0xbea72c98	-0.3265121
72	0x3e33bb32	0.17551878
73	0x3e25261b	0.16127817
74	0xbefd31f7	-0.49452183
75	0xbf2824bd	-0.6568106
76	0xbe90e078	-0.28296256
77	0xbf155d9b	-0.58345956
78	0xbf4fc58f	-0.81160825
79	0x3e917a15	0.28413454
80	0x3ec97dd2	0.39353806
81	0x3eb694e7	0.35660478
82	0xbf49a5ea	-0.7876879
83	0xbe5068f7	-0.20352541
84	0x3faae046	1.3349693
85	0xbf373533	-0.7156555
86	0xbf60f7f3	-0.8787834
87	0xbdb12c28	-0.08651
88	0xbf206609	-0.62655693
89	0xbddecbf6	-0.10878746
90	0x3f744deb	0.95431393
91	0x3d179b96	0.037013613
92	0x3e8aa8d1	0.27081922
93	0xbfa2e3d5	-1.2725779
94	0xbed6254b	-0.41825327
95	0x3f36a18a	0.7134024
96	0x3e317135	0.17328341
97	0xbf8525a3	-1.0402111
98	0xbeffa6e0	-0.49932003
99	0xbfae8904	-1.3635564
100	0xbd2da33f	-0.04239201
101	0xbe29b22f	-0.16571878
102	0x3f0d50fd	0.55201703
103	0xbea375e1	-0.31925872
104	0x3f8d695d	1.1047779
105	0xbe382503	-0.17982869
106	0xbf1a4793	-0.60265464
107	0xbe7e3ecd	-0.24828644
108	0x3f29aecc	0.66282344
109	0x3e726d71	0.23674561
110	0xbf75a374	-0.95952535
111	0xbeafef16	-0.34362096
112	0xbf62bd05	-0.8856967
113	0x3ea8e2dd	0.32985583
114	0xbf6d7c7a	-0.9276806
115	0xbeea3c55	-0.45749155
116	0xbe5dcb07	-0.2165948
117	0xbe9bd60d	-0.30436745
118	0x3f0ce210	0.55032444
119	0xbef09512	-0.46988732
120	0x3e6098c0	0.2193327
121	0xbea3816d	-0.31934682
122	0x3f33f06f	0.7028875
123	0x3e2142cd	0.15748139
124	0xbe0c6e6d	-0.13713999
125	0xbef8ebbe	-0.48617357
126	0x3ee72a00	0.4514923
127	0xbec63d5a	-0.38718683
128	0xbf68817b	-0.9082257
129	0xbf21c243	-0.63187045
130	0xbf098c17	-0.53729385
131	0x3f73056f	0.94930166
132	0xbf5e3d0c	-0.868119
133	0x3dab538d	0.083655454
134	0x3ec01dd3	0.37522754
135	0xbed40e27	-0.41417047
136	0xbf04ce24	-0.51877046
137	0x3f8fbf76	1.1230304
138	0x3ec17705	0.37786117
139	0x3eaf945e	0.34292883
140	0x3eb9521b	0.36195454
141	0x3e41504d	0.18878289
142	0xbd9218c2	-0.071336284
143	0xbdd26d99	-0.1027481
144	0x3f41f556	0.7576498
145	0x3efd21db	0.49439892
146	0x3e9a6ade	0.30159658
147	0xbe3d7a06	-0.1850358
148	0x3c0cacfc	0.008586165
149	0xbf8d4d03	-1.1039127
150	0x3eebe80d	0.46075478
151	0x3eb7ba99	0.3588455
152	0xbe8a63c1	-0.2702923
153	0x3e3d405c	0.18481582
154	0xbfa64d6b	-1.2992376
155	0xbe628dfd	-0.22124477
156	0x3f14db94	0.5814755
157	0xbf4c7339	-0.79863316
158	0xbee3a324	-0.44460404
159	0xbe69ef98	-0.22845304
160	0x3da4f1dc	0.080539435
161	0xbdb02975	-0.08601657
162	0xbf0bbf75	-0.54589015
163	0x3f0dea17	0.5543532
164	0x3f5a9c56	0.853948
165	0xbe270361	-0.16309883
166	0x3e0f427e	0.13990209
167	0xbf3d9c6d	-0.7406681
168	0x3f554ba6	0.83318555
169	0x3f3f3f8e	0.7470635
170	0x3ae38a6a	0.0017359976
171	0xbf00aed5	-0.5026677
172	0x3f73b286	0.9519428
173	0x3f90ef70	1.132307
174	0x3d497deb	0.04919235
175	0xbf0d007c	-0.55078864
176	0xbec99202	-0.39369208
177	0xbda7ed62	-0.08199574
178	0xbf4cb046	-0.7995647
179	0xbd636cff	-0.05552387
180	0x3e7b6d6f	0.24553464
181	0x3f6e0b38	0.9298587
182	0x3f111b87	0.5668263
183	0xbf84a0a9	-1.036153
184	0x3f0badab	0.5456187
185	0x3eb9d432	0.36294705
186	0xbf9f6a6e	-1.2454355
187	0xbfa6e250	-1.3037815
188	0x3e77b02f	0.24188302
189	0x3daea000	0.08526611
190	0xbecf30dc	-0.40466964
191	0xbfdb5b9e	-1.7137334
192	0xbf3bb1c4	-0.73318124
193	0xbfb269ae	-1.3938501
194	0x3f330fd7	0.69946045
195	0x3f91c965	1.1389586
196	0xbe91dc62	-0.2848845
197	0xbda3e1f5	-0.08002082
198	0x3f30a434	0.69000554
199	0xbe8ec898	-0.27887416
200	0xbfb69588	-1.4264383
201	0xbcfa046a	-0.030519683
202	0x3f0bc1df	0.545927
203	0xbe6323b0	-0.22181582
204	0xbe4bd600	-0.19905853
205	0x3ee055a1	0.4381533
206	0xbf01380e	-0.5047616
207	0x3dcd5720	0.100263834
208	0xbf10b4fe	-0.5652617
209	0xbe00d8f5	-0.12582763
210	0xbecf74fd	-0.40518942
211	0x3f893ff1	1.0722638
212	0x3f8a0ee8	1.0785799
213	0x3f286bc5	0.65789443
214	0x3e041217	0.12897526
215	0x3f1ba42b	0.60797375
216	0x3ed02efa	0.4066084
217	0x3f0edee7	0.5580887
218	0xbebc0134	-0.36719668
219	0xbf20d984	-0.628319
220	0x3f27d299	0.6555572
221	0xbe213948	-0.15744507
222	0x3e906e98	0.28209376
223	0xbfbb9614	-1.4655175
224	0xbd0217b7	-0.031760897
225	0x3e447995	0.19187005
226	0x3e9b33bd	0.3031291
227	0x3f18a303	0.59623736
228	0x3f801d1b	1.0008882
229	0xbd1a047c	-0.037601933
230	0xbef296f5	-0.47380796
231	0x3e211944	0.15732294
232	0x3f035848	0.5130658
233	0xbe5e964d	-0.21737023
234	0xbdc6e513	-0.09711661
235	0xbf0a67b6	-0.540645
236	0x3f278825	0.65442115
237	0x3f90c104	1.1308904
238	0xbd31ac28	-0.04337707
239	0x3f2c0912	0.6720134
240	0xbeb2c94a	-0.34919196
241	0x3e8df330	0.277246
242	0x3f7e2988	0.9928212
243	0xbe974f62	-0.29552752
244	0xbeeac6a0	-0.45854664
245	0x3ec9036a	0.39260417
246	0xbe64b3b6	-0.2233418
247	0x3c310811	0.010805146
248	0xbf1b4b16	-0.6066145
249	0x3ea1ee15	0.31626955
250	0x3f3000f0	0.6875143
251	0xbf8a4e8e	-1.0805223
252	0x3f888597	1.0665768
253	0x3c8ccc00	0.017187119
254	0xbeb8d108	-0.36096978
255	0xbd96b4f7	-0.07358735
