data/PrioritizedDDPG/Ant-v2/prioritized_ddpg_s10380/pyt_save/model.pt (torch_old, 777815 bytes, 11 tensors)

weight f4 [256, 111]
000000 56 d5 66 c0 1b 24 8f 40 20 c4 49 c0 69 02 29 c0
       -3.606771 4.4731574 -3.1525955 -2.640772
000010 39 dc 57 c0 f9 b2 1f bf 02 68 a3 3e 9d d2 af 3e
       -3.3728163 -0.62382466 0.3191529 0.34340373
000020 eb d1 11 3f c2 68 96 40 0b 55 68 bf 62 44 02 c0
       0.56960934 4.700288 -0.90754765 -2.0354238
000030 86 51 29 3e 46 a0 66 bf 65 43 65 be b8 77 40 bf
       0.16535005 -0.9008831 -0.2238899 -0.75182676
000040 0b 73 bd bf 71 80 13 be ed aa 55 3f eb 62 2e bd
       -1.4800733 -0.14404465 0.8346394 -0.042574804
000050 37 24 09 be dc 4c bc 3d 52 6e 5c be e5 6f b5 3d
       -0.13392721 0.09194347 -0.21526459 0.08859233
000060 4a 03 0d 3e f4 a7 0a 3f 29 5b 36 bd c1 de 63 bd
       0.13770786 0.54162526 -0.04452053 -0.055632357
000070 40 57 b2 bb 99 99 89 3d 31 77 87 bd 20 b5 53 bb
       -0.00544253 0.067187496 -0.06614531 -0.0032304004
000080 17 66 31 bd 80 63 23 bb f1 0e 71 bd 20 d5 4b bb
       -0.04331025 -0.0024931133 -0.05885214 -0.0031102374
000090 08 de a9 3c fc 67 49 bd b4 44 cd 3c cf 2e 9a 3d
       0.020735756 -0.049171433 0.025057174 0.07528459
0000a0 73 6b 38 bd c3 dd 0f bd 18 b5 97 bd a7 6a bb 3d
       -0.045024347 -0.035123598 -0.07407588 0.09151202
0000b0 99 72 5e bd f5 d8 84 3d 78 06 8b bd 75 d4 1b bd
       -0.054308508 0.06486694 -0.06788343 -0.03804441
0000c0 de e0 19 3d 5b 9b 85 3d c4 1e 1f bd 06 0b 4f bd
       0.037567966 0.06523772 -0.0388477 -0.050547622
0000d0 a8 5a 4d bd 50 b8 8c bc 06 6b 48 3d e4 b7 ec 3c
       -0.050135285 -0.01717773 0.04893019 0.02889628
0000e0 9b 14 be 3d 64 87 a3 bd 79 c2 98 3d 00 e0 c2 39
       0.09281274 -0.07984808 0.07458968 0.00037169456
0000f0 df b0 a5 3d 8c bb 9c bc 08 c8 98 3c 4b 90 85 3d
       0.08090376 -0.019132398 0.01865007 0.06521662
000100 00 d4 b6 38 40 95 ea 3c 6c 2c 8d 3c 50 cc 00 bc
       8.717924e-05 0.028635621 0.017233096 -0.007861212
000110 28 bc 9c 3c 44 96 99 bd 7b fa b2 3d 33 c3 c1 3d
       0.019132689 -0.07499364 0.087391816 0.094610594
000120 9e fc 5c 3d 1e 05 2f 3d c0 2a ab 3a 62 c8 80 bd
       0.053951852 0.04272949 0.0013059005 -0.0628822
000130 72 7f 33 3d ef f6 9a 3d 08 60 1d bd 5a b0 81 bd
       0.043822713 0.0756663 -0.03842166 -0.063324645
000140 44 33 ea bc 77 78 b2 3d f3 26 22 bd 78 e6 b5 3c
       -0.028588898 0.08714383 -0.039587926 0.022204623
000150 6e 77 94 bd 06 fa 31 3d c3 35 b8 3d a0 2a a4 3b
       -0.07249342 0.04345133 0.08994629 0.005009964
000160 b2 e8 80 bd 82 e3 87 bd e6 7d 62 3d f1 aa b0 3d
       -0.06294383 -0.066351905 0.055295847 0.086263545
000170 80 71 f7 bc 50 c1 d1 3c 00 56 9b bc 66 56 1a 3d
       -0.030205488 0.025604874 -0.018961906 0.037680052
000180 27 e0 87 3d 88 97 44 3c d7 fc a2 3d 15 eb 82 bd
       0.066345505 0.0119990185 0.079583816 -0.063924946
000190 91 f2 8b 3d 3a bc 51 3d 57 93 a3 bd df 47 b8 bd
       0.06833375 0.051204897 -0.07987087 -0.08998083
0001a0 e9 49 3d bd cd 6d 69 bd 5a 87 3a 3d ff 54 81 3d
       -0.046213064 -0.05698948 0.045539238 0.0631504
0001b0 ca 74 bd bd 0c 8b c9 bc c0 f9 18 3c ab 33 72 c0
       -0.09250791 -0.024602436 0.009336889 -3.7844036
0001c0 25 c4 5d 40 83 38 3a 3e ac 01 a4 3e 54 8c 8d 40
       3.4650967 0.1818562 0.32032526 4.42338
0001d0 16 20 94 be 20 cb 7b 3f fd 22 8b 40 20 3e bd bf
       -0.2893073 0.9835682 4.348021 -1.4784584
0001e0 04 0b c9 3f a8 5e 0b c0 ba ec cf be c0 90 0d 3f
       1.5706487 -2.1776524 -0.40610296 0.55298996
0001f0 b8 39 ee 3e e6 ac da be 62 91 9e 3f 67 ad 04 bf
       0.4652841 -0.42710036 1.2388117 -0.5182709
000200 6f 6d 0f bf 77 32 8e 3e 5a 39 52 bc e7 f0 79 be
       -0.5602636 0.27772877 -0.0128310565 -0.24408303
000210 fa a5 29 be d8 82 2b bd a9 a9 c0 bd b0 18 d5 be
       -0.16567221 -0.04187283 -0.0940736 -0.41620398
000220 a2 b0 9e 3c 7a 82 3d be 9f 14 9a bd e2 f8 3f 3d
       0.019371334 -0.18506804 -0.075234644 0.046868213
000230 34 79 9a bd dd 77 aa bd fe 71 4c 3d 64 44 f9 bc
       -0.07542649 -0.08323643 0.0499134 -0.030428119
000240 9d 01 27 bd 58 1e 0f bc 61 f4 b1 3d 83 f8 90 3d
       -0.040773023 -0.008735262 0.0868919 0.0707865
000250 c4 e0 f5 bc 66 5b bd bd 0c d2 95 bc 80 90 cb bc
       -0.030014403 -0.092459485 -0.018288635 -0.024849176
000260 20 14 4c 3c e6 9b 28 3d 4a ef 35 3d 25 b0 ab 3d
       0.01245597 0.0411643 0.044417657 0.08383206
000270 30 84 c3 3c 1c 5a a7 bd d8 fd 77 bc 27 7b a3 bd
       0.023866743 -0.08171484 -0.015136205 -0.07982474
000280 17 22 43 bd e2 61 4a 3d b5 7c bb bd 96 a3 37 3d
       -0.047639932 0.049409755 -0.09154645 0.044833742
000290 a0 7e 57 bc 00 df cc 3c 00 44 98 3c 93 ec ba 3d
       -0.013152748 0.025008678 0.018587112 0.09127154
0002a0 78 1b c1 bd 36 26 4d 3d 78 d1 83 3c 43 66 b1 bd
       -0.094290674 0.05008527 0.016091093 -0.08662083
0002b0 42 6b 62 3d a6 38 94 bd 6a b4 46 3d a8 d5 eb 3c
       0.05527807 -0.07237367 0.0485119 0.028788403
0002c0 16 8e 0f 3d 80 7b c9 3b ac fe 4f bd e4 14 8b 3c
       0.035047613 0.0061487556 -0.050779983 0.016977735
0002d0 8f f2 89 3d 14 41 55 bd 28 0c 76 bc a0 6c e6 3c
       0.067357175 -0.052064016 -0.015017547 0.028127968
0002e0 18 a9 60 3c 32 f9 56 3d 5c 64 94 bd 33 94 93 3d
       0.01371219 0.052483745 -0.072457045 0.07206001
0002f0 ba b0 68 3d 34 87 d6 3c 27 6f 8f 3d dc 4a 9e bc
       0.056809165 0.026187517 0.070036225 -0.019322805
000300 c8 29 18 bc 80 a4 bb 3b 07 28 b9 3d 15 55 7a bd
       -0.009287305 0.005726397 0.09040838 -0.061116297
000310 10 18 98 3b bd d8 5b bd 95 68 60 bd 4e 69 76 3d
       0.0046415403 -0.053673495 -0.054787237 0.06015902
000320 58 d6 da bc b5 ab 85 3d b3 b0 a7 3d d5 5d bb 3d
       -0.026713535 0.06526891 0.081879996 0.091487564
000330 70 a1 00 bc b6 49 16 3d 58 20 99 bc d4 b8 d8 3c
       -0.00785099 0.03669139 -0.01869218 0.02645532
000340 48 ac be bc d8 be a9 bc f6 0e a1 bd f3 84 ad 3d
       -0.02327551 -0.020720884 -0.07864182 0.08472624
000350 30 53 a0 bc de 58 3c 3d b5 2c a1 3d e3 e3 b9 3d
       -0.019570917 0.045983188 0.07869855 0.09076669
000360 00 c0 39 bb 44 95 fe 3c 04 ff b4 bd 3d 92 a0 3d
       -0.00283432 0.031077035 -0.08837703 0.07840393
000370 d5 f9 4d bd c8 96 93 bd 20 ed 42 3f f0 b5 17 bf
       -0.050287087 -0.072064936 0.76143074 -0.5926199
000380 e9 2e 10 c0 19 34 84 c0 43 6e 11 c0 93 de 70 c0
       -2.2528632 -4.1313596 -2.2723548 -3.7635849
000390 ea 2f 64 bf 02 12 21 40 14 a5 7e 3f fa b5 80 c0
       -0.8913561 2.516724 0.9947064 -4.022214
0003a0 1d 24 1d bf 95 5d d4 3f e4 3e 96 3f 0a bf ab 3f
       -0.6138323 1.6591059 1.1737943 1.3417675
0003b0 a7 04 c4 bc 23 79 b7 3f 5a 9a 67 3f 31 a3 bc be
       -0.023928 1.4333843 0.90469897 -0.36843255
0003c0 c7 c5 23 bf 7a 33 1f 3e 23 1b b0 3c ff 6c 6a be
       -0.6397366 0.1554698 0.021497315 -0.22893141
0003d0 72 63 f7 be 60 6e eb bd 47 2e 2c bd 26 68 a9 be
       -0.48318058 -0.11495662 -0.04203632 -0.3308727
0003e0 be 42 91 3e 80 91 b1 3a ae cc 3b 3d bc 02 ca bc
       0.28371233 0.0013547391 0.045849495 -0.024659507
0003f0 77 16 86 bd e0 23 62 bd 35 0f ad bd 45 22 91 3d
       -0.065472536 -0.055209994 -0.08450166 0.070866145

bias f4 [256]
000000 ed c1 91 3f 12 7c 40 40 91 a9 3c bf 9f 33 a5 3f
       1.1387306 3.0075727 -0.7369624 1.2906379
000010 d1 03 c8 3d 56 46 b0 3f 94 30 2e c0 df ea 08 bf
       0.09766353 1.3771465 -2.721715 -0.53483385
000020 04 60 37 c0 ec 0c 36 40 7c e6 5d c0 42 0d b8 bf
       -2.8652353 2.8445387 -3.4671926 -1.4379046
000030 c4 9f 4b bf 6f bd 33 c0 8a cd 34 40 09 f1 c6 bf
       -0.7954066 -2.808437 2.825045 -1.5542308
000040 35 17 c8 bf f3 dd 80 bf a3 a7 35 c0 e1 b8 f2 bf
       -1.5632082 -1.0067734 -2.8383567 -1.896267
000050 d3 d9 07 3f 35 ad 32 c0 c1 ac be bf a7 2d 1f bf
       0.5306675 -2.7918217 -1.489647 -0.62179035
000060 d5 f8 01 40 58 cd 17 c0 25 1e e8 bf 88 b5 15 c0
       2.0308125 -2.3719082 -1.8134199 -2.3392048
000070 02 e0 32 c0 70 99 7a bf 7c 1a 64 c0 65 df b2 bf
       -2.7949224 -0.9789038 -3.5641165 -1.3974425
000080 53 cc 00 bf 5f d2 4a 3f bc b6 50 bf 9e b1 35 c0
       -0.50311774 0.7922725 -0.8152883 -2.838966
000090 fd 13 6c be d2 74 05 3f d4 72 bc be a7 7e 24 c0
       -0.230545 0.5213138 -0.36806357 -2.5702302
0000a0 81 e3 f5 bf ac dc 1a c0 40 8e d5 bf 39 18 ef bf
       -1.9210054 -2.4197187 -1.6684036 -1.8679267
0000b0 d6 2a 60 3c 5d 21 3f c0 16 3a 41 bf b6 fe 75 bb
       0.013682088 -2.9864113 -0.7547926 -0.0037535853
0000c0 e8 45 36 c0 b7 04 35 c0 fe 51 af bf 39 c8 bd 3f
       -2.8480167 -2.8284128 -1.3696897 1.4826728
0000d0 2c 28 04 c0 b6 9a 4c c0 8c 22 8a bf 6f a7 25 c0
       -2.064952 -3.1969428 -1.0791793 -2.5883443
0000e0 fe 59 20 40 47 31 ab 3d 8b 0c a1 bf 1e 15 27 bf
       2.5054927 0.08359008 -1.2581953 -0.652666
0000f0 c9 b6 5a c0 5d 72 8b bf a1 24 41 40 98 83 cf bf
       -3.4174063 -1.0894276 3.0178607 -1.6212034
000100 a4 db 24 c0 7d 84 62 40 3c 66 c4 bf dc 9c da bf
       -2.5759058 3.5393364 -1.53437 -1.707912
000110 8c c8 fc bf 72 93 9d bf 3a 2c 4b c0 16 8e d3 bf
       -1.9748702 -1.2310622 -3.1745744 -1.6527736
000120 83 9a 07 c0 5a a1 01 c0 1f d4 89 c0 39 65 db bf
       -2.1188056 -2.025473 -4.3071437 -1.7140266
000130 3c df 3b 40 09 88 1f c0 fe a7 46 c0 6e 5f 2c c0
       2.9355001 -2.492678 -3.1040034 -2.6933246
000140 76 5b 31 bf 21 00 6b 3e 49 d4 15 c0 f2 e2 f0 3e
       -0.69280183 0.22949268 -2.3410819 0.47048146
000150 f8 9b 73 bf 18 50 b6 bf e9 42 6b bf e8 1d 16 c0
       -0.95159864 -1.4243193 -0.9189897 -2.3455753
000160 d3 ea 7a 40 63 c7 d2 bf a6 6d 9d bf bd 2d fe be
       3.9205825 -1.6467098 -1.2299087 -0.4964427
000170 db cf dd bf 34 a0 b0 40 13 8a 2c c0 6e af 5e c0
       -1.7329057 5.519556 -2.6959274 -3.4794574
000180 dd 14 a8 bf a5 b2 93 3f 1e c3 14 bf 6a d1 03 c0
       -1.3131367 1.1538893 -0.58110225 -2.0596566
000190 db 93 41 c0 75 10 1a c0 7e c1 fe bf 0b 84 ca be
       -3.0246494 -2.4072545 -1.9902799 -0.39553866
0001a0 a1 50 f2 bf c7 13 5e c0 d5 54 08 c0 5e 19 08 40
       -1.8930856 -3.469957 -2.1301777 2.1265483
0001b0 58 15 37 c0 14 78 9a bf 2a 02 1b c0 f6 2b a4 bc
       -2.8606777 -1.2067895 -2.422007 -0.020040493
0001c0 dc 05 f7 3f 79 2c 59 40 0f 92 1b c0 af 67 a6 bf
       1.9298663 3.3933394 -2.4307897 -1.3000392
0001d0 ad b0 f6 bf b7 d4 eb bf e3 90 c0 bf 6b 07 54 bf
       -1.9272667 -1.842429 -1.5044216 -0.8282382
0001e0 0f f8 7e 40 4b 57 09 c0 41 0e c5 bf aa e1 10 c0
       3.9838903 -2.145953 -1.5394975 -2.2637734
0001f0 8d 7f 9b bf 71 3a 8d bf 21 49 32 c0 a4 ec 01 c0
       -1.21483 -1.103346 -2.7857134 -2.0300684
000200 75 08 29 c0 b2 4f 41 40 29 8d b8 3e 1a 9a fc bf
       -2.6411412 3.0204892 0.36045197 -1.9734528
000210 81 96 4f bf ff ae e2 bf 16 a7 13 c0 92 ac ff 3f
       -0.81089026 -1.7709655 -2.307073 1.9974539
000220 c7 13 15 c0 2f 86 05 c0 ed d0 c8 bf a9 01 c2 bf
       -2.329332 -2.086315 -1.5688759 -1.5156757
000230 3e de 1d c0 bd c5 24 c0 14 33 10 c0 2b a7 03 c0
       -2.4666896 -2.574569 -2.2531176 -2.0570781
000240 bf f5 82 bf a3 8e 42 c0 dd 08 55 c0 81 87 49 c0
       -1.0231246 -3.0399559 -3.328666 -3.1488955
000250 e9 cd 10 c0 20 e7 34 bf 4f 33 2a c0 a7 62 53 bf
       -2.2625678 -0.7066517 -2.6593816 -0.82572407
000260 8c 18 60 40 ff da b7 bf 4b f4 e5 bf ad e7 ef bf
       3.5014982 -1.4363707 -1.7965177 -1.8742577
000270 d9 84 45 c0 0a 5c c3 bf 43 71 1c c0 c6 46 35 bf
       -3.0862334 -1.5262463 -2.444413 -0.70811117
000280 21 0f a6 bf 85 6c 58 c0 8b 02 39 c0 b4 d9 bf bf
       -1.2973367 -3.3816235 -2.8907802 -1.4988313
000290 5e 7d 62 bf 0e 70 7f 3d 99 31 51 c0 3e 80 06 c0
       -0.88472545 0.062362723 -3.2686522 -2.1015773
0002a0 dc ca 09 c0 4c dd e7 bf 2a 09 77 bf 2e 1a 0c 40
       -2.1530066 -1.811441 -0.9649836 2.189098
0002b0 3a 31 55 c0 9a da c7 bf d5 24 68 3f 36 41 47 c0
       -3.3311296 -1.5613587 0.906812 -3.1133552
0002c0 82 73 21 bf 9e 21 08 c0 62 75 f2 bf d6 7c 35 c0
       -0.63066876 -2.1270518 -1.8942072 -2.8357444
0002d0 52 87 c4 bf 56 62 d0 bf 21 9a 17 c0 ae 1f 5e 40
       -1.5353796 -1.628001 -2.3687823 3.4706836
0002e0 77 04 27 c0 12 bb e5 bf 33 1f 50 bf 50 af 13 c0
       -2.6096475 -1.7947714 -0.81297606 -2.3075752
0002f0 2b 1c d2 bf 76 5e da bf ea b5 af 3f 73 68 0a c0
       -1.6414846 -1.7060077 1.3727391 -2.162625
000300 06 f5 3b c0 ec 77 d5 be ca 18 21 c0 0a 41 bd 3f
       -2.93683 -0.41693056 -2.517138 1.4785473
000310 91 28 85 bf 8a b0 a9 bf a7 b0 31 bf a2 b6 ae bf
       -1.0403005 -1.3257 -0.69410175 -1.3649485
000320 0c 50 29 3f 4c af ac bf 9d 60 d6 3e 85 49 0f be
       0.66137767 -1.3490996 0.41870585 -0.13992889
000330 64 38 2f c0 be 89 d1 be b1 92 5e bf 9d 90 ff bf
       -2.7378168 -0.409254 -0.86942583 -1.9966007
000340 cb a5 73 3d 97 c6 0c c0 12 17 3a bf 90 43 3c c0
       0.059484284 -2.199621 -0.7269145 -2.9416237
000350 c2 6b 17 c0 b2 4e 41 c0 7e c8 f6 bf 5d 95 8e bf
       -2.365952 -3.0204282 -1.9279935 -1.1139332
000360 04 34 03 c0 bc fe 3b c0 e5 45 37 40 a7 e8 38 c0
       -2.0500498 -2.9374228 2.863641 -2.8892
000370 d8 a3 02 c0 38 44 e6 bf 88 92 d4 bf 23 83 2e c0
       -2.0412502 -1.7989569 -1.6607218 -2.726754
000380 3a c2 b8 bf 71 a9 04 c0 96 01 4c c0 a2 5c 34 bc
       -1.4434273 -2.072842 -3.1875968 -0.0110084135
000390 c4 5a 0e c0 10 a2 bf bf 59 c8 e0 bf 66 6c 45 c0
       -2.22429 -1.4971333 -1.7561141 -3.084741
0003a0 67 0a 3b c0 f0 9a f4 bf 75 9a 04 c0 c3 fd 35 bf
       -2.92251 -1.9109783 -2.0719273 -0.71090335
0003b0 bf 15 1e c0 de 07 5d c0 a4 55 8f bf 69 4b b4 3e
       -2.4700773 -3.4536052 -1.119801 0.35213783
0003c0 3b e2 25 3f 60 c9 f2 bf b3 75 5a c0 d6 f7 12 bf
       0.64798325 -1.8967705 -3.4134338 -0.5740942
0003d0 ca d0 fb bf 92 71 3b c0 0d 62 00 3f a6 a2 84 bf
       -1.9673092 -2.9288068 0.50149614 -1.0362136
0003e0 f0 f1 17 c0 8f 6d bb 40 fa 59 24 c0 14 d5 b0 bf
       -2.3741417 5.857124 -2.5679917 -1.3815026
0003f0 1b fc e5 bf 48 2c 06 c0 16 ad be bf 63 0e 09 bf
       -1.7967561 -2.0964527 -1.4896572 -0.5353758

weight f4 [256, 256]
000000 3a cb ee bd 80 ba 95 bd 77 e8 7e bd 32 e6 52 bd
       -0.11659856 -0.07310963 -0.062233415 -0.051489063
000010 74 c4 ef bc 63 78 a6 bd 32 48 f7 3b 07 8a 0c bd
       -0.02926848 -0.08128431 0.007546448 -0.03431132
000020 b1 02 a2 bd 45 ff 80 bd 7c 05 c3 3b 6e fc 8f bd
       -0.079106696 -0.06298689 0.0059515815 -0.07030569
000030 f3 00 b3 bd 7a 6a fc 3c c7 b1 36 bd 50 77 91 bd
       -0.087404154 0.03081249 -0.044603135 -0.07102835
000040 00 8d 64 bd 45 68 64 bd fe 72 2a bc 06 ab d7 3c
       -0.05579853 -0.0557635 -0.010403393 0.026326668
000050 f6 d7 c2 3b 83 49 33 3d 21 0b 7e 3c dd fc 79 bc
       0.0059461547 0.043771278 0.015505583 -0.015258041
000060 d9 05 10 bd 73 10 7f 3b 6b a2 13 bd 97 65 9f bc
       -0.035161827 0.0038919717 -0.036043566 -0.019457621
000070 89 f7 e2 bb f3 05 0c bb 3c d4 11 bc 86 4b 76 bb
       -0.006926481 -0.002136585 -0.008900698 -0.0037581637
000080 af 22 d0 bc a1 81 8b bd a2 7a 50 3c 3d 54 74 bd
       -0.025407163 -0.06811834 0.01272455 -0.05965065
000090 50 14 10 3d d5 71 b3 3c ee 8c 37 bd b3 1b 49 bd
       0.03517562 0.021904865 -0.044812135 -0.04909868
0000a0 95 d6 53 bd ce bb 46 bd f7 41 d7 bc 43 14 0f bd
       -0.051718313 -0.04851895 -0.026276572 -0.034931432
0000b0 46 97 07 bd fe fe f9 bc e3 85 31 bd 1c 5d 8a bd
       -0.03310325 -0.030517098 -0.043340575 -0.067560405
0000c0 b1 96 9e bc ca 88 ce 3c 18 ce 46 bd fd 62 c7 bd
       -0.019358965 0.02521171 -0.04853639 -0.097356774
0000d0 44 dd 99 bd 6a 78 56 bc 00 95 bc bc db b2 75 3c
       -0.07512906 -0.013090232 -0.023020267 0.014996256
0000e0 5f d2 10 bd 83 4b ac bd d2 c3 7c bd ac 31 81 bc
       -0.035356876 -0.0841284 -0.061710186 -0.015770756
0000f0 0e b0 39 3c 25 2f 60 bc 0b 4d 0b bd 14 49 5b bd
       0.011333479 -0.013683115 -0.03400902 -0.05353649
000100 e7 bc 3f 3a 44 ab 2f bd c0 d3 2c 3d eb da bb bc
       0.00073142204 -0.04288794 0.042194128 -0.022931537
000110 e6 f9 a1 bc 38 89 98 bd 96 db 79 bd a8 8a 21 3d
       -0.019772481 -0.074480474 -0.06100043 0.039438874
000120 bb 4d 3e bd dc f0 4b bc 57 fd 21 3d a3 71 8b bd
       -0.04646085 -0.012447562 0.039548244 -0.06808784
000130 4a b6 7f bc f2 aa 18 3c b2 73 8c bd ef e6 8b 3c
       -0.015607426 0.0093181 -0.06858005 0.017077891
000140 99 2f 9c bd 88 c3 50 bd 03 07 4d bd 0c 3b 27 bd
       -0.07626266 -0.050967723 -0.050055515 -0.040827796
000150 61 b0 36 bc 74 61 64 bd a9 d4 b1 bd e3 b1 a5 bd
       -0.01115045 -0.055757 -0.0868314 -0.0809057
000160 16 18 c8 bd 1d 3d 2c 3d 83 3d 9a 3c 95 01 a3 bc
       -0.09770219 0.04205047 0.01882816 -0.019898215
000170 14 f4 6f bd 00 d0 97 bd bc 0b 73 bd 9c a4 37 bd
       -0.05858238 -0.0741272 -0.059337363 -0.044834718
000180 57 71 e4 3c 2c 1c 93 bd 1a 42 cf bd 0a cc eb 3c
       0.027886076 -0.07183108 -0.1012003 0.028783817
000190 8c 2b fa 3b 48 a7 92 3c ff 20 d4 bc 38 39 42 bd
       0.0076345857 0.017902032 -0.02589464 -0.04741785
0001a0 20 4c 4d 3c 00 6b c4 3c 33 12 81 bd 71 b1 00 bd
       0.012530357 0.023976803 -0.06302299 -0.03141922
0001b0 19 e9 bc 3c 19 be bc bd 5d 6e 2b 3c b8 59 f6 bc
       0.023060368 -0.09215946 0.010463324 -0.030072078
0001c0 f5 9b 62 bd ce c3 6e bd 0c 93 42 bd 07 58 e4 bc
       -0.055324513 -0.058292203 -0.047503516 -0.027874006
0001d0 f5 51 84 bd c9 08 05 bb d3 f7 9f bc 2d dc 64 bd
       -0.064609446 -0.0020299426 -0.019527351 -0.05587404
0001e0 31 5b 7f bd e6 36 c2 bd 94 c2 51 bd 0d 57 83 bd
       -0.062342826 -0.09483127 -0.051210955 -0.06413088
0001f0 60 6e 0d bd 9b 0e 01 bd 79 db 95 bd 5b 32 6c bb
       -0.03452909 -0.03150807 -0.07317252 -0.0036040756
000200 a3 8f 1c bd af 72 18 3d 62 12 57 3c 01 43 21 3b
       -0.03822292 0.037218746 0.013126941 0.0024606588
000210 d3 ae 0b 3c 93 bd 4e bd 39 95 b9 bd 6b ed 69 bd
       0.008525568 -0.05047376 -0.09061665 -0.057111185
000220 17 7a 61 bd f7 36 a6 bd 9e c9 5b bd ba 95 fb bc
       -0.055048075 -0.081159525 -0.053659074 -0.030711044
000230 bf e7 9c bd eb 3e b0 bb fe 3e dc bc 38 30 39 bd
       -0.076613896 -0.005378594 -0.026885506 -0.045212
000240 25 01 58 bc 91 d8 b7 3c d1 d7 78 bc f4 b5 dc bc
       -0.013183867 0.022442134 -0.015188173 -0.02694223
000250 78 39 34 bc 05 e7 59 bc 21 d8 d5 bc e3 6d 79 bd
       -0.01100003 -0.013299708 -0.026104035 -0.06089581
000260 23 6c 06 bb 6b 49 0d bc fa 3a 4b bd e5 f2 b4 ba
       -0.0020511232 -0.008623461 -0.04961679 -0.0013805298
000270 d4 c3 0e bd 5e 5b 78 bd b8 a7 8f bc 8e 70 c8 bb
       -0.034854725 -0.06063401 -0.01753603 -0.006116933
000280 7d 3d 1e bd 7d d7 0f bd 65 78 86 bc 38 77 1f bc
       -0.03863286 -0.035117615 -0.01641483 -0.009733014
000290 8c 2e df bd c6 c6 2b bd 0c 7b 1e 3c 91 29 ba 3b
       -0.1089755 -0.041937612 0.009672891 0.0056812246
0002a0 d8 36 3a 3d d2 99 12 3c 08 6a 97 bc 4e be a7 bc
       0.04546246 0.008947806 -0.018483177 -0.020476487
0002b0 1f 59 9a bd 53 63 92 bd a9 77 a3 3c 98 16 9a bd
       -0.0753653 -0.07147851 0.01995452 -0.07523841
0002c0 b0 a6 97 3c d4 eb 88 3c 01 25 c5 bc f3 2a a9 3b
       0.0185121 0.016714014 -0.024065496 0.0051625906
0002d0 95 a2 7d bd 0a 52 f9 3c c4 cd 1c 3d 18 93 c5 3c
       -0.06192263 0.030434627 0.03828217 0.024117991
0002e0 8c 99 04 bd ca 5e bc bc f9 9d 59 bd cf 63 52 bd
       -0.032372996 -0.022994418 -0.05312917 -0.051364716
0002f0 35 c8 58 bd 4d 16 04 bd 6b 99 0e bc 0a dd dd 38
       -0.052925307 -0.03224783 -0.00870357 0.00010579273
000300 4e f3 24 bc 5a b2 ee 3c a9 18 7e bd 2c 6c 09 bd
       -0.010067774 0.029137779 -0.062035237 -0.033550426
000310 b5 51 fd b8 b8 34 a4 3c 5d 52 a4 bd 16 82 5c bd
       -0.00012079199 0.02004467 -0.08023522 -0.053834997
000320 e8 8f 49 bd 56 d8 40 bd da d1 a0 bc 25 49 a4 bd
       -0.049209505 -0.047081314 -0.019631315 -0.08021764
000330 81 7f c8 bc d6 08 24 bd c6 6c 41 bb 49 3f f7 bb
       -0.024474861 -0.04004749 -0.0029514297 -0.007545386
000340 bd 3e e6 bc 99 31 4b 3d 3f f8 8c bd fa 2b c6 bc
       -0.028106088 0.049607847 -0.06883287 -0.024190892
000350 7b 09 8d bd 02 2c 9c bd 45 72 a0 bd c1 29 82 bd
       -0.06886574 -0.07625581 -0.07834295 -0.0635562
000360 36 7b 8d bc da be 96 bd 56 e1 82 bc 6c a0 3c 3d
       -0.017270666 -0.07360621 -0.01597659 0.046051428
000370 70 27 39 bd dd 71 07 bd e6 7b 11 bd 79 e9 7f bd
       -0.045203626 -0.033067573 -0.03551855 -0.062478516
000380 66 a5 25 bd d0 92 37 ba f9 93 50 bc d1 17 5d bc
       -0.04044094 -0.0007002773 -0.012730592 -0.013494448
000390 2d fd 65 bd 65 6e d7 bc 6f e3 02 bd 06 b8 d4 bc
       -0.05614965 -0.026297757 -0.03195518 -0.025966655
0003a0 97 6e 89 bd 4d cd bc 3b 72 3b 74 bd 41 32 e4 3b
       -0.067105465 0.0057617784 -0.059627004 0.0069639985
0003b0 0b 5e b2 bd 89 67 98 39 68 10 5e bd 3e 30 12 bd
       -0.087093435 0.0002906884 -0.054214865 -0.03569054
0003c0 0c 3b b9 bc 85 7f 66 bd 63 4a 12 3d 90 62 dc bc
       -0.022611164 -0.056273956 0.035715472 -0.026902467
0003d0 d3 9f 1f bc 5c 0a 88 bc 91 01 09 bd a5 bd 6b bd
       -0.009742695 -0.016606502 -0.03344876 -0.057553906
0003e0 81 b3 f3 3c 47 ae c6 bd ab ca 2e 3c 08 5a 00 3b
       0.02974868 -0.097012095 0.010668437 0.0019584913
0003f0 89 6f 7a bd bb bb 9d 3b 84 45 a8 bc b7 3e 94 bc
       -0.061141524 0.004813639 -0.02054096 -0.018096311

bias f4 [256]
000000 d1 97 04 be a2 e6 c9 bf 49 35 c0 bf 31 a9 af bd
       -0.12948538 -1.5773509 -1.5016261 -0.085771926
000010 41 27 67 bd 23 10 23 c0 4c 10 87 bf 8a 2f 98 bd
       -0.05643392 -2.54786 -1.0551848 -0.07430942
000020 72 46 51 bf 84 09 be be fc 20 69 be 4f 60 88 bf
       -0.81748116 -0.37116635 -0.22766489 -1.0654391
000030 cb b0 7c bb 76 84 63 bf 3c 43 92 bf b6 ee b0 be
       -0.0038557525 -0.88873994 -1.1426768 -0.34557122
000040 53 f3 a1 bc 6a 69 a4 be fe b4 f2 bf 0c d3 9f be
       -0.019769346 -0.32111675 -1.8961484 -0.31215703
000050 32 7f f6 bd 9e 44 b4 bf dc 86 5d bf 75 ba 11 be
       -0.12035979 -1.408344 -0.86533904 -0.14231284
000060 e7 68 4b bc b0 19 0d be 00 ca bd bf fc f9 b5 bd
       -0.012415147 -0.1377933 -1.482727 -0.08885571
000070 85 d7 03 bf 60 20 3f bf 04 6e c4 bd ad 99 bc bf
       -0.5150073 -0.74658775 -0.09591296 -1.4734398
000080 6d 96 27 bc 60 70 60 bf 36 e4 75 bf d3 48 d1 bf
       -0.010228735 -0.8767147 -0.9605135 -1.6350349
000090 23 0b 94 3e 59 34 4d bf 40 44 ab bf d2 a7 83 bf
       0.28914747 -0.80158 -1.3380203 -1.028559
0000a0 d8 70 9e be 6f 67 0b be 1f 29 67 be b7 08 06 be
       -0.30945468 -0.13613676 -0.2257428 -0.13089262
0000b0 3b 25 65 bf a7 ad 7e bf 77 d8 21 be 7c 18 bd be
       -0.89509934 -0.9948372 -0.15805231 -0.36932743
0000c0 d2 7e 31 bf 1b 9f dd 3e 0d ed 90 bf 98 11 28 bd
       -0.6933414 0.4328545 -1.1322342 -0.041032404
0000d0 98 dc a9 bf a6 ac cc bf 41 00 a0 bf b6 ad c6 bf
       -1.3270445 -1.5990188 -1.2500077 -1.5521762
0000e0 f2 ac 82 bf 48 cf 91 3d 76 54 21 be 1c 4b 37 be
       -1.0209029 0.07119614 -0.15754876 -0.17899746
0000f0 52 cd a7 bf 54 26 9f bf 39 ec 38 bf 1e 16 a6 bf
       -1.3109534 -1.2433572 -0.7223545 -1.29755
000100 39 08 59 bf 8b 77 36 bf eb 3b 9f bf e2 1c 3a 3d
       -0.8477817 -0.7127616 -1.244016 0.0454377
000110 b4 50 b9 be 99 12 5d bf 2c a0 1f c0 8c b3 b7 bf
       -0.36194384 -0.863565 -2.494151 -1.4351668
000120 5b b6 00 bd b8 db 8c be 39 35 5d bd bf 89 a0 3e
       -0.031423908 -0.27511382 -0.054005835 0.31355092
000130 67 b7 d2 bd 9b ea a9 bd 32 39 98 bf 6d 37 3c bf
       -0.102888875 -0.082967006 -1.1892455 -0.73522073
000140 ae 8e 82 bf cd 32 7c bf c1 91 96 be c5 88 3c bf
       -1.0199792 -0.98515016 -0.29408076 -0.73646194
000150 2f d4 42 bf 21 ff 60 bf 44 6e 45 bf 40 52 41 bf
       -0.76105016 -0.87889296 -0.77121377 -0.7551613
000160 0a 39 ea bd bb e8 db bd 19 0f d5 bf e3 65 0f bd
       -0.114366606 -0.10737749 -1.6645232 -0.035009276
000170 2d 34 79 bf a0 0c 93 bf e7 9c 0c c0 97 97 81 bf
       -0.9734524 -1.1488228 -2.1970766 -1.0124387
000180 5f d7 c4 bf 6d be 69 bf 3e a5 1d bd a8 fb 03 bd
       -1.5378226 -0.9130619 -0.038487665 -0.03222242
000190 e3 1f cd bd 16 a9 06 bf 9a 2d da bf f1 6d 5a bf
       -0.100158475 -0.52601755 -1.7045166 -0.8532401
0001a0 c8 2d 80 be 51 7c 9b bf f6 1c b5 bf 91 53 18 bd
       -0.25034928 -1.2147313 -1.4149463 -0.03718907
0001b0 98 01 d5 bd 45 fa e2 be ed 93 5c bd 11 1d 88 bd
       -0.104006946 -0.44331565 -0.05385201 -0.06646169
0001c0 a5 08 49 bf f5 b5 9f bf bc be 0b bf a3 cf 06 bf
       -0.78528816 -1.2477404 -0.5458791 -0.5266058
0001d0 ca e5 2a bf 5a af fb be be c9 82 bf ee df ff bd
       -0.6675688 -0.4915722 -1.0217817 -0.12493883
0001e0 48 e4 03 bf 5e a1 de bf fb ff 9a bd 39 07 04 c0
       -0.51520205 -1.7392995 -0.07568356 -2.0629408
0001f0 97 41 1a 3d 98 21 d6 bd e3 12 39 bf 42 c7 d8 bd
       0.037660208 -0.10455626 -0.72294444 -0.105848804
000200 8b 1b 6a bf 1f 4e 84 bf 39 66 33 bf b4 03 7e bf
       -0.9144828 -1.0336341 -0.70077854 -0.992244
000210 ee 79 b6 be b7 be 6d bb eb cf 1b bf 29 1a 03 bf
       -0.356399 -0.0036277005 -0.6086413 -0.5121179
000220 15 fc f4 be b2 e2 8b 3c 58 62 cf 3d ff ae e5 be
       -0.47848573 0.01707587 0.101261795 -0.44860074
000230 00 6b 65 bf af 1c 00 c0 12 28 a8 bf b7 c6 5b be
       -0.89616394 -2.0017507 -1.3137228 -0.21462522
000240 34 e8 72 bf 86 b4 48 bd a2 9f 96 bd 1d f5 aa be
       -0.94885564 -0.049000286 -0.07354666 -0.33390132
000250 bf 66 d7 be 85 8f 35 be 26 d4 10 bf 1f 12 10 3d
       -0.42070577 -0.1773053 -0.5657371 0.03517353
000260 19 06 d6 bd 2e 30 0c bf cd ca b6 bf 9c 49 63 bf
       -0.10450382 -0.54761016 -1.428064 -0.88784194
000270 99 3d fc be a5 62 31 3f 41 4b 65 bf 61 c1 85 bf
       -0.49265745 0.69291145 -0.89567953 -1.044964
000280 73 be ee be 5d 47 04 bf ff 2b bf be a9 e6 70 be
       -0.46629676 -0.5167139 -0.37338254 -0.2352549
000290 c8 63 4a bf 87 d3 2a bf ed 6c 45 bf 32 35 c9 3e
       -0.79058504 -0.66729015 -0.7711933 0.39298397
0002a0 43 11 4b bd 42 b3 1b 3f 1e 7f 29 bf b8 04 82 bf
       -0.04957701 0.608204 -0.6620959 -1.015769
0002b0 ba 6c ab bf aa 1b 00 bf 05 12 5e bf 7c 93 49 bf
       -1.3392556 -0.5004221 -0.86746246 -0.7874067
0002c0 2c 1e e6 bd b9 42 8b bf fd 62 38 be 6c aa 87 be
       -0.112362236 -1.0879737 -0.18006511 -0.2649721
0002d0 3d 12 4e bf 84 17 c1 be db 0c 2a bf c4 32 e3 bf
       -0.8049658 -0.37713253 -0.66425866 -1.7749867
0002e0 57 86 19 be 45 cf a2 bd 15 b2 9d bf 66 b8 85 bf
       -0.14992653 -0.0794969 -1.2319971 -1.0446899
0002f0 3f 0d f1 bc 9d 78 76 be ab de b0 3c 74 c7 79 3e
       -0.029425262 -0.24069448 0.021590551 0.24392492
000300 29 aa a3 bf db 97 ad 3f 5b 46 0c bd 35 63 5d bf
       -1.2786304 1.3561968 -0.034246784 -0.864795
000310 17 d0 c5 bd 2d 0f 98 bf 49 85 b3 bf a5 50 6e be
       -0.096588306 -1.1879631 -1.402505 -0.23272951
000320 57 0e 90 bf 4c 51 1b be a6 a6 72 bf ac 03 5a bf
       -1.1254376 -0.15167731 -0.94785535 -0.8516185
000330 d4 20 b2 bf ae 7c 28 bf 0d 32 cf bd bd 35 0e 3d
       -1.3916268 -0.65815246 -0.10116968 0.034719218
000340 ea 09 32 be 0e 31 6d bf f0 83 37 bf 25 e2 76 bf
       -0.17386594 -0.92652977 -0.71685696 -0.9643882
000350 c9 20 96 bf b3 7f 84 bf b9 a8 9b bf 31 fd 0b be
       -1.1728755 -1.0351471 -1.2160865 -0.13670804
000360 8d ee 04 be 6e 64 95 bf 45 f3 d1 bd 5b 13 c2 be
       -0.12981625 -1.1671274 -0.10251478 -0.37905392
000370 d3 1a 9f 3e cc ad ab 3d 13 5f 06 bf b4 ec 08 be
       0.31075153 0.083827585 -0.5248882 -0.13371545
000380 4d 09 5e bf 48 cf a2 bf bf 2a 4f 3e ad da 8f bf
       -0.8673294 -1.2719507 0.2023115 -1.123861
000390 cb f6 4a bf 63 5f a7 bd a5 a3 f9 be e6 c5 aa 3e
       -0.79282826 -0.081724904 -0.48757663 0.3335411
0003a0 22 b9 85 bf 84 ff 1d bf 78 f5 99 bc 2e 69 17 bf
       -1.0447123 -0.6171801 -0.018793806 -0.59144866
0003b0 94 80 17 bf bb 3c 98 bf 19 3f 30 bf 58 5c e7 be
       -0.5918057 -1.1893533 -0.6884628 -0.4518764
0003c0 93 3e 0b bf 37 fa b7 bf b0 5e 8d bc f4 8d bf bd
       -0.54392356 -1.4373235 -0.017257065 -0.09353247
0003d0 18 53 ac bd 1b 78 cf be c5 55 d7 bf 8f 6d 83 3d
       -0.084142864 -0.4052132 -1.682305 0.06417381
0003e0 58 10 c9 bf 4b 16 7f bf fe 8b d1 bd 23 fb 30 bf
       -1.5708113 -0.9964339 -0.102317795 -0.69133204
0003f0 f2 ce 01 3c 46 8a f7 bd 49 98 e4 bc 6f 4a 9d bf
       0.007922875 -0.120869204 -0.027904646 -1.228834

weight f4 [8, 256]
000000 9a 3d 8d 3a f1 c8 62 bf 53 5b cd be 89 7b a0 3c
       0.0010775805 -0.8858786 -0.40108737 0.019590156
000010 19 c5 a5 3c ea 75 90 3f 29 5b 10 bf c5 fc 01 3d
       0.020235585 1.1285985 -0.563891 0.0317352
000020 26 68 3a be 6a 07 60 3c c3 a2 09 bf a4 b4 39 bf
       -0.18203792 0.013673643 -0.5376398 -0.7254126
000030 0c de f8 bd 03 c3 09 be b6 47 d1 bd 0e 0a ff 3e
       -0.12151727 -0.13453297 -0.10218756 0.4981236
000040 e9 ef e1 bd 88 c4 17 be 41 4e cc bc 3e 13 d2 bd
       -0.11032087 -0.14821064 -0.024939658 -0.102575764
000050 9d d8 89 bd 75 c4 26 bf 2f 9d 78 3f 91 b2 a6 3c
       -0.06730769 -0.6514352 0.97114843 0.020348819
000060 3f 84 5d bc eb 79 30 3f f4 8e 9d 3d 94 ca 4c 3e
       -0.013520299 0.6893603 0.07693282 0.19999152
000070 98 85 a5 3e c7 d6 b1 3e 7f e6 14 3d 0b 14 3e bf
       0.32328486 0.34734175 0.03635263 -0.74249333
000080 83 48 0e be ca 0b bd 3d 08 1c 05 3e f1 7f 13 bf
       -0.13894849 0.09230764 0.12998974 -0.576171
000090 ac d0 ab bb 98 34 77 3f 66 9c 60 3f 23 7e 50 3f
       -0.0052433815 0.96564627 0.87738645 0.8144247
0000a0 50 02 7b 3f 7a 60 7b bd d5 09 fc be 53 ac ee 3e
       0.98050404 -0.061371304 -0.4922625 0.46615848
0000b0 6e 1f fc be 78 08 43 bf 79 1c 74 bd 8b 6e 21 c0
       -0.4924273 -0.761848 -0.059597466 -2.522372
0000c0 67 48 0a 3f 38 9f 3f bf 99 d9 28 bf 9b c5 9c 3c
       0.5401673 -0.74852324 -0.6595703 0.019137194
0000d0 68 aa 1b 40 44 ba ff 3c e8 29 bc bf 4d 67 9a 3c
       2.4322758 0.031216748 -1.4700289 0.018848086
0000e0 91 36 cd 3e 98 be 1f bd 73 e0 1c bf 51 a2 3d bf
       0.40080693 -0.039000124 -0.6127998 -0.740758
0000f0 73 c7 82 be 54 66 1a 3f 7f b8 f5 bc 4c c6 80 3e
       -0.25542793 0.6031239 -0.029995201 0.25151289
000100 ab 0a 8f 3f aa 08 34 3e d0 ff 0e 3f 55 25 d7 be
       1.1175131 0.1758143 0.5585909 -0.4202067
000110 26 a6 44 3f 33 93 05 bf a9 1a 2b 3f 7f d8 9b 3c
       0.7681602 -0.52177733 0.66837555 0.019024132
000120 5b 02 e0 3c ca 91 57 3f 35 bb f2 3c e0 03 95 bf
       0.027344873 0.8420683 0.029630283 -1.1641808
000130 7a 24 e1 3c 8d e6 77 3c 4c 09 2f 3f 75 f7 3a bd
       0.027483214 0.015130651 0.6837356 -0.04564615
000140 a8 8d 02 bf 1a ab a1 be 5f 71 32 3f 28 5b 8d bc
       -0.509974 -0.31575853 0.6970424 -0.01725538
000150 35 05 9c bf 99 92 3b 3e 4c e0 8d bd 46 15 2b 3e
       -1.2189089 0.18317641 -0.06927547 0.16707334
000160 24 5f 4d 3c 1b 63 53 bd 23 15 4c 3e 36 8f 23 bb
       0.01253489 -0.051608186 0.19929938 -0.0024957187
000170 6f fd 05 c0 26 f5 9c 3f 38 09 23 40 6c a5 33 bf
       -2.0935934 1.2262313 2.5474377 -0.7017429
000180 32 60 89 3e 9b d5 8b be 3c 26 9e bb a3 2d d6 3e
       0.26831204 -0.27311406 -0.0048263352 0.41831693
000190 1e 27 98 3d 14 8d e4 be b6 70 22 be b2 a0 42 bc
       0.07429336 -0.44638884 -0.15863308 -0.011879133
0001a0 59 75 ae 3e 16 dd 65 3f fc d5 43 3f 4e 5d 90 bd
       0.34073904 0.89790475 0.7649839 -0.070490465
0001b0 da ed 3d 3d a2 98 3a bf e9 56 ce 3c ff c7 3a bd
       0.04636941 -0.7288915 0.025187926 -0.045600887
0001c0 4f ab 33 bf 8d 6b 3b 3f 6e 11 3f be 7b 4e 54 3f
       -0.7018327 0.73210984 -0.18658993 0.8293225
0001d0 2b df c5 be 16 90 c7 be 35 12 09 bf 4e 56 34 3d
       -0.38646826 -0.38977116 -0.53543407 0.04402762
0001e0 84 2d 96 be 57 eb 32 3e 70 d4 67 bc 82 ae 26 3f
       -0.293316 0.17472588 -0.01414977 0.6511003
0001f0 6d de 82 3f cb 53 93 3d ec f3 b4 be 3d 0a 2b bf
       1.0224129 0.071937166 -0.35342348 -0.668125
000200 64 88 1e bf 95 81 1e bf 06 85 52 bf 06 5d 09 bf
       -0.61926866 -0.61916476 -0.8223423 -0.5365757
000210 63 bd 49 bf d9 15 9f 3d 3e f5 25 40 83 4b 58 bf
       -0.78804606 0.07767839 2.5930934 -0.8449022
000220 6e 59 ee be 37 8f a1 3c b8 48 0d 3f 58 b7 b3 be
       -0.46552604 0.01972161 0.55189085 -0.35100818
000230 b9 9d a5 be 5c 45 98 bd 4d ba 0f bf e5 97 b3 be
       -0.32346895 -0.07435104 -0.5614365 -0.35076824
000240 2b f9 bd bf bf 5a 8e 3c f3 0f 4a bd 22 55 34 bf
       -1.4841665 0.017377255 -0.049331617 -0.704424
000250 e0 d4 41 3f f5 89 50 3d 29 87 4e bf 40 55 4e bc
       0.75715446 0.050912816 -0.8067499 -0.012593567
000260 02 be d0 bd 06 81 a8 3d 4e 4d a5 3e e0 8f 6d 3e
       -0.10192491 0.08227734 0.3228554 0.23199415
000270 53 5a 11 be 87 1e 06 3f f4 52 15 bf bf 6a d3 3c
       -0.14194612 0.5239033 -0.583297 0.025807736
000280 59 29 c5 3e fa 9c c7 be 71 3a 64 bf 72 c5 ef be
       0.38508108 -0.3898695 -0.89151675 -0.46830326
000290 b0 86 1f be 6d e3 65 bf fa 60 20 be 71 78 cb 3d
       -0.15578723 -0.8980015 -0.15661994 0.09935082
0002a0 29 bb 8f bc 9c e5 35 3e 4c 54 37 3e 19 e1 a3 3e
       -0.0175453 0.1776337 0.1790325 0.32007673
0002b0 9d 17 81 3e 50 0d 88 3e 04 c6 b3 be d3 11 38 3e
       0.25213328 0.26572657 -0.3511201 0.1797555
0002c0 43 05 3d 3d 99 d5 7e be a7 4d 89 bf 62 7f 84 bd
       0.046147596 -0.24886169 -1.0726823 -0.06469609
0002d0 3d f8 18 bf c9 ae 7f be 61 a3 7c 3c f7 34 2c bf
       -0.5975378 -0.24969019 0.015419812 -0.6726832
0002e0 b3 6c 84 bd e7 7b 73 bc 9f 78 4b bf 2c bf a9 bf
       -0.06466045 -0.014861084 -0.7948093 -1.3261466
0002f0 9e ca d4 3c 8d 4f 8f be 1f 0a cb be d4 39 24 be
       0.025975522 -0.2799038 -0.3965616 -0.16037685
000300 f3 9d 0d 3f 85 bf 06 3e 9e fa cb bc 21 06 3f 3e
       0.55319136 0.13158996 -0.024899777 0.18654682
000310 b6 f9 50 3d f0 da b1 be 9c 04 15 be d9 83 52 3f
       0.051019393 -0.3473735 -0.1455254 0.82232434
000320 88 49 47 bf c0 b6 2e be 2b 91 0a bf 1d b6 86 3f
       -0.77846575 -0.17061901 -0.5412776 1.0524327
000330 46 f3 12 bf 66 06 5c bf 27 fc 3a bd b8 ba 7b bd
       -0.57402456 -0.85947263 -0.045650627 -0.061457366
000340 bd 2c f9 be 87 59 b8 be 07 dd 01 c0 a2 2b 12 3e
       -0.48666945 -0.36005804 -2.0291154 0.14274457
000350 88 40 b7 3e 79 55 56 bd 7e 16 26 3f 88 78 84 3d
       0.3579142 -0.052327607 0.6487807 0.06468302
000360 c5 cd 97 bb c4 37 6c 3e 7f 44 9c bc b0 bf 77 be
       -0.004632684 0.23068148 -0.01907563 -0.24194217
000370 cf e8 e6 bc fd da e6 3d 4c 57 05 bf e9 b1 99 3e
       -0.028187184 0.112722374 -0.5208633 0.30018547
000380 14 ae 0a 3f 16 d3 0d 3f f1 76 41 bf b1 87 68 3e
       0.5417187 0.55400217 -0.75572115 0.22708012
000390 af 44 fc be 22 ce 2a 3f 39 1c 6e 3e df 68 5c 3f
       -0.4927115 0.66720784 0.23252954 0.8609752
0003a0 b9 ba 76 be 21 39 2d 3f d4 b4 a3 3c 14 87 49 bf
       -0.24094667 0.67665297 0.019983687 -0.7872174
0003b0 d1 42 17 3f b0 31 b6 3c 25 f5 07 be eb 38 87 be
       0.5908633 0.02224049 -0.13277109 -0.26410612
0003c0 68 4c e6 3e fa 98 37 3e bf 86 99 3c 46 f6 b4 3c
       0.44980168 0.1792945 0.01874101 0.022090089
0003d0 c6 d5 7c bd 91 a7 30 bf b6 18 a8 3f 81 d4 46 bf
       -0.061727308 -0.69005686 1.3132541 -0.77668005
0003e0 93 10 45 3f 6a 7a 1b 3f 31 0d 92 bd 58 c5 00 bf
       0.76978415 0.60733664 -0.07131422 -0.5030112
0003f0 27 f1 de bc 2d 44 9b bc 9d ad eb bc 9e 0d 34 bf
       -0.0272146 -0.018953407 -0.028769309 -0.7033328

bias f4 [8]
000000 22 dd 13 bf a1 5d 2c 40 06 62 28 40 1d d1 55 3f
       -0.57759297 2.6932147 2.6309829 0.83522207
000010 4a 98 9b be 41 27 8f bc 6a 5a 2d 3f 78 59 97 3d
       -0.30389625 -0.017474772 0.67716086 0.07390112

weight f4 [256, 119]
000000 98 0a 3e c0 0a 57 92 c0 da fe 6b 41 3e 62 1a c0
       -2.9693966 -4.573125 14.74972 -2.4122462
000010 f8 c0 a2 3f a1 e0 17 3f f8 68 ea 3f 54 fb de be
       1.2715139 0.5932713 1.8313284 -0.43551123
000020 75 8c 5a 40 28 fd 37 c0 5d de 44 40 0c b5 e7 be
       3.4148228 -2.8748264 3.076072 -0.45255315
000030 aa 0b 56 c0 52 52 ce bf b6 b8 29 3f f2 d4 2e bf
       -3.344462 -1.6118872 0.6629747 -0.6829368
000040 40 bc 37 bf d4 98 c2 3e e2 b0 92 bf 1a 8a c4 bd
       -0.7177162 0.38007224 -1.146023 -0.09596653
000050 82 b2 7e 3e a1 58 fa bd 3d 3f d8 3d d9 8e 4b be
       0.24872783 -0.12223936 0.10558937 -0.19878711
000060 ab bc 15 3e a0 63 6d be d1 99 ca 3c 80 44 12 bd
       0.14622752 -0.23182535 0.024731549 -0.035709858
000070 48 93 4b 3c 50 02 a1 3c c6 ab 14 3d 10 03 be bb
       0.012425251 0.019654423 0.03629663 -0.005798705
000080 e3 39 9f bd bc 8e 32 bd 25 92 0f bd d5 01 86 bd
       -0.07774713 -0.043593153 -0.035051484 -0.06543318
000090 92 75 f7 bc e0 13 8a bb c0 19 34 bb 94 34 a7 bc
       -0.03020743 -0.004213795 -0.0027481169 -0.020410813
0000a0 47 a3 3c bd c4 ea 8e bd e0 d3 90 3c 43 17 69 bd
       -0.04605415 -0.06978372 0.017679155 -0.05690695
0000b0 8c 66 aa bd 28 ea 33 3c 5e 0e 38 3d 20 72 2a 3b
       -0.083203405 0.01098112 0.044935577 0.0026007965
0000c0 5e 07 32 3d 22 f9 0c 3d 6e 66 0a bd 8c e4 67 bd
       0.043464057 0.03441728 -0.03378909 -0.056614444
0000d0 00 47 4d bb f2 67 a0 bd 5f 95 01 bd 50 de b8 bd
       -0.0031322837 -0.07832326 -0.031636592 -0.09026778
0000e0 db 78 53 bd 00 3a 0c 3a 05 36 b3 bd cc 42 d6 bc
       -0.05162893 0.0005349219 -0.08750538 -0.026154898
0000f0 fb e1 99 3d 10 1a 5e bd 02 4e 0a 3d c4 e2 d1 bc
       0.075138055 -0.054224074 0.0337658 -0.025620826
000100 04 06 b4 bd 08 f8 96 bc 68 52 cf bc b0 e0 a3 3c
       -0.0879021 -0.018428817 -0.025307849 0.0200046
000110 4c f9 a9 bc c9 45 8d 3d a1 fd 94 3d 80 42 25 3a
       -0.020748757 0.06898076 0.072749384 0.000630416
000120 9a 0b 6e 3d c8 03 0b bd 6a 26 2f 3d b8 cb a8 bd
       0.058116533 -0.033939153 0.042761244 -0.08241981
000130 ac 69 ff 3c 23 20 9e 3d fb b3 85 3d 05 3a 84 3d
       0.031178318 0.07720973 0.06528469 0.06456379
000140 34 9c d5 bc 9c b9 98 bc ea b4 48 3d 00 b4 8c bb
       -0.02607546 -0.018643193 0.049000658 -0.0042939186
000150 a4 57 9e bd 00 9f 7d ba 17 07 b9 bd 9c a1 18 bd
       -0.0773156 -0.0009674877 -0.090345554 -0.037263498
000160 90 6b 48 3c 58 8e 86 bd 1f 4e 75 bd aa 50 4f 3d
       0.012232676 -0.06570119 -0.059888955 0.050614037
000170 4a ec 73 bd 1f b3 12 bd a3 15 a3 bd db 3c 89 3d
       -0.059551515 -0.035815354 -0.07963111 0.067010604
000180 79 08 07 bd 2e 9e 86 bd 2a ac 7a 3d 2d dc 8f 3d
       -0.032967065 -0.06573139 0.061199345 0.07024417
000190 08 9b 05 bd fa 96 99 bd 25 4a 62 bd d5 a5 a0 3d
       -0.032618552 -0.074994996 -0.05524649 0.0784413
0001a0 6c 25 ab bd 3f aa 04 bd 60 a4 24 3c 9f 70 90 3d
       -0.08356747 -0.03238892 0.010048956 0.07052731
0001b0 b6 0d 5c 3d e4 0c 9e bc 4a d9 4b 3d a8 98 9c 3f
       0.053724013 -0.019293256 0.04976777 1.2234087
0001c0 49 b9 36 3d c1 3d 5b bf ad a7 6f bf ad a8 cd be
       0.044610295 -0.85641104 -0.9361523 -0.40167752
0001d0 3a fd 1f bf b3 c8 65 3f 1b 04 4e be 4b 99 bf c0
       -0.6249577 0.8975937 -0.20118754 -5.9874625
0001e0 7e 6a 1f c0 f5 ba 93 bf 7d 58 82 bf b9 3c e5 bf
       -2.4908748 -1.154143 -1.0183254 -1.7909156
0001f0 98 e0 ec 3f be 8a 0f c0 d4 e9 77 bf a7 54 aa 3e
       1.850604 -2.2428432 -0.9684117 0.3326771
000200 6a f4 b9 bf d0 a0 31 40 cf 27 02 c0 1d 7d 0b c0
       -1.4527714 2.7754402 -2.0336797 -2.1795113
000210 2d 9b 0f 3f c8 a0 24 bf 05 b7 fc 3f 84 f6 c4 3e
       0.56096154 -0.6430783 1.9743353 0.38469326
000220 3a 1a c8 3f e1 d5 b3 3d 66 5e 91 3e da 17 3c bd
       1.5633004 0.087810285 0.28392333 -0.045921184
000230 b7 67 31 bd d7 53 b1 3e c1 6e 8d 3d 9b 82 73 3d
       -0.0433118 0.34634277 0.0690589 0.059450727
000240 b7 28 5e be 5e 73 ab 3e 40 04 e0 3a 10 bf 14 bc
       -0.21695219 0.33486456 0.001709111 -0.009078756
000250 80 e7 2a 3a 8e 9b 3b 3d f2 ec 13 3d e3 9d 89 3d
       0.00065194815 0.045802645 0.03611464 0.067195676
000260 31 0a b4 3d 03 1e 8e 3d 2d ff 4e bd ab 2b 43 bd
       0.08791006 0.06939318 -0.050536323 -0.047649067
000270 1a 5b 63 3d 29 4e 80 3d 00 cb eb b9 50 80 62 3c
       0.055506803 0.06264908 -0.0004497394 0.013824537
000280 0d b2 a0 3d fe 0d 20 3d c0 ec e0 bb e6 4a 1d bd
       0.078464605 0.039075844 -0.0068641603 -0.038401507
000290 1c ec c7 bc bd 99 a2 bd 40 00 ec ba 30 39 d3 3b
       -0.024404578 -0.079394795 -0.0018005446 0.0064460263
0002a0 cd 56 3c bd 8e 35 39 3d b9 1b 04 bd 11 93 84 bd
       -0.045981217 0.04521709 -0.032253 -0.06473363
0002b0 13 cf 32 bd a2 38 40 3d 00 d6 45 bb 70 9d f8 bb
       -0.043654513 0.04692901 -0.0030187368 -0.0075871274
0002c0 4f c3 af 3d f3 a5 4a bd 60 7c 97 3c d4 b0 c6 bc
       0.08582174 -0.049474668 0.018491924 -0.02425424
0002d0 25 fd 6e bd 60 20 80 3b d8 9f 51 bc ec 71 b2 bd
       -0.058346886 0.0039101094 -0.012794457 -0.08713135
0002e0 8c 11 94 3c a4 42 af bc 8b bc a9 3d e8 cc 9f bd
       0.018074773 -0.021394081 0.08287915 -0.07802755
0002f0 00 ad 5c 3c 10 ab ba bb 7d 4e b5 3d 0a a6 47 3d
       0.013468981 -0.005696662 0.08852861 0.04874233
000300 16 38 b7 bd 9c ef d2 3c 20 69 54 3c 58 c6 9c bc
       -0.089462444 0.02574902 0.012964517 -0.019137546
000310 fc 5d b5 bd 60 bb b9 bd a1 b9 98 3d 82 62 4d 3d
       -0.08855817 -0.09068942 0.07457281 0.050142772
000320 20 2e 15 3c fc cb b9 3c 97 36 b9 3d c8 a4 ff 3c
       0.009105235 0.022680275 0.09043615 0.031206504
000330 5e 59 7e bd d1 5a b8 3d b7 78 72 bd bb 5d 6d bd
       -0.062096946 0.09001697 -0.059197154 -0.057950716
000340 16 8f 69 bd 40 a7 ab ba 38 8f 3d bc c1 44 67 bd
       -0.057021223 -0.0013096109 -0.011569791 -0.056462053
000350 38 38 d1 bc 1e 4b f2 bc 7a 52 1e 3d f6 67 1d 3d
       -0.025539503 -0.029576834 0.038652875 0.038429223
000360 c0 76 1a 3b 04 67 f0 bc 37 f5 8f bd 2c f2 90 3c
       0.0023569316 -0.029345997 -0.07029193 0.017693602
000370 ec 57 85 bd 10 8a 82 bb 97 a1 8e 3d 48 af 31 3c
       -0.065109104 -0.0039837435 0.069644146 0.010845013
000380 68 0e d9 3c db ec a8 3d 80 d7 f5 3b 53 50 a2 3d
       0.026496127 0.082483016 0.0075024962 0.07925477
000390 4e 31 42 bd 46 d9 27 3d 65 a0 3c bf 13 62 2a 3c
       -0.047410302 0.040978692 -0.7368224 0.010399359
0003a0 7a 51 07 3e 7d bf a9 3e 91 de 13 bf 67 4d 67 bf
       0.13214675 0.33153906 -0.57761484 -0.9035248
0003b0 60 93 2c 3f 35 9b dd 3e 6e 74 4c c0 a5 55 b4 3f
       0.67412376 0.43282476 -3.1946063 1.4088637
0003c0 cf e3 99 c0 a2 82 65 be 08 30 dc bd 5a 77 b9 bf
       -4.8090587 -0.22413114 -0.10751349 -1.4489548
0003d0 80 46 f4 be 15 5b b3 3f 26 2a 20 40 48 6d 80 bf
       -0.47710037 1.4012171 2.5025725 -1.003335
0003e0 50 9f 62 3f 77 b0 de 3f c2 23 c9 bf f3 7a 7f 3f
       0.8852434 1.7397603 -1.5714037 0.9979698
0003f0 74 64 0e c0 a2 9c a8 3e 55 8e d7 3e 5f 12 86 be
       -2.2248812 0.32932 0.42100778 -0.2618589

bias f4 [256]
000000 16 c8 16 40 5e 70 ae bf d7 67 78 40 55 60 9f c0
       2.3559623 -1.3628042 3.881338 -4.9805093
000010 84 e7 86 c0 77 07 d6 3f d7 90 aa c0 4f ca 84 40
       -4.215761 1.6721028 -5.3301806 4.149696
000020 ac e0 99 c0 da 11 05 40 b9 93 7b 3f 0e 5e 28 c0
       -4.808676 2.0792146 0.9827228 -2.6307406
000030 48 6e 44 40 7a d5 0e 40 18 7d 9c c0 24 a0 d5 3f
       3.069231 2.2317796 -4.89027 1.6689496
000040 0a a6 9f c0 50 35 3d 40 77 37 03 40 92 89 6d 40
       -4.9890184 2.956379 2.0502603 3.7115216
000050 4a 36 1c bb 64 d5 4e c0 18 f9 83 40 09 e0 98 c0
       -0.002383607 -3.2317743 4.124157 -4.777348
000060 02 cd 8e be 5c 12 ed 3f 08 4c 06 40 21 38 c6 c0
       -0.27890784 1.8521228 2.0983906 -6.1943517
000070 cc 80 ab c0 9b 92 d5 c0 c4 95 7d c0 41 dc 69 c0
       -5.3594723 -6.674146 -3.962266 -3.6540682
000080 4a 44 e3 40 76 bc 6b 3f bf 87 f4 3f dd a0 aa c0
       7.102086 0.92084444 1.9103926 -5.3321366
000090 09 0d 95 40 27 4d b0 c0 d6 d9 62 c0 0c 96 72 3f
       4.657841 -5.509418 -3.5445457 0.94760203
0000a0 ec 40 91 c0 9e 67 8c c0 3c 90 0c c0 77 30 a4 3f
       -4.539175 -4.3876486 -2.1963034 1.282729
0000b0 b9 d1 96 40 e3 48 ab c0 32 c1 9c c0 26 82 82 c0
       4.713101 -5.3526473 -4.8985834 -4.0783873
0000c0 0b 43 16 40 33 aa b4 c0 2d b6 af c0 6b 5f 6d 40
       2.347842 -5.6457763 -5.4909883 3.7089489
0000d0 a2 bb 8a 3e 92 42 c8 c0 0e 1e 82 c0 77 cb a2 40
       0.27096277 -6.2581263 -4.066169 5.087337
0000e0 02 0c 9e c0 ac 72 89 40 ef a1 5c c0 b0 7b 1c 40
       -4.938966 4.295248 -3.4473836 2.4450493
0000f0 a2 aa 89 c0 cf 84 82 bf bc 1a 94 40 2f a3 1c c0
       -4.302079 -1.019678 4.6282635 -2.44746
000100 fd e1 fa 3f 4b b2 a0 c0 0b 6c b5 3f 57 d3 c1 c0
       1.9600216 -5.0217643 1.4173597 -6.0570483
000110 9a de a8 3f af 9d a2 c0 88 3e 87 c0 64 f3 92 c0
       1.3192933 -5.0817485 -4.226383 -4.592211
000120 28 5a 70 40 3e dd 98 bf 35 88 9d c0 63 72 aa c0
       3.7555027 -1.1942518 -4.922877 -5.326463
000130 60 44 fd bf 4a f4 b8 c0 ec 9d 6b 40 62 e9 0f 40
       -1.9786491 -5.7798204 3.6815138 2.2486196
000140 7a 3c 1b 40 c1 bf 72 40 39 fa 7b 40 22 21 1e 40
       2.4255662 3.7929537 3.9371474 2.4707723
000150 26 78 43 c0 1f f7 ed bf 9a 7c ca bf d9 5d 9d c0
       -3.0542083 -1.859104 -1.5819275 -4.917706
000160 25 01 95 c0 4a fb 26 3f 56 bd ee bf 7d 2a 9a c0
       -4.6563897 0.65227187 -1.8651531 -4.8176866
000170 98 16 8f c0 fa e5 a2 c0 4c f1 87 40 bc 64 18 40
       -4.471508 -5.0905733 4.248205 2.3811483
000180 37 75 a6 c0 bf 80 ea 40 76 8e 84 40 7c 9c c5 c0
       -5.2018085 7.328216 4.1423903 -6.175352
000190 e5 69 6a c0 94 1f df 40 60 d8 01 40 c1 f4 86 40
       -3.6627133 6.9726048 2.0288315 4.217377
0001a0 49 32 01 40 6e f2 b9 c0 d7 30 a0 c0 53 b1 80 c0
       2.0186942 -5.8108435 -5.005962 -4.021646
0001b0 0f 89 7e c0 8f 7a a0 c0 d5 0e 3e 3f 97 ae 6b 3f
       -3.9771154 -5.014961 0.7424138 0.9206328
0001c0 b2 c5 fb bf 87 d6 bf c0 59 4c 9a 40 0b 6f 15 40
       -1.9669707 -5.9949374 4.82182 2.3349025
0001d0 f9 b9 79 c0 7a a1 2e 40 ae 96 80 c0 32 84 a1 c0
       -3.9019759 2.7286057 -4.0183935 -5.047387
0001e0 0a 4c fd 3f 0a 11 2d 3f 19 8c 9e c0 76 27 4c bf
       1.978883 0.67604125 -4.954602 -0.7974771
0001f0 5f b0 9a c0 5f f1 a8 c0 dd 44 83 3f 3a 0b 87 c0
       -4.8340297 -5.2794642 1.025539 -4.2201204
000200 db 48 7f 40 20 79 94 c0 7f 62 77 c0 47 7e a2 c0
       3.9888217 -4.639786 -3.8653867 -5.0779147
000210 7f bb 8d c0 2e 85 66 40 3d 93 8f c0 e3 99 b1 bf
       -4.4291377 3.6018786 -4.4867234 -1.3875087
000220 b7 de 58 c0 5f c1 39 bf 17 69 86 40 ce c5 8f c0
       -3.3885934 -0.72560686 4.2003284 -4.492896
000230 7b 50 1a 40 46 f6 95 c0 8b 43 b0 c0 50 21 39 c0
       2.4111621 -4.6863127 -5.508245 -2.8926582
000240 09 ef aa c0 c2 35 ce 40 70 c9 62 c0 f4 36 a3 bf
       -5.341679 6.444062 -3.5435448 -1.2751145
000250 37 67 80 40 78 86 bf c0 6c 89 a3 c0 4d 51 7b bf
       4.0125995 -5.9851646 -5.110525 -0.9817093
000260 ec 24 97 c0 6f bb a9 40 74 94 48 40 cd 83 66 3f
       -4.723257 5.30413 3.1340609 0.9004486
000270 fb 64 8e c0 51 77 95 c0 db 77 9d 40 db 24 ae c0
       -4.4498267 -4.670815 4.920881 -5.441999
000280 0f 86 fb 3f 5d b4 90 bf cd 06 85 c0 bd a8 98 c0
       1.9650286 -1.1305043 -4.15708 -4.770598
000290 b2 a8 b1 c0 14 b1 db 3f 46 c3 5b be c0 3b a2 3f
       -5.5518427 1.7163415 -0.2146121 1.2674484
0002a0 b1 46 69 3f f7 7d 55 3f 36 b0 4d 40 3c e8 01 40
       0.9112349 0.8339533 3.21388 2.0297995
0002b0 2e 8d 63 40 5b f1 ad 40 a1 41 98 c0 8d bf 19 40
       3.555492 5.4357123 -4.7580113 2.4023163
0002c0 76 e7 39 c0 42 6c 8d c0 c5 e5 8d c0 ab 55 b0 3f
       -2.9047523 -4.419465 -4.434298 1.3776144
0002d0 66 c4 b8 bf dc 7d ce 40 37 6b 98 3d a8 90 c1 3e
       -1.4434936 6.4528637 0.074423246 0.37805676
0002e0 37 0b dd 3f d6 2f a6 c0 12 1b 69 40 64 58 01 40
       1.7269047 -5.1933393 3.6422772 2.02102
0002f0 9b 66 95 c0 cb 5a ee 3f 8b 23 88 c0 42 d0 f2 bf
       -4.668775 1.8621458 -4.2543387 -1.8969805
000300 ce 28 ac 3f 50 0f 5c 3f 26 25 2a 40 a3 f8 5b c0
       1.3449953 0.85960865 2.6585174 -3.4370506
000310 96 bb 99 c0 3e 1e 84 c0 24 f7 7c bd f7 5f 2e 40
       -4.8041487 -4.1286917 -0.06175913 2.7246072
000320 9a 59 7e 40 3a 07 95 c0 ca 26 00 c0 35 2b 9b c0
       3.9742188 -4.657132 -2.0023675 -4.8490243
000330 de b9 b0 40 50 81 ec be 07 7e 87 40 e8 0e 83 c0
       5.522689 -0.46192408 4.234134 -4.0955696
000340 6d 0d 7e c0 22 b3 d1 3f 79 33 51 40 9c 25 8b 3f
       -3.9695694 1.6382792 3.2687666 1.0870852
000350 dd 93 24 40 32 37 56 40 07 82 1b 40 a7 3a 9f c0
       2.5715249 3.3471189 2.4298112 -4.9759097
000360 b6 58 a4 40 c8 92 01 3f e0 bc 5f c0 10 e1 5d c0
       5.135829 0.50614595 -3.495903 -3.4668617
000370 85 88 c3 c0 e2 49 8d c0 53 19 08 40 9d 90 e2 3f
       -6.110415 -4.415269 2.1265457 1.7700382
000380 6c f7 56 40 13 58 0d 40 23 70 b2 c0 6b 02 6b 40
       3.3588514 2.2085006 -5.5761886 3.6720226
000390 5e 69 89 40 a2 dd 6d bf 2b b6 a1 c0 5d b5 17 40
       4.294112 -0.9291631 -5.0534873 2.3704445
0003a0 a7 64 d8 be 3a fc 8a c0 5a 56 09 40 42 b1 48 c0
       -0.42264292 -4.3432894 2.1458955 -3.135819
0003b0 26 69 84 c0 03 f9 6c c0 06 34 a4 3f 2a c6 1a c0
       -4.1378355 -3.7026985 1.2828376 -2.418345
0003c0 83 5b 92 c0 5c a1 a9 40 8d 5e 4b c0 bc 73 7a c0
       -4.573671 5.300947 -3.177646 -3.9133139
0003d0 f3 a8 a2 40 31 6a af c0 24 24 71 c0 9c 14 86 c0
       5.0831237 -5.481713 -3.7678308 -4.190016
0003e0 c8 78 b5 3f b8 9c 75 40 71 c1 db 3f d4 1c 02 40
       1.4177485 3.8376904 1.7168409 2.0330095
0003f0 ab 00 9e c0 c8 39 46 40 2d 6f 00 c0 e7 84 8e c0
       -4.9375815 3.0972767 -2.0067856 -4.4537234
