data/PrioritizedDDPG/Reacher-v2/prioritized_ddpg_s16508/pyt_save/model.pt (torch_old, 560703 bytes, 11 tensors)

weight f4 [256, 11]
-2.8359883 0.7711914 2.3580477 -0.77748376 2.1533012 -2.8040993 -0.20853795 0.022829643
-2.4921384 2.5841289 -0.22247042 -0.36148632 -0.24739589 -0.97963643 0.5099748 0.11012368
-7.0630608 -0.091740996 -0.25916937 -0.77907836 4.195591 0.23767298 -0.577903 1.0358481
-0.8897555 1.0705544 -6.8343005 -3.7880013 -0.6700249 0.58587295 2.6063125 1.8586658
-0.039316475 -0.14296073 0.26391563 -1.3667158 2.7949882 -0.6595667 -5.2609735 -0.012754987
0.19067563 0.15416935 3.1616442 -0.049099654 -0.88005686 -1.0084413 0.3713748 -2.370676
-1.5889887 -1.3109975 -0.35471317 -0.32807168 0.3998818 0.36187303 0.2194224 0.61764574
0.49065086 1.2282709 0.44060367 1.585024 -6.648034 0.542557 0.17404859 -2.0540211
5.0237703 -0.21176654 -0.10332244 1.2224256 0.99728113 -1.4830229 -0.8033615 3.5122561
-0.3271625 0.16594805 0.036574602 -2.9450593 -0.25265896 -1.1098268 -1.4654734 -1.4528947
-0.8428998 3.2356637 -0.45546287 0.1712784 0.15929519 -2.858779 1.1837646 0.059828103
-0.3102283 0.26216304 1.2589804 -0.22201203 -1.1983052 6.442465 0.4155072 -0.21877503
1.7347001 -3.393381 -0.29694992 -1.2120798 -1.1479467 1.1478233 2.6571186 2.597178
-0.50435793 0.08470661 -0.5335562 -3.0743604 -4.937007 0.27984434 1.170794 0.597203
1.7552177 1.5881282 0.020506177 2.4590075 -0.013413822 -0.023176918 -0.24932908 -1.4456829
0.10408446 -1.0635355 0.46564585 2.494852 -0.6059575 2.1128716 6.1234207 -0.047862306
0.41414613 -1.1779143 -3.2525957 -0.25534162 2.5876424 -0.45106623 0.6016108 -0.9033117
5.181046 -3.9011636 -0.20788963 -0.098656535 -3.7819405 3.6501515 -0.2793379 -0.09488655
-1.7793047 1.9832933 0.51030916 3.007257 -1.979249 -0.0048457556 0.2200365 -3.0064666
0.94581485 -0.25672603 -0.64961404 -1.6930547 1.5623738 -0.07402069 0.048515312 1.6875198
0.10974286 0.22756174 -0.37471443 0.27488193 0.020912796 0.09825295 1.7845296 -0.31016716
-0.9659196 7.429803 2.2655613 0.2683529 -0.25860485 -4.5397015 -1.871205 -0.0960616
0.5810593 -0.5515395 1.5390006 3.0372577 3.969013 -1.0344926 0.46020016 -0.13177629
-6.381896 3.3174386 0.031243265 0.23842718 0.2987138 1.140218 0.2836884 0.5130623
2.9315312 0.36276522 -0.38712788 0.22202447 -0.9747937 0.00628078 -1.2671406 1.5065047
-1.6147639 0.3007252 -0.65170705 2.7932858 -0.10955162 -0.005789454 0.24385548 -4.8303103
0.04680735 0.09577613 0.08610642 0.072872005 3.2162833 3.3985975 1.1796082 -0.16788389
0.1548139 -2.7822902 -0.5446079 -0.19186956 -0.6473131 0.6786036 1.510138 1.6471734
-1.3055426 -1.6101516 0.1155907 -0.021567179 -0.23067386 0.7742257 0.16216406 -1.3452713
-0.61487156 -0.81937253 1.0745595 -2.5138242 0.6240079 -0.16959096 -0.10085734 3.445625
-0.17396717 0.009196758 -0.7395483 1.6727701 1.371575 1.9019417 -0.5255751 5.3803763
0.25801048 0.46631077 -2.4776528 -1.7975665 -0.08669321 -0.8961313 -0.89985675 -3.219372
00000000: d580 35c0 cd6c 453f 41ea 1640 2d09 47bf
00000010: b0cf 0940 5d76 33c0 f98a 55be 3b05 bb3c
00000020: 327f 1fc0 5e62 2540 49cf 63be bc14 b9be
00000030: 5955 7dbe 74c9 7abf b58d 023f 8688 e13d
00000040: 9804 e2c0 b4e2 bbbd d9b1 84be ae71 47bf
00000050: 4842 8640 8c60 733e 73f1 13bf ac96 843f
00000060: 04c7 63bf ed07 893f 97b2 dac0 9d6e 72c0
00000070: c086 2bbf c5fb 153f d3cd 2640 c3e8 ed3f
00000080: 500a 21bd 4c64 12be f31f 873e 8bf0 aebf
00000090: 16e1 3240 5dd9 28bf e559 a8c0 4bfa 50bc
000000a0: 7940 433e 92de 1d3e 6158 4a40 b81c 49bd
000000b0: 684b 61bf 9b14 81bf d624 be3e 28b9 17c0
000000c0: fb63 cbbf c4ce a7bf f79c b5be 03f9 a7be
000000d0: 4fbd cc3e 6c47 b93e 44b0 603e 081e 1e3f
000000e0: 9736 fb3e fb37 9d3f ce96 e13e 11e2 ca3f
000000f0: b2bc d4c0 04e5 0a3f cb39 323e 1575 03c0
00000100: bac2 a040 54d9 58be b79a d3bd 7178 9c3f
00000110: d14d 7f3f b2d3 bdbf 19a9 4dbf cec8 6040
00000120: d881 a7be 49ee 293e 40cf 153d da7b 3cc0
00000130: 845c 81be ce0e 8ebf a294 bbbf 74f8 b9bf
00000140: 48c8 57bf 1d15 4f40 6e32 e9be 9b63 2f3e
00000150: 471e 233e 3cf6 36c0 9985 973f 500e 753d
00000160: 3ed6 9ebe 3c3a 863e 4526 a13f 1f57 63be
00000170: 1162 99bf ac28 ce40 5cbd d43e 9006 60be
00000180: a70a de3f 282d 59c0 d209 98be 6e25 9bbf
00000190: ebef 92bf e0eb 923f 3b0e 2a40 2a38 2640
000001a0: 9a1d 01bf a97a ad3d 2497 08bf 52c2 44c0
000001b0: f6fb 9dc0 c247 8f3e 94dc 953f 4ce2 183f
000001c0: f9aa e03f c947 cb3f 92fc a73c 6160 1d40
000001d0: a6c5 5bbc 85dd bdbc 1f50 7fbe 230c b9bf
000001e0: 3c2a d53d ee21 88bf 2269 ee3e a8ab 1f40
000001f0: 0820 1bbf 4a39 0740 10f3 c340 440b 44bd
00000200: f60a d43e e5c5 96bf 872a 50c0 23bc 82be
00000210: ef9b 2540 27f2 e6be 2a03 1a3f 703f 67bf
00000220: 21cb a540 aaac 79c0 05e1 54be 700c cabd
00000230: 500b 72c0 159c 6940 6105 8fbe e153 c2bd
00000240: 42c0 e3bf 8edc fd3f 9fa3 023f e676 4040
00000250: 0858 fdbf 25c9 9ebb 4051 613e f369 40c0
00000260: ec20 723f 9871 83be 1b4d 26bf 04b6 d8bf
00000270: ddfb c73f 2998 97bd feb7 463d a600 d83f
00000280: ddc0 e03d f205 693e 92da bfbe 53bd 8c3e
00000290: 5051 ab3c d838 c93d 776b e43f 3bce 9ebe
000002a0: 8246 77bf f2c0 ed40 f5fe 1040 8d65 893e
000002b0: db67 84be 3c45 91c0 a583 efbf f2bb c4bd
000002c0: 4dc0 143f b131 0dbf f9fd c43f 6e62 4240
000002d0: 4f04 7e40 416a 84bf 5b9f eb3e 5df0 06be
000002e0: 7e38 ccc0 ea50 5440 e0f1 ff3c 4126 743e
000002f0: 04f1 983e aaf2 913f 9b3f 913e 0d58 033f
00000300: 359e 3b40 5dbc b93e a035 c6be 625a 633e
00000310: 148c 79bf 00cf cd3b aa31 a2bf 25d5 c03f
00000320: 95b0 cebf a7f8 993e 46d6 26bf 32c5 3240
00000330: 9a5c e0bd 76b5 bdbb 40b5 793e e791 9ac0
00000340: 10b9 3f3d 4726 c43d 9058 b03d eb3d 953d
00000350: 96d7 4d40 9f82 5940 67fd 963f c1e9 2bbe
00000360: 8987 1e3e 0b11 32c0 6c6b 0bbf 7479 44be
00000370: 50b6 25bf f7b8 2d3f 344c c13f 94d6 d23f
00000380: 051c a7bf 7319 cebf d1ba ec3d a7ad b0bc
00000390: c535 6cbe a833 463f 560e 263e da31 acbf
000003a0: 3968 1dbf 66c2 51bf 2a8b 893f 7fe2 20c0
000003b0: fbbe 1f3f 41a9 2dbe 4b8e cebd 1f85 5c40
000003c0: 7324 32be 00ae 163c 0a53 3dbf 551d d63f
000003d0: c58f af3f d372 f33f 178c 06bf 0b2c ac40
000003e0: f319 843e 49c0 ee3e dd91 1ec0 a916 e6bf
000003f0: 368c b1bd dc68 65bf 035d 66bf 310a 4ec0

bias f4 [256]
-2.485047 -0.37712482 -0.6097262 -1.5187043 -1.145876 0.51113755 -0.8289097 -1.4729563
0.5411175 -2.6463675 -2.2671578 -1.562247 0.6698532 -1.9756287 -1.5722414 0.08617757
-1.1744552 -1.7556813 -2.1380289 1.0750791 -2.8317497 -2.6213503 -1.9682107 -0.5506945
-0.33370176 -2.581523 -1.0028427 -1.7335628 -1.4893428 -0.22295508 -2.7249622 -1.9581869
-2.0874648 -0.46489233 -1.8288199 0.57337564 -1.2398323 -1.776171 -0.31669608 -0.4103445
-0.61624557 -0.90879875 0.5839557 -0.30070668 -0.77067864 -1.0138586 -3.013362 0.5352444
-1.7932475 -1.1431762 -0.13396433 -1.7921976 -2.03647 -1.8496823 -1.2127639 -2.6216662
-0.27749628 0.9099598 -0.45883447 -2.029079 -0.5855568 -0.6934782 -1.7980553 -0.5542879
-0.56908864 -2.1113498 -1.1227741 -1.6356 -0.82106113 0.5242393 -0.61265916 0.23107903
-0.94474316 -1.4152792 -0.6624871 -1.3088435 -0.424664 -0.42932084 -1.6847804 -1.1428876
-1.667134 -1.6918726 -0.2553621 -0.08425896 -1.3494663 -0.8370769 -2.2028992 -2.6832952
-1.6873856 -2.969526 1.7897002 -2.7832136 -0.6030796 -1.031737 -2.4586933 -0.23507139
-1.116144 -1.8506837 -2.66303 0.8109058 -0.06532668 -0.5910256 -0.92350394 -1.4136492
-0.97717506 1.411634 -0.72711426 -2.164816 -1.3945526 -0.65617657 -2.1207528 -2.0183663
-2.5667179 -1.6597141 -1.4273576 -0.845015 -2.8585742 -1.8301703 -0.76821977 -2.305073
0.2069528 -1.9920763 -1.2228366 -1.1390748 -1.2675532 -1.7639611 -2.6557765 -2.6901336
0.6498601 -1.8035314 -0.81781465 -2.3601089 -3.2920341 -2.0370185 -2.996066 -0.5458826
-1.6611722 -1.659572 -2.2104535 -0.091100425 -1.7377523 -1.7396858 -1.7740184 -2.4373815
-0.4240793 -2.631596 -2.1600018 1.0415508 -2.469761 -1.377698 -1.5550891 -0.31535414
-1.9243288 -0.58859885 -1.5852556 -1.586827 -0.56464803 -1.6923559 -0.9722015 -2.5628004
0.7939833 0.13117146 -1.4421543 -2.4032094 -1.5511819 -2.3316755 0.84571403 -1.2372365
-1.6789659 -2.660805 -1.6383387 -0.38614535 0.5809926 -1.0538709 -2.055332 -2.8043358
-0.57669944 -0.39110297 -1.5508298 -1.1123363 -1.9244515 -0.6425588 -3.404199 1.4100292
-1.4740968 -2.543689 -1.8044225 -1.8795536 -2.4895184 -1.4616619 0.2682702 -0.8874004
-0.41575617 -1.4169207 -2.3449824 -1.1077071 -2.8178139 -1.5673139 0.067819074 -1.2475462
-2.0627208 -0.11520807 -2.3284538 -2.2002814 -3.195644 -1.367455 -0.60687643 -1.8145245
-1.6354634 -0.8838402 0.51865554 -1.6780641 0.30377194 -0.13112293 -1.629883 -1.2532772
-3.2201931 -2.7932677 -0.9379424 -0.6189181 1.7411199 0.48467344 -2.1965158 -0.35767594
-1.2020124 -1.898001 -2.3497047 -2.5118804 -0.8805391 0.5163903 -1.6298848 -2.3898368
-1.8073697 -1.5159785 -1.2400877 -1.7964956 -2.7187173 -1.2316164 -1.5958343 -2.7112136
-0.76160103 -2.2106066 -1.6332308 -3.2076063 -1.6129508 -1.7708179 -1.3668743 -1.6404434
-2.7678893 -0.39624825 -2.7383447 -2.153911 -1.8737845 -1.518482 -1.7609892 -0.3969838
00000000: 030b 1fc0 8116 c1be 0417 1cbf e764 c2bf
00000010: 11ac 92bf e9d9 023f 6d33 54bf d589 bcbf
00000020: ad86 0a3f 165e 29c0 1d19 11c0 b6f7 c7bf
00000030: 807b 2b3f 67e1 fcbf 353f c9bf de7d b03d
00000040: 8c54 96bf 2aba e0bf 77d5 08c0 319c 893f
00000050: 633b 35c0 34c4 27c0 54ee fbbf 51fa 0cbf
00000060: f5da aabe ac37 25c0 265d 80bf 63e5 ddbf
00000070: c9a2 bebf 564e 64be c865 2ec0 dea5 fabf
00000080: 0699 05c0 5e06 eebe c516 eabf bfc8 123f
00000090: d3b2 9ebf 9259 e3bf fd25 a2be ad18 d2be
000000a0: 45c2 1dbf 09a7 68bf 1f7e 153f 3af6 99be
000000b0: 324b 45bf 1ec6 81bf ecda 40c0 c705 093f
000000c0: 2289 e5bf 9953 92bf f22d 09be bb66 e5bf
000000d0: 8655 02c0 64c2 ecbf d93b 9bbf 61c9 27c0
000000e0: fe13 8ebe 20f3 683f 5aec eabe 6edc 01c0
000000f0: 0de7 15bf ca87 31bf ad26 e6bf d0e5 0dbf
00000100: cbaf 11bf 5b20 07c0 10b7 8fbf 575b d1bf
00000110: 1031 52bf 8c34 063f 3bd7 1cbf fb9f 6c3e
00000120: b0da 71bf de27 b5bf c198 29bf 2f88 a7bf
00000130: 8f6d d9be f1cf dbbe e2a6 d7bf 244a 92bf
00000140: a664 d5bf 488f d8bf d2be 82be f68f acbd
00000150: 50bb acbf ac4a 56bf 4dfc 0cc0 1cbb 2bc0
00000160: 40fc d7bf b70c 3ec0 e514 e53f 2c20 32c0
00000170: 6d63 1abf f50f 84bf 3b5b 1dc0 8eb6 70be
00000180: cedd 8ebf 34e3 ecbf 156f 2ac0 8697 4f3f
00000190: ffc9 85bd 744d 17bf c16a 6cbf 75f2 b4bf
000001a0: 2528 7abf 6cb0 b43f 2924 3abf 588c 0ac0
000001b0: b380 b2bf 30fb 27bf 6aba 07c0 ea2c 01c0
000001c0: 1b45 24c0 8371 d4bf a7b3 b6bf e752 58bf
000001d0: e1f2 36c0 0543 eabf 0daa 44bf 5186 13c0
000001e0: 6feb 533e 5bfc febf e985 9cbf 34cd 91bf
000001f0: 2f3f a2bf 7ac9 e1bf 3ef8 29c0 262b 2cc0
00000200: 3b5d 263f 1eda e6bf 4d5c 51bf 060c 17c0
00000210: b0b0 52c0 835e 02c0 8cbf 3fc0 f6be 0bbf
00000220: 4aa1 d4bf db6c d4bf 1278 0dc0 dc92 babd
00000230: ab6e debf 06ae debf 0913 e3bf 0ffe 1bc0
00000240: ec20 d9be 126c 28c0 783d 0ac0 8951 853f
00000250: 9010 1ec0 6858 b0bf 290d c7bf 1976 a1be
00000260: 6850 f6bf 6aae 16bf a8e9 cabf 261d cbbf
00000270: c68c 10bf 1e9f d8bf 33e2 78bf ec04 24c0
00000280: 7d42 4b3f d051 063e 8398 b8bf 2fce 19c0
00000290: 218d c6bf 2c3a 15c0 b780 583f c45d 9ebf
000002a0: 5be8 d6bf a14a 2ac0 15b5 d1bf d8b4 c5be
000002b0: eebb 143f 3ee5 86bf 8f8a 03c0 3d7a 33c0
000002c0: 93a2 13bf a63e c8be 9781 c6bf 0961 8ebf
000002d0: 6d54 f6bf bc7e 24bf 65de 59c0 d67b b43f
000002e0: 34af bcbf cdcb 22c0 51f7 e6bf 3695 f0bf
000002f0: 4554 1fc0 bd17 bbbf b65a 893e ac2c 63bf
00000300: fedd d4be a85d b5bf 3114 16c0 59c9 8dbf
00000310: 1057 34c0 be9d c8bf bae4 8a3d 98af 9fbf
00000320: 9e03 04c0 35f2 ebbd 6305 15c0 69d1 0cc0
00000330: 6e85 4cc0 c408 afbf 415c 1bbf 5742 e8bf
00000340: dd56 d1bf 5a43 62bf 9cc6 043f ceca d6bf
00000350: ff87 9b3e 1745 06be 02a0 d0bf 636b a0bf
00000360: a517 4ec0 e6c4 32c0 fe1c 70bf 6b71 1ebf
00000370: 04dd de3f 1e27 f83e b793 0cc0 4d21 b7be
00000380: 8bdb 99bf b2f1 f2bf 9061 16c0 a6c2 20c0
00000390: 036b 61bf 2832 043f 11a0 d0bf 16f3 18c0
000003a0: e457 e7bf 950b c2bf 32bb 9ebf 91f3 e5bf
000003b0: 77ff 2dc0 9ba5 9dbf 4c44 ccbf 8684 2dc0
000003c0: 49f8 42bf 947a 0dc0 b50d d1bf 6c49 4dc0
000003d0: 2c75 cebf 29aa e2bf bdf5 aebf 0dfa d1bf
000003e0: 1925 31c0 0de1 cabe 0a41 2fc0 aed9 09c0
000003f0: 2cd8 efbf 9e5d c2bf 1868 e1bf 7641 cbbe

weight f4 [256, 256]
0.016262835 -0.032363255 -0.07920938 0.036240544 -0.07111018 -0.0028645778 0.012903822 -0.029987812
-0.01239545 -0.016151002 -0.06829501 -0.025022974 0.0058100196 -0.045348134 0.038178876 -0.039675523
0.0398051 0.03505738 -0.051718794 -0.05737515 -0.03384935 -0.02746748 -0.023346927 -0.07579972
-0.051211353 -0.036256883 0.04115167 -0.0027999952 0.015011206 -0.005637215 -0.0333771 -0.036322556
-0.062016424 -0.0095419055 0.033383284 0.00035624366 0.030750643 -0.036067225 -0.056644272 -0.017706703
0.02609257 0.03170381 -0.026922889 0.046813574 0.030457636 0.027284466 -0.024343845 -0.032206353
0.015111279 -0.0016787864 -0.03444952 -0.046556257 -0.038484827 -0.015010062 -0.0044113058 -0.04311077
-0.047110904 -0.017984645 0.004995372 0.009389442 -0.018053906 0.014339483 -0.05365199 -0.07106889
-0.050653778 -0.030444331 -0.06642385 0.031380318 0.02950102 -0.05310676 0.027837506 -0.011583246
0.021581067 -0.043350272 -0.07916235 0.028380753 -0.016607191 -0.06427331 -0.0019908617 -0.0477747
0.023979831 -0.038071163 -0.06380264 -0.028225431 -0.059532505 -0.0069137914 -0.0022901585 -0.05837057
-0.02882587 -0.028434787 -0.00821998 -0.06212711 0.003129835 -0.018854264 -0.02261078 -0.0023706844
-0.06635359 -0.030122029 -0.00072056486 -0.050647106 -0.012424557 0.0036606577 0.045555238 0.03865036
-0.029163938 -0.028714076 -0.062344845 0.015431556 -0.05393108 0.009345605 -0.044138145 0.0022756099
-0.073912635 0.009275134 0.047373466 -0.06292146 0.0073403735 -0.02434173 -0.002836466 0.0072694276
-0.026679862 -0.051200088 -0.027282592 -0.0645022 -0.0104953395 -0.055195805 -0.06833321 0.042222455
0.0166958 0.00071914773 -0.055398658 -0.06591212 -0.004724921 -0.043457936 -0.078910425 -0.027699428
-0.061987616 0.0027294734 -0.023064544 -0.0565771 0.05244307 0.020193418 -0.02873399 -0.082511805
0.03982139 -0.044006605 0.041026633 0.002700999 -0.02955635 0.008768704 0.026461987 0.051228434
-0.0064265793 -0.03493725 0.030252974 -0.072059095 -0.004469239 -0.043150805 0.023139058 0.032649722
-0.025289116 -0.04947912 -0.040639658 -0.036702093 0.005521344 -0.04298292 -0.021371296 -0.06575322
-0.018368652 -0.03660868 -0.043793283 0.032846354 -0.04255882 -0.027629472 -0.014269438 0.053667724
-0.07886926 0.03647313 -0.023442326 -0.043336153 -0.07905827 -0.027116861 0.026659539 -0.003630262
-0.076340266 -0.06758422 -0.041423902 -0.0721726 0.029920112 0.025118558 -0.013016323 -0.00035102968
-0.04647478 -0.007142462 0.027340919 -0.031810924 0.046324283 -0.06434484 -0.056139536 -0.032483514
-0.025067 -0.033460353 0.057718515 0.012077172 -0.023907844 0.013143388 -0.0715404 -0.035697773
-0.0710062 -0.0023461937 -0.045939405 0.008166603 -0.05767303 -0.08336369 0.013874318 -0.05099773
-0.029215056 -0.048637252 -0.047162157 0.01844063 -0.0032841468 0.014956323 0.03556436 -0.044037223
0.028331386 -0.055427562 -0.043907925 -0.07555422 -0.01836374 0.008891488 -0.11109818 -0.016670696
-0.008180361 -0.024246512 -0.0141884545 0.020724917 0.023104193 -0.017104791 -0.03090512 -0.005502697
0.002872328 0.0022277876 -0.04491894 0.037883773 0.021847067 -0.058898 0.03946389 -0.06707737
-0.069646396 -0.042617604 0.049141906 -0.0904708 -0.07965125 0.0011271175 -0.0049233506 -0.047373306
00000000: a339 853c 558f 04bd 8738 a2bd f770 143d
00000010: 37a2 91bd a4bb 3bbb 8d6a 533c 00a9 f5bc
00000020: 4916 4bbc 1b4f 84bc 41de 8bbd fbfc ccbc
00000030: fa61 be3b f7be 39bd 7461 1c3d cd82 22bd
00000040: ac0a 233d 5498 0f3d 16d7 53bd 3502 6bbd
00000050: 9ea5 0abd 7b03 e1bc 0e42 bfbc e23c 9bbd
00000060: ffc2 51bd 1982 14bd a78e 283d 2080 37bb
00000070: 90f1 753c 63b8 b8bb 6db6 08bd f6c6 14bd
00000080: ef04 7ebd a755 1cbc e9bc 083d 37c6 ba39
00000090: c6e8 fb3c 3abb 13bd d303 68bd a60d 91bc
000000a0: 16c0 d53c dbdb 013d 648d dcbc 97bf 3f3d
000000b0: 4b82 f93c ac83 df3c be6c c7bc cfea 03bd
000000c0: 4c95 773c b90a dcba f11a 0dbd c6b1 3ebd
000000d0: 44a2 1dbd c3ec 75bc b78c 90bb eb94 30bd
000000e0: 5df7 40bd 8954 93bc 38b0 a33b 2dd6 193c
000000f0: c9e5 93bc 27f0 6a3c 30c2 5bbd 918c 91bd
00000100: 567a 4fbd 6466 f9bc 3a09 88bd a688 003d
00000110: 20ac f13c 7986 59bd 7b0b e43c a8c7 3dbc
00000120: c7ca b03c 0e90 31bd df1f a2bd c17e e83c
00000130: ce0b 88bc baa1 83bd 1e79 02bb 67af 43bd
00000140: 5a71 c43c 82f0 1bbd f5aa 82bd 0539 e7bc
00000150: 5bd8 73bd 168d e2bb 7c16 16bb fb15 6fbd
00000160: 3b24 ecbc 12f0 e8bc 18ad 06bc ff78 7ebd
00000170: eb1d 4d3b 4274 9abc 3e3a b9bc 7c5d 1bbb
00000180: 64e4 87bd 79c2 f6bc 4ae4 3cba 5773 4fbd
00000190: 5e90 4bbc a5e7 6f3b 2198 3a3d d74f 1e3d
000001a0: 36e9 eebc c839 ebbc 4f5d 7fbd a3d4 7c3c
000001b0: d6e6 5cbd 4f1e 193c 33ca 34bd 6622 153b
000001c0: 825f 97bd bbf6 173c ae0a 423d f7dc 80bd
000001d0: 8487 f03b 4f68 c7bc 01e4 39bb 6134 ee3b
000001e0: ba8f dabc 2fb7 51bd be7f dfbc bb19 84bd
000001f0: a5f4 2bbc ff14 62bd 48f2 8bbd 74f1 2c3d
00000200: a1c5 883c 3085 3c3a b4e9 62bd effc 86bd
00000210: 83d3 9abb f300 32bd ca9b a1bd e9e9 e2bc
00000220: bae6 7dbd f7e0 323b dbf1 bcbc 64bd 67bd
00000230: 8bce 563d ab6c a53c 8b63 ebbc f3fb a8bd
00000240: c11b 233d 4540 34bd 8b0b 283d 3e03 313b
00000250: 2920 f2bc 9caa 0f3c cfc6 d83c e8d4 513d
00000260: 0e96 d2bb 5d1a 0fbd 16d5 f73c b893 93bd
00000270: b272 92bb e6be 30bd 1f8e bd3c b7bb 053d
00000280: 1f2b cfbc 9eaa 4abd c575 26bd ef54 16bd
00000290: 64ec b43b dc0e 30bd db12 afbc a0a9 86bd
000002a0: db79 96bc fcf2 15bd 9660 33bd e689 063d
000002b0: 2852 2ebd 3457 e2bc 5cca 69bc b0d2 5b3d
000002c0: 3586 a1bd d964 153d 1f0a c0bc 4081 31bd
000002d0: 4de9 a1bd 2e24 debc 1b65 da3c b1e9 6dbb
000002e0: 4958 9cbd 9869 8abd 1cac 29bd 3acf 93bd
000002f0: 061b f53c 6fc5 cd3c 6a42 55bc 680a b8b9
00000300: 575c 3ebd 500b eabb 10fa df3c 2c4c 02bd
00000310: 88be 3d3d 3ac7 83bd 92f2 65bd 6f0d 05bd
00000320: 4f59 cdbc b90d 09bd 406a 6c3d 55df 453c
00000330: 62da c3bc 5d57 573c c683 92bd d437 12bd
00000340: b36b 91bd 99c2 19bb f52a 3cbd 37cd 053c
00000350: 8e3a 6cbd 95ba aabd 1c51 633c ffe2 50bd
00000360: 6a54 efbc db37 47bd 1b2d 41bd ce10 973c
00000370: d73a 57bb 5e0b 753c efab 113d 6060 34bd
00000380: 3917 e83c 0308 63bd ccd8 33bd 2cbc 9abd
00000390: 8e6f 96bc 9bad 113c 7187 e3bd fc90 88bc
000003a0: ec06 06bc 9fa0 c6bc b176 68bc 4dc7 a93c
000003b0: 0145 bd3c 591f 8cbc bc2c fdbc f84f b4bb
000003c0: ab3d 3c3b 1300 123b ecfc 37bd 042c 1b3d
000003d0: 9ff8 b23c 073f 71bd e3a4 213d dc5f 89bd
000003e0: c5a2 8ebd cc8f 2ebd 0649 493d c148 b9bd
000003f0: 3220 a3bd cabb 933a 0f54 a1bb 830a 42bd

bias f4 [256]
-0.038737614 -0.054759253 -0.123614386 -0.073429696 -0.06747838 0.0038766018 -0.031691093 -0.07033047
-0.42852297 -0.62795836 -0.35293493 -0.07699552 -0.061282173 0.04416634 -0.076240286 0.19778426
-0.8851557 -0.8504077 -0.68635535 -0.0151850255 -0.018912686 -0.26777312 -0.104941994 -0.10518922
-0.08404707 -0.050636057 -0.34927568 -1.1252918 -0.014241081 0.17294681 -0.0017635088 -0.0018586504
-0.061005462 -0.042207934 -0.64661264 -0.09881673 -0.016798113 -0.038392905 -0.10010155 -0.9829131
-0.4755941 0.47883597 -1.208509 -0.08341898 -0.07548545 -1.1984793 -0.5368864 -0.10643682
-0.9557335 -0.10120746 -0.037221964 -0.03813409 -0.3749331 -0.061283264 -0.0038086209 -0.036462314
-0.12046957 -0.09225534 -0.032290295 -0.057479493 0.02035036 -0.09490462 -0.08071385 -0.16714323
-0.07150205 -0.075567536 -0.06780236 -0.0663819 -0.05871902 -0.2840143 -0.03554014 -0.0940187
-0.11956485 -0.061338287 -0.92743415 -0.34942743 -0.04704932 -0.058275122 -0.029435735 -0.6776044
-0.0066698706 -0.09062333 -0.10800668 -0.041590195 -0.02152174 -0.016627036 -0.06963484 -1.0965271
-0.76850104 0.03287249 -0.072073825 -0.054564103 -0.19123137 -1.9012574 -0.5747406 -0.5103505
-0.24134529 -0.13041222 -0.20605187 -0.036565173 -0.015854942 -0.026192393 -0.03587705 -0.03936863
-0.08677089 -0.0020718197 -1.3018752 -0.870177 -0.12803824 -0.07254294 -0.81730354 0.010316599
-0.13986191 -0.39238706 -0.11598446 -0.07933266 -0.6093485 -0.05381125 -0.044121813 -0.07872854
-0.07833888 -0.111097015 -0.10896002 -0.3331099 0.024470648 -0.09301505 -0.93442756 -0.08718836
-0.105673715 -0.09772642 -0.12763324 0.0045426195 -1.2317139 -0.0031850976 -0.034790732 0.09572894
-0.14807422 -0.102542914 -0.2532327 -0.07266211 -0.034283645 -0.0010917003 -0.28885245 -0.31525087
-0.4531298 -0.6314773 -0.083977275 -0.06247793 -0.11408021 -0.40946233 -0.056198977 -0.03694437
-0.2174827 -0.067245744 -0.54368865 -0.10673697 -0.08518187 -0.91686743 -0.027713409 -1.2398465
-0.105449714 -0.027565278 -0.0840195 -0.085974894 -0.034392986 -0.19753109 -0.03172548 -0.099253185
-0.23765123 0.013650378 0.6108693 -0.15975016 -0.05267148 -0.033962376 -0.09724328 -0.85791236
-0.04239123 -0.028056454 -0.10335874 -0.1177298 -0.022915425 -0.075041406 -0.65572584 -0.16364442
-0.061438195 -0.9984745 -0.7285232 -0.08759772 -0.083590396 -0.25196618 -0.29138616 -0.10827868
-0.08315462 -0.07669602 -0.14836556 -0.9667921 -0.05026068 -0.047780264 -0.1058096 -0.8009497
-0.12943503 -0.027757037 -0.040751375 -0.03507758 -0.0945957 -0.5396662 -0.05786045 -0.8213299
-0.095767096 -0.1309853 -0.79423887 -0.1039481 0.015225025 -0.029994968 -0.09893779 -0.08080145
-0.8900662 -0.041967694 -0.10993769 -0.082612425 -0.14149715 -0.11018546 -0.8784984 -0.64539313
-0.06896209 -0.05034018 -0.1237973 -0.16579753 -0.66309756 -0.057445504 -0.0132247135 -0.09155965
-0.106214255 -0.027349064 -0.04549184 -0.14948748 -0.06592599 -0.11937375 -0.12620735 -0.08863417
-0.018618336 -0.31364614 -0.08035395 -0.07494185 -0.13617441 -0.97139084 -0.08318385 -0.13793299
-1.114964 -0.015082773 -0.097554035 -0.051665433 -0.045341883 -0.5006382 -0.08319263 -0.024527531
00000000: 55ab 1ebd 3d4b 60bd 8a29 fdbd 4f62 96bd
00000010: 1b32 8abd 960e 7e3b 85ce 01bd 6c09 90bd
00000020: 5d67 dbbe e1c1 20bf e3b3 b4be d4af 9dbd
00000030: 0403 7bbd c4e7 343d de23 9cbd f587 4a3e
00000040: 9099 62bf 52b4 59bf fcb4 2fbf 9dca 78bc
00000050: c7ee 9abc 8f19 89be d4eb d6bd 726d d7bd
00000060: df20 acbd c167 4fbd 43d4 b2be 9009 90bf
00000070: 6c53 69bc f818 313e 8925 e7ba f59d f3ba
00000080: dde0 79bd 3ae2 2cbd 6888 25bf 6d60 cabd
00000090: 329c 89bc e141 1dbd 0b02 cdbd 31a0 7bbf
000000a0: 1281 f3be fd29 f53e 6cb0 9abf 92d7 aabd
000000b0: 1e98 9abd c567 99bf 6371 09bf 8cfb d9bd
000000c0: f3aa 74bf db45 cfbd 0f76 18bd 7e32 1cbd
000000d0: 3bf7 bfbe 2904 7bbd 0e9a 79bb 8259 15bd
000000e0: c0b8 f6bd 5ef0 bcbd d442 04bd 9e6f 6bbd
000000f0: ccb5 a63c 5a5d c2bd 4e4d a5bd 9827 2bbe
00000100: ab6f 92bd 27c3 9abd f7db 8abd 3cf3 87bd
00000110: 5b83 70bd 536a 91be 8a92 11bd e08c c0bd
00000120: 6bde f4bd db3d 7bbd 536c 6dbf 27e8 b2be
00000130: cab6 40bd e5b1 6ebd 3623 f1bc 7b77 2dbf
00000140: ee8e dabb b998 b9bd 9b32 ddbd 7b5a 2abd
00000150: 5c4e b0bc 6c35 88bc b69c 8ebd 005b 8cbf
00000160: 7cbc 44bf 4ea5 063d 719b 93bd 9c7e 5fbd
00000170: 28d2 43be 675c f3bf 3322 13bf 55a6 02bf
00000180: 3823 77be c88a 05be 43ff 52be 5dc5 15bd
00000190: 39e2 81bc 6e91 d6bc d0f3 12bd 0041 21bd
000001a0: f0b4 b1bd 5ec7 07bb d9a3 a6bf ebc3 5ebf
000001b0: 751c 03be 6591 94bd ce3a 51bf f406 293c
000001c0: f637 0fbe f5e6 c8be 4389 edbd 2979 a2bd
000001d0: 43fe 1bbf 2f69 5cbd 13b9 34bd 6e3c a1bd
000001e0: 2270 a0bd d586 e3bd 6e26 dfbd 618d aabe
000001f0: ab76 c83c ad7e bebd a536 6fbf d08f b2bd
00000200: 766b d8bd ca24 c8bd 4ab2 02be 41da 943b
00000210: cda8 9dbf 12bd 50bb ba80 0ebd 890d c43d
00000220: c5a0 17be 0502 d2bd b7a7 81be dfcf 94bd
00000230: 026d 0cbd 6217 8fba 78e4 93be 9068 a1be
00000240: a100 e8be 7fa8 21bf 47fc abbd dce8 7fbd
00000250: e3a2 e9bd 0ca5 d1be e630 66bd fb52 17bd
00000260: c9b3 5ebe 23b8 89bd 2e2f 0bbf ea98 dabd
00000270: d573 aebd d3b7 6abf 3b07 e3bc 4ab3 9ebf
00000280: 05f6 d7bd 94d0 e1bc 6a12 acbd 9b13 b0bd
00000290: a9df 0cbd 9745 4abe 94f2 01bd 4145 cbbd
000002a0: d85a 73be d6a5 5f3c ee61 1c3f 8c95 23be
000002b0: 0dbe 57bd 221c 0bbd 7c27 c7bd 25a0 5bbf
000002c0: 6da2 2dbd a6d6 e5bc bfad d3bd 521c f1bd
000002d0: 21b9 bbbc 4faf 99bd a6dd 27bf 6792 27be
000002e0: 9ea6 7bbd 069c 7fbf 7f80 3abf 6f66 b3bd
000002f0: 7131 abbd b601 81be 9130 95be 36c1 ddbd
00000300: f84c aabd ce12 9dbd 24ed 17be b07f 77bf
00000310: 25de 4dbd 3db5 43bd b4b2 d8bd 0a0b 4dbf
00000320: 9e8a 04be ba62 e3bc eaea 26bd 82ad 0fbd
00000330: 64bb c1bd 9027 0abf 14ff 6cbd ad42 52bf
00000340: 8a21 c4bd 0321 06be 3d53 4bbf bee2 d4bd
00000350: 6272 793c 02b8 f5bc e59f cabd 3b7b a5bd
00000360: 61db 63bf 51e6 2bbd 0327 e1bd b430 a9bd
00000370: a1e4 10be eaa8 e1bd 45e5 60bf 7c38 25bf
00000380: ff3b 8dbd 8131 4ebd 7089 fdbd d4c6 29be
00000390: c3c0 29bf fa4b 6bbd 78ac 58bc a083 bbbd
000003a0: dc86 d9bd 250b e0bc a755 3abd 3f13 19be
000003b0: 3504 87bd 3a7a f4bd 803c 01be d585 b5bd
000003c0: 7b85 98bc 3a96 a0be 9d90 a4bd 1d7b 99bd
000003d0: 4e71 0bbe 12ad 78bf 4b5c aabd 4e3e 0dbe
000003e0: 24b7 8ebf bc1d 77bc 69ca c7bd 229f 53bd
000003f0: 69b8 39bd d329 00bf e660 aabd f6ed c8bc

weight f4 [2, 256]
0.04233217 -0.0065574637 -0.025861092 -0.019815834 -0.031094292 -0.011647964 0.0038540734 -0.011704886
0.5654324 -1.2932041 -4.995499 0.02586795 0.050319042 0.7091065 -0.0132227605 -0.054506402
-1.3559655 -2.5268183 -0.08267557 0.015256879 1.9870973 3.3669007 0.008483733 0.49381512
0.026798774 0.016237572 -0.19847025 -1.5830106 0.01805098 0.20371908 -0.033006396 0.035499655
0.023634382 0.01801797 -3.2601979 0.026453735 -0.0011871927 -0.011387961 0.026906548 -0.76326835
2.0391169 -0.8523575 -4.1330595 -0.018942725 0.017203646 -1.352386 0.8873481 -0.04497739
0.28816718 0.019252812 0.008942932 -0.03147938 -1.9164283 0.03028169 0.024285257 -0.001523261
-0.0074656582 -0.01336879 -0.010959444 0.0028384412 0.04376734 -0.039895806 0.044249807 -2.5766418
0.006564673 -0.0035301286 0.015114265 0.0056496277 -0.016335815 1.0094095 -0.00022425062 -0.01736092
-0.0026874037 -0.021752194 1.4008507 -0.24996209 0.015081041 -0.032725114 -0.0066296584 -3.1547382
-0.035328712 -0.018436583 -0.02276035 -0.0008717884 -0.07257684 0.021430556 0.022703053 -0.16052859
-3.994648 0.5897663 0.030325672 0.0051611066 0.6279109 -0.91706127 -4.458913 4.2133284
-1.4567987 -0.02384681 -1.6630796 0.009001001 0.0064516515 -0.0026246866 0.019075397 -1.2148137
0.028289532 0.015044533 2.5873954 1.628392 2.6563177 -0.015565738 -2.7177422 -0.0039079715
-0.036797393 -3.4474504 -0.012317971 -0.011570612 -1.0849829 0.024360612 0.00474518 0.03507252
0.03907711 0.017344698 0.023599617 -3.123078 0.05442011 -0.005475036 1.904658 -0.016463213
0.016581273 -0.0151516525 -0.035837777 0.0069674095 4.604353 0.0082604205 0.02364494 1.2292799
0.0070641446 -0.030284306 0.045311075 0.022146985 0.01779048 -0.0055275103 0.8224289 -0.4718402
0.45094022 -2.5643768 -0.017994331 0.00977303 -0.043056313 0.047565468 0.052311365 0.022529658
-2.6891334 -0.022289602 2.0641513 0.033746723 0.020886093 0.07058678 0.028591499 0.02580227
0.06865757 0.06273521 -0.03974545 0.006908189 -0.017407175 0.96612036 -0.020300983 -0.05698295
-6.5946875 0.019765435 0.03300901 0.11531262 0.01909864 0.02176009 0.01570785 1.2147971
-0.033638317 -0.0066830213 -0.0014446802 0.0012747301 0.04377149 -0.003545049 -0.030283052 -0.0035051599
0.012481232 3.4786947 -1.1547692 -0.005447 0.0028425765 -3.6831467 -1.5386063 0.015283457
-0.009401228 -0.4217781 0.019743713 -1.2385635 0.03509599 -0.030935766 -0.8091863 -0.5833445
0.030103328 -0.072361685 -0.017175894 -0.0216705 0.05180498 -1.967861 -0.00644574 3.3662279
0.020036666 -0.032623444 0.026281498 0.04616037 0.027351353 0.0037453598 0.0024922804 0.040109873
-0.45558968 -0.043047257 -0.028923767 0.0037569075 0.020287367 0.008476873 1.0126728 -1.4337918
-0.02172553 -0.030443888 0.02414182 0.010697844 -0.03056943 0.0013428156 0.026853468 -0.032326348
0.00880923 0.02479246 -0.015618761 -0.015494946 -0.025774458 0.0013180595 0.035964586 -0.041235086
-0.010624723 0.16026019 -0.04342393 -0.0015519019 0.96073705 -0.021113077 -0.03607555 0.031134542
-2.7152474 -0.029861407 -0.017819041 0.00373561 -0.0061610444 -0.24307097 -0.05273909 0.009010725
00000000: 7f64 2d3d fedf d6bb a4da d3bc d154 a2bc
00000010: 75b9 febc 1ad7 3ebc 9f94 7c3b dac5 3fbc
00000020: 2ec0 103f b687 a5bf 21db 9fc0 06e9 d33c
00000030: 571b 4e3d 0188 353f 47a4 58bc 1b42 5fbd
00000040: 4790 adbf 64b7 21c0 cf51 a9bd fdf7 793c
00000050: 3459 fe3f 4d7b 5740 5bff 0a3c 56d5 fc3e
00000060: 1a89 db3c a804 853c c93b 4bbe 17a0 cabf
00000070: a6df 933c bc9b 503e b731 07bd 1668 113d
00000080: e49c c13c 6c9a 933c 15a7 50c0 81b5 d83c
00000090: 949b 9bba 9294 3abc 1f6b dc3c 8e65 43bf
000000a0: e480 0240 1a34 5abf 0642 84c0 c62d 9bbc
000000b0: a9ee 8c3c fc1a adbf 3f29 633f 363a 38bd
000000c0: a68a 933e 13b8 9d3c 6085 123c 86f0 00bd
000000d0: 864d f5bf 4f11 f83c e0f1 c63c 28a8 c7ba
000000e0: 7ba2 f4bb c508 5bbc 3d8f 33bc 2405 3a3b
000000f0: 6245 333d c969 23bd 493f 353d b3e7 24c0
00000100: 781c d73b bb59 67bb d2a1 773c 8320 b93b
00000110: b0d2 85bc 5534 813f d124 6bb9 7d38 8ebc
00000120: 271f 30bb a831 b2bc 134f b33f 10f6 7fbe
00000130: 7816 773c c50a 06bd 9b3d d9bb 3be7 49c0
00000140: d7b4 10bd 5108 97bc ea73 babc bb88 64ba
00000150: 2ba3 94bd 228f af3c c1fb b93c 9b61 24be
00000160: 50a8 7fc0 edfa 163f 8b6d f83c 801e a93b
00000170: c5be 203f 87c4 6abf 6aaf 8ec0 96d3 8640
00000180: 6178 babf 635a c3bc cbdf d4bf ef78 133c
00000190: 6068 d33b ef02 2cbb 0244 9c3c 047f 9bbf
000001a0: 73bf e73c 587d 763c e397 2540 266f d03f
000001b0: 1c01 2a40 7007 7fbc 7def 2dc0 710e 80bb
000001c0: ddb8 16bd 07a3 5cc0 51d1 49bc aa92 3dbc
000001d0: b8e0 8abf e88f c73c 747d 9b3b 34a8 0f3d
000001e0: 520f 203d 7816 8e3c fc53 c13c 83e0 47c0
000001f0: 9fe7 5e3d ee67 b3bb d5cb f33f dcdd 86bc
00000200: 73d5 873c a33e 78bc a2ca 12bd de4e e43b
00000210: dc56 9340 b756 073c 09b3 c13c 0b59 9d3f
00000220: 577a e73b cb16 f8bc 1b98 393d 986d b53c
00000230: 57bd 913c 1e20 b5bb b38a 523f 0a95 f1be
00000240: a3e1 e63e c01e 24c0 d968 93bc 0f1f 203c
00000250: d15b 30bd 02d4 423d 7144 563d 1e90 b83c
00000260: c31a 2cc0 af98 b6bc 0e1b 0440 013a 0a3d
00000270: 5019 ab3c cd8f 903d b838 ea3c 485f d33c
00000280: 579c 8c3d 517b 803d 20cc 22bd 175e e23b
00000290: 7e99 8ebc aa53 773f 3f4e a6bc f466 69bd
000002a0: ae07 d3c0 1feb a13c 7534 073d 0629 ec3d
000002b0: c074 9c3c 3742 b23c c0ad 803c 797e 9b3f
000002c0: 55c8 09bd 3ffd dabb 6c5b bdba d814 a73a
000002d0: bc49 333d 0e54 68bb 2a14 f8bc d3b6 65bb
000002e0: 157e 4c3c efa2 5e40 7acf 93bf bf7c b2bb
000002f0: 854a 3a3b adb8 6bc0 0df1 c4bf 7767 7a3c
00000300: 9c07 1abc 4df3 d7be 91bd a13c 4089 9ebf
00000310: d0c0 0f3d 016d fdbc d526 4fbf 1156 15bf
00000320: 419b f63c 5d32 94bd 76b4 8cbc 5586 b1bc
00000330: 7531 543d dfe2 fbbf c936 d3bb 4770 5740
00000340: ef23 a43c 29a0 05bd 4c4c d73c a812 3d3d
00000350: f20f e03c b674 753b 8755 233b 404a 243d
00000360: 0d43 e9be 5252 30bd 89f1 ecbc 7336 763b
00000370: b131 a63c 95e2 0a3c 439f 813f 7d86 b7bf
00000380: bdf9 b1bc 7665 f9bc 11c5 c53c 0346 2f3c
00000390: be6c fabc 6a01 b03a cefb db3c a268 04bd
000003a0: 9754 103c 8f19 cb3c d5e5 7fbc 84de 7dbc
000003b0: f524 d3bc bdc2 ac3a 9a4f 133d 1fe6 28bd
000003c0: 5113 2ebc 3f1b 243e 4add 31bd 3069 cbba
000003d0: ddf2 753f 55f5 acbc f5c3 13bd de0d ff3c
000003e0: 9dc6 2dc0 e99f f4bc 3df9 91bc 23d1 743b
000003f0: 96e2 c9bb 99e7 78be f204 58bd b8a1 133c

bias f4 [2]
-0.21826684 0.5733741
00000000: 5881 5fbe a5c8 123f

weight f4 [256, 13]
-1.1821792 -1.4105468 1.060577 8.001488 -1.4735801 1.133773 -0.2997216 0.0650972
-1.032786 -0.084388085 0.24635306 -1.480752 0.5296498 1.9173973 -0.15297608 -0.64141065
-2.3713305 0.9870189 -10.501053 -0.18997273 -0.8523615 -3.6504543 5.4114356 -0.12045276
0.15896714 -3.1198757 -3.7179842 -0.010811634 -1.4546107 -0.971811 -2.283886 -2.0510342
0.2312781 -0.9396937 2.1182263 -2.0543067 0.1139262 3.008554 -5.4463115 -2.4905026
-0.6859253 -1.9035333 3.3330598 12.351665 2.8344269 -0.63773483 -0.22415304 -8.987138
-4.3614664 0.038128465 -0.10632128 -0.94768107 0.35737145 2.3465846 -1.328729 1.6575693
4.0915318 3.909127 -0.53933495 0.33608904 -1.9781182 -3.6669762 -0.2278658 -2.4571154
3.2634432 0.9255122 1.293493 -0.24014336 -0.9865961 1.0559682 -11.4839 0.13582157
0.58704245 0.54501003 4.1202292 -0.12329903 2.7765627 0.6480179 -2.9091833 -0.43499422
-2.8133087 1.0716597 -2.5444095 -2.0380054 -1.0869318 1.0065598 -1.0375426 1.1475339
-0.18643384 -2.7600796 0.36812842 0.26014465 -2.556863 1.7183832 0.8234014 -10.69676
-4.229778 -0.0025501528 0.037415303 4.899321 2.3982775 0.16947809 0.15626895 0.2328433
2.8288958 -2.2381997 2.4616768 0.40676624 4.968594 -4.76646 0.6865422 0.02579538
-1.9698703 2.2663562 -0.24540038 2.4504929 -0.6623484 -0.24262181 0.44710493 0.16564621
-0.8632087 -7.592518 -4.884016 -0.15077943 0.081556045 2.8409019 0.37073812 -0.19661453
0.10488734 2.1441822 -4.9980993 -0.82577837 3.7342365 1.8694323 4.5064335 -1.594132
-0.28969783 0.12688471 -6.938928 1.2819623 -0.09750351 -1.4255751 -0.11058168 -2.2631178
4.0920258 -3.2459671 -0.94152004 4.440794 -4.914128 0.45969364 -1.1582394 -10.679778
3.3006594 0.023608863 0.04132698 -4.435208 3.1547682 -1.1704592 -2.6144874 2.451463
1.5707507 12.727434 -0.43072268 -0.44194886 -0.5782593 -6.841991 0.16432449 -1.1761783
-2.7218318 -2.7340236 1.2261019 0.38819462 -0.71313477 -4.581878 -3.756819 -0.7447502
0.8969934 -1.6834537 -3.36376 -0.05116871 4.473215 -2.0914445 -0.8230089 -1.6321849
-0.14448039 3.4318225 -5.829377 -4.2617064 0.13118815 0.0441916 4.2740426 3.0387957
-0.12865603 -0.6823131 2.441098 0.35974404 1.255824 1.8166548 0.6222363 -0.0041514486
-1.0828748 -0.4722412 0.39428222 0.29065126 1.5402819 -0.12676497 -2.3211997 1.8134961
-1.3528504 0.50684124 -2.198129 -1.0754033 -9.194282 -16.220886 0.07502401 0.06431464
4.0420084 6.8415413 -0.16035737 0.76569736 0.11145856 2.474826 -1.9511161 2.0997221
-0.816372 0.110863395 -1.3080102 0.49306926 -0.36232653 -1.9365942 -2.3675833 -0.07588625
5.074357 -1.5017071 -2.7275488 2.4589899 -2.9032845 4.395603 0.55210936 8.215939
0.17420414 0.2503247 -0.6427586 -12.448206 -0.099644825 0.71286887 0.6990672 -0.3846742
-2.4808187 -1.5430266 -1.0523446 13.687638 -2.9829297 -0.011753516 -0.11362009 -8.903541
00000000: a651 97bf cc8c b4bf fdc0 873f 1806 0041
00000010: 469e bcbf 791f 913f 1c75 99be ae51 853d
00000020: 5532 84bf a9d3 acbd fa43 7c3e 4889 bdbf
00000030: 2197 073f 466d f53f c3a5 1cbe 7d33 24bf
00000040: e1c3 17c0 45ad 7c3f 5004 28c1 3688 42be
00000050: 5d34 5abf 0ba1 69c0 7b2a ad40 f0af f6bd
00000060: 48c8 223e 0bac 47c0 74f3 6dc0 4823 31bc
00000070: af30 babf 9bc8 78bf 302b 12c0 2544 03c0
00000080: 2bd4 6c3e c48f 70bf 0591 0740 c379 03c0
00000090: 2452 e93d 268c 4040 2f48 aec0 6564 1fc0
000000a0: cd98 2fbf fba6 f3bf da50 5540 6ba0 4541
000000b0: 4067 3540 9742 23bf 6088 65be 51cb 0fc1
000000c0: 2291 8bc0 982c 1c3d f9be d9bd 3a9b 72bf
000000d0: 64f9 b63e 712e 1640 cb13 aabf 3b2b d43f
000000e0: d4ed 8240 232f 7a40 db11 0abf dd13 ac3e
000000f0: fa32 fdbf bdaf 6ac0 a755 69be 6141 1dc0
00000100: 41dc 5040 5eee 6c3f 2e91 a53f 24e8 75be
00000110: 9091 7cbf f729 873f 0ebe 37c1 cf14 0b3e
00000120: 6a48 163f c785 0b3f ebd8 8340 3484 fcbd
00000130: 34b3 3140 80e4 253f 0f30 3ac0 90b7 debe
00000140: 400d 34c0 252c 893f 9bd7 22c0 ae6e 02c0
00000150: 9520 8bbf f4d6 803f 32ce 84bf 64e2 923f
00000160: 83e8 3ebe 25a5 30c0 547b bc3e ae31 853e
00000170: a5a3 23c0 fbf3 db3f 6fca 523f ee25 2bc1
00000180: 575a 87c0 7720 27bb ca40 193d 3dc7 9c40
00000190: 617d 1940 aa8b 2d3e f804 203e 796e 6e3e
000001a0: a10c 3540 aa3e 0fc0 1d8c 1d40 aa43 d03e
000001b0: b9fe 9e40 d786 98c0 3bc1 2f3f d550 d33c
000001c0: b624 fcbf fb0b 1140 3d4a 7bbe e0d4 1c40
000001d0: aa8f 29bf da71 78be f0ea e43e 299f 293e
000001e0: 3ffb 5cbf e8f5 f2c0 dc49 9cc0 ec65 1abe
000001f0: db06 a73d 56d1 3540 63d1 bd3e 5255 49be
00000200: 2ccf d63d 483a 0940 6ef0 9fc0 3666 53bf
00000210: bbfd 6e40 8f49 ef3f b434 9040 840c ccbf
00000220: 4653 94be 11ee 013e b30b dec0 5717 a43f
00000230: ecaf c7bd 3f79 b6bf a678 e2bd ecd6 10c0
00000240: e0f1 8240 edbd 4fc0 7507 71bf fc1a 8e40
00000250: 8940 9dc0 f75c eb3e 3041 94bf 5fe0 2ac1
00000260: 013e 5340 6067 c13c 7b46 293d 39ed 8dc0
00000270: b9e7 4940 9bd1 95bf c353 27c0 c5e4 1c40
00000280: 5c0e c93f 92a3 4b41 af87 dcbe 1f47 e2be
00000290: cd08 14bf 97f1 dac0 ae44 283e 038d 96bf
000002a0: 7e32 2ec0 3efa 2ec0 e8f0 9c3f 72c1 c63e
000002b0: 0090 36bf bf9e 92c0 b96f 70c0 f3a7 3ebf
000002c0: 5ca1 653f 697b d7bf d847 57c0 4896 51bd
000002d0: 9424 8f40 3ada 05c0 b6b0 52bf 6feb d0bf
000002e0: abf2 13be fba2 5b40 428a bac0 e65f 88c0
000002f0: 3056 063e 4002 353d f5c4 8840 a17b 4240
00000300: 68be 03be 12ac 2ebf f33a 1c40 5f30 b83e
00000310: d7be a03f 2588 e83f e14a 1f3f e008 88bb
00000320: a49b 8abf 99c9 f1be 5cdf c93e 3ed0 943e
00000330: f527 c53f adce 01be 898e 14c0 a420 e83f
00000340: 342a adbf 59c0 013f 25ae 0cc0 d1a6 89bf
00000350: c71b 13c1 60c4 81c1 30a6 993d 65b7 833d
00000360: 2258 8140 e8ed da40 b934 24be be04 443f
00000370: 6344 e43d 8d63 1e40 2cbe f9bf d961 0640
00000380: c1fd 50bf 590c e33d e16c a7bf 9373 fc3e
00000390: dd82 b9be 52e2 f7bf 7c86 17c0 406a 9bbd
000003a0: 2261 a240 f037 c0bf 2990 2ec0 1760 1d40
000003b0: 6acf 39c0 c8a8 8c40 0a57 0d3f 7c74 0341
000003c0: 9262 323e 8f2a 803e d48b 24bf da2b 47c1
000003d0: 9612 ccbd 937e 363f 11f6 323f 04f4 c4be
000003e0: bcc5 1ec0 e581 c5bf 3ab3 86bf 9100 5b41
000003f0: 52e8 3ec0 d291 40bc a6b1 e8bd e774 0ec1

bias f4 [256]
-0.24981077 -1.4605154 -2.12459 0.52051854 0.8636039 -0.5249785 -3.6654618 -2.7745624
0.16107623 -1.4514042 0.47710595 -3.0206869 -2.216331 -1.7780782 -2.1169786 -0.053755213
-2.1431832 -2.2666974 0.5024138 4.8739915 -0.4160141 -2.7541535 -2.147498 -3.4359927
-4.149168 -0.8248539 0.26263058 -2.1084878 -1.662092 -3.2203753 -1.5885619 4.0902014
-1.2297657 -0.7269643 -2.6864448 -1.8296808 -3.4476166 -2.4388523 2.6389198 -1.0719856
-1.9020574 -0.3824088 1.1197218 2.5236585 -2.9561777 -1.7976182 -1.803927 -1.7616833
-2.2098188 -2.5127456 -0.13737862 -3.0259013 2.4056976 -2.4651432 -0.99639106 -1.9191011
-1.8708963 -2.7261145 -1.295492 -2.9053187 -0.945744 -0.9148542 -2.3081677 -2.251056
-2.9843981 -1.6332122 -1.4276254 -2.0835276 -0.07509582 -2.1634886 -2.0856478 0.33226484
-3.0679748 0.14009069 -0.93691653 0.23258483 2.0209553 -0.3878627 -0.9556224 -0.99200433
0.10795243 -0.7735801 -1.805357 -4.260612 -0.92997867 -0.38830486 0.2787929 2.1340437
-0.7109596 -1.3451321 -1.551362 -1.229523 -0.12070635 0.17818111 -1.246043 0.218677
-1.2891065 -2.8392148 -2.256519 1.6711231 -2.9995165 3.2841578 -2.586421 -2.9203484
-2.5111427 -0.5757871 -2.4968646 0.13779253 0.13297752 -3.462903 -1.1021873 -0.19404536
-3.0389142 -2.748409 -0.8446544 -1.2605497 -2.0301092 -1.4760063 -3.0859869 0.26802707
-2.6031368 4.9167004 -1.4009483 -2.579501 -0.12532938 -1.3858671 -1.4682815 -1.7734932
-2.0093143 -1.3108678 -2.8744986 -2.214835 -2.5959451 -1.1433603 -1.5660807 4.020426
1.4571569 -2.1302037 -0.42173398 -2.0984468 -2.7912695 -3.945383 -0.71154326 -1.7466052
-1.6635274 -2.6946542 -0.9587403 -2.8493328 -0.0082974415 -1.7688863 2.5389793 -1.5640827
-1.9333582 4.5049157 -1.743321 1.8563855 -0.6636112 -3.4813695 -0.122387014 -0.76084787
-0.7182864 -1.4573728 -1.6953131 -2.304499 -1.2816708 -2.876314 -3.103624 -2.321831
-1.4160491 -2.8672042 -1.797425 0.37018648 2.6105113 0.22757523 -2.07694 -1.1839584
-3.134707 -2.5617876 -2.0443923 1.0371456 -1.5162108 -1.3306038 0.24769934 -0.7644526
-1.1316217 -1.6997733 -2.507817 -1.8016169 -2.4010255 -2.226621 0.21741612 -0.2775359
-1.2234344 -2.4384835 -2.3250837 -2.4784071 -1.0322986 -1.7565439 -0.3154908 -2.4989278
-1.9451102 -1.2405149 -2.1793065 5.37109 -2.330161 -3.2908087 -2.1459525 -1.8601508
-3.5043569 -2.1704223 -1.3166456 -3.0100596 -0.20895931 -2.8152316 -1.6633608 -0.46304134
-3.4106228 -2.437249 -1.955274 -2.224204 -1.1616911 -0.69067395 0.42797682 -3.0259395
-2.3481688 1.0920596 -3.2791216 -2.1425962 -2.0905166 -0.47665462 -1.9020312 -2.0715947
-0.8344113 -1.5849919 -2.769098 0.10026955 -2.6996622 -2.8708558 -0.3056728 0.5301075
-2.5350807 -1.0544758 -2.6570976 0.19488385 -3.1670022 -0.7754605 -0.8032625 2.5214453
-0.7039395 -1.6291717 -1.5136163 -0.5191324 -0.86064297 -0.31034923 -2.6640892 -0.9836398
00000000: 65ce 7fbe 2bf2 babf 48f9 07c0 b440 053f
00000010: 2515 5d3f fe64 06bf ed96 6ac0 6e92 31c0
00000020: 2bf1 243e 9dc7 b9bf 3b47 f43e ef52 41c0
00000030: 5ed8 0dc0 1198 e3bf 947c 07c0 6d2e 5cbd
00000040: ea29 09c0 9211 11c0 319e 003f bdf7 9b40
00000050: cdff d4be 0d44 30c0 9b70 09c0 4ee7 5bc0
00000060: fcc5 84c0 a029 53bf 8477 863e 77f1 06c0
00000070: 6ebf d4bf a11a 4ec0 ff55 cbbf eee2 8240
00000080: f668 9dbf 551a 3abf b6ee 2bc0 fb32 eabf
00000090: c0a5 5cc0 2816 1cc0 10e4 2840 d336 89bf
000000a0: 9e76 f3bf 16cb c3be 0b53 8f3f 9f83 2140
000000b0: 0432 3dc0 5a18 e6bf 14e7 e6bf d77e e1bf
000000c0: ac6d 0dc0 d3d0 20c0 fbac 0cbe 5ea8 41c0
000000d0: f3f6 1940 e8c4 1dc0 7c13 7fbf 1ba5 f5bf
000000e0: 8879 efbf a978 2ec0 afd2 a5bf bef0 39c0
000000f0: 471c 72bf e333 6abf 05b9 13c0 4d11 10c0
00000100: 6100 3fc0 190d d1bf 6ebc b6bf 8458 05c0
00000110: d6cb 99bd 9976 0ac0 417b 05c0 9e1e aa3e
00000120: b359 44c0 ef73 0f3e c3d9 6fbf b82a 6e3e
00000130: 5557 0140 f195 c6be aba3 74bf fff3 7dbf
00000140: 2a16 dd3d 5809 46bf f015 e7bf ef56 88c0
00000150: 1513 6ebf e5cf c6be f1bd 8e3e 2c94 0840
00000160: 7301 36bf 4a2d acbf 0893 c6bf 0261 9dbf
00000170: e434 f7bd 1c75 363e 567e 9fbf ddec 5f3e
00000180: 7101 a5bf b2b5 35c0 cf6a 10c0 5de7 d53f
00000190: 14f8 3fc0 a42f 5240 ec87 25c0 fde6 3ac0
000001a0: 90b6 20c0 c966 13bf a1cc 1fc0 7c19 0d3e
000001b0: 422b 083e 34a0 5dc0 7914 8dbf d4b3 46be
000001c0: 927d 42c0 efe5 2fc0 453b 58bf b159 a1bf
000001d0: 4fed 01c0 c6ed bcbf cf80 45c0 d83a 893e
000001e0: cb99 26c0 9c55 9d40 4652 b3bf 8b16 25c0
000001f0: 5856 00be 1864 b1bf a6f0 bbbf d301 e3bf
00000200: 9b98 00c0 84ca a7bf c9f7 37c0 dbbf 0dc0
00000210: f723 26c0 a159 92bf 5575 c8bf 54a7 8040
00000220: 1e84 ba3f 4255 08c0 84ed d7be f44c 06c0
00000230: 29a4 32c0 2881 7cc0 b327 36bf c290 dfbf
00000240: 77ee d4bf 3775 2cc0 0170 75bf 785b 36c0
00000250: fef1 07bc de6a e2bf a37e 2240 dd33 c8bf
00000260: 4878 f7bf 4528 9040 2425 dfbf 0a9e ed3f
00000270: 6ce2 29bf c2ce 5ec0 0ba6 fabd edc6 42bf
00000280: 9ee1 37bf 318b babf 0500 d9bf e97c 13c0
00000290: ca0d a4bf 8715 38c0 c7a1 46c0 e198 14c0
000002a0: 1941 b5bf 4680 37c0 0612 e6bf 1589 bd3e
000002b0: 9e12 2740 7b09 693e 96ec 04c0 f38b 97bf
000002c0: 0a9f 48c0 54f4 23c0 53d7 02c0 30c1 843f
000002d0: 3213 c2bf 3a51 aabf e5a4 7d3e 2ab3 43bf
000002e0: fbd8 90bf 2c92 d9bf 1380 20c0 629b e6bf
000002f0: 67aa 19c0 f580 0ec0 55a2 5e3e 2f19 8ebe
00000300: 8099 9cbf 1d10 1cc0 2cce 14c0 399e 1ec0
00000310: 5c22 84bf 6ed6 e0bf 0388 a1be 6fee 1fc0
00000320: 5ff9 f8bf 31c9 9ebf c279 0bc0 f8df ab40
00000330: 5c21 15c0 9c9c 52c0 4957 09c0 6c19 eebf
00000340: 6247 60c0 33e8 0ac0 d887 a8bf d1a4 40c0
00000350: 6ef9 55be c12c 34c0 02e9 d4bf c113 edbe
00000360: a547 5ac0 e3fb 1bc0 6b46 fabf 5c59 0ec0
00000370: 4bb2 94bf 02d0 30bf c71f db3e fea8 41c0
00000380: 6648 16c0 9cc8 8b3f 21dd 51c0 4c20 09c0
00000390: 06cb 05c0 130c f4be c275 f3bf 0295 04c0
000003a0: fb9b 55bf 04e1 cabf e738 31c0 1f5a cd3d
000003b0: 44c7 2cc0 1abc 37c0 2581 9cbe 20b5 073f
000003c0: c33e 22c0 10f9 86bf e30d 2ac0 a28f 473e
000003d0: 2ab0 4ac0 9484 46bf 9ca2 4dbf 5c5f 2140
000003e0: 6135 34bf b388 d0bf 2ebe c1bf dce5 04bf
000003f0: 1953 5cbf 18e6 9ebe 7080 2ac0 d1cf 7bbf

weight f4 [256, 256]
0.01615305 -0.0036288754 0.028964717 -0.021616248 -0.06433094 -0.03905918 0.0075142034 -0.015095829
-0.06071962 0.035870284 -0.03253592 0.046819746 -0.051739994 -0.0079032825 -0.018630471 -0.056637462
0.0416912 -0.034950826 0.011969846 -0.05910625 0.03759717 -0.049517717 -0.037196368 0.062174894
0.0518797 0.053906146 -0.057133514 0.008454867 -0.0061208596 0.009596991 -0.06657907 -0.032077834
0.039718203 -0.004067358 -0.06312819 -0.0013215884 -0.08783621 -0.060056444 0.008083222 0.022166695
-0.0064730095 -0.058757372 0.029354487 -0.048167028 -0.061700832 0.024157703 0.05384298 0.025333486
-0.059583936 -0.03346713 -0.042983282 -0.054519705 -0.059370067 0.039289616 -0.063455775 -0.025825914
-0.028859375 0.005802418 -0.06797415 -0.059279103 -0.01974273 0.00872236 0.042876482 0.013482407
0.0046722223 0.006355945 -0.05763543 0.030400673 -0.08630441 -0.023578703 -0.048292745 0.034418285
-0.03960571 -0.05968896 -0.04108833 0.047044702 0.0033701065 -0.007969123 -0.0010198299 -0.048307776
-0.016185353 -0.023753187 -0.009080395 0.016904736 0.00021570921 -0.041782416 -0.019612294 0.025890762
-0.069071405 -0.036853373 -0.06319037 -0.05363169 -0.0065307543 -0.0377828 -0.0061672586 0.03122576
0.007199806 0.00036900066 0.017019942 -0.0966704 -0.0342885 -0.006165516 -0.019979915 0.017730393
-0.063829094 0.003296479 0.050847355 -0.087442525 -0.049849827 -0.022550467 -0.0090153655 -0.03660447
-0.06702863 0.05347301 -0.05234383 -0.045538217 -0.019408077 0.019183913 -0.0005119979 0.041863892
-0.04730297 -0.020706221 0.017202746 -0.06280632 0.021409113 -0.0074249227 -0.069298066 0.002577075
0.027046379 -0.06062746 0.050110307 -0.069668844 -0.019415878 -0.09973315 -0.027607568 0.034483
-0.039309274 -0.09604001 0.00919295 -0.01593803 -3.1396346e-05 -0.037457336 0.0008462548 -0.06012178
-0.0052301013 -0.053842433 -0.044151336 -0.026474709 0.037671275 -0.04877493 0.0072581638 0.03212787
-0.07527137 -0.0051386678 -0.05903143 -0.030132988 0.029529205 -0.0075800736 0.02887004 0.027472662
-0.05176237 0.015434747 0.034084804 0.011064702 0.03708018 -0.046188332 -0.0055273594 0.025008595
0.013412092 -0.027437983 -0.05960756 -0.043125194 0.035600733 -0.06498423 -0.06856375 -0.039149653
0.013072456 0.0025684508 -0.048917096 0.040371865 -0.013254068 0.03015448 0.028610455 -0.00853749
-0.085579254 -0.056106746 -0.012649683 -0.047111444 -0.013382444 -0.058437593 -0.018699376 -0.06660238
-0.006077362 -0.007846641 -0.006287 -0.03206436 0.041846026 -0.04729337 0.0340217 0.021808997
-0.02780018 -0.078007564 -0.06497944 -0.002850405 -0.012061368 0.049904518 -0.057876773 0.012565163
-0.036067322 0.051430985 0.010828581 -0.002375988 0.049482476 -0.05089394 0.0024031922 -0.0038309922
-0.025865948 0.051864248 0.0025734573 0.0042741224 0.047269713 -0.028124837 0.030338362 -0.026300846
-0.054039128 0.024336929 -0.04352772 -0.005135432 -0.03813288 -0.07654257 0.039624546 0.0054428903
0.044075247 0.015376221 0.03205066 -0.02752928 -0.0060596354 0.02838126 -0.036013223 -0.0007147877
-0.05350218 -0.00947407 -0.10404735 -0.033529513 0.051423106 0.010033581 -0.005683032 0.013211267
0.0044908873 0.015336206 0.031372417 0.04190587 0.0058028754 -0.023648843 -0.02198401 0.029644525
00000000: 6753 843c 6dd2 6dbb 6a47 ed3c 8f14 b1bc
00000010: f1bf 83bd 85fc 1fbd b539 f63b 7f54 77bc
00000020: 23b5 78bd b8ec 123d 6344 05bd 10c6 3f3d
00000030: 51ed 53bd c57c 01bc ee9e 98bc affc 67bd
00000040: 64c4 2a3d 9928 0fbd 2c1d 443c 6519 72bd
00000050: 7dff 193d 17d3 4abd 385b 18bd 1aab 7e3d
00000060: cf7f 543d b1cc 5c3d d504 6abd 4886 0a3c
00000070: 7e91 c8bb b33c 1d3c 9c5a 88bd 0c64 03bd
00000080: 8eaf 223d 7947 85bb 5a49 81bd 2639 adba
00000090: 79e3 b3bd bffd 75bd 7e6f 043c ee96 b53c
000000a0: 8a1b d4bb 92ab 70bd d278 f03c ca4a 45bd
000000b0: 03ba 7cbd 60e6 c53c 758a 5c3d 2c88 cf3c
000000c0: 490e 74bd d414 09bd 3d0f 30bd 0e50 5fbd
000000d0: 072e 73bd 26ee 203d 1af5 81bd de90 d3bc
000000e0: 7f6a ecbc 3622 be3b 0836 8bbd a5ce 72bd
000000f0: 81bb a1bc 3be8 0e3c 409f 2f3d 50e5 5c3c
00000100: 7119 993b 8845 d03b 2113 6cbd d50a f93c
00000110: 5ec0 b0bd 2028 c1bc 9dce 45bd 30fa 0c3d
00000120: 9939 22bd 697c 74bd 3d4c 28bd f2b1 403d
00000130: 01dd 5c3b ed90 02bc d0ab 85ba 60de 45bd
00000140: 2597 84bc 0b96 c2bc f0c5 14bc cd7b 8a3c
00000150: 0030 6239 0a24 2bbd f6a9 a0bc dd18 d43c
00000160: 4f75 8dbd 90f3 16bd f469 81bd e7ac 5bbd
00000170: f0ff d5bb 23c2 1abd b716 cabb 2acd ff3c
00000180: 5aec eb3b 6e76 c139 686d 8b3c 21fb c5bd
00000190: 1972 0cbd 1908 cabb ebac a3bc 543f 913c
000001a0: d4b8 82bd bd09 583b 5145 503d 1115 b3bd
000001b0: 552f 4cbd c2bb b8bc 2fb5 13bc 92ee 15bd
000001c0: 4e46 89bd 8406 5b3d 7c66 56bd 4886 3abd
000001d0: b0fd 9ebc 9527 9d3c 9937 06ba 7979 2b3d
000001e0: c2c0 41bd 18a0 a9bc c6ec 8c3c 9aa0 80bd
000001f0: 2a62 af3c c44c f3bb 25ec 8dbd 25e4 283b
00000200: 5e90 dd3c 8054 78bd 7740 4d3d 8aae 8ebd
00000210: 0c0e 9fbc e540 ccbd 4429 e2bc 0c3e 0d3d
00000220: c302 21bd a0b0 c4bd 079e 163c 7990 82bc
00000230: 92af 03b8 dd6c 19bd 33d7 5d3a 4142 76bd
00000240: 4561 abbb e289 5cbd 08d8 34bd 7de1 d8bc
00000250: 324d 1a3d 39c8 47bd e4d5 ed3b 8398 033d
00000260: e027 9abd 4562 a8bb f1ca 71bd 75d9 f6bc
00000270: 3be7 f13c 4462 f8bb dd80 ec3c 590e e13c
00000280: c704 54bd 05e2 7c3c 829c 0b3d b948 353c
00000290: 63e1 173d fa2f 3dbd da1e b5bb d3de cc3c
000002a0: 64be 5b3c 9fc5 e0bc 0f27 74bd 0ba4 30bd
000002b0: 13d2 113d 7416 85bd 276b 8cbd 635b 20bd
000002c0: db2d 563c 7453 283b 4b5d 48bd f85c 253d
000002d0: 9727 59bc 8706 f73c 7960 ea3c d4e0 0bbc
000002e0: 2d44 afbd 30d0 65bd 9e40 4fbc eef7 40bd
000002f0: 0a42 5bbc 425c 6fbd 6f2f 99bc d466 88bd
00000300: 9c24 c7bb 338f 00bc 2e03 cebb eb55 03bd
00000310: bd66 2b3d b1b6 41bd 575a 0b3d c8a8 b23c
00000320: 34bd e3bc 6ec2 9fbd f113 85bd dccd 3abb
00000330: 0b9d 45bc ae68 4c3d 3210 6dbd 1dde 4d3c
00000340: 54bb 13bd 4ca9 523d 5c6a 313c 77b6 1bbb
00000350: 23ae 4a3d 2a76 50bd e07e 1d3b 6211 7bbb
00000360: d3e4 d3bc 9b6f 543d 73a7 283b f00d 8c3b
00000370: e39d 413d 0f66 e6bc 2888 f83c df74 d7bc
00000380: 2258 5dbd 3d5e c73c 1f4a 32bd 2047 a8bb
00000390: 3931 1cbd 5ac2 9cbd 594d 223d 465a b23b
000003a0: 3f88 343d 8cec 7b3c 8e47 033d 1685 e1bc
000003b0: e88f c6bb d17f e83c 9a82 13bd 9760 3bba
000003c0: 1a25 5bbd 2139 1bbc c716 d5bd 3e56 09bd
000003d0: 09a1 523d e463 243c ba38 babb 1274 583c
000003e0: 4b28 933b b644 7b3c 5d80 003d 7da5 2b3d
000003f0: 0c26 be3b 38bb c1bc cf17 b4bc 13d9 f23c
