data/DDPG/Ant-v2/ddpg_s31746/pyt_save/model.pt (torch_old, 777815 bytes, 11 tensors)

weight f4 [256, 111]
00000000: 6640 84bf 9598 b83f c8ad 613f 791d 81c0
00000010: 9fdb 1640 58f3 ab3f 4fed 19bf 3e8e d2be
00000020: ed82 d5be 711d 053f 80e5 843e 2c68 b83f
00000030: 8a8f 093f 08b0 5a3e b956 ec3d 8866 6dbe
00000040: 04e6 803d 28f6 71be ee51 203f 888a dc3d
00000050: 765b f2bd 4361 8d3d 8ef7 9bbc 4789 bf3d
00000060: de5a 733d 7762 eb3d ac8b 423b 10da e8bb
00000070: f6e5 4bbd def9 b2bd 6b16 a4bd e0ac 12bc
00000080: cce6 b63c da2b 023d 7ca8 a2bc 9328 b73d
00000090: 98bd 93bc 297e 3bbd 5702 42bd 3d83 3cbd
000000a0: 58e7 b9bd 662c 163d 45f8 a8bd 4098 dc3b
000000b0: 585d 313c fac6 68bd 863b 773d dea8 51bd
000000c0: be40 793d 0001 313b 0b40 b83d 07e1 0abd
000000d0: e8de 223c 7ec3 043d e751 1cbd dce6 9f3c
000000e0: c589 9b3d c0fd deba fa38 2b3d 787f 823c
000000f0: 081a 53bd 685b 153c 1ae1 423d 5839 05bc
00000100: c886 56bd 562d 2e3d 80f6 303b 2c7a 00bd
00000110: 3a4b 583d 30f5 ec3c 2d49 833d fe31 2c3d
00000120: 0883 a53c 80b4 87bb f98d 843d ce87 673d
00000130: 6005 a2bd c0c2 6abd 200e 26bc f02c f83b
00000140: ce3b 693d f8d5 db3c 8902 bd3d 16ce 103d
00000150: 5ee7 253d f648 693d 9201 8cbd c01a 603b
00000160: 8f86 9a3d edfe b83d 4125 a4bd f23c 29bd
00000170: 128a 43bd 6847 83bc bf22 ac3d d7c9 c13d
00000180: f88a bf3c e5db bebd feaa 1d3d 981e a3bd
00000190: 272d b93d 39f7 bf3d 28d8 bfbd 1f45 59bd
000001a0: 4040 7b3c 47ea b3bd 1af1 73bd 6f2d 12bd
000001b0: a8d6 783c 00c0 41ba 7cdd abbc 6d37 bdbf
000001c0: 8404 d93e bfbf f13f f6d2 4340 9eb2 7840
000001d0: 2d18 01c0 be62 e9be 5f76 0b40 0d56 2b3e
000001e0: 9653 0fc0 b780 b03e 4e2d 2b40 00ce 31bf
000001f0: 610f 293e c2ad fb3e 12ca 8ebe 161a 76be
00000200: e414 82be da6c 9d3d 0712 2cbe c913 003e
00000210: f5a1 c1bd b316 6b3d 0e78 853d 82c6 043d
00000220: c667 9ebc 44fe 13bd 691e 943d 2bbf 8e3d
00000230: f569 afbd 7851 463c 57ee a83d a0bb 98bb
00000240: d2fb 1f3d 1668 033d 7d9e 883d aa53 023d
00000250: 4060 623c c663 363d 906b 8b3b 7ec3 1a3d
00000260: 3e3f 5e3d fbad b6bd 9655 473d 0315 a13d
00000270: 922f 3dbd a0cf c53c 3599 b7bd fd73 b13d
00000280: 11ce 46bd 0271 623d afff 9c3d 50df 87bd
00000290: db35 893d 4cc6 a73c 2a65 363d ce04 6a3d
000002a0: f8b6 173c 433c 11bd 60bb b2bb d6b9 643d
000002b0: 91d7 ad3d f26b 6a3d 0c25 c6bc 35c7 4fbd
000002c0: 41de a33d 70bb 3abc a975 a23d aa93 0f3d
000002d0: 689c cdbc 8335 79bd 02a2 3f3d ad92 39bd
000002e0: fe6a 773d fe1b 4e3d b26a 87bd b0f8 213c
000002f0: 32ef 343d aa8a 383d a3b6 9ebd 7058 9d3b
00000300: 3a3f 92bd b903 863d 6e11 57bd 8df3 973d
00000310: c038 b73a e1d8 a13d 8070 eabc 60cc 03bc
00000320: dde9 b63d 57aa b6bd c7f3 23bd 51d5 923d
00000330: 1138 bd3d 270a 6dbd 4ea7 09bd d426 6bbd
00000340: 5d6a 21bd 06a0 7d3d 8835 e6bc 70e7 0a3c
00000350: 9316 b83d 6efa 3e3d 3b4a 943d 32da 30bd
00000360: e863 01bd e06f 2bbc aeb9 353d 3080 aebd
00000370: 7aee 003d 267d 7a3d ebb3 b640 b9d9 a4bf
00000380: 5a07 dc3f de09 1fbf 7df9 e7bd 21a0 623f
00000390: 431a 26bf 97c4 cd3d eb8f 18be 8b72 9e3e
000003a0: 3542 7abe e656 c4be 1ce3 03bb 24fd de3c
000003b0: 7f1e 68be 5dcd 203f 9463 053f 160f ddbd
000003c0: c480 72bd cd8b 10bd 25ef 86bd dac2 afbd
000003d0: a08f 02bd b3e7 a8bc 6373 dbbd eab9 cd3d
000003e0: d699 423c f8d2 36bd db72 b13d 928f 663d
000003f0: 40dc eabb 0bf9 883d cd79 b6bd 2610 adbd
-1.0332153 1.4421564 0.88155794 -4.0348477 2.3571546 1.3433638 -0.6012773 -0.41124147
-0.4170145 0.5199805 0.25956345 1.4406791 0.5373465 0.21356213 0.115399785 -0.23183644
0.06293872 -0.23629057 0.62625015 0.1076861 -0.11833851 0.06903317 -0.019038942 0.093523555
0.05941283 0.1149339 0.0029685302 -0.007106073 -0.049779855 -0.08739065 -0.080120884 -0.008952349
0.02232685 0.0317801 -0.01985573 0.08943286 -0.018034741 -0.045774613 -0.047365513 -0.046023596
-0.090773284 0.036663435 -0.08250479 0.006732017 0.010825478 -0.056830384 0.0603595 -0.051186435
0.06085276 0.0027008653 0.0899659 -0.03390601 0.00994084 0.032413 -0.038164046 0.019519262
0.07594637 -0.0017012879 0.041802384 0.015929922 -0.051538497 0.009116031 0.047577955 -0.008131348
-0.05237463 0.042523704 0.0027002394 -0.031366512 0.052806117 0.028925508 0.064104415 0.042039864
0.020204082 -0.0041413903 0.06472392 0.056525998 -0.079111814 -0.057314634 -0.010135204 0.0075737163
0.0569418 0.026835427 0.09228999 0.03535279 0.040503852 0.056954347 -0.06836237 0.0034195632
0.07545196 0.09032998 -0.08014918 -0.041317888 -0.047739096 -0.01602526 0.08405065 0.09462326
0.023381695 -0.09319285 0.03849315 -0.0796482 0.09041815 0.09373326 -0.093674004 -0.053044435
0.015335143 -0.08784919 -0.059556104 -0.03568786 0.015187897 -0.0007390976 -0.020979635 -1.478254
0.42386258 1.8886641 3.059751 3.885902 -2.0171006 -0.45583147 2.1790998 0.16732045
-2.2394767 0.34473202 2.6746402 -0.69454956 0.16509773 0.49156004 -0.27888542 -0.24033388
-0.25406563 0.076867774 -0.16803752 0.12507547 -0.09454719 0.057394695 0.06517039 0.032415874
-0.019336592 -0.03613116 0.07232363 0.06970056 -0.085651316 0.012104385 0.08248585 -0.0046610385
0.039058514 0.032081686 0.06670854 0.03181807 0.013816893 0.044528745 0.004254766 0.037784092
0.05425953 -0.08919903 0.048665605 0.07865336 -0.046187945 0.024146855 -0.08964769 0.08664701
-0.048536364 0.055283554 0.07665955 -0.0663439 0.06699725 0.020480298 0.04453007 0.05713349
0.009259932 -0.03545786 -0.0054544657 0.05584129 0.08488382 0.05723185 -0.024187587 -0.050727088
0.08001376 -0.011397228 0.07932598 0.035052933 -0.025098994 -0.06084205 0.046785362 -0.045305897
0.06040477 0.050319664 -0.066121474 0.009885952 0.044173427 0.045054115 -0.07749679 0.0048018023
-0.07140966 0.06543679 -0.052506857 0.074195005 0.0013978705 0.079026945 -0.028618097 -0.008044332
0.08931325 -0.089192085 -0.040027406 0.07169593 0.092392094 -0.05787101 -0.03360682 -0.057410076
-0.039408077 0.06192019 -0.028101698 0.008478031 0.08988681 0.046625547 0.07240721 -0.043176837
-0.03158942 -0.010463685 0.04436653 -0.085205436 0.03147743 0.061154507 5.7094626 -1.2878944
1.7189744 -0.6212443 -0.11326883 0.8852559 -0.6488382 0.10047262 -0.1489865 0.30946764
-0.24439318 -0.38347548 -0.0020124381 0.027220316 -0.22667883 0.6281336 0.5210507 -0.10793893
-0.05920483 -0.035289574 -0.06588582 -0.08582087 -0.031875253 -0.020618295 -0.10715368 0.10045226
0.011877498 -0.04463479 0.08664485 0.056289263 -0.007167369 0.06688126 -0.089099504 -0.08450346

bias f4 [256]
00000000: e9b5 aabf d579 9ebf ce40 8ac0 998f 53c0
00000010: 5685 35bf 6f43 38c0 23b3 0dbe 6a58 273e
00000020: d85b 27c0 c0bf 5b3f 790d bfbf 7780 c53d
00000030: 995c 7e3f b328 13c0 8c89 4ac0 0596 09be
00000040: 5266 983d 8fef 803d 9259 cebe 2a6d 1ec0
00000050: 5c0d 5040 acdd 92bf 665b 8fbf 23cd 82bf
00000060: 1e08 7bc0 c714 b5bf 5554 3ac0 11a6 10c0
00000070: b247 4fbf a377 66bf 15e7 d7bf cee6 8e3e
00000080: 391a fabf 6a72 68bf 5d85 d2bf 0362 6cbf
00000090: eb8c aa3e 833b 2ec0 054d 02c0 da7d 81be
000000a0: e4c5 56c0 5f02 5cc0 cc93 853d 024c 31c0
000000b0: e2e7 6ec0 8f12 04c0 86b0 36c0 8d11 11bf
000000c0: 4d30 21c0 1357 a93f 7129 33c0 a2c8 21c0
000000d0: 2c1d efbf 09ee 89c0 b8bd 33c0 ac46 1bc0
000000e0: 41f7 22c0 2567 cabf 7f61 61bc 9c0e dabf
000000f0: 0b43 84bf 3b74 48c0 5f85 31c0 8434 10be
00000100: c085 76bf 68e5 10c0 b4a5 08c0 58f4 4fc0
00000110: c75b 763f 7e55 9fbf ca58 42c0 e7d1 6b40
00000120: 043f c4bf 7160 a5bf 3915 f4bf 8fc2 dbbe
00000130: d59f 9a3e 37be 0fc0 ec5a 1340 f5b2 2cc0
00000140: 72a8 743f 3cf3 12c0 140b 21c0 6ee5 3dc0
00000150: 55f5 32c0 2747 1740 9735 1840 fe24 c1bf
00000160: 7000 08c0 fb44 e2bf c143 4cc0 537e 1340
00000170: 9b0b 4bc0 34a9 a6bf 8246 c63f 0334 12c0
00000180: e47f f5bf ee25 5dc0 70ce f1bf 68ef 22c0
00000190: 3466 e0bf 40de fcbf e2d7 59c0 2c1a 6ac0
000001a0: 0cf1 e0bf 50f8 c7bf fa65 a5bf c0b3 203f
000001b0: b9ed 5dc0 9228 08c0 abda 73bf 3d58 0ec0
000001c0: b971 f4bf 89ba e2bf 5afb bfbf 1bd1 aabf
000001d0: a72d 813f 7575 32c0 fb5d 213e dd9e 2dbf
000001e0: fb03 91be c27f 0e40 ffbd 2040 df73 053f
000001f0: f7c0 60bf 7510 8bbf f30e 5dbf 8adb 87c0
00000200: fd5d fdbf d9e4 15c0 7338 6cc0 0154 eb3e
00000210: 6aa3 363f 7cd2 0ec0 8fe4 32bf a2aa cfbf
00000220: d2b3 5fc0 1b3c 10c0 4e99 51c0 e690 20c0
00000230: 5080 23c0 e8da cebd 8eca 76c0 378a 36c0
00000240: 8c4b 22c0 d811 05c0 a7d5 0bc0 caf4 f73f
00000250: 8438 6dbf c7ea 03c0 aef5 0cbf bb7d 6dc0
00000260: 4515 dbbe 2175 233e 01ad 84bf dc02 0e40
00000270: 794b 2abf 1c99 9dbf cc99 6bc0 c2ed bbbf
00000280: dad5 3340 c4dc 9ebf d9f3 61c0 5236 56bf
00000290: 53ff 31c0 ac1e b03f 7f4c 0340 6147 2fc0
000002a0: 8097 8ebf 7d13 35c0 d8c7 b1ba 5f35 a83e
000002b0: 3111 52c0 117e 1740 6af0 66c0 0251 2dc0
000002c0: 8412 24c0 d1f6 77c0 6554 eebf 8a3a 88bf
000002d0: cca5 b3bf f714 6abb 3aae 64c0 f9ee debf
000002e0: 9808 afbf 893c c9bf 0619 39bf 51fe c7be
000002f0: ede4 2cc0 f0b0 2bbe 7828 5440 49fd febf
00000300: 0284 dcbf d435 b8bf 8b3a 45bf d5a1 44bf
00000310: 3efd d5bf 09ef 41c0 5140 40c0 e255 c33f
00000320: 2282 40c0 beb6 9a3f 26a4 f0bf ab03 d7bf
00000330: 55ca 7c3f 4bf3 80bf eaa3 52bf 58b6 64c0
00000340: d201 b0be 8b60 35bf 4dbf 07c0 9b38 193f
00000350: 349b 3cc0 a797 0ec0 b5ac 5ac0 1a53 873e
00000360: b270 40c0 f7b7 26c0 7060 d3bf b31c 95bf
00000370: e9e1 cfbf 546e 593f b04d ddbf bac7 1bc0
00000380: e54f 70c0 e4b3 b9bf 0df9 b23f 3071 25c0
00000390: 60f5 6ebf 4e55 23c0 f7fb 1bc0 79fd 17c0
000003a0: 0ade 90be d442 d6bf 998e 19c0 cbf1 9cbf
000003b0: 9d05 10c0 5691 f3be 8037 01c0 3438 ae3e
000003c0: c10d 7ec0 8da9 48c0 c817 58c0 2bd8 2dc0
000003d0: 8f44 e83f ead6 963d 3108 b7be 059c 49c0
000003e0: d93d 04bf 7361 e0bf e8f9 8ac0 c6d9 0dc0
000003f0: e91f 63bf 275b c63f 56d7 06c0 36ce 48c0
-1.3336765 -1.238093 -4.3204107 -3.3056395 -0.7090658 -2.8791158 -0.13837866 0.16342321
-2.6149807 0.8583946 -1.4925987 0.09643643 0.9936004 -2.299359 -3.1646452 -0.13436134
0.07441391 0.06295692 -0.40302712 -2.4754128 3.2508154 -1.1473899 -1.1199768 -1.0218853
-3.9223704 -1.4146966 -2.9113972 -2.260136 -0.80968773 -0.900263 -1.6867396 0.27910465
-1.9539253 -0.9079958 -1.6446949 -0.92337054 0.33310637 -2.7223823 -2.035951 -0.2529133
-3.3558283 -3.4376447 0.06522331 -2.7702641 -3.732903 -2.0636327 -2.8545241 -0.56667405
-2.518573 1.3229698 -2.7994044 -2.5278707 -1.8680778 -4.310307 -2.8084545 -2.4261885
-2.5463412 -1.5812727 -0.013756155 -1.7035708 -1.033296 -3.1320941 -2.7737653 -0.14082533
-0.96297836 -2.2640018 -2.1351137 -3.2492886 0.9623379 -1.2447965 -3.0366693 3.6846864
-1.5331731 -1.2920057 -1.9068977 -0.42921874 0.30200067 -2.2459848 2.3024244 -2.6984227
0.9556953 -2.2960958 -2.5163012 -2.9671283 -2.7962239 2.3637178 2.3782709 -1.5089414
-2.1250267 -1.7677301 -3.1916354 2.3045852 -3.1725833 -1.3020387 1.5490267 -2.2844245
-1.9179654 -3.45544 -1.8891125 -2.5458622 -1.753119 -1.9755325 -3.4038014 -3.6578474
-1.7573562 -1.5622654 -1.2921746 0.62774277 -3.4676344 -2.1274762 -0.95255536 -2.2241356
-1.9097205 -1.7713176 -1.4998581 -1.3345064 1.0092057 -2.788419 0.15758507 -0.6782053
-0.2832335 2.2265477 2.5115964 0.5212993 -0.8779444 -1.0864397 -0.86350936 -4.245549
-1.9794308 -2.3420928 -3.6909454 0.45962527 0.713431 -2.231597 -0.6988 -1.6223948
-3.4953504 -2.2536685 -3.274982 -2.508844 -2.5547066 -0.10100347 -3.856113 -2.852186
-2.535861 -2.079214 -2.1849153 1.9371579 -0.9266436 -2.0612047 -0.5506238 -3.710799
-0.42789665 0.1596265 -1.0365297 2.2189245 -0.6652141 -1.231235 -3.681262 -1.4681933
2.8099275 -1.2411122 -3.5305083 -0.83676636 -2.7812088 1.375936 2.051544 -2.7387316
-1.1139984 -2.8293145 -0.0013563586 0.3285322 -3.2822993 2.3670695 -3.6084237 -2.7080693
-2.56363 -3.8744395 -1.8619505 -1.0642865 -1.4034972 -0.0035718062 -3.573134 -1.7416679
-1.3674498 -1.5721599 -0.7230381 -0.39061216 -2.7014725 -0.16766715 3.31497 -1.9921046
-1.7227786 -1.4391427 -0.77042454 -0.76809436 -1.6717908 -3.0302145 -3.0039256 1.5260584
-3.0079427 1.2087018 -1.8800094 -1.6797994 0.98746234 -1.0074247 -0.82281363 -3.5736294
-0.3437639 -0.7085044 -2.121051 0.59852 -2.9469728 -2.2280061 -3.4167912 0.2643059
-3.0068784 -2.6049783 -1.6513805 -1.1649383 -1.6240817 0.8493397 -1.7289333 -2.4340653
-3.7548764 -1.4508023 1.3982254 -2.5850334 -0.9334316 -2.5520816 -2.4372537 -2.3748457
-0.28294402 -1.6739144 -2.3993285 -1.2261289 -2.2503426 -0.4757182 -2.0190125 0.34027255
-3.9695895 -3.1353486 -3.3764515 -2.7163188 1.8145922 0.0736521 -0.35748437 -3.1501477
-0.5165687 -1.7529739 -4.343006 -2.2164168 -0.88720566 1.5496567 -2.106893 -3.137586

weight f4 [256, 256]
00000000: ac94 32bd 687b 0fbf de43 1e3f 3848 a5bd
00000010: 2580 9f3e 78bc 99bf 71ab 333c df06 1bbd
00000020: 6558 fd3e a176 7a3f 3a39 28be a688 26bf
00000030: 7757 9d3e 5748 34bf 9c0f 433e bac2 3fbf
00000040: 555a 06bf a948 533e d486 323f d96f 2ebe
00000050: 01f4 43bf e5d9 9cbf 2d71 5fbe 145f 5fbf
00000060: 5266 7abf 7a99 e3be fbb6 63be 3aea 07bf
00000070: cbda a0be a078 8b3d 164b 2a3b 65fa 4cbf
00000080: dfc3 043f b8a3 a8be 0e03 89bf b559 82bf
00000090: be02 0cbf 7a3f 8abf ad81 8e3e dd26 7a3f
000000a0: eb72 94be 432b 11bf 2982 5bbf c87f 4d3e
000000b0: b929 dabc 88df 5a3f f5a0 c73e b181 bebc
000000c0: 72af e1bc 2e25 0bbf 4a9b fa3e a6f0 083f
000000d0: 1f28 9ebf 4c50 ecbe 1049 63be 36ec c5be
000000e0: 0c14 f13c ffed c03d eabe f9be 4b47 a53a
000000f0: ddd2 ef3d f066 1ebf 83ac 9cbf f3cf c1be
00000100: 0c03 eabe 8772 8ebe 2531 41bf 0135 21bf
00000110: c170 03bf 41e7 02bf 7e9d 893d ca1e 8dbf
00000120: a247 1b3d 6ab7 f3bd 7932 8ebd 4871 aabf
00000130: cf59 a0bf 699b 123f c6a5 debe b87e ecbe
00000140: ee19 8abf f429 4d3e 151e f33e 928d 443f
00000150: a1f4 b73d 094f aebf c253 e4bd 76e9 0abf
00000160: 318b 593d 8b5b 953e d38a 4dbf 24f4 28bf
00000170: 46f8 be3e 6b67 123f 9c89 03bf 6bc5 03bf
00000180: 1746 cfbc f839 49bb aa8e b23e 6816 54be
00000190: 9225 99bd e9a3 33bf 0e00 84be 23e4 1fbf
000001a0: e4e5 fb3d f17b 3cbf 3197 54bf 22b0 0fbe
000001b0: 0b89 ea3e e119 4abf 15cb 6ebe 01f0 0c3f
000001c0: 1d9c 2bbd a1a1 4abf 3526 44bf f577 303e
000001d0: 7de2 61bf d9ec 0cbf c994 9cbe cf1f 183c
000001e0: fc44 fd3d 0100 bebf 2a60 febf 8b0a 9c3d
000001f0: 49ca 133e a93f febe ed47 39bf 6919 5cbe
00000200: 4c59 12bf 68c1 9bbf 127a 153f 463d 95bf
00000210: 7ca4 f6bf 97e9 2bbe 0271 ca3e cf6c 923e
00000220: d8d8 5fbf 87ed 6d3e f4dd a4be a095 31bf
00000230: a483 1d3e 1ced 96bf eb0b 36bf d598 efbd
00000240: 002c 353e 0d5a b6bd 9949 0c3f 248d 243c
00000250: c718 0dbf 88ac 61bf b40f c5bf c127 85bf
00000260: 33b1 01be 9a2c cfbf 4c4b 323e 1a5a 7ebf
00000270: 4341 09bf 6738 d63e 1ad3 e2be 52e1 07bf
00000280: 6b47 07c0 fedd 5abf d835 52bf 3f02 1abe
00000290: c28a 9dbf 3f60 9f3e c224 c1bf 5d2c d0be
000002a0: f35f 21bf 5546 50bf 0875 b63e 0bf5 14bf
000002b0: 1560 223f f17b d93c f364 94bf 0616 603e
000002c0: d1a6 d2be 6df8 bf3e e578 abbe 35d1 25bf
000002d0: a1a9 babe 9903 1ebf e9ce 73bf 0f7c 20be
000002e0: bf64 3fbf ee19 c23e e511 afbf 8c7b f7bd
000002f0: 1484 8dbf 1843 c7bd 60d3 b0bf e150 70bf
00000300: 65ed 0fbc bf2f 2ebe d618 2bbf 5126 f6bd
00000310: 73bf 96be 1187 e8bd 09e0 f4bd f2a7 8cbe
00000320: 0e71 773d 3b2c 7fbf ff28 9abe 4ad1 a2be
00000330: 3af5 b93d abc9 23bf ca9a b1be 4479 95be
00000340: 5429 9ebe 7b3e f73e 7cb3 b6be ddb9 09bf
00000350: bbc9 b63e 0417 b1be b3b9 713e b408 a1be
00000360: 1059 cdbe 7325 8f3e 427f 843e ae86 0a3f
00000370: 9394 a7be e271 e73d b168 a5be 58ae c73e
00000380: 41ec 2cbf a68a 0ac0 4500 3abe 5c41 ffbe
00000390: d4f9 19bf 209b 65bf 9373 c23e 1baf 9dbe
000003a0: b45c 063f 5af9 8abf d515 03bf 9454 84bf
000003b0: 112a b0bd 92b4 8fbe 9d78 72be 6a64 6abf
000003c0: e8de 04bf 2cd4 4fbf 9336 84be edda bc3d
000003d0: 2d7d 74bf 48f3 5abf c609 69bf cf06 7bbc
000003e0: 255e 81be 4d75 cb3e 0d79 cebf 711f 2abf
000003f0: 4e73 0bbf 5712 6f3e 0683 dbbf de86 77bf
-0.043598816 -0.5604768 0.6182231 -0.08070415 0.31152454 -1.2010641 0.010966168 -0.03784835
0.49481502 0.97837263 -0.1642808 -0.6505226 0.30730793 -0.7042288 0.19048923 -0.74906504
-0.52481586 0.20633186 0.6973698 -0.17034854 -0.76544195 -1.2253996 -0.21820517 -0.8725445
-0.9781238 -0.4445303 -0.2223777 -0.53091776 -0.31416926 0.06810117 0.0025984696 -0.8006957
0.51861376 -0.32937407 -1.0704057 -1.0183626 -0.54691684 -1.0800622 0.2783331 0.9771555
-0.28993925 -0.5670664 -0.85745484 0.20068276 -0.026631223 0.8549733 0.38989988 -0.023255201
-0.02754948 -0.54353607 0.489466 0.534922 -1.2355994 -0.46155012 -0.2219584 -0.38656777
0.029428504 0.09420394 -0.48778468 0.0012609748 0.11710141 -0.6187582 -1.2240146 -0.37853965
-0.4570545 -0.27821752 -0.75465614 -0.629715 -0.51343924 -0.51134115 0.067194924 -1.1025021
0.03791011 -0.11900218 -0.06943221 -1.3315821 -1.2527407 0.5726839 -0.4348585 -0.4619043
-1.0789163 0.20035535 0.47483888 0.7677852 0.08982206 -1.361787 -0.11148788 -0.54262483
0.05311126 0.29171404 -0.80289954 -0.6599753 0.37298793 0.57189053 -0.5138185 -0.5147311
-0.025301976 -0.0030704718 0.3487447 -0.20711672 -0.07477869 -0.7017198 -0.25781292 -0.62457484
0.122997075 -0.7362662 -0.830432 -0.14032033 0.4580768 -0.7894574 -0.23319657 0.55053717
-0.041896928 -0.79152876 -0.766208 0.1723326 -0.8823622 -0.550489 -0.30582264 0.0092849275
0.12366673 -1.4843751 -1.9873097 0.076191984 0.14432634 -0.49657944 -0.72375375 -0.21494068
-0.57167506 -1.2168398 0.5838939 -1.1659324 -1.9268947 -0.16788326 0.39539343 0.2859864
-0.8744025 0.2323514 -0.32200587 -0.69368935 0.15382248 -1.179111 -0.71111935 -0.11699072
0.17692566 -0.089038946 0.547998 0.010043416 -0.5511593 -0.88153887 -1.5395417 -1.0402757
-0.12665252 -1.6185486 0.17411536 -0.99356234 -0.53615206 0.41839907 -0.44301683 -0.53078187
-2.113734 -0.85494983 -0.8211341 -0.1503992 -1.230797 0.31128117 -1.5089343 -0.40658846
-0.6303703 -0.8135732 0.35636163 -0.58186406 0.6342786 0.026548358 -1.1593307 0.21883401
-0.41142896 0.3749422 -0.33490673 -0.6477235 -0.36457542 -0.6172424 -0.95237595 -0.15672325
-0.747631 0.37910408 -1.3677336 -0.120841116 -1.1055932 -0.09729594 -1.3814507 -0.9387341
-0.008784627 -0.17010401 -0.6683477 -0.12019027 -0.2944294 -0.11353887 -0.11956794 -0.27471882
0.06041055 -0.99676865 -0.30109403 -0.318003 0.090799764 -0.63979596 -0.34688407 -0.2919408
-0.30890906 0.48289856 -0.3568381 -0.5379923 0.35700783 -0.34587872 0.23605995 -0.31451952
-0.40107012 0.2795826 0.2587834 0.54111755 -0.3273054 0.11301018 -0.32306436 0.390002
-0.67547995 -2.1647124 -0.18164165 -0.49854553 -0.6014683 -0.89689827 0.379788 -0.30797657
0.52485204 -1.0857346 -0.5120519 -1.0338311 -0.086017735 -0.28067452 -0.23678823 -0.9155947
-0.5190263 -0.81183124 -0.25822887 0.09221444 -0.95503503 -0.8552747 -0.9103054 -0.0153214475
-0.2526714 0.3973793 -1.6130692 -0.66454226 -0.54472816 0.2334684 -1.714936 -0.96690166

bias f4 [256]
00000000: 1469 a8bf 9f66 0cbf 1b7b 433d e7a9 79bf
00000010: 2933 993e 46bc 703d 9549 2dbf 233a 2fbf
00000020: ed68 89bf 36b8 64bf e7fd a4be 46f3 35bf
00000030: ba70 20be 49ed ccbf 5a91 60bf da39 f63e
00000040: d5dc 14bf 65aa 8bbf c148 b3be da02 00bf
00000050: 2ba4 0fbe 1b43 a3be e255 05bf a6a2 c6be
00000060: a2e1 f6be 5b9a 94bf a69b 9dbf 6ac1 87be
00000070: 287c cd3d 926a 4abf 7d2d 61bd 1585 50bf
00000080: 41c6 87bd 05e6 d5bf 368a 94bf 6ac6 483f
00000090: 1dc7 b5be fd18 65bf 603a 43bf 838f 9fbf
000000a0: 0113 06bf bd5b cdbd 5d85 21be 9be5 61be
000000b0: c272 93bd 8007 39bf 8202 54bf 9097 383e
000000c0: 592d 97be b8ff 08bd 7275 663e d4c8 bdbf
000000d0: 7abf e8be 9a3a 4fbf c0fe 8abd 5834 73be
000000e0: 4864 b3bf b66a 003c 09ca 01bf 14a9 35bf
000000f0: 04ed e9bf 6d1f 8bbf 386b 36bd e6fb a23e
00000100: 3d00 c83d d577 9fbe 151c 353e 5779 a3bf
00000110: ab46 86bd 18d7 a7bf cea3 e8be 393d c1bd
00000120: 6374 fa3e e3af 743f 44d4 24c0 8110 2bbf
00000130: 2a29 7fbf de86 38bf 0674 99bd 104b 96bc
00000140: d212 07bf c4e4 bdbf 0bd8 c23e 319f 5ebf
00000150: c8ea 1dbe aad0 82bf bbc0 573e 5b50 6ebf
00000160: 5266 14bf 8d8d 9ebf c4a0 84be b38d 9dbf
00000170: c480 05bf 2b5c dfbe 2ac2 b8bd 387a 183f
00000180: 1735 9c3f 4681 18bf ed8f 0cbf 50e4 93bf
00000190: bf80 93bf e8b9 17bf ab83 f1be e0db eebf
000001a0: 49b8 9abf fa33 1cbf 43e2 4dbf 2d45 28bf
000001b0: e221 87be cb14 67bd c95f 9abf 6a43 dabf
000001c0: 8157 48be d05c 5cbf 43b3 2ebf e2ea b6bf
000001d0: 589d 7cbe a4a0 8fbf 44e5 dbbf 902e 6f3f
000001e0: 6cfb bdbd 5758 5d3d a06a e33c b4f0 8fbf
000001f0: 6208 913c 59d9 bebd 8dfb 2ec0 a2bd 3ebf
00000200: 3510 b2bd 51fe 6dbf 5902 cabe 7ae7 c6bc
00000210: 50d0 65bf c4f4 42bf ce06 f0bd 93ea a0bf
00000220: 5b3c 19bf 4557 50be 7679 bebd 0c22 c9bf
00000230: b6fc bf3d 6a2f babd 0d55 0cc0 9b4a 0abf
00000240: 67ef 3d3e 3b8f 40bf d248 67bf 48dc 34bf
00000250: dc4b 88bf e88c 0c3e 5d7f b3bc b829 6cbe
00000260: 1ba4 91bf 740a 0fbf 975e 30bf f45b cabe
00000270: 50d9 c3bd c508 83bf 2a11 a7bd ea77 19c0
00000280: ba30 8dbd 094a a5bf f0fc 0abe 2924 4ebf
00000290: 49df b2be ad7c 13bf 7001 4c3e 3ecd 67bf
000002a0: ffe8 abbd f31b 66bf 8058 9c3e 103e fcbf
000002b0: b999 9ebf 9a5b 89bf 99ab be3c 299c 11bd
000002c0: 7242 4abf ea02 acbd e84a 69bf dd03 f93e
000002d0: 7f7d e6bf 07c7 91bf 326b 883e ac5b 09c0
000002e0: 017d 91bf 21da 363f 23e0 88bf 3978 793e
000002f0: 8581 1b3f 5f7e 78bf e820 1dbf 07ae 01bf
00000300: f3b0 debd 433e 6bbf 95a0 0fbf 3988 e9be
00000310: 6cc0 923e 78e0 01c0 f55d 41bf 8c51 4cbf
00000320: 008d e4bd 0196 a4bf a387 71bf 3182 7bbd
00000330: 6f60 aebd 048f a2bf 9fc1 a0bd 01f6 a2bf
00000340: 49ec e2be 9b14 a3bf 139c d83d 357d f0bf
00000350: 9552 b2bf 3eb7 6abf cb05 a6be f607 25bf
00000360: 5836 97bf 23be 87bf ace6 bfbf e878 b3bf
00000370: fb63 22bf 570b 073f e909 08bf 522a 7cbe
00000380: 8c88 fdbe 930e b1bf 178d 62bf f2d4 01bd
00000390: b430 42bf 4545 ebbd b9e3 cebd 17ab 76bf
000003a0: aa04 b7be f392 61bd b870 91bf d5a2 01c0
000003b0: 6230 89bf 46a6 3abd 26ce 53bf e863 98be
000003c0: 99e6 e9bd 4133 c5be aea0 8cbf 1589 1bbc
000003d0: c85f 3ebf 6684 cfbe a503 8e3d 22bd 53bf
000003e0: b520 94be 0345 5bbf 450d 47bf ac70 46bd
000003f0: fbc3 5abf 17d2 b1bf 0f25 c6be d25e 79bf
-1.3157067 -0.5484409 0.047724824 -0.97524875 0.29921845 0.0587733 -0.676904 -0.68448085
-1.0735146 -0.89343584 -0.32224962 -0.7107433 -0.15668002 -1.6009914 -0.8772179 0.48091012
-0.5814946 -1.0911375 -0.35016444 -0.5000435 -0.14027469 -0.31887135 -0.5208417 -0.38795966
-0.4821902 -1.1609606 -1.2313125 -0.2651475 0.100334466 -0.79068863 -0.05497502 -0.8145307
-0.06629611 -1.6710821 -1.1604679 0.78427756 -0.35503474 -0.89491254 -0.7626095 -1.2465671
-0.5237275 -0.10027263 -0.1577353 -0.22060244 -0.07199623 -0.7227707 -0.82816327 0.18026567
-0.29526785 -0.033446997 0.2250574 -1.4826913 -0.45458585 -0.80948794 -0.06786871 -0.23750436
-1.4014978 0.007837942 -0.50698906 -0.7096112 -1.8275456 -1.0868965 -0.044535846 0.31832808
0.097656704 -0.31146112 0.17686494 -1.2771405 -0.065564476 -1.3112516 -0.45437473 -0.094355054
0.4891692 0.9558088 -2.5754557 -0.6682206 -0.99672186 -0.7208079 -0.07492833 -0.01834634
-0.5276309 -1.4835439 0.38055453 -0.86961657 -0.15421593 -1.0219929 0.21069615 -0.9309136
-0.5796863 -1.2386948 -0.25903904 -1.2308868 -0.52149606 -0.43625006 -0.09021409 0.5956149
1.2203702 -0.59572256 -0.54907113 -1.155405 -1.1523665 -0.59268045 -0.47170767 -1.866085
-1.2087489 -0.6101681 -0.80423373 -0.65730554 -0.26393038 -0.056416314 -1.2060481 -1.7051823
-0.1956463 -0.8607912 -0.6824228 -1.429043 -0.24669397 -1.1220899 -1.7179341 0.93430424
-0.092764705 0.054039326 0.027760804 -1.1245332 0.017704193 -0.093187995 -2.7341034 -0.74508107
-0.086944975 -0.9296618 -0.39454916 -0.024280299 -0.89770985 -0.7615473 -0.11720048 -1.2571586
-0.5985772 -0.2034579 -0.093005106 -1.5713515 0.09374373 -0.09091075 -2.192691 -0.5402009
0.18548356 -0.7521855 -0.9034549 -0.7064862 -1.064815 0.13725626 -0.021911317 -0.2306279
-1.1378206 -0.55875325 -0.6889433 -0.3952328 -0.095629334 -1.0237051 -0.08157571 -2.397944
-0.068940595 -1.2913219 -0.1357305 -0.80523926 -0.34935978 -0.57612115 0.19922423 -0.9054755
-0.0839405 -0.898864 0.3053627 -1.970644 -1.2390662 -1.073108 0.023275184 -0.035549317
-0.7900764 -0.08398993 -0.9112992 0.4863576 -1.8007048 -1.1388863 0.26644284 -2.1462202
-1.1366273 0.7142659 -1.0693401 0.24362268 0.60744506 -0.97067827 -0.61378336 -0.5065617
-0.10873594 -0.9189188 -0.56104404 -0.45611742 0.2866243 -2.0293255 -0.7553399 -0.7981193
-0.11159706 -1.2858278 -0.9434759 -0.061403457 -0.08514487 -1.2699895 -0.0784943 -1.2731324
-0.44320896 -1.2740663 0.10576644 -1.878821 -1.3931452 -0.91685855 -0.32426295 -0.6446527
-1.1813459 -1.06049 -1.499227 -1.4021273 -0.6343381 0.5275168 -0.5314012 -0.24625519
-0.4951824 -1.3832573 -0.88496536 -0.03169722 -0.75855565 -0.114878215 -0.101020284 -0.9635481
-0.35745746 -0.055071782 -1.1362524 -2.0255635 -1.071789 -0.045568727 -0.8273643 -0.29763722
-0.11420936 -0.38515666 -1.0986536 -0.009493132 -0.743649 -0.405307 0.06934289 -0.8271047
-0.28931203 -0.8565218 -0.7775462 -0.048447296 -0.8545529 -1.3892239 -0.38700148 -0.9741031

weight f4 [8, 256]
00000000: f170 023e b7c9 36bd d916 703a 8767 9d3e
00000010: e901 fd3c 3c62 703d e1f8 3dbe f157 01bf
00000020: 26c1 923b 2b03 653c eaca 5dbe 47e1 8dbd
00000030: 01ad 1cbd 322a a1be 2bef 413d dd3f 813e
00000040: b82c 483e 0ae1 acbf a4dd 8abc 1f49 08be
00000050: ab76 063d dc76 223f 74f9 2ebd 003e f63d
00000060: e7a6 e9bd 401d 67be d294 b5be 8588 9e3e
00000070: ea1c eabe dec8 d13a 2f19 053b f70a 0f3f
00000080: 7e92 483d c3a7 213f 74c2 363e 83df c53e
00000090: 4a30 173e 6fd9 3cbb a5be 16be 6550 d53d
000000a0: 9518 18bf bfd4 25bc e1a6 143e e8ab 13bf
000000b0: 045b 83bd bc3c 873e abed e63c 80df 86bd
000000c0: de56 993e b9ca 19bd 4520 b23e 2d3c 053d
000000d0: 2e1b a73e 8556 693e fabe 63bd cf0f d03e
000000e0: 457a 863b d08b 40bd dd9b 363f 1847 62be
000000f0: bc57 58be 122a 3cbf 6734 17bd 3676 1e3d
00000100: c4ea e43e 1ce8 963e cf78 973e 1ca8 6d3e
00000110: 9eb7 51bd 5e96 fdbd cd93 e63d f97d abbe
00000120: 7a15 a4bd 0f4d 47bd 44fa d4bd e6e9 093f
00000130: 9af8 2a3c 79fe eabc ae70 703d fbac 91bd
00000140: a303 1f3f 769b b1bd cb17 20bd 167e 27bf
00000150: 0667 8c3e d3d8 693e 2c4a 183e a26d 02bf
00000160: e952 9fbe 6472 e7be 07f3 b5be 5c1a a23e
00000170: a2eb 86be e2e4 75be f355 acbc a67f 403e
00000180: 729b cc3c 7583 3a3e 63f9 e13e 7581 f43f
00000190: 1ba7 58be 9091 84bf 7e90 89bf 5e1e 93be
000001a0: 1e10 e8be 001b d0be f17e 233e f5d9 a3be
000001b0: eb3b 6e3e e0e6 493d f259 21bf aa48 3a3f
000001c0: 7158 c5bd 6754 2fbf d024 b7be 91dd 6fbc
000001d0: f45f 61bc 9b9b 93be ed68 d5be 0ef0 d03c
000001e0: acd8 3abd 84b6 4b3e 32ae 833e c818 9a3e
000001f0: 21e8 c7bc eebb 063d aab0 173f 79e3 2ebd
00000200: cf9e 2bbd e081 133f af99 ad3e 3edb 533c
00000210: 72d5 3d3e 64e6 8dbc 58c0 ff3c ebff 28be
00000220: 5107 fa3e 8061 a9be 9559 e1bb 771c 69bd
00000230: 3203 a23d 70ca c83c bdf3 713e 885a 00bf
00000240: e354 c4bc e799 03be cd72 083d fbf8 4abf
00000250: 94f3 2e3f 2b86 b3be ad28 ac3d 28ab 80be
00000260: e6b1 903d dcb0 a93e 69a5 27bd d6a4 31be
00000270: bf23 e9be e70c ddbe 45a5 4abd 2ae2 073f
00000280: c213 94bc bbdc 1b3f 970d 2e3c 213a 82bd
00000290: 43bd 2bbe f5ad 693e b982 93bd 22f4 56bd
000002a0: fef0 d6bd b1e2 4bbe 1be7 47be 8c1d 26be
000002b0: 5a09 34be ff14 363e e158 723f 0d45 1bbd
000002c0: b7ae 323e cef5 e23e fda8 1a3e 0473 be3d
000002d0: 6682 aebd 72d1 e8be 369b 87be 95f9 463f
000002e0: 0e39 2f3e 23bc eeb9 24dd 283d 5951 ab3d
000002f0: 6931 d0bd 189a 1440 1be9 3ebf 8965 d6bd
00000300: 0a48 9b3c 8a38 423e b6e4 74be 3e11 9ebe
00000310: f137 3a3e 9ee2 6d3c 9d10 90be 84fc 6dbe
00000320: 040b 42bd b350 8d3e d58c 203e 36f5 363d
00000330: 1f8c 543d 885b 19bf 80e0 1b3d 0452 90be
00000340: 45e2 a63e 263e babd 3618 27be fc1f 203e
00000350: 3205 13be ccc8 8b3f f392 293f 1fab a53e
00000360: 0510 373d 14b9 213d 9320 5e3c 201e 29bf
00000370: d90a 2bbf ed34 713e cc94 04bf e3f2 00be
00000380: 28fc ea3e 2540 173e 7708 8e3e c919 9abd
00000390: 5947 063e 97df 9abd 7aef e23c ff9c 02bf
000003a0: 3da9 2cbc 8b14 8b3b 5ab1 e63e 61ae ad3d
000003b0: a614 23bd bf5b 71bd 54e5 69bd 2e77 86be
000003c0: 5be7 d8bc 61e4 f6bd 2278 b13d 9190 b9bc
000003d0: f765 de3d b31a c43b 74f2 103f 4e29 713d
000003e0: bc6a 9cbf c804 2fbd 5784 0dbf 6031 a33d
000003f0: f592 3f3e f125 10be a494 fd3d 48d5 16bf
0.12738396 -0.044625964 0.0009158678 0.30743048 0.0308847 0.058687434 -0.18551971 -0.5052481
0.0044785915 0.013977806 -0.21659437 -0.06927734 -0.038250927 -0.31477505 0.04734723 0.25244036
0.19548309 -1.3506176 -0.01695139 -0.13309143 0.032828014 0.63462615 -0.042718366 0.12023544
-0.11408787 -0.22569752 -0.35465103 0.3096353 -0.45725185 0.0016005298 0.00203092 0.55876106
0.04896783 0.6314661 0.17847615 0.38647088 0.14764515 -0.0028816124 -0.14721163 0.10415725
-0.5941251 -0.010121523 0.14516784 -0.57684183 -0.06413844 0.26413524 0.0281895 -0.06585598
0.29949087 -0.037546847 0.34790245 0.03252809 0.32637924 0.22786911 -0.05560205 0.4063706
0.004103931 -0.047008336 0.7133158 -0.22097433 -0.21127218 -0.73501694 -0.03691521 0.038686953
0.44710362 0.2947396 0.29584357 0.2320866 -0.0512005 -0.12382196 0.112586595 -0.33494547
-0.08011909 -0.048657473 -0.10399297 0.53872526 0.010435248 -0.028685795 0.05870121 -0.071130715
0.62114924 -0.0867223 -0.03908519 -0.65426767 0.2742235 0.22836618 0.14872044 -0.50948536
-0.31117943 -0.4520446 -0.35536978 0.31660736 -0.2635165 -0.24013093 -0.021037078 0.18798694
0.024976466 0.1821421 0.4413558 1.9102007 -0.21157496 -1.0356922 -1.074722 -0.28734106
-0.45324796 -0.406456 0.15966393 -0.32002226 0.23265044 0.049292445 -0.6302787 0.72767127
-0.096360095 -0.6848816 -0.35770273 -0.014640228 -0.013755787 -0.28829655 -0.41681615 0.025505092
-0.04561679 0.19893843 0.25718838 0.30097032 -0.02440268 0.032894067 0.5925394 -0.042697404
-0.0418995 0.5762005 0.33906314 0.012930689 0.18538454 -0.017321773 0.031219646 -0.16503875
0.48833707 -0.330822 -0.006877134 -0.05691191 0.07910766 0.024510592 0.23628135 -0.5013814
-0.023966258 -0.12851678 0.033312608 -0.79286164 0.6834042 -0.350633 0.08406196 -0.25130582
0.070651814 0.33142745 -0.04092923 -0.17348036 -0.45535085 -0.43173906 -0.04947402 0.53079474
-0.018075828 0.6088368 0.010623357 -0.063587435 -0.16771416 0.22820266 -0.07202668 -0.052478917
-0.10495184 -0.19910695 -0.19521753 -0.16222209 -0.17581692 0.17781447 0.9466687 -0.03790765
0.17449461 0.4432816 0.15103526 0.09299281 -0.08520965 -0.45472294 -0.26485604 0.7772458
0.17111608 -0.0004553507 0.04122652 0.08365125 -0.10165674 2.3219051 -0.7457444 -0.10468585
0.01895525 0.1896688 -0.23915371 -0.3087253 0.18185402 0.014519362 -0.28137675 -0.23240858
-0.047373787 0.2760063 0.15678723 0.044667445 0.051891442 -0.5990529 0.038055897 -0.28187573
0.32594505 -0.09093885 -0.1631783 0.15637201 -0.1435745 1.0920653 0.6623985 0.32357118
0.04469301 0.039483145 0.013557571 -0.6606159 -0.6681343 0.23555346 -0.51789546 -0.12592654
0.45895505 0.14770563 0.27740833 -0.075244494 0.13113154 -0.07562178 0.027702082 -0.5102081
-0.010538396 0.0042443923 0.45057184 0.08480526 -0.039814614 -0.058925387 -0.05710347 -0.26262802
-0.026477506 -0.120552786 0.08665492 -0.022651942 0.10859292 0.005984628 0.56619954 0.05887728
-1.2220073 -0.04272917 -0.5528006 0.07968402 0.18708403 -0.14076973 0.123818666 -0.5891919

bias f4 [8]
00000000: aff9 8fbe 6cb0 0fbd 7fcf 5a3e c302 293d
00000010: 75e3 fb3e 3179 79be 095f 3d3d d0bd dabe
-0.2812018 -0.03508036 0.21368216 0.0412624 0.49196973 -0.24362637 0.04623321 -0.4272294

weight f4 [256, 119]
00000000: 4554 08c0 0d65 dc3e ecb5 0ac0 df17 6f3f
00000010: 14db 0540 7031 81be b906 53bf 2c0a f23f
00000020: 8f23 a33e dd6d 5ebf 414e 033f 6522 d43d
00000030: abe6 473f 7faa 84be 0e92 edbf d94d 883a
00000040: e2c6 cfbe b3a3 dcbe 1d27 87be f756 74be
00000050: d603 bb3e 371c 99be b11b 95be 5bca f5be
00000060: 0317 0ebd e7a1 18bf 1815 26bf 2018 433c
00000070: c81a 563c f686 10bd a029 bd3c 70ee 7dbd
00000080: b4c7 0bbd d9a6 b5bd 583e 6c3c cc22 b9bc
00000090: b003 fe3c b37e a93d f649 8fbd b01d aabc
000000a0: 823d 3a3d 1039 88bc 3dc2 833d 122c 8bbd
000000b0: 119b 2fbd 1b5c 8c3d fab8 4f3d da8c 5b3d
000000c0: 8476 e23c 8802 a4bd 5224 203d 1091 76bc
000000d0: 188c 12bd 2e5e 703d fd39 46bd 4f4e 0dbd
000000e0: 63ca 8abd 900b 83bc 804e 7a3a 4aa7 93bd
000000f0: 271c a53d 4269 a1bd 724b 583d 94fe b93c
00000100: a098 433b 9877 063c c6bb b0bd b2a3 783d
00000110: 2851 d53c 5018 78bc c09a 7fbc e040 e3bc
00000120: 7ffc 51bd 2f89 26bd 7001 d8bb b358 a63d
00000130: 00d4 c8b8 0a91 693d 60e5 67bb e2f1 163d
00000140: f041 8f3c 464b babd 36fc 7b3d fc73 873c
00000150: a0b7 6bbd ada0 af3d fc7f 823c 4a5f 5bbd
00000160: 0cb3 923c 80e6 743b fe94 61bd b6b0 133d
00000170: 205b 37bb 6c69 b43c 88f9 633c 44fb fe3c
00000180: 3018 9abb e0ed ee3b 8014 9dbc 10e3 3cbc
00000190: b771 9a3d fe9a 4a3d 41f9 07bd 9c01 a7bc
000001a0: f297 1e3d 6094 bdbc c4cc 92bc 60ce 033b
000001b0: 383e 5dbd 3f83 b73d b6e7 96bd f28a d0bf
000001c0: 69e5 073f 268c 943f e38d 3c3f 377a 0a40
000001d0: ea08 7abf bd0a 853e 1125 093e 3873 893e
000001e0: 63f6 c6bf 734a e6be d97b 5640 966c 1abf
000001f0: 3130 7ec0 bb58 e6be 4bac 56bf 179c ddbe
00000200: 2456 1f40 a86f 8cbe f518 cdbe 5025 87bf
00000210: 51e2 1ac0 fa80 febe e360 343f 41b5 debd
00000220: 9a1c 68be b63b 4e3f 8b60 1b3d 47ba 0c3b
00000230: 78ea 46be f9f2 4c3d 013a 8f3e 2fc5 2b3e
00000240: c0c3 2b3e 7f8a 7cbc ec69 f0bc 8675 2f3d
00000250: 5231 09bd 0f89 97bd 0487 d4bc cc2c 9c3c
00000260: cc00 91bc f5e4 ad3d f3e0 aa3d 9c77 8cbd
00000270: 98b6 c9bc 496b 12bd e039 3a3c edb0 a43d
00000280: 1540 84bd 5135 b63d c0d3 cbbb 6b48 57bd
00000290: 0ea9 393d 4c6e d93c 817b b43d f8e7 b7bd
000002a0: 727d 473d 82a7 253d bfb4 a63d 7240 80bd
000002b0: 8844 1abc a537 9d3d 65ad b43d 86c3 443d
000002c0: 307a de3c aaa3 80bd 2776 ac3d 00b5 5abb
000002d0: 4c04 e2bc e8f2 233c 7bb9 3ebd 648d 0ebd
000002e0: c483 0dbd a12a 9c3d 0066 0d3b 7355 863d
000002f0: 738f a1bd 6331 b73d aa47 443d 942b f63c
00000300: 5aeb 4a3d 3a6d a2bd 7051 993c 7625 1ebd
00000310: 40c8 94bc 40b1 0e3c f717 883d 29bd 25bd
00000320: 81cf 15bd d149 9cbd 0973 56bd 4054 853b
00000330: 004e 61ba ed72 45bd a958 823d 9801 8dbc
00000340: 1430 b13c d42a e13c 3b9e 843d 3ad1 153d
00000350: 6e54 1a3d d0bb 933c 10c5 9a3b 7092 e7bb
00000360: 1036 95bc c4e1 cb3c c1b0 04bd d0e4 bdbb
00000370: e039 013b 006b dc3b a8f6 8e3c e6f6 41bd
00000380: 52bf 6b3d 820d 8fbd 98eb 913c 7ae4 efbc
00000390: 2470 a1bc 88b1 09bc c885 d6bd 2906 8dbf
000003a0: 9667 1740 c745 9bbf ceea 1b3e 1d92 1b40
000003b0: 181c 88bf f51a f93f eb73 7bc0 9534 c4bf
000003c0: 513d 7ec0 b751 a2c0 0a1f 16c0 1dd0 f73e
000003d0: 1f4d ce3d 4d81 72c0 66a1 6a3e d50d aa3e
000003e0: 5d45 c33e a685 3740 2113 b43c a969 f13d
000003f0: 4a73 b9be cf1e 7dbf 8c5e 283e 4d92 763e
-2.1301434 0.43045846 -2.1673536 0.933958 2.0914965 -0.2523303 -0.8243213 1.8909354
0.31863067 -0.8688639 0.5129128 0.10358123 0.78086346 -0.25911328 -1.8560197 0.0010399177
-0.40581423 -0.43093643 -0.2639703 -0.238613 0.36526364 -0.2990434 -0.2912269 -0.48005947
-0.034689914 -0.59622043 -0.64875937 0.011907607 0.013067909 -0.03528496 0.023091137 -0.06199497
-0.034126 -0.08869714 0.014419161 -0.0225996 0.031007618 0.08276119 -0.06996529 -0.02076611
0.045468815 -0.016628772 0.064335324 -0.06795515 -0.042872492 0.06853505 0.050713517 0.053601123
0.027644403 -0.08008295 0.039097138 -0.015049234 -0.035778135 0.058683567 -0.048395146 -0.03449851
-0.067768835 -0.015996724 0.00095484406 -0.07209642 0.0806201 -0.078814045 0.052806325 0.0227044
0.002984561 0.008207224 -0.08629565 0.060702987 0.026039675 -0.015142515 -0.01560086 -0.027740896
-0.05126619 -0.040658172 -0.0065919682 0.08122387 -9.576231e-05 0.057023086 -0.003538452 0.03685177
0.017487496 -0.090963885 0.061519824 0.016534798 -0.057548165 0.08575568 0.015930168 -0.05355767
0.017907642 0.0037368834 -0.05507373 0.036057197 -0.0027977899 0.022022925 0.013914473 0.031125672
-0.0047025904 0.0072915405 -0.019174814 -0.011528745 0.07541221 0.04946422 -0.03319669 -0.02038651
0.038719125 -0.02314204 -0.017919905 0.0020112023 -0.054014415 0.0896058 -0.07368414 -1.6292403
0.5308443 1.160527 0.73654 2.1637094 -0.9766985 0.25984755 0.13393046 0.26845717
-1.5543941 -0.44978675 3.351309 -0.6032194 -3.9716914 -0.4498957 -0.8385665 -0.4328315
2.4896326 -0.27428937 -0.40058103 -1.0558262 -2.4200633 -0.49707776 0.7046034 -0.10874415
-0.2266716 0.8055986 0.037933867 0.0021473335 -0.1942538 0.050036404 0.2797394 0.16774438
0.16773891 -0.015413879 -0.029347382 0.04283669 -0.0334943 -0.07399189 -0.025943287 0.01906433
-0.017700575 0.08490936 0.08343687 -0.06858751 -0.0246232 -0.035746846 0.011366338 0.080415584
-0.06457535 0.08896888 -0.006220311 -0.052559298 0.04532724 0.026541851 0.08812619 -0.089797914
0.04870362 0.04044295 0.08139943 -0.06262292 -0.009415753 0.07676629 0.08822135 0.04803803
0.027157873 -0.062812164 0.08420973 -0.0033372045 -0.02758994 0.010006644 -0.046563607 -0.03480281
-0.03454949 0.07625318 0.002157569 0.06559267 -0.07888689 0.08944967 0.047919907 0.030050077
0.049540855 -0.079309896 0.01871559 -0.038609944 -0.018161893 0.008709252 0.06645196 -0.0404636
-0.036574844 -0.07631267 -0.0523558 0.0040688813 -0.0008594692 -0.048205305 0.06364567 -0.017212674
0.02162937 0.027486242 0.064754926 0.036576487 0.037678175 0.018033892 0.0047231987 -0.0070670173
-0.018214256 0.024887927 -0.03239513 -0.005795099 0.0019718334 0.0067266226 0.0174516 -0.0473546
0.057555504 -0.06984998 0.017812535 -0.02928375 -0.019706793 -0.008404143 -0.104747355 -1.1017505
2.3656974 -1.2130669 0.1522629 2.430793 -1.0633574 1.9461352 -3.92895 -1.5328547
-3.9724925 -5.072475 -2.3456445 0.48400965 0.100733034 -3.789142 0.22913131 0.33213678
0.38138857 2.8675323 0.021981778 0.11787731 -0.3622077 -0.98875135 0.16442317 0.24079247

bias f4 [256]
00000000: 9999 61bf 34a1 70c0 4727 c03f db68 58c0
00000010: 2730 6bc0 f083 13c0 ee86 3f3f 59bd e8bf
00000020: 1b39 54c0 bc27 3040 5dfa 0bc0 1885 41bf
00000030: c91c 4240 c69f cfbf cac4 9bc0 aefa 4bc0
00000040: b91f f23e 7456 2dc0 9340 59c0 8afd 84c0
00000050: 1dd4 37c0 7298 833f a959 b03f 3936 b240
00000060: fd7f 65c0 87f0 923e b471 67c0 bb88 08c0
00000070: f22e 2b40 1c5b f53f bad8 f5bf 77fe fbbf
00000080: 890e 2a3e db46 3dc0 7eb3 b73f 24f1 5fc0
00000090: 55ee 0b3f 4b23 3f3f d61f 55c0 e1bf 353f
000000a0: 848e 1ec0 f553 73bd 9136 fc3f 50c1 8040
000000b0: 5e03 3540 00cf 39c0 889f 56c0 2c19 3340
000000c0: cbb8 1cc0 80b2 12c0 71e8 1540 e3fa 6c40
000000d0: 802a 31c0 19e6 acbf 168b 0dc0 2bd1 afc0
000000e0: aca7 a63f dd1c 123f 2b45 ebbf bd3a 80c0
000000f0: 3e5c 033f 7355 44c0 2051 08c0 0e85 0c3f
00000100: c8e6 8dc0 5dab 01c0 a507 5040 34a3 1d3f
00000110: 7ea0 d4bf 8b30 22c0 2d81 22c0 0c19 56be
00000120: d8fe 16c0 f58b 96c0 ea3d 1cc0 8a0e 69c0
00000130: a89d 54c0 d0be 70c0 c756 aebe 712d 78c0
00000140: c2a4 6640 5862 3140 cc7a ff3f e74b 38c0
00000150: 3b4e 09c0 d7eb d53f 3b1c 1740 52bd c8bf
00000160: 3a11 4dbf 9fce 14c0 84d4 843f 843e 3fc0
00000170: c2ba ebbe f153 37c0 def9 6bc0 2b77 60c0
00000180: d182 2940 029b 7f3f 4b36 7ec0 bbb8 1fc0
00000190: 0122 38c0 5173 2540 28ff 4abf 5e2c d3bf
000001a0: ba12 28c0 baa5 36c0 2dcd 6340 6d32 2140
000001b0: 34d1 a7bf 1b92 0c40 0fb3 d3bf 2ad9 e23f
000001c0: 1161 abc0 c585 3dbf 013b 8f40 596c 2040
000001d0: 8c10 6dc0 35c7 04c0 54b8 ea3f 4d45 2ec0
000001e0: fdcb 87be ef2f 0c40 5130 98bf 6491 76c0
000001f0: c5ac 4a40 2d7e 30c0 7978 db3f 5d69 cdbe
00000200: 251e abbf 42e5 13c0 70d9 4dc0 b97a a7c0
00000210: 704c d83f 629e de3f f2d3 fcbf 8855 c23e
00000220: 490f 43c0 108c 77c0 1d51 783f 43b8 3bc0
00000230: 0745 97bf 5c2b bebf 20ea f93f 0a15 0bc0
00000240: ad03 2e40 a0e8 1ec0 0d37 e2bf 9c63 8f40
00000250: d49f 27c0 cfe4 753f 9e0c 92bc fbde 573f
00000260: caa5 8bc0 d660 6fc0 a359 1bc0 c148 5dc0
00000270: 2d91 7240 9f30 38bf 320e c2bf 42e4 01c0
00000280: fbcb 38c0 9a86 f3bf 07b7 2bbe ab6d 2740
00000290: df84 873f 8b86 8640 7855 863f 20cf 66c0
000002a0: 111b 4ac0 a68d f1bf b962 723f d628 1bbf
000002b0: 405b 0140 1b82 fabc 2bea 13c0 5886 00c0
000002c0: 5ba9 623f 65d9 3dc0 e3d5 073f eba7 a9c0
000002d0: 9f4a 33c0 4d53 c23f 8a5b 8dbe e583 30c0
000002e0: 3838 13bd 6d45 2bc0 3c77 bd3f bbf2 1fc0
000002f0: 2545 7bc0 6e7c 24c0 45dc 4fc0 1211 2bc0
00000300: d27a c9bf c0e6 6940 0dda 99bf 33e1 1ec0
00000310: ec9c 6240 2296 1640 8b2b aa3d 9e31 a4c0
00000320: 0ce0 90be 7d27 1640 bfaf 3ec0 aa68 2ec0
00000330: aec2 fabf c485 1fc0 11b1 7140 c9d0 42c0
00000340: 9c6d 833f 73bc 2040 b399 8fc0 b4cd 17c0
00000350: 7241 7fbf 111e 283f 2434 5dc0 803e 53c0
00000360: e7a2 49be e1c9 2a3f 9bd9 3740 29ae 6fbe
00000370: 6f24 80c0 f147 21c0 ebb3 13c0 a801 1c40
00000380: 215e d6be f279 1440 5b8b 56c0 9ecd 4ec0
00000390: 3675 6cc0 23f3 843f 4734 5240 d054 a9c0
000003a0: b88b 65c0 ee7e a33f 46f4 183f c7d3 5040
000003b0: 770d 0ac0 6a56 4c40 1875 743f 5da2 f13f
000003c0: a294 b6bf ff2c 2ec0 bd7c 9e3f e215 54c0
000003d0: e6cc 133f 865f da3f 48ce 7f3e 1852 ecbf
000003e0: d67a 49bf f05c 7440 93cf 03c0 0a56 ed3f
000003f0: 6948 9440 3d42 0f40 6241 1340 013c 623f
-0.88124996 -3.759839 1.5011986 -3.3813999 -3.674814 -2.3049278 0.7481526 -1.8182784
-3.3159854 2.7524252 -2.187156 -0.7559371 3.033007 -1.6220634 -4.867772 -3.1871753
0.47289827 -2.7084017 -3.3945663 -4.1559496 -2.8723214 1.0280898 1.3777362 5.569119
-3.5859368 0.28699133 -3.616315 -2.1333454 2.6747403 1.9168429 -1.9206765 -1.9687032
0.16607107 -2.9574497 1.4351652 -3.499093 0.5466054 0.7466323 -3.330068 0.7099591
-2.4774485 -0.05940624 1.9704152 4.0235977 2.8283305 -2.9032593 -3.353487 2.7984114
-2.4487789 -2.2921448 2.342312 3.702813 -2.768219 -1.350772 -2.2116141 -5.494283
1.3019919 0.5707529 -1.8380483 -4.00717 0.51312625 -3.0677154 -2.1299515 0.54890525
-4.4344215 -2.0260842 3.2504666 0.61577153 -1.6611478 -2.5342128 -2.5391343 -0.20907992
-2.3593044 -4.7045846 -2.441279 -3.6415124 -3.3221226 -3.7616463 -0.3405058 -3.8777735
3.603806 2.7716274 1.995935 -2.8796327 -2.1453998 1.6712598 2.361098 -1.5682776
-0.8010441 -2.3251112 1.0377355 -2.9881907 -0.46040922 -2.8644984 -3.6871257 -3.5072734
2.6486094 0.998459 -3.9720638 -2.49565 -2.8770754 2.5851634 -0.7929559 -1.6497915
-2.626143 -2.8538651 3.559398 2.5187027 -1.3110719 2.1964176 -1.6539019 1.7722523
-5.355599 -0.7403224 4.4759526 2.506613 -3.704135 -2.0746586 1.8337502 -2.7229798
-0.26522818 2.1904256 -1.1889745 -3.852624 3.166795 -2.7577012 1.714614 -0.40119448
-1.3368574 -2.3108678 -3.2163963 -5.233731 1.6898327 1.7392085 -1.975218 0.3795588
-3.047808 -3.8679237 0.9699877 -2.9331214 -1.181794 -1.4856982 1.9524574 -2.1731591
2.7189744 -2.4829483 -1.767305 4.4809093 -2.6191301 0.9605226 -0.017828282 0.84324616
-4.363988 -3.7402854 -2.427346 -3.4575655 3.7901108 -0.7194919 -1.5160582 -2.0295568
-2.88745 -1.9025452 -0.16769038 2.6160686 1.0587424 4.2039237 1.0494833 -3.606392
-3.157902 -1.8871353 0.9468189 -0.60609186 2.0211945 -0.030579617 -2.3111675 -2.0081997
0.88539666 -2.9663937 0.5306074 -5.301748 -2.8014295 1.5181671 -0.276089 -2.7580502
-0.035942286 -2.6761124 1.4802012 -2.49919 -3.9260952 -2.5700946 -3.2478192 -2.672917
-1.5740607 3.6547089 -1.2019669 -2.482495 3.5408278 2.3529134 0.083090864 -5.131057
-0.28295934 2.3461602 -2.9794767 -2.7251382 -1.9590662 -2.4925394 3.7764323 -3.0439932
1.0267825 2.511502 -4.487512 -2.3719301 -0.99709237 0.6567088 -3.4563074 -3.3006897
-0.19691049 0.6671429 2.8726566 -0.2340628 -4.0044475 -2.520016 -2.3078563 2.437601
-0.4186869 2.319943 -3.3522556 -3.2312999 -3.694654 1.03867 3.2844408 -5.291603
-3.5866528 1.2773111 0.5974773 3.2629259 -2.1570718 3.1927743 0.9549117 1.8877674
-1.4264109 -2.7214963 1.2381817 -3.3138356 0.57734525 1.7060401 0.24981034 -1.8462553
-0.7870306 3.8181725 -2.0595443 1.8541882 4.633839 2.2384179 2.3008657 0.8837281

weight f4 [256, 256]
00000000: 0276 94be e6f1 d73e 3d45 c9bf 8c8a 2b3f
00000010: 7415 5dbf 98f2 5ebe 96f8 1bbf 7412 8d3e
00000020: 9508 10bf 7575 343f 43f2 0ec0 e4a9 f93c
00000030: 617a b2be 502d dbbe 574c 8ac0 15a0 07c0
00000040: 6905 85be fedf acbe 3cc0 963f d159 ec3f
00000050: 66a4 29bf eabd c83e 811e 483f 8580 3e3e
00000060: 7735 45bf a045 3dbf bcfd 5140 951d 32bd
00000070: 3a36 c2be 5494 fa3e 42aa bdbf 77b4 3b3f
00000080: 2de3 2ebe a225 0ebe 18da 113f 56d5 9a3f
00000090: 7831 833e 69a9 c5bf d809 063e 33fd e5be
000000a0: d3c6 b93d 53e7 02bd ce58 183f 9a0e abbe
000000b0: bb62 b5bf 274a a5bd 2a46 eebd 9631 8ebe
000000c0: 9a75 c7be b579 993d 5d6e f5be 37f7 97bd
000000d0: 5959 ecbe 21a9 e3be 18a4 333e d059 2fc0
000000e0: 7e10 97bf 50f8 1f3e 14e8 e5be 4360 0ac0
000000f0: b144 723e 13b2 033f bd5b 3f3b 02ba 083f
00000100: a0d3 613f 5fe4 3a3e e696 fdbe 523a 0c3e
00000110: 7086 d1bf 087a e53e 4a7a 2b3f 2c7f 2e3f
00000120: 9df9 c23d ba0c 1fbf bd19 29bf ef5e 603f
00000130: fda2 803e 5107 0e40 baa3 603f 25ac d63e
00000140: 43c9 333d 744c 83bf 4ad8 3d3f 798e 9b3e
00000150: ce1e 0e3c fe67 2f3f 2267 213f a285 e53e
00000160: 8d66 123f 905c 0cbf 89e5 f6be 43f8 c3be
00000170: c924 94bf 2083 f3bd 17ff 76bf bf51 613e
00000180: c93f 093f 6fa3 0bbe 3ae9 85be 7912 9dbe
00000190: 845b 67bf d065 7cbe ef09 1f3f df4e 973e
000001a0: 7a2a 4cbf 92aa 783e 7b68 28bf bb6d 0ebf
000001b0: c6dd e6bf 0dd0 82be 18b7 5a3f 30cf 1a3f
000001c0: 036d 26bf d22d c23d e466 5d3f dbf6 53bf
000001d0: ccb3 b83e 4c99 bebe 4210 ab3e bb1b 81be
000001e0: 9049 963e 0938 353f 421c 5c3f 9563 dabe
000001f0: 414d 953f 4970 333f 3cd1 07bf 6807 73bf
00000200: f1e4 dbbe e865 9e3e 4986 20bd d66e 213f
00000210: bf9b 0abe 1494 d23f c336 3c3f d5ee ad3e
00000220: 30fc 8cbf b5f6 84bf 92bc 82bb 4054 69bf
00000230: 7999 293e 5ce5 a93c f0fb cc3e d6c9 bcbe
00000240: 89e3 803e 9f3f e13e ecb4 6dbf 510e 3ebf
00000250: a09b c13e 38ff d83e 82bd 44be ae8f 8e3e
00000260: b06a 26c0 be77 5cbe f150 d43e 1165 63bf
00000270: f6d6 693f cdaa 70be b0af 12bf b407 6cbe
00000280: afde b3be 7c1f ae3e d1ed 883d 0212 763c
00000290: 84f8 d5bc ea12 5a3f 4a35 0abf ac35 4cbd
000002a0: 34e6 55bd 5e64 3dbe aa03 92bd 06d4 33bf
000002b0: 255d 373d 1a2d 733e acd4 d53e 00ae 6bbc
000002c0: 8a6b b1bf a186 e5be 0217 233f 5991 32bf
000002d0: 8024 90be 819b 273e 1f4c 02bf 6ce1 013f
000002e0: 502f aabe e034 463f c721 9c3d fbd3 0d3f
000002f0: ee12 f13f 78ed 28bf d06d 49be f8f6 24bf
00000300: 88b3 c6be f20e dbbd e4d3 153e e50d 70bf
00000310: 2586 c43e 0fdb 13be 443b f7bd 8a11 7a3e
00000320: 44d1 43bd 5eb9 00c0 78f6 b8bc 2c3f 1d3f
00000330: fd4a 91bf 3a0a 81bf f5ac 613d f911 fc3e
00000340: 58be 69bf 371a 603f 334c 04c0 952f d93e
00000350: 5a91 d43f 170c ebbd f0bd a1bf a54a 39be
00000360: 0909 18bf d100 363f 83db a1bf 702f 293f
00000370: 9cf6 753f 824b e0bd 7b25 3a3f 9b41 243d
00000380: fb3e a7be 1ff6 ca3e 2d03 b0bf 988a 4bbf
00000390: 7cd7 09c0 4c92 fdbe f557 0abf 4b07 e7be
000003a0: 21c3 20bf ca61 0cc0 a8c6 70be 883f 8bbf
000003b0: 17d5 5bbd 9a65 383f 4835 983e 190b c2be
000003c0: cf7f b03e 0046 7f3f 9168 5abf af97 c2be
000003d0: 2a05 c43e 818a 09be 4f1c b7bf ce8a 9dbe
000003e0: fc29 18bf b9c1 4c3e a013 3cbe d033 7a3e
000003f0: 9cec 70be d656 dd3e 5a7c afbe e2db d03e
-0.28996283 0.4217674 -1.5724255 0.6700828 -0.8636086 -0.2177223 -0.6092619 0.2755314
-0.56263095 0.70491725 -2.2335365 0.030476518 -0.34858993 -0.42808008 -4.321819 -2.1191456
-0.2598069 -0.33764642 1.1777415 1.846491 -0.6626648 0.39207393 0.78171545 0.18603714
-0.77034706 -0.73934364 3.2811117 -0.043485243 -0.37931997 0.4894129 -1.4817584 0.7332224
-0.17078848 -0.13881543 0.5697341 1.2096355 0.2562368 -1.5442325 0.13089693 -0.44919738
0.09071126 -0.03195889 0.59510505 -0.33409578 -1.4170755 -0.08070784 -0.116344765 -0.27772206
-0.3895691 0.07493917 -0.47935763 -0.07420199 -0.46161917 -0.44464973 0.17543066 -2.7398567
-1.1801908 0.15622067 -0.44903624 -2.1621253 0.23659016 0.51443595 0.0029198967 0.53408825
0.8821354 0.18251179 -0.4952919 0.13694122 -1.6369152 0.44819665 0.66983473 0.681628
0.09520266 -0.62128794 -0.660549 0.8764486 0.2512435 2.2191966 0.87749827 0.4192821
0.04389311 -1.0257707 0.74158156 0.30382136 0.008674337 0.68518054 0.63047993 0.44828516
0.5718773 -0.5482874 -0.48221996 -0.38275346 -1.1573726 -0.118902445 -0.96482986 0.2200384
0.53612953 -0.13636564 -0.261545 -0.30678156 -0.90374017 -0.24648213 0.6212453 0.2955236
-0.79752314 0.24283817 -0.65784425 -0.55636185 -1.803643 -0.25549355 0.8543563 0.60472393
-0.6501009 0.09481396 0.86485124 -0.82798547 0.36074674 -0.3722633 0.3341084 -0.2521647
0.29353 0.7078863 0.8598062 -0.426541 1.1664201 0.7009321 -0.5305364 -0.94933176
-0.42948106 0.30937123 -0.039190564 0.6305975 -0.13535975 1.645144 0.7352106 0.33971277
-1.1014462 -1.0387789 -0.0039897645 -0.9114418 0.16562451 0.02073925 0.40035963 -0.3687274
0.25173596 0.43993852 -0.9285419 -0.74240595 0.37814045 0.42382216 -0.19212916 0.27843994
-2.6002617 -0.21530053 0.41468003 -0.8882609 0.9134363 -0.23502655 -0.5729933 -0.23049814
-0.35130832 0.34008396 0.06685985 0.015018942 -0.026119478 0.8518511 -0.5398756 -0.049855873
-0.052221492 -0.18495318 -0.07129605 -0.702454 0.044766564 0.23747674 0.41763818 -0.014384747
-1.3860943 -0.44829276 0.6370698 -0.6975303 -0.28152847 0.16367914 -0.508974 0.5073459
-0.33239222 0.7742443 0.0762363 0.5540158 1.8833902 -0.6598735 -0.19670796 -0.64439344
-0.38808846 -0.1069621 0.14631611 -0.937712 0.38383594 -0.14439033 -0.12071851 0.24420753
-0.047806993 -2.011314 -0.022578463 0.6142452 -1.135101 -1.0081246 0.055096585 0.49232462
-0.91306067 0.8754 -2.0671508 0.42419115 1.6606858 -0.11476915 -1.2636089 -0.18094881
-0.59388787 0.71094996 -1.2645115 0.6608801 0.9607942 -0.10951902 0.7271344 0.04010163
-0.32665238 0.396409 -1.3750969 -0.7950835 -2.1537771 -0.49525678 -0.5404046 -0.45122752
-0.62797743 -2.1934686 -0.23513281 -1.0878763 -0.053670015 0.7203003 0.2972815 -0.37899092
0.3447251 0.99716187 -0.85315806 -0.3800635 0.3828519 -0.13431741 -1.4305514 -0.30769962
-0.59439063 0.19995774 -0.18366861 0.24433827 -0.2352776 0.43230313 -0.3427456 0.40792757
