data/DDPG/Walker2d-v2/ddpg_s15833/pyt_save/model.pt (torch_old, 581199 bytes, 11 tensors)

weight f4 [256, 17]
00000000: 3142 3cc0 f1b2 643e c838 c7bf 0c91 803f
00000010: c937 1340 27f5 a33f 31bb 5ebe 57fc 98bf
00000020: 764e 66bf ca05 91bf fae6 debd ce07 debe
00000030: 96bd 4abe ff55 e7be 7eb1 793f 0ec4 f63e
00000040: 3860 d2be 64c3 ce3f 9e10 26be c972 7ec0
00000050: 3673 8dbf 6f74 af3d d043 d840 6317 bf40
00000060: 882d 9e3f aba7 fbbf 1d5c 833f 3ecf 153f
00000070: 3562 ccbd 30dc 713e 0856 80bc af5d 04be
00000080: 6cd0 a93d 6084 c63d 8d84 7b3e 43f0 6640
00000090: 7c2b 11c0 e02b 2140 24c7 0b40 2716 0041
000000a0: c544 6840 e6fe 1440 bd81 d7bf 74e7 363f
000000b0: 737f f6bc f915 313e bac8 5abe c8f5 063f
000000c0: 2049 813d 6413 2abd ef0b 583c ef6e 13c0
000000d0: 470e a9bf ea35 7c3f 6d3c ea3f ce5e 50c0
000000e0: 4eb5 ffbf 66bc 9940 9433 93bf f6aa 7cbd
000000f0: 58c3 dc3f 052b 213f 5ddb a6be 9a01 ba3e
00000100: 890b ed3d 19f7 a73e e406 15be e252 2abd
00000110: 165d 343f cee8 2e40 e23e 1940 73c7 02bf
00000120: 5dbc 843e e8ea 5940 4629 813f d8ea 8f3e
00000130: 1f96 54bf 2233 a4bf a31f d63e 93f2 c4bd
00000140: 057c f93e bec5 04bf dc4f 7ebe b56a 2cbd
00000150: 679d 22be 3f71 57c0 69a1 46c0 e4b2 adbf
00000160: 937d ce3f 1c65 cabf ea61 9cbf 3244 8ebf
00000170: 4122 fa3e 8502 a2bf 2592 d5be c4c2 85be
00000180: db71 a8be 16ab b6bd c249 89be 2591 8abe
00000190: 154a f33d 26f5 923e 0da5 a1bf 6cf9 bc40
000001a0: fce2 3040 4a57 893e bffa b9bf 8fc7 d440
000001b0: 72eb 9b3f 3be2 47bf 1ca8 6ebf 01d8 2dbf
000001c0: 174d b63e 7f29 13bf 8b25 c3bd 4671 093f
000001d0: 5f47 833e 827f 2c3e 346f 99be f316 73bf
000001e0: b8e1 86c0 7aa8 0540 a7c5 963f 7db0 67bf
000001f0: e51f 18bf f314 cf3e 628a 26c0 f113 8d3b
00000200: 2a81 843f 269d 1b3f f667 cd3c 10d6 5cbe
00000210: bdc4 a73e 7403 c8be 8edf 70be 76d2 69be
00000220: f567 23c0 b0f5 183f 30b9 4dc0 1b1d 133f
00000230: d72f 6a3f 0afb b03f c21e a43e 1025 2bbf
00000240: 390b b8bf ff32 e63f f84e 973e 8cb0 2bbe
00000250: 9d69 23bf 48c5 32be 699a 403e 7684 193f
00000260: a8d1 033e 5d6f b23f f7b4 1640 a64f 4d3e
00000270: a634 093f 15b9 d9bf 4b33 29c0 49dc 1a3f
00000280: 1b13 c93f 0a13 3f3d 7206 81bf 670e dc3e
00000290: 5c36 0fbe 4cc3 563e ec4f e3bd f4d3 99be
000002a0: 1e07 9ebe 888b e23d 5f5b 34c0 77dc a83f
000002b0: 7804 e3bf a861 903c 6fb1 91bf bfb6 473d
000002c0: 7ce6 2240 7c8c 90bf 6220 75bf 8e60 38bf
000002d0: 12d2 753f 838a aabf 8cd2 f93c a427 8b3e
000002e0: 1059 5e3c 569c 19be 9cda dbbd 05d4 6dbf
000002f0: d8ce 0c3f fe4b 3dc0 c6ae 0040 e017 773f
00000300: b504 603f 5145 fe3f a6f8 c1bf e4d1 753d
00000310: 919e 9b3f ca04 5fbe d873 bb3d fd15 1fbd
00000320: f726 00be c650 44be d090 483c 6bb0 c7be
00000330: 328b c7bf 49a5 3340 d98b 57bf 9d4f dbbf
00000340: e505 8d3f 70cb b7be 325e 0a3f dcd7 d93f
00000350: fcb5 29bf 7dbd 7ebf 2025 293d b2fb 833e
00000360: 7239 afbe 5fe7 a43c 4ffa 133f 4ec5 0e3e
00000370: 2299 983e 352a 0440 a306 ef3e 2505 5f3f
00000380: 5b18 d53f 603f 4a3f 071b cd40 be94 f53f
00000390: 8468 3d40 0b74 b9bf 905f 833f 7f5d bebe
000003a0: b89f 973e 74d5 02be 0752 72bd ef6e 223e
000003b0: 3f45 a03e 9b97 3b3d b8a3 e2bf bc88 cb3f
000003c0: 36df 31bf de34 8d40 7959 e5bf 29d7 4240
000003d0: b0cd 3a40 d2d4 0440 2ce7 9a3f 4d06 e63f
000003e0: ac6d a63e 5e2f 17bb 50a9 7a3e 8f52 a6bd
000003f0: 0927 7e3e 7882 693d 5db1 ba3d e2ca 5ec0
-2.94154 0.22333886 -1.5564203 1.0044265 2.3002799 1.280919 -0.21751095 -1.1952008
-0.8996347 -1.1329892 -0.10883899 -0.4336533 -0.19798884 -0.45182797 0.97536457 0.48196453
-0.41089034 1.6153378 -0.16217276 -3.975756 -1.1050785 0.0856713 6.758278 5.971605
1.2357645 -1.9660543 1.0262486 0.5851935 -0.09979669 0.23619151 -0.015666023 -0.12926362
0.082917064 0.09693217 0.24562283 3.6084144 -2.268279 2.518303 2.1840296 8.005408
3.6291974 2.3280578 -1.6836468 0.7144692 -0.03009007 0.17293538 -0.21365634 0.5271878
0.063127756 -0.0415224 0.013186439 -2.3036458 -1.3207482 0.98519766 1.829969 -3.2557864
-1.9977205 4.804248 -1.1500115 -0.06168648 1.7247114 0.6295627 -0.32589236 0.36329347
0.11574466 0.32805708 -0.1455341 -0.04158295 0.7045454 2.7329593 2.394463 -0.51085585
0.2592496 3.4049625 1.0090721 0.2810886 -0.83041567 -1.2828104 0.41821012 -0.0961658
0.48727432 -0.5186423 -0.24835151 -0.04209395 -0.15880357 -3.366287 -3.1036017 -1.3570218
1.6132072 -1.5812106 -1.2217381 -1.1114562 0.4885426 -1.2657019 -0.41713062 -0.26125157
-0.32899365 -0.08919351 -0.26814085 -0.2706386 0.118793644 0.28702658 -1.2628495 5.905447
2.763854 0.2682441 -1.4529647 6.64936 1.2181227 -0.78079575 -0.93225265 -0.6790772
0.3560569 -0.57485193 -0.09528645 0.53688467 0.2564039 0.16845515 -0.29967654 -0.9495689
-4.2150536 2.088408 1.1779069 -0.90503675 -0.5942367 0.4044567 -2.6021962 0.0043053557
1.0351918 0.60786664 0.025073987 -0.21566033 0.32767287 -0.39065135 -0.2352278 -0.2283419
-2.55322 0.5974989 -3.214428 0.57466286 0.9147925 1.3826611 0.32054716 -0.6685343
-1.4378425 1.7984313 0.29552436 -0.16766566 -0.6383303 -0.1745807 0.18808903 0.59967744
0.12872946 1.3940235 2.3547952 0.20049915 0.5359596 -1.7009608 -2.6437557 0.6049238
1.5708956 0.046649016 -1.0080092 0.42979738 -0.1398558 0.20972937 -0.11099228 -0.3004452
-0.30864805 0.1106177 -2.8180768 1.319228 -1.7735739 0.017624691 -1.1382273 0.048758265
2.5453176 -1.1292872 -0.9575254 -0.7202233 0.96023667 -1.332352 0.030495904 0.2717868
0.013571039 -0.15001044 -0.10735056 -0.9290164 0.5500312 -2.9577632 2.0106673 0.96520805
0.8750718 1.9864904 -1.5154006 0.06001462 1.2157766 -0.2177917 0.09152955 -0.03883933
-0.12514864 -0.19171438 0.012241557 -0.39001784 -1.5589354 2.8069632 -0.84197766 -1.7133671
1.1017424 -0.35897398 0.5404998 1.7019 -0.6629331 -0.99507886 0.04129517 0.25777966
-0.34223515 0.020129858 0.57803816 0.13942453 0.2980433 2.065076 0.4668475 0.87117225
1.6648058 0.7900295 6.409549 1.9186018 2.9595041 -1.4488539 1.0263538 -0.37180707
0.29614043 -0.12776738 -0.05916026 0.1586263 0.3130283 0.04579888 -1.7706213 1.5901103
-0.6948122 4.4127035 -1.791793 3.0443823 2.9188042 2.0754895 1.2101798 1.7970673
0.32505548 -0.0023069005 0.2447865 -0.081212156 0.24819578 0.05700919 0.091158606 -3.481133

bias f4 [256]
00000000: 8c23 33c0 f31d 1e3f 41d2 853e 13d0 53c0
00000010: f94e 013e 3a20 3fc0 ec57 86bf 8a37 b3bf
00000020: f474 22c0 4762 7ac0 f2fb 25c0 c127 6a3e
00000030: 1db5 16c0 2dd7 e13f 20d2 2cc0 386f 37c0
00000040: 9080 21be 0fc3 12c0 0a9a 883e 16d6 d2bf
00000050: 3b09 8dbf 9882 04c0 9c44 1b3e 989e 94bf
00000060: 7b20 22c0 c40d 67c0 ed98 143e 308b 0c3f
00000070: 4913 9dbf fe3d a33e aba1 0cbf 7f64 97bf
00000080: a6cc 30c0 e72d 933f 373b 943f 596c 95bf
00000090: ad2c 57c0 d62a 49c0 b871 25c0 9ed0 25c0
000000a0: b1d0 a4bf 4416 83c0 1801 c6bf 035e d13f
000000b0: 1d4f 06c0 2833 7b3f 0d80 1f3c fe61 d4bf
000000c0: a044 61bf 646a 8240 62a9 2ec0 9f42 fe3d
000000d0: 2adf 2340 bdc8 37c0 acee 3dc0 50d1 92be
000000e0: db8d 95bf 4d83 bbbf c951 a4bf 6adf 12c0
000000f0: 42be 19c0 f9d2 babf 6473 9d3f 228c 33c0
00000100: f892 c2bf 4679 febf ba8b 14c0 343e 073f
00000110: 742a 57be c0cb 21c0 7df1 c1bf acbb 6ebf
00000120: e1bc 4e40 4f0d 20bf 5067 0cc0 6c74 2fbf
00000130: ac79 65bf 05e9 d8bf 1fe9 87bf 26e7 2c3d
00000140: 446c 24c0 6df5 fabf a396 dbbf d682 00c0
00000150: b51f 2bc0 33fe 58bf a0ff 4b3f bd4a 94bf
00000160: f939 22bf 7945 29c0 ee64 5fbf 0969 2ac0
00000170: b1b3 5240 338d 20c0 a28d 28c0 1908 d3bf
00000180: 6633 e3bf 72c3 5ebf dbca f6bf 649c ddbf
00000190: 07cb 53bf e6a0 e3bf ddae 83bf 8833 1dbf
000001a0: 6632 98bf 1f04 15c0 cff7 ecbf a64d 26c0
000001b0: 817e 0ac0 bbdb 3bbe 62d8 f2bf 4cc6 a0bf
000001c0: 2856 eebf ffc3 5cc0 3e49 b0bf 805d 8c3b
000001d0: effe 2fc0 afc2 27c0 05fc 54c0 e12f 47c0
000001e0: 0c30 6f40 3a23 1740 5a7f 83bf ed71 edbf
000001f0: 5fda e2bf e98a cebf 7c90 15bf fc62 91bf
00000200: e42b 17c0 ccad 04c0 9555 31bf bd3e f7bf
00000210: 5c8f 2dc0 9421 51bf 5678 61c0 1390 3cc0
00000220: bd86 eebf 25e0 95bf 948f b2bf c4ab e6bf
00000230: 090a 1640 4cf7 e5bf 01e8 6ebf 684b 11c0
00000240: 6770 c7be fa7e edbf d04c eebf c6c5 7fbf
00000250: 63b6 f5bf 0023 a13f 99b2 46bf bab4 08bf
00000260: 87c2 f7bf d9f1 c9bf 3efb 29c0 6ccb 5440
00000270: 982a 63bf 6d88 99bf 5243 3ec0 6bef ea3e
00000280: 4a4b 723d e715 19c0 7541 7fc0 dbd2 04c0
00000290: 8d2f 26bf 1e6c cabc e369 ba3f ea8a 26c0
000002a0: 659d e73f d18a 15c0 8901 15c0 c5e3 0dc0
000002b0: 2dba 42bf 6217 003f 71b2 8740 bfc0 e5bf
000002c0: b72d 46c0 badd 1fc0 40b7 9bbf ffc5 1640
000002d0: 75db 3bbf 39a5 9abf d39d 67c0 3c54 f1bf
000002e0: 6ba4 cdbf 6e79 91bd 0958 b540 07f0 d5bf
000002f0: 00cf e8bf 25ef 16c0 07f1 3bc0 b542 75c0
00000300: 111a 0ac0 8931 49c0 e346 0dc0 be31 adbe
00000310: e831 91c0 e1cd d13d 7a00 53be bd9c c8bf
00000320: bb1d 98bf 4e8b 3dbf 1ff5 42c0 d839 e1bf
00000330: fa39 02c0 ac60 05c0 de84 e03e a189 91be
00000340: ee55 41c0 a645 48bf 3cb1 d3bf 0f67 1bc0
00000350: 8441 f2bf c970 5abd fffd cebf c199 68bf
00000360: ba92 53c0 5a2c 0c3e 9056 18bf 4405 27c0
00000370: 2ffa 7d3f e993 6bbf 7071 17c0 e2fb d4bf
00000380: f3ac 35c0 9b45 cebf ad96 afbf c565 36c0
00000390: 7131 14c0 9240 e8bf 1d3e bcbe b8c4 60bf
000003a0: c8d3 edbe 52ea 0dc0 e2b1 debd 48a5 34c0
000003b0: e7f2 863f 7300 6bbf 2a16 1dc0 0b4b 05c0
000003c0: ede8 e5bf 7d2f b5bf a0ec 6cc0 74d0 50c0
000003d0: 5cef 2fbf f49c 0ac0 056b 3fc0 620e f2bf
000003e0: f365 d7bf ffd1 17c0 83d4 0ebe 2b73 15c0
000003f0: da3c d7bf 9ccf cabf 7c5f fcbe 5793 2ac0
-2.7990446 0.6176445 0.26136974 -3.3095748 0.12627782 -2.986342 -1.0495582 -1.4001324
-2.5383883 -3.9122484 -2.5935025 0.22866727 -2.3548043 1.7643791 -2.700325 -2.8661633
-0.15771699 -2.2931554 0.26680022 -1.6471584 -1.1018442 -2.0704708 0.15162891 -1.1610899
-2.5332325 -3.6102152 0.14511462 0.54899883 -1.227151 0.31883234 -0.54934186 -1.1827544
-2.7624907 1.1498383 1.1580571 -1.167369 -3.3621018 -3.1432395 -2.5850658 -2.590858
-1.2876188 -4.096468 -1.5469084 1.6356815 -2.0985787 0.98124933 0.0097351195 -1.6592405
-0.8799534 4.075487 -2.7290883 0.12415051 2.5604959 -2.871627 -2.9676924 -0.28675318
-1.1683916 -1.4649445 -1.2837459 -2.294886 -2.4022374 -1.4595634 1.230084 -2.805428
-1.5201101 -1.988076 -2.3210282 0.5282929 -0.21012288 -2.528061 -1.5151821 -0.93255115
3.2302783 -0.6252031 -2.1938057 -0.6853702 -0.8963878 -1.6946112 -1.0618018 0.042212628
-2.569108 -1.9606148 -1.7155346 -2.0079856 -2.6738102 -0.8476288 0.7968693 -1.1585308
-0.6336971 -2.6448653 -0.8726338 -2.6626608 3.2922175 -2.508618 -2.6336446 -1.6486846
-1.775006 -0.87016976 -1.9280657 -1.7313352 -0.8273167 -1.7783477 -1.0287739 -0.61406755
-1.189038 -2.3283765 -1.8513125 -2.5984893 -2.1639712 -0.1834554 -1.8972285 -1.2560515
-1.8620043 -3.4494627 -1.3772352 0.004283607 -2.749935 -2.6212575 -3.327882 -3.1122973
3.7373075 2.361525 -1.027324 -1.8550392 -1.7722892 -1.6136142 -0.5842359 -1.1358333
-2.3620539 -2.0731077 -0.6927121 -1.9316021 -2.711875 -0.8169186 -3.5229697 -2.9462936
-1.8634869 -1.1709028 -1.3950067 -1.8021169 2.3443625 -1.7966094 -0.9332276 -2.2702274
-0.38952944 -1.8554375 -1.8617191 -0.99911153 -1.9196285 1.2588806 -0.7761627 -0.53400767
-1.935624 -1.5776931 -2.6559596 3.324916 -0.8873687 -1.1994759 -2.972859 0.45885786
0.059153832 -2.3919618 -3.9883702 -2.0753696 -0.64916307 -0.024709757 1.4563564 -2.6022286
1.8094908 -2.3365977 -2.3282187 -2.217027 -0.7606533 0.5003568 4.2405324 -1.7949446
-3.0965402 -2.497908 -1.2165298 2.3558347 -0.7338174 -1.2081672 -3.6190078 -1.8853831
-1.6065801 -0.07103239 5.6669965 -1.6713876 -1.8188171 -2.3583462 -2.9365861 -3.8321965
-2.157841 -3.1436484 -2.2074516 -0.33827013 -4.537342 0.102443464 -0.2060565 -1.5672833
-1.1884073 -0.7404069 -3.046211 -1.7595778 -2.0347886 -2.0840254 0.4385137 -0.28425315
-3.0208697 -0.78231275 -1.6538463 -2.4281652 -1.8926244 -0.053330217 -1.6171263 -0.9085961
-3.3058305 0.13688794 -0.59507084 -2.6096964 0.99209875 -0.9202257 -2.3662987 -1.6639369
-2.838681 -1.6114992 -1.3717858 -2.8499615 -2.3155177 -1.8144705 -0.3676614 -0.8780017
-0.4645064 -2.2174268 -0.10873772 -2.822588 1.0542878 -0.9179756 -2.4544778 -2.0827053
-1.7961708 -1.4155117 -3.7019424 -3.262723 -0.6872461 -2.1658297 -2.990907 -1.8910639
-1.6827987 -2.3721921 -0.13948254 -2.3351543 -1.6815445 -1.5844607 -0.492916 -2.665243

weight f4 [256, 256]
00000000: 5876 26be 6112 a1bf 509c 18bf 2534 2cbd
00000010: a123 07bf 6d3a a2bd ec9b c43d 4119 36bf
00000020: 8f13 46bf ae9f e5be b01e c43e 684a bfbf
00000030: 6653 e13e 0270 643f 1e93 0ebf 32d4 d4be
00000040: 83ed 523f 0452 6ebf 7e66 10bf 95eb 843e
00000050: 6bbc 4f3f be54 94bf 5cd7 1c40 baba 1f3f
00000060: ca3c b5bc 2e07 0840 bfd2 37bf 58a3 02bf
00000070: 7a71 0f3f 5a6f 873f 6d09 b0be 64f0 e6bd
00000080: 4bda 8cbe f4ca 1e3f 26f4 1fbf 280c a43f
00000090: e9ee 99be 04b0 553e 81ac fb3f c3bc ee3e
000000a0: d6e8 72bf c547 38bf 05a1 2ebe ed68 4ebf
000000b0: 4f64 103d 7d3a ae3f 3352 c7be 5a03 463f
000000c0: c275 543f a915 a7bf c580 503f d1fd 713f
000000d0: 399c 11bf a6b2 d7bf 33ee c13e 787e 81bf
000000e0: 0b81 5abf ce6b dfbe ccf3 e73f 6c91 c5bf
000000f0: bcdf 6dbf 57c1 66bf 2f78 d5bd ffa9 073e
00000100: a355 e2bd 39ae e1be 0487 f3bd 611e 753e
00000110: 490c e1bd aa30 003f 32d5 c1bf f7d5 42bf
00000120: 5201 e13e 7965 c63e 022a d7bf 22a1 1cbe
00000130: ab31 f1be 445c 8e3e 5ed0 a2bf 97d9 7cbf
00000140: 8922 b3bf 5f53 183f 82a0 a03e de43 bdbd
00000150: cd81 99bf 9895 c73d b5dc 3bbf e582 c93f
00000160: bc28 15c0 4aef 8cbf 1fce f23e 41ed 67bd
00000170: e5e3 833e 5a0c 0ebf e55a 12bf 98fb c83e
00000180: 71e8 bdbf 5520 923e c469 a23f 54cb 1d3f
00000190: de9c ca3f 0611 86be 50fa fc3e 97ca ef3d
000001a0: 29c7 64bf 8179 78bf 98f7 1c3f 96ac 883f
000001b0: c0b1 10bf 3868 6f3e 52cb 2940 6d8b 96bf
000001c0: b05b 0f3f 9c8f 81bf 6a1f 18bc d050 2e3f
000001d0: 4c87 353e eeca 45bf 48f0 023f a01b 13be
000001e0: bfd3 b0bf 72c5 11c0 18c0 0cbf ec34 ee3f
000001f0: db67 74bf 43e1 e4be d143 d13f 3bf0 c4be
00000200: 38fe dabf 26bb d83f 3c0d 31bf bd2d 4cbf
00000210: 0056 edbf 0420 eebe 2734 873f 764b 0e3f
00000220: ce54 97be 1db3 843f a162 7dbe 35a6 93bf
00000230: 6d20 a63f 3299 d23e 987a acbf eb2e 003f
00000240: bfbd 15c0 528c fd3f cfd5 a8be cf81 fc3a
00000250: e3ed f83e d132 d9bb c5eb 6f3f a3f1 4c3f
00000260: ec90 063f e97e 303f 1f87 43bf df8e 3cbf
00000270: 159a a33e 232e 8ebe 2dee 25bf b50f 253f
00000280: 6b1f 9bbf 092e 4c3e c1c5 5b3f fbde 5a3f
00000290: d9ba a9bf 0c1f 14bf fd23 3c3f 05a7 c2be
000002a0: 9ff8 edbf 4d48 703f 0f60 81bf 7f0c e9be
000002b0: 772d c4bf 5272 b3bf a231 c3bf 64a5 b93f
000002c0: 5aad 783f a961 8e3e 0f55 72be d157 0abf
000002d0: ac2f e0be cb34 efbe 79d2 e33e ff52 f5be
000002e0: 8cb8 323c e731 c3bd b7b3 ffbe ddc1 bdbe
000002f0: a9f5 953f d8db ce3e f2a0 c7bf 5d78 1dbf
00000300: d88d 303e d8fb a8be eb3b 2cbf 3a12 b1bf
00000310: dbc7 873f 8b0d a83e f313 833f a313 3abf
00000320: 0f11 b4bf 671c 10bf 20bb 3a3e b8a8 61be
00000330: d487 8e3f 1570 df3d 7f63 bdbf 9b8d e53e
00000340: 4ff9 cbbe b1ad 1f3f fdfd 3240 905d 973f
00000350: 07b7 1fbe d17a 5bbb 2dad 39be fa4a 1ebe
00000360: 48d2 ffbf 70f6 d6bf 78be c5bf 49c9 e93e
00000370: cb79 0dbf 6cc1 f63c a829 07bf 82b1 553c
00000380: 0d82 e7be ce01 05be fc07 8b3f 136a 383f
00000390: 938f 933f 08f6 e83f 5119 a13f 2064 d13d
000003a0: 51b3 7ebf cc9a d6be 145d b8bf f99c 89bf
000003b0: 727d b8be 776b 643f 1f04 eabe 6a84 3d3e
000003c0: 0574 ff3e c2da 8ebf 95d2 a8bc 1d11 c13f
000003d0: f5b8 12bf 13ac 8bbf 3667 9f3f f014 76bf
000003e0: 1cfb d13e 250a 503f f4a7 763f 74f1 86bf
000003f0: d6a6 973f 291b 27bf cf87 67bd cfae 24bf
-0.16256082 -1.2583734 -0.59613514 -0.042041916 -0.5278874 -0.079213 0.09600052 -0.71132284
-0.77373594 -0.44848388 0.38304663 -1.4944582 0.4400894 0.8923341 -0.55693233 -0.41568142
0.82393664 -0.93093896 -0.5640639 0.25960985 0.8114688 -1.1588361 2.4506445 0.623943
-0.022123713 2.1254382 -0.7180595 -0.5103049 0.56032526 1.0580857 -0.3438219 -0.112763196
-0.27510294 0.6202843 -0.62481916 1.281621 -0.30065086 0.20867926 1.9662019 0.4662839
-0.9488653 -0.7198451 -0.17053612 -0.80628854 0.03525191 1.3611599 -0.389299 0.77348864
0.82992184 -1.3053485 0.81446487 0.9452792 -0.56879 -1.6851394 0.37877044 -1.011672
-0.85353154 -0.43636936 1.8121276 -1.5435004 -0.92919517 -0.90138763 -0.10423314 0.13248442
-0.1105149 -0.44078234 -0.118909866 0.2393737 -0.10988671 0.50074255 -1.5143187 -0.76107734
0.4394632 0.38749292 -1.6809695 -0.15295842 -0.47108206 0.27804768 -1.2719839 -0.98769516
-1.3994914 0.59502214 0.31372458 -0.0924146 -1.1992737 0.097453296 -0.7338365 1.5743071
-2.3306112 -1.1010525 0.47422883 -0.056622747 0.25759807 -0.55487597 -0.57169944 0.3925445
-1.483656 0.28540292 1.2688527 0.6163838 1.5829122 -0.26184863 0.49409723 0.11708563
-0.89366394 -0.970604 0.613153 1.0677669 -0.56521225 0.233796 2.6530347 -1.1761299
0.5599928 -1.0121951 -0.009284833 0.6809206 0.17727393 -0.7726277 0.5114789 -0.14366007
-1.381462 -2.277676 -0.5498061 1.86099 -0.9547097 -0.4470311 1.6348821 -0.3846453
-1.7108831 1.6932113 -0.6916082 -0.7975729 -1.854187 -0.465088 1.0562791 0.55583894
-0.29556888 1.0367161 -0.24744655 -1.1535097 1.2978646 0.41132504 -1.3474913 0.5007159
-2.3397062 1.9808447 -0.32975623 0.001926476 0.48618993 -0.0066283722 0.9371913 0.8005621
0.52564883 0.6894365 -0.76378053 -0.73655504 0.31953493 -0.27769575 -0.6481655 0.6447709
-1.2118963 0.19939436 0.85848624 0.8549649 -1.3260146 -0.57859874 0.73492414 -0.3801805
-1.8591498 0.9386032 -1.010744 -0.45517346 -1.5326375 -1.4019263 -1.5249522 1.4503598
0.97139513 0.27808884 -0.2366526 -0.5404025 -0.4378637 -0.46719965 0.44496515 -0.47914883
0.010908257 -0.095310025 -0.499418 -0.37061968 1.1715595 0.40402102 -1.5595992 -0.61511785
0.17241609 -0.33004642 -0.6727893 -1.3833687 1.0607866 0.32822832 1.0240463 -0.72686213
-1.4067706 -0.5629334 0.18235445 -0.22037017 1.1135201 0.1091005 -1.4795989 0.448346
-0.39838645 0.6237441 2.7967522 1.1825428 -0.15597163 -0.0033489952 -0.18132468 -0.15458289
-1.9986048 -1.6793957 -1.5448751 0.4566138 -0.55263966 0.030121528 -0.5279794 0.013042809
-0.45216408 -0.1298897 1.0861812 0.72036856 1.152819 1.8200083 1.2585851 0.102241755
-0.99492365 -0.41914976 -1.4403405 -1.0751029 -0.36033207 0.8922648 -0.4570627 0.18507543
0.49893203 -1.116051 -0.020608226 1.5083348 -0.5731347 -1.0911888 1.2453372 -0.961257
0.41011894 0.8126548 0.96350026 -1.0542436 1.1847789 -0.6527582 -0.056526 -0.64329237

bias f4 [256]
00000000: b367 88bf 0fd3 ddbd 1504 33bf bbb4 82bd
00000010: cb47 73bf 2204 c9bc 06ba a23d 0067 02bd
00000020: b632 ffbd 06ec 933f 28ff 9dbd e345 05be
00000030: f3b6 3ebf d139 373f e31a 8ebc 0847 fc3d
00000040: ddd7 2dbf c1c6 06bd 7739 813f ede2 07bd
00000050: d640 08bd 3461 0dbd f73c 8cbf 8672 05c0
00000060: e6a2 5fbf fead bcbf a838 4ebd dfa7 f0bf
00000070: 7ca0 64bf 77fd 26be dc94 ccbe 268b 9dbf
00000080: 6e43 d4bf addd ccbe 0f61 adbf 97f3 b8bd
00000090: 3ec5 24be 7552 dfbf dede 8f3e 463a 5b3c
000000a0: e07c 65bf 4e46 0bbd 05e5 8fbc e88a 81be
000000b0: 19ed 94be e66e 65bf 8156 25bd c958 7dbd
000000c0: bfa1 453d 1907 12bd 7bde f5bf 8b91 ad3d
000000d0: b31d ffbf 4f6c 33c0 3826 93bf 8bf5 c6be
000000e0: 0764 b7bb 47fa c53d 53e3 2ebd 3a82 b0bc
000000f0: 7de0 1f3e a3d8 c0bd 0762 7ebd 09c0 c6bd
00000100: 2078 afbc 4e80 88bd 045f c9be 5f8b a6bf
00000110: b356 87bf dacd 83bf 59fe bbbf 346d b33d
00000120: 3a61 f7bc 08cf c5be b77c 04be 12fa 5dbe
00000130: 2755 b2bd a15f aebf e32e 4d3e cee9 2fbd
00000140: ded8 b6bd 7887 783f 0868 9cbf eb19 3bbe
00000150: ffbb d1bf 66f3 90bb 9f34 c7bf 7d46 c7bd
00000160: 3f95 a9bd 1d26 c2bd bf36 40bf ec03 b8bd
00000170: 6f25 c1bc 86c1 8ebc 675c 13bf 0ffa 6cbe
00000180: 03be 033f 4600 dbbe 251a 13bf 306d e5bf
00000190: 05ee 1d3d 37dd 5cbf 294d efbd ac53 12bf
000001a0: 1225 f0bc 9541 52bf 6b19 94bd 2017 a6bf
000001b0: dac9 cfbd 54e9 69bd 42e8 58bf a3b5 d0bd
000001c0: dde5 563d aa5d 8d3e 99a9 8abf 3585 d9bc
000001d0: e88e c8be d33d 89bf 0696 08be 9aad febd
000001e0: d41b a4bf debe f43e f1f3 3ebe 4340 1abf
000001f0: c807 7fbf 6ab5 c1be cb00 56bf ed0a d8bd
00000200: 95df c33e 5724 dcbd a82e 08be 4e9c 9fbd
00000210: dddb 99bf 00c0 8fbf 24a6 21bd 46f8 bb3b
00000220: 8708 f4bc eb87 fcbb 8d00 43bd a0ee 8cbf
00000230: d73f 95bf e6cc d4bd 89dc cabe b2cd 13be
00000240: 702c 31bd 9a99 0dbe 5389 dabf bbd3 32bf
00000250: 3bc7 d1bc cfca 27be ce54 8dbf 33c0 8cbd
00000260: c10f ef3e da85 cd3e 88a5 cd3f a8f3 293d
00000270: b541 85bf 844d 92bc ff71 c2bf 7ce7 27bc
00000280: 3c61 663e 0cd6 00c0 92a2 9dbf 5189 d7bf
00000290: 0ac9 72bf b548 4bbf 738a 47bd ec11 84bd
000002a0: a960 16be cf2a 7abf 61ec 4dbf 66a4 6bbf
000002b0: 9dff a0bd f807 91bc ace5 58bf ed70 dabd
000002c0: 5d44 bbbf f82c 9c3e 95a9 05bd e609 16be
000002d0: 8908 7d3d c46f 56bf b02a d0bd a38b 8bbf
000002e0: 1faa 88bb 82a6 32bf fdee 4cbf afa3 86bf
000002f0: 5f66 003e ab80 efbd 76eb a5bf 873d 98bd
00000300: 9f6f dbbf 7680 9bbd ab8d 70bd a9ce 5f3c
00000310: 5224 c4bd ab6e 2dbd 15a2 e1bd fdb1 9b3e
00000320: 906b ba3f 2a08 93bd 030e aebd 9fe3 65bf
00000330: 12a6 bcbd 6f16 25bf 0045 42bf eb76 27c0
00000340: a2d6 00c0 66f4 a2bd 1efa d9be dbd6 f3bd
00000350: 2d82 c63f 4e64 41bf 000b 58bf 68ca d53f
00000360: 2bd4 5c3e 98d8 cdbe f94f 1ebd b342 f9be
00000370: 1285 2fbc 3cb4 d2bd a9e3 f4bd 1c9d e7bd
00000380: 719e 18bf cfc3 e3bf 09f6 aabd a035 46bd
00000390: ac61 4fbf 461b 38bf 8d71 3ebe 5938 5dbf
000003a0: 32a9 3fbd 5b78 c5bc 36b8 a7bf 324f 0c3e
000003b0: 0ddb 1dc0 9d29 e83f f479 b3bf 06a1 86bd
000003c0: 328e 50bf 4aa9 4dbc ec08 47be d915 d7bd
000003d0: 26ae 58bd 2a22 e0bd 5f4c f2be 9aab 8e3f
000003e0: 1717 a23d eab7 febe 30a2 073f d86b a0bc
000003f0: df1a 0abf 6a31 87bd f758 8abf 44a6 12bd
-1.0656646 -0.10831272 -0.69928104 -0.06382128 -0.9503142 -0.024538103 0.079456374 -0.03183651
-0.12460844 1.1556404 -0.07714683 -0.13014941 -0.7449791 0.71572596 -0.017346805 0.12318236
-0.67907506 -0.03290439 1.0095662 -0.033175398 -0.033264957 -0.03451653 -1.0956105 -2.085115
-0.8735794 -1.4740598 -0.050347 -1.880123 -0.8930738 -0.16307627 -0.3995732 -1.230809
-1.6583078 -0.40012875 -1.3545245 -0.09030836 -0.16090867 -1.7447039 0.28099722 0.013380593
-0.8964367 -0.034002595 -0.01756526 -0.2530129 -0.2908714 -0.8962234 -0.0403657 -0.06185225
0.048249956 -0.0356513 -1.9208521 0.08475026 -1.9930938 -2.8034856 -1.1496038 -0.3885921
-0.005596641 0.09666877 -0.042697262 -0.021546472 0.15612979 -0.0941632 -0.062105205 -0.097045965
-0.021419585 -0.06665097 -0.39330304 -1.3011283 -1.0573334 -1.0297196 -1.4686996 0.08761063
-0.030197728 -0.38634515 -0.129382 -0.21677426 -0.08707648 -1.3622934 0.20037417 -0.042947583
-0.08928083 0.9708171 -1.2219248 -0.18271606 -1.6385497 -0.0044235466 -1.5562934 -0.097302414
-0.082804196 -0.09479926 -0.75083536 -0.08985123 -0.02357742 -0.017426264 -0.5756287 -0.23142265
0.5146181 -0.42773646 -0.5746177 -1.7923946 0.03855707 -0.8627505 -0.11684639 -0.57158923
-0.029314552 -0.8213132 -0.072314106 -1.2975807 -0.10145922 -0.057107285 -0.847294 -0.101908945
0.05246531 0.27610523 -1.0833007 -0.026552776 -0.3917153 -1.0721992 -0.1333848 -0.124354556
-1.2820992 0.4780187 -0.18647744 -0.60254306 -0.9962125 -0.3783372 -0.8359496 -0.10548959
0.38256517 -0.10749119 -0.13299048 -0.07793485 -1.2020222 -1.1230469 -0.039465085 0.0057363836
-0.029789222 -0.0077066324 -0.047607947 -1.1010323 -1.1660107 -0.10390644 -0.3962138 -0.14433935
-0.04325527 -0.13828126 -1.7073158 -0.69854325 -0.025607696 -0.16385959 -1.1041505 -0.068725966
0.46691707 0.40141183 1.6066141 0.041492134 -1.0410677 -0.017859228 -1.5191039 -0.010248061
0.2249803 -2.0130644 -1.2315238 -1.6838781 -0.9483801 -0.7940782 -0.04871602 -0.06448731
-0.1468531 -0.9772157 -0.8043881 -0.9204773 -0.07861254 -0.017703995 -0.8472545 -0.1066607
-1.4630238 0.30503058 -0.03263243 -0.14652213 0.061775718 -0.8376429 -0.10164392 -1.0901989
-0.0041706706 -0.6978532 -0.8005217 -1.0518702 0.12539051 -0.11694463 -1.2962482 -0.074336104
-1.7143439 -0.07592861 -0.058728855 0.013660111 -0.0957724 -0.04234187 -0.11017243 0.30409232
1.4564075 -0.071792915 -0.08498766 -0.8980045 -0.09211363 -0.64487356 -0.75886536 -2.6166332
-2.0131001 -0.079567716 -0.42573637 -0.11906215 1.5508476 -0.7554368 -0.84391785 1.6702394
0.2156531 -0.4020431 -0.038650487 -0.486837 -0.010712879 -0.10288283 -0.11957485 -0.11309263
-0.5961676 -1.7794131 -0.08347709 -0.048390985 -0.8100841 -0.71916616 -0.18598004 -0.86414105
-0.046792217 -0.024105242 -1.3103092 0.13702086 -2.4664948 1.8137699 -1.4021592 -0.065736815
-0.8146697 -0.012552569 -0.19436997 -0.10502214 -0.052900456 -0.10944016 -0.47323892 1.1146119
0.0791456 -0.4974969 0.52981853 -0.019582674 -0.5394725 -0.06601222 -1.08084 -0.035803095

weight f4 [6, 256]
00000000: c097 42bf 1e54 c83e 8fc4 a53c 4eb7 ddbd
00000010: 03a6 e23e d975 a73c 3124 173e 959d f83c
00000020: 5138 0b3c df47 a53e ea85 d5bc de7e d1bc
00000030: 0998 dabc fb26 8cbe 90b4 083e da9b 133e
00000040: 46cd 22be 306c fb3c ddd1 b23e 909d 17bc
00000050: db09 ae3e c691 76bd 53cf 533d dc71 6fbe
00000060: 4555 97bc ef10 7bbf e956 ce3c 525f c3bf
00000070: 37d1 cebd 77b3 e2bc 46d9 1dbf 94d2 eabe
00000080: faa5 51bf 9eef 143f ca57 0ebf e916 873c
00000090: e360 80bd e4e7 3abf aaa1 d23e b67d c2bc
000000a0: 6c15 fa3e dee7 4abd 8c1d 3dbc a9b7 4c3e
000000b0: 44ff 123f 4fb9 033f 126b 733d 595e 4fbd
000000c0: 000a de3b 710f 013c af06 1cbf f302 fd3d
000000d0: 0e80 fbbc 5930 843f d0a5 053f 4faa 7ebe
000000e0: f900 92bc f650 683d ec67 89bd f7d8 2ebd
000000f0: c742 38bc b19b 353d a147 3ebc e051 27bd
00000100: 5d13 573b 2b4c 533c 12ea 593f 2e77 363f
00000110: 6a77 733f 8ef0 c53e 723d 36be 2da8 553f
00000120: adf0 dcba a76b d63e fe10 c9bc bef8 a03e
00000130: e8f4 76bd 53fd 20bf cd55 07be b257 1abd
00000140: eff6 613d 001c a73e 27ad c8bc 251f 6f3c
00000150: 1e10 b1bd b4a9 c63c 2069 efbe 835d 8f3c
00000160: 72af b03b 3471 b33d 4553 34be 5356 e03c
00000170: c8f8 b23c 4a7c b2bb ea2b a73d 36b0 973e
00000180: 91ae 703f c7df f53d eec5 b2be bdb4 94be
00000190: f553 3c3e 1668 083e 6ece be3e 726a b53e
000001a0: 788b 3fbd 19af 07bf 743f 41bd 553b afbc
000001b0: 6dd8 19bb b001 b4bc d724 303e be76 913b
000001c0: 0e83 553f cda8 1d3e 9238 513d d9f0 9f3c
000001d0: 4263 983d f5d8 09bf f459 43bd 71f1 de3d
000001e0: c88f 85bf 4512 8fbc 2239 27bf e455 d8bd
000001f0: d604 85bf 25cd 3dbf 4776 80bf c3e8 0d3d
00000200: 020c 383f 4352 1bbd 7431 bc3c 6374 1dbd
00000210: bcec 39be 1883 04bf 6d3a b0bc 171a 69bd
00000220: f3a9 5e3c 885e 173d aba9 2cbd 387b dfbd
00000230: 0f78 08bf aa9f 87bd 7c5b f43d beba a13c
00000240: 97fd 8f3e 3d8d 80bd b872 b4bd c61d a93d
00000250: 6f86 263d 90c8 553d e47b 3ebd ad4e 473c
00000260: 225f 233c 6876 26be 153e 86be 131a 9d3e
00000270: 9d7f 61bf f54d cabe 58aa 893e 5c68 1a3e
00000280: 1d4f e83e 6f38 383f cfd3 2fbe 0d37 8dbf
00000290: c80e 2f3f 2494 5abe 2013 12bd d487 dfbc
000002a0: 4550 64bd 52fa 093f 27bc 463e faa6 bf3e
000002b0: dcd5 363c fbba 0bbb 9bc6 b23d acaf 21bd
000002c0: b7f3 443f 2448 73bc 18eb 173c 0363 503d
000002d0: 595f 983e 70aa 183f 26f8 8ebc ff60 53bf
000002e0: d75b 8939 4968 0f3f 5c82 0f3f 68f2 54be
000002f0: ae7d 033f 8624 52bd fb23 bbbe 3164 a9bc
00000300: 98a9 babf 25c2 2bbd d7a4 0d3c 2fdd 62bc
00000310: 9792 8c3c 1178 20bc da89 25bd eda2 7c3d
00000320: 98c4 f3bd 5ea1 363d fba0 c43c b56a b7bd
00000330: 9e83 4fbd 742b fe3e 215f 2fbc 2380 d1be
00000340: f91d ab3c 9bad b73d 57d3 ce3c 30ee 053d
00000350: 013d 5ebe e229 d5bd 1695 7abf dea2 2b3e
00000360: cf6d 9a3e 9b08 db3d f2e0 a23c 86c9 903e
00000370: 19bf d9bc f500 aa3c d1ab ba3c 9b88 263d
00000380: f532 193e d8ea 883f d191 413c 5fe0 20bd
00000390: f976 8ebe 43b8 4d3f f29c dabe 8d07 23be
000003a0: b96a f33b 4f89 94bb 48d3 0f3f e594 b23f
000003b0: a866 3c3e babc 33bc 013a 8fbe 4a9e cebc
000003c0: 9681 babe ba4c ff3c b7ad cf3d 99e1 8f3c
000003d0: 9d35 89bd 1c7a e6bc 5f22 80bc f348 fc3b
000003e0: d27a 943f d233 053f bc52 ff3c 1f19 be3d
000003f0: ae15 debe 73e5 07ba 48ee 19bf 0893 abbb
-0.760128 0.39126676 0.020235328 -0.10825978 0.44267282 0.020441936 0.147599 0.030348578
0.008497314 0.32281396 -0.026064832 -0.02557319 -0.026683824 -0.2737349 0.13350129 0.14414921
-0.15898618 0.030691236 0.34925738 -0.009253874 0.33991894 -0.060197614 0.05171139 -0.23383278
-0.018473277 -0.98072714 0.025187926 -1.5263464 -0.10098498 -0.027673466 -0.6165966 -0.45863783
-0.81893885 0.58178127 -0.55602705 0.016490417 -0.0626848 -0.73010087 0.41138965 -0.023741584
0.4884447 -0.049537532 -0.011542689 0.19991936 0.57420754 0.51454633 0.059428282 -0.050627086
0.0067760944 0.007877217 -0.609477 0.12354078 -0.03070071 1.0327255 0.52206135 -0.24869655
-0.01782273 0.056717835 -0.06709275 -0.042687383 -0.01124639 0.044337932 -0.011613757 -0.040849566
0.0032817938 0.012896578 0.8512279 0.71275604 0.95104086 0.3866009 -0.17796877 0.8345974
-0.0016856395 0.41879007 -0.024544235 0.31439775 -0.060292155 -0.6288654 -0.13216324 -0.03768129
0.055167135 0.3263855 -0.024496628 0.014594828 -0.08645652 0.024250843 -0.46759892 0.017500645
0.0053920085 0.08761826 -0.1760989 0.027384913 0.021847144 -0.0054469453 0.08162673 0.29626626
0.9401637 0.12005573 -0.34916633 -0.29044142 0.18391402 0.13320956 0.37266868 0.35432774
-0.046763867 -0.5300155 -0.047179654 -0.021390596 -0.0023474947 -0.02197346 0.17201553 0.004439204
0.834031 0.15396424 0.05107934 0.019524025 0.07440807 -0.53846675 -0.047693208 0.10885895
-1.0434504 -0.017464766 -0.6532155 -0.10563257 -1.0392101 -0.7414115 -1.0036095 0.034645807
0.7189332 -0.037920248 0.0229728 -0.038441073 -0.18156713 -0.51762533 -0.021512235 -0.056909647
0.013590324 0.036955386 -0.042153995 -0.10912174 -0.53308195 -0.066222504 0.11931512 0.019742366
0.2812316 -0.06276939 -0.08810943 0.08257632 0.04065555 0.052193224 -0.04650487 0.012164754
0.009971412 -0.16256106 -0.2621924 0.30683956 -0.8808535 -0.39512601 0.26887774 0.15078872
0.4537286 0.7196111 -0.17170642 -1.1032425 0.6838193 -0.21345574 -0.03566277 -0.027286448
-0.055740613 0.53897583 0.19407712 0.3743208 0.0111593865 -0.0021321166 0.08729287 -0.039474174
0.7693438 -0.014848743 0.009272359 0.050875675 0.29760244 0.59635067 -0.01745231 -0.8256988
0.00026199102 0.560185 0.5605829 -0.20795596 0.51363647 -0.051304363 -0.36550888 -0.020677658
-1.4583006 -0.041933198 0.008645258 -0.01384668 0.017159743 -0.009794251 -0.04041467 0.061678816
-0.11902732 0.044587485 0.024002543 -0.089558996 -0.05066263 0.49642527 -0.010703833 -0.40918073
0.020888316 0.089686595 0.025247259 0.032697856 -0.21702959 -0.10408379 -0.9788374 0.16761348
0.30161902 0.10695001 0.019882653 0.2827875 -0.02658038 0.02075241 0.022787007 0.04065762
0.14960845 1.0696669 0.0118145505 -0.039276477 -0.27825144 0.80359286 -0.42697865 -0.15920849
0.007428494 -0.00453297 0.56181765 1.3951689 0.18398535 -0.010970289 -0.2797394 -0.025221962
-0.3642699 0.031164516 0.10140555 0.017563628 -0.06699679 -0.028134398 -0.01564139 0.007699126
1.1599982 0.52032197 0.03116738 0.09282135 -0.43375915 -0.0005184032 -0.60129213 -0.0052360334

bias f4 [6]
00000000: 5810 983d 1b7e d53f 8e51 0e40 2f9d ffbd
00000010: 9765 ef3f 8a1e afbf
0.07424992 1.6679109 2.2237277 -0.12481152 1.8702878 -1.3681195

weight f4 [256, 23]
00000000: 8486 2340 94ec 9840 9db1 9fbe d6a9 b3bd
00000010: aeac 973e b31b 3b3f de0d 12be 6b20 a93e
00000020: 0e72 413e 3e98 083f 066d 133e 0742 9bbd
00000030: 7ac7 d5bc c20f 453d b584 053e dabf 76bd
00000040: 9bb0 ff3c 6ea8 183f 0ec0 74be fccc d1be
00000050: 9b61 003f e44c 5a3d 7e9d c8bd ff58 18c0
00000060: f0c4 78c0 7416 c1be b9a0 ff3e 4bde 39bf
00000070: 72d7 bc3f 41f3 953f f5c7 eb3f f532 d33f
00000080: aa23 943f e54d 2c3e 8e09 95bf 52e5 a73e
00000090: 77c7 92bd 7b3d 1d3f 6767 513e 88a0 0b3d
000000a0: 11c3 97bf d2c5 203e 0a81 98be bdd6 96be
000000b0: 2474 2abf 0c97 babf 4f02 c1c0 fcd3 3cc0
000000c0: 2161 ae3f 56ee 33bf b17d afbf c83f 82bf
000000d0: a0d3 bdbe 79fd 20c0 9097 583c 64f1 833b
000000e0: 022e 3c3d 379e 55be a696 553f 0ee9 693e
000000f0: ed56 e93e 15bd f23d 34bf a4bd 6000 863f
00000100: c212 93bb 44bc b73e f3de 833f 70eb 3fbf
00000110: 15e2 14bf 9abe 7dc0 8c92 dcbf 2607 203f
00000120: 238f 29c0 f8a5 8d3f d620 0c3f d2aa 013f
00000130: 179c 183e 4eef b6be efa9 4e3f 537d e6bd
00000140: 7d1e 943d 185e 92bd 4f42 393c 5802 413d
00000150: 55f8 62bc 0ba6 5e3c 362e d9bc a5fa f9bd
00000160: 72dd 963d 7a2c 703e 921b 4abe 4f77 0bbd
00000170: 230f b5bf 7f4f 9840 c8a5 99c0 a2d5 2b3f
00000180: dd43 0d40 201b 11c0 bbda 0d40 6df1 9abe
00000190: 0355 5c3e 3fa4 103f 934a 38be 29f6 723d
000001a0: b04c 733b 1faa 843d fe3c 2bbd 5143 2d3e
000001b0: 77a9 4bbc 95ae 28be dfd3 3c3d 318a 21bd
000001c0: fbdb 8bbe 6619 0f3f 9540 f0bd cd19 64c0
000001d0: 0650 30c0 ab24 17bf 4eb7 35be 1cde 17bf
000001e0: 0f8d 3e3f 4306 0340 c85c 4e3f 1369 8abf
000001f0: 8900 9c3e 91d0 763e 1829 89be 6d7c 483d
00000200: 9c0a 243f b053 423f 6e06 5a3f 5cc1 643d
00000210: cadf 223e 734b 863d b433 193f 5918 b53f
00000220: 1f30 1e40 7008 b9be a0ea 8ebf f9b4 4e40
00000230: 248d 4dbf f383 f4bd 847c 78bf 612d 593f
00000240: 0d78 0840 960a dfbe 6ca8 76bf 4470 3b3f
00000250: c8a3 bdbe b3f4 d53e 57c4 9ebe 8f79 e8bd
00000260: c7ec fb3d 98d7 343e 4e67 b6be 4c20 113e
00000270: 288b d23f 5c81 14bf d0f0 6c3f 9d94 b43f
00000280: 5af0 a83f 1c69 923f 247b 1840 41f3 383f
00000290: d131 d43f e9f2 053e 84a0 7140 0673 0f40
000002a0: 5f46 90bc 88fc 3cbf 9883 2abf f189 333f
000002b0: af83 f33d eacc 333e adb1 1a3e f3e4 31bf
000002c0: 7d00 36be 24c6 403d 6fec dabf 26cd 153f
000002d0: 044c b6bd 584d b8bf 3b08 3d3e f9a9 113f
000002e0: cbda 19c0 051e 4840 30f1 e13f 252c f03f
000002f0: 89d0 1b3f 61d7 223f 9a8d c63e 9ac8 743f
00000300: dd26 dd3f 04a0 ad3f ee05 ccbf 1831 913f
00000310: 72e6 6cbe 802f 02bf 25d7 4f3e 6e17 3c3e
00000320: 402b 46bd 6a01 f73f 1e08 093f 6a5b 423f
00000330: 11a9 b13f afe4 bebf 4460 7c3e 15b1 96c0
00000340: 348d bf3f e886 12be 383c ca3f 6dad ffbe
00000350: 2d0b 8abe 99a6 8abf 9b46 bc3e 0d22 d1be
00000360: f374 62bf c145 26be 453e 2b3f 1a78 01bf
00000370: c416 223e d896 983e d18a 97be e9ea 37be
00000380: bbae bf3f 601f 6fbf 6355 493d 867e 963f
00000390: 9746 dfbf 5c0d 30bf 6dcc 853f 957e 3740
000003a0: 020f 5e3d 3b94 b3bf 749b 343f 4f23 8f3f
000003b0: 0938 05bf 4e21 a5bf 3b26 293f 9582 023f
000003c0: 0e44 2d3f c94f a5be 3efc 5abe 2458 e1bd
000003d0: c81e 80bd 1915 cebd 1bf9 d53c 9c28 7a3f
000003e0: bf2e a2bb dc15 1b3f cbe1 ef3e f8ea 3f3e
000003f0: 1fbf 573f 6cfc 23c0 8f24 3540 fbb6 c43e
2.5550852 4.778879 -0.31190196 -0.08772628 0.29623932 0.7308914 -0.14263102 0.33032545
0.18891165 0.53357303 0.14397058 -0.07580953 -0.026096094 0.04811073 0.13038905 -0.060241558
0.031212142 0.59632003 -0.23901388 -0.40976703 0.50148934 0.053295985 -0.09795664 -2.380432
-3.88702 -0.37712443 0.4992731 -0.7260482 1.4753249 1.171486 1.8420397 1.6499926
1.1573384 0.1682659 -1.1643541 0.32792145 -0.07166951 0.61421937 0.20449601 0.03408864
-1.1856405 0.15700462 -0.2978595 -0.29460707 -0.66583467 -1.4577346 -6.031532 -2.9504385
1.3623391 -0.70285547 -1.3710233 -1.0175714 -0.3707552 -2.5154707 0.013219729 0.0040265787
0.045942314 -0.20861135 0.83432996 0.2284281 0.45574132 0.11852471 -0.080442816 1.0468864
-0.00448832 0.35885823 1.0302414 -0.74968624 -0.58157474 -3.9647584 -1.7232223 0.6251091
-2.6493614 1.1066275 0.54737604 0.50651276 0.14903294 -0.3572945 0.8072805 -0.112543724
0.07232378 -0.07146853 0.011307313 0.047121376 -0.013853152 0.013589392 -0.026511293 -0.1220601
0.07366456 0.23454466 -0.1973708 -0.03404933 -1.4145244 4.759704 -4.801487 0.6712285
2.207267 -2.2672806 2.2164752 -0.30262318 0.21516804 0.5650062 -0.17997198 0.059316788
0.0037124567 0.064777605 -0.041806214 0.1692021 -0.01243054 -0.16472848 0.046100494 -0.03943843
-0.2731627 0.5589813 -0.11731068 -3.5640748 -2.7548842 -0.59040326 -0.17745706 -0.59323287
0.7443399 2.0472572 0.8061032 -1.0813316 0.30469158 0.24103 -0.26789165 0.048946787
0.6407869 0.75908947 0.8516606 0.055848464 0.15905681 0.065573595 0.5984452 1.4148055
2.471687 -0.3613925 -1.1165352 3.2297957 -0.8029349 -0.1193923 -0.97064996 0.8483487
2.1323273 -0.43562764 -0.9635074 0.7321818 -0.37039018 0.41788253 -0.3100917 -0.113513105
0.12301021 0.17660367 -0.3562569 0.14172477 1.6448717 -0.58009887 0.9255495 1.4107853
1.319835 1.1438327 2.382516 0.72246176 1.6577703 0.13080944 3.775422 2.2413955
-0.01761168 -0.7382283 -0.66607046 0.70132357 0.11890351 0.17558637 0.1510684 -0.69489974
-0.17773624 0.04706396 -1.7103404 0.58516157 -0.089012176 -1.4398603 0.18460171 0.5689998
-2.403979 3.1268322 1.765173 1.8763472 0.60865074 0.6360989 0.38779908 0.95618594
1.7277485 1.3564458 -1.593931 1.1343107 -0.23134783 -0.5085373 0.20296915 0.18368313
-0.04838109 1.9297307 0.5352801 0.75920737 1.387972 -1.4913539 0.24646097 -4.7091165
1.4964967 -0.14309275 1.5799627 -0.49937 -0.2696165 -1.0832092 0.36772618 -0.4084629
-0.884597 -0.16237547 0.6689189 -0.50573885 0.15828997 0.29802585 -0.29598096 -0.17960705
1.4975199 -0.9340725 0.049153697 1.1757362 -1.7443417 -0.68770385 1.0453011 2.867101
0.05421353 -1.4029611 0.705497 1.118265 -0.5203863 -1.2900789 0.6607396 0.509805
0.6768197 -0.32287434 -0.21385285 -0.110031396 -0.06255871 -0.10062618 0.02611976 0.97718215
-0.00494942 0.6058023 0.46851954 0.18741977 0.84276 -2.5622816 2.8303564 0.38420853

bias f4 [256]
00000000: b0e0 8c40 e334 46c0 fa9f 673f 37ae a340
00000010: 9a68 5940 4bed ddbf b3ab 993f 21d2 0f40
00000020: 08ac 43bf 8f2f 02c0 a200 4bbf 7c30 9c3f
00000030: 5cb1 8940 1c6a 1dbf 6d24 9ebf e3de 64be
00000040: 27c5 4fbf 5719 e2be 55d8 02bf c8d9 93bf
00000050: 1ce1 05bf af6d 553f 4e22 a9bd 80cc 18c0
00000060: fe61 8fbf d7ea 42bf e892 27c0 bf40 9cbf
00000070: f393 61bf 9f35 0fbe 20ef febf 5889 a13f
00000080: c028 83c0 31ef 33c0 dc4a 8dbf 75d7 b040
00000090: f458 8140 b8ef 31bf 0daf 253d b856 1b3f
000000a0: 8e8f a13f 158d c73e c1fb 65bf b3ec 00c0
000000b0: f4a8 84bf a67a 9ebd 47f7 56bf 42ca acbf
000000c0: 74ff 0bc0 b121 333b 7b42 79bf 5ef7 b240
000000d0: 38ae c740 2f03 4ac0 064a c5bf ae19 abc0
000000e0: f894 293e ff53 b63f 67ee 983e 0b82 22c0
000000f0: 8d5a dcbf 4afa 45c0 8e9e 6ac0 2401 3840
00000100: d6a3 cebf d832 a2be 5861 f13f e130 a5bc
00000110: 1d5e 7fbf 8a54 46be 3222 c53e 3661 c03e
00000120: 515f 9b3e faff 8c40 160a 47c0 d1ef 07c0
00000130: f8e9 53c0 8eda 5ac0 de75 5b3e 213e 7fbf
00000140: 11a0 7f3e 0cb8 eabf 7ee0 22c0 c97e 763e
00000150: 9347 e8bf 9fd2 1bbe 62a4 a03f 0db8 f53e
00000160: e772 96bf 88a9 b43f ea9a 2ebe 5b6b 03c0
00000170: e0e5 cdbd d61e 72c0 3740 4b3f db0e 04c0
00000180: efed e93f 9732 2dc0 989d 8cc0 6495 64be
00000190: 4525 8d40 c081 bac0 4fc4 88bd f50e 75c0
000001a0: cc5a 82c0 35ed 8f40 5b8f 7ac0 0839 d9be
000001b0: 68d1 fcbe d8bc b340 f786 13c0 9f98 b6be
000001c0: 065c ccbf 216a b4bc 6172 8dbe dd80 25c0
000001d0: 259a 8fbf b8bf 0b40 be07 a1bf 73f6 ab3d
000001e0: 9342 c13e 8d9d b3bf ac32 b2bf fe0c e1bf
000001f0: b0be 863f d00b 95bf 6301 be40 c292 183f
00000200: 2e8a 9f3f 0084 093f 6bfb 75bf ef72 fc3e
00000210: ae1e f4bd 1fb5 20c0 691e e6bf 82a2 fcbf
00000220: 6c0f 42be 6d3d 80be 55af 8cc0 9470 c83d
00000230: 0a81 22c0 106f 1ebe 4acf 06c0 d14c 9fbe
00000240: ad17 50bf ba0d fcbf 6dcf 66c0 025a 4fc0
00000250: 6c74 1cc0 111b 5440 390a a7bf e20a 8640
00000260: 4ec6 473f f5b9 e2bf 3177 b5bf 9620 9ebf
00000270: f45e 2bc0 760b af3e a8eb 30c0 2db1 95bf
00000280: ccb6 73c0 8c37 63c0 e1cd e040 afb0 0ec0
00000290: 0cef 4340 b273 a1be bc43 debf 7b4a 7f3f
000002a0: 0979 acc0 7b92 a13d 0dd3 a2bf ea44 5d3f
000002b0: 6474 b6bf 92e4 c23f 31d7 1540 5f32 4d3f
000002c0: b33d b4c0 42bf bdc0 f9e3 adbf 9601 0f40
000002d0: 8e2f 4a40 41cb 84c0 4eaa b1bf 685a 62bf
000002e0: 8094 47bf 0156 10c0 3501 8340 a94d 87bf
000002f0: beef 98bf 7ad5 43c0 cc33 9c3f 4c97 473e
00000300: 13ae 753e c1ac 93c0 2d9a dcbf baad 8b40
00000310: 6bc5 f7be 6ef0 763f 53fa ba3d bb28 0140
00000320: 5528 5b3f 8595 a9bf 1064 2cc0 a0b7 d8bf
00000330: aa9a 8940 0b9e 1dc0 b838 4abe a149 173f
00000340: 7696 71bf 4e25 f8bf b1a7 02c0 02ef 08c0
00000350: 2114 af3f adbd 0c3e 093d 05c0 9561 1cbf
00000360: a32d 1bc0 d64d 7fbf fe25 3cbf 84b6 84c0
00000370: 45dd 91c0 0719 0fc0 685e 7ac0 1807 c13f
00000380: 91d0 6640 42e5 9a3e ba3b cdbe 8dab ccbe
00000390: 1862 acbf 1b3d 6bbd 19ec 24c0 1da9 9240
000003a0: 26d1 a140 8beb 973f 6591 f4bf 6696 803f
000003b0: 46b3 933e 47b1 b840 c8c1 673e 5ace 89c0
000003c0: c264 37c0 a0a6 69c0 b405 8f40 1ea3 5dbe
000003d0: 744a 9e40 492c 4ec0 83b7 71bf b587 a6bf
000003e0: 8c0e 653f b915 a63f c1c4 bd3f 1e19 03bf
000003f0: 2f66 89c0 3e78 e93e fe64 8abf 77aa 893e
4.4024277 -3.096978 0.9047848 5.1150165 3.3970094 -1.7338041 1.2005523 2.2472003
-0.76434374 -2.0341527 -0.7929784 1.2202296 4.3029003 -0.61490035 -1.2354866 -0.2235065
-0.81160206 -0.44159958 -0.51111346 -1.1550837 -0.52296615 0.8337049 -0.08258496 -2.3874817
-1.120178 -0.7613959 -2.6183414 -1.2207259 -0.8811638 -0.13985299 -1.9916725 1.2620039
-4.0987244 -2.811474 -1.103847 5.526301 4.0421085 -0.69506407 0.040450145 0.606792
1.2621934 0.38974825 -0.8983727 -2.014447 -1.036406 -0.07738237 -0.83971065 -1.3499224
-2.1874666 0.0027333314 -0.97367066 5.592696 6.240017 -3.1564443 -1.5413215 -5.3468847
0.16560733 1.4244384 0.29869387 -2.5391872 -1.7215134 -3.0934014 -3.6659274 2.8750696
-1.6143749 -0.31679416 1.8857832 -0.020164909 -0.9975298 -0.19368187 0.3850265 0.37574166
0.30346158 4.406247 -3.1099906 -2.1240122 -3.3111553 -3.4195895 0.21431682 -0.99704176
0.24963404 -1.8337417 -2.544952 0.24071802 -1.8146843 -0.15217064 1.2550166 0.47991982
-1.1753815 1.4114237 -0.17051283 -2.0534275 -0.10053611 -3.783132 0.7939486 -2.0634067
1.8275737 -2.7062128 -4.3942375 -0.22322613 4.4107995 -5.8283386 -0.06678068 -3.829038
-4.0735836 4.497706 -3.9149997 -0.42426324 -0.49378514 5.616802 -2.3051126 -0.35663316
-1.5965583 -0.022023262 -0.27626327 -2.5859902 -1.1218916 2.1835766 -1.2580488 0.08396616
0.37746105 -1.4032456 -1.3921714 -1.758209 1.0526943 -1.164423 5.9376693 0.59598935
1.2464044 0.5371704 -0.9608676 0.49306437 -0.11919914 -2.5110548 -1.797803 -1.9737093
-0.18951195 -0.25046864 -4.396403 0.097870976 -2.539126 -0.15472054 -2.106402 -0.31113294
-0.81286126 -1.9691689 -3.6064103 -3.2398686 -2.4446058 3.314152 -1.3049995 4.1888285
0.78036964 -1.7713 -1.4176999 -1.2353694 -2.6776705 0.34188432 -2.7643833 -1.1694695
-3.808032 -3.5502653 7.0251317 -2.229534 3.0614653 -0.3153358 -1.7364421 0.99723023
-5.389775 0.07889267 -1.2720658 0.8643328 -1.425427 1.5226004 2.3412592 0.80154985
-5.6325316 -5.929597 -1.3585197 2.2344718 3.1591525 -4.1498113 -1.3880098 -0.884192
-0.7796097 -2.2552493 4.0938973 -1.0570575 -1.1948164 -3.0599046 1.2203307 0.19491309
0.23992185 -4.614838 -1.7234551 4.364957 -0.48392805 0.96460617 0.09129777 2.018111
0.85608417 -1.3248755 -2.6936073 -1.6931038 4.30013 -2.4627712 -0.19748199 0.59096724
-0.9437021 -1.9386384 -2.041485 -2.1395879 1.3678018 0.1374423 -2.0818503 -0.610864
-2.4246604 -0.99728143 -0.7349547 -4.1472797 -4.5582604 -2.2359025 -3.912012 1.508029
3.60648 0.30253035 -0.4008463 -0.39974633 -1.3467436 -0.05743132 -2.5769103 4.5831437
5.056781 1.1868757 -1.9106871 1.0045898 0.28847712 5.7716403 0.22632515 -4.3064394
-2.8655248 -3.650795 4.469446 -0.21644256 4.9465885 -3.221453 -0.9442064 -1.3010164
0.8947532 1.2975379 1.482567 -0.512102 -4.2937236 0.4559955 -1.081207 0.26887867

weight f4 [256, 256]
00000000: d534 67c0 1226 85bf 1f42 873f 7fb2 353f
00000010: a63d dbbe 9661 883e 4db2 56bf 6ca8 7a3e
00000020: df20 e4bf 92c2 e13f a648 82bf 2ebd 2dbf
00000030: c23f 8cbf 3615 b2bf 0bdb 3abf c423 3e3f
00000040: c20d af3f 9539 a03f a08c 3abf 3aff afbf
00000050: b70b 01c0 ba3d 4d3e 8669 6d3f 1683 693e
00000060: a184 0dbf 9fe8 bdbe 28b2 08c0 6983 e7be
00000070: 87fa 37c0 e8a2 c4be 1a72 78bf 7836 26bf
00000080: 5c31 3b3f 1d65 8cbc ae0c 933e ce38 a03e
00000090: 5852 f03e ad12 a13f 0e08 9d3f fd7c ce3e
000000a0: 0330 803f 08fc 3cbf 86c5 98bf edfd 93be
000000b0: 3680 18c0 89ca 88bf c5c7 1fbd 06ea ed3e
000000c0: faa9 f2bf a0fd ae3f bfe9 08bd dee6 293e
000000d0: 5d0b 343e cf00 e43e c784 fcbe 2a23 a3bf
000000e0: 16b0 5fbe 9c40 afbf 6823 64bf 548f 75bf
000000f0: 94a3 15be 2529 5e3f e81b 823f 1c05 50bd
00000100: ff6a 1dc0 b893 09bf a94c cbbf fcf4 80c0
00000110: ffd3 dcbe ec90 ddbf 4f63 18c0 de4a 71bf
00000120: 2410 4e3f 2bc4 c43e e2f0 aabf 9730 5d3f
00000130: ad54 adbf 6207 fabe ae40 2dbe deb5 a53f
00000140: b937 9dbe 822a b23e 4e46 0fbf 91d9 7a3f
00000150: 4900 a3be aebf 9b3e 405c ca3e cd66 823f
00000160: 572f 4abf 1bd3 fdbd bc97 cfbf 4d9c 16c0
00000170: 62e0 3b3f 955d 9bbe 1172 963f 4b6e c9bc
00000180: c7b2 30bf 83ad 07be ce9b b13e 2bc1 2d3f
00000190: b300 76bf a934 573e b8a2 61bf 5f42 1abf
000001a0: 38d0 3c3f 4b30 423f c79e b3be bc21 203f
000001b0: 03ab 3e3f c199 3bc0 1fe0 8dbf 54c7 0ebf
000001c0: 10e2 9dbf b69c babf 2a8e e83d 7ffa 2dbf
000001d0: c234 7c3f 191f 17bc 960b 30bc a501 78bf
000001e0: 8ab5 a73e cea5 55bf a22f 2e3f b8b3 32bf
000001f0: 1823 3ebf 525a 8bbf bdea 3c3e bf93 bdbc
00000200: b455 da3f 83ee f03e 40fc 54bf 3661 b4bf
00000210: 0467 323f 7066 24c0 28fa 153f 8304 f73e
00000220: 42f8 0440 4b43 bfbf 48f6 403f 150d 19bd
00000230: e9cf 8c3f 281c 25bc dfff 25be 4c8e bf3e
00000240: a54d 37bd bb75 973e 9acf 0cbf fd69 253f
00000250: 8b43 44c0 1a18 2d3f 10e1 ba3e eea3 ca3f
00000260: f1ba 093f 38c4 7dc0 11c9 e0c0 380a 6ebf
00000270: 192b f63e 1500 d6be 7e79 d33e 59ba 15bd
00000280: ac01 acbf 89bd a3be 6415 013f c83f ef3f
00000290: 8103 31be af76 013f ea05 e13e 1534 9d3f
000002a0: 6321 723f 3e9b 473e 0ada a9bf 6bc6 c2be
000002b0: fe72 c6bf 894d a0be d262 6e3f 8d77 393f
000002c0: e76f 45bf cb6c 173e 6117 81bd 1d4a ba3d
000002d0: d7f0 5bbf 5176 0840 3e71 c1bf a24a 5d3f
000002e0: e5d5 9ebf d35a e03f 4ba1 a83d ed62 7abb
000002f0: e76b 723f dbda 1f3e e198 1e3f 1104 13be
00000300: 1817 cc3e ffe2 8a3f 9777 d2be 9f25 9ebf
00000310: daf7 e0bf a52d 8ebf f6ad 1d40 a151 b6be
00000320: 757d 71bf 2124 2d3d 3c34 933f 31e0 2a3f
00000330: 1743 493e 1a63 acbf d458 b1bd 71c6 92bd
00000340: a013 643e 3a62 dc3f 0de9 0dbf c0b3 623f
00000350: 2e7d 663d cbfe f9bf cbab 9cbe 6584 043d
00000360: 0edd bc3f b9ba 4c3f 1af8 023f 9256 d6be
00000370: da0c 2ebf 10ec 16c0 2e0e 493f 5ed1 db3f
00000380: 42c5 65c0 590e 883e b68c 6e3f 9034 27c0
00000390: eac8 883e d26e 823f 0817 c03e 3755 353f
000003a0: 1c43 823e 20b8 033f 3fd7 03bd f2c3 bc3c
000003b0: c6a5 d7be 09f6 4c3e 6d5d adbf 5f6c 40be
000003c0: fa7e 263d 4389 0d3f 499b 0fbf 1306 c0bf
000003d0: 4217 0cbd 0f59 5dbf 1d91 913e 5b55 9dbf
000003e0: 2b04 e3be bd1d 473f ce5a 06c0 ae50 01bf
000003f0: 6685 703e eb97 163f e147 67bf 9578 ccc0
-3.6125996 -1.0402243 1.0567054 0.7097549 -0.42820472 0.26636952 -0.83865815 0.2447831
-1.7822531 1.7637503 -1.017842 -0.6786679 -1.0956957 -1.3912723 -0.72990483 0.74273324
1.3676074 1.2517573 -0.72870827 -1.3749764 -2.01634 0.20043078 0.9273914 0.22803912
-0.552805 -0.37091538 -2.1358738 -0.45217445 -2.874666 -0.38405538 -0.97049105 -0.6492686
0.7312219 -0.017138058 0.2872061 0.3129334 0.46937823 1.2583824 1.2268083 0.40329733
1.0014652 -0.7382207 -1.1935279 -0.28904667 -2.3828254 -1.0686809 -0.039008874 0.46467608
-1.8958123 1.367115 -0.033426043 0.16591975 0.1758246 0.44531867 -0.4932005 -1.2745106
-0.21844515 -1.3691592 -0.89116526 -0.95921826 -0.14613181 0.8678153 1.0164766 -0.050786123
-2.4596555 -0.53741026 -1.588277 -4.0299053 -0.4313049 -1.7309852 -2.3810613 -0.94254863
0.8049338 0.38430914 -1.3354762 0.8640227 -1.3541466 -0.48833758 -0.16919205 1.2946126
-0.30706576 0.34798056 -0.5596665 0.9798823 -0.31836155 0.30419677 0.39523506 1.0187622
-0.78978485 -0.12393781 -1.6218181 -2.3532898 0.73389256 -0.30344835 1.175356 -0.024588725
-0.6902279 -0.13249783 0.34689182 0.67872876 -0.96094817 0.21016182 -0.88138914 -0.60257524
0.73755217 0.7585494 -0.35082075 0.62551475 0.74479693 -2.9312594 -1.1084021 -0.557729
-1.2334614 -1.4579074 0.11355241 -0.6796035 0.98518 -0.009223723 -0.01074495 -0.9687751
0.3275569 -0.8345612 0.6804143 -0.6980548 -0.742723 -1.0886939 0.1844892 -0.02314174
1.7057405 0.4705697 -0.831974 -1.4092166 0.6968844 -2.5687523 0.58584833 0.4824563
2.0776525 -1.4942411 0.75375795 -0.03736599 1.1000949 -0.010077514 -0.16210888 0.3741325
-0.044751782 0.2958201 -0.55004275 0.6461485 -3.0666225 0.676149 0.36499834 1.5831277
0.53800875 -3.9651012 -7.0245442 -0.9298434 0.48079756 -0.41796938 0.4130363 -0.036554668
-1.343801 -0.3198054 0.50423265 1.869134 -0.17286493 0.5057172 0.43949825 1.2281519
0.94582194 0.19492814 -1.3269665 -0.38042006 -1.5503843 -0.31309155 0.9311954 0.72448045
-0.77123874 0.14787595 -0.06303287 0.09096167 -0.8591437 2.1322215 -1.5112684 0.86442006
-1.2409025 1.7527717 0.08233889 -0.0038205937 0.94695896 0.1561083 0.61952025 -0.1435702
0.3986137 1.0850524 -0.41106865 -1.2355231 -1.7575638 -1.110768 2.4637427 -0.35609153
-0.9433206 0.042270783 1.1500316 0.6674834 0.19654499 -1.3467743 -0.08659521 -0.07166756
0.22273111 1.7217476 -0.5543373 0.88555527 0.056271724 -1.9530882 -0.30599818 0.032352824
1.475496 0.79972416 0.5115982 -0.41862923 -0.6798836 -2.358158 0.7853726 1.7173269
-3.5901647 0.26573446 0.9318346 -2.6125832 0.26715785 1.019007 0.3751757 0.7083315
0.25441825 0.5145283 -0.032187697 0.023042653 -0.42118663 0.2001573 -1.3544136 -0.1879134
0.040648438 0.5528757 -0.5609632 -1.5001854 -0.034201868 -0.8646402 0.28431025 -1.2291673
-0.44339117 0.7777975 -2.0992923 -0.5051373 0.23488387 0.5882556 -0.90344054 -6.3897195
