data/PrioritizedDDPG/HalfCheetah-v2/prioritized_ddpg_s29525/pyt_save/model.pt (torch_old, 581199 bytes, 11 tensors)

weight f4 [256, 17]
0.4579175 -1.9020848 -0.32192954 2.522232 1.3003759 1.1159054 1.9185748 1.0923105
-3.0954099 -3.1790204 1.3319513 -0.0010422503 0.18253788 -0.013829959 -0.24953872 -0.1975362
-0.30037096 3.8096743 1.1549171 -0.9703569 -1.2948674 -0.047407564 1.2016313 -0.96050984
0.80323654 -3.0180573 0.92923236 0.38625464 0.3696815 0.23090248 0.011745025 -0.02061214
-0.2967391 -0.010951759 -3.0874455 4.4078016 4.56141 5.0838966 -0.8162653 2.5688367
0.91447926 2.0372686 1.2332408 -1.2486554 -1.2256678 -0.39989245 -0.29969925 -0.2353615
-0.31061912 -0.047674976 -0.17917807 4.446232 -1.2138504 -1.7447028 0.53873485 -1.2722076
0.55174553 2.2046154 0.7845641 -3.0662408 -0.04122931 -1.0375948 -0.6171939 -0.33640033
0.115323775 0.28655353 0.27890736 -0.16921872 -6.391433 0.8612154 -6.4406915 3.6423743
-4.1305485 -1.6003475 0.678505 1.0391947 0.6351468 -0.5241658 0.13125387 0.0728671
0.106193125 -0.19767022 0.34624264 0.14427942 0.34371915 1.3660578 -1.5422038 2.1264453
3.3113027 -3.582035 -1.274213 -3.7802634 0.87460995 -2.0806775 -0.071240634 0.79274106
0.22568214 0.24108586 0.0027869798 0.25956777 0.050723545 0.117232524 -4.0155487 -1.1406479
-1.4383854 1.5694454 0.03531734 4.576826 1.307065 0.93389326 -0.42473337 -0.086746626
0.42880064 0.5249175 0.4516622 0.43351966 -0.31200087 -0.2621571 -0.11864844 -2.6774583
-0.8487406 -7.8311076 0.88253367 -1.1954901 0.24381909 2.4340105 1.0940528 -1.1054555
3.1603622 1.5636706 0.48455527 0.37529096 0.011722412 -0.24327934 0.27660728 0.059911866
0.031189756 -0.77362263 0.5318038 4.0690093 -1.9027507 -1.6939982 -1.2347962 1.4125808
-2.071432 -1.4393425 0.68731415 -0.058684167 -0.010540067 0.1954686 0.017495606 -0.07277117
-0.26743665 8.419212 -1.6782831 0.46087572 -3.0293431 1.167849 6.213952 1.903067
1.0324168 -0.75410354 0.7526263 -1.1921437 -0.43190792 -0.23584 -0.1413094 0.30887157
0.06498548 0.25726548 12.267964 -3.7892692 -3.1565568 0.5858261 -1.2294695 1.7897427
1.5543844 0.09338012 0.9237421 -1.123207 -0.115804635 0.60164636 0.5629492 -0.0941736
-0.20298746 -0.15143515 -0.009246001 -3.477803 2.5015562 -2.2574468 4.1112995 -3.388344
-0.5080227 2.953391 4.2082796 -1.1204345 1.746819 -1.4759518 0.37902337 0.1360379
-0.063935444 -0.17792773 -0.22473262 0.13926186 0.3774357 0.20683518 -0.31093267 4.625652
-0.20105845 -6.902125 -0.97757363 1.0428655 -2.5196123 -1.0123131 -1.1160965 -0.2093336
-0.22464791 0.29664794 0.39737713 0.037233822 0.34129757 -0.7086751 -0.81983405 -2.3638625
-1.6088562 -0.73149467 -0.60459733 -1.2471869 -0.2971912 -3.303539 2.1951947 0.8533097
0.5912069 0.101155125 -0.18169792 0.4981384 -0.10239672 -0.13763098 4.5818024 -2.3199265
1.8105463 -1.987797 -0.5055416 -4.871545 -1.2913827 -0.06025621 -3.4199657 1.342999
0.39329275 0.047201823 0.5543793 0.4018829 0.32967418 -0.6470912 0.068803184 0.46201444
00000000: 2a74 ea3e 8477 f3bf f3d3 a4be 406c 2140
00000010: b872 a63f fdd5 8e3f dc93 f53f d5d0 8b3f
00000020: 321b 46c0 1275 4bc0 617d aa3f 1e9c 88ba
00000030: 36eb 3a3e 0d97 62bc 1487 7fbe ee46 4abe
00000040: 39ca 99be b4d1 7340 53d4 933f 4f69 78bf
00000050: 37be a5bf 6f2e 42bd 0ecf 993f f9e3 75bf
00000060: e9a0 4d3f da27 41c0 2ce2 6d3f 2bc3 c53e
00000070: e546 bd3e b371 6c3e 356e 403c cada a8bc
00000080: 30ee 97be 026f 33bc b598 45c0 b60c 8d40
00000090: 12f7 9140 48af a240 c3f6 50bf d267 2440
000000a0: 501b 6a3f 9c62 0240 d6da 9d3f f1d3 9fbf
000000b0: afe2 9cbf b4be ccbe 2e72 99be 9b02 71be
000000c0: 7809 9fbe d646 43bd 757a 37be 8847 8e40
000000d0: 735f 9bbf 6c52 dfbf 87ea 093f b3d7 a2bf
000000e0: 323f 0d3f 6b18 0d40 31d9 483f 4a3d 44c0
000000f0: 11e0 28bd e8cf 84bf 6b00 1ebf aa3c acbe
00000100: df2e ec3d 25b7 923e f2cc 8e3e ac47 2dbe
00000110: 9e86 ccc0 9d78 5c3f 251a cec0 a91c 6940
00000120: 742d 84c0 30d8 ccbf 81b2 2d3f 5504 853f
00000130: fb98 223f bb2f 06bf 6a67 063e 593b 953d
00000140: c87b d93d 106a 4abe b746 b13e fcbd 133e
00000150: f5fb af3e fbda ae3f ef66 c5bf ae17 0840
00000160: 62ec 5340 1040 65c0 6919 a3bf d6ef 71c0
00000170: 70e6 5f3f d229 05c0 9ce6 91bd 14f1 4a3f
00000180: 3819 673e 36df 763e c3a5 363b 11e6 843e
00000190: 7ec3 4f3d 9b17 f03d 607f 80c0 c000 92bf
000001a0: 031d b8bf 96e3 c83f eaa8 103d 5c75 9240
000001b0: e84d a73f a113 6f3f a776 d9be 37a8 b1bd
000001c0: c28b db3e fe60 063f 4540 e73e 4af6 dd3e
000001d0: 94be 9fbe 7539 86be f4fd f2bd 7a5b 2bc0
000001e0: 1047 59bf 6f98 fac0 baed 613f d205 99bf
000001f0: b6ab 793e d4c6 1b40 ec09 8c3f 917f 8dbf
00000200: 6043 4a40 5c26 c83f a117 f83e 2326 c03e
00000210: 5c0f 403c 381e 79be 789f 8d3e 2566 753d
00000220: a981 ff3c 220c 46bf 4b24 083f 5335 8240
00000230: 568d f3bf efd4 d8bf cd0d 9ebf 73cf b43f
00000240: 5892 04c0 603c b8bf d2f3 2f3f cf5e 70bd
00000250: 3fb0 2cbc ec28 483e f252 8f3c 0d09 95bd
00000260: 75ed 88be 18b5 0641 fbd1 d6bf e7f7 eb3e
00000270: c2e0 41c0 137c 953f b2d8 c640 b397 f33f
00000280: 3c26 843f ee0c 41bf 1eac 403f 2a98 98bf
00000290: 0923 ddbe 0a80 71be 69b3 10be 6a24 9e3e
000002a0: 1b17 853d 4db8 833e 9549 4441 6383 72c0
000002b0: 0705 4ac0 b3f8 153f 425f 9dbf 4a16 e53f
000002c0: 11f6 c63f 143e bf3d 5d7a 6c3f 3fc5 8fbf
000002d0: fb2a edbd 7f05 1a3f 701d 103f 17de c0bd
000002e0: f2db 4fbe d111 1bbe 8a7c 17bc 5394 5ec0
000002f0: 7f19 2040 027a 10c0 c48f 8340 a1da 58c0
00000300: c70d 02bf 5c04 3d40 3aaa 8640 666a 8fbf
00000310: c497 df3f fdeb bcbf 5a0f c23e 854d 0b3e
00000320: 96f0 82bd b032 36be 4f20 66be a99a 0e3e
00000330: 413f c13e 9acc 533e 9132 9fbe 5705 9440
00000340: 44e2 4dbe 35de dcc0 4442 7abf 9e7c 853f
00000350: 5441 21c0 7a93 81bf 40dc 8ebf 8c5b 56be
00000360: 1a0a 66be 3de2 973e 0475 cb3e 7e82 183d
00000370: 8ebe ae3e bb6b 35bf a5e0 51bf 8649 17c0
00000380: 00ef cdbf 3c43 3bbf e4c6 1abf d2a3 9fbf
00000390: 7229 98be 2f6d 53c0 127e 0c40 8172 5a3f
000003a0: 5659 173f 6b2a cf3d 050f 3abe ff0b ff3e
000003b0: 5fb5 d1bd 23ef 0cbe 209e 9240 ad79 14c0
000003c0: fbbf e73f 2270 febf 2d6b 01bf b2e3 9bc0
000003d0: 074c a5bf 37cf 76bd b8e0 5ac0 64e7 ab3f
000003e0: ab5d c93e b356 413d cdeb 0d3f 98c3 cd3e
000003f0: 0ecb a83e c5a7 25bf afe8 8c3d 288d ec3e

bias f4 [256]
-0.040775847 -5.238831 5.493584 -4.949348 1.2814332 -1.4122057 6.636346 -2.175825
-2.7336252 1.2155637 4.630576 -0.8785798 -0.14696227 -4.8284893 -0.59897584 4.1232452
4.2290134 -3.0161 -3.3527513 3.444849 -3.359889 2.8866098 -5.584965 -3.0224004
-2.8511705 -5.642995 6.656849 -1.6070904 -4.644713 -3.6247423 -3.8026772 -0.9580151
-1.9749069 3.0791638 -3.3433278 -2.8565187 -2.1204908 -2.2646735 -5.254869 -2.8403828
-3.2050319 -4.35235 -1.8119447 2.91549 2.4014485 -4.2284665 -4.2683506 0.16896844
-3.3620708 -4.3566136 -5.3876963 -1.1821063 -3.0403912 -5.171218 -2.6100576 -2.477174
0.5568713 -2.4685564 2.4310338 -0.82161516 -2.9467125 0.19138613 -3.652189 -2.2315814
3.180603 -4.1762285 -3.6545002 -4.442608 -0.30577785 -1.4175036 -3.9694238 -4.2887096
-3.5087278 -1.5232614 -4.793785 -2.3376503 -1.6649064 3.3234117 -0.8685923 -2.1806405
-0.5412331 -1.3261698 2.025129 -1.924812 -1.7413723 -2.744728 1.008253 -3.4058864
-2.812057 -3.0622427 0.61124694 0.3654091 -3.8759758 -4.6591988 -1.990923 -1.7006019
-0.7615952 -3.8282259 -4.872519 -3.5942144 -0.4757981 -4.2422357 -3.9110186 -3.2684295
-5.4772396 -2.2121286 -1.2582165 -3.9966142 -3.0074701 -3.0585315 -4.1379156 -4.271564
-3.681241 -3.0967414 -5.012568 -3.6279407 -0.99805117 -5.2463303 -4.8679767 -1.2298275
-5.6802273 6.130812 -1.3275634 -4.594101 2.7378147 -2.1555943 -0.96809745 -4.517083
-4.2920055 -4.576013 1.1265571 -2.675104 -3.2519734 -2.816813 -3.923695 -4.8747277
-4.1194854 2.5388107 -3.2898202 -0.5130331 -1.1456412 -1.8872808 -2.4463096 2.2780356
0.9328566 -4.0625176 -0.82379484 -1.2901186 -2.8426557 -3.6315897 -4.290284 0.5862485
-0.39997295 -2.293504 -3.644479 -3.5104039 -3.801405 -4.142086 -3.4996436 -2.722253
-4.3893414 -4.2301803 -0.679645 0.16555597 0.10126226 -3.6072903 -1.5890428 -4.0555553
2.929547 -3.4188962 -2.9727018 -5.6818 -3.9909668 -3.5736487 -4.577435 -1.2655026
-4.7996955 -1.8222724 -2.4566228 2.394425 -3.3538275 -3.6140683 -2.2218785 -2.448289
3.653294 -2.7275572 1.0445124 0.9477819 -0.94889164 2.6715026 3.385357 4.729478
-2.8435998 -2.3904526 0.20252351 0.97604275 -1.7827697 -0.55998665 2.698749 -3.8120003
-3.3415773 -2.4101574 -4.0785923 -3.130552 -0.38326624 -4.643377 -3.0991793 4.694267
-2.278001 -3.8598344 -2.6303506 -3.5658238 -4.0462623 -4.0134444 -3.4754608 -3.9873219
-2.923266 -3.2053416 -2.4439404 -2.5552716 -4.1878066 -3.377929 1.4328605 -1.7770594
-5.18885 -0.8850637 2.7923954 -3.093141 -4.669451 5.381615 8.92235 0.08251498
-2.5732546 -2.6216748 4.439819 -0.54655135 -4.4050817 -4.281339 0.3656594 -4.189907
-2.9783068 -5.08084 3.4121692 7.219672 -3.4354014 -0.1996763 -1.5463537 -3.1500993
-2.2709935 0.89969635 -3.5276833 -4.505638 -2.0562396 0.9030514 -0.7062359 0.93418264
00000000: 9304 27bd 81a4 a7c0 71cb af40 0f61 9ec0
00000010: 0106 a43f 28c3 b4bf f25c d440 b840 0bc0
00000020: b7f3 2ec0 9797 9b3f ae2d 9440 9bea 60bf
00000030: 477d 16be fc82 9ac0 7b56 19bf a0f1 8340
00000040: 1454 8740 c807 41c0 7a93 56c0 6878 5c40
00000050: 6c08 57c0 37be 3840 09b8 b2c0 026f 41c0
00000060: 9479 36c0 6a93 b4c0 e804 d540 23b5 cdbf
00000070: 7da1 94c0 c7fb 67c0 105f 73c0 7a40 75bf
00000080: c0c9 fcbf 0511 4540 15f9 55c0 34d1 36c0
00000090: 1fb6 07c0 69f0 10c0 e327 a8c0 d5c8 35c0
000000a0: 3e1f 4dc0 7446 8bc0 ceed e7bf 6397 3a40
000000b0: 55b1 1940 994f 87c0 5496 88c0 1006 2d3e
000000c0: 2b2c 57c0 6169 8bc0 0268 acc0 424f 97bf
000000d0: c595 42c0 9e7a a5c0 2f0b 27c0 058a 1ec0
000000e0: 1e8f 0e3f d4fc 1dc0 0f96 1b40 5f55 52bf
000000f0: f096 3cc0 bafa 433e 77bd 69c0 3bd2 0ec0
00000100: 008f 4b40 aaa3 85c0 55e3 69c0 d829 8ec0
00000110: ea8e 9cbe c270 b5bf 0a0b 7ec0 1c3d 89c0
00000120: ff8e 60c0 3bfa c2bf b066 99c0 109c 15c0
00000130: a71b d5bf c7b2 5440 115c 5ebf 9d8f 0bc0
00000140: 418e 0abf efbf a9bf b79b 0140 3d60 f6bf
00000150: 4ae5 debf a0a9 2fc0 6f0e 813f 0bfa 59c0
00000160: bef8 33c0 c9fb 43c0 ae7a 1c3f e716 bb3e
00000170: fd0f 78c0 2818 95c0 91d6 febf 53ad d9bf
00000180: e7f7 42bf a701 75c0 adeb 9bc0 9c07 66c0
00000190: cf9b f3be 65c0 87c0 214e 7ac0 f32d 51c0
000001a0: 8c45 afc0 8493 0dc0 3d0d a1bf 87c8 7fc0
000001b0: 647a 40c0 fbbe 43c0 ce69 84c0 a7b0 88c0
000001c0: 7499 6bc0 0331 46c0 f566 a0c0 2e30 68c0
000001d0: 4880 7fbf f0e1 a7c0 77c6 9bc0 fd6a 9dbf
000001e0: 6cc4 b5c0 9d2f c440 99ed a9bf e002 93c0
000001f0: 5b38 2f40 42f5 09c0 3cd5 77bf f28b 90c0
00000200: 1c58 89c0 b36e 92c0 0633 903f e734 2bc0
00000210: 5520 50c0 aa46 34c0 d21d 7bc0 c5fd 9bc0
00000220: d3d2 83c0 e07b 2240 6a8c 52c0 2356 03bf
00000230: 5fa4 92bf 6b92 f1bf 5690 1cc0 56cb 1140
00000240: b1cf 6e3f 2500 82c0 38e4 52bf 9b22 a5bf
00000250: 12ee 35c0 f76b 68c0 024a 89c0 6214 163f
00000260: 41c9 ccbe c5c8 12c0 253f 69c0 75aa 60c0
00000270: 384a 73c0 f88b 84c0 29fa 5fc0 6539 2ec0
00000280: 7c75 8cc0 a35d 87c0 37fd 2dbf 8187 293e
00000290: 9662 cf3d d8dd 66c0 c165 cbbf 1cc7 81c0
000002a0: b37d 3b40 32cf 5ac0 bf40 3ec0 4ed1 b5c0
000002b0: 006c 7fc0 a9b6 64c0 597a 92c0 fdfb a1bf
000002c0: 1b97 99c0 3940 e9bf 4f39 1dc0 423e 1940
000002d0: 1ca5 56c0 e54c 67c0 4233 0ec0 c4b0 1cc0
000002e0: 92cf 6940 4c90 2ec0 95b2 853f d6a1 723f
000002f0: 90ea 72bf e6f9 2a40 b0a9 5840 e257 9740
00000300: 8afd 35c0 2dfd 18c0 5362 4f3e f0dd 793f
00000310: cc31 e4bf 495b 0fbf 4eb8 2c40 d0f7 73c0
00000320: 67dc 55c0 0540 1ac0 d483 82c0 f75a 48c0
00000330: 793b c4be 8b96 94c0 f458 46c0 6f37 9640
00000340: c5ca 11c0 8707 77c0 aa57 28c0 7536 64c0
00000350: fb7a 81c0 236e 80c0 f36d 5ec0 4830 7fc0
00000360: ca16 3bc0 5124 4dc0 8569 1cc0 9289 23c0
00000370: 8302 86c0 fd2f 58c0 f967 b73f af76 e3bf
00000380: 0f0b a6c0 8993 62bf 9bb6 3240 06f6 45c0
00000390: 256c 95c0 3136 ac40 f2c1 0e41 9dfd a83d
000003a0: 34b0 24c0 85c9 27c0 ff12 8e40 caea 0bbf
000003b0: 6ef6 8cc0 bb00 89c0 b537 bb3e b813 86c0
000003c0: 949c 3ec0 3e96 a2c0 fb60 5a40 8e07 e740
000003d0: 9edd 5bc0 f277 4cbe ebee c5bf 3a9b 49c0
000003e0: f557 11c0 8052 663f 90c5 61c0 302e 90c0
000003f0: 6e99 03c0 602e 673f e0cb 34bf 9826 6f3f

weight f4 [256, 256]
-0.79552174 0.4948195 0.8008268 0.8450456 0.4814965 0.16472468 -2.2800303 -1.1352116
0.48678312 -0.8891947 -1.4967391 0.9041177 0.6461931 -1.7162511 -2.1979816 0.00037446263
-1.6382899 0.17303444 -0.54867756 -2.0643785 1.1420516 -1.390244 1.0674134 -0.4466136
-0.18153237 1.3498986 -2.0535793 -0.9855944 -0.5183823 -0.59454507 0.7566943 -1.8837758
-0.1937746 -0.17838685 -0.34068733 0.35340652 0.02514381 0.17230381 1.0615815 0.47559485
-0.748981 0.35043058 -0.14331041 0.0061790263 -0.011904637 -2.2820966 1.8605484 -0.2788153
-0.6638413 1.4448936 0.7450306 -0.6953028 -1.4381882 0.4777183 -1.1407394 -2.3277864
-0.35356387 0.014414379 -2.1413314 -0.7082886 -0.24669538 0.7984142 0.05259193 0.0385791
-1.177698 1.1563424 0.29108378 -0.2920448 0.49233845 0.9028386 -1.2574462 1.452006
-0.8416685 -0.5887495 0.35951135 -0.371375 -0.27344212 -0.50289696 -0.6689108 -1.0911664
0.29090083 0.60164297 -0.7051271 -0.8723617 0.06815054 -1.4844745 0.24412441 1.6605222
0.68465483 -1.4936216 -1.0922614 -1.9485755 0.5897208 0.5309668 0.84564054 -0.9107692
0.43380868 -1.6974434 1.3502263 0.7708291 -1.0427501 -0.6092893 -0.2240708 -0.62610763
1.7549148 -0.14705811 0.39052954 -0.68267196 -0.20842543 -1.0470653 -0.04637445 0.73253846
1.6484847 1.7722086 1.9045613 1.011349 0.31753835 0.4404069 1.0201684 0.25752416
-0.17769335 -1.9692737 -0.37321317 -0.71678644 -2.0266538 -0.3896633 -0.03871246 0.8360655
0.38323233 -0.3499529 -0.69384193 1.545428 -1.2962986 -0.5115186 0.76565164 0.9396715
1.0165622 -2.2793581 1.8008031 -0.8273129 0.6836911 1.3375171 -0.2787876 -0.87689376
-2.9713306 1.0994091 -0.2511576 -1.2593066 0.07020791 -1.1923147 -0.6406601 -0.56865865
-1.490792 -0.71477723 0.43848068 -0.1924853 0.8211896 -0.017902218 0.110592924 1.3904212
1.5760098 -0.38114408 -0.32346302 -2.3212237 -0.99859023 -0.9842133 -0.113052115 0.32586014
-2.6231408 -1.3496054 -1.3735957 -0.43733972 0.08411045 -1.5494835 -0.19055694 0.48120996
-1.0953319 -0.9196544 1.0495218 -1.7444547 -1.1905185 1.3685958 -1.3912612 1.6892669
-0.12098545 -0.71796685 -1.7219009 -0.746924 -1.0787618 -1.1125327 -1.2686989 -2.229872
-0.3502373 -0.19057502 -1.803461 -0.35870874 0.36612427 0.051438317 -1.3135016 1.7345752
-0.18374705 0.6415085 0.7056447 -0.58773327 -0.33037648 -0.78873074 0.73189574 -1.7224133
0.87187624 -0.15570684 -0.48582256 0.8503737 0.3115025 -0.53597 -0.055585932 1.1061809
1.1163617 -0.2652691 0.23311701 -0.67945457 1.7173456 0.8275787 -1.2402258 0.4080159
0.56715727 0.50662684 0.17544182 -1.3504806 1.5462327 -0.0968524 -2.1719859 -0.46975955
0.6582713 0.39892235 -1.6584009 -1.9560986 0.660822 -0.043853376 -0.61175936 0.77921575
0.43572596 0.0030020112 -1.2793831 -3.8541348 0.037133317 -0.19766088 -1.5063968 0.17943689
1.5203981 -0.9983286 0.45708486 0.55817074 -2.0680528 -1.2318702 -0.7377333 -2.174602
00000000: 50a7 4bbf fb58 fd3e fc02 4d3f e954 583f
00000010: b686 f63e 96ad 283e 04ec 11c0 9d4e 91bf
00000020: a33b f93e 44a2 63bf 2695 bfbf 4274 673f
00000030: e96c 253f 1eae dbbf bbab 0cc0 8653 c439
00000040: 7cb3 d1bf f12f 313e 2276 0cbf c71e 04c0
00000050: bf2e 923f 84f3 b1bf 01a1 883f 8aaa e4be
00000060: 9fe3 39be 7ac9 ac3f d86d 03c0 ea4f 7cbf
00000070: b4b4 04bf 1b34 18bf b8b6 413f 911f f1bf
00000080: d96c 46be 0bab 36be 926e aebe b3f1 b43e
00000090: 64fa cd3c 6970 303e e7e1 873f 2b81 f33e
000000a0: 38bd 3fbf a36b b33e f7bf 12be 6e79 ca3b
000000b0: ab0b 43bc df0d 12c0 7326 ee3f e1c0 8ebe
000000c0: 81f1 29bf 46f2 b83f 53ba 3e3f 5dff 31bf
000000d0: 8d16 b8bf 7e97 f43e c003 92bf 74fa 14c0
000000e0: 5306 b5be 4a2a 6c3c 930b 09c0 6752 35bf
000000f0: b79d 7cbe df64 4c3f a36a 573d 1e05 1e3d
00000100: cfbe 96bf 0703 943f ef08 953e e586 95be
00000110: c913 fc3e 6e20 673f fff3 a0bf 55db b93f
00000120: 9677 57bf 4ab8 16bf df11 b83e dd24 bebe
00000130: 9b00 8cbe dbbd 00bf bd3d 2bbf 57ab 8bbf
00000140: f4f0 943e 4605 1a3f 3683 34bf 1953 5fbf
00000150: 8392 8b3d 4303 bebf c0fb 793e fe8b d43f
00000160: 8a45 2f3f fe2e bfbf 39cf 8bbf ec6a f9bf
00000170: f1f7 163f 71ed 073f e67b 583f 2c28 69bf
00000180: 2c1c de3e d345 d9bf 37d4 ac3f 0e55 453f
00000190: d678 85bf 62fa 1bbf d172 65be 9748 20bf
000001a0: 0ca1 e03f 6796 16be 7df3 c73e 97c3 2ebf
000001b0: 7a6d 55be 3c06 86bf 23f3 3dbd a487 3b3f
000001c0: 8c01 d33f bbd7 e23f aac8 f33f e273 813f
000001d0: 6394 a23e 037d e13e e194 823f 35da 833e
000001e0: 3ff5 35be 2911 fcbf cc15 bfbe 517f 37bf
000001f0: b2b4 01c0 f381 c7be f590 1ebd 6308 563f
00000200: 0737 c43e 072d b3be a09f 31bf 96d0 c53f
00000210: 1ded a5bf e2f2 02bf bf01 443f 508e 703f
00000220: b61e 823f 01e1 11c0 b780 e63f c7ca 53bf
00000230: 6106 2f3f c333 ab3f 40bd 8ebe 1c7c 60bf
00000240: 482a 3ec0 70b9 8c3f bb97 80be f530 a1bf
00000250: 2ac9 8f3d c59d 98bf 4d02 24bf 9d93 11bf
00000260: 46d2 bebf a4fb 36bf 8a80 e03e de1a 45be
00000270: 7b39 523f aca7 92bc 8b7e e23d 52f9 b13f
00000280: b0ba c93f 5125 c3be f29c a5be ee8e 14c0
00000290: 9ca3 7fbf 67f5 7bbf de87 e7bd 24d7 a63e
000002a0: 8ae1 27c0 dfbf acbf fcd1 afbf feea dfbe
000002b0: 1a42 ac3d 7a55 c6bf 5c21 43be 2761 f63e
000002c0: d633 8cbf 796e 6bbf bb56 863f 4b4a dfbf
000002d0: e962 98bf 262e af3f d914 b2bf e639 d83f
000002e0: 38c7 f7bd adcc 37bf 4067 dcbf 6936 3fbf
000002f0: de14 8abf 7967 8ebf ba64 a2bf 39b6 0ec0
00000300: 4e52 b3be 1926 43be cfd7 e6bf aca8 b7be
00000310: a474 bb3e fcb0 523d d220 a8bf 8f06 de3f
00000320: 3028 3cbe e739 243f 22a5 343f b075 16bf
00000330: 1b27 a9be 42ea 49bf 855d 3b3f 0a78 dcbf
00000340: 4833 5f3f 9d71 1fbe bcbd f8be 17b2 593f
00000350: 417d 9f3e 5435 09bf 13ae 63bd 5697 8d3f
00000360: f1e4 8e3f 5ad1 87be 3ab6 6e3e bcf0 2dbf
00000370: fbd1 db3f 33dc 533f b8bf 9ebf 76e7 d03e
00000380: 3831 113f 4cb2 013f 05a7 333e 8cdc acbf
00000390: f4ea c53f 8d5a c6bd d101 0bc0 5384 f0be
000003a0: 7884 283f 8d3f cc3e 7b46 d4bf 7061 fabf
000003b0: a12b 293f 999f 33bd 439c 1cbf af7a 473f
000003c0: 7917 df3e 64bd 443b d3c2 a3bf 25aa 76c0
000003d0: 1b19 183d 9d67 4abe 9cd1 c0bf 4ebe 373e
000003e0: 689c c23f 7792 7fbf 0707 ea3e 47e4 0e3f
000003f0: fa5a 04c0 ecad 9dbf 17dc 3cbf ae2c 0bc0

bias f4 [256]
-2.3899171 -1.4094604 -0.027984045 -0.09627626 -0.08709109 -0.7337854 -1.408638 -1.4040126
0.049196813 -0.0712715 -0.012166255 -0.13399418 -0.08009789 -0.46939057 -1.5999392 -0.11100359
-0.9701911 -0.7288113 -0.08479426 -0.49258628 -1.4233544 -0.104349025 -0.814593 0.11414293
0.8358572 -0.6540735 0.11460912 -0.11603667 -1.5709388 -0.9998813 0.35772204 -2.4021537
-2.121157 -0.05560186 1.0935956 -1.50043 0.0030965318 -0.6905711 0.005144696 -0.025679592
-1.6142694 -1.0903419 -0.039994348 -0.024486272 -1.2375776 -0.0664093 -0.0770077 -0.09071331
-0.06977847 -0.0061270446 -0.3704802 0.0023358425 -0.45764863 -0.065492645 -1.8063407 -0.021588089
-0.06924586 -0.06741889 -0.051280256 0.34130368 -0.38466072 0.09135878 -1.3814003 -0.74909186
-0.5017476 -0.10413259 -0.9430742 0.0025774841 -2.119383 -0.9383118 -2.7727187 -0.06134812
-0.078231655 -0.054514714 -0.52735734 0.024202196 0.007559854 -0.063198715 -0.07105144 0.057995975
-1.709677 -0.46360427 -0.031799138 0.6664757 -0.79196024 -2.1754534 -0.1022069 -1.443668
-0.11699994 -2.0443072 -1.5445133 0.010725101 -1.1867392 0.6226824 -0.11460691 -0.6667164
-0.024415776 -0.52882224 0.012278461 -2.8006241 -0.057911288 -0.0131543 0.104600094 -0.07621289
-1.2037423 -2.38083 -0.44218567 -0.061809167 -0.0046221404 -0.20990029 -0.08509565 -0.48540208
-0.029191071 -0.16220744 -0.05568176 -0.2685179 -0.043417323 -1.0803536 1.0767018 -0.018665917
-1.0415766 -0.40451252 -0.47184902 0.008659601 -0.4841139 0.27178195 -0.0019280547 -0.25247142
-0.0096495375 -1.4561116 -0.07245922 -1.8454779 0.01867961 -0.25351065 -0.0055067227 -0.03619849
-0.8918652 -0.06385083 -0.009700319 -0.7125121 -0.00023812693 -0.10003489 -0.07787984 -0.043092124
-0.011174284 -0.7124031 -1.9272687 -0.018011913 0.17168385 -0.8834692 -1.3381009 -0.19615689
-0.022193355 -0.61933845 -0.104244344 -1.8635813 -0.11498865 -0.093629286 -0.36506596 -0.33770347
-1.3525945 -0.04486284 -0.055883195 0.018079858 -0.02382244 0.44706193 -1.1134331 -0.6209313
-0.18005572 -0.14378782 -0.08397525 0.46767646 -2.045385 -0.9071983 -1.080184 -1.5847107
-0.0016186978 -0.10658632 -0.02354853 -1.4025382 -0.105882786 -0.22348695 -0.05912749 -1.1464982
-0.010699046 1.4732043 -0.035559554 -0.02036883 0.11456415 -0.12883411 -1.5799645 -0.016059918
0.26239696 0.03270304 -1.9849399 -0.064087205 -0.08620678 -0.13582455 -0.07676252 0.21047322
-0.052470908 0.030413985 -0.10687093 0.0031673568 -1.0802426 -0.04047833 -0.075061195 0.62830704
-0.02900448 -0.054493498 -0.066024475 -2.2530951 -1.6964355 -0.03609747 -2.2502475 -0.086867675
-0.8969336 0.0033065195 -0.086121105 -0.07931335 -0.1905965 -0.1246936 -1.0196292 -1.8834999
-0.080837496 -0.08136354 0.95011467 0.00091151206 -0.06146379 0.0017992875 -0.34152025 -0.01291672
-0.56846756 -0.076451525 -0.5124012 -0.00018579344 -1.5263983 -0.5952071 -0.20106474 0.0019974164
-0.5253528 -0.111312754 -1.4884282 -0.020914152 -0.04737139 -0.008261239 1.1994612 -0.006068007
-0.028856354 -1.4320486 -0.9418364 -0.083308384 0.31112257 -0.10453304 -0.10504319 -0.15536821
00000000: 67f4 18c0 3369 b4bf cc3e e5bc 7d2c c5bd
00000010: d05c b2bd 5cd9 3bbf 404e b4bf afb6 b3bf
00000020: 9982 493d cbf6 91bd f954 47bc c535 09be
00000030: 5d0a a4bd f653 f0be cfca ccbf da55 e3bd
00000040: 725e 78bf 6193 3abf 9da8 adbd 4534 fcbe
00000050: 7a30 b6bf f1b4 d5bd 2b89 50bf c5c3 e93d
00000060: bdfa 553f 5c71 27bf 30b8 ea3d a2a4 edbd
00000070: 8614 c9bf 39f8 7fbf 5827 b73e e3bc 19c0
00000080: 09c1 07c0 c7be 63bd f1fa 8b3f 170e c0bf
00000090: 2fef 4a3b 45c9 30bf d794 a83b 025e d2bc
000000a0: 61a0 cebf 5390 8bbf 1dd1 23bd 6f97 c8bc
000000b0: f168 9ebf 9901 88bd 37b6 9dbd e6c7 b9bd
000000c0: 04e8 8ebd 60c5 c8bb 95af bdbe ef14 193b
000000d0: ec50 eabe 0221 86bd 2c36 e7bf 81d9 b0bc
000000e0: c6d0 8dbd ea12 8abd 3f0b 52bd 5bbf ae3e
000000f0: 40f2 c4be 501a bb3d bad1 b0bf 7cc4 3fbf
00000100: 8872 00bf 7843 d5bd 506d 71bf 02eb 283b
00000110: f9a3 07c0 3435 70bf 3974 31c0 2b48 7bbd
00000120: eb37 a0bd d24a 5fbd e400 07bf af43 c63c
00000130: a7b8 f73b 546e 81bd 6b83 91bd 308d 6d3d
00000140: b2d6 dabf 8a5d edbe d03f 02bd 279e 2a3f
00000150: e8bd 4abf a13a 0bc0 da51 d1bd 1dca b8bf
00000160: aa9d efbd eed5 02c0 9db2 c5bf 56b8 2f3c
00000170: 12e7 97bf 1d68 1f3f 07b7 eabd edad 2abf
00000180: 9803 c8bc e560 07bf 992b 493c 6d3d 33c0
00000190: 6334 6dbd 2285 57bc 9338 d63d 8115 9cbd
000001a0: 3a14 9abf 855f 18c0 2966 e2be 9c2b 7dbd
000001b0: 5375 97bb 1af0 56be a146 aebd 9f86 f8be
000001c0: 1d22 efbc b519 26be 8f12 64bd 2e7b 89be
000001d0: 5dd6 31bd 0749 8abf 5dd1 893f 44e9 98bc
000001e0: 6252 85bf 441c cfbe 3296 f1be 00e1 0d3c
000001f0: c7dd f7be 0127 8b3e c8b6 fcba ef43 81be
00000200: 1819 1ebc dd61 babf 8065 94bd 9f38 ecbf
00000210: fb05 993c 26cc 81be bd71 b4bb de44 14bd
00000220: 4751 64bf 39c4 82bd 16ee 1ebc 3167 36bf
00000230: b6b1 79b9 18df ccbd 777f 9fbd 5e81 30bd
00000240: 5814 37bc 0d60 36bf beb0 f6bf b88d 93bc
00000250: e4cd 2f3e 0a2b 62bf e446 abbf 5add 48be
00000260: d7ce b5bc f78c 1ebf 0f7e d5bd d589 eebf
00000270: 2b7f ebbd b6c0 bfbd ede9 babe 78e7 acbe
00000280: d121 adbf 19c2 37bd c7e5 64bd 361c 943c
00000290: 4727 c3bc 4de5 e43e fa84 8ebf 5bf5 1ebf
000002a0: 8760 38be 1d3d 13be 37fb abbd 4a73 ef3e
000002b0: 96e7 02c0 263e 68bf 7843 8abf cdd7 cabf
000002c0: 7c2a d4ba ee49 dabd d9e8 c0bc 5f86 b3bf
000002d0: 13d9 d8bd c3d9 64be ab2f 72bd 74c0 92bf
000002e0: 0d4b 2fbc f591 bc3f e5a6 11bd 88dc a6bc
000002f0: 9ca0 ea3d 17ed 03be 473c cabf 1790 83bc
00000300: e558 863e 9ff3 053d 8312 febf 2740 83bd
00000310: 2e8d b0bd 9715 0bbe ab35 9dbd 4b86 573e
00000320: bceb 56bd c026 f93c 25df dabd 6e93 4f3b
00000330: 6445 8abf 9bcc 25bd afb9 99bd bbd8 203f
00000340: ce9a edbc 9334 5fbd d737 87bd b632 10c0
00000350: cc24 d9bf f1da 13bd 0e04 10c0 aee7 b1bd
00000360: 719d 65bf 31b2 583b 4360 b0bd 0a6f a2bd
00000370: bb2b 43be 5c5f ffbd 3683 82bf 8616 f1bf
00000380: 218e a5bd eda1 a6bd b73a 733f 8af2 6e3a
00000390: 74c1 7bbd 12d6 eb3a bedb aebe a6a0 53bc
000003a0: 1787 11bf 9e92 9cbd ba2c 03bf 8cd1 42b9
000003b0: 0561 c3bf 7e5f 18bf eae3 4dbe 16e7 023b
000003c0: 857d 06bf f1f7 e3bd d184 bebf 2854 abbc
000003d0: 8108 42bd 265a 07bc f287 993f 22d6 c6bb
000003e0: 2964 ecbc 5e4d b7bf 311c 71bf 969d aabd
000003f0: 754b 9f3e 6b15 d6bd e220 d7bd d818 1fbe

weight f4 [6, 256]
-2.1776686 -0.056092005 -0.054099955 0.0047255834 0.02495145 0.30874062 -0.44760334 -0.6106193
-1.5225155 -0.015757497 0.05464634 -0.16454102 -0.05404493 0.055600554 -0.8974378 -0.0076733567
-0.8662598 -0.5350311 -0.2974693 -0.5646943 0.037550945 -0.008968531 0.019464571 -1.8661104
0.16632544 -0.8696502 0.62070584 -0.006612723 0.30663 0.487226 -0.0731244 -2.3502836
0.86149025 -0.011169241 -0.5435972 -1.3305353 -0.009814274 0.3504752 -0.062413994 -0.08173033
-1.2328162 0.101833835 0.047999278 -0.053481214 2.1660748 0.06713811 -0.025299603 0.07666237
0.025543734 0.026676314 -0.5988497 0.0006756113 0.32587764 -0.03853292 -1.0303911 0.011610193
-0.006785232 0.0026554442 0.017911172 1.4928045 0.12067661 -0.016764864 0.22832558 0.06481767
1.4757637 -0.0145754 -2.0097454 0.0037292219 0.29109058 -0.13261327 0.04214107 0.0015880611
-0.019998074 0.043065015 0.5141677 0.0719772 0.02677355 0.053063665 -0.06968054 0.31337652
0.4261876 0.3264831 0.0026950308 -0.05649792 -1.4031668 -0.11644774 -0.020310128 0.76373714
-0.014493189 0.50491333 0.47901538 -0.03757801 -0.88798416 0.9183257 -0.022142876 0.61490345
-0.017130647 0.05305766 -0.74582666 0.030401697 -0.0043766107 -0.050252624 0.11744685 -0.015355762
-1.1749096 2.542105 0.33271328 0.037718117 -0.095663175 0.21734238 -0.00025466486 -0.9467309
0.018805755 -0.13429691 0.049551416 0.107012115 -0.046022538 -0.2143814 -0.2940293 -0.0054986104
0.11816448 0.12151371 -0.29927158 0.080763325 0.049413003 -0.109746926 -0.080408566 -0.42035162
0.004111758 -0.8928555 -0.023678262 -0.03558875 -0.041137487 0.055768516 -0.059202027 0.045851495
1.3478763 -0.02970961 -0.03966105 0.5881955 0.009675864 -0.04765335 -0.025889201 -0.011895201
0.020960314 -0.6900797 -0.4866805 -0.015875362 -0.034393407 0.92791134 -1.8466855 -0.036945492
0.04494558 1.2129153 0.065502875 1.0375285 0.80504704 0.021114124 -1.0402573 -0.03729452
1.4942305 0.0033345348 -0.0051647946 -0.012485652 -0.0036590095 1.7418324 0.9471632 0.30395243
-0.010654341 0.041952692 -0.008497894 0.98692226 -1.3904016 0.03660138 -2.237143 -0.37003207
-0.011124143 0.061559685 -0.038404346 1.4545691 -0.036361616 0.17477305 0.6134645 0.04906407
0.951872 -1.1036509 0.015609365 -0.0060714977 0.3846258 -0.020767692 -0.8886528 -0.029165106
0.8172836 0.0054939757 1.212533 -0.023925038 0.014083866 0.15801837 -0.0067103626 -1.372577
-0.021791179 -0.044861536 -0.04500976 -0.06434374 -1.5136563 -0.036578294 0.033493616 -0.14794433
-0.021755328 -0.014930505 0.0027287696 -0.91867083 0.10428409 0.10956156 -0.79602087 0.012788992
-0.22180212 0.007826202 -0.019955013 -0.042553723 0.0053330506 -0.025682356 -1.3846853 0.065997496
0.036878843 -0.039812956 0.24366958 -0.034326106 -0.00813089 0.046464626 0.05738733 -0.04331669
-0.028080834 -0.03656323 0.3169404 0.04792242 1.1082956 0.04845217 0.23405966 -0.01247087
1.7288045 -0.09157916 -1.3459152 -0.0071087284 -0.04689228 -0.03138365 0.30736572 0.0025177822
-0.024306556 0.26778412 0.5821185 -0.046016317 -0.48478803 -0.038192064 -0.0041923323 0.23854858
00000000: ec5e 0bc0 bbc0 65bd ea97 5dbd 11d9 9a3b
00000010: fc66 cc3c 4013 9e3e 442c e5be 8c51 1cbf
00000020: cae1 c2bf de15 81bc d7d4 5f3d 717d 28be
00000030: 375e 5dbd 68bd 633d 7cbe 65bf c870 fbbb
00000040: 34c3 5dbf ccf7 08bf e54d 98be ce8f 10bf
00000050: 05cf 193d bff0 12bc 2a74 9f3c b5dc eebf
00000060: 3751 2a3e 65a1 5ebf 94e6 1e3f 8baf d8bb
00000070: 9bfe 9c3e b075 f93e 3fc2 95bd 0c6b 16c0
00000080: a08a 5c3f 31ff 36bc 3029 0bbf fb4e aabf
00000090: 0ccc 20bc 7c71 b33e d1a5 7fbd 3b62 a7bd
000000a0: eccc 9dbf 428e d03d e49a 443d 1e0f 5bbd
000000b0: f8a0 0a40 b57f 893d 1d41 cfbc 2901 9d3d
000000c0: 1841 d13c 4988 da3c 374e 19bf 821b 313a
000000d0: 6fd9 a63e b2d4 1dbd dbe3 83bf ae38 3e3c
000000e0: a756 debb f606 2e3b 73ba 923c 3814 bf3f
000000f0: 4c25 f73d 7856 89bc 2ece 693e 20bf 843d
00000100: d3e5 bc3f a9cd 6ebc ab9f 00c0 f665 743b
00000110: d309 953e c6cb 07be 1d9c 2c3d 7d26 d03a
00000120: 00d3 a3bc f164 303d 7fa0 033f c868 933d
00000130: 3454 db3c 4959 593d acb4 8ebd e372 a03e
00000140: 4335 da3e cb28 a73e 1d9f 303b 5d6a 67bd
00000150: f89a b3bf 277c eebd 6d61 a6bc 4784 433f
00000160: d774 6dbc 0042 013f 8141 f53e 66eb 19bd
00000170: ee52 63bf 6517 6b3f fa64 b5bc 506a 1d3f
00000180: 9255 8cbc fd52 593d 7fee 3ebf fb0c f93c
00000190: ac69 8fbb b2d5 4dbd f987 f03d bc96 7bbc
000001a0: 7063 96bf d9b1 2240 6559 aa3e 507e 1a3d
000001b0: 0eeb c3bd 008f 5e3e 8a84 85b9 f55c 72bf
000001c0: 870e 9a3c 2185 09be 6df6 4a3d 2b29 db3d
000001d0: 2182 3cbd cc86 5bbe 028b 96be b02d b4bb
000001e0: 3800 f23d 2edc f83d 203a 99be 3e67 a53d
000001f0: 4a65 4a3d ffc2 e0bd 3fad a4bd 5438 d7be
00000200: edbb 863b 2e92 64bf eaf8 c1bc 82c5 11bd
00000210: c87f 28bd 876d 643d d37d 72bd c7ce 3b3d
00000220: 3687 ac3f 9161 f3bc a073 22bd fb93 163f
00000230: 8487 1e3c 2930 43bd 9715 d4bc 17e4 42bc
00000240: f7b4 ab3c 10a9 30bf 302e f9be 0c0d 82bc
00000250: 1ae0 0cbd 998b 6d3f 3160 ecbf 2854 17bd
00000260: db18 383d cf40 9b3f 5f26 863d bccd 843f
00000270: 9017 4e3f 87f7 ac3c 2727 85bf 23c2 18bd
00000280: f242 bf3f 3688 5a3b 703d a9bb 9f90 4cbc
00000290: fecb 6fbb 5df4 de3f 4a79 723f a79f 9b3e
000002a0: 8c8f 2ebc 96d6 2b3d c03a 0bbc f0a6 7c3f
000002b0: aef8 b1bf 54eb 153d 5a2d 0fc0 d874 bdbe
000002c0: 0a42 36bc 0226 7c3d e04d 1dbd 522f ba3f
000002d0: ebef 14bd b5f7 323e 020c 1d3f 68f7 483d
000002e0: e2ad 733f 6f44 8dbf 6cbe 7f3c 6af3 c6bb
000002f0: aced c43e 0221 aabc c07e 63bf a9eb eebc
00000300: 7f39 513f cf06 b43b 4834 9b3f 71fe c3bc
00000310: 04c0 663c 91cf 213e 9ae2 dbbb 9ab0 afbf
00000320: 6a83 b2bc bbc0 37bd 275c 38bd a7c6 83bd
00000330: 7dbf c1bf 1fd3 15bd 9a30 093d b87e 17be
00000340: 3b38 b2bc 149f 74bc 28d5 323b 032e 6bbf
00000350: e692 d53d d061 e03d 06c8 4bbf ec88 513c
00000360: 1820 63be 7839 003c b278 a3bc d04c 2ebd
00000370: dfc0 ae3b ce63 d2bc 5e3d b1bf b229 873d
00000380: 450e 173d e912 23bd 8584 793e 8899 0cbd
00000390: 6d37 05bc b151 3e3d fa0e 6b3d d76c 31bd
000003a0: c709 e6bc 53c3 15bd 0346 a23e 4d4a 443d
000003b0: a1dc 8d3f c875 463d 56ad 6f3e 9f52 4cbc
000003c0: 7749 dd3f db8d bbbd f346 acbf 56f0 e8bb
000003d0: 1f12 40bd 248c 00bd 0a5f 9d3e 6001 253b
000003e0: 8b1e c7bc 001b 893e b805 153f 9b7b 3cbd
000003f0: 2336 f8be 486f 1cbd d55f 89bb 1446 743e

bias f4 [6]
2.4503143 -4.37205 4.338581 0.36632422 0.5978712 -2.9641204
00000000: f3d1 1c40 d5e7 8bc0 a8d5 8a40 d98e bb3e
00000010: 160e 193f 26b4 3dc0

weight f4 [256, 23]
9.811382 2.452604 -0.1162659 0.21587285 -0.30813715 7.1481543 2.3559346 0.8554437
-0.21331623 -0.08814803 0.07073589 -0.07063623 -0.04702314 0.0024378109 0.021688396 0.13077997
0.08586738 0.3285261 0.42133585 0.0074645947 0.22908549 1.0078826 0.17654428 -1.8393917
5.219913 0.82444143 0.21542 -0.29855093 -0.24804954 -0.36127016 -0.14241739 0.04087174
-0.04280139 0.4510143 0.060597416 0.0368725 0.0016181221 -0.010704795 0.01193425 0.01279077
0.2065581 0.032498945 -0.029359072 0.10500595 -0.07684152 0.036156062 0.84719384 -4.16119
-4.7000585 -2.432942 -1.7015526 -0.3611279 -0.14607581 0.49665812 -0.02883021 -0.7488301
0.7221434 0.54269373 0.19768596 0.20884565 -0.033349175 -0.021473931 -0.06706928 -0.009379597
1.1665252 -0.37121436 -0.99632365 0.48171932 0.88539934 -1.4571868 0.03660881 -0.71630716
-0.13157034 0.055523027 0.7820466 -0.0417038 -0.047734216 0.3412838 0.23929463 -0.2899562
0.068760484 -0.06262994 0.0068266997 0.16619265 0.010924742 -0.010928804 -0.26237106 -0.4129028
0.08252294 0.17531352 0.06339771 -0.23609285 -1.8672588 -0.6940756 2.6000173 -2.2768679
-0.50710845 0.8544224 -1.6114795 0.29667753 -0.41455862 -1.653211 0.30229312 -0.07926066
-0.031339046 -0.077021115 -0.10026213 -0.12410916 0.0016238488 0.6908394 -0.8518165 1.530589
-1.0212826 -0.56936854 1.7721442 -13.429632 -4.3951273 -0.98820955 -2.0707579 0.18860024
-1.4506757 1.5056868 -0.28217423 0.3930839 -1.3077441 0.44637102 -0.0021186762 -0.027716534
-0.019182073 0.20666446 0.17184836 0.117578514 0.3231024 -1.0781932 -0.059074327 0.4680798
1.3896588 0.4425003 2.564834 -0.28714085 0.64465123 4.298394 0.73356026 0.8337173
2.8402152 -1.5166802 -0.52086025 1.4132901 0.50685346 0.067813985 -0.26798117 -0.111432634
-0.26041934 -0.046805725 0.10308616 -0.095032476 -0.8253652 -1.3117466 -2.2167268 -1.7811798
-1.2442361 4.508068 -0.7875805 2.1149063 -2.385737 -1.5726252 -0.93829894 0.8104728
-0.3911231 -0.4876551 0.25531366 0.23934421 0.027248647 0.25874043 0.091244705 -0.21241441
-0.1612446 -0.10479089 0.39217833 0.71330124 -0.23550308 -0.65218776 -1.94503 0.13323271
-10.354099 -1.4799368 0.843366 0.79738986 0.45104122 -3.7573466 -6.566659 -5.6232457
-0.47478893 -1.6262966 0.5510383 -0.009751734 0.043403234 -0.022003619 -0.20313165 0.1588597
0.1735059 0.17364399 -0.16931202 -0.10091634 -1.2256877 1.4138432 0.39190802 -0.02219013
-0.2453726 -1.6060376 -2.6871428 -1.5285155 -0.021025743 0.024635592 -2.4649796 -0.8682705
-0.8487398 -0.8976672 -0.028892212 -0.44389993 -0.32927582 0.0598397 0.026271198 0.013260413
0.3506799 0.30049634 -0.16034827 0.45437363 -2.2544448 1.7268763 3.2883532 -0.012576737
-1.7057556 -4.211973 0.15794025 -2.6858268 -2.7959144 1.365643 -0.92738986 0.42045307
0.18446107 0.45943734 0.35673904 -0.0074085644 -0.24696428 -0.1130943 0.33921698 -0.28078398
-2.1528814 -0.07687125 -2.9753938 -1.0122352 -0.7295351 -5.9738946 -2.9542072 -3.33521
00000000: 6cfb 1c41 77f7 1c40 d11c eebd c60d 5d3e
00000010: 27c4 9dbe aebd e440 a2c7 1640 5cfe 5a3f
00000020: 926f 5abe f486 b4bd fadd 903d baa9 90bd
00000030: 569b 40bd aec3 1f3b ddab b13c 2feb 053e
00000040: 3ddb af3d 9334 a83e 55b9 d73e 8f99 f43b
00000050: 6395 6a3e 4c02 813f 06c8 343e 3071 ebbf
00000060: 8709 a740 980e 533f 0f97 5c3e abdb 98be
00000070: b300 7ebe 67f8 b8be ddd5 11be 2069 273d
00000080: 8350 2fbd 59eb e63e ff34 783d 9e07 173d
00000090: 2b17 d43a 2a63 2fbc df87 433c 6190 513c
000000a0: f783 533e 9d1d 053d 7082 f0bc 5c0d d73d
000000b0: 165f 9dbd 6118 143d b2e1 583f 7828 85c0
000000c0: e166 96c0 52b5 1bc0 7acc d9bf c2e5 b8be
000000d0: e694 15be f949 fe3e 552d ecbc 54b3 3fbf
000000e0: 64de 383f faed 0a3f 306e 4a3e a2db 553e
000000f0: 2599 08bd 19ea afbc 9e5b 89bd e2ac 19bc
00000100: b350 953f cf0f bebe 110f 7fbf eaa3 f63e
00000110: 88a9 623f 1985 babf 1ff3 153d e85f 37bf
00000120: 60ba 06be 1d6c 633d 3534 483f 9bd1 2abd
00000130: f484 43bd c0bc ae3e a709 753e 2475 94be
00000140: 4cd2 8c3d 2044 80bd 82b2 df3b 682e 2a3e
00000150: b0fd 323c ba0e 33bc 8055 86be ff67 d3be
00000160: ca01 a93d 6385 333e a9d6 813d 53c2 71be
00000170: 5602 efbf f0ae 31bf af66 2640 34b8 11c0
00000180: dcd1 01bf 6dbb 5a3f f644 cebf 1ee6 973e
00000190: 0741 d4be 6b9c d3bf 2ac6 9a3e 6a53 a2bd
000001a0: 5f5d 00bd 3fbd 9dbd 3b56 cdbd f12c febd
000001b0: 53d7 d43a dada 303f a510 5abf 57ea c33f
000001c0: 63b9 82bf 23c2 11bf 9fd5 e23f c6df 56c1
000001d0: e2a4 8cc0 4dfb 7cbf 4c87 04c0 6c20 413e
000001e0: beaf b9bf 58ba c03f 2479 90be 4b42 c93e
000001f0: 2964 a7bf be8a e43e 7dd9 0abb c90d e3bc
00000200: b923 9dbc d99f 533e 04f9 2f3e 01cd f03d
00000210: ae6d a53e 3c02 8abf ecf7 71bd 28a8 ef3e
00000220: 57e0 b13f 668f e23e 3e26 2440 2004 93be
00000230: dd07 253f 728c 8940 9bca 3b3f 7f6e 553f
00000240: 16c6 3540 9422 c2bf 1957 05bf b1e6 b43f
00000250: 26c1 013f 0fe2 8a3d d434 89be cb36 e4bd
00000260: af55 85be 5cb7 3fbd d61e d33d 63a0 c2bd
00000270: 224b 53bf 50e7 a7bf dade 0dc0 b3fd e3bf
00000280: 2143 9fbf 1842 9040 e09e 49bf a05a 0740
00000290: eaaf 18c0 c84b c9bf 5c34 70bf 257b 4f3f
000002a0: 4941 c8be eead f9be 79b8 823e a616 753e
000002b0: 8e38 df3c a079 843e 81de ba3d 2a83 59be
000002c0: 4e1d 25be 9b9c d6bd 99cb c83e e99a 363f
000002d0: b827 71be c7f5 26bf bef6 f8bf 286e 083e
000002e0: 64aa 25c1 926e bdbf d6e6 573f be21 4c3f
000002f0: e0ee e63e 5e78 70c0 1222 d2c0 a1f1 b3c0
00000300: 8917 f3be 7d2a d0bf d910 0d3f bdc5 1fbc
00000310: 97c7 313d ef40 b4bc be01 50be 1eac 223e
00000320: 88ab 313e bbcf 313e 2160 2dbe 3aad cebd
00000330: 56e3 9cbf d0f8 b43f 2ba8 c83e 13c8 b5bc
00000340: f442 7bbe a492 cdbf 26fa 2bc0 65a6 c3bf
00000350: 2e3e acbc 95d0 c93c 3ac2 1dc0 fa46 5ebf
00000360: 0347 59bf 85cd 65bf 5caf ecbc da46 e3be
00000370: d796 a8be 791a 753d b236 d73c 3442 593c
00000380: 518c b33e a8da 993e 5632 24be a9a3 e83e
00000390: d348 10c0 480a dd3f 6174 5240 a90e 4ebc
000003a0: 3356 dabf 7cc8 86c0 17bb 213e 96e4 2bc0
000003b0: 43f0 32c0 64cd ae3f 6c69 6dbf a045 d73e
000003c0: 5de3 3c3e 5f3b eb3e 80a6 b63e 8bc3 f2bb
000003d0: 34e4 7cbe fc9d e7bd d9ad ad3e ebc2 8fbe
000003e0: cfc8 09c0 ad6e 9dbd da6c 3ec0 ec90 81bf
000003f0: d0c2 3abf 252a bfc0 bb11 3dc0 1574 55c0

bias f4 [256]
-5.447114 -8.421633 -0.83244115 4.5473485 -4.231206 -2.9594855 -4.9649076 0.9568775
-2.4766884 -4.125558 -3.666394 -1.7069882 -3.201784 5.2020655 -2.5873694 4.523566
-1.4493445 -2.597741 -3.6931317 -0.39295545 -3.3301697 -4.0183477 -3.8799288 4.2087283
-4.477469 -1.8985834 -0.52866554 2.1671195 -5.27284 -1.9849842 -1.8791734 -4.439295
-2.7369435 -4.1259823 -0.26140004 -2.1783612 0.41781926 -2.397125 -5.623864 -3.098024
-4.404076 -1.3344349 -2.389936 -3.7353787 -3.085161 -4.4768777 -3.8520563 -3.5976624
-2.455905 1.3740078 -3.4574125 2.021593 -2.0180476 -3.4723203 -4.194917 -4.7331176
4.822573 0.6534743 -5.136537 -4.461202 -4.0551796 -4.223141 1.6687403 3.5447838
-4.0468283 -7.4066076 0.8902164 -4.6943216 -2.0586145 -0.4631321 -4.1003 -1.2856053
-3.7014701 -4.0392146 0.95141566 -4.699367 2.6179705 -4.458348 -4.0885205 -5.126415
-5.1431584 -0.9617764 -1.4818835 -4.71855 0.41070908 -3.6550832 -5.3395934 -4.638004
-0.5686393 4.37371 1.8533181 4.2230597 -4.525297 -3.5472164 4.6988254 -5.544329
-3.8398814 -0.48781508 1.4004753 -1.6687288 -2.2078514 2.146458 1.7628973 -2.5301576
0.29688856 -2.873828 -2.8075612 -4.847693 -4.022745 0.9156308 -4.9211226 1.3519479
-2.056732 -3.1273034 -5.9860096 -1.3531138 -3.8471887 -3.4557626 -3.6319776 -1.1360422
-0.714902 -5.440201 0.23019259 -5.412238 -3.597008 -5.6531115 -0.70058095 4.6175075
-5.1555405 -2.6755266 2.2402728 -2.3671548 -5.0902824 -4.1599708 -5.2646923 -3.92368
1.662744 -1.6534582 -1.4286803 -2.1789615 3.97224 -2.5680978 -3.998575 -5.2009034
0.006620872 -3.8453462 -1.0078431 5.4713163 0.6395038 -1.6126362 -1.669794 2.401965
-0.19951506 -3.0929031 -2.7008243 -1.5197701 2.9214287 3.788455 -4.3380795 1.4272044
0.5710672 0.8986087 -1.2754806 3.412717 4.4861345 4.4232836 -3.1425583 1.2440877
-4.995987 -1.9364606 -3.1986504 -4.290193 -3.4265332 -3.2072203 2.4636824 -4.7308393
-5.1387043 0.608233 2.8474274 4.7327914 -3.4941251 -4.1357765 -4.8128233 -4.0674825
-5.42798 -1.9972345 -5.37195 -6.2121634 -1.7002345 -4.244493 -6.3438616 -3.3188095
0.386251 -3.8324075 -3.6913714 -2.9620037 -2.8185318 0.7538853 -5.143037 -4.2049885
-5.3833413 -1.7871221 -5.8166566 -2.873984 -2.7983534 -3.4112895 -4.100614 -2.9327102
0.6106048 5.2411 4.338011 5.4756856 1.400036 -0.77092767 -3.0787413 -1.5547616
-4.604683 -3.9925706 0.56131953 -2.024003 -6.339903 0.07869626 -5.5363865 -1.4546593
4.7268057 -3.3152652 2.7411137 0.69410795 -4.8465304 -2.1485562 -3.3021493 1.7012203
-5.600621 -1.3468395 -4.188991 -4.852788 -3.025372 -0.54259634 -1.1733235 -4.931568
-3.531434 -3.260718 -1.568091 -0.5246935 -1.0838034 -3.3898125 -6.056808 -2.2669559
-3.9723115 -2.8934405 1.1505421 -2.2357082 -3.1690817 -1.5631508 -3.8126366 5.512211
00000000: c24e aec0 02bf 06c1 dd1a 55bf e183 9140
00000010: 0a66 87c0 3668 3dc0 86e0 9ec0 edf5 743f
00000020: 1082 1ec0 9204 84c0 33a6 6ac0 977e dabf
00000030: 07ea 4cc0 5277 a640 7697 25c0 0dc1 9040
00000040: 1f84 b9bf 6341 26c0 455c 6cc0 7531 c9be
00000050: 8021 55c0 4e96 80c0 c150 78c0 e7ad 8640
00000060: 6d47 8fc0 c804 f3bf a056 07bf 16b2 0a40
00000070: 1bbb a8c0 f613 febf c188 f0bf b40e 8ec0
00000080: 152a 2fc0 0c08 84c0 3ad6 85be 456a 0bc0
00000090: 68ec d53e 7f6a 19c0 b2f6 b3c0 0646 46c0
000000a0: 31ee 8cc0 c3ce aabf b6f4 18c0 7210 6fc0
000000b0: 4773 45c0 9542 8fc0 1788 76c0 1a40 66c0
000000c0: 8c2d 1dc0 7ddf af3f 3f46 5dc0 c861 0140
000000d0: b127 01c0 7f3a 5ec0 c33c 86c0 b375 97c0
000000e0: 8552 9a40 174a 273f 835e a4c0 2bc2 8ec0
000000f0: 08c4 81c0 f923 87c0 4899 d53f bddd 6240
00000100: 9e7f 81c0 ee02 edc0 39e5 633f e237 96c0
00000110: 57c0 03c0 a71f edbe a835 83c0 b78e a4bf
00000120: e3e4 6cc0 3f41 81c0 fa8f 733f 3761 96c0
00000130: d48c 2740 c9aa 8ec0 29d5 82c0 970b a4c0
00000140: c194 a4c0 fa36 76bf 5cae bdbf 5dfe 96c0
00000150: 7648 d23e e2ec 69c0 f3dd aac0 876a 94c0
00000160: 5892 11bf 6ff5 8b40 8739 ed3f 4e23 8740
00000170: 3ccf 90c0 9805 63c0 c75c 9640 256b b1c0
00000180: 9ec0 75c0 e6c2 f9be c642 b33f e898 d5bf
00000190: 704d 0dc0 915f 0940 9ea6 e13f 1aee 21c0
000001a0: c701 983e ccec 37c0 15af 33c0 4d20 9bc0
000001b0: 54ba 80c0 c866 6a3f d679 9dc0 a10c ad3f
000001c0: 7fa1 03c0 bd25 48c0 648d bfc0 d532 adbf
000001d0: 5738 76c0 372b 5dc0 5272 68c0 d569 91bf
000001e0: d103 37bf 2016 aec0 9bb7 6b3e 0e31 adc0
000001f0: 6135 66c0 4ae6 b4c0 4659 33bf 9fc2 9340
00000200: 30fa a4c0 d43b 2bc0 a160 0f40 777f 17c0
00000210: 98e3 a2c0 7b1e 85c0 5c78 a8c0 931d 7bc0
00000220: ccd4 d43f 85a4 d3bf ffde b6bf 1b74 0bc0
00000230: 2e39 7e40 b75b 24c0 a7e8 7fc0 cd6d a6c0
00000240: e6f3 d83b 271a 76c0 0101 81bf 0615 af40
00000250: 85b6 233f dd6a cebf cfbb d5bf cbb9 1940
00000260: ad4d 4cbe 20f2 45c0 4eda 2cc0 d487 c2bf
00000270: b0f8 3a40 0c76 7240 8cd1 8ac0 a2ae b63f
00000280: 7631 123f 380b 663f f342 a3bf f569 5a40
00000290: 6a8e 8f40 8a8b 8d40 ad1f 49c0 443e 9f3f
000002a0: 20df 9fc0 f1dd f7bf b0b6 4cc0 4349 89c0
000002b0: 524c 5bc0 1943 4dc0 f9ac 1d40 0963 97c0
000002c0: 4470 a4c0 28b5 1b3f 403c 3640 0773 9740
000002d0: bf9f 5fc0 4858 84c0 a602 9ac0 d128 82c0
000002e0: 03b2 adc0 61a5 ffbf 04e7 abc0 0bca c6c0
000002f0: 49a1 d9bf e3d2 87c0 ea00 cbc0 6067 54c0
00000300: b1c2 c53e 2a46 75c0 6e3f 6cc0 7891 3dc0
00000310: d362 34c0 a1fe 403f c293 a4c0 448f 86c0
00000320: 5544 acc0 6bc0 e4bf 0d22 bac0 5bef 37c0
00000330: 3918 33c0 9152 5ac0 3b38 83c0 86b1 3bc0
00000340: 9950 1c3f 17b7 a740 fcd0 8a40 d138 af40
00000350: 6134 b33f 845b 45bf 190a 45c0 6e02 c7bf
00000360: 9059 93c0 4786 7fc0 a3b2 0f3f 4489 01c0
00000370: 7ce0 cac0 812b a13d 142a b1c0 4732 babf
00000380: fe41 9740 4e2d 54c0 686e 2f40 0fb1 313f
00000390: c716 9bc0 f281 09c0 6a56 53c0 96c1 d93f
000003a0: 4a38 b3c0 3d65 acbf 370c 86c0 0a4a 9bc0
000003b0: b29f 41c0 98e7 0abf 772f 96bf 68cf 9dc0
000003c0: 0403 62c0 9baf 50c0 35b7 c8bf 5052 06bf
000003d0: 12ba 8abf b0f2 58c0 5fd1 c1c0 ce15 11c0
000003e0: 5a3a 7ec0 212e 39c0 f744 933f d815 0fc0
000003f0: 3cd2 4ac0 5315 c8bf 3d02 74c0 0864 b040

weight f4 [256, 256]
0.29639614 -7.960652 -1.6399703 -1.1120247 -3.2027125 -0.36631557 -1.3433553 1.1558905
0.31311888 -0.5509506 0.26398298 -0.4231938 1.204996 -0.7091038 -0.9004411 -0.0667561
0.9719247 0.47541553 0.08529644 1.2854264 1.7012911 0.054143928 -1.6859416 0.42133301
0.8401645 0.29061922 -1.8129486 0.092557035 -2.0418308 -0.42793712 -1.573054 1.7827098
-1.6264337 0.4910987 -0.24912792 0.63484687 -1.3147349 -2.7710578 -0.12141754 0.47094262
-0.91558886 -0.45698148 -0.6926735 0.50896114 1.7219021 -0.41741434 -0.5602334 0.8999726
0.180189 -1.0241863 0.46683103 -1.8787985 -0.31152657 -0.95285493 0.65751517 -0.18197607
-0.5185305 -0.3848631 -0.5511768 -0.5831939 0.021529237 1.1877517 -0.76557314 -0.7274061
-0.05025229 -5.688245 -0.24573232 1.6287719 0.7250055 -1.7099571 -0.24346013 1.4479995
-2.235317 1.2746067 1.5904834 -1.0669371 -0.6812929 0.5087207 -0.82897985 1.259193
-1.5994523 0.44382748 0.09855666 0.29111126 0.7221793 -0.19666088 0.08478671 -1.0522252
0.16659899 0.047036577 1.4598719 -0.3266841 1.4311434 0.9781262 -0.77464503 -1.5479321
0.65281886 -1.596669 0.47271314 1.1002035 -0.91563106 -0.07769187 -0.7095527 1.3338362
0.24867418 0.45596585 0.2905544 -0.43740225 0.65147924 0.39375657 -1.5483012 1.3847841
-0.9404347 0.5746717 1.495635 0.3423739 -0.70154655 0.7381662 0.13684332 1.0357537
-1.4945188 -0.4030012 -0.93660843 0.71192366 0.9175377 -1.342642 0.9234382 0.3111542
0.53627527 -3.0516858 0.2880455 0.41776085 1.1512151 -6.8052197 2.0710738 -0.028015247
0.005676418 -0.021471933 1.3594457 0.06436172 0.23451795 -0.79868716 0.976855 -0.20327088
-1.1566609 -0.06892361 2.437048 0.09799937 -2.9408195 0.24449286 -1.1708521 -0.23406132
-1.6215082 0.5410575 -0.63292897 -0.5430581 -0.6819927 0.09030968 -0.40250218 -0.51943916
-0.12158307 -0.18880115 1.0490372 0.8225367 0.033930857 -0.122807495 -1.2738051 0.25861135
1.0599393 0.721572 -0.41261375 0.041647326 0.51016295 -1.0249116 -0.32319278 0.17606111
-0.13787751 -1.4595213 -0.9009509 0.028623614 -2.4104776 -3.8282537 -0.853912 -0.40547815
2.5387115 -0.112196974 -0.3445673 -0.3617675 0.42537725 -0.16222887 -4.1505404 0.5275401
-0.68429077 -0.78822505 0.7314803 2.0838666 0.032469973 -0.22868203 0.4187866 -1.1857283
0.54415345 0.11294822 -0.84809685 0.46117532 -0.05541434 0.33567542 0.91929895 -0.13090795
0.9501246 -0.3967873 -0.4441415 -0.6491708 0.104990534 0.31695843 0.19605064 -0.7844994
0.15689205 -2.7818475 -0.9915732 0.62381715 0.34704596 -0.9513789 -0.17951201 -0.011097486
-1.3133022 1.1635029 -0.3169533 0.026274197 -4.6458426 0.8110255 -0.6775108 -1.3459195
1.8555646 0.021322781 0.94012016 0.57340366 1.1049778 -0.64051 0.7372582 -0.25266707
1.6054152 1.1568435 -3.2435029 0.68854153 0.43396494 3.0010366 -0.9505582 -0.36668068
0.7881734 1.7589002 -0.58852327 -1.0267528 0.37706104 -0.74617845 0.65216833 -0.36232013
00000000: 3cc1 973e a9bd fec0 8cea d1bf d356 8ebf
00000010: 3ef9 4cc0 b78d bbbe 11f3 abbf 38f4 933f
00000020: 1e51 a03e 190b 0dbf c728 873e dcac d8be
00000030: 4f3d 9a3f d487 35bf 4f83 66bf 6cb7 88bd
00000040: 0fd0 783f aa69 f33e e6af ae3d da88 a43f
00000050: e8c3 d93f 06c6 5d3d efcc d7bf f6b8 d73e
00000060: 0515 573f 0bcc 943e b30e e8bf 8b8e bd3d
00000070: 5bad 02c0 931a dbbe d559 c9bf d62f e43f
00000080: fb2e d0bf 4a71 fb3e 641b 7fbe 5385 223f
00000090: 3c49 a8bf 0359 31c0 c2a9 f8bd 641f f13e
000000a0: 0864 6abf 7af9 e9be 0d53 31bf 474b 023f
000000b0: 4a67 dc3f 55b7 d5be 756b 0fbf 9b64 663f
000000c0: 7783 383e 8918 83bf 7a04 ef3e 787c f0bf
000000d0: 6980 9fbe 4dee 73bf ea52 283f ef57 3abe
000000e0: 6abe 04bf c70c c5be ec19 0dbf 324c 15bf
000000f0: 155e b03c 3f08 983f 9afc 43bf 4937 3abf
00000100: 58d5 4dbd 1a06 b6c0 41a1 7bbe 997b d03f
00000110: f699 393f e0df dabf 9d4d 79be 0c58 b93f
00000120: 6f0f 0fc0 5026 a33f f694 cb3f 6591 88bf
00000130: 3669 2ebf 853b 023f 0638 54bf 3c2d a13f
00000140: daba ccbf 5b3d e33e 13d8 c93d 890c 953e
00000150: bee0 383f 7861 49be a8a4 ad3d 51af 86bf
00000160: ed98 2a3e 6da9 403d 15dd ba3f 2343 a7be
00000170: b52f b73f 7b66 7a3f 234f 46bf a422 c6bf
00000180: 231f 273f a65f ccbf 7507 f23e 78d3 8c3f
00000190: cc66 6abf ea1c 9fbd 3fa5 35bf 25bb aa3f
000001a0: 72a4 7e3e 5b74 e93e 8cc3 943e 30f3 dfbe
000001b0: 58c7 263f 769a c93e bc2e c6bf 9b40 b13f
000001c0: 54c0 70bf af1d 133f f870 bf3f a24b af3e
000001d0: 8e98 33bf 76f8 3c3f a820 0c3e 9493 843f
000001e0: 644c bfbf 2c56 cebe 92c5 6fbf a140 363f
000001f0: c0e3 6a3f b1db abbf 7266 6c3f 9a4f 9f3e
00000200: 5649 093f d24e 43c0 b37a 933e c0e4 d53e
00000210: 045b 933f 5cc4 d9c0 798c 0440 3b80 e5bc
00000220: 3f01 ba3b e8e5 afbc 5102 ae3f 14d0 833d
00000230: 7925 703e c376 4cbf 2b13 7a3f 3e26 50be
00000240: 770d 94bf d227 8dbd 98f8 1b40 e5b3 c83d
00000250: 6336 3cc0 565c 7a3e 7bde 95bf c5ad 6fbe
00000260: 958d cfbf bf82 0a3f a207 22bf db05 0bbf
00000270: 1397 2ebf 48f4 b83d c414 cebe f7f9 04bf
00000280: 8b00 f9bd 1755 41be da46 863f c491 523f
00000290: 15fb 0a3d 7f82 fbbd 0c0c a3bf b568 843e
000002a0: 17ac 873f f1b8 383f 1c42 d3be 6396 2a3d
000002b0: 0a9a 023f 4e30 83bf 8679 a5be 5d49 343e
000002c0: c32f 0dbe 98d1 babf b8a4 66bf 127c ea3c
000002d0: 4445 1ac0 1c02 75c0 fa99 5abf d59a cfbe
000002e0: 407a 2240 87c7 e5bd 206b b0be 9739 b9be
000002f0: 0ccb d93e 531f 26be 3ad1 84c0 de0c 073f
00000300: ae2d 2fbf 1ec9 49bf 4b42 3b3f 125e 0540
00000310: 3cff 043d 9f2b 6abe 326b d63e f2c5 97bf
00000320: a44d 0b3f 6551 e73d e01c 59bf 2c1f ec3e
00000330: 26fa 62bd a6dd ab3e 2d57 6b3f bc0c 06be
00000340: 5e3b 733f b427 cbbe 8466 e3be 0f30 26bf
00000350: 4705 d73d 6048 a23e 80c1 483e f4d4 48bf
00000360: 4fa8 203e ca09 32c0 bed7 7dbf 7bb2 1f3f
00000370: 02b0 b13e 918d 73bf ffd1 37be 3bd2 35bc
00000380: 491a a8bf aaed 943f b447 a2be fc3c d73c
00000390: beaa 94c0 5e9f 4f3f 5971 2dbf 1747 acbf
000003a0: 2483 ed3f 1dad ae3c b7ab 703f 95ca 123f
000003b0: ea6f 8d3f 77f8 23bf f4bc 3c3f 945d 81be
000003c0: 3f7e cd3f 7313 943f 8d95 4fc0 4244 303f
000003d0: a730 de3e fc10 4040 c857 73bf 92bd bbbe
000003e0: bbc5 493f a423 e13f 76a9 16bf a36c 83bf
000003f0: 250e c13e 8d05 3fbf 81f4 263f 0682 b9be
