data/misc/Walker2d-v2/p_ddpg_test_beta_0.4_s20346/pyt_save/model.pt (torch_old, 581199 bytes, 11 tensors)

weight f4 [256, 17]
00000000: a05d bbbf f38d 5bc0 4fca 3940 42c6 5a40
00000010: 6fcb 7abe c186 0e40 302a 8740 2bb8 3a3f
00000020: b405 0ec0 4396 4ebf e9b7 573f c7b7 723e
00000030: b559 ba3e b0f4 9bbe 2db5 623f 5e39 273f
00000040: 24de db3d fc98 39c0 2844 cebf 5f88 04bf
00000050: 96b2 d23f bc8c 45bf 5bd1 613f 8e1d f7be
00000060: e22c 65be 0e86 a1bf 5898 11c0 6e80 03bf
00000070: 687e 0bbf b3fe 63be 0bc3 073f ac01 bbbe
00000080: fbbb dbbe f829 2c3f 385b 33bf ed90 6f40
00000090: 686d 893f affa 6d40 4896 1abe 1a80 a9bf
000000a0: 7821 ab3e c00a c0bf 460a ca3f 0095 e83f
000000b0: 4526 5b3f 88c9 fd3e 3235 913b 5858 7ebe
000000c0: 9086 ee3d 6115 19be 4cfa 2d3e 9b41 8a3e
000000d0: 3a6e ad3f 56d4 d13f e4ca e83f 7baf 0f40
000000e0: b58e c3be 1951 2140 e33f 1a40 2eb3 723f
000000f0: e4e4 0abf 772d a53e 0d76 913e a13f 1cbf
00000100: 66c1 2fbe 3746 01bf 36b7 b73f 9c75 393e
00000110: 935f a73e 3a07 5cbf 15cf 3840 fb44 3b40
00000120: a68a c83e 1492 74be 5ef3 1740 8826 063f
00000130: 7f69 8b3f ce00 0e40 659f 8a3c c985 5ebe
00000140: e160 6f3e 2c51 283e 7b58 a9be 564c 993e
00000150: 1f3e 9cbe 81dc 7e3f 7e03 4a40 2041 ce40
00000160: ed37 0340 1b49 163f fe7a c63f fc43 0040
00000170: 5eca f8be 5c01 713f a861 8e3f 87aa b03f
00000180: e32a 673f 9c2a 8a3f 26ec 0bbf b02d 383f
00000190: c57f 4b3e 0b3e f63e 8744 07c0 84f6 46c0
000001a0: 83b2 5c3f e86a bd3f 6a30 673e 0d16 973f
000001b0: ebdf 553e da44 093e 3902 693f 85ac 703f
000001c0: b9c7 c5be 14c2 06bf 1a00 003f 9162 2f3f
000001d0: dc5e e8be 9aa8 a8be 0109 753f 2367 0f40
000001e0: 189d fb3f 9317 3040 3705 18c0 017b 08bf
000001f0: 77ef 1c40 99af aa3e 6c44 5c40 00ea f23f
00000200: d113 1c40 4526 0e3e 9f56 f8bd 6769 733e
00000210: 4b0f a6be fc83 05bf de63 75bd 3471 5c3e
00000220: 9654 5740 2bf5 313f c92b 9240 3036 483f
00000230: baee 833f bf9e dcbd 105a 30bf 65e9 35bc
00000240: 9c0f 5d3e 925a ac3e 837a 923e c4b9 2cbe
00000250: 1059 db3c 11ff eb3e b818 7fbd 5aa6 17bd
00000260: d021 863d 2075 02c0 8841 50bf 0b60 973e
00000270: 0835 8d3f 865e 23be d564 993f 2a66 9dbf
00000280: 5671 adbf 2fd1 a73f 1748 3f40 64c7 1fbd
00000290: e61a f73e e3a3 d2be 5cec b73e 4176 54be
000002a0: 9325 5d3e 5eba 143f 2a03 f4bf ae5e 83bf
000002b0: 8b17 b83f 73eb 183f fda1 913f 55ad 9140
000002c0: 1468 a43f e303 0c40 f55a 3bbe d021 893f
000002d0: e02a 53be 929a 483c 258b a7be fad0 8c3d
000002e0: 37c1 5dbf 8e57 6f3f 8ddd 11be 741d 533f
000002f0: 4bea d0bf 8239 96bf 8441 9e3f 3c63 f23f
00000300: 63d5 683f d316 5d40 d119 1340 8e06 afbd
00000310: ed47 8ebf 3c66 8e3e 2a0a 46bf b35a d33d
00000320: 7d3a 313e 700f 1c3f 443f 88be 5980 243f
00000330: f427 cdbf 6554 8940 784f a43f a0ef 8340
00000340: b7f7 2640 3aa7 b93e d2d9 b33e 29b6 533d
00000350: 406f d83e b9f8 83be dcbc 6ebe 15aa 26bf
00000360: 6f02 293f 2575 0b3e 93f1 663f a1dd de3e
00000370: be7f 97be da9a a7bf e8b0 3dc0 3ce3 5a40
00000380: 8b2a cc3f 1cc8 af3e 4375 e53f 204d 143f
00000390: b566 20c0 24b0 5bbe 737d 81bf 4d2b 27bf
000003a0: 00c7 9cbd ca3f a3be 0fdc 34bd fb83 14bf
000003b0: 7610 70bf b339 9b3f 21ee 0540 e68a 02be
000003c0: 65fa c93f baa5 4cbf 2415 8b3f f935 433d
000003d0: 62d2 90bf f718 27c0 cc58 94bf e797 833f
000003e0: ae1e 0b3f 60f5 8ebc 23a5 1b3f f041 87be
000003f0: ae88 0b3e 52a2 3bbf c59b 9abc 44d6 61bd
-1.4637947 -3.430539 2.902973 3.4183507 -0.24491666 2.2269747 4.2239 0.7293727
-2.219098 -0.8069803 0.84265 0.23702918 0.36396566 -0.3046012 0.885577 0.6532191
0.10735729 -2.8999624 -1.611455 -0.51770586 1.646075 -0.7716787 0.88210076 -0.48264736
-0.22380403 -1.2619035 -2.2749233 -0.51367843 -0.54489756 -0.22265129 0.53031987 -0.36524713
-0.42916855 0.6725154 -0.70061064 3.7432206 1.0736513 3.7184255 -0.1509639 -1.3242218
0.33423972 -1.5003281 1.5784385 1.8170471 0.8560527 0.4956782 0.00443139 -0.24838388
0.116467595 -0.14949562 0.16990012 0.27003178 1.3549263 1.6392925 1.8186917 2.2450855
-0.38194814 2.5205748 2.4101493 0.94804657 -0.5425551 0.3226125 0.28410378 -0.6103459
-0.1716362 -0.50497764 1.4352787 0.1811127 0.32690105 -0.85948527 2.8876393 2.9260852
0.3916828 -0.2388385 2.374229 0.52402544 1.089157 2.218799 0.016921708 -0.21730722
0.233768 0.16437215 -0.33075318 0.29941052 -0.30516145 0.9955521 3.1564631 6.44545
2.0502884 0.587053 1.5506284 2.0041494 -0.48591894 0.941427 1.1123552 1.3802041
0.90299815 1.0794253 -0.5465721 0.71944714 0.19872959 0.4809421 -2.1135576 -3.1087961
0.8620989 1.479825 0.22577062 1.1803604 0.20886199 0.13405171 0.91019017 0.94013244
-0.3862894 -0.5263989 0.50000155 0.68509775 -0.45384872 -0.32941133 0.95716864 2.24067
1.9657316 2.7514389 -2.3753183 -0.5331269 2.4521158 0.33337095 3.4416761 1.8977661
2.4387095 0.13881786 -0.12125897 0.23770677 -0.32433543 -0.5215452 -0.059909694 0.21527559
3.3645377 0.6951472 4.567845 0.78207684 1.0307229 -0.10772466 -0.68887424 -0.011103009
0.21587986 0.3366285 0.28609094 -0.16867739 0.026775867 0.46093038 -0.062279433 -0.03702388
0.06549418 -2.0383987 -0.8134999 0.29565462 1.1031809 -0.15954027 1.1983896 -1.2296803
-1.3550212 1.3110713 2.988775 -0.039008513 0.4826271 -0.4114066 0.35922515 -0.20748235
0.21596365 0.58096874 -1.9063466 -1.0263269 1.4382185 0.59734267 1.137756 4.5524087
1.2844262 2.1877372 -0.18296416 1.0713444 -0.20621824 0.012243884 -0.32723346 0.068757966
-0.8662295 0.9349297 -0.14244671 0.82466817 -1.63215 -1.17363 1.2363744 1.8936534
0.909506 3.454518 2.2984507 -0.08546172 -1.11157 0.27812374 -0.7735926 0.10320034
0.17307468 0.60961056 -0.26610768 0.64258343 -1.6027818 4.291552 1.2836752 4.123001
2.6088693 0.36260396 0.3512712 0.051687393 0.42272377 -0.25775698 -0.23314232 -0.65103275
0.6601934 0.13618906 0.90212363 0.43528464 -0.29589647 -1.3094132 -2.9639225 3.4201193
1.5950483 0.3433236 1.792641 0.57930183 -2.5062687 -0.21453911 -1.0116409 -0.65300447
-0.07655144 -0.31884605 -0.044155177 -0.58013886 -0.9377512 1.2126983 2.0926592 -0.12748298
1.5779539 -0.7994038 1.0865827 0.047658894 -1.1314204 -2.6108987 -1.1589599 1.0280732
0.5434369 -0.017450988 0.60798854 -0.26417494 0.13626358 -0.73294556 -0.018873105 -0.05513598

bias f4 [256]
00000000: 3301 b5bf 8410 13c0 2801 a8bf d55e 41be
00000010: e93f 1ebf 714f 62be eed1 e9bf cbb5 913f
00000020: 9564 2840 24e5 f0bf 6982 6bbf c0a4 d73e
00000030: 8b38 9fbf 05fc 4cbf fcc1 4a3e c6c8 7abf
00000040: f5de 0dbf 7113 7cbf 1ac9 d4bf df3c c53d
00000050: 241b 45bf 5c82 dabf e00d 23bf 2b89 c33e
00000060: e457 b9be 7cad 87bc 85ef 01c0 41ec a9bf
00000070: 6cec cbbf f24b 513f 843e 6bbd c6dc 5ebf
00000080: 035c ac3f 6942 8cbf c469 8cbf c843 e0bd
00000090: 2374 46bf 28b6 8fbf 40c7 dcbe 5407 193e
000000a0: ed9f a5bf a2b7 86bf a16a 783f 2651 debe
000000b0: da3d 42bf 39d6 593f 1643 31c0 eb8b 0ebf
000000c0: 436d 17c0 b554 1a40 cbb8 f2bf 0faf 35bf
000000d0: c114 cb3f 229a c6bb 8fc7 9a3f 8310 1a40
000000e0: e66d 153f 03aa d9bf 5b0d ae3e 1f5f 83be
000000f0: 6fe6 2dbc 3f63 483f 232a a1bf 9350 e23f
00000100: 254d e5bf 57ed 64bf d49e 4f3e 5e20 98bf
00000110: 993d bbbf 217e 0ac0 06a8 82be eb14 433e
00000120: 090d d5bf 209a a6be 9628 b13e cda7 9a3f
00000130: 3053 8e3d c61e cdbf 0f4b 1abf 60d0 6ebf
00000140: 1277 08c0 f57f bbbf b91f 9d3f 3164 37bf
00000150: f08f 95bf 90af 633f 12ec a1bf 635e 9abd
00000160: 9442 eebe af6e 3bbe 6ee5 b1be c867 82be
00000170: a5dc cd3e b074 c2bf cd70 c93f 6c2a 943f
00000180: 3415 e0bf 6211 d3bf cde7 2840 43e8 86bf
00000190: ef86 47bf a850 22c0 f4a3 bcbe cd84 8dbf
000001a0: 4ba2 6abf e456 1840 ee36 aabf fd56 dcbf
000001b0: 0805 0440 b5d7 63bf 2aeb 623d 3d99 dabf
000001c0: 683a 8cbf f081 003e f0d6 c7be c389 0ebf
000001d0: dce7 8f3f 5d85 233f 3207 e9bf 8bb5 0ebf
000001e0: da32 0440 7bdb b9bf 0e46 c6bf 6ec4 a4bd
000001f0: 9094 6dbf 19af 20c0 c556 febf c486 acbf
00000200: 96c6 983f 38c7 94bf 753b 01c0 f566 7d3e
00000210: b572 bcbf 5752 59bf 7b7f b9bf 3b22 07c0
00000220: 9877 123e e4b6 0bbf befc 8cbf fa89 f43e
00000230: a6e5 9abf 6d7f 74bf d47b 1f40 1b86 23bf
00000240: 92e3 94bf 42ba 0fbf f561 0ec0 ecba 29c0
00000250: d499 833f 9226 e53f d9fc 2bbf 855f 37bf
00000260: a443 bbbf 13a7 9b3f 9591 42bf 17b9 92bf
00000270: 4d72 18c0 3507 873f 627f e0bf 72e4 81be
00000280: 3589 77bf 2345 f0bf 2a34 20bf 0ae1 f63f
00000290: ade5 50bf 3f9d 10bf 6b42 c7bf 8b02 c2be
000002a0: 9047 fcbe 460e 44bf 5e03 0a3f c8d3 8e3f
000002b0: 9b75 0abf 82e3 f6bf 92d7 3140 2fbc 22be
000002c0: 6d8c 38bf 3e95 e63d 8296 febf 2eef cbbe
000002d0: 9dad fd3f eb34 fe3f 661b b4bf ff23 e53f
000002e0: 8ebf 80bf d8b5 21c0 23bb 84bf eb4b 0fbe
000002f0: 732d e1be 518a 2e3f f558 cabf f3a7 0ac0
00000300: 6000 12c0 79b5 5abf 72c7 733f 45ad ea3f
00000310: 3094 12c0 0efd b33f 0a2e 223e 2367 97bd
00000320: 126e 8fbf a801 a1bf ac0b e6bd d659 883e
00000330: 7275 24bf 3763 b7bb ffd6 d2bf 1059 cdbf
00000340: 89cb 92bf 160a 43bd decb b4bf ab40 fc3f
00000350: cf5a 1b3f fae1 62be ab88 d03f 340c 77bf
00000360: e569 02bf b57e c83f 77e7 03bf 0eab aebf
00000370: b149 86be 8bdd 83bf b655 f73f 55cf b13f
00000380: d0ca 62bf a3e3 ba3f 1309 0ac0 e442 cfbf
00000390: 33b6 12c0 9dc5 16bf 98ab 853b ffc5 0740
000003a0: 82e7 4cbf 212b d2bf a25e 5040 cb2f e6bf
000003b0: 21de 05c0 5d32 e5bf fb2d aebf e15a aabf
000003c0: de6b 22be 5f8c e6bf 349b aabf 1158 ac3e
000003d0: ea19 57bf e687 0ec0 ddb4 edbf e843 50bf
000003e0: 4a47 e5bf c6f7 a9bf e8e9 97bf e71f dbbf
000003f0: 8a57 1d40 fc24 b9bf cec7 94bf 8d96 e5bf
-1.4140991 -2.297883 -1.3125353 -0.18883832 -0.6181627 -0.22100617 -1.826719 1.1383604
2.631139 -1.8819928 -0.91995865 0.42117882 -1.243913 -0.8007205 0.19800562 -0.97962606
-0.5541833 -0.98467165 -1.6623871 0.09630751 -0.7699454 -1.7071033 -0.63693047 0.38190588
-0.36199868 -0.016562216 -2.030244 -1.3275224 -1.5931525 0.8175651 -0.057432666 -0.87055624
1.346558 -1.0957767 -1.0969777 -0.10950428 -0.7752096 -1.1227465 -0.43120766 0.14944202
-1.293943 -1.052479 0.970377 -0.43421286 -0.7587563 0.850925 -2.7697196 -0.5568225
-2.3660438 2.41142 -1.8962644 -0.70970243 1.5865709 -0.0060608545 1.209215 2.4072578
0.58370817 -1.7005008 0.33994564 -0.2565851 -0.010614022 0.7827644 -1.2590984 1.7680839
-1.7914168 -0.8942465 0.20275432 -1.1884878 -1.4628173 -2.1639483 -0.25518817 0.19050948
-1.6644603 -0.32539463 0.34601277 1.2082459 0.069494605 -1.6025016 -0.6027078 -0.93286705
-2.1322675 -1.4648424 1.2275306 -0.71637255 -1.1684551 0.8893976 -1.2650168 -0.07537534
-0.4653517 -0.18303941 -0.34745353 -0.25469804 0.402074 -1.519186 1.5737549 1.1575446
-1.7506471 -1.648968 2.639148 -1.0539631 -0.7794027 -2.5361729 -0.36843836 -1.1056153
-0.9165389 2.3803034 -1.3298013 -1.7214047 2.062807 -0.8900102 0.05540005 -1.7078015
-1.0955324 0.12549567 -0.39031172 -0.5567896 1.1242633 0.6387537 -1.8205321 -0.5574576
2.0656037 -1.4520105 -1.5490129 -0.080452785 -0.92804813 -2.510687 -1.987023 -1.3478627
1.1935604 -1.1623297 -2.019254 0.24746306 -1.4722506 -0.84891266 -1.4492029 -2.1114643
0.14303434 -0.54575944 -1.1014631 0.47761518 -1.2101333 -0.95506936 2.4919329 -0.63876504
-1.1631949 -0.5614358 -2.2247288 -2.6520338 1.028132 1.7902396 -0.6718269 -0.71630126
-1.4630017 1.2160362 -0.7600339 -1.1462735 -2.3819764 1.0549074 -1.7538874 -0.25369602
-0.96693736 -1.8771099 -0.62579596 1.9287426 -0.8160046 -0.5648994 -1.5567144 -0.37892565
-0.49273348 -0.7658428 0.5391139 1.115838 -0.540857 -1.928818 2.7787824 -0.15892099
-0.7208927 0.112589344 -1.9889681 -0.39830917 1.9818608 1.9859899 -1.4070861 1.790161
-1.0058458 -2.5267239 -1.036961 -0.13993804 -0.43979988 0.68179804 -1.5808398 -2.1665008
-2.281273 -0.85433155 0.95226204 1.8334128 -2.2902946 1.4061601 0.15837875 -0.07392719
-1.1205466 -1.257863 -0.11232695 0.2663104 -0.6424171 -0.005596544 -1.6471862 -1.6042805
-1.1468364 -0.04761704 -1.4124715 1.9707235 0.6068544 -0.22156516 1.6291708 -0.96502995
-0.5094283 1.5663668 -0.5152506 -1.3645952 -0.26228097 -1.0301985 1.9323032 1.3891398
-0.8859072 1.4600719 -2.1568038 -1.6192288 -2.2923706 -0.58895284 0.0040792935 2.1214597
-0.8004075 -1.6419412 3.255776 -1.7983335 -2.0916827 -1.7905995 -1.3607782 -1.3308984
-0.1586146 -1.8011588 -1.3328614 0.3366094 -0.84023917 -2.2270446 -1.857082 -0.81353617
-1.7912381 -1.327874 -1.1868258 -1.7119111 2.458468 -1.4464412 -1.1623476 -1.793657

weight f4 [256, 256]
00000000: 41b3 58bf f92b 8e3e 60f1 81bf a211 91be
00000010: d5c0 933d 80df 06bf e403 893f 76a8 893f
00000020: 5daf 47be 3914 d03f 77e0 89be b468 c5bf
00000030: 1bad 503d f281 c23e 9ac1 b23f 6f40 f33d
00000040: 7e98 613c 68e7 edbf 29d8 7c3f 3c8f 10bd
00000050: 80b2 9bbf 3234 18bf 3606 51bf 6ea9 b73e
00000060: c3a3 21be 73c1 f8be 890f b93e 60f5 583f
00000070: 8997 453e c36f e63e 824a 013e 189f 55bf
00000080: ca7b 4ebf 033c febf 9ab6 8abe 421e 99bc
00000090: 3f57 9dbf f67b 4b3f cf8e cbbf 247b 99be
000000a0: bb15 fdbe 162a b53e 95a9 3dbf f0d3 ecbe
000000b0: 8037 bb3f 0fe5 8dbf f897 873f 96fa eebd
000000c0: fd85 65bf a36e 7b3f f943 a83f 20a8 df3d
000000d0: 23cb 23c0 2ab1 aabf 021b 523f 203d cf3d
000000e0: 1669 993e 5801 8fbc 8635 bdbf 41f9 d03f
000000f0: 951e 65bf 315b 923f 3bb5 ffbe d012 8c3f
00000100: 5421 2bbe 2456 893f 87ce c7be 6d64 8bbe
00000110: 80f4 cbbf 6583 7bbf 5120 043f b8c1 3d3f
00000120: f505 8f3f d6cf 06bf 5d63 1a3f d06c 63bf
00000130: 05a4 2cbf 52dd 00c0 89e1 293f 2960 63bf
00000140: 2d03 03c0 98f6 913f d296 0a3f c572 adbf
00000150: f136 80bf fdfa 83be 22ef b7bf d29b 8abe
00000160: 000e e2be 1aed a83e 324a 6c3f 6941 b5be
00000170: eb31 86be 6e0a 893e 5eda 01bf 284d 0e3f
00000180: 5c8a b53d 9f74 1dbf 8976 fabe 9b6c 50bf
00000190: 3370 883f b769 4fbf 091c d73e 15fd 233f
000001a0: 600d 90be 26f6 a13f c792 043f 0406 13bf
000001b0: a65a 70bf ec80 133f 718d 643f e628 a6be
000001c0: c92d 003f d086 233e 7be7 3f3f 3993 dcbe
000001d0: 18f3 2c3f 4af1 03c0 fa7a edbf 64e4 e93f
000001e0: 4953 a0bf 8b3a d33f 6179 ba3e 2137 85bf
000001f0: e69c 99be 930b 22bf 3c07 b0be 3bdc 1bbd
00000200: ed07 fe3e 4e11 b5bf 815e 4cbf 240d e33e
00000210: 60d7 8fbf 4295 0b3f c77a 873f 60f4 743f
00000220: aa5e 393e bf8a 0ec0 5bd4 17be facb e63e
00000230: d7d2 ad3e 716f c03e c852 45bf 3806 183f
00000240: 503d 783f 3300 0abf a218 d43e 5b73 ee3e
00000250: 2b8e e23e 467d 903f e5bb 693f 6c9b 0bbf
00000260: 6cc0 ffbe 404c 47bf 508e 833e e2b8 41bf
00000270: 4a23 47bc 16f5 1a3f 275f 713d 7b3e eb3f
00000280: c8aa 7dbf 3938 703f ab93 7ebf 4d70 f8be
00000290: efeb bd3d e964 82bf 1d42 283f a014 68bf
000002a0: 1f2f 4bbf b62d bb3f f799 88be 0474 4e3e
000002b0: b2c6 5c3f 90a2 0abd dbdc 393f 1ed9 a5bf
000002c0: 9da5 083f c561 0dbf 1f3f 8a3e defa 893f
000002d0: 751f 093f 6965 e7bf ee87 353e e744 31c0
000002e0: 393e aa3f 7bef 5d3f aa11 f8be bfd1 c6be
000002f0: bb48 bf3e ba1b eabd aa64 5cbe 56a8 debe
00000300: 870c c53e 358a 06bf 7b93 11c0 5148 4abf
00000310: 93fa bc3f b578 6b3e f0f5 50bf 2a10 373f
00000320: 8b8b 953e c20d a63e 8c2a ca3d 765c ffbe
00000330: 8ad9 e83e 2921 bdbe 8e39 5c3f 6ad2 8d3f
00000340: eea4 5ebe 2fda 973e 213e 3d3d 2d81 45be
00000350: f630 693f f706 82bd 55a7 77bf 9229 e63e
00000360: dc97 e7be 7990 293b 321c 053f d2d5 acbf
00000370: fe89 8f3e a85d 80bf 8853 86bf f8f2 d53c
00000380: 9d8a 0bbf 3a41 d4bf 3012 7ebe f625 4ebd
00000390: c7a3 803f c16a 423f d0d1 013f 594d 9dbf
000003a0: 5911 503e cf28 ac3e e5cb 0fc0 3d12 413f
000003b0: cc29 453d 8139 f7be 7d2f c53f 57cb 88bf
000003c0: cedd f2be aae6 a6bf 6ea2 cbbf 6d07 5fbd
000003d0: 11d6 90bf f3ab 8c3f 1b56 353f 62cc 283e
000003e0: f6fc 443e 9325 26bf c15d aa3f 5593 933f
000003f0: 7469 8e3f f537 1dbf e7e1 d63e 24a4 87ba
-0.8464852 0.27767923 -1.0151787 -0.28333765 0.07214514 -0.52684784 1.0704312 1.0754535
-0.1950049 1.6256171 -0.26929066 -1.5422578 0.050946336 0.37989765 1.3965333 0.11877524
0.013769267 -1.8586245 0.98767334 -0.03529285 -1.2163849 -0.59454644 -0.816501 0.35871452
-0.15785126 -0.4858509 0.36144665 0.8474941 0.19296087 0.45007142 0.12626079 -0.8344588
-0.8065764 -1.9862064 -0.2709244 -0.018691186 -1.229225 0.79486024 -1.5902957 -0.2997676
-0.49430642 0.35383672 -0.74086887 -0.46255445 1.4626312 -1.1085528 1.0593252 -0.11668889
-0.89657575 0.98215693 1.3145744 0.10920739 -2.5592735 -1.3335316 0.8207246 0.101190805
0.29962987 -0.017456695 -1.4781959 1.6326066 -0.8949979 1.143408 -0.49942955 1.0943241
-0.16711932 1.0729413 -0.39024755 -0.27225056 -1.593399 -0.9824737 0.5161181 0.74123716
1.1173693 -0.5266088 0.60307866 -0.8883791 -0.67437774 -2.0135083 0.66359764 -0.88818604
-2.0470688 1.140338 0.54136384 -1.355065 -1.0016767 -0.25777426 -1.4369853 -0.27072006
-0.44151306 0.32993394 0.92300713 -0.35401466 -0.2620996 0.2676577 -0.50723827 0.5558648
0.088642806 -0.61506075 -0.4891856 -0.8141572 1.065924 -0.81020683 0.42013577 0.6405805
-0.28135204 1.2653244 0.51786464 -0.57431054 -0.9388832 0.57618594 0.8927832 -0.32453078
0.5006986 0.15969396 0.74962586 -0.43081072 0.6755843 -2.061602 -1.8553154 1.8272824
-1.2525417 1.6502241 0.3642073 -1.0407449 -0.30002517 -0.6329891 -0.3438052 -0.038051825
0.49615422 -1.4145906 -0.798317 0.44345963 -1.1237602 0.54524624 1.0584344 0.95685387
0.18102518 -2.2272184 -0.14827101 0.45077497 0.3394992 0.37585023 -0.7707944 0.5938449
0.96968555 -0.53906554 0.41425043 0.46572384 0.4424909 1.128823 0.9130233 -0.5453403
-0.49951494 -0.77850723 0.25694513 -0.75672734 -0.01215441 0.6053022 0.058928635 1.8378443
-0.99088717 0.9383579 -0.99444073 -0.4852318 0.092735164 -1.0187045 0.6572588 -0.9065647
-0.79368776 1.4623325 -0.26679966 0.20161444 0.86240685 -0.033846438 0.72602624 -1.2956884
0.53377706 -0.5522731 0.27001283 1.0779684 0.53563625 -1.8077823 0.17727634 -2.7698305
1.3300239 0.86693543 -0.48450977 -0.388319 0.37360176 -0.1143107 -0.21522775 -0.43487805
0.3848612 -0.5255464 -2.2746265 -0.79016596 1.4763969 0.22995265 -0.8162527 0.7150904
0.29208025 0.3243237 0.098713964 -0.4987523 0.4547847 -0.36939362 0.8602532 1.1079838
-0.21742603 0.29658648 0.04620183 -0.19287558 0.91090333 -0.06348985 -0.96739703 0.4495359
-0.45233047 0.0025873466 0.5199615 -1.3502753 0.28034967 -1.0028582 -1.0494242 0.026116833
-0.5450838 -1.6582406 -0.24811625 -0.05032917 1.0049981 0.75944144 0.50710773 -1.228923
0.20319118 0.33624884 -2.2468197 0.75418454 0.048135564 -0.4828606 1.5405117 -1.0687054
-0.4743485 -1.3039143 -1.5908945 -0.05445044 -1.1315328 1.0989975 0.7083451 0.16484216
0.19237122 -0.64901084 1.3309861 1.1529337 1.1125932 -0.6141351 0.41969225 -0.00103486

bias f4 [256]
00000000: 4e3e 603e dc50 efbb 9551 9cbc 8bf1 88bf
00000010: 6a41 0bbf f6d9 13bd 574d 0cc0 db32 b4bc
00000020: 30a4 84bd c31a 17bd 6630 613e 0d79 07be
00000030: 6ab3 78bd 06f1 bebd 7708 6dbf 8e8e 91bf
00000040: 4f24 0abf e4f2 c4bd 9ae5 eabc a533 1dbd
00000050: 1d48 80bd 45b1 a8be 74bd 2cbe f23d 3a3d
00000060: 2429 94bd 3db9 38bd 8a97 57bd 6b4b 8cbd
00000070: 3665 8dbf b683 423f c81a 2abd 0a84 5e3e
00000080: cd8c b0bd 3acc c6bd 628c b0be 9d4f b7bd
00000090: 5697 83bf 7f60 22bf b9d0 25bd 3b72 d9bd
000000a0: 5fcb ed3e 3390 3b3e 4558 04c0 8fb7 df3d
000000b0: 8a9e 23bf 43db ac3f 0fa6 20bd 235e a3be
000000c0: 287f ea3f 680e 85bd 8279 9ebf f9c3 103f
000000d0: 4700 38bd 8ed6 6dbd 6ca1 993e 7d4e 8dbf
000000e0: 4ce3 1f3e 32db d1bd 03d3 88bc 5c4a ef3f
000000f0: 3b81 bd3e a973 92be b8c7 a5bf 61b0 27bf
00000100: 2d16 18bd 0da9 0840 a89e e43e 7111 63bf
00000110: c7ca a9bd b8c1 ab3f a5d2 a43e f9bb ae3f
00000120: 3b04 8ebd 6fb2 173f 0515 c6bf 448d 25c0
00000130: d705 babf 17ee c8bd 2cb7 b8bf cabe b1bf
00000140: 33e9 ffbd 4be0 e5bc 67c2 44bf 3477 bdbd
00000150: d894 253f 09b2 ec3f 3c82 acbf 67ac f83e
00000160: cc46 ab3e b11f 913e 79ea e43f 3412 0cbf
00000170: a706 06bf de0a 81bd 7eff 463f 4a4b a13f
00000180: b826 853f f766 773e d7f3 e13f 2c08 e1be
00000190: 6b0c 813f 6558 3cbd dfe2 4040 0ab0 05bd
000001a0: 6c8c 2c40 c488 013c b73d 50bf 47c3 4bbf
000001b0: 540e b43e 78b1 e53e 620e e53e 018d d4bd
000001c0: 1b4e b73e 0892 18bf 2cc0 fbbe dc34 f23e
000001d0: b445 b4bf 0197 65bd 2276 24be 3bbc 14c0
000001e0: 0868 6f3f ea22 abbd f366 083f 7d75 f43e
000001f0: 5f66 85bc 6331 b6bf 24e5 dcbe f266 11c0
00000200: bd3c 04be 7b8b 9d3e 021d f2bd df8c f43f
00000210: 0797 f3bb 9e02 af3f a36f e1be b1f2 5e3e
00000220: da02 64be 8ea4 dbbd 069a 7a3e c37a b7bc
00000230: 13df c7bd 3f94 3cbf 15fe d9bd d279 923f
00000240: 500a 12bf 1d2b 0ebe f534 6dbe 2548 acbd
00000250: 3c1e 7c3f 7523 9fbe 0036 aabd f6b7 fc3b
00000260: 787f 1bbf c00c 3fbd 4976 4abc f75f e0bd
00000270: 5e28 62bd 886c 27be cdb3 bc3f 01c1 d1be
00000280: 35d6 d9bd de8d 893e 8d66 ed3e 2135 a73f
00000290: 2dc3 08bf 88db 1b3f ac12 843e 9c3b 9ebe
000002a0: 9272 213f 6432 823a aed6 15bf 8360 58bd
000002b0: ba62 2abd fd8f 00bf a587 4340 643a df3e
000002c0: 99c4 8b3e 311f f5bd a94b 0ebd 4c6d 77be
000002d0: 0bf6 673f 066b 2dbf 1364 a13f 9949 f53e
000002e0: c2d3 0abf aac6 2540 a036 fabd bb82 923f
000002f0: 088c 83bd 6d17 a7bd 7053 ccbf ef44 b6bd
00000300: 4db7 41bf bad9 33bf eb56 fa3f 3c0d 76bc
00000310: ef75 e3bd 516a 9b3f d210 39be 0537 47bd
00000320: 10af 7fbf 26b9 a5bd 0ab0 f13e cf0f 8fbd
00000330: e22f a1bf d605 e0bc 9c4a 9d3f de9d 873f
00000340: 3362 23be eb2c 67be 0207 1b3f 768b 47bf
00000350: 15f6 993f a36d 8dbf c5ea d1bc 1d82 823f
00000360: e69e 073e 813b 3f3f 54a2 90bd 8e60 95be
00000370: 1fbb 363f 817b 133f 3e4a a63f 8218 f0bd
00000380: 5a66 be3e 02c0 3140 48d0 fabd 1976 3d3f
00000390: 5faa babd 52a6 1e3e c010 7cbf 442e 79be
000003a0: 721a a1bc 63e9 6ebf 900d a3bd e55a be3f
000003b0: 24ff f5bd e8c2 84bd ecbb 543f 8469 f5bd
000003c0: 527a c2bd 99c4 eebd 70a1 fcbd 3342 01bd
000003d0: f2c1 74be b3e8 6d3f fef8 99bd b152 abbe
000003e0: c5ca de3f 721b 393f a61b 42be b301 373f
000003f0: cdc0 5ebe 276b 753f 7a58 b6bf 4945 abbd
0.21898767 -0.0073033404 -0.01908187 -1.0698713 -0.5439669 -0.036096536 -2.1922204 -0.021996906
-0.06476629 -0.036890756 0.21991119 -0.13229771 -0.060717978 -0.09323315 -0.9259104 -1.1371629
-0.5396165 -0.0961664 -0.028673936 -0.03837933 -0.062637545 -0.32947746 -0.16869146 0.045469232
-0.072344095 -0.045098532 -0.052634753 -0.06850322 -1.1046512 0.75982225 -0.041529447 0.21730056
-0.086206056 -0.09706922 -0.34482104 -0.08950732 -1.0280559 -0.6342849 -0.040482257 -0.10617491
0.46444222 0.18316726 -2.0678875 0.10923683 -0.63913786 1.3504413 -0.039220866 -0.31907758
1.8320055 -0.064968884 -1.2380831 0.5654903 -0.04492214 -0.058065943 0.30005968 -1.1039578
0.1561405 -0.10246886 -0.01670218 1.8694568 0.37012658 -0.28603867 -1.2951574 -0.6550351
-0.037130523 2.135318 0.44652295 -0.8869849 -0.0829063 1.3418493 0.3219196 1.3651115
-0.06934401 0.59256643 -1.5475165 -2.5867472 -1.4533032 -0.09811037 -1.44309 -1.3886349
-0.12495651 -0.028061053 -0.76859134 -0.09251252 0.6468024 1.8491832 -1.3477244 0.48569033
0.3345245 0.2834449 1.7884055 -0.54715276 -0.523539 -0.06300901 0.777336 1.2601101
1.0402441 0.24160372 1.7652539 -0.43951547 1.0081915 -0.045982737 3.013847 -0.032638587
2.6960707 0.007906143 -0.8134417 -0.79594845 0.35167181 0.4486196 0.44737536 -0.10378457
0.35801777 -0.59597826 -0.49170053 0.47305954 -1.4083772 -0.05605221 -0.16060689 -2.3239887
0.93518114 -0.08356269 0.5328209 0.47745886 -0.016284166 -1.4233822 -0.4314357 -2.2719083
-0.12913795 0.30770478 -0.11821939 1.910549 -0.0074337753 1.3672674 -0.44030485 0.21772267
-0.22266713 -0.10724746 0.24472818 -0.022397405 -0.09759345 -0.73663706 -0.106441654 1.1443427
-0.57046986 -0.13883634 -0.23164733 -0.08412198 0.98483634 -0.3108174 -0.08311081 0.0077123595
-0.60741377 -0.04664302 -0.012357303 -0.10955804 -0.05521428 -0.16349995 1.4742371 -0.40967563
-0.1063656 0.2686605 0.46367303 1.3063089 -0.53422815 0.60881853 0.25795496 -0.30904853
0.63065445 0.000993323 -0.585307 -0.052826416 -0.04159806 -0.5021971 3.055154 0.43599236
0.2729843 -0.1196884 -0.034740124 -0.24162787 0.90609807 -0.6774143 1.2608665 0.47907713
-0.54229367 2.5902505 -0.1221745 1.1446146 -0.06423193 -0.08158765 -1.5962963 -0.08899867
-0.7567032 -0.702541 1.9557775 -0.015017804 -0.111064784 1.214182 -0.18072823 -0.048636455
-0.998765 -0.08091955 0.4720462 -0.06985437 -1.2592738 -0.027346533 1.2288394 1.0595052
-0.15955429 -0.22575729 0.6055757 -0.77947176 1.2028223 -1.1049083 -0.025624642 1.0195957
0.13244209 0.7470017 -0.07062212 -0.29175228 0.71379274 0.57610327 1.2991407 -0.117234245
0.37187463 2.7773442 -0.12246758 0.7400833 -0.09114527 0.15493134 -0.9846306 -0.24334055
-0.01966593 -0.9332487 -0.07961571 1.4871489 -0.12011555 -0.06482488 0.83099246 -0.11983016
-0.09495987 -0.11658592 -0.12335479 -0.031557273 -0.2390211 0.92933196 -0.075181946 -0.33461526
1.740563 0.72307503 -0.1895586 0.7148697 -0.21753235 0.95866627 -1.4245751 -0.083628245

weight f4 [6, 256]
00000000: 1c19 bebe c078 863c 0224 493d 12f6 5dbf
00000010: adfc 903e 8e0b ff3b b514 bdbe ea01 843d
00000020: 2bd7 de3f bf44 543c 2364 c03d cecd e03b
00000030: c0df 9ebc 7d56 263d 58fd 873f e477 143f
00000040: 3920 0d3f 8d1c 73bb 08a1 91bd 5fcd 533c
00000050: e656 a0bf 599c 9e3f c4f6 d63d c9d3 f7bc
00000060: 97bf 063d 57b8 c03d 6059 1e3d de46 efbc
00000070: ce35 3b3f b94f 723f c21d 34be 953f 2f3e
00000080: d8d6 083a dcd7 3b3d f596 b83e de0d bc3c
00000090: ed2a 0c3e 50f5 103f 6036 cdbc 0716 03bf
000000a0: ba5b 083e 82d1 973f 3597 f0be 1eb4 d83e
000000b0: ab13 9fbe 928c d53f 433d 5ebd 9ca3 93be
000000c0: ce22 29bf 827a fd3c 0495 0c3f 83ba c73e
000000d0: fcd1 45bd 6bd9 37bd 876b 20bf aaff 90bf
000000e0: 04a4 bd3d 3287 3a3d fd81 85bb 91c0 9c3e
000000f0: cef0 94bd 0a72 03bf 7f84 a8be f2b4 f0be
00000100: 4a17 3e3c c7bd 8bbe e3b4 26bf a686 2b3f
00000110: fb02 23bc 7aba 04bf ccfe da3e 6faf 743e
00000120: c0f9 2cbc 6e16 5abf be0c 41be c471 91be
00000130: 1b97 4dbf c38b 013d 9790 a23d 2ab5 983e
00000140: 4703 af3b fe0f 9d3d 4ee6 763e 8ca7 7e3c
00000150: 6835 8a3e d98f 53be df11 a3be 6fa8 033f
00000160: a22d 923d 23bc 6b3f 0bc7 943e a316 30bd
00000170: 8958 85be 7cfd 623c 1ec0 81bf f76a 703f
00000180: 5271 a3bf 5f95 70bf bd1f 0ebf 3911 abbe
00000190: 4d74 76bf 9964 a03b 12ec 6ebf ec2f d1bc
000001a0: 5172 0bbf 7466 423d 4abf 343e 4e34 a63f
000001b0: 483e 453f c661 1f3f 91fa 74bd 078d 1f3c
000001c0: e6e7 053f 80c7 48bf ce8a b4be 6e4c 2f40
000001d0: 8518 213c 3872 12bd 016b c1be a1a6 373e
000001e0: 93b5 3f3f 27e8 b7bd 5831 fcbd ce20 19bd
000001f0: 0a03 983e 3d3e 8bbe db96 1ebe 5293 1ebe
00000200: a7ee 10bc fb42 1bbe a8f4 f7bb d5a8 21bf
00000210: c338 a63c 7b51 223f d4a6 2bbf abb3 c7bf
00000220: 1829 e2bc d586 edbd 6b13 4ebe f2ec 2b3c
00000230: 39d2 44bc 3654 f3bd 0826 bfbb f676 2c3e
00000240: 733f 6a3f 3d05 0ebc b7bb bc37 cd81 00be
00000250: e67c ab3d c97c 173d 0bae 513d d7da fbbb
00000260: 79ae 7abd c7a4 343d c7f3 d5bb 8871 763c
00000270: d2b5 083d abec bb3b ae10 b63d e4dd e6bd
00000280: 3f77 983c 148e b63e f513 6b3e b097 c03e
00000290: 1676 b8bd 033a 593f b124 90be 89fa 1a3d
000002a0: 8ddd 0cbf 8e31 7ebc bd26 843e ac3e 0bbd
000002b0: b509 58bd 34e2 133e 9636 44bb 7892 983f
000002c0: 71b4 c63d 998e 5ebd f423 26bd 6d64 7c3e
000002d0: 530a 62be b1fe 183e f020 f03c df90 16bf
000002e0: e914 eebb 6904 0ebf 3fe8 aebc 2415 873c
000002f0: 60a1 0b3c f80e 8ebc f0f3 60bf 0ee4 033d
00000300: 371b 93bf 9fa1 1abf 23a6 86bf eb96 323c
00000310: 7962 bebc c4da 64be 5254 e63f a17f f4be
00000320: 078f f7be 482e b33c 3867 c4be dd35 eebc
00000330: aec1 1cbf 5d14 093d 9f8a 97be d08d 423f
00000340: d5d6 0a3f 2510 19bd 19fa 513d 7887 8d3f
00000350: 25e5 35bd b05d 61bf 97a1 283d a8ce ea3b
00000360: 0005 6b3e 842f 3b3c 30f7 15bc 0529 f6be
00000370: 71d3 a6be fd29 ce3f 583c 283c 6093 8f3c
00000380: 56ca c8bf bee7 b03e 2e8e c5bc 5d9c 0dbe
00000390: a38f 65bd cc7e 2fbf 2932 143f ef0d 98bd
000003a0: ffa4 a93c 00bf 19be 9b4b 213d 24b0 2dbf
000003b0: a463 a33b 9c53 a03c d515 bb3e 0e07 5bbc
000003c0: c13f 133d 0e06 38bd 1a91 c8ba 5f81 0dbc
000003d0: a038 29be 38ee f6bf f0ef 223d 86e5 86bd
000003e0: 6376 35bf 881f c6bf 75b1 053e 6192 9cbe
000003f0: e550 08be a266 eabe 74b5 0dbf 7bf7 7dbd
-0.37128532 0.016415 0.049106605 -0.867036 0.28317776 0.00778336 -0.3692986 0.064456776
1.7409414 0.0129558435 0.093940996 0.0068604713 -0.019393802 0.040609825 1.0624189 0.5799544
0.5512729 -0.0037095875 -0.071107924 0.012927382 -1.2526519 1.2391464 0.104962856 -0.030252354
0.032897558 0.0941016 0.038659453 -0.029208597 0.73128974 0.946529 -0.17589477 0.17114098
0.00052200025 0.045860156 0.3605267 0.022955831 0.1368825 0.5662432 -0.025050342 -0.51205486
0.13316241 1.1860812 -0.46990362 0.42324919 -0.31069693 1.6683524 -0.054257642 -0.28835762
-0.6606873 0.030942205 0.5491488 0.39009485 -0.04829596 -0.04488508 -0.62664074 -1.1328022
0.09259799 0.04553909 -0.0040743337 0.30615667 -0.07272492 -0.51345885 -0.32913586 -0.4701305
0.011602232 -0.27293226 -0.6511976 0.6700233 -0.009949441 -0.5184704 0.4277252 0.23895048
-0.010557592 -0.85190475 -0.18852517 -0.2840711 -0.80308694 0.031627428 0.079377346 0.29825717
0.005340967 0.07669066 0.24111292 0.015542876 0.2699387 -0.20660342 -0.31849572 0.51428884
0.0713761 0.9208395 0.29058108 -0.042990338 -0.2604411 0.013854381 -1.0136755 0.93913215
-1.2768958 -0.9397792 -0.5551718 -0.33411577 -0.9627121 0.0048948047 -0.93328965 -0.025535546
-0.5447131 0.04746099 0.17651096 1.2984712 0.7704816 0.62258565 -0.05980927 0.009738213
0.52306974 -0.7842941 -0.3526215 2.73904 0.009832506 -0.03575346 -0.3777695 0.17934658
0.74886435 -0.089798264 -0.12314099 -0.0373848 0.2968982 -0.27195922 -0.15487234 -0.15485886
-0.008845962 -0.1516227 -0.007567007 -0.6314824 0.020290738 0.6340558 -0.67051435 -1.5601705
-0.027607486 -0.11597983 -0.20124595 0.010493504 -0.012013012 -0.11881296 -0.005833391 0.16842255
0.91503066 -0.008668241 2.2498758e-05 -0.12549515 0.08373432 0.03698424 0.05119137 -0.007686
-0.061201546 0.044102456 -0.0065293047 0.015041716 0.033376522 0.005735 0.088899 -0.11272791
0.018611548 0.35655272 0.22956832 0.37615728 -0.09006898 0.84854144 -0.28152993 0.037836585
-0.5502556 -0.015514744 0.25810805 -0.033995315 -0.052743632 0.14441758 -0.0029939762 1.1919699
0.09702385 -0.05433521 -0.04056163 0.24647684 -0.22074251 0.14940907 0.02931258 -0.58814806
-0.0072656763 -0.5547548 -0.021350978 0.016489573 0.0085223615 -0.017341122 -0.8787222 0.03219991
-1.149268 -0.60402864 -1.0519451 0.010900239 -0.023240315 -0.22349077 1.7994483 -0.47753623
-0.4835131 0.021872655 -0.3836 -0.029078418 -0.6123303 0.033466686 -0.29597947 0.7599764
0.5423406 -0.037368912 0.051263902 1.1056967 -0.044407982 -0.8803358 0.04116973 0.0071657486
0.22951126 0.011424903 -0.009153172 -0.4807817 -0.32583192 1.6106564 0.010268293 0.017526329
-1.5686748 0.34551805 -0.024115648 -0.13829179 -0.056045186 -0.6855285 0.5788904 -0.074245326
0.02070856 -0.15014267 0.039378744 -0.67846894 0.0049862433 0.019571118 0.36540094 -0.013368381
0.035949472 -0.04492765 -0.0015302033 -0.0086368015 -0.16525507 -1.9291449 0.039779603 -0.06586747
-0.7088377 -1.5478373 0.13055976 -0.30580428 -0.13312109 -0.45781428 -0.55355 -0.062003594

bias f4 [6]
00000000: 071c e53f e2a8 dd3f cfbf 4b3f ea71 1f40
00000010: 4f88 243f 4e13 49be
1.7899178 1.7317164 0.7958955 2.4913278 0.6427049 -0.1963627

weight f4 [256, 23]
00000000: 224d 5dbf 417f b6bf 2afc 353f 128c 2abe
00000010: 6814 8ebf b3fb 2e3f d5c9 f03e 87f1 69bf
00000020: c162 9b3e d533 fc3e d541 ef3e 2b6e 93be
00000030: 56b3 99be f01c bd3e 20a0 1dbf 0348 113f
00000040: d31d 993e 692a 313f b7e8 fcbd baee 48bf
00000050: 1554 8b3e 56f3 993c 6669 523e 94c2 b53f
00000060: d3d4 bc3f 7bce b03f 82d0 9e3e f22b 54bf
00000070: 5cac 2a3f 8ba6 073f 6b0f 25c0 338e b93d
00000080: cad5 1d3e 79c9 603e 9b7b ab3e 518f 6b3e
00000090: 8649 ac3e 6884 9ebc 0ce0 ad3e 9d4d 303d
000000a0: 12a1 f13e aaef e63e fa33 c43f b6f7 42bf
000000b0: d75f 9dbe 539f cabf 1031 ccbf d273 58c0
000000c0: 3760 513e d76a 8bbf 7c91 3d3d 4c0a 3cbf
000000d0: ddc0 d43f 86d6 ba3d aa67 003f 7f5a e13b
000000e0: 773a 8e3b 67d0 0c3e 23cd 083e ea1f 383e
000000f0: 70c6 e7bd 7104 903e f164 c6bc 0689 6b3d
00000100: 5558 28be 31b3 633e 05de 98bf cb5b 383e
00000110: bd99 d6be c55c 01c0 2c2e 3bc0 82d6 d93e
00000120: 218b d03d 73c2 da3e 3378 bbbe c094 443c
00000130: fc4b 5a3f a114 4cbf bef4 04bd b2d4 8b3e
00000140: bda7 843a 1ce1 36be 112e 08be 77db 033f
00000150: 80c2 aabe a23b cabd 6c9a 363e ceb6 25bf
00000160: 2202 d83e cc06 23bf 2410 94bf eac5 febd
00000170: d382 2740 3d69 313f 382e 23c0 9d89 f4be
00000180: 2665 1abf 425f 6c3e 1f75 85bf c5eb 92be
00000190: 8a19 673e 9241 e23f 29d7 c6be 9e44 fabe
000001a0: 07d4 e3bd 84ba c83d 9298 c03e a2b0 febd
000001b0: ca62 c93d 47e5 793e d5ce 83bf 9069 d83e
000001c0: a386 113f 65b5 c13e d455 273f 0b1e a63f
000001d0: d086 e03f 1007 8e3e 2775 e3be cb3a 993f
000001e0: bc56 96be 5a4e 4f3f 6aa5 fe3f 9f80 f23e
000001f0: c656 303f ba17 edbc 67aa 203e 4d80 17be
00000200: faf0 6a3e c98e 46bc b1e3 01bf 7e40 3d3e
00000210: 1693 5abe f556 07bf eb74 ec3d 66cb 11bf
00000220: 8a34 89bf 2475 d3be ba22 8ac0 2911 7140
00000230: 291e 82be c3f6 7ebf 51d3 1f3f 0095 1abf
00000240: f657 40bf 4094 c43e d204 a93f 0f21 09c0
00000250: bd67 23bf 6184 9dbe f92c 9cbe 8319 1c3e
00000260: 7110 30be 1453 a5be dbd0 133d b8ef 1f3f
00000270: 5770 aa3e 669a 763e 1ebd 3a3f f60a 3d3e
00000280: 31f5 3b3e 7432 8b3f 5ce1 92bf 5e20 db3e
00000290: b54a 45bf 121a 1e3f c15e 5dbf 2b26 71bf
000002a0: addd 543e 04f9 07be 890c c3bc a490 683d
000002b0: b306 893d 5d68 22be 634c 4e3d 0667 1a3e
000002c0: 3e18 ebbd 1a9d 893d f7c7 92be 9133 cf3b
000002d0: 78bd bfbe 8edd d73d ec96 21be 4540 17bc
000002e0: b667 0a40 002d 933f d529 94bf bb36 553f
000002f0: 09a4 0abf 4110 64bf 79cb a93e 9562 5dbf
00000300: 8259 1abf 1f6f 9b3d 53ee 9f3e 2707 a4bd
00000310: 1351 583e 2ae4 1e3e e184 de3d fc48 e23e
00000320: e8b1 723e 63a6 663e b95c c1bf c312 573c
00000330: cd24 55bf 1f47 213f c95b 18be 21aa 3940
00000340: f8b9 8e3f 6edc 123e 5eaf a0bf d8cd 6cbf
00000350: 2d29 c8bf 39ba 2e41 60d8 7b3f e64c 0d3f
00000360: 3b76 ffbe 4f30 363f de70 5dbd 55f8 aabe
00000370: 0e04 0e3e 7827 4bbe b4b0 0e3f 57b0 8cbe
00000380: 698d a2be 9ac2 c23d 665f c83e 9a89 e7be
00000390: 05c8 073d 2760 ff3d bdb6 3a3f e36d 1d40
000003a0: 70d8 083f 4346 e73f 7fac 0ebf 13aa 3740
000003b0: 9e51 eb3f 93b0 1fbf 07cf 723f 0733 86bd
000003c0: a2dd c93d cad4 993e 6cd2 25be 3917 493e
000003d0: fb09 163e b3ea a8bd 9902 0f3e cbbe 60be
000003e0: ec6e 17bf bc7d 44bf 65d0 61bf ccbb 9bbe
000003f0: f454 c13f 76dc 823f 8819 fb3f d284 13bc
-0.8644582 -1.4257585 0.71087897 -0.16654995 -1.1099977 0.6835281 0.47028986 -0.91384166
0.3034878 0.49258295 0.46729913 -0.2879499 -0.30019635 0.3693614 -0.61572456 0.56750506
0.29905567 0.6920534 -0.12349074 -0.7848927 0.27212587 0.01879279 0.20548019 1.4200006
1.4752449 1.3813013 0.31018454 -0.82879555 0.6666925 0.529885 -2.579066 0.090603255
0.15413585 0.21951856 0.3349274 0.2300389 0.33649844 -0.019350246 0.33959997 0.043042768
0.471932 0.45104724 1.5328362 -0.76159227 -0.30737182 -1.5829872 -1.5952473 -3.382069
0.2044686 -1.089198 0.046281323 -0.7345321 1.6621357 0.09122948 0.5015818 0.006877243
0.0043404656 0.13751374 0.13359503 0.17980924 -0.11317146 0.2812839 -0.024218054 0.057503723
-0.16439946 0.22236325 -1.1942755 0.18003766 -0.41914168 -2.0212872 -2.924693 0.4254647
0.10182787 0.42726478 -0.36615142 0.011998355 0.8527219 -0.7971898 -0.032459967 0.2731071
0.0010120791 -0.1785931 -0.13298823 0.5150675 -0.33351517 -0.09874655 0.17832345 -0.6473206
0.42189127 -0.63682246 -1.1567426 -0.12440093 2.6173599 0.69301206 -2.549696 -0.4776124
-0.6031059 0.23083213 -1.0426368 -0.28695503 0.22568336 1.767626 -0.3883603 -0.48880476
-0.111244254 0.098012 0.37616402 -0.12436034 0.09833296 0.24403869 -1.0297495 0.42268038
0.56846064 0.37833706 0.6536534 1.2977918 1.7541142 0.27739763 -0.44425318 1.1971067
-0.29363048 0.8097893 1.989423 0.47363755 0.68882406 -0.028941978 0.15690003 -0.14795037
0.22943488 -0.012119004 -0.50738055 0.18481633 -0.21345171 -0.5286706 0.11545738 -0.56950986
-1.0719159 -0.4130031 -4.316739 3.7666724 -0.25413635 -0.9959528 0.6243182 -0.60383606
-0.7513422 0.38394356 1.3204596 -2.1426427 -0.6383017 -0.3076506 -0.3050306 0.15244107
-0.17193772 -0.32289946 0.036087852 0.62475157 0.33288833 0.24082336 0.7294482 0.18461213
0.18355252 1.0874772 -1.1475024 0.42798132 -0.7706712 0.6175853 -0.8647271 -0.94198865
0.20787688 -0.13278586 -0.023809688 0.056778565 0.06690731 -0.15860124 0.050365817 0.15078363
-0.11479233 0.06719418 -0.28668186 0.006323286 -0.3744924 0.10540305 -0.15780228 -0.009231632
2.16258 1.1498108 -1.1575266 0.8328664 -0.5415655 -0.890873 0.3316305 -0.8647855
-0.6029283 0.07589554 0.31236514 -0.08009177 0.21124677 0.15516725 0.108651884 0.44196308
0.23700678 0.22524409 -1.5106422 0.013127032 -0.8325928 0.6299915 -0.14878763 2.9010088
1.1150503 0.143419 -1.2553518 -0.9250159 -1.5637566 10.9204645 0.9837704 0.5519546
-0.4989489 0.71167463 -0.054062717 -0.33392587 0.13868734 -0.19839275 0.5573838 -0.27478287
-0.31748512 0.095097736 0.39135283 -0.4522217 0.033149738 0.124695115 0.72935086 2.459832
0.5345526 1.8068317 -0.5573196 2.8697555 1.8384283 -0.62378806 0.9484715 -0.065527014
0.09856726 0.30045158 -0.16193551 0.19637765 0.14652245 -0.0824789 0.13965835 -0.21947782
-0.5915363 -0.76754355 -0.8820861 -0.30416715 1.5104051 1.0223529 1.9617167 -0.009003835

bias f4 [256]
00000000: ae06 48c0 e528 c93f faac 29c0 4375 20c0
00000010: 7897 2840 7c47 8b40 108f 20bd 7a90 d240
00000020: 029c 3840 df5c 9340 86ac 6540 4b20 5dbe
00000030: 8bc6 f8bf 6259 7abf 53a1 2940 3575 9b40
00000040: 6b14 1fc0 eefc 1b40 da6d 3bc0 b5d6 20c0
00000050: 115f 0b40 c423 5140 2aa1 30c0 3333 37c0
00000060: c8c8 37c0 1cc8 933e 1695 5dbe 2580 f4bf
00000070: 8fe2 63c0 05a6 60c0 8ee0 a840 3e89 033f
00000080: c374 78bf 2217 2d40 70ad 7e3f fbc0 613f
00000090: d934 13c0 5a5e 3240 a079 c440 ef5f 43bf
000000a0: 322d 0e40 89e3 da3f cda0 c040 b98f 41c0
000000b0: 615f 63c0 2848 ddbf 98b5 8bbf 6d38 1c40
000000c0: a7fe b040 584a 20c0 eabc 2640 374b bfbf
000000d0: df53 9dbf 9a4e 00c0 7dc1 9640 2cfd 1fc0
000000e0: 61c2 343f 5a85 4840 fbef 05c0 2f0b 3dc0
000000f0: 2a99 7840 20bc 6040 c171 98c0 6dce 09c0
00000100: 7099 863e e074 20c0 ec4e c7bf ac72 45c0
00000110: e4a7 94bf 2dfa b6be 8758 9f3e 982a 3dc0
00000120: 2656 63bf f7d4 07c0 e739 a640 e44d eabf
00000130: 7d70 a03d 2dc6 05c0 8abe 9e3e bd7d 82bd
00000140: 1ae5 5b40 a3bf fc3e b927 bcbf 8085 fc3c
00000150: 7cee d940 8609 00c0 2230 ea3f f3e8 1d40
00000160: c133 45c0 ea97 8b3e f7ab 1ac0 314d 9940
00000170: 50ba c840 8c7d aa3f 4d35 3940 167c a4bf
00000180: 3837 4e3f 4419 343e ecb4 7b3f 1668 a240
00000190: 28d9 2b40 620a 7640 a68a 7fc0 8698 04c0
000001a0: 636a 26c0 fae6 4ec0 9e9e 4140 5ec2 d8bd
000001b0: 8d79 5ec0 f6ee 6240 87c2 a140 0a58 0bc0
000001c0: 1762 cbbf badc 3340 f243 80bf d1c5 ca40
000001d0: 8e0e 7b40 9352 2dc0 7d67 3ac0 79d4 e640
000001e0: 3fc1 ec40 6964 cc40 d8e4 c6bf 3ac8 3740
000001f0: 4d01 57c0 5314 c040 f0c5 8fbf 8277 2740
00000200: e2f4 5140 39cd 89bf f528 4ac0 b060 aa3f
00000210: f7e9 9340 0da1 1bc0 21b7 cb40 0115 0abe
00000220: 6ff3 fcbf 7295 5740 5031 ce40 3445 b640
00000230: c9ea 59c0 b6f9 b640 226b 32c0 abf3 03c0
00000240: 0c1d b53c 513b 4240 872e 4240 34aa 4740
00000250: d9d4 1bc0 230b ca40 1012 e440 925e c93f
00000260: d024 7240 1890 b8bf f971 2dc0 1059 52c0
00000270: 9f7b 9f40 b1a9 7140 8050 51c0 cbd0 04c0
00000280: ebe5 fdbf f4a1 d1bf 87d0 b640 a499 05c0
00000290: 261c 9640 f2d6 5440 4454 acbf db0c bb3e
000002a0: 9c99 f2bf 8e10 0f3f 6d6d 74c0 4300 ff3f
000002b0: fcda 3540 4724 0140 394f fdbf d181 8540
000002c0: 8ca0 26c0 142c ebbf a794 21c0 c731 6740
000002d0: 09bd 49c0 f2d8 193f 3bdf 1140 2ac3 1b40
000002e0: a3c2 75bf d9bb 9a3d 3ce7 e940 a9c2 08c0
000002f0: 71cb ee3f 1525 02c0 6cf7 05c0 4b6c 0a40
00000300: 6626 1bc0 734b 2340 a2b7 0cc0 60db dc3d
00000310: d579 37c0 ffe1 54c0 f6a8 8abf d51d cd40
00000320: e114 50c0 3628 30c0 9787 19c0 9221 16c0
00000330: 03f4 4540 9e80 3c40 e31b 5bc0 b474 34c0
00000340: fee6 0440 3ee5 2fc0 c32a c440 470c 3c40
00000350: 0bd3 35c0 2f83 fbbf 356e 063f 8449 c6bf
00000360: 62f0 9040 8526 3440 63e9 9f40 17cf 29c0
00000370: 2994 f9bf 3658 f7bf 8e6a 41c0 a8c5 9640
00000380: f422 47c0 ce8f aa3f 9c54 f3be 866f 09c0
00000390: 1284 2840 46af 08c0 cdea b7bf 30d4 1f40
000003a0: 21f9 5740 e6bf 31c0 8370 ff3f e67a 2340
000003b0: bcc0 15c0 abbf 3dc0 10ae 02c0 344e 4740
000003c0: 4985 63bf 9b31 1b40 5799 e240 0ef9 8e40
000003d0: 7663 62c0 172f c240 7164 1cc0 3b39 0e3f
000003e0: 06f5 c3bf c42d f2bf 78c1 31c0 a86d 28c0
000003f0: 3d23 1dc0 9c25 4b3e c1b7 8ebf 78e1 1fc0
-3.1254077 1.5715605 -2.6511827 -2.507157 2.634245 4.352476 -0.039198935 6.5801363
2.884522 4.605087 3.588655 -0.2159435 -1.943559 -0.9779264 2.6504714 4.8580575
-2.4856212 2.4373126 -2.9285798 -2.5131047 2.1776774 3.267808 -2.7598367 -2.8625
-2.8716297 0.2886361 -0.21638903 -1.9101607 -3.560703 -3.510133 5.2774115 0.5138129
-0.97053164 2.704537 0.99483395 0.8818509 -2.3001006 2.7870088 6.139847 -0.7631826
2.2215085 1.7100688 6.019629 -3.0243971 -3.5526965 -1.7287645 -1.0914793 2.440944
5.5310855 -2.5045376 2.6052804 -1.4944829 -1.229122 -2.0047975 4.711119 -2.4998274
0.706091 3.1331391 -2.0927722 -2.9538076 3.8843484 3.5114822 -4.763886 -2.1532242
0.2628894 -2.5071335 -1.557096 -3.085124 -1.1613736 -0.35737744 0.31122229 -2.9557247
-0.8880333 -2.1223733 5.194568 -1.830502 0.078339554 -2.0902207 0.31004745 -0.06371639
3.4358582 0.49364957 -1.4699622 0.030825377 6.810362 -2.0005813 1.8295939 2.467343
-3.0812838 0.2726434 -2.416746 4.790673 6.272743 1.3319564 2.8938782 -1.2850368
0.8055301 0.17587763 0.9832294 5.075206 2.6851292 3.8443837 -3.9928374 -2.0718093
-2.6002433 -3.2328477 3.0253062 -0.105839476 -3.4761689 3.545835 5.054996 -2.1772485
-1.588931 2.810347 -1.0020735 6.3366475 3.9227633 -2.708165 -2.9125664 7.2134366
7.3985896 6.387257 -1.5538588 2.8715959 -3.3594544 6.002481 -1.1232281 2.6166692
3.2805715 -1.0765754 -3.1587498 1.3310757 4.62231 -2.4317048 6.3661046 -0.13484575
-1.976179 3.3684964 6.4435196 5.6959476 -3.4049551 5.7179823 -2.7877889 -2.0617473
0.022108577 3.0348704 3.0340898 3.1197634 -2.4348662 6.3138595 7.127205 1.5731986
3.7834969 -1.4418974 -2.7100813 -3.286686 4.9838405 3.7759821 -3.2705383 -2.0752437
-1.983579 -1.6377549 5.712955 -2.0875025 4.690936 3.3256192 -1.3463216 0.36533245
-1.8953128 0.55884635 -3.8191788 1.9921955 2.8414907 2.0178392 -1.9789802 4.1720967
-2.603549 -1.8372827 -2.524698 3.6124132 -3.1521628 0.6009666 2.27925 2.4337869
-0.9600012 0.0755536 7.309477 -2.136881 1.8655835 -2.0335133 -2.0932264 2.1628597
-2.4242187 2.55148 -2.198708 0.1078403 -2.866811 -3.3262937 -1.0832813 6.4098916
-3.2512743 -2.7524543 -2.3989007 -2.345799 3.0930183 2.9453502 -3.423577 -2.819623
2.0765986 -2.7483668 6.13022 2.9382493 -2.841006 -1.9649409 0.5251191 -1.5491185
4.5293436 2.814851 4.9972396 -2.6532648 -1.949834 -1.9323795 -3.0221286 4.711628
-3.1115084 1.3325136 -0.4752549 -2.1474319 2.633061 -2.1356978 -1.436853 2.497326
3.3745806 -2.7773376 1.9956211 2.5543761 -2.3398886 -2.9648235 -2.041874 3.1141481
-0.8887525 2.4249027 7.0812182 4.467902 -3.5373206 6.0682483 -2.4436305 0.55556077
-1.530915 -1.8920217 -2.7774334 -2.631693 -2.4552758 0.19838566 -1.1149827 -2.4981365

weight f4 [256, 256]
00000000: 6788 de3e 8b77 3f3f 6cc9 a13e 73a8 80bd
00000010: 6c0b 43bf 92b9 cb3c a39d 203f 0a77 fabd
00000020: 30da 983f afce 82bf eb1e bc3f c1ed 3dbf
00000030: 5387 b63f dd4f c93e 727b e3be e80f 003e
00000040: f2cd 9c3e 982b 963f 0538 efbf f9de 4c3f
00000050: d2fc 2d3f 06d5 1ebd 7a09 1e3f cead 2ebf
00000060: b32c 2ebf 94ec 883f c15f 533f 88c9 a13f
00000070: 333e 88bf e7c6 d53e d103 513e 2687 6d3f
00000080: e67e a4bd 04fe 023f 4436 a13d eff3 ea3f
00000090: 025e 60bf 3a38 473f 44a7 bf3e ffbc db3f
000000a0: 1679 47be 7e2c 0cbf 5cbb 653e c4a5 30c0
000000b0: b5f4 7fbf ba1a 833e ea80 0ac0 7ac9 083f
000000c0: 4c0a 06bd 1d87 af3f 774b 9cbe 8bee fd3e
000000d0: 2759 813f bf0b 663f 548d 4abe 6e5a 713d
000000e0: 775f 48bf 7179 073e d441 3dbf 4fc5 b5bf
000000f0: ea06 643f 89fb 333f 4437 11bf 1501 c53e
00000100: 635f 62bf 2f84 3fc0 419a e7be 85af afbf
00000110: a7f7 c73f e98e d23f c623 3b3f 30b6 c5be
00000120: ccb4 5a3f c717 7cbf 4e73 91bf 8c84 df3e
00000130: a7c7 943e c2ed 83bf 2788 a9bf 63e8 2abf
00000140: eac8 7bbd 2680 ce3f a54e 6fbc 8dd1 713f
00000150: e287 3cbf a2fd 893f d407 e43e 47df 0cbe
00000160: 601b b4bf 6063 2440 2fe8 a03e 2ef2 06bd
00000170: 30cc ae3d cd32 103f fd68 2abe 919b fabf
00000180: 34b8 773e 072c e23e b26b 1c40 2de0 22bf
00000190: 3990 d03e cc99 5e3e 15bd 613e 9269 b83e
000001a0: b7a9 2f3c 0821 12c0 935c 9d3e c5b8 f53f
000001b0: 763e 0bc0 4393 bdbc 7df7 23bf 495b 2cc0
000001c0: 9af6 713f af3f a2bf b1df 20be a913 923e
000001d0: 33e5 babe 8a07 9a3f f66f e3bf 4bd5 88bf
000001e0: dbd3 a2bf c6d2 453e c6ad a13f c697 bf3f
000001f0: 0171 b0bf e7cd 42be bd06 93be 281e 233f
00000200: a04f ef3e 483d 04be 8d99 5bbf e6ca 233f
00000210: 6b52 993f aacd 363e bd51 02bf 3cea aebe
00000220: 2ed0 63bf 7d48 e3bf 8a85 0a3f 2147 b73e
00000230: 1f35 4e3f 8f4c ebbf 2de1 c0bf ce9d 5abf
00000240: b278 bf3e f5d3 903d f672 07bf ab35 493f
00000250: f448 513f 7888 073f 901d 31bf cf47 853e
00000260: 155a 87bf 1cfa 193f 7c30 363e 274f a6bf
00000270: 14ee 113f aa53 733d 1d92 8bbf 60f9 a23e
00000280: d219 a3bf 5400 0ebf aca6 29bf ddd4 93bc
00000290: 275a f3bd 8216 5fbd fcf2 a03f cb68 0e3e
000002a0: 21b7 5e3e 31d5 c6bd 46d3 b73e ce31 e33f
000002b0: 86f2 ab3e a20f 773f caf2 1f3f 01bf 04bf
000002c0: a8e4 ae3e f6e1 37be 0f69 553f cc8e 323f
000002d0: b4e1 4e3f 4feb 5c3f da19 9a3e f718 6abd
000002e0: 5ea5 8abf 7ebc 70bf 2d86 00bf c06b d4be
000002f0: e31e 413e 41ba 363f 6319 a93e 2b23 723f
00000300: 4312 83bf 10c9 a13e 21bd 1ebe 3a03 43be
00000310: e959 233d 4434 373f 3d57 ef3e 9cc5 03bf
00000320: f6bf 0ec0 365e 823f 3fba a43e 6341 c4bf
00000330: 8d75 353f 53eb 1f3e a7d9 ee3f 2931 e93d
00000340: 49db d93e 6b74 6f3e a8e7 7abd d792 73bf
00000350: 6e5b 82be 026f cdbe 223a 6d3e 9ea8 a6be
00000360: c2d2 dabe c645 853f bd44 ba3e a655 213f
00000370: d6b7 04c0 8c02 823e 3033 19bf d899 fa3e
00000380: 11a7 40c0 e3b5 cc3f 3de7 833e 1271 e0bf
00000390: f24c 053f c687 5f3e adbf 083f dd74 02bf
000003a0: f29f f43d 6625 203f 4619 3c3e 8273 32bf
000003b0: 8269 163d a871 823f 2341 8cbf 57cb 62bf
000003c0: cd20 99bf 6c57 a13e 996c 08be 3c6f fb3d
000003d0: b1c1 3bc0 51f5 063d f053 2b3f 41e6 dc3f
000003e0: 1830 033f e301 7f3d 2677 683e b793 a8bf
000003f0: 9dec 073f d51f a53f 6e71 af3d 0a56 0f3e
0.43463442 0.74791783 0.31598985 -0.06282129 -0.76189303 0.02486876 0.62740535 -0.12229736
1.1941586 -1.0219325 1.4696935 -0.7419091 1.4260048 0.39318743 -0.4443012 0.12506068
0.30625874 1.1732054 -1.8688971 0.8002773 0.679639 -0.038777374 0.6173321 -0.68233955
-0.68036956 1.0697198 0.82567984 1.2639627 -1.0643982 0.41753313 0.20411612 0.92784345
-0.080320165 0.5116885 0.078716785 1.8355693 -0.87643445 0.7782017 0.374323 1.7167052
-0.19479784 -0.5475539 0.22434753 -2.7601175 -0.9998277 0.25606328 -2.1641183 0.5343243
-0.032724664 1.3713108 -0.30526325 0.49596056 1.0105332 0.89861673 -0.19780475 0.05892413
-0.7827067 0.1322992 -0.7392857 -1.4200839 0.8907305 0.7030569 -0.56724954 0.38477388
-0.884268 -2.9924428 -0.45234874 -1.3725439 1.5622452 1.6449863 0.7310146 -0.3861556
0.85432124 -0.9847378 -1.1363313 0.43655813 0.29058573 -1.0306933 -1.3244675 -0.66760844
-0.061470903 1.6132858 -0.014606153 0.94460374 -0.7364484 1.0780528 0.44537222 -0.13757049
-1.4070854 2.5685654 0.31427142 -0.032945804 0.085350394 0.56327516 -0.16641612 -1.9578725
0.24191362 0.44174215 2.4440732 -0.63623315 0.40735033 0.21738356 0.22044785 0.36018044
0.0107216155 -2.283266 0.3073469 1.9197012 -2.1756873 -0.023141509 -0.6404951 -2.6930716
0.9451691 -1.2675685 -0.15710331 0.28530625 -0.3650299 1.2033551 -1.7768543 -1.0690092
-1.2720903 0.19318685 1.2631156 1.4968193 -1.3784486 -0.19023858 -0.28716078 0.6371789
0.46740437 -0.12914002 -0.85781175 0.63981473 1.1978277 0.17851892 -0.5090597 -0.34163082
-0.8898953 -1.7756497 0.54110014 0.35796455 0.80549806 -1.8382739 -1.5068718 -0.8539704
0.3739677 0.070716776 -0.5290979 0.78597516 0.8175194 0.5294261 -0.69185734 0.26031348
-1.0574366 0.6014726 0.17791933 -1.2992905 0.57003903 0.05940596 -1.0903965 0.31830883
-1.2742255 -0.5546925 -0.66269946 -0.018045837 -0.118824296 -0.054464824 1.2574153 0.13907163
0.21749546 -0.09708632 0.35903376 1.7749574 0.33583468 0.9650823 0.6247984 -0.5185395
0.34158826 -0.17957291 0.8336343 0.6974914 0.80813146 0.8629655 0.30097848 -0.057152715
-1.0831716 -0.94037616 -0.50204736 -0.41488457 0.18859439 0.7137795 0.3302718 0.9458491
-1.0239948 0.3159871 -0.15501834 -0.190442 0.039880667 0.71564126 0.46746245 -0.514734
-2.2304664 1.0185001 0.32173344 -1.5332454 0.70882493 0.15617113 1.8660172 0.1138633
0.42550114 0.23384254 -0.06125608 -0.95145935 -0.2546038 -0.40123755 0.23166707 -0.3255052
-0.4273892 1.0411918 0.36380568 0.63021314 -2.0737205 0.25392568 -0.5984373 0.48945498
-3.010197 1.5993007 0.25762358 -1.7534506 0.52070534 0.21829137 0.53417474 -0.5095957
0.1194457 0.62557065 0.18369016 -0.697075 0.036721714 1.0190935 -1.0957378 -0.8859152
-1.1963135 0.3151201 -0.13322677 0.12277076 -2.933697 0.032948796 0.66924953 1.7257768
0.5124526 0.06225766 0.22701702 -1.3170079 0.5309542 1.2900339 0.08566557 0.13997665
