data/PPO/Walker2d-v2/ppo_s13228/pyt_save/model.pt (torch_old, 574892 bytes, 12 tensors)

log_std f4 [6]
000000 2e 11 11 c0 45 06 1b c0 77 9d 1a c0 0e d4 16 c0
       -2.2666736 -2.4222577 -2.415861 -2.3566928
000010 12 2b 1f c0 b0 e3 1d c0
       -2.4870038 -2.467022

weight f4 [256, 17]
000000 fe b2 41 be 2f 57 75 be b8 bb f4 be 14 8d 1d bd
       -0.18915936 -0.23959039 -0.47799468 -0.03846462
000010 84 81 0a 3e 3d 2b 87 be 23 e6 ad be 64 0f 44 be
       0.13525969 -0.26400176 -0.33964643 -0.19146496
000020 8d 6c 80 bd a1 74 82 bd 14 51 85 bd b3 e2 62 3d
       -0.062707044 -0.063699014 -0.06509605 0.05539198
000030 86 c1 20 be cf 6f de 3d 2a 82 e6 3d b4 5d 99 3e
       -0.15698823 0.108611695 0.112552956 0.29954302
000040 aa 31 8a 3e 2d 0d 18 3e 1e a8 33 be e6 b6 cf 3d
       0.26991016 0.14848776 -0.175446 0.10142307
000050 17 6b 62 be 13 c6 96 3e 23 84 f1 be 96 6d b8 bd
       -0.22111164 0.29447994 -0.47171125 -0.09005277
000060 b0 69 5f be 6f cd 74 be c6 6e f6 be c4 c5 1d be
       -0.2181766 -0.23906492 -0.48131388 -0.15407473
000070 41 5b 3f 3e b5 c9 de bd 25 5b 15 bd a4 60 8c be
       0.18687154 -0.10878316 -0.036463875 -0.2741748
000080 91 40 6e 3e 09 77 d5 3d 9c 28 f8 3d a6 82 8c 3e
       0.23266818 0.10423095 0.121171206 0.27443427
000090 f2 bd f0 bd 0a bf 96 3d 31 af d7 bd 5b 3a af 3d
       -0.11754979 0.073606566 -0.10531462 0.08556052
0000a0 9e 45 c0 bd bb e1 b7 be 79 d2 be 3c c9 6f 7e 3e
       -0.093882784 -0.35914406 0.02329372 0.2484733
0000b0 44 00 9c 3e 50 7a cd 3e 87 17 eb bd 9a 87 ef bc
       0.30468953 0.4013238 -0.11479097 -0.029239465
0000c0 48 6e ed 3c 5a 62 91 bc 57 75 9d be a6 39 c3 bc
       0.02898325 -0.017747093 -0.30753586 -0.0238312
0000d0 fc 25 32 be d5 c3 be be 30 8b 24 3e a9 ea 9e bd
       -0.17397302 -0.37258783 0.16068721 -0.077596016
0000e0 1d 74 f6 3d 21 b6 80 3d 28 27 fd be ae 6a f9 bd
       0.120338656 0.06284738 -0.49443936 -0.12178551
0000f0 08 dd bd 3a 3f 15 47 bd 02 4c 85 3b 67 c2 86 bd
       0.0014485428 -0.048604246 0.0040678987 -0.06580048
000100 8b 56 93 3d fe d1 7b 3c 6a e4 8a 3e f4 44 2a 3d
       0.07194241 0.01536989 0.2712739 0.041569665
000110 5f 48 55 bd 3d 0c 1e 3e 35 3c 12 3e 7b 3b d9 3b
       -0.05207097 0.15434356 0.1428078 0.006629405
000120 14 9d 47 bd ce a3 d9 3e 68 db 34 bd bc 5f 63 3d
       -0.048733786 0.42507786 -0.044154555 0.05551122
000130 da 3a 0a be 94 76 b4 3e e0 14 f8 bd ac 21 8b be
       -0.13499013 0.35246718 -0.121133566 -0.27174127
000140 8b 6e be 3d 63 f8 a1 3e eb dd cc 3d 16 2d eb 3c
       0.09298428 0.31634817 0.10003265 0.028708022
000150 44 22 07 3e a1 0b 2b be 03 36 57 3e 3a 23 a7 be
       0.13196665 -0.16703655 0.21016698 -0.32644063
000160 42 e7 5f be 42 ef be 3d ba 8d cd bd 09 fe 46 bd
       -0.21865562 0.093229786 -0.10036798 -0.04858211
000170 9f d2 45 3e 5f 38 9e 3e 6d a3 53 3e 47 0f f6 3d
       0.19318627 0.30902383 0.2066781 0.12014633
000180 07 b6 b8 bd c8 7f 1b 3c ee 9a b6 3d 0f 57 12 be
       -0.09019094 0.009490915 0.08916269 -0.14291023
000190 c2 8a b4 bd 11 ee b5 3c 6d 21 74 3e 14 cf 23 be
       -0.088155285 0.022208245 0.23840876 -0.15996963
0001a0 06 c5 68 be 70 6b c4 bc 8d 0b 99 3e 46 be 67 bc
       -0.22731408 -0.023977011 0.29891625 -0.014144486
0001b0 cc 48 98 3d 83 d7 d1 3d 5c 66 b7 bd 64 28 3a be
       0.0743576 0.10246184 -0.089550704 -0.1817947
0001c0 2a 88 86 3b aa e1 8f 3d cf 07 d3 bd dc 84 8b 3e
       0.0041055875 0.07025464 -0.10304224 0.272498
0001d0 f8 d4 26 be b8 9b a3 3e ba ef f2 3d 5e 33 d3 bc
       -0.16292179 0.3195474 0.118621305 -0.02578133
0001e0 d7 81 e3 3d e9 84 05 3f 13 eb a6 be a0 b4 64 3d
       0.11108749 0.5215593 -0.32601222 0.05583632
0001f0 00 cc 8c 3e c2 85 45 bc c3 c4 fa be e5 73 32 bd
       0.2749939 -0.012055816 -0.48978242 -0.043567557
000200 fc d3 88 3e 76 c0 f6 bd ad b6 31 be 1e e3 ac be
       0.2672423 -0.12048428 -0.17354842 -0.33767027
000210 0a e4 e1 bc e1 9e 38 be e2 ea 19 3e bf e3 57 bd
       -0.027574558 -0.18029357 0.15031007 -0.05270743
000220 b8 36 98 3e a9 fb a0 bc e6 7f cf be 70 62 58 3e
       0.29729247 -0.01965125 -0.40527266 0.21131301
000230 26 9a 8c be f8 3e 52 be b9 8c 41 be 91 fd bf 3e
       -0.27461356 -0.20531833 -0.18901338 0.37498143
000240 e1 a8 59 3e ba d0 31 3e c3 d8 05 be d9 a6 6a 3e
       0.21255828 0.17364779 -0.1307097 0.2291521
000250 7e af 22 3d 25 e5 2d 3e 7c 97 da be 91 72 60 3e
       0.039718144 0.16981943 -0.42693698 0.21918704
000260 8c eb 5a bd 93 60 ef bd 68 06 fc bd 42 76 6f 3e
       -0.05344729 -0.11688342 -0.123059094 0.23384956
000270 8a 0c f6 bc 58 59 dc bd f3 4d f3 3e 2b 79 5c be
       -0.030035276 -0.107592285 0.47520408 -0.21530597
000280 7b 62 f8 be d5 d6 65 be e5 13 18 3d f4 5e 44 3e
       -0.48512635 -0.22445233 0.037128348 0.19176847
000290 2c 87 a0 bc e4 a3 e3 3d 43 e0 7a 3e 94 4f 15 3e
       -0.019595705 0.11115244 0.24499612 0.14581138
0002a0 b7 cb 86 be 5d 32 0b 3e c1 a8 61 3e 1a 96 93 3d
       -0.26327297 0.13593431 0.22037031 0.07206364
0002b0 ee 07 01 be 47 09 b8 3e 49 f5 7e be 0c 61 e3 3e
       -0.12600681 0.35944578 -0.24898256 0.44409978
0002c0 bf 89 85 3d 23 e8 c7 be 18 85 96 bd a0 c8 e7 3e
       0.065204136 -0.39044294 -0.07349604 0.45270252
0002d0 87 1d d8 bd d5 63 57 bd b1 ac 91 3d 86 16 be 3d
       -0.10552507 -0.05258544 0.071130164 0.0928164
0002e0 68 27 be bd 30 be 0b bd 80 d1 b0 3e c8 a2 85 3e
       -0.0928486 -0.034116924 0.34534836 0.26100755
0002f0 7b a1 0e 3c 71 1b ea 3e c3 da 77 3d 93 6e 64 bd
       0.008705492 0.4572406 0.06051136 -0.055769514
000300 ab 81 01 3e d0 e1 f2 be ca 6b ab 3e 0d 11 21 be
       0.1264712 -0.47437906 0.33480674 -0.1572916
000310 e4 da dd be de 2f 15 be 83 4d d1 3d 3a 59 49 be
       -0.43331063 -0.14569041 0.10219862 -0.19662943
000320 1b b1 d3 bd 32 16 08 3e 1d 67 23 bd 99 f7 6b 3e
       -0.103365146 0.13289717 -0.03989326 0.2304367
000330 fe 65 4a 3d 1e 50 89 3d cf fe 7a be 36 ed f8 bd
       0.049413674 0.06704734 -0.24511264 -0.121546194
000340 32 8f b9 3c 1a 59 c6 3d 54 ec 9d be bd fc 60 be
       0.022651289 0.096849635 -0.30844367 -0.21971412
000350 e0 85 3b be 0d 6f 94 3d 07 25 24 3e ba ee c5 bc
       -0.18312788 0.07247744 0.1602975 -0.024161685
000360 4b 3d 3a 3c 3f 56 88 bc 79 b9 a8 3e c9 25 bd be
       0.011367152 -0.016642688 0.32954004 -0.3694289
000370 12 a4 f2 bd 43 12 b0 bd af bf 03 bf e7 87 ef bd
       -0.118477 -0.08597233 -0.5146436 -0.11695843
000380 f8 17 46 3d db fb 3c 3e 66 0d e1 bd aa 7c a9 3e
       0.048362702 0.1845545 -0.10988884 0.33102924
000390 5f 96 50 3e 1b e0 eb be e8 e5 03 3d 93 fa 2a be
       0.20369862 -0.46069416 0.032201678 -0.16697149
0003a0 a3 de f8 3a 24 fc 7d be 85 5e 62 3e 38 01 d7 bd
       0.0018987249 -0.24803215 0.22106369 -0.10498279
0003b0 6b c4 75 bc a1 1b 77 bd 13 9c 7e 3c dc da ad be
       -0.015000443 -0.060329083 0.015540141 -0.3395604
0003c0 c0 33 78 be d4 6c 8b 3e 30 c9 c0 3d 80 99 66 bd
       -0.24238491 0.27231467 0.094133735 -0.056298733
0003d0 cb 13 94 3d f5 55 2f be b3 b5 38 be fd fa 6d bd
       0.07230338 -0.17122634 -0.18038063 -0.05810069
0003e0 91 1a 3c be c6 0b 73 bd 97 48 b3 be 90 1b 87 3e
       -0.1836951 -0.0593374 -0.3501632 0.26388216
0003f0 4a d6 46 bc 4f 05 07 3e d9 0e 8b 3e f8 d6 24 3d
       -0.012136051 0.13185619 0.27159765 0.040244073

bias f4 [256]
000000 b7 8e 1a 3d 0f 99 32 be 34 c5 66 3e 41 78 4a bd
       0.03773376 -0.174412 0.22536165 -0.04943109
000010 55 9d 98 bd 7d f2 19 3e bd a2 58 bc 74 fc 9a 3d
       -0.07451884 0.15033908 -0.013222394 0.07567683
000020 92 95 d1 bd 40 44 0c be 9c ed 1e 3e f5 2f 12 3e
       -0.102336064 -0.1369791 0.15520328 0.14276107
000030 33 52 a0 3d 91 84 19 be b9 c7 4c bd 1b 34 d6 bd
       0.07828178 -0.14991976 -0.049995158 -0.10459157
000040 c1 a0 0b 3e 2b 85 1c 3e 40 f9 3f 3e be e8 ab 3e
       0.13635541 0.15285175 0.18747425 0.33576006
000050 1d 5e 98 be 51 dd 8a be d2 af 3f be f0 1b 45 3d
       -0.29759303 -0.27121976 -0.18719414 0.048122346
000060 6f 7e 34 be d6 77 7f be fa ed b5 3d b2 a0 09 3e
       -0.17626356 -0.24948058 0.08883281 0.13440207
000070 3e e8 7f 3e 0c 0b 18 be 38 dd 81 be bb 8e 7a be
       0.24990937 -0.14847964 -0.2536409 -0.2446851
000080 e5 58 bf bd 88 ee 3e bd aa ea 37 3d ec 4e 0b be
       -0.09343127 -0.0466142 0.044901527 -0.13604325
000090 63 1c 19 3e 8c a9 b5 3d 52 6c 04 bd 76 51 21 3e
       0.14952235 0.08870229 -0.032329865 0.15753731
0000a0 88 52 b1 be 24 67 2b be e8 f8 66 bd 77 31 0c bd
       -0.3463328 -0.16738564 -0.05638972 -0.03422686
0000b0 c8 f2 2f bd 31 ed 49 3e 79 92 56 be f9 ac 81 3e
       -0.042956144 0.19719388 -0.20954312 0.2532728
0000c0 17 72 ae 3d 37 bb 8f 3c 84 32 2f bd a3 ce f2 bd
       0.08517855 0.017545326 -0.042772785 -0.11855819
0000d0 c8 42 90 3d 2a 61 41 3d 6f 41 64 3d c6 fb 06 3d
       0.070439875 0.047211803 0.055726465 0.032954954
0000e0 b0 a4 af 3d f5 4b 44 3e 40 db 85 bc df ee 36 3e
       0.085763335 0.191696 -0.016339898 0.1786456
0000f0 2e 61 6a be ec e5 c8 3d 3c 4e 34 bd 95 ba b2 bd
       -0.22888634 0.09809479 -0.044019923 -0.08726994
000100 bd eb 3f 3e cd 90 23 be 44 a1 70 be 60 19 0f be
       0.18742271 -0.15973206 -0.23499018 -0.13974524
000110 3c 75 d2 bd 20 41 0c 3d 7b 51 2d be 4e b1 c1 3d
       -0.10276267 0.034241796 -0.16925614 0.09457646
000120 6f cb 2f 3c 0a 8c 06 be d4 87 de bc 73 a2 dc 3e
       0.010729655 -0.13139358 -0.027164377 0.4309269
000130 97 44 38 be 1b a0 82 be 89 85 f7 bc 67 bf 3a 3e
       -0.17994915 -0.25512776 -0.030215042 0.18237077
000140 c5 c4 bc 3d a0 6d 43 bd 12 6e 63 3d ca 3d 57 be
       0.09217218 -0.04771197 0.055524893 -0.21019664
000150 15 a0 be 3d e0 f5 c4 3d 18 42 5d 3d 85 64 70 3d
       0.09307877 0.096172094 0.05401811 0.058689613
000160 21 6d d5 3d 0d 8d 56 be 10 79 97 3d 09 7b a7 be
       0.10421205 -0.20952244 0.07396138 -0.32711056
000170 ca db 19 3e 94 a4 49 be 95 b4 9d 3e 06 e7 6d 3d
       0.15025249 -0.19691688 0.30801836 0.05808165
000180 20 bf bd 3e 57 da de bd 39 04 46 be c1 68 8f bd
       0.3705988 -0.10881489 -0.19337548 -0.07002402
000190 b1 93 66 3c d7 da 6a be 2e fd 4e be 10 68 14 be
       0.014073298 -0.22935043 -0.20213768 -0.14492822
0001a0 2e 21 a3 bd 94 25 4b bd dc bc 39 3e 93 33 81 3d
       -0.07965313 -0.049596384 0.1813845 0.06308665
0001b0 25 68 3e 3d f8 de ae bd 20 7a 5d be 27 68 30 3e
       0.04648604 -0.08538622 -0.21628618 0.17227231
0001c0 d5 1b 99 bd 4c 35 9c bd 9b fa c7 bd d2 56 42 be
       -0.07476012 -0.07627353 -0.09764596 -0.18978432
0001d0 bd 8e 68 3d ec dc 4d be 04 34 dd 3d 0a ca 22 3d
       0.05677675 -0.20103806 0.10800937 0.03974346
0001e0 36 09 30 3e 2e 95 6b 3e 4a de b6 3e 99 22 6b 3d
       0.17191014 0.23006126 0.35716468 0.05740604
0001f0 f9 24 c7 3d dd d6 84 be f8 dc 75 bc 42 7e 15 3e
       0.09723849 -0.25945178 -0.015006296 0.14598945
000200 90 ac dd 3d ce e9 35 3c 90 2f b1 be 58 58 5e be
       0.10823929 0.011103107 -0.346066 -0.21713388
000210 c1 cd c6 3e 4a 51 15 3e fc e9 42 3e 70 a7 26 3e
       0.38828853 0.1458179 0.1903457 0.1627481
000220 31 1d bc 3d a3 34 c7 3e bc 8a f4 3d 97 5a 0e 3e
       0.09185255 0.38907346 0.11940524 0.13901745
000230 7c 70 f3 bd 71 0e 81 be 1d 3a 52 3e c3 1f 4e be
       -0.11886689 -0.2520633 0.20529981 -0.20129304
000240 58 9e 20 be be 47 80 be e4 26 cc bc 6a 26 1f be
       -0.15685403 -0.25054735 -0.024920888 -0.15541998
000250 71 a3 07 3e b0 e6 84 3d cc 99 0b 3e 2c 06 77 3e
       0.13245942 0.06489313 0.13632888 0.24123448
000260 7f 73 3f be 77 cf a0 3e 4e 6f 99 be 39 53 d1 bd
       -0.18696402 0.31408283 -0.2996773 -0.102209516
000270 bc ad 1b 3e 9d 12 78 3e 90 54 d9 bd 72 40 ca 3d
       0.15202993 0.2422585 -0.10611832 0.09875573
000280 f0 a2 4d 3e d5 b3 c0 3d 3d db 04 3e f7 b8 56 be
       0.20081687 0.094093 0.12974258 -0.20968996
000290 cf 34 25 3e 49 66 07 3d c2 22 9b bd d7 dc 5d 3b
       0.16133426 0.03305653 -0.07574989 0.0033853555
0002a0 43 45 81 3e c1 81 47 be f3 70 4e 3e 52 e6 8f bd
       0.25248155 -0.19483091 0.20160274 -0.07026352
0002b0 42 37 f6 3c 44 cf b2 3e 3f 15 51 be ed 6f 57 3d
       0.030055646 0.34923756 -0.20418261 0.052596975
0002c0 82 32 49 be e1 9d a2 bd d5 27 0a bd c9 0a 92 3d
       -0.19648173 -0.07940269 -0.033729393 0.07130963
0002d0 9b 3d 0c bd f1 38 7a 3d 25 c9 0d 3e 30 49 f9 bb
       -0.03423844 0.06108946 0.13846262 -0.0076076016
0002e0 fc d7 1e be eb c9 63 be 16 23 13 be 27 ed a4 3b
       -0.15512079 -0.22244994 -0.14368853 0.0050331536
0002f0 b3 14 96 bd 3b ca df bc 0a a2 86 be 41 fd 8a 3e
       -0.07328167 -0.02731811 -0.262955 0.27146342
000300 41 38 cf 3b 44 1d d8 bd 1e f8 4c 3d 9f 89 59 3e
       0.0063238447 -0.10552457 0.05004131 0.21243905
000310 22 92 56 be ce 4a 15 3e d9 af 0e be 0e e5 92 be
       -0.20954183 0.14579317 -0.13934268 -0.2869038
000320 9d 35 86 bd 91 82 af bd 0b ae 9b be fb 01 80 be
       -0.06553195 -0.085698254 -0.30406222 -0.2500151
000330 2c 70 8c be d8 2c 8e 3e 1c 70 06 be 8a 43 e8 bd
       -0.2742933 0.27768588 -0.13128704 -0.11341007
000340 da 9f a6 3e 7b d8 3b bd e0 80 1a 3e 8b 95 89 be
       0.32543832 -0.04586075 0.15088224 -0.26871905
000350 03 23 10 3e 6c 85 4e bd 0f e8 99 3c 51 0a 5d 3e
       0.14075856 -0.05042021 0.018787412 0.21585967
000360 35 97 6c be 6e ac e6 3c 04 76 59 3e 23 c9 37 3e
       -0.23104556 0.028158393 0.21236426 0.17947821
000370 a4 95 ec bd b9 cd 03 3e 26 82 18 3e 24 06 e1 bd
       -0.11551979 0.12871446 0.14893398 -0.10987499
000380 5b 35 29 be d4 b5 12 be 55 06 45 3e 19 da dc bd
       -0.1652426 -0.14327174 0.19240697 -0.10783786
000390 78 ae 00 be 76 87 ae bd b4 9b 4e be 93 01 1e be
       -0.12566555 -0.08521931 -0.20176584 -0.15430288
0003a0 c0 3e 47 be 5a 88 22 be 2f 69 82 3e 5f 9a 1e 3e
       -0.19457531 -0.15872326 0.25470874 0.15488575
0003b0 2d 92 5e 3e 33 e5 0c 3e 6d 89 5f 3e 84 24 8e bc
       0.21735449 0.13759308 0.21829768 -0.017351396
0003c0 40 97 c1 3e bd 5a 2a bc bc ac 0e bd 68 5c 23 3e
       0.37810707 -0.01039761 -0.0348327 0.15953219
0003d0 1c 5b 58 3e 6a 3d 39 3e 68 16 7f 3d 5d 0e e2 3c
       0.21128505 0.18089834 0.062277228 0.02759474
0003e0 ce 4f 86 3e 9e 51 de bd e7 3d 15 be c5 a8 8d be
       0.2623276 -0.10855411 -0.14574395 -0.27667823
0003f0 75 23 8f be 3f fc 7c 3e b1 77 86 3e d1 64 e6 bd
       -0.2795674 0.24705599 0.26263192 -0.11249698

weight f4 [256, 256]
000000 30 ea 42 bd 36 4a 82 3c 4d d4 35 3d 30 90 30 bd
       -0.04758662 0.015904527 0.04439192 -0.043106258
000010 a9 ff da 3c 86 20 75 bd 02 17 47 bd 7d de 1d bd
       0.026733236 -0.05984547 -0.048605926 -0.03854226
000020 e8 66 3c bd 6c ce d8 bc 04 02 9f bd ba 8a 41 3d
       -0.045996577 -0.026465617 -0.07764056 0.04725144
000030 6c 18 80 3d fc cf e1 3a 9e 87 d7 b9 8d 41 9c bc
       0.06254658 0.0017228122 -0.00041109038 -0.019074226
000040 80 87 57 3c 92 64 15 3b 77 1c a4 bb c0 cf 9b 3d
       0.013154864 0.002279554 -0.005008276 0.076079845
000050 60 2e b1 bc 3e 14 cc 3d 43 6d 48 3c 79 44 7b bd
       -0.021628559 0.099647984 0.012233081 -0.061344597
000060 26 6d 89 3d 1a 0f 75 bb 82 4b 12 bd f4 83 04 bc
       0.067102715 -0.0037393034 -0.03571654 -0.008088101
000070 bd 69 e0 bb c4 be 73 bd 6a f3 27 bc 96 6f 13 3d
       -0.0068485425 -0.0595081 -0.0102509055 0.03599509
000080 75 38 54 bd 79 97 15 bd e7 3b c4 bc 2c a1 8a 3d
       -0.051811654 -0.03652141 -0.023954345 0.06769022
000090 3e 07 22 3d 67 b7 fd 3b 4b 70 ca 3b 72 67 99 3d
       0.039557688 0.0077428105 0.006177937 0.07490434
0000a0 c4 cd eb bd 48 c2 b8 3c 42 5d 87 3d 0c a7 15 3d
       -0.11513856 0.022553578 0.066095844 0.03653626
0000b0 e9 97 be bc 7c f0 5a 3c 4a b1 7f 3d 72 73 0a bd
       -0.023265796 0.013363 0.062424935 -0.033801503
0000c0 9d 8b 99 3d e4 a9 52 bd 53 2d b0 bb 96 b0 7d 3b
       0.07497332 -0.05143155 -0.005376497 0.003870999
0000d0 7b d7 db bc 82 6d 2e 3d e8 df 89 3d b8 e1 a7 3b
       -0.026836148 0.042584904 0.0673216 0.0051233433
0000e0 3d 5e 9d 3c fd 5c 8b 3d cb 5a 14 bd 1f d4 c8 3c
       0.019209975 0.068048455 -0.0362194 0.02451521
0000f0 43 64 9c bb 3b 18 d6 bc 49 71 3f 3d 76 f0 45 bc
       -0.0047726943 -0.0261346 0.046738897 -0.012081256
000100 b3 7c 9f bc 77 f1 60 bd d2 55 be 3c fa 85 8d bb
       -0.01946864 -0.05491778 0.023234282 -0.0043189498
000110 de 3e d8 bc 6c 8a 9e bd 1b 8e b0 bc f9 e0 70 bd
       -0.026397165 -0.077412456 -0.021552136 -0.0588083
000120 c1 92 ac bc 92 40 7e bc ea 70 6d bc de 1a 02 bd
       -0.021066071 -0.015518324 -0.014492253 -0.031763904
000130 39 3a a2 bd 62 c6 77 bd f0 74 92 bb 93 c0 4a 3c
       -0.07921261 -0.060491927 -0.0044695064 0.012375015
000140 a6 60 40 bd 31 26 ed 3c 8c da 59 bc 51 3c 55 3d
       -0.04696717 0.028948875 -0.013296735 0.052059475
000150 4b e2 5e 3d 9b 95 55 bc 42 8a 14 bd f1 6b 8e bc
       0.05441503 -0.013036157 -0.036264665 -0.017385455
000160 35 15 c4 bc 6c 9a ff 3b e3 00 21 bd 0d 62 5d 3d
       -0.023935894 0.007800391 -0.039307486 0.054048587
000170 ea 86 0c 3c 38 49 22 3d 99 43 ba 3c a0 e5 a5 bc
       0.008577088 0.039620608 0.022737311 -0.020251095
000180 96 a9 73 bc 0c 79 6c 3d de e5 bc 3b 93 94 35 3b
       -0.014871975 0.057732627 0.005764707 0.0027706965
000190 6c 37 85 bb 96 c4 a0 bd 5d 76 eb bc 9b 2d 9a 3c
       -0.0040654447 -0.07849996 -0.028742963 0.018820575
0001a0 98 1e 0b 3c eb 63 a8 bd f8 82 99 bd 8c e2 85 3d
       0.008491181 -0.08222183 -0.074956834 0.06537351
0001b0 a4 42 d0 3b 10 f1 15 39 99 11 6f 3d c3 0a 90 bb
       0.0063556004 0.0001429955 0.05836639 -0.004395814
0001c0 f5 a0 11 3d 97 d4 22 bd fd 40 0d bd 8c 99 2f 3c
       0.03555389 -0.039753523 -0.034485806 0.010717761
0001d0 18 ae 8a 3c 5a 17 90 bd 6c b5 76 3c a7 53 6a 3d
       0.016928717 -0.07035704 0.015057903 0.057208683
0001e0 ca d5 6d 3d 30 7b 1a bb 36 45 8c bd b9 8d 69 bd
       0.058065213 -0.002357196 -0.068491384 -0.057019923
0001f0 c6 e5 62 bd 13 84 35 bd 2f c6 00 3d c4 97 3c 3d
       -0.05539491 -0.04431541 0.031439003 0.046043172
000200 7b 79 50 3d a5 4f 60 3d 46 f9 76 3d d0 13 b0 3c
       0.050897103 0.054763455 0.06029632 0.021493822
000210 f7 7e ee 3b de e0 b9 3c 79 e4 c1 3b db 54 40 3d
       0.007278319 0.022690233 0.0059171286 0.046955924
000220 63 ea ac 3d 2e 05 c9 3c 22 cf 76 bd b3 72 2c 3d
       0.08443143 0.024538603 -0.06025613 0.042101573
000230 dc 39 64 bd 9b 45 0c bd 97 33 a4 bd ef 3f 04 bd
       -0.05571924 -0.03424607 -0.080176525 -0.032287534
000240 9e d3 86 bb 11 51 d8 3c fe 4b 10 3e bc bd 9e 3a
       -0.004114582 0.026405843 0.14091489 0.0012110989
000250 80 0f ff 3b 87 3d 53 3c 45 57 65 3c 51 55 d8 bc
       0.00778383 0.012893087 0.013997857 -0.02640787
000260 76 e1 f7 bc 85 08 c8 bc b8 fb 24 3c 7c 5b 8b bd
       -0.030258875 -0.024418125 0.01006978 -0.06804559
000270 49 c0 e7 3c e7 0d ad 3b 1c a0 39 bd 8d 10 c4 3b
       0.02828993 0.0052811983 -0.045318708 0.0059834183
000280 da 0e e4 3c 07 1b a9 3c bf ac ba bd 2a fe ba 3a
       0.027839113 0.02064277 -0.0911498 0.0014266421
000290 d0 88 0c bd 16 99 43 3d 96 bb 0a bd 34 ab 45 bd
       -0.034310162 0.047753416 -0.033870302 -0.048258975
0002a0 d5 b7 83 3d a5 17 4c 3d db 14 29 3b 58 88 22 bd
       0.064315476 0.049827237 0.0025799784 -0.03968081
0002b0 10 91 b5 3c 14 4e ad 3b 95 e2 86 3d 18 72 82 bd
       0.022163898 0.0052888487 0.06586186 -0.06369418
0002c0 47 75 a0 3d 22 1c bb 3c e0 50 41 ba d8 c0 c7 bc
       0.07834869 0.022840563 -0.0007374417 -0.024383947
0002d0 6c 28 70 3d f5 24 2a 3d c8 22 de ba aa 31 90 bd
       0.0586323 0.04153915 -0.0016947621 -0.07040723
0002e0 bb 88 a1 bc b2 aa f7 3c 7c 6b 6b bd 84 2d 24 bd
       -0.019718518 0.030232761 -0.057475552 -0.04008247
0002f0 e9 ef a0 3d d5 06 00 bd c0 20 ff 3c 6a fc df 3d
       0.07858259 -0.031256516 0.031143546 0.10936816
000300 f0 e2 59 bd ad 78 37 bd bd 77 c1 3c 6d 86 5c 3d
       -0.05319494 -0.04479282 0.023616666 0.053839136
000310 ab 88 db bc 92 ca 8b bc 43 6f 07 3a d8 69 2c 3d
       -0.026798567 -0.017064366 0.00051664206 0.042093128
000320 e6 ba f5 3a 6a 40 a4 bd 50 c0 88 bd 45 41 58 3d
       0.0018747717 -0.080200985 -0.06677306 0.05279662
000330 41 ed b1 bd 19 69 24 3d 92 4f fa 3c 49 ae 8a 3c
       -0.08687831 0.04013929 0.03055552 0.016928809
000340 69 38 4c bd 46 0a 1d 3d ec 33 32 bd 80 28 56 3c
       -0.049858484 0.038339876 -0.043506548 0.013071179
000350 fd bc 08 3d b4 c9 59 3b 94 1f e3 bc ce de b2 3d
       0.03338336 0.0033231797 -0.027725019 0.08733903
000360 da 6a 5b 3d d2 f0 2e bd 5e 88 89 3b c9 7e 8b bc
       0.0535687 -0.042710133 0.0041971644 -0.01702823
000370 7d 03 88 bd 11 76 c7 ba bd 1e 34 bb 53 05 30 3c
       -0.0664129 -0.0015217682 -0.0027484142 0.010743457
000380 cc d3 76 3d 0a a1 10 bd 91 4d 11 bd 84 16 81 bd
       0.06026058 -0.03530983 -0.035474364 -0.06303123
000390 ce 45 14 bd b7 92 d8 3c 24 29 02 bd 03 03 0c bd
       -0.036199383 0.026437147 -0.031777516 -0.03418256
0003a0 61 08 94 3c a9 c3 2f bd ad af cc 3d 88 00 8f bc
       0.018070402 -0.042911205 0.09994445 -0.017456308
0003b0 c6 64 5f ba 77 07 02 3c d1 2b 93 bd d6 0d 99 bc
       -0.00085217913 0.00793635 -0.07186092 -0.018683355
0003c0 d7 7f 23 bd f8 f4 42 3c 0c 38 98 3c cc a5 80 bb
       -0.03991684 0.011899225 0.018581413 -0.0039260145
0003d0 33 08 89 bc 5f 23 51 bb 1c 3d 13 bc eb a6 08 bd
       -0.016727543 -0.0031911952 -0.008986738 -0.03336231
0003e0 70 b5 cf bc 7e 1e fa 3c b8 b8 73 bd 14 40 8a bb
       -0.02535507 0.030532118 -0.059502333 -0.0042190645
0003f0 83 2a c5 3c e8 8a 69 3c 55 2f d9 bc 7a 1d dc bb
       0.024068123 0.014254309 -0.026511827 -0.006717381

bias f4 [256]
000000 b1 d7 5f 3d 52 30 53 bd 99 69 95 bd 22 b1 85 3d
       0.05464906 -0.051559754 -0.07295532 0.06527926
000010 57 ac ab bc 1c 2a 3e 3d 33 ca 33 3d d1 2d 00 3d
       -0.020956201 0.046426877 0.043894004 0.031293694
000020 54 7b 4e 3d da 84 fb bc 70 c8 ca bc 66 d7 9c bd
       0.050410584 -0.030702997 -0.02475378 -0.076582715
000030 5c 51 93 3c cc 24 60 bb 49 ad ad bc 10 05 24 bd
       0.017983131 -0.003420162 -0.021200793 -0.04004389
000040 87 5b af bd c7 4b 90 3d cc 4f a4 3c 80 bf 42 bb
       -0.08562379 0.070457034 0.020057581 -0.0029716194
000050 e0 8a 25 3e d0 07 7b be b5 1f d9 3c 89 1a ce bc
       0.16166258 -0.24514699 0.026504377 -0.025159137
000060 c5 7c 4f bc f4 8e 58 3b 81 d5 45 3d 23 ec 2c 3d
       -0.012664025 0.003304419 0.048299316 0.042217385
000070 92 33 d8 3d 01 5e 0c 3c 5a db 89 3d 5d 0d eb 3c
       0.10556711 0.008567334 0.06731291 0.028692896
000080 3b c4 60 3d 9c ca 3b 3d e2 2e 9b bd 40 c2 84 bd
       0.05487464 0.04584752 -0.075773016 -0.06482363
000090 b1 ca 9f 3b e5 b0 18 3d d2 0d 6e bc 66 3a b2 bc
       0.0048764576 0.037278075 -0.014529662 -0.021756362
0000a0 54 e3 a8 3c 1d cb e7 3c 27 75 57 3c e3 7b ca 3a
       0.020616211 0.028295094 0.01315049 0.0015448298
0000b0 5b 2e c4 bd 77 26 6f ba a7 7a 71 3d 49 0c ba bc
       -0.09579154 -0.0009122858 0.05895486 -0.022710936
0000c0 8a 7d db bc f8 fa 7b bd 29 d0 0f bd 8b 01 c6 3d
       -0.02679326 -0.06151864 -0.035110626 0.09668263
0000d0 52 8a 38 bd c0 01 14 3c b4 3a 6f 3c 91 90 64 bd
       -0.045053788 0.00903362 0.014601398 -0.05580193
0000e0 ee 78 b3 3c 7e d1 17 bd ec e8 91 3c 0a ef cc bc
       0.02190825 -0.03706502 0.017811261 -0.025016326
0000f0 7f 30 7b 3b c1 45 ab bd 32 d1 30 3c c6 b3 20 bc
       0.0038328466 -0.08362914 0.010792064 -0.009808486
000100 da 87 ba 3c a5 17 87 3b d5 1d 8e bd 34 a6 bf bc
       0.022769857 0.0041226917 -0.06939284 -0.023394682
000110 a8 de 80 bc d7 ac 9c bd 57 94 66 bd 9f 1b e1 3c
       -0.01573117 -0.07650154 -0.05629381 0.027478991
000120 ff 9b 6d bc 10 b1 56 3d ba 12 a9 bb d3 e5 61 3d
       -0.014502524 0.052414954 -0.005159703 0.055150818
000130 a2 98 1d 3d 25 ed 98 3b 80 ba a5 bc 5b 40 ba bb
       0.03847564 0.0046669417 -0.020230532 -0.0056839413
000140 7c 53 b6 bd 53 80 ab bd f9 c6 e3 bc f0 a7 fc bc
       -0.08902642 -0.08374085 -0.027804838 -0.030841798
000150 d1 28 90 bd b3 c3 e5 3a 9f 8b fa bd e1 53 c5 3c
       -0.07039035 0.0017529636 -0.12233662 0.024087848
000160 ad e0 d5 bb b1 8c 04 3c 13 56 ff 3c 01 56 ec bc
       -0.0065270276 0.008090184 0.031168973 -0.028849604
000170 cb 06 aa 3c 8a e9 90 bd 5c dc 58 bc 33 c4 be bd
       0.020755192 -0.07075794 -0.0132361315 -0.09314766
000180 da a2 7d 3d 54 31 6b bd 33 89 19 3d 83 bc 04 bb
       0.061922885 -0.05742009 0.03748436 -0.0020253963
000190 cc cc 62 3b 28 c3 de bc 87 a9 16 3c af 55 40 3c
       0.0034606932 -0.027192667 0.009195692 0.011739179
0001a0 5a 72 01 3d 8a b3 83 bd b3 a9 57 3d 8b 83 d6 3c
       0.031603195 -0.06430729 0.052652072 0.026185771
0001b0 78 dd 59 3d 58 ad 4e bd 6d f3 16 3d 17 a2 40 bd
       0.053189725 -0.050458282 0.036853243 -0.04702958
0001c0 8c a3 c7 bd 13 19 b4 3c ff ed 84 bc 79 2e 6f bb
       -0.09747991 0.021984613 -0.016226767 -0.0036496206
0001d0 2c 29 b2 bc d2 16 a0 3a 4d b5 58 3d 50 f2 a8 3c
       -0.021748148 0.0012213832 0.052907277 0.020623356
0001e0 e6 13 31 bd 96 9f 2e bd 65 5e 71 bc 25 c4 2a 3d
       -0.043231867 -0.04263266 -0.014731978 0.041690964
0001f0 48 68 8a bc 1f b7 ae bd 71 36 8a 3d 78 a6 13 3d
       -0.016895428 -0.08531021 0.06748665 0.03604743
000200 35 96 92 3b e2 65 24 bd ab d5 fc 3c 27 0b 2f 3d
       0.0044734725 -0.040136226 0.030863604 0.042735245
000210 d9 a1 20 bc e2 82 d9 bc ef 82 a2 bd 77 a4 81 ba
       -0.0098042125 -0.026551668 -0.0793513 -0.0009890933
000220 ab 99 71 bd b5 88 9b 3d 9d 9a a1 3c 39 05 72 3d
       -0.05898444 0.07594434 0.019727046 0.059087012
000230 75 82 f6 bc eb 21 14 bd 07 aa f2 bb 02 55 29 bd
       -0.030091504 -0.03616516 -0.0074055227 -0.041340835
000240 6a 13 8c 3d f6 33 04 3e e0 20 26 3c f2 7a e3 bc
       0.068396404 0.12910447 0.010139674 -0.027768586
000250 7a 20 28 3c e7 a1 24 3b 43 f2 d1 bc d0 60 00 3d
       0.010261649 0.0025120915 -0.025628215 0.031342328
000260 48 00 cd bc ca 09 84 bc 72 42 a7 bd 1d ba 04 bd
       -0.025024548 -0.016117949 -0.0816697 -0.032404054
000270 d2 d2 85 bd ea d0 70 bd 0c 95 75 bd 3e 50 4b bd
       -0.065343514 -0.058792986 -0.059956595 -0.04963707
000280 5e 1a be bd 55 3b 17 bd 5f 3c 32 bc 64 bc 62 bd
       -0.09282373 -0.036921818 -0.010878651 -0.055355445
000290 3d 9a 46 bc d3 51 2d 3d 3f 39 3e 3d 13 d4 93 3c
       -0.012121734 0.04231436 0.046441313 0.01804546
0002a0 c4 8d 59 bd fd e0 ea bc 46 b9 99 3c 68 48 ad 3d
       -0.053113714 -0.028671736 0.018765103 0.08461076
0002b0 b7 d8 83 3d ad fd 0c bc 8e b5 cc bc 66 3e 28 bd
       0.064378195 -0.008605403 -0.024988916 -0.041075133
0002c0 4d 5d c8 3c fc 86 4d bd 8b 04 66 bd af a0 05 3d
       0.024458552 -0.05017756 -0.056156676 0.032623943
0002d0 b7 b9 c8 3c 57 7a 05 3d a2 61 a0 bd 98 8b e5 bc
       0.024502618 0.032587375 -0.07831122 -0.028020665
0002e0 44 0f 8f 3c 3f 71 9c 3d 37 80 68 3c 15 2b 6d bd
       0.017463334 0.076387875 0.014190725 -0.057902414
0002f0 ea 2d d2 3c a8 e0 62 3c d4 72 5b ba 79 d9 51 bd
       0.02565666 0.013847508 -0.0008371298 -0.05123279
000300 7e 4f d4 3c b7 dc 30 ba cc 85 48 3d c6 52 92 bc
       0.025916811 -0.0006746756 0.048955724 -0.017861735
000310 57 ce 8e 3d 31 52 b1 3c 6d 65 1e 3c dd fe 90 bd
       0.0697295 0.021645637 0.0096677365 -0.07079861
000320 7d b8 47 3d 34 03 8d 3d ef bc bb 3c ee 05 81 3a
       0.048759926 0.068853766 0.022917239 0.0009843686
000330 25 5a c4 3c 90 de 7f 3c ee be 9c 3c b2 ba 55 bd
       0.023968766 0.015617028 0.019134011 -0.05218
000340 ad f6 e5 bc d0 53 de bd d0 2d 99 bd d7 07 a7 bc
       -0.028071726 -0.1085583 -0.07479441 -0.02038948
000350 df 54 82 3d 9f 2f 69 3c 42 54 4c bc 28 41 15 bd
       0.06363844 0.014232545 -0.0124712605 -0.03643909
000360 73 94 44 bd 12 69 60 bd 73 47 0d bb ef 55 67 3c
       -0.047993135 -0.054787703 -0.002155748 0.014119609
000370 ba 0a dd 3c d4 a8 21 3b 1b 8e 42 3d 0e a5 8e bd
       0.026982654 0.002466728 0.047498804 -0.069650754
000380 06 32 6a bc e7 71 1d 3d 66 96 98 bd 69 d1 8c 3d
       -0.014294153 0.038438704 -0.07450561 0.06875879
000390 0c 96 94 bd 04 55 8e bc 05 a0 66 3c f9 ec c6 3c
       -0.07255182 -0.017374523 0.014076238 0.02428292
0003a0 6c b6 dc ba a5 51 05 bd 69 c4 c3 bd 56 b1 e0 bd
       -0.0016839034 -0.032548565 -0.09558947 -0.10971324
0003b0 83 9e bd 3d 51 18 5e 3b 48 61 05 bd af 57 bb bc
       0.09258749 0.0033889005 -0.032563478 -0.02286896
0003c0 f4 fe 80 bd 54 2c 19 3d 48 03 a7 3b 1b de 0e 3d
       -0.062986284 0.03739579 0.0050968267 0.034879785
0003d0 89 37 17 bc 32 cd 0a 3d 8e 88 35 bc 72 02 b5 3d
       -0.009229549 0.033887096 -0.01107992 0.08838357
0003e0 a5 19 02 3e 8a 4f 5a 3d 04 17 c2 bd 0f 01 2f 3d
       0.12705095 0.05329851 -0.09477046 0.04272562
0003f0 e3 f2 75 3c dc 1f 36 3c 92 88 34 bd 74 fa 80 bd
       0.015011522 0.011115994 -0.044075556 -0.0629777

weight f4 [6, 256]
000000 4d 8e 56 bd c3 ad da bd 86 77 e5 3c 4a 73 db 3d
       -0.052381802 -0.10677674 0.028011095 0.10715349
000010 10 7b a1 3b 8f ed d4 3d c4 89 aa 3c 8c 1c ca 3d
       0.0049280003 0.10396873 0.020817645 0.09868726
000020 28 93 a9 bd b1 eb 69 3d 13 a5 91 3d 38 8f 5f bd
       -0.08280021 0.05710954 0.071115635 -0.054579943
000030 8a 14 97 3c 8b b2 f3 3d 36 eb aa 3d 98 15 ed bb
       0.018442411 0.11899289 0.08345644 -0.00723524
000040 18 bf 6d bd 09 82 42 bd 2e d3 3c 3d 05 45 73 bb
       -0.05804357 -0.047487292 0.046099834 -0.0037119996
000050 d2 cf 63 3d 59 6d d8 3d 08 41 8c bd 80 48 13 bc
       0.055618115 0.105677314 -0.06848341 -0.008989453
000060 9d 0b d7 3b e4 4b cd 3d e4 c8 da 3d 1a a7 87 bd
       0.0065626637 0.100242406 0.10682848 -0.06623669
000070 07 6a 89 bd 33 aa 2a bb 07 2b 1b 39 26 68 0f 3d
       -0.06709676 -0.0026041388 0.00014797981 0.035011433
000080 81 29 01 3d ca 7e d0 3d 92 47 9d bd 7c 82 fd bc
       0.03153372 0.10180433 -0.076796666 -0.030946009
000090 de e2 cb bc 0a 35 d4 3b 3b 1c 71 bd 31 9d 3d bc
       -0.024888452 0.0064760493 -0.058864813 -0.011573122
0000a0 09 0d 1b 3b c8 c1 2b 3c 10 17 ad bd 63 df 7b 3d
       0.0023658893 0.010483213 -0.084516644 0.061492335
0000b0 97 25 a6 3c 90 26 d6 3d d2 1f cb 3d 70 21 1c 3c
       0.020281596 0.10456574 0.099181786 0.0095294565
0000c0 4a f6 d9 bc 1b 3b 93 bd 3a 4c 3d 3d a0 63 83 bd
       -0.026606698 -0.07189008 0.046215273 -0.06415486
0000d0 77 1e 04 bc 0b b0 cb bb 08 15 db 3c de f0 48 be
       -0.008063904 -0.0062160543 0.026743427 -0.19623134
0000e0 96 db cb 3d 9f 77 31 bd c5 84 8e bd 35 0d 85 3d
       0.09953992 -0.04332697 -0.069589175 0.0649666
0000f0 57 6a b2 bd f6 6d 6e 3d e3 57 74 3d 2a b5 74 bd
       -0.08711689 0.058210336 0.059654128 -0.059743084
000100 66 15 58 bd b7 f6 f0 3c 07 4c 1e 3a b3 a6 2e bd
       -0.052754782 0.029414518 0.00060385506 -0.042639446
000110 94 83 77 3d 1f cc 64 3d 32 f5 9a 3d 37 40 90 bd
       0.060428217 0.055858728 0.075662985 -0.07043498
000120 ba fd 89 bc dd 7b 77 bb 01 c5 88 bd 43 0b a5 3d
       -0.016844619 -0.0037763037 -0.066782005 0.080587886
000130 46 42 04 be 68 17 3e 3c 9a 84 59 bd 40 c1 25 be
       -0.12915906 0.01160226 -0.053104974 -0.16187
000140 92 37 8a 3d 78 5e 68 bc 07 ba 5b 3d bc 67 ab 3d
       0.067488804 -0.014182679 0.053644206 0.08369395
000150 2d 96 11 3d d7 69 9e 3d 01 9e 28 bd 8e fa 05 3e
       0.03554361 0.07735031 -0.04116631 0.1308386
000160 c0 43 ca 3d 95 d0 b7 3d a6 5b af bc 71 8e 4f bd
       0.098762035 0.08975331 -0.021406006 -0.050672952
000170 35 3b 4b bd d5 a8 c5 3c a4 44 ec bc df 10 99 bc
       -0.04961701 0.024128357 -0.028841324 -0.018684803
000180 db 1d b7 3c 22 b8 4e 3d 39 5f c2 3c e0 c1 76 3d
       0.022353103 0.05046857 0.023727046 0.060243487
000190 cd 67 2b bd b4 45 1e bc c3 cf 2b 3d 05 bb 6d bd
       -0.04184704 -0.009660173 0.041946184 -0.058039684
0001a0 84 71 a4 3d 26 46 2e be 6b 92 9c bd b0 ad 08 bd
       0.08029464 -0.17018947 -0.076451145 -0.033368766
0001b0 12 18 bc 3c e3 71 34 3d 07 b2 96 bd e2 97 b5 bb
       0.022960696 0.044053923 -0.07358175 -0.0055417875
0001c0 4b cf 6b bd 3e 80 3a 3d 7f 79 ed 3d aa f0 98 bd
       -0.057570737 0.045532458 0.11595439 -0.07467778
0001d0 a4 b3 5f 3d bd f4 3c 3c ba fd a7 3d 22 a1 8d 3d
       0.054614678 0.0115329595 0.082026914 0.06915499
0001e0 f6 a5 90 bd f5 df 90 bc 30 46 9b bc 08 ca 30 3e
       -0.070629045 -0.017684916 -0.018954366 0.17264569
0001f0 3a db 93 3c ac 32 97 bd 65 01 96 3d e3 16 94 3c
       0.018048871 -0.07382712 0.07324485 0.01807732
000200 d5 9d 9f 3d fe b7 81 bd 87 cd 4c bd 2b a1 db 3d
       0.07793776 -0.06333922 -0.050000694 0.107241
000210 ac 78 70 3d 9e 66 cb bb 70 20 b0 bd 81 4b b0 bb
       0.05870883 -0.0062073013 -0.08599937 -0.0053800945
000220 c5 b7 fc bb 38 f0 0b bd cd 23 c5 bd b7 24 e4 bc
       -0.0077123367 -0.034164637 -0.09625969 -0.027849538
000230 9b 73 9a 3d d5 df 7d 3d 67 ea 6e 3b 95 c4 ac b9
       0.07541581 0.06198104 0.0036455633 -0.00032952862
000240 22 68 4f 3d ce 75 16 3d 21 9f e2 bb 70 c5 74 3c
       0.05063642 0.03673344 -0.0069159423 0.014939651
000250 db 36 cb bc fe b6 f9 b9 d3 9b fe 3c 9b d1 88 3b
       -0.02480643 -0.0004762932 0.031080162 0.0041753775
000260 4d 00 05 be bf 14 c0 bd 23 4c 6b 3d 0e e4 1c bd
       -0.12988396 -0.09378957 0.057445657 -0.038303427
000270 47 41 15 be 03 20 ad 3d 96 06 17 bc 17 e5 e1 bc
       -0.14575683 0.084533714 -0.009217879 -0.027575059
000280 a3 a5 92 bd 19 e0 d1 bd 0b cf 0a bd 6d ec a2 3a
       -0.07160499 -0.10247821 -0.033888858 0.001243008
000290 e1 ba 81 3c df 3b 65 3d 8b e2 63 3d 2b 58 50 bd
       0.015836181 0.0559653 0.05563597 -0.050865334
0002a0 9e 8a d9 3b da 82 9d bd 7b a2 c5 3c 74 50 2a 3d
       0.006638839 -0.076909736 0.024125328 0.041580632
0002b0 05 ef 43 3d fc 13 bb 3d ad 1f f3 bc f0 c7 ee bc
       0.04783537 0.09134671 -0.02967819 -0.029148072
0002c0 fa 04 f0 bd b5 f1 f1 bc 5c f4 bc bc 54 dc 05 3c
       -0.11719699 -0.0295342 -0.023065738 0.008170206
0002d0 88 d1 5b 3d c3 64 08 be 2e b7 af bd 70 cd 81 3d
       0.05366662 -0.13319688 -0.08579861 0.06338012
0002e0 f7 98 67 bd ce d4 03 3e ae ac 2c bd c7 6d 8f 3d
       -0.056542363 0.12874147 -0.042156868 0.0700336
0002f0 2f 4d 33 3d b9 e0 34 3d 81 fe f4 bd 3f ae d7 bd
       0.04377478 0.044159625 -0.11962605 -0.10531282
000300 e2 72 35 3d f8 8f a2 bd 24 3e 83 3d 66 4d 11 bd
       0.044299014 -0.07937616 0.06408337 -0.035474204
000310 d5 cd 5d bc a7 28 2f 3d 67 be cf 3d 1c 09 1f bd
       -0.013537844 0.04276338 0.10143738 -0.038827047
000320 4d 0f c2 3d 4e cc c1 bc 36 41 ba bd c5 64 42 bc
       0.09475575 -0.02365699 -0.09094469 -0.011864846
000330 f9 65 28 3b 03 09 08 bd 2d ad e9 3c cf ce 9e 3d
       0.0025695546 -0.03321172 0.02852496 0.07754289
000340 14 35 24 3b c2 c7 a7 bd 30 34 e8 bd 78 12 c4 3d
       0.002505605 -0.08192398 -0.11338079 0.09573835
000350 53 bf 7f 3d 3d 1e 2b 3e 93 b7 09 3d 03 6f 9a 3d
       0.06243832 0.16710754 0.033622336 0.07540705
000360 14 4e c8 3d 44 50 c0 bd df 95 a7 bd a5 76 b4 bd
       0.09780517 -0.093903095 -0.081828825 -0.08811692
000370 26 f3 ab 3d 71 03 19 bd 7e a5 f5 bd a9 f4 57 bb
       0.08395986 -0.037356798 -0.11994456 -0.0032952225
000380 b7 ef 1d 3c 08 06 d1 3d 60 06 4c bd 02 5e c6 3c
       0.009639672 0.102062285 -0.049810767 0.024214748
000390 59 fa ce bd ff f1 92 bd 09 8c 35 3e 50 70 9f 3d
       -0.10106344 -0.07175063 0.177292 0.07785094
0003a0 11 f1 fb 3d 84 7a 4b ba 04 89 b7 bd 73 16 3d bd
       0.12301839 -0.00077620917 -0.089616805 -0.046163987
0003b0 0d 73 a0 3d 7e c4 bf 3d f3 ee c9 bc 42 fd 92 3d
       0.07834444 0.0936365 -0.024650073 0.07177211
0003c0 5c c7 53 bd 77 18 13 3d 42 59 1e bc 2b 61 9c 3d
       -0.051703796 0.035912003 -0.009664835 0.07635721
0003d0 ee fe ae 3d 26 e1 ba 3d cf 20 fe bd 99 6b a4 bd
       0.08544718 0.09124975 -0.124086015 -0.08028335
0003e0 55 1e 9a 3d 9b a5 e1 3a 3a 2f a3 bd 33 0d 74 3d
       0.075253166 0.0017215492 -0.07967992 0.0595829
0003f0 db ac 0b bb 21 8b 93 3d 8d 1b e7 bc 94 d9 b0 3c
       -0.0021312747 0.07204271 -0.02821138 0.021588124

bias f4 [6]
000000 b0 50 21 3d 88 be 93 3d 60 00 59 bd ae 3e e0 bc
       0.03938359 0.07214075 -0.052978873 -0.027373638
000010 bb 1e dd 3b ef be 94 3d
       0.006748048 0.0726298

weight f4 [256, 17]
000000 8c 8f 2a bf d5 67 49 3e 96 f1 ef 3e de 55 17 c0
       -0.66625285 0.19668515 0.46864003 -2.364616
000010 0d 14 e5 bf 2c 83 1f 3f ef 3e 99 bf 4a 04 24 c0
       -1.7896744 0.6230953 -1.1972331 -2.5627618
000020 0f 80 21 3f 6c fd bd 3e 3d ca 77 be a5 d2 fa 3d
       0.63086027 0.37107408 -0.24198242 0.122472085
000030 83 90 34 3e 20 03 2b 3e 1c 1b ad 3e 6f e2 81 bd
       0.17633252 0.16700411 0.33809745 -0.06342017
000040 70 25 78 3e d6 91 af be 34 ba ac 3e de 72 f5 bf
       0.24233031 -0.34290951 0.33735812 -1.917568
000050 64 ff 4f 3f c7 89 20 bf 0e f6 ae 3d 63 08 05 3f
       0.8124907 -0.6271023 0.08543025 0.5196592
000060 d2 c9 e5 3e 15 80 d9 3e cb 55 07 3f 81 68 2a 3e
       0.4488054 0.4248053 0.52865285 0.16641428
000070 65 e4 06 3f cc 46 56 bd d4 89 90 3f 15 70 10 3f
       0.5269225 -0.05231361 1.1292062 0.56421024
000080 df 5e d0 3c 12 47 a1 3d 8b 59 4c 3e de cb a4 bf
       0.025435863 0.07874884 0.19956033 -1.2874715
000090 40 a9 32 3e c3 17 e1 be 42 31 11 be 0b 85 50 bf
       0.17447376 -0.4396344 -0.14178947 -0.8145301
0000a0 b7 e2 4b 3f fa 86 70 3e f1 be 6b bf c0 51 31 be
       0.79642814 0.2348899 -0.9208823 -0.17316341
0000b0 24 c8 c4 3d 46 a9 72 be f7 ae b4 bd 15 0b 05 3e
       0.09608486 -0.23697385 -0.088224344 0.12992509
0000c0 e5 26 fc 3e 72 25 35 3e c4 06 3e 3d d1 a7 43 bf
       0.49248424 0.17690066 0.04639317 -0.7642794
0000d0 27 5a 84 bf fb a3 c8 be b9 e5 f4 be 7a e1 19 bf
       -1.0340012 -0.39187607 -0.47831514 -0.60109675
0000e0 19 25 3a 3d 38 22 46 bf ae 82 0f bf 5c 13 22 3f
       0.045445535 -0.77395964 -0.56058776 0.6331079
0000f0 3c b9 27 be e7 e7 cc 3c 7c 7c 0a 3f 9c 91 48 3f
       -0.16379255 0.025012923 0.540962 0.7834718
000100 35 ff bd 3e d1 65 59 3f 8d 48 00 bf 7c a2 0f 3c
       0.3710877 0.84920985 -0.50110704 0.008766767
000110 93 2a 79 be d1 4f 9a 3f 35 d8 12 3f 32 4d 00 bf
       -0.24332647 1.2055608 0.57361156 -0.5011779
000120 b7 7b bd be 71 3c 2e bf 78 23 91 bf cd f0 ca bf
       -0.3700845 -0.68060976 -1.1338949 -1.5854737
000130 78 f2 fe 3e 00 1d 79 bf ce e5 85 3e e1 76 05 bf
       0.49794364 -0.97309875 0.2615189 -0.5213452
000140 86 fc 89 be ec 1f a2 ba ae 1c 03 3e b1 db b5 be
       -0.26950473 -0.0012369133 0.12803909 -0.35519174
000150 18 1b 3f bf d9 41 d1 bc 79 e5 74 bf d6 01 2f be
       -0.74650717 -0.025544094 -0.9566265 -0.17090544
000160 14 23 3b bf 34 4b 11 3f 39 61 22 bf cc b9 1d c0
       -0.731004 0.56755376 -0.634296 -2.4644651
000170 2d d6 95 3e b5 2d 94 bd 74 0d 65 bf 78 7f 18 3e
       0.29264966 -0.072352804 -0.8947365 0.14892375
000180 b8 a1 fd 3d c1 24 2a 3d f4 ec a8 bb 7a dc a0 bd
       0.12384361 0.041538958 -0.0051552 -0.078545526
000190 2b 91 8d bd 1b 98 33 be 8d de 54 3f 25 f2 40 3f
       -0.06912454 -0.17538492 0.83152086 0.75369483
0001a0 45 33 ad 3f 14 22 43 bf 4a ec f9 3f ac 0f c8 be
       1.3531271 -0.76223874 1.9525235 -0.39074457
0001b0 6c e6 88 be 19 9e 54 3f 85 d3 60 3e 94 cc e9 3d
       -0.26738298 0.8305374 0.21955688 0.11415973
0001c0 6f 74 16 3e fb de 4e bf 23 ac ca 3e 55 35 ce 3e
       0.14692853 -0.8080899 0.39584455 0.40275064
0001d0 22 88 03 bf ff 76 0e be 94 cd 43 be 40 c9 c1 bd
       -0.513796 -0.13912581 -0.1912139 -0.094622135
0001e0 8b 79 d9 bf 9d 77 96 3e b8 df d7 bd 42 41 f9 3e
       -1.6990217 0.29388133 -0.10540718 0.486826
0001f0 6c f8 33 bf 7e 9e 04 bf 90 4a c2 3d 4e a8 14 be
       -0.70300937 -0.5180434 0.09486878 -0.14517328
000200 e3 23 47 3f cd 1f 93 be 61 5f 88 3f 77 b1 24 bd
       0.77789134 -0.287352 1.0654107 -0.040208306
000210 fb 83 a5 be 91 f6 4c 3f d8 4c fe 3e 2c cb ae bd
       -0.32327256 0.8006373 0.49668002 -0.08534846
000220 f9 9e 46 be 2a 46 74 3d e5 1c f4 bd dc 51 80 bf
       -0.19396581 0.059637226 -0.11919574 -1.0024981
000230 3a ad cc 3e 08 a9 00 c0 d1 8d e5 bf b1 f8 2d 3e
       0.3997591 -2.0103168 -1.7933904 0.169894
000240 1a 44 d6 3d 15 5a 7d bf e0 f0 35 3f 9c 62 bd 3c
       0.10462208 -0.9896558 0.7107067 0.02311831
000250 fc 04 0d 3e d1 b8 68 be 3a 31 49 3e 68 12 f7 3e
       0.13771433 -0.22726752 0.19647685 0.4825623
000260 6a 65 47 3f f9 04 1a 3f 37 96 a6 3f 7d 78 d5 3f
       0.7788912 0.6016384 1.3014592 1.6677395
000270 84 cc 15 3f ac 47 bd 3b 07 9d 0e 3f 65 64 51 bf
       0.5851519 0.005776366 0.55708355 -0.81793815
000280 97 71 23 bf da 1a 22 3f 39 14 c5 3f ae a1 01 3f
       -0.638452 0.6332222 1.5396796 0.5063733
000290 b3 fa 4e 3d 90 56 b3 be 58 94 7d bd 94 d0 dc bb
       0.050532054 -0.3502698 -0.06190905 -0.0067387316
0002a0 6d 4c 29 3f 72 fc 06 be 1e 0f 8e 3e 96 13 ba bf
       0.6613224 -0.13182238 0.27745908 -1.4537227
0002b0 03 a8 04 bd f9 4e a2 bc 26 3b f4 be e7 af 21 bf
       -0.03238679 -0.019813048 -0.47701377 -0.6315903
0002c0 9e 38 0c 3e ec 2c b7 be 47 34 27 bf 71 8f 12 3f
       0.13693473 -0.3577646 -0.65314144 0.57250124
0002d0 ba 68 ca 3e 66 e8 d6 3e fc c7 de be e0 33 07 be
       0.39533025 0.4197418 -0.4351195 -0.13203382
0002e0 09 57 4f 3e 78 4c 4d 3e 8c a5 13 bf 77 a0 c8 be
       0.20248045 0.20048702 -0.5767448 -0.39184925
0002f0 f2 bb db bf 22 18 90 3f d1 7e 75 3e b5 31 15 3f
       -1.7166731 1.1257365 0.23974158 0.5827897
000300 74 b4 e5 be 41 bd 1d 3f 8d 65 c4 bd e5 06 32 bf
       -0.44864237 0.61616904 -0.09589682 -0.6954177
000310 69 d1 01 bf 6d d7 f0 3c ac e0 68 3e 63 b8 32 3e
       -0.5071016 0.029399598 0.22741956 0.1745315
000320 fc 36 41 3d 71 a6 08 be 4d 82 f5 bc cb 03 0b bd
       0.047171578 -0.13344742 -0.029969359 -0.033939164
000330 ff 8c 84 bf c0 87 0c 3e 27 a4 e6 be 9b 5b 2e 3f
       -1.0355529 0.1372366 -0.45047113 0.6810853
000340 41 6e 15 bf 1e 4a bd bf c8 fc a8 bf 4e 76 20 c0
       -0.5837136 -1.4788244 -1.3202143 -2.5072207
000350 87 7c 56 3f ba 8e a6 be 2f 0a 11 bc e7 cf d6 bd
       0.83783764 -0.32530767 -0.008852526 -0.10488873
000360 c6 4b b9 3b b0 02 bd 3c df 66 15 3d da 8f 5d 3e
       0.005654785 0.02307257 0.03647506 0.21636906
000370 89 41 d1 3c bf 40 02 bf a9 ac 33 3f 0e 31 31 bf
       0.025543945 -0.50880045 0.70185333 -0.69215477
000380 b4 89 e4 bd 01 9c 21 3d 12 4e 77 c0 42 0f 0b bf
       -0.11159077 0.039455418 -3.86414 -0.54320157
000390 3d d6 2c bf 32 1a 3d 3e 73 6f 9e bf cb ce de be
       -0.675144 0.18467024 -1.2377762 -0.43517146
0003a0 b1 b6 13 3d 01 17 58 3b 8f f2 ca bb e6 26 ee 3e
       0.0360629 0.0032972696 -0.006193466 0.46514052
0003b0 2f 18 e0 3d 2c 1f 08 bb d4 25 7f bf 55 c8 22 3d
       0.10942113 -0.0020770533 -0.99667096 0.039741833
0003c0 9b 65 ee bf 61 e3 61 bf c6 2f 04 bf de 9b dc bd
       -1.8624758 -0.8823758 -0.51635396 -0.10771917
0003d0 ab 3b 3e 3d 46 fc 3b 3e 23 4a bf 3e 55 03 cb be
       0.046443623 0.18357953 0.3736125 -0.3965098
0003e0 b9 17 eb be 02 ca 29 be ff 3b 07 bd 72 d5 10 3f
       -0.45916536 -0.16580966 -0.0330162 0.5657569
0003f0 e9 d3 af 3d 42 e7 2c 3d 19 05 83 be 78 3c 0b be
       0.085853405 0.042212732 -0.25589827 -0.13597286

bias f4 [256]
000000 8b a2 58 bf 48 70 11 3e c3 32 44 bc d5 6f 42 bf
       -0.8462302 0.14202988 -0.011974993 -0.7595189
000010 74 91 bf be b4 04 82 3e 43 f8 3c 3f c2 9e 50 bc
       -0.3741566 0.25394213 0.7381632 -0.012733163
000020 87 30 ca 3d 9f 9d 1c 3e e3 93 2c 3d 6b d9 fe be
       0.09872537 0.15294503 0.042133223 -0.49775252
000030 83 5c 53 bf fb 1c 01 bf 86 b0 41 bf f3 a7 56 be
       -0.82563037 -0.50434846 -0.7565998 -0.20962505
000040 da 85 9e be 30 ca 66 be 5b 5f b3 be a4 ce 84 3d
       -0.30961496 -0.22538066 -0.35033688 0.06484726
000050 8d 59 1f 3f 85 4a ba 3e 67 53 db bd f7 32 ad be
       0.6224602 0.3638498 -0.10709267 -0.33827946
000060 b3 d4 8d be 72 d8 9d bf 92 83 18 bf b9 25 5d 3e
       -0.2770134 -1.2331679 -0.5957576 0.21596421
000070 bc e7 3b 3e 2f 5e 68 3f 41 a6 a3 3e 9d 98 56 3e
       0.18350118 0.9076871 0.3196278 0.20956655
000080 13 c5 ed 3e c6 73 82 bf 33 cb 99 3c 39 2f 1b bf
       0.46439418 -1.0191581 0.01877365 -0.6061893
000090 db 3c 94 3e 08 57 a4 3e c2 93 f6 3e a5 94 3f 3f
       0.2895268 0.3209765 0.48159605 0.7483619
0000a0 a2 91 89 bf 31 ba cd bd b4 25 2b 3f 1a 4a 19 bf
       -1.0747569 -0.10045279 0.66854405 -0.59878695
0000b0 d3 93 3d bf 2c 62 cb 3d b9 63 c7 bc 64 99 2a be
       -0.74053687 0.09930834 -0.024339544 -0.16660076
0000c0 0e ca b5 3b 27 8c 83 bd a6 98 e0 be 62 82 19 3f
       0.0055477684 -0.06423216 -0.43866462 0.59964573
0000d0 50 8f 67 bf f8 ea 62 3d 51 ca 8a be 39 41 35 3f
       -0.9045305 0.055399865 -0.2710748 0.70802647
0000e0 bc ea 31 bf d7 ec bc bd 7c 7a b0 be 1b 48 1c be
       -0.694988 -0.09224861 -0.34468448 -0.15261881
0000f0 30 00 28 bf 27 a7 69 3e bb af eb bd 35 5e 11 bf
       -0.65625286 0.2281767 -0.11508127 -0.56784374
000100 02 e3 16 3f 8f 3b 44 3e cf b7 20 bf f3 4d c2 bd
       0.58940136 0.19163345 -0.6278047 -0.09487524
000110 8d c8 12 bf e7 76 39 3e 5e aa 80 be 40 fc 36 be
       -0.57337266 0.18111764 -0.2512998 -0.17869663
000120 e4 9c c7 bc aa 41 3c bf cc 18 25 3f b1 82 71 3f
       -0.024366803 -0.73537695 0.6449096 0.94340044
000130 90 ba 98 be 12 65 a9 3e 92 04 21 3f 8d 08 73 3f
       -0.29829836 0.33084923 0.628976 0.9493492
000140 96 d5 dc 3e 21 51 73 3f 13 cc a3 be 59 db cd be
       0.43131703 0.9504567 -0.31991634 -0.4020641
000150 ed 60 82 3e b3 43 07 3e 8b b1 aa 3d 45 05 e2 3e
       0.25464574 0.13209419 0.08334645 0.44144645
000160 3b 4f 5a 3e c1 b5 06 be 7a 6c 15 bf 73 3b 8a 3d
       0.21319287 -0.13155271 -0.5836865 0.0674962
000170 95 73 0f bf 3e 75 e5 3d 95 31 8e bf d3 73 cc be
       -0.5603574 0.11204003 -1.1108881 -0.39932117
000180 f8 5b d4 be 7e 9c b6 be d3 14 68 3f f2 e4 fe be
       -0.41476417 -0.3566627 0.90656775 -0.49784046
000190 19 b8 76 bf 2c ad bb bd 3e 23 94 3d 8a eb 3c bf
       -0.9637466 -0.09163889 0.072332844 -0.73796904
0001a0 9e 63 23 3f 2b 79 e1 3e 67 67 b6 3e 65 4f 06 3e
       0.6382388 0.44037756 0.35625765 0.13116224
0001b0 6a 8c 27 3f 9b fc 41 bd 3a b8 ce bd 27 56 3e 3e
       0.6544863 -0.047360044 -0.10093732 0.18587552
0001c0 3c a6 80 bf d6 e4 41 bf 04 db 03 bf 33 c8 35 3f
       -1.0050731 -0.757398 -0.51506066 0.71008605
0001d0 6b 6b 90 bf 9f 3f ec 3e 9c 2a 21 3f 50 ed 4b bf
       -1.1282781 0.4614229 0.6295564 -0.79658985
0001e0 2c 31 48 be b4 71 80 3f b3 a9 89 bc e3 29 26 bf
       -0.19550008 1.00347 -0.016804552 -0.64907664
0001f0 88 19 49 bf 09 7f e6 3e 94 fc 30 bf 05 ae 4c be
       -0.7855458 0.45018795 -0.69135404 -0.19988258
000200 01 ea 8d be 22 25 4d 3a 30 c8 4e bd 65 52 c8 bd
       -0.27717593 0.00078256626 -0.050483882 -0.097813405
000210 35 59 07 3f 8a 50 fe be 29 4c 3f be 64 97 24 be
       0.52870494 -0.4967082 -0.18681397 -0.16073376
000220 e3 7c f5 bd ad 14 c5 bd 77 13 32 3f 8e ff 59 3e
       -0.11986711 -0.09623084 0.6956095 0.21288893
000230 65 69 b4 3e d0 6e ac bf 7d 56 11 3f e1 ef 75 3f
       0.3523666 -1.3471317 0.56772596 0.9606915
000240 5b 5f a2 be c4 99 27 bd 78 fd 77 3d 5c 31 36 3e
       -0.31713375 -0.040918127 0.06054446 0.17792267
000250 17 bb b9 3e ba 16 ff be 04 4b a6 3e 0b cc 2b bf
       0.3627555 -0.49822026 0.32479107 -0.6710822
000260 c2 97 c8 3e 6e ca 48 3d 77 de 05 3f cc 41 09 3f
       0.39178282 0.049021177 0.5229258 0.53616023
000270 3e 65 4a 3f 47 e2 e8 3e d3 5f e1 3e 09 91 2b bf
       0.79060733 0.45485136 0.4401842 -0.6701818
000280 97 48 5a bf 4f 24 8d bf 88 72 35 bf 36 d4 c7 3d
       -0.85267013 -1.1026706 -0.70877886 0.09757273
000290 40 ce 16 be 40 68 14 3f 1d db ce be 6c 65 e7 be
       -0.14727116 0.5797157 -0.40401545 -0.45194566
0002a0 26 10 2a be db 39 b6 be c0 06 49 bf 40 1b fa be
       -0.16607723 -0.35591015 -0.78525925 -0.48848915
0002b0 3f 44 cb 3e 2b 31 c6 bd 39 53 20 3f 43 25 eb be
       0.39700505 -0.09677347 0.6262699 -0.45926866
0002c0 60 84 ee 3d c5 11 af 3e ef 9a 46 be 77 f9 87 3f
       0.11646342 0.34193245 -0.1939504 1.0623006
0002d0 50 78 4f bf 6d 19 88 3e a2 40 91 3e 00 75 1b ba
       -0.8104296 0.26581898 0.28369623 -0.0005930215
0002e0 cf 5c 65 3f 5f ed 98 bd e5 df 54 3f 55 82 23 3f
       0.8959474 -0.0746715 0.83154136 0.63870746
0002f0 ed e5 91 bf 43 e7 83 be 83 eb 86 3c 44 c7 71 bb
       -1.1398293 -0.25762376 0.016469723 -0.0036892453
000300 46 e2 9c bf 95 77 89 bf 68 b5 2a be 40 a7 0a 3d
       -1.2256553 -1.0739619 -0.16670763 0.03385091
000310 58 a4 db be ee b0 be 3e 8d a3 11 3f 45 08 27 3e
       -0.42898822 0.37244362 0.56890184 0.16311748
000320 de b2 d4 3e 68 5f e6 be 30 d9 81 3f 7c 32 c2 3e
       0.41542715 -0.44994664 1.0144405 0.37929142
000330 ac 72 d7 be f9 da 14 3f 5d 91 e5 3e d4 72 65 be
       -0.42079675 0.58146626 0.44837466 -0.22407085
000340 23 ea 43 bd fd 64 93 be 41 e0 41 be 56 44 bc 3c
       -0.047830712 -0.28787985 -0.18933202 0.022981804
000350 21 20 9a be 35 16 1c bf fc e8 62 3d 18 c9 de 3e
       -0.30102637 -0.60971385 0.055397972 0.43512797
000360 e3 55 f6 3d 40 e5 a0 3e 9e 6e e2 bd e3 9c 89 3b
       0.120281 0.31424904 -0.11056255 0.0041996106
000370 51 fa 50 bf 08 93 40 3f 62 48 f8 be 49 78 27 3f
       -0.8163195 0.7522435 -0.48492724 0.65417916
000380 d6 c6 ea be a6 7f 95 3e ce 74 ec bd 03 3d 72 3f
       -0.45854825 0.2919895 -0.11545716 0.94624346
000390 f1 db ca 3d 23 40 50 bf da d4 5d bb 13 f2 86 be
       0.09905232 -0.81347865 -0.0033848793 -0.26356563
0003a0 d4 fd 4f bf 63 69 fc 3e 25 ce 30 3f 70 39 3d bf
       -0.81246686 0.49299154 0.6906455 -0.7391577
0003b0 4a 1c e9 be 7b c3 69 bf 80 0f 61 3f 5d 42 fe 3d
       -0.45529395 -0.91313905 0.87914276 0.124150015
0003c0 53 3b 84 3e d6 a6 0c 3f 1b 2a 65 bf 01 bf b3 be
       0.2582651 0.5494207 -0.8951737 -0.35106662
0003d0 85 e1 9c bd 64 85 ea 3c 97 b3 3c 3f 33 5d 1a 3f
       -0.07660202 0.028628059 0.7371153 0.6029846
0003e0 03 16 0d bf cb cb 0a bf a8 58 d8 be 3b ab 20 bf
       -0.5511171 -0.54217213 -0.4225514 -0.62761277
0003f0 c6 cc 66 3f d2 91 ad bd e1 00 c4 3e 8b 00 46 bf
       0.9015621 -0.08475079 0.3828192 -0.7734458
