data/misc/pr_beta_0.6/Walker2d-v2/integrated_algo_0.6_s1489/pyt_save/model.pt (torch_old, 924678 bytes, 18 tensors)

weight f4 [256, 17]
0.2215494 0.77673835 1.6348311 3.165429 0.71241784 -1.4128718 -0.92802477 -3.8718677
-0.9473763 0.20416558 0.22155099 0.12712827 0.049126852 -0.047102638 0.1450773 -0.28728023
0.19341366 -0.8188879 -1.4478601 -0.8471543 0.24394172 -0.9373288 0.33896926 -0.36577797
0.10271413 1.03654 0.9953583 -0.05460339 -0.16272466 -0.07856067 -0.058957644 -0.14343938
0.13457547 -0.2041409 -0.13307132 2.1939125 1.7067425 -0.47986454 -0.77370954 -0.80125064
3.7798264 -0.06477711 0.26013535 0.22880521 -0.14236882 -0.00053585495 -0.04117191 0.047438867
-0.039249323 -0.3397602 -0.09252839 -3.1642005 2.3926418 0.10798256 -0.19219844 0.47913975
0.9516924 -0.6092778 -0.43656203 0.93331265 -0.56290776 -0.105311945 -0.015970888 -0.15848331
-0.04045434 0.13350336 0.031310923 0.10328095 -1.1988771 -0.15959458 3.5647664 0.98314226
-0.23315535 1.140841 0.36494705 -1.7917832 -0.87956506 0.05904982 0.4759239 0.3538594
-0.0618292 0.11894551 -0.007797878 0.14278157 -0.23036966 0.9511134 -1.1120439 2.7734144
0.11533462 0.59295505 1.4378275 1.5609568 0.30707896 -1.8941295 2.3413427 -0.25049686
0.25883082 0.3169185 0.019939901 0.25240928 0.20361735 -0.13637178 -0.5824435 1.8510903
3.7665787 -0.15991198 -0.64745885 -0.7293251 -0.5912265 -0.44998637 0.014198002 -0.8651582
-0.15783854 -0.20877865 0.1392527 0.028755842 0.31630886 0.08516359 -0.038921393 0.34084028
1.3444339 1.802779 0.30409706 -1.4795877 1.2393464 3.3053932 -0.44049412 0.47684988
0.47600815 -0.014125134 -0.018316118 -0.060409054 -0.06626953 -0.15444893 0.23338084 0.11543651
-1.0077468 0.5500938 2.7594848 0.9271206 0.1622528 1.2893459 -0.5113902 -1.1439514
-0.55649024 1.4719347 -0.06600488 0.119881764 0.24469899 -0.04508885 0.43701214 -0.44850883
-0.17945778 -3.107317 2.7313411 -1.1673986 0.5732836 -0.34433272 -0.37667906 -0.88897395
-0.27950904 0.13145623 -0.5989904 -0.020979302 -0.037812807 -0.015520695 0.06653579 -0.17519425
-0.024428226 0.10007498 0.41167203 -0.7467328 5.323226 1.9165958 0.55899215 0.18532665
2.6566641 -2.0079973 0.0018727625 1.0663178 0.28593796 0.26293418 -0.03642467 0.22342737
0.008965662 0.25512433 -0.15221047 -3.2376764 0.8397346 -0.44483703 -0.09433812 -0.80679405
0.2968344 -1.3205221 -0.55732167 0.03949623 -1.0793471 0.03453196 0.13265744 0.04685581
-0.06642013 -0.025580764 0.120092794 0.10952654 -0.8877958 1.102019 3.708625 1.67325
-2.5011306 4.027897 1.5075556 -1.6253861 -1.4125614 1.5829365 0.20005444 0.13365717
0.12043118 -0.10428446 0.31339327 -0.02160529 0.054826748 0.5586662 1.3182052 1.1176765
0.6543682 0.838379 -0.030838128 1.575978 0.5261542 -2.0569773 1.2338037 0.24790138
0.080204956 0.24698503 0.050634913 0.33769983 -0.1886602 0.07515153 0.26441672 -0.14043844
-0.576249 1.1417127 -0.06015352 1.4484949 0.32462633 0.089231364 0.31078288 0.0767692
0.08988736 -0.16074729 0.12714136 0.10870429 0.10512527 0.012264794 -0.04055209 -1.9502754
00000000: d9dd 623e 53d8 463f 2542 d13f 6496 4a40
00000010: 0461 363f fcd8 b4bf 0893 6dbf aecc 77c0
00000020: 4187 72bf c810 513e 43de 623e ea2d 023e
00000030: 3d39 493d b2ee 40bd 258f 143e 6516 93be
00000040: 3b0e 463e a3a2 51bf 7b53 b9bf 1bdf 58bf
00000050: dccb 793e c8f4 6fbf 618d ad3e 4047 bbbe
00000060: c95b d23d 58ad 843f cdcf 7e3f cea7 5fbd
00000070: 4ba1 26be 6be4 a0bd 927d 71bd c6e1 12be
00000080: 27ce 093e 500a 51be d943 08be 1069 0c40
00000090: 8a76 da3f ceb0 f5be d411 46bf c31e 4dbf
000000a0: ade8 7140 dda9 84bd 7630 853e ea4b 6a3e
000000b0: 22c9 11be 9e78 0cba e0a3 28bd 424f 423d
000000c0: e6c3 20bd 0df5 adbe 867f bdbd 4382 4ac0
000000d0: 0b21 1940 f625 dd3d abcf 44be ce51 f53e
000000e0: 1da2 733f a1f9 1bbf 0f85 dfbe 94ed 6e3f
000000f0: b91a 10bf caad d7bd 61d5 82bc 7349 22be
00000100: 73b3 25bd 1bb5 083e e23f 003d f684 d33d
00000110: ce74 99bf c36c 23be 2225 6440 36af 7b3f
00000120: 47c0 6ebe 1407 923f 57da ba3e 2759 e5bf
00000130: 2d2b 61bf 39de 713d 4cac f33e 0f2d b53e
00000140: 9d40 7dbd b499 f33d 5785 ffbb 5535 123e
00000150: 06e6 6bbe 2b7c 733f 7457 8ebf 9f7f 3140
00000160: 8f34 ec3d e7cb 173f bb0a b83f 6fcd c73f
00000170: 7439 9d3e d672 f2bf 8fd8 1540 2041 80be
00000180: 7985 843e 2443 a23e 0159 a33c ca3b 813e
00000190: 1181 503e 0ba5 0bbe 041b 15bf 87f0 ec3f
000001a0: a00f 7140 f7bf 23be ddbf 25bf 0db5 3abf
000001b0: 9f5a 17bf 9d64 e6be bd9e 683c 027b 5dbf
000001c0: 6da0 21be 12ca 55be 4398 0e3e 5f91 eb3c
000001d0: 3cf3 a13e 406a ae3d 0a6c 1fbd 9e82 ae3e
000001e0: 6916 ac3f 76c1 e63f 9cb2 9b3e 2163 bdbf
000001f0: e7a2 9e3f 908b 5340 7288 e1be ab25 f43e
00000200: 57b7 f33e 1b6d 67bc af0b 96bc 7c6f 77bd
00000210: 52b8 87bd dc27 1ebe 63fb 6e3e fa69 ec3d
00000220: d9fd 80bf f3d2 0c3f 669b 3040 c757 6d3f
00000230: 9925 263e 4909 a53f 78ea 02bf 006d 92bf
00000240: 2576 0ebf 5b68 bc3f 912d 87bd 9284 f53d
00000250: 5f92 7a3e 16af 38bd 0ec0 df3e f3a2 e5be
00000260: c8c3 37be 48de 46c0 4bce 2e40 516d 95bf
00000270: b7c2 123f 614c b0be 14dc c0be cc93 63bf
00000280: cf1b 8fbe 769c 063e 6f57 19bf c9dc abbc
00000290: 9ae1 1abd 834a 7ebc eb43 883d 1f66 33be
000002a0: b41d c8bc 1cf4 cc3d adc6 d23e e129 3fbf
000002b0: de57 aa40 0353 f53f 1c1a 0f3f 45c6 3d3e
000002c0: c906 2a40 0783 00c0 7b77 f53a 1a7d 883f
000002d0: 7666 923e 4f9f 863e 0932 15bd 25ca 643e
000002e0: b6e4 123c a89f 823e 10dd 1bbe 1736 4fc0
000002f0: d9f8 563f aec1 e3be 5834 c1bd 0e8a 4ebf
00000300: aefa 973e de06 a9bf a2ac 0ebf cdc6 213d
00000310: 0c28 8abf 6271 0d3d 5ad7 073e e1eb 3f3d
00000320: 4707 88bd c08e d1bc 36f3 f53d 734f e03d
00000330: 9646 63bf f50e 8d3f 1d5a 6d40 0e2d d63f
00000340: 8612 20c0 88e4 8040 95f7 c03f a70c d0bf
00000350: d0ce b4bf aa9d ca3f 12db 4c3e 6ddd 083e
00000360: 9fa4 f63d 1793 d5bd 1575 a03e 94fd b0bc
00000370: 0392 603d c004 0f3f f3ba a83f 0610 8f3f
00000380: ad84 273f 02a0 563f 3ea0 fcbc a6b9 c93f
00000390: 0bb2 063f 84a5 03c0 48ed 9d3f dcd9 7d3e
000003a0: 7f42 a43d a5e9 7c3e 8e66 4f3d fee6 ac3e
000003b0: 2430 41be 0ce9 993d a161 873e 18cf 0fbe
000003c0: 0e85 13bf a423 923f 8a63 76bd 4868 b93f
000003d0: 6c35 a63e efbe b63d ef1e 9f3e 2c39 9d3d
000003e0: dd16 b83d f09a 24be 5831 023e 5ba0 de3d
000003f0: eb4b d73d 46f2 483c f319 26bd a0a2 f9bf

bias f4 [256]
0.27339035 -0.75274223 -0.21442701 -1.9721975 -1.3676308 0.88433874 -0.76124996 0.26619434
-0.9235445 -1.8257602 0.1256881 -2.1612551 -1.4311234 0.6265884 0.31917962 -1.808362
-1.514851 -0.15823393 -1.688084 -0.45368794 -1.4828886 0.29766807 0.9591313 0.48706144
-0.43163875 -0.6017361 -1.0441177 -0.06800046 -1.4787228 -1.5333627 -1.7669581 0.21296088
-1.8140061 -0.42765024 -1.0132861 -1.8541168 -0.47892386 1.5763077 -1.9659935 0.57321054
-1.1275933 1.7193421 -1.3367466 -0.40223825 -0.11705618 -1.6562712 0.68436074 -1.2055454
-0.020355033 -1.793938 0.5768466 1.1886328 -0.92615914 -1.7157149 0.52827024 -1.8957074
0.29186553 0.85473955 -0.336714 -2.2735376 -1.9356896 -0.18485397 -2.2606432 -1.2258366
0.035616633 -0.668143 -0.26316065 0.05311617 -0.12434606 -1.5340195 0.38231465 0.4951343
-1.3334469 -0.05389765 -1.8352985 -1.5341082 -1.619102 0.1978579 -1.8891302 -0.5959703
-0.47140983 0.71321124 0.34773532 0.8088069 -1.1789212 -0.7532699 -1.5947787 -1.2748384
-0.7373856 -0.7059508 -1.0453258 -0.58011687 -1.0954648 -0.40036133 -1.43857 -0.93998224
-0.97360724 -1.56842 1.4720268 -0.7567399 1.3953234 -1.2330507 -1.6027137 -1.2734722
-1.9347363 -0.64091253 -0.23717618 -1.0097874 0.03949244 -0.3328194 -0.98732775 -0.80631363
-1.4530742 -0.046027564 -0.75414294 0.26571465 0.5193405 0.99853176 -0.43463263 -0.08637447
-0.62646693 -1.63383 -0.007043204 0.95028204 -1.1547121 -1.2617495 -0.5756284 -1.506672
-1.5017568 -1.6952806 -0.068025395 0.37307295 1.9241115 -1.7135122 -1.5699906 0.37859434
-0.29592144 -0.7690488 -2.0358794 0.8696545 -1.4984465 -0.42896858 -1.1113008 -1.3547235
-0.30269554 0.027433416 -0.6436377 0.7543649 -0.5657642 -1.117308 -1.427615 -1.0900557
-1.4944745 0.63275915 -1.884031 -0.9119994 0.23361178 -1.4254277 -0.22499363 -1.0297496
-1.4765391 -1.7485859 -1.3934702 -1.8992777 0.13531658 0.8896649 1.3263775 0.21781501
0.48028043 0.079642326 -1.3080118 -0.89439946 -1.3618189 1.0508993 -1.5777868 -0.5749487
-0.14505583 -1.119383 1.5226829 -2.2370572 -1.1260289 0.7557145 -0.16674788 -0.10122915
0.5575568 -1.3847097 0.8143424 -1.9601789 -1.3737862 -0.8168452 -0.22564979 -1.092323
-1.6746459 -0.90199584 1.171307 0.16335998 -1.3659152 -0.85306805 -0.5597623 -1.7129087
-1.4474211 -0.44076362 -1.5859528 -0.6309231 -1.3237528 0.21539636 -1.4315562 -1.6412051
-2.0306036 -0.50163585 -2.0537214 -0.6876198 -0.29176742 -0.34220308 -1.7787062 -1.5777608
0.2329488 0.73419243 -0.61214304 -0.079504244 0.15077814 -1.5381124 -1.8123206 -1.467194
-1.1827765 -0.60893005 -1.2669405 -0.9002523 -0.83503807 -0.3390832 -1.1023495 -0.86928225
1.0118741 0.2037498 -0.9185212 1.2050116 -0.7752083 -1.8265607 -0.5038971 -1.7601314
-0.24944702 -1.3201731 0.35087502 -0.5039989 -0.6105402 -1.8583686 -1.5796859 -0.7275908
-0.8095657 0.1525242 -0.9605366 -0.58284354 -1.4580764 -0.47174144 -0.4185279 -0.07253947
00000000: d2f9 8b3e b7b3 40bf c192 5bbe f870 fcbf
00000010: 870e afbf 0664 623f 47e1 42bf a04a 883e
00000020: 6a6d 6cbf 83b2 e9bf 62b4 003e 0152 0ac0
00000030: 0d2f b7bf 1968 203f 836b a33e 6878 e7bf
00000040: a3e6 c1bf 1308 22be 2313 d8bf c949 e8be
00000050: 4bcf bdbf f367 983e a189 753f 1e60 f93e
00000060: c1ff dcbe 610b 1abf a6a5 85bf d343 8bbd
00000070: ca46 bdbf 3b45 c4bf af2b e2bf 6b12 5a3e
00000080: 5a31 e8bf f9f4 dabe 5cb3 81bf b353 edbf
00000090: 8235 f5be 73c4 c93f ada5 fbbf edbd 123f
000000a0: fa54 90bf 6713 dc3f 831a abbf 2cf2 cdbe
000000b0: 27bb efbd b200 d4bf 4432 2f3f 504f 9abf
000000c0: 99bf a6bc c39f e5bf 38ac 133f 1f25 983f
000000d0: c418 6dbf 8c9c dbbf b83c 073f 8aa6 f2bf
000000e0: 666f 953e 36d0 5a3f c765 acbe a481 11c0
000000f0: adc4 f7bf 5c4a 3dbe 61ae 10c0 37e8 9cbf
00000100: bfe2 113d 6b0b 2bbf febc 86be 5790 593d
00000110: 26a9 febd c05a c4bf bfbe c33e 3e82 fd3e
00000120: 63ae aabf c8c3 5cbd 10eb eabf a85d c4bf
00000130: bc3e cfbf 439b 4a3e 05cf f1bf 8291 18bf
00000140: a15c f1be 0395 363f 5d0a b23e f80d 4f3f
00000150: e4e6 96bf 4cd6 40bf b521 ccbf e82d a3bf
00000160: 4dc5 3cbf 31b9 34bf 3ccd 85bf 8a82 14bf
00000170: 3138 8cbf 29fc ccbe 1023 b8bf ada2 70bf
00000180: 533e 79bf fdc1 c8bf 606b bc3f b5b9 41bf
00000190: f599 b23f 9bd4 9dbf b925 cdbf 2301 a3bf
000001a0: 70a5 f7bf d812 24bf 50de 72be b740 81bf
000001b0: d3c2 213d 4e67 aabe 83c1 7cbf 926a 4ebf
000001c0: 56fe b9bf 6687 3cbd 830f 41bf c00b 883e
000001d0: 80f3 043f c79f 7f3f 2b88 debe 19e5 b0bd
000001e0: 2360 20bf 5721 d1bf adca e6bb af45 733f
000001f0: 9bcd 93bf 0281 a1bf 625c 13bf a1da c0bf
00000200: 9139 c0bf f4fe d8bf e650 8bbd 6b03 bf3e
00000210: 4949 f63f 5e54 dbbf 74f5 c8bf 1ed7 c13e
00000220: 0483 97be 62e0 44bf d94b 02c0 ada1 5e3f
00000230: 18cd bfbf c5a1 dbbe 1b3f 8ebf 9467 adbf
00000240: e9fa 9abe 0bbc e03c 71c5 24bf 0f1e 413f
00000250: ecd5 10bf f303 8fbf 17bc b6bf f286 8bbf
00000260: f14a bfbf 81fc 213f ee27 f1bf cb78 69bf
00000270: ed37 6f3e 6a74 b6bf bb64 66be d6ce 83bf
00000280: 3cff bcbf aad1 dfbf 3b5d b2bf 881b f3bf
00000290: 6e90 0a3e 14c1 633f bdc6 a93f e60a 5f3e
000002a0: 51e7 f53e 841b a33d ee6c a7bf 5df7 64bf
000002b0: 1550 aebf de83 863f ebf4 c9bf d72f 13bf
000002c0: 8489 14be f147 8fbf 46e7 c23f f22b 0fc0
000002d0: b721 90bf 8176 413f f5bf 2abe 3b51 cfbd
000002e0: 0bbc 0e3f 2b3e b1bf be78 503f 24e7 fabf
000002f0: 3ad8 afbf c41c 51bf bd10 67be 3dd1 8bbf
00000300: cc5a d6bf 33e9 66bf 63ed 953f d747 273e
00000310: 4fd6 aebf ab62 5abf 954c 0fbf 9840 dbbf
00000320: 1845 b9bf c5ab e1be 8000 cbbf 2d84 21bf
00000330: bb70 a9bf dd90 5c3e 3c3d b7bf 0213 d2bf
00000340: 69f5 01c0 356b 00bf 2c70 03c0 da07 30bf
00000350: 8a62 95be 3e35 afbe a5ac e3bf 11f4 c9bf
00000360: 218a 6e3e 09f4 3b3f 68b5 1cbf 1fd3 a2bd
00000370: 9665 1a3e dee0 c4bf 1ffa e7bf 03cd bbbf
00000380: 3865 97bf d7e2 1bbf 1b2b a2bf ef76 66bf
00000390: 0ec5 55bf 509c adbe ca19 8dbf 4889 5ebf
000003a0: 1785 813f caa3 503e 3524 6bbf d23d 9a3f
000003b0: 0d74 46bf becc e9bf 66ff 00bf fc4b e1bf
000003c0: 0a6f 7fbe 6ffb a8bf e4a5 b33e 1206 01bf
000003d0: 5d4c 1cbf 06df edbf 2633 cabf 6443 3abf
000003e0: b33f 4fbf 4e2f 1c3e bae5 75bf 3c35 15bf
000003f0: 3fa2 babf 1888 f1be 4a49 d6be 938f 94bd

weight f4 [256, 256]
0.03803743 0.23422019 0.09652566 -0.17138791 -0.34034815 -0.3692885 -0.24212208 -0.08224574
-0.2534659 -0.11602448 -0.17215012 0.32727346 -0.0924804 -0.34151968 -0.38557276 0.03394883
0.11851499 -0.011587816 -0.32646176 0.06337295 -0.28634766 -0.0016259208 -0.19032189 -0.04878966
-0.19821486 -0.15812747 0.15864849 -0.070636496 -0.25941145 -0.11777536 0.055743184 -0.035138663
0.38943592 0.11792575 0.059143353 0.093631744 -0.52958626 0.050026327 -0.09730914 -0.035688203
-0.11566916 -0.0036219105 0.22440696 -0.14918865 -0.26078424 -0.39516783 0.20752054 -0.4099696
0.16941161 -0.33771852 -0.12326108 -0.13526188 -0.07415658 0.11072326 -0.783412 -0.83845246
0.14072418 -0.5720404 -0.22685619 -0.02186884 -0.4115275 -0.40961716 -0.01205905 -0.25903615
-0.05480843 -0.09024188 -0.35729882 -0.47506887 0.09952621 0.24495235 -0.3395511 -0.067419045
-0.8423074 -0.6356012 -0.18344806 0.39323935 -0.52728045 -0.49265578 0.18127218 -0.16185248
-0.06971107 0.058453195 -0.015434791 -0.16333649 0.26257586 -0.08188103 -0.18456185 0.13464591
-0.41285336 -0.22813028 -0.0030644145 0.09834726 0.20032306 -0.49996194 -0.08754266 -0.13632293
-0.24447292 -0.21602257 -0.42164126 0.21622545 0.16068152 -0.04351114 -0.04963952 -0.47696337
0.20175992 -0.28965154 -0.5860054 0.07043533 -0.07129254 -0.21843582 0.1399908 0.079242885
-0.32221368 -0.28494158 -0.25576875 -0.045954417 -0.02258564 -0.9780149 -0.24625808 0.07319295
0.14649925 -0.07289371 -0.3376082 -0.5826933 -0.06565548 -0.15827873 -0.041216113 -0.19564535
-0.26697212 -0.2396717 -0.15669999 -0.332331 -0.45439303 -0.023359692 -0.47975665 0.18965104
-0.42286375 -0.16439953 -0.35999766 -0.14204003 -0.018264636 -0.42943865 -0.26385522 -0.12102004
-0.17387642 0.08959552 -0.16032135 0.043541625 -0.30375218 -0.26606858 -0.38177148 -0.09464176
0.071737625 -0.23776145 -0.38456562 -0.26200226 -0.69513446 -0.6439622 0.018662672 0.123843215
-0.49056378 -0.14923136 -0.035527576 0.34084746 -0.124967456 -0.15230623 -0.22814798 -0.6133826
-0.2722041 -0.04613208 0.18708281 0.011337875 -0.17336793 -0.39239165 0.13792723 0.15707792
0.05382076 0.1136779 -0.20088908 -0.192139 -0.20361575 0.068346135 -0.189552 0.38512176
-0.49099708 -0.031950865 -0.10530314 0.10967524 -0.27440295 0.06273529 -0.48807606 -0.15310134
0.05218127 0.52894616 0.07704057 0.20907754 -0.32848385 -0.2606988 -0.05146724 -0.12127033
-0.4095633 -0.09886336 -0.30771798 -0.6906344 -0.050810065 -0.48309296 -0.04513752 0.043814573
-0.18368728 0.096039996 -0.56207335 0.108071014 -0.31346884 -0.06130804 -0.30228755 -0.13434234
0.31442603 0.19404618 -0.20449594 -0.04346768 -0.06514993 -0.40637535 -0.25344613 -0.049359985
0.25645754 0.13019308 -0.39776993 -0.13421 -0.20866571 -0.015504423 0.13468622 -0.22500056
-0.016380921 -0.050537627 -0.25152126 -0.17166772 0.10371635 -0.14159949 -0.41182142 -0.925946
0.059200127 -0.4654466 -0.24301024 -0.19655225 0.079469234 -0.020676672 -0.038443092 -0.37979957
-0.26229212 0.33045742 0.023324693 -0.07016861 -0.75065833 -0.32564083 0.22947244 0.10530708
00000000: 23cd 1b3d 6bd7 6f3e 3faf c53d 5080 2fbe
00000010: 1d42 aebe 6213 bdbe daee 77be 7470 a8bd
00000020: 48c6 81be 3e9e edbd 1f48 30be 6390 a73e
00000030: 5d66 bdbd abdb aebe cb69 c5be ee0d 0b3d
00000040: fdb7 f23d d3da 3dbc ff25 a7be adc9 813d
00000050: 299c 92be d91c d5ba bee3 42be abd7 47bd
00000060: d6f8 4abe 2bec 21be c074 223e dea9 90bd
00000070: 94d1 84be 3534 f1bd f752 643d 8fed 0fbd
00000080: 2564 c73e 0e83 f13d 4d40 723d 00c2 bf3d
00000090: f792 07bf 68e8 4c3d 044a c7bd cb2d 12bd
000000a0: f4e3 ecbd 935d 6dbb f0ca 653e e9c4 18be
000000b0: 8385 85be 7053 cabe 4480 543e 89e7 d1be
000000c0: 3d7a 2d3e 71e9 acbe 4e70 fcbd 1782 0abe
000000d0: 68df 97bd e0c2 e23d b08d 48bf d2a4 56bf
000000e0: 001a 103e 3d71 12bf fd4c 68be 4826 b3bc
000000f0: bcb3 d2be 57b9 d1be 5293 45bc 63a0 84be
00000100: ce7e 60bd bcd0 b8bd dfef b6be 3a3c f3be
00000110: 66d4 cb3d cad4 7a3e a4d9 adbe ff12 8abd
00000120: 75a1 57bf c3b6 22bf cfd9 3bbe ab56 c93e
00000130: dafb 06bf 613d fcbe 6a9f 393e a8bc 25be
00000140: adc4 8ebd 9e6c 6f3d 35e2 7cbc ae41 27be
00000150: 5870 863e 3eb1 a7bd c8fd 3cbe 9ee0 093e
00000160: 8461 d3be fc9a 69be 58d4 48bb 4a6a c93d
00000170: 7d21 4d3e 03fb ffbe 9149 b3bd 3d98 0bbe
00000180: 1c57 7abe 0535 5dbe 5de1 d7be 346a 5d3e
00000190: b289 243e bd38 32bd cf52 4bbd 8b34 f4be
000001a0: 279a 4e3e 354d 94be 7304 16bf 6640 903d
000001b0: d301 92bd a4ad 5fbe c059 0f3e 184a a23d
000001c0: 31f9 a4be dde3 91be 1ff4 82be b33a 3cbd
000001d0: 8505 b9bc 2f5f 7abf 142b 7cbe 2fe6 953d
000001e0: e603 163e 4c49 95bd fbda acbe 632b 15bf
000001f0: 6176 86bd d213 22be 3ad2 28bd 4157 48be
00000200: 92b0 88be 806c 75be f675 20be 4a27 aabe
00000210: 34a6 e8be d35c bfbc aaa2 f5be e233 423e
00000220: 9981 d8be 5a58 28be 9d51 b8be f172 11be
00000230: b89f 95bc 62df dbbe 0818 87be 5bd9 f7bd
00000240: a90c 32be db7d b73d 482b 24be b458 323d
00000250: 6885 9bbe 243a 88be 8d77 c3be 8ad3 c1bd
00000260: 2deb 923d bd77 73be c9e5 c4be 2925 86be
00000270: 55f4 31bf b5da 24bf 76e2 983c 83a1 fd3d
00000280: 2d2b fbbe 1bd0 18be 5d85 11bd 8f83 ae3e
00000290: f0ee ffbd 2af6 1bbe a09f 69be a406 1dbf
000002a0: 565e 8bbe fef4 3cbd a392 3f3e 7fc2 393c
000002b0: 5d87 31be 8fe7 c8be cc3c 0d3e 09d9 203e
000002c0: 2873 5c3d f5cf e83d deb5 4dbe 16c0 44be
000002d0: a680 50be 0ff9 8b3d eb19 42be ae2e c53e
000002e0: f863 fbbe e9de 02bd 2ca9 d7bd 6a9d e03d
000002f0: 8b7e 8cbe 5c7b 803d 1be5 f9be 99c6 1cbe
00000300: 07bc 553d 0469 073f 72c7 9d3d 6c18 563e
00000310: 092f a8be 507a 85be 50cf 52bd 945c f8bd
00000320: 48b2 d1be e078 cabd 368d 9dbe 6bcd 30bf
00000330: 371e 50bd f657 f7be 1fe2 38bd e976 333d
00000340: 8518 3cbe 9eb0 c43d 0ae4 0fbf 5654 dd3d
00000350: fd7e a0be 241e 7bbd 6fc5 9abe 0a91 09be
00000360: 73fc a03e 0bb4 463e 6267 51be 2b0b 32bd
00000370: 546d 85bd 6e10 d0be b1c3 81be b22d 4abd
00000380: 674e 833e 5651 053e 80a8 cbbe 596e 09be
00000390: 77ac 55be 4306 7ebc 2feb 093e 8c66 66be
000003a0: 4831 86bc 8b00 4fbd 65c7 80be aac9 2fbe
000003b0: 3d69 d43d 75ff 10be 42da d2be cc0a 6dbf
000003c0: d57b 723d 044f eebe add7 78be fe44 49be
000003d0: c4c0 a23d 2062 a9bc 8176 1dbd 1775 c2be
000003e0: 274b 86be b731 a93e 6d13 bf3c 8fb4 8fbd
000003f0: 252b 40bf 65ba a6be d3fa 6a3e 3dab d73d

bias f4 [256]
0.22930962 -0.048503686 -0.07603379 -0.0771212 0.21351235 -0.4083949 -0.30861738 -0.11147995
-0.053613264 -0.88589907 -0.093786165 0.3357091 -0.065324046 -0.02750509 -0.14885956 -0.10941538
-0.04212312 -0.030495651 -0.1106027 -0.047087986 -0.12452018 -0.113141246 -0.41313368 0.040403415
0.6266198 0.13736376 -0.018286372 -0.10228732 0.11600572 -0.2373472 -0.07035046 -0.066810325
0.29753017 -0.026265146 -0.2850136 -0.06308273 -0.05187229 0.07435553 -0.053471792 0.16401501
0.118107095 -0.13906641 -0.012132994 -0.09136623 -0.07176521 -0.11156053 -0.055139877 0.6558983
-0.14409019 0.11633371 0.34199205 -0.013839636 -0.24601111 -0.06887433 -0.1634686 -0.063387886
-0.014868027 -0.037480418 0.14979972 0.30806276 -0.061722495 0.034290057 0.12906769 -0.015802227
0.008631427 0.13241892 0.46880856 -0.1191849 -0.834008 0.263633 -0.08871106 -0.11636918
-0.24006964 -0.018891778 0.14954774 -0.38854483 -0.02095412 0.17656952 -0.05634829 -0.087457165
-0.057835124 0.10533597 -0.08226303 -0.055723056 -0.19974959 -0.04739814 -0.043377344 -0.073099844
-0.09508692 -0.104163654 -0.08655165 -0.13077109 -0.10571815 -0.025564091 -0.0667087 -0.009252358
-0.1318702 -0.03623403 -0.099967696 -0.1359298 -0.11043386 -0.10915696 -0.03974296 -0.17897964
0.48565987 -0.06748216 0.57325006 -0.031781804 -0.09014269 1.1939669 -1.0850796 0.14580506
-0.13259114 -0.09406924 0.03998089 -0.21423917 -0.029612109 0.37002993 0.27616122 0.36145332
-0.5004056 0.06754418 -0.043737076 -0.052200105 -0.020680878 -0.44041738 -0.47277954 -0.048642486
-0.09063758 -0.026122367 -0.069448076 -0.047593344 -0.025970675 -0.10472836 0.37265268 -0.102538176
-1.0026914 0.9473735 -0.1118313 0.00595498 -0.002290634 -0.25293112 -0.12167903 -0.054941885
0.15332314 -0.058828007 -0.09481001 0.0019454407 -0.4766559 -0.10344418 -0.18548772 -0.024175782
0.6968599 -0.10793032 -0.093808904 -0.0008062759 -0.057407767 -0.10219078 0.17437592 -0.14174223
0.18357475 -0.404961 -0.10445095 0.35650334 -0.0707135 -0.029808003 0.33209124 -0.08695766
-0.12024229 -0.11811453 -0.04494519 -0.061162222 0.41868395 -0.109229855 -0.100625336 -0.02514974
0.15155607 -0.60271853 0.4197537 -0.3751645 0.28317657 -0.21275462 0.59623057 0.24168272
-0.14072452 0.19062631 -0.08423204 -0.05507338 0.1787548 -0.32291555 0.034760196 0.42075965
-0.13395356 -0.11314224 0.04530416 -0.042582683 -0.07651915 -0.06962036 -0.09196511 -0.08311789
0.21480718 -0.032322146 -0.093646966 -0.07782683 -0.018551124 -0.0029700606 -0.06535383 -0.019542791
0.09711759 -0.0447939 -0.06809597 -0.0808916 -0.036642518 0.092474766 -0.11405479 -0.07323924
0.40015835 -0.39121085 -0.04258788 -0.041354112 -0.11635062 -0.0427767 -0.06352236 -0.09469245
-0.025722086 -0.12130961 -0.15265687 -0.06902623 -0.06643948 -1.0763291 -0.054269668 -0.10844345
0.14397743 -0.071427956 -0.05720113 -0.27575952 -0.072447866 -0.08919697 -0.10004366 -0.48976728
-0.3895134 -0.07702697 -0.119481765 -0.031177502 -0.07541964 -0.040282812 -0.04990221 -0.028438432
-0.10750635 -0.061445504 0.00849714 -0.0852207 -0.033412915 0.19138612 -0.08472095 -0.18277268
00000000: 24d0 6a3e cdab 46bd 9bb7 9bbd b8f1 9dbd
00000010: fba2 5a3e 2319 d1be 1903 9ebe 9a4f e4bd
00000020: 9599 5bbd 48ca 62bf f612 c0bd 10e2 ab3e
00000030: 9dc8 85bd 5b52 e1bc a46e 18be 2c15 e0bd
00000040: 4b89 2cbd 04d2 f9bc ab83 e2bd 55df 40bd
00000050: 7004 ffbd 99b6 e7bd 4286 d3be 0d7e 253d
00000060: 286a 203f 16a9 0c3e 4dcd 95bc 047c d1bd
00000070: 6894 ed3d 250b 73be e713 90bd dad3 88bd
00000080: e055 983e 012a d7bc 4ded 91be 8531 81bd
00000090: 0a78 54bd b647 983d 3d05 5bbd 8df3 273e
000000a0: 22e2 f13d 6d67 0ebe 77c9 46bc 381e bbbd
000000b0: a3f9 92bd d979 e4bd 5ada 61bd f3e8 273f
000000c0: 618c 13be 5e40 ee3d 9519 af3e a4bf 62bc
000000d0: 56ea 7bbe fc0d 8dbd 5064 27be 82d1 81bd
000000e0: 0699 73bc 1185 19bd 1965 193e 67ba 9d3e
000000f0: bad0 7cbd bb73 0c3d 522a 043e ac73 81bc
00000100: d46a 0d3c d398 073e ad07 f03e 3617 f4bd
00000110: 8c81 55bf e8fa 863e 25ae b5bd f752 eebd
00000120: d1d4 75be eec2 9abc 0b23 193e 59ef c6be
00000130: faa7 abbc a4ce 343e 77cd 66bd be1c b3bd
00000140: 86e4 6cbd 63ba d73d 8579 a8bd dc3d 64bd
00000150: 288b 4cbe 8d24 42bd 71ac 31bd 5fb5 95bd
00000160: eebc c2bd c153 d5bd fe41 b1bd dbe8 05be
00000170: c282 d8bd c96b d1bc 929e 88bd 3497 17bc
00000180: fb08 07be 226a 14bd ddbb ccbd 2e31 0bbe
00000190: 262b e2bd af8d dfbd 84c9 22bd 7046 37be
000001a0: 69a8 f83e 1634 8abd 84c0 123f a32d 02bd
000001b0: bb9c b8bd e8d3 983f e3e3 8abf ec4d 153e
000001c0: f9c5 07be 60a7 c0bd 00c3 233d 8361 5bbe
000001d0: 1895 f2bc 9074 bd3e 0165 8d3e 6910 b93e
000001e0: 951a 00bf 9a54 8a3d a625 33bd c7cf 55bd
000001f0: f26a a9bc 637e e1be 2910 f2be 583d 47bd
00000200: 32a0 b9bd 93fe d5bc cb3a 8ebd 3df1 42bd
00000210: 74c0 d4bc d37b d6bd 55cc be3e 89ff d1bd
00000220: 3158 80bf 1287 723f cf07 e5bd fe21 c33b
00000230: 761e 16bb 3080 81be db32 f9bd be0a 61bd
00000240: be00 1d3e a3f5 70bd c02b c2bd 28fe fe3a
00000250: 3e0c f4be 8bda d3bd 7ef0 3dbe 4a0c c6bc
00000260: 6965 323f 920a ddbd e21e c0bd 425c 53ba
00000270: 6824 6bbd 6649 d1bd 9a8f 323e e024 11be
00000280: 05fb 3b3e 0c57 cfbe 61ea d5bd 9b87 b63e
00000290: 3dd2 90bd ea2f f4bc dd07 aa3e dc16 b2bd
000002a0: 9741 f6bd 08e6 f1bd 7318 38bd 3d85 7abd
000002b0: be5d d63e e7b3 dfbd a814 cebd d406 cebc
000002c0: 8431 1b3e c34b 1abf f5e9 d63e 9015 c0be
000002d0: 85fc 903e 59dc 59be 91a2 183f ad7b 773e
000002e0: 171a 10be 8b33 433e d981 acbd a094 61bd
000002f0: 800b 373e 3055 a5be b560 0e3d cf6d d73e
00000300: 1f2b 09be 1eb7 e7bd db90 393d 2e6b 2ebd
00000310: 12b6 9cbd 1f95 8ebd 3458 bcbd b639 aabd
00000320: 6af6 5b3e 3a64 04bd fbc9 bfbd ac63 9fbd
00000330: 87f8 97bc 59a5 42bb 3bd8 85bd 3418 a0bc
00000340: 96e5 c63d cf79 37bd e675 8bbd 7faa a5bd
00000350: 7716 16bd 6963 bd3d 8f95 e9bd 74fe 95bd
00000360: 8ee1 cc3e ca4c c8be a170 2ebd ee62 29bd
00000370: 3c49 eebd 9f36 2fbd 0318 82bd 1dee c1bd
00000380: 20b7 d2bc 2c71 f8bd 1552 1cbe a05d 8dbd
00000390: 6c11 88bd 27c5 89bf df49 5ebd 9917 debd
000003a0: d26e 133e d248 92bd bb4b 6abd 5a30 8dbe
000003b0: 8c5f 94bd e7ac b6bd b1e3 ccbd c7c2 fabe
000003c0: 4d6e c7be 51c0 9dbd dbb2 f4bd f667 ffbc
000003d0: 9d75 9abd 97ff 24bd 4266 4cbd b7f7 e8bc
000003e0: 4a2c dcbd 48ae 7bbd 9737 0b3c 3188 aebd
000003f0: fbdb 08bd b9fa 433e 2d82 adbd c328 3bbe

weight f4 [6, 256]
0.16287546 0.021623895 0.051649384 0.008642471 0.06354204 -0.05946698 -0.20953742 -0.010021523
-0.014400921 0.4896546 -0.050647516 -0.110735826 -0.010023454 0.064094596 -0.13335238 0.010554132
-0.047534533 0.040871985 -0.028713953 0.005342389 0.027395759 -0.08464506 0.02734263 0.099278845
0.15630735 -0.27394372 0.29168975 0.00373524 0.042933572 0.05175743 -0.062451527 -0.0008712142
0.010423223 0.02911548 0.03644254 0.05329903 -0.03579849 -0.41791314 -0.04679567 0.28053528
-0.18056127 -0.037943933 -0.034074783 -0.012064994 -0.056942508 0.06953795 0.29654488 -0.07106654
0.22845186 -0.3923793 0.045139927 -0.20445631 -0.1427457 -0.032360096 -0.14697891 0.013247429
0.05605321 -0.056176998 0.08414221 -0.22755522 0.32462642 0.6995183 0.4053512 0.018102774
-0.003784591 0.65822035 -0.22609343 -0.04674727 0.44995445 0.10355767 -0.033307713 0.044980213
0.6279433 0.037842426 0.21729986 1.0183418 0.04110479 0.15002006 -0.017084425 -0.024520116
0.10426102 -0.13974448 0.052674893 0.10277649 -0.31541428 -0.04576056 0.0038433452 0.3216276
0.006895034 0.018113105 -0.033824686 0.045833714 -0.020256612 -0.013264118 0.02587578 0.03599772
-0.03541473 -0.04287777 0.053856775 0.037629206 -0.040846195 0.026447047 0.13204022 0.04293616
0.08017193 -0.054131955 -2.245678 -0.44135273 -0.04819625 -0.03303637 -0.5593455 0.26642644
-0.04806215 0.03577951 0.21965808 0.17192714 0.011214971 -0.1499012 -0.56138366 0.0027549819
0.011919497 -0.18416706 -0.009220145 -0.112503774 0.072918706 0.047791682 -0.11993354 0.02604757
-0.0150429 0.023339607 0.0814159 -0.04943761 0.006922422 -0.061388854 0.5323059 0.014132807
-0.12702066 0.16563359 -0.0051053036 -0.04201506 -0.045939438 0.26197997 0.032595895 0.01852197
0.057263922 -0.016858764 -0.03195426 -0.068170935 0.03976109 -0.022205085 0.012922075 -0.036102813
-0.29059306 0.10297933 0.086038075 0.29102245 0.046970364 0.032356158 -0.10624554 -0.001222961
-0.012074763 0.10343903 -0.031579778 -0.32317358 0.02760854 -0.0257575 0.37032175 -0.043987717
0.07058001 0.037356116 0.049804535 -0.038859595 -0.24065821 -0.033163685 -0.045069527 0.25593296
0.056833517 -0.114393055 -0.21091639 0.10536303 -0.32198498 -0.26877505 -0.67968637 -0.08153537
-0.02575893 0.17063451 -0.015302447 0.0648481 0.45220408 0.55237883 0.064257085 -0.095597416
-0.057620276 0.019705603 0.04878927 -0.06521562 -0.017691132 -0.062810875 0.042922497 0.03893004
0.2314339 -0.17393747 -0.09938831 0.044427786 0.030391742 -0.018976916 -0.11013313 -0.03245488
-0.036505174 -0.030788096 0.05804962 0.08943741 0.011935524 0.18616857 -0.034236275 0.018706512
0.14454338 0.08501927 0.006605152 0.07633194 -0.0038344646 -0.08105736 0.011700409 0.0039810855
0.120897405 -0.032641675 0.08128914 0.07779409 -0.07975129 0.015971335 0.004794605 0.01533084
0.037927352 0.02297648 -0.070275016 -0.044033602 -0.00438668 -0.0048533715 -0.041379735 -1.1997371
0.46875772 -0.0913195 0.8265161 0.0031906194 -0.015888326 -0.012373372 0.019302396 -0.027176535
0.011107778 0.058416698 0.0028241358 0.010204556 0.04577482 -0.21082762 -0.013760085 -0.26256415
00000000: d3c8 263e 9824 b13c 4e8e 533d 2799 0d3c
00000010: 5422 823d a693 73bd fa90 56be 5031 24bc
00000020: d7f1 6bbc 02b4 fa3e c573 4fbd 77c9 e2bd
00000030: 6a39 24bc 0744 833d 878d 08be 3deb 2c3c
00000040: 92b3 42bd 6269 273d 8639 ebbc 350f af3b
00000050: 126d e03c 645a adbd a7fd df3c b552 cb3d
00000060: 090f 203e 5a42 8cbe 5c58 953e eeca 743b
00000070: 1ddb 2f3d 99ff 533d 2ccd 7fbd 3262 64ba
00000080: 2ac6 2a3c 9683 ee3c c644 153d 1550 5a3d
00000090: 70a1 12bd b6f8 d5be d1ac 3fbd 52a2 8f3e
000000a0: 0ee5 38be 196b 1bbd 0092 0bbd 41ac 45bc
000000b0: 8c3c 69bd ea69 8e3d bbd4 973e 568b 91bd
000000c0: 49ef 693e f1e5 c8be a5e4 383d ff5c 51be
000000d0: ee2b 12be 058c 04bd a481 16be bf0b 593c
000000e0: 0d98 653d da19 66bd c052 ac3d 3c04 69be
000000f0: 6f35 a63e a213 333f 318a cf3e 454c 943c
00000100: e706 78bb 2181 283f 0985 67be 117a 3fbd
00000110: 6e60 e63e 0b16 d43d ab6d 08bd 2c3d 383d
00000120: e4c0 203f a900 1b3d db83 5e3e 0659 823f
00000130: 7f5d 283d dc9e 193e a3f4 8bbc 69de c8bc
00000140: cd86 d53d 2d19 0fbe a1c1 573d 7b7c d23d
00000150: fb7d a1be 6d6f 3bbd a2e0 7b3b 5fac a43e
00000160: bdef e13b ef61 943c c18b 0abd 22bc 3b3d
00000170: 32f1 a5bc be51 59bc 72f9 d33c 5872 133d
00000180: 090f 11bd 9aa0 2fbd ec98 5c3d 1521 1a3d
00000190: 574e 27bd 7aa7 d83c 8d35 073e d4dd 2f3d
000001a0: 2e31 a43d 78b9 5dbd 30b9 0fc0 fcf8 e1be
000001b0: 6e69 45bd 2551 07bd 4431 0fbf 0c69 883e
000001c0: d1dc 44bd 898d 123d 0cee 603e ab0d 303e
000001d0: ffbe 373c b37f 19be d7b6 0fbf ed8c 343b
000001e0: fe49 433c 4a96 3cbe 1710 17bc 6168 e6bd
000001f0: 6756 953d 36c1 433d b79f f5bd b761 d53c
00000200: 7f76 76bc b432 bf3c 61bd a63d 177f 4abd
00000210: 7cd5 e23b e172 7bbd 3345 083f 4a8d 673c
00000220: b411 02be da9b 293e 644a a7bb fc17 2cbd
00000230: fe2a 3cbd 3d22 863e 4683 053d 63bb 973c
00000240: 938d 6a3d 641b 8abc 78e2 02bd 349d 8bbd
00000250: 86dc 223d 70e7 b5bc 1cb7 533c 8be0 13bd
00000260: 9dc8 94be d4e6 d23d bb34 b03d e500 953e
00000270: ff63 403d e487 043d 4397 d9bd c34b a0ba
00000280: 3ad5 45bc d8d7 d33d cc59 01bd 0277 a5be
00000290: 4e2b e23c 6501 d3bc d09a bd3e 772c 34bd
000002a0: 418c 903d ba02 193d d7ff 4b3d 3d2b 1fbd
000002b0: 1b6f 76be a5d6 07bd d39a 38bd a509 833e
000002c0: 43ca 683d e846 eabd 77fa 57be 93c8 d73d
000002d0: 37db a4be e29c 89be edff 2dbf 04fc a6bd
000002e0: 6404 d3bc d0ba 2e3e 1db7 7abc 15cf 843d
000002f0: 4b87 e73e b368 0d3f 3899 833d 94c8 c3bd
00000300: 3d03 6cbd a56d a13c 42d7 473d c48f 85bd
00000310: feec 90bc fda2 80bd 80cf 2f3d 1b75 1f3d
00000320: 02fd 6c3e aa1c 32be 198c cbbd e9f9 353d
00000330: 1af8 f83c 7a75 9bbc 7a8d e1bd 69ef 04bd
00000340: 7386 15bd 5137 fcbc 70c5 6d3d f62a b73d
00000350: 378d 433c f9a2 3e3e 563b 0cbd 663e 993c
00000360: 2e03 143e 951e ae3d 0870 d83b ec53 9c3d
00000370: a44b 7bbb 6701 a6bd 13b3 3f3c c473 823b
00000380: 0f99 f73d 47b3 05bd ec7a a63d 8252 9f3d
00000390: a554 a3bd 51d6 823c 101c 9d3b 342e 7b3c
000003a0: b659 1b3d 2c39 bc3c 59ec 8fbd 945c 34bd
000003b0: 24be 8fbb 0809 9fbb cc7d 29bd fc90 99bf
000003c0: 0301 f03e b805 bbbd 8f96 533f b619 513b
000003d0: 3c28 82bc afb9 4abc 0f20 9e3c 53a1 debc
000003e0: 66fd 353c 5946 6f3d 2315 393b 0331 273c
000003f0: 617e 3b3d 32e3 57be fb71 61bc cf6e 86be

bias f4 [6]
0.49247697 0.18342614 0.12881607 -0.17448623 -0.27350435 -0.65392214
00000000: f125 fc3e 10d4 3b3e 5ce8 033e 85ac 32be
00000010: c308 8cbe 7167 27bf

weight f4 [6, 256]
0.14649206 0.056292694 0.03407573 0.058679555 -0.12951629 -0.13596687 0.05218106 -0.014847487
-0.078420445 0.15864143 0.21490218 0.04509059 -0.050956644 -0.04774007 0.057193458 -0.040565945
0.036817506 0.0097109685 0.01369766 -0.0032880125 0.13006234 -0.054273233 0.769279 0.15680423
-0.12558882 0.057312574 0.050969534 -0.06678562 0.0147956805 -0.011513419 -0.0101500265 -0.0014205716
0.047931336 0.021315562 0.052914176 -0.027562851 0.054539364 0.48454702 0.07191699 0.22817455
0.14250098 0.060791872 0.0072447676 -0.022063635 0.0054207756 0.07634683 0.23788846 0.83387154
0.014368577 0.20800403 -0.019829247 -0.1958211 0.24107133 -0.11656523 0.18809956 -0.03500308
-0.057972103 0.014728874 0.06051668 0.38584584 0.23680972 0.24573094 0.1319133 0.010397762
0.026420113 0.27174363 0.016682345 0.08271066 0.5328043 0.07552147 -0.06271169 -0.027548658
0.24325775 0.03901694 -0.19257945 0.49925974 -0.06371076 -0.068187065 0.050142206 0.061154153
-0.07494786 0.16516367 0.009567616 0.07950318 0.14777812 0.068593316 0.05348958 0.036547292
-0.018773858 0.03437001 -0.0063100616 -0.05293306 -0.038409416 0.02515012 0.082217894 0.012120301
0.06230899 -0.06978988 -0.051884715 -0.007629168 -0.029796993 -0.03820829 0.065344 -0.063877225
0.03844937 0.0065249964 0.6617399 0.17931473 0.029969066 -0.03481087 0.1808743 0.20947477
0.029166356 -0.056421228 0.12676987 -0.03254626 -0.015233551 -0.02270409 0.07051054 0.31784672
-0.03952967 0.16881083 -0.059153777 0.24913259 0.023933006 0.013665677 0.15252304 0.059176825
0.06713493 0.017893663 0.0014546699 -0.030714802 -0.022290466 0.042113606 0.167647 0.064358465
0.1949337 -0.096317336 0.016102787 0.42209142 0.08116165 0.480038 -0.045870353 -0.012696382
0.008703958 0.016025934 0.06024126 0.036850486 0.029160982 -0.036453992 0.09535364 -0.011068265
0.07522761 -0.030272888 0.00959791 0.17102838 0.021585781 0.033972263 0.068709984 -0.04129616
-0.036727715 0.05445405 0.014342046 -0.05151023 0.036828816 -0.03648153 0.17653044 0.061600834
-0.0018438293 -0.025987579 0.024665955 0.004468095 0.1953936 0.010390909 -0.011717923 0.041839063
0.40989068 -0.03609393 0.15103878 0.42153394 0.5170961 0.3041225 0.43182585 0.015746256
0.0042109103 1.1067729 -0.0061995396 0.01229845 0.08189945 0.29566768 -0.025132267 0.12053257
0.06114406 -0.025125956 -0.09092831 0.07793679 -0.026470548 0.049288742 -0.02286115 -0.06376573
0.36404043 0.042919766 -0.016774438 -0.029974954 -0.001682722 0.009209858 0.081957676 0.10322842
0.038388267 -0.050042104 0.053366352 -0.01999995 0.06284832 0.005024352 0.038930185 -0.044964798
0.006613189 0.03563834 -0.056673776 -0.0114893075 -0.02617806 0.009166649 -0.004276075 0.05890006
0.22364132 -7.1079136e-05 0.056029577 0.026223501 0.021315996 0.010774152 0.005200935 0.006133006
-0.112337455 0.011019835 0.0037688075 0.18275256 0.022398742 0.018565461 0.002087801 0.2707419
-0.17703214 0.07342744 0.18050125 0.02633864 -0.021237874 -0.017528232 0.06942753 0.010096275
0.004047938 0.010903454 0.18571982 -0.027328199 0.031328585 0.12849085 -0.007391179 0.15600307
00000000: 0402 163e 2b93 663d fe92 0b3d f959 703d
00000010: eb9f 04be e63a 0bbe cfbb 553d e042 73bc
00000020: e69a a0bd e672 223e 510f 5c3e e9b0 383d
00000030: eab7 50bd 178b 43bd b043 6a3d 7a28 26bd
00000040: f4cd 163d c11a 1f3c 266c 603c b27b 57bb
00000050: 102f 053e 9c4d 5ebd 78ef 443f 4a91 203e
00000060: 5b9a 00be 97c0 6a3d 6ec5 503d e6c6 88bd
00000070: 9569 723c c8a2 3cbc 4c4c 26bc 7932 baba
00000080: a653 443d f99d ae3c 89bc 583d 7dcb e1bc
00000090: ab64 5f3d 8c16 f83e 3749 933d 97a6 693e
000000a0: c7eb 113e e600 793d 8465 ed3b ccbe b4bc
000000b0: c3a0 b13b ba5b 9c3d 0899 733e 9b78 553f
000000c0: 2e6a 6b3c 02ff 543e f270 a2bc 5485 48be
000000d0: 67db 763e c0b9 eebd 2c9d 403e 645f 0fbd
000000e0: 2874 6dbd 6051 713c 57e0 773d 968d c53e
000000f0: 3f7e 723e e4a0 7b3e 4814 073e 605b 2a3c
00000100: fe6e d83c fb21 8b3e 6aa9 883c 3564 a93d
00000110: dd65 083f 00ab 9a3d fd6e 80bd b9ad e1bc
00000120: 8f18 793e 3ad0 1f3d 8c33 45be f99e ff3e
00000130: c97a 82bd a9a5 8bbd ea61 4d3d c77c 7a3d
00000140: 437e 99bd aa20 293e 7dc1 1c3c 90d2 a23d
00000150: 2653 173e a77a 8c3d e417 5b3d 9db2 153d
00000160: a2cb 99bc 91c7 0c3d a2c4 cebb 56d0 58bd
00000170: 3153 1dbd a007 ce3c db61 a83d 3a94 463c
00000180: b637 7f3d ffed 8ebd 1185 54bd 1afe f9bb
00000190: d318 f4bc 4c80 1cbd 13d3 853d 10d2 82bd
000001a0: 167d 1d3d a3cf d53b c967 293f 489e 373e
000001b0: b081 f53c d895 0ebd 1d37 393e 8e80 563e
000001c0: 48ee ee3c f219 67bd f6cf 013e 3a4f 05bd
000001d0: 2596 79bc eefd b9bc d467 903d cebc a23e
000001e0: dde9 21bd bfdc 2c3e 3b4b 72bd 9d1c 7f3e
000001f0: 270f c43c 01e6 5f3c 002f 1c3e 6663 723d
00000200: 0a7e 893d bb95 923c 9faa be3a 9c9d fbbc
00000210: 7f9a b6bc 517f 2c3d a8ab 2b3e 5fce 833d
00000220: b39c 473e 0642 c5bd fee9 833c 5e1c d83e
00000230: 1438 a63d 8ac7 f53e 8de2 3bbd 7c04 50bc
00000240: 0c9b 0e3c d248 833c 8abf 763d 89f0 163d
00000250: 03e3 ee3c c850 15bd c548 c33d ab57 35bc
00000260: ef10 9a3d d9fe f7bc 8d40 1d3c 1022 2f3e
00000270: aad4 b03c 8026 0b3d d2b7 8c3d 2a26 29bd
00000280: cd6f 16bd 360b 5f3d e7fa 6a3c 64fc 52bd
00000290: d0d9 163d a86d 15bd 65c4 343e 2851 7c3d
000002a0: a5ac f1ba e7e3 d4bc 4210 ca3c 1969 923b
000002b0: 4315 483e a23e 2a3c 88fc 3fbc 705f 2b3d
000002c0: 31dd d13e 3bd7 13bd e9a9 1a3e 4cd3 d73e
000002d0: 6960 043f f2b5 9b3e 4718 dd3e 4bfe 803c
000002e0: adfb 893b bcaa 8d3f 8225 cbbb 707f 493c
000002f0: e6ba a73d c161 973e 2fe2 cdbc c8d9 f63d
00000300: 3272 7a3d f3d4 cdbc 9f38 babd 539d 9f3d
00000310: c3d8 d8bc fee2 493d 4e47 bbbc 9b97 82bd
00000320: 8263 ba3e a3cc 2f3d 8c6a 89bc 098e f5bc
00000330: c88e dcba f2e4 163c 6dd9 a73d 6c69 d33d
00000340: 043d 1d3d f3f8 4cbd ad96 5a3d efd6 a3bc
00000350: 9fb6 803d 52a3 a43b 4275 1f3d 022d 38bd
00000360: 73b3 d83b 82f9 113d c322 68bd a63d 3cbc
00000370: 5f73 d6bc b62f 163c 511e 8cbb 3041 713d
00000380: 3b02 653e 5210 95b8 457f 653d abd2 d63c
00000390: e29e ae3c 1286 303c 9b6c aa3b 62f7 c83b
000003a0: 2e11 e6bd 8a8c 343c 19fe 763b 7d23 3b3e
000003b0: 917d b73c 9816 983c 7dd3 083b af9e 8a3e
000003c0: ea47 35be 2061 963d 52d5 383e 22c4 d73c
000003d0: 0dfb adbc 5e97 8fbc 0530 8e3d d96a 253c
000003e0: 91a4 843b 67a4 323c 562d 3e3e 63df dfbc
000003f0: 6752 003d 1b93 033e b431 f2bb 45bf 1f3e

bias f4 [6]
-4.1012306 -4.042677 -3.4444532 -3.7857957 -3.8488965 -3.3717935
00000000: 483d 83c0 9c5d 81c0 ec71 5cc0 7a4a 72c0
00000010: 5254 76c0 77cb 57c0

weight f4 [256, 23]
2.1647158 -2.2681966 -4.881687 3.6181636 0.8415278 -3.8389196 3.2551715 -9.19645
-0.31350076 -1.319526 0.78194916 -0.98662233 2.548334 0.36464927 -2.5296206 2.221522
-0.196047 0.5115369 2.7936976 4.6908665 1.2313614 -0.15795632 -5.467533 3.7551544
0.31171805 0.8803274 -1.4208895 -2.4789789 3.2773309 -3.899406 0.9384779 0.11812543
3.6778002 0.5938274 -0.11333488 1.3996283 1.0501378 -4.1346345 0.7163533 0.63644254
1.2037666 5.023625 2.81563 -0.9887624 1.0109903 0.8768872 5.975175 -4.0539265
-4.7611775 5.278109 -0.19694038 2.1742556 4.263818 -1.0296538 2.7917676 2.8224406
-0.3478275 -0.7789505 -0.45329514 -1.7802943 1.0599629 -0.7855767 -0.1954697 4.479298
-3.3247378 -2.9762764 -0.94811404 -4.124845 -0.91692376 -2.968585 -3.304499 1.7888815
-6.5948377 1.1143184 -5.916251 -8.242482 -0.46133354 0.011285814 -3.5311468 -0.14909382
-0.37261555 0.17951068 -0.18970667 -0.77320457 0.28779438 -0.0973211 -0.41612393 -1.744547
0.14786972 -1.1923288 3.2955718 -0.9172865 4.422303 3.5662 8.682967 4.67469
-1.5280783 13.328955 1.1914991 5.176602 1.0421443 2.4900172 1.6197636 0.20070456
-0.6388981 0.031698294 -0.7496443 -1.3856168 -0.32673344 -0.5458497 -0.22956227 0.55613804
-0.39144322 -4.256964 0.15703121 0.34117395 -4.447552 -1.1435847 -7.923861 1.2200861
-4.4337254 -1.8523693 6.3245306 -1.4806788 -3.1198945 -2.2694464 0.06514063 1.3948636
-0.07801345 2.0179286 0.15416448 -1.3491323 1.7841992 -1.1426208 0.7133345 2.503868
-6.223464 4.274951 -0.010911524 4.170842 -8.038448 1.3690362 -1.8676084 -3.8676817
-8.238749 -0.06878891 9.146363 2.0858285 0.10286564 -0.4633305 -0.8854524 -0.123153605
-0.4454598 -0.2901122 -0.2587705 1.0081764 0.091326006 -0.24572703 0.9684552 2.1767638
-3.7298555 -4.1775875 7.1432524 -4.1104565 -2.9605827 -0.13138263 -3.951404 -0.11719155
1.193485 2.1203313 -3.2859168 -0.00826481 -0.36941016 -0.86010766 -0.16160634 -1.0331669
-0.20510201 -0.03603738 0.51814145 -3.65951 -0.5550862 1.1414585 -0.9944589 0.09733839
-2.0460331 3.1621778 0.65783054 1.5904522 -0.0021545768 3.9770422 -2.3393612 -0.24914196
1.3853632 0.8425555 0.56171596 -1.1940036 0.39762977 -0.12826781 -0.42658034 0.23310572
-0.07221446 -15.9285555 5.81757 -0.6894415 -10.705664 3.0808904 -2.2158322 4.3982058
-5.253449 -2.3256526 -3.3883936 5.914819 -7.675059 -7.4876676 2.4030254 1.1057105
0.693671 -0.77035856 -0.7993131 -0.6859888 -1.1592649 -0.09743308 -0.7125602 0.39834327
-0.9945485 0.16549473 2.1893554 1.5958743 -4.327398 0.6999291 7.0565677 -4.0893683
-1.2813923 1.7130632 -1.2483925 13.131043 2.7292428 2.3441634 2.8665504 -1.19928
0.4840968 -1.2512933 -1.4489753 -0.24057215 0.93493533 -0.29821512 0.9486911 -0.6070527
1.3425366 -0.18762614 -2.8898597 1.1467009 1.3679047 1.8765801 4.9939003 0.75369495
00000000: b48a 0a40 222a 11c0 c836 9cc0 fe8f 6740
00000010: 5e6e 573f dcb0 75c0 bb54 5040 a924 13c1
00000020: 2c83 a0be 3ae6 a8bf d22d 483f 4893 7cbf
00000030: e717 2340 4fb3 ba3e 4ee5 21c0 6b2d 0e40
00000040: 8bc0 48be 15f4 023f f1cb 3240 941b 9640
00000050: 409d 9d3f 4dbf 21be 08f6 aec0 7354 7040
00000060: 8299 9f3e 235d 613f b5df b5bf 97a7 1ec0
00000070: cabf 5140 de8f 79c0 1640 703f bfeb f13d
00000080: 1461 6b40 1305 183f 1e1c e8bd 0527 b33f
00000090: ea6a 863f ed4e 84c0 ee62 373f e6ed 223f
000000a0: 0615 9a3f 89c1 a040 4833 3440 881f 7dbf
000000b0: 2168 813f ae7b 603f a234 bf40 c4b9 81c0
000000c0: 915b 98c0 45e6 a840 bdaa 49be 0127 0b40
000000d0: 3271 8840 b2cb 83bf 52ac 3240 dea2 3440
000000e0: 7216 b2be 4d69 47bf 4d16 e8be afe0 e3bf
000000f0: ddac 873f 8e1b 49bf 3629 48be 6956 8f40
00000100: 81c8 54c0 507b 3ec0 9ab7 72bf bbfe 83c0
00000110: 84bb 6abf 4cfd 3dc0 e97c 53c0 12fa e43f
00000120: e908 d3c0 fca1 8e3f ee51 bdc0 35e1 03c1
00000130: e933 ecbe 23e8 383c 4ffe 61c0 0dac 18be
00000140: 77c7 bebe a6d1 373e 7742 42be bcf0 45bf
00000150: c959 933e 4950 c7bd 320e d5be 514d dfbf
00000160: 296b 173e 3b9e 98bf a6ea 5240 4ad3 6abf
00000170: 8283 8d40 9f3c 6440 6fed 0a41 0f97 9540
00000180: 1298 c3bf 6643 5541 0b83 983f b9a6 a540
00000190: fc64 853f 715c 1f40 6a54 cf3f 7f85 4d3e
000001a0: d38e 23bf 12d6 013d b0e8 3fbf e45b b1bf
000001b0: 9b49 a7be cebc 0bbf 5f12 6bbe 105f 0e3f
000001c0: 3f6b c8be 0d39 88c0 cacc 203e 5aae ae3e
000001d0: 5952 8ec0 fc60 92bf 4590 fdc0 c82b 9c3f
000001e0: 14e1 8dc0 701a edbf 8e62 ca40 e286 bdbf
000001f0: 5aac 47c0 9c3e 11c0 7368 853d e48a b23f
00000200: 84c5 9fbd be25 0140 4bdd 1d3e 5eb0 acbf
00000210: a460 e43f 6641 92bf 179d 363f 603f 2040
00000220: 9e26 c7c0 66cc 8840 40c6 32bc 8a77 8540
00000230: 7c9d 00c1 943c af3f cb0d efbf 1988 77c0
00000240: ead1 03c1 33e1 8cbd 8157 1241 377e 0540
00000250: 38ab d23d a839 edbe 02ad 62bf f537 fcbd
00000260: 4f13 e4be 9689 94be 917d 84be ed0b 813f
00000270: 2109 bb3d de9f 7bbe aeec 773f 1950 0b40
00000280: f4b5 6ec0 ccae 85c0 8695 e440 dc88 83c0
00000290: 307a 3dc0 2b89 06be cee3 7cc0 2002 f0bd
000002a0: 1ec4 983f 82b3 0740 764c 52c0 2069 07bc
000002b0: 5423 bdbe 0430 5cbf 227c 25be d03e 84bf
000002c0: 4306 52be ef9b 13bd eba4 043f 6935 6ac0
000002d0: 211a 0ebf 501b 923f dc94 7ebf 5a59 c73d
000002e0: 35f2 02c0 1f61 4a40 9567 283f f093 cb3f
000002f0: cd33 0dbb dc87 7e40 18b8 15c0 121f 7fbe
00000300: 9553 b13f b8b1 573f 9ecc 0f3f 1cd5 98bf
00000310: 2196 cb3e a358 03be bd68 dabe 44b3 6e3e
00000320: 2de5 93bd 5ddb 7ec1 8929 ba40 3d7f 30bf
00000330: 664a 2bc1 4f2d 4540 32d0 0dc0 1abe 8c40
00000340: 411c a8c0 7ed7 14c0 71db 58c0 3246 bd40
00000350: 159a f5c0 f99a efc0 2bcb 1940 ec87 8d3f
00000360: 6c94 313f 3836 45bf c99f 4cbf f69c 2fbf
00000370: cb62 94bf ff8a c7bd 586a 36bf a6f3 cb3e
00000380: bb9a 7ebf 7377 293e 661e 0c40 9c45 cc3f
00000390: 0b7a 8ac0 8e2e 333f 67cf e140 1bdc 82c0
000003a0: aa04 a4bf a845 db3f 53cb 9fbf c118 5241
000003b0: eaab 2e40 c606 1640 9075 3740 0282 99bf
000003c0: 89db f73e 612a a0bf 0678 b9bf 8c58 76be
000003d0: ec57 6f3f a7af 98be 6cdd 723f ce67 1bbf
000003e0: 3dd8 ab3f 1121 40be 76f3 38c0 18c7 923f
000003f0: 8017 af3f c733 f03f 08ce 9f40 27f2 403f

bias f4 [256]
0.6181554 2.3561013 3.0520284 -1.8881937 3.0995631 1.5695715 1.2421836 -0.37986273
-1.7190617 3.3555107 4.431918 2.6474879 1.7256414 4.4205384 0.25910866 -3.6303189
1.8263491 5.044575 -1.5620747 2.9904323 -4.1115117 -1.4622802 1.4517927 -2.615876
5.1121035 4.4689336 2.1698935 -4.9709845 -2.5889359 0.09333439 4.6043935 1.4541563
5.439909 5.075528 2.642946 1.6118475 -2.7392087 1.3670146 -0.7832296 6.456306
1.6506872 1.0209044 2.5687902 6.892383 5.0230174 -0.85202014 -4.476369 -0.93697786
1.3156232 -0.007420772 2.3790781 0.36861625 2.1359158 1.4277686 -2.1441033 -2.5729356
4.476955 0.6408825 1.7244276 1.7930493 3.1329005 0.14203586 -1.2641672 1.2713841
-0.46710443 -3.3660603 -0.1541198 0.3995252 3.1247368 2.074101 -1.3631123 1.5825093
1.7640837 -1.521371 1.8848319 3.8937984 4.620123 -2.4221463 1.5195456 2.8657148
-3.7493005 3.8805156 4.70273 -0.77029574 4.1362224 -1.3423764 3.0832272 -0.42629862
-2.6402268 1.5477116 -2.736787 5.079112 3.7820199 2.4622102 0.36963233 2.3677268
2.5260992 -1.7099829 3.627178 0.5396715 1.6928698 -8.450776 5.100168 2.242625
4.2398844 -1.2413578 -2.4337802 3.6438994 0.50504047 4.1110816 2.3496244 -1.6315091
-2.913014 2.136446 0.45201284 -0.10461178 0.26930082 -3.5069978 3.0853224 -2.5375364
-0.67592585 3.0718725 -0.21135296 -0.44927683 4.1144032 -1.4949051 -1.4595188 0.70339423
-3.346872 -0.10575355 3.4556615 3.1840668 5.2800527 2.7693777 3.5821095 -1.0743229
-3.0034878 1.9991622 -0.50498396 -3.206815 1.8315412 -3.6198792 3.2881317 5.8325315
-3.0756705 2.4163635 -1.1429595 1.8244638 -0.7111514 -1.430351 2.6940806 0.5110792
-0.46385956 -2.8658302 -0.1692311 5.564438 0.28790355 -2.392204 -3.661549 0.91624224
4.7452464 4.758896 -0.5094508 -2.4223742 -3.3057678 2.8982024 -1.2086905 -0.39090407
4.5568075 5.741591 0.50574803 -2.8035595 -2.2061925 1.4055393 -2.929379 -0.82256836
1.7305114 -1.1090435 -6.1395855 4.015801 3.2608714 2.2204266 5.4310517 2.1880686
1.637 1.4540195 2.939932 0.6184216 1.308127 -4.1303697 -0.107487306 4.162171
0.0050056255 2.7826166 -2.7319436 2.1883223 3.8807442 2.5796936 3.664076 2.6242282
6.1795564 0.96285963 0.80842584 -1.5203063 1.8509462 1.6039374 2.880346 1.5698429
2.8653777 1.1680627 -1.2625062 -1.3812431 -4.8743877 3.3700626 1.7185738 1.0023009
-0.6940975 -0.47308707 3.1373417 -3.6866586 -1.0715986 -4.22801 5.7823806 3.5745661
-3.7487607 -3.4613504 4.1456246 4.5248556 -1.8771971 -4.0335417 3.221967 5.2281957
2.7213943 2.3224847 -1.4700528 2.849014 -0.6925603 -4.0361924 2.917001 -2.553282
5.2581244 -1.5756398 2.2260537 3.5902424 3.632452 2.0905535 -0.015545979 -4.5482373
3.3735259 0.45606956 4.013217 0.16116357 5.914538 4.8198557 -0.49839464 1.6346935
00000000: 6f3f 1e3f 5dca 1640 6f54 4340 55b0 f1bf
00000010: 3e5f 4640 b8e7 c83f dfff 9e3f 5e7d c2be
00000020: 370a dcbf b0c0 5640 46d2 8d40 7170 2940
00000030: d1e1 dc3f 0d75 8d40 e4a9 843e 2557 68c0
00000040: cfc5 e93f 296d a140 10f2 c7bf 3e63 3f40
00000050: 8191 83c0 ff2b bbbf 58d4 b93f 836a 27c0
00000060: 5a96 a340 8101 8f40 89df 0a40 4e12 9fc0
00000070: 20b1 25c0 1a26 bf3d 3157 9340 cb21 ba3f
00000080: bc13 ae40 ba6a a240 0726 2940 0551 ce3f
00000090: 324f 2fc0 56fa ae3f bc81 48bf 0f9a ce40
000000a0: b849 d33f ffac 823f 0f67 2440 678e dc40
000000b0: 8fbc a040 fe1d 5abf 6a3e 8fc0 c8dd 6fbf
000000c0: 5766 a83f f329 f3bb d142 1840 45bb bc3e
000000d0: d8b2 0840 1fc1 b63f fd38 09c0 faaa 24c0
000000e0: 3743 8f40 e010 243f 0bba dc3f a482 e53f
000000f0: 7181 4840 d971 113e 3bd0 a1bf b7bc a23f
00000100: 5028 efbe 886d 57c0 95d1 1dbe 918e cc3e
00000110: b0fb 4740 12be 0440 777a aebf aa8f ca3f
00000120: 7fcd e13f 49bc c2bf 2c42 f13f fe33 7940
00000130: 0cd8 9340 7204 1bc0 7880 c23f df67 3740
00000140: 8af4 6fc0 5e5a 7840 c47c 9640 1a32 45bf
00000150: ef5b 8440 fdd2 abbf 9853 4540 d043 dabe
00000160: 7af9 28c0 6a1b c63f 8527 2fc0 1688 a240
00000170: 9d0c 7240 da94 1d40 7340 bd3e d688 1740
00000180: 9cab 2140 b8e0 dabf af23 6840 e927 0a3f
00000190: f5af d83f 6136 07c1 9434 a340 2b87 0f40
000001a0: 22ad 8740 d0e4 9ebf 0ec3 1bc0 a635 6940
000001b0: 554a 013f fb8d 8340 3f60 1640 4ad5 d0bf
000001c0: d26e 3ac0 88bb 0840 3a6e e73e b33e d6bd
000001d0: cce1 893e a772 60c0 ec75 4540 ff66 22c0
000001e0: 7a09 2dbf 8f99 4440 e96c 58be 9d07 e6be
000001f0: 31a9 8340 0d59 bfbf 83d1 babf a511 343f
00000200: 2733 56c0 5195 d8bd 8f29 5d40 c0c7 4b40
00000210: 31f6 a840 7c3d 3140 4841 6540 6a83 89bf
00000220: 2539 40c0 8ce4 ff3f a146 01bf 753c 4dc0
00000230: f16f ea3f 1aac 67c0 c070 5240 19a4 ba40
00000240: c9d7 44c0 b3a5 1a40 7f4c 92bf 0888 e93f
00000250: 050e 36bf be15 b7bf d16b 2c40 16d6 023f
00000260: 007f edbe c369 37c0 eb4a 2dbe e00f b240
00000270: 1868 933e df19 19c0 d256 6ac0 da8e 6a3f
00000280: 0fd9 9740 e048 9840 5e6b 02bf 2e08 1bc0
00000290: b391 53c0 267c 3940 5fb6 9abf 9424 c8be
000002a0: 5ed1 9140 1dbb b740 b478 013f 856d 33c0
000002b0: 4232 0dc0 b6e8 b33f f27a 3bc0 d793 52bf
000002c0: 6681 dd3f 23f5 8dbf 7c77 c4c0 7181 8040
000002d0: 1eb2 5040 781b 0e40 2dcb ad40 5109 0c40
000002e0: 3789 d13f 501d ba3f d927 3c40 e150 1e3f
000002f0: b570 a73f fd2b 84c0 4e22 dcbd 8130 8540
00000300: 3b06 a43b 6416 3240 2ad8 2ec0 790d 0c40
00000310: 1d5e 7840 b319 2540 3980 6a40 5bf3 2740
00000320: edbe c540 f87d 763f fff4 4e3f 6699 c2bf
00000330: ceeb ec3f d24d cd3f 9757 3840 9df0 c83f
00000340: 5962 3740 1483 953f ce99 a1bf 93cc b0bf
00000350: fcfa 9bc0 1baf 5740 3afa db3f 654b 803f
00000360: 60b0 31bf 7838 f2be 35ca 4840 37f2 6bc0
00000370: 252a 89bf dc4b 87c0 4309 b940 b1c5 6440
00000380: b2eb 6fc0 c486 5dc0 f5a8 8440 9ecb 9040
00000390: ff47 f0bf c612 81c0 b534 4e40 614d a740
000003a0: 532b 2e40 97a3 1440 b12a bcbf 3f56 3640
000003b0: a24b 31bf 7d28 81c0 25b0 3a40 f968 23c0
000003c0: 8e42 a840 91ae c9bf aa77 0e40 88c6 6540
000003d0: 187a 6840 a1cb 0540 90b4 7ebc 298b 91c0
000003e0: d9e7 5740 f381 e93e 466c 8040 1008 253e
000003f0: e543 bd40 423c 9a40 952d ffbe a33d d13f
