data/PPO/Reacher-v2/ppo_s31239/pyt_save/model.pt (torch_old, 558476 bytes, 12 tensors)

log_std f4 [2]
000000 c5 22 57 c0 fb 60 5a c0
       -3.3614972 -3.4121692

weight f4 [256, 11]
000000 bc cc 29 be 35 17 a2 be a4 14 a5 3d 54 7e b0 3e
       -0.16582006 -0.3165833 0.080605775 0.3447138
000010 12 52 50 be f6 25 f3 bc 8b 66 22 3e 2a 4d 2b 3d
       -0.20343807 -0.029681187 0.1585943 0.041821636
000020 ea 96 a8 3e 95 27 f0 3e ae 02 ac bd ca 22 c5 be
       0.32927638 0.469052 -0.083989486 -0.38503104
000030 76 2c 8e 3d 11 d2 1f 3e 4f 90 ff bd 30 88 5c bf
       0.06942074 0.15607478 -0.124786966 -0.86145306
000040 90 a9 de be 03 c7 3c be b1 fb 76 be ad ef 4b 3f
       -0.4348874 -0.18435292 -0.2411945 0.7966259
000050 05 5a 0f 3f 80 05 2e be 3b 75 11 be ab 68 b8 3d
       0.55996734 -0.16994286 -0.14204876 0.09004339
000060 8e 15 8f 3e f5 37 96 3e e1 f0 27 3e cb 6c 4a 3e
       0.27946132 0.29339567 0.16400482 0.19768064
000070 b4 33 7c 3d 69 8b bf bd 88 ee 14 3e f3 88 b5 be
       0.061572745 -0.09352762 0.14544117 -0.35456046
000080 ec 52 1c 3e e5 66 29 be 31 f8 d8 bd 83 c9 8d 3e
       0.15266007 -0.16543157 -0.10594214 0.27692804
000090 6f 2d 14 3d 9e cb fd be 7a 02 90 3e 58 59 a6 be
       0.03617614 -0.4956941 0.2812689 -0.3249004
0000a0 f7 00 30 3e 80 c7 23 3f f8 3b 2d bd e0 73 7b 3c
       0.17187868 0.6397629 -0.04229352 0.015347451
0000b0 cb 7f 9e be 24 45 05 3e bd db 5f bc d7 f6 07 be
       -0.30956873 0.13014656 -0.0136632295 -0.13277756
0000c0 8b 76 a8 be 99 96 c2 be 4d 21 6d be 75 50 49 be
       -0.3290294 -0.38005522 -0.23157234 -0.19659598
0000d0 a4 fd e4 3d c1 da 02 3f 58 c6 e6 3d a3 26 02 be
       0.111811906 0.5111504 0.112683 -0.12710051
0000e0 08 db 73 be c2 b0 8d 3d 9f d4 a1 be 9b e1 fc be
       -0.23814023 0.069184795 -0.3160753 -0.49390873
0000f0 b5 87 07 3e 2d db c2 be e4 80 2e 3e 89 43 4d 3f
       0.13235362 -0.38057843 0.17041355 0.80181175
000100 ec 76 a4 3d ac 15 c1 3d 4c f7 e0 3b 99 e3 22 be
       0.08030495 0.09427962 0.0068654176 -0.15907134
000110 73 5b 2b be 0c 11 98 3e 71 6d 1b 3d 59 55 6c 3d
       -0.16734104 0.29700506 0.03794617 0.05769858
000120 3e ad ba be 9a 2b 16 be 5b b5 29 be 6f 79 a9 bc
       -0.36460298 -0.1466507 -0.16573088 -0.020687787
000130 10 84 d1 bd ba 10 d3 bd 8b 5f 13 3d 2e d6 96 3e
       -0.10230267 -0.10305925 0.03597979 0.2946028
000140 ba 3f ce 3d d2 d1 e2 3e 90 3f a5 3d f0 4c 43 3e
       0.100707486 0.44300705 0.08068764 0.19072318
000150 69 46 31 3e 16 4c 91 be 95 95 0d be e8 b5 1a 3e
       0.17312016 -0.2837836 -0.13826592 0.15108454
000160 89 5d c1 be 38 32 b5 ba d0 50 f4 bd c6 ef d3 3e
       -0.37766674 -0.001382417 -0.11929476 0.4139387
000170 c2 90 d3 be cf b1 e7 3d 34 92 4a be 60 ce fe bd
       -0.4132138 0.11313211 -0.19782335 -0.12441707
000180 a7 8f f2 3e cc 7a a3 3e 82 8c 3a 3e 9c 39 d3 bd
       0.47375223 0.31929624 0.18217662 -0.103137225
000190 af 4a 5a 3e 7a d4 20 be d0 09 2e be 3f f3 e4 3e
       0.21317552 -0.15706053 -0.1699593 0.44716832
0001a0 df 34 3e be 61 4f 4e be 3a b8 13 3e 98 98 26 be
       -0.18574856 -0.20147468 0.14425746 -0.16269147
0001b0 d5 d1 8b be 64 97 91 3e 04 9c 8d bb b9 8d f8 3a
       -0.27308527 0.28435814 -0.004321577 0.0018963135
0001c0 ac 73 49 b7 8d 87 bd 3e 2a 93 a2 3c e7 e9 32 3e
       -1.2007466e-05 0.3701748 0.019845564 0.17472039
0001d0 6f 8e e3 3c 58 5a 51 3e a5 9f 27 3e 3f 07 2a 3e
       0.027777879 0.2044462 0.16369493 0.16604327
0001e0 81 32 18 be c8 4c c1 3e ec 2f 04 3e 47 b6 95 be
       -0.14863016 0.37753892 0.12908906 -0.2924063
0001f0 ca 96 41 be 76 b6 ba 3d 67 3a 69 bf dd 2c 47 3e
       -0.18905178 0.09116833 -0.9110474 0.19450708
000200 20 ef b5 3e 32 15 92 be 3a f7 26 3f e0 cb e2 3c
       0.35534 -0.28531796 0.6522099 0.027685106
000210 58 77 84 be af 9b a7 be 2c 55 5c be 23 cc f9 bd
       -0.25872302 -0.32735965 -0.21516865 -0.12197139
000220 3e 26 10 3f 2a a1 4c bf ab 3e ba bd ff b3 11 be
       0.5630835 -0.79933417 -0.09093984 -0.1422882
000230 23 d4 43 bf 35 7e 75 3f 02 6c 72 be e0 c9 81 3e
       -0.7649557 0.958957 -0.23674014 0.2534933
000240 5c 7a fd bd bf bd b8 3e 50 5f 9a bd 4c a5 af bd
       -0.12376854 0.36082265 -0.07537711 -0.0857645
000250 e9 8c 7a 3e ed 03 8d 3e 6e a5 9f be f4 e9 1d be
       0.24467815 0.27542058 -0.311809 -0.15421277
000260 dc ab e0 3d 90 cc 95 bc 09 bd bd 3e 76 e0 39 3e
       0.109702796 -0.01828602 0.37058285 0.18152031
000270 b8 81 a3 be 18 06 64 be 26 e1 82 3e 9f f4 9a 3e
       -0.31934905 -0.2226795 0.255624 0.30264756
000280 a2 47 5b bd 40 d9 8d bd be b4 7d be b2 cd f4 be
       -0.05353511 -0.06926203 -0.24775979 -0.47813183
000290 46 d9 bb bd 5f 7e 2c 3e cb 37 13 3c 2d 5a 54 3e
       -0.09172301 0.16845082 0.00898547 0.20737524
0002a0 30 ca 23 be 40 c0 37 bd 04 a4 45 3e 25 df 9e 3c
       -0.15995097 -0.04486108 0.19300848 0.019393513
0002b0 55 27 18 be ca 15 64 3e a4 24 00 bf 70 90 ea 3d
       -0.14858754 0.22273937 -0.5005591 0.114533305
0002c0 ad 8e 2f 3e ae f1 5d be cc 38 97 3e 7f 30 91 bc
       0.1714427 -0.21674225 0.2953552 -0.01772332
0002d0 92 e2 16 be 3d 87 02 3f 57 45 d1 bd df 5e 88 3e
       -0.14734867 0.5098761 -0.10218304 0.2663488
0002e0 51 42 7d 3e c4 8b c1 be 14 4c ea 3d 75 a2 80 3e
       0.24732329 -0.37801945 0.11440292 0.25123945
0002f0 3e 41 02 bc 80 bf 37 3d 60 1b d4 be fb b7 a4 3d
       -0.007950125 0.044860363 -0.41427135 0.08042904
000300 11 40 2c be f1 30 84 3d db 9b 0a 3e 97 c4 f0 bc
       -0.16821314 0.06454647 0.13536017 -0.029390616
000310 1c 8c 56 be 38 2d 80 be 02 a9 df bd 82 73 2b be
       -0.20951885 -0.250345 -0.109209076 -0.16743281
000320 b8 58 50 be 67 c8 a6 3e 1b 4f 24 bd 24 34 ac 3e
       -0.20346344 0.3257477 -0.040114503 0.3363353
000330 06 94 89 bd ba 62 85 3c eb b9 c3 be 1b 73 59 be
       -0.06717686 0.016282428 -0.38227782 -0.21235316
000340 30 37 ff bd 11 1d 3e be eb 5f 72 be e7 27 96 be
       -0.12461698 -0.18565775 -0.23669402 -0.29327318
000350 47 38 71 be f2 bb 54 bf 70 64 ad 3e e0 b0 1b be
       -0.23556624 -0.8309928 0.3386569 -0.15204191
000360 d6 72 f8 bc 99 12 83 3e 97 56 a4 be 6c 18 bd 3d
       -0.030328196 0.25600126 -0.32097313 0.09233174
000370 a8 9f c2 3c e0 33 b7 bd 95 66 29 bd 23 5e 4e 3e
       0.02375777 -0.08945441 -0.041357595 0.20153098
000380 0a 83 5f be 6c d4 0e 3f cf 32 b9 3c 06 46 cc bd
       -0.21827331 0.5579288 0.022607235 -0.099742934
000390 a2 dc eb 3e 6a 50 a6 be 32 b9 6e be 69 91 d9 3e
       0.46066767 -0.32483226 -0.23312834 0.42493752
0003a0 4f 21 b3 3e 5b 1d e2 3d 4d ca 1e be 4e ee ed be
       0.3498635 0.11040755 -0.15506859 -0.46470875
0003b0 9b 2b 37 3f b2 3f 01 3e 64 27 13 3e 08 e5 44 3f
       0.7155091 0.12621954 0.14370495 0.76911974
0003c0 60 f4 65 bf 1e b5 70 be 71 78 b7 3d 35 74 2d 3e
       -0.8982601 -0.2350659 0.08958519 0.1693886
0003d0 b7 2c a9 3d d1 70 83 bd c9 3a 21 3f 82 04 36 3e
       0.08260482 -0.064180024 0.62980324 0.17775157
0003e0 31 08 ac be b0 40 91 3d 5e 75 af 3d 0f 66 d4 3d
       -0.336 0.07092416 0.08567308 0.10371029
0003f0 f8 79 6c bd a5 70 6a 3e ac 3c b8 bd 8b da 2f be
       -0.057733506 0.22894533 -0.08995947 -0.17173211

bias f4 [256]
000000 a4 83 20 bc f6 db 97 be e1 e8 c9 be 89 b4 3d bd
       -0.009797011 -0.29660004 -0.39435485 -0.04631475
000010 4c 34 79 3c 75 4f 11 3e 6b 90 28 be 5c bd 8f 3c
       0.015210222 0.14190467 -0.16461341 0.017546348
000020 89 7f 48 be 29 e2 27 bb a4 f5 fb bd 73 35 fd be
       -0.19579901 -0.002561698 -0.123027116 -0.4945484
000030 67 bd b0 be b2 2b 37 3c 40 82 bf 3e 84 52 ed bd
       -0.34519503 0.011179851 0.3740406 -0.11588004
000040 0d b8 21 3e 8b c6 31 3e e0 8c fe 3c 86 90 92 be
       0.15792866 0.17360894 0.031073034 -0.28625888
000050 49 6d ab 3d 06 fa 63 3b 31 35 fc bc 01 89 9e be
       0.08370454 0.0034786477 -0.030787082 -0.309639
000060 3b b1 5c bd ac 48 e0 3d d1 2c f8 bd f1 50 02 bd
       -0.053879958 0.10951361 -0.12117923 -0.031815473
000070 4b cc 50 3e f5 51 2d be ad ba 5e be 14 5e 6c 3e
       0.20390432 -0.16925795 -0.21750899 0.23082763
000080 aa 73 88 3e 72 08 c1 be e9 bb 68 3d d3 8b 79 3c
       0.26650745 -0.37701756 0.05681983 0.015231091
000090 31 da 73 3e 71 06 1b bc 53 4b 98 3e a3 f4 0d 3d
       0.23813702 -0.009461985 0.29744968 0.034657132
0000a0 ca 10 97 3e 2c 74 4a be fa d1 c0 3e a1 68 9a be
       0.29504997 -0.19770879 0.376602 -0.3015795
0000b0 e2 07 c5 be 0d fb c6 3e 23 54 4d be 8b 06 bf 3e
       -0.38482577 0.38863412 -0.20051627 0.3730968
0000c0 0c 9d 35 3d 1d a7 ac 3d 21 51 85 be 29 ff 90 be
       0.044339225 0.08430312 -0.2603846 -0.28319672
0000d0 8f 57 80 3d 5e 8c 88 3e ec 77 e0 3d 7b cf 18 3e
       0.062667005 0.26669592 0.10960373 0.14922898
0000e0 bb 10 38 3e a7 97 66 be 85 ec b5 bd a6 8c da 3d
       0.17975132 -0.22518788 -0.08883003 0.10671358
0000f0 44 bb 31 3e 2b 2f 0b 3d e4 73 10 be 0e 08 6e 3e
       0.17356592 0.03398053 -0.14106709 0.2324526
000100 16 68 b0 3e bc ac d9 be 50 c5 af be 91 78 2d 3e
       0.3445441 -0.42514598 -0.34330225 0.16940524
000110 7c df 18 3d 07 d6 73 be e1 bc 32 bd 76 f1 9f 3e
       0.037322506 -0.23812114 -0.04363716 0.31238908
000120 27 15 74 3e 8c d0 d3 bd af f1 a1 3e b0 fd 8b be
       0.23836194 -0.103425115 0.31629702 -0.27341986
000130 b3 b3 b1 be ae 32 8b 3c f8 9d f4 3d 27 38 a5 3e
       -0.34707412 0.01699194 0.11944193 0.32269403
000140 7c ae c2 3d e8 f8 bc bc 46 be b9 bd 81 2f 58 3e
       0.095059365 -0.023067906 -0.09069495 0.21111871
000150 67 d4 87 be 1f d3 36 be 7d d5 4f be 20 ee 4d 3e
       -0.26529238 -0.17853974 -0.20296283 0.20110369
000160 75 9d 14 3e 63 43 52 3e 71 0a 0e be 18 f7 ac be
       0.1451319 0.20533518 -0.1387117 -0.33782268
000170 27 65 a0 3e 6c 06 a3 bd 89 32 90 3e 77 14 8d be
       0.31327173 -0.07960209 0.28163555 -0.27554676
000180 07 c1 c4 bd 33 da 7d 3e 3f 0a 89 3e 46 56 a6 be
       -0.096071295 0.24790268 0.2676563 -0.32487696
000190 f9 04 1e 3e 2f 52 9e 3e 08 f8 8f be c8 f8 8a 3e
       0.15431584 0.30922076 -0.2811892 0.2714293
0001a0 62 e9 f7 3d af d3 81 be 0d 71 6d 3d 75 a5 9c 3e
       0.12105061 -0.25356814 0.05796914 0.30594984
0001b0 ab ba 79 3e c0 60 c0 be 20 92 bf be 2f 5d 18 3e
       0.24387614 -0.37573814 -0.37416172 0.14879297
0001c0 cf 19 d6 3b 76 26 54 be 6b 8a fc bd 0e 81 12 3e
       0.0065338383 -0.20717797 -0.12331089 0.14307043
0001d0 ae 1f 77 be 80 cd f1 3d 3b 9f 7d be c9 8e 6d 3e
       -0.24133179 0.11806774 -0.24767773 0.23199
0001e0 85 7a 68 ba cb 28 46 3e e4 c1 bd 3e 9b 19 be 3d
       -0.00088683545 0.19351499 0.3706199 0.092822276
0001f0 75 57 b9 bd 56 cd f5 bd 9c 07 f8 3d 6d 81 2f be
       -0.09049884 -0.12002055 0.121108264 -0.17139216
000200 fc 21 93 3e cc fe 57 3e 94 ac 0a be f5 c1 51 3c
       0.28736866 0.21093291 -0.13542396 0.012802591
000210 2d 58 47 3e 30 05 fc bd 1c 30 98 3e c0 72 8d bd
       0.1946723 -0.12305677 0.29724205 -0.069066525
000220 cb 04 15 be 85 00 9d be ce c2 a1 be 45 6d 10 be
       -0.1455261 -0.3066446 -0.31593937 -0.14104183
000230 00 62 88 be b2 26 82 3e 48 5d 00 3e 6c d4 5a 3e
       -0.26637268 0.25420147 0.12535584 0.21370095
000240 a2 db 4d be ed f5 9d bd 37 fa 5a 3e 24 83 af be
       -0.20103315 -0.07712922 0.21384512 -0.3427974
000250 44 dc 82 be c7 2d 66 be 35 5e a5 bd 61 bf c2 bd
       -0.25558674 -0.224784 -0.08074609 -0.09509159
000260 79 1c 8b 3d 9d 4d 6a 3e 1d 8c 85 3e 74 0f c0 bd
       0.0679254 0.2288117 0.2608346 -0.093779474
000270 69 d5 48 3e 47 03 9f be 07 3e 2c be 82 5e 68 3e
       0.1961266 -0.31057188 -0.16820537 0.22692302
000280 c2 5a b1 3c f8 41 82 3e b4 df 89 be 1d a8 06 be
       0.021649722 0.25440955 -0.26928484 -0.13150068
000290 92 d4 58 bd fe c3 0d be 4a 6d 19 3e 48 d2 8d be
       -0.052937098 -0.13844296 0.14983097 -0.27699494
0002a0 58 23 98 3e 01 d1 5f 3e b6 db 93 be e2 7b 21 3e
       0.29714465 0.21857072 -0.28878564 0.15769914
0002b0 e7 36 7a 3d ed 59 39 be 3d a4 92 3d 43 03 68 bd
       0.061087515 -0.1810071 0.07160232 -0.056643736
0002c0 12 9e d0 3d 97 28 2e 3e 73 17 2c be be 96 e6 3d
       0.101863995 0.17007671 -0.1680582 0.112592205
0002d0 f0 00 21 3d 57 40 63 3d 5d 05 ca 3e ae dd 10 bb
       0.039307535 0.05548128 0.39457217 -0.0022104788
0002e0 c4 8f da 3e 66 e9 b0 3e 8f 9c ff 3d de dc 17 be
       0.4268781 0.3455307 0.12481033 -0.14830348
0002f0 4e 84 71 3e 37 50 ce 3d ce 0b 73 be 01 8b 25 3e
       0.23585626 0.100738935 -0.23734972 0.16166307
000300 96 e5 09 be a1 fe 25 3e 01 de 36 be 91 aa c2 3e
       -0.13466486 0.16210414 -0.17858125 0.38020757
000310 fb a4 ce be 29 9f 9a 3e 22 ff 19 be c3 06 de 3d
       -0.40360245 0.30199555 -0.15038732 0.108411334
000320 12 ff e3 3d 5c 30 66 3d 16 49 aa 3e 28 b6 5d 3e
       0.11132635 0.056198463 0.33258885 0.21651518
000330 d5 4d ab bd da 73 8e 3e ef 89 99 3e 67 0f a7 3e
       -0.08364455 0.27822763 0.29988047 0.3262894
000340 9e 24 4b 3e e8 d3 1b 3d 1e 01 91 3d 3a 78 af 3d
       0.19838187 0.038043886 0.07080291 0.08567853
000350 e8 f2 c5 3e 2b a9 ad 3e 94 5d 2e be cd fd 6a be
       0.38661885 0.33918127 -0.17027885 -0.2294838
000360 be 7b e8 bd e9 d2 36 be a5 57 3a 3e 23 2b 82 3e
       -0.11351727 -0.17853893 0.18197496 0.25423536
000370 53 be 8c 3a 25 17 85 be 00 03 80 be 96 32 ed bc
       0.0010737873 -0.2599422 -0.2500229 -0.028954785
000380 ad 33 a4 be 55 21 f5 bd a2 f2 5e be c7 32 50 3e
       -0.32070675 -0.11969248 -0.21772245 0.2033187
000390 56 63 6d be 6c c7 28 be 97 75 81 3e 60 76 7e 3d
       -0.23182425 -0.16482323 0.25285026 0.06212461
0003a0 01 3d c3 bd 23 14 1b bd 4b 14 ac bd 99 6b 41 3d
       -0.0953312 -0.037861 -0.08402308 0.047221754
0003b0 75 57 a6 bd 53 4f 2f 3e 24 e5 c2 3e 2d 7e 21 3e
       -0.0812215 0.17120104 0.38065445 0.15770788
0003c0 9c 16 8e be 30 0e 89 be 28 1a 2d bd 71 ce 53 bd
       -0.27751625 -0.26768637 -0.042261273 -0.05171055
0003d0 c9 91 a7 3e 99 29 2f bd db b7 e5 3d c3 d4 70 3e
       0.32728413 -0.04276428 0.11216708 0.23518662
0003e0 a9 6c 5f 3e b6 82 fb bd e4 75 8f 3e a7 c2 b3 3e
       0.21818794 -0.122807905 0.2801963 0.35109445
0003f0 9f c3 10 3d ba da 6a be 01 ae a3 3e fa 18 c2 be
       0.03534281 -0.22935 0.31968692 -0.3790968

weight f4 [256, 256]
000000 ff fc a2 3c 0b f9 e5 bc 72 6e 10 bc a4 af 89 3d
       0.019896029 -0.028072855 -0.008815395 0.06722954
000010 cd 6f 38 3d b6 eb 03 3d f2 33 75 bd dc ae 03 3d
       0.045028497 0.032207213 -0.059863992 0.03214918
000020 8b b3 22 bd 2b fb 7d bd fa 62 e9 bc f2 64 6f bd
       -0.039722007 -0.06200711 -0.028489579 -0.05844588
000030 33 09 a0 3c c3 90 d1 3c 8a e5 ab 3d 88 7d 83 bd
       0.019535637 0.025581723 0.083933905 -0.064204276
000040 1f f5 3a ba f0 ee 23 bd cd 85 90 3c 5f 11 cd 3c
       -0.0007131863 -0.04002279 0.017641926 0.025032697
000050 33 aa 13 bc 71 b8 f5 bc c5 b0 ab bc 1d fc 57 bd
       -0.009012747 -0.029995175 -0.020958314 -0.05273067
000060 ff f6 3c bd f6 37 32 3d dc 0e 81 bc 25 2c 45 3d
       -0.04613399 0.0435104 -0.015754156 0.048137803
000070 e8 eb d8 3b c3 30 12 3d 1f af 78 3d db 32 80 bc
       0.006619919 0.035691034 0.060713883 -0.01564925
000080 8a 7d 77 bd 0c 74 1d bd 91 cd 42 3d b7 32 85 bd
       -0.060422458 -0.03844075 0.047559325 -0.06503814
000090 e2 de c2 3c e6 5b 09 3c a0 fc 71 3b 67 cb 14 3c
       0.02378792 0.008383727 0.0036924258 0.009081698
0000a0 80 cc 30 bd f7 fc 51 bd 9c f9 c8 bc 8b d7 99 3a
       -0.043163776 -0.051266637 -0.024533086 0.001173721
0000b0 39 db 85 3c 84 52 77 bd 49 2b ef 3c 60 4e f8 3c
       0.016339885 -0.060381427 0.029195445 0.03031081
0000c0 d5 12 7d 3b 72 fb f1 bc 3d 08 ed 3c b2 b1 83 bc
       0.003861596 -0.029538844 0.028934592 -0.016075943
0000d0 64 01 8f 3c 65 e3 64 bd ae c6 5d 3d 27 ce 6a 3d
       0.017456718 -0.055880923 0.054144554 0.05732551
0000e0 1d e6 00 3d e6 85 9a 3c f9 e4 59 3c d1 b9 41 3c
       0.031469453 0.018862676 0.01329922 0.011824087
0000f0 df 3d 80 bc 8f fc 37 bd aa 75 4e bd 31 1f 09 bc
       -0.015654502 -0.044918593 -0.050405182 -0.008369253
000100 df 35 02 bd b4 e6 29 bd ab 24 1c 3d 7e 2a 78 bd
       -0.031789657 -0.04147978 0.038120907 -0.0605874
000110 1c 42 20 bd 43 27 57 3d 72 0c 63 3d de a3 f7 bb
       -0.039125547 0.052527677 0.05543179 -0.0075573763
000120 7e da de bc 0b 0f d1 3c e2 46 98 bb 04 e9 05 3c
       -0.027203795 0.025519868 -0.0046471218 0.008173231
000130 7c 72 57 bd 7b 53 62 bc 71 e8 2c bd 3a a0 e0 bc
       -0.052599415 -0.013813849 -0.04221386 -0.027420152
000140 9f d2 3d 3d 42 4e a1 39 83 e2 02 bd 98 65 4c bc
       0.046343442 0.0003076662 -0.0319543 -0.012475394
000150 78 e7 5e bd 80 42 c9 3c 55 26 45 3d 96 55 01 3c
       -0.054419965 0.024567842 0.04813226 0.00789394
000160 53 d6 21 3d ea 3c 7f bc 41 1d 49 bd 32 35 7c bd
       0.039511036 -0.015578488 -0.049100164 -0.06157417
000170 7a 11 9d bc 56 75 89 3c ec 57 ae 3a be 21 71 bc
       -0.019173373 0.016779583 0.0013301349 -0.014717517
000180 79 53 60 bd 9b 78 87 3c 9b e4 4f 3b da b4 2d bd
       -0.054767106 0.016537001 0.0031721953 -0.0424088
000190 81 e9 63 bd e5 d4 0c 3d 9e 26 0d bd 4e 38 2a bd
       -0.05564261 0.03438272 -0.034460656 -0.041557603
0001a0 54 46 74 bd 9e 04 68 bb 70 c8 4e bd bc 74 89 3d
       -0.059637383 -0.0035403143 -0.05048412 0.067117184
0001b0 b9 fc 22 bd 04 b2 45 3d 45 eb 3a bd a2 57 3b bc
       -0.039791796 0.048265472 -0.045634527 -0.0114344675
0001c0 0a 86 5b 3c 51 1c 20 bd 8e 7a 21 bc 25 eb 4e 3c
       0.013398657 -0.039089505 -0.0098558795 0.012629305
0001d0 2b e6 8f 3c cf 30 84 bc 1b 97 1d bd 79 39 26 bd
       0.017565807 -0.016136555 -0.038474184 -0.040582154
0001e0 7c fc 47 bd c0 6c 2a 3d 96 7e f5 3b 18 e7 2b 3c
       -0.048824772 0.04160762 0.007491897 0.010492109
0001f0 0c 48 36 3d 6b 71 07 bd 75 8f 08 bd 06 68 33 3d
       0.044502303 -0.03306715 -0.033339936 0.043800376
000200 ae b6 4f bd 13 6b 2d 3d b8 ee 0d bd 3d 17 e4 3c
       -0.050711326 0.042338442 -0.034651488 0.027843112
000210 f9 8f 87 3c 0b 7e f4 bb a1 3b af bc 1f cd 4e bd
       0.016548144 -0.0074613146 -0.021390738 -0.050488587
000220 31 13 06 bd 87 8a a6 3c fc 4a af 3b 00 97 36 3b
       -0.032733146 0.020329727 0.005349515 0.0027861
000230 8a da 99 3b e4 01 87 bd e4 52 f1 3c 8e 54 4e 3d
       0.0046952413 -0.065921575 0.02945847 0.050373606
000240 1b 1d d0 3c db f2 4f bd 1a 65 74 bd 51 b2 99 bd
       0.025404504 -0.050768714 -0.05966673 -0.07504714
000250 e9 8a f9 3b c4 b7 87 3b e8 71 a2 3c c4 f7 2c 3c
       0.0076154363 0.0041417796 0.019829705 0.010557119
000260 ee fc 40 bd 80 af 64 bc b3 0e a1 bc 47 02 88 3b
       -0.047116213 -0.013957858 -0.01966033 0.004150662
000270 09 07 6d 3d 40 93 5d 3d 14 13 1b bc 2a bd 6c bd
       0.057868037 0.054095507 -0.009464998 -0.05779759
000280 7c cd 41 3d c6 99 07 3d 83 d4 3e bd 46 95 42 bd
       0.047315106 0.033105634 -0.046589386 -0.04750564
000290 18 66 ed bc 39 08 76 bc 2f 2d 3f bd 74 21 71 bd
       -0.028979346 -0.015016609 -0.04667395 -0.058869794
0002a0 15 ef 3e 3d 80 3c 21 bd f2 35 45 bd 8c c9 5d 3d
       0.046614725 -0.039364338 -0.04814715 0.05414729
0002b0 00 52 28 3c 9e 17 95 3c 2d 6c e3 bb 19 47 81 bb
       0.010273457 0.018199738 -0.006940386 -0.003945243
0002c0 d5 c4 44 3d a6 bf 1d 3d b1 91 98 3c a9 b3 fb 3c
       0.048039276 0.03851285 0.018624159 0.030725317
0002d0 f4 d2 52 bc 05 66 46 3d 17 ee 76 3d 25 5b 63 bd
       -0.012867678 0.048437137 0.060285654 -0.055506844
0002e0 3a 79 44 bd d4 2e 6c 3d 52 40 8a 3c 0b d2 8f 3c
       -0.047967173 0.057661846 0.016876373 0.017556211
0002f0 47 0f 00 bd 44 a6 20 3c 9f 28 56 bd a9 f0 38 bd
       -0.03126457 0.009805266 -0.052284833 -0.045151386
000300 15 0d bf 3b 3b 73 1e 3d dd 1a 66 3d f0 91 57 3d
       0.005830417 0.03868411 0.056177963 0.05262941
000310 e9 e6 c7 3c d3 77 b7 bc 1c 39 30 3d 0b 7c 37 bd
       0.024402099 -0.022396004 0.043023214 -0.04479603
000320 e5 03 f9 bc c8 48 0f 3d 9d 42 73 bd c1 3c f6 3c
       -0.030397365 0.03498152 -0.0593897 0.030058267
000330 70 a8 ed ba 74 26 2b 3c 22 d8 60 3d fc 08 08 bd
       -0.0018131863 0.01044618 0.05489362 -0.033211693
000340 e6 08 70 3d 5c 7b 11 bd 12 ce 42 3d 7e af 13 3d
       0.058602236 -0.035518035 0.047559805 0.036056034
000350 95 50 48 bd 89 35 52 3d cd 26 ae bb b4 b8 70 3d
       -0.048904974 0.051320586 -0.005314684 0.058769897
000360 d8 32 6e bd 0b 49 74 bc 3b 1d 41 3d cc 97 f7 bc
       -0.058153957 -0.014909993 0.047147017 -0.03022375
000370 13 71 a9 3b 75 d6 e6 3c 35 76 e5 bb d7 e8 5e 3d
       0.00517095 0.028178433 -0.0070026168 0.054421272
000380 9c 60 1f bd 74 19 10 bd 83 77 93 bc 2a d8 bf 3c
       -0.038910493 -0.035180524 -0.018001324 0.023418505
000390 92 5f 76 3c 25 d5 c8 3b 78 18 5b bd 60 53 60 3d
       0.015037434 0.0061289244 -0.053490132 0.054767013
0003a0 fb be 3f 3d 01 a9 d1 bc da 30 41 3d 6f d8 5b bd
       0.046812993 -0.025593283 0.04716573 -0.053673204
0003b0 66 e0 fd 39 b0 49 ca bc 74 f6 e6 3c 43 dc 55 bd
       0.0004842311 -0.02469334 0.02819369 -0.05221201
0003c0 50 12 4e 3d f5 ce 4a bd 1e 92 3f 3d 88 cc 60 3c
       0.050310433 -0.049513776 0.046770208 0.013720639
0003d0 35 c3 de bc d4 f1 4e 3d 5d fb 9d 3c d4 9c c5 3a
       -0.027192691 0.050523594 0.019284898 0.0015076646
0003e0 41 48 32 3c a3 e5 81 39 e7 ae 0c bd 4c 1e 15 bd
       0.0108814845 0.0002477589 -0.034346487 -0.036405846
0003f0 e3 a0 06 3d 54 eb 55 bd 96 1a bf bb 72 e0 74 bc
       0.032868277 -0.05222638 -0.0058320267 -0.01494609

bias f4 [256]
000000 60 74 71 3c fe cc be 3c 05 9d 93 bd ba 1f 8c 3c
       0.014737219 0.023291107 -0.072076835 0.017104972
000010 04 37 72 3d d1 be 2a bd 8f f1 aa 3c 21 35 f0 ba
       0.0591345 -0.041685883 0.020867137 -0.001832638
000020 e7 8e 05 3d 98 02 d8 3c 14 67 8d 3d c2 48 06 3d
       0.032606985 0.026368424 0.06904426 0.03278423
000030 5f 95 f2 bb 04 3e 81 3d de 39 33 bc c8 ac 8f bd
       -0.0074030603 0.06310657 -0.01093909 -0.07015377
000040 67 0a 15 3c f8 17 e5 3c 6d 89 57 bd c5 f6 95 3d
       0.009096718 0.02796553 -0.052621294 0.07322458
000050 06 e6 9d 3c 42 65 9d bc 68 94 5f bd c8 84 c4 3c
       0.019274723 -0.019213323 -0.05458489 0.023989096
000060 65 9d c3 3c 99 1d 30 3d a1 0f fc bc a3 76 05 3d
       0.023878762 0.042996977 -0.030769171 0.032583844
000070 c3 93 91 bc 71 ba f5 bc ee 7e 91 3d 1f a6 92 bd
       -0.017770654 -0.029996129 0.07104288 -0.07160591
000080 13 94 a7 3c 0b b2 39 bd c3 9b 39 bd 4c 36 9f 3d
       0.02045635 -0.04533581 -0.04531456 0.07774028
000090 ed c3 1f bd 52 a8 1c bc 24 9d f7 bc a5 75 94 3d
       -0.03900521 -0.009561615 -0.030226298 0.072490014
0000a0 c6 0a 29 3d b4 78 98 bc bf 03 ea bb 05 ca 87 bc
       0.04127004 -0.018612243 -0.00714156 -0.016575823
0000b0 bd 82 cf bc f7 9a 2d 3d 75 a8 15 bd 2c be 62 3c
       -0.025330896 0.042384114 -0.036537606 0.013839286
0000c0 8c 89 03 bd e3 be 27 bd 46 e8 93 bd c9 bc 1b bd
       -0.032113597 -0.040953528 -0.07222037 -0.038021836
0000d0 38 4a 18 bc 20 ae 70 bd db 62 b7 bd 39 10 3f 3d
       -0.009295039 -0.05875981 -0.08954402 0.04664633
0000e0 92 cf 6a 3d 28 4c 12 bd c8 49 1a bc a2 0c 75 3d
       0.05732686 -0.03571716 -0.009417005 0.0598265
0000f0 83 b8 bc bc f2 8a 0b 3b f8 79 c5 3a b0 a5 a5 bc
       -0.0230372 0.0021292535 0.0015066257 -0.020220608
000100 a6 f4 a5 3d 1d 59 85 bd 93 87 b5 3c 74 f6 f2 bc
       0.081033036 -0.06511138 0.022159373 -0.029658534
000110 f1 20 31 bb 9f 8d 94 bc 3a 6b b5 bd 3e 54 e0 3c
       -0.0027027691 -0.018133936 -0.088583425 0.02738392
000120 09 ad 3e bd 16 5f a7 3d c9 d8 ae bc b9 b6 38 bd
       -0.046551738 0.08172433 -0.021343606 -0.045096133
000130 8b 82 e2 ba ca ef 94 3c 98 4a a4 bc 28 e1 01 bd
       -0.0017281336 0.018180747 -0.0200551 -0.031708866
000140 71 70 9d bb ff 9f 1e 3d 27 10 a1 bc 94 d5 86 3d
       -0.004804664 0.038726803 -0.019661022 0.065837055
000150 5d fa 4b 3c 0f ec e6 3c 12 9c 24 3e 8b be 97 bc
       0.012449828 0.028188733 0.16075161 -0.018523475
000160 d9 6c 62 3d 24 3d 52 bd b5 2c 0f 3e 5d a0 3d bc
       0.055279586 -0.05132784 0.13981898 -0.011573878
000170 45 51 46 3c de bc 3d bc 3c 49 88 bd 3d 83 db 3c
       0.012104337 -0.011580674 -0.06654593 0.026795978
000180 50 ef 1c 3d 47 80 8e 3c 53 63 3f bd 1f 27 8d bd
       0.038314164 0.017395152 -0.046725582 -0.068922274
000190 a4 f4 51 3d a7 ad 37 3c d0 4b 26 bd 7c b9 84 bd
       0.051258698 0.011210836 -0.040599644 -0.06480691
0001a0 bb a2 02 bd 3a 3e 22 3d 91 a3 6d bd 52 6d 77 3c
       -0.031893473 0.039610125 -0.058017317 0.015101748
0001b0 7d 32 5c 3c 8e 21 e6 3b 7d a8 50 bd 48 d9 82 bd
       0.013439772 0.007023043 -0.050941933 -0.06389099
0001c0 f4 1d cb 3b be fe 54 3d c2 d7 55 bc 8a 35 5c bc
       0.006198639 0.052000754 -0.013051929 -0.013440499
0001d0 92 6f 5a bb a6 09 3a bd 71 67 33 bd 50 d6 86 bd
       -0.0033330661 -0.045419358 -0.04379982 -0.065838456
0001e0 3b ca 3f bd fd 15 46 3c 42 28 5b bd 8a da 2b bb
       -0.04682372 0.012090203 -0.05350519 -0.0026222789
0001f0 40 57 4a bd 81 35 32 3d 22 c9 b1 3c 41 77 b8 bb
       -0.049399614 0.043508057 0.021702353 -0.0056294505
000200 88 87 a0 bc 12 f5 c4 3c 5a 5a 61 3d b8 1f 0d bc
       -0.019595876 0.02404264 0.055017807 -0.008613519
000210 71 bc 40 3d 0a a7 a0 3c 2e a9 00 3d a5 a3 6b bd
       0.04705471 0.0196109 0.031411342 -0.05752911
000220 e9 6a 7d bd 48 30 47 bc 05 1d 6b bc e2 15 69 bd
       -0.061869536 -0.012157507 -0.0143501805 -0.056905635
000230 bc c0 65 3d 98 76 a1 bc 61 a0 1a 3d 21 ad 54 bd
       0.05609201 -0.01970987 0.037750605 -0.05192292
000240 29 ec 11 bd 75 69 18 bd 4c 06 06 3d ff 4c 81 bd
       -0.03562561 -0.037209947 0.03272085 -0.06313514
000250 56 be 6a 3d dc 89 b4 3c a8 26 2b 3b be 92 7f 3c
       0.057310425 0.022038393 0.002611557 0.015598951
000260 53 09 29 bc 58 83 77 3d 20 aa b7 bc 75 8e d4 3c
       -0.0103171645 0.060427994 -0.02241999 0.025946835
000270 2e 28 b5 bc b9 3a 8c bc 17 7a 35 3d 2e 4a 18 bd
       -0.022113886 -0.017117845 0.044305887 -0.03718012
000280 96 55 74 bd 64 41 8c bb 8a 33 cf bc 51 50 96 3d
       -0.059651934 -0.004280256 -0.02529313 0.07339538
000290 73 b7 11 3d 0a 48 fc 3c d6 83 9f bc d4 88 f0 3c
       0.03557534 0.03079607 -0.019472044 0.02936212
0002a0 e1 d2 60 3c 13 75 94 bd ce 54 53 bd 77 f2 db 3c
       0.013722152 -0.07248893 -0.051594548 0.026849015
0002b0 ed 32 c6 bc 13 fd f1 bc 7a c1 15 bc 46 c8 25 bd
       -0.024194205 -0.02953962 -0.009140367 -0.0404742
0002c0 c1 f6 5b bd 8b 76 8b bc 8c 17 27 3d 28 6c 6c bc
       -0.05370212 -0.0170243 0.04079394 -0.014430083
0002d0 68 df ef bd 7d e3 c2 bc e1 f7 3a 3d 70 b1 25 bd
       -0.11712533 -0.023790115 0.045646552 -0.04045242
0002e0 1b 71 76 bd 5e 7d c0 bc df c0 23 3c 01 ef 68 bd
       -0.06016646 -0.02349728 0.0099947145 -0.056868557
0002f0 a9 1a 20 bc 85 b8 d3 bc de 73 13 ba 87 1b 6b 3d
       -0.009771981 -0.025844822 -0.00056248705 0.0573993
000300 ce e2 28 bb aa 65 4f 3c 42 66 23 bc dd 34 96 3c
       -0.0025769952 0.012658516 -0.009973111 0.018335754
000310 c6 74 80 bc 07 97 8e 3d 2a 18 aa bd 60 86 44 bd
       -0.015680682 0.069624 -0.0830539 -0.047979712
000320 e5 54 7b 3d 87 66 d3 ba 50 b0 8b 3d d8 dc de bc
       0.06136026 -0.0016128578 0.06820738 -0.027204916
000330 5e 6c 5b 3a d5 fd 40 3d ec d8 3a bd e0 ed ae bc
       0.0008370335 0.047117073 -0.04561703 -0.021353662
000340 a7 8a 0b 3d 98 67 2a bd 51 d0 ca bd 60 de 21 3c
       0.034067776 -0.0416027 -0.099030145 0.0098796785
000350 6e 79 79 bd 05 6f 94 3c df bc 53 3d 70 04 46 bd
       -0.06090682 0.018119344 0.051693793 -0.048344076
000360 d3 d0 57 3d 79 f7 6f bc 2d 54 61 3d 1b e5 8c 3c
       0.052689385 -0.014646404 0.055011917 0.01719909
000370 70 0c d4 3c 76 48 21 3d fc 4f ec 3a 06 75 79 3c
       0.025884837 0.039375745 0.0018029208 0.0152256545
000380 15 27 00 bd 18 be 50 bd c4 73 83 3d 92 7f 39 3d
       -0.03128727 -0.050962538 0.06418565 0.045287676
000390 2f b7 b2 bb 81 4b 6e 3b 53 59 98 bc 81 4a b1 bd
       -0.005453966 0.0036360922 -0.01859728 -0.086567886
0003a0 29 32 ce 3c 79 95 01 bd 37 35 09 3d be e4 d8 3b
       0.025170403 -0.03163669 0.033498015 0.006619065
0003b0 c9 20 dd bc 44 d5 54 bd 07 c0 60 bc d3 ca 00 bd
       -0.026993172 -0.0519612 -0.013717658 -0.03144343
0003c0 82 ea b1 bd c0 9b aa 3a 88 5f 13 3c b2 bd 92 3d
       -0.08687307 0.0013016388 0.008994944 0.07165088
0003d0 d0 a8 21 3c a1 18 15 3d 4e 48 69 bd 3a 4f 90 3d
       0.009866908 0.03640044 -0.05695372 0.07046361
0003e0 41 fc 4d 3d ec a9 8a bc f9 1d fe bc e8 bd a4 bc
       0.050289396 -0.016926728 -0.031020151 -0.020110086
0003f0 3a c0 8e 3a d1 ec 39 3d 60 24 16 bd fb eb b4 bd
       0.0010891028 0.04539186 -0.036655784 -0.08834072

weight f4 [2, 256]
000000 02 59 48 bc c3 06 54 bd 1f 68 16 3d 5e fa c3 ba
       -0.012228252 -0.05176426 0.03672039 -0.0014951935
000010 a2 0f 9f 3b 49 ec 8c 3d 38 ac 8b 3c d2 77 e1 bc
       0.0048541585 0.06881005 0.017049894 -0.027522955
000020 cc d9 0b 3d b6 b9 dd bc f3 ab c7 3c 81 0c f5 bc
       0.034143254 -0.027066093 0.024373984 -0.029913189
000030 3e d5 b7 bc c6 c0 c4 3c df 5c 38 3a 4a b9 93 bd
       -0.022440549 0.024017703 0.0007032882 -0.072130755
000040 bf f5 8c 3a f0 57 2c ba b1 6e 68 bd 9e 1d 62 3d
       0.001075439 -0.0006574383 -0.05674619 0.055204026
000050 62 16 b1 ba 93 1d 14 3d 70 8b fb 3c bc 15 00 bd
       -0.0013510699 0.036161017 0.030706137 -0.031270728
000060 75 45 0c bd f1 37 ab 3b d6 89 51 bb 92 3e e9 3c
       -0.034245927 0.0052251746 -0.0031973026 0.028472219
000070 79 f2 07 3c 4a 84 58 bc 59 44 b7 bb 25 4d 36 3d
       0.008297556 -0.013215134 -0.0055928645 0.044507165
000080 b4 a0 d7 bc 03 16 91 3c 5c d1 84 bd ed 7e 54 3d
       -0.026321746 0.017710691 -0.06485245 0.05187886
000090 ee 95 77 3b 2e e7 21 bd d2 ff 88 bd 7c 99 63 bc
       0.0037778574 -0.03952711 -0.06689419 -0.013891574
0000a0 8a a9 a7 bc f4 1e 4b b8 77 2a 9a b9 08 f2 33 bd
       -0.020466585 -4.84278e-05 -0.00029404808 -0.04393199
0000b0 12 f5 d4 3b 52 1b 08 bd 3a 20 8c bd 29 39 c7 3a
       0.006498941 -0.03322918 -0.06842084 0.001519953
0000c0 f8 c1 5f 3d 89 d8 d5 3c 84 f3 c9 bb 12 2a a9 b9
       0.054628342 0.026104229 -0.0061630625 -0.00032265537
0000d0 59 80 e8 3b e2 e1 65 3d bf 3b 70 3a b1 44 87 3c
       0.0070953784 0.05612362 0.00091641763 0.016512247
0000e0 3a e1 5a bd f5 32 a9 3c bf 7c 18 3d 87 29 1b bb
       -0.05343745 0.020654181 0.037228342 -0.0023675875
0000f0 f7 b2 05 3b 98 a1 a9 bc bf 1a 82 3c 67 8f f8 3c
       0.002040086 -0.020706937 0.015881894 0.030341817
000100 10 b6 31 bd 9f a1 7b bd c9 2b 7d 3a e7 54 2b bc
       -0.04338652 -0.06143343 0.00096577086 -0.010457254
000110 a2 96 fd b9 93 5d 64 3d fa 30 30 bd d9 b6 8d bc
       -0.0004836815 0.0557533 -0.043015458 -0.017299103
000120 ce f8 9f 3d 44 b6 d2 3c b3 b9 99 ba 0c 3c ca 3b
       0.078111276 0.025721677 -0.0011728316 0.006171709
000130 ca 76 c1 3c 1d 07 fb bb 32 a9 c3 3c 02 c1 a8 3c
       0.023616213 -0.00766076 0.02388439 0.020599846
000140 82 34 72 3d 26 f4 42 bc 30 55 8c bc a8 cc fb 3b
       0.059132107 -0.01189903 -0.017130464 0.007684309
000150 fb 53 66 3c af 58 3a bc 81 a3 65 3d 1b ca 38 bd
       0.014058108 -0.011373683 0.056064133 -0.045114618
000160 36 02 57 3c bb da 58 bb 25 35 10 bd 55 f5 76 3c
       0.013123086 -0.0033089358 -0.035206933 0.01507314
000170 c7 09 90 bc c4 df 4e ba 22 84 02 3c 97 05 8c bc
       -0.017582787 -0.000789162 0.007966073 -0.01709251
000180 70 83 f7 bb 55 f7 3c bb 99 62 79 3a d3 ae 06 ba
       -0.0075535104 -0.0028833945 0.00095132884 -0.0005137745
000190 7f 26 4e 3b 25 88 6c 3d bc 2c b6 3c 89 33 4c 3d
       0.003145605 0.057747025 0.022238128 0.049853835
0001a0 c2 8a 1b 3c c1 95 03 3d dd b0 b9 3a a1 ef 36 3c
       0.009493532 0.03212524 0.0014167089 0.01116553
0001b0 da 22 2a 3b 4a 26 19 3d ca a5 9f 3c 4e be ff bc
       0.0025960715 0.03739003 0.019488234 -0.031218674
0001c0 24 38 7f bc 35 4f 0b 3d c8 f9 cf 3b d2 07 2c 3d
       -0.01557735 0.034011085 0.006346915 0.041999646
0001d0 39 4f f1 3c 04 23 97 bd f4 78 07 bc 06 86 7a 3c
       0.029456722 -0.073797256 -0.008268584 0.015290743
0001e0 20 07 dd 3c 7b 05 15 3d 41 1e 84 bc 09 d1 41 3d
       0.026980937 0.03638218 -0.016127707 0.047318492
0001f0 26 0c 5c bd 52 c1 33 3c f2 9f 36 3d 57 37 e1 bb
       -0.053722523 0.010971384 0.04458613 -0.006873052
000200 ea 95 ef bc 2c 4e a8 bd 83 d0 b5 3c c1 65 d6 3b
       -0.02924629 -0.08218035 0.022194153 0.0065428917
000210 b0 78 ce 3b 42 3a 3c 3d 47 66 94 bd 22 18 22 bb
       0.006301008 0.045953996 -0.0724607 -0.0024733623
000220 9d 38 9c ba 74 57 4e 3c ef 25 7b 3c 1a 15 20 bc
       -0.0011918728 0.012594093 0.015328868 -0.009770656
000230 8d 52 0e 3d bd 9c 62 3c 32 db 45 3b 8f ed 15 bd
       0.034746695 0.013831315 0.0030190465 -0.036603507
000240 69 90 97 3b db 5c 07 bc cf 07 81 3d 20 d8 e2 bc
       0.0046253693 -0.008261885 0.063003175 -0.027690947
000250 77 dd 17 b9 1a 4c 97 ba c0 04 14 bd fb d3 45 3c
       -0.00014482984 -0.0011543066 -0.036137342 0.012074466
000260 9a 3a 2f 3d 2f 1c c2 3c 2f 3f 10 bd 71 f9 30 bd
       0.042780496 0.02369508 -0.035216507 -0.043206636
000270 04 4e 71 bc 84 88 3d 3d 81 14 7c 3c 4e 63 c0 3c
       -0.014728073 0.04627277 0.015385748 0.023484852
000280 49 4c d2 3c f6 3d e0 ba b4 b6 fa 3c 39 a8 6e bb
       0.025671141 -0.001710831 0.030604698 -0.0036416186
000290 5b 6b 61 bd 12 a0 29 3d bb 6c 03 bc 1d 16 b5 3d
       -0.055034023 0.04141242 -0.008021529 0.088421084
0002a0 30 4c c9 bc 8b 8a 4b 3d a2 81 39 bd bb 9f 62 3d
       -0.024572462 0.04969267 -0.045289643 0.055328112
0002b0 6d cf 6b 3c b7 0b e2 bb 88 a6 8d 3c 2d 00 17 bc
       0.014392716 -0.006898369 0.017291322 -0.0092163505
0002c0 45 1d 4d bb a5 c3 52 ba 5c c5 c1 3c c1 e3 90 bc
       -0.0031297964 -0.00080400176 0.023653679 -0.017686727
0002d0 9e 1c 7e bd 83 04 17 bd cf cf 7c 3d 17 8c 12 bd
       -0.06203901 -0.036869537 0.06172162 -0.03577813
0002e0 b9 02 1b bd 95 2f 42 3c d9 95 56 bc 59 74 62 bd
       -0.037844393 0.011852165 -0.01309725 -0.05528674
0002f0 c1 9a a4 3c 87 bd 5e 3d 46 15 4d 3d d6 70 93 bc
       0.020093324 0.054379966 0.050069116 -0.01799814
000300 7a 3f 74 bc 59 d1 49 bc f8 e9 e3 ba 6a c8 56 bd
       -0.014907712 -0.012317979 -0.0017388454 -0.052437223
000310 79 d3 b4 3c 71 25 4f 3c f5 98 37 bd 93 57 dc 3c
       0.022073494 0.012643204 -0.044823606 0.026897227
000320 86 48 ac 3c ba bd 37 39 1a 55 21 bc da 44 36 3c
       0.021030676 0.00017522919 -0.00984695 0.011124814
000330 aa 6e a5 bd 93 4d a6 3b e8 b8 5b bb 90 e0 0d 3d
       -0.08077748 0.0050751655 -0.003352696 0.034637988
000340 ab 7c 9c ba b5 c8 27 bd 01 27 44 bd cd a3 af 3a
       -0.001193901 -0.040962894 -0.04788876 0.0013400257
000350 d4 ab 03 bd 13 4c d9 bd cc d2 3e 3d b2 c1 90 ba
       -0.03214629 -0.10610213 0.04658775 -0.0011044054
000360 c5 31 53 bd 86 0e 9d 3c 66 8a 0b 3c 7c 6a a2 38
       -0.051561136 0.019171964 0.0085168835 7.744596e-05
000370 21 ca 83 bb 72 05 2e 3d 79 f3 43 3d e0 93 ad bb
       -0.0040218984 0.04248566 0.047839615 -0.005297169
000380 b5 e0 9a 3b 7e 47 05 3d de a0 74 ba db 88 46 bc
       0.004726494 0.032538883 -0.00093318324 -0.01211759
000390 67 64 dd 3c c8 34 60 bc d9 93 56 bd b0 fe 10 bd
       0.027025415 -0.013684459 -0.052387092 -0.03539914
0003a0 1d 46 84 bb 3e f4 91 bc 1b 83 55 bc f1 b1 16 bd
       -0.0040366785 -0.017816659 -0.013031746 -0.036790792
0003b0 0b 3d e3 bc 2c a9 2c bd 2d e0 e0 3c 7b 58 00 3a
       -0.027739068 -0.042153522 0.027450645 0.0004895997
0003c0 9a fe d6 bb 20 ee bf b8 46 bc b2 bc b8 78 d6 ba
       -0.0065611126 -9.151944e-05 -0.021818291 -0.0016362881
0003d0 e3 ab 19 3d 79 5f 9a 3b f4 54 07 39 d0 9b 1c 3d
       0.03751744 0.0047110883 0.00012906251 0.038234532
0003e0 45 b6 97 bb 66 9e 41 3d 6d 94 0b 3d 11 05 b8 bc
       -0.0046298825 0.0472702 0.034077097 -0.022463353
0003f0 8f df d1 b9 66 0e 5b 3b eb 1a 29 3d 13 0e 9a bd
       -0.0004003015 0.003342533 0.041285437 -0.07522216

bias f4 [2]
000000 6c bd 57 3c 92 63 a3 bc
       0.01316772 -0.01994494

weight f4 [256, 11]
000000 aa 9f 24 3e c1 48 06 3d 8b 86 1a bf 48 a2 03 3f
       0.16076532 0.032784227 -0.60361546 0.51419497
000010 fd 62 c9 be cf f5 fe 3d 0d ed be bd 93 35 3d 3e
       -0.39333335 0.12449228 -0.093225576 0.18477468
000020 84 de e9 3e ce 7d 37 3e 3c f8 3e 3e a9 a0 b6 be
       0.45677578 0.17919084 0.18649381 -0.3566945
000030 5b e0 96 be 10 d7 33 3d 6d 2a 85 be 03 1f 15 3e
       -0.29468045 0.04390627 -0.2600893 0.14562611
000040 2c be 95 3e ae 1a 0c bc c4 34 66 3d f5 a0 0d 3e
       0.29246652 -0.008551283 0.056202665 0.13830931
000050 46 27 ec be 7c 29 73 3e 1f 35 29 be 05 7b c4 be
       -0.46123713 0.23746294 -0.1652417 -0.38375106
000060 37 d6 f3 3e 33 e3 da 3d 88 0b 13 c0 1a 00 47 3f
       0.4762437 0.10687866 -2.2975788 0.7773453
000070 42 62 4c bd ad e4 e2 bd 3d 7b 12 3f ed f4 e2 be
       -0.049898393 -0.11078773 0.57219297 -0.4432749
000080 80 ab cf 3d fc 89 a1 3c de 74 32 3e 80 82 ac 3e
       0.10140133 0.019719116 0.17427394 0.33693314
000090 ba 23 b0 be b7 44 8a 3f ea e1 6c bf 30 d4 0e be
       -0.34402257 1.080222 -0.9253222 -0.1394813
0000a0 f4 72 91 be f9 aa 73 bd f5 e1 a9 3f 04 6e a6 3d
       -0.28408015 -0.059489224 1.3272082 0.081264526
0000b0 46 38 ca 3e fc 72 cf be 9e c6 5f 3e aa 70 fb 3e
       0.39496058 -0.40517414 0.2185311 0.49109393
0000c0 c1 49 84 3c c5 8c 64 3e a3 6d 1d ba e8 b5 1a 3e
       0.01614845 0.22319324 -0.0006005412 0.15108454
0000d0 21 e1 de 3e ec 16 36 be 18 8e 98 3d 19 48 26 3e
       0.43531135 -0.17782182 0.07448977 0.1623844
0000e0 82 b8 90 3e b1 d6 61 be a8 06 f5 be 0f b9 09 3f
       0.28265768 -0.22054555 -0.4785664 0.53798
0000f0 dd 8c 85 be 24 e0 73 bc b5 b4 fe 3c 6d 31 17 be
       -0.26084033 -0.014884982 0.031092027 -0.14764948
000100 bb b4 2e 3f c0 6c ca 3c 24 a6 b9 bd 99 c0 a0 3e
       0.6824452 0.02471006 -0.09064892 0.3139694
000110 2d 5c be be 43 b8 06 3e 43 1c 02 3f 13 b4 42 bf
       -0.371797 0.13156228 0.50824374 -0.7605602
000120 a9 24 3b 3d 3b 4b 20 3c c8 d3 cb bd dc e5 a7 3e
       0.04568926 0.009783561 -0.099525034 0.32792556
000130 c0 f8 89 be ff ea c5 3e 0a 16 75 3d 99 82 92 be
       -0.26947594 0.3865585 0.05983547 -0.28615263
000140 b2 c9 86 3e 84 6e 01 bf ff f5 3c bf 67 5f 92 bd
       0.26325756 -0.5055926 -0.7381286 -0.07147103
000150 95 a5 d7 bc 1e 23 0a 3f 53 2b ad 3e bc e3 96 3e
       -0.026324073 0.53959835 0.33822116 0.29470623
000160 ee a6 76 3e ce 12 bd 3e fb 5c b4 bd 17 77 40 bf
       0.24087116 0.3692841 -0.08806797 -0.75181717
000170 65 2b 92 bf 65 b5 12 3e a7 10 90 3c 27 5c 35 3e
       -1.1419493 0.14327009 0.017586065 0.17710935
000180 ec d9 e4 3e c8 c3 ee be 6c 65 93 3e e9 ae 06 3e
       0.4469751 -0.46633744 0.28788316 0.1315266
000190 37 47 00 be 75 66 df be bc d2 c8 3e 48 c3 ea bd
       -0.12527166 -0.43632856 0.39223278 -0.11463028
0001a0 5d ab af 3e e9 ea b6 3d e1 ff b4 bb 3e 04 91 3d
       0.34310427 0.08931524 -0.005523667 0.07080887
0001b0 bc f7 f8 bd 20 0b cf 3d 5a 40 0d 3f 22 4a 8c be
       -0.121566266 0.10109544 0.5517632 -0.2740031
0001c0 fa 7d 16 be 7f 1a 1d be 2d 7a bf bc 62 34 6c 3f
       -0.14696494 -0.15342139 -0.023373688 0.9226743
0001d0 4a f2 9b bd fd 8c 1d 3d b5 b3 0a 3e 27 58 a5 bf
       -0.07614572 0.038464535 0.13545115 -1.2917527
0001e0 8b 41 8e be b2 ec c7 bc c0 c2 5b be 84 94 83 3e
       -0.2778438 -0.024404857 -0.2146101 0.25699246
0001f0 98 cc 39 3d 45 67 a9 bf 71 a5 8d 3f 06 b7 1e bc
       0.04536113 -1.323464 1.1066114 -0.009687191
000200 13 6a 9a bd 41 df 30 3f 65 00 49 bf b7 b0 52 be
       -0.07539763 0.6909066 -0.78516227 -0.20575224
000210 13 1b fa 3c 0a 13 e5 3e 63 61 82 3e cf 5c 22 3e
       0.030530488 0.44741088 0.25464925 0.15855716
000220 94 91 9c be 6a d3 ad be b9 c5 54 3d 20 a9 14 be
       -0.30579817 -0.3395036 0.051946376 -0.14517641
000230 b1 87 1c 3e 01 b9 e9 3d de 15 87 3e e8 31 97 3e
       0.15286137 0.1141224 0.2638387 0.29530263
000240 9e 97 72 be 79 50 60 3d 0c 62 d9 3d 5e 1d 21 3e
       -0.2369065 0.054764245 0.10614404 0.15733859
000250 88 99 a3 bf 6a 62 1e bc 27 fb eb 3c 94 25 5a 3c
       -1.2781229 -0.009667018 0.028806282 0.013314623
000260 9d 39 b1 3f 64 6e 36 3e 92 9d aa bd a5 19 3a bd
       1.3845707 0.17815548 -0.083308354 -0.045434613
000270 42 12 03 be c2 06 32 3e 2d 94 06 be b2 84 ab 3e
       -0.12799934 0.1738539 -0.13142462 0.33499676
000280 3e 95 59 bb 9f 97 45 bc d4 7b a3 bd 52 a1 8b be
       -0.0033200528 -0.012060075 -0.07982603 -0.27271515
000290 6e 10 21 be 03 a0 b9 be 32 dc 0c 3e e5 d2 bb 3d
       -0.15728924 -0.36254892 0.13755873 0.09171084
0002a0 6c dd 1a be f7 c8 14 3f 0d e7 10 3f 7c fe da 3d
       -0.15123528 0.5811915 0.56602556 0.1069307
0002b0 bd 89 fb 3c 1c ed 06 bf 8f c6 51 be 18 80 86 be
       0.030705327 -0.5270555 -0.204859 -0.26269603
0002c0 c1 7e 4f 3e a2 5c 27 3e a9 77 0d 3f b3 9a 08 bf
       0.20263197 0.1634393 0.5526071 -0.5336105
0002d0 d8 bd 84 be 40 6c 05 3d bc 4d ea 3d d9 e6 4f bf
       -0.2592609 0.03257394 0.11440608 -0.8121162
0002e0 f2 3a bb 3e 0b 65 41 3e 6e f4 4a 3e 4e c7 cb be
       0.3656841 0.18886201 0.19819805 -0.39800495
0002f0 02 31 3c be 3e 21 66 3e 6e 7f 84 3f b3 75 db 3e
       -0.1837807 0.22473618 1.0351388 0.42863235
000300 65 a7 20 3f 80 79 e6 bc d7 81 67 bc 17 17 e2 3d
       0.62755424 -0.028134108 -0.014130077 0.1103956
000310 af 28 78 3e d2 b4 91 3e c1 f6 b0 be 49 7b c4 3e
       0.2423427 0.28458267 -0.34563258 0.3837531
000320 48 18 97 bd 1b 71 8c 3e d0 8d 74 3e cd 8d 51 3f
       -0.07377678 0.27430043 0.23882222 0.81856996
000330 ff 11 9a 3d 78 ee db bc 2d ae c4 be 26 2e cf be
       0.07522964 -0.02684711 -0.38414136 -0.40464896
000340 68 e8 5b be e1 3c 44 bc 24 78 24 3c 8c b1 ab bd
       -0.21475375 -0.011977405 0.010038409 -0.08383474
000350 04 82 90 3e 77 25 ce bd 8f e0 a0 3e 9d 56 e1 3b
       0.28224194 -0.100657396 0.31421325 0.00687678
000360 2f f0 39 bc 35 28 97 3d a5 35 dd bd 53 45 59 be
       -0.011348768 0.07380716 -0.108012475 -0.21217851
000370 04 99 bd bd d5 ed 5b bc 05 3a 11 3e be 43 6b 3e
       -0.09257701 -0.013423403 0.14182289 0.2297506
000380 6e 55 23 40 43 d8 3e bf 01 95 4f 3c d2 13 6a bd
       2.5520892 -0.7454874 0.012669803 -0.05714781
000390 5c 1a 32 bf 2c a6 83 3f 48 15 0a 3d f7 b6 5e be
       -0.6957147 1.0285087 0.0337117 -0.21749483
0003a0 49 26 ce 3e 42 d8 6d be 51 6e 04 bf a9 81 11 3f
       0.40263584 -0.23227027 -0.5173083 0.5683847
0003b0 52 b6 7c bc c7 48 9e 3d 3f c0 04 bd 29 b1 46 be
       -0.015424328 0.07728725 -0.032409903 -0.19403519
0003c0 1c d1 47 be 88 25 9f bd d9 ab c5 3e e0 08 b4 be
       -0.19513363 -0.077708304 0.38607672 -0.3516302
0003d0 f8 18 82 be 82 5f b6 be 8d 49 a4 3e bd 8a 97 be
       -0.25409675 -0.35619742 0.32087365 -0.29598036
0003e0 d5 ef c4 3d ee ec b2 bb 87 a9 8f 3d 06 67 c1 be
       0.09616057 -0.005460373 0.07014757 -0.37773913
0003f0 eb c7 90 be 06 a2 de 3e d9 07 01 bf 8b 5b 24 3e
       -0.28277525 0.4348299 -0.504026 0.16050546

bias f4 [256]
000000 e2 39 98 3d ca 66 46 be af da 4d be 1a 3f b5 3e
       0.07432915 -0.19375148 -0.20102952 0.35399705
000010 35 42 2b 3e 3c cc f9 3d 29 a4 85 3e 52 62 a9 be
       0.16724475 0.12197158 0.26101807 -0.33082825
000020 9b 85 33 3e 42 36 34 3e 45 a8 a9 be 2d 22 a0 be
       0.17531435 0.17598823 -0.33136192 -0.31276074
000030 f2 15 66 3e 76 c3 5d 3d 41 d1 b2 be c8 da 12 3e
       0.22469309 0.054141484 -0.34925273 0.14341271
000040 c2 75 e8 3e dc 1d 04 bd 4d 89 b3 3d 8c 96 92 be
       0.45402342 -0.03225504 0.087664224 -0.28630483
000050 73 68 49 3e 09 fc b8 3e df 79 32 bd 79 b4 86 3e
       0.1966875 0.36129788 -0.043573257 0.26309565
000060 1c c5 a0 3e 44 eb d6 bd aa c4 6b 3e 0e 5c 91 3e
       0.31400383 -0.10494092 0.2302424 0.28390545
000070 4c eb 6c 3d 99 44 a4 be 63 40 b3 3d 7e 02 68 3e
       0.057841584 -0.32083586 0.08752515 0.226572
000080 ca 30 97 3e f4 55 b2 3c fd 8b 2d be ad c4 00 3e
       0.2952941 0.021769501 -0.16947933 0.12575026
000090 bb 8c 86 be c1 3b 5d 3d 2a fd a9 3d 74 bc b0 3e
       -0.26279244 0.054012064 0.0830024 0.34518778
0000a0 e6 88 0a be 15 af e3 3e e2 e9 6c bd df cf f3 3d
       -0.13528785 0.44469514 -0.057840236 0.11904883
0000b0 e9 f0 21 be e9 75 eb bd 11 c0 3b 3c 92 3f 75 be
       -0.15814556 -0.11497099 0.011459366 -0.23950031
0000c0 35 76 94 3e a5 e6 33 3e ed 13 87 be 0a d3 26 3e
       0.28996435 0.17568453 -0.2638239 0.16291443
0000d0 7c 13 2a 3e 95 c2 8a 3e b2 8b 97 be 3d 3f ed 3e
       0.16608995 0.2710158 -0.29598767 0.4633731
0000e0 06 82 00 3e 72 d1 e6 3e 7c 0f bc be 6f 55 9a 3e
       0.125496 0.4508167 -0.36730564 0.30143306
0000f0 e6 59 c1 be 62 cb 8d 3d db bd d3 3b 28 3f cb be
       -0.377639 0.06923558 0.0064618415 -0.39696622
000100 f4 10 a9 be 39 02 8d 3e 6c e9 83 3e 0d 6b 35 3d
       -0.33020747 0.27540758 0.25764024 0.044291545
000110 6b 5c 1f be 1b 34 cb 3c 5f aa a7 be aa 68 00 be
       -0.15562598 0.02480512 -0.3274717 -0.12539926
000120 57 5e a7 be d3 0d e7 3e a9 ea 6b be 6b 77 d5 3e
       -0.32689163 0.45127735 -0.23038734 0.4169267
000130 07 45 25 3f d4 36 88 3d 77 df 4f be 46 9e 1a bd
       0.6455845 0.06651083 -0.20300089 -0.037748598
000140 ae 79 2f 3e 60 77 89 be 7f cf d0 3e 89 02 7e 3e
       0.17136261 -0.26848888 0.40783307 0.24805655
000150 67 66 31 bd 56 32 d3 3e 70 dc bc 3e f7 cc 9a 3e
       -0.04331055 0.4124934 0.3688693 0.302345
000160 cd 9d 6d 3e fe 56 5f be 4d 29 0c 3e 69 bf 3e be
       0.23204727 -0.21810529 0.1368763 -0.18627705
000170 15 c1 89 be 2c 99 b6 3c 31 d8 85 3e c2 06 0b 3e
       -0.26905122 0.022289835 0.26141503 0.13576797
000180 fd 07 a9 3e e7 c9 9d be af 47 8d bb 1a 30 b9 be
       0.33013907 -0.30818102 -0.004311524 -0.3616951
000190 f6 77 85 be 75 c2 f6 bd 0d 8a 92 3e 70 e7 c3 3e
       -0.26068085 -0.120488085 0.2862095 0.3826251
0001a0 36 6f 97 3e 6b 26 9c 3e 7c f3 b0 3e 4c ca c4 be
       0.29577035 0.3049806 0.34560764 -0.3843559
0001b0 84 1e 55 be 24 65 e2 bd a3 79 9b be ea c3 96 be
       -0.20812422 -0.11054447 -0.3036624 -0.29446346
0001c0 f5 f5 97 3e c8 94 aa 3d 18 09 92 3e a2 06 29 3e
       0.29679838 0.08329159 0.28522563 0.16506436
0001d0 91 4e 23 be a9 43 6e 3e 04 d6 96 bc 33 99 b2 3e
       -0.1594794 0.23267998 -0.018412597 0.34882507
0001e0 60 48 97 3e f9 0e 8a be 52 00 8c 3e a8 70 37 be
       0.29547405 -0.26964548 0.27343994 -0.17914069
0001f0 aa eb 03 3e f7 34 07 bb 03 bc 31 3e a2 7c 80 3e
       0.12882867 -0.0020630935 0.17356877 0.25095087
000200 ed 3d 80 be 00 7e b2 bd 76 3a 51 be 33 8c 86 be
       -0.25047246 -0.08715439 -0.20432457 -0.2627884
000210 c1 55 9f 3b 85 ef 81 3e 7b 39 ca be 0e 60 bb bd
       0.0048625176 0.2537805 -0.3949698 -0.0914918
000220 b6 f9 a0 be 39 41 6c be 23 69 6f bd 0a 27 48 be
       -0.31440514 -0.23071755 -0.058449876 -0.19546142
000230 00 43 e1 3e 53 34 a4 3d 64 a2 0a 3e 69 a0 c4 3e
       0.4399643 0.080177926 0.1353851 0.38403633
000240 cb 70 c1 be a4 53 44 be 9f d6 98 3e af 2e c2 3e
       -0.37781367 -0.19172531 0.29851243 0.37926242
000250 7e 27 55 3e ab 8f 6c 3e 7a 05 96 3e eb f3 29 be
       0.20815846 0.2310168 0.29301053 -0.16596954
000260 22 1d 1b bb 58 a5 87 be 57 bf 1b 3e b8 1f 54 be
       -0.0023668488 -0.26493335 0.15209709 -0.20715225
000270 0b 66 85 3e 9a 01 b3 3e 05 c5 34 be 1b 10 33 3e
       0.26054415 0.3496216 -0.17653282 0.17486612
000280 10 a4 a8 be 6a 33 58 be cb b6 01 3e bd 08 43 bb
       -0.3293767 -0.21113363 0.12667386 -0.0029759847
000290 8b 56 25 3e df ab 98 bb 03 8f 8e be 40 99 1c 3f
       0.16146295 -0.0046591605 -0.27843484 0.6117134
0002a0 4e be eb 3d 54 ae 91 3e 7f 3d c1 bd 35 d1 7f 3e
       0.11510907 0.28453314 -0.094355576 0.2498215
0002b0 04 98 83 3e 6f 99 25 3f a6 fb 12 be 43 72 e2 3b
       0.25701916 0.64687246 -0.14353809 0.0069105937
0002c0 23 e3 72 3e fb 92 d9 bd ab 83 0f 3e b2 46 7e be
       0.23719458 -0.106237374 0.14015071 -0.24831656
0002d0 74 cc 80 be c4 fc 1d 3e f6 ab e8 3d 2d 69 94 3d
       -0.25155985 0.15428454 0.11360924 0.07246623
0002e0 77 b1 0c be 50 39 bf 3e fc 44 ce be af 85 70 bc
       -0.13739572 0.37348413 -0.40287006 -0.01468031
0002f0 e8 21 42 be cb 89 be be 93 e4 b7 be 2e d4 ab 3e
       -0.18958247 -0.37214503 -0.35916576 0.33560318
000300 68 82 91 bd 66 0e 9e be 20 40 c8 3d 62 12 1f 3e
       -0.07104951 -0.3087036 0.09777856 0.15534356
000310 cc 2b 1f 3e 2d 26 47 be 3d 58 df bd 12 09 6b 3e
       0.15544051 -0.19448157 -0.10905502 0.22952679
000320 16 0b c5 3e 39 9b 10 be bd 24 c4 3e 52 16 ab 3e
       0.3848502 -0.14121713 0.3830928 0.33415467
000330 92 4b 1b 3e 8c 7b ae 3e 58 35 1c be e1 e9 0e be
       0.15165547 0.34078634 -0.15254724 -0.13956405
000340 03 eb 3e bf ee a9 6c 3e e2 38 88 3e 73 cf 2b 3e
       -0.7457735 0.23111698 0.26605898 0.16778354
000350 4e b9 0e be 32 56 11 be 2c 89 03 3e ab ca f2 bb
       -0.13937876 -0.14193037 0.12845296 -0.007409414
000360 63 4a 7f 3e 42 09 3d bf c5 da c0 be 21 03 4a 3e
       0.2493072 -0.7384225 -0.37666908 0.19727756
000370 97 07 91 bd 2b be b2 3e 2b 7d 33 bd 62 1d 94 be
       -0.07081526 0.34910712 -0.04382054 -0.28928667
000380 19 d9 7b 3c 55 3b 77 be 05 7e 52 3f 82 9c 0d 3e
       0.015371584 -0.24143727 0.8222354 0.13829234
000390 22 b7 b8 bd b9 e8 9a 3e 13 16 4f be 06 f3 cd be
       -0.09019305 0.30255678 -0.20223264 -0.40224475
0003a0 39 07 90 3d 48 7d c4 be 8e 72 06 be 19 4e a4 be
       0.070326276 -0.38376832 -0.13129637 -0.32090834
0003b0 c4 be bf be be 21 72 3e ca d0 29 3e f1 fd 68 be
       -0.3745023 0.23645684 0.16583553 -0.22753121
0003c0 77 d7 40 be e7 35 dd be b8 49 71 be 20 fa 54 be
       -0.18832193 -0.43205187 -0.23563278 -0.2079854
0003d0 65 ce a9 be 1d 0e 88 3e eb 29 4b bd aa 99 9e be
       -0.3316528 0.26573268 -0.049600523 -0.3097661
0003e0 f0 7c e6 bd 47 3c 1e 3e 8a b1 b7 be b9 4a 77 3d
       -0.11254299 0.15452681 -0.3587764 0.060373995
0003f0 e4 24 2d 3e ab c4 c4 be e0 ff 95 3e 3f 3d 9d 3e
       0.16908604 -0.38431296 0.2929678 0.3071079
