data/PrioritizedDDPG/InvertedDoublePendulum-v2/prioritized_ddpg_s26646/pyt_save/model.pt (torch_old, 558651 bytes, 10 tensors)

weight f4 [256, 11]
000000 c4 f2 a3 3e e0 5e 22 c0 7f 7a 31 40 f3 d5 9c be
       0.32021153 -2.5370407 2.7731016 -0.3063198
000010 ad b1 06 bf ec 9c 98 be 33 36 11 be 99 3b f9 bd
       -0.5261486 -0.29807222 -0.14180832 -0.121695705
000020 71 d1 56 bd 3e 68 83 be d4 ce 93 bd 04 34 54 3f
       -0.052445833 -0.25665468 -0.07217184 0.8289187
000030 5a ad 07 40 dd 53 3b 40 c2 91 4a 3e 94 7d 2a 3f
       2.1199555 2.9269936 0.19782165 0.66597867
000040 a5 fd 0f 3f a0 57 7a 3f 44 8d a5 3e 0e 20 73 bf
       0.56246406 0.97789955 0.3233434 -0.94970787
000050 c3 1b 32 be 30 22 d5 bc c7 14 48 bf 01 4d 40 bf
       -0.17393403 -0.026017278 -0.78156704 -0.751175
000060 90 7b ab c0 87 7b fe bd a6 75 04 bf f1 18 c3 be
       -5.3588333 -0.12425905 -0.5174202 -0.38104966
000070 6f b7 5e bf e0 28 28 bf 87 c4 fc 3e 99 39 73 be
       -0.8699865 -0.6568737 0.49368688 -0.2375244
000080 2c 5f 91 3e 94 e0 3a 3e d5 48 64 be 86 14 23 3e
       0.28392923 0.18249732 -0.22293408 0.15925798
000090 dd bd 19 bf e9 f5 20 bf 09 7c d9 3d 28 e2 50 3b
       -0.60055333 -0.6287523 0.10619361 0.003187308
0000a0 5d f7 17 bc b5 c8 ba 3d 70 72 15 3e bd c3 44 be
       -0.009275285 0.09120313 0.14594436 -0.19215293
0000b0 b5 20 03 3f da 02 03 40 68 93 98 c0 64 8b d3 bf
       0.5122178 2.047049 -4.767994 -1.6526914
0000c0 71 13 14 c0 c9 da 00 3e 35 ac 93 bf 0f 8e c7 bf
       -2.3136866 0.1258346 -1.1536928 -1.5590228
0000d0 1a d8 e1 be 00 d6 cd bc 9c 33 67 3e 2b b7 3c 3e
       -0.44110185 -0.025126457 0.22578281 0.18429248
0000e0 83 9b 1c 40 38 e2 1a 40 03 b8 23 c0 38 cc 2c c0
       2.4469917 2.4200573 -2.5581062 -2.6999645
0000f0 29 5e 9e bd 56 ff da 3e 77 26 09 bf c2 5a 65 be
       -0.077328034 0.4277293 -0.5357432 -0.22397903
000100 a6 fa d0 bd 9c 39 ee 3d 56 8a 11 bf 03 60 12 c0
       -0.102040574 0.11632082 -0.5685171 -2.28711
000110 c7 bc 0d be c2 dd cf bf 1f a4 ad bf 02 d6 5a bf
       -0.13841544 -1.623955 -1.3565711 -0.854828
000120 d4 3d 04 bf 0f 86 7e 3d fa 3f ac 3e f0 35 fb 3d
       -0.5165684 0.062139567 0.3364256 0.12266147
000130 08 c4 b2 bd 53 6b 31 3d 52 90 a4 c0 63 24 98 40
       -0.08728796 0.043315243 -5.142617 4.7544417
000140 c9 b2 a3 bf e2 2f bc bf f2 83 72 3d 25 d7 60 be
       -1.2788936 -1.4702113 0.059207864 -0.21957071
000150 d0 99 0b 3f 8e 47 ce 3e d8 73 9d bd e0 fa 64 3c
       0.54531574 0.40288967 -0.07688111 0.013975829
000160 3f 7a 9a be ba b5 44 40 b7 e2 80 c0 b4 d7 92 bf
       -0.3017139 3.0735917 -4.027675 -1.1472077
000170 50 bc 53 bf e2 9d d6 bd 91 8c 99 be db fe 33 bf
       -0.8270922 -0.104793325 -0.29990056 -0.70310754
000180 08 e1 09 3e 88 ae 94 bd 50 0f 7b 3e c8 d2 6d be
       0.13464749 -0.07259852 0.2451756 -0.23224938
000190 73 a7 d5 bd f3 c4 6b c0 c1 65 8f bf bb 18 8a bf
       -0.10432329 -3.6838958 -1.1202928 -1.0788797
0001a0 07 68 5c bd b2 c9 79 be 66 94 c4 bd 68 4f b5 3e
       -0.053810146 -0.24393347 -0.09598617 0.35412145
0001b0 3a 8c 87 3e 90 89 1a bd d5 eb bf be 43 d9 2c bf
       0.26474172 -0.037728846 -0.37484613 -0.67519015
0001c0 c1 60 26 3f 2d ba 22 bf 42 d5 4c be 43 28 28 3e
       0.64991385 -0.6356533 -0.20003226 0.16421609
0001d0 e0 18 da 3d bd 06 2c bd 6d 21 aa 3c 40 1f 0a bd
       0.10649276 -0.041998614 0.020767892 -0.03372121
0001e0 70 bb 8d be cf c0 cf 3f 18 43 2d c0 69 93 3a c0
       -0.27682066 1.6230716 -2.70722 -2.9152472
0001f0 43 c6 56 3f b9 51 54 3f 0c c8 9c 3e 14 c1 52 bf
       0.83896273 0.829372 0.30621374 -0.82325864
000200 84 01 f9 be 6f 77 67 be 7e 1b 54 be 02 03 f4 bd
       -0.4863397 -0.22604154 -0.20713612 -0.11914636
000210 92 50 d8 be b4 c9 9f 40 a2 75 d2 bf 4c 2a fa 3e
       -0.4224897 4.993372 -1.6442149 0.48860395
000220 c8 58 1b 3f 3a 41 8d 3e 1d e6 1e 3f d4 9e 6f bf
       0.60682344 0.27588826 0.62069875 -0.9360173
000230 67 18 57 3f 40 91 70 bc f4 6e d1 3d af be 19 40
       0.8402161 -0.014683068 0.10226241 2.4022634
000240 2a 2a 08 40 14 0c e4 bf 3e b1 5e bd 57 c5 1e bf
       2.1275735 -1.7816186 -0.05436825 -0.62019867
000250 4d 59 64 3e 55 74 f2 3d 24 85 3e 3e 52 00 bb 3e
       0.2229969 0.11838595 0.18605477 0.36523682
000260 ce 67 81 be 50 01 72 3e 3b cf e8 be 0f 8d 11 40
       -0.2527451 0.23633313 -0.45470604 2.2742345
000270 8a 4f 05 c0 2d 16 aa be c3 64 43 bf 90 49 ab bc
       -2.0829797 -0.33220044 -0.76325625 -0.0209091
000280 de bc b7 bd b3 a1 14 3e 32 09 92 3e 30 1d f4 3d
       -0.089715704 0.14514808 0.2852264 0.119196296
000290 54 a5 cb bd 63 2a 86 bf 63 72 56 c0 bc 29 30 c0
       -0.09943643 -1.0481685 -3.3507316 -2.7525473
0002a0 27 65 57 bf 40 09 06 bf af 25 58 bf 22 5e b8 bf
       -0.8413872 -0.52357864 -0.844325 -1.4403727
0002b0 0e 46 7d bf e5 54 ab be 38 9b 77 bd 80 e1 62 3b
       -0.9893502 -0.33463207 -0.060450763 0.0034619272
0002c0 f6 bb a1 3f c3 80 81 3e 89 4a da bf 0c 15 2b bf
       1.2635486 0.2529355 -1.7053996 -0.6682899
0002d0 b9 2b 98 bf 23 1c ab be a1 b4 75 3f 69 43 9e 3f
       -1.1888343 -0.33419904 0.9597874 1.2364322
0002e0 02 e3 83 3e a1 55 31 be 78 27 8b bd c0 49 a6 3f
       0.2575913 -0.17317821 -0.067946374 1.2991257
0002f0 d3 4f 86 3e 30 0c 8f 40 31 67 bd bf 0f 3a f2 bf
       0.26232776 4.4702377 -1.4797117 -1.8923968
000300 5a 3d e0 3c 1e f9 1b 3f da b5 69 bf 74 9f 4c bd
       0.027373005 0.60927 -0.9129311 -0.049956754
000310 2c 17 74 3e 1c 88 4f 3e cc 04 37 3f af 16 a9 3e
       0.23836964 0.20266765 0.71491694 0.3302512
000320 65 d3 12 be 0b 9f 8d bf 61 68 a8 bf ef 34 1c 3f
       -0.14338453 -1.1064161 -1.3156854 0.6101827
000330 21 77 9a bf 0b 59 c1 bf 56 1e 95 3e a0 c2 a5 3d
       -1.2067605 -1.5105299 0.29124707 0.080937624
000340 1c a1 69 be 3b f0 1e bf b2 56 40 40 2b c2 a9 c0
       -0.22815365 -0.6208531 3.0052915 -5.304952
000350 86 75 83 bf 88 8c ad bf d8 8f b5 bc 41 a7 1d 3f
       -1.027024 -1.3558512 -0.022163317 0.61583334
000360 41 2a aa 3b 93 9e 88 3c 54 78 f4 3d 60 17 95 3e
       0.0051930253 0.016677177 0.11937013 0.29119396
000370 1f 62 02 bf a9 8c 4f c0 b5 12 19 bc 3b 17 f4 be
       -0.5093097 -3.2429602 -0.009342839 -0.47673973
000380 10 4b 25 bf 44 50 7c 3c 88 3c 0f bf 18 cf 27 3f
       -0.6456766 0.015399996 -0.5595174 0.65550375
000390 7d e2 bc 3b 40 6e d7 bb c8 f0 86 3d 98 97 10 be
       0.005764304 -0.006574422 0.06588894 -0.14120328
0003a0 c8 c8 4b bf 60 13 8c c0 9c bf ac 3d 3a a8 34 3e
       -0.7960324 -4.377365 0.08434984 0.17642298
0003b0 90 00 91 be 36 d9 24 bf 84 df 00 bf 6d e3 b4 3e
       -0.28320742 -0.6439394 -0.5034106 0.35329762
0003c0 8e 6b 95 3e c4 74 6a 3e f1 44 0a bf a6 d2 a1 c0
       0.2918362 0.22896105 -0.54011446 -5.056964
0003d0 be d2 09 be 10 09 71 3e 36 f5 ae ba 16 c2 d9 be
       -0.13459298 0.23538613 -0.0013348225 -0.42530888
0003e0 fc 8c 33 bf 52 4a 70 3e 59 5e 05 bf 0b 60 8c be
       -0.70137 0.23465851 -0.5209709 -0.27417025
0003f0 e0 66 e4 bc eb 0d b5 3e b0 34 93 3f 7b 54 7f c0
       -0.027881086 0.3536218 1.1500454 -3.9895313

bias f4 [256]
000000 f0 40 1d bf b1 e8 bd 3e a1 63 f8 be a6 3a 46 be
       -0.6142721 0.37091592 -0.4851351 -0.1935831
000010 13 1b ac bf 1e 34 27 c0 0f 1e b9 bf e0 06 70 bf
       -1.3445762 -2.612556 -1.4462298 -0.9376049
000020 45 58 18 bf 4a f1 91 bf f4 4c b4 be 50 53 ae 3e
       -0.5950969 -1.140176 -0.3521496 0.34047937
000030 d1 9a 0a 3e 6a f9 3b bf 7c a5 a2 be bd c6 21 bf
       0.1353562 -0.7342745 -0.3176688 -0.63193876
000040 88 2f 43 bf 18 13 a3 bf f7 45 48 bf 4c 8d 6c bf
       -0.762444 -1.2740202 -0.7823176 -0.924031
000050 cc 05 ef be 59 d9 11 be 19 99 91 3d ff f7 1b bf
       -0.4668411 -0.14243068 0.07109279 -0.60925287
000060 20 95 d5 bf 63 99 17 bf 94 2c 3c be b9 3c ee bf
       -1.6686134 -0.59218425 -0.1837638 -1.8612281
000070 6b 14 a2 be c0 a0 1e bf 44 fb 20 be ba dd 5b bf
       -0.31656203 -0.61964035 -0.1572085 -0.858852
000080 b5 5f 08 bf 22 05 6f be 1c d2 2a bf 4c a2 53 bf
       -0.5327104 -0.23341802 -0.6672685 -0.8266952
000090 91 b8 d3 bf 43 c9 b7 bf 73 0f 26 bf b2 d0 2d bf
       -1.65407 -1.4358295 -0.64867324 -0.6789657
0000a0 07 40 a1 bf 21 cf c1 bf 78 b2 72 be ea 2d 2a bf
       -1.2597665 -1.5141336 -0.23700893 -0.6647631
0000b0 00 6c ad bf 88 fc 4b bf 53 17 72 3b 5a d3 ae 3e
       -1.3548584 -0.7968221 0.0036940172 0.34145623
0000c0 50 c2 42 3e 53 19 e3 be 6b 0f 46 bf 93 4f 1b bf
       0.19019437 -0.44355258 -0.77367276 -0.60668296
0000d0 a5 49 a7 be 03 92 fc be 4b 57 19 bf a4 86 a1 be
       -0.32673374 -0.49330148 -0.59898823 -0.31548035
0000e0 6b 5f 02 bf b5 06 4b bd fa 79 8b bf f3 d8 15 c0
       -0.50926846 -0.049566943 -1.0896599 -2.3413665
0000f0 bd 08 e8 be da d7 5a be 1b 5c 47 be 72 e5 c1 bf
       -0.45319167 -0.21371403 -0.19468729 -1.5148146
000100 c8 4e 2d bf 76 20 d8 bf f6 56 1e be de fb b8 bf
       -0.67698336 -1.6884906 -0.1546286 -1.4451864
000110 4d ea cd be 8e d8 20 3d d7 a8 e5 3d a5 d5 31 bf
       -0.4021782 0.039269023 0.11213844 -0.6946662
000120 26 b9 26 bf 88 6b a9 bf db 48 5b 3d 7d 9c 0b bf
       -0.65126264 -1.3235941 0.053536277 -0.5453566
000130 7c dd d6 bd d5 e3 4d bf df b5 b6 bf af 81 90 bf
       -0.104914635 -0.8042577 -1.4274253 -1.1289576
000140 71 dd 17 bf 39 a6 68 bf 27 b8 b7 3e cd 24 08 40
       -0.5932227 -0.90878636 0.35882685 2.1272461
000150 b9 97 62 be 91 f9 0e be 32 e4 9a be e5 cd bb bf
       -0.2212819 -0.1396239 -0.30252224 -1.4672209
000160 22 c8 65 bf 25 e2 3b bf 08 a9 1e be a0 e9 52 bf
       -0.89758503 -0.73391944 -0.15494168 -0.82387733
000170 9e 28 5f bf b5 61 da bf 55 00 31 bf 54 8e 14 c0
       -0.8717135 -1.7061068 -0.6914113 -2.321187
000180 c7 b5 d6 be b0 81 41 bf a5 3e b4 bf 1c cb 8b bf
       -0.4193556 -0.7558851 -1.4081618 -1.0921359
000190 88 35 88 bf 97 31 c3 bf f2 b1 28 bf f2 d0 b4 bf
       -1.0641336 -1.5249509 -0.65896523 -1.4126265
0001a0 02 5d a9 bd 43 39 02 bd e3 91 bb bf 17 e8 ff bf
       -0.08269693 -0.03179289 -1.4653896 -1.9992703
0001b0 5a 8c 23 bf 07 e1 22 3f da e1 f8 be e9 bd d7 bf
       -0.63886034 0.63624614 -0.4860981 -1.6854831
0001c0 b8 5b 2e 3d 47 38 80 bf 3a 9f 12 bf 51 e3 40 3e
       0.04256794 -1.0017174 -0.5727421 0.18836714
0001d0 e1 1a d3 3c 9c e1 1e bf 50 d6 9c bf 1e 4a f3 be
       0.025769653 -0.62063 -1.2252903 -0.47517484
0001e0 39 3b 6d 3e 52 5c cd be f9 be bc be 9b dd 41 bf
       0.23167123 -0.40109497 -0.3686445 -0.7572877
0001f0 de 5c 00 c0 25 41 b9 bf 0a ff 31 bf 3f 41 7f be
       -2.0056682 -1.4473006 -0.69529784 -0.24927233
000200 1f 2d d3 be 6d ee fc bd 65 84 8e be fd d9 0c be
       -0.41245362 -0.123501636 -0.27835384 -0.13755031
000210 e3 64 c0 bf f1 a8 79 be 56 50 81 bf ed 74 22 bf
       -1.5030788 -0.24380852 -1.0102642 -0.63459665
000220 c2 0d 01 bf 8c 27 81 be c4 d8 07 3e b4 23 91 bf
       -0.5041162 -0.25225484 0.13266283 -1.1339021
000230 ae e6 24 c0 8e 56 e4 bd 14 77 8d be c0 5b d0 bf
       -2.5765796 -0.111493215 -0.27629912 -1.6278
000240 3d c4 ae be 70 02 ce be 6d 4d 41 bf 54 ff 7d 3d
       -0.34134093 -0.40236235 -0.7550877 0.062011078
000250 19 15 b8 bf 1f 87 55 3e aa b4 c6 bf 71 0f 36 bf
       -1.4381438 0.20852326 -1.5523884 -0.7111731
000260 b7 9e 25 be 99 85 78 bf e5 28 16 bf dc dd 5a be
       -0.16173826 -0.97078854 -0.5865615 -0.21373695
000270 40 00 5e c0 8b 0a 5a bf a1 32 a6 bf 74 22 0f bf
       -3.4687653 -0.8517234 -1.2984201 -0.55911946
000280 00 b4 96 bf b8 ec 07 bf 76 00 a2 bf 7e cb 1e be
       -1.1773682 -0.5309558 -1.2656391 -0.15507314
000290 44 66 cf 3f 50 d6 6b bf f3 87 ec 3d 35 1a ba be
       1.6203084 -0.9212389 0.11549368 -0.3634812
0002a0 7f 0b de bf 05 b3 cb 3d e3 32 76 bf 03 2c 48 3e
       -1.7347258 0.09946255 -0.96171397 0.19548039
0002b0 b0 00 87 3f cd da de bf a3 8e f8 be 43 f3 9a bf
       1.0547085 -1.7410523 -0.48546323 -1.2105488
0002c0 05 cf 92 bf 0c 79 ac bf b1 b4 f6 bd b8 84 80 bf
       -1.1469427 -1.347444 -0.12046183 -1.0040503
0002d0 bd 82 db be 6b 86 8e bf 47 b6 7d bf 41 1b 25 bf
       -0.42873183 -1.1134771 -0.9910626 -0.6449471
0002e0 43 09 b4 bf bf 29 89 be 03 d0 45 bf 42 e3 1e bf
       -1.4065326 -0.26789662 -0.77270526 -0.6206552
0002f0 ed d6 0d bf e9 f2 c4 bf ce e7 48 be 04 2e 9d bf
       -0.55406076 -1.538663 -0.19619676 -1.2279668
000300 3e 39 38 be f5 64 16 bf d3 c3 5a bf bf 52 f3 be
       -0.17990586 -0.587478 -0.85455054 -0.47524068
000310 bb e8 68 bf 85 cf f2 be a1 ba 56 bf c6 f0 92 3d
       -0.9098012 -0.4742395 -0.83878523 0.0717483
000320 3a e1 d8 bf ba 95 5e c0 a8 fd bd bf 67 30 49 bd
       -1.6943734 -3.4778886 -1.4843035 -0.049118426
000330 44 36 80 bf 15 a2 05 c0 14 55 3e bf 2a 57 68 bf
       -1.001656 -2.0880177 -0.7434857 -0.90758
000340 f4 0e 7a be 24 1a fc be a3 08 47 bf 14 40 31 bf
       -0.24419767 -0.49238694 -0.77747554 -0.692384
000350 e7 16 4a bf 2c e3 78 bf ed d3 60 bf 9d 74 42 bf
       -0.78941196 -0.97221637 -0.87823373 -0.7595919
000360 d5 04 1e be 2d a7 e2 be 42 02 1f bf 46 bb 0f c0
       -0.15431531 -0.4426817 -0.6211282 -2.2458053
000370 71 ac aa be 5c 41 92 bf cb 75 75 bf 5a f9 75 bf
       -0.33334687 -1.1426196 -0.9588286 -0.96083605
000380 c3 92 05 bf 98 c5 8f bf f5 3b de bc 94 5a 5d bd
       -0.52177066 -1.1232176 -0.0271282 -0.05404146
000390 5c 49 60 c0 81 cc e4 be 51 d7 64 bf 18 1e 98 be
       -3.5044775 -0.44687274 -0.89391047 -0.2971046
0003a0 55 c6 12 bf d4 38 2b bf 86 d1 03 bf 64 7c c5 bf
       -0.5733388 -0.6688359 -0.5149158 -1.5428586
0003b0 19 ce 24 bf 41 df a1 bf 72 79 53 bf db a4 5a bf
       -0.6437698 -1.2646257 -0.82607186 -0.854078
0003c0 1c 3a 96 be e0 38 85 be 52 14 46 bf 35 99 9c bf
       -0.2934121 -0.26019955 -0.77374756 -1.2234255
0003d0 25 26 96 bf c2 d9 8f be fa b6 b3 bf f0 76 ad bd
       -1.1730391 -0.28095824 -1.4040215 -0.08469951
0003e0 42 ad f0 3e 22 20 0b bf 2b 51 23 bf 54 f2 9f bf
       0.47007185 -0.54345906 -0.6379573 -1.2495828
0003f0 4f e8 d5 be f7 4f 30 bf e9 5d f4 bf fb 3d 0b bf
       -0.417788 -0.68872017 -1.9091159 -0.5439145

weight f4 [256, 256]
000000 b5 74 74 3e fc 33 9f 3d f1 70 f7 bf e8 3c 55 be
       0.23872645 0.07773587 -1.9331342 -0.20824015
000010 97 a9 a3 bd 1e 84 17 bf 9c 38 39 3f f3 55 c8 be
       -0.07991331 -0.5918597 0.72352004 -0.39128074
000020 33 2e c8 bb 85 67 e2 bd 54 e3 67 3e db 93 cb bf
       -0.006109023 -0.11054901 0.22645313 -1.5904497
000030 4c 35 49 bf b9 69 d6 be 9f dc 43 be 4a c8 69 be
       -0.7859695 -0.41877535 -0.19127129 -0.2283031
000040 6c f3 27 be 18 75 0d bf e8 ed 85 bd f5 e7 ac 3d
       -0.16401452 -0.55256796 -0.06539518 0.0844268
000050 4c ec bb be a9 6c 7d bf de 11 05 c0 9b fe 16 be
       -0.36703718 -0.9899393 -2.0792155 -0.14745562
000060 b4 41 83 be 82 4b 3e bf 05 98 cd bd ff 97 81 bc
       -0.25636065 -0.74333966 -0.10038761 -0.015819548
000070 f3 c6 f8 ba 28 af 59 be e4 2b 82 c0 2a 9b b4 be
       -0.001898019 -0.21258223 -4.0678577 -0.3527463
000080 ef 80 57 bd f5 0c ae 3e cd 7c 6a be ed 4b 97 bd
       -0.052613195 0.3399426 -0.2289917 -0.073875286
000090 59 2f 0b 3e be 89 e2 be 8f 1e 92 bd 18 44 05 3f
       0.1359228 -0.44245714 -0.07134735 0.5205703
0000a0 99 2c cb bd 80 ea 80 3f a6 eb 6b 3e fa f0 f2 3e
       -0.09920616 1.0071564 0.23039111 0.47449476
0000b0 95 60 d1 3e 8d b3 10 bf 3e 50 ac bd 48 cc 9e bf
       0.40894 -0.5652397 -0.084137425 -1.2406092
0000c0 fd e8 f8 bf 35 b9 5d bf 7b 04 12 be ef 82 64 3e
       -1.9446102 -0.8661073 -0.14259522 0.22315572
0000d0 0b 0d 70 bf 8b cc ed 3e da a4 a1 be 15 e8 32 bf
       -0.937699 0.46445116 -0.31571084 -0.6988538
0000e0 d2 2c 11 3e 05 fb 08 c0 0e c7 45 bf 3c 41 03 3e
       0.14177254 -2.140321 -0.7725686 0.12817854
0000f0 9a 7f 4f be 5b f3 3f bf a8 37 c2 bf 63 e6 26 be
       -0.2026352 -0.74980706 -1.5173235 -0.16298823
000100 c2 d7 39 3f 10 33 71 bd 2a 56 d0 bf a2 9b 85 bd
       0.72594845 -0.058886588 -1.6276295 -0.06523825
000110 99 92 a6 3e a4 50 a0 3e 16 7b 79 bd 51 ac 28 3f
       0.3253372 0.31311524 -0.0609084 0.65887934
000120 0a c1 54 3c 69 22 2c bc c7 3a 74 3d 9d 3c f3 be
       0.012985477 -0.010506251 0.059626367 -0.47507182
000130 5b 5f dd 3e d7 0e b4 3e 77 ef 19 bf 4f be 82 3e
       0.43236813 0.35167572 -0.6013102 0.2553582
000140 76 10 53 3e 87 8f 82 bd ad 03 a6 be 05 d6 ca bf
       0.20611748 -0.06375032 -0.3242468 -1.5846564
000150 16 aa f2 3e 27 f6 02 c0 aa 17 3b bf af ed 05 be
       0.4739539 -2.046274 -0.73082983 -0.1307895
000160 9c 39 be 3a 8a e0 94 3e 7a c1 33 be 97 fb 27 3f
       0.0014513019 0.2907756 -0.17554274 0.6561827
000170 db 53 48 be ea 27 a5 bd 80 cd 99 be 75 e8 e0 bd
       -0.19563238 -0.08064254 -0.30039597 -0.10981838
000180 5d 2a a7 3e 8d 48 19 3d 73 64 ca bd 2a 04 cf be
       0.32649508 0.037422705 -0.098824404 -0.40432864
000190 ec 1c e2 be 96 69 59 be 69 d8 8c 3d 42 77 93 be
       -0.4416269 -0.21231684 0.068772145 -0.28801924
0001a0 08 a0 a8 3d 5d f6 9d bc b9 2f 3b 3e 99 40 b4 bf
       0.082336485 -0.019282514 0.18279923 -1.4082214
0001b0 ab 69 02 3e 4f 94 7f bf 43 a5 14 c0 c1 3e a3 bf
       0.12735622 -0.99835676 -2.3225868 -1.2753526
0001c0 6a e5 9a 3e 3c 6f ad bf 7e 65 3a 3e 05 12 3b be
       0.30253154 -1.3549571 0.18202779 -0.18268593
0001d0 1f 76 fd 3d ce ed 43 3e 64 e0 d5 3a 59 75 5f 3e
       0.123760454 0.19133684 0.0016317484 0.21822108
0001e0 30 d2 b6 be 8c 6d c0 bd fe 73 89 3d 9d b1 3b bd
       -0.35707235 -0.093958944 0.06711577 -0.045823682
0001f0 06 6e 20 be 79 35 a2 3e 77 87 17 bf 28 27 de 3e
       -0.1566697 0.3168142 -0.5919108 0.4338925
000200 f4 18 8a 3f ec 31 c2 be 81 a5 08 be b1 eb c3 be
       1.0788865 -0.37928712 -0.13344385 -0.38265756
000210 de 22 20 be 9e 58 ab bf ca de 86 3e f9 e6 a5 3d
       -0.15638301 -1.3386419 0.2634185 0.08100695
000220 c8 58 c0 3d 39 7f 94 be cf 63 06 3f a3 e6 b0 be
       0.09391934 -0.29003313 0.52496046 -0.34550962
000230 34 2c 2c 3e a9 5a f4 3e 57 16 60 3f 59 0e df be
       0.16813737 0.47725418 0.8753409 -0.43565634
000240 5e bd fd 3c 2a d4 ef 3d c3 0f 7b bf 14 a5 57 c0
       0.030974086 0.11710389 -0.98070925 -3.3694506
000250 21 a6 9b 3d 0d 18 ee be 49 16 0f 3e 4d 24 2e 3c
       0.07600046 -0.46502724 0.13973345 0.010628772
000260 11 b3 40 3f 71 48 48 3f f6 17 80 3e 40 f1 88 be
       0.75273234 0.78235537 0.2501828 -0.2674656
000270 0f c2 ef bd 77 b1 bb bc 80 53 2a 3d 3d fa 02 3d
       -0.117069356 -0.02291177 0.041583538 0.031976927
000280 c1 d2 37 bf 12 41 f5 3c e9 b2 92 be 40 57 80 3e
       -0.7180596 0.029938255 -0.28652123 0.25066566
000290 8c 28 69 3e 3e 45 63 bf ed d5 3e bf d1 11 8e bd
       0.22769374 -0.8877753 -0.74545175 -0.06936992
0002a0 d9 3e a8 bd d2 ff d0 be 25 42 9f be f5 58 9b bf
       -0.08215112 -0.40820175 -0.31105152 -1.2136523
0002b0 a0 18 45 bf a5 d9 49 be 47 59 67 bf bf 2d 8a 3f
       -0.769907 -0.19711931 -0.903706 1.0795211
0002c0 05 fb f3 be f6 cd c9 bd 6f f5 a9 be bc 77 36 bd
       -0.4765245 -0.09853737 -0.33195063 -0.04454778
0002d0 e9 51 9c be f3 89 bc 3c ba 4f db be 88 5d 13 3e
       -0.30531242 0.023014998 -0.42834264 0.14391148
0002e0 0b 53 3c be 5e a2 c6 bd 64 7a 77 be 11 c7 29 bf
       -0.18391053 -0.09698938 -0.24167782 -0.66319376
0002f0 d2 cf 94 3d e4 60 87 be 18 e6 a6 be 87 b3 56 3e
       0.07266201 -0.2644111 -0.32597423 0.20966922
000300 f8 72 b5 bf 0b 11 3c 3f a2 f5 80 3e ec ea 02 3f
       -1.4175711 0.73463506 0.25187403 0.5113971
000310 39 64 24 bf d7 66 35 bf 1d 51 70 3e 93 0a ae 3d
       -0.6421543 -0.70860046 0.23468442 0.084981106
000320 f5 c2 2f 3e bb c1 b9 3b 43 c0 8e be 7c 74 55 bf
       0.17164214 0.0056688464 -0.2788106 -0.83380866
000330 bc 62 7d 3d c2 0b 9f bd d9 b4 e1 be 37 22 43 bf
       0.06186174 -0.077659145 -0.44083288 -0.7622408
000340 04 c9 a2 bc 03 03 bb be d8 be 95 3c a7 14 d4 be
       -0.019871242 -0.36525735 0.018279478 -0.41422006
000350 3a 14 87 bd 2a fb 36 be fc 17 b9 3e 34 d4 ac be
       -0.06595655 -0.17869249 0.3615111 -0.33755648
000360 d6 c1 20 3f aa 22 ba 3e 8b a4 0d be a0 b6 df 3d
       0.6279577 0.36354572 -0.138323 0.10923505
000370 82 97 34 bf 99 89 47 3f ec 20 d2 3d 7a 5e 01 bf
       -0.7054368 0.7794433 0.102601856 -0.50534785
000380 79 87 16 3e e1 f7 c9 be 09 d3 2b 3f b2 66 c7 be
       0.14700116 -0.3944693 0.6711889 -0.38945538
000390 aa 29 b5 be d5 7d c5 be 4f 13 a3 be 79 00 bd 3e
       -0.3538335 -0.38572565 -0.3185067 0.36914423
0003a0 a2 64 05 3e 79 88 3b 3f 09 58 38 bd 66 c2 bd bf
       0.1302667 0.73255116 -0.045005832 -1.4824951
0003b0 d0 0f d3 be 76 b9 c4 be 01 2a 01 bf 9f 0f f6 bd
       -0.41223 -0.38422745 -0.5045472 -0.12014698
0003c0 4b 17 1a c0 78 f8 9b 3e 32 8f 37 3c 87 a3 d5 be
       -2.4076717 0.30463004 0.011203574 -0.41726324
0003d0 27 18 71 bd 51 31 95 3d 32 65 52 bb 7f 1e ab bf
       -0.058860924 0.07284797 -0.0032103774 -1.3368682
0003e0 ff ad 3a 3e a2 cd ca be 08 11 b2 bf 38 a7 21 bf
       0.18230437 -0.3961001 -1.3911448 -0.6314578
0003f0 8c 8f a9 3d 2a 8b 05 bf ed 3e 02 3d d5 22 b1 bd
       0.082793325 -0.5216547 0.031798292 -0.08649222

bias f4 [256]
000000 84 55 60 bc a7 4a c6 bd 91 6a c9 bb 4b d2 05 bd
       -0.0136922635 -0.096822076 -0.006146737 -0.032671254
000010 c0 e0 04 be b8 c4 b7 bc ee b2 73 3c 6b b2 9e be
       -0.1297636 -0.02243267 0.014874203 -0.30995497
000020 3a 36 6a bd 6d ce 82 bd 9c ad 09 be 15 7c c2 bd
       -0.05718062 -0.06387029 -0.13445133 -0.09496323
000030 15 e8 43 3d 71 b5 dc 3e 19 a3 3d bb 2c 9d 23 be
       0.047828753 0.4310718 -0.0028936325 -0.15977925
000040 8a de 94 bf d8 75 18 be af 9c a4 3f 62 61 0e be
       -1.1630414 -0.14888704 1.2860316 -0.13904336
000050 fb 75 00 c0 6f 10 3e be e8 68 4d bd fd 06 92 bd
       -2.007201 -0.18560956 -0.050148875 -0.07130239
000060 c5 48 7c 3e a4 57 2e be f7 c0 f7 bd c5 c1 6e bd
       0.24637134 -0.1702562 -0.12097352 -0.05829026
000070 18 1d fa bd 57 ae eb bf c8 58 0b bf c6 cd 9f bd
       -0.122125804 -1.8412579 -0.54432344 -0.0780292
000080 25 dd b3 3f ef c1 a4 bc ae 69 2e bd 48 9a 81 bf
       1.4051863 -0.020112006 -0.042581253 -1.0125208
000090 fd ab 14 bd e4 16 7a bf 32 23 8b be a5 dd af bd
       -0.036296833 -0.9769118 -0.2717529 -0.08587197
0000a0 43 6a 0a be c7 dd 75 bd eb 0c 18 be da a9 97 bc
       -0.13517098 -0.060025956 -0.14848678 -0.018513609
0000b0 73 3b ff bd e6 b0 b8 bf 6e a1 04 be a2 a0 af bd
       -0.12462511 -1.4428985 -0.12952206 -0.0857556
0000c0 ce ce 7c bd 5b e7 0e bd 19 8d a8 bd 23 46 07 be
       -0.06172066 -0.034888607 -0.08230037 -0.13210349
0000d0 c2 7a 96 bd 29 e7 c1 bd 02 35 37 be ce a5 cf bc
       -0.07347633 -0.094679184 -0.17891315 -0.025347617
0000e0 bd 44 be be 4c 4d 8e bd 5d 6f 10 3f 98 0f 1c bd
       -0.37161818 -0.06948337 0.56419927 -0.03810081
0000f0 4c 5b 61 be 89 0b 1b bf bf 3f 6b be f2 1a c7 bd
       -0.22007483 -0.60564476 -0.22973536 -0.09721936
000100 74 33 b1 bc 9c 4a 12 be f0 de 7d 3e ef bd 10 3e
       -0.02163098 -0.14286274 0.24792075 0.14134954
000110 6c 8d 24 be f7 75 d3 bf 1e 55 f0 bd ea 9d 5d bf
       -0.16069573 -1.6520375 -0.11734985 -0.8656908
000120 0e e4 8a bd 77 c1 41 3c 84 8c 34 be d6 cd 44 bc
       -0.06781779 0.011825911 -0.17631727 -0.012011966
000130 27 11 05 be 24 37 f0 be 5f cd 36 be a0 55 88 be
       -0.12994824 -0.4691707 -0.1785178 -0.26627827
000140 e6 4f 8a bc 95 fc 7b bd 67 03 2b bf dc fe 5e bd
       -0.016883802 -0.061520178 -0.66802067 -0.05444227
000150 89 61 bf 3c ad c6 04 bd ee db 07 bc a8 02 f3 be
       0.023361938 -0.032416034 -0.008292181 -0.47462964
000160 a9 6c 39 bd 81 a6 9d be 30 ac 28 be c5 01 96 be
       -0.045269642 -0.30791095 -0.16471934 -0.29298225
000170 7a 62 90 bd 7e b9 2a bd 0f b2 9e 3d 4c d5 a4 be
       -0.07050033 -0.041680805 0.07748806 -0.32193983
000180 ee b3 95 3e da 82 29 bf e9 7c cc bc dc 21 dd bf
       0.29238838 -0.6621529 -0.024961906 -1.7275958
000190 bc 8d 1a be 60 0d 43 3e 08 5c 9b 3d 10 4a aa bd
       -0.1509313 0.19048071 0.07585913 -0.083149076
0001a0 f9 fd 8b 3e 88 be aa bd 6b 78 1f bf d7 e6 23 3f
       0.27342203 -0.08337122 -0.6229312 0.6402411
0001b0 65 55 18 bf 8a ec 2c 3d 0a 35 79 bd 35 4f 85 bf
       -0.595053 0.04221777 -0.060841598 -1.0414797
0001c0 8c 8c 08 bd c8 a3 35 bd 4a 75 a2 3f f4 0c 46 bf
       -0.03333716 -0.044345647 1.2692044 -0.77363515
0001d0 e2 95 ce bd 10 f9 4e bf ce 16 4e bd 5e 88 cc be
       -0.10087182 -0.8084879 -0.050314717 -0.3994779
0001e0 fe fe 8f 3f 5b 09 87 bd 8a 16 e9 bf bd 1e 1f 3f
       1.1249692 -0.06593581 -1.8210003 0.6215628
0001f0 a2 6a 8a be e7 c6 8e bd 3e 7c 12 bd fa 05 b6 bf
       -0.2703448 -0.06971531 -0.035763018 -1.4220574
000200 7d 8a 1f be 58 04 22 be 60 62 4e bf 88 c8 a1 bf
       -0.15580173 -0.1582197 -0.8061886 -1.2639322
000210 27 75 10 be 9f 58 99 be 74 36 bb bf 9f 97 5a be
       -0.1410719 -0.29950425 -1.4625993 -0.21346901
000220 26 00 84 bd a2 0a 40 3e a5 0c 80 bf 8c 35 19 3e
       -0.06445341 0.18754056 -1.0003859 0.14961833
000230 74 15 1f 3d 28 ec a3 bd 2c 85 bf be a3 2c 47 be
       0.03883882 -0.080040276 -0.3740629 -0.19450621
000240 c3 b4 d2 bd bd 8b c0 bc 80 7e c9 be 7a c9 40 bd
       -0.10288384 -0.023504132 -0.39354324 -0.047067143
000250 3b 44 f2 bd b5 ce fe bd e4 96 68 be 83 d4 38 be
       -0.1182942 -0.1244177 -0.2271381 -0.18049817
000260 58 cc 4f bd bc e5 08 bd 4d 13 ed bd e1 53 0d be
       -0.050731987 -0.033422217 -0.11575947 -0.13801529
000270 be 4f fe bc 0a 30 be bc 1c a9 4b 3d c9 67 bc bd
       -0.031043883 -0.023216266 0.049721822 -0.09199483
000280 c3 66 0c be c1 57 f7 be 86 f7 41 bd 92 61 2d be
       -0.13711075 -0.48309138 -0.047355197 -0.16931751
000290 07 b2 16 be e4 a0 9c be 54 10 f7 be 08 47 25 3f
       -0.1471635 -0.305915 -0.48254645 0.6456151
0002a0 f1 57 c8 3c 8d b2 8d bb cb 7a 8b bf 23 31 ff 3e
       0.024455996 -0.0043242634 -1.0896848 0.49842176
0002b0 31 e5 1e bf a4 fe ea bd 09 63 81 bf f5 48 1b bc
       -0.6206847 -0.1147435 -1.0108348 -0.0094778435
0002c0 07 8c a7 bc a8 24 94 3d 7e c8 8d bd e1 53 86 be
       -0.020452512 0.07233554 -0.069230065 -0.2623587
0002d0 20 5f a2 bd ee de ea be 7c fd ee 3d 7d 93 c3 bf
       -0.079283 -0.45873207 0.11669442 -1.5279385
0002e0 f4 bb 7f bd 67 61 2b bf 89 ca a4 bc 37 9c 33 be
       -0.062435105 -0.669455 -0.020116108 -0.1754006
0002f0 1a 3f ae bd 07 85 03 bd 02 d7 20 be 67 7a 70 be
       -0.085081294 -0.032109287 -0.15707019 -0.23484193
000300 9c 49 df bc 39 a2 82 bf 25 ae c3 bd 16 a0 c9 be
       -0.02725678 -1.0205756 -0.095547 -0.39379948
000310 0c 50 37 be 52 96 51 bc 82 df ff bd 4f fc b7 bd
       -0.17901629 -0.012792187 -0.124938026 -0.08983671
000320 1f 52 cd bd 96 66 e8 bc 08 8a 7b be f2 4f d8 3d
       -0.10025429 -0.02836923 -0.24564373 0.10562123
000330 b3 32 47 be 01 c8 7d bd c7 89 99 3b 3a 0d d6 bd
       -0.19452934 -0.061958317 0.004685614 -0.104517415
000340 b3 64 ce bd 4e 92 af 3e 97 18 3c 3e 36 93 a8 bd
       -0.100778006 0.3429131 0.18368755 -0.08231203
000350 fa da 6e bd fa d8 10 be 3b 28 ee be 93 1f 85 bd
       -0.0583143 -0.1414527 -0.46515068 -0.06500163
000360 33 85 be bd 9f 87 c1 be b2 be b6 bd ce 9c a8 3e
       -0.093027495 -0.37798783 -0.08923091 0.32932132
000370 06 1f 57 bd 63 f7 6e be a8 11 b2 bd a6 2e af bd
       -0.05251982 -0.23336558 -0.08694774 -0.08553819
000380 7e f1 30 3f c2 91 07 be 43 96 ba bd a2 fb 0b 3f
       0.6911849 -0.13239196 -0.091106914 0.54680836
000390 32 d4 c9 bd 65 40 17 be 95 5b 03 bf 92 25 11 bd
       -0.09854926 -0.14770658 -0.5131162 -0.03543622
0003a0 9f e7 9b bd 2d 69 4a bd 34 42 60 bc 02 c1 ef 3b
       -0.076125376 -0.04941671 -0.013687659 0.0073167095
0003b0 38 f0 87 be fc a5 f5 bd 04 46 a0 bb d8 22 1c 3e
       -0.2655046 -0.1199455 -0.004891159 0.15247667
0003c0 85 9b 80 bc a4 41 76 3f 5f 85 c1 bd 8e bb ef bd
       -0.015699157 0.9619391 -0.09449267 -0.11705695
0003d0 8f 7c e1 bf 65 11 40 bd 72 06 8a bc 93 52 ae be
       -1.7616137 -0.04689159 -0.016848776 -0.34047374
0003e0 7a d9 8e bd 03 04 90 bc d8 d1 92 bc df f0 ca bd
       -0.06975074 -0.017580038 -0.017922327 -0.09909224
0003f0 1a ca 6c bc 6f ac 20 c0 be 85 cb bc 03 48 e4 bd
       -0.014452482 -2.5105245 -0.024844047 -0.11146548

weight f4 [1, 256]
000000 a0 dc b9 c0 8e 6a 3d b9 8b 27 18 3c 63 48 90 3c
       -5.808182 -0.0001806414 0.0092867715 0.017612642
000010 06 f0 ee bc 9e fb b8 bb 18 32 fa 3a 37 28 de c0
       -0.029167186 -0.0056452295 0.0019088415 -6.942409
000020 64 7a 9b bc e1 b7 f7 3c 94 c0 ea 3c 1b 79 46 3c
       -0.018979259 0.030239047 0.028656282 0.012113835
000030 e0 98 8b bf e8 39 63 c1 8a 7a 1d 3d 0e 02 fc 3c
       -1.0906029 -14.201637 0.03844694 0.030762699
000040 d1 8b 09 41 43 ee 34 3b cc f9 65 3d 77 5b 36 3d
       8.596635 0.0027607835 0.056146428 0.04452082
000050 92 8d 41 bf 8d 7b 11 3d de d4 8b bc cb f2 8c 3c
       -0.75606644 0.035518218 -0.017069276 0.017205616
000060 42 4c 88 c1 ab 5e cc 3c 1c 8f 80 3c 49 13 6c bc
       -17.037235 0.024947485 0.01569324 -0.014408895
000070 cc aa 59 bf b5 df a6 c0 84 c9 27 40 7c 21 fb bc
       -0.8502624 -5.214808 2.6216745 -0.030655615
000080 63 df 80 bd 62 b3 bb c1 ae 67 41 bc 7f 08 1c 3d
       -0.06292608 -23.46259 -0.011804504 0.03809404
000090 6b fb 64 3c b8 c2 12 c1 03 77 1b 3c 5a d8 97 3c
       0.013975958 -9.172539 0.009488824 0.018535782
0000a0 5d 72 e3 40 5f c8 00 bd 9c 41 cf 3c 6d f3 9a bc
       7.1077104 -0.03144109 0.02529984 -0.018914903
0000b0 11 ec 0b 3d f7 d3 f5 3e 83 f6 ad 3d a5 83 ff bc
       0.034160677 0.4801328 0.08494284 -0.031190703
0000c0 d1 d3 d7 c0 e6 e8 b6 3b 3e 88 8b bb 32 1b 33 3e
       -6.7446065 0.005581963 -0.0042581847 0.17490843
0000d0 a1 b4 3d bc d9 d3 e2 3a 8d 0c e6 bc 7e d0 4f bc
       -0.01157871 0.0017305567 -0.028082157 -0.012683986
0000e0 c9 93 f2 bd 8e 16 de 3b 54 ee bf bd 95 87 50 3c
       -0.11844594 0.006777591 -0.09371629 0.012727638
0000f0 7b ce e1 bf c6 08 de 40 d3 64 9d bc 63 e7 e1 bc
       -1.7641138 6.938571 -0.019213116 -0.027576154
000100 e4 68 af 3c e1 e5 5f 3c 59 e0 8e bd ed cf 88 3e
       0.02141232 0.013665647 -0.06976385 0.26721135
000110 f7 6f b7 bc 6a 5f 23 3d d3 6f 67 be ad 99 12 41
       -0.022392256 0.039885916 -0.22601251 9.1625185
000120 aa 05 70 3b a1 96 52 41 90 2c d5 3d 09 d2 be 3c
       0.003662447 13.161775 0.1040889 0.023293512
000130 8a 77 57 3a d1 db 01 3d 1d b6 4a bc f2 79 62 3b
       0.0008219412 0.031703774 -0.012372521 0.0034557548
000140 43 14 d3 3c 47 6c 9b bb 05 dc 60 bd 80 b6 24 3c
       0.025766497 -0.0047431323 -0.054897327 0.010053277
000150 94 4d 9a 3d 6e 27 af bc 3c 10 51 ba cb a1 b4 3f
       0.07534328 -0.021381106 -0.00079751364 1.4111875
000160 c4 60 64 bc 0a 8b aa 3d c7 3f 9e 41 02 ab a4 3d
       -0.013939086 0.08327301 19.781141 0.0804043
000170 b9 60 2d bc 3a 76 59 3c 5d 97 2c be e9 a7 39 3c
       -0.0105821425 0.013272816 -0.16854616 0.011331537
000180 6d 2e 36 c1 c5 5f 52 3e 92 eb 4d 3e 16 5f e4 c0
       -11.386334 0.20544346 0.20109394 -7.136607
000190 d5 2a 1c 41 30 a0 82 41 38 6c 5b 3d e1 f0 ab bc
       9.760457 16.328217 0.053570002 -0.020988883
0001a0 69 fe 16 bd 5f 53 85 bc bb 05 67 c1 f7 6b 2c 41
       -0.03686372 -0.016275106 -14.438899 10.776359
0001b0 b8 67 2c be a9 99 33 be 2b 9f 9d 3c 60 9b 4e c0
       -0.1683644 -0.17539085 0.019240936 -3.2282333
0001c0 10 2e 47 3c af f9 ba bc f2 d2 df 3e 73 07 69 3d
       0.012156978 -0.022824137 0.43715626 0.05689187
0001d0 01 36 33 bf 0e 4c a4 3d 80 50 18 bc 42 1a 1c c0
       -0.7000428 0.08022319 -0.009296536 -2.4391026
0001e0 97 27 eb bf de dc 6e 3b 95 29 50 bd 50 38 28 bd
       -1.8371457 0.0036447565 -0.050820906 -0.04106933
0001f0 af 20 b7 c0 d0 24 52 3c 53 48 c1 3c b8 d2 6d bd
       -5.7227397 0.01282616 0.023594057 -0.058062285
000200 69 72 3f 3c 90 80 d1 bd 81 ca 1e bd d5 8b 04 bf
       0.011684992 -0.102295995 -0.03876734 -0.51775867
000210 6e b1 a4 3c a4 4c fb ba 99 84 b8 3d 7b 4b 8c 3f
       0.020104136 -0.0019172621 0.09009666 1.0960535
000220 f8 d8 05 bc 21 f9 57 3e 2b d6 41 bf a3 53 ab 3d
       -0.008169405 0.21091129 -0.7571742 0.08365562
000230 cd aa 02 bc 32 d8 84 3b cf d1 09 3d 1e cc 21 3e
       -0.007975292 0.004054093 0.033647355 0.15800521
000240 6c d7 91 3b 59 a7 6e 3c c2 28 21 3d 6f 96 18 bc
       0.004450729 0.014566266 0.03934551 -0.00931321
000250 7e 21 98 bb 73 f3 f3 bc 8a bf 82 3e 78 0f 0b 40
       -0.0046426645 -0.029779172 0.25536758 2.1728191
000260 f1 c1 e0 3c 21 62 58 3c 5a 5f 52 3d 17 91 19 3d
       0.027436228 0.0132069895 0.051360466 0.037491884
000270 40 f4 6e 3e 64 60 6e bc 42 04 d9 3c 54 0a 1d bc
       0.23335361 -0.0145493485 0.026491288 -0.009584982
000280 5e f8 cd 3b b1 24 61 40 37 cf 6e 3c 48 68 b1 3f
       0.006285711 3.5178645 0.014575771 1.3859949
000290 84 c5 91 3f dc a3 97 3d 65 18 8e 3d c0 8f 1f bd
       1.1388402 0.074043006 0.06938247 -0.03895545
0002a0 52 e5 e1 be 39 50 91 39 34 8f 2c 40 4f 27 2c 3f
       -0.4412027 0.00027716326 2.6962404 0.6724748
0002b0 09 12 be bf fc cf 93 3d fe c3 10 3e 47 66 b4 bc
       -1.4849254 0.07217404 0.14137265 -0.022021426
0002c0 ec 72 14 3d 4f ab 38 41 ec e9 c7 bc 47 8e 12 bb
       0.03624241 11.541823 -0.024403535 -0.0022362636
0002d0 d6 54 c4 bc 0f 7a d0 3d 02 a6 81 c1 b7 a3 60 3d
       -0.023966234 0.10179531 -16.206059 0.05484363
0002e0 8f e0 90 3c 22 1a 90 bd e8 73 03 41 6d 50 b4 bc
       0.017685203 -0.070362344 8.215797 -0.022011006
0002f0 9d 2f 3a bd 40 53 56 3c 93 db 98 3c a2 0b 9f bc
       -0.045455564 0.013081372 0.018659389 -0.019414727
000300 dd 5c 43 3c c8 eb 80 3e 8a 70 c1 3b c7 70 e0 bf
       0.011923996 0.25179887 0.0059033083 -1.7534417
000310 34 a5 20 3d ab 74 f9 3c e2 78 97 bc 34 6c 30 bc
       0.03922005 0.03045114 -0.018490259 -0.010767985
000320 04 67 9f bc f7 5a 3b bc 47 7c c7 bb aa b0 9e 3d
       -0.019458301 -0.011435262 -0.006087813 0.0774854
000330 fa 8f 46 bc 1c 3f 28 bc a4 2a 09 be c9 02 5b 3b
       -0.012119288 -0.010268953 -0.13395172 0.0033418408
000340 d0 0c 49 bb 90 c0 63 bd 6b 73 73 41 b0 1e a4 3c
       -0.0030677803 -0.055603564 15.215678 0.020034164
000350 07 f0 1c bc fe 2b 31 3d c5 0b 16 c1 f8 3a 89 bc
       -0.009578711 0.043254845 -9.377873 -0.016751751
000360 fd 57 88 bc b8 d0 71 3e cd c6 6a 3c 20 e1 7a 41
       -0.016643519 0.23614776 0.014329624 15.679962
000370 c1 9b d7 3c 02 36 b3 bf 8e 4a 0b 3c 70 e5 06 bd
       0.026319386 -1.4000857 0.008501662 -0.032933652
000380 5b c6 e1 3d 9a 2f 3e bc 33 82 16 3c 51 59 d3 bd
       0.110241614 -0.011608029 0.009186315 -0.1031977
000390 80 35 07 3e 1a 7b 51 bb bc 58 5d be be 2c f0 bb
       0.13204002 -0.0031964243 -0.2161588 -0.0073295524
0003a0 25 b1 9d bc 42 98 7a bb 61 c9 fb 3a d0 ec 18 3d
       -0.019249508 -0.0038237725 0.0019209796 0.037335217
0003b0 c6 d1 79 bc 68 68 96 3c b6 ff ed bc e1 8c 49 bf
       -0.015247768 0.018360332 -0.029052597 -0.7873059
0003c0 86 ca 72 bb a3 d2 3a 3d 99 c6 24 3c e3 c7 bc c0
       -0.0037046983 0.045611035 0.010057115 -5.8994
0003d0 dc 06 a6 be 43 7b 19 3c 3f 38 a9 bc 44 e4 f2 3e
       -0.32427108 0.009367767 -0.020656703 0.47439778
0003e0 7a 81 0f 3d e2 7e 8f 3c c3 94 47 bd c6 c8 7c 3c
       0.035035588 0.017516557 -0.048725855 0.0154287275
0003f0 25 56 9e bc 02 e8 fc 3c 24 7d fb bb 71 fd 50 bc
       -0.019328186 0.030872349 -0.00767483 -0.012755738

weight f4 [256, 12]
000000 fc f0 7f c0 74 38 1b 41 9b e9 8a 3f 4e 5f c8 c0
       -3.9990835 9.7012825 1.0852541 -6.261634
000010 c4 32 12 c0 e0 ef 25 3e 8e ff 93 3f a4 4d a5 3f
       -2.2843485 0.16204786 1.1562364 1.2914319
000020 ee 84 dd 3f 14 bf 0b 3e 3c aa 16 be a5 e1 75 40
       1.7306192 0.1364711 -0.14713377 3.8418972
000030 2f 96 1f c1 09 4e c3 40 98 5f 3e c0 6f 77 13 c0
       -9.974166 6.103276 -2.9745846 -2.3041646
000040 e6 64 07 c0 f0 e9 b5 bf 40 c2 ff be f3 fc 35 bf
       -2.1155334 -1.4212017 -0.49952888 -0.71089095
000050 8e b5 2e bf 48 9f 2c 3d de 19 26 3e 64 03 aa c0
       -0.6824578 0.04214409 0.16220805 -5.312914
000060 c2 93 11 bf 99 ab 82 c0 60 44 3e c1 57 02 7d bf
       -0.56866086 -4.083447 -11.891693 -0.98831695
000070 8f 19 b9 bf f3 94 be 3e 6c 3a 1d c0 c7 ad 3f c0
       -1.4460925 0.37223014 -2.4566908 -2.9949815
000080 cd 6e 57 be fd f1 2c be a0 41 0f 3d 97 a3 b0 c0
       -0.21038361 -0.16889186 0.034974694 -5.5199695
000090 f9 79 f7 3f 11 95 15 41 d9 f6 a8 3e c9 be 2d bc
       1.9334098 9.348893 0.3300083 -0.010604569
0000a0 52 13 d6 be aa 33 65 3f b9 8c 1e 40 fb 6e 19 40
       -0.41811615 0.8953196 2.477339 2.3973987
0000b0 77 86 c6 bf b8 40 34 3e 90 23 f6 3d 90 4b d7 40
       -1.5509785 0.17602813 0.12018502 6.727974
0000c0 c2 12 ba 3f 8f 6d 75 c1 6c 86 0f 41 28 17 bc 3f
       1.4536974 -15.339248 8.970318 1.4694567
0000d0 c6 b9 0a 40 2d dc d5 bf 8a c3 be 3f 15 92 44 40
       2.1675887 -1.6707817 1.4903424 3.0714161
0000e0 6a fa b0 be e2 18 0f be 2c a9 5d 3e c7 05 74 40
       -0.3456605 -0.13974336 0.21646565 3.8128526
0000f0 a9 23 4b 3f 87 1f dc 3e b6 b0 b7 c0 53 fa 50 40
       0.7935129 0.42992803 -5.740321 3.2652786
000100 3e 03 5d 40 a3 7d 16 3e 8a 1b ff bf 79 88 b4 be
       3.453323 0.14696364 -1.9930279 -0.3526037
000110 c6 55 3e 3f 64 3c 01 be e1 f1 08 be c3 3d 94 40
       0.7434963 -0.12620693 -0.1337352 4.6325393
000120 df 95 0c bf 16 e7 3c 41 46 11 78 c1 58 18 13 bf
       -0.54916185 11.806417 -15.504217 -0.5745902
000130 16 7d af c0 73 90 bd be 41 cb 06 bf d5 3e c6 bf
       -5.4840193 -0.37024269 -0.5265389 -1.5487925
000140 49 c8 06 bf e0 c5 45 bc b7 7d 38 be 54 62 f3 bf
       -0.5264936 -0.012071103 -0.18016706 -1.9014382
000150 5a 28 7a bf e0 ad 0d c1 92 92 5d 41 01 26 67 bf
       -0.9771782 -8.85495 13.848284 -0.90292364
000160 f9 35 35 bd 18 b6 a1 3e 5c ec 20 3f 8e 3f 1b 3f
       -0.044240925 0.3158424 0.62860656 0.6064385
000170 74 95 af 3f e4 ae 5f be ca 92 87 be 09 64 05 41
       1.3717484 -0.21844059 -0.2647918 8.336923
000180 34 d3 f6 3e 43 11 53 c1 f7 fe 50 41 ca bc 1e c0
       0.4820801 -13.191714 13.062247 -2.4802728
000190 ba a2 12 c0 9f 46 d0 3e c1 e9 85 3f ac 1c 00 40
       -2.291182 0.4067888 1.0461961 2.00175
0001a0 eb ea 2f bd 34 dc 65 be 7c 92 80 3e 10 69 ba 40
       -0.042948645 -0.22447282 0.2511176 5.825325
0001b0 5f 8b 14 c0 fe 8e 5a c0 36 13 08 c1 46 e1 83 bf
       -2.3210065 -3.4149776 -8.50469 -1.0303123
0001c0 b5 25 99 3e 16 80 1b bf de 6f 40 c0 db 29 18 c0
       0.2991158 -0.6074232 -3.0068278 -2.3775547
0001d0 a7 5c 05 bf 4a d6 80 bd 52 31 3d be 25 91 9e bf
       -0.520945 -0.062908724 -0.18475845 -1.2388045
0001e0 77 5a a3 3e 36 c1 e2 c0 11 71 a6 c0 33 eb cd 3f
       0.31904957 -7.0860853 -5.201302 1.6087402
0001f0 31 98 00 40 88 a9 45 be 2f 80 89 be 1f 2a f8 be
       2.009289 -0.19302952 -0.2685561 -0.48469636
000200 39 08 34 c1 d2 00 27 3e 84 aa 17 be 0d 34 e8 40
       -11.2520075 0.16308907 -0.1481114 7.256354
000210 59 e1 7c be 0e c9 4a 41 bf 1c 51 c1 ef 0e 2e c0
       -0.24695338 12.674086 -13.069518 -2.7196615
000220 9a 44 01 c0 76 87 87 3d 27 23 9b be d3 30 9e bf
       -2.019812 0.06617634 -0.30300257 -1.235865
000230 c2 3b 82 c0 40 b4 75 3d e0 34 85 bc 62 2c a7 c0
       -4.0697947 0.059986353 -0.016260564 -5.224168
000240 0a c0 42 40 74 47 e5 c0 7a 6d 74 c1 f3 9e 3e c0
       3.0429711 -7.1649723 -15.276728 -2.9784515
000250 ea 39 8d 3f fe 0c f2 3d 5e 26 fc bf 10 80 df bf
       1.1033299 0.11818884 -1.9699209 -1.7460957
000260 e5 11 52 3f a0 a6 cf 3d 84 10 84 3e 98 de cd 3e
       0.82058555 0.10139203 0.2579385 0.40208888
000270 26 ed f0 3d 72 c7 82 c1 2e 68 0f 41 1b 77 07 c0
       0.117639825 -16.347385 8.9629345 -2.1166446
000280 aa 29 82 c0 7a 85 90 3e da f9 cb 3e 89 55 24 40
       -4.067586 0.28226835 0.3983906 2.5677207
000290 ed d3 3c 3f 30 e2 6d 3e da 2b 4b 3e 03 0d 25 41
       0.73760873 0.23230815 0.19840947 10.315677
0002a0 9e 80 b0 3e 2a 8f 64 41 a8 43 b2 c0 f7 cd bb bf
       0.34473127 14.284952 -5.570759 -1.467223
0002b0 09 31 66 c0 2d 54 c8 3e 35 2d d3 3f 60 23 a3 be
       -3.5967429 0.3912672 1.6498171 -0.31862926
0002c0 fa 48 95 c1 54 ba 45 be c4 34 68 be ba 59 e8 c0
       -18.660633 -0.1930936 -0.22676378 -7.260953
0002d0 d7 67 a9 c0 8c 2a 14 41 8b 2c 32 c1 2c cc 7d 3f
       -5.293926 9.260387 -11.135875 0.99139667
0002e0 0b c7 ea 3f ca 91 b2 3f 7b ee 2a c0 68 3c 84 bf
       1.8341993 1.3950741 -2.6708057 -1.0330935
0002f0 a3 5d c0 be e4 59 ca 3d d9 1d 80 be 4e bf 5d c0
       -0.3757144 0.098804265 -0.25022772 -3.4648013
000300 71 90 b9 c0 26 cb 85 3f d5 9c fa 40 5f 00 3a c0
       -5.798882 1.0452621 7.8316445 -2.9062726
000310 ea 86 40 c0 8c 01 14 c0 d7 a2 d0 3f 2a 03 04 40
       -3.0082345 -2.3125944 1.6299695 2.062693
000320 4b 3f bd c0 71 24 93 be 12 45 80 bd 14 73 70 bd
       -5.913976 -0.2873874 -0.06263174 -0.058703497
000330 d3 bb 64 3d 2f 4b 94 40 a9 8d c8 41 f6 20 28 3f
       0.055843186 4.6341777 25.06917 0.65675294
000340 30 37 f3 bc 43 58 cf 3d 26 ab 10 40 de 40 23 40
       -0.029689401 0.101242565 2.260446 2.5508342
000350 93 47 39 3e a8 15 87 bd 68 f6 68 be b4 37 6d 3f
       0.1809371 -0.065959275 -0.22750247 0.9266312
000360 9e a3 ca 3e 57 70 4d c1 67 3b 65 41 45 91 81 be
       0.39577955 -12.839927 14.327003 -0.25306144
000370 8e 08 ac c0 06 61 22 3e eb ce c6 b9 31 e3 a6 3f
       -5.3760443 0.15857324 -0.0003791967 1.3038083
000380 01 ab 8b bf 3e 2d 25 be 67 77 56 be bd d2 2b 40
       -1.0911561 -0.1613054 -0.20943986 2.6847374
000390 4a bc 95 3f 23 49 fb bf 8e e4 a2 41 7b 85 a5 c0
       1.1698086 -1.9631695 20.361599 -5.172544
0003a0 eb 50 c7 c0 d4 04 95 3f 27 43 69 bf 43 9f 8e 3f
       -6.2286277 1.1642098 -0.9111809 1.1142353
0003b0 5b 2d 36 40 9b 9c 0c be ca 22 93 3e fd 27 2c 40
       2.8465183 -0.13731615 0.2873748 2.6899407
0003c0 46 c0 cf c0 91 01 f7 40 5a b2 ef 40 18 62 3c bf
       -6.492221 7.718941 7.4905214 -0.7358718
0003d0 2c 22 69 bf 07 92 0f c0 d1 94 b9 be 03 7e 05 40
       -0.9106777 -2.2432878 -0.3624635 2.0858161
0003e0 86 28 55 3f 18 8d e7 bd 14 e5 d8 3d 27 89 25 41
       0.8326496 -0.11306208 0.10590568 10.345984
0003f0 75 cc e8 be 29 c9 61 41 30 05 04 c1 da b0 0a bf
       -0.45468488 14.111611 -8.2512665 -0.54176104

bias f4 [256]
000000 46 9b 1b c0 97 b3 01 c0 e2 26 ea bf 92 56 7b be
       -2.4313521 -2.0265863 -1.8293116 -0.24544743
000010 5c 15 f4 3f 1b 06 69 40 a0 3d 6d c0 0a f4 4b 3f
       1.9069018 3.6409976 -3.7068863 0.7966925
000020 a1 3b b5 be fa 59 6b c0 4f de 3e 40 28 62 b6 bf
       -0.35397056 -3.6773667 2.9823186 -1.4248705
000030 4b b3 32 c0 08 cb 84 c0 c4 c7 3e c0 0c 13 9f 3f
       -2.7921932 -4.149784 -2.9809427 1.2427688
000040 26 45 20 c0 9f 22 19 bf 11 51 87 c0 9f ab ab c0
       -2.5042205 -0.5981845 -4.228646 -5.3647
000050 3d 40 41 bf 02 04 8f c0 99 e2 4d 40 4f 1e de c0
       -0.75488645 -4.469239 3.2169554 -6.9412
000060 70 b1 8a bd 78 9d 0d c0 e8 39 b0 c0 3e 43 63 c0
       -0.06772125 -2.2127361 -5.5070686 -3.5509791
000070 71 06 c8 be d3 b7 9f bf 20 68 82 c0 e5 97 83 c0
       -0.39067414 -1.2477974 -4.0752106 -4.112292
000080 f4 0d 5c bf d2 cb 8a c0 a8 05 80 bf b9 6a 65 be
       -0.8595879 -4.3373804 -1.0001726 -0.22403993
000090 16 4f 78 3d a4 bf 20 bf 9d d1 5a bf 52 49 22 c0
       0.060622297 -0.6279242 -0.85476094 -2.535725
0000a0 5a 80 29 40 f4 94 1b 3e 4b f5 73 c0 5c f5 34 3e
       2.648459 0.1519354 -3.8118465 0.17671722
0000b0 7a 3b 20 bf 52 42 81 c0 1c d0 a5 be 4c b4 48 c0
       -0.62590754 -4.0393457 -0.32385337 -3.1360044
0000c0 5f b7 9a bf cb 29 33 bf 9f a1 22 c0 f2 9d b1 c0
       -1.208721 -0.69985646 -2.5411146 -5.5505304
0000d0 f5 36 8a c0 a3 1d 58 40 fc 98 4b bf 2a e4 4b 3e
       -4.3192086 3.376809 -0.7953031 0.19911256
0000e0 ef ac ff bf 35 03 06 c0 25 ad ec bf 77 3f 77 3f
       -1.997465 -2.0939457 -1.849034 0.96581215
0000f0 47 6a c4 40 44 d9 a0 c0 37 80 95 c0 ab 9c b6 3d
       6.1379733 -5.0265217 -4.671901 0.08916601
000100 9b 1d 6a c0 3c d9 48 c0 f0 62 8c 40 34 e2 74 c0
       -3.658057 -3.138259 4.3870773 -3.8263063
000110 71 fa 28 c0 73 b8 55 40 65 e7 fe bf 50 62 66 c0
       -2.6402857 3.339383 -1.9914366 -3.5997505
000120 3f 73 69 c0 ec 80 ff be 61 1f 0d 40 4b 85 07 c0
       -3.647659 -0.49903047 2.2050402 -2.1175106
000130 bc 1d 76 3e cb 88 8d c0 b2 c1 7e be 0c 39 1f c0
       0.2403478 -4.4229484 -0.24878576 -2.4878569
000140 de ae a0 bf 8a 98 24 c0 9a 3f 1d c0 aa 04 3e c0
       -1.2553365 -2.5718102 -2.457007 -2.9690347
000150 f6 cb 09 3f 4e 5f 0e c0 bf 9e 44 c0 90 fd 75 40
       0.53826845 -2.224567 -3.072189 3.8436012
000160 ee a9 4f c0 4f e4 09 c0 86 77 86 40 0d d5 5a 40
       -3.2447467 -2.1545599 4.2020903 3.4192536
000170 e1 f1 e3 bd b8 57 43 c0 84 22 73 bf 34 50 71 40
       -0.11130119 -3.052229 -0.9497454 3.7705202
000180 8b e7 e7 bf 95 ba be bf 81 16 6b c0 ec e9 9f 3e
       -1.8117536 -1.490069 -3.6732485 0.31233156
000190 c1 69 94 3f 9a c9 91 3f 6f 39 41 c0 2a 6f af c0
       1.1594774 1.1389649 -3.0191305 -5.48232
0001a0 69 44 c8 bf 75 38 84 3e c5 0d 81 c0 92 db 27 3f
       -1.5645877 0.25824323 -4.032931 0.6556941
0001b0 ec 58 c2 be 9c 9c 82 c0 ef 1c 58 40 5c 1a df be
       -0.37958467 -4.0816174 3.376766 -0.43574798
0001c0 3e c1 69 c0 cf 98 d5 3f 28 79 4b c0 68 f9 8f be
       -3.6524196 1.6687258 -3.1792698 -0.2811997
0001d0 81 f2 70 c0 01 2a fa bf 3e b8 5c 40 3e 82 a5 bf
       -3.7648013 -1.9544069 3.4487453 -1.2930372
0001e0 3e e6 75 be 3f 1d 27 c0 e9 d3 a5 c0 09 a6 00 bf
       -0.24013612 -2.61116 -5.182118 -0.5025335
0001f0 12 4a d4 40 d2 22 92 c0 68 fe f6 bf e8 2c 50 40
       6.634042 -4.5667505 -1.9296389 3.2527409
000200 58 c8 9b 40 3b 47 fc bf 09 9b 81 c0 68 a0 9b c0
       4.868206 -1.9709238 -4.050175 -4.863331
000210 88 94 2d c0 03 3d 3a c0 e1 e3 89 c0 7f 79 24 3f
       -2.7121906 -2.9099739 -4.3090672 0.6424789
000220 64 65 e8 bf e1 1c 7b 3e b5 2c 16 c0 f0 d5 35 c0
       -1.8155942 0.24522735 -2.3464787 -2.8411827
000230 d7 06 11 be 6a dd 73 bf 9f d2 48 c0 45 12 3c c0
       -0.14162765 -0.95259726 -3.1378553 -2.938615
000240 ca dd 99 be 26 a7 aa 40 7d f0 b1 c0 d2 f8 f1 3f
       -0.30052024 5.332904 -5.5606065 1.8904059
000250 57 4e 0d c0 70 49 e1 3e 56 9d 9e 3e 6c d1 ba bf
       -2.2079065 0.4400134 0.30979413 -1.459516
000260 cc cc 55 40 fa 06 64 c0 73 0f 59 bf bb cf 85 40
       3.3406248 -3.5629258 -0.847892 4.1816077
000270 65 65 89 bf 5c ce 35 c0 fc 2b 40 3e a6 06 5a 40
       -1.0734068 -2.8407202 0.18766779 3.4066558
000280 29 f5 b4 c0 ef 35 81 c0 da 8e 3e c0 e2 4e 3c c0
       -5.654927 -4.0378337 -2.977469 -2.9423146
000290 e7 6b 4f be f4 05 ce 3e 83 8b f8 3e 21 97 da 3e
       -0.20256005 0.40238917 0.4854394 0.42693427
0002a0 df 09 48 c0 3f 41 35 c0 da 1c 33 c0 21 fc 35 c0
       -3.1256025 -2.8321073 -2.798636 -2.8435137
0002b0 a3 69 61 c0 61 14 f5 be 93 af 4b bf bd a9 5d c0
       -3.5220726 -0.4786711 -0.7956478 -3.463485
0002c0 94 92 13 c0 fc 2a 23 bf d9 c5 fe bf f5 16 27 40
       -2.3058214 -0.63737464 -1.9904128 2.6107762
0002d0 2b 0e d9 be d4 dc 6a c0 2a 0e 1c c0 35 0b 94 bf
       -0.42393622 -3.6697283 -2.4383645 -1.156592
0002e0 10 49 1c 3e 96 70 57 c0 83 cc 0e 3f c9 fd 50 c0
       0.15262246 -3.3662467 0.5578081 -3.2654898
0002f0 f9 14 08 c1 7b 02 94 40 50 3d 3f c0 8e dc 65 bf
       -8.50512 4.625303 -2.9881172 -0.89789665
000300 a8 20 33 c0 7b 83 84 bf a7 0c d0 bf e3 56 8a c0
       -2.7988682 -1.0352625 -1.6253861 -4.3231063
000310 34 97 19 bb 92 e2 4b 3d 54 f2 1d c0 0e 5d b7 3e
       -0.0023436071 0.04977662 -2.4679155 0.35813183
000320 49 b8 b6 bf 06 99 90 c0 d4 9b bd 3f 85 5a 88 c0
       -1.4274989 -4.5186796 1.481318 -4.2610497
000330 bb 58 15 40 1e 82 36 c0 99 7a ac bf 70 08 d7 3d
       2.3335407 -2.8516917 -1.3474914 0.10499656
000340 e9 7c a8 c0 72 cf dd be 66 1d 8b c0 82 70 a0 c0
       -5.265248 -0.4332233 -4.3473387 -5.013734
000350 6a dc 2d bf a8 f0 88 be e0 a5 22 3f ac 2c 77 be
       -0.6791445 -0.26746106 0.63534355 -0.24138135
000360 3b ed 85 c0 4a 6f 18 40 20 22 db 3f 6c 37 77 40
       -4.185209 2.3817925 1.7119789 3.8627577
000370 40 27 82 be 8d 47 fc be f5 f3 fe bf 5b 10 34 40
       -0.2542057 -0.4927334 -1.99182 2.8134983
000380 7f f9 6b 40 0c 44 62 40 6e 45 8a 3d ed a2 f4 bf
       3.687103 3.5354033 0.06751524 -1.9112221
000390 79 81 f5 bf 65 c4 84 40 ff 9d b4 c0 05 94 6e bf
       -1.9180137 4.148974 -5.6442866 -0.9319461
0003a0 23 0d 79 c0 e7 44 77 c0 44 be 1a c0 6d da a5 c0
       -3.8914268 -3.8635805 -2.417863 -5.1829133
0003b0 c1 70 88 c0 06 b2 b3 3f f4 07 a0 c0 76 b5 8e c0
       -4.263764 1.4038703 -5.000971 -4.459651
0003c0 39 1b 56 c0 f4 42 ac 40 ab e9 98 c0 44 46 a9 40
       -3.3454115 5.383173 -4.778524 5.2898273
0003d0 d7 14 21 40 2e 5c 1c c0 ac 0f d6 bf d4 8a 5d c0
       2.516897 -2.4431262 -1.6723533 -3.4615984
0003e0 8f 47 70 40 a6 6c 06 c0 90 ef f2 bf e7 34 ce bf
       3.7543676 -2.1003814 -1.8979359 -1.6109895
0003f0 1f f6 99 c0 9f 50 9c 40 7b 0e 50 c0 d6 66 85 be
       -4.811294 4.8848414 -3.2508838 -0.2605502
