data/ppo_gpu_test/ppo_gpu_test_s0/pyt_save/model.pt (torch_old, 575063 bytes, 12 tensors)

log_std f4 [6]
00000000: 0000 00bf 0000 00bf 0000 00bf 0000 00bf
00000010: 0000 00bf 0000 00bf
-0.5 -0.5 -0.5 -0.5 -0.5 -0.5

weight f4 [256, 17]
00000000: 0001 eeba b03a 053e 9968 4cbe 75c6 36be
00000010: a84f bfbd 8032 853d a076 9dbb 54eb 443e
00000020: 4052 b0bc bc6f 833d f81c 96bd ec45 43bd
00000030: 5944 6dbe 687b 24be aec1 ccbd 4033 133c
00000040: 3c5e c43d 0005 153e fe5e 28be ce4c d8bd
00000050: 286a b43d 743b 4e3e 7c72 4cbd 1cd9 393e
00000060: ac1f 20bd a03c d23c 82e1 603e 9864 66be
00000070: 8e59 1cbe 3c80 7bbd 629e c1bd 8894 563e
00000080: c8fa 20be 3ea7 e4bd 0b83 2dbe da99 68be
00000090: c9f9 10be 9a7c 553e 78a4 dd3d 3cbe f03d
000000a0: c0fb 503c 13a8 febd 8812 283d 9ee3 67be
000000b0: 3a74 33be 0409 00be 90b2 1c3e de9d 113e
000000c0: 2c4a dcbd 7061 0fbc ccd6 1e3e 3ee6 763e
000000d0: f422 c53d 6834 063d 0685 263e 9e3b 12be
000000e0: 781e 393d 598d 40be e721 2cbe 004c 00be
000000f0: ccbf e03d 20c2 c73d 551d 13be 7c0f 963d
00000100: 3c57 083e 70c6 fabc e0b8 173c 782e 663d
00000110: 1613 1a3e 6e78 6e3e ac63 3fbe c007 b6bd
00000120: 9036 c33d 8ec6 4d3e 221f 583e 9623 5b3e
00000130: c8b4 453d 6cf7 57be 80c6 b63c 865f 1bbe
00000140: f474 67be b2a9 5c3e 1cd7 3c3e 16be 77be
00000150: 08f1 393d 405a 27bd b47a 23bd b05f e3bd
00000160: 9803 bf3d 381a 13be 3417 b63d 1831 fb3d
00000170: 96ca 313e fcb9 b93d a2ce 75be ab1b 21be
00000180: 2804 f83d e8ec 4f3d 2abd 41be 2d02 0fbe
00000190: 24a4 693e d858 273e 5094 d8bd bc07 7abd
000001a0: 7b95 6cbe 00d9 8ebb ed06 3bbe 4992 3fbe
000001b0: 10f3 5abc 7028 153d 446b cbbd 825e 133e
000001c0: 7722 17be ea59 613e dc32 2a3e 4e6f 51be
000001d0: 843f 77bd c04d 333c 20f1 103d 789d 6b3d
000001e0: 98ec c23d 8006 6e3c 4c5c f2bd 040a eb3d
000001f0: 553c 6ebe da33 13be 24af 78bd 9df4 f1bd
00000200: 4ac4 adbd f08e 4bbe 1451 53bd e859 543d
00000210: b6cb 21be 90ed 4bbc 44c9 313e b83f ccbc
00000220: 40e0 dc3b 5067 abbc 080d 493d 34ea 1d3e
00000230: 3641 6b3e 62b8 1d3e 02cb 6b3e 40b1 8fbc
00000240: 9d1a 5fbe f47a ebbd 721b 293e 8013 ceba
00000250: ade3 f6bd 8851 3ebe c76c 68be 6a9d 51be
00000260: d880 49bd 4033 083e 8e45 063e dd85 6fbe
00000270: 9aeb 1a3e 5f57 42be 3c05 52bd 4c67 c9bd
00000280: 5859 3fbd 4c0d 43bd d8dc 5ebe be70 56be
00000290: 6473 1bbd 008e 4d3b eca4 e1bd 841c bb3d
000002a0: 0b89 5fbe 5016 86bc d668 5a3e f09a cabd
000002b0: 4444 603e f0e2 b33d cc21 60be 6e22 1d3e
000002c0: 9045 e5bc 6ebc ddbd 5c99 463e 18b2 48be
000002d0: f032 d53c 08fe 4fbd c05a 313e 9ca7 8a3d
000002e0: 58ac ee3d 2c6b af3d d0e4 6ebd 44ec 50bd
000002f0: 7caa 4cbe 0c92 063e 8a30 453e 82ee 293e
00000300: 6e2f 2fbe 003a 313c 3013 2fbe 60b7 08be
00000310: fcb7 10be ccbf a93d b8ff 13be e063 adbb
00000320: 802a 273c a818 203e d6bc 3bbe f07f 2abe
00000330: 0836 10be 40d5 2d3e 0a8d b2bd 627c 513e
00000340: 7c9d b33d 5096 fb3c 80a4 ecba c861 44bd
00000350: 7048 f93c f0d7 62bd 005e dfba 3082 fd3c
00000360: 0544 42be e32b 02be ca8b 483e 898d 49be
00000370: 10ab 8ebc 10af 753e 5c6e b33d e003 e13b
00000380: 6a3a 57be 840f f63d 48e6 30be c2ff 8cbd
00000390: c2a7 a6bd 241d 13bd c0dc 2d3b a6d8 4c3e
000003a0: 4009 f83c 7c73 5e3e 3aec 173e b203 1dbe
000003b0: 1cc7 de3d ee8f 2fbe fa84 d2bd 3418 923d
000003c0: bc02 a43d f252 3a3e 58e6 9fbd 0090 cb39
000003d0: 34b8 ff3d 002f 70be 928e 333e 1d5f 4dbe
000003e0: 0012 5b3b 28e6 28bd 7acd 02be 584d 033d
000003f0: e05e 4d3e ec32 91bd a172 13be 28b4 b7bd
-0.0018158257 0.13010669 -0.19961776 -0.17849143 -0.09341365 0.06503773 -0.004805401 0.19230396
-0.021523595 0.06417796 -0.07329744 -0.047674105 -0.23170604 -0.16062701 -0.09997879 0.008984387
0.09588286 0.14552689 -0.16442487 -0.10561524 0.0880931 0.20139867 -0.04991387 0.18149227
-0.039092705 0.025663674 0.21961024 -0.22499311 -0.15268537 -0.06140159 -0.09454037 0.20955098
-0.15720665 -0.111647114 -0.1694452 -0.2271494 -0.14157785 0.20848313 0.108223855 0.11755034
0.012755334 -0.12434401 0.041033298 -0.22645423 -0.17524806 -0.12503439 0.15302491 0.14220378
-0.10756335 -0.008751258 0.15511626 0.24111268 0.096258074 0.032764822 0.16261682 -0.14280555
0.045195073 -0.1880392 -0.16809808 -0.12528992 0.10974082 0.09753823 -0.14366658 0.07327172
0.13314527 -0.0306122 0.009260386 0.05619666 0.15046343 0.23288128 -0.18690366 -0.08888197
0.09531891 0.20095274 0.21105626 0.21400294 0.04826811 -0.21090478 0.022311449 -0.15173158
-0.22603208 0.21549109 0.18441433 -0.24193606 0.04539588 -0.040857553 -0.03991194 -0.11102235
0.09326857 -0.1436547 0.088911444 0.12265223 0.17362437 0.09068677 -0.24004605 -0.1573321
0.12110168 0.05076304 -0.18919817 -0.13965674 0.22816521 0.16342485 -0.10575163 -0.061042532
-0.23103897 -0.0043593645 -0.1826436 -0.18708147 -0.013363615 0.036415517 -0.09932569 0.1439152
-0.14759241 0.22006956 0.16620964 -0.20452616 -0.060363308 0.01094383 0.035386205 0.05752322
0.09517783 0.014527917 -0.118340105 0.1147652 -0.23265202 -0.14375249 -0.060713902 -0.118142344
-0.08484705 -0.19878745 -0.051590994 0.051843554 -0.15800366 -0.012446776 0.17361933 -0.024932727
0.0067406 -0.020923287 0.049084693 0.15421373 0.22974095 0.15402368 0.2302666 -0.017540574
-0.21787496 -0.11498061 0.16514376 -0.0015722364 -0.120551445 -0.18585789 -0.22697745 -0.20470205
-0.04919514 0.133008 0.1311247 -0.23390909 0.15128937 -0.18978642 -0.051274523 -0.098341554
-0.046716064 -0.047620103 -0.21763933 -0.20941445 -0.037951842 0.0031365156 -0.110177845 0.09136298
-0.21829621 -0.016368061 0.21329054 -0.09892833 0.21901041 0.08783519 -0.21887892 0.15345165
-0.027987272 -0.10826956 0.1939444 -0.19599187 0.026025265 -0.050779372 0.17319775 0.0677025
0.11653966 0.08565363 -0.05832368 -0.05100657 -0.1998691 0.1314165 0.19256797 0.1659489
-0.17107937 0.010817051 -0.17097163 -0.13351202 -0.14132684 0.082885355 -0.14453018 -0.005291447
0.010203004 0.15634406 -0.18333754 -0.16650367 -0.14083111 0.1697588 -0.08718307 0.20457605
0.08770272 0.030711323 -0.0018054396 -0.047944814 0.030430049 -0.055381715 -0.0017041564 0.030945867
-0.1897126 -0.12712054 0.19584575 -0.19682898 -0.017415553 0.23992562 0.08761284 0.006866917
-0.21018377 0.12014678 -0.17275345 -0.068847194 -0.08137466 -0.035916463 0.0026529282 0.2000452
0.030277848 0.21723741 0.14836207 -0.15333441 0.10877821 -0.17144749 -0.102792695 0.07133523
0.08008334 0.18195704 -0.078076065 0.00038826466 0.12486306 -0.23455429 0.17534855 -0.20055814
0.0033427477 -0.04123512 -0.12773696 0.032056183 0.20055723 -0.07089791 -0.14399196 -0.08969909

bias f4 [256]
00000000: f1d3 fabd b084 2d3d f08d 643e b08f 233d
00000010: a624 f6bd 200a 053c e9cd 63be 3458 1fbe
00000020: e086 38bd 85c3 1abe de4f 523e 90d5 403d
00000030: d85c 403e 4436 62bd 3029 0abd 4896 7a3d
00000040: 42b1 93bd e450 a9bd b2a1 73be 3c19 3b3e
00000050: 14c5 603e 3ee7 75be 7857 a4bd 96da 3bbe
00000060: e2a0 c9bd 9213 3d3e e0d9 043e f029 9abc
00000070: a025 d43d b856 943d c0a1 073e 5094 47be
00000080: 9c89 993d 7a37 6bbe e255 23be 241a b9bd
00000090: e893 c1bc 0c60 6abe e0c9 c53b 609b 1e3d
000000a0: e620 c5bd 481c a13d 0a05 593e 14b1 29bd
000000b0: f444 04be 5000 5cbe c059 35be e45c 09be
000000c0: 829a 37be 6a48 c3bd dad0 083e b86e 9b3d
000000d0: 84d9 5f3e 7894 763e a6de b2bd b485 c2bd
000000e0: 00f2 073d 08c3 45be f615 073e 70cb 32bd
000000f0: c0f4 4fbe 2c81 3bbe 7422 2bbe cc85 883d
00000100: fa61 3e3e d6c2 443e bcc5 88bd 6442 10be
00000110: 6475 dcbd 3aa8 29be 3810 80bd 1d4d 60be
00000120: f4be 043e 7fc0 69be c47d 1abe 0eac 263e
00000130: dfc5 39be 387e 6d3d 5e06 3a3e f2ce 743e
00000140: e454 fb3d 064d 85bd 72eb 0d3e a024 03bc
00000150: 1428 99bd 0011 4f3a a0d5 5e3d 2887 263e
00000160: 9880 d03d f82c ed3d 309d 143d c000 48bc
00000170: 7491 d03d f0f0 6e3d 5fa6 6dbe c09c 203d
00000180: 1296 dcbd f2b3 03be 0c18 c03d f024 4b3d
00000190: e83a 283d e6a1 ebbd a884 e53d cc10 693e
000001a0: d010 f33c 8029 cc3d dee3 59be 90a5 133e
000001b0: 588d ac3d 78c8 df3d ac22 cf3d d0a5 82bd
000001c0: a085 6ebc 283a 703e 3abb 353e e004 32be
000001d0: 4a0d 453e 142c 773e 90a5 023d 66c3 41be
000001e0: f890 403d 14a2 48bd a690 323e f09d 6ebe
000001f0: a038 7e3d c06d 3abb 2069 9c3c aad7 2a3e
00000200: 6091 8f3b 70f2 47be 29e0 10be c2e2 c6bd
00000210: 00e6 d33c 74ae bf3d 046e 39bd ae0a c4bd
00000220: f4f5 d93d 9e7a 71be fe8b 2d3e 48f7 e6bc
00000230: 50d0 2c3e 60a9 3b3e d03f d43c b81f 9d3d
00000240: d778 0cbe 86f1 313e a05c 113e bc06 1cbd
00000250: 7c9b c13d 8094 5ebc d809 423e 2878 cc3d
00000260: 4410 353e 35c0 61be f8fa 713e e410 b93d
00000270: 2c7e f13d 485d 5d3d 081e 233e e2ce 693e
00000280: c042 a9bc 12c8 4bbe 800e 643e 4c81 51bd
00000290: 868d efbd 7ce2 183e 389a 0a3e 8000 053d
000002a0: 4070 79bc 100b 3ebd 6eb8 633e e051 173e
000002b0: bae7 133e 1a5f 1e3e ccfa 01be 306c 4f3d
000002c0: c2d9 56be 3c4a 103e 402c 76be 6035 78be
000002d0: f47e 75be 4427 193e 80c5 ce3c 0095 103a
000002e0: 5802 1e3d 4cfb bbbd 62d5 96bd 7c4a 27be
000002f0: 849c 72bd a4d2 18be c019 d13b a022 433e
00000300: 7a50 4dbe e844 f43d 20ba 38be d0cc cdbd
00000310: 4042 423d a0ef 2a3d d2ab 4b3e 0048 beb8
00000320: aa2e bdbd ba6c cdbd 8000 e93b 8f39 3abe
00000330: d9b9 42be 7486 d4bd c027 cc3b b0b9 27be
00000340: 27c5 0dbe 4a53 313e ca82 653e 8896 9bbd
00000350: 0913 55be 162b bebd 7879 c83d a834 a13d
00000360: 1afb 99bd 7dbb 5abe 0c5b 95bd f81f 5ebd
00000370: ee04 0f3e 184e f6bd 0a0e 153e 78ce 093d
00000380: 187f 26bd 9154 5dbe b831 753e 0025 31bd
00000390: fa43 1c3e 8b77 00be 6fdb 71be 27f7 45be
000003a0: de8e febd f22f 9ebd fc48 0cbd 0222 4f3e
000003b0: 830c 65be f0ea f73d 68f9 503e 009b cc3a
000003c0: b4e2 1abe 0031 fe3b e0ad 6b3d a8c6 db3d
000003d0: 44fc 96bd 2a75 aabd ac55 eabd c136 70be
000003e0: 3073 ae3d dcc2 3bbe 249f eebd c091 23bb
000003f0: 8275 3f3e 9ad2 5c3e 04a5 34be 7865 573e
-0.12247456 0.04236287 0.2231977 0.039931953 -0.12018709 0.00812009 -0.22246517 -0.1556099
-0.0450505 -0.15113647 0.2053828 0.04707867 0.18785417 -0.055227533 -0.033730686 0.061178476
-0.072115436 -0.08267382 -0.2379215 0.18271345 0.2195018 -0.24013993 -0.08024496 -0.18345103
-0.09845139 0.18464497 0.12973738 -0.018818825 0.10358739 0.07243103 0.13245296 -0.1949017
0.0749695 -0.22970381 -0.1595073 -0.09038189 -0.023630098 -0.22888201 0.0060360283 0.038722396
-0.096254155 0.07866722 0.21193328 -0.04142864 -0.12916929 -0.21484494 -0.17710018 -0.13414341
-0.17930034 -0.09535296 0.1336092 0.07589477 0.2186032 0.24080074 -0.08733873 -0.09498158
0.033189774 -0.1931268 0.13191971 -0.043651044 -0.20308208 -0.18310994 -0.16712362 0.06666145
0.18592063 0.19214949 -0.0667834 -0.14087826 -0.10764578 -0.1656808 -0.062530935 -0.21904416
0.12963468 -0.22827338 -0.15087038 0.16276571 -0.18141888 0.0579817 0.18166491 0.23907068
0.12272051 -0.06508832 0.13859347 -0.008004338 -0.074783474 0.00078989565 0.054402947 0.16262496
0.10180777 0.11580843 0.03628272 -0.01220721 0.10183993 0.058335245 -0.23207997 0.03921199
-0.10770811 -0.12861612 0.093795866 0.049595773 0.041071802 -0.11505489 0.11206943 0.22760314
0.029671103 0.09968853 -0.2127833 0.14418626 0.08425397 0.10926908 0.10114035 -0.063792825
-0.014558226 0.23459685 0.17747203 -0.17384672 0.1924335 0.24137908 0.031896174 -0.18922195
0.047013253 -0.048982695 0.17437991 -0.23302436 0.06206572 -0.0028446764 0.019093096 0.16683832
0.0043813437 -0.19526076 -0.1414801 -0.09711219 0.025866508 0.09359446 -0.045270935 -0.095723495
0.10642615 -0.23581931 0.16947934 -0.028194085 0.1687634 0.1832633 0.025909334 0.076720655
-0.13717972 0.1737729 0.1419549 -0.03809236 0.094534844 -0.01358521 0.18949068 0.099838555
0.17681986 -0.22045977 0.23630893 0.09036425 0.117916435 0.054044038 0.15929425 0.22832826
-0.020661712 -0.1990054 0.22271156 -0.051148698 -0.11696915 0.14930147 0.13535392 0.03247118
-0.015224516 -0.04639727 0.22238323 0.14777327 0.14443865 0.15465966 -0.12693328 0.050640285
-0.20981506 0.14090818 -0.24040318 -0.24239111 -0.2397421 0.14956385 0.02524066 0.0005515367
0.038576454 -0.091787905 -0.07364918 -0.16337007 -0.059231296 -0.14924103 0.0063812435 0.19056177
-0.2005023 0.11927205 -0.18039751 -0.100488305 0.047426462 0.04173243 0.19889763 -9.073317e-05
-0.09237416 -0.100305036 0.0071106553 -0.1818602 -0.19016208 -0.103772074 0.0062303245 -0.16379428
-0.13844739 0.17316929 0.22413173 -0.07597071 -0.20808043 -0.09285562 0.09788793 0.078713715
-0.07518597 -0.21360584 -0.072927564 -0.054229707 0.13966724 -0.12026614 0.14556137 0.03364417
-0.04064855 -0.21614291 0.23944747 -0.043248177 0.15260306 -0.12545602 -0.23618864 -0.19332562
-0.124295935 -0.077239886 -0.03424929 0.20227817 -0.22368054 0.12105358 0.20407641 0.0015610158
-0.15125543 0.007757306 0.057538867 0.1073125 -0.073723346 -0.083231285 -0.11442122 -0.23458387
0.08518064 -0.18336052 -0.116514474 -0.00249587 0.1869717 0.21564713 -0.17641073 0.21034801

weight f4 [256, 256]
00000000: e851 653d 58ce 4e3d a04d b23b f89a 4d3d
00000010: 6cc3 f83c fcb1 37bd 88ee 06bd 8010 9a3a
00000020: 066c 35bd a497 a8bc da65 4e3d 7060 ee3c
00000030: f2f1 5e3d 0035 fb39 dc88 02bd de6e 293d
00000040: b0fb 963b 0872 2c3c f0ee d8bc 9050 d23c
00000050: 5e11 3dbd 3048 4c3d b2f5 5f3d acbd b83c
00000060: 985a 473d 4462 1b3d ac8a c3bc 9009 5ebd
00000070: 90bf 063c 7ebc 203d 7083 d1bb 4052 ac3b
00000080: d6be 3d3d a466 d33c 0c62 3f3d 885c 163c
00000090: f091 e53b 30f0 74bc 70cc 2cbc 220e 08bd
000000a0: d827 2b3d 0c7c 693d c802 be3c 00c4 e83a
000000b0: 8803 a9bc c8c1 7cbd 089c 3dbc 6abc 35bd
000000c0: c0fe 3cbd d0c4 4abc 3871 49bc 3091 4e3c
000000d0: c68d 39bd 04fa 373d 5a13 69bd d07a f2bc
000000e0: b861 c2bc 0088 7c3b a4a6 d33c a8ed 86bc
000000f0: 88d0 1f3c b06a 72bc f05f c9bc e03b 0fbc
00000100: 902c 4e3c 76aa 78bd e42f 32bd 1400 483d
00000110: c884 e73c c008 dbba 605a 013b 1059 0d3c
00000120: 1800 6e3c f0c7 2ebd 9890 8bbc 5cf3 6abd
00000130: 7843 49bd c8ab 40bc b034 07bc ba3a 483d
00000140: 1861 303c 8809 26bc 80f4 e2ba 5af9 0e3d
00000150: f418 9bbc 306e 3fbc e86b 4dbc 746e 4ebd
00000160: f01d 0fbc 36a8 6cbd d09a 09bd 92f2 22bd
00000170: 76b3 3e3d bad2 6bbd 06aa 763d 1cf9 bf3c
00000180: ca00 2dbd e417 543d f0a5 61bc 04d4 58bd
00000190: 8034 0ebc 1c09 fd3c ece7 78bd 3079 99bb
000001a0: fc52 d03c 148a c7bc 0087 ba3b 1caa c8bc
000001b0: f6bf 2bbd e87b 483d b0c5 35bd 0015 40ba
000001c0: d086 aa3c aa10 0fbd 0437 f73c f498 54bd
000001d0: 387e 743d 1406 e43c c0f8 10bc 6cf3 54bd
000001e0: c0a1 fc3a 749c b53c 3809 0bbd 70f5 00bc
000001f0: a21f 7fbd 88ec 7fbd 106c debb f634 563d
00000200: c0c7 40bb a484 a03c 8ca7 ccbc 802e a7bc
00000210: f01c e1bb 886a 01bd 68a6 1c3d 32a4 1f3d
00000220: b803 47bd 4c0a 9d3c 8082 d3bc 1636 13bd
00000230: 50da f9bb 98cd 9ebc 90c3 11bd c0e9 163c
00000240: 381e 123d 9802 1ebc 9042 8fbb 201d 9a3b
00000250: ec0b dcbc 8287 073d aa34 6c3d e02d bbbb
00000260: 1038 8b3b ba44 4e3d daad 513d 3c70 3ebd
00000270: c81b edbc 2c1e 7bbd 3ccc 1c3d 12cf 473d
00000280: 2859 babc 6c3c a43c 380c 783c 6840 5cbd
00000290: 7475 cc3c 903a fb3c 8029 b43a c005 d23b
000002a0: 88f3 6d3c aa6c 383d ae31 623d 282d 133c
000002b0: 503e da3c ccf3 85bc daa0 183d 6065 c9bc
000002c0: 9c04 53bd a437 f03c d8e4 bd3c f063 613c
000002d0: 04d7 d93c 80b4 f33b e840 ae3c 9ca1 d03c
000002e0: 2819 0abd e076 5bbb 8851 1a3c 7877 1bbc
000002f0: 9e3d 57bd 9045 c23b ae73 1c3d 8ee8 08bd
00000300: d057 7b3d c887 693c ccc1 d93c d8b4 c5bc
00000310: 4c69 51bd cc8b bebc c047 fa3a 104e e9bc
00000320: 2afc 633d 3ed9 23bd 266c 2cbd fc9b b5bc
00000330: c0ab 653d 541d eabc 6ed5 6c3d 180d f63c
00000340: f096 1bbc bc67 043d b868 f33c 4c4d 02bd
00000350: d0d0 52bc c8f7 773d 22c5 123d 4012 fabc
00000360: d0ab 89bc 687c 0f3d 5ef6 013d 4057 a23b
00000370: b2b8 24bd 20d1 3cbd 8022 58bc dc3e bc3c
00000380: 7056 dabb 8009 56bd 20f6 7abc cc87 7f3d
00000390: c496 53bd 2eae 46bd deed 203d c8b8 7e3d
000003a0: 3443 76bd 4889 67bd 5818 a0bc ae3d 7f3d
000003b0: 624b 11bd 601a af3b ccfa 503d a840 b5bc
000003c0: 4003 9dbc f2d5 2bbd a044 1d3b e4f1 6e3d
000003d0: 085d d13c 9af0 333d c0ae 87bb 90a6 22bc
000003e0: 18f1 36bc 4002 123d 6046 06bc 92ac 5abd
000003f0: b4c9 b3bc b05f c83c d897 793d 4032 3abc
0.055986315 0.050489753 0.0054413825 0.050196618 0.030366622 -0.044847474 -0.032942325 0.0011754185
-0.044292472 -0.02058012 0.050390102 0.02909872 0.054429956 0.0004791394 -0.0318688 0.041365497
0.00460764 0.010525234 -0.026481122 0.02567318 -0.04615914 0.04987353 0.054677673 0.02255138
0.04867038 0.03793551 -0.023869835 -0.05420834 0.008224383 0.03924226 -0.0063938424 0.0052588284
0.046324573 0.025805779 0.046724364 0.009177335 0.0070059225 -0.014949843 -0.010546789 -0.033216603
0.041786045 0.057003066 0.023194686 0.0017758608 -0.020631567 -0.06170824 -0.011572845 -0.04436914
-0.046141386 -0.012376025 -0.01229506 0.012607858 -0.04530122 0.044916168 -0.05690322 -0.029599577
-0.023728237 0.003853321 0.025836296 -0.016470745 0.009754308 -0.014795944 -0.02458188 -0.008742303
0.012583867 -0.06070944 -0.043502703 0.0488282 0.028261557 -0.0016710982 0.0019737706 0.008627191
0.01452639 -0.042671144 -0.017036721 -0.05736099 -0.04913661 -0.011759706 -0.008252308 0.04888413
0.010765336 -0.010134108 -0.0017315298 0.03490577 -0.018932797 -0.011683986 -0.012537934 -0.050398305
-0.008735165 -0.057777606 -0.033594906 -0.039782114 0.046557866 -0.05757401 0.06022074 0.023434214
-0.04223708 0.051780596 -0.013772473 -0.05293657 -0.008679509 0.030888133 -0.060768053 -0.004683636
0.025430195 -0.024357833 0.005692363 -0.024495177 -0.041931115 0.04894629 -0.044377983 -0.0007327348
0.020816237 -0.034928 0.0301776 -0.05190368 0.059690684 0.02783493 -0.008848369 -0.051989958
0.001927428 0.02216933 -0.03394434 -0.007871017 -0.062286027 -0.062481433 -0.0067877844 0.0522966
-0.0029415935 0.019594498 -0.024982236 -0.020407915 -0.0068699047 -0.031595737 0.038244635 0.03897495
-0.04858753 0.019169949 -0.025819063 -0.035940252 -0.007624902 -0.019385144 -0.035586894 0.009211004
0.03567335 -0.009644173 -0.0043719485 0.004703179 -0.026861154 0.033088215 0.057667412 -0.005712256
0.0042486265 0.05035851 0.05119119 -0.046493754 -0.028943911 -0.06130807 0.03828071 0.048781462
-0.022747591 0.020048343 0.015139632 -0.05377236 0.02495835 0.030667573 0.0013745278 0.006409377
0.014523394 0.045025505 0.05522316 0.008982934 0.026641041 -0.016351603 0.037262775 -0.024584472
-0.051518068 0.029323407 0.02318041 0.013756737 0.026591785 0.0074372888 0.021271184 0.025467686
-0.033715397 -0.0033487603 0.009418853 -0.009488933 -0.052548997 0.0059287027 0.03819626 -0.033424906
0.06136304 0.014253564 0.026581667 -0.024134085 -0.05112581 -0.02326002 0.001909487 -0.028479606
0.055660404 -0.0400021 -0.042095326 -0.022169106 0.056071997 -0.028578438 0.05782073 0.03003554
-0.0094964355 0.03232549 0.02971302 -0.031811997 -0.012867168 0.060539037 0.03583253 -0.03052628
-0.01680556 0.035030752 0.031729095 0.0049542487 -0.0402152 -0.046097875 -0.013191819 0.022979192
-0.006663136 -0.052255154 -0.01531747 0.062385365 -0.051657453 -0.048505954 0.039289348 0.06218794
-0.060122684 -0.056527406 -0.019542858 0.06231468 -0.03547228 0.0053437203 0.05102043 -0.022125557
-0.019166589 -0.04195208 0.0023997203 0.058336154 0.025557056 0.043930627 -0.004140705 -0.009927407
-0.01116588 0.035646677 -0.00819549 -0.053387232 -0.021946765 0.02445969 0.060935825 -0.01136452

bias f4 [256]
00000000: 620e 74bd 0014 f038 bcd1 6b3d d8b1 4ebd
00000010: 8057 403c 0eeb 403d 9ab6 2b3d 5cb0 1dbd
00000020: 40c2 bc3b b414 89bc 6029 7dbb f0a7 fcbb
00000030: 88bb 6ebd 9ee4 793d 9ce5 3b3d 627b 223d
00000040: 4031 3cbb 3e0d 2a3d 88c1 63bd 80d7 4d3a
00000050: e0a9 86bb d0dc c13c 183d 53bd 949f 59bd
00000060: c085 1fbc 00c6 3dba 4097 1fbb 36e1 41bd
00000070: 783b 4bbd 6049 46bc f468 6dbd 60c9 68bd
00000080: a82c 55bd 9af4 043d 4ca5 113d 80bd a5bb
00000090: 3c09 b6bc 0027 1abb 1c02 ca3c 2e61 663d
000000a0: 302c 1e3c e62e 343d 80f6 febb e40b 6c3d
000000b0: 58db 643d 2088 783b 6068 96bb b43d 08bd
000000c0: a657 76bd 4c87 c0bc b0c2 69bc 1e52 1bbd
000000d0: aa85 373d d097 853c 5853 7e3d 4cbe 833c
000000e0: 003b 633a 1000 65bc 3cfb 683d f021 f1bb
000000f0: 3c40 b5bc 7822 08bc 803a d2ba 008a 083a
00000100: 20a4 12bc 2ccd 0b3d 7a16 473d 707b 5bbd
00000110: 0666 4abd 8496 a7bc 8257 0cbd dc6d f43c
00000120: d64d 17bd 02e0 3e3d a891 49bc c0a4 80ba
00000130: 5037 53bd a453 c9bc c8ee ce3c ec05 c03c
00000140: 0072 643d 7065 9e3c 006f 033d a8ea 593c
00000150: c8a2 42bd 8aff 76bd 68d8 e83c d0ec 1cbd
00000160: 9e4e 27bd d88d 503c 9697 4e3d 4022 7d3c
00000170: 8839 e63c 2a16 723d d87b acbc 001b 283c
00000180: ea1c 3dbd ac52 9cbc 3228 543d 1ce6 463d
00000190: 0827 15bc d83c 553c 1030 663d 709c 86bb
000001a0: 3e26 19bd eebe 40bd 585a d7bc a8ce ec3c
000001b0: 0429 ecbc 1801 91bc 1462 a4bc 58d5 6abc
000001c0: 8054 df3c 489b 4d3d 8017 34bd 900e 303c
000001d0: 08f1 33bc 6857 05bd e0bb be3c a0a4 2f3b
000001e0: 1ca6 f1bc cc8e 243d c4b3 a73c 6832 52bc
000001f0: 4067 6bbd 60ea a2bc 98aa 37bc 90ee 403c
00000200: c008 a23b aa88 51bd 50f9 bd3c 10aa 923c
00000210: 821a 343d 580b 253c 400e abba 2091 54bc
00000220: 6a89 50bd 8cd9 8bbc 901e d0bb 546f 8f3c
00000230: be28 5e3d 9044 a63b 7424 ddbc 520c 1e3d
00000240: f6a5 42bd 5a07 0f3d b877 043d 6824 07bc
00000250: 48c0 313d 48b9 0ebd eec3 50bd f6cb 27bd
00000260: a88f 0dbd a452 8d3c 0808 6c3c 8019 aebb
00000270: e02e 523b fc98 f8bc 80fe 463d fac8 50bd
00000280: 8c8d e33c 1cf0 cdbc 6c1b db3c d638 0fbd
00000290: 58f2 27bd c0d7 203d c049 743c 0070 4cbd
000002a0: 7e16 133d b025 68bc 668a 413d 36e1 7a3d
000002b0: e0b7 e2bc 64c8 093d 6870 973c 760d 78bd
000002c0: 40d0 ddba 989b 29bc b0ce e5bb 147d efbc
000002d0: ca02 39bd c4ad 70bd 84a2 3abd 7c8b 473d
000002e0: fcd9 783d d059 a3bc de67 72bd 104f 8a3b
000002f0: b802 903c 6427 5c3d dab6 3bbd d8be e3bc
00000300: 8423 c83c a823 2d3d 94bf 3ebd 40cf 303b
00000310: 48d6 493c d85b 763d 90e8 2bbd fa6e 213d
00000320: d07f 023d 44ed babc 605f 4abc 6eb9 7a3d
00000330: 10f9 00bc 5a1a 68bd 60dd 79bb aed0 713d
00000340: f014 663d 66e1 13bd f819 1fbc 44a0 713d
00000350: 489c 613c d0e1 3ebc b423 a03c 6418 d83c
00000360: f4a5 bf3c 9432 63bd 52a0 58bd f4a6 f6bc
00000370: e2a4 1d3d f2f4 0e3d f4a2 4d3d a0bc 85bc
00000380: 88cd b73c 529a 6cbd 6457 dd3c acb7 3d3d
00000390: c09d 953c 16b3 253d 808f fc3b 40d7 cc3b
000003a0: b8b9 b03c 34bd 0f3d 9a7e 523d 20c9 1fbd
000003b0: 4cef cabc 0494 f8bc 0e72 32bd c8ce af3c
000003c0: b0ea 6fbd 5894 e23c f07c 4b3d e607 15bd
000003d0: 34b5 6fbd 0040 5f37 a8db 553c b25f 283d
000003e0: 1005 493c d007 5a3d 7413 49bd fe6e 51bd
000003f0: a2d1 023d d00e 3f3c 28ae 8cbc 5031 51bc
-0.05958403 0.00011447817 0.057573065 -0.050462574 0.011739612 0.047099166 0.04192219 -0.038498268
0.005760461 -0.016733505 -0.0038629398 -0.0077104494 -0.058284312 0.061009042 0.04587327 0.03966845
-0.0028715879 0.041516535 -0.055604488 0.00078522414 -0.004109606 0.023664862 -0.051571935 -0.0531307
-0.009736478 -0.0007239282 -0.0024351627 -0.04733392 -0.04961726 -0.012102455 -0.05796142 -0.05683267
-0.05204454 0.032459833 0.03555803 -0.0050579906 -0.0222212 -0.002352178 0.024659209 0.05624502
0.00965409 0.04399004 -0.00778085 0.057628527 0.055873245 0.0037922934 -0.004590079 -0.03326197
-0.06014218 -0.023502015 -0.0142676085 -0.03792011 0.044805206 0.016307741 0.0620912 0.016081952
0.00086681545 -0.013977066 0.05688022 -0.007358782 -0.022125356 -0.008308999 -0.0016039163 0.0005208552
-0.008950263 0.034131214 0.04860542 -0.053584516 -0.049413703 -0.020457514 -0.03426314 0.029837541
-0.036939465 0.04660035 -0.012302794 -0.0009814724 -0.051566422 -0.024576016 0.025260344 0.023440324
0.05577278 0.019335479 0.03208828 0.013300575 -0.04751852 -0.060302295 0.028423503 -0.03831178
-0.04084646 0.012729131 0.050437532 0.01545006 0.028103605 0.05910317 -0.021055147 0.010260344
-0.046170153 -0.01908239 0.051796146 0.048559293 -0.009103544 0.013014995 0.05619818 -0.0041080043
-0.037389986 -0.047057085 -0.026288196 0.028907135 -0.028828152 -0.017700717 -0.020066299 -0.014333092
0.027261972 0.050196916 -0.043967724 0.0107456595 -0.010982759 -0.03255406 0.023282945 0.0026801005
-0.029498152 0.040175244 0.020471461 -0.012829401 -0.057471514 -0.01988715 -0.011210106 0.011775628
0.0049448907 -0.051155724 0.02319017 0.017903358 0.043970592 0.010073505 -0.0013050511 -0.012974054
-0.0509123 -0.017071508 -0.0063512996 0.01750914 0.054238074 0.0050740913 -0.026994921 0.03858597
-0.047521554 0.03491912 0.032340735 -0.008248426 0.043396264 -0.034844667 -0.050968103 -0.040965997
-0.03456083 0.01725132 0.014406212 -0.0053130984 0.0032071397 -0.030346386 0.048582554 -0.050972916
0.027777456 -0.025138907 0.026746474 -0.034966312 -0.0410026 0.039268255 0.0149101615 -0.0499115
0.035910122 -0.014169142 0.047251128 0.061249934 -0.027675569 0.033638373 0.018486217 -0.060559712
-0.0016923025 -0.010352038 -0.0070131645 -0.029234447 -0.045168675 -0.058759466 -0.045565143 0.048717007
0.06075476 -0.019940287 -0.059181087 0.0042208508 0.017579421 0.053748503 -0.045828678 -0.027800962
0.024430998 0.042270333 -0.046569422 0.0026979 0.012319155 0.060146183 -0.041969836 0.039412476
0.031860173 -0.022818215 -0.012351841 0.061211996 -0.007871881 -0.056665756 -0.0038126335 0.059036903
0.05617231 -0.03610363 -0.009710781 0.05899073 0.0137701705 -0.011650518 0.019548275 0.026378818
0.023394562 -0.055468157 -0.05288727 -0.030108906 0.038487323 0.034901567 0.050204232 -0.016325295
0.022436872 -0.05776436 0.02701921 0.04631774 0.018263698 0.040453993 0.007707536 0.0062512457
0.021572933 0.035092548 0.051390268 -0.039010167 -0.024772309 -0.030344017 -0.043565802 0.021460906
-0.058573425 0.027658626 0.049679697 -0.036384486 -0.05852242 1.3306737e-05 0.013052858 0.041106887
0.012269273 0.053230107 -0.049090818 -0.05113124 0.031938203 0.011661246 -0.017172888 -0.012768105

weight f4 [6, 256]
00000000: e8a8 51bc ec6f 983c 8092 753d c64e 043d
00000010: a22d 54bd a460 07bd b08f 76bc 5826 b13c
00000020: ba4a 293d a40c d13c 68f3 7b3c 1034 cfbb
00000030: 0808 073d 6402 83bc e8de 1e3d 4a38 69bd
00000040: ca3e 793d 80c8 8abb 6c8b 82bc 5617 053d
00000050: 14bb 553d 90f1 023c 089f ecbc 00c6 b3bc
00000060: d054 edbb 0072 6ab9 a282 04bd a0df af3c
00000070: 3457 ae3c f28b 2abd 4800 4ebd e0d4 833b
00000080: f08b cf3c 2639 0b3d 262e 77bd 48c0 913c
00000090: 704c 10bd 3465 cbbc 66e9 6c3d 562f 17bd
000000a0: 9e3d 1bbd a825 b53c 5c48 98bc 0813 6c3d
000000b0: 9821 00bd 30db 30bc cc82 9cbc d818 37bc
000000c0: 441a edbc 98e4 953c fce5 bbbc fc15 32bd
000000d0: e23c 2e3d 386a 2c3c e861 2abd 72e5 0abd
000000e0: 3c48 253d 14aa 2d3d 40cf e63b cec9 64bd
000000f0: 9e13 5cbd c05c a03a e437 f23c 5444 8ebc
00000100: dc23 623d a0e1 dc3b 7832 f7bc f0b4 acbb
00000110: 70e1 043c 7277 1c3d 96fe 633d 0431 263d
00000120: 923a 693d e4db ce3c 80b8 7a3b b6d1 31bd
00000130: 6434 483d 485f 28bd 78e6 463c 006c 8cb9
00000140: 0441 cf3c 80b0 de3a ec6a 093d 8a4c 773d
00000150: 340e 4abd be6a 33bd 2efe 68bd 703a 573c
00000160: d2d4 5b3d 0070 b239 1807 7b3d a8b9 45bd
00000170: acda 163d b0cf 3fbd 1034 ab3c 169b 043d
00000180: a0ca e73c 98c7 35bc d08f bf3b 621c 6c3d
00000190: 1044 683d 5ed2 47bd 504b 51bc 103e 16bd
000001a0: 905c 673d 108d e1bb 62a0 013d 3c21 963c
000001b0: 1682 76bd c0eb 66bd 582e ff3c 0e04 29bd
000001c0: 405d 60bd 4840 3cbc c06a 22bb 5cad 033d
000001d0: 60cb 103b 00ff 12bd 6a4f 7f3d 50cd 583c
000001e0: 426a 43bd 4011 2b3b d053 0ebc 20b4 d43b
000001f0: 0055 e5bb 98be 1e3d 24da d6bc 3410 11bd
00000200: 2cef 9dbc 7eeb 533d 46fe 0bbd ec08 57bd
00000210: 0c42 9fbc 22d9 52bd ba0b 233d bca5 f23c
00000220: c084 65bc 625e 703d ece4 9a3c 4024 87bb
00000230: 7e0f 4abd a48e 9a3c 0053 9f3c fa11 2f3d
00000240: 1040 37bc e0c0 31bc 400e 273b e041 73bc
00000250: 0060 42bc 60a3 0dbc 5086 1f3c 6c44 7ebd
00000260: 10ca 43bd f409 003d a0a6 643b ac92 67bd
00000270: c61a 653d ccff 1abd 3c5f 66bd 30a3 87bb
00000280: 50ae 653d fa26 173d 3a25 733d 707f c03b
00000290: 3c42 25bd eaaf 0ebd c8ec 67bd bc80 6abd
000002a0: f2e8 60bd 2c22 45bd c0a1 7e3b 40b2 de3b
000002b0: 2aff 04bd c0fe 9cba 5c75 273d f07c 733c
000002c0: 2c94 393d 16dd 5d3d 8066 273b 7cb8 c3bc
000002d0: f83a 193c 3067 9fbc 4225 343d 504e 8bbc
000002e0: ea41 763d 3ed1 003d c48e 8abc 10f9 333d
000002f0: 0a64 06bd 7090 163d a0a0 78bb 603d 073c
00000300: 40ca 613b c0a3 753d ec13 78bd 2a59 463d
00000310: 486c 313d c4cb 84bc ca26 093d 7808 cebc
00000320: 921f 07bd 948b 243d 0074 1d3b 58a0 033d
00000330: a068 183b d4b2 643d 8ed0 273d 0229 433d
00000340: 4630 1bbd b854 8bbc 2808 613d 9849 713c
00000350: b8e6 88bc 7044 ebbc a8ae 2abc ca0e 18bd
00000360: 606e 4abb 54ce cfbc 60e8 5cbb 20fd 9a3c
00000370: 00ba 27bb a862 cb3c 1803 fb3c 7059 de3b
00000380: ee44 763d 6615 69bd 6ae9 5c3d 0010 39b8
00000390: f219 783d 58af d53c dcf7 b83c a842 fbbc
000003a0: c0dd 43bb c091 7dbb 1068 3abc c0fd 91ba
000003b0: 92ac 3abd c0f7 bdbc 0ef0 3c3d 3081 6e3d
000003c0: 1e70 37bd 0228 713d 784d 52bd a845 38bd
000003d0: 86e9 43bd 68e3 3b3d 54e9 a83c 209f 06bb
000003e0: 40b4 f13b fe1b 7e3d 40e9 f13a 0830 00bc
000003f0: de46 203d 903b 5e3d a89c 61bc 1e70 7a3d
-0.012796618 0.018608056 0.059954166 0.032301687 -0.05180133 -0.033051148 -0.015048906 0.021624729
0.04133103 0.025518723 0.015377857 -0.006323345 0.032966644 -0.01599235 0.0387868 -0.056938447
0.060850896 -0.0042353272 -0.015935622 0.032492958 0.052180365 0.007992163 -0.028884426 -0.021945
-0.0072427765 -0.00022358447 -0.032351144 0.021468937 0.021281816 -0.04163737 -0.050293237 0.0040231794
0.025335282 0.033990048 -0.060346745 0.017791882 -0.035229146 -0.02482853 0.057839774 -0.036910377
-0.03790056 0.022112682 -0.018589191 0.057635337 -0.031282037 -0.010794446 -0.019105338 -0.011175357
-0.028943188 0.018297479 -0.022936814 -0.043477997 0.04253853 0.010523371 -0.041597277 -0.033910222
0.04035209 0.042398527 0.007043749 -0.05585652 -0.053729646 0.0012234673 0.029567666 -0.017366566
0.05520998 0.006740764 -0.030175433 -0.005270593 0.008110389 0.03819985 0.055662714 0.04057409
0.056940623 0.025251336 0.0038256943 -0.043412887 0.04887809 -0.041106492 0.012139909 -0.00026783347
0.025299557 0.0016989857 0.033549234 0.060375728 -0.04932995 -0.04380297 -0.05688303 0.013136491
0.05366976 0.00034034252 0.061286062 -0.04827276 0.036829636 -0.046828926 0.020898849 0.032374464
0.028294861 -0.01109495 0.005846001 0.057644255 0.056705534 -0.048784606 -0.012774304 -0.03668028
0.05648476 -0.006883271 0.031647094 0.018326394 -0.060182653 -0.056377172 0.031150028 -0.041263632
-0.05477643 -0.011489935 -0.0024782866 0.03214775 0.0022093877 -0.03588772 0.062331595 0.013232544
-0.047708757 0.002610281 -0.008686975 0.006491199 -0.006998658 0.038755983 -0.026227064 -0.035415843
-0.019279085 0.051738255 -0.03417804 -0.052498743 -0.019440673 -0.051476605 0.039806105 0.029620044
-0.014008701 0.05868376 0.018907987 -0.0041241944 -0.04933118 0.018866844 0.019448757 0.042741753
-0.011184707 -0.010849208 0.0025490671 -0.014847249 -0.0118637085 -0.008644909 0.009736612 -0.06207697
-0.047800124 0.031259492 0.0034889355 -0.05653636 0.055933736 -0.037841603 -0.056243166 -0.0041393265
0.05607444 0.036902405 0.059361674 0.0058745667 -0.04034637 -0.034835733 -0.056622297 -0.057251677
-0.054909654 -0.048128292 0.0038853735 0.0067961514 -0.032469906 -0.0011977777 0.040883407 0.01486133
0.045307323 0.054165922 0.0025543272 -0.02389168 0.009352438 -0.019458383 0.043980844 -0.017005116
0.060121454 0.03144955 -0.01691378 0.043938696 -0.03281025 0.03675884 -0.0037937537 0.008254379
0.0034452826 0.059970617 -0.060565874 0.048424877 0.043316156 -0.016210444 0.033484258 -0.025150523
-0.032989092 0.040172175 0.002402544 0.032135338 0.002325572 0.055834606 0.040970378 0.04764653
-0.037887834 -0.01700817 0.05493942 0.014727019 -0.016711578 -0.028719157 -0.010417618 -0.03712348
-0.0030888543 -0.02536694 -0.0033707842 0.018919528 -0.0025593042 0.024827316 0.030641124 0.006785564
0.06012433 -0.056905173 0.05393354 -4.412234e-05 0.06057162 0.026084587 0.022579126 -0.030671433
-0.0029886812 -0.003869161 -0.0113773495 -0.0011138245 -0.045574732 -0.023189425 0.04612737 0.05822867
-0.044784658 0.058876045 -0.05134341 -0.044988304 -0.047830127 0.04587117 0.020619072 -0.0020541623
0.007376224 0.062038414 0.0018456355 -0.007823952 0.039130084 0.054256022 -0.01377026 0.06114208

bias f4 [6]
00000000: 1c6a 5a3d c0e5 6c3d d08d 963b a093 6f3b
00000010: 683e 43bd c84c 06bc
0.05332385 0.057836294 0.004594542 0.0036556497 -0.047666937 -0.008197017

weight f4 [256, 17]
00000000: 8a24 5c3e e15d 1fbe c8dd a3bd dbf6 52be
00000010: fee6 bcbd 6e7f 463e c478 a33d e84c 5b3e
00000020: fca7 40be cf9a 53be c080 6cbb 6091 6dbc
00000030: 64c5 bb3d 5655 513e 04a1 fe3d e626 1b3e
00000040: 0a2f 0cbe 9045 063e 02ad 6a3e 1052 383d
00000050: cc6a 5fbe fa42 43be f0d8 e03c 2969 67be
00000060: 1076 b6bc 4494 28be 987d 6d3d 7062 863d
00000070: 04b7 19be 5841 1a3e 2cbb 223e 9cbe b73d
00000080: 9c23 42bd 0411 d83d 18fa 863d 267c 1cbe
00000090: ac8a 343e 3cae aabd 5068 3dbe 5c68 943d
000000a0: d8fc 80bd 9c55 3a3e 60fd fa3c 48df 4e3d
000000b0: e0d3 273e 28dd fbbd 8a02 28be 52f7 ffbd
000000c0: 84d4 fa3d fc78 cd3d e86a 8b3d 1a24 1bbe
000000d0: 3018 aabc d4a3 51be 00be 203b 7810 a13d
000000e0: e37d 3cbe 085f bebd 6044 d4bb ac1d d43d
000000f0: 6c92 28bd 2ab8 2c3e 5e9e 5f3e d4c0 133e
00000100: dc67 483e 9c5b 1c3e 1c79 2abe 8428 97bd
00000110: c37e 6fbe 400c 4b3e b864 603e 686e 393e
00000120: 7277 283e 148d d23d aa2e 69be 98d3 c43d
00000130: 97f2 5ebe aa91 27be dcda 1f3e 0499 2f3e
00000140: d31a fbbd 2839 ed3d 309e 16bd 461e cabd
00000150: de6f 74be 8043 973b 45e9 f6bd 98cf 0f3e
00000160: ec80 bbbd 621a 93bd 0053 d9bd 8679 5cbe
00000170: 5a47 91bd 4047 74be 805e 563c 0044 0b3c
00000180: 1a62 b4bd 5400 6cbe ecee 30bd 58f3 1cbe
00000190: 9840 98bd 068f 35be d0a8 d63d 6e96 70be
000001a0: 6641 a0bd d08f c73d 40a4 203e 1cfe 26be
000001b0: 2b83 70be b027 5b3d d4ff 1f3e e4a3 58bd
000001c0: dafb 183e a8ab 623e 30ff 5e3e 0846 623d
000001d0: c0e2 123c 4250 e1bd 36e6 0f3e 740c 3dbe
000001e0: 1475 b83d 0876 cdbc 5209 a6bd ae7d 70be
000001f0: 7ffb 13be acb0 563e d0c4 ac3c 285d 3bbe
00000200: e855 1f3e cc0a c03d 9c11 583e 3430 103e
00000210: b694 773e a015 143c ec4a 823d e4ee 1cbe
00000220: 6053 4dbe 0063 34be c832 f93d 563e 91bd
00000230: b840 8a3d 4ca0 e2bd fa24 90bd dcd5 353e
00000240: f4e2 b53d d790 2ebe 06dc 22be 5e84 67be
00000250: e48c 883d 0849 623d 8cc7 843d e628 153e
00000260: f40b 693e 706d 833c 243c 653e d429 443e
00000270: 1659 b3bd e0f4 143d f886 3bbe bc0c bfbd
00000280: 2056 503e a81f cf3d 8ece 683e 7aa8 4c3e
00000290: a84d eebc f63c 193e 0499 1abd 524a aebd
000002a0: 5fe3 64be 0c2c 8abd 0268 0cbe 6865 cdbd
000002b0: e4b0 653e bcfa 64bd 0013 e13c 0e14 4d3e
000002c0: fe27 713e 785b e33d 2075 333e 8046 6d3d
000002d0: 2794 11be d731 01be c033 5b3e 6c8c cb3d
000002e0: abde 33be 48d2 e53d c88d aebd 8245 4ebe
000002f0: 3cf0 ad3d 1659 95bd 942d 603e 8cc3 9cbd
00000300: 95e9 fcbd 8893 773e c2fd cbbd 6446 9bbd
00000310: 6229 8ebd dc54 3d3e a220 01be 25be 42be
00000320: 80a3 16be 3851 48bd 6082 643c 12db 153e
00000330: 38e4 0c3d eac6 3cbe e04f 243c 5cd8 fcbd
00000340: 74a2 ce3d 9a2c 46be 48d2 5fbd 9a6c 20be
00000350: b823 393e 2864 f0bd 600c a3bc 1893 bbbd
00000360: 9c4d 15bd e02c 1f3e 0c64 68bd ec0e 133e
00000370: 7c1f 3c3e 7804 86bd 94b5 833d d0ee 5abc
00000380: 8e94 723e a063 903d 7825 fcbc 808f 75bd
00000390: 40f1 713d e04d 123d 8e3a a2bd 4ab9 013e
000003a0: 8a2f 6b3e 88f2 b83d 9d94 20be 88fa 87bd
000003b0: b266 433e a0ba 393e 9ec5 393e 862c b6bd
000003c0: 4049 103c def3 353e 1cf8 a13d 1007 933c
000003d0: 7cb3 82bd 90aa e23c e2e2 63be 70da a93d
000003e0: e0e9 3d3e 1076 023e f0f9 74be a051 09bc
000003f0: e07c bbbd a4a1 c33d 4074 13bc 089e 4d3d
0.21498314 -0.15563156 -0.08001286 -0.2060198 -0.09223746 0.19384548 0.079820186 0.21416056
-0.18814081 -0.20664524 -0.0036087483 -0.014499992 0.09168509 0.2044271 0.12433055 0.15151557
-0.13689819 0.13112473 0.2291756 0.045000136 -0.21818084 -0.19068518 0.027447194 -0.22598709
-0.022273093 -0.16462809 0.057981104 0.06561744 -0.15011221 0.15063989 0.15891713 0.08971903
-0.04739724 0.105501205 0.0659067 -0.15281734 0.17631024 -0.08334014 -0.18496823 0.072464675
-0.06298226 0.1819672 0.030638397 0.050505906 0.16389418 -0.122980416 -0.16407219 -0.124983445
0.122475654 0.100328416 0.068075 -0.1515049 -0.020763487 -0.20472652 0.0024527311 0.07864469
-0.18407397 -0.092954695 -0.0064778775 0.10357222 -0.041155264 0.16867128 0.21837756 0.14429027
0.19570869 0.15269321 -0.16647762 -0.073807746 -0.233882 0.19828892 0.21913421 0.18108523
0.16451815 0.10280815 -0.22771707 0.09610671 -0.21772228 -0.1636416 0.15610832 0.17148215
-0.12260976 0.11583167 -0.036771953 -0.098690554 -0.23870799 0.004616201 -0.120562114 0.14044034
-0.09155449 -0.071827665 -0.10611534 -0.21530733 -0.07093687 -0.23855305 0.013084054 0.008500099
-0.08807774 -0.23047 -0.043196604 -0.15327203 -0.07434195 -0.1773034 0.10481417 -0.23494884
-0.07824974 0.09744227 0.15687656 -0.16307873 -0.23487537 0.053504646 0.15624934 -0.052890673
0.14939824 0.22135794 0.21777034 0.05524257 0.008965194 -0.11001636 0.14052662 -0.18461782
0.09006706 -0.025080696 -0.081072465 -0.23485443 -0.14451407 0.20965832 0.021089941 -0.18297255
0.15560114 0.09377059 0.21100467 0.14080888 0.24177822 0.009038359 0.063619465 -0.15325505
-0.20051336 -0.1761589 0.12167889 -0.07091968 0.06750625 -0.110657305 -0.07038303 0.17757362
0.088811785 -0.1704744 -0.15904245 -0.22609088 0.06667498 0.05524543 0.06483373 0.14566383
0.22758466 0.016043395 0.22386223 0.19156581 -0.08757226 0.036366343 -0.18313205 -0.09328601
0.20345354 0.1011346 0.22735044 0.19986144 -0.029089764 0.14964661 -0.037743583 -0.08510269
-0.2235236 -0.067466825 -0.13711551 -0.10029107 0.2243076 -0.05590318 0.02747488 0.20027182
0.23550412 0.11101431 0.17525148 0.057928562 -0.14216672 -0.12616669 0.2140646 0.09938893
-0.1756541 0.112217486 -0.085231364 -0.20143703 0.08493087 -0.072923824 0.21892387 -0.07654485
-0.1234924 0.24177372 -0.0996051 -0.07581785 -0.06941487 0.18489403 -0.12610105 -0.19017847
-0.14710808 -0.04890558 0.013947099 0.1463435 0.034397334 -0.18435255 0.010028809 -0.12345955
0.10089579 -0.19352952 -0.0546439 -0.15666428 0.18080032 -0.11737853 -0.019903362 -0.09158915
-0.036450967 0.15544462 -0.056736037 0.14361161 0.18371385 -0.06543821 0.06431118 -0.013362601
0.23689482 0.07050252 -0.030779585 -0.059951305 0.059067965 0.0357188 -0.07921325 0.12668338
0.22967353 0.09030634 -0.15681691 -0.06639582 0.19082144 0.18137598 0.18141791 -0.08895211
0.008806527 0.17768809 0.07908651 0.017947704 -0.0638189 0.027669221 -0.22254518 0.08293617
0.18546247 0.1274035 -0.23923469 -0.008381277 -0.091546774 0.09552315 -0.008999884 0.05019954

bias f4 [256]
00000000: 044d 33bd 5ab0 14be 09af 64be 5eeb 2d3e
00000010: d237 d7bd d2e6 dfbd a06e 363d 805c ea3c
00000020: 500b 7fbc c66f d2bd acae 383e 0ee9 60be
00000030: 74d9 bdbd 8878 0a3e 9692 0c3e 11a2 5abe
00000040: 589f 323e 108d 89bd db2d 72be 00bb d2bb
00000050: 3a9b 4e3e 4a30 753e 800d 4dbd e6e9 27be
00000060: 2a21 96bd ea04 543e 3ef2 3abe 306d 70be
00000070: de6a 6bbe 0ef4 683e f019 853d d075 1a3d
00000080: 7cc9 5f3e 288d 5b3d 40f5 80bb 82bc 08be
00000090: e870 703d 8882 4dbd b88b 47be 4c6d 443e
000000a0: 4c21 7dbd 2c98 f73d 08f4 073e 4495 34be
000000b0: 6c06 5bbe 8440 cc3d 10ce 303d aec8 0ebe
000000c0: 90d4 f03d 4057 583d 0783 0ebe 7ac8 5b3e
000000d0: 7042 0abd c408 673e fcda f63d 7952 00be
000000e0: 62e2 dbbd 0c1f b1bd 6aee 91bd c41b 31bd
000000f0: c842 8e3d b5e2 67be ae23 e2bd 428c 143e
00000100: 48ea 013e 9c32 93bd d024 a93d 8822 37be
00000110: 7c21 663e c6f9 023e 642a 25bd 6074 ac3c
00000120: 4477 af3d 8204 683e 40c7 3dbe a8a7 dd3d
00000130: 477c 68be 7802 773e bea6 6bbe b40c 57bd
00000140: e00e ec3d 6e8d 30be 5007 833c 408c 173d
00000150: aed5 1cbe e0ff 683d a0d5 76bc a46a 563e
00000160: 341f b8bd e352 62be 6c42 df3d 8838 f7bc
00000170: d62a 31be f6e0 b0bd acd6 e4bd 98ae 0f3d
00000180: 9078 2abe 70ac 993d 9ee1 d0bd 680e fd3d
00000190: c4d2 89bd b2c0 233e a810 edbc 4511 08be
000001a0: 2048 6f3c 4ed7 34be 3fc7 59be 5088 efbd
000001b0: 805c 863d 140b a2bd 98e5 b23d 9010 f4bc
000001c0: 92b7 3a3e f489 a13d 6f2a 5dbe 8afd 533e
000001d0: 7a44 723e 62ad 043e c06d 243d 806b 16bc
000001e0: d48e 0abe 001a bd39 52d3 353e 3e38 0a3e
000001f0: bc0f 6abe b4d4 e73d 06b7 8abd 709c 1bbe
00000200: 240f 14be 90f0 833d 5431 8e3d da2b ccbd
00000210: 7175 5cbe 3259 563e 699b f3bd a044 70be
00000220: e416 61bd 2df2 57be ea71 febd e8db d13d
00000230: 54cc 08bd bc46 b83d 8040 0d3c e262 0d3e
00000240: 6023 9c3b 11ce 55be 1a97 023e 701e 14be
00000250: 4ca9 66be 2829 70be a4dd 253e 00ca 573c
00000260: 80ff 9a3c 0e60 d5bd 54cd ce3d 2050 493e
00000270: f0e0 c63c 4082 dfbb f05d c2bd 57ce 68be
00000280: 5c9e 56be 1293 88bd 9046 353e 0c25 b43d
00000290: b0c0 fb3c 809f 00bc 5c56 0b3e d4a0 3fbd
000002a0: 58c1 6d3d a08f 733c 72d0 e3bd 06f6 f5bd
000002b0: 82de 3a3e 406c 9dbd d014 77bd b290 2ebe
000002c0: 20be c2bb 981e 1dbe 4115 74be 8421 52be
000002d0: 7a5d 433e b246 3ebe 0130 3ebe faef 89bd
000002e0: 8092 dc3c 90fb 2dbe 9441 44be 348f 64be
000002f0: 282d 6dbe 6c26 24be 98e3 223d 64be 4d3e
00000300: 2c69 423e f0a4 403e 3030 a23d 8b58 64be
00000310: 1c1b fb3d 0aad 2dbe 0885 a83d b162 38be
00000320: fc8e 64bd 68b7 ae3d 809d 753e f884 e0bd
00000330: 60b4 edbb c45d b03d c8ce 6e3d b47a 5a3e
00000340: 2c2b 26bd 5a8b 89bd 506a 5d3e c631 b1bd
00000350: 3e2e 423e 5847 033d 4084 223d 805b 0ebb
00000360: 21ac 48be d6af c0bd 1c83 423e e608 473e
00000370: 0244 693e 88ac 5abe 1afe bfbd 3460 4dbd
00000380: 9620 0b3e f03f 1b3e 1e12 2b3e a81e 8abc
00000390: 96cd 0f3e 3441 3abd fcd1 323e 02b4 3f3e
000003a0: 80e0 083e f0fd b13c b06d 813c dcf8 2f3e
000003b0: 0088 65be b287 533e 38fb fb3d 8efc 123e
000003c0: 00f5 64bb 98f9 6bbd 4426 dc3d 98fe 783d
000003d0: bca8 cabd 867c 523e 86a7 5abe 1b2e 15be
000003e0: 30ee 2dbe 0c7f 153e 989f 283e 32de 5dbe
000003f0: a089 d4bd 780f 94bc 5877 c6bd 8a8f 9dbd
-0.04377462 -0.14520398 -0.22332396 0.16984317 -0.10508694 -0.10932697 0.044539094 0.02860856
-0.015566662 -0.10275225 0.18035382 -0.21963903 -0.092699915 0.13522542 0.13727793 -0.21350886
0.17443597 -0.06716359 -0.23650305 -0.0064309835 0.20176402 0.23944202 -0.050061703 -0.16397819
-0.07330544 0.20705 -0.1825647 -0.23479152 -0.22989985 0.2274935 0.06499088 0.03771001
0.21854204 0.053601414 -0.003935486 -0.1335316 0.058701426 -0.050173312 -0.19486892 0.19182318
-0.061799332 0.12089571 0.13276684 -0.17635065 -0.21389169 0.09973243 0.043165267 -0.1394374
0.11759293 0.052817583 -0.1391717 0.21463194 -0.033754766 0.22561938 0.12053487 -0.12531461
-0.107365385 -0.086485 -0.07125552 -0.04323937 0.06946331 -0.22645076 -0.110419616 0.14506629
0.12687027 -0.07187387 0.082589746 -0.17884266 0.22473711 0.12790594 -0.04032363 0.021051586
0.0856767 0.2265797 -0.18533039 0.108229935 -0.22703658 0.24122036 -0.23012826 -0.05250235
0.11526275 -0.17241451 0.015994698 0.036998987 -0.15315887 0.056884646 -0.015065581 0.20939118
-0.089903265 -0.22101931 0.10901341 -0.030178323 -0.17301497 -0.08636658 -0.11173758 0.035078615
-0.16647553 0.07503593 -0.10199283 0.123562634 -0.067296535 0.15991476 -0.028938606 -0.13287838
0.014604598 -0.17660257 -0.21267413 -0.116959214 0.06560612 -0.07912269 0.08735198 -0.029793054
0.18234089 0.078876406 -0.21598218 0.20702186 0.23658934 0.12956765 0.04014373 -0.009180903
-0.13531047 0.0003606826 0.17756394 0.13498017 -0.22857565 0.11319867 -0.0677319 -0.15196395
-0.144589 0.06442368 0.06943002 -0.099693015 -0.21529175 0.20932463 -0.118948765 -0.23463678
-0.05495347 -0.21088476 -0.12424071 0.10247022 -0.033397987 0.089978665 0.008621335 0.13807252
0.004764959 -0.2087939 0.12752953 -0.14464736 -0.22525519 -0.234532 0.1619783 0.013170719
0.01892066 -0.104187116 0.10097757 0.19659472 0.02427718 -0.006820947 -0.094905734 -0.22734962
-0.20958847 -0.066686764 0.17702699 0.08796129 0.030731529 -0.007850528 0.13607162 -0.046784237
0.058045715 0.014865786 -0.11123742 -0.12009816 0.18248942 -0.07686663 -0.060322583 -0.17047384
-0.005943075 -0.15343702 -0.23836233 -0.20520598 0.19078627 -0.18581656 -0.18573 -0.06735225
0.026925325 -0.16990495 -0.19165641 -0.22320253 -0.23161757 -0.16030282 0.03976783 0.2009216
0.18985432 0.18812919 0.07919347 -0.22299401 0.1226103 -0.1696054 0.08228499 -0.18006398
-0.055800423 0.08531076 0.23985863 -0.10962862 -0.0072541684 0.086116344 0.05830267 0.2133587
-0.040568516 -0.06716032 0.21622586 -0.08652072 0.18962952 0.03205046 0.039676905 -0.0021722019
-0.19596912 -0.09408538 0.18995327 0.19436988 0.22779849 -0.21354878 -0.09374638 -0.050140575
0.1358665 0.15161109 0.1670613 -0.016860321 0.14043269 -0.04547234 0.17462915 0.18721011
0.1336689 0.021727532 0.015799373 0.17184776 -0.22415161 0.20657232 0.123037755 0.14354154
-0.003493607 -0.057611078 0.10749486 0.060789675 -0.09895465 0.20555314 -0.21352968 -0.14568369
-0.16985393 0.14599246 0.1646713 -0.21666792 -0.103778124 -0.018073782 -0.09690732 -0.076933935
