data/PPO/Walker2d-v2/ppo_s2839/pyt_save/model.pt (torch_old, 574892 bytes, 12 tensors)

log_std f4 [6]
00000000: fcbe 0ec0 69af 11c0 2df7 0ec0 4c47 08c0
00000010: 59a8 0ec0 c226 10c0
-2.2304068 -2.2763312 -2.2338364 -2.1293516 -2.2290251 -2.2523656

weight f4 [256, 17]
00000000: 4db4 36bc c9c0 9d3d 677e 22bd 3d55 13be
00000010: ffd8 3abd a369 893e d576 033e 65a0 69be
00000020: 99dd 4c3d ea56 b7be 4c76 68be 3f66 573e
00000030: 86cc d13d 0acc 07be e95e 12be ab82 943e
00000040: 6e3b 69be edd1 c7bd 4ce3 6bbd a5cf 9ebe
00000050: 0167 babd b33c ee3c f331 283d 8609 88be
00000060: 255b efbe 4c93 4bbc 7dcd 10be 1727 c33d
00000070: 4f02 563e 9cd7 4dbe 2b14 783c 0092 4d3c
00000080: a00f aebd 48e2 52be feeb 9a3d dc64 e93e
00000090: 8567 0b3c 7534 b93d 4754 82be 6be5 063e
000000a0: c119 543e e1ac 1ebe 9f2e cabd 882a a5be
000000b0: 7d22 0f3d e034 3b3e 496d 863d ae47 8fbb
000000c0: 97ba c73d bc31 9cbc 6c2f 29be d1a0 873d
000000d0: 60b0 e3bd 1512 bd3e 9892 43be e683 c63e
000000e0: 278e 92be ae7a 993d 2313 163e aef7 27be
000000f0: 371f 5ebd 3b15 7cbe 1b15 bdbe b583 073d
00000100: dc30 813c 815e 873e bddf 1c3e 4e70 64bc
00000110: 637a 04bc 5632 e23d 7665 dd3d b2d1 14be
00000120: 34cb 05bd ac7f 4e3e 9c92 563e ed24 68be
00000130: 7fb9 f5bd 0ec0 b6be 9238 87be 51a6 a8be
00000140: 5ee7 563d b768 0b3e 4f7c fbbc fd63 cebc
00000150: fd5d 513e 008c 4dbe 08ac 0a3e 71df 0a3e
00000160: 344c 23be 68db 6ebe dd0f 8dbe 2cd7 2ebe
00000170: 3872 0fbe b198 a43d 70c5 dc3e cf8c f5bd
00000180: ef24 68be 4a65 1f3e aaba 213e 3673 303e
00000190: f657 833e 1c3b a73d 7c7f 0b3d fd9b fbbd
000001a0: 7335 3bbe 2feb 943c 1b2e 763e d162 babe
000001b0: ca61 06be 1481 063e fbda 19bd 1e18 d4bc
000001c0: d856 12be c586 8b3e 816b 2dbd 303a 2cbe
000001d0: 6b52 60bd 2e6a 203e 4393 84be 2b65 15be
000001e0: c3a1 8ebe 121d 093f 341a 86bd 54b8 1abe
000001f0: f506 5cbe 28de 7bbd c636 943e e063 c23d
00000200: 92ef 873d 035b 423e ad24 ff3d 26cf 85be
00000210: a548 e9bd 0631 bcbd 73e1 1a3c 49e7 b9bd
00000220: a210 0c3d 7746 d9bd e3a3 b23d 0177 f63e
00000230: 7177 35bd 21e0 443d 2fd6 44be 4f1c be3e
00000240: c1a9 c23d 8f3e e2ba 33ec 453e 473b 98be
00000250: e712 b53e d30c 04be 6a42 c8bd 0f4d 2fbd
00000260: d690 e3bc a182 073e c777 933d f5e3 223d
00000270: 811f 15be ba1b 4f3e d629 afbd c28a 2c3d
00000280: 3cb6 3a3b 0ffd 953e 1594 363e dcbf b7bd
00000290: 8400 2a3e 076c 803e 1e7c 2abe 2212 693e
000002a0: 5785 213e d5af 6e3e c257 e73c 01df b83d
000002b0: abab c73d f3fa d4bd e32c 6cbe b534 833e
000002c0: d8bf 0b3e 79d4 143e 2bde 1f3e 0187 603e
000002d0: 5519 f239 c6ae 53be 8c2a a03e a47e 413e
000002e0: 06bd 8abd 90d7 51be ad8d 243d 0141 e9bd
000002f0: 6cdc 4a3e 1014 d5be 59ca 62be f6b3 9cbe
00000300: de99 8e3d 4136 133e e9b5 6ebe 041f 653e
00000310: 99ba 5bbe 3840 283d 7df6 17be bce7 d1bd
00000320: d460 debd aa2a 523d 4222 5f3e 38ae ac3d
00000330: 39f9 cdbd f4c0 f53d 6fe6 02bf 306a 373e
00000340: 6cef 413e cf99 c2bb 6c0d b03d 417a 56bd
00000350: e501 923e 3548 5b3e 21ce f7bd e930 b03d
00000360: 039a 053e d892 483e 6c04 16be bf99 e8bc
00000370: 301d 39be 893f fc3e 4971 333d 7539 dfbd
00000380: d38e 0cbe 638b ff3e b10a 543e c871 22be
00000390: 553e fb3e 7f07 08be fc46 6dbe 4c94 da3d
000003a0: d4a0 13bd 5dcb 483e cbe1 22bd 060c 873d
000003b0: cbaf c2bd 308a 373e b38e b5bc 2850 a0be
000003c0: ddc7 353d fd7a c5bd 9837 253e 5270 87bd
000003d0: ba06 5b3d 7770 65bd e0d4 92be 5867 4bbe
000003e0: d39d 3abc 9f39 b8bd 36f6 5f3e 01c9 71be
000003f0: be18 d3bd 67a0 0d3e 4bad 3ebe 252e acbd
-0.0111513855 0.077027865 -0.039671328 -0.14387985 -0.0456171 0.26838407 0.128383 -0.22815092
0.05001602 -0.35808498 -0.22701377 0.21035098 0.10244088 -0.13261428 -0.14294018 0.29005942
-0.22776577 -0.09756837 -0.057589814 -0.31017795 -0.09101678 0.029081678 0.04106326 -0.26569766
-0.46749225 -0.012425255 -0.14140888 0.0952894 0.20899318 -0.2010178 0.015141527 0.012547016
-0.08499074 -0.20594132 0.07564543 0.45584762 0.008508568 0.090432085 -0.25454924 0.13173454
0.2071295 -0.15495636 -0.098721735 -0.3225901 0.034945 0.18281889 0.06563813 -0.0043725586
0.09752386 -0.019066684 -0.16521996 0.0662247 -0.11117625 0.36927858 -0.1909889 0.38772506
-0.2862408 0.074941024 0.14655738 -0.16403076 -0.054228988 -0.24617474 -0.36930165 0.03308459
0.015770368 0.26439288 0.15319724 -0.013942791 -0.00808582 0.11044757 0.10810368 -0.14533117
-0.032664493 0.2016589 0.20954365 -0.22670336 -0.11998271 -0.356934 -0.26410347 -0.3293939
0.052466743 0.13614164 -0.030698923 -0.025194163 0.2044601 -0.20072937 0.13542187 0.13561799
-0.15947038 -0.23325884 -0.27551165 -0.17074269 -0.14008415 0.08036936 0.43119383 -0.11989748
-0.22670339 0.15565982 0.15793863 0.1723145 0.25653046 0.08165571 0.034057125 -0.12285612
-0.18282108 0.01817855 0.24041025 -0.36403516 -0.13123241 0.13135177 -0.03756235 -0.025890406
-0.14290941 0.27251258 -0.04233885 -0.16819072 -0.0547661 0.15665504 -0.25893602 -0.14589374
-0.2785779 0.5355998 -0.065479666 -0.15109378 -0.21487029 -0.06149116 0.2894804 0.09491706
0.06637491 0.1898003 0.12458167 -0.26134604 -0.11390809 -0.09189038 0.009453165 -0.09077317
0.03419555 -0.10609143 0.08722665 0.48137668 -0.04430336 0.04806531 -0.1922233 0.37130973
0.09505034 -0.0017261076 0.19328384 -0.29732725 0.35365984 -0.12895517 -0.097782925 -0.0427981
-0.027779024 0.13233425 0.0720058 0.039768178 -0.14562799 0.2022542 -0.085529014 0.042124517
0.0028489968 0.2929463 0.17829926 -0.08972141 0.16601759 0.25082418 -0.1664891 0.22760823
0.15773521 0.23309262 0.028240088 0.090269096 0.0974954 -0.10399427 -0.23063998 0.2562615
0.13647401 0.14534177 0.15612094 0.219265 0.0004617671 -0.2067214 0.3128246 0.18895966
-0.067743346 -0.20492387 0.040174175 -0.11389352 0.19810647 -0.4161687 -0.22147502 -0.3060605
0.069629416 0.14376165 -0.2331158 0.22375113 -0.214579 0.04107687 -0.14840122 -0.10249278
-0.10858312 0.05131022 0.21790412 0.08431667 -0.10057301 0.119996935 -0.51132864 0.17911601
0.18938988 -0.0059387456 0.0859631 -0.052362684 0.2851707 0.21414264 -0.12099863 0.08603079
0.13047032 0.19587266 -0.14650124 -0.028393624 -0.1807754 0.49267223 0.04380921 -0.10899631
-0.13726358 0.4991103 0.20707203 -0.15863717 0.49070993 -0.1328411 -0.2317161 0.10672817
-0.03604205 0.19608827 -0.039766114 0.0659409 -0.09506186 0.17923808 -0.02216277 -0.31311154
0.044380058 -0.09642599 0.16134489 -0.0661322 0.05347321 -0.056015458 -0.28678036 -0.19863641
-0.011390167 -0.08995365 0.21871266 -0.23611833 -0.103074536 0.1383072 -0.18620794 -0.08407239

bias f4 [256]
00000000: aaaf 1f3e a72b 88be ac7f babc 3700 263d
00000010: 7989 2bbd 0fac 39be 2e9b 5e3d 4278 753e
00000020: 02f9 763d a0c8 273e df1b a93c 2d76 1b3d
00000030: 277a d33c f576 eb3e 353b 85be 62cd 2c3e
00000040: 0e65 893e 02e2 5c3d 1ea3 35be faec b03d
00000050: 8fdf f43e 8efa 6ebe 90fa 443e 11fd 8c3e
00000060: e36b 5c3e c518 82bd 8af3 b2bd 00b3 a63e
00000070: 050c 743e 058a 4bbe df1a 8b3e 97fb 5e3d
00000080: 9134 803e b5ab 47be 46e5 62be e9f0 29be
00000090: 68e9 e9bd a6b2 98bd 2894 473e 5a41 c6bd
000000a0: 36e7 30be 1650 8bbe 7122 17be 50a8 343e
000000b0: 1551 3c3e 9e1f 713e 061d 173d 5045 1a3d
000000c0: b97e b23d 609c 70be 7747 92bd 51c3 dc3c
000000d0: a617 653e 6704 acbc 7a2c 933d 003f b3bc
000000e0: f85f 263e 5e9e cb3c ff2d d8bd 650d 65bd
000000f0: 274f 90bd f166 06be 2452 5ebe 1f65 21bd
00000100: 3603 2c3d 6d7a 983e abb1 243e c2a1 213e
00000110: 445e d43d 7876 adbc 46fb 47bc fdfa 8f3e
00000120: c572 95be 80ae 98be f9b7 2fbe 8f0b 26be
00000130: 5321 4e3d c4e2 4dbe 6b2e 333e 9970 aa3e
00000140: 646f a2bd 5dd2 06be 8618 3d3e 7f8e 493e
00000150: 86f4 843e 2584 103e 0c13 983d 233c a43d
00000160: 4957 b73d 8ba4 71bd 548a 8c3e 52ee 83be
00000170: af7a 89be e5c2 753e 1c0e c7bd d581 9a3d
00000180: c847 f63b 0370 e7bc 2de6 e5bb 4073 2e3d
00000190: e4c5 febd 1e26 113e d17d 24be 86e8 8bbd
000001a0: 5e05 333c 7036 a0bd 5737 063c 2a4f 20be
000001b0: ab62 053e bcbf 9a3d ee27 7ebc ab1d 66be
000001c0: e1f5 e93c 7c37 41be dd28 8a3d dcec a93d
000001d0: b150 31be a2a4 f83d 5b8e 66bc 75bf 64be
000001e0: c8ac 33be 2f7b 27bd cb42 863e 8c8c e93c
000001f0: 3024 863e f2b3 28bd 7745 10be cd20 0e3e
00000200: 876c 5d3e d9a8 48be 8d2d db3d 8a83 253e
00000210: 1248 273e dcfd b4bd 9fef 9dbc 8143 d83d
00000220: 3a21 19be 66b7 a33d 68a4 16be f242 fabd
00000230: e89b 2dbe 1e8e 4d3d 5fb4 02bd 576f 73be
00000240: ecef 403e d64c 19be 7f8e 9f3e 4c76 623e
00000250: 5737 bd3d 0754 1d3e 34a3 973b 98a9 0e3d
00000260: 5d0f e73d 1b4b 5b3d 0655 5b3e 0157 5fbe
00000270: 3fbf 023e 747c 3b3e 6f56 0e3e 877f 463c
00000280: 2a9d b9bb 820e 89be d187 ec3d 4817 543e
00000290: a2c6 ee3d 26e9 163e 55c9 db3d bb22 603e
000002a0: a8e3 8e3d 1b2c 25be 4a87 63be 7285 023e
000002b0: 070c 74be b558 66be e5ce 27bd 4f4a 1dbd
000002c0: c60f 10bd f0aa a33e 6bb2 a1be bf8f f0bb
000002d0: b085 babc a760 893d 8341 5c3e 7729 133e
000002e0: 94d0 73be 75de ccbd dbf7 a6bd f061 4dbc
000002f0: 6b25 ef3d 1710 e13d ac55 8b3e a4cc 073e
00000300: 3820 c9bd 4d1a cb3c f8c0 ad3e 50d9 b53d
00000310: 2825 6abe 024b 44bd 3dd0 8bbe c272 0fbe
00000320: 1ddd 6abe ba51 a53c e1e2 2cbe 7e0a 67be
00000330: d30d 61be e6c3 533e d20f 86bd 0e04 903e
00000340: 4b43 c73c cc9c 3e3e 8adb c43d fd8f 81bd
00000350: b8cf dabb a99c 1f3d d1bb 823e 113b 3e3e
00000360: 6fa1 5fbe ed40 c6bd 0e9e 283e 1e9e d4bb
00000370: f27b bb3e 7634 4cbe 6222 9abd e100 6ebe
00000380: 017c 07be 77ef 953e 07cd b63b a4e3 d4be
00000390: 6035 76be 4df5 1fbd 6a2e 8b3e bdaf 263e
000003a0: f72a 3e3d 0b6e ce3b 618a 19be f0ee 3bbd
000003b0: ee50 b8bc a6ae 3d3e 9840 20be 1668 89be
000003c0: 4866 4c3e 10ad 98be 2767 083e fb81 293e
000003d0: 2c5d 1f3e 3825 febd cb3a 403e 5068 7e3c
000003e0: c9fc 85be 644b 3f3c 6b93 213d 0a25 2c3e
000003f0: 6c4c c0be 0075 c2bc 7116 a33e 2788 6dbd
0.15594354 -0.26595804 -0.022765957 0.04052755 -0.04187915 -0.18132041 0.05434721 0.23971656
0.060296066 0.16385126 0.020643173 0.037954498 0.025815083 0.45989195 -0.26021734 0.16875222
0.2683491 0.053926475 -0.17738006 0.0863895 0.47826812 -0.23337767 0.19236207 0.27536824
0.2152553 -0.06352381 -0.08737858 0.3255844 0.2383271 -0.19876869 0.2716894 0.054439154
0.25040105 -0.19499095 -0.22157773 -0.16595806 -0.11421472 -0.074559495 0.19490111 -0.096804336
-0.172757 -0.27209538 -0.14759232 0.17642331 0.18390305 0.23547217 0.036892913 0.037663758
0.08715577 -0.23497152 -0.07142537 0.026948603 0.22372302 -0.020998193 0.071862176 -0.021880627
0.16247547 0.024855789 -0.10555648 -0.055920977 -0.07046347 -0.13125207 -0.21711022 -0.039403077
0.04199525 0.29780903 0.160834 0.15784362 0.10369542 -0.021174654 -0.012205904 0.28121176
-0.29189125 -0.29820633 -0.17160024 -0.16215347 0.05032475 -0.20106035 0.17498176 0.3328903
-0.07931402 -0.13166185 0.18466386 0.19683264 0.25967807 0.14112909 0.07425508 0.08019283
0.08952195 -0.05899481 0.27449286 -0.2576776 -0.26851413 0.24000128 -0.09719488 0.07544295
0.007515881 -0.028251654 -0.0070159645 0.04259038 -0.124400884 0.14174697 -0.1606362 -0.0683146
0.010926573 -0.07822883 0.008191905 -0.15655199 0.1302592 0.07556102 -0.01551245 -0.22472255
0.028559627 -0.18868822 0.06746075 0.082971305 -0.17315938 0.12140776 -0.014072026 -0.2233866
-0.1754638 -0.04088896 0.26222834 0.0285094 0.26199484 -0.041187234 -0.14088999 0.138797
0.21623431 -0.1959566 0.107020475 0.1616346 0.16336086 -0.08837482 -0.0192793 0.1055975
-0.14954081 0.07993965 -0.14711154 -0.122198 -0.16954005 0.05018436 -0.031910297 -0.23772942
0.18841523 -0.14970717 0.31163403 0.22115439 0.09239071 0.15364085 0.0046276096 0.034829706
0.11282227 0.053538423 0.21419153 -0.21810533 0.12768267 0.18309194 0.1390016 0.012115366
-0.0056644874 -0.2676888 0.115493424 0.20712006 0.1165898 0.14737377 0.107317604 0.21888249
0.06977016 -0.16130106 -0.22219577 0.12746218 -0.23832713 -0.22494777 -0.040968794 -0.038400944
-0.035171293 0.31966352 -0.31581435 -0.0073413546 -0.022768825 0.06707888 0.21509366 0.14371286
-0.23810035 -0.10003368 -0.081527434 -0.012535557 0.11677059 0.10989397 0.272138 0.13261658
-0.09820598 0.024792815 0.33936286 0.0887934 -0.22865736 -0.047923096 -0.2730731 -0.1400862
-0.2293591 0.020180572 -0.16883422 -0.22562596 -0.2197793 0.20680198 -0.06545986 0.28128093
0.02432408 0.18614501 0.09612186 -0.06326292 -0.006677594 0.038967762 0.25533918 0.1857722
-0.21838926 -0.09680352 0.16466543 -0.0064885756 0.36618 -0.19941887 -0.07526089 -0.23242523
-0.13230897 0.2928426 0.0055786404 -0.41579926 -0.24043798 -0.039052296 0.2718385 0.16277976
0.046427693 0.0062997392 -0.14994194 -0.045882165 -0.022499528 0.18523654 -0.1564964 -0.26837224
0.19960892 -0.29819536 0.133206 0.1655349 0.15562886 -0.12409443 0.18772428 0.0155278
-0.26169422 0.011675689 0.03944723 0.16811004 -0.37558305 -0.02373743 0.3185306 -0.057991173

weight f4 [256, 256]
00000000: 69e6 0b3e d502 8f3d 9e36 013d e090 183e
00000010: e238 7ebd 7f43 943c 1f4a 6b3e dd79 ed3d
00000020: c607 9cbc b60f a9bc 5527 b33d fdde 73bd
00000030: 491a 5c3c 9009 81bd 6271 153e 0948 52bc
00000040: 99b6 553d 3c07 2a3e 8a31 a63c 542b c63d
00000050: 6832 97bd 7ccf 323d 6fe5 413e cddf 453d
00000060: 9908 01bd e2c9 d43b 2281 103d e73c 0c3e
00000070: 26a2 81bd b72c d8bd 7819 f23b 6d95 a23d
00000080: 023a e93c cc73 9b3d 532c d0bc a064 243b
00000090: 05be 22be 26ef 1fbd 703e 72bd 9af7 333c
000000a0: 9765 babd 720f 3fbd 9a0e 7cbd 2ee4 323e
000000b0: 3e35 a0bc de7b 3a3d eecb 2a3e 2adc a1bd
000000c0: 8cb9 243d a4a2 0fbe bf96 ddbd 0e2c 61bd
000000d0: 3f1e 13be 1824 5a3a 050c 9a3b b84b 7cbd
000000e0: 688e d1bd 5b3c bf3d 34e2 86bd 25a4 233d
000000f0: dce8 71be 2921 ff3c 1756 813d 975a 35be
00000100: 013c 74bd 4255 4d3d 0de7 8b3c c6e0 e83b
00000110: f21f 40bd d684 6a3c d235 98ba f270 203d
00000120: d52c 1d3d 40d3 50be 0f3f e3bd 36f5 363d
00000130: 8fca fb3d b8f1 f03d 17e7 23be dce2 eb3d
00000140: bb48 56bd 0507 8e3d 32be 2d3d 0cda 30bd
00000150: 0bb4 023e 147b d43d 3292 21bc 3878 a4bd
00000160: d1ad 1abd 24b0 7c3d 45bd 0fba 2ff2 babd
00000170: 3089 253d 012d d2bd dcc5 f73c fb0c f7bd
00000180: 94d6 c1bd 8448 bdbc e186 f63c dd5a 203e
00000190: 8f7f 6b3d 06b6 f73d a7b2 c13d 1190 b23d
000001a0: 1518 95bd 7619 c7bc 45dd ac3c fd4b 073d
000001b0: 1f1d 71bd a76e 303c b201 f93d 8687 0dbe
000001c0: 9ea2 7e3e 1352 393d 3fa1 b13b 73f9 173e
000001d0: 97c6 e7bd 2ab8 753e c7dd 06bd af95 7ebc
000001e0: 53f0 0abd 1ecf 203e cb11 323d bdbe 82bd
000001f0: 8e59 ad3d bb63 ca3d b53d f33d 4338 1b3a
00000200: 726e 4fbd 92ef aebd 05f6 88bd 8cbb 4f3e
00000210: 1977 55bd 8358 dcbb b212 17be 6989 a9bd
00000220: a9c5 733d ef11 df3c e789 debd 8bb3 89bd
00000230: ce63 a4bc cff3 45bd d5a3 3bbd a82c 9c38
00000240: 6bd9 cc3d 1958 7dbd 9a19 dabd f5c2 d33d
00000250: 65e3 48be 903f 273d bd71 253e 1a96 bdbd
00000260: 9763 ff3d 4b69 94bb 0727 eabb 17f6 d43c
00000270: 980c a0bd deef fcbd 8702 e03d aaba c1bd
00000280: 7e1f bebc 6b2f 723d 76cf f6bd 8793 be3d
00000290: 247c 05bd 025f 793e ee74 1bbd 1f82 923d
000002a0: cfc1 8a3d ffc5 1b3c 4b6b 91bd 6115 bebc
000002b0: 51db 163e 136b 013e fad5 953d 4382 2ebe
000002c0: 7562 a4bd 707e b1bd 13d4 e8bc e7f2 703d
000002d0: 4dd3 abbc 2808 723a b0e6 e3bc c20d fbbd
000002e0: d611 64be fe93 0f3c a76e 61bc 067e 42bc
000002f0: d5d8 b8bd 9dc6 80bd 361a b03d 6fbc a33b
00000300: 348d 29be d5e0 22bd 3255 11bd 725f 88bd
00000310: 086b a53c ab6b a4bc b455 26bc 461d ac3d
00000320: d394 07be f42a f13d 7be8 bebd 413e 723c
00000330: 8668 a1bc 797d b9bd e5b5 cb3d e298 54bc
00000340: dce5 663d f432 3d3d ece6 f13c 0fab acbd
00000350: f42d 163d 09f4 09bb dd5d 8b3c 5018 12bd
00000360: 6c81 823d 30ce 1bbe 6304 97bd 86af 07be
00000370: 16c6 8c3d 4376 7ebd d796 b53c 6624 a8bd
00000380: 9361 c53d 477d 7a3d f9d4 ce3d 3b07 33be
00000390: 9280 42bd 30f6 24bd e880 433d 2a3a b4bc
000003a0: abb4 07bd 1485 633d 10bb baba 3fc7 89bd
000003b0: e8fb ab3d 0c7c a23d 4952 c3bd 98a9 6ebd
000003c0: 881d f33d c7f5 aa3d fc68 38bd 1ad5 fa3d
000003d0: 58ed acbb f44d 8a3d f5fa 873c 6d29 88bd
000003e0: 55cc d4bc 605c 8a3c a2ab f7bd c3c1 103d
000003f0: bc6e e93b d621 5c3d 042b d2bd 881b 9bbd
0.13662113 0.06982962 0.031546228 0.14899015 -0.062065966 0.01809859 0.22977494 0.11595509
-0.019046675 -0.020637374 0.08747736 -0.05953883 0.013434001 -0.06300652 0.14594033 -0.012834557
0.05217609 0.16604322 0.020287294 0.09676233 -0.07382661 0.043654904 0.18935178 0.048309136
-0.03150234 0.006493793 0.0352794 0.13695107 -0.063297555 -0.10555404 0.00738829 0.07938657
0.028470043 0.07590446 -0.02541176 0.0025084391 -0.15892799 -0.03904643 -0.059141576 0.010984326
-0.09101408 -0.04664559 -0.061537363 0.17469856 -0.019556638 0.045528285 0.16679356 -0.07903321
0.040216014 -0.14026886 -0.10819768 -0.054973654 -0.14367007 0.00083214184 0.00470114 -0.06159565
-0.1023224 0.09337684 -0.065861136 0.039951462 -0.23623985 0.031143742 0.063152485 -0.17710339
-0.059627537 0.050130136 0.017077947 0.007106873 -0.046905465 0.014313897 -0.0011612719 0.039170213
0.038372833 -0.20393085 -0.11096012 0.044667445 0.12294494 0.11764854 -0.16006123 0.11517879
-0.052315455 0.069349326 0.042417713 -0.043176696 0.12763993 0.10375038 -0.009861516 -0.080307424
-0.03776342 0.06169142 -0.00054832204 -0.09128224 0.040414035 -0.1026249 0.030245714 -0.12063023
-0.09464756 -0.023105867 0.030093612 0.15659662 0.057494696 0.12095265 0.09457903 0.08718885
-0.07279984 -0.024304133 0.021101603 0.033031452 -0.058865663 0.010768569 0.121585265 -0.1382123
0.24866721 0.045244288 0.0054208334 0.14841251 -0.11317175 0.23996034 -0.032926347 -0.015538617
-0.033920597 0.15704009 0.043474 -0.06384037 0.08464347 0.09882303 0.11877004 0.00059211644
-0.05064244 -0.08541788 -0.066875495 0.20286387 -0.052115534 -0.0067244186 -0.14753225 -0.08278162
0.059514675 0.027230231 -0.108661465 -0.06723698 -0.020067122 -0.048328217 -0.04581054 7.4469775e-05
0.10002407 -0.061851595 -0.10649414 0.103399195 -0.19617994 0.040832102 0.16156669 -0.09257145
0.12470167 -0.0045291535 -0.0071457657 0.025996251 -0.07814902 -0.123504385 0.10937982 -0.094594315
-0.023208376 0.059127253 -0.12051289 0.09305482 -0.032589093 0.24352649 -0.03795331 0.07153725
0.06775247 0.009507655 -0.07100543 -0.023203554 0.147321 0.12638502 0.073162034 -0.17041878
-0.08026592 -0.08666694 -0.028421437 0.0588254 -0.02097478 0.0009232783 -0.027819961 -0.122584835
-0.22272429 0.008763311 -0.013759292 -0.011870867 -0.090257324 -0.062878825 0.08598749 0.0049968283
-0.16557771 -0.039765198 -0.03548164 -0.0665883 0.020192638 -0.020070871 -0.010152269 0.08404021
-0.13240366 0.11775771 -0.09321686 0.01478535 -0.019703161 -0.09057135 0.09946803 -0.012975903
0.056371555 0.04619117 0.029529057 -0.08431064 0.036664918 -0.0021049997 0.017012531 -0.035667717
0.063723415 -0.15215373 -0.073738836 -0.1325055 0.068737194 -0.062124502 0.022166653 -0.082100675
0.096377514 0.06115463 0.10099215 -0.17483227 -0.047485895 -0.040273845 0.047730356 -0.022000391
-0.033131283 0.055546835 -0.0014246423 -0.06727456 0.08397657 0.07933816 -0.09537179 -0.058267206
0.11870867 0.083476596 -0.045021996 0.12247677 -0.005277317 0.0675315 0.016599158 -0.06648526
-0.02597634 0.016889751 -0.12093283 0.035341036 0.0071237963 0.053743206 -0.10262111 -0.075736105

bias f4 [256]
00000000: 4879 733d 980a 08bd 386e a93d d6bd c83d
00000010: 1499 25bd 6e37 2c3c c424 fabc 5d77 3c3d
00000020: 8ba2 c03c ae61 ac3a b9e3 99bd a577 f73c
00000030: 8339 d53c 89aa 0e3d 0387 f1b9 473c 59bc
00000040: 6c94 a33d ad02 57bd 7fc2 8cbd 0af5 22ba
00000050: d1e6 9a3d 5705 c43d 69a6 b63c a118 57bd
00000060: 1671 b93c d10c 8cbd b9ee e5bc b9bc 6bbd
00000070: 70d9 3b39 c2e2 433c 2040 cd3c 3fde a2bd
00000080: 350f ca3d 2d14 4f3d cb25 fabc 2ecf 5c3c
00000090: a2be 913d 9661 473d 85b0 003d 5f18 bd3b
000000a0: dc69 cb3d 6f50 b03d 95bc 013e c582 40bb
000000b0: 55b2 c43d ed64 213e d76d 5d3d af88 cbbd
000000c0: 5aa9 c73b 1ca7 a63d 8958 a0bc 9cf2 653d
000000d0: d7ed e63d 8d51 3d3d 0c64 bfbd 0bd1 f23c
000000e0: c330 cbbd dda3 28bb bda3 7fbd 2571 98bc
000000f0: e952 f0bd 554d 46bd 7f7b 8dbd 1048 72bd
00000100: 7955 e63d ff65 52bd 63c1 fdbc 28af af3d
00000110: 98fa 0d3d 77f1 35bd 8db8 c8bd b3ca 6abd
00000120: 55c8 0cbd 8ec2 e9bc d7a5 493d 1c96 24bd
00000130: 8960 9b3d 6d32 673d bd53 453d 5c1d 17bd
00000140: a464 9e3d ba58 ba3d 365e a2bc 2c10 773d
00000150: cf7a 803d 2413 753d d702 43bd 74bb bebd
00000160: dee0 05bd c54d 093d 32a9 683d b10b 6f3c
00000170: 4223 e1bc 2fcf a9bc c14f 653d 3549 a0bc
00000180: e485 953d a8b2 743d f0fb 7d3c fa5b 413d
00000190: 60a8 313d c73c 9e3d 7542 b5bd d0c2 b63c
000001a0: ff3e 39bd 266f 5f3d bf1f da3d f113 1fbd
000001b0: 2bcc c93c 49a2 bc3a ae9d 1fbd 63ff 9c3c
000001c0: 8fb7 943d 5416 28bb 1a66 883d 0748 e43c
000001d0: 18a2 4f3d ab2d d5bc 4cbb c2bd af0b 6e3d
000001e0: fe2b 46bd 01ab e43d 425c 10bd 3959 623d
000001f0: 9c73 153c 492b f9bb e4f6 0f3d d796 57bd
00000200: bf30 bebd 957b bd3c fd9b 6e3b 3f56 6e3c
00000210: 8341 5ebd 90bd 673c be50 14bd 212e cdbc
00000220: e890 573d 1c83 02be 527b 523d cf9a 3c3b
00000230: 109c 90bd d4db c1bb c25d 27bc cbd0 1fbe
00000240: 373a 48bd de3d 53bd 6ed5 dc3d b277 b13d
00000250: 46e7 353d 6344 7b3c b778 96bd f04e 8d3c
00000260: 9f91 ccbd 37fa 023d 7fa9 39bd 902e bd3d
00000270: 6154 b5bd 1aaf abbd 4059 f53b 20de c5bc
00000280: 6649 adbd 39d7 a8bd 16ab afbc a390 17bc
00000290: 27db ce3c 23e0 093d ac44 79bd a46d 683c
000002a0: 6d80 13bb 9ce9 6cbd 8667 3dbd d2af e03c
000002b0: 5bb1 6dbd 8b5f f9bb 38f0 233a 3bbb 263d
000002c0: 7cda 6bba c1fc 2c3d bfa5 4dbc 6b11 36bb
000002d0: 54a8 4c3d 5b2b ad3d df29 53ba 5b38 78bc
000002e0: b347 1abc 9fd0 cdbc cf64 413d ea94 743d
000002f0: 2ed1 843d 9a74 1c3d 2e9f 4a3c a1fd 13bb
00000300: 7610 3fbd 1e28 8e3d 5f52 dfbd 10a9 e23c
00000310: 2e17 c8bc 45c5 4abd 0766 023d d6bc 32bd
00000320: 3c20 fdbc 1253 8f3d 3688 db3a 7d54 ab3d
00000330: 6518 34bc 214f af3d 712b 1d3d a5b7 acbd
00000340: d9d0 4abc d742 e13b 5c45 e9bc 1f6e 993c
00000350: 53cc fe3b 5895 3b3d 9b06 d1bd eda2 ebbc
00000360: 31bb 933c 09b4 5abb ccf1 8a3c 2ba2 ebbd
00000370: 8971 993d 26f9 3fbd 53d2 2cbc 0917 eebc
00000380: 20e8 a0bd 5114 d33c 16f9 053d 47f9 6ebc
00000390: 3e40 9bbc c6e8 563d b688 963d d0d8 d4bc
000003a0: ef96 87bd 1159 d23d 6232 8e3d 7491 f3bc
000003b0: 620e c3bd c36b 27bd 9987 ac3d dba9 76bd
000003c0: e027 723d bd87 7dbd b913 883a 03a1 be3c
000003d0: e9d8 8ebd e7d1 a93d 3857 1cbd e822 3a3d
000003e0: 9f42 2ebe 3050 03bd d67e 6cbd e767 8c3d
000003f0: 3153 5d3c 4a79 713d 4cff 553c 9ae5 52bd
0.059441835 -0.033213228 0.08272976 0.09801833 -0.04042919 0.010511262 -0.03053511 0.04601227
0.023515007 0.0013151669 -0.07514138 0.030208418 0.0260284 0.034830604 -0.00046067694 -0.013259
0.079872936 -0.052492786 -0.06873035 -0.0006216323 0.07563556 0.09571331 0.022296147 -0.052513722
0.022636931 -0.06838382 -0.028067933 -0.057553027 0.00017914711 0.011955919 0.025054991 -0.07952546
0.09866182 0.05055635 -0.0305356 0.01347713 0.071164384 0.04867705 0.031418342 0.0057707275
0.099323004 0.086090915 0.12669595 -0.002937482 0.09604327 0.15761156 0.05405983 -0.0993818
0.0060931863 0.08137342 -0.019573467 0.056139573 0.11275833 0.04622035 -0.09345254 0.029640695
-0.0992141 -0.0025732436 -0.062412012 -0.018608639 -0.11734564 -0.048413593 -0.06908321 -0.059150755
0.11246771 -0.051366802 -0.030976003 0.0857833 0.034662813 -0.044419732 -0.09800825 -0.057322215
-0.03437074 -0.028535154 0.049230423 -0.040182218 0.07586772 0.056444574 0.048175562 -0.036893234
0.077340394 0.090989545 -0.019820314 0.060318157 0.06273424 0.059832707 -0.04761013 -0.093130976
-0.032685153 0.033521432 0.056801982 0.01459019 -0.027482633 -0.020728676 0.055984262 -0.019566158
0.07300928 0.059740692 0.015501961 0.047206856 0.043373466 0.07726436 -0.08850566 0.02230969
-0.045226093 0.05454936 0.10650586 -0.038837377 0.024633488 0.0014391626 -0.038968734 0.019164747
0.072615735 -0.0025648074 0.06660099 0.027866377 0.050691694 -0.026022753 -0.0950838 0.05811661
-0.048381798 0.11165429 -0.035244234 0.05526087 0.009121802 -0.007604037 0.035147563 -0.052634086
-0.09286641 0.023130218 0.0036408894 0.01454693 -0.054261696 0.014144316 -0.036209814 -0.02504641
0.052628428 -0.12745327 0.05138714 0.0028778797 -0.070610166 -0.005916098 -0.010215225 -0.15606992
-0.048883643 -0.051572673 0.10782896 0.08665408 0.044410013 0.015336129 -0.07347243 0.017249554
-0.099887125 0.031976905 -0.04532766 0.09237397 -0.088539846 -0.08383007 0.007487446 -0.024153769
-0.08461265 -0.082441755 -0.021443885 -0.009250793 0.025250984 0.03366102 -0.060856506 0.014186297
-0.0022506968 -0.057839975 -0.046241306 0.027427588 -0.058030467 -0.0076102666 0.0006253752 0.0407059
-0.0008997095 0.042233232 -0.012551724 -0.0027781378 0.049965218 0.08455535 -0.00080552505 -0.015150155
-0.0094165085 -0.025123892 0.04721528 0.059712328 0.0648521 0.038197137 0.012367053 -0.0022581595
-0.046646558 0.069412455 -0.10904383 0.027668506 -0.024425115 -0.049504537 0.031835582 -0.04363712
-0.03089916 0.06998266 0.0016748968 0.08365724 -0.010992144 0.085600145 0.038371507 -0.08433465
-0.012378895 0.006874423 -0.028475456 0.018729268 0.007775822 0.045796722 -0.10206338 -0.028764213
0.018033596 -0.003337147 0.016961 -0.115055405 0.07492358 -0.046868466 -0.010548192 -0.029063718
-0.07856774 0.025766524 0.03270825 -0.0145858 -0.018951531 0.052468084 0.07350294 -0.02598229
-0.06620585 0.10270894 0.069432035 -0.029732443 -0.09524228 -0.040874254 0.08424301 -0.06022058
0.05912006 -0.06189703 0.0010381854 0.023270136 -0.06974966 0.08291989 -0.038169116 0.045443445
-0.17017601 -0.032058895 -0.057738148 0.06855755 0.013508604 0.05895356 0.013061356 -0.051488496

weight f4 [6, 256]
00000000: 9d8e bc3c 72ab 5bbd 7d71 d6bc 50de b03d
00000010: ed0a bebc 7d49 91bd f97c 7b3d a0ee 1e3e
00000020: c904 e5bd abca 9b3d 0eef 70bd 8444 623d
00000030: b257 b33d 2790 1f3c a021 ae3d 8e9b dc3c
00000040: 23ef f33d ef84 4fbd c494 b93d 6760 3b3d
00000050: ab5a aebc df4c 34bb 0762 0b3c 1828 b73b
00000060: 573c 55bd 03fc 533c 8256 2abd 8bcf 1abd
00000070: f44a 78bd 4f80 cabd 1846 75bb e4c2 4abd
00000080: 7ac5 a03c 5017 dd3c eb80 46bd 9cc5 483d
00000090: e9f8 dc3d ca9d 013e 7b05 873d e647 d63c
000000a0: 3eb4 d0bd fd44 8b3c f046 4cbd d699 ebbd
000000b0: 27cd 373d 9fec 57bb cebe ff3d 01a3 fa3c
000000c0: c1e3 433d 1990 933d 1d60 703d 6d7d b13d
000000d0: 7054 ba3d 9f71 02bc 64b7 cdbd 4f90 c83c
000000e0: b36f 47bd d1c8 13bc 286e c83d 1859 58bd
000000f0: 2cbf c5bd 11b9 cfbd 6717 dcbc 9b67 9fbd
00000100: 8e12 da3d a74e ebbd 528b aebc ce3b ce3a
00000110: bbcd 90bc 1db5 573d 9c47 9a3b 4b95 653d
00000120: 6272 f03d d6af 9abc fa82 cabc 70e8 86bd
00000130: 17f2 0cbd 2ef4 243d 96a5 b63d 9d45 94bd
00000140: 3fba 3b3d 12fb 3f3d 7fbf 09bd 4a93 033d
00000150: 3191 403c 698d e23b f7ab b53d d4bf 823d
00000160: 1de6 8e3d 1bff e63c bd0a 3bbd febe 9a3d
00000170: 5260 a9bb 9b6e 01bd 8055 b33d 800d 0b3e
00000180: f8e6 f53d 3658 ea3d 5618 6b3d 1d28 65bd
00000190: 62de de3b aa39 b7bc 2a4d 2e3d e1a4 9a3d
000001a0: 165a 84bd d291 ad3d 43eb 113d d9c9 863d
000001b0: 2091 113c a911 6fbd 53cd 0e3d aadf 4abd
000001c0: a43c a23d d97b 323e fa0b 803d a9ea 143d
000001d0: 29c7 9dbc adc4 6a3c 608f 57bd 1926 8bbc
000001e0: 0466 913c 80b6 3ebd e88c 7ebd a04b 8ebd
000001f0: 04c8 b03d 077b 8d3d c10e 9c3d c8a9 613d
00000200: 9ec7 0abd 1508 05be 6f30 9f3d 02b2 a6bc
00000210: 5643 243d e26f af3d ec52 6c3d fa7d c03c
00000220: 39e1 cfbd e612 90bd 4e9c 8ebd 132c 533d
00000230: 108b c33d e11f 903d fe21 8bbb 21dd 623d
00000240: b05b 91bc 381f 54bd 2197 073d 470a 0bbd
00000250: a0f1 8bbd c373 cf3d 9b4d 8a3d de54 d7bc
00000260: 61b2 98bd 67f9 b13d f55c 0abc ca11 343d
00000270: 23f5 8a3d c079 a8bd 6b06 543d 58be 683d
00000280: f292 81bd 579a 203d 27fb fbbd 5403 c83d
00000290: 1bbe 8ebc 0375 44bd c440 083e 0ac7 a83d
000002a0: 47f7 e83c 66cb ba3c 4516 9d3d f1bd 92bd
000002b0: 5926 adbb 4c01 7fbd 734d 43bd b27b 20bc
000002c0: c11e 813b 9b4c a4bd 2310 1f3d 0e8c 74bd
000002d0: 0d2d 4b3b c44c 27bd 6ed4 b83d f2aa 17bd
000002e0: fdb0 66bd 9ee0 34bc 45d3 11bd 0af6 813d
000002f0: 715b 60bc d170 42bc 668e 823d e3db 143e
00000300: 6120 dd3c e605 0a3e 03e1 ee3c 624c 843d
00000310: e060 d2bb 618b af3b c36b 49bc 1e3f 843b
00000320: 7576 f8b9 1b3b e93d f239 493d 228e 26bc
00000330: c588 da3d 7099 f6bc 8bfd 9e3d 4304 253c
00000340: a64b 34bd 7284 8ebd a3a4 39bd 032c 2d3d
00000350: 2734 babd ff48 b83d 1a88 39bd d66d 3bbd
00000360: 360d bf3b aadb 35bd 9def 813d 13bc c73d
00000370: 09f8 af3d 1fde dcbb 9bdf c3bd 446d 043d
00000380: 8774 33bd 12ac bfbd 3155 e2bb 6cca 883d
00000390: f222 333d f977 09bd d54c b33d 98c3 543b
000003a0: 3266 563d d99f b23d 197e cdbb 71b7 163d
000003b0: ce15 e2bc 4e15 63bd 098b ba3c 86fd 493d
000003c0: f48b f83d bb27 88bd c6fa ca3d 80ad ed3c
000003d0: c9ce 99bd b04c 6a3d 5193 d6bc 4811 c43c
000003e0: 5492 a0bd 4422 71bd e46d 9fbd 8bda 15bd
000003f0: a099 993d b02e 6d3d 4e0e a0bd 5c1f d7bd
0.023017222 -0.0536303 -0.026177162 0.08636153 -0.02319857 -0.07094095 0.06139848 0.15520716
-0.11182553 0.07607015 -0.05882173 0.055241123 0.08756961 0.009738958 0.08502507 0.026929643
0.11910846 -0.050663885 0.09061578 0.045746233 -0.021283468 -0.002751164 0.008507258 0.0055894963
-0.052059498 0.012938502 -0.041586407 -0.037795585 -0.060618356 -0.09887754 -0.0037425812 -0.04950227
0.019625414 0.026988655 -0.04846279 0.04901658 0.10789663 0.12657848 0.06592842 0.02615733
-0.101906285 0.01700067 -0.04987234 -0.11503951 0.044873383 -0.0032947434 0.12487565 0.030595304
0.047824625 0.07205219 0.05868541 0.08666501 0.090981364 -0.00796166 -0.100447446 0.024482874
-0.04869051 -0.009020046 0.09786636 -0.05281934 -0.09655604 -0.101427205 -0.026866628 -0.07783433
0.1064807 -0.11489611 -0.021306667 0.0015734376 -0.017676225 0.052662957 0.0047082435 0.05605058
0.11740567 -0.018882673 -0.024720658 -0.06587303 -0.034410562 0.04027193 0.08918302 -0.0723984
0.045831915 0.0468703 -0.03362989 0.032122888 0.011753366 0.00691383 0.0887069 0.063842446
0.069774844 0.028197816 -0.045664538 0.0755596 -0.005168953 -0.031599622 0.08756542 0.13579369
0.120069444 0.11442606 0.057396255 -0.055946458 0.0068014124 -0.022366364 0.042554058 0.075509794
-0.06462495 0.08475079 0.035624754 0.06581468 0.008884698 -0.05836645 0.03486378 -0.04952971
0.079217225 0.17430057 0.06252284 0.036356602 -0.019260006 0.014329118 -0.052626967 -0.01698594
0.01774884 -0.046560764 -0.062146097 -0.06948018 0.086319 0.06908231 0.076200016 0.055093557
-0.033881776 -0.12991364 0.0777291 -0.020348553 0.04010328 0.08566262 0.057696268 0.02349757
-0.1015038 -0.070348546 -0.069634065 0.051555704 0.095480084 0.070373304 -0.0042459955 0.055386666
-0.017743915 -0.051787585 0.033103112 -0.033945348 -0.06833196 0.10129502 0.06753083 -0.026285585
-0.07455898 0.08690148 -0.008445014 0.043962277 0.06785037 -0.08226347 0.051763933 0.05682215
-0.06326856 0.03920969 -0.12303763 0.0976626 -0.017424634 -0.047963154 0.13305956 0.08241089
0.028438224 0.022802066 0.07670263 -0.07165135 -0.0052841124 -0.062257096 -0.047681283 -0.009795116
0.0039404337 -0.08022424 0.03883375 -0.05970388 0.0031002194 -0.040844694 0.09024893 -0.03702826
-0.056321133 -0.011039881 -0.035601873 0.06345756 -0.013693676 -0.011867718 0.063748166 0.14537005
0.026992979 0.13478813 0.029160028 0.06459881 -0.00642024 0.0053571914 -0.012293759 0.0040358445
-0.00047390503 0.113882266 0.049127527 -0.010165723 0.10670618 -0.030102462 0.07763203 0.010071817
-0.044017456 -0.06958856 -0.045323025 0.0422783 -0.090919785 0.08998298 -0.045295812 -0.045759045
0.0058304323 -0.04439894 0.06344531 0.09752669 0.08592231 -0.006740346 -0.09564134 0.032330766
-0.0438123 -0.09358992 -0.0069071283 0.06679234 0.0437345 -0.03356168 0.08754889 0.0032465216
0.052343555 0.08721895 -0.0062711355 0.036796037 -0.027598288 -0.05544024 0.022771375 0.049314044
0.12136069 -0.06648203 0.099111125 0.029013395 -0.07510144 0.05720204 -0.026193293 0.023934022
-0.0784041 -0.05887057 -0.07784632 -0.036585372 0.07500005 0.057905853 -0.078152284 -0.10504028

bias f4 [6]
00000000: b722 0c3d 968a 9b3d ad12 abba 4502 ab3c
00000010: 20d3 86bc 201f 123d
0.034212794 0.075947925 -0.001305183 0.020875106 -0.016458094 0.035674214

weight f4 [256, 17]
00000000: ccd0 4cbf 0bed 403f fd0e 333f 4a57 44bf
00000010: 2c85 153f 5a99 07be 3250 cebf 24d0 c33e
00000020: 7f84 1d3f 5072 c33e c9fd 96bd 2ceb c13d
00000030: 052f 953c d654 2f3e 7574 1a3f 5e16 d4bd
00000040: c0a9 063d ea62 0dbf 3096 c33e e77d 0a3f
00000050: 1164 d4be ee15 e1be 797d 2a3f 8fe2 af3f
00000060: f0d6 25bf 546a ccbe 1338 7cbd 2da3 903d
00000070: b30e 033e 5dcc 453f e667 1e3f 836a 863e
00000080: c119 5cbe aace b63e 20d7 043e 47e6 8e3d
00000090: 3ce6 3bbf 135f 773e de3d e0bf 694a c33f
000000a0: a64c ab3e a7c3 4ebf 4ca9 683e b193 9f3f
000000b0: a5c4 6e3e 7061 e5be 3395 f5be 8946 963e
000000c0: dcb7 3c3e 8576 e33d 424d d0bc 86e6 7ebf
000000d0: aafe 8abf 52b0 14bf a937 733e 7eea af3f
000000e0: 6060 3cbf f7af dc3f 32c3 a63e c990 27be
000000f0: 4357 9dbf 8cb4 843d 999e babe 8f38 e13d
00000100: b2bf 06be a002 483d 71f8 3c3d a78b 63bd
00000110: 497b ee3e e401 5d3c 57e9 fc3e d4d9 31be
00000120: f4de 12bc 24e8 97be d074 efbe 169f 9f3e
00000130: 8b42 f63e 966e e3be 82fb 7bbe c204 ce3e
00000140: 720b 90be 824d 58be 400d 8d3f c1bc bfbe
00000150: b3ad 3abf bd23 05bf 5ca8 d03f daa6 24bf
00000160: d33b 8ebf 587c 0abe 9a6f 09c0 ba62 383e
00000170: 4e5c b4bf f78f 70be fd8b 3fbf 1560 ec3c
00000180: 90f5 313e cdb7 db3d 4acb b8bd 50be cdbd
00000190: 9fdf e4bc 69fa d4bc 2d18 47be bb47 7dbf
000001a0: 080f 3b3f e5e7 5dbe eeb0 bebe d258 16bf
000001b0: 379e 123f 3ad8 ebbe 8274 21be fb94 613e
000001c0: 98c1 e4bf 3610 bd3e b161 b3be b284 52be
000001d0: 8cd5 1fbf 6f8f a5be 6802 743e 7410 56bf
000001e0: 5030 2d3f 1729 cabf d316 a63e 6ecb d03e
000001f0: ea21 b4be d618 39bf a18e ef3e dcf5 c43e
00000200: 8981 ac3e a871 f0bc 08ff 833d fb82 dfbe
00000210: 1e06 7a3d 9a8b a13e 634e 12be 23eb 37be
00000220: ce3c 94be f203 c53e f02c 74bf fbc4 073f
00000230: 4d04 073e ff58 81be 4ba3 aa3d 983d c33d
00000240: 2e2f 07be e60f 2e3f f850 363c e37c 7d3f
00000250: c4fb 893f 745d 153e a178 2fbe a5ff b1bd
00000260: d452 87bd dc8e 053e 4b1e b53f 70fc cdbe
00000270: 18bd 5ebe 04b1 65bf 370e df3e db28 b0bf
00000280: cdff 8ebe 7dab ac3e b112 963e 92a3 82be
00000290: 771d c2be ed15 0c3e dbe8 fdbc 7b17 30bd
000002a0: 99cf 61bd 10b0 14bf 7b97 e3bd 6949 d2be
000002b0: f31f c53f cb16 493f 7c86 f1be f773 993f
000002c0: 5fcd 3a3e 92d9 e4bd 0d3f 473e 1905 6fbf
000002d0: 61ac 2b3f 1fc5 21bf f25e 61be 0e25 33be
000002e0: ec05 1b3f 175b a1be a979 02bf 6bb7 dd3e
000002f0: 3948 f73f 7ece c43e ed27 633f ffd0 233f
00000300: a240 b7bf 71a5 6a3e 326b 78bc 95cf c13d
00000310: a5c0 c8bf adc9 883e d65c e6be edf3 8abe
00000320: df53 a6bd 753b 9e3e ca3e 213e 57c0 dabd
00000330: 75df 833e 64ba 263f 180f c13f 7a63 fd3e
00000340: c53b a1be d157 b83d 741c c0be 1170 e5bd
00000350: 7b7c 0fbf c693 673f 7272 0d3e 8f61 30be
00000360: d590 0c3f 8c12 813f c7ba 5b3e a916 ac3e
00000370: 6a06 0abe 5b59 a03e a850 f9bf 51b1 883f
00000380: b738 293f 7068 4abf 522e eebe 380b 66bf
00000390: 3629 9bbd 323d 42be cd62 cb3e 3001 8fbf
000003a0: ed2d 103e 419f 713d 96f8 1bbf 103f 2f3f
000003b0: 4746 a0be 2dfa 743e e259 10bf 95c9 693f
000003c0: f508 a9bf 7cb2 a6bf 4a0a 88be 1522 76bf
000003d0: 3c69 d5be 1912 a6be 1671 86bd 9e27 093e
000003e0: 51d3 473e cada ebbb 98a1 fabc 5edd 2ebd
000003f0: 2e97 01be 7b4d 58be 73da 41be 519d 42bf
-0.800061 0.753617 0.69944745 -0.7669569 0.5840633 -0.13242093 -1.6118224 0.38244736
0.615303 0.3817315 -0.073726244 0.094686836 0.018210897 0.17122206 0.6033395 -0.10355829
0.03287673 -0.55229056 0.3820052 0.5409836 -0.41482595 -0.43962044 0.66597706 1.3741015
-0.64781094 -0.39924872 -0.061576914 0.07062373 0.12798576 0.7726496 0.61877286 0.26253137
-0.214942 0.35704547 0.12972689 0.06977516 -0.73398185 0.24157362 -1.751888 1.5257083
0.33456916 -0.8076729 0.22720832 1.2466947 0.23317201 -0.448009 -0.47965392 0.2935069
0.18429512 0.1110659 -0.025427464 -0.995705 -1.0858967 -0.58081543 0.23751701 1.3743436
-0.73584557 1.72412 0.32570797 -0.16363825 -1.2292255 0.06479749 -0.36449125 0.10997116
-0.13159063 0.04883063 0.04613537 -0.055553105 0.46578434 0.01348922 0.49396774 -0.17368251
-0.008964289 -0.29669297 -0.46768808 0.3117606 0.48097643 -0.44420308 -0.24607661 0.40238005
-0.28133732 -0.21123317 1.1019669 -0.37448695 -0.72921294 -0.5200766 1.6301379 -0.64317095
-1.1112007 -0.13523996 -2.1474366 0.18006411 -1.4090669 -0.23492418 -0.7482298 0.02885441
0.17378831 0.107284166 -0.09023149 -0.10046065 -0.027938662 -0.025998311 -0.19442816 -0.98937577
0.7306981 -0.21670492 -0.37244362 -0.5872928 0.57272667 -0.46063405 -0.157671 0.22029488
-1.787158 0.3692643 -0.3503547 -0.20558432 -0.6243522 -0.32335994 0.23829043 -0.83618855
0.67651844 -1.579379 0.32439288 0.40780205 -0.35182124 -0.7230352 0.46788505 0.38468826
0.33692577 -0.02935107 0.06445128 -0.43654618 0.06104099 0.3155182 -0.14287715 -0.17960791
-0.2895264 0.38479573 -0.9538107 0.53034943 0.13185234 -0.2526321 0.08331927 0.095332325
-0.13201591 0.6799301 0.011127703 0.99018687 1.0779958 0.14586431 -0.1713586 -0.086913384
-0.06607595 0.13042778 1.414987 -0.40231657 -0.21751821 -0.8972323 0.43565533 -1.3762468
-0.27929536 0.33724585 0.29311135 -0.2551542 -0.37913105 0.13680239 -0.030994823 -0.042991143
-0.05512962 -0.5808115 -0.11112877 -0.41071633 1.5400375 0.78550404 -0.47172916 1.1988515
0.18242405 -0.11174311 0.19457646 -0.93367153 0.67059904 -0.6319141 -0.22008875 -0.17494604
0.6055591 -0.3151481 -0.5096689 0.43304 1.9318916 0.3843879 0.88732797 0.6399078
-1.4316599 0.22914673 -0.015162276 0.09463421 -1.568379 0.26716366 -0.44992703 -0.27139226
-0.08121466 0.30904737 0.15746608 -0.10681217 0.25756422 0.6512816 1.5082731 0.49489957
-0.31490913 0.09001125 -0.37521708 -0.112030156 -0.5604932 0.9045986 0.13813189 -0.17224716
0.54908496 1.0083785 0.21457969 0.33611038 -0.1347901 0.31318173 -1.9477739 1.0679113
0.66102165 -0.7906561 -0.46519715 -0.8986087 -0.0757622 -0.18968657 0.39723817 -1.1172237
0.1408002 0.058989767 -0.6092619 0.684556 -0.31303617 0.2392356 -0.5638715 0.91323215
-1.3205858 -1.3023219 -0.2657035 -0.96145755 -0.4168185 -0.32435682 -0.06564538 0.13394019
0.19514205 -0.0071977125 -0.030594632 -0.04269158 -0.12655327 -0.21123306 -0.18930988 -0.76021296

bias f4 [256]
00000000: 5e19 5bbf 944f 1bbf 026c a43e 2870 2cbf
00000010: ccff b93e 609f b6be 3c91 183e feab 0bbf
00000020: 0604 96be cd10 a5be 7942 e5bd ade3 833e
00000030: e85a f4bd d9ef afbd d430 4dbf 79a7 51bf
00000040: b443 5dbd 018c 543f 7664 e33e 4f3e 9c3f
00000050: 43da 06bf b643 5fbf 22bc 003f abfe 3b3e
00000060: 0605 153e 7e41 c73d adae d13e 851f 593f
00000070: 3600 15be 59e8 91be 888e b3bd d160 19be
00000080: 75a6 b23d 1679 03be 9027 1ebe c51b 2d3e
00000090: 39ee 5ebd dc54 6a3c 035d 29be 32c3 2c3f
000000a0: 9d5b b73e fe98 873d e788 1ebf d852 3fbf
000000b0: dbe1 86be 5143 4cbf 0ddb 16bf 9eb4 c93e
000000c0: 7f7a 893f c83f babe 0045 cd3e 0404 89bf
000000d0: c901 f13d 1faa 0c3f 72c7 90be 0e34 2bbf
000000e0: 0cef 3438 ec0f 2bbd dcb0 24be 2a41 313e
000000f0: c2d7 6e3f 981d bb3e 7244 f6bb f830 493e
00000100: b3e8 21bf 549a 21be b0f9 143f 000c 1c3f
00000110: ce3d ea3e c005 f4be e2a1 9ebe 0c71 ac3e
00000120: d9c8 fbbe 3eb6 b03e c4e6 7e3d 9bdd 6bbd
00000130: d1b6 97bf 8ad0 ebbe 9835 20be fbf5 353e
00000140: f740 13bf eccb 7c3f 3007 4abf e033 26bf
00000150: ae7f 443d bd24 e23d 8f1e 6dbf 8d3e 293e
00000160: 5a11 a0be c14c 9e3e 8e35 8e3e 21e2 04be
00000170: 0754 0bbf 5a8a 2ebe f19d 923e b6b0 d5be
00000180: 4093 3f3e 7658 343f 175d 1cbf dda1 a4bc
00000190: 45d1 c8bc 4315 8d3e a05e 9e3e b088 ee3e
000001a0: 22b7 4cbf 6242 09bf 087f d93e 7cce 61be
000001b0: 1761 333f a8e1 30bd 5251 fa3e ccf8 8f3d
000001c0: 7c44 ddbe 2758 b73d 0604 bc3e 230d c4be
000001d0: 4686 53bf 596f 383f daf4 5fbe 0820 46be
000001e0: d58e dbbd 7b2b a33e 8ea9 0ebe da89 d43e
000001f0: 2a87 09bf 64d0 333e 08d1 9d3e 4369 a43d
00000200: 4352 f3be a55a 9cbe 219b 1bbf c730 34bf
00000210: 1b2e 3e3e 7a67 b0bd 8ba2 903e 7cdd 57bf
00000220: 5656 8fbe c39c c33d d274 013f 037e 2a3f
00000230: 0ede 6dbf dba7 843e b8fa b33e 0627 98be
00000240: 43fc ed3d b89d ef3e 5d96 b23e f0c5 2dbe
00000250: 35f1 cd3e 254b 43be 23f4 abba c5d8 743f
00000260: 87dd 75bd 4f07 5ebe 97d7 383f d044 c13e
00000270: 7f22 37bf 5da6 b3be 7b7e 12bf 7545 3cbf
00000280: 0ca7 f03e 0eb5 c6be b962 8b3e 81d2 9e3c
00000290: a98f 1d3f 7ce0 343e f8b1 17bf f697 90bf
000002a0: 30f1 a73e 12b9 113f af39 00bf f149 a03e
000002b0: b824 aa3e ca2f 663f fc56 4ebf 2b02 d63e
000002c0: 1596 83be 465f 593d 286c 403f 1567 7d3e
000002d0: bf05 c73e d0ef 543f 63df 1f3f 20ff 06bf
000002e0: 4858 82bf b7e9 87bf 5c03 5abf fb0f 8b3d
000002f0: ad70 5f3e 7942 3bbf 3b18 11be dbf6 0c3f
00000300: 6aaa 433f bb31 943f fb5a 81be 4b3e 0ebf
00000310: f0c7 fc3e 0b88 a1bd 5c91 273f b915 61be
00000320: e0fe 2c3f 5e68 353f 95ce e53e 707c 68be
00000330: 7482 453e 26be 533f c227 4abf 3197 e63e
00000340: 4389 273e fa64 983e 868b 7fbf 27c0 eabe
00000350: c519 723d 536c 803e edb0 113f 506d 5e3e
00000360: 2a71 663c 31b2 553e ef49 20bd 2447 123f
00000370: 49da 00bf a707 ac3e 167b 9cbe 3ff1 85bc
00000380: 95a8 483f 8812 1e3e ff28 89bf f578 5ebe
00000390: 18c8 efbc 1020 d33e c252 703f 3582 d0be
000003a0: 1672 933f c70b e4bd ff9a 1d3f 11f6 00be
000003b0: f476 9c3e 5371 ea3e 9f07 703f 4cfc 0f3e
000003c0: 3d39 243f 1335 25bf 703b a83e 17ba c2be
000003d0: 2c96 7cbd 5ca5 b9be d85f c63e c4b7 2abf
000003e0: fa73 763f c072 85be c068 943e 7347 a5bd
000003f0: 1e34 eabc 7c78 5ebf f2df 533f 4ea5 49bf
-0.8558558 -0.606683 0.32113653 -0.67358637 0.3632797 -0.35668468 0.14899153 -0.54559314
-0.29299945 -0.3223938 -0.11194319 0.2575964 -0.119314015 -0.08590669 -0.8015263 -0.8189617
-0.054019645 0.8302613 0.44412583 1.2206515 -0.5267679 -0.87212694 0.5028707 0.18358867
0.14552698 0.097292885 0.4095358 0.8481372 -0.14550862 -0.2849758 -0.0876742 -0.14978339
0.087231554 -0.1283916 -0.1544478 0.16905124 -0.054426406 0.014302459 -0.16539387 0.67485344
0.35812083 0.06620978 -0.61927646 -0.74735785 -0.2634419 -0.79790217 -0.58927995 0.39395612
1.0740508 -0.36376786 0.40091705 -1.070435 0.117679186 0.54947084 -0.28277165 -0.66876304
4.3137974e-05 -0.04176323 -0.16083091 0.17310014 0.9329797 0.36546016 -0.0075154835 0.19647586
-0.63245696 -0.15781528 0.5819349 0.6095581 0.45750278 -0.47660637 -0.30982882 0.33679998
-0.49176672 0.3451404 0.062231794 -0.057584386 -1.1852666 -0.4605754 -0.15645444 0.17769615
-0.57521003 0.9874866 -0.7891722 -0.64922905 0.047973327 0.110421635 -0.92624754 0.16527767
-0.31263238 0.30917934 0.27775234 -0.12976886 -0.5442509 -0.17044964 0.28636125 -0.41736382
0.18708515 0.7044748 -0.61079544 -0.020096714 -0.02451385 0.27555284 0.30931568 0.4658866
-0.7996694 -0.5361692 0.4247973 -0.22051424 0.7007002 -0.043183953 0.48890167 0.07029876
-0.43216312 0.089523606 0.3672182 -0.38291273 -0.8262676 0.72044903 -0.21870747 -0.19348156
-0.107206024 0.3186911 -0.13931867 0.41511422 -0.5372187 0.17559963 0.3082354 0.080278896
-0.47523698 -0.30537906 -0.6078358 -0.7038693 0.18572275 -0.086134866 0.2824901 -0.84322333
-0.27995557 0.09551384 0.5056888 0.6659853 -0.92916954 0.25909314 0.3515222 -0.29717273
0.11620381 0.46800017 0.34880343 -0.16970038 0.4022309 -0.19071634 -0.0013119023 0.95643264
-0.060025718 -0.21682476 0.72203964 0.37747812 -0.7153701 -0.35087863 -0.57224244 -0.73543483
0.47002447 -0.3881001 0.27223757 0.019387485 0.61547333 0.17663759 -0.59255934 -1.1296375
0.328012 0.5692302 -0.5008802 0.31306413 0.3323114 0.8991667 -0.8060148 0.4179853
-0.2570044 0.053069375 0.75165033 0.24746354 0.3887157 0.83178425 0.62450236 -0.5273304
-1.0183191 -1.0618199 -0.85161376 0.067901574 0.21820326 -0.73148304 -0.141694 0.5506417
0.76431906 1.1577677 -0.25264725 -0.555638 0.4937129 -0.07887276 0.65456176 -0.21980943
0.6757641 0.70862377 0.44884172 -0.22703719 0.19288045 0.8271202 -0.78966916 0.45037225
0.16360955 0.2976454 -0.9982227 -0.45849726 0.059106607 0.25082645 0.5691059 0.21721387
0.014065066 0.20868756 -0.03913301 0.571398 -0.50333077 0.33599588 -0.30562657 -0.016350387
0.78382236 0.15436757 -1.0715636 -0.21725829 -0.029270217 0.412354 0.9387628 -0.4072434
1.1519191 -0.11135059 0.6156463 -0.12593867 0.30559504 0.45789585 0.9376163 0.14061087
0.6414984 -0.6453411 0.32857847 -0.380326 -0.061666653 -0.36258972 0.38744998 -0.66686654
0.96270716 -0.2606411 0.28986168 -0.080702685 -0.028589305 -0.86902595 0.8276359 -0.7876786

weight f4 [256, 256]
00000000: 57fd e73e 72a8 06be 112c 25bf d48d 683e
00000010: 435e f23d 6b87 453f 527b ebbe c2c2 173f
00000020: 7891 5f3e 5101 d63e 3cdd 09bf 75ce 2a3f
00000030: 6067 14bf c9e0 0d3f b3fa 4a3e 5570 ff3e
00000040: 1f94 80bd db7b b1be 7470 74be 7b9e 19bf
00000050: efbe ef3d 0e22 183d 611c 84bd 2e10 abbe
00000060: 852f e4be 9d4a 933d c06b 623e e78d 84be
00000070: 6f76 203e 9e98 923e a52d debd 4d13 033f
00000080: 7b4a 9dbe 9682 df3e c020 e4bb 8008 3abf
00000090: 2fc9 e13e cdd4 8e3f 49aa a8bd 2c2c a0bd
000000a0: 5d8c 94bf b622 a43e a0bf e73e 6221 873f
000000b0: e502 8b3d e2e5 d93e f645 43be 4822 d03e
000000c0: 514a aabe d60d fa3c 096a 3d3e 4a34 673f
000000d0: d99b 70be c407 14bf 5419 b53e f13f 1a3e
000000e0: 5e5c 0c3f 10dc 2bbd 0398 06be a89b 503e
000000f0: 0ab6 c9bf 684d 80be 8790 30bf ffc6 ddbd
00000100: f353 a43e 8765 0b3e 6025 a2bf 96b8 aebe
00000110: b37d 5ebe 3fc8 373e ba8a debd 1fe0 c9be
00000120: b018 273f 7a45 c83e ff12 65be dce7 e13e
00000130: 0ed6 c43e 3ec3 a3bd 84f8 673d 957c 50be
00000140: d64e 193e e3be 2abe eb46 383f f1d9 963c
00000150: 5fe0 3c3e 08fa ffbe a986 773f 8f83 41be
00000160: 4b7a 873e fe2b f63c 3faf 5abf cea5 183e
00000170: b288 0d3f 6e74 e43e d376 4a3c ee30 99be
00000180: 062f a4be 3162 eebe 10c8 483e 9ddf 0fbf
00000190: f6b6 e4be 0689 bbbc 6c1a 9abf d114 52be
000001a0: a638 e23d d12b b63d dafc a1bd 22ac dabd
000001b0: 2a1c bcbe c135 c43d 1135 27be 8e6f 3dbd
000001c0: acd0 193f b330 5fbc fecc 2e3f ba7e 3f3e
000001d0: 2bc0 d23e 26d3 3bbf 2c25 48bd 38bc cf3d
000001e0: 35a7 c8bc 4e3d 3dbf 478e eebc 2b05 bdbd
000001f0: bec7 1f3e 0b80 54be 2801 153f 0162 e33e
00000200: c165 083e 3096 d73e 0f56 053f 935c 003f
00000210: dfd4 aebe 6fa1 08bd f9c2 8bbf d308 203c
00000220: f03e 043e f905 ae3e df09 c4be e302 8b3b
00000230: 1b22 b23e d272 fd3e 8d2d 49be f9be c93d
00000240: c3b4 92be 0a09 3e3e 242b 613d e5bb 873e
00000250: f969 afbe 2e64 083f b851 e2be fa2f 73be
00000260: d179 a2be cc5b 273e c0c4 41be 06c3 adbe
00000270: 6746 b7bd a5a0 df3d 30df f43e 9701 a7bd
00000280: 5cdf 8e3e b6ea 61be ccd5 a6be 3db8 dd3d
00000290: a76b bcbf dc88 083e 194e 17be 3f6f 6d3e
000002a0: 7ce9 a8bd 90d4 22bf 77ff 553d e9da 913d
000002b0: dcd2 0f3f f04d 0e3e 4a90 a73e 58c2 4bbc
000002c0: fffc 32bd cbbf 94bb 9173 b5be c86b fdbe
000002d0: 7b5e 87be 4f5b dcbd e276 abbe 5baa a63f
000002e0: 2962 0a3f a4c9 1b3e f31e 953f d71c 0cbe
000002f0: e042 473f 9581 513e 69b5 483e 207f fcbe
00000300: 967a 14bf 9bcb f4be 134d 0e3e 0e03 d6bd
00000310: 0a05 9fbe 9065 90be 608f e8bd 3445 00bf
00000320: 8721 abbd 2a9f e3be 5cce f7bd 1b11 013f
00000330: a1ae b63c 8a02 0ebf 1b2c 01bf 632b a43e
00000340: 379c c2bf d419 29bc 4275 903f 489a c2be
00000350: b9b2 57bf 7031 9dbe e0b7 e73d 6d28 803d
00000360: 0853 ecbd 2a56 bfbe 6100 b43e 97ec 0cbf
00000370: f2b1 f0bd c6e8 0bbf 78ef 643e 0d46 86bd
00000380: 89e6 43be 8e07 423d 1193 d53e c383 eebb
00000390: e596 573e 8eba a93e e542 f2bd fe6c b03e
000003a0: 35c8 4fbf a894 1a3e 83d9 19bf 38b0 b93e
000003b0: 670b 99be 9d1d dfbd 983d 623e d168 29be
000003c0: 2e37 94be eb4d bd3e e3ca 403d c605 7a3e
000003d0: c30b 41bf 96e2 923f 8015 65bd 3e04 8a3e
000003e0: ec87 cfbe 6d46 613e f604 963d 59e9 04bd
000003f0: 754f 403c 5a17 3e3f f816 b3be 2bc0 0e3f
0.4531047 -0.13150194 -0.64520365 0.22710353 0.11834385 0.77159756 -0.45992523 0.5928155
0.21832836 0.4179788 -0.538532 0.6672128 -0.5797024 0.5542112 0.19822197 0.4989039
-0.06278252 -0.34664807 -0.23871022 -0.60007447 0.117063396 0.037141852 -0.06450725 -0.33410782
-0.44567505 0.07191966 0.22111416 -0.25889513 0.15670179 0.28632063 -0.1084855 0.51201326
-0.30720887 0.43654317 -0.006961912 -0.7266922 0.44098803 1.1158692 -0.08235604 -0.07820925
-1.1605335 0.32057732 0.45263386 1.0557063 0.067876615 0.425582 -0.19069657 0.40651155
-0.33259824 0.030524176 0.1849748 0.9031416 -0.23496951 -0.5782435 0.35370886 0.15063454
0.5482844 -0.041957915 -0.13143925 0.20371878 -1.5758679 -0.25059056 -0.6897053 -0.10828971
0.32095298 0.13612948 -1.2667656 -0.34125203 -0.21727638 0.17947482 -0.10866304 -0.39428803
0.65272045 0.39115506 -0.22370528 0.44122207 0.3844456 -0.07996224 0.056633487 -0.20360024
0.1497148 -0.1667438 0.7198321 0.01841447 0.18444966 -0.49995446 0.9668985 -0.18897842
0.2646049 0.030050274 -0.85423654 0.14907 0.55286705 0.4462008 0.012357431 -0.29920143
-0.32067126 -0.4655929 0.19607568 -0.5620058 -0.44670838 -0.022892486 -1.2039313 -0.20515753
0.11045961 0.08895076 -0.07909556 -0.10677363 -0.36740237 0.09580565 -0.16328837 -0.046248965
0.60084033 -0.013622451 0.68281543 0.18700686 0.41162238 -0.7336906 -0.048863575 0.10143322
-0.024493793 -0.7392167 -0.029120577 -0.09229501 0.1560354 -0.2075197 0.5820489 0.4441071
0.13320066 0.4210677 0.5208444 0.5014126 -0.34146783 -0.03335708 -1.0918876 0.009767729
0.12914634 0.33988932 -0.3828878 0.0042422875 0.34791645 0.49501663 -0.19646282 0.09850878
-0.28653535 0.18558136 0.054972783 0.2651054 -0.34260538 0.5327786 -0.4420297 -0.2374877
-0.31733564 0.16343611 -0.1892271 -0.33937854 -0.08948975 0.109193124 0.4782653 -0.081546
0.27904785 -0.22062191 -0.3258499 0.10826156 -1.4720353 0.13333458 -0.14775886 0.23186968
-0.082476586 -0.63605595 0.052245583 0.07121832 0.5618112 0.13896918 0.3272727 -0.012436472
-0.043698307 -0.004539465 -0.35439733 -0.49496293 -0.2643927 -0.10759603 -0.33489138 1.3020738
0.5405603 0.15213639 1.165007 -0.13682877 0.7783642 0.20459588 0.19600452 -0.4931574
-0.5799955 -0.4781159 0.13896589 -0.104498014 -0.31058532 -0.28202486 -0.113554716 -0.50105596
-0.08356004 -0.4445737 -0.12099907 0.50416726 0.022300066 -0.55472624 -0.50457925 0.3206435
-1.5203923 -0.010321099 1.1285784 -0.38008332 -0.84257084 -0.3070178 0.11314368 0.062577106
-0.115392745 -0.37370425 0.3515654 -0.5504851 -0.117526904 -0.5465206 0.22356975 -0.0655633
-0.19130911 0.047370486 0.41713765 -0.007278891 0.21053655 0.33150142 -0.11829165 0.34458154
-0.81164867 0.1509577 -0.6009752 0.36267257 -0.29891512 -0.1089432 0.22093809 -0.1654389
-0.2894835 0.3697351 0.047068488 0.24416265 -0.7540857 1.1475399 -0.055928707 0.26956362
-0.40533388 0.21999522 0.07325165 -0.0324491 0.011737694 0.7425438 -0.3497846 0.55761975
