data/DDPG/HalfCheetah-v2/ddpg_s1600/pyt_save/model.pt (torch_old, 581199 bytes, 11 tensors)

weight f4 [256, 17]
00000000: c2dc 07c0 87aa e5bf f8ac 48c0 bfd9 8c3f
00000010: a874 2c3f 7f6c 2f40 ab7b cc3f 00f9 833e
00000020: cd0e 89bf 2ed7 d2bf 426f 1ec0 a604 75bf
00000030: 0445 62bf 833f 29bd 14b7 7dbe 34a7 68be
00000040: 7c0e 81bd 9445 1540 2450 5bc1 8a3e fec0
00000050: 3d81 9b3f 3840 ebbf c032 abbf ade3 8040
00000060: f3d9 d73e f95a f23e b6c9 893f bb52 a0be
00000070: d080 7cbe 4b01 0fbe 637e 81bd c250 393c
00000080: 48d3 39bd 07d9 353d f977 bf40 e1b8 ddbe
00000090: 7185 b0c0 c200 4b3f c20d 68c0 b3a5 8bc0
000000a0: 2677 53bf f334 2fc0 4f19 0bc0 ebd0 2fbf
000000b0: 81ff b1bf 2f40 13be dbb6 b3be 9973 863e
000000c0: 1d3b 88be f5f6 51be 7c67 26be c259 5341
000000d0: 8c07 46c1 0083 3540 303d 1cbe 7ebe 94bf
000000e0: 43c1 d4bf ba2f 18c0 1796 05bf 9430 3f3f
000000f0: 3778 92bf 9f31 9bbd cb30 803d d07a 5b3e
00000100: fed4 77bd ff70 35be 220d 57be ab61 41bd
00000110: adbc 883c 23c2 033d 2802 f1be e5ba d1bf
00000120: 8715 063f be95 9dc0 eea3 d83e 769e 5abf
00000130: c860 4ac0 33a2 123e 3b93 503f b2a5 143f
00000140: 33c4 2dbe bb90 19bf d059 a5be c766 2dbf
00000150: 4c06 bfbd 1a3e e240 fbc8 b4be ca21 18bf
00000160: 775f edbe 6970 0fbf 7011 b0bf 16a0 f03e
00000170: b657 a2bf 40ed b4bf b348 603f 78ed 98bf
00000180: e3b6 b03e 4f60 98bd e6cc 1bbe 535b 7b3e
00000190: 66e4 acbe 539f db3d 698d 7341 e9f2 3ec1
000001a0: 4b9a 183f 8fa4 24bf 50d5 713f da21 b53f
000001b0: 5fa0 39bf 6c05 793e b692 a63e d86e ad3f
000001c0: 5510 cebd 157c abbe 5736 423e bfdd 0c3c
000001d0: 93ee b33e 318e 9f3d 2676 ed3c 4d85 c140
000001e0: d12f 78c0 a4c6 1cc0 c6b9 f23f 1d25 2f3f
000001f0: c850 4f40 2477 3f40 6261 9b3f cd7d 9e3e
00000200: cc82 ab40 a663 01c0 d543 e7bd ee8e 46be
00000210: ef4f 18bd 7488 f23e 817d a2bd e0ed 0cbe
00000220: 1640 8640 5dc2 afbf eaf5 fcbf 3cc9 66c0
00000230: 19ab fdbe e154 5ec0 a9fa 0b3f 313a 68bf
00000240: 5478 71c0 0b8e 74bf c663 453f 8ab8 ea3e
00000250: 826a 7b3d 4b10 4e3e bec8 8abe 7852 57be
00000260: 9fc5 f7be 58e7 78c0 0373 113f 6ef0 ed3f
00000270: 2b75 49bf 5100 883e 77a0 a8bf 8603 d43f
00000280: 7890 65bf be66 91be 54a0 b63f 64e6 f7bf
00000290: 05d6 b63e 6672 f6bd 90e5 13be 004d 07be
000002a0: 70cd edbe 5315 133d e92a 59bf 6213 903e
000002b0: 6fe8 b2c0 2e53 ecbd 16e8 d8bf 3dcf 6040
000002c0: 7458 e83f 8d38 ac3e f2fb c4be 0fa2 6b3f
000002d0: 9df2 c73e af8b 29be 6f9d 1cbe 5f6c ed3d
000002e0: 3003 adbe abc1 16bf 6aab 22be 646c 3140
000002f0: 29fb fc3e d71d 813f 22e8 05c0 68bf e9bd
00000300: 8a24 3dc0 ee09 30bf 6738 5e3f bad6 25c0
00000310: feb1 65be 48bd c4be eaf4 e63e 425e 04bf
00000320: 2536 19bf 0676 953e bbde d3be 8ea3 143f
00000330: 4bad 55c1 9814 e640 085b fa3f 6c60 593f
00000340: 984b e93e 3de0 6d40 639a 2bbf 8425 e6be
00000350: 8466 183f 2ad5 03c0 13e4 b8bf 2127 1bbf
00000360: ebbc 97be f074 9abd 184b 26bf 462c 9e3e
00000370: ee7b d43d 64b5 b440 83c9 25c0 2315 e0bf
00000380: 120f 8240 833e a8bf 2fa4 053f 7961 4440
00000390: 1a7f 56be 822c 6a3e 842d 8240 fd41 eebf
000003a0: cb7f 053e 983c 813d caf5 1ebd bb38 88bd
000003b0: 8400 b2be d686 47be 0098 ad3f bba6 afbf
000003c0: c1e5 80c0 096a e2bf 99bc 89bf 5df9 d1c0
000003d0: f5c8 c7be 521b 2bbe ca13 2abe 5103 d93e
000003e0: aaae 113f 5ab7 3c3d 9bba 843e f4a2 8d3e
000003f0: 6c49 a03c 66ce b33e bd34 acbe 06b7 1041
-2.122849 -1.7942666 -3.1355572 1.1003951 0.67365503 2.740997 1.597524 0.2577591
-1.0707642 -1.6471918 -2.4755406 -0.9571022 -0.8838656 -0.041320335 -0.2477687 -0.22720033
-0.06301591 2.3323717 -13.707066 -7.945134 1.2148815 -1.8378973 -1.3374863 4.0277925
0.4215847 0.47335032 1.0764682 -0.31313118 -0.24658513 -0.13965337 -0.063229345 0.011310758
-0.04536751 0.044396427 5.983395 -0.43305114 -5.516289 0.7929803 -3.6258397 -4.363977
-0.8260368 -2.7376068 -2.1734197 -0.6867816 -1.3906099 -0.14379953 -0.35100445 0.2626007
-0.266076 -0.20504363 -0.16250414 13.209414 -12.3768425 2.8361206 -0.15257716 -1.1620634
-1.6621479 -2.377913 -0.52182144 0.746835 -1.1442937 -0.07577824 0.062593065 0.21433568
-0.06050586 -0.17718886 -0.21001104 -0.047212284 0.01669153 0.032167565 -0.47071958 -1.6385161
0.523766 -4.924529 0.42312568 -0.8539804 -3.162157 0.14319687 0.81474656 0.5806533
-0.16969375 -0.59986466 -0.32295084 -0.6773495 -0.09327373 7.0700808 -0.35309586 -0.5942656
-0.46361896 -0.560309 -1.3755322 0.46997136 -1.2683017 -1.4134903 0.8761093 -1.194747
0.34514531 -0.074402444 -0.15214881 0.24546556 -0.33768004 0.10723748 15.222024 -11.934304
0.5961043 -0.64313596 0.94466114 1.4150956 -0.7251033 0.24318475 0.32533807 1.3549452
-0.10061709 -0.33493105 0.18966042 0.00859779 0.35142955 0.07790793 0.028987002 6.047522
-3.8779185 -2.449624 1.8962944 0.68416005 3.2393055 2.9916468 1.2139094 0.30955353
5.3597164 -2.021707 -0.11292235 -0.19390461 -0.037185606 0.4736973 -0.07934094 -0.13762617
4.195323 -1.373119 -1.9762547 -3.6060324 -0.495446 -3.4739306 0.5467935 -0.90713793
-3.7729692 -0.9552924 0.7710537 0.45843917 0.06138087 0.20123403 -0.2710628 -0.21027553
-0.4839296 -3.88912 0.5681612 1.8588998 -0.7869441 0.2656274 -1.317397 1.6563575
-0.89673567 -0.283987 1.4267678 -1.9367185 0.3571016 -0.120335385 -0.1444304 -0.13212967
-0.464458 0.03590901 -0.848311 0.28139788 -5.5908732 -0.11539303 -1.6945827 3.5126488
1.8151994 0.33636895 -0.3847347 0.92044157 0.39052287 -0.16557191 -0.15294431 0.11592936
-0.33791494 -0.58889264 -0.15885702 2.7722406 0.4941037 1.0087231 -2.0922933 -0.11413461
-2.9553552 -0.6876515 0.86804813 -2.5912309 -0.2243118 -0.3842566 0.4510873 -0.51706326
-0.59848243 0.29191607 -0.41380867 0.58062065 -13.354808 7.190014 1.955903 0.84912753
0.45565486 3.7168114 -0.6703245 -0.44950497 0.59531426 -2.0598855 -1.4444603 -0.6060658
-0.2963632 -0.07541835 -0.64958334 0.30893153 0.103752 5.6471424 -2.5904243 -1.750645
4.0643396 -1.3144077 0.5220365 3.0684493 -0.20946923 0.22868541 4.068056 -1.8613888
0.1303703 0.063103855 -0.03880862 -0.066514455 -0.34766018 -0.1948503 1.3562012 -1.3722757
-4.028046 -1.7688609 -1.076068 -6.56169 -0.39020506 -0.1670964 -0.16609111 0.42385343
0.5690714 0.046073295 0.2592362 0.27663386 0.01956626 0.35118407 -0.33633986 9.044683

bias f4 [256]
00000000: 6604 30c0 e5b6 5a3f b7a0 f0bf 06eb 9f40
00000010: 0e9e 56c0 43e0 9cc0 c72f 253f 4b2a 44c0
00000020: 4ba3 133f 319a 91c0 e6fc 9d40 eca1 5ac0
00000030: 1766 3d3f d935 f0bf d797 e6bf d92b 96bf
00000040: 799f 13bf 612c 16c0 12ac 0dc0 80d2 efbe
00000050: 82bf 3cc0 5c19 7fc0 2800 c7bf 5f67 2ec0
00000060: 590f 4ac0 ef0a 18c0 7ddd fc3f 3fd5 5b40
00000070: ce24 babf a525 a4c0 ffff 4440 a4a5 25c0
00000080: b374 8ac0 fa4d 19c0 277b 69c0 be5a 87bf
00000090: 64bb 93c0 cb27 d93e 53d1 fabf cc21 7cbf
000000a0: 40aa 8cc0 bf48 1cc0 6e11 4ac0 6a60 0dc0
000000b0: dba7 50c0 31ba 52c0 4a3e 81c0 b11f 5cc0
000000c0: b724 a6bf 1cf4 943f 8000 48c0 e562 f13d
000000d0: 85d0 623e 6a84 3ec0 51e2 7ac0 ae44 79c0
000000e0: 7078 87c0 e3a2 4cc0 0278 573f 1e61 a340
000000f0: b46d 803e 3f4c 7f3f 24a2 e83f cab5 55c0
00000100: ef27 82bf 202f 7cc0 8996 5bc0 467b 39c0
00000110: 1c93 6ec0 3cf9 6fbf 97cb 14c0 fd85 9ec0
00000120: e034 a8bf 06ee 83c0 126e 7dc0 6840 25c0
00000130: 3305 8dc0 9925 9ec0 bd55 a540 a71d 9a3e
00000140: cfba 4bc0 8a5a 60c0 3fe3 c4bf 4bba 80c0
00000150: 531a af3e 1f61 d2bf b780 1dbf 5cf1 6dc0
00000160: 512c 9ec0 5552 123f 9394 5abf 367b 3040
00000170: f2a1 f4bf e52d a640 dece f0be 5240 04bf
00000180: 4654 2dc0 39ef 45c0 6506 3bc0 f0ca 58c0
00000190: a449 31c0 e37c 1ac0 eef9 323f 4fa7 aebf
000001a0: 0d6c a0bf acec 4c40 e2c2 b7bf 69e7 0f3f
000001b0: fd60 f9be 6798 38c0 a153 1ac0 30ef d1bf
000001c0: 983e 893e 5ea0 9740 df91 95c0 812e 98c0
000001d0: 6abe d3bf 71ff ccbf e79b 86be 62ce 7dc0
000001e0: 9ab7 463f 4b33 3d3e d4ae 43c0 c739 51c0
000001f0: b266 1fc0 d5f6 8abf 8c27 6bc0 b58a 79c0
00000200: 5cd5 ecbf 5029 95c0 ecba 06c0 a9e0 3fc0
00000210: 5f3c 59c0 1817 8ac0 ab61 3ac0 60d0 9dbf
00000220: f39e 63c0 cd73 48c0 783a 12c0 79ec 063d
00000230: 8c0e 4bc0 a7f5 9b3e 7199 5f3f 6915 3740
00000240: fe74 363f e9f7 6540 5915 bc3f e4aa 07c0
00000250: 99f4 59c0 18c6 07c0 acc2 0dc0 e49a cf3f
00000260: 1f3c 87c0 4505 abc0 fae5 0fc0 a68b 9fc0
00000270: 0037 82c0 c534 9c40 270a 8540 40ba 44bf
00000280: e990 25c0 f6dc 3ec0 9b59 5cc0 18c7 4d40
00000290: f232 063f b400 80be f2a1 1cc0 b867 2fbf
000002a0: ce79 42c0 7890 2fbf 563f 86bf 42ec 1640
000002b0: ee1a a340 1801 5540 45f4 8cbf e3ad 863e
000002c0: 6903 86c0 b16a a6bf 960f 02c0 bcbf f5bf
000002d0: 49c9 74c0 beef 14c0 fdb8 f0bf 30fc b7bf
000002e0: 0b23 93c0 b52a 883f 53e1 74bf f208 55c0
000002f0: 65ee bf3f d2c8 1c40 89b8 5fc0 837a 8fc0
00000300: d35d 5bc0 3929 2fc0 9e53 2c3f dffb 7540
00000310: 18f9 29c0 a227 1340 2206 13c0 b3e2 61c0
00000320: 4bb4 1cbf 2472 f1bf f5b8 9ec0 c271 b9bf
00000330: b82b 6440 0396 833f 0ddf 4fc0 c354 f63f
00000340: fa82 a6c0 7db5 66c0 6f66 f3bf 02bb 99c0
00000350: 74f5 4fbd 1e6a 13c0 4a73 7bc0 5b9c 5ec0
00000360: 2549 a43e 81c4 0640 4765 7940 6fc7 1f3e
00000370: dc95 e3bf 2dea 8740 5e05 83c0 113d 42c0
00000380: 402f f83d d61a b6bf 8a25 f6bf e31e aabf
00000390: 9032 14c0 04be 34c0 e227 6dc0 e4f4 9840
000003a0: 4bc8 4c40 967c 65c0 9f80 30c0 1252 7cc0
000003b0: 6511 92c0 6c21 cbbf 0ee5 5b40 b7b9 a93d
000003c0: bf9b 263f 4afa 2cbf 9616 ba3f bf2f 56c0
000003d0: 8b45 91c0 ce1b bebd 67ad 04bf cfdb 083f
000003e0: 39e6 32c0 0dae 7bc0 a8be b540 30f5 cdbf
000003f0: f429 55c0 c871 31c0 41b7 7dc0 45cc 6cc0
-2.7502685 0.85435325 -1.8799046 4.9974394 -3.353397 -4.9023757 0.6452603 -3.0650814
0.5767104 -4.550072 4.9371214 -3.416133 0.739839 -1.8766433 -1.8015088 -1.1732131
-0.5766521 -2.3464587 -2.2136273 -0.46840286 -2.9491887 -3.9859228 -1.5546923 -2.7250593
-3.1571867 -2.3756673 1.9755093 3.4348905 -1.4542482 -5.1295953 3.0781248 -2.588235
-4.3267455 -2.3953843 -3.6481416 -1.0574567 -4.616625 0.42413172 -1.9595131 -0.9848907
-4.3957825 -2.44194 -3.1573138 -2.2090096 -3.260245 -3.2926142 -4.0388536 -3.4394343
-1.2979954 1.1636996 -3.1250305 0.11786441 0.22149856 -2.976832 -3.9200633 -3.8948169
-4.233452 -3.1974418 0.8416749 5.105605 0.25083697 0.9972572 1.8174481 -3.3392205
-1.0168437 -3.9403763 -3.431063 -2.898149 -3.7277288 -0.93739676 -2.3249261 -4.953856
-1.3141136 -4.1228056 -3.9598432 -2.582056 -4.4068847 -4.9420896 5.166716 0.30100748
-3.183277 -3.505526 -1.538185 -4.022741 0.3419977 -1.6435889 -0.6152453 -3.7178564
-4.9429097 0.5715688 -0.85382956 2.7575202 -1.9111922 5.1931024 -0.47032827 -0.51660645
-2.7082686 -3.092726 -2.9222653 -3.3873863 -2.7701197 -2.4138725 0.6991261 -1.3644809
-1.2532974 3.2019453 -1.4356349 0.5621248 -0.4870681 -2.884302 -2.4113543 -1.6401119
0.26805568 4.738326 -4.6740565 -4.7556767 -1.6542485 -1.6015455 -0.2629082 -3.9657216
0.77623904 0.18476598 -3.0575457 -3.2691514 -2.490643 -1.0856577 -3.6742887 -3.899091
-1.8502612 -4.661293 -2.1051588 -2.9980872 -3.3943098 -4.315319 -2.9122112 -1.2329216
-3.5565765 -3.132068 -2.2848186 0.03294036 -3.1727629 0.30460855 0.8734351 2.8606818
0.71272266 3.5932562 1.4694015 -2.1198053 -3.405554 -2.1214657 -2.2150068 1.6219144
-4.226089 -5.3443933 -2.2484117 -4.985797 -4.069214 4.8814416 4.1574893 -0.76846695
-2.5869696 -2.9822364 -3.442969 3.2152767 0.52421486 -0.25000536 -2.4473844 -0.6851764
-3.0386844 -0.68579817 -1.0488079 2.35817 5.0970373 3.3281918 -1.1012045 0.2630454
-4.1879163 -1.300131 -2.0322013 -1.9199138 -3.8247855 -2.3271327 -1.8806454 -1.4373837
-4.5980277 1.0638033 -0.9565632 -3.328671 1.4994627 2.449757 -3.4956381 -4.483705
-3.4276016 -2.736891 0.6731509 3.843498 -2.6558285 2.299294 -2.2972493 -3.5294616
-0.61212605 -1.8862958 -4.960078 -1.4487841 3.5651684 1.0280155 -3.247989 1.9244617
-5.2034883 -3.6048272 -1.9015635 -4.804078 -0.05077119 -2.3033519 -3.9289117 -3.4782932
0.32087055 2.1057436 3.8968065 0.15603422 -1.7780108 4.247336 -4.094405 -3.0349772
0.12118387 -1.422694 -1.9230206 -1.3290676 -2.315586 -2.8240976 -3.7055593 4.779894
3.199725 -3.5857291 -2.7578504 -3.9425092 -4.5646234 -1.5869575 3.4358554 0.082873754
0.650814 -0.6756941 1.4538143 -3.3466642 -4.539739 -0.09282647 -0.5182709 0.534604
-2.7953017 -3.9324982 5.6795235 -1.609045 -3.3306856 -2.7725697 -3.96431 -3.6999676

weight f4 [256, 256]
00000000: c46c 743e f78d 3e3b 9eee 37bf a63e b0bf
00000010: 518b 3abf b225 69bf 22c1 bcbf 370a 723f
00000020: 2eb2 b2bf 5765 393f 319b 4fbe 9f92 e2bf
00000030: c1c4 2f3e 7ccf 3e3f 39f8 163f 39ad 373f
00000040: 25b7 613e 2a84 a73d 20bb 12bf 9057 123e
00000050: 5598 c2be 54d2 723e 5369 fdbe c150 383e
00000060: 38ca cdbe f39d 97be 3479 bebe bca2 d4bf
00000070: d86c 863e 9fc6 fbbe 613e d13e 8763 4dbf
00000080: 919e 083f aaab 5abe abb2 983e 1ed4 c63f
00000090: 89e3 37be 616a 663e 8bb3 bebe 429a 243e
000000a0: 4e4e 66bf 33b5 073f 2307 6a3f 51b7 9cbe
000000b0: 5006 74bf 174a 433f cca6 97bf 2263 a8bf
000000c0: 317d d83e 5fed 053e 7b1f 0dbf f87a 90bf
000000d0: 2f28 f93e 737a dd3e e29f d2be 357a 13bf
000000e0: 4760 b0bf e7c7 96be bd96 4ebe d844 4abf
000000f0: cea8 a43f cb62 423f 7bcd cbbe a309 393d
00000100: 8f4f 20bf 9c91 853f 929d 54be d1dc d3bf
00000110: 28e9 72bf c33e 4fbd a7a9 923e a97e 863f
00000120: a645 c83f 597a babe 6055 963e f05b 2a3f
00000130: 932d 2c3e d934 dfbe a2ba aebe d9e6 78be
00000140: 623c 25bf 46e4 893f e1cb 5abf dd20 9cbe
00000150: db3d 3c3e fcfc d93e 09d3 9cbf 1c14 65bf
00000160: d978 dc3f fe0d 303f a883 e83f 44ab 88bf
00000170: 231f 85bf 9333 70c0 8796 0e3f 35c7 263e
00000180: 165d e73e 9a69 86be e1ca c13f db3f dd3f
00000190: 9721 42bf 4bce c5bf 7544 023f d101 c93f
000001a0: 1e46 bc3e 45c8 53c0 da14 f8bf 475a 8dbf
000001b0: 03ab d93e b9aa 44bf 17cd a33e 653d fc3d
000001c0: 1d6f 833e e6d1 86be 75e1 01bf 0efe c7be
000001d0: 4e60 7b3f 3334 f53e 65eb 01be 6ec0 873f
000001e0: 4ccb 6c3e e27a 17bf 26d9 003f de7c fdbf
000001f0: 2ffa d9be 7af7 1d3f 2e9d 6f3f d792 b5bf
00000200: 6979 f3bd 0fbd 89be 9869 8c3e 6bbb 133e
00000210: 5d11 73bf 6a29 96bf 0bd7 473f 22c9 92bf
00000220: fabd 073d 0a08 debe a37c 3dbe 40f1 b7bd
00000230: fa44 9dbf bf80 97be d24a 6c3f 2101 c8bf
00000240: a14a 47bf 1150 5dbf cd8b 65bf 7f00 05bf
00000250: 01d2 c7bf a6aa 5b3f 4bbb f7be 0ccd 38bc
00000260: 7263 86bf 25e8 643f df45 2d3f 6f6f 2cbf
00000270: 39be cebe 1cb6 89c0 3003 bcbf 535a d7be
00000280: 6c0f a93f f8c9 a2be 344d a33e 19d2 733e
00000290: b6b7 9ebf e80b d6bf ba14 593e 0c59 873f
000002a0: e0ee c43f 7c21 3e3f f7cf 1f3f 0a6e e83c
000002b0: a846 d0bf da39 633e fb86 0d3e 6c14 8bbf
000002c0: e523 b83e 2402 813e 6f34 a83e 2a87 ad3d
000002d0: e4dd 90be 7e36 793f 7cc2 a23f 26a7 213d
000002e0: ddcb 0b3f 8533 a53f 9a29 6a3f 9fac 74bd
000002f0: b0a4 5b3f af6f aebf 92c8 e3bf 71a5 933f
00000300: f5dd 243f 21b9 7d3f 49b1 343e 02b5 d0be
00000310: f0ad 8fbe ad41 703d 6c55 f73e ffd2 99bf
00000320: a2bb 4b3f 38b4 abbf ea4e de3f 4063 f93e
00000330: 81b7 853d 6941 40be 6d49 b1bf 3bbc 96be
00000340: 0520 8cbd 557a 163f 1a87 433f 96e9 863d
00000350: 713d dd3e eb2a bb3f 44e4 d73e 093c 893f
00000360: 2035 17bf c5e1 bdbf fdc1 1cbf 3733 9b3e
00000370: 11bf 213f 847d 90bf c3e0 2abe d929 f9be
00000380: f3e6 8dbe 2aba 80bf debd 793d 71b8 2abf
00000390: 6185 dd3e a862 fb3f d0ed 803d b98b a1be
000003a0: 0726 aebe 5850 203f e409 e4bf ea52 8ebd
000003b0: f36c a83e 0f08 043f 1fa2 e2be 27ff dabe
000003c0: 1d23 623f dced 6e3e 4404 dcbe a7b1 b5bf
000003d0: 2488 ccbe 125c 893e 9ab5 02bf cf25 9ebe
000003e0: 05ed e0be 4a20 c7be 16b5 87bd 9f7e 8f3e
000003f0: 3bb5 39bd 4e84 be3f 388d 993e 0d37 4c3f
0.23869616 0.0029076317 -0.71848476 -1.3769119 -0.7286883 -0.91073143 -1.474644 0.94546837
-1.3960626 0.7242026 -0.20274045 -1.7700995 0.171649 0.74535346 0.5897251 0.7174869
0.2204252 0.08179505 -0.5731678 0.14291215 -0.38006845 0.23713046 -0.49494419 0.17999555
-0.40193343 -0.29612693 -0.37201846 -1.6612163 0.26254916 -0.49174973 0.40867904 -0.8022999
0.53366953 -0.21354547 0.29823813 1.5533483 -0.17957892 0.22501518 -0.37246355 0.1607447
-0.89963233 0.53010863 0.9141714 -0.3060861 -0.9532213 0.7628493 -1.1847777 -1.3155253
0.42283013 0.13078831 -0.5512616 -1.1287527 0.4866347 0.43257484 -0.41137606 -0.5760835
-1.3779382 -0.29449388 -0.2017469 -0.790113 1.2864015 0.75931996 -0.39805207 0.045175206
-0.62621397 1.0435061 -0.20763233 -1.6551763 -0.9488702 -0.050596964 0.2864506 1.0507404
1.5646255 -0.3642147 0.2936201 0.66546535 0.1681426 -0.43595007 -0.34126765 -0.24306811
-0.6454526 1.0772789 -0.85467345 -0.30493823 0.18382971 0.42575824 -1.2251903 -0.8948381
1.722438 0.6877135 1.8165178 -1.0677266 -1.0400127 -3.7531478 0.55698436 0.16286929
0.45188206 -0.26252443 1.5140039 1.7285112 -0.75832504 -1.5453581 0.5088571 1.5703679
0.36772245 -3.3090985 -1.9381363 -1.1043175 0.42513284 -0.76823 0.3199241 0.123163976
0.2567071 -0.26332015 -0.50734645 -0.39061016 0.98193824 0.47891387 -0.12687452 1.06056
0.23124427 -0.5917188 0.5033134 -1.9803731 -0.42573687 0.61705744 0.9359921 -1.4185437
-0.118883915 -0.26902053 0.27424312 0.14426963 -0.9494837 -1.1731389 0.78062505 -1.1467631
0.03314016 -0.43365508 -0.18504576 -0.08981562 -1.2286675 -0.29590413 0.92301667 -1.5625345
-0.7784825 -0.86450297 -0.89666444 -0.5195388 -1.5610963 0.85807264 -0.4838508 -0.011279356
-1.0499098 0.89416724 0.6768474 -0.67357534 -0.40379503 -4.30348 -1.4688473 -0.420611
1.3207831 -0.31794715 0.3189484 0.23810615 -1.2399814 -1.6722383 0.21199313 1.057405
1.5385399 0.74269843 0.62426704 0.028372783 -1.6271563 0.22190037 0.13821022 -1.0865607
0.35964885 0.25196946 0.32852504 0.08473046 -0.2829429 0.97348773 1.2715602 0.039466046
0.54607946 1.2906348 0.9146973 -0.059734937 0.8579817 -1.3627833 -1.7795584 1.1534864
0.6440118 0.9911061 0.17645754 -0.40763098 -0.2806239 0.058656383 0.4830736 -1.2017516
0.7958318 -1.3414373 1.7367833 0.48708534 0.06529141 -0.18774952 -1.3850533 -0.29440483
-0.06842045 0.58780414 0.76378024 0.06587522 0.4321094 1.4622473 0.4216634 1.0721446
-0.5906544 -1.4834524 -0.612335 0.3031251 0.6318217 -1.1288304 -0.16687302 -0.4866474
-0.27715263 -1.0056813 0.060972087 -0.66687685 0.43265823 1.9639482 0.06295359 -0.31551912
-0.34013388 0.62622595 -1.7815518 -0.06949408 0.32895622 0.51574796 -0.44264314 -0.4277279
0.8833483 0.23332924 -0.42972004 -1.419484 -0.39947617 0.26828057 -0.5105835 -0.3088822
-0.43930832 -0.38891822 -0.06626336 0.28026292 -0.04533885 1.4884126 0.29990554 0.797715

bias f4 [256]
00000000: d9d3 2bbf aa01 6cbf 131e 23bc 3502 06c0
00000010: 2c1e afbf e0c2 a0bf dc17 f2bf e27f 723a
00000020: a463 07be 7448 99bf 0f67 b4bd f4de 0e3b
00000030: f70d 4bbe e367 45bd 1a04 8bbf 434e 853f
00000040: ba6b b23b a658 c63a 4c00 16bf 9d17 2a3c
00000050: ffff 533f 3d7a 9fbd 2892 423f 7e7c 43bf
00000060: adc9 cabd 51a5 9cbd a219 51be 79bf d1bf
00000070: e11c b5b9 27c5 94bf 0859 a63e d16e bdbf
00000080: 9f9e 573e 8c97 0cbf 2961 c4be 5b25 92bd
00000090: c166 dfbf a238 12bf ff83 993c 095d 2ebf
000000a0: 5b90 dfbf 7872 10bf 3490 9fbf ba7b 86bd
000000b0: be68 04c0 b294 50bd 38ab b9bf 1806 7ebd
000000c0: 1f67 71bf 3867 7abd fe30 64bd 3b81 01be
000000d0: e362 b3bc c830 74bc 1d02 babf de12 bfbd
000000e0: 164b 4ebf d18e 26bb bfeb 7fbf d78d 2dbf
000000f0: a537 74bb 82af d7bd 7b74 ebbe bfc8 1bbf
00000100: e347 bbbf 3d43 8cbf e639 11bd 6c3e 15bf
00000110: 991b 67bd a4bd c4bf aec4 bdbf 2ddb f9bf
00000120: 6e0c 873c f6ff a3bf 603a 773d 2bd7 77bd
00000130: 4de4 86bf 91e7 013d 031e 8cbd 4744 3fbc
00000140: 19ce afbd f12b cdbe aa4c 9abf 14cb 67bf
00000150: f8d7 f9bf ca04 d4bc 1246 8cbf 0ecf 9ebf
00000160: f16b 88bf 5232 c43f d4f8 59bf 262e 55bb
00000170: 6924 0abf d07e 83bf 3f33 85bf 1404 20bf
00000180: 1694 be3b c7ba c03d 0248 04c0 816c c7bd
00000190: 67d3 32bf 6fd8 9a3e 8075 9dbf 9817 0fbf
000001a0: 00c3 813f 0e62 5a3c ca40 c43c 4c43 4abd
000001b0: 30d3 7a3e 25f3 32bd 19d1 46bd 96de 7fbf
000001c0: f03f dfbe e4da 123f 051c ea3f 08fc a5bd
000001d0: e4d1 a5bf 7853 88bd 7cc5 b9bb 9b67 6bbd
000001e0: f8d7 02bd 0a42 2ebe 5fbc d0bd 5bc8 41bf
000001f0: deee bebd c106 c7bd f9d8 713e d7ea 80bc
00000200: fd58 adbf 5abf 95be 9b4d 36c0 7baf d1be
00000210: bbbf 08c0 8e00 95bd 56be 96be ef84 81bd
00000220: c735 52bc b17d adbc f71b c8bc c28c cebd
00000230: 2667 99bd 6f79 70bf fc49 85bb ffbb 89bd
00000240: 3a33 a3bf daba b9bb 58ca 95bf 62bb e8bf
00000250: 0d2a 45bf aada 15bd 38e9 383e de6a 1cbd
00000260: bffb cebc 117c acbe 2b9f f9bc 3bdc 69bf
00000270: 78e2 72bf 791f 2cbc d03b 4abb 95bf 2fbf
00000280: 2a87 c7bf ea50 0bbd 3d71 8dbe bac4 553f
00000290: 40f4 bdbf 966d 8ebd 5a94 70bf abf4 ed3f
000002a0: a7b5 0ec0 60b7 8fbd f499 66be 557d 4dbf
000002b0: 1bdc 1d3c d4ae eabe 3e42 afbd 58b0 abbf
000002c0: a795 93bf 95bd dbbf 8b41 c13e a189 02c0
000002d0: d1eb bbbe e241 81bd b059 5f3f be9d 8cbe
000002e0: 1f5f 99bf 485a 03bf 9335 13bd e44d d2bd
000002f0: e23d b3bd 7abd 4fbf 1b64 25bd 8533 00bf
00000300: 724a c2bd 6d9c 0d3e 855c 8fbd 48e3 c2bd
00000310: 6c91 c5bf a10a 94bf ef89 aebf 01f4 81bd
00000320: 0112 74bd 3ef1 8abf 3e0a 87bf 5ef1 2fbf
00000330: 3673 42bd cfea d7bf 1a0d 0dbe d3d5 41bd
00000340: 108b 5e3c c143 ba3f 64a7 9dbd a19d c43b
00000350: fcb1 24c0 aa21 aabf 16f9 133c 5d9f a0bf
00000360: a674 3dbc 5c33 fabd 8397 8cbf cacf cdbf
00000370: 758d 20bf 4556 f8bf 20c1 e3bf 3e50 7bbd
00000380: f1de b3bf 9745 00bd 219b 39bf 9848 20bf
00000390: 30b8 d93e 0afe ddbd c5ef 91bd f52c ebbe
000003a0: 6378 943d c313 07be c7bb d13c c11b c0be
000003b0: 0327 6fbd 147d 8d3f 64e4 86bf 7f13 0d3c
000003c0: 2ff9 333f 7983 6f3c 8bf0 e9bd 9b94 0340
000003d0: e83c 50bf 95ca d53c cffe 42bd 62f0 0bbf
000003e0: bc97 e2bf 7395 8f3c 7d2c 00be 8a4f 9e3a
000003f0: 87b0 9cbf 4b19 d3bf b326 fbbd bf15 e13e
-0.6712013 -0.9219004 -0.009955901 -2.0938847 -1.3681083 -1.2559471 -1.8913531 0.00092506234
-0.13221604 -1.1975236 -0.08808719 0.002180037 -0.19829546 -0.048194777 -1.0860627 1.0414509
0.005444971 0.001513262 -0.58594203 0.010381606 0.82812494 -0.07786987 0.76004267 -0.76361835
-0.09901748 -0.07648719 -0.20419934 -1.6386558 -0.00034544527 -1.1622666 0.324898 -1.4799443
0.21056603 -0.5491874 -0.38355377 -0.07136031 -1.7453233 -0.57117665 0.018739698 -0.6811071
-1.7465929 -0.56424665 -1.2465882 -0.06566568 -2.068893 -0.050923057 -1.4505377 -0.06201753
-0.94297975 -0.061133593 -0.055710785 -0.12646954 -0.021897739 -0.0149042085 -1.4531895 -0.093297705
-0.8058332 -0.0025414715 -0.99969095 -0.67794555 -0.0037264612 -0.10531522 -0.45987305 -0.6085319
-1.4631313 -1.095802 -0.035455607 -0.58298373 -0.056422804 -1.5370374 -1.4825647 -1.9520012
0.01648542 -1.2812488 0.060358405 -0.060507935 -1.0538422 0.03171498 -0.06841662 -0.011673993
-0.08584232 -0.40072587 -1.2054646 -0.9054425 -1.9519033 -0.02588119 -1.0958884 -1.2406938
-1.0657941 1.5327857 -0.85145307 -0.0032528727 -0.5396181 -1.0273075 -1.0406264 -0.6250622
0.005815993 0.09410625 -2.066895 -0.09737492 -0.69853824 0.3024325 -1.2301483 -0.55895376
1.0137634 0.013329042 0.023956675 -0.049380586 0.24494624 -0.043688912 -0.048539255 -0.99949014
-0.43603468 0.5736525 1.8289801 -0.08104712 -1.2954679 -0.066565454 -0.005669294 -0.057471853
-0.031944245 -0.1701738 -0.10192179 -0.75696343 -0.09322904 -0.09718085 0.23617925 -0.01573698
-1.3542782 -0.29247552 -2.8484867 -0.40954193 -2.1367023 -0.072754964 -0.2944209 -0.06324183
-0.012830204 -0.021178098 -0.024427397 -0.10085441 -0.07490377 -0.9393529 -0.0040676575 -0.067253105
-1.2750008 -0.0056680264 -1.1702375 -1.8182185 -0.7701729 -0.036585487 0.18057716 -0.038187854
-0.025266526 -0.33688405 -0.030471405 -0.9135167 -0.94876814 -0.010505551 -0.0030858405 -0.68651706
-1.5588124 -0.034012713 -0.27625456 0.83503306 -1.4840164 -0.069544956 -0.93976367 1.8590292
-2.2298372 -0.07017398 -0.22519666 -0.80269367 0.009634997 -0.45836508 -0.085575566 -1.3413191
-1.1530045 -1.7167231 0.37745318 -2.0396502 -0.3670335 -0.06311394 0.8724623 -0.27464098
-1.1982154 -0.51309633 -0.035939764 -0.10268763 -0.087520376 -0.81148493 -0.04037867 -0.5007861
-0.094868556 0.13829203 -0.070000686 -0.09516007 -1.5435004 -1.1565744 -1.3635844 -0.06345368
-0.059587482 -1.0854871 -1.0550001 -0.6872767 -0.047473155 -1.6868533 -0.13774529 -0.04732306
0.01358296 1.4551927 -0.07697943 0.006000236 -2.5733633 -1.3291523 0.009031555 -1.2548634
-0.011563456 -0.12216827 -1.0983738 -1.6079037 -0.62715846 -1.9401327 -1.7793312 -0.06135582
-1.4052411 -0.031316366 -0.7250233 -0.6261077 0.42523336 -0.1083947 -0.071258105 -0.45932737
0.072495244 -0.13191132 0.025602235 -0.37521175 -0.058386814 1.1053796 -1.0538449 0.008610605
0.703021 0.014618748 -0.11422833 2.0559452 -0.81342936 0.026097575 -0.047606286 -0.5466367
-1.7702556 0.017527318 -0.12516971 0.0012078148 -1.2241372 -1.6492094 -0.12263241 0.43961903

weight f4 [6, 256]
00000000: 1900 20bf 10b3 723d 4011 4c3d 4faa 86bf
00000010: afe5 01bf 6f7d dabf 31b2 1dc0 8a01 bf3b
00000020: 27a7 5e3d 6821 3b3f e9f5 15bd b9c8 8dba
00000030: cded 923e 84ac 493e 49e7 083e be5f 973f
00000040: d828 bd3e aa6e 3a3d 7793 96bf 0cad e9bb
00000050: fea7 b53f cce4 55bd bd6d 823f d6e3 d8bf
00000060: 9997 04bd b362 df3a fff2 97bf 4ca8 bc3c
00000070: f037 cdbc d33f 833c f7a5 bd3f 60df e43c
00000080: 4caa 80be 754c 723e bf9c 6dbd 15db d83c
00000090: 7320 ca3e 5a0d 5ebf 28a0 713e 0e79 70be
000000a0: 7bb6 8bbf a5d7 183f c231 b2bf 5c07 0cbd
000000b0: 7fe8 8a3f 9c4e 01bd fa65 a5bf 8825 edbb
000000c0: 745c 033f b0b4 2fbd c608 69bd 9342 a5bb
000000d0: 384d 1e3d bb77 0abd 6106 bbbd 8ddf d2bc
000000e0: 91b2 f23f a685 01bd 3f50 ed3f 50c1 97bf
000000f0: ab7e 88bc 929e 5dbc a0b8 e13e 9b1d 9fbf
00000100: 06cb 56bf 7e58 30bf 15e4 afbd d7f1 d7be
00000110: e7d7 263d 4979 983e 3eac 11bf cbac 17be
00000120: 54ea 4cbf 508c 2ebf 3ec2 ed3e 1254 8fba
00000130: 3b16 3d3d 6cc5 9b3c 85b5 863b 2c00 92bc
00000140: 6ca7 1fbc 6254 813f f453 1d3f cbc1 403e
00000150: 083f 1fbf e04e 273c 747b 913d 41b6 10bf
00000160: ddd7 043f 32c6 a33f c519 d93e 1dbc dfbb
00000170: 57bc b73e 5a28 b93d 2be4 cfbf 0143 663f
00000180: 1097 2abd b62d 5c3c b2a4 15bf ea3c 1a3b
00000190: bff4 3c3f 6b07 90be 65ba 673e 4d3c 11bf
000001a0: c8d3 8a3e d00b 353d 39a0 babd 1aae 4abc
000001b0: 73c2 6e3e 85b6 2b3c f0ab 9bbb 37e9 49bf
000001c0: 43bc 593e 39e6 98bf ad40 54bf bfac c23c
000001d0: 6c52 bf3f 1b72 813d 223c 993c e5dd afbc
000001e0: 7807 83bc 586d 87be 98c8 d9bc 924d df3e
000001f0: e894 5bbd 8d9f 88bc 0d9b b03e 215c b0bc
00000200: 9540 8b3f bf76 2c3e 919e 8ebf 6a2b eebe
00000210: a724 0e3e 177c 0cbb bfcc b1bc 9b79 5fbd
00000220: f5d7 f0ba 7f4f 46bf 5279 a7bc d227 2b3d
00000230: 0cca c6ba f483 723e abbb 20bd 5ded 56bc
00000240: e56c c1bd 31cd e13d f783 8c3f f37d 2a3f
00000250: 58df 803f 564b b9bc f218 97bd 419f 49bc
00000260: 015a 9d3c fe01 54be a6f7 5fbd 6129 583e
00000270: 62ca 15be 3c59 a23c a93f 5e3d e067 c3bf
00000280: eb00 a63f a54c f5bc 305a 2ebf c820 313f
00000290: d256 553f df6a a1bc 75d1 6bbe 5e26 be3f
000002a0: de63 893f ca1c 5cbc c041 da3c ede6 683f
000002b0: 8a48 44bd 1564 e53e adac 7bbc d345 86bf
000002c0: abc4 69be b84d 13bf cf7a 6d3e 08f8 d5bd
000002d0: a8fc febd 6c6c 99bb 1967 093e 689e 0cbd
000002e0: 12d9 83bf 93b8 f3be 5212 343f 52ed 0fbd
000002f0: 4d6e 30bb e314 cc3f adfe ee3e c3d1 45be
00000300: cdf9 90bc 9224 033f a99b 1ebd 720e d5bd
00000310: bbac 5dbf 3e1d 383e edf5 533f a57a 563d
00000320: e0fb 08bc a115 77bd 60a7 073e 52db b2be
00000330: 339a 8abc 102f b2bf efd1 683d 44cb 27bd
00000340: d1e2 2d3d 9904 5dbd 0981 0e3d 3694 a93c
00000350: a6ec eebe 0e68 5e3e f874 dabc f87f 6dbe
00000360: ea65 343c 6f65 b73e 6067 153f 3339 2ac0
00000370: a20c 573f c8b5 af3f f68c 26bf 6758 0cbc
00000380: 9d40 59be 8521 b1bb 81cf cd3e 4560 b93e
00000390: 36d8 233f 368a 723b 182d 8abb 9701 bc3e
000003a0: 209a ec3d 739b 94be 3951 eabc cbf4 2d3f
000003b0: 5077 a03c de08 233f 42d0 8a3a f5d2 953a
000003c0: 3bc9 dcbf 819a 863c 4c70 b2bd 17ae c53f
000003d0: 3135 983c 7f64 d5bc 3065 31be 1735 043f
000003e0: 2757 3840 ffd9 a53c 969d b83e 7895 24bd
000003f0: e68b 6e3f d3da d93e cd9a b03c a887 bbbf
-0.6250015 0.0592528 0.04982114 -1.0520724 -0.50741094 -1.7069529 -2.464001 0.005829041
0.054358628 0.7309785 -0.03661147 -0.0010817266 0.28697053 0.19694716 0.13369478 1.1826093
0.36945224 0.045515694 -1.1763753 -0.0071312245 1.4191892 -0.05222015 1.018974 -1.694453
-0.032371137 0.0017042964 -1.1871032 0.023029469 -0.025051087 0.016021645 1.4816273 0.027938545
-0.25129926 0.23661979 -0.058010813 0.026471654 0.39477882 -0.8673912 0.23596251 -0.23483679
-1.0915064 0.5970405 -1.3921435 -0.034186706 1.0852202 -0.03156911 -1.2921746 -0.00723714
0.5131295 -0.042896926 -0.056893133 -0.0050433367 0.03864786 -0.03380559 -0.09132076 -0.025741363
1.8960744 -0.031621598 1.8540114 -1.1855869 -0.016661962 -0.013526576 0.4408617 -1.243091
-0.8390354 -0.6888503 -0.08588425 -0.42176697 0.040733244 0.29780033 -0.56903446 -0.14812009
-0.80045056 -0.6818285 0.46437258 -0.0010935089 0.04616378 0.019015037 0.0041109943 -0.017822348
-0.009744506 1.0103877 0.6145623 0.18823926 -0.62205553 0.010211676 0.07103625 -0.565281
0.5189188 1.279486 0.42402473 -0.006827845 0.3588588 0.090408996 -1.6241506 0.8994599
-0.04164797 0.013438633 -0.5845443 0.0023534843 0.7381095 -0.2813066 0.22629698 -0.56732637
0.271147 0.04420072 -0.09112591 -0.012370611 0.23316364 0.010480528 -0.004750721 -0.7887148
0.21263222 -1.1945258 -0.8291119 0.023764012 1.4947028 0.06320592 0.018705431 -0.021468112
-0.015994772 -0.2645061 -0.026584908 0.4361387 -0.053608805 -0.016677642 0.34493294 -0.021528305
1.0879084 0.16842173 -1.1142141 -0.46517497 0.1388117 -0.0021436268 -0.021704076 -0.05455933
-0.0018374907 -0.7746505 -0.020443592 0.041786022 -0.0015166416 0.23683149 -0.039241474 -0.013118115
-0.09444598 0.11025465 1.0977772 0.66598433 1.0068159 -0.02261893 -0.07377805 -0.0123060355
0.019207956 -0.20703885 -0.054679535 0.21109535 -0.14627984 0.01981794 0.05425993 -1.5266075
1.296903 -0.029943774 -0.68106365 0.69190645 0.833356 -0.01970428 -0.2302912 1.4855459
1.0733602 -0.013434598 0.02664268 0.90977365 -0.04792074 0.4480292 -0.015360993 -1.0490059
-0.22828929 -0.57540464 0.23191379 -0.10447699 -0.12450534 -0.0046821143 0.13418235 -0.034330755
-1.030062 -0.47601756 0.70340455 -0.035138436 -0.0026921213 1.5943874 0.46678677 -0.19318299
-0.01769724 0.51227677 -0.038722668 -0.10403146 -0.8659169 0.17979905 0.8279713 0.052363057
-0.008360833 -0.06032336 0.13247442 -0.34932953 -0.016919231 -1.3920612 0.056840833 -0.040965334
0.042452637 -0.053959463 0.034791026 0.020700555 -0.46664923 0.21719381 -0.026667103 -0.23193347
0.011010626 0.35819575 0.5836086 -2.6597412 0.8400365 1.372735 -0.6505884 -0.008565999
-0.21216054 -0.005405607 0.40197375 0.3620626 0.64001787 0.003700865 -0.0042168014 0.36719963
0.115528345 -0.29024848 -0.028603183 0.6795165 0.019588143 0.63685405 0.001059063 0.0011430668
-1.7248911 0.016431095 -0.08712825 1.5443753 0.018580051 -0.026048897 -0.17323756 0.5164351
2.8803194 0.02024555 0.3605773 -0.040181607 0.9318222 0.42549762 0.02155819 -1.4650774

bias f4 [6]
00000000: e74b 1a40 59d7 ff3f 9a34 78c0 c938 e7be
00000010: 5e11 5540 3af7 4240
2.4108827 1.9987594 -3.8782105 -0.4516051 3.329185 3.0463395

weight f4 [256, 23]
00000000: f70b 54bf 950f 99bf 090b 71bf 52d3 f63d
00000010: e856 30bf ca1a 203d 2d09 11bf 485d f33d
00000020: 8820 dc3d 6390 6cbe e0d9 c6be 1d20 15be
00000030: cf08 21bd 8255 c5ba f5be d0bd 8d95 b0bc
00000040: 49e7 a23b c3f1 8b3e fa73 2ebe e32a ab3c
00000050: 4e01 8fbe 2650 b9be a991 09bd 41dd af40
00000060: 6d4d 40bf b411 7c3e 1854 d5bf 1e62 12c0
00000070: b1f2 e4bf e464 223f 69fe 85bf 5ad7 23bf
00000080: f7dc 17bf 8054 113e 5f47 1b3e afc6 9ebb
00000090: ae4a 513d acca c9bd 4dcc 90bd fb64 2f3e
000000a0: 00a4 12bf 52f5 893e f210 58bf 843d bd3f
000000b0: bcc3 11bd db34 dabf 09ce 77c1 0c8b a6bf
000000c0: e648 cfc0 339a 98bf 0d75 65be e804 cb3f
000000d0: 2572 7c3f cbb7 edbe 7750 d53e a97a 8dbf
000000e0: df86 e83d 86b1 3f3e a196 7d3d a19b e63d
000000f0: d198 31bd 7796 45bc 8953 a63c 0d7d 023f
00000100: deae 9c3e 45e0 87be 4438 d03e 3725 8f3f
00000110: 9238 843e 3b40 4ac1 dbe0 d3bf 1da6 34bf
00000120: ebcb 35bf 2f26 2ebf 6074 17be 2f20 43c0
00000130: 1868 12be 32a1 0c3f a023 aebf 0f9b 823f
00000140: 43e9 5d3c 16a4 af3d 2a15 22bc 60a4 923d
00000150: 013c a1b9 0842 fb3c d9e4 5ebe 5d95 3fbe
00000160: d949 303f 08d8 e0be 862b 05bf be6c 983e
00000170: 71e0 6a41 8df2 d4be d9bb bd3f 5ae9 1abe
00000180: 5202 43bf 5918 e13e 3f35 4bbf 549f c4be
00000190: 6fd7 133e 8a41 cb3f b38d 663f 0c73 383e
000001a0: bee7 c43d 47ef 6dbc 7c02 933d 8b15 bd3c
000001b0: 0617 b53b e79e 27bf 994b dbbd 29ac 5a3d
000001c0: 176e c03e bf5c 233c af24 2b3e c28c 2b40
000001d0: bd26 aebe 09ff dc3f b891 a9be 21f7 bf3f
000001e0: 5416 a6c0 1137 a43e 7e01 d3be f8d7 0fbf
000001f0: 6a56 9d3f 72c2 88bf e09c 3ebe 8fe9 0ebe
00000200: cd21 82bc b7a3 a0be bfe3 7dbe 639c 4cbd
00000210: cf66 05bf cffa a6be f6f2 ce3e a0c0 2e3f
00000220: 7f69 073f 6d4a ea3e 088e 3341 114d a63f
00000230: 3d3e 6b40 0755 3f3f 5563 ee3e 06d2 b6bf
00000240: f298 bdbe 342e a83d 2c1a bf3d a4f7 093f
00000250: fb46 363f 3b36 0c3e 51cb c03d 0e1a c1bb
00000260: d0f4 4b3e d996 223e 89a7 493d ecad 093c
00000270: 27b3 293e f724 bcbe 09d5 1a40 5156 803f
00000280: 5f91 363e ab65 f040 2bb6 d0bd 6fa7 0940
00000290: dc09 c4bf de16 453f 91a3 12bf 9b2a 25bf
000002a0: b45e dabe 2ecf c03d d460 d8bf 9515 29bd
000002b0: 9ab4 603d 4905 ab3d de89 6ebc e036 353c
000002c0: 6a32 113d a1df cb3a 9cda 73bd 0f39 f8be
000002d0: 640a 533f f409 623e c3d5 1f3e 1572 283f
000002e0: cf9a fe3f d4c5 e2bf 2b3d 2740 e0f2 5ebf
000002f0: d08d 3d3e a6d8 ea40 a931 4140 6809 5abd
00000300: 0e5c ddbe 0036 31be fa43 acbc 3031 fcbd
00000310: ce46 67bd 34a8 c5bd 0862 e13d 9d8b 063e
00000320: bd2b c33c 7040 3abf 84ad 0b3f a7a1 1b3e
00000330: fa39 3d3f e874 3fbe 241d 11bf fbd8 f340
00000340: a28f 46be 22b8 d13e b1c6 8a3f 413c 00bf
00000350: 3540 ba3e 9f9f 913f c78f 373f c358 dabc
00000360: a472 5140 3fa1 7d3e 53f3 183e 0673 103e
00000370: fc7a ee3b 6ea7 8f3d f746 6fbd 93ad c3bb
00000380: 3545 5f3f 8c9c aebf 1c09 bb3f 3c22 783f
00000390: 8d89 1c3e 7fe6 0e3e 485b 4f40 2bc2 ecbf
000003a0: be1d eac0 1043 b73f dad3 2dc0 f3ab fdbe
000003b0: 0923 2cbe efc5 85bf 7c55 afbe 619c 20bf
000003c0: ab63 0a3f 3d00 103f bb25 e33d 6e59 cc3d
000003d0: d0e8 a0bd e15b 0d3d fd7e 0ebd 3f4b 60bf
000003e0: 5dd9 68bf df86 5b3e a309 86be 268a 4b3f
000003f0: d385 cb3d 866d a740 8890 53bf 821a cfbf
-0.82830757 -1.195788 -0.94157463 0.12052025 -0.6888261 0.039088048 -0.56654626 0.11883026
0.10748392 -0.23101954 -0.388381 -0.14563031 -0.03931504 -0.001505539 -0.10192672 -0.021555686
0.004971419 0.27332887 -0.17036429 0.020894473 -0.27930683 -0.3619396 -0.033586178 5.4957585
-0.7511814 0.24616128 -1.6666288 -2.2872386 -1.7886564 0.63435197 -1.0468265 -0.64000475
-0.5932154 0.1419239 0.15163945 -0.0048454623 0.05109661 -0.0985311 -0.07070217 0.17128365
-0.57281494 0.26944977 -0.84400856 1.4784398 -0.035587057 -1.704738 -15.487802 -1.3011184
-6.4776487 -1.1922058 -0.22407933 1.5860872 0.9861167 -0.46429285 0.41662952 -1.1053058
0.113538496 0.18720064 0.06191123 0.112601526 -0.043358628 -0.012059799 0.020303505 0.5097206
0.30602163 -0.26538292 0.40667927 1.1183232 0.2582441 -12.640681 -1.6552995 -0.7056597
-0.7101428 -0.68027014 -0.14790487 -3.0488393 -0.14297521 0.54933465 -1.3604622 1.020357
0.013544383 0.08576219 -0.009892741 0.07160258 -0.0003075302 0.030671135 -0.21766986 -0.18709321
0.6886268 -0.4391482 -0.52019536 0.29770464 14.679795 -0.41591302 1.4822952 -0.15128079
-0.76175416 0.43963888 -0.7937812 -0.38402808 0.1443765 1.5879376 0.90059966 0.18012637
0.09614514 -0.01452238 0.07178208 0.023081562 0.0055264262 -0.6547684 -0.107077785 0.05338684
0.37583992 0.009970843 0.16713212 2.6804662 -0.3401393 1.726533 -0.33118987 1.4997293
-5.1902256 0.32073262 -0.41212076 -0.5618892 1.2291996 -1.068434 -0.1861453 -0.13956283
-0.015885258 -0.31374905 -0.2479391 -0.04995383 -0.5211 -0.32613227 0.4041974 0.6826267
0.5289535 0.45759907 11.222176 1.2992269 3.6756737 0.74739116 0.4656016 -1.4282844
-0.3703075 0.082119375 0.09331164 0.53893495 0.7120206 0.13692562 0.094137795 -0.0058929985
0.19917607 0.15877856 0.04923204 0.008403283 0.16572247 -0.36746952 2.4192526 1.0026342
0.17828892 7.5124106 -0.10190996 2.1508443 -1.5315509 0.7698802 -0.5728083 -0.64518136
-0.42650378 0.094145164 -1.690455 -0.041280348 0.054859735 0.083506174 -0.014559237 0.0110604465
0.03544847 0.0015554318 -0.059534654 -0.48481032 0.8243773 0.2207411 0.15608887 0.65799075
1.9890994 -1.7716622 2.6131084 -0.8708935 0.18511128 7.3389463 3.018656 -0.053231627
-0.43234295 -0.17305756 -0.021028508 -0.12314069 -0.05646401 -0.09651223 0.11005026 0.13139196
0.023824567 -0.72754574 0.5456164 0.15198384 0.7391659 -0.1869694 -0.5668509 7.620237
-0.19390729 0.40960795 1.0841886 -0.5009194 0.3637711 1.1376837 0.7170376 -0.026653653
3.272622 0.24768542 0.14936571 0.14106378 0.0072778445 0.070143566 -0.058417287 -0.0059716194
0.87214977 -1.3641524 1.4612155 0.9692724 0.15286846 0.13955115 3.2399464 -1.8496755
-7.3161306 1.4317341 -2.7160554 -0.4954525 -0.1681024 -1.045103 -0.34244907 -0.62738615
0.5405833 0.56250364 0.11091181 0.09977995 -0.078569055 0.03451145 -0.034789074 -0.87614816
-0.9095667 0.21438168 -0.26179227 0.7950767 0.09937634 5.2321196 -0.8264241 -1.6179965

bias f4 [256]
00000000: d513 a340 9535 51c0 74b2 41c0 7d8a 35c0
00000010: 6cca 9fbf 9ec1 7ac0 31f0 a8c0 8247 92c0
00000020: 5370 afbf 706a 8ec0 0d42 76bf fa70 adc0
00000030: e773 aac0 76b8 87c0 acc6 d4bf c9af 8fc0
00000040: 03aa 723e 3012 48c0 d36a d4bf bbc1 a8c0
00000050: 34d9 25c0 1e4d cec0 21b3 a9c0 344b 8fc0
00000060: 8da9 87c0 27ef 47c0 3141 b0bf 28f5 41bf
00000070: f478 85bf 92cb 95c0 979c 2040 0a9a 6cbf
00000080: 3a47 2d40 c694 5ec0 b22d b4c0 2d33 13c0
00000090: 6147 0bc0 c2fe 94c0 7f28 b23f 675a 85c0
000000a0: e786 bac0 d048 6a3f f35f 6ec0 3cac 41be
000000b0: 162d b640 655c 89c0 72b3 42c0 d724 a540
000000c0: a976 773f 3561 3c3f da22 22c0 2ded e8c0
000000d0: 148a 8bbf 3bfe bbc0 c1eb d63f e44f 8bc0
000000e0: 5bfb b4c0 2d58 b3c0 05c1 d6bf a2a1 44c0
000000f0: 73cb 57c0 a488 c840 e9d7 01bf 6625 98be
00000100: 13f8 b940 5232 6440 c6a9 b7bf 81a6 93c0
00000110: 6e32 16c0 4e3c 7dc0 a550 7fc0 c693 aac0
00000120: 9517 2bc0 b0dc afc0 6e21 8bc0 35b9 4ec0
00000130: ae70 71c0 85f3 8440 9b9a d9be 02a5 19c0
00000140: 2f27 a9c0 b629 d8c0 04c8 acc0 4abe 67c0
00000150: 5bc8 cdbf c392 73bf 6aa6 3bc0 c56f a740
00000160: 41e0 09c0 a94e 77c0 11bc 95c0 0742 c2be
00000170: 274d 36c0 2a2a b4c0 ca98 a0c0 f18e b2bf
00000180: a8dc a940 b205 84c0 b75c c040 d153 54c0
00000190: 9003 4bc0 46b0 9cc0 a061 84bf 6382 a140
000001a0: 58d2 c2c0 6726 af40 675e 20c0 f87c 91c0
000001b0: 615a 14c0 0129 a2c0 7c7d dec0 dde7 86c0
000001c0: ca3b a440 85b5 6540 c719 3fc0 87ce 9fc0
000001d0: 9394 a2c0 a02b c4c0 1fdc e1c0 10b0 83bf
000001e0: 7f8b 8dc0 5f68 e8c0 2f28 8fc0 bed5 cfc0
000001f0: 7119 b5c0 d5d9 d73f 2d5c 79c0 a172 a0c0
00000200: 3812 a140 e522 80c0 925d 6bbd 2277 06c0
00000210: 4885 a9c0 932f 94c0 38c9 7640 8fc9 cdbf
00000220: bdff acc0 0d21 8ac0 8337 41c0 c40a a9c0
00000230: 5bc0 6b3e dd20 3040 757d a93f bdca 7bc0
00000240: 9399 b540 fdaf cfc0 5519 b040 716b 97c0
00000250: 156c 86c0 ec22 bbc0 7c0c 55c0 887c bcc0
00000260: dc08 88c0 170e 8ec0 80e2 1840 a3d1 bebf
00000270: d1bb 85c0 62e8 1d40 25b4 3240 c3c9 c63f
00000280: 151a 09bf cc29 c440 b6bf b0c0 2a57 b040
00000290: 77cf a1c0 318c 9440 0190 af3f ae64 5cc0
000002a0: 20dc b03f d2cb c240 4df2 ecbf 6bf0 883e
000002b0: 8f6d a1c0 e159 8dc0 6bdb 33bf 54fb 67c0
000002c0: ef25 35c0 913b 17c0 ab5e 7abf f700 93bf
000002d0: 8bce a3c0 4172 62bf 3c76 79c0 cd71 7cc0
000002e0: 79d7 9fc0 c250 65c0 2f26 29bf 527f 4240
000002f0: c475 14c0 83e0 aac0 52e3 b3c0 df6d a4c0
00000300: b56b 71c0 06fd 95c0 73d5 67bf 7b2b 71c0
00000310: 7e17 3dc0 e845 83c0 2fdc 89c0 803f 9bc0
00000320: 38f3 c0bf a046 7cbf 8406 84c0 99bb 9f3f
00000330: 5a0a b7c0 e827 7a40 0c85 85c0 c6b6 36c0
00000340: 6b86 a840 dea2 94bf 327a d5bf 0c72 0dbf
00000350: 01c3 00c0 e911 acc0 5add 2cc0 4d76 8fbd
00000360: 45ee cf3f 393d afc0 1d20 04c0 f5f2 b640
00000370: 4dc3 74c0 7f8c aac0 2548 803f 4d0f 23c0
00000380: 1286 c7c0 8620 aac0 9ccf 9ac0 acb6 a2c0
00000390: 4ba6 8240 fcbc 4bc0 274d b640 0b24 8fc0
000003a0: eb8a ecbf fcec 0d40 6a4a 89c0 2a6a 61c0
000003b0: d3f1 9ec0 0858 acc0 fb46 fbbf c0fd ccc0
000003c0: 8e73 cfc0 2f19 18c0 f986 8bc0 90d0 38c0
000003d0: 1a58 98c0 7f53 cf3f c37e 97c0 9b75 8ec0
000003e0: a440 90c0 f473 d53f 021c ce40 b1bf 9c40
000003f0: 705d 58bf efbf ccbe dc18 4740 82d6 ad3d
5.096171 -3.2688954 -3.026517 -2.8365777 -1.2483649 -3.9180675 -5.2793202 -4.571229
-1.3706154 -4.450493 -0.96194535 -5.420041 -5.326648 -4.241267 -1.662313 -4.490208
0.23697667 -3.12611 -1.65951 -5.2736487 -2.591382 -6.4469137 -5.3031163 -4.47793
-4.239447 -3.1239717 -1.3769895 -0.75764704 -1.0427537 -4.6811 2.5095575 -0.92422545
2.7074723 -3.4778304 -5.630578 -2.2999985 -2.1762316 -4.6560984 1.3918608 -4.1672854
-5.8289676 0.91517353 -3.7246063 -0.18913358 5.6930037 -4.2925286 -3.0422025 5.160747
0.96665436 0.73585826 -2.5333772 -7.278952 -1.0901513 -5.874784 1.6790696 -4.3535023
-5.655683 -5.6045136 -1.6777655 -3.0723653 -3.3717926 6.26668 -0.5072008 -0.29716033
5.8115325 3.5655713 -1.4348686 -4.614075 -2.346828 -3.9568057 -3.9892972 -5.3305387
-2.6733143 -5.4956894 -4.347831 -3.2300541 -3.7725024 4.1547265 -0.42500767 -2.4006963
-5.286033 -6.7550917 -5.399416 -3.6209893 -1.6076769 -0.95145816 -2.932032 5.2323937
-2.1543124 -3.864176 -4.6792073 -0.37941 -2.848459 -5.630147 -5.018651 -1.3949872
5.3081856 -4.125695 6.0113177 -3.3176157 -3.1720924 -4.8965178 -1.0342293 5.0471663
-6.0881767 5.473438 -2.5057619 -4.546505 -2.3180163 -5.0675054 -6.952818 -4.2158036
5.1322985 3.589204 -2.9859483 -4.993961 -5.0806365 -6.1303253 -7.0581203 -1.0288105
-4.4232783 -7.2627406 -4.473655 -6.4948416 -5.6593556 1.6863352 -3.896251 -5.013993
5.033474 -4.0042596 -0.057462282 -2.1010213 -5.2975197 -4.6308074 3.8560314 -1.6077136
-5.406218 -4.3165345 -3.0190132 -5.282564 0.23022597 2.7520058 1.3241411 -3.9342492
5.674997 -6.490233 5.5030923 -4.7318654 -4.2006936 -5.848013 -3.328887 -5.8902016
-4.2510815 -4.43922 2.3888245 -1.4907726 -4.179177 2.4673085 2.7922451 1.5530323
-0.53555423 6.130102 -5.523402 5.51064 -5.0565753 4.642113 1.3715822 -3.443645
1.3817177 6.0873804 -1.8511444 0.26745924 -5.044624 -4.4172215 -0.7025668 -3.6247149
-2.8304403 -2.3630106 -0.978007 -1.148467 -5.118963 -0.8845559 -3.8978415 -3.9444458
-4.995053 -3.583054 -0.6607389 3.039021 -2.3196878 -5.339906 -5.621499 -5.138412
-3.772199 -4.6871367 -0.9056007 -3.7682788 -2.9545588 -4.1022835 -4.308128 -4.8515015
-1.5074224 -0.98545265 -4.1257954 1.2479125 -5.7200136 3.9086857 -4.172491 -2.8549056
5.2664084 -1.1612203 -1.6677916 -0.55252147 -2.011902 -5.3771863 -2.7010102 -0.07004986
1.6244589 -5.4762235 -2.06446 5.717158 -3.8244202 -5.3296504 1.0022017 -2.547809
-6.235116 -5.31647 -4.837843 -5.084799 4.0827994 -3.1834097 5.696918 -4.47315
-1.8479894 2.2175894 -4.2903337 -3.5221047 -4.9670196 -5.385746 -1.9631037 -6.4059753
-6.482856 -2.376537 -4.360226 -2.8877296 -4.7607546 1.6197356 -4.734224 -4.451856
-4.5078907 1.6676011 6.440919 4.8984 -0.84517574 -0.39990184 3.1108923 0.0848818

weight f4 [256, 256]
00000000: 3071 c8bd cbbf d6be 021d 0e3f 95b8 043f
00000010: d20e 5d3f 5605 5bbf cbfb 8fbe 9979 b3bc
00000020: 69d7 a53e 4be6 3bc0 5b41 06c0 b103 e1bf
00000030: 0db1 b3bf 058b 903f 8682 babe 9076 d33e
00000040: c31f 833f fa5f 85bf a857 463c 6552 2dbf
00000050: 9aec 83bf 63ff eebf ebdf b4be d5f6 96bf
00000060: 4e3b 57be ddec c93f 7812 91be 43d8 c83e
00000070: 34fd 0c40 10ad 703f c369 883e 48e1 f23c
00000080: f6e6 aebd 9f18 dcbe 0d74 b23c 9cac 483f
00000090: 644e fdbf 4643 37bf f44c 0cbf 990a 1c3f
000000a0: f6eb 3fbf bc35 1fbf 3de4 423f e2aa 66be
000000b0: 855c 1f3e 28c2 5cbf 1be7 5fbf 6be3 c53e
000000c0: d3ba dabe 7dff 21be 9bd6 c13e abe7 60bf
000000d0: fc76 85bf 6a6f 58bf 5c9f dec0 f2be 373f
000000e0: d33a 9abf 992e 803e c493 d5bf dc12 27bf
000000f0: 9538 7dbe 0275 a93e 9b08 c63e 2634 673f
00000100: cdd6 43c0 709f b6be 1b24 853e d312 073f
00000110: 1dbe 873f 062a 6dc0 5fe5 62bf 38ad e03f
00000120: 3906 b43f 6ea2 07c0 f9c4 f33e 8c1c 433f
00000130: 9873 8cc0 16be 223f 8af3 c53e 4622 4f3f
00000140: a7d8 c0be 1a33 2d3e 9379 b53e 359e 23c0
00000150: 1311 a8bf 15f8 c9bf 3f22 c63f 07b0 cbbe
00000160: d917 e63e edf6 903e a2fb 6ec0 a119 ffbd
00000170: 27c7 973f 362d 5d3e 6b88 b6bf 2c30 16bd
00000180: 8c56 10bf 0e4a 933e c45d 333e 577e 14bf
00000190: e307 0bbd e18d e93f beec e43e 7c97 2abf
000001a0: 8575 c03f edd1 133f eb4d 273e 31f4 b13e
000001b0: eb0d 4bc0 bc9b 6f3f d174 1cbf d84c 793f
000001c0: d145 e23d 286f 623f 8e9b 98be a5d3 26be
000001d0: 4ef8 12c0 c743 933f 9c7f 6e3e f2b9 54be
000001e0: a9e8 1bc0 3721 2ebf 90b2 e53e 091b 4b3e
000001f0: 9c21 c23f c78e e0bb b123 d6bf 7043 17c1
00000200: 3bb7 75be a222 0a3e 3627 573d 77bf 76bf
00000210: 9311 b03f e579 c7bf 715b cf3e 9749 e0bf
00000220: ff31 ddbf a188 a73e 990a 71bf fad5 ae3e
00000230: 91d2 a53e 7ec4 2fbe 0d0c 6cbe 2208 e8bf
00000240: 43ad 9fbe 0537 bcbe 75eb a23e d347 0b3f
00000250: 9f79 eabf d8ed 70bf 3ffe c8bf 7a74 40be
00000260: 0336 4ac0 d88e 18c0 37f0 54be 16a7 813e
00000270: d002 21be 340e 1fbe 6124 eac0 4442 65be
00000280: a03f 11bf 6687 813e f69f 48be 5e76 b4be
00000290: 898d 2f3e e04f 7c3f c87a 74c0 8757 0d3e
000002a0: 1c8d 333f 1e7c aabd 97d0 563f 2b95 8c3e
000002b0: 5dd8 9b3f f9bc 71bf 5c04 c7be 9bd6 dfbe
000002c0: c714 083f 4182 75be 8bbf a7bf d268 91bf
000002d0: de73 d33e c5d4 213f 2416 80bf 14d9 b73e
000002e0: 0dd8 993f b871 31c1 c2ab ebbe c9f2 94bc
000002f0: addf 34be a0f5 053f 01f6 463f e464 b33e
00000300: 9be2 e43e c58e 663e 000a 00bf 4dfc 9f3f
00000310: b521 ba3d 43b9 8d3f 1932 3b3e c25d 93bd
00000320: 66b3 b9be 07f2 873f 75b5 fcbe 1109 9ebc
00000330: ce5d 49bf 891e f43d 0124 41c0 f09b ff3e
00000340: 64fb a43d 3c2a 8d3f c22c 8c3f 31f8 14bf
00000350: abaf 12bf ce2f 6bbf 3da6 8d3f 7b24 7e3e
00000360: 1c91 17c0 ed19 eb3e 5acd 19be eda4 b3be
00000370: 7c6f 74bf 06ab 13c0 9c49 08bf e8c6 9c3f
00000380: e2f3 a63e 4a8e 5a3f ceae 55bd 0bd0 81be
00000390: 831c 223c f793 b4be 033b 63be 7c9b 653e
000003a0: 532e 1dbf 5490 b2bf fc64 3a3f 5b3c 653f
000003b0: d596 2a3f f4a5 e4be 44ee 9ebe b9b3 773e
000003c0: 3f1f 213e b12c 0a3f dc3a 3abf 537b 70c0
000003d0: bc0a 1bbf eee6 373d 6cda b33d c83e c2bf
000003e0: b744 8a3f e5e7 5f3d ddb9 fdbd 94d0 ee3e
000003f0: f087 de3e 4ce3 d9bf 13f6 8a3f e808 b6bf
-0.09787214 -0.419432 0.5551301 0.5184415 0.8635074 -0.85555017 -0.2812179 -0.021908568
0.32390907 -2.935931 -2.097739 -1.7579252 -1.4038407 1.1292425 -0.36427706 0.41301394
1.0244068 -1.0419915 0.01210586 -0.6770385 -1.030658 -1.8671688 -0.35327086 -1.1794077
-0.21018717 1.577541 -0.28334403 0.39227495 2.2029543 0.9401407 0.2664319 0.029648438
-0.08540146 -0.42987534 0.021783853 0.7838838 -1.9789548 -0.71587026 -0.5480492 0.6095367
-0.7496942 -0.6219137 0.76129514 -0.22526124 0.15562637 -0.8623376 -0.87462014 0.3865007
-0.4272066 -0.15820117 0.37859043 -0.878535 -1.0426936 -0.84545004 -6.956953 0.71775734
-1.2049202 0.2503555 -1.668572 -0.6526315 -0.24728616 0.33097082 0.3867844 0.9031395
-3.0599854 -0.35668516 0.2600411 0.527631 1.0604893 -3.70569 -0.8863124 1.7552862
1.4064399 -2.119289 0.47611216 0.76215434 -4.3891106 0.635713 0.38662368 0.8091167
-0.37665293 0.16914025 0.35444316 -2.5565312 -1.3130211 -1.5778834 1.5479201 -0.39782736
0.4494007 0.2831339 -3.7341084 -0.1245606 1.1857651 0.21599278 -1.4260381 -0.036667034
-0.5638206 0.28767437 0.17516237 -0.5800528 -0.03394307 1.8246423 0.4471187 -0.66637397
1.5035864 0.57742196 0.16338317 0.34756616 -3.1727245 0.93597007 -0.6111575 0.9738288
0.11048473 0.8845086 -0.2980618 -0.16291673 -2.2964053 1.1505059 0.23290867 -0.20774058
-2.4360754 -0.6801943 0.44862795 0.19834532 1.5166507 -0.006852958 -1.6729642 -9.453964
-0.23995678 0.13489774 0.05252763 -0.963859 1.3755363 -1.5584074 0.40499452 -1.7522458
-1.7280883 0.32721427 -0.94156796 0.34147626 0.32387212 -0.171648 -0.23051472 -1.8127482
-0.31186876 -0.36760727 0.31820264 0.5440647 -1.8318366 -0.9411292 -1.570259 -0.18794432
-3.1595466 -2.3837185 -0.2079476 0.2532279 -0.15723729 -0.15532762 -7.316941 -0.2238856
-0.5673771 0.25298613 -0.1959227 -0.35246557 0.17143835 0.9855938 -3.819994 0.1380292
0.7013719 -0.08324455 0.8391203 0.27457556 1.2175404 -0.94428974 -0.38870513 -0.43718418
0.53156704 -0.23975469 -1.3105329 -1.1360114 0.41299337 0.63215286 -1.0006757 0.35907805
1.2019058 -11.090263 -0.46029478 -0.018182175 -0.1766345 0.5232792 0.7771912 0.3503791
0.44704136 0.225154 -0.5001526 1.2498871 0.0908846 1.1072162 0.1828083 -0.07195617
-0.36269683 1.0620736 -0.4935719 -0.019291433 -0.7865876 0.119198866 -3.0178225 0.49923658
0.080557615 1.1028514 1.0951159 -0.5819121 -0.572993 -0.9186982 1.1066357 0.24818604
-2.3682318 0.45918217 -0.15019742 -0.35086766 -0.9548261 -2.3073134 -0.5323732 1.2248201
0.32607943 0.85373366 -0.05216866 -0.25354037 0.009894493 -0.35269138 -0.2219048 0.22422594
-0.6139881 -1.3950295 0.7281034 0.8954522 0.666364 -0.44657862 -0.31041157 0.24189653
0.15734576 0.53974444 -0.7274606 -3.757527 -0.60563254 0.044897966 0.08781895 -1.5175409
1.080222 0.05466451 -0.12388966 0.46643507 0.43463087 -1.702249 1.0856346 -1.4221468
