data/DDPG/InvertedDoublePendulum-v2/ddpg_s9279/pyt_save/model.pt (torch_old, 558651 bytes, 10 tensors)

weight f4 [256, 11]
0	0xbf472b9c	-0.7780092
1	0xc0ab311c	-5.349745
2	0xbd814c30	-0.0631336
3	0xbfc1fbba	-1.5154946
4	0xbfd568ec	-1.6672645
5	0xbead612a	-0.33863193
6	0xbf2042fc	-0.6260221
7	0x3ed5b625	0.41740528
8	0xbe594edf	-0.21221493
9	0xbdd5cc9e	-0.10439418
10	0x3d3873d8	0.045032352
11	0x3f201f49	0.6254774
12	0xbecea24c	-0.40358198
13	0xc033c0b5	-2.808637
14	0xbfcaf3c3	-1.585564
15	0xbfb2a69e	-1.3957098
16	0x3f152086	0.5825275
17	0xbe1c477c	-0.15261644
18	0xbf3c035f	-0.73442644
19	0xbe8a6f6b	-0.2703813
20	0xbe55e198	-0.20886838
21	0x3e95ee86	0.2928354
22	0x3e59b061	0.2125869
23	0xc03f00c1	-2.984421
24	0x3ee614a1	0.44937614
25	0xbfceb446	-1.6148765
26	0xbf2840d7	-0.6572394
27	0xbf570b6c	-0.84001803
28	0xbf6df9b1	-0.92959124
29	0xbf18b9ae	-0.59658325
30	0xbf142224	-0.57864594
31	0xbd4c8fa0	-0.04994166
32	0x3e2b2828	0.16714537
33	0x3ea6618d	0.324963
34	0xc0098600	-2.1488037
35	0x40b602ce	5.6878424
36	0xbf974627	-1.1818284
37	0xbffe95d6	-1.9889476
38	0x3e84de27	0.2595074
39	0x3f3a75a4	0.72835755
40	0x3f8de8fb	1.1086725
41	0x3f5dc73b	0.86632127
42	0x3e6141b8	0.21997726
43	0x3e6de4d0	0.23231816
44	0xbf5574df	-0.83381456
45	0xc03c34ec	-2.94073
46	0x3e9fccf7	0.31211063
47	0xbf5c4cfb	-0.8605496
48	0xbe8755a5	-0.2643253
49	0xbe1ba278	-0.15198696
50	0xbe9ef2eb	-0.31044707
51	0xbe6ec1fa	-0.23316184
52	0x3cf1708c	0.029472612
53	0x3d509d78	0.050931424
54	0xbe2903bf	-0.16505335
55	0xbe35863d	-0.17726989
56	0xc03f0e8c	-2.9852629
57	0xc0028673	-2.0394561
58	0x3d4af3a4	0.04954876
59	0xbe924976	-0.2857167
60	0xbe8b664d	-0.27226487
61	0xbf060da3	-0.5236456
62	0xbf26a6ca	-0.6509825
63	0x3e24c8d7	0.1609224
64	0x3e4c97f0	0.19979835
65	0x3e06acdc	0.13151878
66	0xbe02ef59	-0.12786616
67	0x3e1d66ff	0.15371321
68	0xbe687d0e	-0.22703955
69	0xbedb27a5	-0.42803684
70	0xbf0c46bd	-0.5479544
71	0x3e4d93c3	0.20075898
72	0x3e58065d	0.21096177
73	0x3dc16ba9	0.09444363
74	0x3d167c46	0.03673961
75	0xbe6b3992	-0.2297118
76	0x3ca590e0	0.020210683
77	0xbdae1849	-0.08500726
78	0xc0b8e562	-5.778001
79	0x3ea645a8	0.32475019
80	0xbfcdd160	-1.6079521
81	0xbffe1e2c	-1.9852958
82	0x3df2d29d	0.118565775
83	0x3e39dbb1	0.18150212
84	0x3f5775a7	0.841639
85	0x3eb91928	0.36152005
86	0x3d9b6cb4	0.07589093
87	0xbe103759	-0.14083613
88	0x3e471aa1	0.19443752
89	0x3fd0b241	1.6304399
90	0x40a7894f	5.2355113
91	0xbe22717d	-0.15863605
92	0x3d9799ac	0.074023575
93	0x3ec2c231	0.3803878
94	0x3e286a18	0.16446722
95	0xbd2a7d8e	-0.041623645
96	0xbf25fbd5	-0.6483739
97	0x3e96fb3c	0.29488552
98	0x3e347e1e	0.17626235
99	0x3e5d3606	0.2160264
100	0x40289ec4	2.6346903
101	0x40847498	4.1392326
102	0x3ef767cf	0.48321387
103	0x3ecce674	0.40019572
104	0x3ec0fff5	0.3769528
105	0x3fa93648	1.321969
106	0x3f6b1152	0.91823304
107	0x3f0995ba	0.5374409
108	0x3e6f43c8	0.233657
109	0xbe022ff6	-0.12713608
110	0xbe69de47	-0.22838698
111	0xc1060eb0	-8.378586
112	0x3f973a82	1.181473
113	0x3e810a02	0.25202948
114	0x3e03e36f	0.12879728
115	0xbea7a1dc	-0.32740676
116	0xbfc1801e	-1.5117223
117	0xbe3007db	-0.17190497
118	0xbf57e9bf	-0.84341043
119	0xbdc49c5e	-0.09600137
120	0xbe5886c2	-0.21145156
121	0xbf5d6288	-0.8647847
122	0xbfbae4fd	-1.4601132
123	0xc06eca0f	-3.7310827
124	0xba4f6b11	-0.00079123775
125	0xbe937581	-0.28800586
126	0xbf64cdf9	-0.8937679
127	0xbf3a3d8c	-0.72750163
128	0xbe8c9684	-0.27458584
129	0xbd38dc3e	-0.045131914
130	0x3cfabeb0	0.030608505
131	0xbcefdc10	-0.029279739
132	0xbecad7b5	-0.39617696
133	0xbf298039	-0.6621128
134	0x3f2efc90	0.6835413
135	0xbff079f9	-1.8787223
136	0xc00466be	-2.068771
137	0x3e4f1bca	0.20225444
138	0xbe79879b	-0.24368136
139	0xbe9398a5	-0.28827396
140	0xbe9f2009	-0.31079128
141	0x3e07f84c	0.13278311
142	0x3d06c1e8	0.032899767
143	0x3f9d1835	1.2273012
144	0xbf875520	-1.0572853
145	0x4086fef1	4.218621
146	0xbf31a9d9	-0.6939979
147	0xbf9aa365	-1.2081114
148	0x3ec27bc8	0.37985063
149	0xbe318872	-0.17337206
150	0xbec5168c	-0.38493764
151	0x3e8d30e3	0.2757636
152	0x3d8ce484	0.068795234
153	0x3cfb34d0	0.030664831
154	0xbfe7630f	-1.8077105
155	0xc09f271e	-4.973525
156	0x3e85811a	0.2607506
157	0x3dd0d2b3	0.10196438
158	0x3dfd3415	0.123634495
159	0xbf9aac27	-1.2083787
160	0xbf89863f	-1.0744094
161	0x3cc87ce3	0.024473613
162	0xbf82a864	-1.0207639
163	0x3dbb825c	0.091557235
164	0x3e2f95de	0.17147014
165	0x3f4a865b	0.7911126
166	0xbd967472	-0.07346429
167	0xbe8cf87b	-0.27533326
168	0xbf073616	-0.52816904
169	0xbf485a2f	-0.7826261
170	0xbd3e0a99	-0.046396825
171	0xbe10c661	-0.14138176
172	0xbd64d597	-0.055867758
173	0x3c07cb84	0.008288268
174	0x3e157d22	0.14598516
175	0xbe2c7857	-0.16842781
176	0x3e850317	0.2597892
177	0xc055e8dd	-3.3423378
178	0x40382302	2.8771367
179	0xbf93768e	-1.1520555
180	0xbf92c1f4	-1.146544
181	0xbe34a299	-0.17640151
182	0xbeaba615	-0.33525148
183	0x3c6260d1	0.013817028
184	0x3ec2be43	0.38035783
185	0xbe8e85ce	-0.2783646
186	0x3df7a324	0.120916635
187	0x3e3d07ab	0.18459956
188	0xbf186421	-0.59527785
189	0x3fd0f1bc	1.6323771
190	0xc01abaaa	-2.417643
191	0xc00df2fa	-2.217955
192	0xbe4d04c2	-0.20021346
193	0x3d839d85	0.06426529
194	0x3f121cce	0.570752
195	0xbec5fdcd	-0.38670197
196	0x3dda013c	0.10644767
197	0x3e96d6b6	0.29460686
198	0x3f242cd6	0.64130914
199	0x3fddbbc3	1.7322925
200	0x4079c94e	3.9029117
201	0xbf3e4cc6	-0.74335897
202	0xbf05e83d	-0.5230749
203	0x3ec0aee2	0.37633425
204	0x3fc1343a	1.5094063
205	0x3f98e1ba	1.1943886
206	0x3d9a7733	0.07542267
207	0xbe682e84	-0.22673994
208	0x3dd89f58	0.105772674
209	0x3f99d7d3	1.2018989
210	0x3e1997ff	0.14999388
211	0xbf5ae4c6	-0.8550533
212	0xc0048833	-2.070813
213	0xc004c058	-2.0742397
214	0x3f8ae48c	1.0850997
215	0xbe82136b	-0.2540544
216	0xbe9121e5	-0.28346172
217	0xbf49743d	-0.7869299
218	0x3d9e402c	0.077270836
219	0xbe398118	-0.18115652
220	0xbfa8b117	-1.3179044
221	0x3fa16edb	1.2611955
222	0x3e4ec5be	0.2019262
223	0xbfa72de4	-1.306088
224	0xbfa75837	-1.3073796
225	0xbf509745	-0.8148082
226	0x3f503b54	0.8134053
227	0x3f51c971	0.81948
228	0x3e0b04b9	0.1357602
229	0x3d85907c	0.06521699
230	0xbe64f9c1	-0.22360899
231	0x400f0090	2.2344093
232	0x3f9be198	1.2178221
233	0xc08cba21	-4.397721
234	0xbf758fad	-0.95922357
235	0xbfbc9525	-1.4733015
236	0x3f8556bf	1.0417098
237	0x3e105e88	0.14098561
238	0xbf1a7dcf	-0.6034822
239	0x3d9880e1	0.07446457
240	0x3e0227c6	0.12710485
241	0x3e089e36	0.13341603
242	0x400581ec	2.0860548
243	0x3fea2574	1.829268
244	0xc04b608f	-3.1777685
245	0xbf21f988	-0.6327138
246	0xbf60eb63	-0.8785917
247	0x3f212c3d	0.6295813
248	0x3e37552e	0.17903587
249	0xbf0020fb	-0.50050324
250	0x3f184880	0.59485626
251	0x3d9faf2c	0.07797083
252	0x3e33e102	0.17566302
253	0xbe81cfd2	-0.25353867
254	0xbfd5a6b0	-1.6691494
255	0x3e0ce8c9	0.13760675

bias f4 [256]
0	0xbfbeae8d	-1.4897019
1	0xbf9df041	-1.2338945
2	0xbf530681	-0.824318
3	0xbf9ff974	-1.2498002
4	0xbee2ef49	-0.44323185
5	0xbe609a9e	-0.21933982
6	0xbdbc966f	-0.092083804
7	0xbfe36728	-1.7765856
8	0xbdedcaf7	-0.11610978
9	0x3f4b4621	0.79403883
10	0xbe168b09	-0.14701475
11	0xbe590bac	-0.21195859
12	0xc001604b	-2.0215023
13	0xbf808d41	-1.0043107
14	0x3d6f641e	0.05844509
15	0xbf1c4a3f	-0.6105079
16	0xbf6e6428	-0.93121576
17	0xc000d275	-2.0128453
18	0xbf474ca4	-0.7785132
19	0xc0183284	-2.3780832
20	0xbfb434e3	-1.407864
21	0xbfaece0c	-1.365663
22	0xbed1053e	-0.40824312
23	0xbf2003d8	-0.62505865
24	0xbe77636d	-0.24159022
25	0xbf357d2c	-0.7089412
26	0xc00a7c42	-2.163834
27	0xbf9cbb45	-1.224465
28	0xbf28b05b	-0.658941
29	0xbeaa56e9	-0.33269432
30	0xc0088e18	-2.1336727
31	0xbe673b80	-0.22581291
32	0x3e656a9f	0.22403954
33	0xbf431a18	-0.7621169
34	0xbf98cc31	-1.1937314
35	0xbfd0c491	-1.6309987
36	0xbfba9989	-1.4578105
37	0xbd6610a7	-0.056168225
38	0xbef1bd11	-0.4721456
39	0xbf4bf877	-0.79676
40	0xbf93d4f1	-1.154936
41	0xbf5ee775	-0.87071925
42	0xbf099af8	-0.5375209
43	0xbef0bcc8	-0.4701903
44	0xbf023631	-0.5086394
45	0xc0220c01	-2.5319827
46	0xbdbecb37	-0.09316104
47	0xbf30109a	-0.6877533
48	0xbf500f51	-0.8127337
49	0xbf9411fd	-1.156799
50	0xbf118340	-0.56840897
51	0xc02b2a84	-2.67447
52	0xc04d209d	-3.2051156
53	0xbda3a188	-0.07989794
54	0xbeb1ea09	-0.34748867
55	0xbf147dd1	-0.5800448
56	0xbf0a2a7a	-0.53971064
57	0xbf775ad8	-0.9662299
58	0xbf9cffcc	-1.2265563
59	0xbed63ab6	-0.41841668
60	0xbf5eb923	-0.87001246
61	0xbf130b1f	-0.57438844
62	0xbf5b18ee	-0.85584915
63	0xbfa4777e	-1.2848966
64	0xc01224bf	-2.2834928
65	0xbf6a8053	-0.9160206
66	0xbde1df44	-0.11028913
67	0xbfa8553c	-1.3151011
68	0xbfe35614	-1.7760644
69	0xbf17c4cb	-0.5928466
70	0xbf570664	-0.83994126
71	0x3e3f97f0	0.18710303
72	0xbf98c18e	-1.1934068
73	0x3ffb241b	1.9620394
74	0xbf4dcc48	-0.80389833
75	0xbdeea3c3	-0.11652329
76	0xbfab4537	-1.3380498
77	0xbf4e5726	-0.8060173
78	0xbf00012e	-0.500018
79	0xbeeaf211	-0.45887807
80	0xbf80782b	-1.0036672
81	0xbfd17849	-1.6364833
82	0xbe4f7758	-0.2026037
83	0xbed58dea	-0.41709834
84	0xbee8f537	-0.45499584
85	0xbf86ee2d	-1.0541435
86	0xbf0cbb46	-0.54973257
87	0xbe81d2b3	-0.25356063
88	0xbfabc9ef	-1.3421
89	0xbdb1d3e3	-0.08682992
90	0xbebff7fd	-0.37493888
91	0xbdf05d82	-0.11736585
92	0xbf3b2128	-0.7309747
93	0xbfe3be3a	-1.7792428
94	0xbff076b8	-1.878623
95	0xbe2ac1f4	-0.1667555
96	0xbf1b2808	-0.6060796
97	0xbfc72331	-1.5557615
98	0xbea93b4a	-0.33053046
99	0xbf724551	-0.9463702
100	0xbec2555c	-0.3795575
101	0xbfef9d22	-1.8719828
102	0xbf8d9ff8	-1.1064444
103	0x3f8ae769	1.0851871
104	0xbf427003	-0.75952166
105	0xbf9d06e9	-1.2267734
106	0xbf48ea90	-0.78482914
107	0xbfc584c8	-1.5431147
108	0xbe82b201	-0.2552643
109	0xbf9efc66	-1.2420776
110	0xbf3c841a	-0.7363907
111	0xbf037bf2	-0.51361
112	0xbe92dd7b	-0.286846
113	0xbfa3d61e	-1.2799718
114	0xbfbfdf94	-1.4990106
115	0xbfa73ce5	-1.3065459
116	0xbf51cb23	-0.8195059
117	0xbfb66829	-1.4250537
118	0x3ddb2a77	0.10701459
119	0xbeffc7e5	-0.49957195
120	0xbf42b83d	-0.76062375
121	0xbf08234a	-0.53178847
122	0xbff37a86	-1.9021766
123	0xbf409a02	-0.75235
124	0xbf0a3f16	-0.5400251
125	0xbddcd723	-0.107832216
126	0xbf33b839	-0.70202976
127	0xbeff8b44	-0.4991094
128	0xbe83cb8b	-0.25741228
129	0xbebdb1ca	-0.37049705
130	0xbf3815dc	-0.71908355
131	0xbf31fe42	-0.6952859
132	0xbfb75586	-1.4322975
133	0xbf87d6f8	-1.0612478
134	0xbf3b4182	-0.7314683
135	0xbf4f8ec7	-0.81077236
136	0xbedcf2dd	-0.4315404
137	0xbf62e087	-0.8862385
138	0xbf01a240	-0.506382
139	0xbfdaac92	-1.7083914
140	0xbf769352	-0.9631854
141	0xbfe60dd7	-1.7972974
142	0xbf114255	-0.5674184
143	0xbf89a692	-1.0753958
144	0xc00c5eaa	-2.1932778
145	0xbe2b282c	-0.16714543
146	0xbfab4fb6	-1.3383701
147	0xbf105fe3	-0.5639631
148	0xbf036cdf	-0.51338
149	0xbf857b12	-1.0428183
150	0xbee1eb7b	-0.4412497
151	0xbf225bcc	-0.6342132
152	0xbf3a3916	-0.72743356
153	0xbf34a685	-0.7056659
154	0xbf3b5b35	-0.73186046
155	0xbf318103	-0.6933748
156	0xbf19ad09	-0.60029656
157	0xbeb34a56	-0.3501765
158	0xc0000ce2	-2.0007863
159	0xbf1d333a	-0.6140629
160	0xbfd403ec	-1.6563697
161	0xbfdba164	-1.7158628
162	0xbefe24e9	-0.49637535
163	0xbf369f68	-0.71336985
164	0xbe427198	-0.18988645
165	0xbf9d8265	-1.2305418
166	0xbf32763d	-0.6971167
167	0xbf74d987	-0.9564442
168	0xbf0b3c11	-0.5438853
169	0xbfa63866	-1.2985961
170	0xbefc250c	-0.49247015
171	0xbf217b49	-0.63078743
172	0xbe9a68a2	-0.30157954
173	0xbf0ca682	-0.5494157
174	0xc01cc188	-2.4493122
175	0xbfd7fd1f	-1.6874121
176	0xbe54efe8	-0.20794642
177	0x400fc5c4	2.2464457
178	0xbceeec09	-0.029165285
179	0xbfeef16d	-1.8667427
180	0xbfc78857	-1.5588483
181	0xbf2dfbee	-0.6796254
182	0xbe4868fc	-0.19571298
183	0xbff02dab	-1.8763937
184	0xc0230c8e	-2.5476413
185	0xc002e7d0	-2.0453987
186	0xbfd72683	-1.6808628
187	0xc00252ef	-2.0363119
188	0xbf8ad39a	-1.0845826
189	0xc00472d8	-2.0695095
190	0xbf8b3559	-1.0875655
191	0xbfb447ae	-1.4084375
192	0xbf837f11	-1.0273153
193	0xbf81ac72	-1.0130751
194	0xbf51fef3	-0.82029647
195	0xc0089a02	-2.1344
196	0xbf30112a	-0.6877619
197	0xbf36074c	-0.71104884
198	0xbf7ea84f	-0.9947557
199	0xbf6b2d52	-0.9186603
200	0xbf3aaa61	-0.7291623
201	0xbf06de2b	-0.5268275
202	0x3e4d2d4c	0.2003681
203	0xbf8fb7e0	-1.1227989
204	0xbfb243ae	-1.3926904
205	0xc009b9b8	-2.1519604
206	0xbf529c47	-0.8226971
207	0xbe36879c	-0.17825168
208	0xbfcf5d7c	-1.6200404
209	0xbee17ca0	-0.44040394
210	0x3dc1dac3	0.094655536
211	0xbfe3c192	-1.7793448
212	0xbfdf66e4	-1.7453275
213	0xbf5974ef	-0.8494405
214	0xbda8c44f	-0.08240568
215	0xbf56c80b	-0.8389899
216	0xc011c3a8	-2.277567
217	0xbf4d812a	-0.80275214
218	0xbf3dcd4c	-0.74141383
219	0xbf1e42c8	-0.6182065
220	0xbf9536c3	-1.1657337
221	0xbf905b06	-1.1277778
222	0x3d8dc15e	0.069216475
223	0xbfadb2a8	-1.3570147
224	0xbe0f61ef	-0.14002202
225	0xbcf9a5f3	-0.030474639
226	0xbf372392	-0.7153865
227	0xbe8982a4	-0.26857483
228	0xbf09dde7	-0.5385422
229	0xbf7c90aa	-0.9865824
230	0x3d21e8b0	0.03952855
231	0xbfc5e5b3	-1.5460724
232	0xbebe57fc	-0.37176502
233	0xbfe491d6	-1.7857006
234	0xbf34ed75	-0.7067483
235	0xbfb47eae	-1.410116
236	0xbf8793b5	-1.0591952
237	0xbe9eb045	-0.30993858
238	0xbf4f8689	-0.8106466
239	0xbf8a9b52	-1.082865
240	0xbeff505e	-0.49866003
241	0xbf81f488	-1.015275
242	0xbf5a3736	-0.85240495
243	0xbf60d0eb	-0.87818784
244	0xbf190091	-0.5976649
245	0xbf94cb21	-1.162449
246	0xbf7459e8	-0.95449686
247	0xc04475cf	-3.0696905
248	0xbfcf4e5d	-1.619579
249	0xbfbbaf4e	-1.4662874
250	0x3e28048b	0.16407983
251	0xbfb84d0d	-1.4398514
252	0xbf01ac77	-0.50653785
253	0xbfb9f078	-1.452651
254	0xbfc4eb19	-1.5384246
255	0xbeb5dea5	-0.35521427

weight f4 [256, 256]
0	0x3b22d0a3	0.0024843595
1	0x3ced05c3	0.028933411
2	0x3c137b64	0.009001587
3	0xbd98f02d	-0.07467685
4	0xbd94cef1	-0.072660334
5	0xbda8b52e	-0.08237682
6	0xbd3073be	-0.04307913
7	0x3b6744aa	0.003528873
8	0x3bff7291	0.00779564
9	0xbdb12f98	-0.08651656
10	0xbd27450e	-0.04083734
11	0x3daf243b	0.08551832
12	0xbcbf5afb	-0.023358813
13	0xbd2ab992	-0.04168088
14	0xbb5255d6	-0.003209462
15	0x3ca54e6e	0.020179
16	0xbc4ee44e	-0.012627674
17	0x3db549ce	0.08851968
18	0xbd6780d2	-0.056519337
19	0x3dd0dc59	0.10198278
20	0xbddff19d	-0.10934756
21	0x3d1e875b	0.038703304
22	0xbc7c2750	-0.015390232
23	0xbd427d50	-0.04748279
24	0xbd5aa5a2	-0.053380616
25	0x3c23d284	0.009998921
26	0xbd7d0a2f	-0.06177729
27	0x3d90bd3b	0.07067343
28	0xbd27f247	-0.041002538
29	0xbd92dfd4	-0.07171598
30	0x3cb40287	0.021973861
31	0xbd9bee3a	-0.076137975
32	0xbd652b99	-0.05594978
33	0x3c886657	0.016650362
34	0x3c745ed6	0.014915189
35	0x3d50acc4	0.050946012
36	0xbcd06c78	-0.025442347
37	0x3be3df73	0.0069541275
38	0x3c3a052e	0.011353774
39	0x3ce819c9	0.028332608
40	0xbcf1e136	-0.029526334
41	0xbcbbc090	-0.02291897
42	0x3c341f10	0.010993734
43	0x3d3d3af1	0.04619879
44	0xbd7b3238	-0.06132719
45	0x3d01dfaf	0.031707462
46	0x3d889cd4	0.066705376
47	0xbcc6b099	-0.02425413
48	0xbe0685b4	-0.13136941
49	0xbd283fbe	-0.041076414
50	0xbd912052	-0.07086243
51	0xba1751f0	-0.00057724025
52	0xbc7c220f	-0.01538898
53	0xbbed9b5f	-0.0072511877
54	0x3b923cf8	0.0044628344
55	0x3d01f3ec	0.031726763
56	0xbd91ccf9	-0.071191736
57	0xbd736b3f	-0.05942845
58	0x3b2e3c88	0.0026586372
59	0xbda97867	-0.08274918
60	0xbdb629a0	-0.08894658
61	0xbd03177d	-0.032004822
62	0xbcad5d23	-0.021162575
63	0x3b517f0a	0.003196659
64	0xbd861ee0	-0.06548858
65	0xbd33817b	-0.043824654
66	0xbcf9d814	-0.030498542
67	0x3c2f2d67	0.010691977
68	0xbd54aeff	-0.0519247
69	0xbd59d4cd	-0.05318146
70	0x3cf1b79a	0.029506493
71	0xbd8d438f	-0.068976514
72	0xbc5f66d3	-0.013635355
73	0x3be8d1a9	0.0071050716
74	0xbd60a790	-0.0548473
75	0xbdaf90df	-0.08572554
76	0xbb413d51	-0.002948601
77	0xbc8d9cb5	-0.017286638
78	0xbd466a2c	-0.048441097
79	0xbda1ba06	-0.07896809
80	0x3c66e55c	0.0140927695
81	0x3c4ada65	0.012381171
82	0xbdb03e1b	-0.08605596
83	0xbd864ce8	-0.065576375
84	0xbd8968e5	-0.0670946
85	0xbcc41a22	-0.023938242
86	0x3c9de9f1	0.019276591
87	0x3d7bba84	0.061457172
88	0x3c48ffcc	0.012268018
89	0xbd4a0293	-0.04931886
90	0xbd98d1c4	-0.074618846
91	0xbd6ccdd9	-0.0578135
92	0xbdece477	-0.11567014
93	0x3cf586d1	0.029971512
94	0x3cb11965	0.021618554
95	0x3b6fc259	0.0036584346
96	0x3b054ef0	0.002034124
97	0xbc58f3b8	-0.013241701
98	0xbcfdd939	-0.030987369
99	0x3d8c2aa9	0.06844074
100	0xbd3b6bbb	-0.045757037
101	0x3cf1630c	0.029466175
102	0xbc145099	-0.009052419
103	0xbd21994f	-0.039452847
104	0x3c9e8347	0.019349707
105	0xbd5930ed	-0.053025175
106	0xbd244400	-0.040103912
107	0xbd3e05dc	-0.046392307
108	0x3d1a8de9	0.037732992
109	0xbd7c2c59	-0.06156573
110	0xbd9987d7	-0.074966125
111	0xbd024c2b	-0.03181092
112	0xbd213007	-0.039352443
113	0x3b2d167e	0.0026411111
114	0x3d1e274a	0.038611688
115	0x3d48c1ba	0.049012877
116	0xbf10df75	-0.5659097
117	0x3c9dca4c	0.019261502
118	0xbd79a13a	-0.060944773
119	0xbdb5c039	-0.08874554
120	0xbda25b87	-0.07927614
121	0x3c08c183	0.008346918
122	0xbcd7b994	-0.026333608
123	0xbc330b7e	-0.010928033
124	0xbc35fb88	-0.011107333
125	0xbbae3fd8	-0.0053176694
126	0xbd5780f7	-0.052613225
127	0xbd17872a	-0.036994137
128	0xbd922717	-0.07136362
129	0x3ca43e0c	0.020049118
130	0x3d84dc29	0.06487305
131	0xbd974e42	-0.07387973
132	0xbd4526b7	-0.048132624
133	0x3cc881ff	0.02447605
134	0x3c367e36	0.0111384895
135	0xbd17c591	-0.03705365
136	0xbc0508a1	-0.008119733
137	0x3cb5d292	0.022195134
138	0xbd1f3e0e	-0.03887754
139	0xbe31cd2c	-0.17363423
140	0x3d0c6df4	0.034284547
141	0xbd6e5712	-0.058188505
142	0xbc02bdc4	-0.007979814
143	0xbd92f1fd	-0.07175062
144	0x3bdf2795	0.0068101385
145	0xbdcb5554	-0.099283844
146	0xbd63f30d	-0.055651713
147	0x3cb4a58b	0.022051593
148	0x3a234583	0.00062283146
149	0x3c649466	0.013951397
150	0xbbf52f13	-0.0074824183
151	0xbd926668	-0.07148439
152	0xbcd23ab4	-0.025662757
153	0xbd972d53	-0.07381692
154	0xbc950fc2	-0.01819599
155	0x3d57e503	0.052708637
156	0xbcbde31a	-0.02317958
157	0xbc07b362	-0.008282514
158	0x3d1d3fe6	0.038391016
159	0xbc226e7c	-0.009914037
160	0xbcd3a337	-0.025834663
161	0x3dc54f6f	0.096342914
162	0x3db2c605	0.087291755
163	0x3c45b488	0.012066968
164	0xbe09c8da	-0.13455525
165	0xbd9872ff	-0.07443809
166	0xbd620bb2	-0.055186935
167	0x3a5c6878	0.0008407901
168	0xbceb6619	-0.028735207
169	0xbb6f3b3f	-0.003650382
170	0x3d169e97	0.036772337
171	0xbcee00ca	-0.02905311
172	0xbcfc515e	-0.030800518
173	0x3d10490e	0.03522592
174	0xbd8707ea	-0.06593306
175	0xbd11a363	-0.03555621
176	0xbdcb6fc4	-0.09933427
177	0xbcbcfe7a	-0.023070563
178	0xbdc1511d	-0.09439299
179	0x3d20c551	0.039250676
180	0x3d801607	0.062542014
181	0xbd988ac5	-0.07448343
182	0xbcb16359	-0.021653818
183	0xbcac9395	-0.021066466
184	0x3c678b17	0.014132283
185	0x3d464f34	0.048415378
186	0xbc6a6e27	-0.014308489
187	0x3ca0b100	0.01961565
188	0xbda29562	-0.07938649
189	0x3d8cc5f4	0.06873694
190	0x3a9c5c53	0.001192937
191	0xbd8ee500	-0.06977272
192	0xbf189270	-0.59598446
193	0x3ce3e3db	0.02781861
194	0x3d0310ae	0.03199833
195	0xbd1e00d0	-0.038574994
196	0xbd756001	-0.05990601
197	0xbd4dc114	-0.05023296
198	0x3cf5dc29	0.030012207
199	0x3cb7bff5	0.0224304
200	0xbbb69ca3	-0.005572872
201	0xbd990612	-0.07471861
202	0xbe1551a3	-0.14581923
203	0x3d0ea566	0.034825705
204	0xbc6cedc8	-0.014460988
205	0xbc8481bf	-0.016175149
206	0xbe0825b2	-0.1329563
207	0xbd97713a	-0.07394643
208	0xbd4ced1c	-0.050030813
209	0x3bd96920	0.0066348463
210	0xbcccf4ab	-0.02501901
211	0xbdc66e1e	-0.09688972
212	0xbd13e9b1	-0.036111537
213	0xbd885e4d	-0.066586114
214	0x3c1d0a90	0.009585038
215	0xbe7ea43b	-0.24867336
216	0xbd9b50f7	-0.07583802
217	0x3cb7f9f6	0.022458058
218	0x3d3bae45	0.045820493
219	0x3d1a87ef	0.037727293
220	0xbcb70681	-0.022341968
221	0xbd613f3d	-0.05499195
222	0xbd8cfbf0	-0.06883991
223	0x3c69ece8	0.014277674
224	0xbe0bc340	-0.136487
225	0xbdb6e156	-0.08929698
226	0x3d0b46b9	0.034002993
227	0xbd57d10b	-0.052689593
228	0x3d90ce4a	0.070705965
229	0xbd13cb53	-0.036082577
230	0xbd88b46a	-0.06675036
231	0xbb3b7648	-0.0028604437
232	0x3c83fbf5	0.016111353
233	0xbd91b695	-0.07114903
234	0xbd9d8838	-0.07691997
235	0x3cbb427a	0.022858847
236	0xbcb2cf3e	-0.021827336
237	0x3d3c1f66	0.04592838
238	0x3cd0161d	0.02540117
239	0x3ca90b5a	0.020635296
240	0xbb9cf76e	-0.004790238
241	0xbd965aa0	-0.07341504
242	0xbd3f70b8	-0.046738356
243	0xbd921fd8	-0.0713498
244	0xbd5fda39	-0.054651473
245	0xbcd1bbb1	-0.025602194
246	0x3d7badeb	0.061445158
247	0x390d3337	0.00013465887
248	0xbd6d5a31	-0.05794734
249	0xbcdfd2e2	-0.027322236
250	0xbd9992b1	-0.07498682
251	0x3b7e8b4b	0.003884035
252	0xbd8e4460	-0.06946635
253	0x3cb74c79	0.022375332
254	0x3ce4c0c5	0.02792395
255	0x3d70696e	0.058694296

bias f4 [256]
0	0xbd9ddab2	-0.077077284
1	0xbf1df68d	-0.6170433
2	0xbe994f27	-0.299432
3	0xbd5529af	-0.052041706
4	0xbe10d623	-0.14144187
5	0xbdfc00d4	-0.123048455
6	0xbd58cc66	-0.052929305
7	0xbdf4d532	-0.11954726
8	0x3a42fa53	0.0007437814
9	0xbe5e9f63	-0.21740489
10	0xbd358732	-0.044318385
11	0xbdd359c9	-0.103198595
12	0xbda1c29f	-0.07898449
13	0xbd0ef289	-0.03489927
14	0xbfb9bc0f	-1.4510516
15	0x3c3a0dc2	0.011355819
16	0xbd708dda	-0.05872903
17	0xbd8a4f25	-0.06753377
18	0xbddb811d	-0.10717986
19	0xbe00bf82	-0.12573054
20	0xbc6a1cf7	-0.014289132
21	0xbfcc91e2	-1.598202
22	0x3c4b5cbf	0.012412249
23	0xbf323c99	-0.69623715
24	0xbdeff8c1	-0.11717368
25	0xbe31846b	-0.1733567
26	0xbcad5995	-0.02116088
27	0xbd6657cf	-0.056236085
28	0xbebdd711	-0.37078145
29	0xbf407803	-0.75183123
30	0xbcff2ae2	-0.031148378
31	0xbe0105d8	-0.12599885
32	0xbd02bd13	-0.031918596
33	0xbfba38fa	-1.4548638
34	0x3e50b2c7	0.20380698
35	0xbd5906a6	-0.052984856
36	0xbd115303	-0.035479557
37	0xbf545ba0	-0.8295231
38	0xbdc5893b	-0.09645315
39	0x3f599850	0.84998035
40	0x3f7d1b0c	0.98869395
41	0xbe2a5123	-0.16632514
42	0xbcffbe40	-0.031218648
43	0xbc4076d2	-0.011747079
44	0xbeadd845	-0.33954063
45	0xbd19f206	-0.037584327
46	0xbd3a7ced	-0.045529295
47	0xbd9d958d	-0.0769454
48	0xbd973709	-0.07383544
49	0x3f57ceae	0.84299743
50	0xbd331a66	-0.043726347
51	0xbd968016	-0.07348649
52	0xbdbcdcb0	-0.0922178
53	0x3f3abb4d	0.7294205
54	0xbdc57a2e	-0.096424446
55	0xbc8bd9d7	-0.017071648
56	0xbf115177	-0.5676493
57	0xbaaabe58	-0.0013026698
58	0xbf0be1df	-0.54641527
59	0x3dd18596	0.102305576
60	0xbee7127f	-0.451313
61	0xbd928eaf	-0.07156121
62	0xbd2f3828	-0.042778164
63	0xbd0c9d5d	-0.03432976
64	0x3f42013c	0.75783134
65	0xbd40c3a5	-0.04706158
66	0xbe8871df	-0.26649377
67	0xbd12f12a	-0.035874523
68	0xbdc12517	-0.094309025
69	0xbf11b1b5	-0.56911784
70	0xbdffc5d4	-0.124889046
71	0x3e847b45	0.25875297
72	0xbdbe3f68	-0.092894375
73	0xbd903021	-0.0704043
74	0xbce4db66	-0.027936649
75	0x3f9e643f	1.2374343
76	0xbe855a07	-0.26045248
77	0xbbf31f9e	-0.0074195405
78	0xbdf6df22	-0.12054278
79	0xbf5ccab3	-0.86246794
80	0xbdb9b169	-0.090670414
81	0xbdb274b2	-0.08713664
82	0xbe4a3604	-0.19747168
83	0xbb66ebc1	-0.0035235735
84	0xbd5df989	-0.054193053
85	0x3e26f888	0.16305745
86	0xbd89d091	-0.06729234
87	0xbe2cdcb2	-0.16881064
88	0xbe0006e8	-0.12502635
89	0xbbe1f49d	-0.0068956153
90	0xbbc05c9a	-0.005870414
91	0xbeb69ef5	-0.3566815
92	0xbe6d84d7	-0.23195206
93	0xbcc8b93b	-0.024502387
94	0xbda7ea26	-0.08198957
95	0xc00c5cab	-2.193156
96	0xbe858378	-0.26076865
97	0xbde58cc9	-0.11208493
98	0x3f8db40d	1.1070572
99	0xbcbd8ece	-0.023139384
100	0xbf542060	-0.828619
101	0xbcb8c6a9	-0.022555666
102	0x3e68ce0b	0.22734849
103	0xbe5338c5	-0.20627125
104	0xbe0916f0	-0.13387656
105	0xbdb169a5	-0.08662728
106	0xbfdee4ae	-1.7413538
107	0xbf4cf9e8	-0.80068827
108	0xbf9feffa	-1.249511
109	0xbf8ff9ce	-1.1248109
110	0xbd14a4af	-0.036289867
111	0xbd4924e2	-0.04910744
112	0xbfbb5eeb	-1.4638342
113	0xbe65dc2f	-0.22447275
114	0x3a618343	0.00086026284
115	0x3dae5ac1	0.08513404
116	0xbc2324e5	-0.009957527
117	0xbe17df3d	-0.14831252
118	0xbc5e9ebd	-0.013587651
119	0x3e8fab5e	0.2806043
120	0xbdbd7968	-0.09251672
121	0xbdde0267	-0.10840302
122	0xbd88a35a	-0.06671782
123	0xbec6026f	-0.38673732
124	0xbd496a8f	-0.049173888
125	0xbe046a21	-0.1293111
126	0xbda07e5f	-0.078366034
127	0xbca39027	-0.019966198
128	0xbe03de1d	-0.12877698
129	0xbd4ea9f2	-0.05045504
130	0xbd88a72a	-0.06672509
131	0x3f580892	0.8438808
132	0xbd2659a3	-0.040612828
133	0xbe4b3f1d	-0.19848295
134	0xbcf3b434	-0.029749013
135	0xbdc6f4bb	-0.097146474
136	0xbd9d557a	-0.07682319
137	0xbdd24615	-0.10267273
138	0x3d119c87	0.035549667
139	0xbd89ac35	-0.06722299
140	0xbcfbd888	-0.030742899
141	0xbe854880	-0.26031876
142	0xbc36d914	-0.011160154
143	0xbdd29df5	-0.10284034
144	0xbcd1a69f	-0.025592146
145	0x3aca7cd1	0.0015448575
146	0xbd9877ef	-0.074447505
147	0xbd33f99d	-0.04393922
148	0xbd3a0de7	-0.045423415
149	0xbdd16b22	-0.10225512
150	0xbcd73f46	-0.026275288
151	0xbd6a5d7a	-0.057218052
152	0xbde35f4f	-0.11102163
153	0xbcd1ee4c	-0.025626324
154	0x3f9a9c54	1.2078958
155	0xbe4b7f5e	-0.19872805
156	0xbde18f1c	-0.11013624
157	0xbde99be3	-0.11406686
158	0xbdd1bd77	-0.10241216
159	0xbd7b9814	-0.06142433
160	0xbdc2bf05	-0.0950909
161	0xbb995d15	-0.0046802857
162	0x3e06e19c	0.13172
163	0x3e83c787	0.25738165
164	0xbd5b6b80	-0.053569317
165	0xbd864e3b	-0.0655789
166	0xbd6141ce	-0.054994397
167	0xbdd66757	-0.10468929
168	0x3c9c854a	0.019106526
169	0x3e678ef5	0.22613128
170	0xbde5ca72	-0.11220254
171	0x3ec6863b	0.38774285
172	0xc003138e	-2.0480685
173	0xbd8aae0e	-0.067714795
174	0xbd8131c1	-0.06308318
175	0xbdb7d734	-0.089765936
176	0xbdb1d9b1	-0.086840995
177	0xbf00e24c	-0.503453
178	0xbd8130d4	-0.06308141
179	0x3f19fa54	0.60147595
180	0xbd06ebb2	-0.03293962
181	0xbd1545bd	-0.03644346
182	0xbba563d7	-0.005047302
183	0xbe2a6be5	-0.16642721
184	0xbf42ff41	-0.76170737
185	0xbe854cb5	-0.26035085
186	0x3e40d115	0.18829758
187	0xbdedff6e	-0.11620985
188	0xbd815045	-0.06314138
189	0xbdd4af1e	-0.103849635
190	0xbe58170e	-0.21102545
191	0xbf79315d	-0.9734095
192	0xbf2cd32b	-0.67509717
193	0x3fd5a749	1.6691676
194	0xbcf30a75	-0.029668072
195	0xbd9aaaec	-0.07552132
196	0xbe07e8e5	-0.13272436
197	0xbcb9e205	-0.022690782
198	0x3ecc0f9c	0.3985566
199	0xbd88c98e	-0.066790685
200	0xbd3242e4	-0.043520823
201	0xbd01f4a5	-0.03172745
202	0xbe5326ef	-0.2062032
203	0xbdbe801a	-0.09301777
204	0xbd94cd3c	-0.07265708
205	0xbdb9013d	-0.09033439
206	0xbf47ef2d	-0.7809933
207	0xbd26e427	-0.040744927
208	0xbc8bd03f	-0.017067073
209	0xbe3ac566	-0.18239364
210	0xc015899d	-2.3365242
211	0xbce7007b	-0.028198471
212	0x3dfe8c17	0.12429064
213	0xbd82d220	-0.063877344
214	0xbd4d4aa0	-0.050119996
215	0xbd872e81	-0.06600667
216	0x3d459700	0.048239708
217	0xbe257af8	-0.1616019
218	0xbdb44f47	-0.088041835
219	0xbea7a000	-0.32739258
220	0x3e659b50	0.22422528
221	0xbdd3929f	-0.103307
222	0xbca4ec6a	-0.020132262
223	0xbd879418	-0.066200435
224	0xbd97fb30	-0.07420957
225	0xbe00b051	-0.1256726
226	0xbf96ba49	-1.17756
227	0xbd1e1bb6	-0.038600646
228	0xbdca2143	-0.098696254
229	0x3eb69794	0.3566252
230	0xbd6248af	-0.055245098
231	0x3f4f3c4c	0.8095138
232	0xbe89a954	-0.26887
233	0xbec9c45d	-0.39407626
234	0xbdd5f36e	-0.10446821
235	0xbfec9c4e	-1.84852
236	0xc0351602	-2.8294683
237	0xbb80747a	-0.003920135
238	0xbd22085e	-0.03955876
239	0xbc94f3f4	-0.018182732
240	0xbd0e2b7b	-0.034709435
241	0xbe0e7fb6	-0.13915905
242	0xbfbcc37c	-1.4747157
243	0xbd212cd6	-0.0393494
244	0xbdfd3ed5	-0.123655
245	0xbe622915	-0.22085984
246	0xbdef4d6b	-0.11684688
247	0xbebf2123	-0.3732997
248	0xbdc7db67	-0.097586446
249	0xbf55b6c3	-0.83482
250	0xc01b92b5	-2.4308293
251	0xbdc40ea6	-0.095731065
252	0x3e23a08c	0.15979213
253	0xbdc579db	-0.09642383
254	0xbd95db48	-0.07317215
255	0xbdc7acbe	-0.09749745

weight f4 [1, 256]
0	0xbc20c298	-0.00981202
1	0xbfb5128e	-1.4146287
2	0xbd7c97bc	-0.061668143
3	0x3aa8ef10	0.0012888629
4	0x398fb142	0.00027407153
5	0x3df3db93	0.11907115
6	0x3c6bbb0a	0.014387855
7	0x3feda1f8	1.8565054
8	0x3cb1ce60	0.021704853
9	0x41bb8361	23.43915
10	0x3c8050dc	0.015663557
11	0xbcbb225d	-0.022843534
12	0xbd160c4c	-0.03663282
13	0xbaecdfb6	-0.0018072042
14	0x3e198b0d	0.1499445
15	0x3a6c0710	0.0009003738
16	0xbce28cd5	-0.027655045
17	0x3b0b9e78	0.0021304172
18	0x3b360094	0.002777134
19	0x3bcaaac6	0.0061849086
20	0xbcf7901c	-0.030220084
21	0x3df4362d	0.11924396
22	0xbd169006	-0.036758445
23	0x3efedcb3	0.49777755
24	0xbc6f896b	-0.014620165
25	0xbc41a0c3	-0.011818114
26	0xbbbfb723	-0.005850689
27	0xbd01493b	-0.03156398
28	0x41b56971	22.676485
29	0x408fe2c6	4.4964323
30	0xbc3d0b4c	-0.011538338
31	0xbc95cccb	-0.01828613
32	0xbd01eafd	-0.031718243
33	0x407b0a2a	3.9224954
34	0xbeb0fdd5	-0.34568658
35	0x3d1213bc	0.03566335
36	0xbc5796ad	-0.0131584825
37	0x3dc34af1	0.09535778
38	0xbcdfeb1c	-0.027333789
39	0x3d58e1ed	0.052949835
40	0x3d88db95	0.06682507
41	0x3f7fd02f	0.9992704
42	0x3bacf67d	0.005278407
43	0x3bb4d0a4	0.005518036
44	0x41067deb	8.405742
45	0xbcdbf624	-0.026850767
46	0x3e447942	0.19186881
47	0x3c99cb41	0.018773677
48	0x3bfabe59	0.0076520857
49	0x3fa8aafc	1.317718
50	0xbc7b0e76	-0.015323272
51	0xbc35ee91	-0.011104242
52	0xbc860c11	-0.016363176
53	0x4158d9d0	13.553177
54	0x3c42262a	0.011849919
55	0x3c4d64ef	0.0125362715
56	0x3ea6dd0c	0.3259052
57	0x3c01cf4c	0.007922959
58	0x3e119182	0.14215663
59	0x3f787705	0.9705661
60	0x3ba58425	0.0050511532
61	0x3ca6e25c	0.020371608
62	0xbcb5a550	-0.022173554
63	0xbcc5cefe	-0.024146553
64	0x3d96a13f	0.07354974
65	0x3c0a2d67	0.008433676
66	0xbe82acc9	-0.2552245
67	0x3ceb53a5	0.028726408
68	0xbce733c4	-0.028222926
69	0xc1c64b96	-24.786907
70	0x3d0ac30d	0.03387742
71	0xbf638801	-0.888794
72	0x3c162247	0.009163446
73	0x3c62067e	0.013795493
74	0x3923ee48	0.00015633658
75	0x3eda6788	0.42657113
76	0x3cc32f43	0.023826247
77	0x3c078523	0.008271488
78	0xbcabdd63	-0.020979589
79	0xbe34d377	-0.17658792
80	0xbcdc616f	-0.026901929
81	0x3b84c2c1	0.004051537
82	0xbc090c15	-0.008364697
83	0x3bd38fd4	0.0064563546
84	0xbbbb88b7	-0.005723085
85	0x3def75b5	0.11692373
86	0x3c76f4c3	0.015073004
87	0xbca9c4ab	-0.020723661
88	0x4032443e	2.7854152
89	0xbca7b657	-0.020472689
90	0x3ca29453	0.019846117
91	0x4107e895	8.494283
92	0x3cce925a	0.02521627
93	0x3ccf6915	0.025318662
94	0x3be92ab7	0.0071156877
95	0xc096382b	-4.6943564
96	0xbc68e11a	-0.014213825
97	0xbc6bc7c7	-0.014390892
98	0xbddc0885	-0.107438125
99	0xbcff6be2	-0.031179372
100	0xc1506a42	-13.025942
101	0xba2f08c5	-0.0006677027
102	0x3f3b0e13	0.7306835
103	0xbbf07f23	-0.0073393746
104	0x3c465095	0.012104173
105	0x3c44f552	0.01202138
106	0x3d924ec7	0.07143932
107	0xbe3665d5	-0.17812283
108	0xc165e63b	-14.368709
109	0x3cad7900	0.021175861
110	0xbc563d7e	-0.013076184
111	0xbce43c80	-0.02786088
112	0xbfeea1df	-1.8643149
113	0x3b8659e9	0.0041000736
114	0xbbb6509b	-0.005563808
115	0x4208ff47	34.249294
116	0xbc3bd4f4	-0.011464346
117	0x3f81bf6b	1.0136541
118	0xbce8da6a	-0.02842446
119	0x3e6a9715	0.22909196
120	0xbc30b62e	-0.0107856225
121	0xba9e7997	-0.001209068
122	0xbcc8cccb	-0.024511715
123	0x4081e31f	4.0589747
124	0xbc36fb7c	-0.011168357
125	0xbcb2513b	-0.02176725
126	0xbc12bf2b	-0.008956711
127	0x3ca89692	0.02057961
128	0xb99db08b	-0.00030076908
129	0x3c991590	0.01868704
130	0xbd317216	-0.04332169
131	0xbd8fd248	-0.0702253
132	0xbb69dee4	-0.0035685832
133	0x3a69a8fd	0.0008913426
134	0xbcd6adb8	-0.026205882
135	0xbc85aa6b	-0.016316613
136	0x3c818e71	0.015814992
137	0x3e0977ce	0.13424608
138	0xbe9da0ee	-0.30786842
139	0x3c9a83af	0.01886162
140	0x3cd6cb19	0.026219891
141	0x418b9f77	17.452864
142	0x3cba31da	0.02272885
143	0xbc8c12c2	-0.017098788
144	0xbd0a67ed	-0.033790518
145	0x3c482488	0.012215741
146	0xbcda9870	-0.026684016
147	0xbceb621b	-0.028733304
148	0xbd0b65e1	-0.034032706
149	0xbc8ed607	-0.01743604
150	0xbba7bd76	-0.005119021
151	0xbc2deb82	-0.0106152315
152	0x3c5302da	0.012879098
153	0xbcfdabc2	-0.03096569
154	0x3d1f5ba5	0.03890576
155	0x3cd6bf55	0.026214281
156	0xbcdd6845	-0.027027259
157	0x3c40826b	0.011749844
158	0xbc587bbc	-0.013213094
159	0x3d00acce	0.0314148
160	0xbcaecfa2	-0.021339241
161	0xbd0e280c	-0.03470616
162	0x3f2770fe	0.6540679
163	0x3da5fcab	0.08104833
164	0xbc7adb1d	-0.01531103
165	0x3c94fb28	0.018186167
166	0x3bc5ebc6	0.0060400693
167	0x3981c665	0.00024752613
168	0x3c98b8d6	0.018642824
169	0x3d0adf23	0.033904206
170	0x3bfd2712	0.007725605
171	0xbd91069f	-0.07081341
172	0x411be9d0	9.744583
173	0x3cc42e42	0.023947839
174	0xbc76c61b	-0.01506188
175	0x3ca5a8e5	0.020222137
176	0xbc581842	-0.013189377
177	0x419e41cc	19.782127
178	0x3c3c5fc6	0.011497444
179	0xbda1349b	-0.07871362
180	0x3cc5208d	0.024063373
181	0xbba4d6e5	-0.0050305002
182	0xbcddcf35	-0.027076343
183	0xbcb819ac	-0.022473179
184	0xbcfe053d	-0.031008357
185	0x3caead94	0.021323003
186	0x3e8e2b55	0.27767435
187	0xbc95656e	-0.018236842
188	0xbc21d97a	-0.009878511
189	0x3c090f1b	0.008365418
190	0x3c94a1ab	0.018143496
191	0x3f6e93c1	0.93194205
192	0x4013cae7	2.3092592
193	0x3d4659d2	0.048425503
194	0xbca28089	-0.019836681
195	0x3ed69e83	0.4191781
196	0xbc3437b7	-0.010999612
197	0x3b3fc653	0.0029262498
198	0x3d3785d9	0.04480538
199	0x3cca238b	0.024675151
200	0xbc051799	-0.008123302
201	0x3b450bf7	0.0030066946
202	0xbcaa1156	-0.02076022
203	0x3cd8fab0	0.026486725
204	0x3cf6d356	0.03013007
205	0xbb8d969b	-0.004320932
206	0x4083a67e	4.1140738
207	0x3da30c26	0.079613015
208	0x3afbd00e	0.0019211785
209	0x3c8c87ce	0.0171546
210	0x3ef5fae2	0.4804297
211	0xbc8cfc28	-0.017210081
212	0xbd9404aa	-0.07227452
213	0xbc69659d	-0.014245418
214	0xbb7f2bd2	-0.003893603
215	0x3cdf3141	0.027245166
216	0x414a37fa	12.638666
217	0xbe9e975a	-0.30974847
218	0xbd1f4d75	-0.03889223
219	0x3f876e9c	1.058063
220	0x3e2b2ca4	0.16716248
221	0xbcc96a67	-0.02458687
222	0xbb79ce6a	-0.0038117417
223	0x3bf20e59	0.0073869643
224	0x3a26b89b	0.0006359906
225	0x3cc77dbe	0.02435195
226	0xbf2f94de	-0.6858653
227	0xbcbf2d4f	-0.023337035
228	0x3c01edaa	0.007930199
229	0x3e458d06	0.19292077
230	0x3c5bc312	0.013413208
231	0x3d477393	0.048694205
232	0xbd8fecf6	-0.070276186
233	0xc10dd7a6	-8.865149
234	0xbcee6239	-0.02909957
235	0xc01de567	-2.4671266
236	0x3d48a25b	0.04898296
237	0x3c570556	0.013123831
238	0xbb844b2c	-0.0040372815
239	0xba30ac83	-0.00067395734
240	0xba0e50a6	-0.00054288877
241	0x3c41331f	0.011791973
242	0x3e08f4fa	0.13374701
243	0x3e0e1c47	0.13877974
244	0x3b54c601	0.0032466652
245	0x3d014b6c	0.03156607
246	0x3c892c9d	0.016744906
247	0x3fef627c	1.870193
248	0xbb51252a	-0.003191302
249	0x3f136626	0.5757774
250	0x3f9d15fa	1.2272332
251	0x3cab2a0f	0.020894079
252	0x3d248971	0.040170137
253	0x3c7eac94	0.0155440755
254	0x3c84d2b6	0.016213756
255	0xbc0892d5	-0.008335789

weight f4 [256, 12]
0	0x4051e68f	3.2796972
1	0xc198f3e0	-19.11908
2	0xc149ad21	-12.604768
3	0xc02a7381	-2.6632998
4	0xc006ad70	-2.1043358
5	0xbfd97c9b	-1.6991152
6	0x3dedcb63	0.116110586
7	0xbe2eb71f	-0.17062043
8	0x3fb9ea8b	1.4524702
9	0x3e713b58	0.23557794
10	0xbe2c8896	-0.16848978
11	0x3f5b2008	0.8559575
12	0xbeb76da2	-0.3582583
13	0xc11f6bb8	-9.9637985
14	0x409fa93d	4.989409
15	0x4067cb67	3.6217897
16	0x4039d0ce	2.9033694
17	0x3e24b809	0.16085829
18	0xbf115f94	-0.56786466
19	0x3cd87ea2	0.02642757
20	0x40040206	2.0626235
21	0x3b98d500	0.0046640635
22	0x3e42b662	0.19014886
23	0xc01605ae	-2.3440967
24	0x3f029d25	0.51021034
25	0xc0472022	-3.1113362
26	0xc1805501	-16.041506
27	0xbd3fa960	-0.046792388
28	0x3d18044f	0.037113484
29	0xbe6569c5	-0.22403629
30	0xbfca4ccc	-1.5804687
31	0xbfb65031	-1.4243222
32	0xbdd4f5b8	-0.1039843
33	0x3e650570	0.22365355
34	0x3e8a82e6	0.27052993
35	0x3ee535f6	0.4476773
36	0xbf1cc3cf	-0.6123628
37	0xc1392969	-11.57261
38	0xc099eea1	-4.8103795
39	0x3c85c4e0	0.016329229
40	0x3d30e3fc	0.043186173
41	0xbeb106fa	-0.34575635
42	0x3e2bc3ce	0.16773912
43	0x3f07a845	0.52991134
44	0xbea810d0	-0.32825327
45	0xbdcf9802	-0.10136415
46	0xbe4609cb	-0.19339673
47	0x4043bf0c	3.0585356
48	0x3f135bd4	0.57561994
49	0x40ec5591	7.385445
50	0x40cef942	6.467927
51	0xbfc2f04a	-1.522958
52	0xbe897fe6	-0.2685539
53	0x3e3d470c	0.18484133
54	0x3fce11d9	1.6099197
55	0x3f8410d2	1.0317633
56	0x3ea3a099	0.31958464
57	0xbe8cdfec	-0.2751459
58	0xbe020849	-0.12698473
59	0xbf5b209f	-0.8559665
60	0xc0185b4d	-2.3805726
61	0xbf6a4c92	-0.9152309
62	0xc03393d9	-2.805899
63	0xbf7c2bc3	-0.98504275
64	0xbf89017f	-1.0703582
65	0xbf180648	-0.59384584
66	0xc00290a1	-2.0400774
67	0xbfad91c3	-1.3560108
68	0xbea96ab6	-0.33089226
69	0xbe9104fc	-0.28324115
70	0xbe83a752	-0.25713593
71	0xbf3aade0	-0.7292156
72	0xbd9d3682	-0.07676412
73	0xc0af7375	-5.482844
74	0xc0fc1b79	-7.8783536
75	0x3e91fbca	0.28512412
76	0x3e6d0039	0.23144616
77	0xbfa0e593	-1.257006
78	0xbfb2229c	-1.3916812
79	0xc07305df	-3.7972333
80	0x3e2b14e9	0.16707195
81	0x3d711430	0.058857143
82	0xbe2c8f58	-0.16851556
83	0x3e85f9a0	0.2616701
84	0xbee0c61e	-0.4390115
85	0x40988883	4.766664
86	0xc12b0963	-10.689792
87	0xbf73be1e	-0.9521197
88	0xc01c54e6	-2.4426818
89	0xbe829f8e	-0.25512356
90	0xbe9215e6	-0.28532332
91	0xbf790109	-0.97267205
92	0x3dc630c0	0.09677267
93	0x3d643a80	0.055719852
94	0xbe87876d	-0.2647051
95	0xbfc643a5	-1.5489393
96	0x3fdefa3a	1.7420113
97	0x40b70c7d	5.7202744
98	0x41028241	8.1568
99	0xbf7df246	-0.99197805
100	0x3f7581cf	0.959012
101	0x3fa6299e	1.298145
102	0x3fef4cdc	1.8695331
103	0x3f8c76b7	1.0973729
104	0x3e1a2326	0.1505247
105	0x3ce7fc00	0.028318405
106	0xbd9cd080	-0.07656956
107	0x3ef5d429	0.48013428
108	0x3e8ad37a	0.2711447
109	0xc11d1b18	-9.819115
110	0x41074c42	8.456118
111	0xbfb61fc2	-1.4228442
112	0xc00fb0c4	-2.245164
113	0x3e425267	0.18976746
114	0x3eefa9ed	0.4680933
115	0x3fa14aaa	1.2600911
116	0xbe39d2f9	-0.18146886
117	0xbcfb7110	-0.03069356
118	0x3e09f7b6	0.134734
119	0x4053a82c	3.3071394
120	0x3e238f09	0.15972532
121	0xc0f697fa	-7.706052
122	0x40ff1b79	7.9721036
123	0xbf324825	-0.69641334
124	0xc045792b	-3.0855205
125	0x3ced5329	0.028970318
126	0xbe05bb8d	-0.13059826
127	0x3f242bc8	0.64129305
128	0x3e5ada97	0.21372448
129	0x3bb107c0	0.005402535
130	0xbe280329	-0.16407456
131	0x3fbffb93	1.4998649
132	0x40edab3a	7.4271517
133	0x3fa35277	1.2759541
134	0xbfd4520f	-1.6587542
135	0xbfe7616f	-1.8076609
136	0xbfea1d74	-1.8290238
137	0x3f4b6391	0.794488
138	0x3dfbaf7d	0.12289331
139	0xbb71fcd4	-0.003692438
140	0x3d4978e4	0.049187556
141	0xbcfc57c0	-0.030803561
142	0x3e6703d0	0.22560048
143	0x3f9a2ef3	1.2045578
144	0x3d87785f	0.06614756
145	0x413c7319	11.7781
146	0xc10d6d5a	-8.839197
147	0xc03f0f4e	-2.9853091
148	0xbfb6e709	-1.4289256
149	0xbedb0071	-0.42773774
150	0x402528e3	2.5806205
151	0x3cf3a2eb	0.029740771
152	0x4008ff78	2.1405926
153	0x3d3c8788	0.04602769
154	0x3db3c3cc	0.0877758
155	0x40ec9e1a	7.3942995
156	0xbdae165a	-0.08500357
157	0x40dd4711	6.914925
158	0xbfd05124	-1.6274762
159	0xbf40c181	-0.75295264
160	0xc015f3fe	-2.343017
161	0x3fe0fac7	1.7576531
162	0xbff46dc7	-1.9096001
163	0xbfab6b7e	-1.3392179
164	0xbf498271	-0.7871466
165	0xbe6c8a62	-0.23099664
166	0x3e2e4ab8	0.1702069
167	0xc10d861d	-8.8452425
168	0xbee95858	-0.45575213
169	0xc09b56d2	-4.854348
170	0xc0de8450	-6.9536514
171	0xbf3745f3	-0.7159111
172	0xbf4e680d	-0.8062752
173	0xbe07d756	-0.13265738
174	0xbfece6fe	-1.8507993
175	0xbfb2c6ae	-1.3966882
176	0xbecf84db	-0.40531048
177	0x3e8ae7d0	0.27129984
178	0xbdbb5ccc	-0.09148559
179	0x3d091137	0.033463683
180	0xbdca8e49	-0.0989042
181	0x4124f1a6	10.308996
182	0xc0492bae	-3.143291
183	0xbff31cd5	-1.8993174
184	0xc0160f19	-2.3446715
185	0x3d4b6156	0.049653374
186	0x3f29d98e	0.6634759
187	0xbf3992c0	-0.7248955
188	0xbee5b6ac	-0.4486593
189	0xbd8395f4	-0.06425086
190	0x3dabbd98	0.083857715
191	0xc0bbee10	-5.8728104
192	0xbf383a85	-0.71964294
193	0x3fc767d0	1.5578556
194	0xc16d049b	-14.813624
195	0xbdaa9569	-0.08329279
196	0x3e37f3c3	0.17964081
197	0xbbbed1dd	-0.0058233575
198	0xbfaeb7d6	-1.3649852
199	0xbfc5dac3	-1.5457386
200	0x3e344aa1	0.17606594
201	0xbddbdda4	-0.10735634
202	0xbe501d50	-0.20323682
203	0x3f8c195d	1.094524
204	0x3f79a6c1	0.9752007
205	0xbeabf207	-0.3358309
206	0x416b9198	14.723045
207	0xbf856a5c	-1.0423083
208	0xc04513ac	-3.0793257
209	0x3ebec14e	0.37256855
210	0x3fa8a92f	1.3176631
211	0x3fd951cb	1.6978086
212	0x3f70e07f	0.94092554
213	0x3e80d172	0.25159794
214	0x3d14e798	0.036353678
215	0x3e0f829a	0.14014664
216	0xbf944d1f	-1.1586035
217	0xbe931052	-0.2872339
218	0xc13c8c72	-11.784288
219	0xbe1d5424	-0.15364128
220	0xc00c2318	-2.189642
221	0xbf3b276a	-0.73107016
222	0xbf8f4ca8	-1.1195269
223	0xbf91f672	-1.1403334
224	0xbf1be07a	-0.608894
225	0xbc5ea1e0	-0.013588399
226	0xbe85ab7b	-0.26107392
227	0xbf7bf31d	-0.98417836
228	0xbfe38da5	-1.7777601
229	0x40c7e954	6.2472324
230	0x419c84ee	19.564907
231	0xbf4a67ff	-0.79064935
232	0xbe9fd418	-0.31216502
233	0xbe317b8f	-0.1733229
234	0x3fd7084e	1.6799409
235	0x3fd137e9	1.6345187
236	0x3f16334d	0.5867203
237	0x3d923968	0.071398556
238	0xbdccaa44	-0.09993413
239	0xbeeefa03	-0.4667512
240	0xbf1fe9b9	-0.6246601
241	0x415a799c	13.65469
242	0x3f2e715f	0.6814174
243	0xbf8840a5	-1.0644728
244	0xbf0236e7	-0.50865024
245	0xbee3af3d	-0.44469634
246	0xbf476257	-0.7788443
247	0xbe9b676d	-0.30352345
248	0xbf2fb166	-0.68630064
249	0x3e717b70	0.23582244
250	0x3d3f23e8	0.046665102
251	0xc0af6b01	-5.481812
252	0x4004ffe0	2.0781174
253	0xbf9dae76	-1.2318866
254	0xc0d8c7b0	-6.774376
255	0x3f85ad5a	1.0443528

bias f4 [256]
0	0xc0218d7c	-2.5242605
1	0x4023f850	2.5620308
2	0xbd787d88	-0.06066659
3	0x3d33f322	0.04393304
4	0xc025da5c	-2.5914526
5	0xc0015d65	-2.0213253
6	0xbe2a5a4d	-0.1663601
7	0xbfe94922	-1.8225443
8	0xbf984150	-1.1894932
9	0xbf8d70ab	-1.1050009
10	0xc00eefad	-2.2333786
11	0xc04b656e	-3.1780658
12	0xbff5a3b6	-1.9190586
13	0xc02182aa	-2.5236
14	0xc03d79a1	-2.9605486
15	0xc017b1e2	-2.370232
16	0x3d49ec13	0.049297404
17	0xc005c665	-2.090234
18	0xbfa45eb2	-1.2841399
19	0xbfa6553c	-1.2994761
20	0x3effb6d6	0.4994418
21	0x3f7756f0	0.9661703
22	0x3f89be75	1.0761248
23	0xbf7c5bc3	-0.9857752
24	0xbff44171	-1.9082471
25	0xc00ad4d3	-2.1692398
26	0xc01c526a	-2.4425302
27	0xbf90b042	-1.130379
28	0xc02869a1	-2.631447
29	0x405e3ed3	3.4725845
30	0xbfce0e2a	-1.6098073
31	0x3d35735a	0.04429946
32	0xbee93e52	-0.4555536
33	0xc015ee3c	-2.3426657
34	0xc0017c59	-2.0232146
35	0xc02b4f58	-2.6767178
36	0xc0465ea0	-3.0995255
37	0x3ea2d8a5	0.31805912
38	0xbfac08ce	-1.3440187
39	0x400e1d9b	2.220557
40	0xbfed103a	-1.8520577
41	0x3fdbc8c7	1.7170647
42	0xbf6332ad	-0.887492
43	0xbfe8d735	-1.8190676
44	0x3f0f512f	0.5598325
45	0xbf807492	-1.0035574
46	0xbfae2c9e	-1.3607366
47	0xbe886ad9	-0.26644018
48	0x3b4d5dd2	0.003133644
49	0xc04a7170	-3.1631737
50	0xbefb5204	-0.4908601
51	0xbf8529a5	-1.0403334
52	0xc04cc793	-3.199681
53	0xbf614540	-0.8799629
54	0xbfa24a8b	-1.2678999
55	0xbff6b05e	-1.9272573
56	0xc035aa8d	-2.8385346
57	0x3fd74cfa	1.6820366
58	0xbf6a6357	-0.9155783
59	0xbfa1c106	-1.2637031
60	0xc00f4a2c	-2.238902
61	0xbfdd4498	-1.7286558
62	0xbfa29153	-1.27006
63	0x406145ce	3.5198855
64	0xbeeba56a	-0.46024638
65	0xbe0ab0da	-0.13544026
66	0xbfee579f	-1.862049
67	0xc00becc2	-2.1863256
68	0xbffc7ae0	-1.9724998
69	0x3f1805fc	0.5938413
70	0xbfea051f	-1.8282813
71	0xbdafcc85	-0.08583931
72	0xbf99d8ec	-1.2019324
73	0xc02cfd2f	-2.702953
74	0xbeac2ee2	-0.3362952
75	0xbed7ae87	-0.4212534
76	0x3e9d2366	0.3069107
77	0xbfca6f7e	-1.5815275
78	0xc01036c6	-2.253343
79	0xbf4db91a	-0.8036057
80	0xbfe6aeb5	-1.8022066
81	0xbff2abc9	-1.8958675
82	0xc003f236	-2.0616584
83	0x404348d3	3.0513198
84	0xbe1071d2	-0.14105919
85	0xc0a9b8f0	-5.3038254
86	0xbfe5a5fd	-1.7941281
87	0xc0022b2b	-2.0338848
88	0xc001d614	-2.0286913
89	0xbfb37843	-1.4021076
90	0xc000c800	-2.012207
91	0xc01822bf	-2.3771207
92	0xbfc808c2	-1.5627673
93	0xc0233fb6	-2.5507636
94	0x3efa5675	0.48894086
95	0xbffe6c95	-1.9876887
96	0xc00f65f2	-2.2405972
97	0xc01f0c7a	-2.4851365
98	0x3fff9a32	1.9968932
99	0x3dff95bb	0.12479731
100	0xbfc69cb3	-1.5516571
101	0x3e249e2c	0.16075963
102	0xc021b89e	-2.5268931
103	0xbec51a03	-0.38496408
104	0xc02ff422	-2.7492757
105	0xbfcba6f8	-1.591033
106	0xbe569cb7	-0.2095822
107	0xbfd90036	-1.6953189
108	0xbfb21772	-1.3913405
109	0xc0752124	-3.8301477
110	0xc0131141	-2.297928
111	0xbfed31dd	-1.8530842
112	0x3f52460e	0.82138145
113	0xc03b40e7	-2.9258363
114	0xbf4aebe1	-0.7926617
115	0x3f60fbe7	0.8788437
116	0x4025068c	2.5785246
117	0xc0174431	-2.363537
118	0xbf92130a	-1.141206
119	0xbf94020c	-1.1563125
120	0xc044b0ef	-3.0732992
121	0xc0208a04	-2.5084238
122	0xc07ac843	-3.918473
123	0xbea85a38	-0.3288133
124	0xbc174e0a	-0.009234915
125	0xbffba565	-1.965985
126	0xc06ad1f2	-3.669064
127	0xbfe6d1a5	-1.8032728
128	0xc00f3676	-2.237699
129	0xbfa1c698	-1.2638731
130	0xbf9f4137	-1.2441777
131	0xbf4c7c3f	-0.79877084
132	0x3ef13f68	0.47118688
133	0xbffbaee6	-1.966275
134	0xc035b203	-2.83899
135	0xbfed3eed	-1.8534828
136	0xc029efc3	-2.655259
137	0xbffd2665	-1.9777342
138	0xc0143067	-2.3154542
139	0x3f8f938c	1.1216903
140	0x3eab1145	0.33411613
141	0xc02a7929	-2.663645
142	0x3da4156f	0.08011901
143	0xbfc5f613	-1.5465721
144	0xc01ebb5c	-2.4801855
145	0x3f5eb270	0.86991024
146	0xc041def3	-3.0292327
147	0xbfdc8365	-1.7227598
148	0x3f17d884	0.5931475
149	0xc03a89aa	-2.9146523
150	0x3e27aef9	0.1637534
151	0xbf24804e	-0.6425828
152	0xc0030f06	-2.047792
153	0xbf7ec3b3	-0.99517363
154	0xbf80bf02	-1.0058291
155	0x407c24b8	3.9397411
156	0xc0075aea	-2.114924
157	0xc03e0e3f	-2.9696195
158	0xc08af8db	-4.342878
159	0x3f8126a8	1.0089922
160	0xc04a7954	-3.1636553
161	0xbe3e00d8	-0.1855501
162	0xc045a3f8	-3.0881329
163	0xbf636679	-0.88828236
164	0xc0060c8e	-2.0945163
165	0x3e8eb082	0.2786904
166	0xbf1122ad	-0.56693536
167	0xbfb2b3a5	-1.3961073
168	0xbfe9e3ae	-1.8272607
169	0x3fea28eb	1.8293737
170	0xbfdcc8c6	-1.7248771
171	0xbf98c79e	-1.1935918
172	0x405e30f4	3.4717379
173	0xbfccba6d	-1.5994393
174	0xc0261604	-2.5950937
175	0xbe253918	-0.16135061
176	0x3dc5572e	0.09635769
177	0xbff76ab3	-1.9329437
178	0xbef75850	-0.48309565
179	0xbffdf905	-1.984162
180	0xc01f56e1	-2.4896777
181	0xc00c7f6d	-2.1952775
182	0xc011258d	-2.267917
183	0x40742b76	3.8151526
184	0x3fcfb6f1	1.6227704
185	0xbfb86d62	-1.4408381
186	0xbfce33e2	-1.6109583
187	0xc0137ba7	-2.3044221
188	0xc007453a	-2.1136003
189	0xbef96407	-0.48709127
190	0xc008b294	-2.1358995
191	0xc039d69e	-2.9037242
192	0xc0151c18	-2.3298397
193	0xc00db5fe	-2.214233
194	0xbf353158	-0.7077842
195	0xbfd985ab	-1.6993917
196	0x407e419b	3.9727542
197	0x3e5ee4cf	0.21766971
198	0xbf108223	-0.5644857
199	0xc0151165	-2.3291867
200	0xbf8a7a80	-1.0818634
201	0xc01c9457	-2.446554
202	0xbf89a2e3	-1.0752834
203	0xc0168556	-2.3518882
204	0xbf06028c	-0.52347636
205	0xc0123209	-2.284304
206	0x3f625a74	0.8841927
207	0xc005def0	-2.091732
208	0xbfd69583	-1.6764377
209	0xc073b443	-3.8078773
210	0xc0957ee5	-4.67174
211	0xbfb3648e	-1.4015062
212	0xbf16a8f9	-0.5885158
213	0xbf7ca0a0	-0.98682594
214	0xc022c144	-2.543046
215	0xbfd298c3	-1.6452869
216	0xbf97cfea	-1.1860325
217	0xbe8025a7	-0.25028726
218	0xc00e1700	-2.2201538
219	0xc003145e	-2.048118
220	0xbe84ae58	-0.25914264
221	0xbff0f80f	-1.8825701
222	0xc02af55a	-2.671225
223	0xc02c1d15	-2.689275
224	0xbfa7915f	-1.3091239
225	0xc0454e6b	-3.0829113
226	0xc031d142	-2.778397
227	0xc07a6c8e	-3.9128757
228	0xbe9a1d83	-0.3010064
229	0xbfdecd59	-1.7406417
230	0xc014d4e1	-2.325493
231	0xbff30949	-1.8987209
232	0xbff03997	-1.8767575
233	0xbf055854	-0.52087903
234	0xc03c010c	-2.937564
235	0xc021176a	-2.517054
236	0xc020dc6d	-2.5134537
237	0x3f0e952b	0.5569636
238	0xc03a65e4	-2.912469
239	0x407a7f9c	3.9140387
240	0xc083b2b1	-4.115563
241	0xbfb8f883	-1.445084
242	0xbf5592ca	-0.8342711
243	0xc02e77e3	-2.7260673
244	0xbfea69ba	-1.8313515
245	0x3b7c3289	0.003848227
246	0xbff4ff4c	-1.914041
247	0xc0077329	-2.1164038
248	0xbfe0d58d	-1.756517
249	0x3dc23265	0.09482268
250	0xc0301362	-2.751183
251	0xc02659ab	-2.599223
252	0xbd28dba3	-0.041225087
253	0xbeee4409	-0.46536282
254	0xbe36dcf7	-0.17857729
255	0xc01b015c	-2.421958
