data/TD3/InvertedDoublePendulum-v2/td3_s27071/pyt_save/model.pt (torch_old, 837448 bytes, 15 tensors)

weight f4 [256, 11]
0	0xbe7565ba	-0.23964587
1	0x3e8684cc	0.2627319
2	0xbe12bc4e	-0.14329645
3	0xbefa6c22	-0.48910624
4	0xbe79405a	-0.24340954
5	0xbe1c5aa0	-0.15268946
6	0xbd881be7	-0.06645947
7	0x3d2aa3dc	0.041660175
8	0xbdb9b95b	-0.09068557
9	0xbde4d14e	-0.11172734
10	0xbceca500	-0.028887272
11	0xbca33d71	-0.019926758
12	0xc0031d4b	-2.048663
13	0xc05508ef	-3.3286703
14	0xbf37ab90	-0.7174616
15	0xbf2dad40	-0.67842484
16	0xbcfb5639	-0.030680763
17	0xbf2a0597	-0.6641478
18	0xbef54e5b	-0.47911343
19	0xbe73172d	-0.2373931
20	0x3e35d1c6	0.17755803
21	0xbd5dbfec	-0.05413811
22	0xbe53edce	-0.20696184
23	0x3f680841	0.90637594
24	0xbd932e2b	-0.0718654
25	0xbf46b8ab	-0.7762553
26	0xbf12149d	-0.57062703
27	0x3e0faa99	0.14029922
28	0x3d97d221	0.07413126
29	0xbc963afe	-0.018338677
30	0xbda7dd7a	-0.0819654
31	0x3e3a9e36	0.18224415
32	0x3c652720	0.013986379
33	0x3e117917	0.14206348
34	0x3d96cd7e	0.07363413
35	0x3e3500e8	0.17676127
36	0xbf2f435f	-0.68462175
37	0xbe85f540	-0.26163673
38	0x3d819b7f	0.06328487
39	0xbd700e96	-0.05860766
40	0xbd2c8a87	-0.042124297
41	0x3d6cdf52	0.057830162
42	0xbe575b76	-0.21030983
43	0x3e0a6b16	0.13517413
44	0xbdeda96c	-0.1160458
45	0x3d93e7db	0.07221957
46	0x3e0f7dcd	0.14012833
47	0xbe908c48	-0.28232026
48	0xbe1a7fc3	-0.150878
49	0xbe430749	-0.19045748
50	0xbe041a0b	-0.1290056
51	0xbc9c89b3	-0.019108629
52	0xbd4aa9b9	-0.049478266
53	0xbb1fe200	-0.002439618
54	0xbe99e417	-0.3005683
55	0xbe48de28	-0.19615996
56	0x401f8cf2	2.4929776
57	0xc074b4b9	-3.8235304
58	0xbee681f4	-0.4502102
59	0xbf011993	-0.5042965
60	0x3cace580	0.021105528
61	0xbd479cea	-0.04873363
62	0xbe5f9f19	-0.21838035
63	0x3df9ff9f	0.12206959
64	0xbc8268e0	-0.015919149
65	0x3e3b7fb6	0.18310437
66	0xbe8e0f5a	-0.27746087
67	0x3f524fe0	0.8215313
68	0x3f0be875	0.54651576
69	0xbf673c0e	-0.9032601
70	0xbf53edba	-0.82784617
71	0x3e191a98	0.14951551
72	0x3e98b035	0.29821935
73	0x3e90c08b	0.282719
74	0xbd2ca2ae	-0.04214733
75	0xbbb31600	-0.005465269
76	0x3e76b8e0	0.24093962
77	0x3d1dfef4	0.03857322
78	0xbea779c8	-0.327101
79	0x3f10377c	0.5633466
80	0xbf6b6016	-0.9194349
81	0xbf87f8f7	-1.0622853
82	0xbee3fa99	-0.44527128
83	0x3d9582ea	0.073003605
84	0x3eb1a1ec	0.3469385
85	0x3d90eee9	0.070768185
86	0x3e8c9ba0	0.27462482
87	0xbe51fa5c	-0.20505661
88	0x3e800fda	0.25012094
89	0xbdcb67fa	-0.09931941
90	0x3e2b622d	0.1673667
91	0xbeb223e3	-0.34793004
92	0xbf05c26c	-0.5224979
93	0xbcac5cb3	-0.021040296
94	0xbb9d0f28	-0.0047930665
95	0xbd67c0a3	-0.056580197
96	0x3d92e874	0.07173243
97	0x3df89e20	0.12139535
98	0xb9c54000	-0.00037622452
99	0x3d57868e	0.052618556
100	0xbf55ccb0	-0.83515453
101	0x3ea939b0	0.33051825
102	0xbf265020	-0.6496601
103	0xbf0e363e	-0.55551517
104	0xbd9b01f9	-0.07568736
105	0xbe9ccc4c	-0.30624616
106	0xbeb2d823	-0.34930524
107	0x3da09852	0.07841553
108	0xbe70a6ac	-0.2350108
109	0xbc7235a0	-0.014783293
110	0xbe363f09	-0.17797484
111	0xc02318d4	-2.5483904
112	0x405a8ccd	3.4148438
113	0xbf8031c8	-1.0015192
114	0xbf4ba1e1	-0.7954388
115	0xbfa3e400	-1.2803955
116	0xbd8c79b3	-0.0685915
117	0x3f4c3e89	0.7978292
118	0xbefba19f	-0.49146745
119	0x3e4dc144	0.20093256
120	0x3da67564	0.08127859
121	0x3d54d943	0.05196501
122	0xbf49a660	-0.78769493
123	0x409b8fab	4.8612876
124	0xbccd1406	-0.025033962
125	0xbe207f32	-0.15673521
126	0x3e2f54d9	0.1712221
127	0x3eada5f5	0.33915678
128	0x3eb1d109	0.34729794
129	0xbdaedb2d	-0.08537898
130	0xbe902afb	-0.28157791
131	0x3e82a0b6	0.25513238
132	0x3e98de73	0.29857215
133	0xbf3a388f	-0.7274255
134	0xbeaf63f4	-0.34255946
135	0xbeedcb47	-0.4644415
136	0xbe72776d	-0.2367837
137	0xbd23cdca	-0.039991178
138	0x3d86b6aa	0.06577809
139	0x3e00577e	0.12533376
140	0x3d444caa	0.047924675
141	0xbd63d6e0	-0.055624843
142	0x3e727008	0.23675549
143	0xbeb63be4	-0.35592568
144	0x3fcac32f	1.5840815
145	0xbfe6544c	-1.7994475
146	0xbf627bd8	-0.8847022
147	0xbecbbe80	-0.39793777
148	0x3e6e7827	0.23288022
149	0xbd24a094	-0.0401922
150	0xbd92309a	-0.07138176
151	0x3dacd8ee	0.084398136
152	0x3e635afc	0.22202677
153	0xbd191fb8	-0.037383765
154	0x3e660b2d	0.224652
155	0x3ea99ddf	0.3312826
156	0x4029b402	2.6516118
157	0xbf444588	-0.76668596
158	0xbeb6ec80	-0.3572731
159	0xbdcb908e	-0.09939681
160	0xbdbedf59	-0.09319944
161	0x3d2df32d	0.04246824
162	0xbb7b20da	-0.0038319142
163	0xbe8732a5	-0.26405826
164	0xbd87ab1c	-0.066244334
165	0xbe669195	-0.22516473
166	0x4006cca9	2.1062415
167	0xc09fc3b2	-4.9926386
168	0xbefed759	-0.49773672
169	0xbed7965a	-0.42106897
170	0xbdf2270f	-0.11823856
171	0xbce78254	-0.028260387
172	0xbf2357fa	-0.63806117
173	0x3e3e0646	0.1855708
174	0x3e6164dc	0.22011131
175	0xbcfcafe0	-0.030845582
176	0x3e9d562f	0.30729815
177	0x405cb5a8	3.4485874
178	0xc06c93b4	-3.696515
179	0xbe72e0db	-0.23718588
180	0xbf44e970	-0.769187
181	0x3dd6b09c	0.10482904
182	0x3e6743df	0.22584485
183	0xbe8d073f	-0.2754459
184	0x3d27bab2	0.04094953
185	0x3e0b85c2	0.13625243
186	0xbe755bf0	-0.23960853
187	0x3efec9f9	0.49763468
188	0xbf094051	-0.53613764
189	0xc073f8b3	-3.8120544
190	0xbf98ada8	-1.1927996
191	0xbf969f44	-1.1767354
192	0x3f0744da	0.52839434
193	0xbf23424e	-0.6377305
194	0xbf2c4fad	-0.67309076
195	0xbeb97cdd	-0.36228076
196	0xbd2f48d8	-0.04279408
197	0xbd538c74	-0.05164762
198	0x3ec61733	0.38689575
199	0x3fb31298	1.3990049
200	0xbf2b3dad	-0.66890985
201	0xbfc48af9	-1.5354911
202	0xbfb42cb9	-1.4076148
203	0x3f23d455	0.6399587
204	0x3e8f0e0f	0.27940413
205	0x3e12287c	0.14273256
206	0xbe8e8d72	-0.2784229
207	0xbe2dbe0d	-0.1696703
208	0x3d0cf630	0.03441447
209	0x3fc6bdd7	1.5526685
210	0x3efebfb9	0.49755648
211	0xc03d675c	-2.9594336
212	0xbf20cb48	-0.6281018
213	0xbec59803	-0.38592538
214	0x3ebfbee1	0.37450317
215	0xbe20c39b	-0.15699618
216	0xbec63f2d	-0.38720074
217	0x3ea72455	0.32644907
218	0x3e084b04	0.13309866
219	0xbc499b40	-0.012305081
220	0xbb2f3b05	-0.002673806
221	0xbcd0357e	-0.025416132
222	0xbd9b1d92	-0.075739995
223	0xbed0f767	-0.40813753
224	0xbf1f5649	-0.62241036
225	0xbe738b72	-0.23783663
226	0xbea7889b	-0.3272141
227	0xbe2c51c0	-0.1682806
228	0xba1dcca7	-0.000601957
229	0xbcb33460	-0.02187556
230	0xbb8f53c0	-0.0043739974
231	0xbe602926	-0.21890697
232	0xbfce554b	-1.6119779
233	0x3ff2f187	1.8979958
234	0xbf59ae64	-0.85031724
235	0xbf2389ff	-0.6388244
236	0xbe5b2a43	-0.2140284
237	0xbd4cfec0	-0.050047636
238	0x3e039668	0.12850344
239	0xbce7fd8a	-0.028319139
240	0x3de3ef94	0.1112968
241	0x3cd6f320	0.026238978
242	0xbef2528f	-0.47328612
243	0xc022ba6a	-2.5426278
244	0xc0355598	-2.8333492
245	0x3d484ec9	0.04890326
246	0xbe6a583d	-0.22885223
247	0xbede7802	-0.43450934
248	0xbf312d91	-0.69210154
249	0xbec3048b	-0.38089404
250	0x3dd60481	0.10450078
251	0xbe261730	-0.16219783
252	0xbda6a3c4	-0.081367046
253	0x3e0220fa	0.12707892
254	0xbe84acf2	-0.25913197
255	0x3db444b5	0.08802167

bias f4 [256]
0	0xbe1d8598	-0.15382993
1	0xbf65b990	-0.8973627
2	0xbf8ac362	-1.0840876
3	0xbe8cc9f3	-0.27497825
4	0xbf02e63c	-0.5113256
5	0xbe8723ce	-0.26394504
6	0xbf0b31e1	-0.54372984
7	0xbf703916	-0.93837106
8	0xbe5242e7	-0.20533334
9	0xbf4a381d	-0.7899187
10	0xbfa45269	-1.283765
11	0xbef4b8ea	-0.47797328
12	0xbe9afe4a	-0.30272132
13	0xbf573888	-0.84070635
14	0xbf43f5c2	-0.7654687
15	0xbf4345d0	-0.762784
16	0xbf3adcb2	-0.72993004
17	0xbfa106ab	-1.258016
18	0xbfaf3f58	-1.3691206
19	0xbf2800f4	-0.65626454
20	0xbeab320e	-0.33436626
21	0xbf19a58e	-0.6001824
22	0x3cef76fe	0.029231545
23	0xbeb3d4b3	-0.35123214
24	0xbea3d825	-0.32000843
25	0xbe4dc6ad	-0.2009532
26	0xbf5dbe41	-0.8661843
27	0xbf79a89b	-0.97522897
28	0xbf4ae948	-0.7926221
29	0xbeee6c35	-0.4656693
30	0xbe17f254	-0.14838535
31	0xbf5a0b32	-0.8517333
32	0xbf2aecad	-0.6676739
33	0xbeeb1336	-0.45913094
34	0xbf449b62	-0.76799595
35	0xbed76f16	-0.4207694
36	0xbf17dfcc	-0.5932586
37	0xbf36b1cc	-0.71365047
38	0xbf0ce01f	-0.5502948
39	0xbedbb3fa	-0.4291075
40	0xbf3a1bb6	-0.72698534
41	0xbe2c72f8	-0.16840732
42	0xbf6607c9	-0.8985563
43	0xbf0de70b	-0.5543067
44	0xbf223183	-0.633568
45	0xbf05880f	-0.52160734
46	0xbebcd3f0	-0.36880445
47	0xbf2fa9fc	-0.6861875
48	0xbd9ccc0d	-0.07656107
49	0xbf1182f7	-0.5684046
50	0xbf52b1e9	-0.8230272
51	0xbf88ef17	-1.0697964
52	0xbf594199	-0.8486572
53	0xbee3a6ea	-0.44463283
54	0xbf53c824	-0.82727265
55	0xbf632f9f	-0.8874454
56	0xbec5b676	-0.3861577
57	0xbf038838	-0.5137973
58	0xbf35e276	-0.71048677
59	0xbf25303e	-0.64526737
60	0xbf36cbfc	-0.71405005
61	0xbeefbe7f	-0.46825024
62	0xbf1433b0	-0.5789137
63	0xbdc8c1c8	-0.09802586
64	0xbe94ad4e	-0.2903847
65	0xbf2a575a	-0.6653954
66	0xbf0c2cac	-0.54755664
67	0xbf1df513	-0.6170208
68	0xbf080270	-0.5312872
69	0xbf59d149	-0.8508497
70	0xbf30efb7	-0.69115776
71	0xbf41a081	-0.75635535
72	0xbf140eae	-0.578349
73	0xbe8d31bc	-0.27577007
74	0x3dfdb639	0.12388272
75	0xbf805a41	-1.0027543
76	0xbebd87b6	-0.37017602
77	0xbf35221f	-0.7075519
78	0xbdba71f3	-0.09103765
79	0x3dfe7420	0.12424493
80	0xbe66fd5d	-0.22557588
81	0xbf24352b	-0.6414363
82	0xbfc0cac6	-1.5061882
83	0xbef913a0	-0.48647785
84	0x3df6afd6	0.12045257
85	0xbf8ebd43	-1.1151508
86	0xbf04ee02	-0.5192567
87	0xbf363265	-0.71170646
88	0xbe995d87	-0.29954168
89	0xbf051779	-0.5198894
90	0xbe5bf6a2	-0.21480802
91	0xbf906245	-1.127999
92	0xbf30e079	-0.6909252
93	0xbf5138f4	-0.8172753
94	0xbf696a44	-0.91177773
95	0x3e589c51	0.2115338
96	0xbf37c273	-0.7178108
97	0xbf0f6491	-0.5601283
98	0xbeff43ca	-0.49856406
99	0xbf2712f8	-0.6526332
100	0xbfda8d12	-1.7074301
101	0xbf1ad512	-0.6048137
102	0xbf05cc86	-0.52265203
103	0xbf584474	-0.8447945
104	0xbec90ee1	-0.39269164
105	0xbf121dee	-0.5707692
106	0xbf95efba	-1.1713784
107	0x3e02ffd6	0.12792906
108	0x3e0c99d5	0.13730557
109	0xbec76304	-0.3894273
110	0xbe49dcf2	-0.1971319
111	0xbf8e7b7e	-1.1131437
112	0xbfaf5f7a	-1.3701012
113	0xbf57d954	-0.8431599
114	0xbed075f6	-0.40714997
115	0xbe9ebb68	-0.31002355
116	0xbee791f4	-0.4522854
117	0xbf277cfb	-0.6542508
118	0xbf80da24	-1.0066571
119	0xbf33ae7f	-0.70188135
120	0xbf10a2df	-0.5649852
121	0xbe36085b	-0.17776625
122	0xbdb8b729	-0.0901931
123	0xbec889be	-0.3916759
124	0xbdebb5ab	-0.1150926
125	0xbefe2edd	-0.4964513
126	0xbe9d5a1c	-0.3073281
127	0xbf3f50ef	-0.7473287
128	0x3e5206e6	0.20510444
129	0xbee6f40a	-0.45108062
130	0xbed3c3da	-0.4136036
131	0xbf72ff14	-0.9492047
132	0xbf40d728	-0.753283
133	0xbc6cd812	-0.014455812
134	0xbf60668b	-0.8765647
135	0xbef55dfc	-0.47923267
136	0xbf0ad7e4	-0.5423567
137	0xbf333205	-0.699982
138	0xbf7e78de	-0.9940318
139	0xbec42168	-0.38306737
140	0xbe6e7551	-0.2328694
141	0xbe8f735a	-0.28017694
142	0xbed61dcd	-0.4181961
143	0xbf232492	-0.63727677
144	0xbf1a646e	-0.60309494
145	0xbeb835a0	-0.35978413
146	0x3d96aa3f	0.073566906
147	0xbee82f30	-0.453485
148	0xbf29afb4	-0.66283727
149	0xbf2fcf52	-0.6867572
150	0xbf0cc331	-0.5498534
151	0xbee0eba2	-0.43929774
152	0xbf2e5886	-0.68103826
153	0xbe32366f	-0.17403577
154	0xbf0f036d	-0.558646
155	0xbf195df2	-0.59908974
156	0xbefa04cd	-0.48831788
157	0xbf8394cb	-1.0279783
158	0xbdbd4df5	-0.09243385
159	0xbf1153c9	-0.5676847
160	0xbdfc78f9	-0.12327761
161	0xbf372432	-0.71539605
162	0xbf23198a	-0.63710845
163	0xbf86297b	-1.0481409
164	0xbe914699	-0.28374174
165	0xbed98ea1	-0.4249163
166	0xbf413dd7	-0.75484985
167	0xbe7ce3f0	-0.24696326
168	0xbfa38663	-1.2775387
169	0xbf02e874	-0.51135945
170	0xbe92c5a2	-0.28666407
171	0xbf077bee	-0.52923477
172	0xbf03c2ef	-0.5146932
173	0xbf3214c6	-0.6956295
174	0xbefa280e	-0.48858684
175	0xbeaefabe	-0.34175676
176	0xbefcfff0	-0.49414015
177	0xbf24583e	-0.64197147
178	0xbea47a2d	-0.32124463
179	0xbd858f1b	-0.06521436
180	0xbe40391a	-0.18771783
181	0xbbb9b2f8	-0.0056670867
182	0xbf1e1d96	-0.61763895
183	0xbf459fdd	-0.77197057
184	0xbef7d6b5	-0.48405996
185	0xbf1a22d2	-0.6020938
186	0xbe9d5054	-0.30725348
187	0xbe89ccb1	-0.2691398
188	0xbf58ec57	-0.84735626
189	0xbea7cf7e	-0.3277549
190	0xbfa97a46	-1.324044
191	0xbf44542c	-0.76690936
192	0xbee3f98b	-0.44526324
193	0xbf1467db	-0.5797097
194	0xbf024965	-0.5089324
195	0xbfaa244e	-1.3292329
196	0xbf582ff3	-0.84448165
197	0xbf395f2d	-0.7241085
198	0xbe2e906d	-0.17047282
199	0xbf0bc028	-0.5459008
200	0xbf13fff0	-0.57812405
201	0xbf2d86db	-0.677839
202	0xbeaf68ae	-0.34259552
203	0xbf886d6b	-1.0658392
204	0xbf2183a7	-0.6309151
205	0xbee289cf	-0.44245765
206	0xbf8df652	-1.1090796
207	0xbf11d68f	-0.56968015
208	0x3e11b4e4	0.1422916
209	0xbf28c467	-0.65924686
210	0xbeaf3859	-0.34222677
211	0xbeff5ebc	-0.49876964
212	0xbf160dda	-0.58614886
213	0xbfb44be5	-1.4085661
214	0xbf364d5e	-0.712118
215	0xbf797379	-0.9744182
216	0xbf4ba8ea	-0.7955462
217	0xbf17fa0d	-0.5936592
218	0xbf2a1002	-0.66430676
219	0xbf44a281	-0.7681046
220	0xbf19a70b	-0.6002051
221	0xbf56091b	-0.83607644
222	0xbe973be1	-0.2953787
223	0xbfaafe5b	-1.3358873
224	0xbf167ad5	-0.58781177
225	0xbf768ddc	-0.9631021
226	0xbefb097b	-0.4903067
227	0xbda6d90f	-0.081468694
228	0xbf148e13	-0.5802929
229	0xbf50f6d6	-0.8162664
230	0x3e21b6a7	0.15792333
231	0xbe321ae2	-0.17393067
232	0xbeb05e8c	-0.34447134
233	0xbeef2ab8	-0.4671228
234	0xbf18ca5e	-0.5968379
235	0xbec523bd	-0.3850383
236	0xbefad1c1	-0.48988155
237	0xbf660e94	-0.89865994
238	0xbf80cc94	-1.0062432
239	0xbf24974e	-0.6429337
240	0xbf44fa8f	-0.7694482
241	0xbf13f59f	-0.57796663
242	0xbf320e93	-0.6955349
243	0xbf18d6fa	-0.5970303
244	0xbf0834ff	-0.53205866
245	0xbf137bc1	-0.5761071
246	0xbe8d9840	-0.2765522
247	0xbebf1c55	-0.37326303
248	0xbeefaffb	-0.4681395
249	0xbeeaa66b	-0.45830092
250	0xbe9932c6	-0.2992155
251	0xbf05a196	-0.52199686
252	0xbf0b6cfe	-0.54463184
253	0xbf26ecf6	-0.65205324
254	0xbef31dda	-0.47483712
255	0xbea7b25e	-0.3275327

weight f4 [256, 256]
0	0xbd83bdc1	-0.06432677
1	0xbd325153	-0.043534588
2	0xbdf782e4	-0.12085512
3	0x3d3a67e3	0.04550923
4	0xbd158c63	-0.036510836
5	0x3c80d0c9	0.015724557
6	0xbd94c5dc	-0.07264301
7	0x3f13a002	0.5766603
8	0xbdbc828a	-0.09204586
9	0xbd0b065d	-0.033941615
10	0x3c3f8749	0.011689969
11	0x3c6a1753	0.0142877875
12	0xbe2ca56a	-0.16859975
13	0xbcd9120b	-0.026497861
14	0xbceec891	-0.029148372
15	0x3d7fe545	0.062474508
16	0x3c74aa87	0.014933235
17	0xbed40a29	-0.41414002
18	0x3dad402a	0.08459504
19	0x3dc666e2	0.09687592
20	0xbccf3783	-0.025295025
21	0xbd8a32ba	-0.067479566
22	0xbe200b17	-0.1562923
23	0xbcbc11a5	-0.022957632
24	0xbd6d5993	-0.057946753
25	0xbc76b0d2	-0.015056806
26	0xbe3afe9f	-0.18261193
27	0xbb8b9aa2	-0.004260377
28	0xbe2994da	-0.16560689
29	0xbe34ea2c	-0.17667454
30	0xbe022a07	-0.12711345
31	0xbd295132	-0.0413372
32	0xbd97d56f	-0.07413756
33	0x3db706bc	0.08936831
34	0xbda6a54a	-0.08136995
35	0xbd405132	-0.046952434
36	0xbdcdca11	-0.10048307
37	0xbe3aec3c	-0.18254179
38	0xbdf9cf21	-0.1219771
39	0xbdb42963	-0.087969564
40	0xbd71546a	-0.058918394
41	0x3e1c1789	0.15243353
42	0xbde31c4c	-0.110893816
43	0x3db3fa1d	0.0878794
44	0xbd880a96	-0.06642644
45	0xbeca0069	-0.39453438
46	0xbd4d133a	-0.050067164
47	0x3ea49ce9	0.32150963
48	0xbd94a564	-0.07258108
49	0xbdab43b6	-0.08362524
50	0xbd9dd6b5	-0.07706968
51	0x3c0c61d4	0.008568246
52	0x3d8464ea	0.0646456
53	0xbdae154a	-0.08500154
54	0xbe533bad	-0.20628233
55	0x3f33f2c7	0.70292324
56	0x3efab432	0.48965603
57	0xbda14cce	-0.078759775
58	0xbc3190c5	-0.010837738
59	0xba6e7243	-0.0009096006
60	0x3cdffd79	0.027342545
61	0xbe0f60ea	-0.14001814
62	0xbdf5ef02	-0.12008478
63	0xbd912a5d	-0.07088158
64	0xbd5f69b4	-0.054544166
65	0xbce859de	-0.028363165
66	0xbdce4399	-0.10071487
67	0xbe164c83	-0.14677624
68	0xbeb91f10	-0.3615651
69	0xbdbef6ec	-0.0932444
70	0x3dd40396	0.103522465
71	0x3de767e3	0.11299112
72	0x3e284b17	0.16434895
73	0xbdae4322	-0.08508898
74	0xbd6d9306	-0.05800154
75	0xbd53f821	-0.051750306
76	0xbde71576	-0.1128339
77	0xbe2b716c	-0.16742486
78	0xbea6259f	-0.32450578
79	0xbeb251bf	-0.34827992
80	0xbdfbba08	-0.12291342
81	0x3d1cd18d	0.03828578
82	0xbdebafc0	-0.11508131
83	0xbd6e15c1	-0.058126215
84	0x3d339a24	0.04384817
85	0xbd3e39dd	-0.0464419
86	0xbd3f1ea1	-0.04666007
87	0xbdda6218	-0.10663241
88	0xbd61c19a	-0.055116273
89	0x3c6a07d1	0.01428409
90	0xbe3c5748	-0.1839267
91	0xbdf6f639	-0.12058682
92	0xbd215fc0	-0.039397955
93	0xbecd396d	-0.40082875
94	0xbdaa4446	-0.083138034
95	0x3d255457	0.040363636
96	0xbe67a813	-0.22622709
97	0x3e4e22b1	0.20130421
98	0xbd110adf	-0.035410758
99	0xbda67b63	-0.08129003
100	0x3c63253e	0.01386386
101	0xbe915602	-0.2838593
102	0xbeb3e880	-0.3513832
103	0x3e939910	0.28827715
104	0x3bd613d1	0.006533124
105	0xbc211b85	-0.009833221
106	0xbdfb6290	-0.12274659
107	0xbe5ddb29	-0.21665634
108	0xbd58c52b	-0.05292241
109	0xbe251562	-0.16121438
110	0x3d421bf0	0.047389925
111	0xbbafcb65	-0.0053648227
112	0x3ccc7a00	0.024960518
113	0x3c98f41b	0.018671086
114	0x3e6ed3d8	0.23323
115	0xbe0cea0f	-0.13761161
116	0xbdac21d8	-0.08404893
117	0x3d2d839f	0.04236185
118	0xbd8237d0	-0.06358302
119	0x3f2ec59e	0.6827029
120	0x3d182b8c	0.037150905
121	0xbdfde650	-0.12397444
122	0xbe1924e9	-0.14955486
123	0xbe0a841c	-0.13526958
124	0x3e89fc1d	0.2695016
125	0x3cfe9af6	0.03107975
126	0xbe1d940e	-0.1538851
127	0xbc8cfaf0	-0.0172095
128	0xbe351d13	-0.17686872
129	0xbd90191f	-0.070360415
130	0x3e2ecd5f	0.1707053
131	0xbe770fa5	-0.24127062
132	0xbdf9f9a6	-0.1220582
133	0xbe01a951	-0.12662245
134	0xbdee8962	-0.116472974
135	0x3c8ba438	0.017046079
136	0x3db32d55	0.08748881
137	0xbb80f9b1	-0.0039360155
138	0x3c365911	0.0111296335
139	0xbbaa3a5a	-0.0051949443
140	0xbec45269	-0.38344124
141	0xbe71f93e	-0.23630235
142	0xbe208389	-0.15675177
143	0xbe2c16b1	-0.16805531
144	0x3e0ee17d	0.13953204
145	0xbd18beea	-0.037291445
146	0xbe4d77a1	-0.20065166
147	0xbe69bb87	-0.22825442
148	0xbe3e5b31	-0.18589474
149	0xbd96dbbe	-0.07366131
150	0xbca18704	-0.0197177
151	0x3db9045f	0.09034037
152	0xbd6ff008	-0.05857852
153	0xbd63bcc2	-0.055599935
154	0x3d055da8	0.03256002
155	0xbdb0f483	-0.08640387
156	0x3ca1a394	0.01973132
157	0xbd88f442	-0.066872135
158	0xbb8895a2	-0.0041682282
159	0xbe062fb3	-0.13104133
160	0x3d1aa350	0.037753403
161	0xbd74a4b2	-0.05972738
162	0xbd54cbc0	-0.051952124
163	0x3dc9fd77	0.09862798
164	0x3dc5ce7d	0.09658525
165	0xbd4fac45	-0.0507014
166	0xbe83ad2e	-0.25718063
167	0x3e443731	0.19161679
168	0xbda40e1e	-0.08010505
169	0xbe4af536	-0.19820103
170	0x3ce8c00e	0.028411891
171	0xbd6b9567	-0.057515528
172	0xbe3f4fea	-0.18682829
173	0x3d123365	0.035693545
174	0x3c5b5d45	0.013388936
175	0x3dca96cf	0.09892046
176	0x3c16a1ca	0.009193847
177	0xbdf46967	-0.119341664
178	0x3e268cb1	0.16264607
179	0x3e6dcd85	0.2322293
180	0xbeb9ba4d	-0.3627495
181	0x3dcf7028	0.10128814
182	0x3cb4b7cb	0.022060296
183	0xbe896c76	-0.26840562
184	0xbd8345f6	-0.06409828
185	0xbe1a5d5b	-0.15074675
186	0x3cde99e5	0.027172992
187	0xbde095e1	-0.10966087
188	0xbebc382d	-0.3676161
189	0xbe3a28a5	-0.18179567
190	0xbe8b5f17	-0.27220985
191	0xbdd01f59	-0.10162229
192	0xbc375208	-0.011188991
193	0x3bdf102b	0.0068073473
194	0xbd1c84a5	-0.038212437
195	0xbe5d5846	-0.21615705
196	0xbdb9dce4	-0.09075335
197	0xbe26b4e8	-0.16279948
198	0xbe93c42a	-0.288606
199	0x3f46c251	0.77640253
200	0xbc1f421a	-0.00972035
201	0x3e0189de	0.12650248
202	0xbd8d5e20	-0.069027185
203	0xbd4e3902	-0.050347336
204	0xbd012e42	-0.031538256
205	0x3df982ef	0.12183177
206	0xbe59a3e9	-0.21253933
207	0x3bbbb506	0.005728367
208	0xbe486bf6	-0.19572434
209	0xbd8dbca2	-0.069207445
210	0xbdf011b6	-0.11722128
211	0xbe79de4e	-0.24401209
212	0xbe28b15b	-0.16473906
213	0xbe6365b1	-0.22206761
214	0xbde249f2	-0.1104926
215	0xbdb6774e	-0.08909474
216	0xbe33e8d3	-0.17569284
217	0xbdbcbdcd	-0.09215889
218	0x3c13a06e	0.009010417
219	0xbdb16594	-0.086619526
220	0xbda1f8b3	-0.07908764
221	0xbd44292a	-0.04789082
222	0x3d3c90c4	0.046036497
223	0x3bca0c9e	0.006166055
224	0x3dce6c61	0.100792654
225	0x3d9af563	0.07566335
226	0x3f5ff3ed	0.87481576
227	0xbe1c83ee	-0.15284702
228	0x3f2fae0c	0.6862495
229	0xbd90b35f	-0.07065462
230	0xbe4a7607	-0.19771586
231	0xbdc6aa32	-0.09700431
232	0xbe8c5f04	-0.2741624
233	0x3e88edcc	0.26743925
234	0xbcd18a4b	-0.025578639
235	0xbba5e8f5	-0.005063171
236	0x3e873403	0.2640687
237	0xbd8bb5f1	-0.06821812
238	0x3e05ea6f	0.1307771
239	0xbdb6329f	-0.08896374
240	0xbdb517ee	-0.08842455
241	0xbd80640b	-0.06269082
242	0xbf036627	-0.5132775
243	0x3e691bda	0.22764531
244	0xbd772c59	-0.060345028
245	0x3d166655	0.036718685
246	0xbd7d5b4c	-0.061854646
247	0xbd2dcf09	-0.042433772
248	0x3e065790	0.1311934
249	0x3cb59360	0.022165
250	0xbe4d2889	-0.20034994
251	0xbe6ac472	-0.229265
252	0x3b269fe4	0.0025424892
253	0x3db3d5b3	0.08780994
254	0xbd930761	-0.07179142
255	0x3e4c3724	0.1994291

bias f4 [256]
0	0xbe8e3f7c	-0.2778281
1	0xbe0b9b9f	-0.13633583
2	0xbdde8384	-0.10864928
3	0xbfb65f2a	-1.4247792
4	0xbd2864e8	-0.041111857
5	0xbec8a367	-0.39187166
6	0xbe3290a0	-0.17437983
7	0x3e89c080	0.26904678
8	0xbeb58d54	-0.35459387
9	0xbd7ae9da	-0.061258174
10	0x3deffcb5	0.11718122
11	0xbf63436e	-0.88774765
12	0xbde69995	-0.11259762
13	0xbd5c2e5c	-0.05375515
14	0xbf386c6a	-0.72040427
15	0xbdb7c98b	-0.08973988
16	0xbda56db4	-0.08077565
17	0xbdf16df4	-0.1178855
18	0xbc69cb4a	-0.014269659
19	0xbf63c31b	-0.8896958
20	0xbf40b624	-0.75277925
21	0xbdb23b02	-0.08702661
22	0xbc81fc15	-0.015867272
23	0xbdb30dfc	-0.08742902
24	0xbe4ba505	-0.19887169
25	0x3dae2d30	0.085047126
26	0xbd8ceed6	-0.06881492
27	0xbd422e9b	-0.047407728
28	0xbf06e3d2	-0.52691376
29	0xbdb88fd4	-0.09011808
30	0xbcde60a9	-0.0271457
31	0xbd0c9d34	-0.034329608
32	0xbee2b537	-0.4427888
33	0xbcd2fc2e	-0.025755014
34	0xbdf91312	-0.121618405
35	0xbdcdc714	-0.10047737
36	0x3e49c84b	0.19705312
37	0xbd600798	-0.054694742
38	0xbd5b77a7	-0.053580906
39	0xbf24700b	-0.64233464
40	0xbf3a9b55	-0.7289327
41	0xbdb5a531	-0.088693984
42	0xbdbf37cd	-0.09336815
43	0xbf0f512b	-0.5598323
44	0xbdb77d90	-0.08959496
45	0xbe935c2e	-0.28781265
46	0xbda9d08b	-0.082917295
47	0xbd46f4e6	-0.048573397
48	0xbdda43c9	-0.1065746
49	0xbd6d5da8	-0.057950646
50	0xbd856b29	-0.0651458
51	0x3deeb411	0.11655439
52	0xbd4661cb	-0.048433106
53	0xbdd4932b	-0.103796326
54	0xbd80ffa2	-0.06298758
55	0xbd788108	-0.06066993
56	0xbeb287c3	-0.34869203
57	0xbdd699ea	-0.104785755
58	0xbebb3671	-0.36564973
59	0xbddaddab	-0.10686811
60	0xbe3d4ce2	-0.1848636
61	0xbd2f52c7	-0.042803552
62	0xbda88cbb	-0.08229967
63	0xbf80f64f	-1.0075167
64	0xbc1af719	-0.009458327
65	0xbd3e567e	-0.046469204
66	0xbcc57916	-0.02410559
67	0xbf334b6f	-0.7003698
68	0xbc04c5db	-0.008103813
69	0xbff33962	-1.9001887
70	0xbd1bfadc	-0.038081035
71	0xbf0cf3cd	-0.5505951
72	0xbd7fec4f	-0.06248122
73	0xbe935290	-0.28773928
74	0xbf856ebe	-1.0424421
75	0x3df015a3	0.11722877
76	0xbd458d76	-0.04823061
77	0xbf23febe	-0.6406058
78	0xbd66174b	-0.056174558
79	0xbfa5df9f	-1.2958869
80	0xbe10a6eb	-0.14126174
81	0xbfdc662b	-1.7218679
82	0xbf0ea1ed	-0.5571583
83	0xbdaaa209	-0.08331687
84	0xbd3bb6c4	-0.045828596
85	0xbe4f2271	-0.20227982
86	0xbed222b5	-0.41042104
87	0xbdd9b6dd	-0.106305815
88	0xbe84afc0	-0.25915337
89	0xbea1b9fb	-0.31587204
90	0xbdb87169	-0.09006006
91	0xbd70fce8	-0.05883494
92	0xbd5c3f1b	-0.05377112
93	0xbe4dc5b5	-0.2009495
94	0xbe9377cc	-0.28802335
95	0xbe850ef5	-0.25987974
96	0xbec134a6	-0.3773548
97	0xbe055fdc	-0.13024849
98	0xbd1878ff	-0.037224766
99	0x3c131181	0.008976341
100	0xbd06f1f7	-0.0329456
101	0xbdef9ce1	-0.11699844
102	0x3e57328c	0.21015376
103	0xbd4f7eed	-0.050658155
104	0xbdb12b3e	-0.08650826
105	0xbf469f9d	-0.775873
106	0xbdccc33e	-0.09998177
107	0xbcd7c530	-0.026339144
108	0xbcceabc8	-0.025228396
109	0xbeadc949	-0.3394263
110	0xbddcc2d5	-0.10779349
111	0xbdb4a6fb	-0.088209115
112	0xbeff3a1d	-0.49849024
113	0xbd91d719	-0.07121105
114	0xbcdecd79	-0.027197586
115	0xbd304d99	-0.043042753
116	0xbf149662	-0.58041966
117	0xbce3a539	-0.027788745
118	0xbd7e4d5b	-0.06208549
119	0xbf917f86	-1.1367042
120	0xbe5af695	-0.21383126
121	0xbf2a2b31	-0.66472155
122	0xbe08f839	-0.1337594
123	0xbe67dca6	-0.22642764
124	0xbe9f290c	-0.31086004
125	0x3e2f7d41	0.17137624
126	0xbd40ff17	-0.047118273
127	0xbf23849e	-0.6387423
128	0xbe0327b6	-0.12808117
129	0xbe5b7a47	-0.21433364
130	0xbf562051	-0.8364306
131	0xbc3ca34f	-0.011513545
132	0xbe16dedb	-0.1473345
133	0xbdaaedf4	-0.08346167
134	0xbd69169d	-0.05690633
135	0xbd15e8e8	-0.03659907
136	0xbd25feb1	-0.040526096
137	0xbe03680b	-0.12832658
138	0xbdaf6c89	-0.08565623
139	0xbea03552	-0.3129068
140	0xbeb7df6c	-0.35912645
141	0xbd1969e7	-0.037454512
142	0xbe5963bf	-0.21229456
143	0xbf1b1cfe	-0.60591114
144	0xbd763d72	-0.060117193
145	0x3dc3b51f	0.095560305
146	0xbea0c898	-0.3140304
147	0xbdf54b34	-0.119772345
148	0xbdfff63e	-0.12498139
149	0xbdcdc1e4	-0.10046747
150	0xbe009262	-0.1255584
151	0xbdb6586d	-0.08903585
152	0xbd7e7cc0	-0.06213069
153	0xbed60740	-0.41802406
154	0xbd3236cb	-0.043509286
155	0xbdc28778	-0.09498495
156	0xbd233c13	-0.039852213
157	0xbf55cc92	-0.83515275
158	0xbe69823e	-0.2280359
159	0xbde902e5	-0.11377505
160	0xbd6bb604	-0.05754663
161	0xbdd291b8	-0.102817
162	0xbe8a457c	-0.27006137
163	0xbd927af3	-0.07152357
164	0xbd4bab2b	-0.049723785
165	0xbe38b50d	-0.18037815
166	0xbec589dd	-0.38581744
167	0xbce83f03	-0.028350359
168	0xbdd7f6c7	-0.10545116
169	0xbd19aed4	-0.037520245
170	0xbf5a4248	-0.8525739
171	0xbcfda909	-0.030964391
172	0xbea2f60b	-0.3182834
173	0xbe405ba6	-0.18784961
174	0x3e83676e	0.25664848
175	0xbd4515cf	-0.0481165
176	0xbdd26fda	-0.1027524
177	0xbfcad162	-1.5845149
178	0xbe9e0962	-0.30866534
179	0xbe1c006b	-0.15234534
180	0xbdb87680	-0.09006977
181	0xbf73d9db	-0.95254296
182	0xbe0c9b57	-0.13731132
183	0xbe575657	-0.2102903
184	0xbde2df1d	-0.11077712
185	0xbdaa9277	-0.08328717
186	0xbf8d33d9	-1.1031448
187	0xbec60227	-0.38673517
188	0xbd5039e7	-0.05083647
189	0x3f290c58	0.6603446
190	0xbe03e32b	-0.12879626
191	0x3eca6f95	0.39538255
192	0xbd3e60ea	-0.046479143
193	0xbdfa8d36	-0.12233965
194	0xbde63272	-0.112400904
195	0xbd9ef081	-0.07760716
196	0xbd543699	-0.05180988
197	0xbd94b6de	-0.07261442
198	0x3ebbdd5c	0.3669232
199	0xbfd06074	-1.6279435
200	0xbcf8a7ed	-0.03035351
201	0xbe9d60c1	-0.3073788
202	0xbe32a40a	-0.17445388
203	0xbf1177e4	-0.56823564
204	0xbdc829ec	-0.09773621
205	0xbd686f9b	-0.05674706
206	0xbe8d3c74	-0.27585185
207	0xbe0a920a	-0.13532272
208	0xbedb2d20	-0.42807865
209	0xbd26a41e	-0.040683858
210	0xbe88aa55	-0.26692453
211	0xbde01ae7	-0.10942631
212	0xbf817d8f	-1.0116442
213	0xbe1f0e83	-0.1553288
214	0xbcd52f87	-0.02602364
215	0xbde30afe	-0.11086081
216	0xbe291f39	-0.16515817
217	0xbdef5262	-0.11685635
218	0xbdd006b7	-0.10157531
219	0xbeafa94e	-0.34308857
220	0xbf271713	-0.65269583
221	0xbce0ca39	-0.027440177
222	0xbf843715	-1.032931
223	0xbdb2f543	-0.08738186
224	0xbdf8674b	-0.121290766
225	0xbf07b96d	-0.5301731
226	0xbed62be4	-0.4183036
227	0xbebb91e3	-0.3663474
228	0xbdbf34ae	-0.0933622
229	0xbd880067	-0.06640702
230	0xbe2c7c3e	-0.1684427
231	0xbec64e67	-0.3873169
232	0xbec6482f	-0.38726947
233	0xbdffbcb2	-0.12487163
234	0xbd9707d0	-0.07374537
235	0xbfa95744	-1.3229756
236	0xbe0ece0f	-0.13945793
237	0xbd68b409	-0.05681232
238	0xbc9e0df4	-0.019293763
239	0xbd8c5f9e	-0.06854175
240	0xbdf7d3f2	-0.12100972
241	0xbd66a287	-0.056307342
242	0xbdc0e012	-0.09417738
243	0xbe8d58e5	-0.27606884
244	0xbe01b495	-0.12666543
245	0xbcf108b5	-0.029423097
246	0xbcacca15	-0.021092454
247	0xbef8a35f	-0.48562142
248	0xbcbe8b8b	-0.023259899
249	0xbee8d25b	-0.45472988
250	0xbdb862a7	-0.090031914
251	0xbe18a386	-0.14906129
252	0xbdc95ee5	-0.09832553
253	0xbf1a0e4b	-0.6017806
254	0xbe28bb52	-0.16477707
255	0xbb5707d6	-0.0032811067

weight f4 [1, 256]
0	0xbe4fb0a3	-0.20282225
1	0xbc62db54	-0.013846237
2	0x3ce5f55a	0.028071094
3	0x3f12d8a2	0.57361805
4	0x3c3d74c1	0.011563481
5	0xc07b2fe0	-3.924797
6	0xbb9b49b6	-0.0047390116
7	0x3e8a5880	0.27020645
8	0xbe926e93	-0.28599986
9	0xbd002952	-0.031289406
10	0xbf87b3c1	-1.0601732
11	0x4110bdd6	9.046347
12	0xbc8c48b6	-0.017124515
13	0xba782001	-0.0009465218
14	0x3e2f161f	0.17098282
15	0xbd093640	-0.033499002
16	0x3b57f5ab	0.0032952826
17	0xbabf159a	-0.0014578581
18	0xbcd97a23	-0.026547497
19	0x3eb10bab	0.34579214
20	0x402cf339	2.7023451
21	0x3c85e352	0.016343746
22	0x3cbd331f	0.023095665
23	0x3ca78d53	0.02045313
24	0xbed986e3	-0.42485723
25	0x3fdcf372	1.7261794
26	0x3c78546d	0.015156847
27	0xbda82279	-0.082097
28	0xbf932d86	-1.1498268
29	0x3cd7d97f	0.026348827
30	0xbcb8a17a	-0.022537936
31	0xbe12a295	-0.14319833
32	0xbe7bc96b	-0.24588554
33	0xbb36b609	-0.0027879498
34	0xbbb61646	-0.0055568544
35	0xbcb1b7ec	-0.021694146
36	0xbd6b095b	-0.05738197
37	0xbc17f063	-0.009273621
38	0xbc690198	-0.014221571
39	0x41259bf7	10.350577
40	0x3ea60af4	0.32430232
41	0xbb039b40	-0.002008155
42	0xbaa3477b	-0.0012457216
43	0xbf2fbd89	-0.6864858
44	0x3bb25652	0.005442419
45	0x3d989a0e	0.074512586
46	0x3c5a6ef7	0.01333212
47	0xbb67ccff	-0.003536999
48	0x3ca6d503	0.020365244
49	0x3c50c215	0.012741585
50	0xbcabce58	-0.020972416
51	0x3ea0264b	0.31279215
52	0x3c276783	0.01021755
53	0x3c3f0cea	0.011660794
54	0xbc959e55	-0.018263975
55	0x3b6b8ae2	0.0035940935
56	0x3e046acb	0.12931363
57	0x3c971754	0.01844374
58	0x3fa00926	1.2502792
59	0xbd23e5df	-0.040014144
60	0x3e99ffcf	0.3007798
61	0xbc695e68	-0.0142437
62	0xbbace9d6	-0.005276899
63	0x3f150286	0.58206975
64	0xbc11146a	-0.008854965
65	0x3c6a4809	0.014299401
66	0x3c7f7d67	0.015593863
67	0x404a4679	3.1605513
68	0x3ce53bbc	0.027982585
69	0x3f498666	0.787207
70	0xbbe2fb8a	-0.0069269584
71	0xbeade7d4	-0.33965933
72	0xbce1e6de	-0.027575906
73	0xbb40e556	-0.002943357
74	0x3df5e5e3	0.12006738
75	0xbef4aff9	-0.47790506
76	0xbcbeb3b6	-0.023279052
77	0x40d64897	6.696361
78	0x3b39f105	0.0028372419
79	0x3e22e006	0.1590577
80	0x3f2e666d	0.6812504
81	0xc019a0d1	-2.4004405
82	0x3ff1fba7	1.8904923
83	0xbc518e72	-0.012790309
84	0xbcf772e3	-0.03020615
85	0x3bd27e5a	0.0064237537
86	0x3e834791	0.25640538
87	0x3c532b80	0.012888789
88	0xbc72a401	-0.014809609
89	0xbe38011b	-0.17969172
90	0x3c9ab033	0.018882846
91	0xbb8f631d	-0.004375829
92	0x3cc44a86	0.023961317
93	0xbc8a1cd8	-0.016859457
94	0xbe5a9ad0	-0.21348119
95	0xbc7e8afa	-0.015536064
96	0x3eeb7050	0.45984125
97	0x3cd5c701	0.026095869
98	0xba8fc5de	-0.0010969003
99	0x3edcf75d	0.43157473
100	0xbb8e7d9e	-0.004348471
101	0xbc88ab50	-0.01668325
102	0xbe873ca6	-0.2641346
103	0x3cb0c9d9	0.021580623
104	0x3c0710a6	0.008243715
105	0x40677492	3.61649
106	0x3cb11f94	0.021621503
107	0xbbeb573d	-0.0071820305
108	0xbbf70a70	-0.007539086
109	0xbe4124e5	-0.1886173
110	0x3c9a29e6	0.018818807
111	0xbc7f0699	-0.015565538
112	0xbe8d03d9	-0.27541998
113	0x3ca7c6c5	0.020480523
114	0xbc8ea6de	-0.017413553
115	0x3cde8415	0.027162591
116	0x41d4c535	26.596292
117	0x3c31c03e	0.010849057
118	0xbc96b336	-0.018396001
119	0xbf38994b	-0.72108907
120	0xbdfc672f	-0.12324368
121	0x3e98f77e	0.29876322
122	0xbe296a03	-0.16544347
123	0xbdcbf2b5	-0.09958402
124	0xbdac3885	-0.08409218
125	0x3de2499f	0.11049198
126	0x3af17e84	0.0018424545
127	0x3cb36530	0.021898836
128	0xbebefd0e	-0.3730244
129	0x3df77a69	0.12083895
130	0x3d912816	0.07087724
131	0x3fac6b61	1.347027
132	0xc03e0a6b	-2.9693859
133	0xbc88cb93	-0.016698634
134	0xbcd2eee9	-0.025748687
135	0x3bae0d22	0.005311624
136	0x3cf49a36	0.02985869
137	0xbcda257c	-0.026629202
138	0xbcf8c9dd	-0.030369693
139	0xc0951351	-4.658608
140	0x4019ae3b	2.4012592
141	0x3ce5c584	0.028048284
142	0x3aaebb83	0.0013331029
143	0x3e232b23	0.15934424
144	0x3caa433a	0.02078401
145	0x3f831778	1.0241537
146	0x3de70948	0.11281067
147	0x3ba63c23	0.005073087
148	0x3bb25804	0.005442621
149	0x3c3d767c	0.011563893
150	0xbce54d9a	-0.027991105
151	0xbcb8ee4d	-0.022574568
152	0x3cd24de4	0.025671907
153	0x400ace32	2.1688352
154	0xb88d8417	-6.7480076e-05
155	0xba8f4886	-0.0010931648
156	0xbc93502d	-0.017982567
157	0xc06732f4	-3.612485
158	0x3ced13ed	0.028940165
159	0x3c0cd7ec	0.008596402
160	0xbce741f0	-0.028229684
161	0x3cd62956	0.026142757
162	0xbbc396c3	-0.0059689
163	0x3aaefe98	0.0013351021
164	0xbccd65cb	-0.025072953
165	0x3bdb689e	0.006695821
166	0xbeac0377	-0.33596393
167	0xbcd10238	-0.025513753
168	0x3bff636c	0.0077938344
169	0xbb38580b	-0.002812865
170	0x3fba7c36	1.4569156
171	0x3be09094	0.0068531726
172	0x3c8c9e87	0.017165435
173	0x39dd0acc	0.0004216045
174	0xbe095673	-0.13411884
175	0x3cc318d6	0.023815554
176	0xbc761723	-0.015020165
177	0x4005f74a	2.0932183
178	0x3c77807e	0.0151063185
179	0xbccb8f41	-0.024848582
180	0xbb9850b4	-0.0046482924
181	0x3fb51372	1.4146559
182	0x3ae6f58c	0.0017620786
183	0xc1bd7e59	-23.686693
184	0xbc1e0b1b	-0.009646202
185	0xbcd675dc	-0.026179247
186	0x410d53c6	8.8329525
187	0xbe21a147	-0.15784179
188	0x3b25dff6	0.0025310493
189	0x3e734b53	0.23759203
190	0x3c80fa48	0.015744343
191	0xbea677eb	-0.32513365
192	0x3ce55f09	0.027999418
193	0xbcd1b9f4	-0.025601365
194	0xbb80fcde	-0.003936394
195	0xbcb83e20	-0.022490561
196	0x3cc735c9	0.024317639
197	0x3c90f6d5	0.017695824
198	0xbdb900a5	-0.09033326
199	0x3fd5a30c	1.6690383
200	0xbcfb8adb	-0.03070586
201	0x407664be	3.8498988
202	0xbafb7b3c	-0.0019186507
203	0xbf1761dc	-0.59133697
204	0x3c8673df	0.016412674
205	0xbd0434f1	-0.03227705
206	0xbcb8b5c8	-0.022547618
207	0x3c918967	0.017765714
208	0xbe30256a	-0.17201772
209	0xbcd34fe5	-0.025794933
210	0xbcc7c99c	-0.024388127
211	0x3bb930dd	0.005651577
212	0xbdedd39d	-0.11612628
213	0x3cc48008	0.023986831
214	0x3bc7ccc2	0.006097407
215	0x3bd20068	0.00640874
216	0xbc36961f	-0.01114419
217	0xc1275013	-10.457049
218	0xbe8247f4	-0.2544552
219	0x4100e681	8.056275
220	0x40a04b1f	5.00917
221	0x3c269072	0.010166274
222	0x3d42e8d4	0.047585323
223	0xbad3feed	-0.0016173996
224	0x3caeb8fc	0.021328442
225	0x404eff30	3.2343254
226	0xbfb3c2d4	-1.4043832
227	0x4000aefd	2.0106804
228	0x3c87d00b	0.016578695
229	0x3b4487d1	0.002998818
230	0x3bfb5908	0.0076705255
231	0xc049601f	-3.1464918
232	0x4145c167	12.359717
233	0xbb3ee7aa	-0.0029129782
234	0xbb4435dd	-0.0029939332
235	0x3f27740c	0.6541145
236	0xbb2493c4	-0.002511249
237	0xbb0ac6af	-0.0021175554
238	0x3c068c3e	0.008212147
239	0x3ce9f454	0.028558888
240	0x3d36022e	0.044435672
241	0xbc97a039	-0.018509017
242	0xbc90e8e5	-0.017689178
243	0x3ba3f491	0.00500352
244	0xbcc56055	-0.024093786
245	0xbc776fa9	-0.015102305
246	0x3c81a5ff	0.015826223
247	0x416f0351	14.93831
248	0x3c1ae4d6	0.009453973
249	0xbfd3b8b2	-1.654074
250	0xbc02a174	-0.007973064
251	0xbc63e61e	-0.013909845
252	0x3ce00678	0.027346835
253	0x3ff369d9	1.9016677
254	0xbbf468ad	-0.0074587674
255	0xbb25474d	-0.00252195

weight f4 [256, 12]
0	0xbf94984e	-1.160898
1	0x3f874b40	1.056984
2	0x4023af4b	2.557574
3	0xc00b2ec2	-2.1747289
4	0xc01599e5	-2.337518
5	0xbfd9c042	-1.7011797
6	0x3da6236e	0.081122264
7	0x3e265904	0.16244894
8	0x3ee3b60f	0.44474837
9	0xbad73000	-0.0016417503
10	0x3de63ae4	0.11241701
11	0xc011d6e7	-2.2787416
12	0xbe708116	-0.23486742
13	0x40d3cf2f	6.619041
14	0x4112f0e9	9.183816
15	0xbf15e4e1	-0.58552366
16	0xbf104246	-0.56351125
17	0x3e0283aa	0.12745538
18	0xbea33736	-0.3187806
19	0x3e54f634	0.20797044
20	0x3ef3c155	0.47608438
21	0x3d804e0c	0.06264886
22	0xbe137e21	-0.14403583
23	0xbdef1319	-0.116735645
24	0x3e2864d4	0.16444713
25	0x3f25573c	0.64586234
26	0x40eb19ad	7.3468843
27	0xbebbfaca	-0.36714774
28	0xbeaa773f	-0.33294103
29	0x3e9d1a2c	0.3068403
30	0x3f637dbf	0.8886375
31	0x3f866c7f	1.050186
32	0x3e81007c	0.25195682
33	0xbe806719	-0.25078657
34	0xbe640ae4	-0.2226978
35	0x3ffd3513	1.9781822
36	0xbf549725	-0.8304313
37	0xbed79e6b	-0.4211305
38	0x40b3d357	5.6195483
39	0x3db6cd34	0.08925858
40	0x3ec71bee	0.38888496
41	0xbe5d8192	-0.21631458
42	0x3ed27af4	0.4110943
43	0x3f4fa136	0.81105363
44	0xbe8d5dee	-0.27610725
45	0xbe85abf6	-0.26107758
46	0x3d776db8	0.06040737
47	0x3fd924c0	1.696434
48	0xbf283835	-0.65710765
49	0xc07509c4	-3.828721
50	0x40d65860	6.698288
51	0xbf80c322	-1.005955
52	0xbf5c3cdc	-0.86030364
53	0xbe477087	-0.1947652
54	0x3d29c7cd	0.04145031
55	0x3f74fea5	0.95701057
56	0x3e9de70c	0.30840337
57	0xbcc71c80	-0.024305582
58	0x3e0a8e56	0.1353086
59	0x405de989	3.4673789
60	0x3f1c5bba	0.61077464
61	0x3eeaaf7d	0.45837012
62	0xbe9da549	-0.30790165
63	0xbfbc100a	-1.4692395
64	0xbfd2d66c	-1.6471686
65	0xbf0156ee	-0.5052327
66	0x3ce49707	0.027904047
67	0x3e686ec9	0.22698511
68	0xbdf548a6	-0.11976747
69	0xbcf467f0	-0.029834718
70	0xbe4b47ea	-0.19851652
71	0x3dde2673	0.10847177
72	0xc021586e	-2.5210223
73	0xc0680415	-3.6252491
74	0x40975528	4.729145
75	0xbf921a5d	-1.1414295
76	0xbf8b7b32	-1.0896971
77	0xbf0fc6cb	-0.5616271
78	0x3e7c0703	0.2461205
79	0x3f11ba69	0.56925064
80	0x3e0a419f	0.13501595
81	0x3df981e8	0.12182981
82	0x3e3430a0	0.17596674
83	0x3dba94da	0.091104224
84	0x3f822a29	1.0169116
85	0xbf39eb97	-0.72625107
86	0x404d25aa	3.2054238
87	0xbfee02cb	-1.8594602
88	0xc00fe902	-2.2485967
89	0x3e0d9ffd	0.13830562
90	0xbe228634	-0.15871507
91	0x3eedbd2b	0.46433386
92	0x3f117436	0.5681795
93	0x3dbc52e4	0.09195498
94	0x3dae29e8	0.08504087
95	0x3f9b6209	1.2139293
96	0xbfdf77cb	-1.7458433
97	0xc04b29b6	-3.1744208
98	0xbf74a5c4	-0.9556544
99	0xbf8b9883	-1.0905918
100	0xbf8fc704	-1.123261
101	0xbfdb657c	-1.7140346
102	0xbf8982af	-1.0743006
103	0xbe7801ba	-0.24219409
104	0xbebd5e02	-0.36985785
105	0x3e137804	0.14401251
106	0x3e81d304	0.25356305
107	0xbe3f9cd0	-0.18712163
108	0xbd021b47	-0.031764295
109	0xc0b04bb5	-5.5092416
110	0x40c0d035	6.025416
111	0xbf7be46e	-0.9839543
112	0xbf6e4f79	-0.93090016
113	0xbd428cc2	-0.04749752
114	0xbd95e6f1	-0.07319439
115	0x3f11b661	0.56918913
116	0x3ee36232	0.44410855
117	0x3ddb0a74	0.10695353
118	0xbe5ba9f6	-0.21451554
119	0x3fd84c3d	1.6898266
120	0x3ec194cf	0.37808844
121	0xbe21460e	-0.1574938
122	0xbcaee8b9	-0.021351205
123	0xbfa8e9b8	-1.3196325
124	0xbf83dd5d	-1.030193
125	0x3e3c2d31	0.18376614
126	0xbd8f9ae0	-0.07011962
127	0xbe6b3104	-0.22967917
128	0x3cd954a6	0.026529621
129	0x3dd7f2b8	0.10544342
130	0x3d81f838	0.06346172
131	0xbf17e672	-0.59336007
132	0xc00483cf	-2.070545
133	0x3ff7001e	1.9296911
134	0x3d0eafe5	0.034835715
135	0xbf9fb7a8	-1.2477922
136	0xbfc0805d	-1.5039173
137	0xbf1917ab	-0.5980174
138	0x3d89d7c1	0.06730605
139	0x3e64d221	0.22345783
140	0xbd109139	-0.035294745
141	0x3c440c40	0.011965811
142	0x3e8d32ac	0.27577722
143	0x3ff1f481	1.8902742
144	0xbdb7515c	-0.08951065
145	0x3fdc032d	1.7188469
146	0xc0cd13cc	-6.4086666
147	0xbe6ee366	-0.23328933
148	0x3dcf68bd	0.10127399
149	0xbe316273	-0.17322712
150	0xbed7ebf0	-0.42172194
151	0xbf4f2173	-0.80910414
152	0x3e6bbb5c	0.2302069
153	0xbe0be37c	-0.13660997
154	0xbdc8d496	-0.098061725
155	0xc01a8431	-2.4143183
156	0x3f2650d1	0.64967066
157	0x3f90cc3d	1.1312329
158	0xc0b380ed	-5.609488
159	0xbe0b861b	-0.13625376
160	0x3e559670	0.20858169
161	0x3f1d2138	0.6137881
162	0xbdb47cf9	-0.08812899
163	0xbf2e950d	-0.68196183
164	0x3e29f643	0.16597848
165	0x3e0f839a	0.14015046
166	0x3dc47714	0.09593025
167	0xbfd12ca5	-1.634175
168	0xbf21b245	-0.6316264
169	0x4057d122	3.3721395
170	0xc07a218c	-3.9082975
171	0xbeca364f	-0.3949456
172	0xbef65c63	-0.4811736
173	0xbe51c58a	-0.20485511
174	0xbeac0aaa	-0.33601886
175	0xbe3e6e8c	-0.18596858
176	0x3d8d7f6c	0.069090694
177	0x3e7b076c	0.2451455
178	0xbe45c352	-0.1931279
179	0xbf5ad040	-0.85474014
180	0x4022a157	2.5410974
181	0x40542819	3.3149474
182	0x3f1b329f	0.60624117
183	0xbf83552f	-1.0260371
184	0xbeb5f44d	-0.3553795
185	0x3f84a0af	1.0361537
186	0x3f51b87a	0.81922114
187	0x3e416199	0.18884887
188	0xbc3196e9	-0.010839202
189	0x3d87f608	0.066387236
190	0x3d884884	0.06654456
191	0xbe5941e8	-0.21216547
192	0x404b80b3	3.1797302
193	0x3ffb5a29	1.963689
194	0xbf7301ed	-0.94924814
195	0xbf955ca7	-1.16689
196	0xbf88b8b3	-1.0681366
197	0x3f5a1a6a	0.85196555
198	0x3ec9b694	0.3939711
199	0xbd56168f	-0.052267607
200	0x3f09819d	0.537134
201	0xbe63e6dc	-0.22256035
202	0xbdd6fac6	-0.1049705
203	0xbdbaa5cc	-0.091136545
204	0xbf20e1cd	-0.62844545
205	0xbfaf1b12	-1.3680136
206	0x402ed431	2.7317011
207	0xbfc30e83	-1.5238804
208	0xbfda4582	-1.7052462
209	0xc004d6b3	-2.0756042
210	0xbece5e73	-0.40306434
211	0x3faf14fa	1.3678277
212	0x3f0ab596	0.5418333
213	0xbe157fe6	-0.1459957
214	0x3e759cc4	0.23985583
215	0x3f0361e7	0.5132126
216	0xbf831eb8	-1.024375
217	0xc0444f08	-3.0673237
218	0xc080ce3c	-4.025175
219	0xbffc30ed	-1.9702431
220	0xbfefd449	-1.8736659
221	0x3f0a6d22	0.54072773
222	0xbf4e9e45	-0.8071025
223	0xbe216768	-0.15762103
224	0x3e8a9960	0.2707014
225	0x3e8d13fe	0.27554315
226	0xbccc3b60	-0.024930656
227	0x4008b6ff	2.1361692
228	0xbebd5c48	-0.36984468
229	0xc0a0dafb	-5.026731
230	0x40c61cbf	6.191009
231	0xbfa5e668	-1.296094
232	0xbf8aa8be	-1.0832746
233	0x3b91d88b	0.0044508628
234	0xbc55524b	-0.013020108
235	0x3ed77ebf	0.42088887
236	0x3e8efe39	0.27928331
237	0xbe843614	-0.25822508
238	0xbdff7230	-0.124729514
239	0x3f63512f	0.8879575
240	0xbeb519ed	-0.35371342
241	0xbfe01d4e	-1.7508943
242	0xc1368429	-11.407266
243	0xbf415670	-0.7552252
244	0xbec396e4	-0.38201058
245	0xbf544036	-0.8291048
246	0xbffadaea	-1.9598057
247	0xbfc74413	-1.556765
248	0xbe388a2e	-0.18021461
249	0xbd07d668	-0.033163458
250	0x3dca81f0	0.09888065
251	0xbebc970d	-0.36833993
252	0x3f12d812	0.5736095
253	0xc058e7bb	-3.3891437
254	0x4002bf2f	2.042919
255	0xbf9af75a	-1.2106736

bias f4 [256]
0	0xc00df560	-2.2181015
1	0xbf989cec	-1.1922889
2	0xbd55bd10	-0.052182257
3	0x3e0714e9	0.1319157
4	0xbf898f94	-1.0746942
5	0xbfedd3f5	-1.8580309
6	0xbf932255	-1.1494852
7	0xbfe122ad	-1.7588707
8	0xbf8438ce	-1.0329835
9	0xbf9284c6	-1.1446769
10	0xbfb68da0	-1.426197
11	0xbfcb1e57	-1.5868634
12	0xbddd233a	-0.107977346
13	0x3d5d7803	0.05406953
14	0xbf0f6ad3	-0.56022376
15	0xbf6601cc	-0.8984649
16	0xbf553f23	-0.83299464
17	0xbfe4f3af	-1.7886866
18	0xbffa8c0d	-1.957399
19	0xbf8cde14	-1.1005273
20	0xbf007a6f	-0.5018682
21	0xbfcb25e7	-1.5870942
22	0xbf25bc20	-0.6474018
23	0xbeb510e2	-0.35364443
24	0xbff1bb56	-1.8885295
25	0xbf0e7895	-0.55652744
26	0xbf8ecff5	-1.1157213
27	0x3de196e6	0.1101511
28	0xbefe2918	-0.49640727
29	0xbeae97fe	-0.34100336
30	0xbf9f1bc2	-1.2430346
31	0xbfd7b4bf	-1.6852034
32	0xbf92d7a1	-1.1472055
33	0x3f4855fe	0.78256214
34	0xbeb6bfbe	-0.35693163
35	0xbf950add	-1.164394
36	0xbfa4333b	-1.2828134
37	0xbecaf305	-0.39638534
38	0xbfc7cc64	-1.560925
39	0xbfbcdbc7	-1.4754571
40	0xbf8a39b9	-1.0798866
41	0xbf4a1722	-0.7894155
42	0xbfba615a	-1.4560959
43	0xbf853d84	-1.0409398
44	0xbf4f3230	-0.80935955
45	0xbf32c57f	-0.69832605
46	0x3e96809f	0.29395005
47	0x3d9faa12	0.0779611
48	0xbf68af57	-0.9089255
49	0xbf6851a2	-0.9074956
50	0xbfd29c6f	-1.645399
51	0xbf6c523f	-0.92313
52	0xbf97c307	-1.1856393
53	0xbf80b3d3	-1.0054878
54	0xbf187686	-0.5955585
55	0xbf45c58e	-0.7725457
56	0xbf97a2cb	-1.1846555
57	0xbed1b1cf	-0.4095597
58	0xbf809c9c	-1.0047793
59	0xbfe5a2e3	-1.7940334
60	0xbeaa48df	-0.3325872
61	0xbfc8e59f	-1.5695075
62	0xbfd7f523	-1.6871685
63	0xbf5d3817	-0.8641371
64	0xbfa0f6dd	-1.2575337
65	0xbec7fe9f	-0.39061448
66	0xbf0dd971	-0.55409914
67	0xbf3b6ef4	-0.73216176
68	0xbf76b8fe	-0.96376026
69	0xbfc21644	-1.5163045
70	0xbfdc44cf	-1.7208499
71	0xbf5e2980	-0.86782074
72	0xbfbe79b3	-1.488089
73	0xbf5d85bc	-0.8653219
74	0xbfd0297a	-1.6262658
75	0xbf0ff00e	-0.5622567
76	0xbfbebada	-1.4900773
77	0xbf3487cf	-0.7051973
78	0xbfca229f	-1.5791816
79	0xc017278f	-2.3617895
80	0xbf96c2fa	-1.1778252
81	0xbda7687a	-0.08174224
82	0xbf8cfebd	-1.101524
83	0xbe945a97	-0.28975365
84	0xbe0828b1	-0.13296773
85	0xbec1e253	-0.37867984
86	0xbfb73095	-1.4311701
87	0xbf32d5c6	-0.6985744
88	0xbf4635dc	-0.7742593
89	0xbee3bf31	-0.44481805
90	0xbfcbff90	-1.5937366
91	0xbf45be5a	-0.7724358
92	0xbfa41b7d	-1.2820889
93	0xbd3ec84c	-0.046577737
94	0xbf918626	-1.1369064
95	0xbf844665	-1.0333983
96	0xbf84e897	-1.0383481
97	0xc00bafac	-2.1825972
98	0xbfaabd3d	-1.3339001
99	0xbf745994	-0.95449185
100	0xbdb0b6ae	-0.086285934
101	0xbfc6901f	-1.5512732
102	0xbfdec852	-1.7404883
103	0x3f7c6a10	0.9859934
104	0xbfcf5036	-1.6196353
105	0xbf86f006	-1.0541999
106	0xbf423048	-0.7585492
107	0xbf53d002	-0.8273927
108	0xbe2b0002	-0.16699222
109	0xbf3d2371	-0.73882204
110	0xbf295973	-0.66152114
111	0xbed05b28	-0.40694547
112	0xbf6a9858	-0.9163871
113	0xbfcb0e3c	-1.5863719
114	0xbfdb1cf8	-1.7118216
115	0xbef8a9cb	-0.48567042
116	0xbf62f6a8	-0.8865762
117	0xbf6a0c5a	-0.91425097
118	0xbef8cb2f	-0.48592517
119	0xbf65b687	-0.8973164
120	0xbd64aa91	-0.055826727
121	0xbf85f961	-1.0466729
122	0xbe9b73ec	-0.3036188
123	0xbf7369e1	-0.95083433
124	0x3eaa23f4	0.33230555
125	0xbf7f45d4	-0.99715924
126	0xbf7e1b8d	-0.9926079
127	0xbf76e7d3	-0.96447486
128	0xbd896ac7	-0.06709819
129	0xbfabb2fd	-1.3413998
130	0xbf172405	-0.59039336
131	0xbef76784	-0.48321164
132	0xbfcd6b28	-1.6048326
133	0xbf0b0cf9	-0.5431667
134	0xbe0ca421	-0.13734485
135	0xbe58dd1f	-0.21178101
136	0x3f1515c1	0.5823632
137	0xbe1ea872	-0.15493944
138	0xbf8e3464	-1.1109738
139	0xbf1f3592	-0.62191117
140	0xbf60703c	-0.87671256
141	0xbf40b177	-0.7527079
142	0xbf326c06	-0.6969608
143	0xbf2dca4f	-0.67886823
144	0xbff5c219	-1.9199859
145	0xbf810b66	-1.0081604
146	0xbfa52e82	-1.2904818
147	0xbf984670	-1.1896496
148	0xbf93bb27	-1.1541489
149	0xbf5f2d4a	-0.8717848
150	0xbfded165	-1.7407652
151	0xbf5f3953	-0.87196845
152	0x3da99535	0.08280412
153	0xbf86ad6f	-1.0521678
154	0xbea1b718	-0.31585002
155	0xbe1035e5	-0.14083059
156	0xbf6643ae	-0.8994702
157	0xbed2acec	-0.41147554
158	0xbf363124	-0.7116873
159	0xbf60b0f0	-0.87769985
160	0xbecb3e9e	-0.3969621
161	0xbecfd2c3	-0.40590486
162	0xbf2d21ab	-0.676295
163	0xbf3600ec	-0.71095157
164	0xbfe997c9	-1.8249446
165	0xbf4c051a	-0.79695284
166	0xbf5284eb	-0.82234067
167	0xbf16f1c4	-0.58962655
168	0xbfa96f98	-1.3237181
169	0xbf94d4fa	-1.1627495
170	0xbfb74d8f	-1.4320544
171	0xbf9790d5	-1.1841074
172	0xbf4c6b0e	-0.7985085
173	0xbfe7481f	-1.8068885
174	0xbfecbea4	-1.8495679
175	0xbf42e6b1	-0.7613326
176	0xbe05c873	-0.13064747
177	0xbf8a52e8	-1.0806551
178	0xbf77052e	-0.9649228
179	0xbf2dc935	-0.6788514
180	0xbffdb61c	-1.98212
181	0xbf04d559	-0.5188804
182	0xbf6d0e4c	-0.9259994
183	0xbf527436	-0.82208574
184	0xbfc94dc3	-1.5726856
185	0xbf4b3a03	-0.79385394
186	0xc0008ebb	-2.0087116
187	0xbf7843d9	-0.9697853
188	0xbef51547	-0.47867796
189	0x3f73a274	0.9516976
190	0xbfb613ff	-1.4224852
191	0xbff674df	-1.9254416
192	0xbf86a2a2	-1.0518382
193	0xc012a5b1	-2.291363
194	0xbf047af9	-0.5175014
195	0xbf79d60f	-0.9759225
196	0xbe5eae5a	-0.21746197
197	0xbfdf9304	-1.7466741
198	0xbe517512	-0.20454815
199	0xbf3cb724	-0.7371695
200	0xbf5501bd	-0.8320578
201	0xbfce990f	-1.614046
202	0xbe0f33df	-0.13984631
203	0xbf2e7eb6	-0.68162096
204	0xbf9a3dc5	-1.20501
205	0xbf9b3aac	-1.212728
206	0xc0023fe3	-2.0351493
207	0xbfc56f7b	-1.5424646
208	0xbf2a955f	-0.6663417
209	0xbf80e97d	-1.0071255
210	0x3f8dddac	1.1083274
211	0xbede9eb1	-0.43480447
212	0xbf9c5791	-1.2214223
213	0xbf90b0cd	-1.1303955
214	0xbe87999d	-0.26484385
215	0xbf79179b	-0.97301644
216	0xbf65ad90	-0.8971796
217	0xbf90642d	-1.1280571
218	0xbf8b7b3e	-1.0896986
219	0xbeb37d64	-0.35056603
220	0xbf65e196	-0.8979734
221	0xbf981bc7	-1.1883477
222	0xbfb66ba4	-1.4251599
223	0xbef6c2a3	-0.4819537
224	0xbfb20344	-1.3907247
225	0xbfa272e7	-1.2691315
226	0xbfa021cf	-1.2510318
227	0xbea95da8	-0.33079267
228	0xbf815b46	-1.010598
229	0xbf3ecb35	-0.7452882
230	0xbfa31840	-1.2741776
231	0xbf2eae98	-0.6823516
232	0xc016de48	-2.357317
233	0xbef5d8b3	-0.4801689
234	0xbfd3fc25	-1.6561323
235	0xbfa1e1b1	-1.2647
236	0xbf3ad73c	-0.7298467
237	0xc008f6db	-2.1400669
238	0xbfe960cd	-1.8232666
239	0xbfacd3df	-1.3502158
240	0xbf8bebfa	-1.0931389
241	0xbed8dea3	-0.42357358
242	0xbf137627	-0.5760216
243	0xc00728e8	-2.1118717
244	0xc0032e67	-2.0497072
245	0xbedca046	-0.4309103
246	0xbf5baee3	-0.8581373
247	0xbf1d4b56	-0.6144308
248	0xbe0126a5	-0.12612398
249	0xbf84a712	-1.0363486
250	0xc020f52d	-2.5149643
251	0x3e0c8b99	0.13725127
252	0xbeba52c3	-0.36391267
253	0xbf9548fa	-1.1662896
254	0xbff991bb	-1.9497598
255	0xbffe9a17	-1.9890774
