data/TD3/Reacher-v2/td3_s5768/pyt_save/model.pt (torch_old, 840524 bytes, 16 tensors)

weight f4 [256, 11]
0	0x3f7eeea5	0.9958289
1	0x3e2c52a8	0.16828406
2	0x3dfa2c6d	0.12215505
3	0x3e816f61	0.25280288
4	0x3f896639	1.0734321
5	0xc001eb93	-2.0300033
6	0x3d5e2ef7	0.054244008
7	0x3d07bd0c	0.033139274
8	0x3f1a0943	0.6017038
9	0x40190b3b	2.3913105
10	0xbdf21352	-0.11820091
11	0x3ebaed05	0.36508957
12	0x3e499ffa	0.19689932
13	0xbf618e37	-0.8810763
14	0xbe20b375	-0.15693457
15	0x3ed292f7	0.4112775
16	0x401caa59	2.4478972
17	0x3e436251	0.19080473
18	0xbdfb97e3	-0.122848295
19	0xbf6fc07a	-0.9365307
20	0xbf8185fa	-1.0119011
21	0xbe8c1b54	-0.273646
22	0xbe79c170	-0.24390197
23	0xbd2c2d62	-0.042035468
24	0xbe483898	-0.19552839
25	0x3f6cf74e	0.92564857
26	0xc0113e75	-2.269437
27	0xc038e1e6	-2.8887877
28	0xbd38e974	-0.045144513
29	0x3d8b0b39	0.0678925
30	0x401b751b	2.4290226
31	0x40029cfa	2.040831
32	0x3e821b80	0.25411606
33	0x3f80ccc0	1.0062485
34	0x3de4dc1c	0.11174795
35	0xbf345ee7	-0.7045731
36	0x3e355bb5	0.17710765
37	0x3f8cba92	1.0994437
38	0xbf8c61d1	-1.0967351
39	0x3e84d951	0.2594705
40	0xbe2d13bf	-0.16902064
41	0xc0018517	-2.0237482
42	0xbf1e5e0d	-0.6186226
43	0x3d1da9f0	0.038492143
44	0x3e377ab3	0.179179
45	0x3e513223	0.20429282
46	0x3cd44cf5	0.025915602
47	0xbef3254d	-0.47489396
48	0x4090be89	4.5232587
49	0xbfb2bfe7	-1.3964814
50	0x3d7d65d0	0.061864674
51	0xbdadf8df	-0.08494734
52	0xbfe3b260	-1.7788811
53	0xbe2da7bf	-0.16958521
54	0xbc90a040	-0.017654538
55	0x3d50e1a8	0.050996453
56	0xbe3f9381	-0.18708612
57	0xbf7eaefa	-0.99485743
58	0x3f2d9cf7	0.67817634
59	0x3f36ff02	0.7148286
60	0xbf7053a3	-0.9387762
61	0xbe4138c4	-0.1886931
62	0x3d5c73b6	0.053821288
63	0x40022ad9	2.0338652
64	0xbf0aa2b3	-0.5415451
65	0x3e763f94	0.2404769
66	0xbe61c10b	-0.22046296
67	0xbfa73395	-1.3062617
68	0x3eecccf2	0.4625011
69	0x3ef6e915	0.48224702
70	0x400d13a5	2.204324
71	0x3fa09287	1.2544717
72	0xbe8cd434	-0.27505648
73	0x3e0ddb82	0.13853267
74	0xbf8d2b82	-1.1028903
75	0xc007cc88	-2.1218586
76	0xbb8dc740	-0.004326731
77	0xbf5af8a6	-0.8553566
78	0x3e19a512	0.15004376
79	0xbedebe35	-0.4350449
80	0x3db99b2c	0.090628
81	0xbeb28739	-0.34868792
82	0x3f8df6a0	1.1090889
83	0xbdd4a1e8	-0.10382444
84	0x3e5d7de9	0.21630062
85	0xbe9cc867	-0.30621645
86	0xbfaf0dd2	-1.3676093
87	0xbcd2e860	-0.02574557
88	0x3e25af74	0.16180211
89	0xbf42d454	-0.76105237
90	0x3ee5f7f3	0.44915733
91	0x3eddfaaf	0.4335532
92	0x3ee895f4	0.45426905
93	0xbe0907bc	-0.13381857
94	0x3e541aef	0.207134
95	0x3c9a0e55	0.018805662
96	0x3f26103c	0.6486852
97	0x3eaca7a4	0.3372165
98	0xbe95018f	-0.29102752
99	0xbf9f3479	-1.2437888
100	0xbe4ccc8d	-0.19999905
101	0xbf28fe35	-0.6601289
102	0x3ed604a0	0.41800404
103	0xbff04bb4	-1.8773103
104	0xc05af1f4	-3.4210176
105	0x3e195fb4	0.14977914
106	0x3e8e5fc7	0.27807447
107	0x3f6776a0	0.9041538
108	0x40269752	2.6029859
109	0xbe46b074	-0.19403249
110	0xbeb00e39	-0.3438585
111	0xbe9038f8	-0.28168464
112	0xbf727b8c	-0.9471977
113	0xbf2a0014	-0.6640637
114	0xbcc6d11d	-0.024269635
115	0xc0020d67	-2.032068
116	0x3e13804d	0.14404412
117	0x3e594cd5	0.21220715
118	0xbf472deb	-0.7780444
119	0x3f2601e7	0.6484665
120	0xbbd1f200	-0.0064070225
121	0x3ebaecb2	0.3650871
122	0xbf4fcdcf	-0.81173414
123	0xbf05a21d	-0.5220049
124	0x3f8bf619	1.0934478
125	0x3fba00ef	1.4531535
126	0x3fd2d1fb	1.6470331
127	0x3e102e21	0.14080097
128	0xbe029ffe	-0.12756345
129	0xc020ea78	-2.5143108
130	0xbf0a0c6f	-0.5392522
131	0xbbae5fc0	-0.005321473
132	0x3dfb0919	0.122575946
133	0x3f5b4977	0.85658973
134	0xbf45972a	-0.77183783
135	0xbf0f99b3	-0.560939
136	0x405e5db1	3.4744685
137	0xbf9d221f	-1.2276038
138	0xbcc0e783	-0.023547893
139	0x3d7ca004	0.06167604
140	0xc04e2872	-3.2212186
141	0x3f388c2f	0.72088903
142	0xbdc911b8	-0.09817833
143	0x3f779e88	0.96726274
144	0xbeaf7861	-0.3427153
145	0xbdce960c	-0.10087213
146	0x3f1a6c09	0.603211
147	0x3eb50faf	0.35363528
148	0x3fdcaded	1.7240578
149	0xbdc5df24	-0.09661701
150	0xbe19ad5c	-0.15007538
151	0xbf1acc42	-0.6046792
152	0xbf86eed2	-1.0541632
153	0x3e89cf4e	0.26915973
154	0x3f50303c	0.813236
155	0xbf7cd1f0	-0.9875784
156	0xbedd5381	-0.4322777
157	0xbed447fa	-0.41461164
158	0xbea2bd8b	-0.31785235
159	0xc05c8984	-3.4458933
160	0xbd55ac7f	-0.05216646
161	0xbd770100	-0.060303688
162	0xbfcd684a	-1.6047451
163	0x3fa1f9ef	1.2654399
164	0x3e3ee76e	0.18642971
165	0x3ef68691	0.4814954
166	0xbfb072f5	-1.3785082
167	0xbe0cb5f7	-0.13741289
168	0x3cdf7a0b	0.027279874
169	0xbf96e327	-1.1788071
170	0xbcd92b75	-0.02650998
171	0xbd15f9f7	-0.03661534
172	0x3e329c13	0.1744235
173	0x3f42a59c	0.7603395
174	0xbf00a124	-0.5024588
175	0x3e0e13da	0.1387476
176	0xbe9f7574	-0.31144297
177	0xbf01a75a	-0.50645983
178	0xbf3a63d8	-0.728086
179	0xbf4ec0bd	-0.80762845
180	0xc019338e	-2.3937716
181	0x3fa13321	1.2593728
182	0xbe745688	-0.23861134
183	0xbe6f3892	-0.23361424
184	0x3f67e253	0.9057972
185	0xbfb0eb53	-1.3821815
186	0x3e7f268c	0.24917048
187	0xbe5f0c87	-0.21782123
188	0xbf2cba26	-0.6747154
189	0x3f69923b	0.91238755
190	0x3e14187b	0.14462464
191	0xc02925d9	-2.642935
192	0x3f6c6e43	0.92355746
193	0x3bca60c6	0.006176087
194	0xbc0ff76d	-0.008787018
195	0x3fb1cd2a	1.3890736
196	0xbe796701	-0.24355699
197	0x3e0ccfe6	0.13751182
198	0xbe47f953	-0.19528703
199	0x3d7ffc82	0.06249667
200	0x3f0707ff	0.52746576
201	0xbe0023ef	-0.12513708
202	0xbfd89a51	-1.6922094
203	0x408d5632	4.416772
204	0xbda4fd80	-0.08056164
205	0x3d468ce7	0.04847422
206	0x3e4c44e1	0.1994815
207	0xc0353b28	-2.8317356
208	0xbd0e8758	-0.034797043
209	0xbf2fb8fc	-0.6864164
210	0xbf1307f8	-0.57434034
211	0xbf1ddeb2	-0.6166793
212	0x3eb6159d	0.35563365
213	0xbf0953a3	-0.53643245
214	0xc0843912	-4.1319666
215	0x3d1b53ad	0.037921596
216	0xbcb10af2	-0.021611664
217	0x3f6c649d	0.92341024
218	0x402d95bb	2.7122638
219	0xbdad86d0	-0.08472979
220	0x3b2fb2b0	0.0026809387
221	0xbe85dc9c	-0.26144874
222	0xbf40e386	-0.75347173
223	0x3f9c556c	1.2213569
224	0x40132d89	2.2996542
225	0x3f40daad	0.7533367
226	0x3d3addc0	0.045621634
227	0xbb945b9f	-0.0045275236
228	0xbf8e4118	-1.1113615
229	0x3de1f8db	0.110337935
230	0xbe99852c	-0.29984415
231	0xbf974685	-1.1818396
232	0x3f204e9f	0.62619966
233	0xbdee37b5	-0.11631719
234	0x3efda76b	0.49541792
235	0x3fe22254	1.7666726
236	0xbf9bd170	-1.217329
237	0xbd495690	-0.049154818
238	0xbd1aca54	-0.03779061
239	0xc04e8bd3	-3.2272842
240	0x3f2328dc	0.6373422
241	0x3d83f26c	0.06442723
242	0x3f391b89	0.7230764
243	0x3f40edcc	0.7536285
244	0xbec66cba	-0.38754827
245	0xbcbf9ce7	-0.023390247
246	0x3e0d000a	0.13769546
247	0xbeb4f010	-0.35339403
248	0x3e7a52a9	0.24445595
249	0x3e00132f	0.12507318
250	0x3fb0be11	1.3808004
251	0x3d214ac8	0.039377958
252	0xbd5b859c	-0.053594217
253	0x3d839c11	0.06426252
254	0x3f63c4c3	0.8897211
255	0xbe214f11	-0.15752818

bias f4 [256]
0	0xbf60e6a8	-0.87851954
1	0xbf3cdc8e	-0.7377404
2	0xbf3fa147	-0.74855465
3	0xbff7b2f8	-1.9351492
4	0xbe92abea	-0.28646785
5	0xbfbf8f97	-1.4965695
6	0xbfd2bc26	-1.6463668
7	0xbfaa7042	-1.3315508
8	0xbf37c890	-0.7179041
9	0xbf5c3ae1	-0.8602734
10	0xbfb46795	-1.4094111
11	0xbf804a68	-1.0022707
12	0xbf69bc3a	-0.91302836
13	0xbee58ff7	-0.448364
14	0xbf78ed9b	-0.9723756
15	0xbf93258f	-1.1495837
16	0xbfaf6f33	-1.370581
17	0xbf2a1fc2	-0.6645471
18	0xbf4512d5	-0.7698186
19	0xbf01e429	-0.5073877
20	0xbf06d471	-0.5266791
21	0xbf6ef565	-0.9334319
22	0xbf40f3dc	-0.753721
23	0xbfb93435	-1.4469057
24	0xbf389e6c	-0.7211673
25	0xbfd782cc	-1.6836791
26	0xbe9e5ebb	-0.3093165
27	0xbed51fb3	-0.41625747
28	0xbfc57432	-1.5426085
29	0xbf53616c	-0.8257053
30	0xbf7b5788	-0.9818044
31	0xbfbce1ff	-1.4756469
32	0xbf83b241	-1.0288774
33	0xbf9e29d4	-1.2356515
34	0xbf711486	-0.9417194
35	0xbf80fe0b	-1.0077528
36	0xbf1d1e39	-0.6137424
37	0xbf6cbdf3	-0.9247734
38	0xbf8b53b6	-1.0884922
39	0xbf352dce	-0.7077302
40	0xbe81b60c	-0.25334203
41	0xbf014b28	-0.50505304
42	0xbf2ba31a	-0.6704575
43	0xbfaa1fd6	-1.3290966
44	0xbf47f529	-0.7810846
45	0xbfdd97da	-1.7311966
46	0xbf75cac9	-0.9601255
47	0xbf8b55cc	-1.0885558
48	0xbef173f0	-0.47158766
49	0xbef6ff68	-0.48241735
50	0xbf075732	-0.52867424
51	0xbf2568e6	-0.6461319
52	0xbf8001c4	-1.0000539
53	0xbfc7c481	-1.5606843
54	0xbfaeec90	-1.3665943
55	0xbfa04baa	-1.2523091
56	0xc0139010	-2.3056679
57	0xbf91713f	-1.1362685
58	0xbf5201f0	-0.82034206
59	0xbf5141f0	-0.8174124
60	0xbf2759b7	-0.6537127
61	0xbf941b5f	-1.1570853
62	0xbf571279	-0.8401256
63	0xbf936f01	-1.1518251
64	0xbf9ab09e	-1.2085149
65	0xbe913e28	-0.28367734
66	0xbf921531	-1.1412717
67	0xbf4ea79b	-0.80724496
68	0xbfa76e7b	-1.3080591
69	0xbf794baf	-0.9738111
70	0xbfac7a83	-1.3474888
71	0xbef77cc4	-0.48337376
72	0xbf5fd9d5	-0.8744176
73	0xbea14f44	-0.31505787
74	0xbff18128	-1.886754
75	0xbfac6e28	-1.3471117
76	0xbece3f7f	-0.4028282
77	0xbf82fa77	-1.0232686
78	0xbf9c4a9e	-1.2210271
79	0xbf55b4f0	-0.83479214
80	0xbf06adf2	-0.5260917
81	0xbf1938bb	-0.5985219
82	0xbf9b5e3c	-1.2138133
83	0xbefd42cb	-0.49465021
84	0xbfcfb949	-1.622842
85	0xbfb0f73d	-1.3825451
86	0xbf5339bd	-0.82509977
87	0xbf8e29d5	-1.1106516
88	0xbf45f002	-0.7731935
89	0xbfec8d1c	-1.8480563
90	0xbf6eb9bc	-0.9325216
91	0xbf4744d3	-0.7783939
92	0xbf916193	-1.1357902
93	0xbf08ab95	-0.53386813
94	0xbf86d19e	-1.053272
95	0xbf744835	-0.9542268
96	0xbf826c58	-1.0189314
97	0xbf86228d	-1.0479294
98	0xbf5a35b3	-0.8523819
99	0xc0024328	-2.035349
100	0xbf89cb6f	-1.0765208
101	0xbf0e1aae	-0.5550946
102	0xbfa3ef30	-1.2807369
103	0xbf518e98	-0.81858206
104	0xbf282ffe	-0.6569823
105	0xbe6eec46	-0.23332319
106	0xbfbf838c	-1.496202
107	0xbf61fe76	-0.882789
108	0xbf4b4900	-0.79408264
109	0x3e1a29a8	0.15054953
110	0xbf1a4b22	-0.60270894
111	0xbf1de283	-0.61673754
112	0xbf811b20	-1.0086403
113	0xbfae94d8	-1.3639174
114	0xc003bf38	-2.058546
115	0xbfcf17bb	-1.6179117
116	0xbf6f5901	-0.93495184
117	0xbf43e4c2	-0.7652093
118	0xbf420999	-0.75795895
119	0xbe90d550	-0.28287745
120	0xbf4bf405	-0.7966922
121	0xbf57de9a	-0.8432404
122	0xbfd61ee9	-1.6728183
123	0xbf2d4339	-0.676807
124	0xbf91b8c0	-1.1384506
125	0xbf3b2ade	-0.73112285
126	0xbfb1459a	-1.3849366
127	0xbf886dc9	-1.0658504
128	0xbf3ea18e	-0.7446526
129	0xbeb6d029	-0.3570569
130	0xbf7ebee3	-0.9951002
131	0xbfa814b5	-1.3131319
132	0xbf386fd4	-0.72045636
133	0xbfc4ac31	-1.5365049
134	0xbf6b1df5	-0.91842586
135	0xbea7fc3d	-0.3280963
136	0xbf6dcf4b	-0.9289443
137	0xbfb1cc08	-1.389039
138	0xbfc4a225	-1.5361983
139	0xbf1899a9	-0.59609467
140	0xbf6afb85	-0.9179004
141	0xbf91ddef	-1.1395854
142	0xbf631b6c	-0.8871372
143	0xbf334a39	-0.7003513
144	0xbf75cf73	-0.9601967
145	0xbf566209	-0.8374334
146	0xbf74c7b5	-0.9561723
147	0xbff267ac	-1.8937888
148	0xbf8c67f0	-1.0969219
149	0xbecec648	-0.40385652
150	0xbf42a1ab	-0.76027936
151	0xbfd97f88	-1.6992044
152	0xbf94689a	-1.1594422
153	0xbfb1221f	-1.3838538
154	0xbf71b390	-0.94414616
155	0xbf3efe02	-0.74606335
156	0xbefba313	-0.49147853
157	0xbfa2486f	-1.2678355
158	0xbfff3e64	-1.9940915
159	0xbee5aad4	-0.44856894
160	0xbfa1ff22	-1.2655985
161	0xbf6c3bb2	-0.9227859
162	0xbf8e52c7	-1.1119012
163	0xbfdd52e7	-1.7290925
164	0xbe61f051	-0.2206433
165	0xbfb4abbb	-1.4114908
166	0xbf5b76cd	-0.8572815
167	0xbf426bf9	-0.75946003
168	0xbf42cbd0	-0.76092243
169	0xbfb449e7	-1.4085053
170	0xbf75711c	-0.95875716
171	0xbf2003c5	-0.6250575
172	0xbffd480d	-1.9787613
173	0xbf98c342	-1.1934588
174	0xbf7bfd8f	-0.98433775
175	0xbf6df8fa	-0.92958033
176	0xbf34b606	-0.70590246
177	0xbfa0a8f4	-1.255156
178	0xbf54e122	-0.83156025
179	0xbf2f0292	-0.68363297
180	0xbf3a845b	-0.7285821
181	0xbf350e2d	-0.70724756
182	0xbf80bad5	-1.0057017
183	0xbfc856ac	-1.565145
184	0xbf0be1e6	-0.5464157
185	0xbf263399	-0.6492248
186	0xbf9e764f	-1.2379855
187	0xbec42291	-0.38307622
188	0xbf53239d	-0.82476217
189	0xbf868fd3	-1.0512642
190	0xbf424b7e	-0.7589644
191	0xbf86a689	-1.0519572
192	0xbef49302	-0.47768408
193	0xbf98ebb0	-1.1946926
194	0xbf0987d4	-0.5372288
195	0xbf4c4cda	-0.79804766
196	0xbf91d49f	-1.1393012
197	0xbf7d9167	-0.9904999
198	0xbf81330e	-1.0093706
199	0xbf3037a5	-0.68834907
200	0xbfb52dc6	-1.4154594
201	0xbf639df6	-0.88912904
202	0xbf551496	-0.83234537
203	0xbf9c34bd	-1.2203594
204	0xbf9e86e0	-1.238491
205	0xbfa20878	-1.2658834
206	0xbf74b453	-0.9558765
207	0xbf787dad	-0.97066766
208	0xbf9e9794	-1.2390008
209	0xbf9ada04	-1.2097783
210	0xbe609d88	-0.21935093
211	0xbf971786	-1.1804054
212	0xbf077aed	-0.52921945
213	0xbf34b6ea	-0.70591605
214	0xbf257c7b	-0.6464307
215	0xbf5a1b8a	-0.8519827
216	0xbf99bb2b	-1.2010244
217	0xbfb84189	-1.4395
218	0xbfaaed1c	-1.335361
219	0xbfe78bc6	-1.808953
220	0xbfa496b4	-1.2858491
221	0xbf97dde2	-1.1864588
222	0xbf33cfd8	-0.7023902
223	0xbf87e695	-1.0617243
224	0xbf7c5a25	-0.9857505
225	0xbf906fc2	-1.1284106
226	0xbf5ed1fb	-0.87039155
227	0xbf979cb5	-1.1844698
228	0xbf3611aa	-0.71120703
229	0xbf9b14fd	-1.211578
230	0xbe94f732	-0.29094845
231	0xbe924f75	-0.28576246
232	0xbf64d7f5	-0.89392024
233	0xbede6903	-0.43439493
234	0xbf8e3ed3	-1.1112922
235	0xbf1a9d58	-0.6039634
236	0xbf598785	-0.8497241
237	0xbf864e67	-1.0492676
238	0xbf247402	-0.64239514
239	0xbfa4c396	-1.2872188
240	0xbf04bd12	-0.51851
241	0xbf93cf0e	-1.1547563
242	0xbf704a21	-0.9386311
243	0xbf954ae9	-1.1663486
244	0xbf836d77	-1.0267781
245	0xbf898557	-1.0743817
246	0xbf957c17	-1.1678494
247	0xbf6113ec	-0.87921023
248	0xbf1ecd60	-0.6203213
249	0xbf754f29	-0.95823914
250	0xbf44073b	-0.7657353
251	0xbfd5bf35	-1.6698977
252	0xbf402f77	-0.75072426
253	0xbf5887f2	-0.84582436
254	0xbf475af8	-0.7787318
255	0xbf2e1442	-0.6799966

weight f4 [256, 256]
0	0xbd7d85b7	-0.0618951
1	0x3c5782ab	0.013153712
2	0xbdb96ef8	-0.09054369
3	0x3d856039	0.06512494
4	0xbdfa3def	-0.12218844
5	0xbcb2a238	-0.021805868
6	0xbd1273cd	-0.035754967
7	0xbda00764	-0.0781391
8	0xbd511cad	-0.051052738
9	0xbd81e2ec	-0.0634211
10	0xbd486067	-0.04892006
11	0xbd782e97	-0.060591307
12	0xbca646be	-0.020297404
13	0x3c687245	0.0141874
14	0xbd6e277d	-0.058143128
15	0xbb965124	-0.0045873094
16	0x3b6c1ae3	0.0036026768
17	0xbd2efce4	-0.042721644
18	0xbd73dec5	-0.05953862
19	0xbdeee0c8	-0.11663967
20	0xbc0db3d4	-0.008648831
21	0xbd52b926	-0.051446103
22	0x3c6ecd33	0.0145752905
23	0x3b5a6585	0.003332467
24	0xbcd29941	-0.025707843
25	0xbbb06c86	-0.0053840308
26	0xbdd9b00c	-0.106292814
27	0xbd45fe27	-0.04833808
28	0xbd833bb2	-0.0640787
29	0xbcfa3975	-0.030544976
30	0xbd1c2683	-0.038122665
31	0xbda7002b	-0.08154329
32	0xbcccb886	-0.024990331
33	0xbd9b63af	-0.075873725
34	0x3cb1807e	0.021667715
35	0xbd957ffa	-0.072998
36	0xbd56262b	-0.052282494
37	0xbd8ab07a	-0.067719415
38	0xbbd800d0	-0.0065918937
39	0x3cbc942f	0.023019878
40	0xbcc4b76e	-0.024013247
41	0x3c642286	0.013924247
42	0xbd641805	-0.05568697
43	0xbdb79b24	-0.089651376
44	0xbd77da42	-0.06051088
45	0xbd85603d	-0.065124966
46	0xbd9e2094	-0.077210575
47	0x3d170099	0.036865804
48	0xbd640320	-0.055667043
49	0xbdaf7720	-0.08567643
50	0xbcada9f9	-0.021199213
51	0xbdb72ca3	-0.08944061
52	0xbdbc49e4	-0.09193781
53	0xbd624cd0	-0.055249035
54	0xbdb21a49	-0.0869642
55	0xbdb3bd0e	-0.08776294
56	0xbd79a30b	-0.060946506
57	0x3c8e765c	0.017390423
58	0xbcabac0b	-0.02095606
59	0xbb21a6d4	-0.0024666088
60	0xbcbfd9d4	-0.023419298
61	0x3c7d0181	0.015442253
62	0xbcd80a5f	-0.026372133
63	0x3c2d8680	0.010591149
64	0x3cdf355d	0.027247125
65	0xbdbe6519	-0.092966266
66	0x3c0397d3	0.008031803
67	0xbdcb8460	-0.09937358
68	0x3c8283d7	0.015932007
69	0xbd45962f	-0.04823893
70	0xbc6b76ed	-0.014371616
71	0xbd8b8714	-0.068128735
72	0x3c807df6	0.015685063
73	0xbd6f5a2e	-0.05843561
74	0x3b5ba15c	0.0033512926
75	0xbcbf8250	-0.023377568
76	0xbc95c4cf	-0.018282322
77	0xbdd9035b	-0.10596343
78	0xbd7c51f1	-0.061601583
79	0xbd57df32	-0.05270309
80	0xbbaab123	-0.0052091046
81	0xbdc22c5c	-0.09481117
82	0x3c25f7e2	0.010129901
83	0xbd6de959	-0.058083866
84	0xbc8b137e	-0.016977068
85	0xbd1ae86b	-0.037819307
86	0xbce19452	-0.027536545
87	0xbd6b9031	-0.05751056
88	0xbd2bc021	-0.041931275
89	0xbd63b578	-0.055592984
90	0xbd38b2c3	-0.045092355
91	0xbd8d633c	-0.06903693
92	0x3c905ddc	0.01762288
93	0xbcdb4b99	-0.026769446
94	0xbcb37919	-0.02190833
95	0xbcef2b46	-0.02919544
96	0xbc2853a5	-0.010273849
97	0xbd5f503e	-0.054519884
98	0xbc9b4cd8	-0.01895754
99	0xbce6124e	-0.0280849
100	0xbd0f590f	-0.034997042
101	0xbcc313c5	-0.023813138
102	0xbd867b7e	-0.06566523
103	0xbdcea974	-0.10090914
104	0x3c99831e	0.01873928
105	0xbd1ff89f	-0.039055463
106	0xbc9d1e1d	-0.019179398
107	0xbcbaa7b4	-0.022785045
108	0x3ac2e3e7	0.0014868946
109	0xbdc8a9d9	-0.09798021
110	0x3b86ec29	0.004117508
111	0x3d1530e5	0.036423583
112	0xbd5a47d0	-0.053291142
113	0xbad6425d	-0.0016346682
114	0xbb7a5200	-0.0038195848
115	0x3ccdbd57	0.025114698
116	0x3d3b80c6	0.045777105
117	0xbcb9ec52	-0.022695694
118	0xbdde24a0	-0.108468294
119	0xbdc70f9b	-0.097197734
120	0xbd80e4d6	-0.06293647
121	0xbcec55ea	-0.02884956
122	0x3c960fa4	0.018318005
123	0xbd31d447	-0.043415334
124	0x3c442d2b	0.0119736595
125	0xbc2dd7cb	-0.010610531
126	0xbd320a40	-0.043466806
127	0xbdbf3d6e	-0.09337889
128	0x3c6a4eff	0.014301061
129	0xbdbf04ce	-0.09327088
130	0xbd003aea	-0.031306185
131	0x3cf1ec84	0.029531725
132	0xbcf30e79	-0.029669987
133	0x3d239404	0.03993608
134	0xbb736dc1	-0.0037144276
135	0x3b1aebd9	0.0023639111
136	0xbd001fc5	-0.031280298
137	0xbd6de0b1	-0.05807561
138	0xbd611e5b	-0.05496059
139	0xbd87cb65	-0.06630591
140	0x3c6225ee	0.013802988
141	0x3ce67eef	0.028136699
142	0xbcc6979e	-0.024242219
143	0xbd98bfed	-0.07458482
144	0xbe00a463	-0.12562709
145	0x3c765f83	0.01503742
146	0xbd5eb0a1	-0.054367665
147	0xbd34a0cc	-0.04409866
148	0x3b74b0ee	0.0037336904
149	0xbd8dda80	-0.06926441
150	0xbc2dd994	-0.010610957
151	0xbcfb0785	-0.030643234
152	0xbc38b61f	-0.01127389
153	0x3b97a71d	0.0046280758
154	0xbcb9fee2	-0.022704545
155	0xbdad338b	-0.08457097
156	0xbd9d847e	-0.076912865
157	0xbd5ae2a1	-0.053438786
158	0xbd8ee433	-0.06977119
159	0xbd25ee58	-0.040510505
160	0x3c2e9806	0.010656362
161	0xbd25591a	-0.040368177
162	0x3c8c5445	0.017130027
163	0xbddc3fde	-0.10754369
164	0xbd6998d1	-0.057030503
165	0x3b58c638	0.0033077132
166	0x3b005a7a	0.0019585178
167	0x3ca8f995	0.020626822
168	0xbd1579aa	-0.03649298
169	0xbb18ec99	-0.0023334383
170	0x3c98eb41	0.018666865
171	0xbc1a4c87	-0.00941766
172	0xbc2f480e	-0.0106983315
173	0xbd88ee5d	-0.06686089
174	0x3d15d715	0.03658207
175	0xbd7dde72	-0.06197972
176	0x3c6b44ed	0.014359695
177	0xbd823761	-0.06358219
178	0xbd5b7803	-0.05358125
179	0xbdacade7	-0.08431607
180	0xbd38c501	-0.045109753
181	0x3bf1ea96	0.007382701
182	0x3b535ffd	0.0032253258
183	0xbd3fbb74	-0.04680963
184	0xbd636ae4	-0.05552186
185	0xbbb5c8f9	-0.0055476394
186	0x3c68e166	0.014213895
187	0xbd052162	-0.03250254
188	0xbda4713c	-0.0802941
189	0x3cecbf1b	0.02889972
190	0xbd7e7754	-0.06212552
191	0x3c323667	0.010877228
192	0xbcbaf996	-0.02282409
193	0xbd83389d	-0.064072825
194	0xbca3d5cd	-0.01999941
195	0x3bcc3674	0.0062320773
196	0xbd9f94c0	-0.07792044
197	0xbc637514	-0.013882894
198	0xbd3752aa	-0.04475657
199	0x3b58f55d	0.0033105232
200	0xbd2a83f3	-0.041629743
201	0x3c4bc695	0.012437482
202	0xbd7b1cfa	-0.06130693
203	0xbc6e55e3	-0.014546844
204	0xbdb17d09	-0.08666427
205	0xbc9ad20e	-0.01889899
206	0xbbec7a59	-0.0072167334
207	0xbd25d8d2	-0.04048998
208	0xbd35b6d7	-0.044363823
209	0xbc2ee8ac	-0.0106755905
210	0xbc4aa73d	-0.012368974
211	0xbd21977e	-0.039451115
212	0xbcb91a6f	-0.022595612
213	0xbdd221b2	-0.10260333
214	0xbccf56d0	-0.02530995
215	0xbc58b233	-0.01322608
216	0xbc053bfe	-0.008131979
217	0x3c28d33e	0.01030427
218	0x3c511f6d	0.01276384
219	0xbcf3e27a	-0.029771078
220	0x3cd874ee	0.026422944
221	0xbdb23669	-0.08701784
222	0xbd15cb04	-0.036570564
223	0xbdb3368d	-0.08750639
224	0xbd88a026	-0.06671171
225	0xbdaa8f3c	-0.08328101
226	0xbd117e1e	-0.035520665
227	0x3d0a05a9	0.033696804
228	0x3a2e0265	0.000663793
229	0xbdda2239	-0.10651059
230	0xbd17dafc	-0.037074074
231	0xbbdde7f3	-0.0067720353
232	0xbd14c294	-0.036318377
233	0x3d2db712	0.042410918
234	0xbb9c339d	-0.004766895
235	0x3ca0822e	0.019593325
236	0xbd57a2c0	-0.052645445
237	0xbc735a7b	-0.014853115
238	0xbdc2b357	-0.095068626
239	0xbd662acb	-0.056193154
240	0xbd03d9de	-0.032190196
241	0xbd901236	-0.070347235
242	0xbcbbe913	-0.022938287
243	0xbd6c9f6a	-0.057769217
244	0xbdccb5bb	-0.099956
245	0xbc991178	-0.018685088
246	0xbd048a88	-0.032358676
247	0xbdb289c5	-0.08717684
248	0xbdaa7cb4	-0.083245665
249	0xbdafd9a3	-0.08586433
250	0x3b204c89	0.002445968
251	0xbdb299c2	-0.08720733
252	0x3c7d3f62	0.015457006
253	0xbd6ab60e	-0.057302527
254	0xbd89be24	-0.067257196
255	0xbd380d43	-0.044934522

bias f4 [256]
0	0xbd9e683a	-0.077347234
1	0xbf4f57a2	-0.8099309
2	0xbf16c06b	-0.58887357
3	0xbca1a016	-0.019729655
4	0xbe6f4e61	-0.23369743
5	0xbdadce73	-0.08486643
6	0xbd0e6861	-0.034767512
7	0xbd1ff933	-0.039056014
8	0xbe001430	-0.12507701
9	0xbd39c058	-0.04534945
10	0xbd98bd22	-0.07457949
11	0xbd921278	-0.07132429
12	0xbd4878bc	-0.048943266
13	0xbd1f47b2	-0.038886733
14	0xbdf87bd9	-0.12132997
15	0xbd90187a	-0.070359185
16	0xbdff8798	-0.12477034
17	0xbed4b179	-0.4154165
18	0xbe929ca5	-0.28635135
19	0xbea2a455	-0.31766
20	0xbd25e345	-0.040499944
21	0xbeed6f21	-0.46373847
22	0xbafcfdcc	-0.0019301712
23	0xbd56f964	-0.05248393
24	0xbda2140d	-0.07913981
25	0xbd1be2f9	-0.038058255
26	0xbd92656a	-0.071482494
27	0xbebd9aae	-0.37032074
28	0xbdfcbc47	-0.123405986
29	0xbd96d4bb	-0.07364794
30	0xbe9b8453	-0.30374393
31	0xbefd8dd0	-0.49522257
32	0xbc173585	-0.009229069
33	0xbd1f30bc	-0.038864836
34	0xbe46c90d	-0.19412632
35	0xbe637212	-0.22211483
36	0xbe862513	-0.2620016
37	0xbd6317bc	-0.055442557
38	0xbd4bed54	-0.04978688
39	0x3c67ed29	0.0141556645
40	0xbe8e30f4	-0.27771723
41	0xbe871dbb	-0.2638987
42	0xbd7f3059	-0.062301967
43	0xbd91d1a9	-0.071200676
44	0xbe38f34a	-0.18061557
45	0xbcf761b9	-0.030197965
46	0xbd51d979	-0.05123279
47	0xbe90cbc1	-0.28280452
48	0xbd1ccf56	-0.03828367
49	0xbf1536fb	-0.5828702
50	0xbd6b1899	-0.057396505
51	0x3ec16cdb	0.37778363
52	0xbc927a3a	-0.017880548
53	0xbd06813f	-0.032838102
54	0xbd56f7f4	-0.05248256
55	0xbde7e6c3	-0.11323311
56	0xbd887135	-0.066622175
57	0xbd091900	-0.033471107
58	0xbf400d3a	-0.7502018
59	0xbcf7bb6e	-0.03024074
60	0xbdc24b88	-0.09487063
61	0xbdc5f816	-0.09666459
62	0xbde2cc89	-0.11074168
63	0xbcf43d68	-0.029814437
64	0xbf2060b4	-0.6264756
65	0xbd90e5bd	-0.07075069
66	0xbdf13739	-0.11778111
67	0xbdb09335	-0.086218275
68	0xbc9f6f91	-0.019462379
69	0xbed61e06	-0.4181978
70	0x3c16c4c4	0.009202186
71	0xbd3d5e46	-0.046232484
72	0xbcd73e2c	-0.026274763
73	0xbe3c63c8	-0.18397439
74	0xbea82fb8	-0.32848907
75	0xbde964b5	-0.113961615
76	0xbdb65955	-0.089037575
77	0xbd1ec0f3	-0.03875823
78	0xbd286042	-0.041107424
79	0xbe544fa2	-0.20733503
80	0xbcf89b9e	-0.030347642
81	0xbd55165a	-0.05202327
82	0xbd9b4fe9	-0.07583601
83	0x3db3b349	0.0877443
84	0xbdec4eb5	-0.1153845
85	0xbdeb990d	-0.115038015
86	0xbd9bf5d2	-0.07615246
87	0xbe88d394	-0.2672392
88	0xbdf5a5e7	-0.11994534
89	0xbd29838e	-0.041385226
90	0xbe0425aa	-0.12904993
91	0xbe20cae1	-0.15702392
92	0xbe72ee42	-0.237237
93	0xbe22679b	-0.15859835
94	0xbd5fc84d	-0.05463438
95	0xbd60e859	-0.054909084
96	0xbf1e0503	-0.617264
97	0xbdfa8aeb	-0.12233528
98	0xbcd4dc1f	-0.025983868
99	0x3ea0b9ed	0.3139185
100	0xbe8ed2d7	-0.27895233
101	0x39e47d9a	0.0004358113
102	0xbd7da9ec	-0.06192963
103	0xbd872979	-0.06599707
104	0xbd552808	-0.05204013
105	0xbcd8a9a1	-0.026448073
106	0xbdae8e64	-0.085232526
107	0xbdae443b	-0.08509108
108	0x3c0549da	0.008135283
109	0xbdb606ff	-0.08888053
110	0xba442b1f	-0.0007483232
111	0xbe0bb489	-0.13643087
112	0x3ea2c094	0.3178755
113	0xbda6e43b	-0.08149
114	0x3db7dea3	0.089780115
115	0xbd56e295	-0.05246218
116	0x3e641bb7	0.22276197
117	0xbd741fb0	-0.059600532
118	0xbdaf7cfe	-0.08568762
119	0xbdb05ef9	-0.086118646
120	0xbd67810b	-0.05651955
121	0xbe3d1046	-0.18463239
122	0xbd5d31d5	-0.0540026
123	0xbdd1361f	-0.10215401
124	0xbe08d4db	-0.13362448
125	0xbce3f949	-0.02782883
126	0xbd80d203	-0.062900566
127	0xbe063ccc	-0.1310913
128	0xbc835c50	-0.016035229
129	0xbd2983bc	-0.041385397
130	0xbc2b9597	-0.010472677
131	0xbda367a8	-0.07978755
132	0xbe4be811	-0.19912745
133	0xbf097310	-0.53691196
134	0xbf1b52eb	-0.606734
135	0x3e9981be	0.29981798
136	0x3c894262	0.016755287
137	0xbb057cbb	-0.0020368535
138	0xbdb02cb8	-0.086022794
139	0xbdad19f6	-0.08452217
140	0xbdd8b8a5	-0.10582093
141	0xbed70303	-0.41994485
142	0xbde95f80	-0.11395168
143	0xbd764a1f	-0.06012928
144	0xbd0bdb54	-0.034144714
145	0x3db86f94	0.09005657
146	0xbd6c8752	-0.05774624
147	0xbbb21ab1	-0.005435311
148	0xbe00663a	-0.12538996
149	0xbd883835	-0.06651346
150	0xbd6ff6d7	-0.058585014
151	0xbd5b3592	-0.053517886
152	0xbd6bc516	-0.057561003
153	0xbd67faeb	-0.05663578
154	0xbd4c6184	-0.049897686
155	0xbb6c6a9c	-0.0036074286
156	0xbdbf6062	-0.093445554
157	0xbda49ac5	-0.080373324
158	0xbef6a0b2	-0.48169476
159	0xbeb920d2	-0.36157852
160	0xbe1f7f5f	-0.15575932
161	0xbdda1938	-0.10649341
162	0xbd7782aa	-0.060427345
163	0xbd8dda73	-0.069264315
164	0xbd6fae4c	-0.05851583
165	0xbd90d3f4	-0.07071677
166	0xbde28b5f	-0.11061739
167	0xbf038bdc	-0.51385283
168	0x3bb033d3	0.0053772717
169	0xbeccd4f2	-0.40006214
170	0xbd806994	-0.062701374
171	0xbdb9e5b6	-0.09077017
172	0xbdd06d4d	-0.101770975
173	0xbe5b201b	-0.21398966
174	0xbda28a97	-0.0793659
175	0xbe564a53	-0.2092679
176	0xbcad0e36	-0.02112494
177	0xbdcf94f9	-0.10135836
178	0xbd09570c	-0.03353028
179	0xbecae09f	-0.39624497
180	0xbdcc6980	-0.0998106
181	0x3e2c6ddc	0.16838783
182	0xbd8a3461	-0.06748272
183	0xbdbab8d9	-0.09117288
184	0xbc9b1906	-0.01893283
185	0xbcd74192	-0.026276384
186	0x3f208fba	0.6271931
187	0xbbc7148c	-0.0060754474
188	0xbda6182f	-0.081100814
189	0xbdd89576	-0.105753824
190	0xbf7b9eaa	-0.9828898
191	0xbdb52d6d	-0.08846555
192	0xbd33705b	-0.043808322
193	0xbf562a93	-0.83658713
194	0xbdc592b9	-0.09647126
195	0xbdd1cdca	-0.10244329
196	0xbe01f366	-0.12690505
197	0xbcfb9a3c	-0.030713193
198	0xbd376933	-0.04477806
199	0xbda3d9aa	-0.080005005
200	0xbf0a2d4b	-0.5397536
201	0xbd9656f2	-0.07340802
202	0xbd7fe06f	-0.062469896
203	0xbe53bb60	-0.20676947
204	0xbde29c47	-0.11064964
205	0xbdd1f9d6	-0.102527305
206	0xbdcd8a2c	-0.1003612
207	0xbf5078a7	-0.814341
208	0xbdc54380	-0.09632015
209	0xbe1b748d	-0.1518118
210	0x3a083c9a	0.00051970186
211	0xbdc2d74f	-0.09513723
212	0xbdeb7bd5	-0.114982285
213	0xbe1d6977	-0.15372263
214	0xbde2e3ff	-0.11078643
215	0x3e03a503	0.12855916
216	0xbd9c5ec0	-0.0763526
217	0xbe4524a1	-0.19252254
218	0xbc4ef9fb	-0.012632842
219	0xbec3dea8	-0.3825581
220	0xbf0c029d	-0.5469149
221	0xbe018d5a	-0.12651578
222	0xbdaad3b8	-0.083411634
223	0xbd2bd1cc	-0.041948125
224	0xbdbecd32	-0.09316482
225	0xbdb3b1d9	-0.08774156
226	0xbdceb8fe	-0.10093878
227	0xbbd2a496	-0.0064283116
228	0xbdad401a	-0.08459492
229	0x39956e2e	0.00028501585
230	0xbe21a017	-0.15783726
231	0xbcd6bebc	-0.026213996
232	0xbce3d15a	-0.027809788
233	0xbe5088ba	-0.20364657
234	0xbe1f0f55	-0.15533192
235	0xbe920abe	-0.2852382
236	0xbe002f2a	-0.12517992
237	0xbd90bd39	-0.07067341
238	0xbc55cbae	-0.013049049
239	0xbdcf5e9f	-0.101254694
240	0xbcd66109	-0.026169317
241	0xbe02fed0	-0.12792516
242	0xbe16c5aa	-0.1472384
243	0xbceb9f96	-0.02876262
244	0xbdd083bc	-0.10181376
245	0xbe3c2f0e	-0.18377325
246	0xbe977978	-0.2958486
247	0xbd8c51a0	-0.06851506
248	0xbeecf6d0	-0.46282053
249	0x3e07ad1e	0.13249633
250	0xbd34fb0e	-0.044184737
251	0xbd0f6b73	-0.03501458
252	0xbe16e2f7	-0.14735018
253	0xbcd18e76	-0.025580626
254	0xbdc0419d	-0.09387515
255	0xbdd407d3	-0.10353055

weight f4 [2, 256]
0	0x3afe20b4	0.0019388408
1	0x3e89d562	0.2692061
2	0x3db1d288	0.08682734
3	0x3af4dd0a	0.0018681597
4	0x3d7f7168	0.062364012
5	0x3cc9f41d	0.024652535
6	0xbcaa9276	-0.020821791
7	0xbcdaf399	-0.026727485
8	0xbcbbce6c	-0.022925578
9	0x3d263d95	0.040586073
10	0x3d47fb26	0.0488235
11	0xbd0a9c4b	-0.03384046
12	0xbc452b5d	-0.012034264
13	0xbd5b019a	-0.053468324
14	0xbc99964c	-0.018748425
15	0xbc015567	-0.007893897
16	0xbc5659f6	-0.013082972
17	0x3ff0aedb	1.8803362
18	0x3e1d41e9	0.15357174
19	0x3e6051d7	0.2190622
20	0xba8259e7	-0.0009945006
21	0x3dd907fb	0.10597225
22	0x3c7e2367	0.01551137
23	0xbd223589	-0.039601836
24	0xbc306460	-0.010766119
25	0x3cb1a3e3	0.021684593
26	0xbbd28cde	-0.006425484
27	0xbcfc3734	-0.030788042
28	0x3c89a2b0	0.016801208
29	0x3b6425d4	0.0034812586
30	0x3da85066	0.0821846
31	0x3f855ce6	1.0418975
32	0x3b3f375c	0.0029177284
33	0x3d049dbb	0.032376986
34	0xbc8543cf	-0.016267685
35	0xbd7fc5a8	-0.06244436
36	0xbdae0915	-0.08497826
37	0x3d58f45b	0.05296741
38	0xbca1881e	-0.019718226
39	0xb9d40385	-0.00040438413
40	0x3fdc7e95	1.722613
41	0x3dd6a9eb	0.10481628
42	0xbc13e197	-0.009025953
43	0x3ccff3e2	0.025384847
44	0x3df46f69	0.11935312
45	0x3c1a36f7	0.009412519
46	0x3da25d71	0.07927979
47	0x3c471aa6	0.01215235
48	0x3cdc9bfe	0.026929852
49	0x3c7e4e0c	0.0155215375
50	0xbce875cd	-0.028376484
51	0xbd7a0689	-0.06104139
52	0xbc3b65a3	-0.011437806
53	0xbd7dcb52	-0.06196148
54	0x3c504530	0.012711808
55	0xbc85b04c	-0.016319416
56	0xbb16a60c	-0.0022987155
57	0xbc906c1f	-0.017629681
58	0xbedb54fd	-0.42838278
59	0xbc9c7b18	-0.019101664
60	0x3ca367ed	0.019947017
61	0x39e9855a	0.00044540578
62	0x3cb972fa	0.022637833
63	0x3b89ac89	0.004201476
64	0x3dc00479	0.09375853
65	0xbcf0198c	-0.029309057
66	0xbce59482	-0.028024916
67	0x3c983a9a	0.01858263
68	0xbab4d09d	-0.0013795082
69	0xbcf9761f	-0.030451832
70	0xbda2c00c	-0.07946786
71	0x3cdbcd81	0.02683139
72	0xbd48249d	-0.048863042
73	0x4043fea9	3.0624182
74	0x3da65a68	0.081227124
75	0x3c87fef9	0.016601073
76	0xbca623f1	-0.02028081
77	0x3d6ebea3	0.058287274
78	0xbd6221b9	-0.05520794
79	0xbca04df4	-0.019568421
80	0x3c219738	0.0098627135
81	0xbc20adc4	-0.009807054
82	0x3c6d69c6	0.01449055
83	0xbd32dd26	-0.043667935
84	0x3c87cd12	0.016577277
85	0x3c12bd1e	0.008956222
86	0x3e06b2c1	0.13154127
87	0x3c9e7526	0.01934297
88	0xbc74382d	-0.0149059715
89	0x3ceebc46	0.02914251
90	0x3c9ebf1a	0.019378234
91	0x3dd8a8a7	0.10579043
92	0xbdccc26f	-0.09998023
93	0xbd34ebc1	-0.044170145
94	0x3d761f86	0.060088657
95	0xbd6750fb	-0.056473713
96	0xbe682d2d	-0.22673483
97	0x3ccabe29	0.024748879
98	0x3cb9e62c	0.022692762
99	0x3de52659	0.11188955
100	0xbdb5fc9e	-0.088860735
101	0x3c455e5b	0.012046422
102	0x3d835a14	0.064136654
103	0x3c8fd057	0.017555399
104	0xbd023187	-0.031785514
105	0x3bc47339	0.005995181
106	0x3d121297	0.03566226
107	0x3ba7eb05	0.005124452
108	0xbc44aa22	-0.012003453
109	0xbc9602e6	-0.018311929
110	0x3c939884	0.018017061
111	0x3d168ea0	0.03675711
112	0xbd8d0d2f	-0.0688728
113	0x3c9d4567	0.019198133
114	0x3d048438	0.032352656
115	0x3cd1d7d5	0.025615612
116	0x3d5a3dc1	0.05328155
117	0xbbf65275	-0.007517154
118	0x38fed707	0.00012151716
119	0x3ce0ce2f	0.027442066
120	0x3d530d32	0.051526256
121	0xbd3e1358	-0.046405166
122	0x3e254b2e	0.1614196
123	0x3d4c4a9f	0.04987585
124	0xc0798615	-3.8988087
125	0x3d811b9c	0.06304094
126	0x3b9c8fcd	0.0047778846
127	0xbafaf495	-0.0019146377
128	0xbd3ead80	-0.04655218
129	0x3c37afa8	0.011211313
130	0xbe65faf2	-0.2245901
131	0xbcaf2734	-0.021380998
132	0xbf282501	-0.65681463
133	0xbe182e8d	-0.14861508
134	0xbd58448a	-0.05279974
135	0xbcbded56	-0.02318446
136	0xbc8cbdff	-0.017180441
137	0x3e8cccf4	0.27500117
138	0x3aaf9993	0.0013397209
139	0x3b1ce886	0.0023942306
140	0xbcad0199	-0.021118926
141	0xbd91d0d2	-0.071199074
142	0x3d5c3ad7	0.05376705
143	0x3cb503c7	0.022096528
144	0x3c88b4ce	0.016687777
145	0xbc008622	-0.00784448
146	0xbd2e423a	-0.042543627
147	0xbd636d5f	-0.055524226
148	0x3d46fcd7	0.04858097
149	0xbc9d1faf	-0.019180147
150	0xbcdd394d	-0.027004862
151	0xbd1c0992	-0.038095064
152	0x3c91928d	0.017770076
153	0xbd6338a1	-0.055473927
154	0x3c604f9b	0.013690854
155	0xbb922c97	-0.004460882
156	0xbd1db925	-0.038506646
157	0xbabe109d	-0.0014500801
158	0xbde3433d	-0.11096809
159	0x3d8aee5d	0.067837454
160	0x3dbe1d97	0.092829876
161	0xbbcef0bb	-0.0063153184
162	0xbd2cd13e	-0.042191736
163	0x3d16b741	0.03679586
164	0x3c113543	0.008862796
165	0xbc9a291b	-0.018818429
166	0x3c8e43a8	0.017366245
167	0xbf4072ab	-0.7517497
168	0x3b68a0fb	0.0035496342
169	0x3f794d39	0.9738346
170	0xbdaef011	-0.08541883
171	0x3becdbed	0.0072283656
172	0xbc990088	-0.018677011
173	0x3fe34dab	1.7758077
174	0xbc60c423	-0.013718638
175	0x3f069822	0.52575886
176	0x3cf2b31c	0.029626422
177	0x3d88cb64	0.06679419
178	0xba5d6fa6	-0.0008447118
179	0x3d28658e	0.041112475
180	0x3c06fb48	0.008238621
181	0xbced5640	-0.028971791
182	0xbb28dd13	-0.0025766536
183	0x3d12988f	0.035790022
184	0xbcfa6b66	-0.03056879
185	0x3cf411ff	0.029793737
186	0x3bc724cb	0.006077384
187	0xbcf4a659	-0.029864477
188	0x3ab9cea1	0.001417596
189	0x3a03d78a	0.0005029371
190	0x3dcb0507	0.09913068
191	0x3cfb0a9f	0.030644713
192	0x3d3cf16e	0.046128683
193	0xbd1436f5	-0.036185224
194	0x3c031d08	0.008002527
195	0x3cc3c773	0.023898816
196	0xbc8c9940	-0.017162919
197	0xbd8cff93	-0.068846844
198	0xbc24647c	-0.010033723
199	0x3d1e7cfa	0.038693406
200	0x3e108755	0.14114125
201	0xbb90bad3	-0.0044168024
202	0xbc0b01e3	-0.008484337
203	0xbe46c9f0	-0.1941297
204	0xbc1eeed4	-0.009700496
205	0xbd564839	-0.05231497
206	0xbcb7f1d7	-0.022454185
207	0xb96ebabc	-0.00022767013
208	0xbc3bcffa	-0.01146316
209	0xbc265a6a	-0.010153392
210	0xbe0c2744	-0.13686854
211	0x3b59c8bf	0.0033231226
212	0xbe962b31	-0.29329827
213	0xbedc9bcb	-0.4308761
214	0x3c5b3662	0.013379665
215	0xbc638183	-0.0138858585
216	0x3d5702f6	0.05249306
217	0x3d4eebc4	0.050517812
218	0x3d20d203	0.039262783
219	0x3da15c57	0.078789406
220	0x3d0b45d3	0.034002136
221	0xbc4b8578	-0.012421958
222	0x3d4f52b3	0.050615977
223	0xbc31c829	-0.010850945
224	0x3c00444d	0.007828784
225	0x3baeb017	0.00533105
226	0xbbb98fee	-0.0056629097
227	0xbc83c2b6	-0.016084056
228	0xbd2c1f58	-0.04202208
229	0xbb681a03	-0.0035415895
230	0xbf84ed17	-1.0384854
231	0x3c5bec27	0.013423002
232	0xbb784c42	-0.003788725
233	0x3e9a1ba4	0.30099213
234	0xbcbf5f1d	-0.023360783
235	0x40555a2b	3.3336284
236	0xbbfca95d	-0.0077106194
237	0xbc964400	-0.018342972
238	0xbb5ee0d7	-0.0034008527
239	0xbc4932e0	-0.012280196
240	0x3cca3a3f	0.024685977
241	0x3c09a24b	0.00840051
242	0x3bb8b503	0.0056368127
243	0xbce41ac5	-0.027844796
244	0xbd182c41	-0.03715158
245	0xbce2be3e	-0.027678605
246	0xbe2d96ce	-0.16952059
247	0xbcbc0851	-0.022953184
248	0xc0113dab	-2.269389
249	0xbc153bce	-0.009108497
250	0xbc3a8496	-0.01138415
251	0x3d76d561	0.060262088
252	0x3ef2ed26	0.47446555
253	0x3d600fb6	0.054702483
254	0x3c7b7424	0.015347514
255	0xbc8e0044	-0.017334111

bias f4 [2]
0	0x3d034d3e	0.032056086
1	0x3df7d277	0.1210069

weight f4 [256, 13]
0	0x3ddb53eb	0.107093655
1	0xbde7401b	-0.11291524
2	0x3f8f50b8	1.1196508
3	0x3fe72b52	1.8060095
4	0xc08a53f0	-4.3227463
5	0x40aa5d24	5.3238697
6	0x3ca34fe5	0.019935558
7	0x3dc14bb3	0.094382666
8	0x400c7fc6	2.1952987
9	0xc099e654	-4.809366
10	0xbe88c8fa	-0.26715833
11	0x3df5406b	0.119751774
12	0x3e807b05	0.25093856
13	0x3fa07aa4	1.2537427
14	0xbf9e4af6	-1.2366626
15	0x3ec49672	0.3839603
16	0xbec51cbc	-0.38498485
17	0xc02ad0ae	-2.6689868
18	0xc029caa3	-2.652993
19	0x3cd0093e	0.025395032
20	0xbdfbaafa	-0.122884706
21	0x3f93d4df	1.1549338
22	0x3f2040cd	0.6259888
23	0x3d8c55cc	0.06852302
24	0xbeb3c663	-0.35112295
25	0xbf0f7f37	-0.5605349
26	0x3e62f419	0.22163428
27	0x3da86b6a	0.082236126
28	0xbf2f7d53	-0.68550605
29	0xbfcaa0be	-1.5830305
30	0xc0181252	-2.3761182
31	0x40d3fafe	6.6243887
32	0x3d9aab89	0.07552249
33	0xbe1358c3	-0.14389329
34	0x3e13f119	0.1444744
35	0xc0c65151	-6.1974263
36	0xbd428040	-0.04748559
37	0x3ea92cd8	0.33042026
38	0xbe96c745	-0.29448906
39	0xbf402b43	-0.7506601
40	0x3e49efa0	0.19720316
41	0x3fc7daf8	1.5613699
42	0x3e7a27dd	0.24429269
43	0x4014cb36	2.324903
44	0x3fd84023	1.6894573
45	0xbd9047b6	-0.07044928
46	0x3e95ff0c	0.29296148
47	0xc05bc8ac	-3.434123
48	0xbea84920	-0.3286829
49	0xbe7799c6	-0.24179754
50	0x3e829cfb	0.25510392
51	0x3f7b88e2	0.9825574
52	0xbf4738ef	-0.7782125
53	0xbfde70ed	-1.7378212
54	0x3d3ef0f6	0.046616517
55	0xbf7ad08d	-0.97974473
56	0x40451937	3.079664
57	0x3fccbaca	1.5994503
58	0x3de8ef5b	0.113737784
59	0xbe67a3c3	-0.22621064
60	0xc025af81	-2.588837
61	0xbed2206b	-0.41040358
62	0xbcdceee0	-0.026969373
63	0x3e8d1207	0.27552816
64	0xbf724e40	-0.9465065
65	0x3f0ae557	0.54256195
66	0xbe9e7e7b	-0.30955872
67	0xbdefae62	-0.11703183
68	0xbf0cb076	-0.5495676
69	0x40a03bb5	5.0072885
70	0x40926062	4.5742655
71	0xbcea70e0	-0.028618276
72	0x3c968c9a	0.01837759
73	0xc0bfaf2e	-5.9901342
74	0xc02b90fd	-2.6807244
75	0xbe5f470e	-0.21804449
76	0xbe54d861	-0.20785667
77	0x3f38afa2	0.72142994
78	0x3eb5f667	0.35539553
79	0xbf33e8f5	-0.7027734
80	0xbe07a57f	-0.13246725
81	0xbf52953d	-0.8225897
82	0xc00266cf	-2.037525
83	0xc0a31d11	-5.097298
84	0x3e6d7811	0.23190333
85	0x3e4baea3	0.19890837
86	0xbf1b43bc	-0.6065023
87	0x3f7058f4	0.9388573
88	0x3e711d3a	0.23546305
89	0x3f31f00c	0.6950691
90	0x3f20b350	0.6277361
91	0x3fce08a8	1.6096392
92	0xbefb6513	-0.4910055
93	0xbef79ca8	-0.48361707
94	0xbf47f144	-0.7810252
95	0x40ae62b1	5.4495473
96	0x403aa3b3	2.9162414
97	0xbc0c3af1	-0.008558975
98	0xbe633628	-0.22188628
99	0xc069a896	-3.6509147
100	0x3e897021	0.2684336
101	0xbe0aaa9a	-0.13541642
102	0xbf00b960	-0.5028286
103	0xbf905090	-1.1274586
104	0xc026d976	-2.6070228
105	0x3e162d18	0.1466564
106	0x3f4b3a46	0.79385793
107	0x3f8ea68b	1.1144575
108	0xc1242516	-10.259054
109	0x3fa14ed6	1.2602184
110	0x3ee4e10e	0.44702953
111	0x3dd837a9	0.10557491
112	0x4027c4b4	2.6213808
113	0xbdcdd3a8	-0.10050136
114	0x3e1ddb3c	0.15415663
115	0x3fd36dce	1.6517885
116	0x3f052658	0.5201163
117	0xbddc0725	-0.1074355
118	0xbfa995a2	-1.3248789
119	0x3f999806	1.1999519
120	0xbf84df04	-1.0380559
121	0x41283358	10.512535
122	0x3fb533a5	1.4156386
123	0xbe979724	-0.296075
124	0xbdbc9d81	-0.09209729
125	0xc06eb3dd	-3.729728
126	0xbfcbd881	-1.5925447
127	0x3c387c60	0.011260122
128	0xbf82b1ec	-1.0210547
129	0xbe6cef56	-0.23138174
130	0xbfbcbad4	-1.4744515
131	0xbead82c9	-0.33888844
132	0x3fa26873	1.2688125
133	0x3e5e7587	0.2172452
134	0x40899794	4.299753
135	0xc0065712	-2.0990644
136	0x3df9dc1a	0.12200184
137	0xbce8a865	-0.02840061
138	0xbf0127ab	-0.50451154
139	0x40347e74	2.820218
140	0x3e536dfe	0.20647427
141	0x3f3099f4	0.68984914
142	0xbf4866a8	-0.7828164
143	0x3f60ef58	0.8786521
144	0xbe2fe454	-0.17176944
145	0xbf0919ec	-0.5355518
146	0x3f727dc7	0.9472317
147	0xc08f3705	-4.4754663
148	0xbffe3572	-1.986006
149	0xbd43f376	-0.047839604
150	0xbe95cf2e	-0.29259628
151	0x4008e844	2.1391764
152	0xbe9c03fd	-0.30471793
153	0x3c8c3880	0.017116785
154	0xbec38df2	-0.38194233
155	0xbef49c84	-0.47775662
156	0xbf8bfbf9	-1.0936271
157	0xbf4c58ff	-0.798233
158	0x3f65a8e6	0.89710844
159	0x3fe36c78	1.7767477
160	0xc018f874	-2.3901644
161	0xbf97613b	-1.1826547
162	0xbdd01dc9	-0.10161931
163	0x3df4040b	0.11914834
164	0xbf495ade	-0.7865428
165	0x3f178073	0.5918037
166	0x3d742528	0.059605747
167	0xbd0d5ebb	-0.03451417
168	0x3f1b3526	0.60627973
169	0x3fb6c0fc	1.4277644
170	0x3e16bf50	0.14721417
171	0xbea69b53	-0.32540378
172	0xbef0c87a	-0.4702795
173	0x40807a2d	4.014914
174	0xc000a7d7	-2.0102441
175	0xbd60e94b	-0.054909986
176	0x3d8b07e9	0.06788618
177	0xc02b0402	-2.6721196
178	0x3f4b1d69	0.7934175
179	0xbe33bd70	-0.17552733
180	0x3d953647	0.07285743
181	0x3ed881b2	0.4228645
182	0xbfbb88b4	-1.4651093
183	0xbed80dc1	-0.42197993
184	0xbe92fa72	-0.287067
185	0x3ed94434	0.42434847
186	0x4100d83f	8.052794
187	0x3efb6a0f	0.49104354
188	0xbd9906f1	-0.07472027
189	0xbdf30cf8	-0.11867708
190	0xc0c22ebd	-6.0682054
191	0x3ecbd870	0.39813566
192	0x3e318fcc	0.1734001
193	0xbe4e5684	-0.2015019
194	0xbecb519d	-0.39710703
195	0xbe35d005	-0.17755134
196	0xbf572ade	-0.84049785
197	0xbfd9ccff	-1.7015685
198	0x3f84ef1b	1.0385469
199	0x3fb4e39d	1.4131962
200	0xbf929f7f	-1.1454924
201	0xbe68691a	-0.22696343
202	0x3e309bf5	0.17246993
203	0x40602c69	3.5027106
204	0x3f697c65	0.91205436
205	0x3e25b720	0.16183138
206	0xbf43888b	-0.76380223
207	0x3f871e99	1.0556213
208	0x3de9aa96	0.1140949
209	0x3f8620c6	1.0478752
210	0x3ed72dcf	0.42027137
211	0xbf4a2367	-0.7896027
212	0xbf330d21	-0.6994191
213	0xc10a7280	-8.652954
214	0xbddc87bd	-0.107680775
215	0x3dff286b	0.12458881
216	0x3f4a31e7	0.78982395
217	0x407ada2d	3.9195664
218	0xbe366ca2	-0.17814878
219	0xbe141d4f	-0.14464305
220	0x3f3615f5	0.71127254
221	0xbd69904a	-0.05702237
222	0x3e8c88f7	0.27448246
223	0x3f05cacb	0.5226256
224	0xbf15dbf9	-0.58538777
225	0x40d062db	6.5120673
226	0xc05ed163	-3.48153
227	0x3bfe4349	0.007759486
228	0xbe4e7199	-0.20160522
229	0xc0fc0f14	-7.8768406
230	0x3f825642	1.0182574
231	0xbe5b82ff	-0.2143669
232	0x3d9bbc4c	0.07604274
233	0xbf125298	-0.5715728
234	0xbf2a402d	-0.66504174
235	0xbf7a82ed	-0.97856027
236	0xbef33ad7	-0.4750583
237	0x3fa6f13c	1.3042369
238	0xbf12a6d5	-0.57285815
239	0xc08f6758	-4.481365
240	0xbe3fd3a8	-0.18733084
241	0x3eab8082	0.3349648
242	0x3fa51d15	1.28995
243	0x40619a5a	3.5250459
244	0x3e67679a	0.22598115
245	0xbf22096e	-0.6329564
246	0x3fc491ed	1.5357033
247	0xbdc13583	-0.09434035
248	0xbeb3628c	-0.35036123
249	0x3cd2e96b	0.025746068
250	0x3c54c269	0.012985804
251	0xbfe2bb3e	-1.7713392
252	0xc08ae003	-4.339845
253	0xbd16183a	-0.036644198
254	0x3d01e955	0.031716663
255	0x3e63ed79	0.22258557

bias f4 [256]
0	0xbf9fac42	-1.2474444
1	0xbfdb127d	-1.7115017
2	0xbf8dbb04	-1.1072698
3	0xbfbae661	-1.4601556
4	0xbf2dec2f	-0.6793851
5	0xbf5432fd	-0.828903
6	0xbf9ca989	-1.2239238
7	0xbf1b918e	-0.60768974
8	0x3ece5017	0.4029548
9	0xbfd5901b	-1.6684602
10	0xbf3c2f01	-0.7350922
11	0xbf893098	-1.0717955
12	0xbeff3082	-0.49841696
13	0xbf57cfe5	-0.84301597
14	0xbedc6335	-0.4304444
15	0xc003af7d	-2.057586
16	0xbfa7f00d	-1.3120133
17	0x3e11ed67	0.14250718
18	0xbf689227	-0.9084801
19	0xbf94e4e0	-1.1632347
20	0xc003f3e5	-2.0617611
21	0xbfd10307	-1.6329049
22	0xbfa6445a	-1.2989609
23	0xbf978d96	-1.1840084
24	0xc00f8823	-2.2426841
25	0xbfdaa5fa	-1.7081902
26	0xbf2ec696	-0.6827177
27	0xbfb963f6	-1.4483631
28	0xbea8adf9	-0.3294523
29	0xc01b8f4b	-2.430621
30	0xbf2b9a66	-0.6703247
31	0xbf7d40e9	-0.9892717
32	0x3f018428	0.5059228
33	0xbfbbb3eb	-1.4664282
34	0xbffb42c0	-1.9629745
35	0xbfd58e9e	-1.6684148
36	0xbf75930b	-0.95927495
37	0xbf490bb8	-0.78533506
38	0xbf988ede	-1.19186
39	0xbf64b83c	-0.8934362
40	0xbfb51ec6	-1.4150016
41	0xbea1b2c5	-0.31581703
42	0xbfc5a70e	-1.5441606
43	0xbf580fd3	-0.84399146
44	0xbfddaaee	-1.7317789
45	0xbf98fa4d	-1.1951386
46	0xbf6695d9	-0.900724
47	0xbf9913d4	-1.1959176
48	0xbf877508	-1.058259
49	0xbf02a383	-0.5103075
50	0xbfb03af7	-1.3767995
51	0xbf4a30ab	-0.7898051
52	0xbfb8c2dc	-1.4434466
53	0xbf6af0ae	-0.917735
54	0xbfcbd35e	-1.5923879
55	0xbf086321	-0.5327626
56	0xbf98734e	-1.1910188
57	0xbfb7f42a	-1.4371388
58	0xbe88e63a	-0.2673815
59	0xc0230f7e	-2.5478206
60	0xbf8e6133	-1.1123413
61	0xbfc90c83	-1.5706943
62	0xbf21647c	-0.6304395
63	0xbf9f3a03	-1.2439579
64	0xbf4afc98	-0.7929168
65	0xbf83f712	-1.0309775
66	0xbfc0d193	-1.5063957
67	0xbf9b7bbc	-1.2147136
68	0xbf9e7732	-1.2380126
69	0xbfabab10	-1.3411579
70	0xbe8ee3b4	-0.279081
71	0xbf84c33e	-1.0372083
72	0xbfe5a76f	-1.7941722
73	0xbf6cf162	-0.9255582
74	0xbf7cdde0	-0.98776054
75	0xbf85612c	-1.042028
76	0xbfa6ac64	-1.302136
77	0xbfb63efc	-1.4237971
78	0xbf54c6a6	-0.83115613
79	0xbfd7928f	-1.6841601
80	0xbeafe002	-0.34350592
81	0xbf5e4f3f	-0.8683967
82	0xbf6c26f0	-0.92246914
83	0xbf4f5226	-0.80984724
84	0xbf63b0d8	-0.8894172
85	0xbf8f1634	-1.1178651
86	0xbee8eb82	-0.45492178
87	0xbf3e0b84	-0.7423632
88	0xbf2fcaee	-0.6866902
89	0xbfdc649d	-1.7218205
90	0xbfe2103e	-1.7661207
91	0xbf410c02	-0.7540895
92	0xbfb21d5c	-1.391521
93	0xbf8ba88b	-1.091081
94	0xc009242d	-2.142833
95	0xbfa27516	-1.2691982
96	0xc002030c	-2.031436
97	0xbff9b924	-1.9509625
98	0xbf8bb964	-1.0915952
99	0xbf26ce50	-0.6515856
100	0xbf7f6e3d	-0.99777585
101	0xbf5c03ff	-0.859436
102	0xbf9116d4	-1.1335092
103	0xbf58c63a	-0.8467747
104	0xbf200deb	-0.6252124
105	0xbee4c054	-0.44677985
106	0xbfc9ab72	-1.5755446
107	0xbf9cb5dd	-1.2243
108	0xc004ffd2	-2.078114
109	0xbfeabc8c	-1.833879
110	0xbf68bd2c	-0.90913653
111	0xbfc302f2	-1.5235274
112	0xbf5a5826	-0.85290754
113	0xc0093e17	-2.1444147
114	0xbf6658be	-0.8997916
115	0xbfd32edd	-1.6498677
116	0xbfeacfe7	-1.8344697
117	0xbf9c1b1c	-1.2195773
118	0xbece9148	-0.40345216
119	0xbf964a26	-1.1741378
120	0xbfdfd938	-1.7488165
121	0xc017bcce	-2.3708987
122	0xbfe0153e	-1.7506483
123	0xbf19eca9	-0.6012674
124	0xbf819f2c	-1.01267
125	0xc002e53a	-2.0452409
126	0xbf59c1b3	-0.85061187
127	0x3d05e43c	0.032688364
128	0xbf9039be	-1.1267622
129	0xbf28afea	-0.65893424
130	0xc01e2e52	-2.4715772
131	0xbfa8705f	-1.3159293
132	0xbf8af8b3	-1.0857147
133	0xbe9f6e4e	-0.31138843
134	0xbfab3377	-1.3375081
135	0xc010a205	-2.259889
136	0xbfcd4575	-1.6036822
137	0xbf8b5bba	-1.0887368
138	0xc00041f1	-2.0040247
139	0xbffbb544	-1.9664693
140	0xc0031ff7	-2.048826
141	0xbfa14f06	-1.2602241
142	0xbfefc07a	-1.8730614
143	0xbed3d89f	-0.41376206
144	0xbf9fa681	-1.2472688
145	0xbf339801	-0.70153815
146	0xbfdbe27d	-1.7178494
147	0xbe9cba74	-0.30611002
148	0xbddf9126	-0.10916357
149	0xbfd87152	-1.6909583
150	0xbfb6bbb8	-1.4276037
151	0x3f4c42c8	0.797894
152	0xbf3dea03	-0.741852
153	0xbf6d3460	-0.9265804
154	0xbf958f81	-1.1684419
155	0xbfc6f23d	-1.5542675
156	0xc01e2ea2	-2.4715962
157	0xbf85fdcb	-1.0468076
158	0xbea415e8	-0.32047963
159	0xbfe436cc	-1.7829223
160	0xbfb2a8b4	-1.3957734
161	0xbfa1f9f2	-1.2654402
162	0xbfb22d15	-1.3920008
163	0xbfb456dc	-1.4089007
164	0xbfc9b9d3	-1.5759834
165	0xbff95548	-1.9479151
166	0xbf84f9f9	-1.0388786
167	0xbf45d682	-0.7728044
168	0xbfc570fc	-1.5425105
169	0xbfba5307	-1.4556588
170	0xbf000232	-0.5000335
171	0xbfef349e	-1.8687932
172	0xc00827a6	-2.12742
173	0xbfe8fd2c	-1.8202262
174	0xbfe99673	-1.8249038
175	0xbf1de9ea	-0.6168505
176	0xbf34dce5	-0.7064956
177	0xbf9cde37	-1.2255315
178	0xbfaf2535	-1.368323
179	0xbfc12f30	-1.5092525
180	0xbf69cfe5	-0.91332847
181	0xbf9b6413	-1.2139915
182	0xbf945ae6	-1.159024
183	0xbeec8808	-0.46197534
184	0xbfd4c90c	-1.6623855
185	0xc0014b63	-2.0202262
186	0xbf5baada	-0.85807574
187	0xbf5c2a88	-0.860024
188	0xbfb452e8	-1.4087801
189	0xbf52447b	-0.8213574
190	0xbfbba67a	-1.466018
191	0xbff17df2	-1.886656
192	0xbfe59f91	-1.7939321
193	0xbf25e9ca	-0.6480986
194	0xbfd95c81	-1.6981355
195	0xbeca7752	-0.3954416
196	0xbf50f33a	-0.81621134
197	0xbfb0ba05	-1.3806769
198	0xbf5058d9	-0.8138557
199	0xbf9a1220	-1.2036781
200	0xbe8d82e3	-0.2763892
201	0xbf600927	-0.87513965
202	0xbf9df6e1	-1.2340966
203	0xbfc22772	-1.5168288
204	0xbfc2d552	-1.522135
205	0xbfbae7f8	-1.4602041
206	0xbfd16f73	-1.6362137
207	0xbf27fa40	-0.65616226
208	0xbf6e6d9c	-0.93136
209	0xbfce5a4c	-1.6121306
210	0xbfe6cc8a	-1.803117
211	0xbface3e4	-1.3507047
212	0xbe35585d	-0.17709489
213	0xbf981104	-1.1880193
214	0xbf662102	-0.89894116
215	0xbf933891	-1.1501638
216	0xbfb1cf65	-1.3891417
217	0xbf89f8e4	-1.077908
218	0xbf311346	-0.69170034
219	0xbf159e3a	-0.5844456
220	0xbf70aec1	-0.94016653
221	0xbf99dde7	-1.2020844
222	0xbf8376b3	-1.0270599
223	0xc001dcec	-2.029109
224	0xc0009014	-2.0087938
225	0xbf840f69	-1.0317203
226	0xbddd51a1	-0.10806585
227	0xbfb87394	-1.4410272
228	0xbfa3ff68	-1.2812319
229	0xbff2340e	-1.8922136
230	0xbfa6255c	-1.2980151
231	0xbfc01c1e	-1.5008581
232	0xbfb01c60	-1.3758659
233	0xbfa641fd	-1.2988888
234	0xbfb6f9f1	-1.4295026
235	0xbfa3ba82	-1.2791293
236	0xbea2567e	-0.31706613
237	0xbf91aafc	-1.1380305
238	0xbf8e3f28	-1.1113024
239	0xbee05a7c	-0.43819034
240	0xbfa6f9f9	-1.3045036
241	0xbfcdda41	-1.6082231
242	0xbfd38a4a	-1.6526577
243	0xbfd062ba	-1.6280129
244	0xbfb333f0	-1.4000225
245	0xbf78aaea	-0.97135794
246	0xbfac566f	-1.3463877
247	0xc065e220	-3.5919266
248	0xc0050c92	-2.0788922
249	0xbfef0238	-1.8672552
250	0xbfee9084	-1.8637853
251	0xbfb55aa9	-1.4168292
252	0xbf229809	-0.6351324
253	0xbe20203d	-0.15637298
254	0xbf8cbe27	-1.099553
255	0xbf3cbde6	-0.7372726
