data/TD3_D2RL/HalfCheetah-v2/TD3_D2RL_s26744/pyt_save/model.pt (torch_old, 935234 bytes, 16 tensors)

weight f4 [256, 17]
4.1639338 -4.4567113 0.8461159 -0.10479236 0.8937891 -0.30993617 -3.2773015 -0.8705192
0.23648936 0.3144385 0.35755408 -0.117979005 0.09662117 0.0011934913 -0.31080815 -0.16353083
0.028368114 5.6110697 -2.6190746 0.21442679 0.053224143 0.29124412 -3.1395376 -2.7873507
-0.73737776 -0.6626264 1.2484832 0.36600465 -0.34786385 -0.05639105 -0.26297253 -0.010994191
-0.034772366 -0.06484582 -3.5407028 -1.3585749 1.225537 -3.7250142 -0.26380986 -1.9003463
0.9970941 0.6749697 -1.5156868 -0.57142913 0.36632812 0.3814686 0.3219354 0.010236642
0.10486765 0.08815247 -0.0068701124 1.6533395 -1.3593966 -2.3608236 -0.16504724 -0.9966698
2.7394507 0.82766366 0.4076156 -1.5157347 -0.06774052 -0.1537022 -0.077068694 -0.029350948
0.15467156 0.15505464 -0.045051787 -0.21310952 -0.6373422 -1.8415557 1.248916 1.4522934
0.018174019 -2.4088752 -2.0719311 -0.9758944 -1.0444818 1.75901 -1.4185898 0.029690996
-0.28208184 0.36892602 -0.18529192 0.16877757 0.15468954 -4.065349 -4.464313 -0.92529535
-0.051835064 -0.4358467 1.9752913 4.2399964 0.6603359 0.11734084 2.882931 -2.231583
0.06281568 -0.13299876 -0.11082509 0.2998336 -0.15039735 -0.14167142 6.7943563 -5.1476684
-1.544476 1.6101063 -0.7378519 -2.7265642 -1.2249606 0.37610772 -0.9017274 2.326529
0.0030712143 0.20580825 0.068578735 -0.16909398 -0.059410334 -0.38149354 -0.10998368 -15.403258
-11.800115 0.3835969 0.21739233 -0.2311633 0.7598507 -0.35297853 0.19192599 -0.014599647
-1.7266384 -1.7464557 -0.095175244 -0.3175385 -0.054472703 0.060754467 -0.019749008 -0.0022916703
6.6112986 -0.09973251 0.73745626 -1.0064303 0.9655503 -0.8055112 -1.443927 -1.4528257
-1.5141062 -0.91741544 0.52331686 0.28191358 0.40292785 0.013740865 -0.061344255 -0.1476869
0.27598354 4.526637 -4.1562724 1.029534 1.9819369 -0.87512785 -2.357669 -1.4073986
0.23296918 -1.9336637 0.5188305 -1.6702446 0.011366578 -0.21579064 0.026927084 0.055849656
-0.013766642 0.009706351 10.348254 -1.9726524 0.43013167 1.195769 0.93173003 0.24701233
-2.0840082 -0.17290394 -0.28927657 4.0721216 -0.86462915 -0.02645724 0.044611916 0.0030450183
-0.007704541 -0.09376349 -0.068036415 -4.8669295 -0.1697801 -1.5693599 -0.024371883 -1.1428578
-1.1550705 -0.38967043 -0.17645366 -1.116247 0.43141496 -0.5437817 0.105680406 -0.26040733
-0.22397515 -0.030378243 -0.075854436 -0.021270214 -3.7002053 -1.6490003 -2.5275807 -2.091644
-1.4414381 -2.6819284 0.7797629 1.8345729 0.25605622 -1.0314183 1.5256554 0.37892932
0.48332942 0.028433058 0.23728028 0.029922388 0.0006965074 2.847199 0.970647 0.95617545
0.7624911 0.36668584 1.7650485 4.124222 -0.1000637 -0.4763066 1.3064202 0.96920234
-0.45792142 -0.27956563 0.120213725 -0.118011795 -0.025614042 -0.10767417 4.220994 0.32269093
-0.3430345 3.5878155 -3.765705 -1.6559472 2.866605 0.24782927 -1.0470318 1.1598315
-0.8643512 0.045715153 -0.22015758 0.18975484 0.104764335 0.064340904 0.04927406 3.7266169
00000000: f23e 8540 619d 8ec0 0d9b 583f 609d d6bd
00000010: 5dcf 643f f4af 9ebe 4fbf 51c0 59da 5ebf
00000020: 442a 723e 15fe a03e 5411 b73e fa9e f1bd
00000030: 52e1 c53d ec6e 9c3a 3f22 9fbe a074 27be
00000040: 3f64 e83c e28d b340 eb9e 27c0 b292 5b3e
00000050: 8f01 5a3d f31d 953e 2fee 48c0 f463 32c0
00000060: cac4 3cbf e2a1 29bf 4cce 9f3f f664 bb3e
00000070: 361b b2be 4dfa 66bd 56a4 86be fb20 34bc
00000080: 786d 0ebd e3cd 84bd e09a 62c0 c8e5 adbf
00000090: 65de 9c3f a266 6ec0 1612 87be 8c3e f3bf
000000a0: 8f41 7f3f d0ca 2c3f 0602 c2bf 2e49 12bf
000000b0: 5c8f bb3e da4f c33e b7d4 a43e 97b7 273c
000000c0: dac4 d63d 4889 b43d ae1e e1bb a1a0 d33f
000000d0: b500 aebf bc17 17c0 2502 29be c125 7fbf
000000e0: 2953 2f40 c4e1 533f feb2 d03e 9803 c2bf
000000f0: 8bbb 8abd 1c64 1dbe 31d6 9dbd 6671 f0bc
00000100: 3962 1e3e a5c6 1e3e 3988 38bd 6239 5abe
00000110: dc28 23bf 19b8 ebbf 7bdc 9f3f c0e4 b93f
00000120: aee1 943c 032b 1ac0 859a 04c0 37d4 79bf
00000130: 94b1 85bf 3d27 e13f 5a94 b5bf 883a f33c
00000140: 086d 90be dfe3 bc3e 2abd 3dbe 07d4 2c3e
00000150: ef66 1e3e 5717 82c0 a7db 8ec0 28e0 6cbf
00000160: 0151 54bd 4c27 dfbe 58d6 fc3f 0dae 8740
00000170: c60b 293f 6550 f03d f181 3840 42d2 0ec0
00000180: 82a5 803d d430 08be 44f8 e2bd ca83 993e
00000190: c301 1abe 5012 11be 5e6b d940 b3b9 a4c0
000001a0: 64b1 c5bf f717 ce3f dde3 3cbf 0780 2ec0
000001b0: 82cb 9cbf 3191 c03e 9bd7 66bf dae5 1440
000001c0: 6d46 493b 66bf 523e 0273 8c3d f926 2dbe
000001d0: 4058 73bd 1f53 c3be 203f e1bd bf73 76c1
000001e0: 45cd 3cc1 d066 c43e 189c 5e3e 12b6 6cbe
000001f0: 9385 423f 9ab9 b4be 3f88 443e 5c33 6fbc
00000200: 7d02 ddbf dc8b dfbf 3deb c2bd 6894 a2be
00000210: c51e 5fbd add9 783d acc8 a1bc d92f 16bb
00000220: c28f d340 8f40 ccbd efc9 3c3f b5d2 80bf
00000230: 4e2e 773f fb35 4ebf 9ad2 b8bf 31f6 b9bf
00000240: 3bce c1bf bddb 6abf 18f8 053f fa56 903e
00000250: 8f4c ce3e 5d21 613c 1d44 7bbd 3c3b 17be
00000260: b74d 8d3e 36da 9040 2f00 85c0 c5c7 833f
00000270: 1cb0 fd3f 6108 60bf 0de4 16c0 a325 b4bf
00000280: 798f 6e3e 4b82 f7bf 13d2 043f 93ca d5bf
00000290: e23a 3a3c 39f8 5cbe 3096 dc3c 9cc2 643d
000002a0: 7b8d 61bc 6307 1f3c 7392 2541 e07f fcbf
000002b0: 383a dc3e f50e 993f dc85 6e3f cdf0 7c3e
000002c0: 6460 05c0 bb0d 31be 0f1c 94be d24e 8240
000002d0: 5658 5dbf dbbc d8bc fcba 363d ee8e 473b
000002e0: 6076 fcbb 1307 c0bd ad56 8bbd e3bd 9bc0
000002f0: d6da 2dbe c9e0 c8bf 8ba7 c7bc 2a49 92bf
00000300: 5ad9 93bf e282 c7be 45b0 34be 2fe1 8ebf
00000310: 6ce2 dc3e 4735 0bbf f86e d83d 1c54 85be
00000320: be59 65be cbdb f8bc 9259 9bbd df3e aebc
00000330: 2ad0 6cc0 7112 d3bf e2c3 21c0 7fdd 05c0
00000340: 0b81 b8bf b7a4 2bc0 8b9e 473f 49d3 ea3f
00000350: cd19 833e 8405 84bf ad48 c33f 0603 c23e
00000360: f476 f73e 72ec e83c 9af9 723e cc1f f53c
00000370: d295 363a 8238 3640 527c 783f eac7 743f
00000380: 9e32 433f 3fbe bb3e 1ced e13f a0f9 8340
00000390: 32ee ccbd 75de f3be c738 a73f a51d 783f
000003a0: ad74 eabe 3a23 8fbe 9d32 f63d 2bb0 f1bd
000003b0: 8ad4 d1bc 4684 dcbd 6212 8740 bf37 a53e
000003c0: 38a2 afbe c59e 6540 5001 71c0 14f6 d3bf
000003d0: 7576 3740 f5c6 7d3e 2305 86bf 5c75 943f
000003e0: 1f46 5dbf d03f 3b3d fd70 61be 184f 423e
000003f0: af8e d63d 2ac5 833d 99d3 493d e480 6e40

bias f4 [256]
4.8522787 -1.8409163 -1.3764523 -1.5215062 -1.5472952 -0.96830606 0.56472903 -0.17781866
-1.0946189 -1.4652274 -1.9083207 -2.7341993 -0.37891695 -2.107281 0.4237842 -2.5648239
-0.40277198 2.0369666 -0.7047944 -0.58769107 -1.4846258 -1.2802039 2.400321 -1.8945507
-0.72246087 -1.7378215 -0.9127728 -2.9945178 -2.862073 -1.3769484 -1.4935544 -0.66705096
-2.2871509 -1.1964403 -2.6298661 -2.521697 -1.936307 -1.8165497 -0.7757577 -2.550295
-2.0795076 -0.6485311 -2.063362 -1.5018533 -0.04323161 -3.1367207 0.49947494 -2.4616947
-3.2243292 -0.7542204 -2.347392 -2.7162771 -0.14208038 1.748639 -0.21706334 -0.018377362
-1.9665989 -2.3403609 -0.21259347 -1.7738664 -3.19266 -2.5508192 0.02235726 1.3500453
-2.3873699 0.80155927 -0.5626591 -2.6744034 -0.178287 2.497659 -1.8722086 1.6720353
1.3421906 -0.6902005 -3.6300197 0.16214585 -1.6151055 -0.06871012 -2.4546099 0.15754357
-2.4640887 -0.38233057 0.22936355 -1.0885644 -3.367429 -0.3654148 -2.1914053 -2.3566463
1.3758667 -1.0867419 -3.4665952 0.126484 4.0018783 1.1567554 -0.78216904 1.198512
-2.344111 -1.3586832 -2.9847443 -2.3120298 -2.5106316 -0.71405506 1.7656018 -1.0268906
0.066069424 -1.5048951 -0.83009064 -1.2258042 1.0418053 0.10850264 -3.0600355 3.234823
0.49212894 0.071023665 -1.4044483 -1.1768988 -1.8411639 -1.8247693 -1.3382938 0.44045717
0.24797446 -1.2780893 -0.030489193 -0.5175035 0.6454698 -1.70372 -1.5562111 -1.8829126
-1.4527537 -1.1395116 -1.3699045 -0.6615208 -1.3643223 -1.7345594 -1.2173598 -1.0614808
-0.27829352 -1.5007669 1.560245 -3.0676265 -2.5585008 -0.34991202 -3.2102776 -3.1047177
-2.9793112 -1.8450872 -0.38664225 0.6730364 -2.0929027 -1.6647763 -1.5537394 0.7687138
-2.811711 1.3334789 -1.9681835 -3.9144652 -1.5173402 -2.0962749 -0.39266795 -1.4390028
-0.9115746 -2.6701446 -2.484114 -1.142757 -1.8212751 -3.142613 -0.6491336 0.65727466
1.3603901 -1.2383615 -1.9952371 -1.5117733 -2.2547646 -0.9795833 1.1014942 0.3401739
-0.8526545 -2.1607583 -4.085278 -2.2548316 4.4092116 -1.3964589 -1.6319451 -1.880728
-0.23810644 -2.474777 -1.9586343 -0.3934612 -1.2703938 -2.0524135 -3.1297324 -1.8837867
-3.0791996 -1.7924626 0.33382508 -0.4959834 -2.7193625 -1.2986904 0.77752894 1.0246947
-0.42363304 -2.423296 -2.1842923 0.5987578 0.3103453 0.7453352 -2.1464918 -1.017939
-1.3206134 0.867223 0.86064196 0.115040235 -1.9739022 -1.6283326 0.2266297 -1.8081943
2.1431377 -3.0999527 -2.3269393 -2.168337 -2.4081979 -1.2993784 -0.07321425 1.764371
-1.8943914 -2.4617305 0.31169805 -1.4929781 -0.9387733 -2.6156282 -1.3333591 1.5555185
-0.23792456 -1.0006825 -1.1755972 -2.0278223 -1.5929354 -1.4473296 -1.1002634 -1.8972361
0.7232365 2.8727696 -2.8825376 -0.66582286 -1.9395783 -0.05462565 -1.5242705 -1.483383
-1.2143923 -2.1751525 -3.0456004 -1.734654 -3.5707219 -0.2642846 -1.1565487 -1.2502702
00000000: de45 9b40 25a3 ebbf 972f b0bf b7c0 c2bf
00000010: c50d c6bf e8e2 77bf 1592 103f 1816 36be
00000020: 791c 8cbf 928c bbbf da43 f4bf 1ffd 2ec0
00000030: 6701 c2be b1dd 06c0 3efa d83e 1326 24c0
00000040: 2138 cebe a95d 0240 686d 34bf ec72 16bf
00000050: 3808 bebf b9dd a3bf dc9e 1940 a380 f2bf
00000060: 32f3 38bf ef70 debf 7aab 69bf 2ea6 3fc0
00000070: 342c 37c0 d83f b0bf ca2c bfbf dac3 2abf
00000080: ae60 12c0 f524 99bf ba4f 28c0 7c63 21c0
00000090: e8d8 f7bf b384 e8bf 0e98 46bf 0938 23c0
000000a0: a716 05c0 2206 26bf 1f0e 04c0 bb3c c0bf
000000b0: a113 31bd 08c0 48c0 2ebb ff3e 688c 1dc0
000000c0: 695b 4ec0 9714 41bf ac3b 16c0 7cd7 2dc0
000000d0: 857d 11be 67d3 df3f da45 5ebe 1f8c 96bc
000000e0: 83b9 fbbf 79c8 15c0 1ab2 59be 0e0e e3bf
000000f0: 8b54 4cc0 9f40 23c0 9326 b73c 49ce ac3f
00000100: abca 18c0 fd32 4d3f 6d0a 10bf 6d29 2bc0
00000110: de90 36be a5d9 1f40 88a4 efbf 4105 d63f
00000120: e7cc ab3f fbb0 30bf 3e52 68c0 9009 263e
00000130: c7bb cebf e4b7 8cbd 5418 1dc0 1a53 213e
00000140: a1b3 1dc0 d5c0 c3be 47de 6a3e 1456 8bbf
00000150: f583 57c0 a617 bbbe fc3f 0cc0 4bd3 16c0
00000160: 661c b03f 5c1a 8bbf b2dc 5dc0 0685 013e
00000170: 630f 8040 9010 943f 3b3c 48bf d768 993f
00000180: ea05 16c0 55e9 adbf 0d06 3fc0 4cf8 13c0
00000190: 30ae 20c0 50cc 36bf 3dff e13f 2771 83bf
000001a0: 684f 873d 67a0 c0bf d280 54bf 27e7 9cbf
000001b0: e059 853f a236 de3d 9fd7 43c0 5707 4f40
000001c0: 53f8 fb3e db74 913d f6c4 b3bf 9fa4 96bf
000001d0: 42ab ebbf 0a92 e9bf 364d abbf 9a83 e13e
000001e0: 04ed 7d3e 6e98 a3bf 79c4 f9bc 1c7b 04bf
000001f0: 823d 253f 7f13 dabf ed31 c7bf 4803 f1bf
00000200: d5f3 b9bf 84db 91bf 0859 afbf 6d59 29bf
00000210: 1da2 aebf 0b06 debf 72d2 9bbf 9ade 87bf
00000220: 7d7c 8ebe 2119 c0bf 1cb6 c73f fe53 44c0
00000230: 7abe 23c0 ab27 b3be 3075 4dc0 b2b3 46c0
00000240: 09ad 3ec0 d12b ecbf f9f5 c5be 1d4c 2c3f
00000250: 1ef2 05c0 6417 d5bf efe0 c6bf 6dca 443f
00000260: 13f3 33c0 70af aa3f 70ed fbbf 9986 7ac0
00000270: 3438 c2bf 5e29 06c0 c60b c9be 3e31 b8bf
00000280: f45c 69bf a6e3 2ac0 b9fb 1ec0 dd45 92bf
00000290: 8b1f e9bf 9220 49c0 9f2d 26bf 2743 283f
000002a0: 4321 ae3f a182 9ebf ee63 ffbf ca81 c1bf
000002b0: 104e 10c0 f9c5 7abf c3fd 8c3f 462b ae3e
000002c0: 9147 5abf dd49 0ac0 99ba 82c0 294f 10c0
000002d0: 4318 8d40 2abf b2bf 94e3 d0bf b2bb f0bf
000002e0: 2dd2 73be bf62 1ec0 87b4 fabf bf73 c9be
000002f0: 449c a2bf be5a 03c0 894d 48c0 ec1f f1bf
00000300: 9b11 45c0 6a6f e5bf 1feb aa3e 89f1 fdbe
00000310: 090a 2ec0 7d3b a6bf 230c 473f 3229 833f
00000320: 6ee6 d8be 4817 1bc0 72cb 0bc0 3148 193f
00000330: 94e5 9e3e 4ace 3e3f 1f60 09c0 d34b 82bf
00000340: dc09 a9bf 5402 5e3f 0853 5c3f 379a eb3d
00000350: d4a8 fcbf 346d d0bf 9e11 683e e972 e7bf
00000360: 2b29 0940 a065 46c0 93ec 14c0 09c6 0ac0
00000370: ea1f 1ac0 0852 a6bf 5af1 95bd e9d6 e13f
00000380: 6b7b f2bf fe8c 1dc0 e396 9f3e e819 bfbf
00000390: 7253 70bf 7466 27c0 83ab aabf 3b1b c73f
000003a0: 7fa2 73be 5d16 80bf f879 96bf d7c7 01c0
000003b0: 4fe5 cbbf 1942 b9bf 6ed5 8cbf a2d8 f2bf
000003c0: 0726 393f 75db 3740 7f7b 38c0 5e73 2abf
000003d0: 1a44 f8bf 25bf 5fbd 4c1b c3bf 7fdf bdbf
000003e0: 3571 9bbf b335 0bc0 1eeb 42c0 2409 debf
000003f0: b586 64c0 5050 87be ca09 94bf db08 a0bf

weight f4 [256, 273]
-0.044630382 -0.07320852 -0.0236626 -0.013365404 -0.08705084 -0.12637724 0.001493691 -0.070081435
-0.041761935 -0.11764147 -0.07146691 -0.02697917 -0.110446975 -0.113267995 -0.07361437 -0.06962205
-0.07736882 -0.17719023 -0.12080619 -0.049583398 -0.13949308 0.0035417282 -0.10684657 0.06284237
-0.037929483 0.003077901 0.022903856 -0.082726456 -0.082152225 -0.043585412 -0.12722588 -0.008815687
-0.0377298 -0.071770325 2.7167762e-05 -0.04376579 -0.036375083 0.028773362 0.0038893623 -0.062190197
0.03948876 -0.0126764625 0.017205406 -0.060925245 0.009926477 -0.08227526 0.0015096474 0.017814873
0.0064652017 -0.02275564 0.00028816325 -0.046145864 -0.10050689 -0.10583309 -0.05462949 0.017263386
-0.06885649 -0.04881745 -0.10220592 -0.028014801 -0.050108887 -0.07119581 -0.022038091 -0.03388348
-0.066628724 -0.09998994 -0.06590894 -0.07069273 -0.018754927 -0.046819713 0.0025489402 -0.059569553
-0.008491821 -0.07167736 -0.008133102 -0.111593805 -0.086707726 -0.030027535 -0.072501004 -0.11426401
-0.059702728 -0.030843562 -0.026437318 -0.04942472 -0.01834542 -0.02765948 -0.01895876 0.01950705
-0.076266006 -0.05652346 -0.01865339 -0.080587946 -0.045599625 -0.09589451 0.003806053 0.045703128
-0.06350349 -0.0016991958 -0.027432298 -0.04758038 -0.06868403 -0.061244156 -0.024436474 -0.07963974
-0.010224483 -0.14715213 -0.051251315 -0.03663748 -0.09442668 -0.08192738 -0.09036807 -0.006510505
-0.11681916 -0.014725117 -0.15683536 -0.04952392 -0.012346017 0.0034416802 -0.05371974 -0.05591452
0.010500619 -0.040279232 -0.07766994 0.023542445 -0.05481118 -0.052123893 0.054515008 0.025416423
-0.017857902 0.009907342 0.021663168 -0.0017767462 0.02201817 0.053603027 0.015844194 -0.10428964
-0.02376074 0.001293692 -0.12587878 -0.040059295 -0.048998214 -0.066415444 -0.12223125 -0.035741545
-0.021425594 0.09757857 -0.022959793 -0.0032690938 0.02662828 0.053733114 -0.06818671 -0.057464607
-0.051529773 -0.10732234 0.025749821 -0.004595088 -0.024003293 -0.056861747 0.054246284 -0.15889235
0.012118773 0.020173855 -0.005289647 -0.012888559 -6.966903e-05 -0.045773737 -0.04105438 -0.012654348
-0.041278567 -0.035286564 -0.066392146 -0.138161 -0.048293743 -0.02452382 0.04276992 0.05089669
-0.05306112 -0.010685833 -0.10622839 -0.069867894 -0.06298972 0.053118788 -0.044242404 -0.006033901
-0.059856262 -0.033200245 -0.0015829356 -0.052838653 0.017236302 -0.06650468 -0.054307386 -0.037910968
-0.036714975 -0.13544038 -0.026580168 -0.085315935 0.039302114 0.0050019994 0.018578162 -0.106297955
-0.0038448544 -0.14966857 -0.13205568 -0.008286315 -0.065688185 -0.004739547 0.011098263 -0.13761434
-0.06441862 -0.087406665 0.024889784 -0.04599803 -0.052577194 -0.1265749 -0.065229215 -0.045047123
-0.06940817 0.037625864 -0.089287244 -0.05343955 -0.057355378 -0.036334053 -0.10780117 -0.09506214
0.030847177 -0.08923211 -0.16421494 -0.002753472 -0.12439241 0.08133922 -0.057814457 -0.1019848
-0.011703613 0.034390047 -0.0379807 0.000340813 -0.10250318 -0.039241012 -0.102279335 0.11438831
-0.026076755 -0.091022894 0.008419054 -0.09236641 0.054388102 -0.0785349 -0.032834847 -0.10310023
-0.05130054 -0.029045284 -0.09560169 0.029030807 -0.0032590055 -0.031511877 -0.006230177 -0.0788024
00000000: 59ce 36bd 59ee 95bd 12d8 c1bc 91fa 5abc
00000010: b647 b2bd 0969 01be f4c7 c33a db86 8fbd
00000020: 900e 2bbd 03ee f0bd 3e5d 92bd 6c03 ddbc
00000030: 0632 e2bd 0df9 e7bd 21c3 96bd 0196 8ebd
00000040: 8b73 9ebd 5b71 35be 3c69 f7bd f617 4bbd
00000050: 46d7 0ebe 571c 683b 60d2 dabd 80b3 803d
00000060: f25b 1bbd 9cb6 493b dea0 bb3c 7d6c a9bd
00000070: 6d3f a8bd 9e86 32bd 8047 02be ac6f 10bc
00000080: 908a 1abd 52fc 92bd 53e6 e337 c243 33bd
00000090: 0afe 14bd 1db6 eb3c ace4 7e3b 26bb 7ebd
000000a0: f7be 213d f0b0 4fbc 5af2 8c3c c08c 79bd
000000b0: aaa2 223c ee7f a8bd 5cdf c53a 7ff0 913c
000000c0: 0bda d33b 096a babc 9e14 9739 7203 3dbd
000000d0: 8ed6 cdbd 05bf d8bd 2cc3 5fbd f26b 8d3c
000000e0: a204 8dbd cef4 47bd 5651 d1bd 4c7f e5bc
000000f0: fa3e 4dbd 1ccf 91bd 3a89 b4bc 67c9 0abd
00000100: a474 88bd 87c7 ccbd 44fb 86bd 5ac7 90bd
00000110: efa3 99bc 07c6 3fbd 1f0c 273b 34ff 73bd
00000120: 4721 0bbc 94cb 92bd b440 05bc 4b8b e4bd
00000130: d293 b1bd 4efc f5bc 687b 94bd 4003 eabd
00000140: d98a 74bd a3ab fcbc 1393 d8bc 9371 4abd
00000150: 2249 96bc 2296 e2bc 674f 9bbc 40cd 9f3c
00000160: 5a31 9cbd 2585 67bd ffce 98bc 4b0b a5bd
00000170: acc6 3abd 5764 c4bd f96e 793b 3433 3b3d
00000180: 1e0e 82bd 8db7 deba b3b9 e0bc a5e3 42bd
00000190: 36aa 8cbd 27db 7abd 002f c8bc 291a a3bd
000001a0: 9784 27bc 0caf 16be e6ec 51bd 2f11 16bd
000001b0: c662 c1bd 8bc9 a7bd e512 b9bd 1356 d5bb
000001c0: e23e efbd 9e41 71bc 7399 20be 98d9 4abd
000001d0: f346 4abc d08d 613b 3b09 5cbd a006 65bd
000001e0: ca0a 2c3c d6fb 24bd 6b11 9fbd 16dc c03c
000001f0: b081 60bd dd7f 55bd 214b 5f3d 1a36 d03c
00000200: bc4a 92bc 6752 223c f576 b13c b6e1 e8ba
00000210: 735f b43c d98e 5b3d afcb 813c cf95 d5bd
00000220: e2a5 c2bc 1a91 a93a 5ee6 00be 3715 24bd
00000230: 5ab2 48bd d204 88bd 6154 fabd ba65 12bd
00000240: ba84 afbc 46d7 c73d 2d16 bcbc 4b3e 56bb
00000250: 8d23 da3c 4117 5c3d 79a5 8bbd 0260 6bbd
00000260: e210 53bd d1cb dbbd 4af1 d23c 6492 96bb
00000270: 8ea2 c4bc dde7 68bd 5a31 5e3d adb4 22be
00000280: d18d 463c a443 a53c c654 adbb 892a 53bc
00000290: 471b 92b8 3e7d 3bbd a328 28bd 2f54 4fbc
000002a0: b713 29bd a588 10bd 9bf8 87bd 147a 0dbe
000002b0: a9cf 45bd 2ee6 c8bc 832f 2f3d 0c79 503d
000002c0: 9e56 59bd a213 2fbc 458e d9bd e616 8fbd
000002d0: c100 81bd 1693 593d 8637 35bd 08b8 c5bb
000002e0: d72b 75bd fbfc 07bd 817a cfba 586d 58bd
000002f0: 2533 8d3c 9b33 88bd 6c71 5ebd 8848 1bbd
00000300: 7162 16bd e2b0 0abe a7be d9bc 1fba aebd
00000310: 41fb 203d d0e7 a33b 3b31 983c beb2 d9bd
00000320: f4f9 7bbb b842 19be 9b39 07be 53c3 07bc
00000330: 8787 86bd 344e 9bbb 7dd5 353c c6ea 0cbe
00000340: e9ed 83bd 4402 b3bd a9e5 cb3c 6e68 3cbd
00000350: 2f5b 57bd da9c 01be e596 85bd 5583 38bd
00000360: df25 8ebd 941d 1a3d 3bdc b6bd 6ee3 5abd
00000370: 79ed 6abd 04d3 14bd dcc6 dcbd f0af c2bd
00000380: 38b3 fc3c 53bf b6bd f627 28be 9873 34bb
00000390: 73c1 febd 2d95 a63d dace 6cbd 68dd d0bd
000003a0: 83c0 3fbc 94dc 0c3d a791 1bbd 26af b239
000003b0: 30ed d1bd 2fbb 20bd d477 d1bd 6b44 ea3d
000003c0: eb9e d5bc 366a babd 12f0 093c 9a2a bdbd
000003d0: 0fc6 5e3d e8d6 a0bd d57d 06bd 3726 d3bd
000003e0: 8420 52bd 60f0 edbc d2ca c3bd 04d2 ed3c
000003f0: 0a95 55bb 9912 01bd 8326 ccbb 2763 a1bd

bias f4 [256]
-0.07993198 -0.54177004 -0.019452145 -0.16742356 -0.0142329745 -0.18354835 0.3088979 -0.12504059
-0.36841574 -1.1699773 -0.043635357 -0.13022551 -0.3025786 0.018423075 -0.02191719 -0.013463006
0.0053031873 0.5059791 -0.038713265 -0.009872841 -0.042556897 -1.1507055 -1.3161628 -0.06672775
-1.2684437 -0.6961697 -0.1084859 -0.050350282 -0.81046265 -0.40753195 -0.7377454 -0.78129274
-0.090421036 -1.1833417 -1.2952186 -0.0146180345 -0.07211752 -0.018917192 -0.19283688 -0.065131284
-0.068677604 1.2316985 -1.6648169 -0.94457847 -0.025916591 -0.06282198 -0.36528802 -2.0576382
-1.2663791 0.46642405 -0.02796065 -0.042457137 -0.13507336 -0.00745324 0.015975961 -0.0292477
-1.4005953 -0.4351123 1.5164284 0.037049327 0.35653755 0.008308359 0.345224 -0.0532605
1.3522784 -0.07161333 -0.113311425 -0.06884255 -0.86744106 -0.33041912 0.005404669 -1.1717979
-0.04808363 -0.10676609 -1.0677992 0.35075295 -0.036326725 -0.053623393 -0.010545938 -0.15558822
-1.1426729 0.9069855 -0.030421741 -0.5075387 -1.319793 -1.0200486 -0.015149726 0.7740605
0.013486783 -2.2959924 -0.37669858 -0.8342372 -0.061314 0.22662772 -0.35385606 -0.12745449
-1.5890402 -0.072056815 -0.47625726 -1.2163016 -0.26541916 -0.3280227 -0.014984729 -0.09667474
-0.08760254 -0.13175131 -0.20738938 -0.09502505 -0.23574191 -0.059695728 -0.03830111 -0.0034190952
-1.3287908 -0.09909971 0.034155432 -1.2112961 0.043821234 0.3228461 -0.070605084 -0.021599317
-2.499125 -0.18651861 -1.2801903 -0.01917839 -1.0100276 -1.3188305 -0.9281059 0.0145167
0.4012569 -0.23871256 -0.06144153 -1.7217056 0.01327751 -0.07755986 -0.4462714 -0.1263961
-0.8214848 0.29438034 -0.73766303 0.19391727 -2.037863 -0.048115704 -0.06912859 -0.048903093
-0.0943232 -0.021570612 -0.6744459 -0.15729323 -0.69312406 -0.47683167 -8.1668375e-05 -0.065844886
-0.9223957 -0.07765955 -0.07885825 0.06212637 -0.15897813 0.7133593 -0.88165617 -1.4002768
-0.6876446 -0.10478574 -0.06523454 -0.16615112 0.074492775 -1.1732701 -1.7094935 -0.16027471
-1.9732938 -0.7835335 -0.30483902 -1.0979123 1.3421086 -0.06849376 -0.07018803 -1.6349511
-0.052454572 -0.015929064 -0.06534471 -0.14131412 0.08889516 -0.069416866 -0.1265223 -1.274944
-0.66677845 0.032641374 -0.87139386 -0.7940849 0.0845078 -0.03573001 -0.03670024 -0.9764121
-1.1900837 0.06257352 0.11506548 -0.36261347 -0.1243629 -0.5989691 -1.1608155 -1.4156644
-0.012631277 -0.353018 -0.22665621 -0.09322904 -0.6182531 -0.6323415 -1.188183 -0.0085531315
-1.0166695 -0.45439553 -0.76789594 -0.07304147 -0.6625064 -0.49773005 0.89034384 -3.378006
-0.40061206 0.048047807 -0.37573507 -0.33672658 -0.175924 -0.42627022 -0.00568921 -0.0669582
-0.09815589 -0.04090545 0.38806057 -0.13075651 0.09852355 -0.024695968 -0.027328657 -0.09952698
-0.028082564 -0.08414166 -0.58384913 -0.0205795 -9.017234e-05 -0.7026412 0.51292217 -0.7010113
-0.48352063 -0.7216061 -0.9113849 -1.7730036 -0.041851316 -0.62559944 -0.19533385 -0.027122565
-0.01742176 -0.07868138 -0.025318068 -2.657385 -0.0439058 -2.0773735 -0.07268514 -0.79719555
00000000: 61b3 a3bd 71b1 0abf 1b5a 9fbc 1571 2bbe
00000010: 6c31 69bc 19f4 3bbe de27 9e3e a40a 00be
00000020: fda0 bcbe d1c1 95bf fdba 32bd d659 05be
00000030: 95eb 9abe fdeb 963c ae8b b3bc f193 5cbc
00000040: 5cc6 ad3b d987 013f cd91 1ebd b2c1 21bc
00000050: 2450 2ebd 514a 93bf 0678 a8bf 8fa8 88bd
00000060: 5d5c a2bf 2d38 32bf db2d debd 193c 4ebd
00000070: 7b7a 4fbf 07a8 d0be e2dc 3cbf cd02 48bf
00000080: aa2e b9bd be77 97bf b9c9 a5bf 7b80 6fbc
00000090: 5ab2 93bd 3af8 9abc 0877 45be 8d63 85bd
000000a0: d8a6 8cbd 4ca8 9d3f b818 d5bf e5cf 71bf
000000b0: 084f d4bc cfa8 80bd 0807 bbbe 58b0 03c0
000000c0: b618 a2bf 22cf ee3e bc0d e5bc 89e7 2dbd
000000d0: ac50 0abe 4f3a f4bb 05e0 823c df98 efbc
000000e0: b546 b3bf 0ac7 debe 531a c23f 09c1 173d
000000f0: 178c b63e c91f 083c 33c1 b03e af27 5abd
00000100: 7517 ad3f 02aa 92bd d20f e8bd 53fd 8cbd
00000110: 9e10 5ebf b22c a9be a619 b13b 79fd 95bf
00000120: 57f3 44bd 2ea8 dabd a5ad 88bf e495 b33e
00000130: 55cb 14bd 34a4 5bbd dfc8 2cbc 8552 1fbe
00000140: 1b43 92bf 3430 683f 0437 f9bc 0eee 01bf
00000150: faee a8bf f490 82bf 8e36 78bc d428 463f
00000160: abf7 5c3c 8af1 12c0 a3de c0be 9290 55bf
00000170: 6424 7bbd 1911 683e 9f2c b5be 6e83 02be
00000180: ab65 cbbf 8692 93bd fed7 f3be c5af 9bbf
00000190: 05e5 87be 97f2 a7be 8282 75bc 68fd c5bd
000001a0: f668 b3bd d1e9 06be e25d 54be 7e9c c2bd
000001b0: 5466 71be 8283 74bd a0e1 1cbd e612 60bb
000001c0: d115 aabf caf4 cabd 91e6 0b3d c00b 9bbf
000001d0: e57d 333d 164c a53e 6699 90bd 0df1 b0bc
000001e0: aaf1 1fc0 bcfe 3ebe 47dd a3bf 001c 9dbc
000001f0: 9648 81bf 70cf a8bf 5998 6dbf 74d7 6d3c
00000200: 8b71 cd3e 1171 74be 1daa 7bbd d960 dcbf
00000210: ea89 593c b4d7 9ebd af7d e4be fb6d 01be
00000220: d44c 52bf 05b9 963e 7cd7 3cbf 4092 463e
00000230: 596c 02c0 f914 45bd 4a93 8dbd 9c4e 48bd
00000240: 862c c1bd dab4 b0bc 7da8 2cbf 7a11 21be
00000250: 9470 31bf 4823 f4be 6045 abb8 afd9 86bd
00000260: 2022 6cbf f80b 9fbd 6f80 a1bd 3878 7e3d
00000270: 2acb 22be b79e 363f 38b4 61bf 453c b3bf
00000280: 7a09 30bf e899 d6bd b099 85bd 8523 2abe
00000290: ab8f 983d b72d 96bf afd0 dabf 0e1f 24be
000002a0: e494 fcbf a795 48bf dc13 9cbe 6488 8cbf
000002b0: 37ca ab3f 7546 8cbd bebe 8fbd 1446 d1bf
000002c0: 9bda 56bd ab7d 82bc 73d3 85bd a6b4 10be
000002d0: aa0e b63d 6e2a 8ebd 108f 01be 5d31 a3bf
000002e0: feb1 2abf f6b2 053d ab13 5fbf 2649 4bbf
000002f0: 6d12 ad3d a259 12bd fe52 16bd 25f6 79bf
00000300: aa54 98bf 8c26 803d 73a7 eb3d 79a8 b9be
00000310: fab1 febd 0a56 19bf 9a95 94bf 7e34 b5bf
00000320: 6af3 4ebc c6be b4be 9118 68be deee bebd
00000330: d645 1ebf 22e1 21bf 6116 98bf 6f22 0cbc
00000340: 3a22 82bf 88a6 e8be d494 44bf c496 95bd
00000350: 059a 29bf 79d6 febe 93ed 633f 4031 58c0
00000360: 061d cdbe c7cd 443d 5960 c0be 6d67 acbe
00000370: 6c25 34be 1740 dabe 8d6c babb 6121 89bd
00000380: f505 c9bd 798c 27bd e0af c63e 09e5 05be
00000390: b7c6 c93d 334f cabc 59e0 dfbc cdd4 cbbd
000003a0: 680d e6bc 7652 acbd 2377 15bf 5796 a8bc
000003b0: e81a bdb8 4be0 33bf de4e 033f 7a75 33bf
000003c0: 0490 f7be 2dbb 38bf 8550 69bf c8f1 e2bf
000003d0: 496c 2bbd 4927 20bf 9905 48be 2430 debc
000003e0: 14b8 8ebc b423 a1bd d667 cfbc 9912 2ac0
000003f0: 91d6 33bd b0f3 04c0 f2db 94bd 0215 4cbf

weight f4 [6, 273]
0.011533683 0.17162973 -0.0024354954 0.027784744 -0.054078016 0.053153843 0.76696545 0.032867827
-0.25678757 0.22345504 -0.021607468 0.0053481534 -0.034334436 0.5391244 0.026152957 0.024503877
0.060789425 0.010317463 -0.03982603 -0.04377591 -0.002675775 0.16036843 -0.046829242 0.028614739
0.4602009 0.26391143 -0.022618763 -0.018849704 -0.60268086 -0.054294728 -0.6340138 0.21851797
0.011594265 0.8104614 0.40851694 -0.02201673 -0.021168645 -0.011572142 0.39154422 0.020207586
-0.03924751 0.00066203205 -0.34819946 0.2443836 0.025004635 -0.04215896 -0.103951156 1.1708499
0.9675444 -0.869223 0.0035960877 -0.054194044 0.104223356 -0.02455043 0.5194162 0.027699811
-1.1073629 0.40162182 0.39508256 -0.0071626315 0.06394976 -1.7784415 0.75821555 -0.023665844
0.14816388 0.06509805 0.036750503 -0.041279323 0.0025597967 -0.055200253 0.024325758 0.16032003
-0.015322724 0.045367382 -0.94937027 0.33324733 -0.02584452 -0.038172357 -0.0036476376 0.14923604
0.40578005 -1.1522529 -0.045832913 0.5978947 -0.09898701 0.066076234 -0.001168907 -3.3389
0.33421963 0.77214205 0.22494705 0.49380246 0.012024793 -0.24910544 -0.05156103 0.036816526
0.16251029 0.02040575 -0.48292097 -0.018932818 -0.14744823 -1.1673692 0.030185651 -0.00053888134
0.04655947 0.00083123613 0.18615085 -0.05586163 -0.6551063 -0.01907001 0.024475222 0.0017650056
0.3947987 0.014952839 0.06360795 -0.7774433 0.0179476 -0.40029335 -0.009873184 -0.02864772
0.16820538 -0.5564986 -0.017844211 0.011263055 -1.4278444 0.020294182 -0.581167 0.006337013
1.7809799 0.24261099 -0.1388891 -0.23318888 0.6509816 0.11289696 -0.6081057 0.77409184
-0.079739936 0.023061678 -0.75704575 -0.28123152 0.73303396 0.055320416 -0.0019824356 -0.0060600545
-0.040084425 0.022753717 0.04772842 0.30820796 0.034344345 0.59171426 -0.026039783 0.031092681
-0.9165784 0.28303045 0.048062675 -0.1350662 -0.07729176 -0.7708443 0.38895926 0.048167493
-0.85743886 0.08762355 -0.03268868 -0.055610612 -0.4976038 0.23169209 0.5730417 -0.38108408
0.82862025 0.20938025 -0.13548069 -1.3082038 0.24375151 -0.048616007 -0.0027844373 -1.1108955
0.023475192 0.04336133 0.0056952387 -0.03711306 -1.6557997 0.7814703 0.1942964 -0.2797475
-1.2104777 0.010494056 -0.30845615 -0.023942126 -0.066368595 -0.051178694 -0.044615705 -0.34514183
-0.18486741 -0.028702393 1.2173167 -0.4391154 -0.1987633 0.533518 -0.6127624 -0.9419012
-0.0147279035 0.06847492 0.04294879 -0.0061613093 0.032643788 0.30566773 0.72030103 -0.034146853
0.30440864 -7.464021 0.45059842 -0.014237557 -0.013622359 -0.3148232 0.069650985 0.48620656
0.6801539 0.020828493 -0.039867133 0.837161 4.0157595 -1.3399398 -0.01458014 0.04844539
0.0340219 -0.013698017 -0.04817096 0.017363897 0.31634745 -0.038395718 -0.025966456 0.011331067
-0.1602556 0.04833535 -0.10520658 -0.015275586 -0.030702485 -0.18302901 -1.0184807 -0.58355534
-0.032968573 0.08127591 0.008008572 0.3198274 0.0027501003 0.018517772 0.5690117 -0.012147908
0.03936665 -0.08874757 -0.035461888 1.7067287 -0.046159238 -0.32864317 -0.022929966 1.7600405
00000000: c6f7 3c3c b4bf 2f3e d59c 1fbb d59c e33c
00000010: e980 5dbd d8b7 593d d957 443f 6aa0 063d
00000020: a979 83be 66d1 643e 2502 b1bc 903f af3b
00000030: 44a2 0cbd 0f04 0a3f ba3e d63c 5bbc c83c
00000040: 55fe 783d 940a 293c 9f20 23bd 5e4e 33bd
00000050: 0e5c 2fbb 9f37 243e 05d0 3fbd 7569 ea3c
00000060: 749f eb3e 661f 873e fc4a b9bc b26a 9abc
00000070: 4b49 1abf 2664 5ebd ba4e 22bf 2dc3 5f3e
00000080: dff5 3d3c 667a 4f3f 2229 d13e 6e5c b4bc
00000090: de69 adbc 1599 3dbc 7c78 c83e 618a a53c
000000a0: ffc1 20bd 388c 2d3a 3347 b2be b23f 7a3e
000000b0: 85d6 cc3c e0ae 2cbd 58e4 d4bd 69de 953f
000000c0: fdb0 773f 6685 5ebf 57ac 6b3b 93fa 5dbd
000000d0: 0e73 d53d fc1d c9bc 76f8 043f b7ea e23c
000000e0: 11be 8dbf 60a1 cd3e 4348 ca3e 82b4 eabb
000000f0: 17f8 823d f9a3 e3bf 6a1a 423f dfde c1bc
00000100: 46b8 173e 2052 853d b287 163d 8214 29bd
00000110: 43c2 273b a919 62bd d046 c73c ef2a 243e
00000120: 2a0c 7bbc 26d3 393d ee09 73bf 659f aa3e
00000130: e3b7 d3bc 9e5a 1cbd 340d 6fbb 55d1 183e
00000140: 67c2 cf3e 067d 93bf 4bbb 3bbd a10f 193f
00000150: b4b9 cabd fa52 873d 0336 99ba 8ab0 55c0
00000160: d61e ab3e 1aab 453f 8558 663e add3 fc3e
00000170: a303 453c 7f15 7fbe a931 53bd edcc 163d
00000180: 1969 263e f629 a73c 6b41 f7be ff18 9bbc
00000190: abfc 16be 5b6c 95bf e647 f73c b743 0dba
000001a0: 25b5 3e3d 50e7 593a 549e 3e3e 2acf 64bd
000001b0: 0cb5 27bf b638 9cbc 4380 c83c c357 e73a
000001c0: 0e23 ca3e c1fc 743c e344 823d 8606 47bf
000001d0: d806 933c 40f3 ccbe 23c3 21bc a0ae eabc
000001e0: 083e 2c3e b176 0ebf 062e 92bc ad88 383c
000001f0: 9bc3 b6bf fc3f a63c 5cc7 14bf b8a6 cf3b
00000200: 26f7 e33f 046f 783e f238 0ebe 11c9 6ebe
00000210: bba6 263f 8536 e73d d1ac 1bbf e22a 463f
00000220: b14e a3bd d8eb bc3c c0cd 41bf 94fd 8fbe
00000230: 1da8 3b3f a997 623d c0eb 01bb 6c93 c6bb
00000240: 912f 24bd 0166 ba3c e07e 433d 6fcd 9d3e
00000250: a8ac 0c3d 967a 173f 6251 d5bc 14b6 fe3c
00000260: e2a4 6abf 5ee9 903e 5edd 443d cb4e 0abe
00000270: 244b 9ebd 0d56 45bf ab25 c73e 474b 453d
00000280: 1d81 5bbf fa73 b33d 91e4 05bd f4c7 63bd
00000290: edc5 febe b140 6d3e dcb2 123f 741d c3be
000002a0: 7520 543f c767 563e 73bb 0abe 3973 a7bf
000002b0: ff99 793e 9421 47bd 1b7b 36bb d331 8ebf
000002c0: 0c4f c03c a69b 313d 209f ba3b dd03 18bd
000002d0: 3ff1 d3bf 700e 483f a3f5 463e 103b 8fbe
000002e0: eff0 9abf 43ef 2b3c f7ed 9dbe 4722 c4bc
000002f0: 42ec 87bd c0a0 51bd f5be 36bd 6eb6 b0be
00000300: e24d 3dbe 4821 ebbc 09d1 9b3f bcd3 e0be
00000310: 9b88 4bbe a394 083f ffdd 1cbf 7020 71bf
00000320: 4e4d 71bc 943c 8c3d 12eb 2f3d cfe4 c9bb
00000330: 7eb5 053d 7b80 9c3e a665 383f 92dd 0bbd
00000340: 73db 9b3e 43d9 eec0 d6b4 e63e a444 69bc
00000350: 5130 5fbc 8230 a1be 2da5 8e3d 11f0 f83e
00000360: 911e 2e3f 84a0 aa3c b84b 23bd 2f50 563f
00000370: 1a81 8040 2683 abbf 8ae1 6ebc ac6e 463d
00000380: 8c5a 0b3d a66d 60bc ea4e 45bd bb3e 8e3c
00000390: 4bf8 a13e d444 1dbd 9bb7 d4bc f1a5 393c
000003a0: 0b1a 24be 4afb 453d 8c76 d7bd 7446 7abc
000003b0: c783 fbbc f56b 3bbe 935d 82bf e263 15bf
000003c0: 0e0a 07bd fc73 a63d 6336 033c 6bc0 a33e
000003d0: 073b 343b 95b2 973c c0aa 113f 0508 47bc
000003e0: ed3e 213d 49c1 b5bd 7c40 11bd 1676 da3f
000003f0: 7811 3dbd eb43 a8be a0d7 bbbc 0249 e13f

bias f4 [6]
-0.13506958 -0.846285 2.0394108 0.3375393 1.0070933 -1.016819
00000000: ae4f 0abe 22a6 58bf b585 0240 f3d1 ac3e
00000010: 6fe8 803f 2027 82bf

weight f4 [256, 23]
-3.3185802 -0.69377345 1.6077626 -0.52232057 -0.40746573 -0.3148238 -1.8542438 -0.9269401
-0.22626407 -0.23175061 -0.08140831 -0.015671505 0.06468952 0.07079656 -0.028197141 -0.017739087
-0.01945514 -0.59244317 -0.2904712 -0.618182 -0.11855258 -0.25995392 0.15478581 3.6110208
-15.901415 -0.66367257 3.587102 0.9792708 0.0022257394 -2.496409 1.0225476 -0.354218
-0.14706612 -1.5807257 -0.220108 -0.11268347 0.090798765 0.17102847 -0.13615069 -0.000796015
-1.4589015 -0.71589065 1.0625906 2.27248 0.87119603 -0.390891 2.3519928 1.4817611
3.44716 6.6232677 2.2498157 2.2144659 0.5761009 -0.19848382 0.5265292 0.90558463
0.81257874 0.24252044 0.2603658 -0.0055778306 -0.0042309845 0.04951371 -0.019499261 -0.033460476
-0.34157982 0.12497835 -0.43460298 0.50017 -0.00064044405 -3.5022304 -2.583139 -1.0491961
2.1990898 -0.04645805 2.4353158 3.8899329 1.3721606 -0.0010458544 -1.7181065 -1.1913147
-0.20779307 -0.30003655 -0.081334695 0.008767046 0.07515554 -0.070979826 -0.41949126 -0.6727057
-1.6554141 -1.6354553 -0.6087544 1.1430484 6.5907216 -3.1188107 -7.779272 -3.3309674
-1.3173958 1.1211491 1.9091008 0.8024136 -0.38584194 -0.6033822 -0.78296465 0.056561243
-0.17879482 0.14957826 -0.048696395 0.008925621 -0.050095644 -0.99835885 -0.45599857 1.336376
-0.040396344 0.3344256 0.5526434 12.8838415 -5.5656023 3.5933912 0.9595171 1.2453896
-0.5821463 -3.0622482 -0.6224701 0.07807758 -0.75627184 0.055579167 0.072725795 0.07755679
-0.012577774 -0.01766942 0.03283923 -0.024548938 2.1584916 0.9913126 0.018478911 0.5467703
0.13608019 1.1282498 -1.3645452 -0.7848226 -0.4395785 -0.60073465 0.04168958 -0.6644823
-0.360449 -0.016568018 0.039747544 0.28244868 -0.327606 -0.09904768 -0.1328778 0.0029057506
-0.036153946 0.045911882 -0.0069617536 0.13260616 0.31905583 0.05382248 -0.423943 -0.49225244
-0.53707224 2.312021 -0.41599318 0.5341791 -0.18298878 0.45777613 5.4451957 0.21328215
2.7736995 -1.3231082 1.5474664 0.6335719 0.20980123 0.07255033 -0.22201855 0.5451611
0.30656052 0.17052442 -0.7644736 0.9905247 0.5577338 -1.2300527 1.6816899 0.16424605
-1.4656768 -0.13790089 3.2063231 -0.12539439 1.812241 -0.41299614 -3.2473707 -0.4948218
-0.01587839 -1.227012 -1.3183516 -0.33653182 -0.09981022 0.20643307 -0.045940697 -0.018473115
-0.053490747 1.5192631 1.0679036 0.3227335 0.24986658 0.023415579 -0.09066471 1.2643214
3.773274 -0.2522275 2.0735152 -0.19050938 4.5824347 -0.4562685 -1.3022118 -0.05964827
-0.2581167 -0.8324524 -0.1901153 -0.23237295 0.030399224 -0.47990778 -0.13773672 0.002307589
0.3784995 -0.25940526 0.14454816 0.49156865 0.20189613 0.3566911 -17.680342 0.46374568
-0.55074155 -1.7558826 -0.3880918 0.915686 1.3543286 0.9664335 0.44076225 -0.2727036
-0.20452902 -0.17045371 -0.14159513 0.0027017554 -0.103292495 -0.07889227 0.01772746 0.8439353
0.3558386 -0.47204265 0.16532932 -0.84800583 0.37401712 2.8250844 -0.97716266 1.0324233
00000000: 9e63 54c0 239b 31bf 2acb cd3f cdb6 05bf
00000010: 599f d0be 9630 a1be dc57 edbf f24b 6dbf
00000020: c5b1 67be 0850 6dbe 66b9 a6bd 8761 80bc
00000030: f07b 843d c9fd 903d b1fd e6bc 9051 91bc
00000040: 6360 9fbc 5baa 17bf a4b8 94be 2d41 1ebf
00000050: b2cb f2bd ae18 85be 2c80 1e3e f71a 6740
00000060: 326c 7ec1 72e6 29bf 1493 6540 7eb1 7a3f
00000070: b6dd 113b 2ac5 1fc0 d7e2 823f 105c b5be
00000080: 8098 16be 3855 cabf fe63 61be 97c6 e6bd
00000090: b4f4 b93d 1622 2f3e 166b 0bbe aaab 50ba
000000a0: 49bd babf 9c44 37bf f802 883f 5070 1140
000000b0: b406 5f3f dd22 c8be 0d87 1640 59aa bd3f
000000c0: 459e 5c40 cff1 d340 fbfc 0f40 cfb9 0d40
000000d0: 597b 133f 583f 4bbe 9eca 063f 65d4 673f
000000e0: 2905 503f 4757 783e ab4e 853e 3cc6 b6bb
000000f0: 12a4 8abb e3ce 4a3d eabc 9fbc da0d 09bd
00000100: 8de3 aebe a6f4 ff3d 4884 debe 240b 003f
00000110: 79e3 27ba 8b24 60c0 2652 25c0 0f4c 86bf
00000120: e3bd 0c40 cc4a 3ebd 37dc 1b40 a9f4 7840
00000130: f5a2 af3f 0d15 89ba eaea dbbf 007d 98bf
00000140: b5c7 54be 649e 99be ce92 a6bd a8a3 0f3c
00000150: 26eb 993d df5d 91bd 8fc7 d6be 7136 2cbf
00000160: 9ce4 d3bf 9956 d1bf 54d7 1bbf 694f 923f
00000170: 31e7 d240 989a 47c0 ccef f8c0 922e 55c0
00000180: 6da0 a8bf d081 8f3f 6a5d f43f fa6a 4d3f
00000190: 138d c5be 4177 1abf 5f70 48bf c3ac 673d
000001a0: fd15 37be 0b2b 193e df75 47bd c53c 123c
000001b0: 1731 4dbd 7294 7fbf a578 e9be 5e0e ab3f
000001c0: a376 25bd d539 ab3e 0a7a 0d3f 3724 4e41
000001d0: 6a19 b2c0 1ffa 6540 eaa2 753f ed68 9f3f
000001e0: 8a07 15bf e0fb 43c0 335a 1fbf 23e7 9f3d
000001f0: 089b 41bf fba6 633d 43f1 943d 18d6 9e3d
00000200: 0213 4ebc 76bf 90bc 6e82 063d db1a c9bc
00000210: ba24 0a40 aac6 7d3f 1661 973c 23f9 0b3f
00000220: 9b58 0b3e 7d6a 903f 6ba9 aebf 22ea 48bf
00000230: 6f10 e1be bfc9 19bf b1c2 2a3d 831b 2abf
00000240: c58c b8be a7b9 87bc 52ce 223d 1d9d 903e
00000250: f9bb a7be 83d9 cabd 1e11 08be 686e 3e3b
00000260: 2916 14bd 190e 3c3d 6c1f e4bb e9c9 073e
00000270: 495b a33e f674 5c3d 0f0f d9be 8308 fcbe
00000280: 917d 09bf 27f8 1340 0ffd d4be f6bf 083f
00000290: 6961 3bbe a261 ea3e 0b3f ae40 a366 5a3e
000002a0: 4b84 3140 9c5b a9bf 6113 c63f c531 223f
000002b0: 22d6 563e 4495 943d d558 63be ae8f 0b3f
000002c0: 80f5 9c3e f49d 2e3e 8bb4 43bf 0793 7d3f
000002d0: a4c7 0e3f 5e72 9dbf 9d41 d73f 1e30 283e
000002e0: 4c9b bbbf e435 0dbe 6634 4d40 6367 00be
000002f0: 83f7 e73f 3b74 d3be ecd4 4fc0 4859 fdbe
00000300: 6613 82bc bb0e 9dbf bfbf a8bf e64d acbe
00000310: 4d69 ccbd 3163 533e 502c 3cbd ee54 97bc
00000320: 1d19 5bbd 3777 c23f 11b1 883f 533d a53e
00000330: 06dd 7f3e 07d2 bf3c 6bae b9bd 49d5 a13f
00000340: 527d 7140 f623 81be 79b4 0440 e414 43be
00000350: 4ea3 9240 069c e9be e0ae a6bf bf51 74bd
00000360: df27 84be 9a1b 55bf 96ad 42be 2df3 6dbe
00000370: cb07 f93c 79b6 f5be db0a 0dbe eb3a 173b
00000380: b0ca c13e c4d0 84be 6f04 143e e3ae fb3e
00000390: dcbd 4e3e 37a0 b63e 5771 8dc1 1370 ed3e
000003a0: 66fd 0cbf c3c0 e0bf f8b3 c6be 666a 6a3f
000003b0: a45a ad3f 3068 773f 97ab e13e ce9f 8bbe
000003c0: 0e70 51be 6b8b 2ebe 50fe 10be ef0f 313b
000003d0: 048b d3bd 4592 a1bd 2e39 913c 250c 583f
000003e0: 7a30 b63e 93af f1be 174c 293e e916 59bf
000003f0: 2c7f bf3e 2fce 3440 5527 7abf 7226 843f

bias f4 [256]
4.610595 -1.4102457 -3.3284044 -4.587877 2.0121458 -0.20436701 5.324783 -3.4502716
-4.379816 -4.322292 -2.9884832 1.1527367 -0.80320835 -6.132245 -0.9895542 -4.9878554
-2.6950877 -1.2074178 -0.5270217 -2.9758027 0.95660937 2.5145957 -3.512706 -1.8422788
-2.286843 -3.793925 -3.3277123 0.80643076 -4.125314 -0.22472882 -0.99757636 -0.16168113
5.1144657 -1.2075262 -0.9576806 -1.9986284 1.3795989 -4.0989223 -0.68910396 -3.9839995
-0.75031555 -4.1941657 -1.8895501 4.7674437 -0.3391773 -3.5083714 0.48916647 -3.9771845
-2.9861248 -5.114301 5.2901635 -3.853646 -3.9614768 -3.5753872 -4.4143176 -0.42758077
-1.6898997 -2.295815 -3.9520504 -3.4626565 -4.986359 -4.7995143 -4.246136 -1.6884807
-2.6733196 -4.0677137 -2.209919 2.8181615 4.3706503 -2.7785401 -0.4711196 -3.0196881
-2.3114562 -4.2657366 3.2100108 -5.2051992 -0.61279434 -3.765228 -3.0334094 -1.4516065
0.40165493 -1.1455476 -0.71623087 -0.7167519 -2.69128 -1.9808372 -2.5610976 -0.9542515
-4.64204 -0.3855372 -1.699593 -7.470105 2.5170643 -4.4134703 -3.6907253 3.253813
-4.4909463 5.5989656 -1.8055015 1.6418421 5.3065877 -2.0327141 -1.1477886 3.7109916
-0.36975268 4.6235523 -4.601316 -3.7072983 -1.4179778 -3.0805058 -3.43264 4.3820586
-1.5453202 -5.2993755 -1.2967571 -5.3401675 -4.0800195 -1.1800067 1.7964091 -2.772568
-3.3895037 -3.1385543 -0.68287975 -3.5650988 0.06197099 -2.7224345 -0.34505156 0.26235765
-2.712006 -1.2113767 -1.7946544 0.4717296 -3.7354105 -1.173968 2.5386033 -3.5711372
-0.7678007 -2.4988523 2.2150667 -4.1567345 -2.3151903 4.2252755 0.10612883 -1.6280293
-3.6357286 -1.2405035 -0.45225668 -1.8878645 -0.7964075 0.17539756 -3.9994888 -0.72140527
-4.3037496 -3.2811377 -2.5899632 -4.208063 -0.2247916 -5.705193 -0.34742105 -0.8522091
-2.6073146 -0.9762019 -1.448205 -0.27210388 4.981432 -0.9796073 -1.1439159 -3.8108513
-4.367117 -4.384232 -3.3287935 -2.2411284 0.6841779 -2.797775 -3.6521199 -4.3494887
4.903055 -3.7516797 -5.331153 -1.9694533 5.9932013 4.8230367 -5.384848 0.08888487
-2.3938956 -1.3301455 -4.542357 5.5595818 -2.0627592 -4.0248284 1.4624994 -4.2725844
-4.245242 -2.5945706 4.7780533 -2.4039907 -3.2191234 -0.6696468 -4.318729 -0.95267504
-3.505512 0.13077444 -2.6255243 -2.6384451 -3.5893211 -1.7605778 -2.9376414 -4.7599587
-4.5217032 -0.52524185 -1.6346296 -0.5012052 -4.393314 -1.4332088 1.4240991 -2.8550398
-1.343941 -1.7094417 4.7576275 -1.7906978 -2.185256 -7.248073 -3.0407412 -0.2106548
-3.0770662 -4.7662506 0.46551675 -2.410603 -3.7225082 5.163169 4.5702252 -3.6823049
-3.6734307 5.7585487 0.28044915 -7.119403 -1.6080877 -3.5901628 -2.6802504 -0.45021573
-2.738003 4.089276 -0.18021107 -0.47919306 -3.0428698 -0.7335978 -2.4507012 -2.5989296
-3.1650796 -2.5099585 -3.7586324 -3.252218 2.6654866 -3.7954612 -3.0016847 -2.8419151
00000000: ff89 9340 ee82 b4bf 9404 55c0 e3cf 92c0
00000010: ffc6 0040 9645 51be 9f64 aa40 40d1 5cc0
00000020: 7427 8cc0 3750 8ac0 4f43 3fc0 e08c 933f
00000030: 109f 4dbf 5a3b c4c0 6d53 7dbf 839c 9fc0
00000040: 517c 2cc0 ab8c 9abf e5ea 06bf 8d73 3ec0
00000050: 5ae4 743f 23ef 2040 2dd0 60c0 cbcf ebbf
00000060: a35b 12c0 abcf 72c0 3df9 54c0 3f72 4e3f
00000070: 9302 84c0 501f 66be 2a61 7fbf bd8f 25be
00000080: b4a9 a340 3890 9abf 8e2a 75bf 0ed3 ffbf
00000090: b296 b03f 5f2a 83c0 1e69 30bf d9f9 7ec0
000000a0: ae14 40bf 9b36 86c0 c7dc f1bf e68e 9840
000000b0: a6a8 adbe 2889 60c0 0774 fa3e 318a 7ec0
000000c0: ab1c 3fc0 5ba8 a3c0 0549 a940 23a2 76c0
000000d0: d688 7dc0 25d3 64c0 1742 8dc0 deeb dabe
000000e0: a24e d8bf a2ee 12c0 65ee 7cc0 2a9c 5dc0
000000f0: 4190 9fc0 9f95 99c0 59e0 87c0 2320 d8bf
00000100: ab17 2bc0 b62a 82c0 506f 0dc0 c25c 3440
00000110: 5edc 8b40 9ad3 31c0 9736 f1be 9242 41c0
00000120: e6ee 13c0 ea80 88c0 d170 4d40 fe90 a6c0
00000130: 17e0 1cbf 7ff9 70c0 6123 42c0 3ece b9bf
00000140: b7a5 cd3e 4ea1 92bf e85a 37bf 0d7d 37bf
00000150: ee3d 2cc0 138c fdbf 06e9 23c0 d449 74bf
00000160: 978b 94c0 2265 c5be 438c d9bf 1a0b efc0
00000170: 9517 2140 263b 8dc0 d834 6cc0 793e 5040
00000180: d5b5 8fc0 ba2a b340 ac1a e7bf e227 d23f
00000190: 91cf a940 fd17 02c0 bdea 92bf e380 6d40
000001a0: 3950 bdbe 24f4 9340 fb3d 93c0 6044 6dc0
000001b0: 4c80 b5bf 0227 45c0 60b0 5bc0 d339 8c40
000001c0: 0dcd c5bf 7c94 a9c0 23fc a5bf a7e2 aac0
000001d0: 858f 82c0 760a 97bf bcf0 e53f c171 31c0
000001e0: a1ed 58c0 13de 48c0 35d1 2ebf 942a 64c0
000001f0: 4bd5 7d3d 5e3c 2ec0 99aa b0be be53 863e
00000200: 8291 2dc0 640e 9bbf 3cb7 e5bf 8b86 f13e
00000210: f710 6fc0 9544 96bf 7a78 2240 838d 64c0
00000220: 968e 44bf 32ed 1fc0 a7c3 0d40 f803 85c0
00000230: 142c 14c0 7535 8740 125a d93d 4463 d0bf
00000240: c7af 68c0 d2c8 9ebf 308e e7be 8ba5 f1bf
00000250: 5de1 4bbf 6b9b 333e a0f7 7fc0 04ae 38bf
00000260: 51b8 89c0 29fe 51c0 f5c1 25c0 74a8 86c0
00000270: c52f 66be f190 b6c0 2ce1 b1be 602a 5abf
00000280: 3ede 26c0 5ee8 79bf c85e b9bf 3351 8bbe
00000290: e467 9f40 8bc7 7abf d66b 92bf fde4 73c0
000002a0: 6cbf 8bc0 a14b 8cc0 f40a 55c0 a66e 0fc0
000002b0: 4826 2f3f bf0e 33c0 55bc 69c0 032f 8bc0
000002c0: d4e5 9c40 851b 70c0 ce98 aac0 0c17 fcbf
000002d0: 4ec8 bf40 5156 9a40 ad50 acc0 4509 b63d
000002e0: 9635 19c0 3542 aabf fd5a 91c0 18e8 b140
000002f0: 3f04 04c0 65cb 80c0 2e33 bb3f 03b9 88c0
00000300: 06d9 87c0 720d 26c0 d0e5 9840 fcda 19c0
00000310: 1e06 4ec0 f96d 2bbf 0733 8ac0 83e2 73bf
00000320: 4f5a 60c0 bce9 053e 9708 28c0 49dc 28c0
00000330: 70b7 65c0 9d5a e1bf 5102 3cc0 9551 98c0
00000340: cbb1 90c0 4076 06bf 8b3b d1bf fc4e 00bf
00000350: 0796 8cc0 6373 b7bf e148 b63f f9b8 36c0
00000360: 4206 acbf fcce dabf 7c3e 9840 9635 e5bf
00000370: 3cdb 0bc0 37f0 e7c0 819b 42c0 e4b5 57be
00000380: a7ee 44c0 2085 98c0 3658 ee3e 5247 1ac0
00000390: 933d 6ec0 ae38 a540 493f 9240 e2aa 6bc0
000003a0: 7d19 6bc0 0846 b840 0897 8f3e 26d2 e3c0
000003b0: d1d5 cdbf 3ac5 65c0 3989 2bc0 ad82 e6be
000003c0: 713b 2fc0 59db 8240 4089 38be cb58 f5be
000003d0: 61be 42c0 11cd 3bbf 4ad8 1cc0 dd54 26c0
000003e0: aa90 4ac0 29a3 20c0 6f8d 70c0 5724 50c0
000003f0: 5597 2a40 d6e8 72c0 9a1b 40c0 f0e1 35c0

weight f4 [256, 279]
0.8010378 0.9568881 -0.1804099 0.47143662 -2.0129874 -1.9995441 0.14771694 1.5418259
1.1780565 -0.010218138 -0.23031038 -0.30931407 1.1512517 -2.093501 0.4333902 -2.1352942
0.060066927 0.5253374 -1.435735 -0.81159633 1.0315508 -3.3724053 -0.107118696 0.38289464
-0.9719239 -2.1070673 -0.550349 -1.1585852 0.88597804 1.5265384 -1.6220262 0.46711922
-0.90298706 0.048444662 -0.88964105 -1.8034289 -0.94978815 0.47748572 1.6475163 0.775145
-0.7336949 0.6585065 0.52928525 0.5215958 0.38573408 0.72638834 -0.5520274 0.33822504
-0.6959339 0.43515924 -0.271652 0.03529062 -0.3757832 1.1545 -0.36299047 -1.1216536
2.0189 -0.33745313 -0.41096407 -0.57014287 1.3701823 0.21346992 0.7332173 -1.4543275
0.25823647 0.52189267 0.30845797 -1.2136874 -0.83445346 -1.3397878 0.0132297985 0.22551589
-0.27237597 -1.1739154 -1.6917056 0.003196388 0.80955595 -1.2241044 -0.004026873 -2.78651
0.6344107 -0.88644934 -2.0015395 -0.5799741 -0.19750284 2.1160603 0.46440014 1.1709259
1.3235966 -0.44612157 0.07470448 -0.29060322 0.38115373 0.6552542 0.6904343 0.59842414
-1.5401239 -0.47089854 -0.59313625 0.3147694 0.42257288 0.3552218 0.7840204 -0.6173246
0.10178556 0.5537017 -2.4073176 -0.37367514 -0.07589276 1.295385 0.16618036 -0.43059534
0.7377575 0.57303 -1.8408585 0.72498745 1.1907815 0.24707921 0.24157439 -0.35438326
-0.35691193 0.9083948 -2.1948488 0.0627478 0.8541299 0.3319846 -0.06242104 -1.8115023
0.0015988476 -0.4280004 -0.4169925 0.4280258 -1.0906625 0.025596766 -0.1441795 0.26632452
-0.09403074 1.1560478 -0.8350205 -1.3418857 -1.56953 -0.9779659 -0.63854724 -1.3588326
-0.2163743 -2.897523 -1.2271496 -0.4504158 -0.40136126 -1.6766868 -0.91345984 0.21936597
-1.291831 -0.6993207 -1.0429996 0.675197 0.40370917 -1.7412822 0.22153075 -0.71046287
1.7921591 0.04649158 -0.19375257 -0.5501152 -0.36251476 -0.4633748 -0.9936202 -0.5152841
0.4520451 -0.6988708 0.6134749 -0.91362226 -0.51232326 0.6669171 -2.302869 2.0879161
-0.86538863 0.20646542 -0.85396117 0.84732485 0.22736208 -1.6064705 0.44067642 -1.2114017
-0.37947413 -0.50062805 0.048665028 0.61849874 0.62589586 0.015620152 0.3110059 -0.7008106
0.3080884 -0.51154244 0.07425384 0.968517 -1.8250239 -0.77360135 -0.061798476 -0.893701
-0.8414321 -0.21765204 1.3018522 -2.5087059 2.5645072 1.4108646 -0.0119896475 -0.07221791
0.44839287 -0.21257107 0.49550387 -0.7227156 0.3175319 -0.5053188 -1.5082715 -1.849273
1.6653675 -2.1341 0.15005691 0.8989762 -0.7438559 -3.98374 0.29569015 0.8420201
0.09546095 0.2756731 -0.43872368 -1.1835718 -0.22489944 0.09397608 -1.2436546 -1.1965735
-0.37281865 0.25744694 1.504157 -1.1990268 0.2497035 0.732224 -0.82102567 0.18960305
-0.42863637 0.2999856 -0.21135458 -0.116314836 0.21240652 -2.8163137 -0.014569565 0.17187062
2.2237282 -0.7552696 0.10694397 -1.7054415 -0.12674676 -0.9893195 0.51551735 0.9676598
00000000: d010 4d3f 9ef6 743f 5fbd 38be 2460 f13e
00000010: c9d4 00c0 10f1 ffbf 1c43 173e 8d5a c53f
00000020: 8eca 963f fa69 27bc 7cd6 6bbe 6a5e 9ebe
00000030: 375c 933f ecfb 05c0 52e5 dd3e a9a8 08c0
00000040: bd08 763d 837c 063f 2ac6 b7bf c7c4 4fbf
00000050: db09 843f 7dd5 57c0 0c61 dbbd c40a c43e
00000060: 01d0 78bf 31da 06c0 ace3 0cbf 854c 94bf
00000070: 75cf 623f 9c65 c33f 8e9e cfbf 402a ef3e
00000080: 292a 67bf e96d 463d 84bf 63bf c2d6 e6bf
00000090: 5125 73bf 0279 f43e d0e1 d23f e76f 463f
000000a0: 6ed3 3bbf e293 283f 3d7f 073f 4d87 053f
000000b0: f07e c53e 96f4 393f ab51 0dbf d52b ad3e
000000c0: b928 32bf 31cd de3e f915 8bbe e68c 103d
000000d0: a866 c0be a8c6 933f e3d9 b9be 5892 8fbf
000000e0: a835 0140 a8c6 acbe e269 d2be e2f4 11bf
000000f0: 2262 af3f dc97 5a3e 21b4 3b3f 6727 babf
00000100: 9237 843e c29a 053f 34ee 9d3e 1c5a 9bbf
00000110: be9e 55bf 2b7e abbf ccc1 583c a3ed 663e
00000120: dd74 8bbe dc42 96bf cf89 d8bf 7e7a 513b
00000130: 0f3f 4f3f 74af 9cbf dcf3 83bb 2e56 32c0
00000140: bd68 223f 58ee 62bf 3919 00c0 2f79 14bf
00000150: 2f3e 4abe 886d 0740 dbc5 ed3e e6e0 953f
00000160: 9d6b a93f 0c6a e4be aafe 983d f2c9 94be
00000170: 9526 c33e bdbe 273f 4dc0 303f 5332 193f
00000180: c822 c5bf 9d19 f1be c7d7 17bf 7429 a13e
00000190: 795b d83e a2df b53e 90b5 483f fc08 1ebf
000001a0: f374 d03d 65bf 0d3f 7e11 1ac0 5952 bfbe
000001b0: aa6d 9bbd 2dcf a53f 2f2b 2a3e fe76 dcbe
000001c0: addd 3c3f 18b2 123f 40a1 ebbf c798 393f
000001d0: 876b 983f 5502 7d3e 475f 773e b971 b5be
000001e0: 29bd b6be 908c 683f 6778 0cc0 eb81 803d
000001f0: 42a8 5a3f e3f9 a93e 34ad 7fbd 4fdf e7bf
00000200: 6c90 d13a de22 dbbe 0a80 d5be 3326 db3e
00000210: d49a 8bbf 4fb0 d13c caa3 13be b05b 883e
00000220: 3093 c0bd 60f9 933f e7c3 55bf e9c2 abbf
00000230: 5ce6 c8bf f95b 7abf d577 23bf 3aee adbf
00000240: 3991 5dbe 0471 39c0 3d13 9dbf e69c e6be
00000250: 397f cdbe ac9d d6bf 81d8 69bf 79a1 603e
00000260: b85a a5bf ae06 33bf 0381 85bf b6d9 2c3f
00000270: f8b2 ce3e 56e2 debf f5d8 623e e5e0 35bf
00000280: 7865 e53f f46d 3e3d 1367 46be 5ad4 0cbf
00000290: 899b b9be 763f edbe e55d 7ebf a9e9 03bf
000002a0: 7572 e73e 32e9 32bf b10c 1d3f 26e3 69bf
000002b0: 9e27 03bf 14bb 2a3f 3562 13c0 6ba0 0540
000002c0: 1c8a 5dbf ac6b 533e 339d 5abf 48ea 583f
000002d0: 9bd1 683e d3a0 cdbf 57a0 e13e 360f 9bbf
000002e0: 6f4a c2be 2929 00bf fb54 473d ef55 1e3f
000002f0: b63a 203f aaeb 7f3c 2a3c 9f3e 5368 33bf
00000300: c3bd 9d3e 72f4 02bf 6612 983d bbf0 773f
00000310: 629a e9bf bd0a 46bf 6620 7dbd 97c9 64bf
00000320: 1868 57bf 2de0 5ebe 18a3 a63f a38e 20c0
00000330: e320 2440 3697 b43f 3a70 44bc fce6 93bd
00000340: c093 e53e 3bac 59be afb2 fd3e e403 39bf
00000350: 8b93 a23e 935c 01bf 0a0f c1bf fab4 ecbf
00000360: c32a d53f 1895 08c0 85a8 193e 4e23 663f
00000370: 576d 3ebf 99f5 7ec0 b364 973e a18e 573f
00000380: 0881 c33d 0625 8d3e 64a0 e0be 487f 97bf
00000390: 0a4c 66be 8876 c03d 1330 9fbf 5229 99bf
000003a0: 16e2 bebe 16d0 833e 3788 c03f b679 99bf
000003b0: 46b2 7f3e 0873 3b3f bd2e 52bf 4d27 423e
000003c0: 3a76 dbbe b697 993e 566d 58be 7936 eebd
000003d0: 1881 593e 7c3e 34c0 2fb5 6ebc dafe 2f3e
000003e0: 9051 0e40 5959 41bf 7105 db3d e84b dabf
000003f0: e7c9 01be 0b44 7dbf f2f8 033f 8db8 773f
