data/PrioritizedDDPG/HalfCheetah-v2/prioritized_ddpg_s27147/pyt_save/model.pt (torch_old, 581199 bytes, 11 tensors)

weight f4 [256, 17]
000000 96 8d c0 c0 b0 da d7 bd e8 66 04 c0 6e 37 0b c0
       -6.0172834 -0.10539758 -2.068781 -2.1752582
000010 b7 5c 82 3f 95 e1 58 40 b7 e7 fc 3f 15 06 f2 3f
       1.0184544 3.3887684 1.9758214 1.8908106
000020 06 69 73 bf a6 85 15 bf 79 a5 3a be ee 0a 99 3e
       -0.9508213 -0.58407056 -0.18227185 0.2989115
000030 74 65 47 3e 1b 27 73 3e 42 fd 14 bf 67 8f d3 be
       0.19472295 0.23745386 -0.5819894 -0.41320345
000040 91 d7 46 be f6 b2 b8 40 e8 1f df 3f 25 39 10 c0
       -0.1941817 5.771846 1.7431612 -2.2534878
000050 a3 2a b6 be 5b 1e ab bf 47 2d 11 bf ef e8 ff bd
       -0.35579404 -1.3368639 -0.5670971 -0.124956004
000060 c0 0d 8e 3f 47 ca fb bf 42 15 1e 40 49 f6 15 bf
       1.1097946 -1.9671105 2.4700475 -0.58578926
000070 7a 09 db 3d 34 dc 5b 3d f9 1a 5e 3c 81 5e 78 be
       0.10695167 0.0536768 0.0135562355 -0.242548
000080 09 ce 2e 3d a3 6b 00 3d 1c 50 b5 c0 f7 99 94 bf
       0.04267696 0.03135265 -5.666029 -1.1609486
000090 fc c0 89 40 e0 67 9a 40 91 79 24 3f 81 33 94 bf
       4.3048077 4.82518 0.64247996 -1.1578218
0000a0 f7 93 5e bf aa 4f 20 bf 25 1a 00 c0 17 a7 e6 bf
       -0.86944526 -0.6262156 -2.0015957 -1.8019742
0000b0 d3 ab 7a bf 7b 17 0c be f3 b2 ef be cb 9d aa 3d
       -0.9791843 -0.13680832 -0.46816215 0.08330878
0000c0 b4 fb 6c bc 08 c6 cb 3c 01 74 67 be 10 2c bc 40
       -0.014464308 0.024874702 -0.22602846 5.8803787
0000d0 5e e4 08 c1 45 d4 6a bf 56 0e f0 be 74 94 0c 3e
       -8.555754 -0.9173015 -0.46885937 0.13728505
0000e0 54 a7 27 40 3c 06 c1 3f d3 c3 8e bf 9f b4 bb 3d
       2.619588 1.5080028 -1.1153511 0.0916531
0000f0 8c 21 a3 be 7f ee a2 be 44 cb d6 bd ab eb ea 3d
       -0.31861532 -0.31822583 -0.104879886 0.11470731
000100 5f fa c1 bc 35 27 9c be 0c 17 86 bd 8a f4 4f 3d
       -0.023678957 -0.30498663 -0.065473646 0.05077032
000110 26 32 69 40 2b e4 d2 3f a7 dc 81 3f 11 6b 38 40
       3.6436858 1.6475881 1.0145463 2.8815348
000120 f2 83 f2 be 2a 2d 61 c0 a3 ff c5 3d ea 2d 41 3f
       -0.4736629 -3.5183816 0.096678995 0.75460684
000130 b1 55 f1 bf e4 77 2e 40 3c 8a b2 3d 53 55 92 3e
       -1.8854276 2.7260675 0.08717772 0.28580722
000140 2a 6a f7 bd 80 af 2b bd b7 e4 18 3f 5b a9 b7 bd
       -0.12080796 -0.041915417 0.5972399 -0.08967849
000150 ee dd 37 3e 66 f6 f2 40 08 68 01 c0 36 7d 1f 40
       0.17955753 7.592578 -2.0219746 2.4920173
000160 6c 53 b3 be 74 73 48 40 a9 4e 0d 3f 90 a6 91 c0
       -0.35024583 3.1320467 0.5519815 -4.5515823
000170 8f af 2d c0 94 d2 33 bf e3 8c cc 3e 94 77 e8 bf
       -2.7138402 -0.7024319 0.39951238 -1.8161492
000180 ed ea 26 bf 47 f7 fb be 73 1c 0d bd 72 90 3d be
       -0.6520222 -0.49212095 -0.03445096 -0.18512133
000190 da a7 49 be 74 1f cd bd f6 ab a7 be 1b 9d ff 40
       -0.19692937 -0.10015765 -0.32748383 7.987928
0001a0 44 6d 9e c0 e1 2b 74 3f 2e f2 7d bf db 68 90 3f
       -4.950838 0.95379454 -0.9919766 1.1281999
0001b0 16 82 c8 be fb f9 d2 3e 29 84 0a be 93 eb 80 3f
       -0.39161748 0.41206345 -0.13526978 1.0071892
0001c0 e2 17 a4 be f2 a1 d2 bd 28 cb 8c 3d ff dd 01 3d
       -0.3204947 -0.10284795 0.068746865 0.031705853
0001d0 86 3c 50 bd 61 c9 97 bd fc 08 45 3d ae dc f5 3e
       -0.05083897 -0.07411457 0.04810427 0.48019928
0001e0 a3 2a e9 3f 72 40 de 3f c1 b3 89 be fd ad df 3f
       1.8216137 1.7363417 -0.26894954 1.7474972
0001f0 a3 04 19 3f 04 7e 49 be 11 73 35 3e f1 e7 01 c0
       0.597727 -0.19676977 0.17719676 -2.0297816
000200 be 45 46 3f 10 b4 39 be 92 d1 e7 3e a7 38 9b 3e
       0.7745017 -0.18135095 0.45277077 0.3031666
000210 40 1e dd 3e 62 c7 9e bd 08 f9 54 be aa 48 32 bd
       0.4318714 -0.07752873 -0.20798123 -0.04352633
000220 ff 69 0e 42 74 93 7b c1 3b 7b 1a c0 1b d4 a1 3d
       35.60351 -15.723499 -2.4137714 0.07901784
000230 e1 e6 8f be 68 05 e8 bf ff 4a 4b c0 97 8f 00 bf
       -0.28105834 -1.812665 -3.1764524 -0.502191
000240 8d 81 f3 3d d1 8d 9c 3f f9 7f 53 bf dc 46 04 be
       0.11889944 1.2230779 -0.82617146 -0.12917656
000250 f7 d3 b8 3b 14 b8 b9 bb e2 6b 9e bd 4f 71 89 bd
       0.0056405026 -0.005667696 -0.07735421 -0.06711065
000260 1c 65 e9 3d ac e0 41 40 ab 59 81 be c0 0a 48 40
       0.11396238 3.029338 -0.25263724 3.1256561
000270 ae d7 82 40 94 ed 29 3f 08 5a 7e 3e d6 66 ca 3f
       4.088828 0.6637814 0.24839032 1.5812633
000280 ee 6d 54 40 9a c0 e6 bf a6 f3 25 3f 8b 9d bd bf
       3.3192096 -1.8027527 0.64824903 -1.4813703
000290 a0 19 8f bd 9a da 66 3e cc 34 ae bb 7a c8 0c be
       -0.069873095 0.22544327 -0.0053163525 -0.1374835
0002a0 c5 80 91 3d c6 e0 5f 3e 2e b4 e5 40 f0 1f 9a 3f
       0.07104639 0.21863088 7.1782446 1.2040997
0002b0 1b 65 f3 3f 54 db 4d c0 4d 6e c1 bf ed 7b 64 c0
       1.901523 -3.2165117 -1.5111786 -3.5700638
0002c0 a8 cd a0 be 96 ec c7 3f a9 cf 27 bf 92 4e d8 be
       -0.31406903 1.5619075 -0.6555124 -0.42247444
0002d0 59 98 14 40 3d 97 9a 3e 9f 5a c6 bd c5 21 09 bc
       2.3217986 0.3019351 -0.09685253 -0.008369868
0002e0 db 4b 27 be 02 63 46 be 35 65 41 3e dc 3a 11 40
       -0.1633753 -0.19373706 0.18886264 2.2692175
0002f0 22 6d c3 bf 3b 7e 24 3f 13 d4 5b c0 93 39 1a 3f
       -1.526768 0.6425511 -3.434819 0.602441
000300 fe 7e 3e 3f 7a ff f0 bf dd 01 1a 3f f4 ed 6e bf
       0.74412525 -1.8827965 0.60159093 -0.9333184
000310 15 5c 83 3f cc a3 05 c0 46 6f a7 3e ce 8f 5c be
       1.0262476 -2.0881224 0.32702082 -0.21539232
000320 70 09 15 bd f0 c2 0b bf 3e 0c 75 be 48 2d 98 bc
       -0.036385953 -0.54594326 -0.23930451 -0.01857628
000330 68 5f 97 c0 7f c5 8c 3f a1 c5 67 40 a6 8c 90 40
       -4.7303963 1.0997771 3.6214373 4.517169
000340 10 af 98 bd 2c 63 23 40 2b 9b c2 40 ab c1 48 40
       -0.074552655 2.552928 6.0814414 3.1368206
000350 20 78 5d be 4b 7c 3e 3e f6 ed 9a bf 30 bb 5c 3e
       -0.21627855 0.18602102 -1.210387 0.21555781
000360 8a 46 eb bb e9 80 ff 3d 27 f7 73 bc 51 69 75 be
       -0.00718004 0.124757595 -0.014890469 -0.23965956
000370 ea 87 de bc 30 80 6c bd 2e aa 1c c0 bf fc 23 40
       -0.027164418 -0.057739437 -2.447887 2.5623014
000380 06 d1 e1 bf 83 4b 79 3f 16 5e 36 40 f3 85 bb 3f
       -1.7641914 0.97380847 2.8494925 1.4650253
000390 af 21 45 3f 9e c3 b5 bf 30 ee 04 40 e3 36 39 bf
       0.7700452 -1.4200323 2.0770378 -0.72349375
0003a0 43 32 e3 bd 48 45 5e bc 34 18 4f be 55 d1 fe bd
       -0.11093571 -0.013566323 -0.20224077 -0.12442271
0003b0 a1 48 b3 3e ec 3f 4f be 56 06 99 bf 5f a7 2c c0
       0.3501635 -0.20239228 -1.1955059 -2.6977155
0003c0 de a2 4e 3f c8 b9 3d bf 1c 85 ed bf 66 f3 ba bf
       0.80717266 -0.74111605 -1.8556247 -1.4605529
0003d0 da 46 d5 3f f0 47 8f 3f bd ec 4f c0 5d dd d8 bf
       1.6662247 1.1193829 -3.2488244 -1.6942555
0003e0 c9 12 98 be 88 8a d6 3e 54 a9 9e be 8f 84 f7 bc
       -0.29701832 0.41902566 -0.30988562 -0.030214576
0003f0 ca 88 25 3b 3e d7 93 be e0 5f 11 3e c3 68 a3 bf
       0.0025258535 -0.28875154 0.1419673 -1.2766346

bias f4 [256]
000000 53 e8 93 c0 b9 8a 95 c0 28 d3 2b c0 e0 50 e2 40
       -4.62211 -4.673184 -2.684763 7.0723724
000010 c2 cf 08 c0 06 32 81 be 05 fc 1a 40 60 0e bb c0
       -2.1376805 -0.25233477 2.421632 -5.8455048
000020 10 9c 89 3f dd 6c 5e bf cb 4c 50 bd 6a bc 65 c0
       1.0750751 -0.8688486 -0.050854485 -3.589625
000030 ac 90 50 bf f0 af 7b c0 17 b6 86 c0 5c 61 46 bf
       -0.8147075 -3.9326134 -4.209728 -0.7749231
000040 31 6c d2 bf be 97 46 c0 79 6a 4e c0 64 1f 12 3f
       -1.6439267 -3.1030116 -3.2252486 0.5707915
000050 c2 95 7e c0 9d e0 0f c0 01 0d a0 40 e8 86 07 40
       -3.9778905 -2.2480843 5.0015874 2.117609
000060 c0 19 6b c0 6a 52 83 3f da 45 d7 bf c0 49 1a c0
       -3.6734467 1.0259526 -1.6818192 -2.4107513
000070 31 b9 4a c0 84 2d bc 3f 0e 0c 24 40 09 be 42 c0
       -3.1675532 1.470139 2.5632358 -3.0428488
000080 ec 1d 80 3f 2e 6d 5e bf 08 6f 4e 40 73 c2 6f c0
       1.0009131 -0.86885345 3.2255268 -3.7462432
000090 14 94 cf bf 8e bb 9a c0 c9 0f 37 c0 0b d2 76 c0
       -1.6217065 -4.835395 -2.8603384 -3.85657
0000a0 8e 13 c4 be 82 8f 2e c0 75 27 2c c0 80 8d 36 c0
       -0.3829617 -2.727509 -2.6899083 -2.8523865
0000b0 75 22 9f c0 d9 66 86 c0 aa df 9a c0 8f 21 f9 bf
       -4.972956 -4.2000546 -4.8398027 -1.9463366
0000c0 d2 12 ff 3e 6e 9a 35 c0 9e 65 54 c0 4d f5 5d c0
       0.49819046 -2.8375506 -3.3187022 -3.468097
0000d0 ba f0 2a c0 48 b7 13 3f 12 d9 2e c0 b9 e0 70 c0
       -2.6709428 0.5770154 -2.731999 -3.763716
0000e0 ac a3 37 bf 4c 8c 47 bf 02 ef 02 c0 06 bb 8d c0
       -0.7173412 -0.7794845 -2.0458379 -4.42908
0000f0 44 5c 03 40 88 d7 61 c0 5e 54 d8 3f 6f bb b6 3f
       2.0525064 -3.52878 1.6900747 1.427595
000100 a4 83 1d bd 36 e9 a2 c0 82 78 4b 3f 18 08 5b c0
       -0.03845562 -5.090968 0.79480755 -3.422369
000110 f5 f1 1e c0 dd c2 b2 bd e4 2a e7 3f 76 15 1d c0
       -2.483518 -0.087285735 1.8059964 -2.4544349
000120 17 38 07 bf 4c 09 9a c0 54 36 09 bf 18 df 36 c0
       -0.5281996 -4.813635 -0.53598523 -2.8573666
000130 62 36 ed 3f 81 87 74 bf 40 cf 8f c0 45 fe c4 bf
       1.8532221 -0.9551926 -4.494049 -1.5390097
000140 e9 4f 0d bf 1d da 15 40 45 58 80 bf 72 e7 29 c0
       -0.5520006 2.3414376 -1.0026938 -2.6547513
000150 1c b7 55 c0 b1 cb ac c0 ad 4d d1 bf 51 a4 48 c0
       -3.339301 -5.3998647 -1.635183 -3.135029
000160 6d 7c 67 3f 61 ed 63 c0 c0 78 67 c0 da 43 64 c0
       0.90424234 -3.5613635 -3.616745 -3.5666413
000170 ab 2f 2b 40 48 d6 05 c0 1c 52 91 c0 c0 09 32 3f
       2.6747844 -2.0912037 -4.541273 0.6954613
000180 aa 7c 0a c0 da 0e 88 c0 2f c7 0d c0 b9 a8 16 bf
       -2.163859 -4.251813 -2.2152822 -0.588512
000190 61 bd 3e c0 86 57 5d c0 9c 16 08 c0 4d 93 10 40
       -2.9803088 -3.458467 -2.12638 2.2589905
0001a0 d9 31 07 c0 8e ba 97 c0 92 6a 6b c0 4b e5 ae 3f
       -2.1124175 -4.741523 -3.6783795 1.3663725
0001b0 b3 22 f1 be da 36 c0 bf 11 8a 0e c0 cb 62 44 c0
       -0.47096786 -1.5016739 -2.227177 -3.0685298
0001c0 44 72 26 c0 68 37 0e c0 24 d8 f9 bf c8 ed 76 c0
       -2.6007242 -2.2221317 -1.9519086 -3.858263
0001d0 5b 03 a5 40 a0 b8 2e c0 c8 d9 3a c0 a3 8c 91 c0
       5.1566596 -2.7300186 -2.9195423 -4.5484176
0001e0 ee 08 8d c0 4a 89 68 c0 b6 f7 27 40 cc a2 8b c0
       -4.40734 -3.6333795 2.624494 -4.3636227
0001f0 57 39 03 c0 a3 19 92 c0 93 04 2e c0 8a 34 54 c0
       -2.0503747 -4.5656295 -2.7190292 -3.3157067
000200 e8 84 ac be 40 2e 70 c0 83 79 fd 3e f0 0f b0 3f
       -0.3369515 -3.7528229 0.4950677 1.3754864
000210 bd a1 ac bf f8 73 50 c0 71 10 f5 be b9 74 1d bf
       -1.3486859 -3.2570782 -0.47864106 -0.6150623
000220 aa 67 85 3f 8b aa 17 3d 85 dc 2d c0 bd 2b 3a c0
       1.0422261 0.037027877 -2.7165844 -2.9089196
000230 33 63 0b c0 aa 05 a3 be 68 40 24 c0 a4 00 a9 c0
       -2.1779296 -0.3184026 -2.566431 -5.281328
000240 f8 2c 93 c0 66 ec fe 3f ae a4 48 c0 99 a6 84 c0
       -4.5992393 1.9915893 -3.1350513 -4.1453366
000250 7b a8 52 bf f7 47 ed bf 16 07 ba be ec 50 09 c0
       -0.8228833 -1.8537587 -0.3633353 -2.145564
000260 4c cf 4e c0 4f d2 82 c0 3f 2f 9d bf 63 82 92 c0
       -3.2314024 -4.0881724 -1.2280043 -4.5784163
000270 a2 26 45 c0 3f 05 00 be 4e e4 4c c0 9a 25 f5 3f
       -3.080483 -0.12502001 -3.2014346 1.91521
000280 57 66 50 c0 4f 0d a2 40 13 c8 22 c0 dd 2e 66 c0
       -3.2562463 5.0641246 -2.5434616 -3.5966103
000290 ce 44 49 c0 a4 3e 48 c0 4b 34 9b 40 cf bb 71 c0
       -3.1448245 -3.1288233 4.8501334 -3.777088
0002a0 b4 da c2 bf 1f bd 2c c0 40 5a 9a 40 c5 31 9d bf
       -1.5222993 -2.699043 4.823517 -1.2280813
0002b0 37 6c 80 3f 5d 63 ad c0 dc 48 46 c0 15 61 86 c0
       1.0033025 -5.4183793 -3.098197 -4.199351
0002c0 82 a7 2e bf 5d 28 8e c0 12 f1 74 c0 18 ee 92 bf
       -0.68224347 -4.442427 -3.8272138 -1.147891
0002d0 32 9f 29 c0 34 96 3c c0 50 9a a9 bf 1b e6 2a c0
       -2.6503415 -2.9466677 -1.3250217 -2.6702945
0002e0 3e 62 84 c0 c7 cb 3d c0 69 32 2a c0 81 47 98 c0
       -4.1369925 -2.9655626 -2.6593268 -4.7587285
0002f0 58 a5 b4 bf 23 1f 7c c0 af b2 9c c0 df 77 50 c0
       -1.4112959 -3.9394004 -4.896812 -3.2573164
000300 01 ab 78 c0 59 6b 01 c0 4c 4e 0f c0 8e c6 4c c0
       -3.8854373 -2.022177 -2.2391539 -3.1996188
000310 8e c3 36 40 1f 7c 55 c0 2f d6 f4 bf 2a a6 82 bf
       2.8556857 -3.3357008 -1.9127864 -1.0206959
000320 18 e3 1d 3f 19 a8 4b 40 5d a7 94 bd d2 db 9b 40
       0.6167464 3.1821349 -0.072584845 4.8705835
000330 2a 9d fc bf 36 66 57 bf 30 40 78 c0 dd 32 f6 3e
       -1.9735463 -0.84140337 -3.8789177 0.4808568
000340 22 36 18 c0 1e 1e 1f c0 91 29 ff bf f7 65 83 c0
       -2.378304 -2.4862132 -1.993456 -4.106197
000350 a3 d4 9a c0 22 ce 81 40 e8 8a 90 c0 a0 a9 e7 3f
       -4.8384566 4.0564127 -4.5169563 1.809864
000360 c1 2b 6b c0 6f 86 13 c0 7f 36 0a c0 ba 42 6e 3f
       -3.6745455 -2.3050802 -2.1595762 0.93070567
000370 ee fb be 3f 66 78 72 bf ab 1a ea bf 12 cd 15 c0
       1.4920633 -0.94714963 -1.8289388 -2.3406415
000380 98 67 92 bf b0 af 3c c0 75 b9 00 c0 71 e4 17 bf
       -1.1437864 -2.948223 -2.0113194 -0.5933295
000390 02 9d 90 c0 9c 3a 8f c0 e1 93 0f bf 13 9f 10 41
       -4.519166 -4.4759045 -0.5608502 9.0388365
0003a0 2d 57 87 40 a0 f4 91 bf ff fe 38 c0 06 46 19 bf
       4.2293916 -1.1402779 -2.8905637 -0.5987247
0003b0 8c a6 80 c0 fd f9 e3 bf 64 99 44 c0 86 fa 84 c0
       -4.0203304 -1.7810665 -3.0718622 -4.1555815
0003c0 df 0c 9c c0 4c 5d 91 c0 69 26 0e c0 03 fd 7c 3f
       -4.876571 -4.542639 -2.2210944 0.98823565
0003d0 f6 b2 43 c0 e3 fd 28 c0 f2 fe 3d 40 1d 70 01 c0
       -3.057798 -2.640496 2.9686856 -2.0224679
0003e0 14 eb 0b c0 36 06 63 c0 bc 46 b0 40 57 00 49 c0
       -2.186223 -3.547254 5.5086346 -3.1406457
0003f0 fa 6f 93 bf fe 25 1f 40 ab 13 29 3f 32 f4 34 bf
       -1.1518548 2.4866939 0.66045636 -0.7068511

weight f4 [256, 256]
000000 3d f4 08 3f f6 02 03 bf fb e9 3b bf a7 3e 45 bf
       0.5349768 -0.51176393 -0.734039 -0.77048725
000010 26 59 0a be 5f c5 58 bf 45 e6 0c c0 52 a4 3a be
       -0.1351057 -0.84676164 -2.2015545 -0.18226746
000020 ed b0 8b bf 3e 52 ae bf eb e2 d7 3b 74 d9 e2 3c
       -1.0913368 -1.3618848 0.00658833 0.02769158
000030 b4 87 e9 bf 7e ef cc be 36 c2 08 bf d1 fc 24 bf
       -1.8244538 -0.40026468 -0.5342134 -0.6444827
000040 4d 84 98 bf 33 0b 9d be 7f ed 28 be 0d 00 9d bf
       -1.1915375 -0.30672607 -0.16496848 -1.226564
000050 da 96 74 3e 79 12 2b 3f 50 71 91 bf 0f 0d 82 bf
       0.2388567 0.6682506 -1.1362705 -1.0160235
000060 2c 2c c1 bf 21 32 eb be 52 2f 80 3c ee ce 33 bf
       -1.5091605 -0.45936683 0.015647564 -0.70237625
000070 b6 ee 88 3e be 52 6c be 7f e7 38 be 72 94 86 bf
       0.26744622 -0.23078439 -0.18057059 -1.0514052
000080 a0 f3 2c 3f bb 98 c1 bb 87 93 92 bf 0d 4e 0d 3f
       0.6755924 -0.0059080995 -1.1451272 0.5519722
000090 79 8b 9d 3f 23 15 d2 be 6f 04 6f 3d e9 e1 64 3f
       1.2308189 -0.4103175 0.058353838 0.8940721
0000a0 e8 6e 4b bf 87 48 99 bf db ac 42 be 94 d2 87 bf
       -0.79466105 -1.1975259 -0.19011252 -1.0611138
0000b0 0d 8c 83 bf 64 14 aa bf ff 66 36 3f f7 03 00 c0
       -1.0277115 -1.3287473 0.7125091 -2.000242
0000c0 c6 e6 4d bf 4e a8 3b bf 3b 8f 8e bd 0b ce ea be
       -0.8043026 -0.7330369 -0.06960913 -0.45860323
0000d0 2d ca 01 bf 3b e9 25 bf a8 6c 45 3e 99 fb 5f bf
       -0.5069912 -0.64809006 0.1927973 -0.8749328
0000e0 e6 46 c6 be 29 7d 3b 3f a9 59 36 c0 7f fb 08 3f
       -0.38725966 0.73237854 -2.8492224 0.5350875
0000f0 49 d4 b1 bf 2b 44 53 bf 8c f0 a1 bf c4 48 56 bd
       -1.3892909 -0.8252589 -1.2651534 -0.05231549
000100 71 3c 81 bf d4 7a 22 3f e0 e0 6e bd 32 9c 69 bf
       -1.009657 0.6346867 -0.058319926 -0.9125396
000110 a9 76 00 bf 4e 29 b6 bf 91 67 3d bf 99 5e 3a 3f
       -0.5018106 -1.4231355 -0.73986155 0.72800595
000120 ca 68 08 bf cd 89 4e bf 70 98 bb 3d 27 29 3f 3f
       -0.53284895 -0.8067902 0.091599345 0.7467217
000130 22 32 cf bf 4f 82 ef bd 3e ed 8b bf 4f cc 78 bf
       -1.6187174 -0.11694776 -1.0931776 -0.9718675
000140 84 5d b5 be 35 16 c3 bf c4 e5 03 3f 9d ea 0e bf
       -0.3542291 -1.5241152 0.5152247 -0.5582674
000150 ff c0 64 3d fb 71 0a bf 32 5c a8 3e 88 bc 9a 3c
       0.055848118 -0.5408017 0.3288284 0.018888727
000160 ed cf 8e be 93 20 46 3e 06 66 0b 3f 4c cd 8c 3f
       -0.2789301 0.19348364 0.5445255 1.1000152
000170 f2 73 ec bd 88 81 24 3f 32 7c b4 bf 1e 11 dd 3e
       -0.11545552 0.6426015 -1.4100401 0.43177122
000180 20 64 05 bf 64 87 b9 3e c9 8a 7a be fb e5 99 bf
       -0.52105904 0.36236107 -0.24467005 -1.202331
000190 1d 68 f2 bd 5e c2 0d bf c7 66 c1 3f 38 a0 1a bf
       -0.11836264 -0.55374706 1.510949 -0.60400724
0001a0 a8 8e 42 bf 5f 9b a4 3e 58 b2 ad bf 52 ee 87 bf
       -0.75998926 0.3214979 -1.3570051 -1.0619605
0001b0 6a ad 96 3d ea 45 83 be 05 ad e1 3d 72 9e 27 bd
       0.07357295 -0.25639278 0.11019329 -0.04092259
0001c0 14 83 0d bf bc 26 f8 bd e1 43 6e 3f 4e b5 97 be
       -0.55278134 -0.12116763 0.93072325 -0.29630512
0001d0 5a b5 a5 3e 9e 7f 67 3f 89 3b 80 bf be 7a 0c bf
       0.32364923 0.90429103 -1.0018169 -0.5487479
0001e0 c1 af a8 bf 8c 40 eb be 74 ad 15 3f a2 ef d7 bd
       -1.3178636 -0.45947683 0.58467793 -0.10543753
0001f0 91 11 17 c0 f4 92 86 bd a8 4a 85 be 03 98 f5 be
       -2.3604472 -0.06570998 -0.2603352 -0.47967538
000200 9e 23 14 bf f3 44 5f bf 48 7d a8 be bb 98 7a bf
       -0.5786685 -0.87214583 -0.32908082 -0.978893
000210 8c 39 88 bf c6 b7 14 bf 91 bb 01 3e 29 aa 40 bf
       -1.0642562 -0.58092916 0.12669207 -0.75259644
000220 7e 48 3e bf 57 f0 cb bf e3 c1 e0 be b7 be 40 3f
       -0.74329364 -1.5932721 -0.43897924 0.7529101
000230 0a d5 48 bf e4 33 8b bf ef 3f a0 be 29 d0 b8 bf
       -0.7845007 -1.0875211 -0.31298777 -1.4438525
000240 de 28 e0 be 83 62 6e be 32 b5 c5 bc 9f b3 03 3f
       -0.4378118 -0.23279767 -0.024134252 0.51445955
000250 aa 69 9f 3e 8a a7 c5 bd e1 1e 38 bd fc 19 f5 3e
       0.31135303 -0.09651096 -0.044951323 0.47871387
000260 0b b9 96 be fe cf be 3e 67 b9 db 3f c6 15 29 bf
       -0.29438052 0.3726806 1.7165955 -0.6604885
000270 90 29 93 be c9 9c 36 bf ce 5f af 3e 47 55 b9 bf
       -0.28742647 -0.71332985 0.3425278 -1.447915
000280 ad 40 83 3e 0a 51 8c bf 0a 2e 61 be 0e d6 11 be
       0.2563528 -1.0962231 -0.21990219 -0.14241812
000290 47 2b bb bf 72 a0 82 bf 4b b9 01 bf 2f 6c 34 be
       -1.4622582 -1.0205214 -0.5067336 -0.17619394
0002a0 52 7c e2 bf bb 1a 08 bf 34 85 f5 be 5c dd 9d be
       -1.769419 -0.5316579 -0.47953188 -0.30832946
0002b0 e7 98 9c be 8c ed 96 bf 2b 8a a7 bf 19 60 43 3f
       -0.30585405 -1.1791244 -1.308904 0.7631851
0002c0 de 5c 1f be d4 4c 1f 3f 82 53 2d 3f c5 98 30 bf
       -0.1556277 0.62226605 0.6770555 -0.6898311
0002d0 6f 53 33 bf 33 f2 ca 3e 90 63 02 c0 5c 49 34 3e
       -0.70049185 0.39637908 -2.0373268 0.1760611
0002e0 8a 62 06 bf 2e 10 ac 3f 81 7c 12 bf b3 dc 7b bf
       -0.5249411 1.3442438 -0.5722123 -0.98383635
0002f0 05 54 24 bf 72 61 b6 3e dd 7b 88 bf c3 77 b4 3f
       -0.64190704 0.3562122 -1.06628 1.4099048
000300 60 9f 4c bf c0 cd 93 bf 7b 19 f6 3d 9e 6d 72 3f
       -0.79930687 -1.1547165 0.12016579 0.9469851
000310 f3 e7 da bf c6 95 bc 3f 84 0f bc be 41 ab 43 c0
       -1.7102035 1.4733207 -0.36730587 -3.0573275
000320 d0 db 5f bf 66 2c 4d bf 9d d4 79 bf 29 b4 9b be
       -0.8744478 -0.8014587 -0.9759005 -0.3041089
000330 2b b7 0a bf e4 9f 52 3f c1 d0 be 3f 2f e3 24 bc
       -0.5418574 0.82275224 1.4907457 -0.01006393
000340 71 1a 8a bd 40 41 b0 be 76 f3 da 3e e0 d4 1c 3f
       -0.067433245 -0.34424782 0.4276387 0.6126232
000350 66 18 1e 3f 34 a1 78 bf 93 3b 52 3d c1 80 8e bf
       0.6175598 -0.97120976 0.051326346 -1.1133043
000360 58 56 40 3f df b6 8f be 26 9f 8c 3e 82 48 93 bf
       0.7513175 -0.28069207 0.2746517 -1.1506503
000370 3b d3 ba 3e df 76 12 bf 12 de cb bf 44 c6 cc bf
       0.3648928 -0.5721263 -1.5927145 -1.5998006
000380 60 76 40 bf cb 92 e6 3e a7 0b 7c 3e a3 c6 b7 be
       -0.75180626 0.4503387 0.2461382 -0.35893735
000390 3d e1 8f 3f 98 c5 19 bf fa 49 cb 3e 87 89 70 bf
       1.1240612 -0.6006713 0.39704877 -0.9395985
0003a0 0c 1a 7d bf b8 b5 98 3e 05 47 12 bf 6c 33 e8 3e
       -0.9886787 0.2982614 -0.5713962 0.45351732
0003b0 df 91 ad bf 00 7e d3 bd 24 ed 19 3f 5e 7d a4 bf
       -1.3560141 -0.10326767 0.6012747 -1.2850759
0003c0 5e b3 e1 3e e0 34 0d 3e db 69 86 3f ed 3e 22 3e
       0.4408216 0.13789701 1.0501055 0.15844317
0003d0 86 37 3c bf d8 ea 54 3f 98 2d 91 be 04 91 d3 3e
       -0.7352222 0.83170843 -0.28355098 0.41321576
0003e0 7c 34 fd be e2 57 67 bf 5d 65 20 bf 68 58 9d bf
       -0.49454105 -0.90368474 -0.6265467 -1.2292604
0003f0 46 e8 97 bf 11 a9 83 3f d9 8d dd be e2 22 c3 bd
       -1.1867759 1.028597 -0.43272284 -0.09528138

bias f4 [256]
000000 8e 1a 39 bf a2 08 3c c0 12 09 7d bf f9 1c e0 bc
       -0.72306144 -2.938027 -0.98841965 -0.027357565
000010 24 06 59 be 14 ab 2c bf 24 da 57 bd a8 ec f4 bf
       -0.21193749 -0.67448545 -0.05269827 -1.9134722
000020 9f bb 29 bf 2d d1 d8 bd 92 1e ed be 48 9e 50 bc
       -0.6630191 -0.10586772 -0.46312386 -0.01273305
000030 7e 6c 1b 3e b2 c8 04 bf bc ac e5 bf fa d1 0c b9
       0.15178105 -0.51868737 -1.7943339 -0.00013429663
000040 02 7a a7 bd 16 71 75 bf 6f b5 b9 bd 69 32 5e bb
       -0.08177568 -0.9587568 -0.09067809 -0.0033904559
000050 dc b7 d9 3e d2 96 a7 bf d6 0a f6 bc d8 19 df 3d
       0.42523086 -1.3092902 -0.030034464 0.10893601
000060 27 7e b3 bf cc c0 c3 bf b6 1a da bc 01 b7 fd bf
       -1.4022874 -1.5293212 -0.026624065 -1.9821473
000070 bb b8 46 bf ee 2a 12 40 d4 b6 6d 3b 0e f8 93 38
       -0.77625626 2.2838702 0.0036272304 7.05571e-05
000080 ed 38 41 be 1f 32 91 be d2 8e 5b bd cf 1d 50 bd
       -0.18869372 -0.28358552 -0.053603 -0.050809678
000090 32 a8 d8 bd a4 f3 1e 3e d6 7d 34 bf c9 68 96 bf
       -0.10578956 0.15522629 -0.7050451 -1.1750728
0000a0 b5 76 39 c0 56 ce a8 be c7 40 91 bd 7c 3e c1 bd
       -2.8978703 -0.32969922 -0.070924334 -0.09435746
0000b0 4c 02 08 bc 09 b0 08 40 c4 6a 74 bf 16 a3 c7 bf
       -0.008301329 2.1357443 -0.9547541 -1.5596645
0000c0 7a a7 58 bf f1 f5 d7 bd e2 05 10 3c 9d 63 55 bf
       -0.8463055 -0.105449565 0.008790465 -0.8335512
0000d0 dd ae f8 bf f2 45 79 bf 3f 8b b3 bd df de 63 3e
       -1.9428364 -0.97372353 -0.087667935 0.22252987
0000e0 79 bf fd bf a7 a4 29 be 2a e4 9e 3d d9 eb 06 3e
       -1.9824058 -0.16566716 0.077583626 0.13175906
0000f0 78 d1 2c bf c5 62 64 be 02 da 88 bf ae aa 87 be
       -0.67507124 -0.22303303 -1.0691531 -0.26497406
000100 f1 de a0 bf 89 68 4c c0 b5 e9 ae bd 94 bd c4 bd
       -1.2568036 -3.1938803 -0.0854067 -0.09606472
000110 be be b1 bd df 93 d2 bd cf 10 18 3f ff 9d a3 bf
       -0.08678959 -0.102821104 0.5940065 -1.2782592
000120 fb bf 62 bf 1b d6 e1 be 69 29 37 be b1 4b dc bf
       -0.8857419 -0.44108662 -0.1788689 -1.7210599
000130 3e 64 4e bd eb 87 2a c0 86 40 38 3e 55 33 a0 bf
       -0.050388567 -2.6645458 0.17993364 -1.2515665
000140 63 84 31 bf fc 69 10 bf fa a2 a2 3f 16 43 0e bf
       -0.6934263 -0.5641172 1.2705986 -0.55571115
000150 b2 f0 90 bf 5d a1 cf bf 6c 3f 96 be 46 55 65 3c
       -1.1323454 -1.6221119 -0.29345262 0.013997382
000160 a2 0e e6 3e 04 ab d7 3c f8 bb 13 3f 21 cd b3 bf
       0.4493304 0.026326664 0.5770869 -1.4046975
000170 81 fc 11 bd 25 9d cb bd 83 31 66 bd e6 f5 f4 bf
       -0.035641197 -0.09942082 -0.05619956 -1.9137542
000180 47 f9 3c c0 e7 dc 16 be 02 d9 05 be f9 15 24 b9
       -2.9527147 -0.14732705 -0.13071063 -0.00015648444
000190 8a 43 7d bc 5f 23 ee bf f5 bf d7 be c3 04 aa 3e
       -0.015457997 -1.8604544 -0.4213864 0.33206758
0001a0 b9 d0 bb bd 7b 8e d5 bd 93 2a 99 bf d7 c9 1e be
       -0.0917067 -0.104275666 -1.1966118 -0.15506683
0001b0 ec 2e eb be 1f 70 85 be d5 4e bb bc 29 e8 1f 3e
       -0.45934236 -0.26062104 -0.022864738 0.15615906
0001c0 f2 63 22 c0 9f 7b 94 bd a6 57 3d bf 62 80 88 bf
       -2.5373502 -0.07250141 -0.73961866 -1.0664179
0001d0 6e ed 8f bf b2 37 dc bd e3 9a ce be 31 5c df bf
       -1.1244333 -0.107528105 -0.40352544 -1.745001
0001e0 ee d3 8c 3d b5 5b 81 be b5 22 9e bd 2f c8 0e c0
       0.0687636 -0.2526528 -0.077214636 -2.2309682
0001f0 e2 81 47 bf 1c 4a 2f 3a 68 ee 22 bf 68 e2 e1 be
       -0.7793256 0.00066867634 -0.6364503 -0.44118047
000200 bf ee 78 be 6d d7 ec bf af f3 01 bf 4f 3d a2 bf
       -0.24309824 -1.8503243 -0.50762457 -1.267496
000210 3e 75 5f bf 2f da 7f bf e6 ce c9 3e fe 63 b8 bc
       -0.8728827 -0.99942297 0.39415663 -0.022508617
000220 36 e7 bd bd 40 2d 15 3c ae eb 52 bd b3 84 c5 bf
       -0.092726156 0.009105027 -0.051494293 -1.5431122
000230 89 05 0e 3d 48 3d bf bf 63 06 fc bf 18 3f d9 bf
       0.034673247 -1.4940577 -1.9689449 -1.697238
000240 80 5c ce bd 4b ed a6 bd a0 16 88 bc a4 c8 4d 3a
       -0.10076237 -0.08150729 -0.016612351 0.0007850027
000250 eb d8 5a bc 17 22 be bf ac fd c9 bf af 66 84 bf
       -0.013357381 -1.4854153 -1.578054 -1.0343837
000260 4c f9 a3 bd 11 ce 80 bc 91 09 97 bf 52 5c 9e bd
       -0.08006534 -0.01572326 -1.1799794 -0.077324525
000270 be f8 e6 bd ac 37 8e 3d 32 54 3f bf 39 b6 5f 3f
       -0.112779126 0.06944212 -0.74737847 0.87387425
000280 11 a5 fb bd 21 16 82 bb b9 c0 72 be bb 04 4f bf
       -0.12287343 -0.003969923 -0.2370633 -0.80866593
000290 b8 cd 6a be da 5c f3 bf a7 11 9d bf 80 3d 0b bf
       -0.22930038 -1.9012711 -1.2271012 -0.54390717
0002a0 cf c3 d6 bd 9b 78 2e bf 11 f1 ef bf 3c 96 c0 be
       -0.10486566 -0.6815278 -1.8745443 -0.3761462
0002b0 53 c8 bc be 14 a8 b4 be 1a fd 60 bf a8 be e0 bd
       -0.36871585 -0.35284483 -0.878862 -0.10973865
0002c0 0b 2c d2 3e 5d 4a d7 bd 96 1e ac be 1c 9f 7b bf
       0.41049227 -0.105122305 -0.33617085 -0.98289657
0002d0 ce d1 d0 bf 7d 89 31 3e 75 e5 4d bf 55 d8 8d 3f
       -1.6314027 0.17337604 -0.8042825 1.1081644
0002e0 63 3e d5 bf 56 e7 a5 bd 92 f2 c2 bf 0e b5 ca bb
       -1.6659664 -0.081007645 -1.5230277 -0.006186134
0002f0 0a 46 91 bd 5c d7 c3 bf b6 58 ce bd f6 0f 1a 3d
       -0.07093437 -1.5300097 -0.10075514 0.037612878
000300 8f ab 45 3b af 58 36 bf 69 55 5c bf 63 c0 96 bf
       0.0030162071 -0.7122907 -0.86067826 -1.1777462
000310 58 d7 07 c0 28 ab d7 bd 29 38 51 be 14 64 5e bf
       -2.1225185 -0.10530692 -0.2043158 -0.8687146
000320 04 a6 e8 bd 3e ea d0 bf c6 b8 ca be 3f 1f cb bb
       -0.1135979 -1.6321485 -0.39594096 -0.006198793
000330 d9 2f 20 bd d1 3b 51 bf cb 65 15 40 33 92 48 be
       -0.03910813 -0.817319 2.334338 -0.1958702
000340 7e ce d6 bd bc cf 55 bf 06 43 f3 bd b9 b4 96 bf
       -0.10488604 -0.835201 -0.11878018 -1.1773902
000350 3a 86 91 bf ec bd 77 bf d2 fe f9 be dc 05 06 c0
       -1.1369088 -0.9677417 -0.48827225 -2.0941076
000360 33 a8 e4 bc f7 2d ea bc e0 29 97 3e 43 5b 6f bd
       -0.027912235 -0.02858637 0.29524136 -0.058436643
000370 22 99 27 3e 97 a5 3a bf 53 80 a0 bf 85 57 54 bc
       0.1636701 -0.7290892 -1.2539161 -0.012960319
000380 3b 5a 28 c0 7c 64 60 bd b7 9e c7 bd 04 75 c2 bf
       -2.6305072 -0.05478333 -0.09747069 -1.519196
000390 0d c2 17 be e3 3f 85 bf 4e 8b c6 3f 3d 84 15 bf
       -0.14820118 -1.0410122 1.5511262 -0.58404905
0003a0 6a 27 79 bf d4 a7 9d be 4a 63 5c bf ea b9 1f 3e
       -0.97325766 -0.30792105 -0.86089003 0.15598264
0003b0 3b cb a1 bc 00 5e 49 bf b9 eb 85 bf 23 1b b6 be
       -0.019750228 -0.7865906 -1.0462562 -0.3556758
0003c0 a6 92 88 bf 21 bf 2a 39 3b 6b 19 c0 96 de 8b be
       -1.0669754 0.00016283664 -2.3971698 -0.27318257
0003d0 4a 68 4c bd f6 52 ad be 8c d3 10 be 7a e4 50 bf
       -0.049904145 -0.33852357 -0.14143199 -0.8159863
0003e0 10 a4 23 be 78 93 11 bd 38 c5 66 3f 8e 83 76 be
       -0.15980554 -0.035541028 0.9014468 -0.24073622
0003f0 df b3 bf bd 72 b0 03 c0 c2 b8 a3 bf 5f e5 d2 bc
       -0.093604796 -2.0576444 -1.2790759 -0.025744138

weight f4 [6, 256]
000000 71 9a 47 3f a2 e6 b1 3f 53 e8 40 bf c1 98 4d bd
       0.77970034 1.3898509 -0.753545 -0.050194506
000010 28 5f e2 bd 68 51 b5 be c2 ff 26 bc 7c 9f 12 3f
       -0.11053306 -0.3541367 -0.010192813 0.57274604
000020 30 20 9e 3f 5d 44 ae 3d aa 49 ab be 09 05 4f bd
       1.2353573 0.08509133 -0.3345464 -0.05054191
000030 4b a2 1f 3b cf 9c 6d 3f bb 60 21 3e 11 92 d1 bb
       0.0024358209 0.92817396 0.15759556 -0.0063955863
000040 40 55 d8 3c 34 8a 7f be c9 f1 87 bd 68 94 a9 bc
       0.026407838 -0.24955064 -0.06637914 -0.020700648
000050 03 16 0b 3e e1 fb 92 3d d9 f7 df 3c 40 3c 97 3c
       0.13582616 0.07176948 0.027339863 0.018461347
000060 f9 92 81 3e 1b 91 07 bf 26 e1 cc b9 2c dd e3 3f
       0.25307444 -0.5295579 -0.0003907766 1.7801871
000070 60 2d 46 be 0e 8c 06 bf 0f 56 75 bd 15 06 16 bd
       -0.19353247 -0.52557456 -0.059896525 -0.036626894
000080 b0 ef 86 3f cc 06 87 be a9 a5 4c bc 61 37 18 3d
       1.0541897 -0.26372373 -0.012490668 0.03716219
000090 93 5a c1 3c 90 11 4b 3d c0 64 9e 3e 95 41 89 3f
       0.02360276 0.049577296 0.3093624 1.0723139
0000a0 d7 c5 b6 bf f2 96 29 3d 30 69 62 3c f3 42 5f 3d
       -1.4279126 0.04140372 0.013819024 0.054507207
0000b0 8d a8 20 bd 3f b4 65 be 38 8d 41 3f 28 75 82 bf
       -0.039223243 -0.2243204 0.7560611 -1.0192003
0000c0 a8 5a c4 3e 01 85 bb 3d 6e b2 14 bd 0f e5 16 bd
       0.38350415 0.09156228 -0.036302976 -0.03683954
0000d0 29 0b d5 3f 8c ad 98 3b 8a c2 38 3c 47 f0 d5 be
       1.6644031 0.0046593603 0.0112768505 -0.4178488
0000e0 46 2a 79 bc e9 a3 93 3d 9a 0b 16 3e e2 b7 c7 bd
       -0.015207833 0.07208998 0.14652863 -0.0975187
0000f0 f1 39 5d bf 7b 81 51 3d b1 cd 83 3f ce db 79 be
       -0.86416537 0.051148873 1.0297147 -0.24400255
000100 6d 3d 02 be 2a ad 8a 3f e6 aa 50 bf fd 1c e2 bb
       -0.12718745 1.0834095 -0.8151077 -0.0069004283
000110 a1 4c 93 3d 1c af fc bc 29 3d 29 bf ae b4 41 bf
       0.0719235 -0.030845217 -0.6610895 -0.7566632
000120 61 2d d1 be b7 09 48 3d 92 1a b1 3e 46 7a 02 c0
       -0.40854934 0.04883739 0.34590584 -2.038713
000130 a4 7f e6 bc 84 82 bc 3e 39 1d 39 3e 83 c1 3f bf
       -0.028137036 0.36818326 0.18077554 -0.7490465
000140 e5 74 4f bd 7c d5 fb 3c 66 81 2f 3d 97 02 14 bf
       -0.05064859 0.030741446 0.042848013 -0.5781645
000150 49 16 39 40 06 d0 c9 3e de fc 5f 3d 1f 5e 44 3d
       2.8919852 0.39416522 0.054684512 0.047941323
000160 09 83 ca 3e b2 19 20 3e de 1e 1e 3f 23 99 04 3f
       0.39553097 0.15634802 0.6176585 0.5179617
000170 1f 10 ab 3c 29 9a fc 3b 0b 63 b5 3c a3 85 11 bd
       0.02088171 0.007708807 0.022141954 -0.035527837
000180 e4 56 88 bc fd a8 19 bd 1c 4e 3c be 98 be 92 bc
       -0.016642995 -0.037514675 -0.18389171 -0.017913148
000190 65 2c 0d 3f ab eb 26 3f 4a 23 d8 3c f4 d1 24 3e
       0.55145866 0.6520335 0.026384015 0.16095716
0001a0 11 17 a0 bc 86 2d 17 3d 74 2b 9e bf 7e 13 8b 3c
       -0.019542249 0.03690865 -1.2357011 0.016977068
0001b0 be d7 cf bd e6 69 4b 3d b0 fc 81 3d d7 14 13 3f
       -0.101485714 0.04966154 0.063470244 0.57453674
0001c0 d9 95 d6 bd 4d c5 e6 3c d5 31 48 be 64 cb 63 bf
       -0.104778 0.028170252 -0.1955026 -0.88982224
0001d0 d2 81 ae 3e 2e 6e fd ba 1b 69 16 be 48 c5 69 be
       0.3408342 -0.0019335204 -0.14688532 -0.22829163
0001e0 40 fa 75 bf 8e d5 2f be 09 c9 5a bd 41 92 9e 3f
       -0.96084976 -0.17171308 -0.05341438 1.2388383
0001f0 42 5d a3 be 3a 8d c7 3c 9e 8d e8 3c a2 cc 18 3f
       -0.31907088 0.024359334 0.02838784 0.59687245
000200 4a 6a f2 3d 0a dc ac 3f d0 5e af bf 51 cf c2 3e
       0.11836679 1.350465 -1.370081 0.38048795
000210 54 a2 e0 3f 61 c1 0a bd 7e d8 3d 3e d8 78 1d bc
       1.7549539 -0.033875827 0.18539616 -0.009611331
000220 f9 c6 c8 3b 5a 6b 39 3d 27 be 0d bd 8d eb 7d bf
       0.006127235 0.045268394 -0.03460517 -0.99187547
000230 1a c5 92 3e 1d f1 16 be 64 f9 eb 3f ac 5c 19 c0
       0.28666002 -0.14740415 1.8435483 -2.3962812
000240 9d b6 16 3d 3f ba 0e 3c 92 d2 0b 3e a5 46 b6 3b
       0.036795247 0.008711397 0.13654545 0.0055626207
000250 9a 3c 66 3c 56 47 c3 bf 1b 32 33 bf 4f 86 90 be
       0.0140525345 -1.5256145 -0.6999833 -0.2822747
000260 98 c7 97 bd f5 da 64 3c ed 09 10 bf b2 ec 62 bd
       -0.07411116 0.013968219 -0.56265146 -0.05540151
000270 a1 7b de 3c 98 a3 3d 3d e0 4e 0f 3e 1e 60 90 3f
       0.02715856 0.046298593 0.13994932 1.1279333
000280 bb 75 61 3d 9f 14 97 3c 89 12 a5 3c 95 54 13 3f
       0.055043917 0.01844245 0.02015044 0.57550937
000290 6a 40 3d be 97 61 1c bf 59 e4 c7 bf c9 e1 68 3f
       -0.18481603 -0.6108641 -1.5616561 0.9096952
0002a0 39 1b 21 3d 73 34 e2 3e 1b 1e 5c bf 22 6f ec 3e
       0.039332602 0.4418064 -0.8598344 0.46178538
0002b0 54 f8 1f be d3 a8 1b 3e 17 31 47 bf a8 59 e7 bc
       -0.15622073 0.1520112 -0.7780928 -0.028240994
0002c0 53 b9 cc bd 4d bb f0 bc 5b cf 57 3d 16 c9 bc 3d
       -0.09996285 -0.029386187 0.052687984 0.092180416
0002d0 0f 3a ba 3f db 48 f6 bc 25 42 01 bf 2c 6b 36 bf
       1.4548968 -0.030064037 -0.50491554 -0.7125728
0002e0 ba b5 5d bf df f3 7d bc 0b 25 3e bf e8 e7 5f 3c
       -0.8660542 -0.015500038 -0.74275273 0.013666131
0002f0 4a fc 58 3b 3f 3e 20 3f 25 d3 1b bd 70 5b 22 3e
       0.003310936 0.6259498 -0.03804316 0.15855193
000300 2f 73 9c 3e 27 98 f1 bf c0 cc 26 bf f0 b9 2e bc
       0.30556628 -1.8874558 -0.65156174 -0.010664448
000310 0f 37 c8 3d 69 90 a0 3d 55 74 3a 3f d7 ff 27 3d
       0.097761266 0.07840044 0.7283376 0.041015472
000320 14 36 49 3f 9d 69 2d 3f 14 9a 92 3f 31 59 d2 bc
       0.7859814 0.6773928 1.1453271 -0.025677295
000330 f7 82 98 3c e4 ad 1e be dc 03 04 be d5 69 ab be
       0.018617136 -0.15496022 -0.12892097 -0.3347918
000340 d6 92 24 bd 9c 0c d6 3e c8 45 30 bd b9 7e 8a 3f
       -0.040179096 0.41806495 -0.0430353 1.0819923
000350 91 0a f3 3e e0 02 82 be 6a 46 b3 3f f8 87 c3 bf
       0.47469 -0.25392818 1.4005864 -1.5275869
000360 63 e6 27 bd 5c c9 cd 3c bf c5 4e 3f 10 34 93 3c
       -0.0409912 0.02512043 0.80770487 0.017969161
000370 d5 b5 57 ba 90 7e c3 3e f6 04 cb be a7 6b a6 bc
       -0.0008228694 0.38182497 -0.39652222 -0.020315005
000380 3b ba 62 be d8 e4 1a bd e0 a7 05 3e c3 38 09 be
       -0.22141354 -0.0378159 0.1305232 -0.13400559
000390 44 3a 0d 3b 51 19 c1 3d 47 24 75 3e ac 2d 94 3e
       0.0021549622 0.09428657 0.2393962 0.28941095
0003a0 90 f5 45 bf 12 18 c1 3e 72 54 51 bf 8a 44 44 3d
       -0.77327824 0.37713677 -0.8176948 0.047916926
0003b0 89 73 19 3d 68 a2 2b bf 34 e3 46 be f4 9e ce 3f
       0.0374637 -0.6704469 -0.19422609 1.6142259
0003c0 a9 1b 73 3f 15 23 80 bc 81 46 32 bf 48 86 b4 3e
       0.9496408 -0.015641728 -0.6963883 0.35258698
0003d0 86 7e 68 bd bf a8 38 3f e9 ac 28 3d 32 0d 9f 3f
       -0.056761287 0.72132486 0.041180525 1.2425902
0003e0 50 3e 59 3d 62 2a 9e 3c 68 fd a5 be e1 5c ad 3e
       0.05303794 0.01930732 -0.32419896 0.33859923
0003f0 f3 60 8a bc d3 f9 e3 3d b2 8a be bf 2d 26 f4 bc
       -0.016891932 0.111316346 -1.4886076 -0.02980336

bias f4 [6]
000000 7f d2 7e bf 9b 19 25 bf 3a 76 ab bf 7f b2 34 3e
       -0.9953994 -0.64492196 -1.3395455 0.17646216
000010 50 b6 54 40 d5 a6 49 3f
       3.3236275 0.7877019

weight f4 [256, 23]
000000 44 20 17 c1 85 aa 86 3d ac 72 43 3e 67 52 4b 3e
       -9.445377 0.06575493 0.19086713 0.19855653
000010 8e 8e d4 3f 0f f4 99 c0 9b 0a 1c 40 38 e6 89 3e
       1.6606004 -4.8110423 2.4381473 0.26933455
000020 37 7f 9b 3a ff 59 02 bf 10 04 67 3d 55 10 ab 3d
       0.0011863475 -0.50918573 0.05640036 0.083527245
000030 5a 6a ed 3d 4c 33 53 3d dc 23 b9 3e d4 b2 66 3d
       0.115925506 0.051562592 0.3616017 0.056322888
000040 9e ac e3 ba 7a ef 66 be 8f 43 8f bd fd 85 e8 3f
       -0.001737017 -0.2255229 -0.06995308 1.816589
000050 79 5a 49 3d d6 7d 09 3e fc 63 3e be 3a 1d 49 c0
       0.049158547 0.13426909 -0.18592829 -3.1424088
000060 e7 9a d8 be d0 43 24 be 0a b9 ad bf f0 2c 89 3f
       -0.4230568 -0.16041493 -1.3572094 1.0716839
000070 ee c6 0b c0 76 82 03 bc b1 1d 4d 40 60 91 ed be
       -2.1840167 -0.00802671 3.2049372 -0.46399975
000080 b2 8d 33 be fa 79 0c 3f f3 7a 83 bd a7 dd 05 3c
       -0.17534521 0.5487362 -0.06419935 0.008170522
000090 45 b9 0e 3e 9c 34 d0 3e 9a 43 9e 3e 0d 6e 3c bd
       0.13937862 0.40665138 0.3091095 -0.04600339
0000a0 09 c5 8c bf 07 6e 8d 3e 44 04 95 3f 77 86 f8 3e
       -1.099763 0.27623007 1.1641927 0.4854009
0000b0 56 04 4a 3b 96 30 43 be 80 b1 5e 41 bd 93 3a c0
       0.0030825338 -0.19061503 13.918335 -2.9152672
0000c0 4d e5 69 40 4d 9e 51 40 4a de 36 c0 ec d0 5a 40
       3.6546204 3.275287 -2.8573174 3.4190016
0000d0 b1 d8 60 40 4c dd 62 40 ea d9 8b bf dd 9f ef 3e
       3.5132258 3.544757 -1.0925877 0.46801654
0000e0 00 d1 bb be 9c 66 5d be 99 7c 16 be 74 b0 23 3e
       -0.36682892 -0.21621174 -0.14695968 0.1598528
0000f0 a7 38 7b 3e 73 cf 4e 3d 0d 50 1a 3e 84 a9 ab bf
       0.2453333 0.050490808 0.150696 -1.3411107
000100 c7 ae 25 3f e8 74 34 bf d0 ca b6 bf 6a f3 7c 3f
       0.64719814 -0.70490885 -1.4280643 0.9880892
000110 8f 9f 1c be cb 05 e6 40 f2 4b da 3f 7f 10 1a c0
       -0.15295242 7.188207 1.7054427 -2.4072568
000120 e2 95 98 3f 13 7c 71 bf 13 07 21 bf 0e 97 40 c0
       1.1920741 -0.9432995 -0.6290142 -3.0092196
000130 d9 e1 04 3f 1f b9 5f 3e 35 e0 b4 3e 52 0f a3 3e
       0.51907116 0.21847962 0.35327306 0.31847626
000140 8f b6 04 be d9 c7 00 3c 59 d0 1f 3d 18 3a 83 3d
       -0.12960266 0.007860147 0.039017055 0.06407565
000150 ce 9d c3 bd 34 b1 ab bc 76 71 0f 3d 1e bb bf be
       -0.09551583 -0.02095852 0.035020314 -0.37447447
000160 c7 44 fe bd 15 a6 53 3f ff 1e c8 be 1a fa 4f be
       -0.12415462 0.82675296 -0.39086148 -0.2031025
000170 79 38 ea 40 1f 94 a6 be 72 b2 08 bf 55 6c 07 c0
       7.3193936 -0.32534882 -0.53397286 -2.115987
000180 c3 9b c0 3e 9e 1b 17 c0 33 21 3e bf 67 ba 18 c0
       0.37618837 -2.3610606 -0.7426941 -2.386377
000190 c8 97 b1 bf 9a 60 25 40 99 da bf bf 79 0f 72 3e
       -1.3874445 2.584021 -1.4988586 0.23638715
0001a0 d8 97 1e 3e 0d 45 d3 3c 19 cd 84 bd 8f 42 c4 bd
       0.15487611 0.025789762 -0.06484432 -0.095830075
0001b0 db ea be bd 27 a7 ce 3e a3 03 88 bf 5b 83 6b 3f
       -0.09322139 0.40361902 -1.062611 0.9199731
0001c0 cb 62 10 3f e8 70 b6 bf 69 21 b2 be 46 ed 08 40
       0.56400746 -1.4253206 -0.34791115 2.139482
0001d0 5f c8 f3 3d 44 20 0b c1 9e 3a d6 c0 70 ab 88 be
       0.11903452 -8.695377 -6.6946554 -0.26693296
0001e0 be 11 e9 bd aa 67 1d 3f 73 3b 0b 3f 7c 04 c0 bd
       -0.11380337 0.61486304 0.5438759 -0.09375855
0001f0 53 f1 3c 3f ff bb 1f 3f f6 c7 2c be 79 11 3d bd
       0.7380573 0.62396234 -0.16873154 -0.04615924
000200 2b d6 28 bd 9b 6d b2 3d 2a a7 0a 3d c5 6a 0e 3d
       -0.04121987 0.08712312 0.033850826 0.034769792
000210 1d 0a 48 be e4 7c dd 3d 5a 48 b0 3e b1 03 bb be
       -0.19535108 0.108148366 0.344302 -0.36526254
000220 8d 26 c2 be 8e f3 e5 be a9 6f a2 c0 7d 09 c8 40
       -0.37920037 -0.4491238 -5.0761304 6.251158
000230 21 15 7c 3e e2 1a cc 3e 05 3e e3 be 5e 46 24 3e
       0.24617435 0.3986426 -0.44383255 0.16042468
000240 96 53 0e 40 4f 70 a6 3f d9 b3 c8 3e a2 4b f4 bd
       2.2238517 1.3003024 0.39199713 -0.11928488
000250 df 67 97 3e fa 45 e9 3a 3a 8a 13 3d 37 56 8d bb
       0.29571435 0.0017797344 0.036020495 -0.004313256
000260 e1 8d 91 3d 6b 3c 18 3d 92 9d 90 3c 22 ee 7f 3e
       0.071071394 0.037166994 0.01765326 0.24993184
000270 ed 8b 84 3e da 70 19 be f0 f5 32 be 7d 6b 58 3e
       0.25888005 -0.14984456 -0.1747663 0.21134754
000280 f2 bd 10 3e 3a 3b 11 40 35 78 0d 3f 2a e4 d3 3e
       0.14134958 2.26924 0.55261546 0.41385013
000290 7b 4b 39 40 d2 29 c6 bd 85 53 f0 bf 15 c9 94 bd
       2.895232 -0.09675945 -1.8775488 -0.07264916
0002a0 bc e9 54 3f c5 6b 10 bf 33 dc 98 3e e7 16 a5 be
       0.8316915 -0.56414443 0.298555 -0.32244036
0002b0 05 0f 29 3d b9 6c 87 bd 12 b5 db 38 de 48 c0 be
       0.04127409 -0.06612534 0.00010476461 -0.37555593
0002c0 a4 45 dc be e2 8a 06 be 55 8a fa bf 6c 29 8f 3e
       -0.43021882 -0.13138917 -1.9573466 0.2796129
0002d0 79 f6 1f bc b8 cb 46 be c4 65 d2 be 7b 0a c1 bd
       -0.0097633535 -0.1941365 -0.41093266 -0.09425827
0002e0 99 02 87 40 20 34 3c c0 0a b5 4b bf f9 a9 14 bf
       4.219067 -2.9406815 -0.7957312 -0.5807186
0002f0 e5 62 30 bf ff bd 4a 40 78 57 99 40 55 4c f6 3d
       -0.689009 3.1678464 4.7919273 0.12026278
000300 9f 69 f1 be 16 0d 72 bf e1 07 fc 3e a4 2a 8d 3c
       -0.47150895 -0.9455122 0.4922476 0.017232247
000310 42 35 78 bd 0b 3b 44 bd ab 23 82 3d a2 09 1b be
       -0.060597666 -0.04790787 0.063544594 -0.15140393
000320 72 0c 9a bd 29 46 1c 3d e5 53 8a bf 0b f5 38 3f
       -0.07521905 0.038152847 -1.0806853 0.72248906
000330 0f 67 0d 3f 72 1c 30 3e c3 91 60 bf ac 69 91 40
       0.5523538 0.17198351 -0.87722415 4.5441494
000340 78 64 39 bf 04 00 83 be 43 85 04 40 1a 0f 50 40
       -0.7241893 -0.2558595 2.0706336 3.2509217
000350 92 55 b4 3e 7f e5 02 40 b1 ff 89 3f dc dd a1 bf
       0.35221535 2.0452573 1.0781156 -1.2645831
000360 47 2f 5a 3e a1 a3 2f bf 98 ba 36 3d a7 43 3b be
       0.21307097 -0.6860905 0.044611543 -0.18287526
000370 63 b9 71 be bd 37 4d bd 53 83 55 3e cf eb a3 3c
       -0.23605876 -0.050101984 0.20850877 0.020009903
000380 6f 85 9a bf 45 fe 9f 3f 7e 41 c5 3f e7 d1 63 bf
       -1.2071971 1.2499472 1.5410612 -0.8899216
000390 e1 2a 4e be b6 00 da bf 84 22 14 41 64 2c 6a c0
       -0.20133545 -1.7031467 9.258427 -3.6589594
0003a0 bd d9 34 3f 25 7e 3e be b6 ce cd bc 95 cb 98 c0
       0.7064474 -0.18602808 -0.025122982 -4.7748513
0003b0 f8 43 21 40 0a 68 8c 3e cc ef ba 3e 5f d1 17 40
       2.5197735 0.27423126 0.36511075 2.372154
0003c0 4b 1e 43 bf 0f 8b 24 3b 54 3c 86 3d 7b e1 b3 bc
       -0.762181 0.00251073 0.065544754 -0.021958103
0003d0 25 26 65 be 51 d8 96 bd e4 4a 5a 3a a2 eb c6 3f
       -0.22377832 -0.07365478 0.00083271996 1.554066
0003e0 ac f3 6b 3f e7 d6 fb bd 1e 15 f2 3e 41 7f 05 bf
       0.9216869 -0.12296849 0.47281736 -0.521473
0003f0 0d cc f8 3d 84 b4 9c 3f 09 70 4b 3f 35 c9 81 40
       0.121482946 1.2242589 0.7946783 4.0558114

bias f4 [256]
000000 f5 ff b2 c0 b2 9b 8d c0 07 9c e4 bf e3 a9 af c0
       -5.5937448 -4.425256 -1.7860116 -5.489488
000010 f1 06 56 c0 eb be de c0 f4 a9 7d c0 2b 62 44 c0
       -3.3441737 -6.9608054 -3.963498 -3.0684917
000020 f0 b8 83 bf 96 06 76 3e 32 a7 52 be 82 ff 32 c0
       -1.0290813 0.2402595 -0.20571592 -2.796845
000030 2e 4a 9b 3f 38 10 a3 c0 62 45 50 c0 15 61 90 3d
       1.2132013 -5.09573 -3.2542348 0.07049767
000040 91 9a b1 c0 cb 0b 9c bf 95 78 93 c0 95 40 0d 3d
       -5.550118 -1.2191099 -4.6084695 0.03448542
000050 7b 61 54 c0 c4 8a 54 c0 bc 7d c4 bf 2a 2a 98 be
       -3.3184497 -3.3209696 -1.5350871 -0.2971967
000060 21 a3 4f c0 94 94 73 40 18 6c c8 40 c7 e4 82 c0
       -3.2443316 3.8059435 6.263195 -4.090427
000070 17 5a 49 c0 7d aa f1 c0 0f e4 84 c0 21 0d a2 c0
       -3.1461236 -7.5520616 -4.152839 -5.0641026
000080 8b 36 c1 c0 14 f6 9f bf d4 78 83 c0 1c 7b f5 c0
       -6.037908 -1.2496972 -4.1084995 -7.671278
000090 25 55 46 c0 3b bf 8a c0 41 e4 77 40 bf 49 89 3f
       -3.0989468 -4.3358436 3.8733065 1.072563
0000a0 d1 f5 e9 c0 71 00 9b 40 72 6b 87 bf ef de 29 c0
       -7.311257 4.843804 -1.0579665 -2.6542318
0000b0 de 6e 80 c0 b2 64 ab 40 c6 06 0d c0 02 51 b1 40
       -4.0135336 5.356042 -2.2035384 5.5411386
0000c0 a8 d2 4a c0 1b 1c 79 c0 cc 8c 06 c0 87 13 91 c0
       -3.1691074 -3.8923404 -2.1023436 -4.5336337
0000d0 96 fd a6 c0 59 55 91 3f f4 48 57 c0 b0 1e 0f 3f
       -5.2184553 1.1354171 -3.3638277 0.559062
0000e0 0a 1d 4c 3f 8c 56 4b 40 36 32 7b bf 52 ae c1 bf
       0.7973181 3.1771574 -0.9812349 -1.5131323
0000f0 f9 e4 4a c0 b9 f8 2a 3f 0f 36 f5 3f 18 bf 5e c0
       -3.1702254 0.6678577 1.9157122 -3.4804134
000100 2d b6 95 c0 f0 a0 1d 3f e4 54 91 c0 aa 44 12 40
       -4.6784883 0.61573696 -4.5416126 2.285441
000110 bf eb a4 be 03 6e 49 c0 cd a4 ea bf c5 7e f2 c0
       -0.3221111 -3.1473396 -1.8331543 -7.577975
000120 17 fa c8 c0 91 59 03 40 a5 2c f8 c0 a2 02 69 40
       -6.2805285 2.0523417 -7.75545 3.6407857
000130 7c 74 03 c1 54 b5 1c 40 7d 26 9b c0 fc 60 57 c0
       -8.215939 2.4485674 -4.8484483 -3.3652945
000140 11 9d 76 c0 ea d8 80 40 5e 51 30 c0 20 a0 89 c0
       -3.8533366 4.026479 -2.7549663 -4.3007965
000150 dc 86 18 c0 e8 c5 d3 bf 0c c7 f3 3e cd d3 20 c0
       -2.3832312 -1.6544771 0.47612798 -2.5129273
000160 35 a6 02 bf 8d 9d 03 c0 54 ef 76 40 9b e9 89 40
       -0.5103486 -2.0564911 3.8583574 4.3097663
000170 30 60 b5 c0 90 d2 a3 c0 10 2a 4b c0 0f 16 40 c0
       -5.6679916 -5.1194534 -3.1744423 -3.0013463
000180 5c 2e 3c c0 69 3c 3a c0 e0 48 09 c0 4e f8 82 c0
       -2.9403296 -2.9099371 -2.145073 -4.0928106
000190 f5 23 7f c0 3f 62 87 c0 62 ad 87 c0 2d e4 ca 40
       -3.9865696 -4.230743 -4.239915 6.3403535
0001a0 b8 24 cc bf 06 e2 93 40 ff ca 37 c0 a0 4e 98 c0
       -1.5948706 4.6213408 -2.871765 -4.759598
0001b0 12 cb 70 bf 33 0f 4b c0 0b 7a a4 c0 7d c7 6f c0
       -0.9405986 -3.1728027 -5.139898 -3.7465508
0001c0 79 75 a3 c0 3c a6 4e 3f 27 bd c6 40 01 6e 96 c0
       -5.10809 0.80722404 6.21059 -4.700928
0001d0 2a 2f 95 bf 57 69 d8 bf fe 6e 2e 40 63 3a 02 c0
       -1.1655018 -1.6907147 2.7255244 -2.0348136
0001e0 81 75 28 c0 8d e2 a2 3f f1 04 8f 40 4a 2f 84 c0
       -2.6321719 1.2725388 4.469353 -4.1307726
0001f0 00 51 bf c0 f0 1c ab c0 27 ce 97 c0 78 0e 09 c0
       -5.9786377 -5.3472824 -4.743915 -2.141508
000200 b5 8b cc 3f 6d 1a a2 c0 a7 d9 4c c0 0c a2 b1 bd
       1.5980135 -5.065726 -3.2007844 -0.08673486
000210 c7 63 39 40 f5 9f 87 c0 84 c2 a0 bf d7 a5 84 c0
       2.896715 -4.238276 -1.2559361 -4.145244
000220 d1 f5 aa 3f 7e 11 44 c0 de 90 e3 c0 66 96 9d c0
       1.3356267 -3.0635676 -7.111434 -4.924609
000230 89 05 f7 bf 10 be 68 c0 bd 6c 96 c0 f6 de 72 c0
       -1.9298564 -3.6366005 -4.7007737 -3.7948585
000240 c0 af 71 c0 e5 b3 e1 bf f3 b4 84 c0 ad 45 29 c0
       -3.776352 -1.7633024 -4.1470885 -2.6448777
000250 34 7e 3f c0 9f 5f ac be fc 5c 30 c0 af 41 ba c0
       -2.9920778 -0.33666703 -2.7556753 -5.820518
000260 1d 90 c5 40 a2 b5 8b c0 2d f9 05 c0 f2 f9 89 be
       6.173842 -4.365922 -2.0933335 -0.26948506
000270 61 7b 05 c0 11 0d 6c c0 3c 40 8c c0 e1 be c3 40
       -2.0856555 -3.6882975 -4.382841 6.1170506
000280 f3 23 76 bf 52 68 20 c0 5e d2 a2 bf f1 b1 8a c0
       -0.96148604 -2.5063672 -1.2720449 -4.3342214
000290 4c ec 4d c0 fd a1 42 c0 df 0e a4 c0 9d 80 a1 40
       -3.2175474 -3.041137 -5.1268153 5.04695
0002a0 c7 8a 2d 3e ad e9 8b c0 87 d1 a6 c0 66 66 a0 c0
       0.1694747 -4.372275 -5.213077 -5.0125
0002b0 cb d6 50 c0 02 f2 ae c0 5b c0 b8 bf d8 fc b1 c0
       -3.26311 -5.467042 -1.4433702 -5.5621147
0002c0 cd 91 5b c0 29 df 87 c0 20 d8 dc 3e 03 31 ad 3f
       -3.430774 -4.245991 0.4313364 1.3530582
0002d0 6d 10 8d 3f fc 1d 5d c0 1c ea fb bf 6a a6 15 40
       1.1020638 -3.454955 -1.968082 2.338282
0002e0 95 0c 58 bc a6 49 46 c0 c6 82 ae c0 64 31 79 40
       -0.013186594 -3.0982451 -5.4534636 3.8936396
0002f0 4b e5 01 3f 25 c4 55 c0 a2 ef 7a 40 0e c0 3b 40
       0.507405 -3.3400967 3.920876 2.933597
000300 cb eb e0 bf c9 6e 8c c0 31 d0 3e c0 17 08 50 40
       -1.7571958 -4.3885236 -2.981457 3.2504938
000310 06 72 ba c0 ef c4 43 c0 ce d2 20 40 67 3b 98 c0
       -5.826419 -3.0588949 2.5128665 -4.7572513
000320 bb d8 bd bf 94 18 3a 3e a1 7f 69 3f 95 a6 88 40
       -1.4831766 0.18173438 0.9121037 4.2703347
000330 79 a9 40 c0 f8 b9 87 c0 d2 10 9c c0 02 77 80 c0
       -3.0103438 -4.2414513 -4.8770533 -4.0145273
000340 2f 89 7f c0 01 b8 a4 c0 52 bb a8 c0 ba 0a d5 3f
       -3.992748 -5.1474614 -5.2728662 1.6643898
000350 37 f6 33 40 2e 6a 8e c0 1f 73 61 c0 66 8d b9 c0
       2.8119028 -4.4504614 -3.5226514 -5.7985106
000360 30 fe af c0 93 8b 5c 40 24 17 5f c0 5a c2 65 c0
       -5.4997787 3.446019 -3.4857874 -3.5899873
000370 40 47 fb 3f 88 af ab 40 66 8c 30 c0 4d c0 be be
       1.9631119 5.365177 -2.7585692 -0.3725609
000380 71 19 6b c0 d3 ef 91 3e 27 b3 7a c0 c1 16 e0 3e
       -3.6734278 0.28503284 -3.9171846 0.4376736
000390 8b cc b8 c0 fe a0 9b 40 e5 90 45 3e e8 e8 a8 c0
       -5.7749686 4.8634024 0.19293554 -5.278431
0003a0 89 2f 90 c0 74 7d 6d c0 25 5a 99 c0 d3 c0 f2 3f
       -4.5058026 -3.710782 -4.792254 1.8965095
0003b0 d0 08 a2 bf 08 de 10 c0 05 68 a2 c0 cb 1d 37 c0
       -1.2658939 -2.2635517 -5.0751977 -2.8611934
0003c0 5d 1c a1 c0 e0 6d 4a 40 e1 6e 8d bf bb 2b a8 c0
       -5.0347123 3.1629562 -1.1049463 -5.255338
0003d0 b2 c7 b3 40 6e c1 18 c0 55 16 86 40 8a 7f b1 40
       5.618127 -2.386806 4.190226 5.5468187
0003e0 6a 50 83 c0 29 2d b8 bf 8c bc fb bf 1d c8 fd bf
       -4.103566 -1.4388782 -1.9666915 -1.9826695
0003f0 35 40 25 c0 1a ca 36 40 67 a2 b0 bf c8 61 84 c0
       -2.582044 2.8560853 -1.3799561 -4.136936
